{
  "{\"x\":\"bf16[1024,4096]\",\"labels\":\"i32[1024]\",\"w\":\"bf16[4096,151936]\",\"reduction\":\"mean\",\"return_residuals\":false}": {
    "{\"b_block_size\":1024,\"v_block_size\":2048}": {
      "compile_time_ms": 746.4800529996864,
      "lower_time_ms": 37.5572769999053,
      "evaluation_times_ms": [
        4.421036,
        4.425294,
        4.426989,
        4.424303,
        4.420367
      ],
      "metadata": {},
      "peak_memory_mb": 2565.875722
    }
  },
  "{\"x\":\"bf16[1024,4096]\",\"labels\":\"i32[1024]\",\"w\":\"bf16[4096,151936]\",\"reduction\":\"mean\",\"return_residuals\":true}": {
    "{\"b_block_size\":1024,\"v_block_size\":2048}": {
      "compile_time_ms": 90.30855799983328,
      "lower_time_ms": 17.952692000108073,
      "evaluation_times_ms": [
        4.432751,
        4.425648,
        4.428783,
        4.429678,
        4.42302
      ],
      "metadata": {},
      "peak_memory_mb": 2565.875738
    }
  },
  "{\"x\":\"f32[1024,4096]\",\"labels\":\"i32[1024]\",\"w\":\"bf16[4096,151936]\",\"reduction\":\"mean\",\"return_residuals\":false}": {
    "{\"b_block_size\":1024,\"v_block_size\":2048}": {
      "compile_time_ms": 848.4487109999463,
      "lower_time_ms": 29.655492999609123,
      "evaluation_times_ms": [
        7.694379,
        7.707849,
        7.69793,
        7.697994,
        7.681002
      ],
      "metadata": {},
      "peak_memory_mb": 2595.241992
    }
  },
  "{\"x\":\"f32[1024,4096]\",\"labels\":\"i32[1024]\",\"w\":\"bf16[4096,151936]\",\"reduction\":\"mean\",\"return_residuals\":true}": {
    "{\"b_block_size\":1024,\"v_block_size\":2048}": {
      "compile_time_ms": 89.56941799988272,
      "lower_time_ms": 17.96816999967632,
      "evaluation_times_ms": [
        7.6580580000000005,
        7.664332,
        7.6624740000000005,
        7.663562,
        7.661771
      ],
      "metadata": {},
      "peak_memory_mb": 2595.242008
    }
  },
  "{\"x\":\"bf16[1024,4096]\",\"labels\":\"i32[1024]\",\"w\":\"bf16[4096,151936]\",\"reduction\":\"sum\",\"return_residuals\":false}": {
    "{\"b_block_size\":1024,\"v_block_size\":2048}": {
      "compile_time_ms": 139.10625599964987,
      "lower_time_ms": 22.832748999917385,
      "evaluation_times_ms": [
        4.434735,
        4.436111,
        4.43544,
        4.431598,
        4.432975
      ],
      "metadata": {},
      "peak_memory_mb": 2565.875722
    }
  },
  "{\"x\":\"bf16[1024,4096]\",\"labels\":\"i32[1024]\",\"w\":\"bf16[4096,151936]\",\"reduction\":\"sum\",\"return_residuals\":true}": {
    "{\"b_block_size\":1024,\"v_block_size\":2048}": {
      "compile_time_ms": 789.548171999968,
      "lower_time_ms": 35.534413000050336,
      "evaluation_times_ms": [
        4.43208,
        4.418481,
        4.42891,
        4.41342,
        4.412907
      ],
      "metadata": {},
      "peak_memory_mb": 2565.875738
    }
  },
  "{\"x\":\"f32[1024,4096]\",\"labels\":\"i32[1024]\",\"w\":\"bf16[4096,151936]\",\"reduction\":\"sum\",\"return_residuals\":false}": {
    "{\"b_block_size\":1024,\"v_block_size\":2048}": {
      "compile_time_ms": 461.168468999972,
      "lower_time_ms": 29.495598000039536,
      "evaluation_times_ms": [
        7.701608,
        7.6927769999999995,
        7.692201,
        7.692168,
        7.69022
      ],
      "metadata": {},
      "peak_memory_mb": 2595.241992
    }
  },
  "{\"x\":\"f32[1024,4096]\",\"labels\":\"i32[1024]\",\"w\":\"bf16[4096,151936]\",\"reduction\":\"sum\",\"return_residuals\":true}": {
    "{\"b_block_size\":1024,\"v_block_size\":2048}": {
      "compile_time_ms": 95.91998700000204,
      "lower_time_ms": 19.50598100006573,
      "evaluation_times_ms": [
        7.677247,
        7.681212,
        7.668921,
        7.678134,
        7.681788
      ],
      "metadata": {},
      "peak_memory_mb": 2595.242008
    }
  },
  "{\"x\":\"bf16[2048,4096]\",\"labels\":\"i32[2048]\",\"w\":\"bf16[4096,151936]\",\"reduction\":\"mean\",\"return_residuals\":false}": {
    "{\"b_block_size\":1024,\"v_block_size\":2048}": {
      "compile_time_ms": 403.9471329999742,
      "lower_time_ms": 24.621883000008893,
      "evaluation_times_ms": [
        9.18093,
        9.17715,
        9.179487,
        9.176577,
        9.166974
      ],
      "metadata": {},
      "peak_memory_mb": 2582.657048
    }
  },
  "{\"x\":\"bf16[2048,4096]\",\"labels\":\"i32[2048]\",\"w\":\"bf16[4096,151936]\",\"reduction\":\"mean\",\"return_residuals\":true}": {
    "{\"b_block_size\":1024,\"v_block_size\":2048}": {
      "compile_time_ms": 190.99922099997002,
      "lower_time_ms": 17.719884000030106,
      "evaluation_times_ms": [
        9.120416,
        9.126248,
        9.124422,
        9.113696,
        9.122695
      ],
      "metadata": {},
      "peak_memory_mb": 2582.66116
    }
  },
  "{\"x\":\"f32[2048,4096]\",\"labels\":\"i32[2048]\",\"w\":\"bf16[4096,151936]\",\"reduction\":\"mean\",\"return_residuals\":false}": {
    "{\"b_block_size\":1024,\"v_block_size\":2048}": {
      "compile_time_ms": 290.03739199993106,
      "lower_time_ms": 23.683413000071596,
      "evaluation_times_ms": [
        16.573901,
        16.58033,
        16.575059,
        16.569867,
        16.576691
      ],
      "metadata": {},
      "peak_memory_mb": 2628.80054
    }
  },
  "{\"x\":\"f32[2048,4096]\",\"labels\":\"i32[2048]\",\"w\":\"bf16[4096,151936]\",\"reduction\":\"mean\",\"return_residuals\":true}": {
    "{\"b_block_size\":1024,\"v_block_size\":2048}": {
      "compile_time_ms": 191.5138729999626,
      "lower_time_ms": 17.60313199997654,
      "evaluation_times_ms": [
        16.538702,
        16.542958,
        16.596588,
        16.579853,
        16.58177
      ],
      "metadata": {},
      "peak_memory_mb": 2628.808748
    }
  },
  "{\"x\":\"bf16[2048,4096]\",\"labels\":\"i32[2048]\",\"w\":\"bf16[4096,151936]\",\"reduction\":\"sum\",\"return_residuals\":false}": {
    "{\"b_block_size\":1024,\"v_block_size\":2048}": {
      "compile_time_ms": 103.2751540000163,
      "lower_time_ms": 22.69373199999336,
      "evaluation_times_ms": [
        9.101165,
        9.102255,
        9.105226,
        9.10353,
        9.099981
      ],
      "metadata": {},
      "peak_memory_mb": 2582.657048
    }
  },
  "{\"x\":\"bf16[2048,4096]\",\"labels\":\"i32[2048]\",\"w\":\"bf16[4096,151936]\",\"reduction\":\"sum\",\"return_residuals\":true}": {
    "{\"b_block_size\":1024,\"v_block_size\":2048}": {
      "compile_time_ms": 111.43092500003604,
      "lower_time_ms": 18.254776999924616,
      "evaluation_times_ms": [
        9.187986,
        9.194694,
        9.194637,
        9.194001,
        9.19252
      ],
      "metadata": {},
      "peak_memory_mb": 2582.66116
    }
  },
  "{\"x\":\"f32[2048,4096]\",\"labels\":\"i32[2048]\",\"w\":\"bf16[4096,151936]\",\"reduction\":\"sum\",\"return_residuals\":false}": {
    "{\"b_block_size\":1024,\"v_block_size\":2048}": {
      "compile_time_ms": 104.6989129999929,
      "lower_time_ms": 24.528761999931703,
      "evaluation_times_ms": [
        16.516207,
        16.517956,
        16.500749,
        16.486119,
        16.488646
      ],
      "metadata": {},
      "peak_memory_mb": 2628.80054
    }
  },
  "{\"x\":\"f32[2048,4096]\",\"labels\":\"i32[2048]\",\"w\":\"bf16[4096,151936]\",\"reduction\":\"sum\",\"return_residuals\":true}": {
    "{\"b_block_size\":1024,\"v_block_size\":2048}": {
      "compile_time_ms": 106.425521999995,
      "lower_time_ms": 17.7542410000342,
      "evaluation_times_ms": [
        16.562432,
        16.561991,
        16.529344000000002,
        16.534874,
        16.54605
      ],
      "metadata": {},
      "peak_memory_mb": 2628.808748
    }
  },
  "{\"x\":\"bf16[4096,4096]\",\"labels\":\"i32[4096]\",\"w\":\"bf16[4096,151936]\",\"reduction\":\"mean\",\"return_residuals\":false}": {
    "{\"b_block_size\":1024,\"v_block_size\":2048}": {
      "compile_time_ms": 242.45503099996313,
      "lower_time_ms": 24.945286999923155,
      "evaluation_times_ms": [
        17.453071,
        17.440457,
        17.434893,
        17.438308,
        17.421102
      ],
      "metadata": {},
      "peak_memory_mb": 2599.442456
    }
  },
  "{\"x\":\"bf16[4096,4096]\",\"labels\":\"i32[4096]\",\"w\":\"bf16[4096,151936]\",\"reduction\":\"mean\",\"return_residuals\":true}": {
    "{\"b_block_size\":1024,\"v_block_size\":2048}": {
      "compile_time_ms": 187.72173000002113,
      "lower_time_ms": 17.922589999898264,
      "evaluation_times_ms": [
        17.408262,
        17.416518,
        17.405804,
        17.39598,
        17.393874
      ],
      "metadata": {},
      "peak_memory_mb": 2599.450664
    }
  },
  "{\"x\":\"f32[4096,4096]\",\"labels\":\"i32[4096]\",\"w\":\"bf16[4096,151936]\",\"reduction\":\"mean\",\"return_residuals\":false}": {
    "{\"b_block_size\":1024,\"v_block_size\":2048}": {
      "compile_time_ms": 233.8851040000236,
      "lower_time_ms": 25.00008100003015,
      "evaluation_times_ms": [
        32.214195,
        32.278724,
        32.288052,
        32.283986,
        32.279462
      ],
      "metadata": {},
      "peak_memory_mb": 2662.363164
    }
  },
  "{\"x\":\"f32[4096,4096]\",\"labels\":\"i32[4096]\",\"w\":\"bf16[4096,151936]\",\"reduction\":\"mean\",\"return_residuals\":true}": {
    "{\"b_block_size\":1024,\"v_block_size\":2048}": {
      "compile_time_ms": 228.00080400008937,
      "lower_time_ms": 17.703365999977905,
      "evaluation_times_ms": [
        32.138493,
        32.155495,
        32.222682,
        32.162463,
        32.171843
      ],
      "metadata": {},
      "peak_memory_mb": 2662.379564
    }
  },
  "{\"x\":\"bf16[4096,4096]\",\"labels\":\"i32[4096]\",\"w\":\"bf16[4096,151936]\",\"reduction\":\"sum\",\"return_residuals\":false}": {
    "{\"b_block_size\":1024,\"v_block_size\":2048}": {
      "compile_time_ms": 110.26915500008272,
      "lower_time_ms": 22.96430900003088,
      "evaluation_times_ms": [
        17.529094,
        17.529217,
        17.52978,
        17.528904,
        17.517016
      ],
      "metadata": {},
      "peak_memory_mb": 2599.442456
    }
  },
  "{\"x\":\"bf16[4096,4096]\",\"labels\":\"i32[4096]\",\"w\":\"bf16[4096,151936]\",\"reduction\":\"sum\",\"return_residuals\":true}": {
    "{\"b_block_size\":1024,\"v_block_size\":2048}": {
      "compile_time_ms": 108.0427659999259,
      "lower_time_ms": 17.93329100007668,
      "evaluation_times_ms": [
        17.357407,
        17.362171,
        17.359112,
        17.349862,
        17.341375
      ],
      "metadata": {},
      "peak_memory_mb": 2599.450664
    }
  },
  "{\"x\":\"f32[4096,4096]\",\"labels\":\"i32[4096]\",\"w\":\"bf16[4096,151936]\",\"reduction\":\"sum\",\"return_residuals\":false}": {
    "{\"b_block_size\":1024,\"v_block_size\":2048}": {
      "compile_time_ms": 105.14090100002704,
      "lower_time_ms": 22.712950000027377,
      "evaluation_times_ms": [
        32.227341,
        32.300148,
        32.314651,
        32.263784,
        32.242931
      ],
      "metadata": {},
      "peak_memory_mb": 2662.363164
    }
  },
  "{\"x\":\"f32[4096,4096]\",\"labels\":\"i32[4096]\",\"w\":\"bf16[4096,151936]\",\"reduction\":\"sum\",\"return_residuals\":true}": {
    "{\"b_block_size\":1024,\"v_block_size\":2048}": {
      "compile_time_ms": 107.46533700000782,
      "lower_time_ms": 17.567876000043725,
      "evaluation_times_ms": [
        32.210356,
        32.216279,
        32.211717,
        32.135107,
        32.165721
      ],
      "metadata": {},
      "peak_memory_mb": 2662.379564
    }
  },
  "{\"x\":\"bf16[16384,4096]\",\"labels\":\"i32[16384]\",\"w\":\"bf16[4096,151936]\",\"reduction\":\"mean\",\"return_residuals\":false}": {
    "{\"b_block_size\":1024,\"v_block_size\":2048}": {
      "compile_time_ms": 1141.8912499999578,
      "lower_time_ms": 24.57545400000072,
      "evaluation_times_ms": [
        67.370263,
        67.45253,
        67.444648,
        67.48624099999999,
        67.497197
      ],
      "metadata": {},
      "peak_memory_mb": 2700.154904
    }
  },
  "{\"x\":\"bf16[16384,4096]\",\"labels\":\"i32[16384]\",\"w\":\"bf16[4096,151936]\",\"reduction\":\"mean\",\"return_residuals\":true}": {
    "{\"b_block_size\":1024,\"v_block_size\":2048}": {
      "compile_time_ms": 184.3545549999135,
      "lower_time_ms": 18.20395400000052,
      "evaluation_times_ms": [
        66.835211,
        66.868221,
        66.914743,
        66.937116,
        66.958352
      ],
      "metadata": {},
      "peak_memory_mb": 2700.187688
    }
  },
  "{\"x\":\"f32[16384,4096]\",\"labels\":\"i32[16384]\",\"w\":\"bf16[4096,151936]\",\"reduction\":\"mean\",\"return_residuals\":false}": {
    "{\"b_block_size\":1024,\"v_block_size\":2048}": {
      "compile_time_ms": 215.49218099994505,
      "lower_time_ms": 23.581798999998682,
      "evaluation_times_ms": [
        125.87621,
        126.15614,
        126.240974,
        126.113021,
        126.219486
      ],
      "metadata": {},
      "peak_memory_mb": 2863.738908
    }
  },
  "{\"x\":\"f32[16384,4096]\",\"labels\":\"i32[16384]\",\"w\":\"bf16[4096,151936]\",\"reduction\":\"mean\",\"return_residuals\":true}": {
    "{\"b_block_size\":1024,\"v_block_size\":2048}": {
      "compile_time_ms": 208.31441600000744,
      "lower_time_ms": 17.953614000020934,
      "evaluation_times_ms": [
        126.881164,
        126.766196,
        126.750704,
        126.811276,
        126.72614
      ],
      "metadata": {},
      "peak_memory_mb": 2863.80446
    }
  },
  "{\"x\":\"bf16[16384,4096]\",\"labels\":\"i32[16384]\",\"w\":\"bf16[4096,151936]\",\"reduction\":\"sum\",\"return_residuals\":false}": {
    "{\"b_block_size\":1024,\"v_block_size\":2048}": {
      "compile_time_ms": 105.56248000000323,
      "lower_time_ms": 23.00834099992244,
      "evaluation_times_ms": [
        67.11743,
        67.199206,
        67.240966,
        67.160076,
        67.208923
      ],
      "metadata": {},
      "peak_memory_mb": 2700.154904
    }
  },
  "{\"x\":\"bf16[16384,4096]\",\"labels\":\"i32[16384]\",\"w\":\"bf16[4096,151936]\",\"reduction\":\"sum\",\"return_residuals\":true}": {
    "{\"b_block_size\":1024,\"v_block_size\":2048}": {
      "compile_time_ms": 112.01350199996796,
      "lower_time_ms": 17.80340699997396,
      "evaluation_times_ms": [
        67.407876,
        67.480703,
        67.483,
        67.489273,
        67.50633499999999
      ],
      "metadata": {},
      "peak_memory_mb": 2700.187688
    }
  },
  "{\"x\":\"f32[16384,4096]\",\"labels\":\"i32[16384]\",\"w\":\"bf16[4096,151936]\",\"reduction\":\"sum\",\"return_residuals\":false}": {
    "{\"b_block_size\":1024,\"v_block_size\":2048}": {
      "compile_time_ms": 103.66365400000177,
      "lower_time_ms": 22.407522999969842,
      "evaluation_times_ms": [
        126.266406,
        126.228089,
        126.318881,
        126.287778,
        126.374111
      ],
      "metadata": {},
      "peak_memory_mb": 2863.738908
    }
  },
  "{\"x\":\"f32[16384,4096]\",\"labels\":\"i32[16384]\",\"w\":\"bf16[4096,151936]\",\"reduction\":\"sum\",\"return_residuals\":true}": {
    "{\"b_block_size\":1024,\"v_block_size\":2048}": {
      "compile_time_ms": 115.52046600002086,
      "lower_time_ms": 18.047662999947534,
      "evaluation_times_ms": [
        126.655198,
        126.727197,
        126.815086,
        126.700646,
        126.807419
      ],
      "metadata": {},
      "peak_memory_mb": 2863.80446
    }
  },
  "{\"x\":\"bf16[32768,4096]\",\"labels\":\"i32[32768]\",\"w\":\"bf16[4096,151936]\",\"reduction\":\"mean\",\"return_residuals\":false}": {
    "{\"b_block_size\":1024,\"v_block_size\":2048}": {
      "compile_time_ms": 274.60712600009174,
      "lower_time_ms": 24.542432999965058,
      "evaluation_times_ms": [
        133.249638,
        133.445142,
        133.339298,
        133.388008,
        133.449968
      ],
      "metadata": {},
      "peak_memory_mb": 2834.438168
    }
  },
  "{\"x\":\"bf16[32768,4096]\",\"labels\":\"i32[32768]\",\"w\":\"bf16[4096,151936]\",\"reduction\":\"mean\",\"return_residuals\":true}": {
    "{\"b_block_size\":1024,\"v_block_size\":2048}": {
      "compile_time_ms": 184.58668200003103,
      "lower_time_ms": 18.168453000043883,
      "evaluation_times_ms": [
        133.673514,
        133.74731,
        133.886942,
        133.753088,
        133.790354
      ],
      "metadata": {},
      "peak_memory_mb": 2834.50372
    }
  },
  "{\"x\":\"f32[32768,4096]\",\"labels\":\"i32[32768]\",\"w\":\"bf16[4096,151936]\",\"reduction\":\"mean\",\"return_residuals\":false}": {
    "{\"b_block_size\":1024,\"v_block_size\":2048}": {
      "compile_time_ms": 223.57177900005354,
      "lower_time_ms": 23.627597999961836,
      "evaluation_times_ms": [
        252.715816,
        252.657616,
        252.599996,
        252.016236,
        251.573343
      ],
      "metadata": {},
      "peak_memory_mb": 3132.2399
    }
  },
  "{\"x\":\"f32[32768,4096]\",\"labels\":\"i32[32768]\",\"w\":\"bf16[4096,151936]\",\"reduction\":\"mean\",\"return_residuals\":true}": {
    "{\"b_block_size\":1024,\"v_block_size\":2048}": {
      "compile_time_ms": 202.98622500001784,
      "lower_time_ms": 18.175203000055262,
      "evaluation_times_ms": [
        251.339153,
        251.599791,
        251.400923,
        251.272685,
        250.673659
      ],
      "metadata": {},
      "peak_memory_mb": 3132.370988
    }
  },
  "{\"x\":\"bf16[32768,4096]\",\"labels\":\"i32[32768]\",\"w\":\"bf16[4096,151936]\",\"reduction\":\"sum\",\"return_residuals\":false}": {
    "{\"b_block_size\":1024,\"v_block_size\":2048}": {
      "compile_time_ms": 108.91377400002966,
      "lower_time_ms": 22.738090000075317,
      "evaluation_times_ms": [
        134.122391,
        134.19139,
        134.111752,
        134.204118,
        134.223445
      ],
      "metadata": {},
      "peak_memory_mb": 2834.438168
    }
  },
  "{\"x\":\"bf16[32768,4096]\",\"labels\":\"i32[32768]\",\"w\":\"bf16[4096,151936]\",\"reduction\":\"sum\",\"return_residuals\":true}": {
    "{\"b_block_size\":1024,\"v_block_size\":2048}": {
      "compile_time_ms": 107.81764800003657,
      "lower_time_ms": 17.869829000005666,
      "evaluation_times_ms": [
        132.888478,
        132.962582,
        132.971579,
        133.049996,
        132.93019
      ],
      "metadata": {},
      "peak_memory_mb": 2834.50372
    }
  },
  "{\"x\":\"f32[32768,4096]\",\"labels\":\"i32[32768]\",\"w\":\"bf16[4096,151936]\",\"reduction\":\"sum\",\"return_residuals\":false}": {
    "{\"b_block_size\":1024,\"v_block_size\":2048}": {
      "compile_time_ms": 109.10570099997585,
      "lower_time_ms": 22.886454999934358,
      "evaluation_times_ms": [
        252.870887,
        252.341559,
        252.313437,
        252.673574,
        252.57307
      ],
      "metadata": {},
      "peak_memory_mb": 3132.2399
    }
  },
  "{\"x\":\"f32[32768,4096]\",\"labels\":\"i32[32768]\",\"w\":\"bf16[4096,151936]\",\"reduction\":\"sum\",\"return_residuals\":true}": {
    "{\"b_block_size\":1024,\"v_block_size\":2048}": {
      "compile_time_ms": 603.9567370000896,
      "lower_time_ms": 35.742760000061935,
      "evaluation_times_ms": [
        251.324105,
        251.023892,
        250.596716,
        250.691827,
        250.708966
      ],
      "metadata": {},
      "peak_memory_mb": 3132.370988
    }
  },
  "{\"x\":\"bf16[32768,2560]\",\"labels\":\"i32[32768]\",\"w\":\"bf16[2560,262144]\",\"reduction\":\"mean\",\"return_residuals\":false}": {
    "{\"b_block_size\":1024,\"v_block_size\":2048}": {
      "compile_time_ms": 951.3059319579042,
      "lower_time_ms": 34.48571800254285,
      "evaluation_times_ms": [
        166.955084,
        166.97116,
        166.970634,
        166.907665,
        166.95898
      ],
      "metadata": {},
      "peak_memory_mb": 1530.009624
    }
  },
  "{\"x\":\"bf16[32768,2560]\",\"labels\":\"i32[32768]\",\"w\":\"bf16[2560,262144]\",\"reduction\":\"mean\",\"return_residuals\":true}": {
    "{\"b_block_size\":1024,\"v_block_size\":2048}": {
      "compile_time_ms": 275.36407904699445,
      "lower_time_ms": 17.31740200193599,
      "evaluation_times_ms": [
        164.281777,
        164.344393,
        164.335882,
        164.301715,
        164.389292
      ],
      "metadata": {},
      "peak_memory_mb": 1530.075176
    }
  },
  "{\"x\":\"f32[32768,2560]\",\"labels\":\"i32[32768]\",\"w\":\"bf16[2560,262144]\",\"reduction\":\"mean\",\"return_residuals\":false}": {
    "{\"b_block_size\":1024,\"v_block_size\":2048}": {
      "compile_time_ms": 691.7050480260514,
      "lower_time_ms": 29.015554988291115,
      "evaluation_times_ms": [
        296.148546,
        296.191904,
        296.148618,
        296.039901,
        295.957012
      ],
      "metadata": {},
      "peak_memory_mb": 1751.265308
    }
  },
  "{\"x\":\"f32[32768,2560]\",\"labels\":\"i32[32768]\",\"w\":\"bf16[2560,262144]\",\"reduction\":\"mean\",\"return_residuals\":true}": {
    "{\"b_block_size\":1024,\"v_block_size\":2048}": {
      "compile_time_ms": 168.1114659877494,
      "lower_time_ms": 17.331730981823057,
      "evaluation_times_ms": [
        298.412984,
        298.510859,
        298.334154,
        298.136062,
        297.974016
      ],
      "metadata": {},
      "peak_memory_mb": 1751.396396
    }
  },
  "{\"x\":\"bf16[32768,2560]\",\"labels\":\"i32[32768]\",\"w\":\"bf16[2560,262144]\",\"reduction\":\"sum\",\"return_residuals\":false}": {
    "{\"b_block_size\":1024,\"v_block_size\":2048}": {
      "compile_time_ms": 194.2056409898214,
      "lower_time_ms": 22.422284993808717,
      "evaluation_times_ms": [
        165.297737,
        165.323818,
        165.379095,
        165.403752,
        165.321191
      ],
      "metadata": {},
      "peak_memory_mb": 1530.009624
    }
  },
  "{\"x\":\"bf16[32768,2560]\",\"labels\":\"i32[32768]\",\"w\":\"bf16[2560,262144]\",\"reduction\":\"sum\",\"return_residuals\":true}": {
    "{\"b_block_size\":1024,\"v_block_size\":2048}": {
      "compile_time_ms": 194.45828098105267,
      "lower_time_ms": 17.196387983858585,
      "evaluation_times_ms": [
        165.969941,
        165.979633,
        166.009421,
        166.305156,
        166.07275
      ],
      "metadata": {},
      "peak_memory_mb": 1530.075176
    }
  },
  "{\"x\":\"f32[32768,2560]\",\"labels\":\"i32[32768]\",\"w\":\"bf16[2560,262144]\",\"reduction\":\"sum\",\"return_residuals\":false}": {
    "{\"b_block_size\":1024,\"v_block_size\":2048}": {
      "compile_time_ms": 89.88187898648903,
      "lower_time_ms": 21.579462045338005,
      "evaluation_times_ms": [
        295.95902,
        296.005354,
        295.913359,
        295.955697,
        295.838143
      ],
      "metadata": {},
      "peak_memory_mb": 1751.265308
    }
  },
  "{\"x\":\"f32[32768,2560]\",\"labels\":\"i32[32768]\",\"w\":\"bf16[2560,262144]\",\"reduction\":\"sum\",\"return_residuals\":true}": {
    "{\"b_block_size\":1024,\"v_block_size\":2048}": {
      "compile_time_ms": 87.87856600247324,
      "lower_time_ms": 17.055033997166902,
      "evaluation_times_ms": [
        296.979771,
        297.002323,
        297.016175,
        296.696365,
        296.71055
      ],
      "metadata": {},
      "peak_memory_mb": 1751.396396
    }
  },
  "{\"x\":\"bf16[131072,2560]\",\"labels\":\"i32[131072]\",\"w\":\"bf16[2560,262144]\",\"reduction\":\"mean\",\"return_residuals\":false}": {
    "{\"b_block_size\":1024,\"v_block_size\":2048}": {
      "compile_time_ms": 437.34943703748286,
      "lower_time_ms": 23.575692961458117,
      "evaluation_times_ms": [
        696.8421490000001,
        696.8633140000001,
        698.306297,
        698.293683,
        696.133078
      ],
      "metadata": {},
      "peak_memory_mb": 2033.71932
    }
  },
  "{\"x\":\"bf16[131072,2560]\",\"labels\":\"i32[131072]\",\"w\":\"bf16[2560,262144]\",\"reduction\":\"mean\",\"return_residuals\":true}": {
    "{\"b_block_size\":1024,\"v_block_size\":2048}": {
      "compile_time_ms": 282.9392009880394,
      "lower_time_ms": 17.275960999540985,
      "evaluation_times_ms": [
        695.308736,
        696.461337,
        696.754023,
        696.458601,
        696.797058
      ],
      "metadata": {},
      "peak_memory_mb": 2033.98148
    }
  },
  "{\"x\":\"f32[131072,2560]\",\"labels\":\"i32[131072]\",\"w\":\"bf16[2560,262144]\",\"reduction\":\"mean\",\"return_residuals\":false}": {
    "{\"b_block_size\":1024,\"v_block_size\":2048}": {
      "compile_time_ms": 279.7905610059388,
      "lower_time_ms": 22.22692099167034,
      "evaluation_times_ms": [
        1206.312877,
        1206.265262,
        1205.969987,
        1206.372501,
        1206.067446
      ],
      "metadata": {},
      "peak_memory_mb": 2758.291484
    }
  },
  "{\"x\":\"f32[131072,2560]\",\"labels\":\"i32[131072]\",\"w\":\"bf16[2560,262144]\",\"reduction\":\"mean\",\"return_residuals\":true}": {
    "{\"b_block_size\":1024,\"v_block_size\":2048}": {
      "compile_time_ms": 174.1671219933778,
      "lower_time_ms": 17.44625100400299,
      "evaluation_times_ms": [
        1211.011698,
        1211.032241,
        1210.953829,
        1210.930103,
        1211.329129
      ],
      "metadata": {},
      "peak_memory_mb": 2758.815788
    }
  },
  "{\"x\":\"bf16[131072,2560]\",\"labels\":\"i32[131072]\",\"w\":\"bf16[2560,262144]\",\"reduction\":\"sum\",\"return_residuals\":false}": {
    "{\"b_block_size\":1024,\"v_block_size\":2048}": {
      "compile_time_ms": 198.70578998234123,
      "lower_time_ms": 23.158521973527968,
      "evaluation_times_ms": [
        693.751675,
        693.84523,
        693.664461,
        692.554728,
        692.7113420000001
      ],
      "metadata": {},
      "peak_memory_mb": 2033.71932
    }
  },
  "{\"x\":\"bf16[131072,2560]\",\"labels\":\"i32[131072]\",\"w\":\"bf16[2560,262144]\",\"reduction\":\"sum\",\"return_residuals\":true}": {
    "{\"b_block_size\":1024,\"v_block_size\":2048}": {
      "compile_time_ms": 198.46588699147105,
      "lower_time_ms": 17.048897047061473,
      "evaluation_times_ms": [
        694.721402,
        693.621706,
        694.426406,
        693.381133,
        693.192635
      ],
      "metadata": {},
      "peak_memory_mb": 2033.98148
    }
  },
  "{\"x\":\"f32[131072,2560]\",\"labels\":\"i32[131072]\",\"w\":\"bf16[2560,262144]\",\"reduction\":\"sum\",\"return_residuals\":false}": {
    "{\"b_block_size\":1024,\"v_block_size\":2048}": {
      "compile_time_ms": 84.50702799018472,
      "lower_time_ms": 21.512552979402244,
      "evaluation_times_ms": [
        1209.020531,
        1208.77907,
        1208.839695,
        1208.734861,
        1208.921135
      ],
      "metadata": {},
      "peak_memory_mb": 2758.291484
    }
  },
  "{\"x\":\"f32[131072,2560]\",\"labels\":\"i32[131072]\",\"w\":\"bf16[2560,262144]\",\"reduction\":\"sum\",\"return_residuals\":true}": {
    "{\"b_block_size\":1024,\"v_block_size\":2048}": {
      "compile_time_ms": 88.36283901473507,
      "lower_time_ms": 16.973885998595506,
      "evaluation_times_ms": [
        1208.973275,
        1208.951464,
        1208.991071,
        1209.322132,
        1209.171181
      ],
      "metadata": {},
      "peak_memory_mb": 2758.815788
    }
  },
  "{\"x\":\"bf16[1024,3840]\",\"labels\":\"i32[1024]\",\"w\":\"bf16[3840,262144]\",\"reduction\":\"mean\",\"return_residuals\":false}": {
    "{\"b_block_size\":1024,\"v_block_size\":2048}": {
      "compile_time_ms": 367.964448989369,
      "lower_time_ms": 24.330159998498857,
      "evaluation_times_ms": [
        5.852474,
        5.841818,
        5.850395,
        5.8473239999999995,
        5.848217
      ],
      "metadata": {},
      "peak_memory_mb": 2074.617866
    }
  },
  "{\"x\":\"bf16[1024,3840]\",\"labels\":\"i32[1024]\",\"w\":\"bf16[3840,262144]\",\"reduction\":\"mean\",\"return_residuals\":true}": {
    "{\"b_block_size\":1024,\"v_block_size\":2048}": {
      "compile_time_ms": 76.87141897622496,
      "lower_time_ms": 17.576225975062698,
      "evaluation_times_ms": [
        5.850968,
        5.849558,
        5.855542,
        5.848823,
        5.840184
      ],
      "metadata": {},
      "peak_memory_mb": 2074.617882
    }
  },
  "{\"x\":\"f32[1024,3840]\",\"labels\":\"i32[1024]\",\"w\":\"bf16[3840,262144]\",\"reduction\":\"mean\",\"return_residuals\":false}": {
    "{\"b_block_size\":1024,\"v_block_size\":2048}": {
      "compile_time_ms": 697.3173249862157,
      "lower_time_ms": 23.151003988459706,
      "evaluation_times_ms": [
        10.944303,
        10.938993,
        10.999504,
        10.98939,
        10.983664
      ],
      "metadata": {},
      "peak_memory_mb": 2102.411272
    }
  },
  "{\"x\":\"f32[1024,3840]\",\"labels\":\"i32[1024]\",\"w\":\"bf16[3840,262144]\",\"reduction\":\"mean\",\"return_residuals\":true}": {
    "{\"b_block_size\":1024,\"v_block_size\":2048}": {
      "compile_time_ms": 78.46010604407638,
      "lower_time_ms": 18.199101032223552,
      "evaluation_times_ms": [
        10.915789,
        10.900652,
        10.917578,
        10.91482,
        10.93553
      ],
      "metadata": {},
      "peak_memory_mb": 2102.411288
    }
  },
  "{\"x\":\"bf16[1024,3840]\",\"labels\":\"i32[1024]\",\"w\":\"bf16[3840,262144]\",\"reduction\":\"sum\",\"return_residuals\":false}": {
    "{\"b_block_size\":1024,\"v_block_size\":2048}": {
      "compile_time_ms": 116.06037698220462,
      "lower_time_ms": 21.552897000219673,
      "evaluation_times_ms": [
        5.856208,
        5.8533,
        5.855057,
        5.856084,
        5.847215
      ],
      "metadata": {},
      "peak_memory_mb": 2074.617866
    }
  },
  "{\"x\":\"bf16[1024,3840]\",\"labels\":\"i32[1024]\",\"w\":\"bf16[3840,262144]\",\"reduction\":\"sum\",\"return_residuals\":true}": {
    "{\"b_block_size\":1024,\"v_block_size\":2048}": {
      "compile_time_ms": 75.53737895796075,
      "lower_time_ms": 17.03138602897525,
      "evaluation_times_ms": [
        5.833168,
        5.832498,
        5.83016,
        5.830062,
        5.834353
      ],
      "metadata": {},
      "peak_memory_mb": 2074.617882
    }
  },
  "{\"x\":\"f32[1024,3840]\",\"labels\":\"i32[1024]\",\"w\":\"bf16[3840,262144]\",\"reduction\":\"sum\",\"return_residuals\":false}": {
    "{\"b_block_size\":1024,\"v_block_size\":2048}": {
      "compile_time_ms": 119.97705197427422,
      "lower_time_ms": 21.361529012210667,
      "evaluation_times_ms": [
        11.003266,
        11.005215,
        11.014017,
        11.00457,
        11.011522
      ],
      "metadata": {},
      "peak_memory_mb": 2102.411272
    }
  },
  "{\"x\":\"f32[1024,3840]\",\"labels\":\"i32[1024]\",\"w\":\"bf16[3840,262144]\",\"reduction\":\"sum\",\"return_residuals\":true}": {
    "{\"b_block_size\":1024,\"v_block_size\":2048}": {
      "compile_time_ms": 76.87333802459762,
      "lower_time_ms": 17.109831038396806,
      "evaluation_times_ms": [
        10.947452,
        10.940637,
        10.953662,
        10.974108,
        10.973532
      ],
      "metadata": {},
      "peak_memory_mb": 2102.411288
    }
  },
  "{\"x\":\"bf16[2048,3840]\",\"labels\":\"i32[2048]\",\"w\":\"bf16[3840,262144]\",\"reduction\":\"mean\",\"return_residuals\":false}": {
    "{\"b_block_size\":1024,\"v_block_size\":2048}": {
      "compile_time_ms": 226.9726439844817,
      "lower_time_ms": 23.698800010606647,
      "evaluation_times_ms": [
        13.64202,
        13.647264,
        13.630787,
        13.624868,
        13.628741
      ],
      "metadata": {},
      "peak_memory_mb": 2090.350616
    }
  },
  "{\"x\":\"bf16[2048,3840]\",\"labels\":\"i32[2048]\",\"w\":\"bf16[3840,262144]\",\"reduction\":\"mean\",\"return_residuals\":true}": {
    "{\"b_block_size\":1024,\"v_block_size\":2048}": {
      "compile_time_ms": 167.3552690190263,
      "lower_time_ms": 17.474714026320726,
      "evaluation_times_ms": [
        13.557409999999999,
        13.549374,
        13.533155,
        13.537186,
        13.553286
      ],
      "metadata": {},
      "peak_memory_mb": 2090.354728
    }
  },
  "{\"x\":\"f32[2048,3840]\",\"labels\":\"i32[2048]\",\"w\":\"bf16[3840,262144]\",\"reduction\":\"mean\",\"return_residuals\":false}": {
    "{\"b_block_size\":1024,\"v_block_size\":2048}": {
      "compile_time_ms": 202.75232498534024,
      "lower_time_ms": 24.260418955236673,
      "evaluation_times_ms": [
        25.209075,
        25.268335,
        25.263116,
        25.29291,
        25.275661
      ],
      "metadata": {},
      "peak_memory_mb": 2133.872668
    }
  },
  "{\"x\":\"bf16[16384,3840]\",\"labels\":\"i32[16384]\",\"w\":\"bf16[3840,262144]\",\"reduction\":\"mean\",\"return_residuals\":false}": {
    "{\"b_block_size\":1024,\"v_block_size\":2048}": {
      "compile_time_ms": 2634.337952000351,
      "lower_time_ms": 38.36387899991678,
      "evaluation_times_ms": [
        108.383651,
        108.30203,
        108.228387,
        108.327975,
        18446744073817.85
      ],
      "metadata": {},
      "peak_memory_mb": 2200.50844
    }
  },
  "{\"x\":\"bf16[16384,3840]\",\"labels\":\"i32[16384]\",\"w\":\"bf16[3840,262144]\",\"reduction\":\"mean\",\"return_residuals\":true}": {
    "{\"b_block_size\":1024,\"v_block_size\":2048}": {
      "compile_time_ms": 348.07162500010236,
      "lower_time_ms": 18.76965899964489,
      "evaluation_times_ms": [
        107.341259,
        107.251835,
        107.191526,
        107.326481,
        107.393028
      ],
      "metadata": {},
      "peak_memory_mb": 2200.541224
    }
  },
  "{\"x\":\"f32[16384,3840]\",\"labels\":\"i32[16384]\",\"w\":\"bf16[3840,262144]\",\"reduction\":\"mean\",\"return_residuals\":false}": {
    "{\"b_block_size\":1024,\"v_block_size\":2048}": {
      "compile_time_ms": 1179.424072999609,
      "lower_time_ms": 30.13671200005774,
      "evaluation_times_ms": [
        201.991778,
        201.908547,
        201.975467,
        201.982909,
        201.975618
      ],
      "metadata": {},
      "peak_memory_mb": 2354.130972
    }
  },
  "{\"x\":\"f32[16384,3840]\",\"labels\":\"i32[16384]\",\"w\":\"bf16[3840,262144]\",\"reduction\":\"mean\",\"return_residuals\":true}": {
    "{\"b_block_size\":1024,\"v_block_size\":2048}": {
      "compile_time_ms": 573.8248530001329,
      "lower_time_ms": 18.281545999798254,
      "evaluation_times_ms": [
        201.395481,
        201.629243,
        201.670946,
        201.705448,
        201.780656
      ],
      "metadata": {},
      "peak_memory_mb": 2354.196524
    }
  },
  "{\"x\":\"bf16[16384,3840]\",\"labels\":\"i32[16384]\",\"w\":\"bf16[3840,262144]\",\"reduction\":\"sum\",\"return_residuals\":false}": {
    "{\"b_block_size\":1024,\"v_block_size\":2048}": {
      "compile_time_ms": 102.90582700008599,
      "lower_time_ms": 23.551590999886685,
      "evaluation_times_ms": [
        108.004058,
        108.175537,
        108.103474,
        108.137888,
        108.093998
      ],
      "metadata": {},
      "peak_memory_mb": 2200.50844
    }
  },
  "{\"x\":\"bf16[16384,3840]\",\"labels\":\"i32[16384]\",\"w\":\"bf16[3840,262144]\",\"reduction\":\"sum\",\"return_residuals\":true}": {
    "{\"b_block_size\":1024,\"v_block_size\":2048}": {
      "compile_time_ms": 110.08011099966097,
      "lower_time_ms": 18.442281000261573,
      "evaluation_times_ms": [
        107.620642,
        107.528351,
        107.441438,
        107.546306,
        107.523229
      ],
      "metadata": {},
      "peak_memory_mb": 2200.541224
    }
  },
  "{\"x\":\"f32[16384,3840]\",\"labels\":\"i32[16384]\",\"w\":\"bf16[3840,262144]\",\"reduction\":\"sum\",\"return_residuals\":false}": {
    "{\"b_block_size\":1024,\"v_block_size\":2048}": {
      "compile_time_ms": 1047.176396000168,
      "lower_time_ms": 35.551437000094666,
      "evaluation_times_ms": [
        201.452036,
        201.459794,
        201.47858,
        201.449152,
        201.486723
      ],
      "metadata": {},
      "peak_memory_mb": 2354.130972
    }
  },
  "{\"x\":\"f32[16384,3840]\",\"labels\":\"i32[16384]\",\"w\":\"bf16[3840,262144]\",\"reduction\":\"sum\",\"return_residuals\":true}": {
    "{\"b_block_size\":1024,\"v_block_size\":2048}": {
      "compile_time_ms": 197.38263299996106,
      "lower_time_ms": 17.72596299997531,
      "evaluation_times_ms": [
        201.983878,
        202.005854,
        201.995949,
        202.027176,
        201.934347
      ],
      "metadata": {},
      "peak_memory_mb": 2354.196524
    }
  },
  "{\"x\":\"bf16[32768,3840]\",\"labels\":\"i32[32768]\",\"w\":\"bf16[3840,262144]\",\"reduction\":\"mean\",\"return_residuals\":false}": {
    "{\"b_block_size\":1024,\"v_block_size\":2048}": {
      "compile_time_ms": 1244.9572250000074,
      "lower_time_ms": 31.640034000020023,
      "evaluation_times_ms": [
        215.018402,
        215.057243,
        215.25226,
        215.219795,
        215.196536
      ],
      "metadata": {},
      "peak_memory_mb": 2326.403096
    }
  },
  "{\"x\":\"bf16[32768,3840]\",\"labels\":\"i32[32768]\",\"w\":\"bf16[3840,262144]\",\"reduction\":\"mean\",\"return_residuals\":true}": {
    "{\"b_block_size\":1024,\"v_block_size\":2048}": {
      "compile_time_ms": 275.08240400015893,
      "lower_time_ms": 18.15702399994734,
      "evaluation_times_ms": [
        216.986287,
        217.077978,
        217.030804,
        216.878904,
        216.993401
      ],
      "metadata": {},
      "peak_memory_mb": 2326.468648
    }
  },
  "{\"x\":\"f32[32768,3840]\",\"labels\":\"i32[32768]\",\"w\":\"bf16[3840,262144]\",\"reduction\":\"mean\",\"return_residuals\":false}": {
    "{\"b_block_size\":1024,\"v_block_size\":2048}": {
      "compile_time_ms": 432.3214660000758,
      "lower_time_ms": 23.808988999917347,
      "evaluation_times_ms": [
        403.65859,
        403.686743,
        403.785267,
        403.719438,
        403.692834
      ],
      "metadata": {},
      "peak_memory_mb": 2605.854748
    }
  },
  "{\"x\":\"f32[32768,3840]\",\"labels\":\"i32[32768]\",\"w\":\"bf16[3840,262144]\",\"reduction\":\"mean\",\"return_residuals\":true}": {
    "{\"b_block_size\":1024,\"v_block_size\":2048}": {
      "compile_time_ms": 549.6572399999877,
      "lower_time_ms": 17.930476999936218,
      "evaluation_times_ms": [
        402.981261,
        402.973975,
        402.980182,
        402.932949,
        402.855551
      ],
      "metadata": {},
      "peak_memory_mb": 2605.985836
    }
  },
  "{\"x\":\"bf16[32768,3840]\",\"labels\":\"i32[32768]\",\"w\":\"bf16[3840,262144]\",\"reduction\":\"sum\",\"return_residuals\":false}": {
    "{\"b_block_size\":1024,\"v_block_size\":2048}": {
      "compile_time_ms": 105.9548299999733,
      "lower_time_ms": 22.969388000092295,
      "evaluation_times_ms": [
        216.48735,
        216.57173,
        216.503143,
        216.371855,
        216.32831
      ],
      "metadata": {},
      "peak_memory_mb": 2326.403096
    }
  },
  "{\"x\":\"bf16[32768,3840]\",\"labels\":\"i32[32768]\",\"w\":\"bf16[3840,262144]\",\"reduction\":\"sum\",\"return_residuals\":true}": {
    "{\"b_block_size\":1024,\"v_block_size\":2048}": {
      "compile_time_ms": 113.62890100008372,
      "lower_time_ms": 18.16977599992242,
      "evaluation_times_ms": [
        214.673079,
        214.695672,
        214.701188,
        214.710696,
        214.799961
      ],
      "metadata": {},
      "peak_memory_mb": 2326.468648
    }
  },
  "{\"x\":\"f32[32768,3840]\",\"labels\":\"i32[32768]\",\"w\":\"bf16[3840,262144]\",\"reduction\":\"sum\",\"return_residuals\":false}": {
    "{\"b_block_size\":1024,\"v_block_size\":2048}": {
      "compile_time_ms": 104.31783099988934,
      "lower_time_ms": 22.95937500002765,
      "evaluation_times_ms": [
        404.748846,
        404.632116,
        404.723566,
        404.446687,
        404.592428
      ],
      "metadata": {},
      "peak_memory_mb": 2605.854748
    }
  },
  "{\"x\":\"f32[32768,3840]\",\"labels\":\"i32[32768]\",\"w\":\"bf16[3840,262144]\",\"reduction\":\"sum\",\"return_residuals\":true}": {
    "{\"b_block_size\":1024,\"v_block_size\":2048}": {
      "compile_time_ms": 104.23324799990041,
      "lower_time_ms": 17.821437000066,
      "evaluation_times_ms": [
        403.099834,
        403.105389,
        403.044945,
        403.057136,
        403.0421
      ],
      "metadata": {},
      "peak_memory_mb": 2605.985836
    }
  },
  "{\"x\":\"bf16[131072,3840]\",\"labels\":\"i32[131072]\",\"w\":\"bf16[3840,262144]\",\"reduction\":\"mean\",\"return_residuals\":false}": {
    "{\"b_block_size\":1024,\"v_block_size\":2048}": {
      "compile_time_ms": 446.50275100002546,
      "lower_time_ms": 26.009694999856947,
      "evaluation_times_ms": [
        882.239737,
        881.532475,
        881.735584,
        881.593025,
        881.76778
      ],
      "metadata": {},
      "peak_memory_mb": 3081.771032
    }
  },
  "{\"x\":\"bf16[131072,3840]\",\"labels\":\"i32[131072]\",\"w\":\"bf16[3840,262144]\",\"reduction\":\"mean\",\"return_residuals\":true}": {
    "{\"b_block_size\":1024,\"v_block_size\":2048}": {
      "compile_time_ms": 250.65767299997788,
      "lower_time_ms": 18.26167300009729,
      "evaluation_times_ms": [
        876.307232,
        875.896723,
        876.073189,
        876.22929,
        876.419104
      ],
      "metadata": {},
      "peak_memory_mb": 3082.033192
    }
  },
  "{\"x\":\"f32[131072,3840]\",\"labels\":\"i32[131072]\",\"w\":\"bf16[3840,262144]\",\"reduction\":\"mean\",\"return_residuals\":false}": {
    "{\"b_block_size\":1024,\"v_block_size\":2048}": {
      "compile_time_ms": 446.8661860000793,
      "lower_time_ms": 24.487090999855354,
      "evaluation_times_ms": [
        1638.014458,
        1637.727219,
        1639.382302,
        1638.276922,
        1638.606551
      ],
      "metadata": {},
      "peak_memory_mb": 4116.197404
    }
  },
  "{\"x\":\"f32[131072,3840]\",\"labels\":\"i32[131072]\",\"w\":\"bf16[3840,262144]\",\"reduction\":\"mean\",\"return_residuals\":true}": {
    "{\"b_block_size\":1024,\"v_block_size\":2048}": {
      "compile_time_ms": 238.99664300006407,
      "lower_time_ms": 18.083840999906897,
      "evaluation_times_ms": [
        1636.541268,
        1636.315956,
        1636.88109,
        1638.528525,
        1637.648867
      ],
      "metadata": {},
      "peak_memory_mb": 4116.721708
    }
  },
  "{\"x\":\"bf16[131072,3840]\",\"labels\":\"i32[131072]\",\"w\":\"bf16[3840,262144]\",\"reduction\":\"sum\",\"return_residuals\":false}": {
    "{\"b_block_size\":1024,\"v_block_size\":2048}": {
      "compile_time_ms": 104.26758599987807,
      "lower_time_ms": 22.882746000050247,
      "evaluation_times_ms": [
        878.540491,
        878.382466,
        878.465266,
        878.786366,
        879.137327
      ],
      "metadata": {},
      "peak_memory_mb": 3081.771032
    }
  },
  "{\"x\":\"bf16[131072,3840]\",\"labels\":\"i32[131072]\",\"w\":\"bf16[3840,262144]\",\"reduction\":\"sum\",\"return_residuals\":true}": {
    "{\"b_block_size\":1024,\"v_block_size\":2048}": {
      "compile_time_ms": 108.58060500004285,
      "lower_time_ms": 18.139889000167386,
      "evaluation_times_ms": [
        881.323877,
        881.340347,
        881.500306,
        881.888577,
        882.026181
      ],
      "metadata": {},
      "peak_memory_mb": 3082.033192
    }
  },
  "{\"x\":\"f32[131072,3840]\",\"labels\":\"i32[131072]\",\"w\":\"bf16[3840,262144]\",\"reduction\":\"sum\",\"return_residuals\":false}": {
    "{\"b_block_size\":1024,\"v_block_size\":2048}": {
      "compile_time_ms": 103.44802400004482,
      "lower_time_ms": 22.633151000036378,
      "evaluation_times_ms": [
        1640.896321,
        1640.927214,
        1641.7651,
        1641.971648,
        1641.878284
      ],
      "metadata": {},
      "peak_memory_mb": 4116.197404
    }
  },
  "{\"x\":\"f32[131072,3840]\",\"labels\":\"i32[131072]\",\"w\":\"bf16[3840,262144]\",\"reduction\":\"sum\",\"return_residuals\":true}": {
    "{\"b_block_size\":1024,\"v_block_size\":2048}": {
      "compile_time_ms": 114.18256500019197,
      "lower_time_ms": 18.033809999906225,
      "evaluation_times_ms": [
        1639.025599,
        1639.92629,
        1639.45606,
        1638.324151,
        1636.272742
      ],
      "metadata": {},
      "peak_memory_mb": 4116.721708
    }
  },
  "{\"x\":\"bf16[1024,4096]\",\"labels\":\"i32[1024]\",\"w\":\"bf16[4096,128256]\",\"reduction\":\"mean\",\"return_residuals\":false}": {
    "{\"b_block_size\":1024,\"v_block_size\":2048}": {
      "compile_time_ms": 1292.480525999963,
      "lower_time_ms": 25.29030200003035,
      "evaluation_times_ms": [
        3.698135,
        3.695255,
        3.703194,
        3.69542,
        3.7022019999999998
      ],
      "metadata": {},
      "peak_memory_mb": 2170.56257
    }
  },
  "{\"x\":\"bf16[1024,4096]\",\"labels\":\"i32[1024]\",\"w\":\"bf16[4096,128256]\",\"reduction\":\"mean\",\"return_residuals\":true}": {
    "{\"b_block_size\":1024,\"v_block_size\":2048}": {
      "compile_time_ms": 102.86670700020295,
      "lower_time_ms": 17.964871000003768,
      "evaluation_times_ms": [
        3.695094,
        3.69865,
        3.696631,
        3.696247,
        3.692664
      ],
      "metadata": {},
      "peak_memory_mb": 2170.562586
    }
  },
  "{\"x\":\"f32[1024,4096]\",\"labels\":\"i32[1024]\",\"w\":\"bf16[4096,128256]\",\"reduction\":\"mean\",\"return_residuals\":false}": {
    "{\"b_block_size\":1024,\"v_block_size\":2048}": {
      "compile_time_ms": 982.9511890000049,
      "lower_time_ms": 24.169195000013133,
      "evaluation_times_ms": [
        6.441126,
        6.46132,
        6.458664,
        6.45911,
        6.450854
      ],
      "metadata": {},
      "peak_memory_mb": 2199.92884
    }
  },
  "{\"x\":\"f32[1024,4096]\",\"labels\":\"i32[1024]\",\"w\":\"bf16[4096,128256]\",\"reduction\":\"mean\",\"return_residuals\":true}": {
    "{\"b_block_size\":1024,\"v_block_size\":2048}": {
      "compile_time_ms": 90.76038400007747,
      "lower_time_ms": 17.80204900001081,
      "evaluation_times_ms": [
        6.398726,
        6.433893,
        6.427462,
        6.432164,
        6.431301
      ],
      "metadata": {},
      "peak_memory_mb": 2199.928856
    }
  },
  "{\"x\":\"bf16[1024,4096]\",\"labels\":\"i32[1024]\",\"w\":\"bf16[4096,128256]\",\"reduction\":\"sum\",\"return_residuals\":false}": {
    "{\"b_block_size\":1024,\"v_block_size\":2048}": {
      "compile_time_ms": 159.78676000008818,
      "lower_time_ms": 22.869958000001134,
      "evaluation_times_ms": [
        3.711382,
        3.71119,
        3.707571,
        3.710226,
        3.720371
      ],
      "metadata": {},
      "peak_memory_mb": 2170.56257
    }
  },
  "{\"x\":\"bf16[1024,4096]\",\"labels\":\"i32[1024]\",\"w\":\"bf16[4096,128256]\",\"reduction\":\"sum\",\"return_residuals\":true}": {
    "{\"b_block_size\":1024,\"v_block_size\":2048}": {
      "compile_time_ms": 131.0964580000018,
      "lower_time_ms": 17.93584799997916,
      "evaluation_times_ms": [
        3.6977130000000002,
        3.701365,
        3.701524,
        3.70226,
        3.706969
      ],
      "metadata": {},
      "peak_memory_mb": 2170.562586
    }
  },
  "{\"x\":\"f32[1024,4096]\",\"labels\":\"i32[1024]\",\"w\":\"bf16[4096,128256]\",\"reduction\":\"sum\",\"return_residuals\":false}": {
    "{\"b_block_size\":1024,\"v_block_size\":2048}": {
      "compile_time_ms": 187.38029900009678,
      "lower_time_ms": 22.434992000171405,
      "evaluation_times_ms": [
        6.411041,
        6.442656,
        6.439169,
        6.438529,
        6.434403
      ],
      "metadata": {},
      "peak_memory_mb": 2199.92884
    }
  },
  "{\"x\":\"f32[1024,4096]\",\"labels\":\"i32[1024]\",\"w\":\"bf16[4096,128256]\",\"reduction\":\"sum\",\"return_residuals\":true}": {
    "{\"b_block_size\":1024,\"v_block_size\":2048}": {
      "compile_time_ms": 93.04944099994827,
      "lower_time_ms": 17.722460999948453,
      "evaluation_times_ms": [
        6.443071,
        6.465184,
        6.467711,
        6.46592,
        6.462337
      ],
      "metadata": {},
      "peak_memory_mb": 2199.928856
    }
  },
  "{\"x\":\"bf16[2048,4096]\",\"labels\":\"i32[2048]\",\"w\":\"bf16[4096,128256]\",\"reduction\":\"mean\",\"return_residuals\":false}": {
    "{\"b_block_size\":1024,\"v_block_size\":2048}": {
      "compile_time_ms": 398.7487320000582,
      "lower_time_ms": 24.644437000006292,
      "evaluation_times_ms": [
        7.672518,
        7.676642,
        7.66583,
        7.662886,
        7.663428
      ],
      "metadata": {},
      "peak_memory_mb": 2187.343896
    }
  },
  "{\"x\":\"bf16[2048,4096]\",\"labels\":\"i32[2048]\",\"w\":\"bf16[4096,128256]\",\"reduction\":\"mean\",\"return_residuals\":true}": {
    "{\"b_block_size\":1024,\"v_block_size\":2048}": {
      "compile_time_ms": 1344.3591550001202,
      "lower_time_ms": 36.58204700013812,
      "evaluation_times_ms": [
        7.669708,
        7.673371,
        7.675935,
        7.653293,
        7.661334
      ],
      "metadata": {},
      "peak_memory_mb": 2187.348008
    }
  },
  "{\"x\":\"f32[2048,4096]\",\"labels\":\"i32[2048]\",\"w\":\"bf16[4096,128256]\",\"reduction\":\"mean\",\"return_residuals\":false}": {
    "{\"b_block_size\":1024,\"v_block_size\":2048}": {
      "compile_time_ms": 910.9940159999041,
      "lower_time_ms": 30.32988299992212,
      "evaluation_times_ms": [
        13.84808,
        13.850999,
        13.86262,
        13.860406,
        13.862824
      ],
      "metadata": {},
      "peak_memory_mb": 2233.487388
    }
  },
  "{\"x\":\"f32[2048,4096]\",\"labels\":\"i32[2048]\",\"w\":\"bf16[4096,128256]\",\"reduction\":\"mean\",\"return_residuals\":true}": {
    "{\"b_block_size\":1024,\"v_block_size\":2048}": {
      "compile_time_ms": 422.9061759999695,
      "lower_time_ms": 17.942479000112144,
      "evaluation_times_ms": [
        13.8551,
        13.861618,
        13.851955,
        13.857968,
        13.886545
      ],
      "metadata": {},
      "peak_memory_mb": 2233.495596
    }
  },
  "{\"x\":\"bf16[2048,4096]\",\"labels\":\"i32[2048]\",\"w\":\"bf16[4096,128256]\",\"reduction\":\"sum\",\"return_residuals\":false}": {
    "{\"b_block_size\":1024,\"v_block_size\":2048}": {
      "compile_time_ms": 108.31713399988985,
      "lower_time_ms": 22.7978880000137,
      "evaluation_times_ms": [
        7.6917,
        7.689114,
        7.695105,
        7.692185,
        7.687353
      ],
      "metadata": {},
      "peak_memory_mb": 2187.343896
    }
  },
  "{\"x\":\"bf16[2048,4096]\",\"labels\":\"i32[2048]\",\"w\":\"bf16[4096,128256]\",\"reduction\":\"sum\",\"return_residuals\":true}": {
    "{\"b_block_size\":1024,\"v_block_size\":2048}": {
      "compile_time_ms": 108.76434400006474,
      "lower_time_ms": 17.863922000060484,
      "evaluation_times_ms": [
        7.632103,
        7.635246,
        7.638694,
        7.640322,
        7.636203
      ],
      "metadata": {},
      "peak_memory_mb": 2187.348008
    }
  },
  "{\"x\":\"f32[2048,4096]\",\"labels\":\"i32[2048]\",\"w\":\"bf16[4096,128256]\",\"reduction\":\"sum\",\"return_residuals\":false}": {
    "{\"b_block_size\":1024,\"v_block_size\":2048}": {
      "compile_time_ms": 106.41366900017601,
      "lower_time_ms": 22.841267999865522,
      "evaluation_times_ms": [
        13.822287,
        13.80596,
        13.815656,
        13.822345,
        13.772845
      ],
      "metadata": {},
      "peak_memory_mb": 2233.487388
    }
  },
  "{\"x\":\"f32[2048,4096]\",\"labels\":\"i32[2048]\",\"w\":\"bf16[4096,128256]\",\"reduction\":\"sum\",\"return_residuals\":true}": {
    "{\"b_block_size\":1024,\"v_block_size\":2048}": {
      "compile_time_ms": 109.59619599998405,
      "lower_time_ms": 17.767412000011973,
      "evaluation_times_ms": [
        13.904796,
        13.915163,
        13.915998,
        13.910182,
        13.920279
      ],
      "metadata": {},
      "peak_memory_mb": 2233.495596
    }
  },
  "{\"x\":\"bf16[4096,4096]\",\"labels\":\"i32[4096]\",\"w\":\"bf16[4096,128256]\",\"reduction\":\"mean\",\"return_residuals\":false}": {
    "{\"b_block_size\":1024,\"v_block_size\":2048}": {
      "compile_time_ms": 981.9407059999321,
      "lower_time_ms": 37.76384799994048,
      "evaluation_times_ms": [
        14.612032,
        14.632542,
        14.622464,
        14.614814,
        14.626046
      ],
      "metadata": {},
      "peak_memory_mb": 2204.129304
    }
  },
  "{\"x\":\"bf16[4096,4096]\",\"labels\":\"i32[4096]\",\"w\":\"bf16[4096,128256]\",\"reduction\":\"mean\",\"return_residuals\":true}": {
    "{\"b_block_size\":1024,\"v_block_size\":2048}": {
      "compile_time_ms": 193.8642949999121,
      "lower_time_ms": 18.61893700015571,
      "evaluation_times_ms": [
        14.471359,
        14.476063,
        14.491676,
        14.464927,
        14.470878
      ],
      "metadata": {},
      "peak_memory_mb": 2204.137512
    }
  },
  "{\"x\":\"f32[4096,4096]\",\"labels\":\"i32[4096]\",\"w\":\"bf16[4096,128256]\",\"reduction\":\"mean\",\"return_residuals\":false}": {
    "{\"b_block_size\":1024,\"v_block_size\":2048}": {
      "compile_time_ms": 1039.2562179999913,
      "lower_time_ms": 29.664160999800515,
      "evaluation_times_ms": [
        26.898458,
        26.9318,
        26.998713,
        27.00671,
        26.98156
      ],
      "metadata": {},
      "peak_memory_mb": 2267.050012
    }
  },
  "{\"x\":\"f32[4096,4096]\",\"labels\":\"i32[4096]\",\"w\":\"bf16[4096,128256]\",\"reduction\":\"mean\",\"return_residuals\":true}": {
    "{\"b_block_size\":1024,\"v_block_size\":2048}": {
      "compile_time_ms": 198.14450400008354,
      "lower_time_ms": 17.85915600021326,
      "evaluation_times_ms": [
        26.836027,
        26.844824,
        26.912792,
        26.926298,
        26.920985
      ],
      "metadata": {},
      "peak_memory_mb": 2267.066412
    }
  },
  "{\"x\":\"bf16[4096,4096]\",\"labels\":\"i32[4096]\",\"w\":\"bf16[4096,128256]\",\"reduction\":\"sum\",\"return_residuals\":false}": {
    "{\"b_block_size\":1024,\"v_block_size\":2048}": {
      "compile_time_ms": 729.8211849999916,
      "lower_time_ms": 35.49210699998184,
      "evaluation_times_ms": [
        14.650314,
        14.665342,
        14.659402,
        14.639501,
        14.649702
      ],
      "metadata": {},
      "peak_memory_mb": 2204.129304
    }
  },
  "{\"x\":\"bf16[4096,4096]\",\"labels\":\"i32[4096]\",\"w\":\"bf16[4096,128256]\",\"reduction\":\"sum\",\"return_residuals\":true}": {
    "{\"b_block_size\":1024,\"v_block_size\":2048}": {
      "compile_time_ms": 176.12222900015695,
      "lower_time_ms": 17.781044999992446,
      "evaluation_times_ms": [
        14.488047,
        14.483341,
        14.483895,
        14.480595,
        14.498592
      ],
      "metadata": {},
      "peak_memory_mb": 2204.137512
    }
  },
  "{\"x\":\"f32[4096,4096]\",\"labels\":\"i32[4096]\",\"w\":\"bf16[4096,128256]\",\"reduction\":\"sum\",\"return_residuals\":false}": {
    "{\"b_block_size\":1024,\"v_block_size\":2048}": {
      "compile_time_ms": 590.8125949999885,
      "lower_time_ms": 29.172583999979906,
      "evaluation_times_ms": [
        26.942027,
        26.949529,
        26.931468,
        26.927798,
        26.880599
      ],
      "metadata": {},
      "peak_memory_mb": 2267.050012
    }
  },
  "{\"x\":\"f32[4096,4096]\",\"labels\":\"i32[4096]\",\"w\":\"bf16[4096,128256]\",\"reduction\":\"sum\",\"return_residuals\":true}": {
    "{\"b_block_size\":1024,\"v_block_size\":2048}": {
      "compile_time_ms": 230.38178699994205,
      "lower_time_ms": 17.70488200008913,
      "evaluation_times_ms": [
        26.901406,
        26.899285,
        27.060338,
        26.792008,
        26.796394
      ],
      "metadata": {},
      "peak_memory_mb": 2267.066412
    }
  },
  "{\"x\":\"bf16[16384,4096]\",\"labels\":\"i32[16384]\",\"w\":\"bf16[4096,128256]\",\"reduction\":\"mean\",\"return_residuals\":false}": {
    "{\"b_block_size\":1024,\"v_block_size\":2048}": {
      "compile_time_ms": 333.8437289999092,
      "lower_time_ms": 24.786659999790572,
      "evaluation_times_ms": [
        56.202097,
        56.2066,
        56.066892,
        56.047988,
        56.065537
      ],
      "metadata": {},
      "peak_memory_mb": 2304.841752
    }
  },
  "{\"x\":\"bf16[16384,4096]\",\"labels\":\"i32[16384]\",\"w\":\"bf16[4096,128256]\",\"reduction\":\"mean\",\"return_residuals\":true}": {
    "{\"b_block_size\":1024,\"v_block_size\":2048}": {
      "compile_time_ms": 194.07260599996334,
      "lower_time_ms": 17.573154000046998,
      "evaluation_times_ms": [
        56.095251,
        56.119182,
        56.106361,
        55.960012,
        56.002516
      ],
      "metadata": {},
      "peak_memory_mb": 2304.874536
    }
  },
  "{\"x\":\"f32[16384,4096]\",\"labels\":\"i32[16384]\",\"w\":\"bf16[4096,128256]\",\"reduction\":\"mean\",\"return_residuals\":false}": {
    "{\"b_block_size\":1024,\"v_block_size\":2048}": {
      "compile_time_ms": 279.82785300014257,
      "lower_time_ms": 25.984565000044313,
      "evaluation_times_ms": [
        105.797948,
        105.185853,
        105.212093,
        105.394058,
        105.137564
      ],
      "metadata": {},
      "peak_memory_mb": 2468.425756
    }
  },
  "{\"x\":\"f32[16384,4096]\",\"labels\":\"i32[16384]\",\"w\":\"bf16[4096,128256]\",\"reduction\":\"mean\",\"return_residuals\":true}": {
    "{\"b_block_size\":1024,\"v_block_size\":2048}": {
      "compile_time_ms": 212.98618699984218,
      "lower_time_ms": 17.923621999898387,
      "evaluation_times_ms": [
        105.377288,
        105.369721,
        105.52714,
        105.348927,
        105.452265
      ],
      "metadata": {},
      "peak_memory_mb": 2468.491308
    }
  },
  "{\"x\":\"bf16[16384,4096]\",\"labels\":\"i32[16384]\",\"w\":\"bf16[4096,128256]\",\"reduction\":\"sum\",\"return_residuals\":false}": {
    "{\"b_block_size\":1024,\"v_block_size\":2048}": {
      "compile_time_ms": 106.68162800016034,
      "lower_time_ms": 22.638542000095185,
      "evaluation_times_ms": [
        55.803179,
        55.840482,
        55.810256,
        55.885886,
        55.791622
      ],
      "metadata": {},
      "peak_memory_mb": 2304.841752
    }
  },
  "{\"x\":\"bf16[16384,4096]\",\"labels\":\"i32[16384]\",\"w\":\"bf16[4096,128256]\",\"reduction\":\"sum\",\"return_residuals\":true}": {
    "{\"b_block_size\":1024,\"v_block_size\":2048}": {
      "compile_time_ms": 114.09709500003373,
      "lower_time_ms": 17.793155000163097,
      "evaluation_times_ms": [
        56.272066,
        56.262854,
        56.33096,
        56.339365,
        56.246309000000004
      ],
      "metadata": {},
      "peak_memory_mb": 2304.874536
    }
  },
  "{\"x\":\"f32[16384,4096]\",\"labels\":\"i32[16384]\",\"w\":\"bf16[4096,128256]\",\"reduction\":\"sum\",\"return_residuals\":false}": {
    "{\"b_block_size\":1024,\"v_block_size\":2048}": {
      "compile_time_ms": 106.34598899991943,
      "lower_time_ms": 23.187406999795712,
      "evaluation_times_ms": [
        105.938081,
        105.168213,
        105.174336,
        105.203706,
        105.388369
      ],
      "metadata": {},
      "peak_memory_mb": 2468.425756
    }
  },
  "{\"x\":\"f32[16384,4096]\",\"labels\":\"i32[16384]\",\"w\":\"bf16[4096,128256]\",\"reduction\":\"sum\",\"return_residuals\":true}": {
    "{\"b_block_size\":1024,\"v_block_size\":2048}": {
      "compile_time_ms": 113.90079200009495,
      "lower_time_ms": 18.29445999987911,
      "evaluation_times_ms": [
        105.852128,
        105.453516,
        105.420867,
        105.456293,
        105.413979
      ],
      "metadata": {},
      "peak_memory_mb": 2468.491308
    }
  },
  "{\"x\":\"bf16[32768,4096]\",\"labels\":\"i32[32768]\",\"w\":\"bf16[4096,128256]\",\"reduction\":\"mean\",\"return_residuals\":false}": {
    "{\"b_block_size\":1024,\"v_block_size\":2048}": {
      "compile_time_ms": 284.616294999978,
      "lower_time_ms": 24.617322000040076,
      "evaluation_times_ms": [
        111.77333,
        111.491514,
        111.439726,
        111.506145,
        111.487522
      ],
      "metadata": {},
      "peak_memory_mb": 2439.125016
    }
  },
  "{\"x\":\"bf16[32768,4096]\",\"labels\":\"i32[32768]\",\"w\":\"bf16[4096,128256]\",\"reduction\":\"mean\",\"return_residuals\":true}": {
    "{\"b_block_size\":1024,\"v_block_size\":2048}": {
      "compile_time_ms": 199.47843199997806,
      "lower_time_ms": 18.186922999802846,
      "evaluation_times_ms": [
        110.744361,
        110.937783,
        110.80126800000001,
        110.842351,
        110.764942
      ],
      "metadata": {},
      "peak_memory_mb": 2439.190568
    }
  },
  "{\"x\":\"f32[32768,4096]\",\"labels\":\"i32[32768]\",\"w\":\"bf16[4096,128256]\",\"reduction\":\"mean\",\"return_residuals\":false}": {
    "{\"b_block_size\":1024,\"v_block_size\":2048}": {
      "compile_time_ms": 257.7078110000457,
      "lower_time_ms": 23.332438999887017,
      "evaluation_times_ms": [
        210.600651,
        210.674978,
        211.076611,
        211.046315,
        211.101945
      ],
      "metadata": {},
      "peak_memory_mb": 2736.926748
    }
  },
  "{\"x\":\"f32[32768,4096]\",\"labels\":\"i32[32768]\",\"w\":\"bf16[4096,128256]\",\"reduction\":\"mean\",\"return_residuals\":true}": {
    "{\"b_block_size\":1024,\"v_block_size\":2048}": {
      "compile_time_ms": 211.25362099996892,
      "lower_time_ms": 17.53073800000493,
      "evaluation_times_ms": [
        209.610578,
        209.884144,
        209.549631,
        210.073873,
        210.177762
      ],
      "metadata": {},
      "peak_memory_mb": 2737.057836
    }
  },
  "{\"x\":\"bf16[32768,4096]\",\"labels\":\"i32[32768]\",\"w\":\"bf16[4096,128256]\",\"reduction\":\"sum\",\"return_residuals\":false}": {
    "{\"b_block_size\":1024,\"v_block_size\":2048}": {
      "compile_time_ms": 1001.4701810000588,
      "lower_time_ms": 22.807893999925,
      "evaluation_times_ms": [
        111.402463,
        111.508328,
        111.468458,
        111.489515,
        111.495828
      ],
      "metadata": {},
      "peak_memory_mb": 2439.125016
    }
  },
  "{\"x\":\"bf16[32768,4096]\",\"labels\":\"i32[32768]\",\"w\":\"bf16[4096,128256]\",\"reduction\":\"sum\",\"return_residuals\":true}": {
    "{\"b_block_size\":1024,\"v_block_size\":2048}": {
      "compile_time_ms": 111.54258700003084,
      "lower_time_ms": 17.864297999949486,
      "evaluation_times_ms": [
        110.891332,
        110.969025,
        110.970263,
        110.958525,
        111.026761
      ],
      "metadata": {},
      "peak_memory_mb": 2439.190568
    }
  },
  "{\"x\":\"f32[32768,4096]\",\"labels\":\"i32[32768]\",\"w\":\"bf16[4096,128256]\",\"reduction\":\"sum\",\"return_residuals\":false}": {
    "{\"b_block_size\":1024,\"v_block_size\":2048}": {
      "compile_time_ms": 101.8406400000913,
      "lower_time_ms": 22.258318000012878,
      "evaluation_times_ms": [
        210.711875,
        210.646916,
        210.707006,
        210.256216,
        210.53879
      ],
      "metadata": {},
      "peak_memory_mb": 2736.926748
    }
  },
  "{\"x\":\"f32[32768,4096]\",\"labels\":\"i32[32768]\",\"w\":\"bf16[4096,128256]\",\"reduction\":\"sum\",\"return_residuals\":true}": {
    "{\"b_block_size\":1024,\"v_block_size\":2048}": {
      "compile_time_ms": 111.87890900009734,
      "lower_time_ms": 17.80627499988441,
      "evaluation_times_ms": [
        209.834538,
        209.993405,
        209.696201,
        209.918799,
        210.054638
      ],
      "metadata": {},
      "peak_memory_mb": 2737.057836
    }
  },
  "{\"x\":\"bf16[131072,4096]\",\"labels\":\"i32[131072]\",\"w\":\"bf16[4096,128256]\",\"reduction\":\"mean\",\"return_residuals\":false}": {
    "{\"b_block_size\":1024,\"v_block_size\":2048}": {
      "compile_time_ms": 1307.8041470000699,
      "lower_time_ms": 24.920697999959884,
      "evaluation_times_ms": [
        452.075905,
        452.035681,
        452.108128,
        452.063439,
        452.164007
      ],
      "metadata": {},
      "peak_memory_mb": 3244.8246
    }
  },
  "{\"x\":\"bf16[131072,4096]\",\"labels\":\"i32[131072]\",\"w\":\"bf16[4096,128256]\",\"reduction\":\"mean\",\"return_residuals\":true}": {
    "{\"b_block_size\":1024,\"v_block_size\":2048}": {
      "compile_time_ms": 225.5195420000291,
      "lower_time_ms": 18.21050000012292,
      "evaluation_times_ms": [
        452.415008,
        452.444088,
        452.511019,
        452.460075,
        452.498902
      ],
      "metadata": {},
      "peak_memory_mb": 3245.08676
    }
  },
  "{\"x\":\"f32[131072,4096]\",\"labels\":\"i32[131072]\",\"w\":\"bf16[4096,128256]\",\"reduction\":\"mean\",\"return_residuals\":false}": {
    "{\"b_block_size\":1024,\"v_block_size\":2048}": {
      "compile_time_ms": 343.06223599992336,
      "lower_time_ms": 23.630660999970132,
      "evaluation_times_ms": [
        848.903243,
        18446744074558.246,
        849.301822,
        849.148832,
        849.788123
      ],
      "metadata": {},
      "peak_memory_mb": 4347.9327
    }
  },
  "{\"x\":\"f32[131072,4096]\",\"labels\":\"i32[131072]\",\"w\":\"bf16[4096,128256]\",\"reduction\":\"mean\",\"return_residuals\":true}": {
    "{\"b_block_size\":1024,\"v_block_size\":2048}": {
      "compile_time_ms": 213.79699499993876,
      "lower_time_ms": 17.943878999858498,
      "evaluation_times_ms": [
        851.014055,
        851.142768,
        18446744074560.664,
        851.500865,
        18446744074561.027
      ],
      "metadata": {},
      "peak_memory_mb": 4348.457004
    }
  },
  "{\"x\":\"bf16[131072,4096]\",\"labels\":\"i32[131072]\",\"w\":\"bf16[4096,128256]\",\"reduction\":\"sum\",\"return_residuals\":false}": {
    "{\"b_block_size\":1024,\"v_block_size\":2048}": {
      "compile_time_ms": 104.13947300003201,
      "lower_time_ms": 22.89911699995173,
      "evaluation_times_ms": [
        448.003455,
        448.013666,
        447.992086,
        447.980234,
        448.045894
      ],
      "metadata": {},
      "peak_memory_mb": 3244.8246
    }
  },
  "{\"x\":\"bf16[131072,4096]\",\"labels\":\"i32[131072]\",\"w\":\"bf16[4096,128256]\",\"reduction\":\"sum\",\"return_residuals\":true}": {
    "{\"b_block_size\":1024,\"v_block_size\":2048}": {
      "compile_time_ms": 112.55816200014124,
      "lower_time_ms": 17.76888299991697,
      "evaluation_times_ms": [
        454.035106,
        454.140671,
        454.180633,
        454.132927,
        454.043623
      ],
      "metadata": {},
      "peak_memory_mb": 3245.08676
    }
  },
  "{\"x\":\"f32[131072,4096]\",\"labels\":\"i32[131072]\",\"w\":\"bf16[4096,128256]\",\"reduction\":\"sum\",\"return_residuals\":false}": {
    "{\"b_block_size\":1024,\"v_block_size\":2048}": {
      "compile_time_ms": 115.42808099989088,
      "lower_time_ms": 22.41585199999463,
      "evaluation_times_ms": [
        848.671117,
        848.713884,
        849.924278,
        849.840722,
        850.462791
      ],
      "metadata": {},
      "peak_memory_mb": 4347.9327
    }
  },
  "{\"x\":\"f32[131072,4096]\",\"labels\":\"i32[131072]\",\"w\":\"bf16[4096,128256]\",\"reduction\":\"sum\",\"return_residuals\":true}": {
    "{\"b_block_size\":1024,\"v_block_size\":2048}": {
      "compile_time_ms": 121.86810699995476,
      "lower_time_ms": 17.386649000172838,
      "evaluation_times_ms": [
        847.483775,
        847.5127,
        847.798243,
        848.250073,
        845.799699
      ],
      "metadata": {},
      "peak_memory_mb": 4348.457004
    }
  },
  "{\"x\":\"bf16[4096,7168]\",\"labels\":\"i32[4096]\",\"w\":\"bf16[7168,128256]\",\"reduction\":\"mean\",\"return_residuals\":false}": {
    "{\"b_block_size\":1024,\"v_block_size\":2048}": {
      "compile_time_ms": 501.8170609998833,
      "lower_time_ms": 24.4634139999107,
      "evaluation_times_ms": [
        22.122167,
        22.13059,
        22.136244,
        22.124986,
        22.129721
      ],
      "metadata": {},
      "peak_memory_mb": 3828.897816
    }
  },
  "{\"x\":\"bf16[4096,7168]\",\"labels\":\"i32[4096]\",\"w\":\"bf16[7168,128256]\",\"reduction\":\"mean\",\"return_residuals\":true}": {
    "{\"b_block_size\":1024,\"v_block_size\":2048}": {
      "compile_time_ms": 120.03872400009641,
      "lower_time_ms": 18.12923299985414,
      "evaluation_times_ms": [
        21.992668,
        21.989111,
        21.992485,
        21.99372,
        21.997885
      ],
      "metadata": {},
      "peak_memory_mb": 3828.906024
    }
  },
  "{\"x\":\"f32[4096,7168]\",\"labels\":\"i32[4096]\",\"w\":\"bf16[7168,128256]\",\"reduction\":\"mean\",\"return_residuals\":false}": {
    "{\"b_block_size\":1024,\"v_block_size\":2048}": {
      "compile_time_ms": 706.1935929998526,
      "lower_time_ms": 23.8899380001385,
      "evaluation_times_ms": [
        44.084744,
        44.155945,
        44.165161,
        44.190537,
        44.163947
      ],
      "metadata": {},
      "peak_memory_mb": 3935.858716
    }
  },
  "{\"x\":\"f32[4096,7168]\",\"labels\":\"i32[4096]\",\"w\":\"bf16[7168,128256]\",\"reduction\":\"mean\",\"return_residuals\":true}": {
    "{\"b_block_size\":1024,\"v_block_size\":2048}": {
      "compile_time_ms": 112.78461100005188,
      "lower_time_ms": 18.499870000141527,
      "evaluation_times_ms": [
        44.045284,
        44.061281,
        44.065663,
        44.102532,
        44.030366
      ],
      "metadata": {},
      "peak_memory_mb": 3935.875116
    }
  },
  "{\"x\":\"bf16[4096,7168]\",\"labels\":\"i32[4096]\",\"w\":\"bf16[7168,128256]\",\"reduction\":\"sum\",\"return_residuals\":false}": {
    "{\"b_block_size\":1024,\"v_block_size\":2048}": {
      "compile_time_ms": 108.20515599993996,
      "lower_time_ms": 23.051597999938167,
      "evaluation_times_ms": [
        22.020532,
        22.021403,
        22.020315,
        22.01593,
        22.026715
      ],
      "metadata": {},
      "peak_memory_mb": 3828.897816
    }
  },
  "{\"x\":\"bf16[4096,7168]\",\"labels\":\"i32[4096]\",\"w\":\"bf16[7168,128256]\",\"reduction\":\"sum\",\"return_residuals\":true}": {
    "{\"b_block_size\":1024,\"v_block_size\":2048}": {
      "compile_time_ms": 118.18169699995451,
      "lower_time_ms": 18.403067999997802,
      "evaluation_times_ms": [
        22.058987,
        22.051249,
        22.050861,
        22.055566,
        22.055729
      ],
      "metadata": {},
      "peak_memory_mb": 3828.906024
    }
  },
  "{\"x\":\"f32[4096,7168]\",\"labels\":\"i32[4096]\",\"w\":\"bf16[7168,128256]\",\"reduction\":\"sum\",\"return_residuals\":false}": {
    "{\"b_block_size\":1024,\"v_block_size\":2048}": {
      "compile_time_ms": 663.8693639999929,
      "lower_time_ms": 34.917405999976836,
      "evaluation_times_ms": [
        44.479429,
        44.549854,
        44.525309,
        44.515512,
        44.58288
      ],
      "metadata": {},
      "peak_memory_mb": 3935.858716
    }
  },
  "{\"x\":\"f32[4096,7168]\",\"labels\":\"i32[4096]\",\"w\":\"bf16[7168,128256]\",\"reduction\":\"sum\",\"return_residuals\":true}": {
    "{\"b_block_size\":1024,\"v_block_size\":2048}": {
      "compile_time_ms": 181.4153160000842,
      "lower_time_ms": 17.716457999995328,
      "evaluation_times_ms": [
        44.908582,
        44.882407,
        44.969276,
        44.902275,
        44.906181
      ],
      "metadata": {},
      "peak_memory_mb": 3935.875116
    }
  },
  "{\"x\":\"bf16[4096,2880]\",\"labels\":\"i32[4096]\",\"w\":\"bf16[2880,201088]\",\"reduction\":\"mean\",\"return_residuals\":false}": {
    "{\"b_block_size\":1024,\"v_block_size\":2048}": {
      "compile_time_ms": 655.221451073885,
      "lower_time_ms": 35.8620819170028,
      "evaluation_times_ms": [
        18.594877,
        18.618236,
        18.591228,
        18.591261,
        18.614234
      ],
      "metadata": {},
      "peak_memory_mb": 2371.622936
    }
  },
  "{\"x\":\"bf16[4096,2880]\",\"labels\":\"i32[4096]\",\"w\":\"bf16[2880,201088]\",\"reduction\":\"mean\",\"return_residuals\":true}": {
    "{\"b_block_size\":1024,\"v_block_size\":2048}": {
      "compile_time_ms": 259.53306804876775,
      "lower_time_ms": 17.361461999826133,
      "evaluation_times_ms": [
        18.628255,
        18.615165,
        18.619482,
        18.641663,
        18.601467
      ],
      "metadata": {},
      "peak_memory_mb": 2371.631144
    }
  },
  "{\"x\":\"f32[4096,2880]\",\"labels\":\"i32[4096]\",\"w\":\"bf16[2880,201088]\",\"reduction\":\"mean\",\"return_residuals\":false}": {
    "{\"b_block_size\":1024,\"v_block_size\":2048}": {
      "compile_time_ms": 1183.4949450567365,
      "lower_time_ms": 28.723551076836884,
      "evaluation_times_ms": [
        31.794611,
        31.841872,
        31.80504,
        31.846674,
        31.842641
      ],
      "metadata": {},
      "peak_memory_mb": 2450.6655
    }
  },
  "{\"x\":\"f32[4096,2880]\",\"labels\":\"i32[4096]\",\"w\":\"bf16[2880,201088]\",\"reduction\":\"mean\",\"return_residuals\":true}": {
    "{\"b_block_size\":1024,\"v_block_size\":2048}": {
      "compile_time_ms": 146.37572597712278,
      "lower_time_ms": 16.686195973306894,
      "evaluation_times_ms": [
        31.922421,
        31.989204,
        31.90997,
        31.89362,
        31.961362
      ],
      "metadata": {},
      "peak_memory_mb": 2450.6819
    }
  },
  "{\"x\":\"bf16[4096,2880]\",\"labels\":\"i32[4096]\",\"w\":\"bf16[2880,201088]\",\"reduction\":\"sum\",\"return_residuals\":false}": {
    "{\"b_block_size\":1024,\"v_block_size\":2048}": {
      "compile_time_ms": 192.63429602142423,
      "lower_time_ms": 21.484454977326095,
      "evaluation_times_ms": [
        18.610047,
        18.601726,
        18.611871999999998,
        18.637052999999998,
        18.612862
      ],
      "metadata": {},
      "peak_memory_mb": 2371.622936
    }
  },
  "{\"x\":\"bf16[4096,2880]\",\"labels\":\"i32[4096]\",\"w\":\"bf16[2880,201088]\",\"reduction\":\"sum\",\"return_residuals\":true}": {
    "{\"b_block_size\":1024,\"v_block_size\":2048}": {
      "compile_time_ms": 195.5258649541065,
      "lower_time_ms": 16.91975397989154,
      "evaluation_times_ms": [
        18.65136,
        18.649472,
        18.658398000000002,
        18.636218,
        18.650657
      ],
      "metadata": {},
      "peak_memory_mb": 2371.631144
    }
  },
  "{\"x\":\"f32[4096,2880]\",\"labels\":\"i32[4096]\",\"w\":\"bf16[2880,201088]\",\"reduction\":\"sum\",\"return_residuals\":false}": {
    "{\"b_block_size\":1024,\"v_block_size\":2048}": {
      "compile_time_ms": 85.80732508562505,
      "lower_time_ms": 21.45667397417128,
      "evaluation_times_ms": [
        31.885489,
        31.911476,
        31.955701,
        31.8821,
        31.919987
      ],
      "metadata": {},
      "peak_memory_mb": 2450.6655
    }
  },
  "{\"x\":\"f32[4096,2880]\",\"labels\":\"i32[4096]\",\"w\":\"bf16[2880,201088]\",\"reduction\":\"sum\",\"return_residuals\":true}": {
    "{\"b_block_size\":1024,\"v_block_size\":2048}": {
      "compile_time_ms": 90.35719290841371,
      "lower_time_ms": 16.73370401840657,
      "evaluation_times_ms": [
        31.880532,
        31.802775,
        31.85519,
        31.886137,
        31.916308
      ],
      "metadata": {},
      "peak_memory_mb": 2450.6819
    }
  },
  "{\"x\":\"bf16[8192,2880]\",\"labels\":\"i32[8192]\",\"w\":\"bf16[2880,201088]\",\"reduction\":\"mean\",\"return_residuals\":false}": {
    "{\"b_block_size\":1024,\"v_block_size\":2048}": {
      "compile_time_ms": 316.0711550153792,
      "lower_time_ms": 23.378170910291374,
      "evaluation_times_ms": [
        36.127229,
        36.12032,
        36.153691,
        36.08815,
        36.110325
      ],
      "metadata": {},
      "peak_memory_mb": 2395.23228
    }
  },
  "{\"x\":\"bf16[8192,2880]\",\"labels\":\"i32[8192]\",\"w\":\"bf16[2880,201088]\",\"reduction\":\"mean\",\"return_residuals\":true}": {
    "{\"b_block_size\":1024,\"v_block_size\":2048}": {
      "compile_time_ms": 260.52940997760743,
      "lower_time_ms": 17.291450989432633,
      "evaluation_times_ms": [
        36.395776,
        36.410365,
        36.38835,
        36.408125,
        36.408929
      ],
      "metadata": {},
      "peak_memory_mb": 2395.24868
    }
  },
  "{\"x\":\"f32[8192,2880]\",\"labels\":\"i32[8192]\",\"w\":\"bf16[2880,201088]\",\"reduction\":\"mean\",\"return_residuals\":false}": {
    "{\"b_block_size\":1024,\"v_block_size\":2048}": {
      "compile_time_ms": 188.17421700805426,
      "lower_time_ms": 22.27003697771579,
      "evaluation_times_ms": [
        63.051046,
        62.956703,
        63.020389,
        62.96724,
        63.057094
      ],
      "metadata": {},
      "peak_memory_mb": 2497.867804
    }
  },
  "{\"x\":\"f32[8192,2880]\",\"labels\":\"i32[8192]\",\"w\":\"bf16[2880,201088]\",\"reduction\":\"mean\",\"return_residuals\":true}": {
    "{\"b_block_size\":1024,\"v_block_size\":2048}": {
      "compile_time_ms": 732.4228980578482,
      "lower_time_ms": 33.81644003093243,
      "evaluation_times_ms": [
        63.13695,
        62.985365,
        62.951989,
        62.85183,
        62.964022
      ],
      "metadata": {},
      "peak_memory_mb": 2497.900588
    }
  },
  "{\"x\":\"bf16[8192,2880]\",\"labels\":\"i32[8192]\",\"w\":\"bf16[2880,201088]\",\"reduction\":\"sum\",\"return_residuals\":false}": {
    "{\"b_block_size\":1024,\"v_block_size\":2048}": {
      "compile_time_ms": 1335.7687540119514,
      "lower_time_ms": 29.05984001699835,
      "evaluation_times_ms": [
        36.547824,
        36.587822,
        36.5651,
        36.578797,
        36.558349
      ],
      "metadata": {},
      "peak_memory_mb": 2395.23228
    }
  },
  "{\"x\":\"bf16[8192,2880]\",\"labels\":\"i32[8192]\",\"w\":\"bf16[2880,201088]\",\"reduction\":\"sum\",\"return_residuals\":true}": {
    "{\"b_block_size\":1024,\"v_block_size\":2048}": {
      "compile_time_ms": 262.5192600535229,
      "lower_time_ms": 17.416966962628067,
      "evaluation_times_ms": [
        36.441503,
        36.470302,
        36.448766,
        36.489631,
        36.469855
      ],
      "metadata": {},
      "peak_memory_mb": 2395.24868
    }
  },
  "{\"x\":\"f32[8192,2880]\",\"labels\":\"i32[8192]\",\"w\":\"bf16[2880,201088]\",\"reduction\":\"sum\",\"return_residuals\":false}": {
    "{\"b_block_size\":1024,\"v_block_size\":2048}": {
      "compile_time_ms": 87.44221099186689,
      "lower_time_ms": 22.185498964972794,
      "evaluation_times_ms": [
        63.50748,
        63.483222,
        63.421368,
        63.516281,
        63.400869
      ],
      "metadata": {},
      "peak_memory_mb": 2497.867804
    }
  },
  "{\"x\":\"f32[8192,2880]\",\"labels\":\"i32[8192]\",\"w\":\"bf16[2880,201088]\",\"reduction\":\"sum\",\"return_residuals\":true}": {
    "{\"b_block_size\":1024,\"v_block_size\":2048}": {
      "compile_time_ms": 90.33830603584647,
      "lower_time_ms": 16.512915026396513,
      "evaluation_times_ms": [
        63.105607,
        63.171397,
        63.124359,
        63.212097,
        63.081249
      ],
      "metadata": {},
      "peak_memory_mb": 2497.900588
    }
  },
  "{\"x\":\"bf16[16384,2880]\",\"labels\":\"i32[16384]\",\"w\":\"bf16[2880,201088]\",\"reduction\":\"mean\",\"return_residuals\":false}": {
    "{\"b_block_size\":1024,\"v_block_size\":2048}": {
      "compile_time_ms": 341.15334996022284,
      "lower_time_ms": 23.803668096661568,
      "evaluation_times_ms": [
        72.067729,
        71.980689,
        72.069966,
        72.849459,
        72.044015
      ],
      "metadata": {},
      "peak_memory_mb": 2442.450968
    }
  },
  "{\"x\":\"bf16[16384,2880]\",\"labels\":\"i32[16384]\",\"w\":\"bf16[2880,201088]\",\"reduction\":\"mean\",\"return_residuals\":true}": {
    "{\"b_block_size\":1024,\"v_block_size\":2048}": {
      "compile_time_ms": 276.47827204782516,
      "lower_time_ms": 17.650839989073575,
      "evaluation_times_ms": [
        72.305938,
        72.324178,
        72.346834,
        72.274227,
        72.340914
      ],
      "metadata": {},
      "peak_memory_mb": 2442.483752
    }
  },
  "{\"x\":\"f32[16384,2880]\",\"labels\":\"i32[16384]\",\"w\":\"bf16[2880,201088]\",\"reduction\":\"mean\",\"return_residuals\":false}": {
    "{\"b_block_size\":1024,\"v_block_size\":2048}": {
      "compile_time_ms": 186.210296000354,
      "lower_time_ms": 21.957410965114832,
      "evaluation_times_ms": [
        125.727007,
        125.636446,
        125.929467,
        125.596797,
        126.395296
      ],
      "metadata": {},
      "peak_memory_mb": 2592.272412
    }
  },
  "{\"x\":\"f32[16384,2880]\",\"labels\":\"i32[16384]\",\"w\":\"bf16[2880,201088]\",\"reduction\":\"mean\",\"return_residuals\":true}": {
    "{\"b_block_size\":1024,\"v_block_size\":2048}": {
      "compile_time_ms": 152.7657969854772,
      "lower_time_ms": 17.200986039824784,
      "evaluation_times_ms": [
        126.156815,
        126.791683,
        127.154046,
        126.344542,
        126.081278
      ],
      "metadata": {},
      "peak_memory_mb": 2592.337964
    }
  },
  "{\"x\":\"bf16[16384,2880]\",\"labels\":\"i32[16384]\",\"w\":\"bf16[2880,201088]\",\"reduction\":\"sum\",\"return_residuals\":false}": {
    "{\"b_block_size\":1024,\"v_block_size\":2048}": {
      "compile_time_ms": 192.4408379709348,
      "lower_time_ms": 21.79189189337194,
      "evaluation_times_ms": [
        72.758204,
        72.764064,
        72.705889,
        72.781695,
        72.783645
      ],
      "metadata": {},
      "peak_memory_mb": 2442.450968
    }
  },
  "{\"x\":\"bf16[16384,2880]\",\"labels\":\"i32[16384]\",\"w\":\"bf16[2880,201088]\",\"reduction\":\"sum\",\"return_residuals\":true}": {
    "{\"b_block_size\":1024,\"v_block_size\":2048}": {
      "compile_time_ms": 195.00595203135163,
      "lower_time_ms": 16.686747083440423,
      "evaluation_times_ms": [
        72.334574,
        72.358736,
        72.300619,
        72.337672,
        72.273037
      ],
      "metadata": {},
      "peak_memory_mb": 2442.483752
    }
  },
  "{\"x\":\"f32[16384,2880]\",\"labels\":\"i32[16384]\",\"w\":\"bf16[2880,201088]\",\"reduction\":\"sum\",\"return_residuals\":false}": {
    "{\"b_block_size\":1024,\"v_block_size\":2048}": {
      "compile_time_ms": 85.0394939770922,
      "lower_time_ms": 21.71222004108131,
      "evaluation_times_ms": [
        125.956629,
        125.873981,
        125.934849,
        126.013216,
        125.941498
      ],
      "metadata": {},
      "peak_memory_mb": 2592.272412
    }
  },
  "{\"x\":\"f32[16384,2880]\",\"labels\":\"i32[16384]\",\"w\":\"bf16[2880,201088]\",\"reduction\":\"sum\",\"return_residuals\":true}": {
    "{\"b_block_size\":1024,\"v_block_size\":2048}": {
      "compile_time_ms": 87.56591496057808,
      "lower_time_ms": 16.606618999503553,
      "evaluation_times_ms": [
        125.220545,
        125.43069,
        125.321126,
        125.709089,
        125.937373
      ],
      "metadata": {},
      "peak_memory_mb": 2592.337964
    }
  },
  "{\"x\":\"bf16[32768,2880]\",\"labels\":\"i32[32768]\",\"w\":\"bf16[2880,201088]\",\"reduction\":\"mean\",\"return_residuals\":false}": {
    "{\"b_block_size\":1024,\"v_block_size\":2048}": {
      "compile_time_ms": 318.32178600598127,
      "lower_time_ms": 24.78776196949184,
      "evaluation_times_ms": [
        144.326719,
        144.347935,
        144.317704,
        144.277988,
        144.168711
      ],
      "metadata": {},
      "peak_memory_mb": 2536.888344
    }
  },
  "{\"x\":\"bf16[32768,2880]\",\"labels\":\"i32[32768]\",\"w\":\"bf16[2880,201088]\",\"reduction\":\"mean\",\"return_residuals\":true}": {
    "{\"b_block_size\":1024,\"v_block_size\":2048}": {
      "compile_time_ms": 264.6042800042778,
      "lower_time_ms": 17.704398022033274,
      "evaluation_times_ms": [
        143.134895,
        143.220217,
        143.223607,
        143.204596,
        143.301303
      ],
      "metadata": {},
      "peak_memory_mb": 2536.953896
    }
  },
  "{\"x\":\"f32[32768,2880]\",\"labels\":\"i32[32768]\",\"w\":\"bf16[2880,201088]\",\"reduction\":\"mean\",\"return_residuals\":false}": {
    "{\"b_block_size\":1024,\"v_block_size\":2048}": {
      "compile_time_ms": 185.21879997570068,
      "lower_time_ms": 22.317575989291072,
      "evaluation_times_ms": [
        251.102162,
        250.482695,
        251.5555,
        252.9411,
        251.824215
      ],
      "metadata": {},
      "peak_memory_mb": 2781.081628
    }
  },
  "{\"x\":\"f32[32768,2880]\",\"labels\":\"i32[32768]\",\"w\":\"bf16[2880,201088]\",\"reduction\":\"mean\",\"return_residuals\":true}": {
    "{\"b_block_size\":1024,\"v_block_size\":2048}": {
      "compile_time_ms": 151.81359404232353,
      "lower_time_ms": 17.006445094011724,
      "evaluation_times_ms": [
        249.67162,
        249.702335,
        249.429736,
        249.627397,
        249.702347
      ],
      "metadata": {},
      "peak_memory_mb": 2781.212716
    }
  },
  "{\"x\":\"bf16[32768,2880]\",\"labels\":\"i32[32768]\",\"w\":\"bf16[2880,201088]\",\"reduction\":\"sum\",\"return_residuals\":false}": {
    "{\"b_block_size\":1024,\"v_block_size\":2048}": {
      "compile_time_ms": 193.1426110677421,
      "lower_time_ms": 22.05939998384565,
      "evaluation_times_ms": [
        144.673836,
        144.720226,
        144.729505,
        144.691652,
        144.647719
      ],
      "metadata": {},
      "peak_memory_mb": 2536.888344
    }
  },
  "{\"x\":\"bf16[32768,2880]\",\"labels\":\"i32[32768]\",\"w\":\"bf16[2880,201088]\",\"reduction\":\"sum\",\"return_residuals\":true}": {
    "{\"b_block_size\":1024,\"v_block_size\":2048}": {
      "compile_time_ms": 195.31811901833862,
      "lower_time_ms": 17.665434046648443,
      "evaluation_times_ms": [
        143.352439,
        143.41855,
        143.42441,
        143.460686,
        143.384497
      ],
      "metadata": {},
      "peak_memory_mb": 2536.953896
    }
  },
  "{\"x\":\"f32[32768,2880]\",\"labels\":\"i32[32768]\",\"w\":\"bf16[2880,201088]\",\"reduction\":\"sum\",\"return_residuals\":false}": {
    "{\"b_block_size\":1024,\"v_block_size\":2048}": {
      "compile_time_ms": 86.6033029742539,
      "lower_time_ms": 21.75471803639084,
      "evaluation_times_ms": [
        251.354465,
        251.209496,
        251.416122,
        251.350228,
        251.391149
      ],
      "metadata": {},
      "peak_memory_mb": 2781.081628
    }
  },
  "{\"x\":\"f32[32768,2880]\",\"labels\":\"i32[32768]\",\"w\":\"bf16[2880,201088]\",\"reduction\":\"sum\",\"return_residuals\":true}": {
    "{\"b_block_size\":1024,\"v_block_size\":2048}": {
      "compile_time_ms": 87.46795600745827,
      "lower_time_ms": 16.636735992506146,
      "evaluation_times_ms": [
        249.863768,
        250.201307,
        250.00633,
        250.140678,
        249.625523
      ],
      "metadata": {},
      "peak_memory_mb": 2781.212716
    }
  },
  "{\"x\":\"bf16[1024,5120]\",\"labels\":\"i32[1024]\",\"w\":\"bf16[5120,151936]\",\"reduction\":\"mean\",\"return_residuals\":false}": {
    "{\"b_block_size\":1024,\"v_block_size\":2048}": {
      "compile_time_ms": 495.1042770408094,
      "lower_time_ms": 24.071480031125247,
      "evaluation_times_ms": [
        5.228538,
        5.229434,
        5.2259459999999995,
        5.234362,
        5.228186
      ],
      "metadata": {},
      "peak_memory_mb": 3197.904906
    }
  },
  "{\"x\":\"bf16[1024,5120]\",\"labels\":\"i32[1024]\",\"w\":\"bf16[5120,151936]\",\"reduction\":\"mean\",\"return_residuals\":true}": {
    "{\"b_block_size\":1024,\"v_block_size\":2048}": {
      "compile_time_ms": 77.886568964459,
      "lower_time_ms": 17.138036899268627,
      "evaluation_times_ms": [
        5.229368,
        5.237561,
        5.230362,
        5.237337,
        5.234521
      ],
      "metadata": {},
      "peak_memory_mb": 3197.904922
    }
  },
  "{\"x\":\"f32[1024,5120]\",\"labels\":\"i32[1024]\",\"w\":\"bf16[5120,151936]\",\"reduction\":\"mean\",\"return_residuals\":false}": {
    "{\"b_block_size\":1024,\"v_block_size\":2048}": {
      "compile_time_ms": 650.5097930785269,
      "lower_time_ms": 23.135083029046655,
      "evaluation_times_ms": [
        9.386898,
        9.439505,
        9.401554,
        9.438577,
        9.389778
      ],
      "metadata": {},
      "peak_memory_mb": 3233.562632
    }
  },
  "{\"x\":\"f32[1024,5120]\",\"labels\":\"i32[1024]\",\"w\":\"bf16[5120,151936]\",\"reduction\":\"mean\",\"return_residuals\":true}": {
    "{\"b_block_size\":1024,\"v_block_size\":2048}": {
      "compile_time_ms": 75.84229903295636,
      "lower_time_ms": 17.201005946844816,
      "evaluation_times_ms": [
        9.394129,
        9.393297,
        9.398545,
        9.397745,
        9.413233
      ],
      "metadata": {},
      "peak_memory_mb": 3233.562648
    }
  },
  "{\"x\":\"bf16[1024,5120]\",\"labels\":\"i32[1024]\",\"w\":\"bf16[5120,151936]\",\"reduction\":\"sum\",\"return_residuals\":false}": {
    "{\"b_block_size\":1024,\"v_block_size\":2048}": {
      "compile_time_ms": 114.52596494928002,
      "lower_time_ms": 22.034558933228254,
      "evaluation_times_ms": [
        5.235159,
        5.240312,
        5.2325040000000005,
        5.232214,
        5.237782
      ],
      "metadata": {},
      "peak_memory_mb": 3197.904906
    }
  },
  "{\"x\":\"bf16[1024,5120]\",\"labels\":\"i32[1024]\",\"w\":\"bf16[5120,151936]\",\"reduction\":\"sum\",\"return_residuals\":true}": {
    "{\"b_block_size\":1024,\"v_block_size\":2048}": {
      "compile_time_ms": 77.47467688750476,
      "lower_time_ms": 17.472206032834947,
      "evaluation_times_ms": [
        5.222935,
        5.2211739999999995,
        5.219446,
        5.217846,
        5.213366
      ],
      "metadata": {},
      "peak_memory_mb": 3197.904922
    }
  },
  "{\"x\":\"f32[1024,5120]\",\"labels\":\"i32[1024]\",\"w\":\"bf16[5120,151936]\",\"reduction\":\"sum\",\"return_residuals\":false}": {
    "{\"b_block_size\":1024,\"v_block_size\":2048}": {
      "compile_time_ms": 110.71722093038261,
      "lower_time_ms": 21.64403907954693,
      "evaluation_times_ms": [
        9.548749,
        9.529836,
        9.545645,
        9.570123,
        9.540046
      ],
      "metadata": {},
      "peak_memory_mb": 3233.562632
    }
  },
  "{\"x\":\"f32[1024,5120]\",\"labels\":\"i32[1024]\",\"w\":\"bf16[5120,151936]\",\"reduction\":\"sum\",\"return_residuals\":true}": {
    "{\"b_block_size\":1024,\"v_block_size\":2048}": {
      "compile_time_ms": 482.8103380277753,
      "lower_time_ms": 32.83357701729983,
      "evaluation_times_ms": [
        9.402672,
        9.417296,
        9.424561,
        9.427535,
        9.393584
      ],
      "metadata": {},
      "peak_memory_mb": 3233.562648
    }
  },
  "{\"x\":\"bf16[2048,5120]\",\"labels\":\"i32[2048]\",\"w\":\"bf16[5120,151936]\",\"reduction\":\"mean\",\"return_residuals\":false}": {
    "{\"b_block_size\":1024,\"v_block_size\":2048}": {
      "compile_time_ms": 878.557188000741,
      "lower_time_ms": 37.958652999805054,
      "evaluation_times_ms": [
        10.74936,
        10.742866,
        10.750769,
        10.745296,
        10.746734
      ],
      "metadata": {},
      "peak_memory_mb": 3218.880536
    }
  },
  "{\"x\":\"bf16[2048,5120]\",\"labels\":\"i32[2048]\",\"w\":\"bf16[5120,151936]\",\"reduction\":\"mean\",\"return_residuals\":true}": {
    "{\"b_block_size\":1024,\"v_block_size\":2048}": {
      "compile_time_ms": 220.69069799999852,
      "lower_time_ms": 18.278960000316147,
      "evaluation_times_ms": [
        10.684111,
        10.683224,
        10.675093,
        10.679251,
        10.685166
      ],
      "metadata": {},
      "peak_memory_mb": 3218.884648
    }
  },
  "{\"x\":\"f32[2048,5120]\",\"labels\":\"i32[2048]\",\"w\":\"bf16[5120,151936]\",\"reduction\":\"mean\",\"return_residuals\":false}": {
    "{\"b_block_size\":1024,\"v_block_size\":2048}": {
      "compile_time_ms": 1207.8830199998265,
      "lower_time_ms": 29.483565999726125,
      "evaluation_times_ms": [
        20.09435,
        20.099374,
        20.047629,
        20.111851,
        20.08846
      ],
      "metadata": {},
      "peak_memory_mb": 3275.509788
    }
  },
  "{\"x\":\"f32[2048,5120]\",\"labels\":\"i32[2048]\",\"w\":\"bf16[5120,151936]\",\"reduction\":\"mean\",\"return_residuals\":true}": {
    "{\"b_block_size\":1024,\"v_block_size\":2048}": {
      "compile_time_ms": 251.73279200043908,
      "lower_time_ms": 17.997169000409485,
      "evaluation_times_ms": [
        20.654441,
        20.620424,
        20.580234,
        20.584461,
        20.586669
      ],
      "metadata": {},
      "peak_memory_mb": 3275.517996
    }
  },
  "{\"x\":\"bf16[2048,5120]\",\"labels\":\"i32[2048]\",\"w\":\"bf16[5120,151936]\",\"reduction\":\"sum\",\"return_residuals\":false}": {
    "{\"b_block_size\":1024,\"v_block_size\":2048}": {
      "compile_time_ms": 105.81396199995652,
      "lower_time_ms": 22.920627000530658,
      "evaluation_times_ms": [
        10.770579,
        10.772882,
        10.778837,
        10.769523,
        10.770354
      ],
      "metadata": {},
      "peak_memory_mb": 3218.880536
    }
  },
  "{\"x\":\"bf16[2048,5120]\",\"labels\":\"i32[2048]\",\"w\":\"bf16[5120,151936]\",\"reduction\":\"sum\",\"return_residuals\":true}": {
    "{\"b_block_size\":1024,\"v_block_size\":2048}": {
      "compile_time_ms": 111.89092099994014,
      "lower_time_ms": 17.93706700027542,
      "evaluation_times_ms": [
        10.686162,
        10.687501,
        10.681716,
        10.679538,
        10.685263
      ],
      "metadata": {},
      "peak_memory_mb": 3218.884648
    }
  },
  "{\"x\":\"f32[2048,5120]\",\"labels\":\"i32[2048]\",\"w\":\"bf16[5120,151936]\",\"reduction\":\"sum\",\"return_residuals\":false}": {
    "{\"b_block_size\":1024,\"v_block_size\":2048}": {
      "compile_time_ms": 110.64754500057461,
      "lower_time_ms": 22.530770000230405,
      "evaluation_times_ms": [
        20.299854,
        20.276527,
        20.270861,
        20.261838,
        20.266924
      ],
      "metadata": {},
      "peak_memory_mb": 3275.509788
    }
  },
  "{\"x\":\"f32[2048,5120]\",\"labels\":\"i32[2048]\",\"w\":\"bf16[5120,151936]\",\"reduction\":\"sum\",\"return_residuals\":true}": {}
}
