{
  "{\"q\":\"bf16[32,4096,32,128]\",\"k\":\"bf16[32,4096,8,128]\",\"v\":\"bf16[32,4096,8,128]\",\"precision\":[[\"DEFAULT\",\"DEFAULT\"],[\"DEFAULT\",\"DEFAULT\"]],\"logits_dtype\":\"float32\",\"logits_scale\":0.08838834764831843,\"bias\":null,\"logits_soft_cap\":null,\"mask\":{\"bool_mask\":null,\"q_start\":null,\"q_end\":null,\"k_start\":null,\"k_end\":null,\"is_causal\":true},\"dropout_mask\":null,\"dropout_rate\":0.0,\"paging_info\":null,\"q_indices\":null,\"k_indices\":null,\"normalize_output\":true,\"return_residuals\":false}": {},
  "{\"q\":\"bf16[32,4096,32,128]\",\"k\":\"bf16[32,4096,8,128]\",\"v\":\"bf16[32,4096,8,128]\",\"precision\":[[\"DEFAULT\",\"DEFAULT\"],[\"DEFAULT\",\"DEFAULT\"]],\"logits_dtype\":\"float32\",\"logits_scale\":0.08838834764831843,\"bias\":null,\"logits_soft_cap\":null,\"mask\":{\"bool_mask\":null,\"q_start\":null,\"q_end\":null,\"k_start\":null,\"k_end\":null,\"is_causal\":true},\"dropout_mask\":null,\"dropout_rate\":0.0,\"paging_info\":null,\"q_indices\":null,\"k_indices\":null,\"normalize_output\":true,\"return_residuals\":true}": {},
  "{\"q\":\"bf16[512,1024,16,192]\",\"k\":\"bf16[512,1024,16,192]\",\"v\":\"bf16[512,1024,16,128]\",\"precision\":[[\"DEFAULT\",\"DEFAULT\"],[\"DEFAULT\",\"DEFAULT\"]],\"logits_dtype\":\"float32\",\"logits_scale\":0.07216878364870323,\"bias\":null,\"logits_soft_cap\":null,\"mask\":{\"bool_mask\":null,\"q_start\":null,\"q_end\":null,\"k_start\":null,\"k_end\":null,\"is_causal\":true},\"dropout_mask\":null,\"dropout_rate\":0.0,\"paging_info\":null,\"q_indices\":null,\"k_indices\":null,\"normalize_output\":true,\"return_residuals\":false}": {},
  "{\"q\":\"bf16[512,1024,16,192]\",\"k\":\"bf16[512,1024,16,192]\",\"v\":\"bf16[512,1024,16,128]\",\"precision\":[[\"DEFAULT\",\"DEFAULT\"],[\"DEFAULT\",\"DEFAULT\"]],\"logits_dtype\":\"float32\",\"logits_scale\":0.07216878364870323,\"bias\":null,\"logits_soft_cap\":null,\"mask\":{\"bool_mask\":null,\"q_start\":null,\"q_end\":null,\"k_start\":null,\"k_end\":null,\"is_causal\":true},\"dropout_mask\":null,\"dropout_rate\":0.0,\"paging_info\":null,\"q_indices\":null,\"k_indices\":null,\"normalize_output\":true,\"return_residuals\":true}": {},
  "{\"q\":\"bf16[384,384,4,32]\",\"k\":\"bf16[384,384,4,32]\",\"v\":\"bf16[384,384,4,32]\",\"precision\":[[\"DEFAULT\",\"DEFAULT\"],[\"DEFAULT\",\"DEFAULT\"]],\"logits_dtype\":\"float32\",\"logits_scale\":0.17677669529663687,\"bias\":\"bf16[1,4,384,384]\",\"logits_soft_cap\":null,\"mask\":{\"bool_mask\":\"bool[384,1,1,384]\",\"q_start\":null,\"q_end\":null,\"k_start\":null,\"k_end\":null,\"is_causal\":false},\"dropout_mask\":null,\"dropout_rate\":0.0,\"paging_info\":null,\"q_indices\":null,\"k_indices\":null,\"normalize_output\":true,\"return_residuals\":false}": {
    "{}": {
      "compile_time_ms": 1319.4542530000035,
      "lower_time_ms": 20.696614000030422,
      "evaluation_times_ms": [
        2.249769,
        2.238666,
        2.247594,
        2.242795,
        2.2355329999999998
      ],
      "metadata": {},
      "peak_memory_mb": 1964.261376
    }
  },
  "{\"q\":\"bf16[384,384,4,32]\",\"k\":\"bf16[384,384,4,32]\",\"v\":\"bf16[384,384,4,32]\",\"precision\":[[\"DEFAULT\",\"DEFAULT\"],[\"DEFAULT\",\"DEFAULT\"]],\"logits_dtype\":\"float32\",\"logits_scale\":0.17677669529663687,\"bias\":\"bf16[1,4,384,384]\",\"logits_soft_cap\":null,\"mask\":{\"bool_mask\":\"bool[384,1,1,384]\",\"q_start\":null,\"q_end\":null,\"k_start\":null,\"k_end\":null,\"is_causal\":false},\"dropout_mask\":null,\"dropout_rate\":0.0,\"paging_info\":null,\"q_indices\":null,\"k_indices\":null,\"normalize_output\":true,\"return_residuals\":true}": {
    "{}": {
      "compile_time_ms": 448.55920399993465,
      "lower_time_ms": 14.562466999905155,
      "evaluation_times_ms": [
        1.981907,
        1.981781,
        1.982674,
        1.980113,
        1.981109
      ],
      "metadata": {},
      "peak_memory_mb": 1100.759064
    }
  },
  "{\"q\":\"bf16[384,384,4,64]\",\"k\":\"bf16[384,384,4,64]\",\"v\":\"bf16[384,384,4,64]\",\"precision\":[[\"DEFAULT\",\"DEFAULT\"],[\"DEFAULT\",\"DEFAULT\"]],\"logits_dtype\":\"float32\",\"logits_scale\":0.125,\"bias\":\"bf16[1,4,384,384]\",\"logits_soft_cap\":null,\"mask\":{\"bool_mask\":\"bool[384,1,1,384]\",\"q_start\":null,\"q_end\":null,\"k_start\":null,\"k_end\":null,\"is_causal\":false},\"dropout_mask\":null,\"dropout_rate\":0.0,\"paging_info\":null,\"q_indices\":null,\"k_indices\":null,\"normalize_output\":true,\"return_residuals\":false}": {
    "{}": {
      "compile_time_ms": 1300.2133879999747,
      "lower_time_ms": 15.373837000083768,
      "evaluation_times_ms": [
        2.4044760000000003,
        2.400669,
        2.398558,
        2.395997,
        2.400989
      ],
      "metadata": {},
      "peak_memory_mb": 2115.25632
    }
  },
  "{\"q\":\"bf16[384,384,4,64]\",\"k\":\"bf16[384,384,4,64]\",\"v\":\"bf16[384,384,4,64]\",\"precision\":[[\"DEFAULT\",\"DEFAULT\"],[\"DEFAULT\",\"DEFAULT\"]],\"logits_dtype\":\"float32\",\"logits_scale\":0.125,\"bias\":\"bf16[1,4,384,384]\",\"logits_soft_cap\":null,\"mask\":{\"bool_mask\":\"bool[384,1,1,384]\",\"q_start\":null,\"q_end\":null,\"k_start\":null,\"k_end\":null,\"is_causal\":false},\"dropout_mask\":null,\"dropout_rate\":0.0,\"paging_info\":null,\"q_indices\":null,\"k_indices\":null,\"normalize_output\":true,\"return_residuals\":true}": {
    "{}": {
      "compile_time_ms": 167.37907800006724,
      "lower_time_ms": 14.594742999975097,
      "evaluation_times_ms": [
        2.131593,
        2.132329,
        2.1326169999999998,
        2.131624,
        2.133096
      ],
      "metadata": {},
      "peak_memory_mb": 1289.502744
    }
  },
  "{\"q\":\"bf16[768,768,4,64]\",\"k\":\"bf16[768,768,4,64]\",\"v\":\"bf16[768,768,4,64]\",\"precision\":[[\"DEFAULT\",\"DEFAULT\"],[\"DEFAULT\",\"DEFAULT\"]],\"logits_dtype\":\"float32\",\"logits_scale\":0.125,\"bias\":\"bf16[1,4,768,768]\",\"logits_soft_cap\":null,\"mask\":{\"bool_mask\":\"bool[768,1,1,768]\",\"q_start\":null,\"q_end\":null,\"k_start\":null,\"k_end\":null,\"is_causal\":false},\"dropout_mask\":null,\"dropout_rate\":0.0,\"paging_info\":null,\"q_indices\":null,\"k_indices\":null,\"normalize_output\":true,\"return_residuals\":false}": {},
  "{\"q\":\"bf16[768,768,4,64]\",\"k\":\"bf16[768,768,4,64]\",\"v\":\"bf16[768,768,4,64]\",\"precision\":[[\"DEFAULT\",\"DEFAULT\"],[\"DEFAULT\",\"DEFAULT\"]],\"logits_dtype\":\"float32\",\"logits_scale\":0.125,\"bias\":\"bf16[1,4,768,768]\",\"logits_soft_cap\":null,\"mask\":{\"bool_mask\":\"bool[768,1,1,768]\",\"q_start\":null,\"q_end\":null,\"k_start\":null,\"k_end\":null,\"is_causal\":false},\"dropout_mask\":null,\"dropout_rate\":0.0,\"paging_info\":null,\"q_indices\":null,\"k_indices\":null,\"normalize_output\":true,\"return_residuals\":true}": {},
  "{\"q\":\"bf16[32,512,32,64]\",\"k\":\"bf16[32,512,32,64]\",\"v\":\"bf16[32,512,32,64]\",\"precision\":[[\"DEFAULT\",\"DEFAULT\"],[\"DEFAULT\",\"DEFAULT\"]],\"logits_dtype\":\"float32\",\"logits_scale\":0.125,\"bias\":null,\"logits_soft_cap\":null,\"mask\":{\"bool_mask\":null,\"q_start\":null,\"q_end\":null,\"k_start\":null,\"k_end\":null,\"is_causal\":true},\"dropout_mask\":null,\"dropout_rate\":0.0,\"paging_info\":null,\"q_indices\":null,\"k_indices\":null,\"normalize_output\":true,\"return_residuals\":false}": {
    "{}": {
      "compile_time_ms": 1331.3815110000178,
      "lower_time_ms": 20.326390000036554,
      "evaluation_times_ms": [
        2.377486,
        2.389196,
        2.362773,
        2.364084,
        2.363572
      ],
      "metadata": {},
      "peak_memory_mb": 2415.919104
    }
  },
  "{\"q\":\"bf16[32,512,32,64]\",\"k\":\"bf16[32,512,32,64]\",\"v\":\"bf16[32,512,32,64]\",\"precision\":[[\"DEFAULT\",\"DEFAULT\"],[\"DEFAULT\",\"DEFAULT\"]],\"logits_dtype\":\"float32\",\"logits_scale\":0.125,\"bias\":null,\"logits_soft_cap\":null,\"mask\":{\"bool_mask\":null,\"q_start\":null,\"q_end\":null,\"k_start\":null,\"k_end\":null,\"is_causal\":true},\"dropout_mask\":null,\"dropout_rate\":0.0,\"paging_info\":null,\"q_indices\":null,\"k_indices\":null,\"normalize_output\":true,\"return_residuals\":true}": {
    "{}": {
      "compile_time_ms": 373.138537000159,
      "lower_time_ms": 13.603177000049982,
      "evaluation_times_ms": [
        2.435291,
        2.4316459999999998,
        2.432348,
        2.43369,
        2.436122
      ],
      "metadata": {},
      "peak_memory_mb": 1413.480472
    }
  },
  "{\"q\":\"f16[32,512,32,64]\",\"k\":\"f16[32,512,32,64]\",\"v\":\"f16[32,512,32,64]\",\"precision\":[[\"DEFAULT\",\"DEFAULT\"],[\"DEFAULT\",\"DEFAULT\"]],\"logits_dtype\":\"float32\",\"logits_scale\":0.125,\"bias\":null,\"logits_soft_cap\":null,\"mask\":{\"bool_mask\":null,\"q_start\":null,\"q_end\":null,\"k_start\":null,\"k_end\":null,\"is_causal\":true},\"dropout_mask\":null,\"dropout_rate\":0.0,\"paging_info\":null,\"q_indices\":null,\"k_indices\":null,\"normalize_output\":true,\"return_residuals\":false}": {
    "{}": {
      "compile_time_ms": 1260.7038359999478,
      "lower_time_ms": 15.377285000113261,
      "evaluation_times_ms": [
        2.122215,
        2.125062,
        2.142527,
        2.124838,
        2.124263
      ],
      "metadata": {},
      "peak_memory_mb": 1879.048192
    }
  },
  "{\"q\":\"f16[32,512,32,64]\",\"k\":\"f16[32,512,32,64]\",\"v\":\"f16[32,512,32,64]\",\"precision\":[[\"DEFAULT\",\"DEFAULT\"],[\"DEFAULT\",\"DEFAULT\"]],\"logits_dtype\":\"float32\",\"logits_scale\":0.125,\"bias\":null,\"logits_soft_cap\":null,\"mask\":{\"bool_mask\":null,\"q_start\":null,\"q_end\":null,\"k_start\":null,\"k_end\":null,\"is_causal\":true},\"dropout_mask\":null,\"dropout_rate\":0.0,\"paging_info\":null,\"q_indices\":null,\"k_indices\":null,\"normalize_output\":true,\"return_residuals\":true}": {
    "{}": {
      "compile_time_ms": 160.72414999985085,
      "lower_time_ms": 13.701929000035307,
      "evaluation_times_ms": [
        2.053118,
        2.054237,
        2.053886,
        2.055485,
        2.055005
      ],
      "metadata": {},
      "peak_memory_mb": 1883.24252
    }
  },
  "{\"q\":\"bf16[32,512,32,64]\",\"k\":\"bf16[32,512,32,64]\",\"v\":\"bf16[32,512,32,64]\",\"precision\":[[\"DEFAULT\",\"DEFAULT\"],[\"DEFAULT\",\"DEFAULT\"]],\"logits_dtype\":\"float32\",\"logits_scale\":0.125,\"bias\":null,\"logits_soft_cap\":null,\"mask\":{\"bool_mask\":null,\"q_start\":null,\"q_end\":null,\"k_start\":null,\"k_end\":null,\"is_causal\":false},\"dropout_mask\":null,\"dropout_rate\":0.0,\"paging_info\":null,\"q_indices\":null,\"k_indices\":null,\"normalize_output\":true,\"return_residuals\":false}": {
    "{}": {
      "compile_time_ms": 305.71326599988424,
      "lower_time_ms": 12.10575200002495,
      "evaluation_times_ms": [
        1.7416719999999999,
        1.74244,
        1.741352,
        1.742024,
        1.742472
      ],
      "metadata": {},
      "peak_memory_mb": 2415.919104
    }
  },
  "{\"q\":\"bf16[32,512,32,64]\",\"k\":\"bf16[32,512,32,64]\",\"v\":\"bf16[32,512,32,64]\",\"precision\":[[\"DEFAULT\",\"DEFAULT\"],[\"DEFAULT\",\"DEFAULT\"]],\"logits_dtype\":\"float32\",\"logits_scale\":0.125,\"bias\":null,\"logits_soft_cap\":null,\"mask\":{\"bool_mask\":null,\"q_start\":null,\"q_end\":null,\"k_start\":null,\"k_end\":null,\"is_causal\":false},\"dropout_mask\":null,\"dropout_rate\":0.0,\"paging_info\":null,\"q_indices\":null,\"k_indices\":null,\"normalize_output\":true,\"return_residuals\":true}": {
    "{}": {
      "compile_time_ms": 286.19140699993295,
      "lower_time_ms": 12.670170000092185,
      "evaluation_times_ms": [
        2.4301690000000002,
        2.429916,
        2.432122,
        2.431292,
        2.431835
      ],
      "metadata": {},
      "peak_memory_mb": 1413.480472
    }
  },
  "{\"q\":\"f16[32,512,32,64]\",\"k\":\"f16[32,512,32,64]\",\"v\":\"f16[32,512,32,64]\",\"precision\":[[\"DEFAULT\",\"DEFAULT\"],[\"DEFAULT\",\"DEFAULT\"]],\"logits_dtype\":\"float32\",\"logits_scale\":0.125,\"bias\":null,\"logits_soft_cap\":null,\"mask\":{\"bool_mask\":null,\"q_start\":null,\"q_end\":null,\"k_start\":null,\"k_end\":null,\"is_causal\":false},\"dropout_mask\":null,\"dropout_rate\":0.0,\"paging_info\":null,\"q_indices\":null,\"k_indices\":null,\"normalize_output\":true,\"return_residuals\":false}": {
    "{}": {
      "compile_time_ms": 288.8170710000395,
      "lower_time_ms": 12.432628999931694,
      "evaluation_times_ms": [
        1.361389,
        1.361645,
        1.360939,
        1.361898,
        1.361228
      ],
      "metadata": {},
      "peak_memory_mb": 1879.048192
    }
  },
  "{\"q\":\"f16[32,512,32,64]\",\"k\":\"f16[32,512,32,64]\",\"v\":\"f16[32,512,32,64]\",\"precision\":[[\"DEFAULT\",\"DEFAULT\"],[\"DEFAULT\",\"DEFAULT\"]],\"logits_dtype\":\"float32\",\"logits_scale\":0.125,\"bias\":null,\"logits_soft_cap\":null,\"mask\":{\"bool_mask\":null,\"q_start\":null,\"q_end\":null,\"k_start\":null,\"k_end\":null,\"is_causal\":false},\"dropout_mask\":null,\"dropout_rate\":0.0,\"paging_info\":null,\"q_indices\":null,\"k_indices\":null,\"normalize_output\":true,\"return_residuals\":true}": {
    "{}": {
      "compile_time_ms": 160.71949299998778,
      "lower_time_ms": 12.503567999829102,
      "evaluation_times_ms": [
        2.054046,
        2.0559,
        2.052799,
        2.0543649999999998,
        2.053982
      ],
      "metadata": {},
      "peak_memory_mb": 1883.24252
    }
  },
  "{\"q\":\"bf16[32,512,16,128]\",\"k\":\"bf16[32,512,16,128]\",\"v\":\"bf16[32,512,16,128]\",\"precision\":[[\"DEFAULT\",\"DEFAULT\"],[\"DEFAULT\",\"DEFAULT\"]],\"logits_dtype\":\"float32\",\"logits_scale\":0.08838834764831843,\"bias\":null,\"logits_soft_cap\":null,\"mask\":{\"bool_mask\":null,\"q_start\":null,\"q_end\":null,\"k_start\":null,\"k_end\":null,\"is_causal\":true},\"dropout_mask\":null,\"dropout_rate\":0.0,\"paging_info\":null,\"q_indices\":null,\"k_indices\":null,\"normalize_output\":true,\"return_residuals\":false}": {
    "{}": {
      "compile_time_ms": 1442.307737000192,
      "lower_time_ms": 18.900733000009495,
      "evaluation_times_ms": [
        1.361226,
        1.366506,
        1.37754,
        1.35339,
        1.367593
      ],
      "metadata": {},
      "peak_memory_mb": 1342.17728
    }
  },
  "{\"q\":\"bf16[32,512,16,128]\",\"k\":\"bf16[32,512,16,128]\",\"v\":\"bf16[32,512,16,128]\",\"precision\":[[\"DEFAULT\",\"DEFAULT\"],[\"DEFAULT\",\"DEFAULT\"]],\"logits_dtype\":\"float32\",\"logits_scale\":0.08838834764831843,\"bias\":null,\"logits_soft_cap\":null,\"mask\":{\"bool_mask\":null,\"q_start\":null,\"q_end\":null,\"k_start\":null,\"k_end\":null,\"is_causal\":true},\"dropout_mask\":null,\"dropout_rate\":0.0,\"paging_info\":null,\"q_indices\":null,\"k_indices\":null,\"normalize_output\":true,\"return_residuals\":true}": {
    "{}": {
      "compile_time_ms": 380.6046400000014,
      "lower_time_ms": 13.688470000033703,
      "evaluation_times_ms": [
        1.380739,
        1.378565,
        1.384706,
        1.381315,
        1.378499
      ],
      "metadata": {},
      "peak_memory_mb": 874.512408
    }
  },
  "{\"q\":\"f16[32,512,16,128]\",\"k\":\"f16[32,512,16,128]\",\"v\":\"f16[32,512,16,128]\",\"precision\":[[\"DEFAULT\",\"DEFAULT\"],[\"DEFAULT\",\"DEFAULT\"]],\"logits_dtype\":\"float32\",\"logits_scale\":0.08838834764831843,\"bias\":null,\"logits_soft_cap\":null,\"mask\":{\"bool_mask\":null,\"q_start\":null,\"q_end\":null,\"k_start\":null,\"k_end\":null,\"is_causal\":true},\"dropout_mask\":null,\"dropout_rate\":0.0,\"paging_info\":null,\"q_indices\":null,\"k_indices\":null,\"normalize_output\":true,\"return_residuals\":false}": {
    "{}": {
      "compile_time_ms": 1360.7214740000018,
      "lower_time_ms": 14.663322000160406,
      "evaluation_times_ms": [
        1.213309,
        1.22105,
        1.217468,
        1.231159,
        1.212989
      ],
      "metadata": {},
      "peak_memory_mb": 1073.741824
    }
  },
  "{\"q\":\"f16[32,512,16,128]\",\"k\":\"f16[32,512,16,128]\",\"v\":\"f16[32,512,16,128]\",\"precision\":[[\"DEFAULT\",\"DEFAULT\"],[\"DEFAULT\",\"DEFAULT\"]],\"logits_dtype\":\"float32\",\"logits_scale\":0.08838834764831843,\"bias\":null,\"logits_soft_cap\":null,\"mask\":{\"bool_mask\":null,\"q_start\":null,\"q_end\":null,\"k_start\":null,\"k_end\":null,\"is_causal\":true},\"dropout_mask\":null,\"dropout_rate\":0.0,\"paging_info\":null,\"q_indices\":null,\"k_indices\":null,\"normalize_output\":true,\"return_residuals\":true}": {
    "{}": {
      "compile_time_ms": 274.67589599996245,
      "lower_time_ms": 17.362216000037733,
      "evaluation_times_ms": [
        1.180457,
        1.180679,
        1.179657,
        1.179977,
        1.179688
      ],
      "metadata": {},
      "peak_memory_mb": 1075.839
    }
  },
  "{\"q\":\"bf16[32,512,16,128]\",\"k\":\"bf16[32,512,16,128]\",\"v\":\"bf16[32,512,16,128]\",\"precision\":[[\"DEFAULT\",\"DEFAULT\"],[\"DEFAULT\",\"DEFAULT\"]],\"logits_dtype\":\"float32\",\"logits_scale\":0.08838834764831843,\"bias\":null,\"logits_soft_cap\":null,\"mask\":{\"bool_mask\":null,\"q_start\":null,\"q_end\":null,\"k_start\":null,\"k_end\":null,\"is_causal\":false},\"dropout_mask\":null,\"dropout_rate\":0.0,\"paging_info\":null,\"q_indices\":null,\"k_indices\":null,\"normalize_output\":true,\"return_residuals\":false}": {
    "{}": {
      "compile_time_ms": 333.79610699989826,
      "lower_time_ms": 12.50996299995677,
      "evaluation_times_ms": [
        1.0294699999999999,
        1.026399,
        1.034587,
        1.039062,
        1.025503
      ],
      "metadata": {},
      "peak_memory_mb": 1342.17728
    }
  },
  "{\"q\":\"bf16[32,512,16,128]\",\"k\":\"bf16[32,512,16,128]\",\"v\":\"bf16[32,512,16,128]\",\"precision\":[[\"DEFAULT\",\"DEFAULT\"],[\"DEFAULT\",\"DEFAULT\"]],\"logits_dtype\":\"float32\",\"logits_scale\":0.08838834764831843,\"bias\":null,\"logits_soft_cap\":null,\"mask\":{\"bool_mask\":null,\"q_start\":null,\"q_end\":null,\"k_start\":null,\"k_end\":null,\"is_causal\":false},\"dropout_mask\":null,\"dropout_rate\":0.0,\"paging_info\":null,\"q_indices\":null,\"k_indices\":null,\"normalize_output\":true,\"return_residuals\":true}": {
    "{}": {
      "compile_time_ms": 1107.0701789999475,
      "lower_time_ms": 12.176491999980499,
      "evaluation_times_ms": [
        1.373989,
        1.385025,
        1.378275,
        1.385663,
        1.381059
      ],
      "metadata": {},
      "peak_memory_mb": 874.512408
    }
  },
  "{\"q\":\"f16[32,512,16,128]\",\"k\":\"f16[32,512,16,128]\",\"v\":\"f16[32,512,16,128]\",\"precision\":[[\"DEFAULT\",\"DEFAULT\"],[\"DEFAULT\",\"DEFAULT\"]],\"logits_dtype\":\"float32\",\"logits_scale\":0.08838834764831843,\"bias\":null,\"logits_soft_cap\":null,\"mask\":{\"bool_mask\":null,\"q_start\":null,\"q_end\":null,\"k_start\":null,\"k_end\":null,\"is_causal\":false},\"dropout_mask\":null,\"dropout_rate\":0.0,\"paging_info\":null,\"q_indices\":null,\"k_indices\":null,\"normalize_output\":true,\"return_residuals\":false}": {
    "{}": {
      "compile_time_ms": 402.3010250000425,
      "lower_time_ms": 12.094554999976026,
      "evaluation_times_ms": [
        0.831297,
        0.8320299999999999,
        0.830785,
        0.832129,
        0.832321
      ],
      "metadata": {},
      "peak_memory_mb": 1073.741824
    }
  },
  "{\"q\":\"f16[32,512,16,128]\",\"k\":\"f16[32,512,16,128]\",\"v\":\"f16[32,512,16,128]\",\"precision\":[[\"DEFAULT\",\"DEFAULT\"],[\"DEFAULT\",\"DEFAULT\"]],\"logits_dtype\":\"float32\",\"logits_scale\":0.08838834764831843,\"bias\":null,\"logits_soft_cap\":null,\"mask\":{\"bool_mask\":null,\"q_start\":null,\"q_end\":null,\"k_start\":null,\"k_end\":null,\"is_causal\":false},\"dropout_mask\":null,\"dropout_rate\":0.0,\"paging_info\":null,\"q_indices\":null,\"k_indices\":null,\"normalize_output\":true,\"return_residuals\":true}": {
    "{}": {
      "compile_time_ms": 2766.713349999989,
      "lower_time_ms": 176.46559400000683,
      "evaluation_times_ms": [
        1.177823,
        1.178014,
        1.178653,
        1.179741,
        1.180061
      ],
      "metadata": {},
      "peak_memory_mb": 1075.839
    }
  },
  "{\"q\":\"bf16[32,512,8,256]\",\"k\":\"bf16[32,512,8,256]\",\"v\":\"bf16[32,512,8,256]\",\"precision\":[[\"DEFAULT\",\"DEFAULT\"],[\"DEFAULT\",\"DEFAULT\"]],\"logits_dtype\":\"float32\",\"logits_scale\":0.0625,\"bias\":null,\"logits_soft_cap\":null,\"mask\":{\"bool_mask\":null,\"q_start\":null,\"q_end\":null,\"k_start\":null,\"k_end\":null,\"is_causal\":true},\"dropout_mask\":null,\"dropout_rate\":0.0,\"paging_info\":null,\"q_indices\":null,\"k_indices\":null,\"normalize_output\":true,\"return_residuals\":false}": {
    "{}": {
      "compile_time_ms": 2487.5527099999886,
      "lower_time_ms": 32.971962999994275,
      "evaluation_times_ms": [
        0.856243,
        0.857875,
        0.853587,
        0.860275,
        0.850162
      ],
      "metadata": {},
      "peak_memory_mb": 805.306368
    }
  },
  "{\"q\":\"bf16[32,512,8,256]\",\"k\":\"bf16[32,512,8,256]\",\"v\":\"bf16[32,512,8,256]\",\"precision\":[[\"DEFAULT\",\"DEFAULT\"],[\"DEFAULT\",\"DEFAULT\"]],\"logits_dtype\":\"float32\",\"logits_scale\":0.0625,\"bias\":null,\"logits_soft_cap\":null,\"mask\":{\"bool_mask\":null,\"q_start\":null,\"q_end\":null,\"k_start\":null,\"k_end\":null,\"is_causal\":true},\"dropout_mask\":null,\"dropout_rate\":0.0,\"paging_info\":null,\"q_indices\":null,\"k_indices\":null,\"normalize_output\":true,\"return_residuals\":true}": {
    "{}": {
      "compile_time_ms": 464.4886660000225,
      "lower_time_ms": 14.620429000018476,
      "evaluation_times_ms": [
        0.859795,
        0.858547,
        0.8630909999999999,
        0.860948,
        0.859731
      ],
      "metadata": {},
      "peak_memory_mb": 605.028376
    }
  },
  "{\"q\":\"f16[32,512,8,256]\",\"k\":\"f16[32,512,8,256]\",\"v\":\"f16[32,512,8,256]\",\"precision\":[[\"DEFAULT\",\"DEFAULT\"],[\"DEFAULT\",\"DEFAULT\"]],\"logits_dtype\":\"float32\",\"logits_scale\":0.0625,\"bias\":null,\"logits_soft_cap\":null,\"mask\":{\"bool_mask\":null,\"q_start\":null,\"q_end\":null,\"k_start\":null,\"k_end\":null,\"is_causal\":true},\"dropout_mask\":null,\"dropout_rate\":0.0,\"paging_info\":null,\"q_indices\":null,\"k_indices\":null,\"normalize_output\":true,\"return_residuals\":false}": {
    "{}": {
      "compile_time_ms": 1550.7485930000087,
      "lower_time_ms": 14.875614999994013,
      "evaluation_times_ms": [
        0.7608039999999999,
        0.763907,
        0.769477,
        0.765444,
        0.767267
      ],
      "metadata": {},
      "peak_memory_mb": 671.08864
    }
  },
  "{\"q\":\"f16[32,512,8,256]\",\"k\":\"f16[32,512,8,256]\",\"v\":\"f16[32,512,8,256]\",\"precision\":[[\"DEFAULT\",\"DEFAULT\"],[\"DEFAULT\",\"DEFAULT\"]],\"logits_dtype\":\"float32\",\"logits_scale\":0.0625,\"bias\":null,\"logits_soft_cap\":null,\"mask\":{\"bool_mask\":null,\"q_start\":null,\"q_end\":null,\"k_start\":null,\"k_end\":null,\"is_causal\":true},\"dropout_mask\":null,\"dropout_rate\":0.0,\"paging_info\":null,\"q_indices\":null,\"k_indices\":null,\"normalize_output\":true,\"return_residuals\":true}": {
    "{}": {
      "compile_time_ms": 288.45259899998155,
      "lower_time_ms": 14.141885000015009,
      "evaluation_times_ms": [
        0.7443839999999999,
        0.74464,
        0.744865,
        0.7463369999999999,
        0.744193
      ],
      "metadata": {},
      "peak_memory_mb": 672.13724
    }
  },
  "{\"q\":\"bf16[32,512,8,256]\",\"k\":\"bf16[32,512,8,256]\",\"v\":\"bf16[32,512,8,256]\",\"precision\":[[\"DEFAULT\",\"DEFAULT\"],[\"DEFAULT\",\"DEFAULT\"]],\"logits_dtype\":\"float32\",\"logits_scale\":0.0625,\"bias\":null,\"logits_soft_cap\":null,\"mask\":{\"bool_mask\":null,\"q_start\":null,\"q_end\":null,\"k_start\":null,\"k_end\":null,\"is_causal\":false},\"dropout_mask\":null,\"dropout_rate\":0.0,\"paging_info\":null,\"q_indices\":null,\"k_indices\":null,\"normalize_output\":true,\"return_residuals\":false}": {
    "{}": {
      "compile_time_ms": 384.35178699998573,
      "lower_time_ms": 13.388547000005246,
      "evaluation_times_ms": [
        0.67999,
        0.682613,
        0.683222,
        0.682069,
        0.681685
      ],
      "metadata": {},
      "peak_memory_mb": 805.306368
    }
  },
  "{\"q\":\"bf16[32,512,8,256]\",\"k\":\"bf16[32,512,8,256]\",\"v\":\"bf16[32,512,8,256]\",\"precision\":[[\"DEFAULT\",\"DEFAULT\"],[\"DEFAULT\",\"DEFAULT\"]],\"logits_dtype\":\"float32\",\"logits_scale\":0.0625,\"bias\":null,\"logits_soft_cap\":null,\"mask\":{\"bool_mask\":null,\"q_start\":null,\"q_end\":null,\"k_start\":null,\"k_end\":null,\"is_causal\":false},\"dropout_mask\":null,\"dropout_rate\":0.0,\"paging_info\":null,\"q_indices\":null,\"k_indices\":null,\"normalize_output\":true,\"return_residuals\":true}": {
    "{}": {
      "compile_time_ms": 446.85239599999704,
      "lower_time_ms": 12.43913899998006,
      "evaluation_times_ms": [
        0.856596,
        0.858964,
        0.862452,
        0.860309,
        0.861748
      ],
      "metadata": {},
      "peak_memory_mb": 605.028376
    }
  },
  "{\"q\":\"f16[32,512,8,256]\",\"k\":\"f16[32,512,8,256]\",\"v\":\"f16[32,512,8,256]\",\"precision\":[[\"DEFAULT\",\"DEFAULT\"],[\"DEFAULT\",\"DEFAULT\"]],\"logits_dtype\":\"float32\",\"logits_scale\":0.0625,\"bias\":null,\"logits_soft_cap\":null,\"mask\":{\"bool_mask\":null,\"q_start\":null,\"q_end\":null,\"k_start\":null,\"k_end\":null,\"is_causal\":false},\"dropout_mask\":null,\"dropout_rate\":0.0,\"paging_info\":null,\"q_indices\":null,\"k_indices\":null,\"normalize_output\":true,\"return_residuals\":false}": {
    "{}": {
      "compile_time_ms": 368.2406570000012,
      "lower_time_ms": 12.49225400002274,
      "evaluation_times_ms": [
        0.570565,
        0.569698,
        0.568736,
        0.568258,
        0.570626
      ],
      "metadata": {},
      "peak_memory_mb": 671.08864
    }
  },
  "{\"q\":\"f16[32,512,8,256]\",\"k\":\"f16[32,512,8,256]\",\"v\":\"f16[32,512,8,256]\",\"precision\":[[\"DEFAULT\",\"DEFAULT\"],[\"DEFAULT\",\"DEFAULT\"]],\"logits_dtype\":\"float32\",\"logits_scale\":0.0625,\"bias\":null,\"logits_soft_cap\":null,\"mask\":{\"bool_mask\":null,\"q_start\":null,\"q_end\":null,\"k_start\":null,\"k_end\":null,\"is_causal\":false},\"dropout_mask\":null,\"dropout_rate\":0.0,\"paging_info\":null,\"q_indices\":null,\"k_indices\":null,\"normalize_output\":true,\"return_residuals\":true}": {
    "{}": {
      "compile_time_ms": 267.1056189999774,
      "lower_time_ms": 12.572634999997945,
      "evaluation_times_ms": [
        0.7432,
        0.745279,
        0.745377,
        0.74477,
        0.744064
      ],
      "metadata": {},
      "peak_memory_mb": 672.13724
    }
  },
  "{\"q\":\"bf16[16,1024,32,64]\",\"k\":\"bf16[16,1024,32,64]\",\"v\":\"bf16[16,1024,32,64]\",\"precision\":[[\"DEFAULT\",\"DEFAULT\"],[\"DEFAULT\",\"DEFAULT\"]],\"logits_dtype\":\"float32\",\"logits_scale\":0.125,\"bias\":null,\"logits_soft_cap\":null,\"mask\":{\"bool_mask\":null,\"q_start\":null,\"q_end\":null,\"k_start\":null,\"k_end\":null,\"is_causal\":true},\"dropout_mask\":null,\"dropout_rate\":0.0,\"paging_info\":null,\"q_indices\":null,\"k_indices\":null,\"normalize_output\":true,\"return_residuals\":false}": {
    "{}": {
      "compile_time_ms": 1251.5260170000033,
      "lower_time_ms": 20.524484999981496,
      "evaluation_times_ms": [
        4.080354,
        4.05299,
        4.06768,
        4.075874,
        4.070144
      ],
      "metadata": {},
      "peak_memory_mb": 4563.402752
    }
  },
  "{\"q\":\"bf16[16,1024,32,64]\",\"k\":\"bf16[16,1024,32,64]\",\"v\":\"bf16[16,1024,32,64]\",\"precision\":[[\"DEFAULT\",\"DEFAULT\"],[\"DEFAULT\",\"DEFAULT\"]],\"logits_dtype\":\"float32\",\"logits_scale\":0.125,\"bias\":null,\"logits_soft_cap\":null,\"mask\":{\"bool_mask\":null,\"q_start\":null,\"q_end\":null,\"k_start\":null,\"k_end\":null,\"is_causal\":true},\"dropout_mask\":null,\"dropout_rate\":0.0,\"paging_info\":null,\"q_indices\":null,\"k_indices\":null,\"normalize_output\":true,\"return_residuals\":true}": {
    "{}": {
      "compile_time_ms": 369.00936699998965,
      "lower_time_ms": 13.706993999988981,
      "evaluation_times_ms": [
        4.554391,
        4.555255,
        4.555799,
        4.555737,
        4.556696
      ],
      "metadata": {},
      "peak_memory_mb": 2487.222296
    }
  },
  "{\"q\":\"f16[16,1024,32,64]\",\"k\":\"f16[16,1024,32,64]\",\"v\":\"f16[16,1024,32,64]\",\"precision\":[[\"DEFAULT\",\"DEFAULT\"],[\"DEFAULT\",\"DEFAULT\"]],\"logits_dtype\":\"float32\",\"logits_scale\":0.125,\"bias\":null,\"logits_soft_cap\":null,\"mask\":{\"bool_mask\":null,\"q_start\":null,\"q_end\":null,\"k_start\":null,\"k_end\":null,\"is_causal\":true},\"dropout_mask\":null,\"dropout_rate\":0.0,\"paging_info\":null,\"q_indices\":null,\"k_indices\":null,\"normalize_output\":true,\"return_residuals\":false}": {
    "{}": {
      "compile_time_ms": 1208.439855999984,
      "lower_time_ms": 15.363942999982783,
      "evaluation_times_ms": [
        3.639225,
        3.6428730000000002,
        3.6524099999999997,
        3.659995,
        3.649274
      ],
      "metadata": {},
      "peak_memory_mb": 3489.660928
    }
  },
  "{\"q\":\"f16[16,1024,32,64]\",\"k\":\"f16[16,1024,32,64]\",\"v\":\"f16[16,1024,32,64]\",\"precision\":[[\"DEFAULT\",\"DEFAULT\"],[\"DEFAULT\",\"DEFAULT\"]],\"logits_dtype\":\"float32\",\"logits_scale\":0.125,\"bias\":null,\"logits_soft_cap\":null,\"mask\":{\"bool_mask\":null,\"q_start\":null,\"q_end\":null,\"k_start\":null,\"k_end\":null,\"is_causal\":true},\"dropout_mask\":null,\"dropout_rate\":0.0,\"paging_info\":null,\"q_indices\":null,\"k_indices\":null,\"normalize_output\":true,\"return_residuals\":true}": {
    "{}": {
      "compile_time_ms": 168.85324599999763,
      "lower_time_ms": 13.713082000009535,
      "evaluation_times_ms": [
        3.8322819999999997,
        3.830105,
        3.832794,
        3.831705,
        3.829145
      ],
      "metadata": {},
      "peak_memory_mb": 3493.855256
    }
  },
  "{\"q\":\"bf16[16,1024,32,64]\",\"k\":\"bf16[16,1024,32,64]\",\"v\":\"bf16[16,1024,32,64]\",\"precision\":[[\"DEFAULT\",\"DEFAULT\"],[\"DEFAULT\",\"DEFAULT\"]],\"logits_dtype\":\"float32\",\"logits_scale\":0.125,\"bias\":null,\"logits_soft_cap\":null,\"mask\":{\"bool_mask\":null,\"q_start\":null,\"q_end\":null,\"k_start\":null,\"k_end\":null,\"is_causal\":false},\"dropout_mask\":null,\"dropout_rate\":0.0,\"paging_info\":null,\"q_indices\":null,\"k_indices\":null,\"normalize_output\":true,\"return_residuals\":false}": {
    "{}": {
      "compile_time_ms": 302.2232630000019,
      "lower_time_ms": 12.181722000008222,
      "evaluation_times_ms": [
        3.1915299999999998,
        3.187497,
        3.184105,
        3.189674,
        3.186409
      ],
      "metadata": {},
      "peak_memory_mb": 4563.402752
    }
  },
  "{\"q\":\"bf16[16,1024,32,64]\",\"k\":\"bf16[16,1024,32,64]\",\"v\":\"bf16[16,1024,32,64]\",\"precision\":[[\"DEFAULT\",\"DEFAULT\"],[\"DEFAULT\",\"DEFAULT\"]],\"logits_dtype\":\"float32\",\"logits_scale\":0.125,\"bias\":null,\"logits_soft_cap\":null,\"mask\":{\"bool_mask\":null,\"q_start\":null,\"q_end\":null,\"k_start\":null,\"k_end\":null,\"is_causal\":false},\"dropout_mask\":null,\"dropout_rate\":0.0,\"paging_info\":null,\"q_indices\":null,\"k_indices\":null,\"normalize_output\":true,\"return_residuals\":true}": {
    "{}": {
      "compile_time_ms": 362.8391769999837,
      "lower_time_ms": 12.883283999997275,
      "evaluation_times_ms": [
        4.5535630000000005,
        4.555578,
        4.55753,
        4.560058,
        4.555002
      ],
      "metadata": {},
      "peak_memory_mb": 2487.222296
    }
  },
  "{\"q\":\"f16[16,1024,32,64]\",\"k\":\"f16[16,1024,32,64]\",\"v\":\"f16[16,1024,32,64]\",\"precision\":[[\"DEFAULT\",\"DEFAULT\"],[\"DEFAULT\",\"DEFAULT\"]],\"logits_dtype\":\"float32\",\"logits_scale\":0.125,\"bias\":null,\"logits_soft_cap\":null,\"mask\":{\"bool_mask\":null,\"q_start\":null,\"q_end\":null,\"k_start\":null,\"k_end\":null,\"is_causal\":false},\"dropout_mask\":null,\"dropout_rate\":0.0,\"paging_info\":null,\"q_indices\":null,\"k_indices\":null,\"normalize_output\":true,\"return_residuals\":false}": {
    "{}": {
      "compile_time_ms": 276.4709079999932,
      "lower_time_ms": 12.52440299998625,
      "evaluation_times_ms": [
        2.458157,
        2.455595,
        2.455788,
        2.456237,
        2.457164
      ],
      "metadata": {},
      "peak_memory_mb": 3489.660928
    }
  },
  "{\"q\":\"f16[16,1024,32,64]\",\"k\":\"f16[16,1024,32,64]\",\"v\":\"f16[16,1024,32,64]\",\"precision\":[[\"DEFAULT\",\"DEFAULT\"],[\"DEFAULT\",\"DEFAULT\"]],\"logits_dtype\":\"float32\",\"logits_scale\":0.125,\"bias\":null,\"logits_soft_cap\":null,\"mask\":{\"bool_mask\":null,\"q_start\":null,\"q_end\":null,\"k_start\":null,\"k_end\":null,\"is_causal\":false},\"dropout_mask\":null,\"dropout_rate\":0.0,\"paging_info\":null,\"q_indices\":null,\"k_indices\":null,\"normalize_output\":true,\"return_residuals\":true}": {
    "{}": {
      "compile_time_ms": 155.05297299998233,
      "lower_time_ms": 12.410595000005742,
      "evaluation_times_ms": [
        3.832188,
        3.830556,
        3.831867,
        3.829691,
        3.833949
      ],
      "metadata": {},
      "peak_memory_mb": 3493.855256
    }
  },
  "{\"q\":\"bf16[16,1024,16,128]\",\"k\":\"bf16[16,1024,16,128]\",\"v\":\"bf16[16,1024,16,128]\",\"precision\":[[\"DEFAULT\",\"DEFAULT\"],[\"DEFAULT\",\"DEFAULT\"]],\"logits_dtype\":\"float32\",\"logits_scale\":0.08838834764831843,\"bias\":null,\"logits_soft_cap\":null,\"mask\":{\"bool_mask\":null,\"q_start\":null,\"q_end\":null,\"k_start\":null,\"k_end\":null,\"is_causal\":true},\"dropout_mask\":null,\"dropout_rate\":0.0,\"paging_info\":null,\"q_indices\":null,\"k_indices\":null,\"normalize_output\":true,\"return_residuals\":false}": {
    "{}": {
      "compile_time_ms": 1251.3080589999959,
      "lower_time_ms": 19.056287999973165,
      "evaluation_times_ms": [
        2.224519,
        2.214852,
        2.207107,
        2.2212520000000002,
        2.2318800000000003
      ],
      "metadata": {},
      "peak_memory_mb": 2415.919104
    }
  },
  "{\"q\":\"bf16[16,1024,16,128]\",\"k\":\"bf16[16,1024,16,128]\",\"v\":\"bf16[16,1024,16,128]\",\"precision\":[[\"DEFAULT\",\"DEFAULT\"],[\"DEFAULT\",\"DEFAULT\"]],\"logits_dtype\":\"float32\",\"logits_scale\":0.08838834764831843,\"bias\":null,\"logits_soft_cap\":null,\"mask\":{\"bool_mask\":null,\"q_start\":null,\"q_end\":null,\"k_start\":null,\"k_end\":null,\"is_causal\":true},\"dropout_mask\":null,\"dropout_rate\":0.0,\"paging_info\":null,\"q_indices\":null,\"k_indices\":null,\"normalize_output\":true,\"return_residuals\":true}": {
    "{}": {
      "compile_time_ms": 481.7106800000204,
      "lower_time_ms": 13.94588499999827,
      "evaluation_times_ms": [
        2.464719,
        2.454734,
        2.45515,
        2.460591,
        2.458415
      ],
      "metadata": {},
      "peak_memory_mb": 1411.38332
    }
  },
  "{\"q\":\"f16[16,1024,16,128]\",\"k\":\"f16[16,1024,16,128]\",\"v\":\"f16[16,1024,16,128]\",\"precision\":[[\"DEFAULT\",\"DEFAULT\"],[\"DEFAULT\",\"DEFAULT\"]],\"logits_dtype\":\"float32\",\"logits_scale\":0.08838834764831843,\"bias\":null,\"logits_soft_cap\":null,\"mask\":{\"bool_mask\":null,\"q_start\":null,\"q_end\":null,\"k_start\":null,\"k_end\":null,\"is_causal\":true},\"dropout_mask\":null,\"dropout_rate\":0.0,\"paging_info\":null,\"q_indices\":null,\"k_indices\":null,\"normalize_output\":true,\"return_residuals\":false}": {
    "{}": {
      "compile_time_ms": 1283.3521130000065,
      "lower_time_ms": 14.872150000002193,
      "evaluation_times_ms": [
        1.9865869999999999,
        1.992956,
        1.992572,
        1.9706810000000001,
        1.989085
      ],
      "metadata": {},
      "peak_memory_mb": 1879.048192
    }
  },
  "{\"q\":\"f16[16,1024,16,128]\",\"k\":\"f16[16,1024,16,128]\",\"v\":\"f16[16,1024,16,128]\",\"precision\":[[\"DEFAULT\",\"DEFAULT\"],[\"DEFAULT\",\"DEFAULT\"]],\"logits_dtype\":\"float32\",\"logits_scale\":0.08838834764831843,\"bias\":null,\"logits_soft_cap\":null,\"mask\":{\"bool_mask\":null,\"q_start\":null,\"q_end\":null,\"k_start\":null,\"k_end\":null,\"is_causal\":true},\"dropout_mask\":null,\"dropout_rate\":0.0,\"paging_info\":null,\"q_indices\":null,\"k_indices\":null,\"normalize_output\":true,\"return_residuals\":true}": {
    "{}": {
      "compile_time_ms": 274.7435649999943,
      "lower_time_ms": 14.316243000024542,
      "evaluation_times_ms": [
        2.081196,
        2.084174,
        2.082605,
        2.080076,
        2.082989
      ],
      "metadata": {},
      "peak_memory_mb": 1881.145368
    }
  },
  "{\"q\":\"bf16[16,1024,16,128]\",\"k\":\"bf16[16,1024,16,128]\",\"v\":\"bf16[16,1024,16,128]\",\"precision\":[[\"DEFAULT\",\"DEFAULT\"],[\"DEFAULT\",\"DEFAULT\"]],\"logits_dtype\":\"float32\",\"logits_scale\":0.08838834764831843,\"bias\":null,\"logits_soft_cap\":null,\"mask\":{\"bool_mask\":null,\"q_start\":null,\"q_end\":null,\"k_start\":null,\"k_end\":null,\"is_causal\":false},\"dropout_mask\":null,\"dropout_rate\":0.0,\"paging_info\":null,\"q_indices\":null,\"k_indices\":null,\"normalize_output\":true,\"return_residuals\":false}": {
    "{}": {
      "compile_time_ms": 383.294181999986,
      "lower_time_ms": 12.170955000016193,
      "evaluation_times_ms": [
        1.7706790000000001,
        1.773015,
        1.786297,
        1.76431,
        1.7814
      ],
      "metadata": {},
      "peak_memory_mb": 2415.919104
    }
  },
  "{\"q\":\"bf16[16,1024,16,128]\",\"k\":\"bf16[16,1024,16,128]\",\"v\":\"bf16[16,1024,16,128]\",\"precision\":[[\"DEFAULT\",\"DEFAULT\"],[\"DEFAULT\",\"DEFAULT\"]],\"logits_dtype\":\"float32\",\"logits_scale\":0.08838834764831843,\"bias\":null,\"logits_soft_cap\":null,\"mask\":{\"bool_mask\":null,\"q_start\":null,\"q_end\":null,\"k_start\":null,\"k_end\":null,\"is_causal\":false},\"dropout_mask\":null,\"dropout_rate\":0.0,\"paging_info\":null,\"q_indices\":null,\"k_indices\":null,\"normalize_output\":true,\"return_residuals\":true}": {
    "{}": {
      "compile_time_ms": 505.2249480000057,
      "lower_time_ms": 12.45853399998964,
      "evaluation_times_ms": [
        2.447214,
        2.453166,
        2.4532629999999997,
        2.482451,
        2.449103
      ],
      "metadata": {},
      "peak_memory_mb": 1411.38332
    }
  },
  "{\"q\":\"f16[16,1024,16,128]\",\"k\":\"f16[16,1024,16,128]\",\"v\":\"f16[16,1024,16,128]\",\"precision\":[[\"DEFAULT\",\"DEFAULT\"],[\"DEFAULT\",\"DEFAULT\"]],\"logits_dtype\":\"float32\",\"logits_scale\":0.08838834764831843,\"bias\":null,\"logits_soft_cap\":null,\"mask\":{\"bool_mask\":null,\"q_start\":null,\"q_end\":null,\"k_start\":null,\"k_end\":null,\"is_causal\":false},\"dropout_mask\":null,\"dropout_rate\":0.0,\"paging_info\":null,\"q_indices\":null,\"k_indices\":null,\"normalize_output\":true,\"return_residuals\":false}": {
    "{}": {
      "compile_time_ms": 373.16543600002205,
      "lower_time_ms": 12.7312279999785,
      "evaluation_times_ms": [
        1.394164,
        1.39727,
        1.39567,
        1.395542,
        1.393716
      ],
      "metadata": {},
      "peak_memory_mb": 1879.048192
    }
  },
  "{\"q\":\"f16[16,1024,16,128]\",\"k\":\"f16[16,1024,16,128]\",\"v\":\"f16[16,1024,16,128]\",\"precision\":[[\"DEFAULT\",\"DEFAULT\"],[\"DEFAULT\",\"DEFAULT\"]],\"logits_dtype\":\"float32\",\"logits_scale\":0.08838834764831843,\"bias\":null,\"logits_soft_cap\":null,\"mask\":{\"bool_mask\":null,\"q_start\":null,\"q_end\":null,\"k_start\":null,\"k_end\":null,\"is_causal\":false},\"dropout_mask\":null,\"dropout_rate\":0.0,\"paging_info\":null,\"q_indices\":null,\"k_indices\":null,\"normalize_output\":true,\"return_residuals\":true}": {
    "{}": {
      "compile_time_ms": 279.6996829999898,
      "lower_time_ms": 12.620263999991721,
      "evaluation_times_ms": [
        2.082511,
        2.081519,
        2.083151,
        2.084528,
        2.082798
      ],
      "metadata": {},
      "peak_memory_mb": 1881.145368
    }
  },
  "{\"q\":\"bf16[16,1024,8,256]\",\"k\":\"bf16[16,1024,8,256]\",\"v\":\"bf16[16,1024,8,256]\",\"precision\":[[\"DEFAULT\",\"DEFAULT\"],[\"DEFAULT\",\"DEFAULT\"]],\"logits_dtype\":\"float32\",\"logits_scale\":0.0625,\"bias\":null,\"logits_soft_cap\":null,\"mask\":{\"bool_mask\":null,\"q_start\":null,\"q_end\":null,\"k_start\":null,\"k_end\":null,\"is_causal\":true},\"dropout_mask\":null,\"dropout_rate\":0.0,\"paging_info\":null,\"q_indices\":null,\"k_indices\":null,\"normalize_output\":true,\"return_residuals\":false}": {
    "{}": {
      "compile_time_ms": 1421.1991980000107,
      "lower_time_ms": 19.178526000018792,
      "evaluation_times_ms": [
        1.325129,
        1.322249,
        1.30327,
        1.320136,
        1.318184
      ],
      "metadata": {},
      "peak_memory_mb": 1342.17728
    }
  },
  "{\"q\":\"bf16[16,1024,8,256]\",\"k\":\"bf16[16,1024,8,256]\",\"v\":\"bf16[16,1024,8,256]\",\"precision\":[[\"DEFAULT\",\"DEFAULT\"],[\"DEFAULT\",\"DEFAULT\"]],\"logits_dtype\":\"float32\",\"logits_scale\":0.0625,\"bias\":null,\"logits_soft_cap\":null,\"mask\":{\"bool_mask\":null,\"q_start\":null,\"q_end\":null,\"k_start\":null,\"k_end\":null,\"is_causal\":true},\"dropout_mask\":null,\"dropout_rate\":0.0,\"paging_info\":null,\"q_indices\":null,\"k_indices\":null,\"normalize_output\":true,\"return_residuals\":true}": {
    "{}": {
      "compile_time_ms": 2904.6530279999984,
      "lower_time_ms": 187.16466299999013,
      "evaluation_times_ms": [
        1.442124,
        1.438093,
        1.444813,
        1.443183,
        1.444207
      ],
      "metadata": {},
      "peak_memory_mb": 873.463832
    }
  },
  "{\"q\":\"f16[16,1024,8,256]\",\"k\":\"f16[16,1024,8,256]\",\"v\":\"f16[16,1024,8,256]\",\"precision\":[[\"DEFAULT\",\"DEFAULT\"],[\"DEFAULT\",\"DEFAULT\"]],\"logits_dtype\":\"float32\",\"logits_scale\":0.0625,\"bias\":null,\"logits_soft_cap\":null,\"mask\":{\"bool_mask\":null,\"q_start\":null,\"q_end\":null,\"k_start\":null,\"k_end\":null,\"is_causal\":true},\"dropout_mask\":null,\"dropout_rate\":0.0,\"paging_info\":null,\"q_indices\":null,\"k_indices\":null,\"normalize_output\":true,\"return_residuals\":false}": {
    "{}": {
      "compile_time_ms": 1329.4875460014737,
      "lower_time_ms": 30.027005999727407,
      "evaluation_times_ms": [
        1.131867,
        1.145883,
        1.1386509999999999,
        1.139643,
        1.148666
      ],
      "metadata": {},
      "peak_memory_mb": 1073.741824
    }
  },
  "{\"q\":\"f16[16,1024,8,256]\",\"k\":\"f16[16,1024,8,256]\",\"v\":\"f16[16,1024,8,256]\",\"precision\":[[\"DEFAULT\",\"DEFAULT\"],[\"DEFAULT\",\"DEFAULT\"]],\"logits_dtype\":\"float32\",\"logits_scale\":0.0625,\"bias\":null,\"logits_soft_cap\":null,\"mask\":{\"bool_mask\":null,\"q_start\":null,\"q_end\":null,\"k_start\":null,\"k_end\":null,\"is_causal\":true},\"dropout_mask\":null,\"dropout_rate\":0.0,\"paging_info\":null,\"q_indices\":null,\"k_indices\":null,\"normalize_output\":true,\"return_residuals\":true}": {
    "{}": {
      "compile_time_ms": 400.75402000002214,
      "lower_time_ms": 13.67910299813957,
      "evaluation_times_ms": [
        1.20473,
        1.2035150000000001,
        1.204954,
        1.204443,
        1.203066
      ],
      "metadata": {},
      "peak_memory_mb": 1074.790424
    }
  },
  "{\"q\":\"bf16[16,1024,8,256]\",\"k\":\"bf16[16,1024,8,256]\",\"v\":\"bf16[16,1024,8,256]\",\"precision\":[[\"DEFAULT\",\"DEFAULT\"],[\"DEFAULT\",\"DEFAULT\"]],\"logits_dtype\":\"float32\",\"logits_scale\":0.0625,\"bias\":null,\"logits_soft_cap\":null,\"mask\":{\"bool_mask\":null,\"q_start\":null,\"q_end\":null,\"k_start\":null,\"k_end\":null,\"is_causal\":false},\"dropout_mask\":null,\"dropout_rate\":0.0,\"paging_info\":null,\"q_indices\":null,\"k_indices\":null,\"normalize_output\":true,\"return_residuals\":false}": {
    "{}": {
      "compile_time_ms": 913.1178409988934,
      "lower_time_ms": 12.774701001035282,
      "evaluation_times_ms": [
        1.092156,
        1.091356,
        1.089499,
        1.092603,
        1.089339
      ],
      "metadata": {},
      "peak_memory_mb": 1342.17728
    }
  },
  "{\"q\":\"bf16[16,1024,8,256]\",\"k\":\"bf16[16,1024,8,256]\",\"v\":\"bf16[16,1024,8,256]\",\"precision\":[[\"DEFAULT\",\"DEFAULT\"],[\"DEFAULT\",\"DEFAULT\"]],\"logits_dtype\":\"float32\",\"logits_scale\":0.0625,\"bias\":null,\"logits_soft_cap\":null,\"mask\":{\"bool_mask\":null,\"q_start\":null,\"q_end\":null,\"k_start\":null,\"k_end\":null,\"is_causal\":false},\"dropout_mask\":null,\"dropout_rate\":0.0,\"paging_info\":null,\"q_indices\":null,\"k_indices\":null,\"normalize_output\":true,\"return_residuals\":true}": {
    "{}": {
      "compile_time_ms": 464.53757299968856,
      "lower_time_ms": 11.905791001481703,
      "evaluation_times_ms": [
        1.433465,
        1.433913,
        1.437338,
        1.433209,
        1.438522
      ],
      "metadata": {},
      "peak_memory_mb": 873.463832
    }
  },
  "{\"q\":\"f16[16,1024,8,256]\",\"k\":\"f16[16,1024,8,256]\",\"v\":\"f16[16,1024,8,256]\",\"precision\":[[\"DEFAULT\",\"DEFAULT\"],[\"DEFAULT\",\"DEFAULT\"]],\"logits_dtype\":\"float32\",\"logits_scale\":0.0625,\"bias\":null,\"logits_soft_cap\":null,\"mask\":{\"bool_mask\":null,\"q_start\":null,\"q_end\":null,\"k_start\":null,\"k_end\":null,\"is_causal\":false},\"dropout_mask\":null,\"dropout_rate\":0.0,\"paging_info\":null,\"q_indices\":null,\"k_indices\":null,\"normalize_output\":true,\"return_residuals\":false}": {
    "{}": {
      "compile_time_ms": 342.6555610021751,
      "lower_time_ms": 12.281883999094134,
      "evaluation_times_ms": [
        0.858684,
        0.859772,
        0.8589410000000001,
        0.861244,
        0.859004
      ],
      "metadata": {},
      "peak_memory_mb": 1073.741824
    }
  },
  "{\"q\":\"f16[16,1024,8,256]\",\"k\":\"f16[16,1024,8,256]\",\"v\":\"f16[16,1024,8,256]\",\"precision\":[[\"DEFAULT\",\"DEFAULT\"],[\"DEFAULT\",\"DEFAULT\"]],\"logits_dtype\":\"float32\",\"logits_scale\":0.0625,\"bias\":null,\"logits_soft_cap\":null,\"mask\":{\"bool_mask\":null,\"q_start\":null,\"q_end\":null,\"k_start\":null,\"k_end\":null,\"is_causal\":false},\"dropout_mask\":null,\"dropout_rate\":0.0,\"paging_info\":null,\"q_indices\":null,\"k_indices\":null,\"normalize_output\":true,\"return_residuals\":true}": {
    "{}": {
      "compile_time_ms": 264.6500870032469,
      "lower_time_ms": 12.03614599944558,
      "evaluation_times_ms": [
        1.202811,
        1.205242,
        1.204219,
        1.203419,
        1.203994
      ],
      "metadata": {},
      "peak_memory_mb": 1074.790424
    }
  },
  "{\"q\":\"bf16[8,2048,32,64]\",\"k\":\"bf16[8,2048,32,64]\",\"v\":\"bf16[8,2048,32,64]\",\"precision\":[[\"DEFAULT\",\"DEFAULT\"],[\"DEFAULT\",\"DEFAULT\"]],\"logits_dtype\":\"float32\",\"logits_scale\":0.125,\"bias\":null,\"logits_soft_cap\":null,\"mask\":{\"bool_mask\":null,\"q_start\":null,\"q_end\":null,\"k_start\":null,\"k_end\":null,\"is_causal\":true},\"dropout_mask\":null,\"dropout_rate\":0.0,\"paging_info\":null,\"q_indices\":null,\"k_indices\":null,\"normalize_output\":true,\"return_residuals\":false}": {
    "{}": {
      "compile_time_ms": 1065.973036998912,
      "lower_time_ms": 18.697536001127446,
      "evaluation_times_ms": [
        7.61219,
        7.582782,
        7.612831,
        7.615294,
        7.575486
      ],
      "metadata": {},
      "peak_memory_mb": 8858.370048
    }
  },
  "{\"q\":\"bf16[8,2048,32,64]\",\"k\":\"bf16[8,2048,32,64]\",\"v\":\"bf16[8,2048,32,64]\",\"precision\":[[\"DEFAULT\",\"DEFAULT\"],[\"DEFAULT\",\"DEFAULT\"]],\"logits_dtype\":\"float32\",\"logits_scale\":0.125,\"bias\":null,\"logits_soft_cap\":null,\"mask\":{\"bool_mask\":null,\"q_start\":null,\"q_end\":null,\"k_start\":null,\"k_end\":null,\"is_causal\":true},\"dropout_mask\":null,\"dropout_rate\":0.0,\"paging_info\":null,\"q_indices\":null,\"k_indices\":null,\"normalize_output\":true,\"return_residuals\":true}": {
    "{}": {
      "compile_time_ms": 358.61653100073454,
      "lower_time_ms": 13.088350999169052,
      "evaluation_times_ms": [
        8.756569,
        8.753465,
        8.745080999999999,
        8.751449000000001,
        8.764602
      ],
      "metadata": {},
      "peak_memory_mb": 4634.705944
    }
  },
  "{\"q\":\"f16[8,2048,32,64]\",\"k\":\"f16[8,2048,32,64]\",\"v\":\"f16[8,2048,32,64]\",\"precision\":[[\"DEFAULT\",\"DEFAULT\"],[\"DEFAULT\",\"DEFAULT\"]],\"logits_dtype\":\"float32\",\"logits_scale\":0.125,\"bias\":null,\"logits_soft_cap\":null,\"mask\":{\"bool_mask\":null,\"q_start\":null,\"q_end\":null,\"k_start\":null,\"k_end\":null,\"is_causal\":true},\"dropout_mask\":null,\"dropout_rate\":0.0,\"paging_info\":null,\"q_indices\":null,\"k_indices\":null,\"normalize_output\":true,\"return_residuals\":false}": {
    "{}": {
      "compile_time_ms": 1014.800690998527,
      "lower_time_ms": 14.241760000004433,
      "evaluation_times_ms": [
        6.533188,
        6.587588,
        6.577283,
        6.5681639999999994,
        6.522948
      ],
      "metadata": {},
      "peak_memory_mb": 6710.8864
    }
  },
  "{\"q\":\"f16[8,2048,32,64]\",\"k\":\"f16[8,2048,32,64]\",\"v\":\"f16[8,2048,32,64]\",\"precision\":[[\"DEFAULT\",\"DEFAULT\"],[\"DEFAULT\",\"DEFAULT\"]],\"logits_dtype\":\"float32\",\"logits_scale\":0.125,\"bias\":null,\"logits_soft_cap\":null,\"mask\":{\"bool_mask\":null,\"q_start\":null,\"q_end\":null,\"k_start\":null,\"k_end\":null,\"is_causal\":true},\"dropout_mask\":null,\"dropout_rate\":0.0,\"paging_info\":null,\"q_indices\":null,\"k_indices\":null,\"normalize_output\":true,\"return_residuals\":true}": {
    "{}": {
      "compile_time_ms": 149.8839460000454,
      "lower_time_ms": 13.66085799963912,
      "evaluation_times_ms": [
        7.341856,
        7.336673,
        7.340545,
        7.339136,
        7.336161
      ],
      "metadata": {},
      "peak_memory_mb": 6715.080728
    }
  },
  "{\"q\":\"bf16[8,2048,32,64]\",\"k\":\"bf16[8,2048,32,64]\",\"v\":\"bf16[8,2048,32,64]\",\"precision\":[[\"DEFAULT\",\"DEFAULT\"],[\"DEFAULT\",\"DEFAULT\"]],\"logits_dtype\":\"float32\",\"logits_scale\":0.125,\"bias\":null,\"logits_soft_cap\":null,\"mask\":{\"bool_mask\":null,\"q_start\":null,\"q_end\":null,\"k_start\":null,\"k_end\":null,\"is_causal\":false},\"dropout_mask\":null,\"dropout_rate\":0.0,\"paging_info\":null,\"q_indices\":null,\"k_indices\":null,\"normalize_output\":true,\"return_residuals\":false}": {
    "{}": {
      "compile_time_ms": 274.5482299978903,
      "lower_time_ms": 11.658539002382895,
      "evaluation_times_ms": [
        6.030565999999999,
        6.024711,
        6.028102,
        6.023974,
        6.025606
      ],
      "metadata": {},
      "peak_memory_mb": 8858.370048
    }
  },
  "{\"q\":\"bf16[8,2048,32,64]\",\"k\":\"bf16[8,2048,32,64]\",\"v\":\"bf16[8,2048,32,64]\",\"precision\":[[\"DEFAULT\",\"DEFAULT\"],[\"DEFAULT\",\"DEFAULT\"]],\"logits_dtype\":\"float32\",\"logits_scale\":0.125,\"bias\":null,\"logits_soft_cap\":null,\"mask\":{\"bool_mask\":null,\"q_start\":null,\"q_end\":null,\"k_start\":null,\"k_end\":null,\"is_causal\":false},\"dropout_mask\":null,\"dropout_rate\":0.0,\"paging_info\":null,\"q_indices\":null,\"k_indices\":null,\"normalize_output\":true,\"return_residuals\":true}": {
    "{}": {
      "compile_time_ms": 321.50114300020505,
      "lower_time_ms": 11.794684000051348,
      "evaluation_times_ms": [
        8.756635000000001,
        8.756092,
        8.755644,
        8.76182,
        8.752923
      ],
      "metadata": {},
      "peak_memory_mb": 4634.705944
    }
  },
  "{\"q\":\"f16[8,2048,32,64]\",\"k\":\"f16[8,2048,32,64]\",\"v\":\"f16[8,2048,32,64]\",\"precision\":[[\"DEFAULT\",\"DEFAULT\"],[\"DEFAULT\",\"DEFAULT\"]],\"logits_dtype\":\"float32\",\"logits_scale\":0.125,\"bias\":null,\"logits_soft_cap\":null,\"mask\":{\"bool_mask\":null,\"q_start\":null,\"q_end\":null,\"k_start\":null,\"k_end\":null,\"is_causal\":false},\"dropout_mask\":null,\"dropout_rate\":0.0,\"paging_info\":null,\"q_indices\":null,\"k_indices\":null,\"normalize_output\":true,\"return_residuals\":false}": {
    "{}": {
      "compile_time_ms": 232.02602099991054,
      "lower_time_ms": 11.959165000007488,
      "evaluation_times_ms": [
        4.5955010000000005,
        4.599213,
        4.592717,
        4.593773,
        4.599629
      ],
      "metadata": {},
      "peak_memory_mb": 6710.8864
    }
  },
  "{\"q\":\"f16[8,2048,32,64]\",\"k\":\"f16[8,2048,32,64]\",\"v\":\"f16[8,2048,32,64]\",\"precision\":[[\"DEFAULT\",\"DEFAULT\"],[\"DEFAULT\",\"DEFAULT\"]],\"logits_dtype\":\"float32\",\"logits_scale\":0.125,\"bias\":null,\"logits_soft_cap\":null,\"mask\":{\"bool_mask\":null,\"q_start\":null,\"q_end\":null,\"k_start\":null,\"k_end\":null,\"is_causal\":false},\"dropout_mask\":null,\"dropout_rate\":0.0,\"paging_info\":null,\"q_indices\":null,\"k_indices\":null,\"normalize_output\":true,\"return_residuals\":true}": {
    "{}": {
      "compile_time_ms": 144.5194520019868,
      "lower_time_ms": 12.152926999988267,
      "evaluation_times_ms": [
        7.334274,
        7.33613,
        7.333921999999999,
        7.334434,
        7.338754
      ],
      "metadata": {},
      "peak_memory_mb": 6715.080728
    }
  },
  "{\"q\":\"bf16[8,2048,16,128]\",\"k\":\"bf16[8,2048,16,128]\",\"v\":\"bf16[8,2048,16,128]\",\"precision\":[[\"DEFAULT\",\"DEFAULT\"],[\"DEFAULT\",\"DEFAULT\"]],\"logits_dtype\":\"float32\",\"logits_scale\":0.08838834764831843,\"bias\":null,\"logits_soft_cap\":null,\"mask\":{\"bool_mask\":null,\"q_start\":null,\"q_end\":null,\"k_start\":null,\"k_end\":null,\"is_causal\":true},\"dropout_mask\":null,\"dropout_rate\":0.0,\"paging_info\":null,\"q_indices\":null,\"k_indices\":null,\"normalize_output\":true,\"return_residuals\":false}": {
    "{}": {
      "compile_time_ms": 1133.8665780021984,
      "lower_time_ms": 18.174271997850155,
      "evaluation_times_ms": [
        4.005488,
        3.959536,
        4.016208,
        4.0311829999999995,
        4.007759
      ],
      "metadata": {},
      "peak_memory_mb": 4563.402752
    }
  },
  "{\"q\":\"bf16[8,2048,16,128]\",\"k\":\"bf16[8,2048,16,128]\",\"v\":\"bf16[8,2048,16,128]\",\"precision\":[[\"DEFAULT\",\"DEFAULT\"],[\"DEFAULT\",\"DEFAULT\"]],\"logits_dtype\":\"float32\",\"logits_scale\":0.08838834764831843,\"bias\":null,\"logits_soft_cap\":null,\"mask\":{\"bool_mask\":null,\"q_start\":null,\"q_end\":null,\"k_start\":null,\"k_end\":null,\"is_causal\":true},\"dropout_mask\":null,\"dropout_rate\":0.0,\"paging_info\":null,\"q_indices\":null,\"k_indices\":null,\"normalize_output\":true,\"return_residuals\":true}": {
    "{}": {
      "compile_time_ms": 441.12460299948,
      "lower_time_ms": 13.118261002091458,
      "evaluation_times_ms": [
        4.586701,
        4.590062,
        4.588525,
        4.585101,
        4.588686
      ],
      "metadata": {},
      "peak_memory_mb": 2485.125144
    }
  },
  "{\"q\":\"f16[8,2048,16,128]\",\"k\":\"f16[8,2048,16,128]\",\"v\":\"f16[8,2048,16,128]\",\"precision\":[[\"DEFAULT\",\"DEFAULT\"],[\"DEFAULT\",\"DEFAULT\"]],\"logits_dtype\":\"float32\",\"logits_scale\":0.08838834764831843,\"bias\":null,\"logits_soft_cap\":null,\"mask\":{\"bool_mask\":null,\"q_start\":null,\"q_end\":null,\"k_start\":null,\"k_end\":null,\"is_causal\":true},\"dropout_mask\":null,\"dropout_rate\":0.0,\"paging_info\":null,\"q_indices\":null,\"k_indices\":null,\"normalize_output\":true,\"return_residuals\":false}": {
    "{}": {
      "compile_time_ms": 1017.3558440001216,
      "lower_time_ms": 14.06760600002599,
      "evaluation_times_ms": [
        3.490257,
        3.5086899999999996,
        3.486002,
        3.488306,
        3.505137
      ],
      "metadata": {},
      "peak_memory_mb": 3489.660928
    }
  },
  "{\"q\":\"f16[8,2048,16,128]\",\"k\":\"f16[8,2048,16,128]\",\"v\":\"f16[8,2048,16,128]\",\"precision\":[[\"DEFAULT\",\"DEFAULT\"],[\"DEFAULT\",\"DEFAULT\"]],\"logits_dtype\":\"float32\",\"logits_scale\":0.08838834764831843,\"bias\":null,\"logits_soft_cap\":null,\"mask\":{\"bool_mask\":null,\"q_start\":null,\"q_end\":null,\"k_start\":null,\"k_end\":null,\"is_causal\":true},\"dropout_mask\":null,\"dropout_rate\":0.0,\"paging_info\":null,\"q_indices\":null,\"k_indices\":null,\"normalize_output\":true,\"return_residuals\":true}": {
    "{}": {
      "compile_time_ms": 259.97552599801566,
      "lower_time_ms": 13.81929399940418,
      "evaluation_times_ms": [
        3.8776479999999998,
        3.872528,
        3.877839,
        3.87544,
        3.871568
      ],
      "metadata": {},
      "peak_memory_mb": 3491.758104
    }
  },
  "{\"q\":\"bf16[8,2048,16,128]\",\"k\":\"bf16[8,2048,16,128]\",\"v\":\"bf16[8,2048,16,128]\",\"precision\":[[\"DEFAULT\",\"DEFAULT\"],[\"DEFAULT\",\"DEFAULT\"]],\"logits_dtype\":\"float32\",\"logits_scale\":0.08838834764831843,\"bias\":null,\"logits_soft_cap\":null,\"mask\":{\"bool_mask\":null,\"q_start\":null,\"q_end\":null,\"k_start\":null,\"k_end\":null,\"is_causal\":false},\"dropout_mask\":null,\"dropout_rate\":0.0,\"paging_info\":null,\"q_indices\":null,\"k_indices\":null,\"normalize_output\":true,\"return_residuals\":false}": {
    "{}": {
      "compile_time_ms": 347.9316449993348,
      "lower_time_ms": 11.626945000898559,
      "evaluation_times_ms": [
        3.215923,
        3.217172,
        3.213364,
        3.208723,
        3.220819
      ],
      "metadata": {},
      "peak_memory_mb": 4563.402752
    }
  },
  "{\"q\":\"bf16[8,2048,16,128]\",\"k\":\"bf16[8,2048,16,128]\",\"v\":\"bf16[8,2048,16,128]\",\"precision\":[[\"DEFAULT\",\"DEFAULT\"],[\"DEFAULT\",\"DEFAULT\"]],\"logits_dtype\":\"float32\",\"logits_scale\":0.08838834764831843,\"bias\":null,\"logits_soft_cap\":null,\"mask\":{\"bool_mask\":null,\"q_start\":null,\"q_end\":null,\"k_start\":null,\"k_end\":null,\"is_causal\":false},\"dropout_mask\":null,\"dropout_rate\":0.0,\"paging_info\":null,\"q_indices\":null,\"k_indices\":null,\"normalize_output\":true,\"return_residuals\":true}": {
    "{}": {
      "compile_time_ms": 411.8550450002658,
      "lower_time_ms": 11.729486999684013,
      "evaluation_times_ms": [
        4.583118,
        4.584493,
        4.583278,
        4.589102,
        4.582542
      ],
      "metadata": {},
      "peak_memory_mb": 2485.125144
    }
  },
  "{\"q\":\"f16[8,2048,16,128]\",\"k\":\"f16[8,2048,16,128]\",\"v\":\"f16[8,2048,16,128]\",\"precision\":[[\"DEFAULT\",\"DEFAULT\"],[\"DEFAULT\",\"DEFAULT\"]],\"logits_dtype\":\"float32\",\"logits_scale\":0.08838834764831843,\"bias\":null,\"logits_soft_cap\":null,\"mask\":{\"bool_mask\":null,\"q_start\":null,\"q_end\":null,\"k_start\":null,\"k_end\":null,\"is_causal\":false},\"dropout_mask\":null,\"dropout_rate\":0.0,\"paging_info\":null,\"q_indices\":null,\"k_indices\":null,\"normalize_output\":true,\"return_residuals\":false}": {
    "{}": {
      "compile_time_ms": 335.87181699840585,
      "lower_time_ms": 12.406511003064224,
      "evaluation_times_ms": [
        2.50287,
        2.505045,
        2.502487,
        2.505462,
        2.502998
      ],
      "metadata": {},
      "peak_memory_mb": 3489.660928
    }
  },
  "{\"q\":\"f16[8,2048,16,128]\",\"k\":\"f16[8,2048,16,128]\",\"v\":\"f16[8,2048,16,128]\",\"precision\":[[\"DEFAULT\",\"DEFAULT\"],[\"DEFAULT\",\"DEFAULT\"]],\"logits_dtype\":\"float32\",\"logits_scale\":0.08838834764831843,\"bias\":null,\"logits_soft_cap\":null,\"mask\":{\"bool_mask\":null,\"q_start\":null,\"q_end\":null,\"k_start\":null,\"k_end\":null,\"is_causal\":false},\"dropout_mask\":null,\"dropout_rate\":0.0,\"paging_info\":null,\"q_indices\":null,\"k_indices\":null,\"normalize_output\":true,\"return_residuals\":true}": {
    "{}": {
      "compile_time_ms": 259.9118779980927,
      "lower_time_ms": 11.863573003211059,
      "evaluation_times_ms": [
        3.871697,
        3.872849,
        3.872337,
        3.873009,
        3.872241
      ],
      "metadata": {},
      "peak_memory_mb": 3491.758104
    }
  },
  "{\"q\":\"bf16[8,2048,8,256]\",\"k\":\"bf16[8,2048,8,256]\",\"v\":\"bf16[8,2048,8,256]\",\"precision\":[[\"DEFAULT\",\"DEFAULT\"],[\"DEFAULT\",\"DEFAULT\"]],\"logits_dtype\":\"float32\",\"logits_scale\":0.0625,\"bias\":null,\"logits_soft_cap\":null,\"mask\":{\"bool_mask\":null,\"q_start\":null,\"q_end\":null,\"k_start\":null,\"k_end\":null,\"is_causal\":true},\"dropout_mask\":null,\"dropout_rate\":0.0,\"paging_info\":null,\"q_indices\":null,\"k_indices\":null,\"normalize_output\":true,\"return_residuals\":false}": {
    "{}": {
      "compile_time_ms": 1165.4285420008819,
      "lower_time_ms": 495.95162499826984,
      "evaluation_times_ms": [
        2.3043750000000003,
        2.300407,
        2.294327,
        2.31007,
        2.2915110000000003
      ],
      "metadata": {},
      "peak_memory_mb": 2415.919104
    }
  },
  "{\"q\":\"bf16[8,2048,8,256]\",\"k\":\"bf16[8,2048,8,256]\",\"v\":\"bf16[8,2048,8,256]\",\"precision\":[[\"DEFAULT\",\"DEFAULT\"],[\"DEFAULT\",\"DEFAULT\"]],\"logits_dtype\":\"float32\",\"logits_scale\":0.0625,\"bias\":null,\"logits_soft_cap\":null,\"mask\":{\"bool_mask\":null,\"q_start\":null,\"q_end\":null,\"k_start\":null,\"k_end\":null,\"is_causal\":true},\"dropout_mask\":null,\"dropout_rate\":0.0,\"paging_info\":null,\"q_indices\":null,\"k_indices\":null,\"normalize_output\":true,\"return_residuals\":true}": {
    "{}": {
      "compile_time_ms": 468.4720790028223,
      "lower_time_ms": 13.31694800319383,
      "evaluation_times_ms": [
        2.578262,
        2.586422,
        2.576502,
        2.579606,
        2.584341
      ],
      "metadata": {},
      "peak_memory_mb": 1410.334744
    }
  },
  "{\"q\":\"f16[8,2048,8,256]\",\"k\":\"f16[8,2048,8,256]\",\"v\":\"f16[8,2048,8,256]\",\"precision\":[[\"DEFAULT\",\"DEFAULT\"],[\"DEFAULT\",\"DEFAULT\"]],\"logits_dtype\":\"float32\",\"logits_scale\":0.0625,\"bias\":null,\"logits_soft_cap\":null,\"mask\":{\"bool_mask\":null,\"q_start\":null,\"q_end\":null,\"k_start\":null,\"k_end\":null,\"is_causal\":true},\"dropout_mask\":null,\"dropout_rate\":0.0,\"paging_info\":null,\"q_indices\":null,\"k_indices\":null,\"normalize_output\":true,\"return_residuals\":false}": {
    "{}": {
      "compile_time_ms": 1106.3623859990912,
      "lower_time_ms": 14.064594000956276,
      "evaluation_times_ms": [
        1.891736,
        1.915384,
        1.880728,
        1.884377,
        1.897176
      ],
      "metadata": {},
      "peak_memory_mb": 1879.048192
    }
  },
  "{\"q\":\"f16[8,2048,8,256]\",\"k\":\"f16[8,2048,8,256]\",\"v\":\"f16[8,2048,8,256]\",\"precision\":[[\"DEFAULT\",\"DEFAULT\"],[\"DEFAULT\",\"DEFAULT\"]],\"logits_dtype\":\"float32\",\"logits_scale\":0.0625,\"bias\":null,\"logits_soft_cap\":null,\"mask\":{\"bool_mask\":null,\"q_start\":null,\"q_end\":null,\"k_start\":null,\"k_end\":null,\"is_causal\":true},\"dropout_mask\":null,\"dropout_rate\":0.0,\"paging_info\":null,\"q_indices\":null,\"k_indices\":null,\"normalize_output\":true,\"return_residuals\":true}": {
    "{}": {
      "compile_time_ms": 2087.5022090040147,
      "lower_time_ms": 130.21506601944566,
      "evaluation_times_ms": [
        2.122341,
        2.118853,
        2.122469,
        2.119334,
        2.120134
      ],
      "metadata": {},
      "peak_memory_mb": 1880.096792
    }
  },
  "{\"q\":\"bf16[8,2048,8,256]\",\"k\":\"bf16[8,2048,8,256]\",\"v\":\"bf16[8,2048,8,256]\",\"precision\":[[\"DEFAULT\",\"DEFAULT\"],[\"DEFAULT\",\"DEFAULT\"]],\"logits_dtype\":\"float32\",\"logits_scale\":0.0625,\"bias\":null,\"logits_soft_cap\":null,\"mask\":{\"bool_mask\":null,\"q_start\":null,\"q_end\":null,\"k_start\":null,\"k_end\":null,\"is_causal\":false},\"dropout_mask\":null,\"dropout_rate\":0.0,\"paging_info\":null,\"q_indices\":null,\"k_indices\":null,\"normalize_output\":true,\"return_residuals\":false}": {
    "{}": {
      "compile_time_ms": 1536.5655759999868,
      "lower_time_ms": 22.482878000005257,
      "evaluation_times_ms": [
        1.894412,
        1.891948,
        1.895884,
        1.8886530000000001,
        1.895916
      ],
      "metadata": {},
      "peak_memory_mb": 2415.919104
    }
  },
  "{\"q\":\"bf16[8,2048,8,256]\",\"k\":\"bf16[8,2048,8,256]\",\"v\":\"bf16[8,2048,8,256]\",\"precision\":[[\"DEFAULT\",\"DEFAULT\"],[\"DEFAULT\",\"DEFAULT\"]],\"logits_dtype\":\"float32\",\"logits_scale\":0.0625,\"bias\":null,\"logits_soft_cap\":null,\"mask\":{\"bool_mask\":null,\"q_start\":null,\"q_end\":null,\"k_start\":null,\"k_end\":null,\"is_causal\":false},\"dropout_mask\":null,\"dropout_rate\":0.0,\"paging_info\":null,\"q_indices\":null,\"k_indices\":null,\"normalize_output\":true,\"return_residuals\":true}": {
    "{}": {
      "compile_time_ms": 499.0848740000047,
      "lower_time_ms": 13.78071499999578,
      "evaluation_times_ms": [
        2.580972,
        2.583564,
        2.5844270000000003,
        2.579947,
        2.584107
      ],
      "metadata": {},
      "peak_memory_mb": 1410.334744
    }
  },
  "{\"q\":\"f16[8,2048,8,256]\",\"k\":\"f16[8,2048,8,256]\",\"v\":\"f16[8,2048,8,256]\",\"precision\":[[\"DEFAULT\",\"DEFAULT\"],[\"DEFAULT\",\"DEFAULT\"]],\"logits_dtype\":\"float32\",\"logits_scale\":0.0625,\"bias\":null,\"logits_soft_cap\":null,\"mask\":{\"bool_mask\":null,\"q_start\":null,\"q_end\":null,\"k_start\":null,\"k_end\":null,\"is_causal\":false},\"dropout_mask\":null,\"dropout_rate\":0.0,\"paging_info\":null,\"q_indices\":null,\"k_indices\":null,\"normalize_output\":true,\"return_residuals\":false}": {
    "{}": {
      "compile_time_ms": 1085.4621689999817,
      "lower_time_ms": 13.657125000008818,
      "evaluation_times_ms": [
        1.436951,
        1.4340410000000001,
        1.434456,
        1.433592,
        1.4342970000000002
      ],
      "metadata": {},
      "peak_memory_mb": 1879.048192
    }
  },
  "{\"q\":\"f16[8,2048,8,256]\",\"k\":\"f16[8,2048,8,256]\",\"v\":\"f16[8,2048,8,256]\",\"precision\":[[\"DEFAULT\",\"DEFAULT\"],[\"DEFAULT\",\"DEFAULT\"]],\"logits_dtype\":\"float32\",\"logits_scale\":0.0625,\"bias\":null,\"logits_soft_cap\":null,\"mask\":{\"bool_mask\":null,\"q_start\":null,\"q_end\":null,\"k_start\":null,\"k_end\":null,\"is_causal\":false},\"dropout_mask\":null,\"dropout_rate\":0.0,\"paging_info\":null,\"q_indices\":null,\"k_indices\":null,\"normalize_output\":true,\"return_residuals\":true}": {
    "{}": {
      "compile_time_ms": 284.7830320000071,
      "lower_time_ms": 13.092209999996385,
      "evaluation_times_ms": [
        2.120643,
        2.1216,
        2.12077,
        2.118433,
        2.119554
      ],
      "metadata": {},
      "peak_memory_mb": 1880.096792
    }
  },
  "{\"q\":\"bf16[4,4096,32,64]\",\"k\":\"bf16[4,4096,32,64]\",\"v\":\"bf16[4,4096,32,64]\",\"precision\":[[\"DEFAULT\",\"DEFAULT\"],[\"DEFAULT\",\"DEFAULT\"]],\"logits_dtype\":\"float32\",\"logits_scale\":0.125,\"bias\":null,\"logits_soft_cap\":null,\"mask\":{\"bool_mask\":null,\"q_start\":null,\"q_end\":null,\"k_start\":null,\"k_end\":null,\"is_causal\":true},\"dropout_mask\":null,\"dropout_rate\":0.0,\"paging_info\":null,\"q_indices\":null,\"k_indices\":null,\"normalize_output\":true,\"return_residuals\":false}": {
    "{}": {
      "compile_time_ms": 1379.640433999981,
      "lower_time_ms": 24.029150999979265,
      "evaluation_times_ms": [
        14.86062,
        14.822065,
        14.881162999999999,
        14.917000999999999,
        14.880844
      ],
      "metadata": {},
      "peak_memory_mb": 17448.30464
    }
  },
  "{\"q\":\"bf16[4,4096,32,64]\",\"k\":\"bf16[4,4096,32,64]\",\"v\":\"bf16[4,4096,32,64]\",\"precision\":[[\"DEFAULT\",\"DEFAULT\"],[\"DEFAULT\",\"DEFAULT\"]],\"logits_dtype\":\"float32\",\"logits_scale\":0.125,\"bias\":null,\"logits_soft_cap\":null,\"mask\":{\"bool_mask\":null,\"q_start\":null,\"q_end\":null,\"k_start\":null,\"k_end\":null,\"is_causal\":true},\"dropout_mask\":null,\"dropout_rate\":0.0,\"paging_info\":null,\"q_indices\":null,\"k_indices\":null,\"normalize_output\":true,\"return_residuals\":true}": {
    "{}": {
      "compile_time_ms": 431.4912579999941,
      "lower_time_ms": 14.159140000003845,
      "evaluation_times_ms": [
        17.075111,
        17.074214,
        17.071208000000002,
        17.078694000000002,
        17.071879
      ],
      "metadata": {},
      "peak_memory_mb": 8929.67324
    }
  },
  "{\"q\":\"f16[4,4096,32,64]\",\"k\":\"f16[4,4096,32,64]\",\"v\":\"f16[4,4096,32,64]\",\"precision\":[[\"DEFAULT\",\"DEFAULT\"],[\"DEFAULT\",\"DEFAULT\"]],\"logits_dtype\":\"float32\",\"logits_scale\":0.125,\"bias\":null,\"logits_soft_cap\":null,\"mask\":{\"bool_mask\":null,\"q_start\":null,\"q_end\":null,\"k_start\":null,\"k_end\":null,\"is_causal\":true},\"dropout_mask\":null,\"dropout_rate\":0.0,\"paging_info\":null,\"q_indices\":null,\"k_indices\":null,\"normalize_output\":true,\"return_residuals\":false}": {
    "{}": {
      "compile_time_ms": 1224.4684199999938,
      "lower_time_ms": 15.18325300000356,
      "evaluation_times_ms": [
        12.593687000000001,
        12.604214,
        12.60735,
        12.597239,
        12.595319
      ],
      "metadata": {},
      "peak_memory_mb": 13153.337344
    }
  },
  "{\"q\":\"f16[4,4096,32,64]\",\"k\":\"f16[4,4096,32,64]\",\"v\":\"f16[4,4096,32,64]\",\"precision\":[[\"DEFAULT\",\"DEFAULT\"],[\"DEFAULT\",\"DEFAULT\"]],\"logits_dtype\":\"float32\",\"logits_scale\":0.125,\"bias\":null,\"logits_soft_cap\":null,\"mask\":{\"bool_mask\":null,\"q_start\":null,\"q_end\":null,\"k_start\":null,\"k_end\":null,\"is_causal\":true},\"dropout_mask\":null,\"dropout_rate\":0.0,\"paging_info\":null,\"q_indices\":null,\"k_indices\":null,\"normalize_output\":true,\"return_residuals\":true}": {
    "{}": {
      "compile_time_ms": 196.36614300000588,
      "lower_time_ms": 14.773031999993691,
      "evaluation_times_ms": [
        14.254347,
        14.253612,
        14.254507,
        14.254411,
        14.261802
      ],
      "metadata": {},
      "peak_memory_mb": 13157.531672
    }
  },
  "{\"q\":\"bf16[4,4096,32,64]\",\"k\":\"bf16[4,4096,32,64]\",\"v\":\"bf16[4,4096,32,64]\",\"precision\":[[\"DEFAULT\",\"DEFAULT\"],[\"DEFAULT\",\"DEFAULT\"]],\"logits_dtype\":\"float32\",\"logits_scale\":0.125,\"bias\":null,\"logits_soft_cap\":null,\"mask\":{\"bool_mask\":null,\"q_start\":null,\"q_end\":null,\"k_start\":null,\"k_end\":null,\"is_causal\":false},\"dropout_mask\":null,\"dropout_rate\":0.0,\"paging_info\":null,\"q_indices\":null,\"k_indices\":null,\"normalize_output\":true,\"return_residuals\":false}": {
    "{}": {
      "compile_time_ms": 256.1746539999774,
      "lower_time_ms": 12.48677999998904,
      "evaluation_times_ms": [
        11.666878,
        11.669949,
        11.673981,
        11.664478,
        11.67027
      ],
      "metadata": {},
      "peak_memory_mb": 17448.30464
    }
  },
  "{\"q\":\"bf16[4,4096,32,64]\",\"k\":\"bf16[4,4096,32,64]\",\"v\":\"bf16[4,4096,32,64]\",\"precision\":[[\"DEFAULT\",\"DEFAULT\"],[\"DEFAULT\",\"DEFAULT\"]],\"logits_dtype\":\"float32\",\"logits_scale\":0.125,\"bias\":null,\"logits_soft_cap\":null,\"mask\":{\"bool_mask\":null,\"q_start\":null,\"q_end\":null,\"k_start\":null,\"k_end\":null,\"is_causal\":false},\"dropout_mask\":null,\"dropout_rate\":0.0,\"paging_info\":null,\"q_indices\":null,\"k_indices\":null,\"normalize_output\":true,\"return_residuals\":true}": {
    "{}": {
      "compile_time_ms": 445.6506040000079,
      "lower_time_ms": 12.666306999989274,
      "evaluation_times_ms": [
        17.069327,
        17.071567,
        17.070125,
        17.069838,
        17.063311
      ],
      "metadata": {},
      "peak_memory_mb": 8929.67324
    }
  },
  "{\"q\":\"f16[4,4096,32,64]\",\"k\":\"f16[4,4096,32,64]\",\"v\":\"f16[4,4096,32,64]\",\"precision\":[[\"DEFAULT\",\"DEFAULT\"],[\"DEFAULT\",\"DEFAULT\"]],\"logits_dtype\":\"float32\",\"logits_scale\":0.125,\"bias\":null,\"logits_soft_cap\":null,\"mask\":{\"bool_mask\":null,\"q_start\":null,\"q_end\":null,\"k_start\":null,\"k_end\":null,\"is_causal\":false},\"dropout_mask\":null,\"dropout_rate\":0.0,\"paging_info\":null,\"q_indices\":null,\"k_indices\":null,\"normalize_output\":true,\"return_residuals\":false}": {
    "{}": {
      "compile_time_ms": 240.12316499999997,
      "lower_time_ms": 12.551158000007945,
      "evaluation_times_ms": [
        8.8232,
        8.825505,
        8.824575999999999,
        8.831007,
        8.822401
      ],
      "metadata": {},
      "peak_memory_mb": 13153.337344
    }
  },
  "{\"q\":\"f16[4,4096,32,64]\",\"k\":\"f16[4,4096,32,64]\",\"v\":\"f16[4,4096,32,64]\",\"precision\":[[\"DEFAULT\",\"DEFAULT\"],[\"DEFAULT\",\"DEFAULT\"]],\"logits_dtype\":\"float32\",\"logits_scale\":0.125,\"bias\":null,\"logits_soft_cap\":null,\"mask\":{\"bool_mask\":null,\"q_start\":null,\"q_end\":null,\"k_start\":null,\"k_end\":null,\"is_causal\":false},\"dropout_mask\":null,\"dropout_rate\":0.0,\"paging_info\":null,\"q_indices\":null,\"k_indices\":null,\"normalize_output\":true,\"return_residuals\":true}": {
    "{}": {
      "compile_time_ms": 184.79881700000078,
      "lower_time_ms": 13.25491899999065,
      "evaluation_times_ms": [
        14.243759,
        14.245551,
        14.242640000000002,
        14.244624,
        14.244816
      ],
      "metadata": {},
      "peak_memory_mb": 13157.531672
    }
  },
  "{\"q\":\"bf16[4,4096,16,128]\",\"k\":\"bf16[4,4096,16,128]\",\"v\":\"bf16[4,4096,16,128]\",\"precision\":[[\"DEFAULT\",\"DEFAULT\"],[\"DEFAULT\",\"DEFAULT\"]],\"logits_dtype\":\"float32\",\"logits_scale\":0.08838834764831843,\"bias\":null,\"logits_soft_cap\":null,\"mask\":{\"bool_mask\":null,\"q_start\":null,\"q_end\":null,\"k_start\":null,\"k_end\":null,\"is_causal\":true},\"dropout_mask\":null,\"dropout_rate\":0.0,\"paging_info\":null,\"q_indices\":null,\"k_indices\":null,\"normalize_output\":true,\"return_residuals\":false}": {
    "{}": {
      "compile_time_ms": 1324.120645000022,
      "lower_time_ms": 19.242324999993343,
      "evaluation_times_ms": [
        7.78575,
        7.726106,
        7.728058,
        7.780278,
        7.789526
      ],
      "metadata": {},
      "peak_memory_mb": 8858.370048
    }
  },
  "{\"q\":\"bf16[4,4096,16,128]\",\"k\":\"bf16[4,4096,16,128]\",\"v\":\"bf16[4,4096,16,128]\",\"precision\":[[\"DEFAULT\",\"DEFAULT\"],[\"DEFAULT\",\"DEFAULT\"]],\"logits_dtype\":\"float32\",\"logits_scale\":0.08838834764831843,\"bias\":null,\"logits_soft_cap\":null,\"mask\":{\"bool_mask\":null,\"q_start\":null,\"q_end\":null,\"k_start\":null,\"k_end\":null,\"is_causal\":true},\"dropout_mask\":null,\"dropout_rate\":0.0,\"paging_info\":null,\"q_indices\":null,\"k_indices\":null,\"normalize_output\":true,\"return_residuals\":true}": {
    "{}": {
      "compile_time_ms": 522.5514640000029,
      "lower_time_ms": 13.906860999981063,
      "evaluation_times_ms": [
        8.834183,
        8.835304,
        8.836167,
        8.837095,
        8.834951
      ],
      "metadata": {},
      "peak_memory_mb": 4632.608792
    }
  },
  "{\"q\":\"f16[4,4096,16,128]\",\"k\":\"f16[4,4096,16,128]\",\"v\":\"f16[4,4096,16,128]\",\"precision\":[[\"DEFAULT\",\"DEFAULT\"],[\"DEFAULT\",\"DEFAULT\"]],\"logits_dtype\":\"float32\",\"logits_scale\":0.08838834764831843,\"bias\":null,\"logits_soft_cap\":null,\"mask\":{\"bool_mask\":null,\"q_start\":null,\"q_end\":null,\"k_start\":null,\"k_end\":null,\"is_causal\":true},\"dropout_mask\":null,\"dropout_rate\":0.0,\"paging_info\":null,\"q_indices\":null,\"k_indices\":null,\"normalize_output\":true,\"return_residuals\":false}": {
    "{}": {
      "compile_time_ms": 1138.1586219999917,
      "lower_time_ms": 15.268708000007791,
      "evaluation_times_ms": [
        6.574766,
        6.557037,
        6.564365,
        6.562637,
        6.5644290000000005
      ],
      "metadata": {},
      "peak_memory_mb": 6710.8864
    }
  },
  "{\"q\":\"f16[4,4096,16,128]\",\"k\":\"f16[4,4096,16,128]\",\"v\":\"f16[4,4096,16,128]\",\"precision\":[[\"DEFAULT\",\"DEFAULT\"],[\"DEFAULT\",\"DEFAULT\"]],\"logits_dtype\":\"float32\",\"logits_scale\":0.08838834764831843,\"bias\":null,\"logits_soft_cap\":null,\"mask\":{\"bool_mask\":null,\"q_start\":null,\"q_end\":null,\"k_start\":null,\"k_end\":null,\"is_causal\":true},\"dropout_mask\":null,\"dropout_rate\":0.0,\"paging_info\":null,\"q_indices\":null,\"k_indices\":null,\"normalize_output\":true,\"return_residuals\":true}": {
    "{}": {
      "compile_time_ms": 299.54109199999834,
      "lower_time_ms": 14.902907999982062,
      "evaluation_times_ms": [
        7.409203000000001,
        7.408017,
        7.408273,
        7.40565,
        7.406161
      ],
      "metadata": {},
      "peak_memory_mb": 6712.983576
    }
  },
  "{\"q\":\"bf16[4,4096,16,128]\",\"k\":\"bf16[4,4096,16,128]\",\"v\":\"bf16[4,4096,16,128]\",\"precision\":[[\"DEFAULT\",\"DEFAULT\"],[\"DEFAULT\",\"DEFAULT\"]],\"logits_dtype\":\"float32\",\"logits_scale\":0.08838834764831843,\"bias\":null,\"logits_soft_cap\":null,\"mask\":{\"bool_mask\":null,\"q_start\":null,\"q_end\":null,\"k_start\":null,\"k_end\":null,\"is_causal\":false},\"dropout_mask\":null,\"dropout_rate\":0.0,\"paging_info\":null,\"q_indices\":null,\"k_indices\":null,\"normalize_output\":true,\"return_residuals\":false}": {
    "{}": {
      "compile_time_ms": 344.2953109999962,
      "lower_time_ms": 12.787174000010282,
      "evaluation_times_ms": [
        6.123084,
        6.123692999999999,
        6.11371,
        6.110062,
        6.107438
      ],
      "metadata": {},
      "peak_memory_mb": 8858.370048
    }
  },
  "{\"q\":\"bf16[4,4096,16,128]\",\"k\":\"bf16[4,4096,16,128]\",\"v\":\"bf16[4,4096,16,128]\",\"precision\":[[\"DEFAULT\",\"DEFAULT\"],[\"DEFAULT\",\"DEFAULT\"]],\"logits_dtype\":\"float32\",\"logits_scale\":0.08838834764831843,\"bias\":null,\"logits_soft_cap\":null,\"mask\":{\"bool_mask\":null,\"q_start\":null,\"q_end\":null,\"k_start\":null,\"k_end\":null,\"is_causal\":false},\"dropout_mask\":null,\"dropout_rate\":0.0,\"paging_info\":null,\"q_indices\":null,\"k_indices\":null,\"normalize_output\":true,\"return_residuals\":true}": {
    "{}": {
      "compile_time_ms": 432.6848160000054,
      "lower_time_ms": 12.845443999992767,
      "evaluation_times_ms": [
        8.845582,
        8.837102999999999,
        8.833231,
        8.833934,
        8.830896
      ],
      "metadata": {},
      "peak_memory_mb": 4632.608792
    }
  },
  "{\"q\":\"f16[4,4096,16,128]\",\"k\":\"f16[4,4096,16,128]\",\"v\":\"f16[4,4096,16,128]\",\"precision\":[[\"DEFAULT\",\"DEFAULT\"],[\"DEFAULT\",\"DEFAULT\"]],\"logits_dtype\":\"float32\",\"logits_scale\":0.08838834764831843,\"bias\":null,\"logits_soft_cap\":null,\"mask\":{\"bool_mask\":null,\"q_start\":null,\"q_end\":null,\"k_start\":null,\"k_end\":null,\"is_causal\":false},\"dropout_mask\":null,\"dropout_rate\":0.0,\"paging_info\":null,\"q_indices\":null,\"k_indices\":null,\"normalize_output\":true,\"return_residuals\":false}": {
    "{}": {
      "compile_time_ms": 322.9980849999947,
      "lower_time_ms": 13.202170999988994,
      "evaluation_times_ms": [
        4.680646,
        4.683558,
        4.678501,
        4.68055,
        4.677925
      ],
      "metadata": {},
      "peak_memory_mb": 6710.8864
    }
  },
  "{\"q\":\"f16[4,4096,16,128]\",\"k\":\"f16[4,4096,16,128]\",\"v\":\"f16[4,4096,16,128]\",\"precision\":[[\"DEFAULT\",\"DEFAULT\"],[\"DEFAULT\",\"DEFAULT\"]],\"logits_dtype\":\"float32\",\"logits_scale\":0.08838834764831843,\"bias\":null,\"logits_soft_cap\":null,\"mask\":{\"bool_mask\":null,\"q_start\":null,\"q_end\":null,\"k_start\":null,\"k_end\":null,\"is_causal\":false},\"dropout_mask\":null,\"dropout_rate\":0.0,\"paging_info\":null,\"q_indices\":null,\"k_indices\":null,\"normalize_output\":true,\"return_residuals\":true}": {
    "{}": {
      "compile_time_ms": 296.28285999999093,
      "lower_time_ms": 925.1005799999916,
      "evaluation_times_ms": [
        7.405453,
        7.398639,
        7.400784,
        7.4024469999999996,
        7.405519
      ],
      "metadata": {},
      "peak_memory_mb": 6712.983576
    }
  },
  "{\"q\":\"bf16[4,4096,8,256]\",\"k\":\"bf16[4,4096,8,256]\",\"v\":\"bf16[4,4096,8,256]\",\"precision\":[[\"DEFAULT\",\"DEFAULT\"],[\"DEFAULT\",\"DEFAULT\"]],\"logits_dtype\":\"float32\",\"logits_scale\":0.0625,\"bias\":null,\"logits_soft_cap\":null,\"mask\":{\"bool_mask\":null,\"q_start\":null,\"q_end\":null,\"k_start\":null,\"k_end\":null,\"is_causal\":true},\"dropout_mask\":null,\"dropout_rate\":0.0,\"paging_info\":null,\"q_indices\":null,\"k_indices\":null,\"normalize_output\":true,\"return_residuals\":false}": {
    "{}": {
      "compile_time_ms": 1271.121409999978,
      "lower_time_ms": 19.15605400000686,
      "evaluation_times_ms": [
        4.232755,
        4.241651,
        4.229621,
        4.253682,
        4.231637
      ],
      "metadata": {},
      "peak_memory_mb": 4563.402752
    }
  },
  "{\"q\":\"bf16[4,4096,8,256]\",\"k\":\"bf16[4,4096,8,256]\",\"v\":\"bf16[4,4096,8,256]\",\"precision\":[[\"DEFAULT\",\"DEFAULT\"],[\"DEFAULT\",\"DEFAULT\"]],\"logits_dtype\":\"float32\",\"logits_scale\":0.0625,\"bias\":null,\"logits_soft_cap\":null,\"mask\":{\"bool_mask\":null,\"q_start\":null,\"q_end\":null,\"k_start\":null,\"k_end\":null,\"is_causal\":true},\"dropout_mask\":null,\"dropout_rate\":0.0,\"paging_info\":null,\"q_indices\":null,\"k_indices\":null,\"normalize_output\":true,\"return_residuals\":true}": {
    "{}": {
      "compile_time_ms": 457.45997299999885,
      "lower_time_ms": 14.195233000009466,
      "evaluation_times_ms": [
        4.799729,
        4.800591,
        4.818798,
        4.808208,
        4.791216
      ],
      "metadata": {},
      "peak_memory_mb": 4564.451352
    }
  },
  "{\"q\":\"f16[4,4096,8,256]\",\"k\":\"f16[4,4096,8,256]\",\"v\":\"f16[4,4096,8,256]\",\"precision\":[[\"DEFAULT\",\"DEFAULT\"],[\"DEFAULT\",\"DEFAULT\"]],\"logits_dtype\":\"float32\",\"logits_scale\":0.0625,\"bias\":null,\"logits_soft_cap\":null,\"mask\":{\"bool_mask\":null,\"q_start\":null,\"q_end\":null,\"k_start\":null,\"k_end\":null,\"is_causal\":true},\"dropout_mask\":null,\"dropout_rate\":0.0,\"paging_info\":null,\"q_indices\":null,\"k_indices\":null,\"normalize_output\":true,\"return_residuals\":false}": {
    "{}": {
      "compile_time_ms": 1184.8706159999836,
      "lower_time_ms": 16.06287900000325,
      "evaluation_times_ms": [
        3.509519,
        3.52094,
        3.526637,
        3.5378670000000003,
        3.547467
      ],
      "metadata": {},
      "peak_memory_mb": 3489.660928
    }
  },
  "{\"q\":\"f16[4,4096,8,256]\",\"k\":\"f16[4,4096,8,256]\",\"v\":\"f16[4,4096,8,256]\",\"precision\":[[\"DEFAULT\",\"DEFAULT\"],[\"DEFAULT\",\"DEFAULT\"]],\"logits_dtype\":\"float32\",\"logits_scale\":0.0625,\"bias\":null,\"logits_soft_cap\":null,\"mask\":{\"bool_mask\":null,\"q_start\":null,\"q_end\":null,\"k_start\":null,\"k_end\":null,\"is_causal\":true},\"dropout_mask\":null,\"dropout_rate\":0.0,\"paging_info\":null,\"q_indices\":null,\"k_indices\":null,\"normalize_output\":true,\"return_residuals\":true}": {
    "{}": {
      "compile_time_ms": 319.34535299998856,
      "lower_time_ms": 14.91629500000613,
      "evaluation_times_ms": [
        3.9485,
        3.9492350000000003,
        3.946323,
        3.945011,
        3.9479230000000003
      ],
      "metadata": {},
      "peak_memory_mb": 3490.709528
    }
  },
  "{\"q\":\"bf16[4,4096,8,256]\",\"k\":\"bf16[4,4096,8,256]\",\"v\":\"bf16[4,4096,8,256]\",\"precision\":[[\"DEFAULT\",\"DEFAULT\"],[\"DEFAULT\",\"DEFAULT\"]],\"logits_dtype\":\"float32\",\"logits_scale\":0.0625,\"bias\":null,\"logits_soft_cap\":null,\"mask\":{\"bool_mask\":null,\"q_start\":null,\"q_end\":null,\"k_start\":null,\"k_end\":null,\"is_causal\":false},\"dropout_mask\":null,\"dropout_rate\":0.0,\"paging_info\":null,\"q_indices\":null,\"k_indices\":null,\"normalize_output\":true,\"return_residuals\":false}": {
    "{}": {
      "compile_time_ms": 334.42587499999377,
      "lower_time_ms": 12.574497000002793,
      "evaluation_times_ms": [
        3.4449129999999997,
        3.455728,
        3.435985,
        3.438066,
        3.4387380000000003
      ],
      "metadata": {},
      "peak_memory_mb": 4563.402752
    }
  },
  "{\"q\":\"bf16[4,4096,8,256]\",\"k\":\"bf16[4,4096,8,256]\",\"v\":\"bf16[4,4096,8,256]\",\"precision\":[[\"DEFAULT\",\"DEFAULT\"],[\"DEFAULT\",\"DEFAULT\"]],\"logits_dtype\":\"float32\",\"logits_scale\":0.0625,\"bias\":null,\"logits_soft_cap\":null,\"mask\":{\"bool_mask\":null,\"q_start\":null,\"q_end\":null,\"k_start\":null,\"k_end\":null,\"is_causal\":false},\"dropout_mask\":null,\"dropout_rate\":0.0,\"paging_info\":null,\"q_indices\":null,\"k_indices\":null,\"normalize_output\":true,\"return_residuals\":true}": {
    "{}": {
      "compile_time_ms": 3258.8399280000003,
      "lower_time_ms": 168.43416499999364,
      "evaluation_times_ms": [
        4.787446,
        4.785847,
        4.786615,
        4.793813,
        4.788309
      ],
      "metadata": {},
      "peak_memory_mb": 4564.451352
    }
  },
  "{\"q\":\"f16[4,4096,8,256]\",\"k\":\"f16[4,4096,8,256]\",\"v\":\"f16[4,4096,8,256]\",\"precision\":[[\"DEFAULT\",\"DEFAULT\"],[\"DEFAULT\",\"DEFAULT\"]],\"logits_dtype\":\"float32\",\"logits_scale\":0.0625,\"bias\":null,\"logits_soft_cap\":null,\"mask\":{\"bool_mask\":null,\"q_start\":null,\"q_end\":null,\"k_start\":null,\"k_end\":null,\"is_causal\":false},\"dropout_mask\":null,\"dropout_rate\":0.0,\"paging_info\":null,\"q_indices\":null,\"k_indices\":null,\"normalize_output\":true,\"return_residuals\":false}": {
    "{}": {
      "compile_time_ms": 1384.2315450000058,
      "lower_time_ms": 21.73633900000027,
      "evaluation_times_ms": [
        2.58667,
        2.586606,
        2.586926,
        2.586607,
        2.58699
      ],
      "metadata": {},
      "peak_memory_mb": 3489.660928
    }
  },
  "{\"q\":\"f16[4,4096,8,256]\",\"k\":\"f16[4,4096,8,256]\",\"v\":\"f16[4,4096,8,256]\",\"precision\":[[\"DEFAULT\",\"DEFAULT\"],[\"DEFAULT\",\"DEFAULT\"]],\"logits_dtype\":\"float32\",\"logits_scale\":0.0625,\"bias\":null,\"logits_soft_cap\":null,\"mask\":{\"bool_mask\":null,\"q_start\":null,\"q_end\":null,\"k_start\":null,\"k_end\":null,\"is_causal\":false},\"dropout_mask\":null,\"dropout_rate\":0.0,\"paging_info\":null,\"q_indices\":null,\"k_indices\":null,\"normalize_output\":true,\"return_residuals\":true}": {
    "{}": {
      "compile_time_ms": 471.42165299999306,
      "lower_time_ms": 13.338362000013149,
      "evaluation_times_ms": [
        3.944296,
        3.943241,
        3.944617,
        3.947528,
        3.942793
      ],
      "metadata": {},
      "peak_memory_mb": 3490.709528
    }
  },
  "{\"q\":\"bf16[2,8192,32,64]\",\"k\":\"bf16[2,8192,32,64]\",\"v\":\"bf16[2,8192,32,64]\",\"precision\":[[\"DEFAULT\",\"DEFAULT\"],[\"DEFAULT\",\"DEFAULT\"]],\"logits_dtype\":\"float32\",\"logits_scale\":0.125,\"bias\":null,\"logits_soft_cap\":null,\"mask\":{\"bool_mask\":null,\"q_start\":null,\"q_end\":null,\"k_start\":null,\"k_end\":null,\"is_causal\":true},\"dropout_mask\":null,\"dropout_rate\":0.0,\"paging_info\":null,\"q_indices\":null,\"k_indices\":null,\"normalize_output\":true,\"return_residuals\":false}": {
    "{}": {
      "compile_time_ms": 1867.3123320000116,
      "lower_time_ms": 23.68808899998953,
      "evaluation_times_ms": [
        27.714719,
        27.776765,
        27.846721,
        27.7503,
        27.772061
      ],
      "metadata": {},
      "peak_memory_mb": 34628.173824
    }
  },
  "{\"q\":\"bf16[2,8192,32,64]\",\"k\":\"bf16[2,8192,32,64]\",\"v\":\"bf16[2,8192,32,64]\",\"precision\":[[\"DEFAULT\",\"DEFAULT\"],[\"DEFAULT\",\"DEFAULT\"]],\"logits_dtype\":\"float32\",\"logits_scale\":0.125,\"bias\":null,\"logits_soft_cap\":null,\"mask\":{\"bool_mask\":null,\"q_start\":null,\"q_end\":null,\"k_start\":null,\"k_end\":null,\"is_causal\":true},\"dropout_mask\":null,\"dropout_rate\":0.0,\"paging_info\":null,\"q_indices\":null,\"k_indices\":null,\"normalize_output\":true,\"return_residuals\":true}": {
    "{}": {
      "compile_time_ms": 473.4992399999953,
      "lower_time_ms": 14.063150999987784,
      "evaluation_times_ms": [
        33.619881,
        33.624361,
        33.617225,
        33.609032,
        33.638954
      ],
      "metadata": {},
      "peak_memory_mb": 17519.607832
    }
  },
  "{\"q\":\"f16[2,8192,32,64]\",\"k\":\"f16[2,8192,32,64]\",\"v\":\"f16[2,8192,32,64]\",\"precision\":[[\"DEFAULT\",\"DEFAULT\"],[\"DEFAULT\",\"DEFAULT\"]],\"logits_dtype\":\"float32\",\"logits_scale\":0.125,\"bias\":null,\"logits_soft_cap\":null,\"mask\":{\"bool_mask\":null,\"q_start\":null,\"q_end\":null,\"k_start\":null,\"k_end\":null,\"is_causal\":true},\"dropout_mask\":null,\"dropout_rate\":0.0,\"paging_info\":null,\"q_indices\":null,\"k_indices\":null,\"normalize_output\":true,\"return_residuals\":false}": {
    "{}": {
      "compile_time_ms": 1427.1626950000211,
      "lower_time_ms": 15.13711699999476,
      "evaluation_times_ms": [
        25.098001,
        25.051824,
        25.085074,
        25.042575999999997,
        25.086642
      ],
      "metadata": {},
      "peak_memory_mb": 26038.239232
    }
  },
  "{\"q\":\"f16[2,8192,32,64]\",\"k\":\"f16[2,8192,32,64]\",\"v\":\"f16[2,8192,32,64]\",\"precision\":[[\"DEFAULT\",\"DEFAULT\"],[\"DEFAULT\",\"DEFAULT\"]],\"logits_dtype\":\"float32\",\"logits_scale\":0.125,\"bias\":null,\"logits_soft_cap\":null,\"mask\":{\"bool_mask\":null,\"q_start\":null,\"q_end\":null,\"k_start\":null,\"k_end\":null,\"is_causal\":true},\"dropout_mask\":null,\"dropout_rate\":0.0,\"paging_info\":null,\"q_indices\":null,\"k_indices\":null,\"normalize_output\":true,\"return_residuals\":true}": {
    "{}": {
      "compile_time_ms": 183.39764700002092,
      "lower_time_ms": 14.368507000000363,
      "evaluation_times_ms": [
        27.933834,
        27.946251,
        27.933643,
        27.952363000000002,
        27.937195000000003
      ],
      "metadata": {},
      "peak_memory_mb": 26042.43356
    }
  },
  "{\"q\":\"bf16[2,8192,32,64]\",\"k\":\"bf16[2,8192,32,64]\",\"v\":\"bf16[2,8192,32,64]\",\"precision\":[[\"DEFAULT\",\"DEFAULT\"],[\"DEFAULT\",\"DEFAULT\"]],\"logits_dtype\":\"float32\",\"logits_scale\":0.125,\"bias\":null,\"logits_soft_cap\":null,\"mask\":{\"bool_mask\":null,\"q_start\":null,\"q_end\":null,\"k_start\":null,\"k_end\":null,\"is_causal\":false},\"dropout_mask\":null,\"dropout_rate\":0.0,\"paging_info\":null,\"q_indices\":null,\"k_indices\":null,\"normalize_output\":true,\"return_residuals\":false}": {
    "{}": {
      "compile_time_ms": 230.76688899999453,
      "lower_time_ms": 12.43996400000924,
      "evaluation_times_ms": [
        22.90129,
        22.896234,
        22.887114,
        22.894379,
        22.909513999999998
      ],
      "metadata": {},
      "peak_memory_mb": 34628.173824
    }
  },
  "{\"q\":\"bf16[2,8192,32,64]\",\"k\":\"bf16[2,8192,32,64]\",\"v\":\"bf16[2,8192,32,64]\",\"precision\":[[\"DEFAULT\",\"DEFAULT\"],[\"DEFAULT\",\"DEFAULT\"]],\"logits_dtype\":\"float32\",\"logits_scale\":0.125,\"bias\":null,\"logits_soft_cap\":null,\"mask\":{\"bool_mask\":null,\"q_start\":null,\"q_end\":null,\"k_start\":null,\"k_end\":null,\"is_causal\":false},\"dropout_mask\":null,\"dropout_rate\":0.0,\"paging_info\":null,\"q_indices\":null,\"k_indices\":null,\"normalize_output\":true,\"return_residuals\":true}": {
    "{}": {
      "compile_time_ms": 472.09722200000215,
      "lower_time_ms": 12.323651000002656,
      "evaluation_times_ms": [
        33.609635,
        33.599299,
        33.597538,
        33.611971000000004,
        33.591907
      ],
      "metadata": {},
      "peak_memory_mb": 17519.607832
    }
  },
  "{\"q\":\"f16[2,8192,32,64]\",\"k\":\"f16[2,8192,32,64]\",\"v\":\"f16[2,8192,32,64]\",\"precision\":[[\"DEFAULT\",\"DEFAULT\"],[\"DEFAULT\",\"DEFAULT\"]],\"logits_dtype\":\"float32\",\"logits_scale\":0.125,\"bias\":null,\"logits_soft_cap\":null,\"mask\":{\"bool_mask\":null,\"q_start\":null,\"q_end\":null,\"k_start\":null,\"k_end\":null,\"is_causal\":false},\"dropout_mask\":null,\"dropout_rate\":0.0,\"paging_info\":null,\"q_indices\":null,\"k_indices\":null,\"normalize_output\":true,\"return_residuals\":false}": {
    "{}": {
      "compile_time_ms": 187.63447399999222,
      "lower_time_ms": 12.625674999981129,
      "evaluation_times_ms": [
        17.80442,
        17.793796,
        17.799107,
        17.795043,
        17.795907
      ],
      "metadata": {},
      "peak_memory_mb": 26038.239232
    }
  },
  "{\"q\":\"f16[2,8192,32,64]\",\"k\":\"f16[2,8192,32,64]\",\"v\":\"f16[2,8192,32,64]\",\"precision\":[[\"DEFAULT\",\"DEFAULT\"],[\"DEFAULT\",\"DEFAULT\"]],\"logits_dtype\":\"float32\",\"logits_scale\":0.125,\"bias\":null,\"logits_soft_cap\":null,\"mask\":{\"bool_mask\":null,\"q_start\":null,\"q_end\":null,\"k_start\":null,\"k_end\":null,\"is_causal\":false},\"dropout_mask\":null,\"dropout_rate\":0.0,\"paging_info\":null,\"q_indices\":null,\"k_indices\":null,\"normalize_output\":true,\"return_residuals\":true}": {
    "{}": {
      "compile_time_ms": 159.09599699998012,
      "lower_time_ms": 13.3058549999987,
      "evaluation_times_ms": [
        27.907441000000002,
        27.914289999999998,
        27.916498999999998,
        27.913106,
        27.921778
      ],
      "metadata": {},
      "peak_memory_mb": 26042.43356
    }
  },
  "{\"q\":\"bf16[2,8192,16,128]\",\"k\":\"bf16[2,8192,16,128]\",\"v\":\"bf16[2,8192,16,128]\",\"precision\":[[\"DEFAULT\",\"DEFAULT\"],[\"DEFAULT\",\"DEFAULT\"]],\"logits_dtype\":\"float32\",\"logits_scale\":0.08838834764831843,\"bias\":null,\"logits_soft_cap\":null,\"mask\":{\"bool_mask\":null,\"q_start\":null,\"q_end\":null,\"k_start\":null,\"k_end\":null,\"is_causal\":true},\"dropout_mask\":null,\"dropout_rate\":0.0,\"paging_info\":null,\"q_indices\":null,\"k_indices\":null,\"normalize_output\":true,\"return_residuals\":false}": {
    "{}": {
      "compile_time_ms": 1455.1841850000073,
      "lower_time_ms": 19.27352900000301,
      "evaluation_times_ms": [
        14.320741,
        14.209186,
        14.230497999999999,
        14.196705999999999,
        14.266404
      ],
      "metadata": {},
      "peak_memory_mb": 17448.30464
    }
  },
  "{\"q\":\"bf16[2,8192,16,128]\",\"k\":\"bf16[2,8192,16,128]\",\"v\":\"bf16[2,8192,16,128]\",\"precision\":[[\"DEFAULT\",\"DEFAULT\"],[\"DEFAULT\",\"DEFAULT\"]],\"logits_dtype\":\"float32\",\"logits_scale\":0.08838834764831843,\"bias\":null,\"logits_soft_cap\":null,\"mask\":{\"bool_mask\":null,\"q_start\":null,\"q_end\":null,\"k_start\":null,\"k_end\":null,\"is_causal\":true},\"dropout_mask\":null,\"dropout_rate\":0.0,\"paging_info\":null,\"q_indices\":null,\"k_indices\":null,\"normalize_output\":true,\"return_residuals\":true}": {
    "{}": {
      "compile_time_ms": 413.3975249999935,
      "lower_time_ms": 14.089544999990267,
      "evaluation_times_ms": [
        17.231918,
        17.222637,
        17.224204,
        17.214764,
        17.226189
      ],
      "metadata": {},
      "peak_memory_mb": 8927.576088
    }
  },
  "{\"q\":\"f16[2,8192,16,128]\",\"k\":\"f16[2,8192,16,128]\",\"v\":\"f16[2,8192,16,128]\",\"precision\":[[\"DEFAULT\",\"DEFAULT\"],[\"DEFAULT\",\"DEFAULT\"]],\"logits_dtype\":\"float32\",\"logits_scale\":0.08838834764831843,\"bias\":null,\"logits_soft_cap\":null,\"mask\":{\"bool_mask\":null,\"q_start\":null,\"q_end\":null,\"k_start\":null,\"k_end\":null,\"is_causal\":true},\"dropout_mask\":null,\"dropout_rate\":0.0,\"paging_info\":null,\"q_indices\":null,\"k_indices\":null,\"normalize_output\":true,\"return_residuals\":false}": {
    "{}": {
      "compile_time_ms": 1234.708299999994,
      "lower_time_ms": 15.276430999989543,
      "evaluation_times_ms": [
        13.002428,
        12.994493,
        12.99638,
        13.007388,
        13.047198
      ],
      "metadata": {},
      "peak_memory_mb": 13153.337344
    }
  },
  "{\"q\":\"f16[2,8192,16,128]\",\"k\":\"f16[2,8192,16,128]\",\"v\":\"f16[2,8192,16,128]\",\"precision\":[[\"DEFAULT\",\"DEFAULT\"],[\"DEFAULT\",\"DEFAULT\"]],\"logits_dtype\":\"float32\",\"logits_scale\":0.08838834764831843,\"bias\":null,\"logits_soft_cap\":null,\"mask\":{\"bool_mask\":null,\"q_start\":null,\"q_end\":null,\"k_start\":null,\"k_end\":null,\"is_causal\":true},\"dropout_mask\":null,\"dropout_rate\":0.0,\"paging_info\":null,\"q_indices\":null,\"k_indices\":null,\"normalize_output\":true,\"return_residuals\":true}": {
    "{}": {
      "compile_time_ms": 295.70517599998425,
      "lower_time_ms": 14.393651000006003,
      "evaluation_times_ms": [
        14.457678,
        14.468143,
        14.433101,
        14.451598,
        14.450446
      ],
      "metadata": {},
      "peak_memory_mb": 13155.43452
    }
  },
  "{\"q\":\"bf16[2,8192,16,128]\",\"k\":\"bf16[2,8192,16,128]\",\"v\":\"bf16[2,8192,16,128]\",\"precision\":[[\"DEFAULT\",\"DEFAULT\"],[\"DEFAULT\",\"DEFAULT\"]],\"logits_dtype\":\"float32\",\"logits_scale\":0.08838834764831843,\"bias\":null,\"logits_soft_cap\":null,\"mask\":{\"bool_mask\":null,\"q_start\":null,\"q_end\":null,\"k_start\":null,\"k_end\":null,\"is_causal\":false},\"dropout_mask\":null,\"dropout_rate\":0.0,\"paging_info\":null,\"q_indices\":null,\"k_indices\":null,\"normalize_output\":true,\"return_residuals\":false}": {
    "{}": {
      "compile_time_ms": 251.13601799998264,
      "lower_time_ms": 12.379199999998036,
      "evaluation_times_ms": [
        11.850335,
        11.868799000000001,
        11.859103,
        11.856224,
        11.857247
      ],
      "metadata": {},
      "peak_memory_mb": 17448.30464
    }
  },
  "{\"q\":\"bf16[2,8192,16,128]\",\"k\":\"bf16[2,8192,16,128]\",\"v\":\"bf16[2,8192,16,128]\",\"precision\":[[\"DEFAULT\",\"DEFAULT\"],[\"DEFAULT\",\"DEFAULT\"]],\"logits_dtype\":\"float32\",\"logits_scale\":0.08838834764831843,\"bias\":null,\"logits_soft_cap\":null,\"mask\":{\"bool_mask\":null,\"q_start\":null,\"q_end\":null,\"k_start\":null,\"k_end\":null,\"is_causal\":false},\"dropout_mask\":null,\"dropout_rate\":0.0,\"paging_info\":null,\"q_indices\":null,\"k_indices\":null,\"normalize_output\":true,\"return_residuals\":true}": {
    "{}": {
      "compile_time_ms": 369.7654220000004,
      "lower_time_ms": 12.432986000021629,
      "evaluation_times_ms": [
        17.186602999999998,
        17.188012,
        17.193388,
        17.199501,
        17.179083
      ],
      "metadata": {},
      "peak_memory_mb": 8927.576088
    }
  },
  "{\"q\":\"f16[2,8192,16,128]\",\"k\":\"f16[2,8192,16,128]\",\"v\":\"f16[2,8192,16,128]\",\"precision\":[[\"DEFAULT\",\"DEFAULT\"],[\"DEFAULT\",\"DEFAULT\"]],\"logits_dtype\":\"float32\",\"logits_scale\":0.08838834764831843,\"bias\":null,\"logits_soft_cap\":null,\"mask\":{\"bool_mask\":null,\"q_start\":null,\"q_end\":null,\"k_start\":null,\"k_end\":null,\"is_causal\":false},\"dropout_mask\":null,\"dropout_rate\":0.0,\"paging_info\":null,\"q_indices\":null,\"k_indices\":null,\"normalize_output\":true,\"return_residuals\":false}": {
    "{}": {
      "compile_time_ms": 295.0509990000114,
      "lower_time_ms": 12.715918999987252,
      "evaluation_times_ms": [
        9.363727,
        9.364399,
        9.363311,
        9.355535,
        9.359375
      ],
      "metadata": {},
      "peak_memory_mb": 13153.337344
    }
  },
  "{\"q\":\"f16[2,8192,16,128]\",\"k\":\"f16[2,8192,16,128]\",\"v\":\"f16[2,8192,16,128]\",\"precision\":[[\"DEFAULT\",\"DEFAULT\"],[\"DEFAULT\",\"DEFAULT\"]],\"logits_dtype\":\"float32\",\"logits_scale\":0.08838834764831843,\"bias\":null,\"logits_soft_cap\":null,\"mask\":{\"bool_mask\":null,\"q_start\":null,\"q_end\":null,\"k_start\":null,\"k_end\":null,\"is_causal\":false},\"dropout_mask\":null,\"dropout_rate\":0.0,\"paging_info\":null,\"q_indices\":null,\"k_indices\":null,\"normalize_output\":true,\"return_residuals\":true}": {
    "{}": {
      "compile_time_ms": 277.1535840000183,
      "lower_time_ms": 12.83940299998676,
      "evaluation_times_ms": [
        14.447059,
        14.44466,
        14.444211,
        14.460857,
        14.459706
      ],
      "metadata": {},
      "peak_memory_mb": 13155.43452
    }
  },
  "{\"q\":\"bf16[2,8192,8,256]\",\"k\":\"bf16[2,8192,8,256]\",\"v\":\"bf16[2,8192,8,256]\",\"precision\":[[\"DEFAULT\",\"DEFAULT\"],[\"DEFAULT\",\"DEFAULT\"]],\"logits_dtype\":\"float32\",\"logits_scale\":0.0625,\"bias\":null,\"logits_soft_cap\":null,\"mask\":{\"bool_mask\":null,\"q_start\":null,\"q_end\":null,\"k_start\":null,\"k_end\":null,\"is_causal\":true},\"dropout_mask\":null,\"dropout_rate\":0.0,\"paging_info\":null,\"q_indices\":null,\"k_indices\":null,\"normalize_output\":true,\"return_residuals\":false}": {
    "{}": {
      "compile_time_ms": 1339.5396829999981,
      "lower_time_ms": 18.960144000004675,
      "evaluation_times_ms": [
        8.318495,
        8.319709999999999,
        8.307134,
        8.30003,
        8.296605
      ],
      "metadata": {},
      "peak_memory_mb": 8858.370048
    }
  },
  "{\"q\":\"bf16[2,8192,8,256]\",\"k\":\"bf16[2,8192,8,256]\",\"v\":\"bf16[2,8192,8,256]\",\"precision\":[[\"DEFAULT\",\"DEFAULT\"],[\"DEFAULT\",\"DEFAULT\"]],\"logits_dtype\":\"float32\",\"logits_scale\":0.0625,\"bias\":null,\"logits_soft_cap\":null,\"mask\":{\"bool_mask\":null,\"q_start\":null,\"q_end\":null,\"k_start\":null,\"k_end\":null,\"is_causal\":true},\"dropout_mask\":null,\"dropout_rate\":0.0,\"paging_info\":null,\"q_indices\":null,\"k_indices\":null,\"normalize_output\":true,\"return_residuals\":true}": {
    "{}": {
      "compile_time_ms": 474.88228899999285,
      "lower_time_ms": 13.657023000007484,
      "evaluation_times_ms": [
        9.826124,
        9.797516,
        9.792715,
        9.803915,
        9.801931
      ],
      "metadata": {},
      "peak_memory_mb": 8859.418648
    }
  },
  "{\"q\":\"f16[2,8192,8,256]\",\"k\":\"f16[2,8192,8,256]\",\"v\":\"f16[2,8192,8,256]\",\"precision\":[[\"DEFAULT\",\"DEFAULT\"],[\"DEFAULT\",\"DEFAULT\"]],\"logits_dtype\":\"float32\",\"logits_scale\":0.0625,\"bias\":null,\"logits_soft_cap\":null,\"mask\":{\"bool_mask\":null,\"q_start\":null,\"q_end\":null,\"k_start\":null,\"k_end\":null,\"is_causal\":true},\"dropout_mask\":null,\"dropout_rate\":0.0,\"paging_info\":null,\"q_indices\":null,\"k_indices\":null,\"normalize_output\":true,\"return_residuals\":false}": {
    "{}": {
      "compile_time_ms": 1324.9546069999951,
      "lower_time_ms": 15.070535999996082,
      "evaluation_times_ms": [
        6.854533,
        6.861733999999999,
        6.858854,
        6.840388,
        6.881573
      ],
      "metadata": {},
      "peak_memory_mb": 6710.8864
    }
  },
  "{\"q\":\"f16[2,8192,8,256]\",\"k\":\"f16[2,8192,8,256]\",\"v\":\"f16[2,8192,8,256]\",\"precision\":[[\"DEFAULT\",\"DEFAULT\"],[\"DEFAULT\",\"DEFAULT\"]],\"logits_dtype\":\"float32\",\"logits_scale\":0.0625,\"bias\":null,\"logits_soft_cap\":null,\"mask\":{\"bool_mask\":null,\"q_start\":null,\"q_end\":null,\"k_start\":null,\"k_end\":null,\"is_causal\":true},\"dropout_mask\":null,\"dropout_rate\":0.0,\"paging_info\":null,\"q_indices\":null,\"k_indices\":null,\"normalize_output\":true,\"return_residuals\":true}": {
    "{}": {
      "compile_time_ms": 117.18697099999531,
      "lower_time_ms": 13.863396999994393,
      "evaluation_times_ms": [
        7.5792910000000004,
        7.581627,
        7.58009,
        7.57737,
        7.579675
      ],
      "metadata": {},
      "peak_memory_mb": 6711.935
    }
  },
  "{\"q\":\"bf16[2,8192,8,256]\",\"k\":\"bf16[2,8192,8,256]\",\"v\":\"bf16[2,8192,8,256]\",\"precision\":[[\"DEFAULT\",\"DEFAULT\"],[\"DEFAULT\",\"DEFAULT\"]],\"logits_dtype\":\"float32\",\"logits_scale\":0.0625,\"bias\":null,\"logits_soft_cap\":null,\"mask\":{\"bool_mask\":null,\"q_start\":null,\"q_end\":null,\"k_start\":null,\"k_end\":null,\"is_causal\":false},\"dropout_mask\":null,\"dropout_rate\":0.0,\"paging_info\":null,\"q_indices\":null,\"k_indices\":null,\"normalize_output\":true,\"return_residuals\":false}": {
    "{}": {
      "compile_time_ms": 293.5879629999931,
      "lower_time_ms": 13.028816999991477,
      "evaluation_times_ms": [
        7.114509,
        7.1122689999999995,
        7.117901,
        7.107181,
        7.115532
      ],
      "metadata": {},
      "peak_memory_mb": 8858.370048
    }
  },
  "{\"q\":\"bf16[2,8192,8,256]\",\"k\":\"bf16[2,8192,8,256]\",\"v\":\"bf16[2,8192,8,256]\",\"precision\":[[\"DEFAULT\",\"DEFAULT\"],[\"DEFAULT\",\"DEFAULT\"]],\"logits_dtype\":\"float32\",\"logits_scale\":0.0625,\"bias\":null,\"logits_soft_cap\":null,\"mask\":{\"bool_mask\":null,\"q_start\":null,\"q_end\":null,\"k_start\":null,\"k_end\":null,\"is_causal\":false},\"dropout_mask\":null,\"dropout_rate\":0.0,\"paging_info\":null,\"q_indices\":null,\"k_indices\":null,\"normalize_output\":true,\"return_residuals\":true}": {
    "{}": {
      "compile_time_ms": 401.10024099999464,
      "lower_time_ms": 12.36865300001,
      "evaluation_times_ms": [
        9.79017,
        9.791834,
        9.797274999999999,
        9.793851,
        9.792171
      ],
      "metadata": {},
      "peak_memory_mb": 8859.418648
    }
  },
  "{\"q\":\"f16[2,8192,8,256]\",\"k\":\"f16[2,8192,8,256]\",\"v\":\"f16[2,8192,8,256]\",\"precision\":[[\"DEFAULT\",\"DEFAULT\"],[\"DEFAULT\",\"DEFAULT\"]],\"logits_dtype\":\"float32\",\"logits_scale\":0.0625,\"bias\":null,\"logits_soft_cap\":null,\"mask\":{\"bool_mask\":null,\"q_start\":null,\"q_end\":null,\"k_start\":null,\"k_end\":null,\"is_causal\":false},\"dropout_mask\":null,\"dropout_rate\":0.0,\"paging_info\":null,\"q_indices\":null,\"k_indices\":null,\"normalize_output\":true,\"return_residuals\":false}": {
    "{}": {
      "compile_time_ms": 168.8273400000071,
      "lower_time_ms": 12.881189000012228,
      "evaluation_times_ms": [
        5.044745,
        5.041514,
        5.04913,
        5.043722,
        5.043722
      ],
      "metadata": {},
      "peak_memory_mb": 6710.8864
    }
  },
  "{\"q\":\"f16[2,8192,8,256]\",\"k\":\"f16[2,8192,8,256]\",\"v\":\"f16[2,8192,8,256]\",\"precision\":[[\"DEFAULT\",\"DEFAULT\"],[\"DEFAULT\",\"DEFAULT\"]],\"logits_dtype\":\"float32\",\"logits_scale\":0.0625,\"bias\":null,\"logits_soft_cap\":null,\"mask\":{\"bool_mask\":null,\"q_start\":null,\"q_end\":null,\"k_start\":null,\"k_end\":null,\"is_causal\":false},\"dropout_mask\":null,\"dropout_rate\":0.0,\"paging_info\":null,\"q_indices\":null,\"k_indices\":null,\"normalize_output\":true,\"return_residuals\":true}": {
    "{}": {
      "compile_time_ms": 2757.037471999993,
      "lower_time_ms": 175.53479500000435,
      "evaluation_times_ms": [
        7.576565,
        7.574357,
        7.575094,
        7.574838000000001,
        7.573269
      ],
      "metadata": {},
      "peak_memory_mb": 6711.935
    }
  },
  "{\"q\":\"bf16[1,16384,32,64]\",\"k\":\"bf16[1,16384,32,64]\",\"v\":\"bf16[1,16384,32,64]\",\"precision\":[[\"DEFAULT\",\"DEFAULT\"],[\"DEFAULT\",\"DEFAULT\"]],\"logits_dtype\":\"float32\",\"logits_scale\":0.125,\"bias\":null,\"logits_soft_cap\":null,\"mask\":{\"bool_mask\":null,\"q_start\":null,\"q_end\":null,\"k_start\":null,\"k_end\":null,\"is_causal\":true},\"dropout_mask\":null,\"dropout_rate\":0.0,\"paging_info\":null,\"q_indices\":null,\"k_indices\":null,\"normalize_output\":true,\"return_residuals\":false}": {},
  "{\"q\":\"bf16[1,16384,32,64]\",\"k\":\"bf16[1,16384,32,64]\",\"v\":\"bf16[1,16384,32,64]\",\"precision\":[[\"DEFAULT\",\"DEFAULT\"],[\"DEFAULT\",\"DEFAULT\"]],\"logits_dtype\":\"float32\",\"logits_scale\":0.125,\"bias\":null,\"logits_soft_cap\":null,\"mask\":{\"bool_mask\":null,\"q_start\":null,\"q_end\":null,\"k_start\":null,\"k_end\":null,\"is_causal\":true},\"dropout_mask\":null,\"dropout_rate\":0.0,\"paging_info\":null,\"q_indices\":null,\"k_indices\":null,\"normalize_output\":true,\"return_residuals\":true}": {},
  "{\"q\":\"f16[1,16384,32,64]\",\"k\":\"f16[1,16384,32,64]\",\"v\":\"f16[1,16384,32,64]\",\"precision\":[[\"DEFAULT\",\"DEFAULT\"],[\"DEFAULT\",\"DEFAULT\"]],\"logits_dtype\":\"float32\",\"logits_scale\":0.125,\"bias\":null,\"logits_soft_cap\":null,\"mask\":{\"bool_mask\":null,\"q_start\":null,\"q_end\":null,\"k_start\":null,\"k_end\":null,\"is_causal\":true},\"dropout_mask\":null,\"dropout_rate\":0.0,\"paging_info\":null,\"q_indices\":null,\"k_indices\":null,\"normalize_output\":true,\"return_residuals\":false}": {
    "{}": {
      "compile_time_ms": 101827.62742601335,
      "lower_time_ms": 14.647249947302043,
      "evaluation_times_ms": [
        49.327116000000004,
        49.399979,
        49.430027,
        49.377387,
        49.460972
      ],
      "metadata": {},
      "peak_memory_mb": 51808.043008
    }
  },
  "{\"q\":\"f16[1,16384,32,64]\",\"k\":\"f16[1,16384,32,64]\",\"v\":\"f16[1,16384,32,64]\",\"precision\":[[\"DEFAULT\",\"DEFAULT\"],[\"DEFAULT\",\"DEFAULT\"]],\"logits_dtype\":\"float32\",\"logits_scale\":0.125,\"bias\":null,\"logits_soft_cap\":null,\"mask\":{\"bool_mask\":null,\"q_start\":null,\"q_end\":null,\"k_start\":null,\"k_end\":null,\"is_causal\":true},\"dropout_mask\":null,\"dropout_rate\":0.0,\"paging_info\":null,\"q_indices\":null,\"k_indices\":null,\"normalize_output\":true,\"return_residuals\":true}": {
    "{}": {
      "compile_time_ms": 124.5034410385415,
      "lower_time_ms": 13.816597987897694,
      "evaluation_times_ms": [
        56.444329,
        56.470344,
        56.46436,
        56.429193,
        56.43313
      ],
      "metadata": {},
      "peak_memory_mb": 51812.237336
    }
  },
  "{\"q\":\"bf16[1,16384,32,64]\",\"k\":\"bf16[1,16384,32,64]\",\"v\":\"bf16[1,16384,32,64]\",\"precision\":[[\"DEFAULT\",\"DEFAULT\"],[\"DEFAULT\",\"DEFAULT\"]],\"logits_dtype\":\"float32\",\"logits_scale\":0.125,\"bias\":null,\"logits_soft_cap\":null,\"mask\":{\"bool_mask\":null,\"q_start\":null,\"q_end\":null,\"k_start\":null,\"k_end\":null,\"is_causal\":false},\"dropout_mask\":null,\"dropout_rate\":0.0,\"paging_info\":null,\"q_indices\":null,\"k_indices\":null,\"normalize_output\":true,\"return_residuals\":false}": {},
  "{\"q\":\"bf16[1,16384,32,64]\",\"k\":\"bf16[1,16384,32,64]\",\"v\":\"bf16[1,16384,32,64]\",\"precision\":[[\"DEFAULT\",\"DEFAULT\"],[\"DEFAULT\",\"DEFAULT\"]],\"logits_dtype\":\"float32\",\"logits_scale\":0.125,\"bias\":null,\"logits_soft_cap\":null,\"mask\":{\"bool_mask\":null,\"q_start\":null,\"q_end\":null,\"k_start\":null,\"k_end\":null,\"is_causal\":false},\"dropout_mask\":null,\"dropout_rate\":0.0,\"paging_info\":null,\"q_indices\":null,\"k_indices\":null,\"normalize_output\":true,\"return_residuals\":true}": {},
  "{\"q\":\"f16[1,16384,32,64]\",\"k\":\"f16[1,16384,32,64]\",\"v\":\"f16[1,16384,32,64]\",\"precision\":[[\"DEFAULT\",\"DEFAULT\"],[\"DEFAULT\",\"DEFAULT\"]],\"logits_dtype\":\"float32\",\"logits_scale\":0.125,\"bias\":null,\"logits_soft_cap\":null,\"mask\":{\"bool_mask\":null,\"q_start\":null,\"q_end\":null,\"k_start\":null,\"k_end\":null,\"is_causal\":false},\"dropout_mask\":null,\"dropout_rate\":0.0,\"paging_info\":null,\"q_indices\":null,\"k_indices\":null,\"normalize_output\":true,\"return_residuals\":false}": {
    "{}": {
      "compile_time_ms": 208.4072839934379,
      "lower_time_ms": 12.574816006235778,
      "evaluation_times_ms": [
        37.875525,
        37.876355999999994,
        37.892356,
        37.866148,
        37.865284
      ],
      "metadata": {},
      "peak_memory_mb": 51808.043008
    }
  },
  "{\"q\":\"f16[1,16384,32,64]\",\"k\":\"f16[1,16384,32,64]\",\"v\":\"f16[1,16384,32,64]\",\"precision\":[[\"DEFAULT\",\"DEFAULT\"],[\"DEFAULT\",\"DEFAULT\"]],\"logits_dtype\":\"float32\",\"logits_scale\":0.125,\"bias\":null,\"logits_soft_cap\":null,\"mask\":{\"bool_mask\":null,\"q_start\":null,\"q_end\":null,\"k_start\":null,\"k_end\":null,\"is_causal\":false},\"dropout_mask\":null,\"dropout_rate\":0.0,\"paging_info\":null,\"q_indices\":null,\"k_indices\":null,\"normalize_output\":true,\"return_residuals\":true}": {
    "{}": {
      "compile_time_ms": 127.81088496558368,
      "lower_time_ms": 11.876452015712857,
      "evaluation_times_ms": [
        56.427209,
        56.436555,
        56.471979,
        56.508299,
        56.414315
      ],
      "metadata": {},
      "peak_memory_mb": 51812.237336
    }
  },
  "{\"q\":\"bf16[1,16384,16,128]\",\"k\":\"bf16[1,16384,16,128]\",\"v\":\"bf16[1,16384,16,128]\",\"precision\":[[\"DEFAULT\",\"DEFAULT\"],[\"DEFAULT\",\"DEFAULT\"]],\"logits_dtype\":\"float32\",\"logits_scale\":0.08838834764831843,\"bias\":null,\"logits_soft_cap\":null,\"mask\":{\"bool_mask\":null,\"q_start\":null,\"q_end\":null,\"k_start\":null,\"k_end\":null,\"is_causal\":true},\"dropout_mask\":null,\"dropout_rate\":0.0,\"paging_info\":null,\"q_indices\":null,\"k_indices\":null,\"normalize_output\":true,\"return_residuals\":false}": {
    "{}": {
      "compile_time_ms": 3008.369523915462,
      "lower_time_ms": 18.16616696305573,
      "evaluation_times_ms": [
        29.413912,
        29.432247,
        29.563126,
        29.330103,
        29.338103
      ],
      "metadata": {},
      "peak_memory_mb": 34628.173824
    }
  },
  "{\"q\":\"bf16[1,16384,16,128]\",\"k\":\"bf16[1,16384,16,128]\",\"v\":\"bf16[1,16384,16,128]\",\"precision\":[[\"DEFAULT\",\"DEFAULT\"],[\"DEFAULT\",\"DEFAULT\"]],\"logits_dtype\":\"float32\",\"logits_scale\":0.08838834764831843,\"bias\":null,\"logits_soft_cap\":null,\"mask\":{\"bool_mask\":null,\"q_start\":null,\"q_end\":null,\"k_start\":null,\"k_end\":null,\"is_causal\":true},\"dropout_mask\":null,\"dropout_rate\":0.0,\"paging_info\":null,\"q_indices\":null,\"k_indices\":null,\"normalize_output\":true,\"return_residuals\":true}": {
    "{}": {
      "compile_time_ms": 582.4804550502449,
      "lower_time_ms": 13.070672051981091,
      "evaluation_times_ms": [
        34.939806,
        34.883966,
        35.064189,
        34.919069,
        35.024157
      ],
      "metadata": {},
      "peak_memory_mb": 34630.271
    }
  },
  "{\"q\":\"f16[1,16384,16,128]\",\"k\":\"f16[1,16384,16,128]\",\"v\":\"f16[1,16384,16,128]\",\"precision\":[[\"DEFAULT\",\"DEFAULT\"],[\"DEFAULT\",\"DEFAULT\"]],\"logits_dtype\":\"float32\",\"logits_scale\":0.08838834764831843,\"bias\":null,\"logits_soft_cap\":null,\"mask\":{\"bool_mask\":null,\"q_start\":null,\"q_end\":null,\"k_start\":null,\"k_end\":null,\"is_causal\":true},\"dropout_mask\":null,\"dropout_rate\":0.0,\"paging_info\":null,\"q_indices\":null,\"k_indices\":null,\"normalize_output\":true,\"return_residuals\":false}": {
    "{}": {
      "compile_time_ms": 1785.1805749814957,
      "lower_time_ms": 14.082005014643073,
      "evaluation_times_ms": [
        25.295053,
        25.282925,
        25.289229,
        25.273453,
        25.317293
      ],
      "metadata": {},
      "peak_memory_mb": 26038.239232
    }
  },
  "{\"q\":\"f16[1,16384,16,128]\",\"k\":\"f16[1,16384,16,128]\",\"v\":\"f16[1,16384,16,128]\",\"precision\":[[\"DEFAULT\",\"DEFAULT\"],[\"DEFAULT\",\"DEFAULT\"]],\"logits_dtype\":\"float32\",\"logits_scale\":0.08838834764831843,\"bias\":null,\"logits_soft_cap\":null,\"mask\":{\"bool_mask\":null,\"q_start\":null,\"q_end\":null,\"k_start\":null,\"k_end\":null,\"is_causal\":true},\"dropout_mask\":null,\"dropout_rate\":0.0,\"paging_info\":null,\"q_indices\":null,\"k_indices\":null,\"normalize_output\":true,\"return_residuals\":true}": {
    "{}": {
      "compile_time_ms": 143.21419491898268,
      "lower_time_ms": 13.485594070516527,
      "evaluation_times_ms": [
        28.812541,
        28.812542,
        28.803644000000002,
        28.816126,
        28.803421
      ],
      "metadata": {},
      "peak_memory_mb": 26040.336408
    }
  },
  "{\"q\":\"bf16[1,16384,16,128]\",\"k\":\"bf16[1,16384,16,128]\",\"v\":\"bf16[1,16384,16,128]\",\"precision\":[[\"DEFAULT\",\"DEFAULT\"],[\"DEFAULT\",\"DEFAULT\"]],\"logits_dtype\":\"float32\",\"logits_scale\":0.08838834764831843,\"bias\":null,\"logits_soft_cap\":null,\"mask\":{\"bool_mask\":null,\"q_start\":null,\"q_end\":null,\"k_start\":null,\"k_end\":null,\"is_causal\":false},\"dropout_mask\":null,\"dropout_rate\":0.0,\"paging_info\":null,\"q_indices\":null,\"k_indices\":null,\"normalize_output\":true,\"return_residuals\":false}": {
    "{}": {
      "compile_time_ms": 288.10327500104904,
      "lower_time_ms": 12.090862961485982,
      "evaluation_times_ms": [
        25.137966000000002,
        24.823055,
        25.091725999999998,
        25.039406,
        24.853614999999998
      ],
      "metadata": {},
      "peak_memory_mb": 34628.173824
    }
  },
  "{\"q\":\"bf16[1,16384,16,128]\",\"k\":\"bf16[1,16384,16,128]\",\"v\":\"bf16[1,16384,16,128]\",\"precision\":[[\"DEFAULT\",\"DEFAULT\"],[\"DEFAULT\",\"DEFAULT\"]],\"logits_dtype\":\"float32\",\"logits_scale\":0.08838834764831843,\"bias\":null,\"logits_soft_cap\":null,\"mask\":{\"bool_mask\":null,\"q_start\":null,\"q_end\":null,\"k_start\":null,\"k_end\":null,\"is_causal\":false},\"dropout_mask\":null,\"dropout_rate\":0.0,\"paging_info\":null,\"q_indices\":null,\"k_indices\":null,\"normalize_output\":true,\"return_residuals\":true}": {
    "{}": {
      "compile_time_ms": 539.2542460467666,
      "lower_time_ms": 11.933038011193275,
      "evaluation_times_ms": [
        35.005537,
        35.010913,
        35.077185,
        35.185216000000004,
        35.120193
      ],
      "metadata": {},
      "peak_memory_mb": 34630.271
    }
  },
  "{\"q\":\"f16[1,16384,16,128]\",\"k\":\"f16[1,16384,16,128]\",\"v\":\"f16[1,16384,16,128]\",\"precision\":[[\"DEFAULT\",\"DEFAULT\"],[\"DEFAULT\",\"DEFAULT\"]],\"logits_dtype\":\"float32\",\"logits_scale\":0.08838834764831843,\"bias\":null,\"logits_soft_cap\":null,\"mask\":{\"bool_mask\":null,\"q_start\":null,\"q_end\":null,\"k_start\":null,\"k_end\":null,\"is_causal\":false},\"dropout_mask\":null,\"dropout_rate\":0.0,\"paging_info\":null,\"q_indices\":null,\"k_indices\":null,\"normalize_output\":true,\"return_residuals\":false}": {
    "{}": {
      "compile_time_ms": 207.05751201603562,
      "lower_time_ms": 11.888712993822992,
      "evaluation_times_ms": [
        19.481066,
        19.48897,
        19.493322000000003,
        19.476394,
        19.479083
      ],
      "metadata": {},
      "peak_memory_mb": 26038.239232
    }
  },
  "{\"q\":\"f16[1,16384,16,128]\",\"k\":\"f16[1,16384,16,128]\",\"v\":\"f16[1,16384,16,128]\",\"precision\":[[\"DEFAULT\",\"DEFAULT\"],[\"DEFAULT\",\"DEFAULT\"]],\"logits_dtype\":\"float32\",\"logits_scale\":0.08838834764831843,\"bias\":null,\"logits_soft_cap\":null,\"mask\":{\"bool_mask\":null,\"q_start\":null,\"q_end\":null,\"k_start\":null,\"k_end\":null,\"is_causal\":false},\"dropout_mask\":null,\"dropout_rate\":0.0,\"paging_info\":null,\"q_indices\":null,\"k_indices\":null,\"normalize_output\":true,\"return_residuals\":true}": {
    "{}": {
      "compile_time_ms": 114.1068369615823,
      "lower_time_ms": 12.42367597296834,
      "evaluation_times_ms": [
        28.816257,
        28.810049,
        28.821666,
        28.806625,
        28.821346000000002
      ],
      "metadata": {},
      "peak_memory_mb": 26040.336408
    }
  },
  "{\"q\":\"bf16[1,16384,8,256]\",\"k\":\"bf16[1,16384,8,256]\",\"v\":\"bf16[1,16384,8,256]\",\"precision\":[[\"DEFAULT\",\"DEFAULT\"],[\"DEFAULT\",\"DEFAULT\"]],\"logits_dtype\":\"float32\",\"logits_scale\":0.0625,\"bias\":null,\"logits_soft_cap\":null,\"mask\":{\"bool_mask\":null,\"q_start\":null,\"q_end\":null,\"k_start\":null,\"k_end\":null,\"is_causal\":true},\"dropout_mask\":null,\"dropout_rate\":0.0,\"paging_info\":null,\"q_indices\":null,\"k_indices\":null,\"normalize_output\":true,\"return_residuals\":false}": {
    "{}": {
      "compile_time_ms": 1718.6096210498363,
      "lower_time_ms": 18.11534201260656,
      "evaluation_times_ms": [
        14.798271999999999,
        14.967168000000001,
        14.70253,
        14.723488999999999,
        14.960607999999999
      ],
      "metadata": {},
      "peak_memory_mb": 17448.30464
    }
  },
  "{\"q\":\"bf16[1,16384,8,256]\",\"k\":\"bf16[1,16384,8,256]\",\"v\":\"bf16[1,16384,8,256]\",\"precision\":[[\"DEFAULT\",\"DEFAULT\"],[\"DEFAULT\",\"DEFAULT\"]],\"logits_dtype\":\"float32\",\"logits_scale\":0.0625,\"bias\":null,\"logits_soft_cap\":null,\"mask\":{\"bool_mask\":null,\"q_start\":null,\"q_end\":null,\"k_start\":null,\"k_end\":null,\"is_causal\":true},\"dropout_mask\":null,\"dropout_rate\":0.0,\"paging_info\":null,\"q_indices\":null,\"k_indices\":null,\"normalize_output\":true,\"return_residuals\":true}": {
    "{}": {
      "compile_time_ms": 528.6104169208556,
      "lower_time_ms": 13.778717955574393,
      "evaluation_times_ms": [
        17.730036000000002,
        17.715828,
        17.749716,
        17.733908,
        17.722612
      ],
      "metadata": {},
      "peak_memory_mb": 17449.35324
    }
  },
  "{\"q\":\"f16[1,16384,8,256]\",\"k\":\"f16[1,16384,8,256]\",\"v\":\"f16[1,16384,8,256]\",\"precision\":[[\"DEFAULT\",\"DEFAULT\"],[\"DEFAULT\",\"DEFAULT\"]],\"logits_dtype\":\"float32\",\"logits_scale\":0.0625,\"bias\":null,\"logits_soft_cap\":null,\"mask\":{\"bool_mask\":null,\"q_start\":null,\"q_end\":null,\"k_start\":null,\"k_end\":null,\"is_causal\":true},\"dropout_mask\":null,\"dropout_rate\":0.0,\"paging_info\":null,\"q_indices\":null,\"k_indices\":null,\"normalize_output\":true,\"return_residuals\":false}": {
    "{}": {
      "compile_time_ms": 1489.6492860279977,
      "lower_time_ms": 14.275150024332106,
      "evaluation_times_ms": [
        12.979593,
        12.924329,
        12.987433,
        12.911081,
        12.942184
      ],
      "metadata": {},
      "peak_memory_mb": 13153.337344
    }
  },
  "{\"q\":\"f16[1,16384,8,256]\",\"k\":\"f16[1,16384,8,256]\",\"v\":\"f16[1,16384,8,256]\",\"precision\":[[\"DEFAULT\",\"DEFAULT\"],[\"DEFAULT\",\"DEFAULT\"]],\"logits_dtype\":\"float32\",\"logits_scale\":0.0625,\"bias\":null,\"logits_soft_cap\":null,\"mask\":{\"bool_mask\":null,\"q_start\":null,\"q_end\":null,\"k_start\":null,\"k_end\":null,\"is_causal\":true},\"dropout_mask\":null,\"dropout_rate\":0.0,\"paging_info\":null,\"q_indices\":null,\"k_indices\":null,\"normalize_output\":true,\"return_residuals\":true}": {
    "{}": {
      "compile_time_ms": 119.76766306906939,
      "lower_time_ms": 13.733564992435277,
      "evaluation_times_ms": [
        14.697794,
        14.690978,
        14.695842,
        14.687298,
        14.69533
      ],
      "metadata": {},
      "peak_memory_mb": 13154.385944
    }
  },
  "{\"q\":\"bf16[1,16384,8,256]\",\"k\":\"bf16[1,16384,8,256]\",\"v\":\"bf16[1,16384,8,256]\",\"precision\":[[\"DEFAULT\",\"DEFAULT\"],[\"DEFAULT\",\"DEFAULT\"]],\"logits_dtype\":\"float32\",\"logits_scale\":0.0625,\"bias\":null,\"logits_soft_cap\":null,\"mask\":{\"bool_mask\":null,\"q_start\":null,\"q_end\":null,\"k_start\":null,\"k_end\":null,\"is_causal\":false},\"dropout_mask\":null,\"dropout_rate\":0.0,\"paging_info\":null,\"q_indices\":null,\"k_indices\":null,\"normalize_output\":true,\"return_residuals\":false}": {
    "{}": {
      "compile_time_ms": 296.0918489843607,
      "lower_time_ms": 13.261124026030302,
      "evaluation_times_ms": [
        13.025034,
        12.996905,
        13.008937,
        12.93361,
        13.006889000000001
      ],
      "metadata": {},
      "peak_memory_mb": 17448.30464
    }
  },
  "{\"q\":\"bf16[1,16384,8,256]\",\"k\":\"bf16[1,16384,8,256]\",\"v\":\"bf16[1,16384,8,256]\",\"precision\":[[\"DEFAULT\",\"DEFAULT\"],[\"DEFAULT\",\"DEFAULT\"]],\"logits_dtype\":\"float32\",\"logits_scale\":0.0625,\"bias\":null,\"logits_soft_cap\":null,\"mask\":{\"bool_mask\":null,\"q_start\":null,\"q_end\":null,\"k_start\":null,\"k_end\":null,\"is_causal\":false},\"dropout_mask\":null,\"dropout_rate\":0.0,\"paging_info\":null,\"q_indices\":null,\"k_indices\":null,\"normalize_output\":true,\"return_residuals\":true}": {
    "{}": {
      "compile_time_ms": 466.48373699281365,
      "lower_time_ms": 12.14342494495213,
      "evaluation_times_ms": [
        17.720117000000002,
        17.730293,
        17.738517,
        17.719189,
        17.811509
      ],
      "metadata": {},
      "peak_memory_mb": 17449.35324
    }
  },
  "{\"q\":\"f16[1,16384,8,256]\",\"k\":\"f16[1,16384,8,256]\",\"v\":\"f16[1,16384,8,256]\",\"precision\":[[\"DEFAULT\",\"DEFAULT\"],[\"DEFAULT\",\"DEFAULT\"]],\"logits_dtype\":\"float32\",\"logits_scale\":0.0625,\"bias\":null,\"logits_soft_cap\":null,\"mask\":{\"bool_mask\":null,\"q_start\":null,\"q_end\":null,\"k_start\":null,\"k_end\":null,\"is_causal\":false},\"dropout_mask\":null,\"dropout_rate\":0.0,\"paging_info\":null,\"q_indices\":null,\"k_indices\":null,\"normalize_output\":true,\"return_residuals\":false}": {
    "{}": {
      "compile_time_ms": 207.08988001570106,
      "lower_time_ms": 12.24666996859014,
      "evaluation_times_ms": [
        10.062614,
        10.051796999999999,
        10.059542,
        10.06175,
        10.066773999999999
      ],
      "metadata": {},
      "peak_memory_mb": 13153.337344
    }
  },
  "{\"q\":\"f16[1,16384,8,256]\",\"k\":\"f16[1,16384,8,256]\",\"v\":\"f16[1,16384,8,256]\",\"precision\":[[\"DEFAULT\",\"DEFAULT\"],[\"DEFAULT\",\"DEFAULT\"]],\"logits_dtype\":\"float32\",\"logits_scale\":0.0625,\"bias\":null,\"logits_soft_cap\":null,\"mask\":{\"bool_mask\":null,\"q_start\":null,\"q_end\":null,\"k_start\":null,\"k_end\":null,\"is_causal\":false},\"dropout_mask\":null,\"dropout_rate\":0.0,\"paging_info\":null,\"q_indices\":null,\"k_indices\":null,\"normalize_output\":true,\"return_residuals\":true}": {
    "{}": {
      "compile_time_ms": 117.29721503797919,
      "lower_time_ms": 11.890367954038084,
      "evaluation_times_ms": [
        14.711905,
        14.710243,
        14.705443,
        14.70541,
        14.703491000000001
      ],
      "metadata": {},
      "peak_memory_mb": 13154.385944
    }
  },
  "{\"q\":\"bf16[32,512,4,16]\",\"k\":\"bf16[32,512,4,16]\",\"v\":\"bf16[32,512,4,16]\",\"precision\":[\"BF16_BF16_F32\",\"BF16_BF16_F32\"],\"logits_dtype\":\"float32\",\"logits_scale\":0.25,\"bias\":\"bf16[1,4,512,512]\",\"logits_soft_cap\":null,\"mask\":{\"bool_mask\":\"bool[32,1,1,512]\",\"q_start\":null,\"q_end\":null,\"k_start\":null,\"k_end\":null,\"is_causal\":false},\"dropout_mask\":null,\"dropout_rate\":0.0,\"paging_info\":null,\"q_indices\":null,\"k_indices\":null,\"normalize_output\":true,\"return_residuals\":false}": {
    "{}": {
      "compile_time_ms": 1073.6580230295658,
      "lower_time_ms": 19.08378303050995,
      "evaluation_times_ms": [
        0.301567,
        0.302655,
        0.302815,
        0.308127,
        0.311998
      ],
      "metadata": {},
      "peak_memory_mb": 278.9376
    }
  },
  "{\"q\":\"bf16[1,32,512,4,32]\",\"k\":\"bf16[1,32,512,4,32]\",\"v\":\"bf16[1,32,512,4,32]\",\"precision\":[\"BF16_BF16_F32\",\"BF16_BF16_F32\"],\"logits_dtype\":\"float32\",\"logits_scale\":0.17677669529663687,\"bias\":\"bf16[1,1,4,512,512]\",\"logits_soft_cap\":null,\"mask\":{\"bool_mask\":\"bool[32,1,1,512]\",\"q_start\":null,\"q_end\":null,\"k_start\":null,\"k_end\":null,\"is_causal\":false},\"dropout_mask\":null,\"dropout_rate\":0.0,\"paging_info\":null,\"q_indices\":null,\"k_indices\":null,\"normalize_output\":true,\"return_residuals\":false}": {
    "{}": {
      "compile_time_ms": 1097.3556829849258,
      "lower_time_ms": 20.91986802406609,
      "evaluation_times_ms": [
        0.312479,
        0.309599,
        0.313694,
        0.309598,
        0.312031
      ],
      "metadata": {},
      "peak_memory_mb": 287.326208
    }
  },
  "{\"q\":\"bf16[32,512,4,32]\",\"k\":\"bf16[32,512,4,32]\",\"v\":\"bf16[32,512,4,32]\",\"precision\":[\"BF16_BF16_F32\",\"BF16_BF16_F32\"],\"logits_dtype\":\"float32\",\"logits_scale\":0.17677669529663687,\"bias\":\"bf16[1,4,512,512]\",\"logits_soft_cap\":null,\"mask\":{\"bool_mask\":\"bool[32,1,1,512]\",\"q_start\":null,\"q_end\":null,\"k_start\":null,\"k_end\":null,\"is_causal\":false},\"dropout_mask\":null,\"dropout_rate\":0.0,\"paging_info\":null,\"q_indices\":null,\"k_indices\":null,\"normalize_output\":true,\"return_residuals\":false}": {
    "{}": {
      "compile_time_ms": 1117.5605051685125,
      "lower_time_ms": 20.610420033335686,
      "evaluation_times_ms": [
        0.307264,
        0.308225,
        0.308833,
        0.321505,
        0.31270400000000004
      ],
      "metadata": {},
      "peak_memory_mb": 287.326208
    }
  },
  "{\"q\":\"bf16[32,768,4,16]\",\"k\":\"bf16[32,768,4,16]\",\"v\":\"bf16[32,768,4,16]\",\"precision\":[\"BF16_BF16_F32\",\"BF16_BF16_F32\"],\"logits_dtype\":\"float32\",\"logits_scale\":0.25,\"bias\":\"bf16[1,4,768,768]\",\"logits_soft_cap\":null,\"mask\":{\"bool_mask\":\"bool[32,1,1,768]\",\"q_start\":null,\"q_end\":null,\"k_start\":null,\"k_end\":null,\"is_causal\":false},\"dropout_mask\":null,\"dropout_rate\":0.0,\"paging_info\":null,\"q_indices\":null,\"k_indices\":null,\"normalize_output\":true,\"return_residuals\":false}": {
    "{}": {
      "compile_time_ms": 961.9226609356701,
      "lower_time_ms": 18.630075035616755,
      "evaluation_times_ms": [
        0.634273,
        0.633761,
        0.6373449999999999,
        0.635489,
        0.632321
      ],
      "metadata": {},
      "peak_memory_mb": 621.305856
    }
  },
  "{\"q\":\"bf16[1,32,768,4,32]\",\"k\":\"bf16[1,32,768,4,32]\",\"v\":\"bf16[1,32,768,4,32]\",\"precision\":[\"BF16_BF16_F32\",\"BF16_BF16_F32\"],\"logits_dtype\":\"float32\",\"logits_scale\":0.17677669529663687,\"bias\":\"bf16[1,1,4,768,768]\",\"logits_soft_cap\":null,\"mask\":{\"bool_mask\":\"bool[32,1,1,768]\",\"q_start\":null,\"q_end\":null,\"k_start\":null,\"k_end\":null,\"is_causal\":false},\"dropout_mask\":null,\"dropout_rate\":0.0,\"paging_info\":null,\"q_indices\":null,\"k_indices\":null,\"normalize_output\":true,\"return_residuals\":false}": {
    "{}": {
      "compile_time_ms": 1074.8358839191496,
      "lower_time_ms": 18.57576589100063,
      "evaluation_times_ms": [
        0.650529,
        0.650561,
        0.650657,
        0.645825,
        0.651873
      ],
      "metadata": {},
      "peak_memory_mb": 633.888768
    }
  },
  "{\"q\":\"bf16[32,768,4,32]\",\"k\":\"bf16[32,768,4,32]\",\"v\":\"bf16[32,768,4,32]\",\"precision\":[\"BF16_BF16_F32\",\"BF16_BF16_F32\"],\"logits_dtype\":\"float32\",\"logits_scale\":0.17677669529663687,\"bias\":\"bf16[1,4,768,768]\",\"logits_soft_cap\":null,\"mask\":{\"bool_mask\":\"bool[32,1,1,768]\",\"q_start\":null,\"q_end\":null,\"k_start\":null,\"k_end\":null,\"is_causal\":false},\"dropout_mask\":null,\"dropout_rate\":0.0,\"paging_info\":null,\"q_indices\":null,\"k_indices\":null,\"normalize_output\":true,\"return_residuals\":false}": {
    "{}": {
      "compile_time_ms": 989.1546000726521,
      "lower_time_ms": 14.129395829513669,
      "evaluation_times_ms": [
        0.650401,
        0.651489,
        0.647617,
        0.653633,
        0.653633
      ],
      "metadata": {},
      "peak_memory_mb": 633.888768
    }
  },
  "{\"q\":\"bf16[32,1024,4,16]\",\"k\":\"bf16[32,1024,4,16]\",\"v\":\"bf16[32,1024,4,16]\",\"precision\":[\"BF16_BF16_F32\",\"BF16_BF16_F32\"],\"logits_dtype\":\"float32\",\"logits_scale\":0.25,\"bias\":\"bf16[1,4,1024,1024]\",\"logits_soft_cap\":null,\"mask\":{\"bool_mask\":\"bool[32,1,1,1024]\",\"q_start\":null,\"q_end\":null,\"k_start\":null,\"k_end\":null,\"is_causal\":false},\"dropout_mask\":null,\"dropout_rate\":0.0,\"paging_info\":null,\"q_indices\":null,\"k_indices\":null,\"normalize_output\":true,\"return_residuals\":false}": {
    "{}": {
      "compile_time_ms": 967.1917180530727,
      "lower_time_ms": 19.22292006202042,
      "evaluation_times_ms": [
        1.122146,
        1.098338,
        1.122402,
        1.118978,
        1.110882
      ],
      "metadata": {},
      "peak_memory_mb": 1098.940416
    }
  },
  "{\"q\":\"bf16[1,32,1024,4,32]\",\"k\":\"bf16[1,32,1024,4,32]\",\"v\":\"bf16[1,32,1024,4,32]\",\"precision\":[\"BF16_BF16_F32\",\"BF16_BF16_F32\"],\"logits_dtype\":\"float32\",\"logits_scale\":0.17677669529663687,\"bias\":\"bf16[1,1,4,1024,1024]\",\"logits_soft_cap\":null,\"mask\":{\"bool_mask\":\"bool[32,1,1,1024]\",\"q_start\":null,\"q_end\":null,\"k_start\":null,\"k_end\":null,\"is_causal\":false},\"dropout_mask\":null,\"dropout_rate\":0.0,\"paging_info\":null,\"q_indices\":null,\"k_indices\":null,\"normalize_output\":true,\"return_residuals\":false}": {
    "{}": {
      "compile_time_ms": 1012.0533721055835,
      "lower_time_ms": 19.1381371114403,
      "evaluation_times_ms": [
        1.099234,
        1.127586,
        1.0997460000000001,
        1.1424020000000001,
        1.0917780000000001
      ],
      "metadata": {},
      "peak_memory_mb": 1115.717632
    }
  },
  "{\"q\":\"bf16[32,1024,4,32]\",\"k\":\"bf16[32,1024,4,32]\",\"v\":\"bf16[32,1024,4,32]\",\"precision\":[\"BF16_BF16_F32\",\"BF16_BF16_F32\"],\"logits_dtype\":\"float32\",\"logits_scale\":0.17677669529663687,\"bias\":\"bf16[1,4,1024,1024]\",\"logits_soft_cap\":null,\"mask\":{\"bool_mask\":\"bool[32,1,1,1024]\",\"q_start\":null,\"q_end\":null,\"k_start\":null,\"k_end\":null,\"is_causal\":false},\"dropout_mask\":null,\"dropout_rate\":0.0,\"paging_info\":null,\"q_indices\":null,\"k_indices\":null,\"normalize_output\":true,\"return_residuals\":false}": {
    "{}": {
      "compile_time_ms": 958.5252879187465,
      "lower_time_ms": 14.228784013539553,
      "evaluation_times_ms": [
        1.1426260000000001,
        1.111585,
        1.106018,
        1.104002,
        1.124482
      ],
      "metadata": {},
      "peak_memory_mb": 1115.717632
    }
  },
  "{\"q\":\"bf16[32,1280,4,16]\",\"k\":\"bf16[32,1280,4,16]\",\"v\":\"bf16[32,1280,4,16]\",\"precision\":[\"BF16_BF16_F32\",\"BF16_BF16_F32\"],\"logits_dtype\":\"float32\",\"logits_scale\":0.25,\"bias\":\"bf16[1,4,1280,1280]\",\"logits_soft_cap\":null,\"mask\":{\"bool_mask\":\"bool[32,1,1,1280]\",\"q_start\":null,\"q_end\":null,\"k_start\":null,\"k_end\":null,\"is_causal\":false},\"dropout_mask\":null,\"dropout_rate\":0.0,\"paging_info\":null,\"q_indices\":null,\"k_indices\":null,\"normalize_output\":true,\"return_residuals\":false}": {
    "{}": {
      "compile_time_ms": 918.7320438213646,
      "lower_time_ms": 18.952702870592475,
      "evaluation_times_ms": [
        1.752258,
        1.763971,
        1.749763,
        1.752194,
        1.7495390000000002
      ],
      "metadata": {},
      "peak_memory_mb": 1711.84128
    }
  },
  "{\"q\":\"bf16[1,32,1280,4,32]\",\"k\":\"bf16[1,32,1280,4,32]\",\"v\":\"bf16[1,32,1280,4,32]\",\"precision\":[\"BF16_BF16_F32\",\"BF16_BF16_F32\"],\"logits_dtype\":\"float32\",\"logits_scale\":0.17677669529663687,\"bias\":\"bf16[1,1,4,1280,1280]\",\"logits_soft_cap\":null,\"mask\":{\"bool_mask\":\"bool[32,1,1,1280]\",\"q_start\":null,\"q_end\":null,\"k_start\":null,\"k_end\":null,\"is_causal\":false},\"dropout_mask\":null,\"dropout_rate\":0.0,\"paging_info\":null,\"q_indices\":null,\"k_indices\":null,\"normalize_output\":true,\"return_residuals\":false}": {
    "{}": {
      "compile_time_ms": 1008.920350112021,
      "lower_time_ms": 18.53328011929989,
      "evaluation_times_ms": [
        1.7791389999999998,
        1.7722589999999998,
        1.779619,
        1.775395,
        1.780579
      ],
      "metadata": {},
      "peak_memory_mb": 1732.8128
    }
  },
  "{\"q\":\"bf16[32,1280,4,32]\",\"k\":\"bf16[32,1280,4,32]\",\"v\":\"bf16[32,1280,4,32]\",\"precision\":[\"BF16_BF16_F32\",\"BF16_BF16_F32\"],\"logits_dtype\":\"float32\",\"logits_scale\":0.17677669529663687,\"bias\":\"bf16[1,4,1280,1280]\",\"logits_soft_cap\":null,\"mask\":{\"bool_mask\":\"bool[32,1,1,1280]\",\"q_start\":null,\"q_end\":null,\"k_start\":null,\"k_end\":null,\"is_causal\":false},\"dropout_mask\":null,\"dropout_rate\":0.0,\"paging_info\":null,\"q_indices\":null,\"k_indices\":null,\"normalize_output\":true,\"return_residuals\":false}": {
    "{}": {
      "compile_time_ms": 905.9920629952103,
      "lower_time_ms": 14.21340904198587,
      "evaluation_times_ms": [
        1.78205,
        1.769763,
        1.7781150000000001,
        1.777762,
        1.789411
      ],
      "metadata": {},
      "peak_memory_mb": 1732.8128
    }
  },
  "{\"q\":\"bf16[32,1536,4,16]\",\"k\":\"bf16[32,1536,4,16]\",\"v\":\"bf16[32,1536,4,16]\",\"precision\":[\"BF16_BF16_F32\",\"BF16_BF16_F32\"],\"logits_dtype\":\"float32\",\"logits_scale\":0.25,\"bias\":\"bf16[1,4,1536,1536]\",\"logits_soft_cap\":null,\"mask\":{\"bool_mask\":\"bool[32,1,1,1536]\",\"q_start\":null,\"q_end\":null,\"k_start\":null,\"k_end\":null,\"is_causal\":false},\"dropout_mask\":null,\"dropout_rate\":0.0,\"paging_info\":null,\"q_indices\":null,\"k_indices\":null,\"normalize_output\":true,\"return_residuals\":false}": {
    "{}": {
      "compile_time_ms": 939.078374998644,
      "lower_time_ms": 18.930044025182724,
      "evaluation_times_ms": [
        2.334084,
        2.339556,
        2.3310750000000002,
        2.342371,
        2.3411239999999998
      ],
      "metadata": {},
      "peak_memory_mb": 2460.008448
    }
  },
  "{\"q\":\"bf16[1,32,1536,4,32]\",\"k\":\"bf16[1,32,1536,4,32]\",\"v\":\"bf16[1,32,1536,4,32]\",\"precision\":[\"BF16_BF16_F32\",\"BF16_BF16_F32\"],\"logits_dtype\":\"float32\",\"logits_scale\":0.17677669529663687,\"bias\":\"bf16[1,1,4,1536,1536]\",\"logits_soft_cap\":null,\"mask\":{\"bool_mask\":\"bool[32,1,1,1536]\",\"q_start\":null,\"q_end\":null,\"k_start\":null,\"k_end\":null,\"is_causal\":false},\"dropout_mask\":null,\"dropout_rate\":0.0,\"paging_info\":null,\"q_indices\":null,\"k_indices\":null,\"normalize_output\":true,\"return_residuals\":false}": {
    "{}": {
      "compile_time_ms": 993.1635491084307,
      "lower_time_ms": 19.193439977243543,
      "evaluation_times_ms": [
        2.385987,
        2.3837800000000002,
        2.382916,
        2.371332,
        2.3887080000000003
      ],
      "metadata": {},
      "peak_memory_mb": 2485.174272
    }
  },
  "{\"q\":\"bf16[32,1536,4,32]\",\"k\":\"bf16[32,1536,4,32]\",\"v\":\"bf16[32,1536,4,32]\",\"precision\":[\"BF16_BF16_F32\",\"BF16_BF16_F32\"],\"logits_dtype\":\"float32\",\"logits_scale\":0.17677669529663687,\"bias\":\"bf16[1,4,1536,1536]\",\"logits_soft_cap\":null,\"mask\":{\"bool_mask\":\"bool[32,1,1,1536]\",\"q_start\":null,\"q_end\":null,\"k_start\":null,\"k_end\":null,\"is_causal\":false},\"dropout_mask\":null,\"dropout_rate\":0.0,\"paging_info\":null,\"q_indices\":null,\"k_indices\":null,\"normalize_output\":true,\"return_residuals\":false}": {
    "{}": {
      "compile_time_ms": 905.2274590358138,
      "lower_time_ms": 14.761599944904447,
      "evaluation_times_ms": [
        2.379268,
        2.383651,
        2.37914,
        2.390212,
        2.3811240000000002
      ],
      "metadata": {},
      "peak_memory_mb": 2485.174272
    }
  },
  "{\"q\":\"bf16[128,1792,4,16]\",\"k\":\"bf16[128,1792,4,16]\",\"v\":\"bf16[128,1792,4,16]\",\"precision\":[\"BF16_BF16_F32\",\"BF16_BF16_F32\"],\"logits_dtype\":\"float32\",\"logits_scale\":0.25,\"bias\":\"bf16[1,4,1792,1792]\",\"logits_soft_cap\":null,\"mask\":{\"bool_mask\":\"bool[128,1,1,1792]\",\"q_start\":null,\"q_end\":null,\"k_start\":null,\"k_end\":null,\"is_causal\":false},\"dropout_mask\":null,\"dropout_rate\":0.0,\"paging_info\":null,\"q_indices\":null,\"k_indices\":null,\"normalize_output\":true,\"return_residuals\":false}": {
    "{}": {
      "compile_time_ms": 1183.1725970841944,
      "lower_time_ms": 19.241365836933255,
      "evaluation_times_ms": [
        12.089972,
        12.138546999999999,
        12.121490999999999,
        12.114035,
        12.150995
      ],
      "metadata": {},
      "peak_memory_mb": 13296.697344
    }
  },
  "{\"q\":\"bf16[1,128,1792,4,32]\",\"k\":\"bf16[1,128,1792,4,32]\",\"v\":\"bf16[1,128,1792,4,32]\",\"precision\":[\"BF16_BF16_F32\",\"BF16_BF16_F32\"],\"logits_dtype\":\"float32\",\"logits_scale\":0.17677669529663687,\"bias\":\"bf16[1,1,4,1792,1792]\",\"logits_soft_cap\":null,\"mask\":{\"bool_mask\":\"bool[128,1,1,1792]\",\"q_start\":null,\"q_end\":null,\"k_start\":null,\"k_end\":null,\"is_causal\":false},\"dropout_mask\":null,\"dropout_rate\":0.0,\"paging_info\":null,\"q_indices\":null,\"k_indices\":null,\"normalize_output\":true,\"return_residuals\":false}": {
    "{}": {
      "compile_time_ms": 1216.3805409800261,
      "lower_time_ms": 19.343858119100332,
      "evaluation_times_ms": [
        12.347636,
        12.32002,
        12.325172,
        12.324788,
        12.326484
      ],
      "metadata": {},
      "peak_memory_mb": 13414.137856
    }
  },
  "{\"q\":\"bf16[128,1792,4,32]\",\"k\":\"bf16[128,1792,4,32]\",\"v\":\"bf16[128,1792,4,32]\",\"precision\":[\"BF16_BF16_F32\",\"BF16_BF16_F32\"],\"logits_dtype\":\"float32\",\"logits_scale\":0.17677669529663687,\"bias\":\"bf16[1,4,1792,1792]\",\"logits_soft_cap\":null,\"mask\":{\"bool_mask\":\"bool[128,1,1,1792]\",\"q_start\":null,\"q_end\":null,\"k_start\":null,\"k_end\":null,\"is_causal\":false},\"dropout_mask\":null,\"dropout_rate\":0.0,\"paging_info\":null,\"q_indices\":null,\"k_indices\":null,\"normalize_output\":true,\"return_residuals\":false}": {
    "{}": {
      "compile_time_ms": 1158.6263040080667,
      "lower_time_ms": 453.86468013748527,
      "evaluation_times_ms": [
        12.319605000000001,
        12.295668,
        12.341042999999999,
        12.347572,
        12.354676000000001
      ],
      "metadata": {},
      "peak_memory_mb": 13414.137856
    }
  },
  "{\"q\":\"bf16[128,2048,4,16]\",\"k\":\"bf16[128,2048,4,16]\",\"v\":\"bf16[128,2048,4,16]\",\"precision\":[\"BF16_BF16_F32\",\"BF16_BF16_F32\"],\"logits_dtype\":\"float32\",\"logits_scale\":0.25,\"bias\":\"bf16[1,4,2048,2048]\",\"logits_soft_cap\":null,\"mask\":{\"bool_mask\":\"bool[128,1,1,2048]\",\"q_start\":null,\"q_end\":null,\"k_start\":null,\"k_end\":null,\"is_causal\":false},\"dropout_mask\":null,\"dropout_rate\":0.0,\"paging_info\":null,\"q_indices\":null,\"k_indices\":null,\"normalize_output\":true,\"return_residuals\":false}": {
    "{}": {
      "compile_time_ms": 1265.8081781119108,
      "lower_time_ms": 21.465423982590437,
      "evaluation_times_ms": [
        15.94425,
        15.742074,
        15.871833999999998,
        15.810873,
        15.727770999999999
      ],
      "metadata": {},
      "peak_memory_mb": 17347.903488
    }
  },
  "{\"q\":\"bf16[1,128,2048,4,32]\",\"k\":\"bf16[1,128,2048,4,32]\",\"v\":\"bf16[1,128,2048,4,32]\",\"precision\":[\"BF16_BF16_F32\",\"BF16_BF16_F32\"],\"logits_dtype\":\"float32\",\"logits_scale\":0.17677669529663687,\"bias\":\"bf16[1,1,4,2048,2048]\",\"logits_soft_cap\":null,\"mask\":{\"bool_mask\":\"bool[128,1,1,2048]\",\"q_start\":null,\"q_end\":null,\"k_start\":null,\"k_end\":null,\"is_causal\":false},\"dropout_mask\":null,\"dropout_rate\":0.0,\"paging_info\":null,\"q_indices\":null,\"k_indices\":null,\"normalize_output\":true,\"return_residuals\":false}": {
    "{}": {
      "compile_time_ms": 1232.094727922231,
      "lower_time_ms": 19.98553890734911,
      "evaluation_times_ms": [
        16.142812,
        16.153692,
        16.184412000000002,
        16.205436,
        16.23766
      ],
      "metadata": {},
      "peak_memory_mb": 17482.121216
    }
  },
  "{\"q\":\"bf16[128,2048,4,32]\",\"k\":\"bf16[128,2048,4,32]\",\"v\":\"bf16[128,2048,4,32]\",\"precision\":[\"BF16_BF16_F32\",\"BF16_BF16_F32\"],\"logits_dtype\":\"float32\",\"logits_scale\":0.17677669529663687,\"bias\":\"bf16[1,4,2048,2048]\",\"logits_soft_cap\":null,\"mask\":{\"bool_mask\":\"bool[128,1,1,2048]\",\"q_start\":null,\"q_end\":null,\"k_start\":null,\"k_end\":null,\"is_causal\":false},\"dropout_mask\":null,\"dropout_rate\":0.0,\"paging_info\":null,\"q_indices\":null,\"k_indices\":null,\"normalize_output\":true,\"return_residuals\":false}": {
    "{}": {
      "compile_time_ms": 1197.3666129633784,
      "lower_time_ms": 14.42475919611752,
      "evaluation_times_ms": [
        16.070492,
        16.238653,
        15.857788000000001,
        15.965852,
        16.072188
      ],
      "metadata": {},
      "peak_memory_mb": 17482.121216
    }
  },
  "{\"q\":\"bf16[128,2304,4,16]\",\"k\":\"bf16[128,2304,4,16]\",\"v\":\"bf16[128,2304,4,16]\",\"precision\":[\"BF16_BF16_F32\",\"BF16_BF16_F32\"],\"logits_dtype\":\"float32\",\"logits_scale\":0.25,\"bias\":\"bf16[1,4,2304,2304]\",\"logits_soft_cap\":null,\"mask\":{\"bool_mask\":\"bool[128,1,1,2304]\",\"q_start\":null,\"q_end\":null,\"k_start\":null,\"k_end\":null,\"is_causal\":false},\"dropout_mask\":null,\"dropout_rate\":0.0,\"paging_info\":null,\"q_indices\":null,\"k_indices\":null,\"normalize_output\":true,\"return_residuals\":false}": {
    "{}": {
      "compile_time_ms": 1297.3929471336305,
      "lower_time_ms": 18.837197916582227,
      "evaluation_times_ms": [
        17.172802,
        17.159395,
        17.149251,
        17.169026000000002,
        17.174658
      ],
      "metadata": {},
      "peak_memory_mb": 21937.02912
    }
  },
  "{\"q\":\"bf16[1,128,2304,4,32]\",\"k\":\"bf16[1,128,2304,4,32]\",\"v\":\"bf16[1,128,2304,4,32]\",\"precision\":[\"BF16_BF16_F32\",\"BF16_BF16_F32\"],\"logits_dtype\":\"float32\",\"logits_scale\":0.17677669529663687,\"bias\":\"bf16[1,1,4,2304,2304]\",\"logits_soft_cap\":null,\"mask\":{\"bool_mask\":\"bool[128,1,1,2304]\",\"q_start\":null,\"q_end\":null,\"k_start\":null,\"k_end\":null,\"is_causal\":false},\"dropout_mask\":null,\"dropout_rate\":0.0,\"paging_info\":null,\"q_indices\":null,\"k_indices\":null,\"normalize_output\":true,\"return_residuals\":false}": {
    "{}": {
      "compile_time_ms": 1398.8287588581443,
      "lower_time_ms": 19.74584790877998,
      "evaluation_times_ms": [
        17.447939,
        17.428195,
        17.439362,
        17.440547,
        17.451171
      ],
      "metadata": {},
      "peak_memory_mb": 22088.024064
    }
  },
  "{\"q\":\"bf16[128,2304,4,32]\",\"k\":\"bf16[128,2304,4,32]\",\"v\":\"bf16[128,2304,4,32]\",\"precision\":[\"BF16_BF16_F32\",\"BF16_BF16_F32\"],\"logits_dtype\":\"float32\",\"logits_scale\":0.17677669529663687,\"bias\":\"bf16[1,4,2304,2304]\",\"logits_soft_cap\":null,\"mask\":{\"bool_mask\":\"bool[128,1,1,2304]\",\"q_start\":null,\"q_end\":null,\"k_start\":null,\"k_end\":null,\"is_causal\":false},\"dropout_mask\":null,\"dropout_rate\":0.0,\"paging_info\":null,\"q_indices\":null,\"k_indices\":null,\"normalize_output\":true,\"return_residuals\":false}": {
    "{}": {
      "compile_time_ms": 1112.8182648681104,
      "lower_time_ms": 14.413093915209174,
      "evaluation_times_ms": [
        17.448259,
        17.437954,
        17.445377999999998,
        17.430435,
        17.43405
      ],
      "metadata": {},
      "peak_memory_mb": 22088.024064
    }
  },
  "{\"q\":\"bf16[128,2560,4,16]\",\"k\":\"bf16[128,2560,4,16]\",\"v\":\"bf16[128,2560,4,16]\",\"precision\":[\"BF16_BF16_F32\",\"BF16_BF16_F32\"],\"logits_dtype\":\"float32\",\"logits_scale\":0.25,\"bias\":\"bf16[1,4,2560,2560]\",\"logits_soft_cap\":null,\"mask\":{\"bool_mask\":\"bool[128,1,1,2560]\",\"q_start\":null,\"q_end\":null,\"k_start\":null,\"k_end\":null,\"is_causal\":false},\"dropout_mask\":null,\"dropout_rate\":0.0,\"paging_info\":null,\"q_indices\":null,\"k_indices\":null,\"normalize_output\":true,\"return_residuals\":false}": {
    "{}": {
      "compile_time_ms": 1426.90520407632,
      "lower_time_ms": 18.87216418981552,
      "evaluation_times_ms": [
        20.565065,
        20.583848,
        20.555817,
        20.576553,
        20.575881
      ],
      "metadata": {},
      "peak_memory_mb": 27064.07424
    }
  },
  "{\"q\":\"bf16[1,128,2560,4,32]\",\"k\":\"bf16[1,128,2560,4,32]\",\"v\":\"bf16[1,128,2560,4,32]\",\"precision\":[\"BF16_BF16_F32\",\"BF16_BF16_F32\"],\"logits_dtype\":\"float32\",\"logits_scale\":0.17677669529663687,\"bias\":\"bf16[1,1,4,2560,2560]\",\"logits_soft_cap\":null,\"mask\":{\"bool_mask\":\"bool[128,1,1,2560]\",\"q_start\":null,\"q_end\":null,\"k_start\":null,\"k_end\":null,\"is_causal\":false},\"dropout_mask\":null,\"dropout_rate\":0.0,\"paging_info\":null,\"q_indices\":null,\"k_indices\":null,\"normalize_output\":true,\"return_residuals\":false}": {
    "{}": {
      "compile_time_ms": 1498.8767800386995,
      "lower_time_ms": 19.832046004012227,
      "evaluation_times_ms": [
        20.936425,
        20.9074,
        20.918409,
        20.928937,
        20.936393
      ],
      "metadata": {},
      "peak_memory_mb": 27231.8464
    }
  },
  "{\"q\":\"bf16[128,2560,4,32]\",\"k\":\"bf16[128,2560,4,32]\",\"v\":\"bf16[128,2560,4,32]\",\"precision\":[\"BF16_BF16_F32\",\"BF16_BF16_F32\"],\"logits_dtype\":\"float32\",\"logits_scale\":0.17677669529663687,\"bias\":\"bf16[1,4,2560,2560]\",\"logits_soft_cap\":null,\"mask\":{\"bool_mask\":\"bool[128,1,1,2560]\",\"q_start\":null,\"q_end\":null,\"k_start\":null,\"k_end\":null,\"is_causal\":false},\"dropout_mask\":null,\"dropout_rate\":0.0,\"paging_info\":null,\"q_indices\":null,\"k_indices\":null,\"normalize_output\":true,\"return_residuals\":false}": {
    "{}": {
      "compile_time_ms": 1266.1371638532728,
      "lower_time_ms": 14.36801697127521,
      "evaluation_times_ms": [
        20.927948,
        20.922061,
        20.923500999999998,
        20.925772,
        20.927243999999998
      ],
      "metadata": {},
      "peak_memory_mb": 27231.8464
    }
  },
  "{\"q\":\"bf16[128,2816,4,16]\",\"k\":\"bf16[128,2816,4,16]\",\"v\":\"bf16[128,2816,4,16]\",\"precision\":[\"BF16_BF16_F32\",\"BF16_BF16_F32\"],\"logits_dtype\":\"float32\",\"logits_scale\":0.25,\"bias\":\"bf16[1,4,2816,2816]\",\"logits_soft_cap\":null,\"mask\":{\"bool_mask\":\"bool[128,1,1,2816]\",\"q_start\":null,\"q_end\":null,\"k_start\":null,\"k_end\":null,\"is_causal\":false},\"dropout_mask\":null,\"dropout_rate\":0.0,\"paging_info\":null,\"q_indices\":null,\"k_indices\":null,\"normalize_output\":true,\"return_residuals\":false}": {
    "{}": {
      "compile_time_ms": 794.552520965226,
      "lower_time_ms": 24.103855015709996,
      "evaluation_times_ms": [
        31.127982000000003,
        29.548827,
        31.162478,
        29.270397,
        31.167182
      ],
      "metadata": {},
      "peak_memory_mb": 32729.038848
    }
  },
  "{\"q\":\"bf16[1,128,2816,4,32]\",\"k\":\"bf16[1,128,2816,4,32]\",\"v\":\"bf16[1,128,2816,4,32]\",\"precision\":[\"BF16_BF16_F32\",\"BF16_BF16_F32\"],\"logits_dtype\":\"float32\",\"logits_scale\":0.17677669529663687,\"bias\":\"bf16[1,1,4,2816,2816]\",\"logits_soft_cap\":null,\"mask\":{\"bool_mask\":\"bool[128,1,1,2816]\",\"q_start\":null,\"q_end\":null,\"k_start\":null,\"k_end\":null,\"is_causal\":false},\"dropout_mask\":null,\"dropout_rate\":0.0,\"paging_info\":null,\"q_indices\":null,\"k_indices\":null,\"normalize_output\":true,\"return_residuals\":false}": {
    "{}": {
      "compile_time_ms": 1892.5793749999968,
      "lower_time_ms": 23.75869299999067,
      "evaluation_times_ms": [
        31.506843,
        31.487197000000002,
        31.479423,
        31.524344,
        31.457795
      ],
      "metadata": {},
      "peak_memory_mb": 32913.588224
    }
  },
  "{\"q\":\"bf16[128,2816,4,32]\",\"k\":\"bf16[128,2816,4,32]\",\"v\":\"bf16[128,2816,4,32]\",\"precision\":[\"BF16_BF16_F32\",\"BF16_BF16_F32\"],\"logits_dtype\":\"float32\",\"logits_scale\":0.17677669529663687,\"bias\":\"bf16[1,4,2816,2816]\",\"logits_soft_cap\":null,\"mask\":{\"bool_mask\":\"bool[128,1,1,2816]\",\"q_start\":null,\"q_end\":null,\"k_start\":null,\"k_end\":null,\"is_causal\":false},\"dropout_mask\":null,\"dropout_rate\":0.0,\"paging_info\":null,\"q_indices\":null,\"k_indices\":null,\"normalize_output\":true,\"return_residuals\":false}": {
    "{}": {
      "compile_time_ms": 1407.7247260000263,
      "lower_time_ms": 20.27152699997714,
      "evaluation_times_ms": [
        31.41737,
        31.519145,
        31.474928,
        31.425624,
        31.480047
      ],
      "metadata": {},
      "peak_memory_mb": 32913.588224
    }
  },
  "{\"q\":\"bf16[128,3072,4,16]\",\"k\":\"bf16[128,3072,4,16]\",\"v\":\"bf16[128,3072,4,16]\",\"precision\":[\"BF16_BF16_F32\",\"BF16_BF16_F32\"],\"logits_dtype\":\"float32\",\"logits_scale\":0.25,\"bias\":\"bf16[1,4,3072,3072]\",\"logits_soft_cap\":null,\"mask\":{\"bool_mask\":\"bool[128,1,1,3072]\",\"q_start\":null,\"q_end\":null,\"k_start\":null,\"k_end\":null,\"is_causal\":false},\"dropout_mask\":null,\"dropout_rate\":0.0,\"paging_info\":null,\"q_indices\":null,\"k_indices\":null,\"normalize_output\":true,\"return_residuals\":false}": {
    "{}": {
      "compile_time_ms": 1755.0749490000044,
      "lower_time_ms": 20.010966999990387,
      "evaluation_times_ms": [
        35.651366,
        35.352156,
        36.245948,
        35.595697,
        35.642344
      ],
      "metadata": {},
      "peak_memory_mb": 38931.922944
    }
  },
  "{\"q\":\"bf16[1,128,3072,4,32]\",\"k\":\"bf16[1,128,3072,4,32]\",\"v\":\"bf16[1,128,3072,4,32]\",\"precision\":[\"BF16_BF16_F32\",\"BF16_BF16_F32\"],\"logits_dtype\":\"float32\",\"logits_scale\":0.17677669529663687,\"bias\":\"bf16[1,1,4,3072,3072]\",\"logits_soft_cap\":null,\"mask\":{\"bool_mask\":\"bool[128,1,1,3072]\",\"q_start\":null,\"q_end\":null,\"k_start\":null,\"k_end\":null,\"is_causal\":false},\"dropout_mask\":null,\"dropout_rate\":0.0,\"paging_info\":null,\"q_indices\":null,\"k_indices\":null,\"normalize_output\":true,\"return_residuals\":false}": {
    "{}": {
      "compile_time_ms": 1870.4131119999943,
      "lower_time_ms": 20.635303999995358,
      "evaluation_times_ms": [
        36.214737,
        35.602815,
        36.478722,
        35.860048,
        36.25505
      ],
      "metadata": {},
      "peak_memory_mb": 39133.249536
    }
  },
  "{\"q\":\"bf16[128,3072,4,32]\",\"k\":\"bf16[128,3072,4,32]\",\"v\":\"bf16[128,3072,4,32]\",\"precision\":[\"BF16_BF16_F32\",\"BF16_BF16_F32\"],\"logits_dtype\":\"float32\",\"logits_scale\":0.17677669529663687,\"bias\":\"bf16[1,4,3072,3072]\",\"logits_soft_cap\":null,\"mask\":{\"bool_mask\":\"bool[128,1,1,3072]\",\"q_start\":null,\"q_end\":null,\"k_start\":null,\"k_end\":null,\"is_causal\":false},\"dropout_mask\":null,\"dropout_rate\":0.0,\"paging_info\":null,\"q_indices\":null,\"k_indices\":null,\"normalize_output\":true,\"return_residuals\":false}": {
    "{}": {
      "compile_time_ms": 1519.0439510000147,
      "lower_time_ms": 15.620043000012629,
      "evaluation_times_ms": [
        35.46266,
        36.422264,
        35.905014,
        35.033457999999996,
        35.859645
      ],
      "metadata": {},
      "peak_memory_mb": 39133.249536
    }
  },
  "{\"q\":\"bf16[128,3328,4,16]\",\"k\":\"bf16[128,3328,4,16]\",\"v\":\"bf16[128,3328,4,16]\",\"precision\":[\"BF16_BF16_F32\",\"BF16_BF16_F32\"],\"logits_dtype\":\"float32\",\"logits_scale\":0.25,\"bias\":\"bf16[1,4,3328,3328]\",\"logits_soft_cap\":null,\"mask\":{\"bool_mask\":\"bool[128,1,1,3328]\",\"q_start\":null,\"q_end\":null,\"k_start\":null,\"k_end\":null,\"is_causal\":false},\"dropout_mask\":null,\"dropout_rate\":0.0,\"paging_info\":null,\"q_indices\":null,\"k_indices\":null,\"normalize_output\":true,\"return_residuals\":false}": {
    "{}": {
      "compile_time_ms": 1907.4168040000075,
      "lower_time_ms": 20.22053499999288,
      "evaluation_times_ms": [
        39.696718000000004,
        40.126112,
        39.764480999999996,
        40.269553,
        39.621767
      ],
      "metadata": {},
      "peak_memory_mb": 45672.726528
    }
  },
  "{\"q\":\"bf16[1,128,3328,4,32]\",\"k\":\"bf16[1,128,3328,4,32]\",\"v\":\"bf16[1,128,3328,4,32]\",\"precision\":[\"BF16_BF16_F32\",\"BF16_BF16_F32\"],\"logits_dtype\":\"float32\",\"logits_scale\":0.17677669529663687,\"bias\":\"bf16[1,1,4,3328,3328]\",\"logits_soft_cap\":null,\"mask\":{\"bool_mask\":\"bool[128,1,1,3328]\",\"q_start\":null,\"q_end\":null,\"k_start\":null,\"k_end\":null,\"is_causal\":false},\"dropout_mask\":null,\"dropout_rate\":0.0,\"paging_info\":null,\"q_indices\":null,\"k_indices\":null,\"normalize_output\":true,\"return_residuals\":false}": {
    "{}": {
      "compile_time_ms": 2055.85338100002,
      "lower_time_ms": 21.32522599998765,
      "evaluation_times_ms": [
        40.324328,
        40.240281,
        40.436467,
        40.343589,
        40.682889
      ],
      "metadata": {},
      "peak_memory_mb": 45890.830336
    }
  },
  "{\"q\":\"bf16[128,3328,4,32]\",\"k\":\"bf16[128,3328,4,32]\",\"v\":\"bf16[128,3328,4,32]\",\"precision\":[\"BF16_BF16_F32\",\"BF16_BF16_F32\"],\"logits_dtype\":\"float32\",\"logits_scale\":0.17677669529663687,\"bias\":\"bf16[1,4,3328,3328]\",\"logits_soft_cap\":null,\"mask\":{\"bool_mask\":\"bool[128,1,1,3328]\",\"q_start\":null,\"q_end\":null,\"k_start\":null,\"k_end\":null,\"is_causal\":false},\"dropout_mask\":null,\"dropout_rate\":0.0,\"paging_info\":null,\"q_indices\":null,\"k_indices\":null,\"normalize_output\":true,\"return_residuals\":false}": {
    "{}": {
      "compile_time_ms": 1669.5287440000186,
      "lower_time_ms": 15.541434999988724,
      "evaluation_times_ms": [
        40.5865,
        40.195115,
        40.296537,
        40.297849,
        40.050694
      ],
      "metadata": {},
      "peak_memory_mb": 45890.830336
    }
  },
  "{\"q\":\"bf16[128,3584,4,16]\",\"k\":\"bf16[128,3584,4,16]\",\"v\":\"bf16[128,3584,4,16]\",\"precision\":[\"BF16_BF16_F32\",\"BF16_BF16_F32\"],\"logits_dtype\":\"float32\",\"logits_scale\":0.25,\"bias\":\"bf16[1,4,3584,3584]\",\"logits_soft_cap\":null,\"mask\":{\"bool_mask\":\"bool[128,1,1,3584]\",\"q_start\":null,\"q_end\":null,\"k_start\":null,\"k_end\":null,\"is_causal\":false},\"dropout_mask\":null,\"dropout_rate\":0.0,\"paging_info\":null,\"q_indices\":null,\"k_indices\":null,\"normalize_output\":true,\"return_residuals\":false}": {},
  "{\"q\":\"bf16[1,128,3584,4,32]\",\"k\":\"bf16[1,128,3584,4,32]\",\"v\":\"bf16[1,128,3584,4,32]\",\"precision\":[\"BF16_BF16_F32\",\"BF16_BF16_F32\"],\"logits_dtype\":\"float32\",\"logits_scale\":0.17677669529663687,\"bias\":\"bf16[1,1,4,3584,3584]\",\"logits_soft_cap\":null,\"mask\":{\"bool_mask\":\"bool[128,1,1,3584]\",\"q_start\":null,\"q_end\":null,\"k_start\":null,\"k_end\":null,\"is_causal\":false},\"dropout_mask\":null,\"dropout_rate\":0.0,\"paging_info\":null,\"q_indices\":null,\"k_indices\":null,\"normalize_output\":true,\"return_residuals\":false}": {},
  "{\"q\":\"bf16[128,3584,4,32]\",\"k\":\"bf16[128,3584,4,32]\",\"v\":\"bf16[128,3584,4,32]\",\"precision\":[\"BF16_BF16_F32\",\"BF16_BF16_F32\"],\"logits_dtype\":\"float32\",\"logits_scale\":0.17677669529663687,\"bias\":\"bf16[1,4,3584,3584]\",\"logits_soft_cap\":null,\"mask\":{\"bool_mask\":\"bool[128,1,1,3584]\",\"q_start\":null,\"q_end\":null,\"k_start\":null,\"k_end\":null,\"is_causal\":false},\"dropout_mask\":null,\"dropout_rate\":0.0,\"paging_info\":null,\"q_indices\":null,\"k_indices\":null,\"normalize_output\":true,\"return_residuals\":false}": {},
  "{\"q\":\"bf16[128,3840,4,16]\",\"k\":\"bf16[128,3840,4,16]\",\"v\":\"bf16[128,3840,4,16]\",\"precision\":[\"BF16_BF16_F32\",\"BF16_BF16_F32\"],\"logits_dtype\":\"float32\",\"logits_scale\":0.25,\"bias\":\"bf16[1,4,3840,3840]\",\"logits_soft_cap\":null,\"mask\":{\"bool_mask\":\"bool[128,1,1,3840]\",\"q_start\":null,\"q_end\":null,\"k_start\":null,\"k_end\":null,\"is_causal\":false},\"dropout_mask\":null,\"dropout_rate\":0.0,\"paging_info\":null,\"q_indices\":null,\"k_indices\":null,\"normalize_output\":true,\"return_residuals\":false}": {},
  "{\"q\":\"bf16[1,128,3840,4,32]\",\"k\":\"bf16[1,128,3840,4,32]\",\"v\":\"bf16[1,128,3840,4,32]\",\"precision\":[\"BF16_BF16_F32\",\"BF16_BF16_F32\"],\"logits_dtype\":\"float32\",\"logits_scale\":0.17677669529663687,\"bias\":\"bf16[1,1,4,3840,3840]\",\"logits_soft_cap\":null,\"mask\":{\"bool_mask\":\"bool[128,1,1,3840]\",\"q_start\":null,\"q_end\":null,\"k_start\":null,\"k_end\":null,\"is_causal\":false},\"dropout_mask\":null,\"dropout_rate\":0.0,\"paging_info\":null,\"q_indices\":null,\"k_indices\":null,\"normalize_output\":true,\"return_residuals\":false}": {},
  "{\"q\":\"bf16[128,3840,4,32]\",\"k\":\"bf16[128,3840,4,32]\",\"v\":\"bf16[128,3840,4,32]\",\"precision\":[\"BF16_BF16_F32\",\"BF16_BF16_F32\"],\"logits_dtype\":\"float32\",\"logits_scale\":0.17677669529663687,\"bias\":\"bf16[1,4,3840,3840]\",\"logits_soft_cap\":null,\"mask\":{\"bool_mask\":\"bool[128,1,1,3840]\",\"q_start\":null,\"q_end\":null,\"k_start\":null,\"k_end\":null,\"is_causal\":false},\"dropout_mask\":null,\"dropout_rate\":0.0,\"paging_info\":null,\"q_indices\":null,\"k_indices\":null,\"normalize_output\":true,\"return_residuals\":false}": {},
  "{\"q\":\"bf16[128,4096,4,16]\",\"k\":\"bf16[128,4096,4,16]\",\"v\":\"bf16[128,4096,4,16]\",\"precision\":[\"BF16_BF16_F32\",\"BF16_BF16_F32\"],\"logits_dtype\":\"float32\",\"logits_scale\":0.25,\"bias\":\"bf16[1,4,4096,4096]\",\"logits_soft_cap\":null,\"mask\":{\"bool_mask\":\"bool[128,1,1,4096]\",\"q_start\":null,\"q_end\":null,\"k_start\":null,\"k_end\":null,\"is_causal\":false},\"dropout_mask\":null,\"dropout_rate\":0.0,\"paging_info\":null,\"q_indices\":null,\"k_indices\":null,\"normalize_output\":true,\"return_residuals\":false}": {},
  "{\"q\":\"bf16[1,128,4096,4,32]\",\"k\":\"bf16[1,128,4096,4,32]\",\"v\":\"bf16[1,128,4096,4,32]\",\"precision\":[\"BF16_BF16_F32\",\"BF16_BF16_F32\"],\"logits_dtype\":\"float32\",\"logits_scale\":0.17677669529663687,\"bias\":\"bf16[1,1,4,4096,4096]\",\"logits_soft_cap\":null,\"mask\":{\"bool_mask\":\"bool[128,1,1,4096]\",\"q_start\":null,\"q_end\":null,\"k_start\":null,\"k_end\":null,\"is_causal\":false},\"dropout_mask\":null,\"dropout_rate\":0.0,\"paging_info\":null,\"q_indices\":null,\"k_indices\":null,\"normalize_output\":true,\"return_residuals\":false}": {},
  "{\"q\":\"bf16[128,4096,4,32]\",\"k\":\"bf16[128,4096,4,32]\",\"v\":\"bf16[128,4096,4,32]\",\"precision\":[\"BF16_BF16_F32\",\"BF16_BF16_F32\"],\"logits_dtype\":\"float32\",\"logits_scale\":0.17677669529663687,\"bias\":\"bf16[1,4,4096,4096]\",\"logits_soft_cap\":null,\"mask\":{\"bool_mask\":\"bool[128,1,1,4096]\",\"q_start\":null,\"q_end\":null,\"k_start\":null,\"k_end\":null,\"is_causal\":false},\"dropout_mask\":null,\"dropout_rate\":0.0,\"paging_info\":null,\"q_indices\":null,\"k_indices\":null,\"normalize_output\":true,\"return_residuals\":false}": {},
  "{\"q\":\"bf16[128,4352,4,16]\",\"k\":\"bf16[128,4352,4,16]\",\"v\":\"bf16[128,4352,4,16]\",\"precision\":[\"BF16_BF16_F32\",\"BF16_BF16_F32\"],\"logits_dtype\":\"float32\",\"logits_scale\":0.25,\"bias\":\"bf16[1,4,4352,4352]\",\"logits_soft_cap\":null,\"mask\":{\"bool_mask\":\"bool[128,1,1,4352]\",\"q_start\":null,\"q_end\":null,\"k_start\":null,\"k_end\":null,\"is_causal\":false},\"dropout_mask\":null,\"dropout_rate\":0.0,\"paging_info\":null,\"q_indices\":null,\"k_indices\":null,\"normalize_output\":true,\"return_residuals\":false}": {},
  "{\"q\":\"bf16[1,128,4352,4,32]\",\"k\":\"bf16[1,128,4352,4,32]\",\"v\":\"bf16[1,128,4352,4,32]\",\"precision\":[\"BF16_BF16_F32\",\"BF16_BF16_F32\"],\"logits_dtype\":\"float32\",\"logits_scale\":0.17677669529663687,\"bias\":\"bf16[1,1,4,4352,4352]\",\"logits_soft_cap\":null,\"mask\":{\"bool_mask\":\"bool[128,1,1,4352]\",\"q_start\":null,\"q_end\":null,\"k_start\":null,\"k_end\":null,\"is_causal\":false},\"dropout_mask\":null,\"dropout_rate\":0.0,\"paging_info\":null,\"q_indices\":null,\"k_indices\":null,\"normalize_output\":true,\"return_residuals\":false}": {},
  "{\"q\":\"bf16[128,4352,4,32]\",\"k\":\"bf16[128,4352,4,32]\",\"v\":\"bf16[128,4352,4,32]\",\"precision\":[\"BF16_BF16_F32\",\"BF16_BF16_F32\"],\"logits_dtype\":\"float32\",\"logits_scale\":0.17677669529663687,\"bias\":\"bf16[1,4,4352,4352]\",\"logits_soft_cap\":null,\"mask\":{\"bool_mask\":\"bool[128,1,1,4352]\",\"q_start\":null,\"q_end\":null,\"k_start\":null,\"k_end\":null,\"is_causal\":false},\"dropout_mask\":null,\"dropout_rate\":0.0,\"paging_info\":null,\"q_indices\":null,\"k_indices\":null,\"normalize_output\":true,\"return_residuals\":false}": {},
  "{\"q\":\"bf16[128,4608,4,16]\",\"k\":\"bf16[128,4608,4,16]\",\"v\":\"bf16[128,4608,4,16]\",\"precision\":[\"BF16_BF16_F32\",\"BF16_BF16_F32\"],\"logits_dtype\":\"float32\",\"logits_scale\":0.25,\"bias\":\"bf16[1,4,4608,4608]\",\"logits_soft_cap\":null,\"mask\":{\"bool_mask\":\"bool[128,1,1,4608]\",\"q_start\":null,\"q_end\":null,\"k_start\":null,\"k_end\":null,\"is_causal\":false},\"dropout_mask\":null,\"dropout_rate\":0.0,\"paging_info\":null,\"q_indices\":null,\"k_indices\":null,\"normalize_output\":true,\"return_residuals\":false}": {},
  "{\"q\":\"bf16[1,128,4608,4,32]\",\"k\":\"bf16[1,128,4608,4,32]\",\"v\":\"bf16[1,128,4608,4,32]\",\"precision\":[\"BF16_BF16_F32\",\"BF16_BF16_F32\"],\"logits_dtype\":\"float32\",\"logits_scale\":0.17677669529663687,\"bias\":\"bf16[1,1,4,4608,4608]\",\"logits_soft_cap\":null,\"mask\":{\"bool_mask\":\"bool[128,1,1,4608]\",\"q_start\":null,\"q_end\":null,\"k_start\":null,\"k_end\":null,\"is_causal\":false},\"dropout_mask\":null,\"dropout_rate\":0.0,\"paging_info\":null,\"q_indices\":null,\"k_indices\":null,\"normalize_output\":true,\"return_residuals\":false}": {},
  "{\"q\":\"bf16[128,4608,4,32]\",\"k\":\"bf16[128,4608,4,32]\",\"v\":\"bf16[128,4608,4,32]\",\"precision\":[\"BF16_BF16_F32\",\"BF16_BF16_F32\"],\"logits_dtype\":\"float32\",\"logits_scale\":0.17677669529663687,\"bias\":\"bf16[1,4,4608,4608]\",\"logits_soft_cap\":null,\"mask\":{\"bool_mask\":\"bool[128,1,1,4608]\",\"q_start\":null,\"q_end\":null,\"k_start\":null,\"k_end\":null,\"is_causal\":false},\"dropout_mask\":null,\"dropout_rate\":0.0,\"paging_info\":null,\"q_indices\":null,\"k_indices\":null,\"normalize_output\":true,\"return_residuals\":false}": {},
  "{\"q\":\"bf16[128,4864,4,16]\",\"k\":\"bf16[128,4864,4,16]\",\"v\":\"bf16[128,4864,4,16]\",\"precision\":[\"BF16_BF16_F32\",\"BF16_BF16_F32\"],\"logits_dtype\":\"float32\",\"logits_scale\":0.25,\"bias\":\"bf16[1,4,4864,4864]\",\"logits_soft_cap\":null,\"mask\":{\"bool_mask\":\"bool[128,1,1,4864]\",\"q_start\":null,\"q_end\":null,\"k_start\":null,\"k_end\":null,\"is_causal\":false},\"dropout_mask\":null,\"dropout_rate\":0.0,\"paging_info\":null,\"q_indices\":null,\"k_indices\":null,\"normalize_output\":true,\"return_residuals\":false}": {},
  "{\"q\":\"bf16[1,128,4864,4,32]\",\"k\":\"bf16[1,128,4864,4,32]\",\"v\":\"bf16[1,128,4864,4,32]\",\"precision\":[\"BF16_BF16_F32\",\"BF16_BF16_F32\"],\"logits_dtype\":\"float32\",\"logits_scale\":0.17677669529663687,\"bias\":\"bf16[1,1,4,4864,4864]\",\"logits_soft_cap\":null,\"mask\":{\"bool_mask\":\"bool[128,1,1,4864]\",\"q_start\":null,\"q_end\":null,\"k_start\":null,\"k_end\":null,\"is_causal\":false},\"dropout_mask\":null,\"dropout_rate\":0.0,\"paging_info\":null,\"q_indices\":null,\"k_indices\":null,\"normalize_output\":true,\"return_residuals\":false}": {},
  "{\"q\":\"bf16[128,4864,4,32]\",\"k\":\"bf16[128,4864,4,32]\",\"v\":\"bf16[128,4864,4,32]\",\"precision\":[\"BF16_BF16_F32\",\"BF16_BF16_F32\"],\"logits_dtype\":\"float32\",\"logits_scale\":0.17677669529663687,\"bias\":\"bf16[1,4,4864,4864]\",\"logits_soft_cap\":null,\"mask\":{\"bool_mask\":\"bool[128,1,1,4864]\",\"q_start\":null,\"q_end\":null,\"k_start\":null,\"k_end\":null,\"is_causal\":false},\"dropout_mask\":null,\"dropout_rate\":0.0,\"paging_info\":null,\"q_indices\":null,\"k_indices\":null,\"normalize_output\":true,\"return_residuals\":false}": {}
}
