{
  "{\"x\":\"bf16[1,512,512,128]\",\"weights\":\"bf16[128,2,256]\",\"activation\":\"jax._src.nn.functions.sigmoid\",\"precision\":\"BF16_BF16_F32\",\"return_residuals\":false}": {
    "{}": {
      "compile_time_ms": 3050.3368429999964,
      "lower_time_ms": 184.23406000002274,
      "evaluation_times_ms": [
        0.275404,
        0.27546800000000005,
        0.273868,
        0.27598,
        0.273933
      ],
      "metadata": {},
      "peak_memory_mb": 469.89312
    }
  },
  "{\"x\":\"bf16[1,512,512,128]\",\"weights\":\"bf16[128,2,512]\",\"activation\":\"jax._src.nn.functions.silu\",\"precision\":\"BF16_BF16_F32\",\"return_residuals\":false}": {
    "{}": {
      "compile_time_ms": 255.02498000000173,
      "lower_time_ms": 15.854182999987643,
      "evaluation_times_ms": [
        0.531004,
        0.526461,
        0.526876,
        0.5320910000000001,
        0.529883
      ],
      "metadata": {},
      "peak_memory_mb": 872.677376
    }
  },
  "{\"x\":\"bf16[512,512,128]\",\"weights\":\"bf16[128,2,256]\",\"activation\":\"jax._src.nn.functions.sigmoid\",\"precision\":\"BF16_BF16_F32\",\"return_residuals\":false}": {
    "{}": {
      "compile_time_ms": 207.4294640000005,
      "lower_time_ms": 11.633668000001762,
      "evaluation_times_ms": [
        0.269741,
        0.274155,
        0.27773899999999996,
        0.275372,
        0.274956
      ],
      "metadata": {},
      "peak_memory_mb": 469.89312
    }
  },
  "{\"x\":\"bf16[512,512,128]\",\"weights\":\"bf16[128,2,512]\",\"activation\":\"jax._src.nn.functions.silu\",\"precision\":\"BF16_BF16_F32\",\"return_residuals\":false}": {
    "{}": {
      "compile_time_ms": 205.02465399999892,
      "lower_time_ms": 12.786820000002308,
      "evaluation_times_ms": [
        0.530394,
        0.530168,
        0.530777,
        0.525146,
        0.5259780000000001
      ],
      "metadata": {},
      "peak_memory_mb": 872.677376
    }
  },
  "{\"x\":\"f32[512,512,128]\",\"weights\":\"f32[128,2,256]\",\"activation\":\"jax._src.nn.functions.silu\",\"precision\":\"BF16_BF16_F32\",\"return_residuals\":false}": {
    "{}": {
      "compile_time_ms": 784.170888999995,
      "lower_time_ms": 10.886612999996714,
      "evaluation_times_ms": [
        0.5468999999999999,
        0.546549,
        0.545876,
        0.548117,
        0.5509
      ],
      "metadata": {},
      "peak_memory_mb": 939.78624
    }
  },
  "{\"x\":\"bf16[512,512,64]\",\"weights\":\"bf16[64,2,128]\",\"activation\":\"jax._src.nn.functions.sigmoid\",\"precision\":\"BF16_BF16_F32\",\"return_residuals\":false}": {
    "{}": {
      "compile_time_ms": 405.6599980000044,
      "lower_time_ms": 11.574335999995355,
      "evaluation_times_ms": [
        0.131942,
        0.131879,
        0.13063,
        0.13203700000000002,
        0.131814
      ],
      "metadata": {},
      "peak_memory_mb": 234.913792
    }
  },
  "{\"x\":\"bf16[512,512,64]\",\"weights\":\"bf16[64,2,128]\",\"activation\":\"jax._src.nn.functions.silu\",\"precision\":\"BF16_BF16_F32\",\"return_residuals\":false}": {
    "{}": {
      "compile_time_ms": 100.76202700000181,
      "lower_time_ms": 11.214966000011373,
      "evaluation_times_ms": [
        0.131941,
        0.130917,
        0.132101,
        0.131301,
        0.130726
      ],
      "metadata": {},
      "peak_memory_mb": 234.913792
    }
  },
  "{\"x\":\"f32[5,512,32,128]\",\"weights\":\"f32[128,2,256]\",\"activation\":\"jax._src.nn.functions.silu\",\"precision\":\"BF16_BF16_F32\",\"return_residuals\":false}": {
    "{}": {
      "compile_time_ms": 712.0959279999965,
      "lower_time_ms": 11.700816999962171,
      "evaluation_times_ms": [
        0.180508,
        0.180764,
        0.182458,
        0.17782,
        0.18207600000000002
      ],
      "metadata": {},
      "peak_memory_mb": 293.863424
    }
  },
  "{\"x\":\"f32[512,32,128]\",\"weights\":\"f32[128,2,256]\",\"activation\":\"jax._src.nn.functions.silu\",\"precision\":\"BF16_BF16_F32\",\"return_residuals\":false}": {
    "{}": {
      "compile_time_ms": 578.1969470000377,
      "lower_time_ms": 12.07799700000578,
      "evaluation_times_ms": [
        0.034649,
        0.034969,
        0.035513,
        0.034425,
        0.034617999999999996
      ],
      "metadata": {},
      "peak_memory_mb": 58.9824
    }
  },
  "{\"x\":\"bf16[5,512,384]\",\"weights\":\"bf16[384,2,1536]\",\"activation\":\"jax._src.nn.functions.silu\",\"precision\":\"BF16_BF16_F32\",\"return_residuals\":false}": {
    "{}": {
      "compile_time_ms": 672.3994910000215,
      "lower_time_ms": 12.100925000027019,
      "evaluation_times_ms": [
        0.020252,
        0.020477,
        0.020412,
        0.020285,
        0.020444
      ],
      "metadata": {},
      "peak_memory_mb": 27.918336
    }
  },
  "{\"x\":\"bf16[512,384]\",\"weights\":\"bf16[384,2,1536]\",\"activation\":\"jax._src.nn.functions.silu\",\"precision\":\"BF16_BF16_F32\",\"return_residuals\":false}": {
    "{}": {
      "compile_time_ms": 3213.795902000001,
      "lower_time_ms": 240.00600000000816,
      "evaluation_times_ms": [
        0.007263,
        0.006912,
        0.006845,
        0.006975,
        0.006879
      ],
      "metadata": {},
      "peak_memory_mb": 7.471104
    }
  },
  "{\"x\":\"f32[5,512,384]\",\"weights\":\"f32[384,2,768]\",\"activation\":\"jax._src.nn.functions.silu\",\"precision\":\"BF16_BF16_F32\",\"return_residuals\":false}": {
    "{}": {
      "compile_time_ms": 3055.9854210000026,
      "lower_time_ms": 177.6561159999801,
      "evaluation_times_ms": [
        0.01926,
        0.019261,
        0.018493,
        0.018718000000000002,
        0.018779999999999998
      ],
      "metadata": {},
      "peak_memory_mb": 64.618496
    }
  },
  "{\"x\":\"f32[512,384]\",\"weights\":\"f32[384,2,768]\",\"activation\":\"jax._src.nn.functions.silu\",\"precision\":\"BF16_BF16_F32\",\"return_residuals\":false}": {
    "{}": {
      "compile_time_ms": 874.7809449999977,
      "lower_time_ms": 15.286173999982111,
      "evaluation_times_ms": [
        0.008861,
        0.008894,
        0.008830000000000001,
        0.008894,
        0.008863000000000001
      ],
      "metadata": {},
      "peak_memory_mb": 7.86432
    }
  },
  "{\"x\":\"f32[5,512,768]\",\"weights\":\"f32[768,2,1536]\",\"activation\":\"jax._src.nn.functions.silu\",\"precision\":\"BF16_BF16_F32\",\"return_residuals\":false}": {
    "{}": {
      "compile_time_ms": 574.6181419999914,
      "lower_time_ms": 12.088001999984499,
      "evaluation_times_ms": [
        0.044311,
        0.042937,
        0.043064,
        0.043064,
        0.043896
      ],
      "metadata": {},
      "peak_memory_mb": 101.974016
    }
  },
  "{\"x\":\"f32[512,768]\",\"weights\":\"f32[768,2,1536]\",\"activation\":\"jax._src.nn.functions.silu\",\"precision\":\"BF16_BF16_F32\",\"return_residuals\":false}": {
    "{}": {
      "compile_time_ms": 522.7633469999944,
      "lower_time_ms": 12.334341000013183,
      "evaluation_times_ms": [
        0.014909,
        0.014780999999999999,
        0.014972,
        0.015003,
        0.014908000000000001
      ],
      "metadata": {},
      "peak_memory_mb": 58.720256
    }
  },
  "{\"x\":\"bf16[1,768,768,128]\",\"weights\":\"bf16[128,2,256]\",\"activation\":\"jax._src.nn.functions.sigmoid\",\"precision\":\"BF16_BF16_F32\",\"return_residuals\":false}": {
    "{}": {
      "compile_time_ms": 669.8220179999907,
      "lower_time_ms": 12.110171000017544,
      "evaluation_times_ms": [
        0.596746,
        0.6035600000000001,
        0.6003609999999999,
        0.599754,
        0.5915619999999999
      ],
      "metadata": {},
      "peak_memory_mb": 1057.09568
    }
  },
  "{\"x\":\"bf16[1,768,768,128]\",\"weights\":\"bf16[128,2,512]\",\"activation\":\"jax._src.nn.functions.silu\",\"precision\":\"BF16_BF16_F32\",\"return_residuals\":false}": {
    "{}": {
      "compile_time_ms": 571.2184799999989,
      "lower_time_ms": 13.187969000000521,
      "evaluation_times_ms": [
        1.1725949999999998,
        1.177107,
        1.173299,
        1.176499,
        1.179154
      ],
      "metadata": {},
      "peak_memory_mb": 1963.196416
    }
  },
  "{\"x\":\"bf16[768,768,128]\",\"weights\":\"bf16[128,2,256]\",\"activation\":\"jax._src.nn.functions.sigmoid\",\"precision\":\"BF16_BF16_F32\",\"return_residuals\":false}": {
    "{}": {
      "compile_time_ms": 208.20143199998142,
      "lower_time_ms": 12.062039999989338,
      "evaluation_times_ms": [
        0.6046130000000001,
        0.6013170000000001,
        0.595623,
        0.592199,
        0.595271
      ],
      "metadata": {},
      "peak_memory_mb": 1057.09568
    }
  },
  "{\"x\":\"bf16[768,768,128]\",\"weights\":\"bf16[128,2,512]\",\"activation\":\"jax._src.nn.functions.silu\",\"precision\":\"BF16_BF16_F32\",\"return_residuals\":false}": {
    "{}": {
      "compile_time_ms": 210.61434099999587,
      "lower_time_ms": 12.950115999956324,
      "evaluation_times_ms": [
        1.1734529999999999,
        1.173262,
        1.1787320000000001,
        1.176396,
        1.174381
      ],
      "metadata": {},
      "peak_memory_mb": 1963.196416
    }
  },
  "{\"x\":\"f32[768,768,128]\",\"weights\":\"f32[128,2,256]\",\"activation\":\"jax._src.nn.functions.silu\",\"precision\":\"BF16_BF16_F32\",\"return_residuals\":false}": {
    "{}": {
      "compile_time_ms": 727.9444359999729,
      "lower_time_ms": 11.194041000010202,
      "evaluation_times_ms": [
        1.2041979999999999,
        1.2097639999999998,
        1.2055090000000002,
        1.2046459999999999,
        1.206277
      ],
      "metadata": {},
      "peak_memory_mb": 2114.19136
    }
  },
  "{\"x\":\"bf16[768,768,64]\",\"weights\":\"bf16[64,2,128]\",\"activation\":\"jax._src.nn.functions.sigmoid\",\"precision\":\"BF16_BF16_F32\",\"return_residuals\":false}": {
    "{}": {
      "compile_time_ms": 345.85290100000066,
      "lower_time_ms": 11.798075999990942,
      "evaluation_times_ms": [
        0.28762,
        0.28537999999999997,
        0.28586,
        0.284037,
        0.28525199999999995
      ],
      "metadata": {},
      "peak_memory_mb": 528.515072
    }
  },
  "{\"x\":\"bf16[768,768,64]\",\"weights\":\"bf16[64,2,128]\",\"activation\":\"jax._src.nn.functions.silu\",\"precision\":\"BF16_BF16_F32\",\"return_residuals\":false}": {
    "{}": {
      "compile_time_ms": 2772.0832709999995,
      "lower_time_ms": 210.17738599999802,
      "evaluation_times_ms": [
        0.28314799999999996,
        0.283917,
        0.283501,
        0.282572,
        0.284876
      ],
      "metadata": {},
      "peak_memory_mb": 528.515072
    }
  },
  "{\"x\":\"bf16[2304,2304,64]\",\"weights\":\"bf16[64,2,128]\",\"activation\":\"jax._src.nn.functions.sigmoid\",\"precision\":\"BF16_BF16_F32\",\"return_residuals\":false}": {
    "{}": {
      "compile_time_ms": 3921.8061210000033,
      "lower_time_ms": 199.24489199999584,
      "evaluation_times_ms": [
        2.496994,
        2.496386,
        2.496801,
        2.4986889999999997,
        2.495905
      ],
      "metadata": {},
      "peak_memory_mb": 4756.373504
    }
  },
  "{\"x\":\"bf16[2304,2304,64]\",\"weights\":\"bf16[64,2,128]\",\"activation\":\"jax._src.nn.functions.silu\",\"precision\":\"BF16_BF16_F32\",\"return_residuals\":false}": {
    "{}": {
      "compile_time_ms": 112.11498099999062,
      "lower_time_ms": 16.164115999998785,
      "evaluation_times_ms": [
        2.504598,
        2.501877,
        2.502039,
        2.49628,
        2.504854
      ],
      "metadata": {},
      "peak_memory_mb": 4756.373504
    }
  },
  "{\"x\":\"f32[5,2304,32,128]\",\"weights\":\"f32[128,2,256]\",\"activation\":\"jax._src.nn.functions.silu\",\"precision\":\"BF16_BF16_F32\",\"return_residuals\":false}": {
    "{}": {
      "compile_time_ms": 766.0207979999996,
      "lower_time_ms": 12.034548999992012,
      "evaluation_times_ms": [
        0.7569170000000001,
        0.7579400000000001,
        0.758133,
        0.759476,
        0.757782
      ],
      "metadata": {},
      "peak_memory_mb": 1321.467904
    }
  },
  "{\"x\":\"f32[2304,32,128]\",\"weights\":\"f32[128,2,256]\",\"activation\":\"jax._src.nn.functions.silu\",\"precision\":\"BF16_BF16_F32\",\"return_residuals\":false}": {
    "{}": {
      "compile_time_ms": 600.5502939999872,
      "lower_time_ms": 12.113231000000724,
      "evaluation_times_ms": [
        0.164354,
        0.163778,
        0.164066,
        0.163106,
        0.16390500000000002
      ],
      "metadata": {},
      "peak_memory_mb": 264.503296
    }
  },
  "{\"x\":\"bf16[5,2304,384]\",\"weights\":\"bf16[384,2,1536]\",\"activation\":\"jax._src.nn.functions.silu\",\"precision\":\"BF16_BF16_F32\",\"return_residuals\":false}": {
    "{}": {
      "compile_time_ms": 507.80960000000164,
      "lower_time_ms": 12.108055000027207,
      "evaluation_times_ms": [
        0.077777,
        0.078002,
        0.07733,
        0.077682,
        0.07838600000000001
      ],
      "metadata": {},
      "peak_memory_mb": 117.374976
    }
  },
  "{\"x\":\"bf16[2304,384]\",\"weights\":\"bf16[384,2,1536]\",\"activation\":\"jax._src.nn.functions.silu\",\"precision\":\"BF16_BF16_F32\",\"return_residuals\":false}": {
    "{}": {
      "compile_time_ms": 679.5848369999931,
      "lower_time_ms": 12.501070999974218,
      "evaluation_times_ms": [
        0.019517,
        0.018973,
        0.01926,
        0.019133,
        0.019069
      ],
      "metadata": {},
      "peak_memory_mb": 25.362432
    }
  },
  "{\"x\":\"f32[5,2304,384]\",\"weights\":\"f32[384,2,768]\",\"activation\":\"jax._src.nn.functions.silu\",\"precision\":\"BF16_BF16_F32\",\"return_residuals\":false}": {
    "{}": {
      "compile_time_ms": 550.7196940000085,
      "lower_time_ms": 11.619616000018596,
      "evaluation_times_ms": [
        0.082576,
        0.082064,
        0.082898,
        0.082386,
        0.08232199999999999
      ],
      "metadata": {},
      "peak_memory_mb": 136.249344
    }
  },
  "{\"x\":\"f32[2304,384]\",\"weights\":\"f32[384,2,768]\",\"activation\":\"jax._src.nn.functions.silu\",\"precision\":\"BF16_BF16_F32\",\"return_residuals\":false}": {
    "{}": {
      "compile_time_ms": 601.3116159999754,
      "lower_time_ms": 12.042626999999584,
      "evaluation_times_ms": [
        0.01734,
        0.016956000000000002,
        0.017181,
        0.01699,
        0.01718
      ],
      "metadata": {},
      "peak_memory_mb": 61.865984
    }
  },
  "{\"x\":\"f32[5,2304,768]\",\"weights\":\"f32[768,2,1536]\",\"activation\":\"jax._src.nn.functions.silu\",\"precision\":\"BF16_BF16_F32\",\"return_residuals\":false}": {
    "{}": {
      "compile_time_ms": 632.5260510000135,
      "lower_time_ms": 10.498195000025135,
      "evaluation_times_ms": [
        0.182335,
        0.183038,
        0.182142,
        0.180062,
        0.181374
      ],
      "metadata": {},
      "peak_memory_mb": 279.576576
    }
  },
  "{\"x\":\"f32[2304,768]\",\"weights\":\"f32[768,2,1536]\",\"activation\":\"jax._src.nn.functions.silu\",\"precision\":\"BF16_BF16_F32\",\"return_residuals\":false}": {
    "{}": {
      "compile_time_ms": 604.000348999989,
      "lower_time_ms": 10.457247000005054,
      "evaluation_times_ms": [
        0.039865,
        0.040121000000000004,
        0.039929,
        0.040249,
        0.039673
      ],
      "metadata": {},
      "peak_memory_mb": 96.075776
    }
  },
  "{\"x\":\"bf16[1,2560,2560,128]\",\"weights\":\"bf16[128,2,256]\",\"activation\":\"jax._src.nn.functions.sigmoid\",\"precision\":\"BF16_BF16_F32\",\"return_residuals\":false}": {
    "{}": {
      "compile_time_ms": 3091.2785900000017,
      "lower_time_ms": 219.16794099999493,
      "evaluation_times_ms": [
        6.655991,
        6.593776,
        6.606859,
        6.592881,
        6.6364149999999995
      ],
      "metadata": {},
      "peak_memory_mb": 11744.182272
    }
  },
  "{\"x\":\"bf16[1,2560,2560,128]\",\"weights\":\"bf16[128,2,512]\",\"activation\":\"jax._src.nn.functions.silu\",\"precision\":\"BF16_BF16_F32\",\"return_residuals\":false}": {
    "{}": {
      "compile_time_ms": 3432.745858000004,
      "lower_time_ms": 202.4083710000184,
      "evaluation_times_ms": [
        13.014709,
        13.001206,
        12.991961,
        13.01826,
        13.014005000000001
      ],
      "metadata": {},
      "peak_memory_mb": 21810.642944
    }
  },
  "{\"x\":\"bf16[2560,2560,128]\",\"weights\":\"bf16[128,2,256]\",\"activation\":\"jax._src.nn.functions.sigmoid\",\"precision\":\"BF16_BF16_F32\",\"return_residuals\":false}": {
    "{}": {
      "compile_time_ms": 870.3373520000071,
      "lower_time_ms": 18.299112999983436,
      "evaluation_times_ms": [
        6.580144000000001,
        6.571122000000001,
        6.558612999999999,
        6.595086,
        6.552213
      ],
      "metadata": {},
      "peak_memory_mb": 11744.182272
    }
  },
  "{\"x\":\"bf16[2560,2560,128]\",\"weights\":\"bf16[128,2,512]\",\"activation\":\"jax._src.nn.functions.silu\",\"precision\":\"BF16_BF16_F32\",\"return_residuals\":false}": {
    "{}": {
      "compile_time_ms": 217.07519299999944,
      "lower_time_ms": 13.166908999977522,
      "evaluation_times_ms": [
        13.015995,
        13.013436,
        13.022842,
        13.044854,
        13.049653
      ],
      "metadata": {},
      "peak_memory_mb": 21810.642944
    }
  },
  "{\"x\":\"f32[2560,2560,128]\",\"weights\":\"f32[128,2,256]\",\"activation\":\"jax._src.nn.functions.silu\",\"precision\":\"BF16_BF16_F32\",\"return_residuals\":false}": {
    "{}": {
      "compile_time_ms": 1548.5269069999958,
      "lower_time_ms": 11.678071999995154,
      "evaluation_times_ms": [
        13.244841000000001,
        13.274564,
        13.259015000000002,
        13.262374999999999,
        13.27754
      ],
      "metadata": {},
      "peak_memory_mb": 23488.364544
    }
  },
  "{\"x\":\"bf16[2560,2560,64]\",\"weights\":\"bf16[64,2,128]\",\"activation\":\"jax._src.nn.functions.sigmoid\",\"precision\":\"BF16_BF16_F32\",\"return_residuals\":false}": {
    "{}": {
      "compile_time_ms": 476.75096000000394,
      "lower_time_ms": 12.16392199998495,
      "evaluation_times_ms": [
        3.1097910000000004,
        3.100161,
        3.105664,
        3.098114,
        3.09869
      ],
      "metadata": {},
      "peak_memory_mb": 5872.058368
    }
  },
  "{\"x\":\"bf16[2560,2560,64]\",\"weights\":\"bf16[64,2,128]\",\"activation\":\"jax._src.nn.functions.silu\",\"precision\":\"BF16_BF16_F32\",\"return_residuals\":false}": {
    "{}": {
      "compile_time_ms": 113.3862620000059,
      "lower_time_ms": 10.968645000019706,
      "evaluation_times_ms": [
        3.109978,
        3.097597,
        3.1021720000000004,
        3.1008269999999998,
        3.110522
      ],
      "metadata": {},
      "peak_memory_mb": 5872.058368
    }
  },
  "{\"x\":\"f32[5,2560,32,128]\",\"weights\":\"f32[128,2,256]\",\"activation\":\"jax._src.nn.functions.silu\",\"precision\":\"BF16_BF16_F32\",\"return_residuals\":false}": {
    "{}": {
      "compile_time_ms": 705.2930689999926,
      "lower_time_ms": 12.61675699998932,
      "evaluation_times_ms": [
        0.844418,
        0.844482,
        0.844257,
        0.84109,
        0.8434569999999999
      ],
      "metadata": {},
      "peak_memory_mb": 1468.268544
    }
  },
  "{\"x\":\"f32[2560,32,128]\",\"weights\":\"f32[128,2,256]\",\"activation\":\"jax._src.nn.functions.silu\",\"precision\":\"BF16_BF16_F32\",\"return_residuals\":false}": {
    "{}": {
      "compile_time_ms": 709.5482570000229,
      "lower_time_ms": 12.11043399999312,
      "evaluation_times_ms": [
        0.17913400000000002,
        0.178718,
        0.17923099999999997,
        0.18057499999999999,
        0.179261
      ],
      "metadata": {},
      "peak_memory_mb": 293.863424
    }
  },
  "{\"x\":\"bf16[5,2560,384]\",\"weights\":\"bf16[384,2,1536]\",\"activation\":\"jax._src.nn.functions.silu\",\"precision\":\"BF16_BF16_F32\",\"return_residuals\":false}": {
    "{}": {
      "compile_time_ms": 520.6974920000107,
      "lower_time_ms": 12.976444000003085,
      "evaluation_times_ms": [
        0.08516699999999999,
        0.087022,
        0.086352,
        0.08465600000000001,
        0.086512
      ],
      "metadata": {},
      "peak_memory_mb": 130.154496
    }
  },
  "{\"x\":\"bf16[2560,384]\",\"weights\":\"bf16[384,2,1536]\",\"activation\":\"jax._src.nn.functions.silu\",\"precision\":\"BF16_BF16_F32\",\"return_residuals\":false}": {
    "{}": {
      "compile_time_ms": 663.641259999963,
      "lower_time_ms": 12.406774999988102,
      "evaluation_times_ms": [
        0.020124,
        0.020253,
        0.020124,
        0.020572,
        0.020283000000000002
      ],
      "metadata": {},
      "peak_memory_mb": 27.918336
    }
  },
  "{\"x\":\"f32[5,2560,384]\",\"weights\":\"f32[384,2,768]\",\"activation\":\"jax._src.nn.functions.silu\",\"precision\":\"BF16_BF16_F32\",\"return_residuals\":false}": {
    "{}": {
      "compile_time_ms": 3184.826436999998,
      "lower_time_ms": 206.8184099999968,
      "evaluation_times_ms": [
        0.090575,
        0.091568,
        0.090671,
        0.089838,
        0.089839
      ],
      "metadata": {},
      "peak_memory_mb": 150.994944
    }
  },
  "{\"x\":\"f32[2560,384]\",\"weights\":\"f32[384,2,768]\",\"activation\":\"jax._src.nn.functions.silu\",\"precision\":\"BF16_BF16_F32\",\"return_residuals\":false}": {
    "{}": {
      "compile_time_ms": 2891.595000999999,
      "lower_time_ms": 191.95590700000764,
      "evaluation_times_ms": [
        0.019485,
        0.018877,
        0.018653,
        0.018622,
        0.018428
      ],
      "metadata": {},
      "peak_memory_mb": 64.618496
    }
  },
  "{\"x\":\"f32[5,2560,768]\",\"weights\":\"f32[768,2,1536]\",\"activation\":\"jax._src.nn.functions.silu\",\"precision\":\"BF16_BF16_F32\",\"return_residuals\":false}": {
    "{}": {
      "compile_time_ms": 569.1006449999918,
      "lower_time_ms": 17.44373799999721,
      "evaluation_times_ms": [
        0.20047600000000002,
        0.198042,
        0.198748,
        0.20002599999999998,
        0.19814
      ],
      "metadata": {},
      "peak_memory_mb": 309.067776
    }
  },
  "{\"x\":\"f32[2560,768]\",\"weights\":\"f32[768,2,1536]\",\"activation\":\"jax._src.nn.functions.silu\",\"precision\":\"BF16_BF16_F32\",\"return_residuals\":false}": {
    "{}": {
      "compile_time_ms": 556.3255670000018,
      "lower_time_ms": 11.623776000007524,
      "evaluation_times_ms": [
        0.043320000000000004,
        0.043225,
        0.043577,
        0.043511,
        0.043288999999999994
      ],
      "metadata": {},
      "peak_memory_mb": 101.974016
    }
  },
  "{\"x\":\"bf16[1,2816,2816,128]\",\"weights\":\"bf16[128,2,256]\",\"activation\":\"jax._src.nn.functions.sigmoid\",\"precision\":\"BF16_BF16_F32\",\"return_residuals\":false}": {
    "{}": {
      "compile_time_ms": 978.7792349999904,
      "lower_time_ms": 12.040471000005937,
      "evaluation_times_ms": [
        7.905248,
        7.873254,
        7.925948,
        7.908479,
        7.926107999999999
      ],
      "metadata": {},
      "peak_memory_mb": 14210.433024
    }
  },
  "{\"x\":\"bf16[1,2816,2816,128]\",\"weights\":\"bf16[128,2,512]\",\"activation\":\"jax._src.nn.functions.silu\",\"precision\":\"BF16_BF16_F32\",\"return_residuals\":false}": {
    "{}": {
      "compile_time_ms": 1138.1676219999974,
      "lower_time_ms": 12.202810000019326,
      "evaluation_times_ms": [
        15.768930000000001,
        15.755748,
        15.734024,
        15.753381000000001,
        15.791516999999999
      ],
      "metadata": {},
      "peak_memory_mb": 26390.822912
    }
  },
  "{\"x\":\"bf16[2816,2816,128]\",\"weights\":\"bf16[128,2,256]\",\"activation\":\"jax._src.nn.functions.sigmoid\",\"precision\":\"BF16_BF16_F32\",\"return_residuals\":false}": {
    "{}": {
      "compile_time_ms": 210.14623299998902,
      "lower_time_ms": 12.110607000010987,
      "evaluation_times_ms": [
        7.81371,
        7.905533,
        7.84516,
        7.873922,
        7.899838
      ],
      "metadata": {},
      "peak_memory_mb": 14210.433024
    }
  },
  "{\"x\":\"bf16[2816,2816,128]\",\"weights\":\"bf16[128,2,512]\",\"activation\":\"jax._src.nn.functions.silu\",\"precision\":\"BF16_BF16_F32\",\"return_residuals\":false}": {
    "{}": {
      "compile_time_ms": 212.26312699999994,
      "lower_time_ms": 12.586781000010205,
      "evaluation_times_ms": [
        15.754574999999999,
        15.765933,
        15.769134000000001,
        15.757423,
        15.780939
      ],
      "metadata": {},
      "peak_memory_mb": 26390.822912
    }
  },
  "{\"x\":\"f32[2816,2816,128]\",\"weights\":\"f32[128,2,256]\",\"activation\":\"jax._src.nn.functions.silu\",\"precision\":\"BF16_BF16_F32\",\"return_residuals\":false}": {
    "{}": {
      "compile_time_ms": 1676.1961569999926,
      "lower_time_ms": 10.919272999984742,
      "evaluation_times_ms": [
        16.004785,
        16.025262,
        16.002033,
        16.067562000000002,
        16.022895
      ],
      "metadata": {},
      "peak_memory_mb": 28420.866048
    }
  },
  "{\"x\":\"bf16[2816,2816,64]\",\"weights\":\"bf16[64,2,128]\",\"activation\":\"jax._src.nn.functions.sigmoid\",\"precision\":\"BF16_BF16_F32\",\"return_residuals\":false}": {
    "{}": {
      "compile_time_ms": 523.8557529999923,
      "lower_time_ms": 12.072285000016336,
      "evaluation_times_ms": [
        3.746353,
        3.742514,
        3.7529760000000003,
        3.7391550000000002,
        3.74037
      ],
      "metadata": {},
      "peak_memory_mb": 7105.183744
    }
  },
  "{\"x\":\"bf16[2816,2816,64]\",\"weights\":\"bf16[64,2,128]\",\"activation\":\"jax._src.nn.functions.silu\",\"precision\":\"BF16_BF16_F32\",\"return_residuals\":false}": {
    "{}": {
      "compile_time_ms": 101.34335399999372,
      "lower_time_ms": 10.477151999992884,
      "evaluation_times_ms": [
        3.760122,
        3.763481,
        3.753946,
        3.75673,
        3.7522510000000002
      ],
      "metadata": {},
      "peak_memory_mb": 7105.183744
    }
  },
  "{\"x\":\"f32[5,2816,32,128]\",\"weights\":\"f32[128,2,256]\",\"activation\":\"jax._src.nn.functions.silu\",\"precision\":\"BF16_BF16_F32\",\"return_residuals\":false}": {
    "{}": {
      "compile_time_ms": 2892.6435549999924,
      "lower_time_ms": 213.9954819999872,
      "evaluation_times_ms": [
        0.92557,
        0.927459,
        0.9322900000000001,
        0.9272009999999999,
        0.9258900000000001
      ],
      "metadata": {},
      "peak_memory_mb": 1615.069184
    }
  },
  "{\"x\":\"f32[2816,32,128]\",\"weights\":\"f32[128,2,256]\",\"activation\":\"jax._src.nn.functions.silu\",\"precision\":\"BF16_BF16_F32\",\"return_residuals\":false}": {
    "{}": {
      "compile_time_ms": 3089.2843310000017,
      "lower_time_ms": 201.39723200000503,
      "evaluation_times_ms": [
        0.200444,
        0.198556,
        0.198237,
        0.197789,
        0.199164
      ],
      "metadata": {},
      "peak_memory_mb": 323.223552
    }
  },
  "{\"x\":\"bf16[5,2816,384]\",\"weights\":\"bf16[384,2,1536]\",\"activation\":\"jax._src.nn.functions.silu\",\"precision\":\"BF16_BF16_F32\",\"return_residuals\":false}": {
    "{}": {
      "compile_time_ms": 547.2423420000041,
      "lower_time_ms": 17.38770400000078,
      "evaluation_times_ms": [
        0.09364700000000001,
        0.09371099999999999,
        0.09454299999999999,
        0.09412699999999999,
        0.09393499999999999
      ],
      "metadata": {},
      "peak_memory_mb": 142.934016
    }
  },
  "{\"x\":\"bf16[2816,384]\",\"weights\":\"bf16[384,2,1536]\",\"activation\":\"jax._src.nn.functions.silu\",\"precision\":\"BF16_BF16_F32\",\"return_residuals\":false}": {
    "{}": {
      "compile_time_ms": 694.6076730000073,
      "lower_time_ms": 12.126543000007928,
      "evaluation_times_ms": [
        0.02294,
        0.023164,
        0.023228,
        0.022522,
        0.022779999999999998
      ],
      "metadata": {},
      "peak_memory_mb": 30.47424
    }
  },
  "{\"x\":\"f32[5,2816,384]\",\"weights\":\"f32[384,2,768]\",\"activation\":\"jax._src.nn.functions.silu\",\"precision\":\"BF16_BF16_F32\",\"return_residuals\":false}": {
    "{}": {
      "compile_time_ms": 566.1864359999953,
      "lower_time_ms": 12.237685999991754,
      "evaluation_times_ms": [
        0.098062,
        0.097134,
        0.09819,
        0.09812699999999999,
        0.098894
      ],
      "metadata": {},
      "peak_memory_mb": 165.740544
    }
  },
  "{\"x\":\"f32[2816,384]\",\"weights\":\"f32[384,2,768]\",\"activation\":\"jax._src.nn.functions.silu\",\"precision\":\"BF16_BF16_F32\",\"return_residuals\":false}": {
    "{}": {
      "compile_time_ms": 586.2183700000116,
      "lower_time_ms": 11.824453000002677,
      "evaluation_times_ms": [
        0.020028,
        0.01974,
        0.019709,
        0.01958,
        0.020029
      ],
      "metadata": {},
      "peak_memory_mb": 67.371008
    }
  },
  "{\"x\":\"f32[5,2816,768]\",\"weights\":\"f32[768,2,1536]\",\"activation\":\"jax._src.nn.functions.silu\",\"precision\":\"BF16_BF16_F32\",\"return_residuals\":false}": {
    "{}": {
      "compile_time_ms": 583.1676040000104,
      "lower_time_ms": 10.553760000021839,
      "evaluation_times_ms": [
        0.214617,
        0.216025,
        0.215801,
        0.214168,
        0.214681
      ],
      "metadata": {},
      "peak_memory_mb": 338.558976
    }
  },
  "{\"x\":\"f32[2816,768]\",\"weights\":\"f32[768,2,1536]\",\"activation\":\"jax._src.nn.functions.silu\",\"precision\":\"BF16_BF16_F32\",\"return_residuals\":false}": {
    "{}": {
      "compile_time_ms": 564.4291879999912,
      "lower_time_ms": 10.83634499997288,
      "evaluation_times_ms": [
        0.048152,
        0.049079,
        0.04815,
        0.048022999999999996,
        0.049079
      ],
      "metadata": {},
      "peak_memory_mb": 107.872256
    }
  },
  "{\"x\":\"bf16[1,3072,3072,128]\",\"weights\":\"bf16[128,2,256]\",\"activation\":\"jax._src.nn.functions.sigmoid\",\"precision\":\"BF16_BF16_F32\",\"return_residuals\":false}": {
    "{}": {
      "compile_time_ms": 1003.7922900000069,
      "lower_time_ms": 11.7119349999939,
      "evaluation_times_ms": [
        9.372931,
        9.375682000000001,
        9.415258000000001,
        9.295281,
        9.345378
      ],
      "metadata": {},
      "peak_memory_mb": 16911.5648
    }
  },
  "{\"x\":\"bf16[1,3072,3072,128]\",\"weights\":\"bf16[128,2,512]\",\"activation\":\"jax._src.nn.functions.silu\",\"precision\":\"BF16_BF16_F32\",\"return_residuals\":false}": {
    "{}": {
      "compile_time_ms": 1262.6121979999994,
      "lower_time_ms": 12.862974999990229,
      "evaluation_times_ms": [
        18.77124,
        18.764618,
        18.771079999999998,
        18.76017,
        18.779078
      ],
      "metadata": {},
      "peak_memory_mb": 31407.210496
    }
  },
  "{\"x\":\"bf16[3072,3072,128]\",\"weights\":\"bf16[128,2,256]\",\"activation\":\"jax._src.nn.functions.sigmoid\",\"precision\":\"BF16_BF16_F32\",\"return_residuals\":false}": {
    "{}": {
      "compile_time_ms": 209.104018000005,
      "lower_time_ms": 11.636398000007375,
      "evaluation_times_ms": [
        9.4011,
        9.456513000000001,
        9.427655000000001,
        9.436069,
        9.467583000000001
      ],
      "metadata": {},
      "peak_memory_mb": 16911.5648
    }
  },
  "{\"x\":\"bf16[3072,3072,128]\",\"weights\":\"bf16[128,2,512]\",\"activation\":\"jax._src.nn.functions.silu\",\"precision\":\"BF16_BF16_F32\",\"return_residuals\":false}": {
    "{}": {
      "compile_time_ms": 3296.457674999999,
      "lower_time_ms": 201.41971099999978,
      "evaluation_times_ms": [
        18.710223,
        18.762008,
        18.754711999999998,
        18.749591,
        18.721778
      ],
      "metadata": {},
      "peak_memory_mb": 31407.210496
    }
  },
  "{\"x\":\"f32[3072,3072,128]\",\"weights\":\"f32[128,2,256]\",\"activation\":\"jax._src.nn.functions.silu\",\"precision\":\"BF16_BF16_F32\",\"return_residuals\":false}": {
    "{}": {
      "compile_time_ms": 3853.745615000008,
      "lower_time_ms": 212.6530459999998,
      "evaluation_times_ms": [
        19.052464,
        19.025163,
        19.025996,
        19.062098,
        19.042126
      ],
      "metadata": {},
      "peak_memory_mb": 33823.1296
    }
  },
  "{\"x\":\"bf16[3072,3072,64]\",\"weights\":\"bf16[64,2,128]\",\"activation\":\"jax._src.nn.functions.sigmoid\",\"precision\":\"BF16_BF16_F32\",\"return_residuals\":false}": {
    "{}": {
      "compile_time_ms": 627.2414240000046,
      "lower_time_ms": 18.626745999995364,
      "evaluation_times_ms": [
        4.46115,
        4.473056,
        4.4623349999999995,
        4.467136999999999,
        4.455806
      ],
      "metadata": {},
      "peak_memory_mb": 8455.749632
    }
  },
  "{\"x\":\"bf16[3072,3072,64]\",\"weights\":\"bf16[64,2,128]\",\"activation\":\"jax._src.nn.functions.silu\",\"precision\":\"BF16_BF16_F32\",\"return_residuals\":false}": {
    "{}": {
      "compile_time_ms": 100.83211699998174,
      "lower_time_ms": 11.113993000009259,
      "evaluation_times_ms": [
        4.466696,
        4.479242,
        4.470696,
        4.463623,
        4.468424000000001
      ],
      "metadata": {},
      "peak_memory_mb": 8455.749632
    }
  },
  "{\"x\":\"f32[5,3072,32,128]\",\"weights\":\"f32[128,2,256]\",\"activation\":\"jax._src.nn.functions.silu\",\"precision\":\"BF16_BF16_F32\",\"return_residuals\":false}": {
    "{}": {
      "compile_time_ms": 699.3058659999747,
      "lower_time_ms": 12.295749000003298,
      "evaluation_times_ms": [
        1.011312,
        1.009968,
        1.01176,
        1.010224,
        1.009904
      ],
      "metadata": {},
      "peak_memory_mb": 1761.869824
    }
  },
  "{\"x\":\"f32[3072,32,128]\",\"weights\":\"f32[128,2,256]\",\"activation\":\"jax._src.nn.functions.silu\",\"precision\":\"BF16_BF16_F32\",\"return_residuals\":false}": {
    "{}": {
      "compile_time_ms": 682.4397150000152,
      "lower_time_ms": 11.707531000013205,
      "evaluation_times_ms": [
        0.214278,
        0.21379700000000001,
        0.214534,
        0.21587800000000001,
        0.21456599999999998
      ],
      "metadata": {},
      "peak_memory_mb": 352.58368
    }
  },
  "{\"x\":\"bf16[5,3072,384]\",\"weights\":\"bf16[384,2,1536]\",\"activation\":\"jax._src.nn.functions.silu\",\"precision\":\"BF16_BF16_F32\",\"return_residuals\":false}": {
    "{}": {
      "compile_time_ms": 441.3922820000096,
      "lower_time_ms": 12.710032999990517,
      "evaluation_times_ms": [
        0.102098,
        0.100594,
        0.100466,
        0.101234,
        0.10177800000000001
      ],
      "metadata": {},
      "peak_memory_mb": 155.713536
    }
  },
  "{\"x\":\"bf16[3072,384]\",\"weights\":\"bf16[384,2,1536]\",\"activation\":\"jax._src.nn.functions.silu\",\"precision\":\"BF16_BF16_F32\",\"return_residuals\":false}": {
    "{}": {
      "compile_time_ms": 662.9496520000089,
      "lower_time_ms": 12.644751999999926,
      "evaluation_times_ms": [
        0.026597000000000003,
        0.025348,
        0.025445000000000002,
        0.025412,
        0.025411
      ],
      "metadata": {},
      "peak_memory_mb": 33.030144
    }
  },
  "{\"x\":\"f32[5,3072,384]\",\"weights\":\"f32[384,2,768]\",\"activation\":\"jax._src.nn.functions.silu\",\"precision\":\"BF16_BF16_F32\",\"return_residuals\":false}": {
    "{}": {
      "compile_time_ms": 567.0377460000111,
      "lower_time_ms": 12.128439999997909,
      "evaluation_times_ms": [
        0.10597100000000001,
        0.106546,
        0.105361,
        0.104948,
        0.105907
      ],
      "metadata": {},
      "peak_memory_mb": 180.486144
    }
  },
  "{\"x\":\"f32[3072,384]\",\"weights\":\"f32[384,2,768]\",\"activation\":\"jax._src.nn.functions.silu\",\"precision\":\"BF16_BF16_F32\",\"return_residuals\":false}": {
    "{}": {
      "compile_time_ms": 599.0218480000067,
      "lower_time_ms": 11.709286000012753,
      "evaluation_times_ms": [
        0.022019,
        0.021986,
        0.022115,
        0.022051,
        0.022533
      ],
      "metadata": {},
      "peak_memory_mb": 70.12352
    }
  },
  "{\"x\":\"f32[5,3072,768]\",\"weights\":\"f32[768,2,1536]\",\"activation\":\"jax._src.nn.functions.silu\",\"precision\":\"BF16_BF16_F32\",\"return_residuals\":false}": {
    "{}": {
      "compile_time_ms": 561.587583000005,
      "lower_time_ms": 10.709716999997454,
      "evaluation_times_ms": [
        0.23738599999999999,
        0.236394,
        0.23745,
        0.235723,
        0.235947
      ],
      "metadata": {},
      "peak_memory_mb": 368.050176
    }
  },
  "{\"x\":\"f32[3072,768]\",\"weights\":\"f32[768,2,1536]\",\"activation\":\"jax._src.nn.functions.silu\",\"precision\":\"BF16_BF16_F32\",\"return_residuals\":false}": {
    "{}": {
      "compile_time_ms": 2412.6341919999986,
      "lower_time_ms": 200.63476199999286,
      "evaluation_times_ms": [
        0.055112999999999995,
        0.054279999999999995,
        0.054505,
        0.054153,
        0.055465
      ],
      "metadata": {},
      "peak_memory_mb": 113.770496
    }
  },
  "{\"x\":\"bf16[1,3328,3328,128]\",\"weights\":\"bf16[128,2,256]\",\"activation\":\"jax._src.nn.functions.sigmoid\",\"precision\":\"BF16_BF16_F32\",\"return_residuals\":false}": {
    "{}": {
      "compile_time_ms": 3427.4565970000026,
      "lower_time_ms": 208.63594900001203,
      "evaluation_times_ms": [
        10.905382,
        10.966715,
        10.92685,
        10.979449,
        11.030064
      ],
      "metadata": {},
      "peak_memory_mb": 19847.5776
    }
  },
  "{\"x\":\"bf16[1,3328,3328,128]\",\"weights\":\"bf16[128,2,512]\",\"activation\":\"jax._src.nn.functions.silu\",\"precision\":\"BF16_BF16_F32\",\"return_residuals\":false}": {
    "{}": {
      "compile_time_ms": 1413.1306259999974,
      "lower_time_ms": 18.391439999987824,
      "evaluation_times_ms": [
        21.952894,
        21.975353,
        21.954781,
        22.010419,
        21.988439
      ],
      "metadata": {},
      "peak_memory_mb": 36859.805696
    }
  },
  "{\"x\":\"bf16[3328,3328,128]\",\"weights\":\"bf16[128,2,256]\",\"activation\":\"jax._src.nn.functions.sigmoid\",\"precision\":\"BF16_BF16_F32\",\"return_residuals\":false}": {
    "{}": {
      "compile_time_ms": 207.5558360000116,
      "lower_time_ms": 11.73654999999485,
      "evaluation_times_ms": [
        10.911435,
        10.934436999999999,
        10.89838,
        10.936645,
        10.949698999999999
      ],
      "metadata": {},
      "peak_memory_mb": 19847.5776
    }
  },
  "{\"x\":\"bf16[3328,3328,128]\",\"weights\":\"bf16[128,2,512]\",\"activation\":\"jax._src.nn.functions.silu\",\"precision\":\"BF16_BF16_F32\",\"return_residuals\":false}": {
    "{}": {
      "compile_time_ms": 207.86145799999645,
      "lower_time_ms": 12.89944999999193,
      "evaluation_times_ms": [
        22.001135,
        21.976469,
        21.972245,
        22.006560999999998,
        21.996612
      ],
      "metadata": {},
      "peak_memory_mb": 36859.805696
    }
  },
  "{\"x\":\"f32[3328,3328,128]\",\"weights\":\"f32[128,2,256]\",\"activation\":\"jax._src.nn.functions.silu\",\"precision\":\"BF16_BF16_F32\",\"return_residuals\":false}": {},
  "{\"x\":\"bf16[3328,3328,64]\",\"weights\":\"bf16[64,2,128]\",\"activation\":\"jax._src.nn.functions.sigmoid\",\"precision\":\"BF16_BF16_F32\",\"return_residuals\":false}": {
    "{}": {
      "compile_time_ms": 622.3792960000196,
      "lower_time_ms": 12.515896000024895,
      "evaluation_times_ms": [
        5.22894,
        5.22299,
        5.221613,
        5.2213259999999995,
        5.225901
      ],
      "metadata": {},
      "peak_memory_mb": 9923.756032
    }
  },
  "{\"x\":\"bf16[3328,3328,64]\",\"weights\":\"bf16[64,2,128]\",\"activation\":\"jax._src.nn.functions.silu\",\"precision\":\"BF16_BF16_F32\",\"return_residuals\":false}": {
    "{}": {
      "compile_time_ms": 100.69097299998475,
      "lower_time_ms": 10.51779199997327,
      "evaluation_times_ms": [
        5.226756,
        5.212007,
        5.212871,
        5.2165490000000005,
        5.2181809999999995
      ],
      "metadata": {},
      "peak_memory_mb": 9923.756032
    }
  },
  "{\"x\":\"f32[5,3328,32,128]\",\"weights\":\"f32[128,2,256]\",\"activation\":\"jax._src.nn.functions.silu\",\"precision\":\"BF16_BF16_F32\",\"return_residuals\":false}": {
    "{}": {
      "compile_time_ms": 754.7435060000112,
      "lower_time_ms": 11.853738000013436,
      "evaluation_times_ms": [
        1.0914709999999999,
        1.09096,
        1.0914709999999999,
        1.0960139999999998,
        1.09144
      ],
      "metadata": {},
      "peak_memory_mb": 1908.670464
    }
  },
  "{\"x\":\"f32[3328,32,128]\",\"weights\":\"f32[128,2,256]\",\"activation\":\"jax._src.nn.functions.silu\",\"precision\":\"BF16_BF16_F32\",\"return_residuals\":false}": {
    "{}": {
      "compile_time_ms": 576.3337340000021,
      "lower_time_ms": 12.512866999998096,
      "evaluation_times_ms": [
        0.236844,
        0.233132,
        0.235117,
        0.232748,
        0.236844
      ],
      "metadata": {},
      "peak_memory_mb": 381.943808
    }
  },
  "{\"x\":\"bf16[5,3328,384]\",\"weights\":\"bf16[384,2,1536]\",\"activation\":\"jax._src.nn.functions.silu\",\"precision\":\"BF16_BF16_F32\",\"return_residuals\":false}": {
    "{}": {
      "compile_time_ms": 502.96997000003785,
      "lower_time_ms": 12.336459999971794,
      "evaluation_times_ms": [
        0.10941600000000001,
        0.108936,
        0.110758,
        0.109192,
        0.108233
      ],
      "metadata": {},
      "peak_memory_mb": 168.493056
    }
  },
  "{\"x\":\"bf16[3328,384]\",\"weights\":\"bf16[384,2,1536]\",\"activation\":\"jax._src.nn.functions.silu\",\"precision\":\"BF16_BF16_F32\",\"return_residuals\":false}": {
    "{}": {
      "compile_time_ms": 3031.2713679999915,
      "lower_time_ms": 207.85230599999238,
      "evaluation_times_ms": [
        0.027238,
        0.026883999999999998,
        0.027077,
        0.027109,
        0.027139999999999997
      ],
      "metadata": {},
      "peak_memory_mb": 35.586048
    }
  },
  "{\"x\":\"f32[5,3328,384]\",\"weights\":\"f32[384,2,768]\",\"activation\":\"jax._src.nn.functions.silu\",\"precision\":\"BF16_BF16_F32\",\"return_residuals\":false}": {
    "{}": {
      "compile_time_ms": 3051.2891910000094,
      "lower_time_ms": 205.6175019999955,
      "evaluation_times_ms": [
        0.115435,
        0.116906,
        0.114667,
        0.113965,
        0.114828
      ],
      "metadata": {},
      "peak_memory_mb": 195.231744
    }
  },
  "{\"x\":\"f32[3328,384]\",\"weights\":\"f32[384,2,768]\",\"activation\":\"jax._src.nn.functions.silu\",\"precision\":\"BF16_BF16_F32\",\"return_residuals\":false}": {
    "{}": {
      "compile_time_ms": 608.1729160000009,
      "lower_time_ms": 17.568840999985014,
      "evaluation_times_ms": [
        0.023323,
        0.023516,
        0.022876,
        0.023388,
        0.023067999999999998
      ],
      "metadata": {},
      "peak_memory_mb": 72.876032
    }
  },
  "{\"x\":\"f32[5,3328,768]\",\"weights\":\"f32[768,2,1536]\",\"activation\":\"jax._src.nn.functions.silu\",\"precision\":\"BF16_BF16_F32\",\"return_residuals\":false}": {
    "{}": {
      "compile_time_ms": 509.7538089999887,
      "lower_time_ms": 11.979979000017238,
      "evaluation_times_ms": [
        0.252114,
        0.251922,
        0.25237,
        0.25185799999999997,
        0.252306
      ],
      "metadata": {},
      "peak_memory_mb": 397.541376
    }
  },
  "{\"x\":\"f32[3328,768]\",\"weights\":\"f32[768,2,1536]\",\"activation\":\"jax._src.nn.functions.silu\",\"precision\":\"BF16_BF16_F32\",\"return_residuals\":false}": {
    "{}": {
      "compile_time_ms": 627.289573000013,
      "lower_time_ms": 12.344831000007161,
      "evaluation_times_ms": [
        0.058677,
        0.05839,
        0.058326,
        0.058485999999999996,
        0.058901
      ],
      "metadata": {},
      "peak_memory_mb": 119.27552
    }
  },
  "{\"x\":\"bf16[1,3584,3584,128]\",\"weights\":\"bf16[128,2,256]\",\"activation\":\"jax._src.nn.functions.sigmoid\",\"precision\":\"BF16_BF16_F32\",\"return_residuals\":false}": {
    "{}": {
      "compile_time_ms": 1264.6339340000168,
      "lower_time_ms": 11.923010000003842,
      "evaluation_times_ms": [
        12.645488,
        12.665772,
        12.609462,
        12.620308000000001,
        12.669739
      ],
      "metadata": {},
      "peak_memory_mb": 23018.471424
    }
  },
  "{\"x\":\"bf16[1,3584,3584,128]\",\"weights\":\"bf16[128,2,512]\",\"activation\":\"jax._src.nn.functions.silu\",\"precision\":\"BF16_BF16_F32\",\"return_residuals\":false}": {},
  "{\"x\":\"bf16[3584,3584,128]\",\"weights\":\"bf16[128,2,256]\",\"activation\":\"jax._src.nn.functions.sigmoid\",\"precision\":\"BF16_BF16_F32\",\"return_residuals\":false}": {},
  "{\"x\":\"bf16[3584,3584,128]\",\"weights\":\"bf16[128,2,512]\",\"activation\":\"jax._src.nn.functions.silu\",\"precision\":\"BF16_BF16_F32\",\"return_residuals\":false}": {},
  "{\"x\":\"bf16[3584,3584,64]\",\"weights\":\"bf16[64,2,128]\",\"activation\":\"jax._src.nn.functions.sigmoid\",\"precision\":\"BF16_BF16_F32\",\"return_residuals\":false}": {},
  "{\"x\":\"bf16[3584,3584,64]\",\"weights\":\"bf16[64,2,128]\",\"activation\":\"jax._src.nn.functions.silu\",\"precision\":\"BF16_BF16_F32\",\"return_residuals\":false}": {
    "{}": {
      "compile_time_ms": 2896.4323029999973,
      "lower_time_ms": 214.13096599999903,
      "evaluation_times_ms": [
        6.056757,
        6.0534300000000005,
        6.05183,
        6.057494,
        6.049303
      ],
      "metadata": {},
      "peak_memory_mb": 11509.202944
    }
  },
  "{\"x\":\"f32[5,3584,32,128]\",\"weights\":\"f32[128,2,256]\",\"activation\":\"jax._src.nn.functions.silu\",\"precision\":\"BF16_BF16_F32\",\"return_residuals\":false}": {
    "{}": {
      "compile_time_ms": 3083.645924999985,
      "lower_time_ms": 183.913949000015,
      "evaluation_times_ms": [
        1.171634,
        1.17474,
        1.172083,
        1.171603,
        1.1718579999999998
      ],
      "metadata": {},
      "peak_memory_mb": 2055.471104
    }
  },
  "{\"x\":\"f32[3584,32,128]\",\"weights\":\"f32[128,2,256]\",\"activation\":\"jax._src.nn.functions.silu\",\"precision\":\"BF16_BF16_F32\",\"return_residuals\":false}": {
    "{}": {
      "compile_time_ms": 711.9409960000098,
      "lower_time_ms": 16.915684999986524,
      "evaluation_times_ms": [
        0.245845,
        0.247124,
        0.24702800000000003,
        0.24731599999999998,
        0.247221
      ],
      "metadata": {},
      "peak_memory_mb": 411.303936
    }
  },
  "{\"x\":\"bf16[5,3584,384]\",\"weights\":\"bf16[384,2,1536]\",\"activation\":\"jax._src.nn.functions.silu\",\"precision\":\"BF16_BF16_F32\",\"return_residuals\":false}": {
    "{}": {
      "compile_time_ms": 549.0061759999776,
      "lower_time_ms": 12.203623000004882,
      "evaluation_times_ms": [
        0.116523,
        0.11604300000000001,
        0.11572299999999999,
        0.116235,
        0.116875
      ],
      "metadata": {},
      "peak_memory_mb": 181.272576
    }
  },
  "{\"x\":\"bf16[3584,384]\",\"weights\":\"bf16[384,2,1536]\",\"activation\":\"jax._src.nn.functions.silu\",\"precision\":\"BF16_BF16_F32\",\"return_residuals\":false}": {
    "{}": {
      "compile_time_ms": 659.0378420000036,
      "lower_time_ms": 12.487533000012263,
      "evaluation_times_ms": [
        0.02905,
        0.028443000000000003,
        0.02921,
        0.028795,
        0.028634
      ],
      "metadata": {},
      "peak_memory_mb": 38.141952
    }
  },
  "{\"x\":\"f32[5,3584,384]\",\"weights\":\"f32[384,2,768]\",\"activation\":\"jax._src.nn.functions.silu\",\"precision\":\"BF16_BF16_F32\",\"return_residuals\":false}": {
    "{}": {
      "compile_time_ms": 561.4181379999934,
      "lower_time_ms": 11.716977000020279,
      "evaluation_times_ms": [
        0.121865,
        0.12161,
        0.12292099999999999,
        0.121739,
        0.12225
      ],
      "metadata": {},
      "peak_memory_mb": 209.977344
    }
  },
  "{\"x\":\"f32[3584,384]\",\"weights\":\"f32[384,2,768]\",\"activation\":\"jax._src.nn.functions.silu\",\"precision\":\"BF16_BF16_F32\",\"return_residuals\":false}": {
    "{}": {
      "compile_time_ms": 593.3040399999925,
      "lower_time_ms": 12.006864999989375,
      "evaluation_times_ms": [
        0.026105999999999997,
        0.026299,
        0.026106,
        0.026042,
        0.025883999999999997
      ],
      "metadata": {},
      "peak_memory_mb": 75.628544
    }
  },
  "{\"x\":\"f32[5,3584,768]\",\"weights\":\"f32[768,2,1536]\",\"activation\":\"jax._src.nn.functions.silu\",\"precision\":\"BF16_BF16_F32\",\"return_residuals\":false}": {
    "{}": {
      "compile_time_ms": 593.0665989999966,
      "lower_time_ms": 10.732561000025953,
      "evaluation_times_ms": [
        0.273197,
        0.272302,
        0.274381,
        0.274701,
        0.273262
      ],
      "metadata": {},
      "peak_memory_mb": 427.032576
    }
  },
  "{\"x\":\"f32[3584,768]\",\"weights\":\"f32[768,2,1536]\",\"activation\":\"jax._src.nn.functions.silu\",\"precision\":\"BF16_BF16_F32\",\"return_residuals\":false}": {
    "{}": {
      "compile_time_ms": 617.3831860000121,
      "lower_time_ms": 10.577611999991632,
      "evaluation_times_ms": [
        0.067922,
        0.06802,
        0.06737800000000001,
        0.067412,
        0.067603
      ],
      "metadata": {},
      "peak_memory_mb": 124.780544
    }
  },
  "{\"x\":\"bf16[1,3840,3840,128]\",\"weights\":\"bf16[128,2,256]\",\"activation\":\"jax._src.nn.functions.sigmoid\",\"precision\":\"BF16_BF16_F32\",\"return_residuals\":false}": {
    "{}": {
      "compile_time_ms": 1375.7053090000113,
      "lower_time_ms": 12.199720000012348,
      "evaluation_times_ms": [
        14.827231000000001,
        14.826910999999999,
        14.842362999999999,
        14.806819,
        14.832798
      ],
      "metadata": {},
      "peak_memory_mb": 26424.246272
    }
  },
  "{\"x\":\"bf16[1,3840,3840,128]\",\"weights\":\"bf16[128,2,512]\",\"activation\":\"jax._src.nn.functions.silu\",\"precision\":\"BF16_BF16_F32\",\"return_residuals\":false}": {},
  "{\"x\":\"bf16[3840,3840,128]\",\"weights\":\"bf16[128,2,256]\",\"activation\":\"jax._src.nn.functions.sigmoid\",\"precision\":\"BF16_BF16_F32\",\"return_residuals\":false}": {
    "{}": {
      "compile_time_ms": 2666.592652996769,
      "lower_time_ms": 143.74241899349727,
      "evaluation_times_ms": [
        14.469854999999999,
        14.495455,
        14.459519,
        14.508096,
        14.490366999999999
      ],
      "metadata": {},
      "peak_memory_mb": 26424.246272
    }
  },
  "{\"x\":\"bf16[3840,3840,128]\",\"weights\":\"bf16[128,2,512]\",\"activation\":\"jax._src.nn.functions.silu\",\"precision\":\"BF16_BF16_F32\",\"return_residuals\":false}": {},
  "{\"x\":\"f32[3840,3840,128]\",\"weights\":\"f32[128,2,256]\",\"activation\":\"jax._src.nn.functions.silu\",\"precision\":\"BF16_BF16_F32\",\"return_residuals\":false}": {},
  "{\"x\":\"bf16[3840,3840,64]\",\"weights\":\"bf16[64,2,128]\",\"activation\":\"jax._src.nn.functions.sigmoid\",\"precision\":\"BF16_BF16_F32\",\"return_residuals\":false}": {
    "{}": {
      "compile_time_ms": 774.8314720000167,
      "lower_time_ms": 12.753696999993736,
      "evaluation_times_ms": [
        6.9924599999999995,
        6.982025999999999,
        6.9839459999999995,
        6.9856110000000005,
        6.997742000000001
      ],
      "metadata": {},
      "peak_memory_mb": 13212.090368
    }
  },
  "{\"x\":\"bf16[3840,3840,64]\",\"weights\":\"bf16[64,2,128]\",\"activation\":\"jax._src.nn.functions.silu\",\"precision\":\"BF16_BF16_F32\",\"return_residuals\":false}": {
    "{}": {
      "compile_time_ms": 102.22867600003838,
      "lower_time_ms": 10.540971999944304,
      "evaluation_times_ms": [
        6.9789639999999995,
        6.993366,
        6.986454,
        6.98751,
        6.992343
      ],
      "metadata": {},
      "peak_memory_mb": 13212.090368
    }
  },
  "{\"x\":\"f32[5,3840,32,128]\",\"weights\":\"f32[128,2,256]\",\"activation\":\"jax._src.nn.functions.silu\",\"precision\":\"BF16_BF16_F32\",\"return_residuals\":false}": {
    "{}": {
      "compile_time_ms": 714.0308139999547,
      "lower_time_ms": 11.930833999997503,
      "evaluation_times_ms": [
        1.259258,
        1.260761,
        1.260186,
        1.257433,
        1.259609
      ],
      "metadata": {},
      "peak_memory_mb": 2202.271744
    }
  },
  "{\"x\":\"f32[3840,32,128]\",\"weights\":\"f32[128,2,256]\",\"activation\":\"jax._src.nn.functions.silu\",\"precision\":\"BF16_BF16_F32\",\"return_residuals\":false}": {
    "{}": {
      "compile_time_ms": 688.086965000025,
      "lower_time_ms": 12.332381999954123,
      "evaluation_times_ms": [
        0.26598,
        0.263931,
        0.264955,
        0.264827,
        0.265339
      ],
      "metadata": {},
      "peak_memory_mb": 440.664064
    }
  },
  "{\"x\":\"bf16[5,3840,384]\",\"weights\":\"bf16[384,2,1536]\",\"activation\":\"jax._src.nn.functions.silu\",\"precision\":\"BF16_BF16_F32\",\"return_residuals\":false}": {
    "{}": {
      "compile_time_ms": 476.04419800001097,
      "lower_time_ms": 12.495901000022513,
      "evaluation_times_ms": [
        0.12534,
        0.124445,
        0.12678,
        0.126492,
        0.126333
      ],
      "metadata": {},
      "peak_memory_mb": 194.052096
    }
  },
  "{\"x\":\"bf16[3840,384]\",\"weights\":\"bf16[384,2,1536]\",\"activation\":\"jax._src.nn.functions.silu\",\"precision\":\"BF16_BF16_F32\",\"return_residuals\":false}": {
    "{}": {
      "compile_time_ms": 697.7115320000848,
      "lower_time_ms": 12.627438999970764,
      "evaluation_times_ms": [
        0.029894999999999998,
        0.030311,
        0.029767000000000002,
        0.029767,
        0.029831
      ],
      "metadata": {},
      "peak_memory_mb": 40.697856
    }
  },
  "{\"x\":\"f32[5,3840,384]\",\"weights\":\"f32[384,2,768]\",\"activation\":\"jax._src.nn.functions.silu\",\"precision\":\"BF16_BF16_F32\",\"return_residuals\":false}": {
    "{}": {
      "compile_time_ms": 601.1642309999843,
      "lower_time_ms": 11.625998999988951,
      "evaluation_times_ms": [
        0.130078,
        0.131327,
        0.131966,
        0.130366,
        0.130462
      ],
      "metadata": {},
      "peak_memory_mb": 224.722944
    }
  },
  "{\"x\":\"f32[3840,384]\",\"weights\":\"f32[384,2,768]\",\"activation\":\"jax._src.nn.functions.silu\",\"precision\":\"BF16_BF16_F32\",\"return_residuals\":false}": {
    "{}": {
      "compile_time_ms": 568.542549999961,
      "lower_time_ms": 12.017131999982666,
      "evaluation_times_ms": [
        0.026726,
        0.026343,
        0.026822,
        0.026438,
        0.02727
      ],
      "metadata": {},
      "peak_memory_mb": 78.381056
    }
  },
  "{\"x\":\"f32[5,3840,768]\",\"weights\":\"f32[768,2,1536]\",\"activation\":\"jax._src.nn.functions.silu\",\"precision\":\"BF16_BF16_F32\",\"return_residuals\":false}": {
    "{}": {
      "compile_time_ms": 3070.7178799999892,
      "lower_time_ms": 251.56118099999958,
      "evaluation_times_ms": [
        0.287372,
        0.289805,
        0.290124,
        0.28830100000000003,
        0.289293
      ],
      "metadata": {},
      "peak_memory_mb": 456.523776
    }
  },
  "{\"x\":\"f32[3840,768]\",\"weights\":\"f32[768,2,1536]\",\"activation\":\"jax._src.nn.functions.silu\",\"precision\":\"BF16_BF16_F32\",\"return_residuals\":false}": {
    "{}": {
      "compile_time_ms": 3032.219382000008,
      "lower_time_ms": 208.56637300001069,
      "evaluation_times_ms": [
        0.069493,
        0.067986,
        0.068275,
        0.067955,
        0.067861
      ],
      "metadata": {},
      "peak_memory_mb": 130.285568
    }
  },
  "{\"x\":\"bf16[1,4096,4096,128]\",\"weights\":\"bf16[128,2,256]\",\"activation\":\"jax._src.nn.functions.sigmoid\",\"precision\":\"BF16_BF16_F32\",\"return_residuals\":false}": {
    "{}": {
      "compile_time_ms": 1503.6391510000158,
      "lower_time_ms": 17.15578600001777,
      "evaluation_times_ms": [
        16.493312000000003,
        16.519867,
        16.460102,
        16.601165,
        16.69126
      ],
      "metadata": {},
      "peak_memory_mb": 30064.902144
    }
  },
  "{\"x\":\"bf16[1,4096,4096,128]\",\"weights\":\"bf16[128,2,512]\",\"activation\":\"jax._src.nn.functions.silu\",\"precision\":\"BF16_BF16_F32\",\"return_residuals\":false}": {},
  "{\"x\":\"bf16[4096,4096,128]\",\"weights\":\"bf16[128,2,256]\",\"activation\":\"jax._src.nn.functions.sigmoid\",\"precision\":\"BF16_BF16_F32\",\"return_residuals\":false}": {
    "{}": {
      "compile_time_ms": 218.02834700002904,
      "lower_time_ms": 12.790069999994103,
      "evaluation_times_ms": [
        16.534943,
        16.652262999999998,
        16.63873,
        16.637513,
        16.519458
      ],
      "metadata": {},
      "peak_memory_mb": 30064.902144
    }
  },
  "{\"x\":\"bf16[4096,4096,128]\",\"weights\":\"bf16[128,2,512]\",\"activation\":\"jax._src.nn.functions.silu\",\"precision\":\"BF16_BF16_F32\",\"return_residuals\":false}": {},
  "{\"x\":\"f32[4096,4096,128]\",\"weights\":\"f32[128,2,256]\",\"activation\":\"jax._src.nn.functions.silu\",\"precision\":\"BF16_BF16_F32\",\"return_residuals\":false}": {},
  "{\"x\":\"bf16[4096,4096,64]\",\"weights\":\"bf16[64,2,128]\",\"activation\":\"jax._src.nn.functions.sigmoid\",\"precision\":\"BF16_BF16_F32\",\"return_residuals\":false}": {
    "{}": {
      "compile_time_ms": 792.2608130000981,
      "lower_time_ms": 11.808224999981576,
      "evaluation_times_ms": [
        7.907392,
        7.906432000000001,
        7.908576,
        7.9081589999999995,
        7.907102999999999
      ],
      "metadata": {},
      "peak_memory_mb": 15032.418304
    }
  },
  "{\"x\":\"bf16[4096,4096,64]\",\"weights\":\"bf16[64,2,128]\",\"activation\":\"jax._src.nn.functions.silu\",\"precision\":\"BF16_BF16_F32\",\"return_residuals\":false}": {
    "{}": {
      "compile_time_ms": 103.42831500008742,
      "lower_time_ms": 11.194279999926948,
      "evaluation_times_ms": [
        7.910762,
        7.898223,
        7.903758,
        7.905133,
        7.906827999999999
      ],
      "metadata": {},
      "peak_memory_mb": 15032.418304
    }
  },
  "{\"x\":\"f32[5,4096,32,128]\",\"weights\":\"f32[128,2,256]\",\"activation\":\"jax._src.nn.functions.silu\",\"precision\":\"BF16_BF16_F32\",\"return_residuals\":false}": {
    "{}": {
      "compile_time_ms": 751.9752030000291,
      "lower_time_ms": 11.969823999947948,
      "evaluation_times_ms": [
        1.3385340000000001,
        1.341798,
        1.342277,
        1.3363580000000002,
        1.3391739999999999
      ],
      "metadata": {},
      "peak_memory_mb": 2349.072384
    }
  },
  "{\"x\":\"f32[4096,32,128]\",\"weights\":\"f32[128,2,256]\",\"activation\":\"jax._src.nn.functions.silu\",\"precision\":\"BF16_BF16_F32\",\"return_residuals\":false}": {
    "{}": {
      "compile_time_ms": 685.6506369999806,
      "lower_time_ms": 12.649472000020978,
      "evaluation_times_ms": [
        0.281776,
        0.282895,
        0.28312000000000004,
        0.282225,
        0.283215
      ],
      "metadata": {},
      "peak_memory_mb": 470.024192
    }
  },
  "{\"x\":\"bf16[5,4096,384]\",\"weights\":\"bf16[384,2,1536]\",\"activation\":\"jax._src.nn.functions.silu\",\"precision\":\"BF16_BF16_F32\",\"return_residuals\":false}": {
    "{}": {
      "compile_time_ms": 3074.1102369999994,
      "lower_time_ms": 206.71706000000256,
      "evaluation_times_ms": [
        0.13499899999999998,
        0.133015,
        0.134327,
        0.133527,
        0.134038
      ],
      "metadata": {},
      "peak_memory_mb": 206.831616
    }
  },
  "{\"x\":\"f32[5,768,32,128]\",\"weights\":\"f32[128,2,256]\",\"activation\":\"jax._src.nn.functions.silu\",\"precision\":\"BF16_BF16_F32\",\"return_residuals\":false}": {
    "{}": {
      "compile_time_ms": 3474.127605000007,
      "lower_time_ms": 177.42549400000485,
      "evaluation_times_ms": [
        0.267471,
        0.264719,
        0.265585,
        0.265231,
        0.264816
      ],
      "metadata": {},
      "peak_memory_mb": 440.664064
    }
  },
  "{\"x\":\"f32[768,32,128]\",\"weights\":\"f32[128,2,256]\",\"activation\":\"jax._src.nn.functions.silu\",\"precision\":\"BF16_BF16_F32\",\"return_residuals\":false}": {
    "{}": {
      "compile_time_ms": 645.9364950000008,
      "lower_time_ms": 16.572531999997864,
      "evaluation_times_ms": [
        0.056915999999999994,
        0.057653,
        0.056919,
        0.058644,
        0.057332999999999995
      ],
      "metadata": {},
      "peak_memory_mb": 88.342528
    }
  },
  "{\"x\":\"bf16[5,768,384]\",\"weights\":\"bf16[384,2,1536]\",\"activation\":\"jax._src.nn.functions.silu\",\"precision\":\"BF16_BF16_F32\",\"return_residuals\":false}": {
    "{}": {
      "compile_time_ms": 729.3711300000041,
      "lower_time_ms": 12.173868000019183,
      "evaluation_times_ms": [
        0.030427,
        0.030107000000000002,
        0.030458,
        0.030361,
        0.030618
      ],
      "metadata": {},
      "peak_memory_mb": 40.697856
    }
  },
  "{\"x\":\"bf16[768,384]\",\"weights\":\"bf16[384,2,1536]\",\"activation\":\"jax._src.nn.functions.silu\",\"precision\":\"BF16_BF16_F32\",\"return_residuals\":false}": {
    "{}": {
      "compile_time_ms": 576.4646810000045,
      "lower_time_ms": 12.441279000000804,
      "evaluation_times_ms": [
        0.008479,
        0.008447,
        0.008607,
        0.008605,
        0.008574
      ],
      "metadata": {},
      "peak_memory_mb": 10.027008
    }
  },
  "{\"x\":\"f32[5,768,384]\",\"weights\":\"f32[384,2,768]\",\"activation\":\"jax._src.nn.functions.silu\",\"precision\":\"BF16_BF16_F32\",\"return_residuals\":false}": {
    "{}": {
      "compile_time_ms": 572.9418299999907,
      "lower_time_ms": 11.543146999997589,
      "evaluation_times_ms": [
        0.026396,
        0.026651,
        0.026778,
        0.026746,
        0.02665
      ],
      "metadata": {},
      "peak_memory_mb": 78.381056
    }
  },
  "{\"x\":\"f32[768,384]\",\"weights\":\"f32[384,2,768]\",\"activation\":\"jax._src.nn.functions.silu\",\"precision\":\"BF16_BF16_F32\",\"return_residuals\":false}": {
    "{}": {
      "compile_time_ms": 843.7545529999966,
      "lower_time_ms": 12.04710900000805,
      "evaluation_times_ms": [
        0.01171,
        0.01171,
        0.011774,
        0.011742,
        0.011678000000000001
      ],
      "metadata": {},
      "peak_memory_mb": 10.616832
    }
  },
  "{\"x\":\"f32[5,768,768]\",\"weights\":\"f32[768,2,1536]\",\"activation\":\"jax._src.nn.functions.silu\",\"precision\":\"BF16_BF16_F32\",\"return_residuals\":false}": {
    "{}": {
      "compile_time_ms": 561.2354740000001,
      "lower_time_ms": 10.439969999993082,
      "evaluation_times_ms": [
        0.069555,
        0.06779299999999999,
        0.068436,
        0.068627,
        0.068913
      ],
      "metadata": {},
      "peak_memory_mb": 130.285568
    }
  },
  "{\"x\":\"f32[768,768]\",\"weights\":\"f32[768,2,1536]\",\"activation\":\"jax._src.nn.functions.silu\",\"precision\":\"BF16_BF16_F32\",\"return_residuals\":false}": {
    "{}": {
      "compile_time_ms": 609.274997,
      "lower_time_ms": 10.215376000019205,
      "evaluation_times_ms": [
        0.018525,
        0.018333000000000002,
        0.01814,
        0.018142000000000002,
        0.018173
      ],
      "metadata": {},
      "peak_memory_mb": 60.686336
    }
  },
  "{\"x\":\"bf16[1,1024,1024,128]\",\"weights\":\"bf16[128,2,256]\",\"activation\":\"jax._src.nn.functions.sigmoid\",\"precision\":\"BF16_BF16_F32\",\"return_residuals\":false}": {
    "{}": {
      "compile_time_ms": 516.90930999996,
      "lower_time_ms": 12.016818000006424,
      "evaluation_times_ms": [
        1.03646,
        1.048778,
        1.056041,
        1.0442040000000001,
        1.047339
      ],
      "metadata": {},
      "peak_memory_mb": 1879.179264
    }
  },
  "{\"x\":\"bf16[1,1024,1024,128]\",\"weights\":\"bf16[128,2,512]\",\"activation\":\"jax._src.nn.functions.silu\",\"precision\":\"BF16_BF16_F32\",\"return_residuals\":false}": {
    "{}": {
      "compile_time_ms": 273.9954580000017,
      "lower_time_ms": 12.366317999976673,
      "evaluation_times_ms": [
        2.084626,
        2.08533,
        2.079828,
        2.089713,
        2.091089
      ],
      "metadata": {},
      "peak_memory_mb": 3489.923072
    }
  },
  "{\"x\":\"bf16[1024,1024,128]\",\"weights\":\"bf16[128,2,256]\",\"activation\":\"jax._src.nn.functions.sigmoid\",\"precision\":\"BF16_BF16_F32\",\"return_residuals\":false}": {
    "{}": {
      "compile_time_ms": 2255.4175140103325,
      "lower_time_ms": 154.68159003648907,
      "evaluation_times_ms": [
        1.0322580000000001,
        1.039906,
        1.051233,
        1.041953,
        1.0500180000000001
      ],
      "metadata": {},
      "peak_memory_mb": 1879.179264
    }
  },
  "{\"x\":\"bf16[4096,384]\",\"weights\":\"bf16[384,2,1536]\",\"activation\":\"jax._src.nn.functions.silu\",\"precision\":\"BF16_BF16_F32\",\"return_residuals\":false}": {
    "{}": {
      "compile_time_ms": 3338.1710639999937,
      "lower_time_ms": 213.95302499999502,
      "evaluation_times_ms": [
        0.031835,
        0.031225999999999997,
        0.031609,
        0.031259,
        0.030872999999999998
      ],
      "metadata": {},
      "peak_memory_mb": 43.25376
    }
  },
  "{\"x\":\"f32[5,4096,384]\",\"weights\":\"f32[384,2,768]\",\"activation\":\"jax._src.nn.functions.silu\",\"precision\":\"BF16_BF16_F32\",\"return_residuals\":false}": {
    "{}": {
      "compile_time_ms": 724.5599029999994,
      "lower_time_ms": 18.54688299999907,
      "evaluation_times_ms": [
        0.138053,
        0.13725400000000001,
        0.137735,
        0.137831,
        0.138215
      ],
      "metadata": {},
      "peak_memory_mb": 239.468544
    }
  },
  "{\"x\":\"f32[4096,384]\",\"weights\":\"f32[384,2,768]\",\"activation\":\"jax._src.nn.functions.silu\",\"precision\":\"BF16_BF16_F32\",\"return_residuals\":false}": {
    "{}": {
      "compile_time_ms": 595.2684829999839,
      "lower_time_ms": 12.22985599997628,
      "evaluation_times_ms": [
        0.02937,
        0.029114,
        0.030137999999999998,
        0.029722000000000002,
        0.029116
      ],
      "metadata": {},
      "peak_memory_mb": 81.133568
    }
  },
  "{\"x\":\"f32[5,4096,768]\",\"weights\":\"f32[768,2,1536]\",\"activation\":\"jax._src.nn.functions.silu\",\"precision\":\"BF16_BF16_F32\",\"return_residuals\":false}": {
    "{}": {
      "compile_time_ms": 622.5560400000063,
      "lower_time_ms": 12.653794999977208,
      "evaluation_times_ms": [
        0.307719,
        0.307623,
        0.308678,
        0.308423,
        0.30852
      ],
      "metadata": {},
      "peak_memory_mb": 486.014976
    }
  },
  "{\"x\":\"f32[4096,768]\",\"weights\":\"f32[768,2,1536]\",\"activation\":\"jax._src.nn.functions.silu\",\"precision\":\"BF16_BF16_F32\",\"return_residuals\":false}": {
    "{}": {
      "compile_time_ms": 547.6300070000093,
      "lower_time_ms": 11.391365999998015,
      "evaluation_times_ms": [
        0.070194,
        0.070867,
        0.06968200000000001,
        0.069747,
        0.070642
      ],
      "metadata": {},
      "peak_memory_mb": 135.790592
    }
  },
  "{\"x\":\"bf16[1,4352,4352,128]\",\"weights\":\"bf16[128,2,256]\",\"activation\":\"jax._src.nn.functions.sigmoid\",\"precision\":\"BF16_BF16_F32\",\"return_residuals\":false}": {
    "{}": {
      "compile_time_ms": 1458.787617000013,
      "lower_time_ms": 11.885573999990129,
      "evaluation_times_ms": [
        18.794584,
        18.776348,
        18.826163,
        18.73402,
        18.668976
      ],
      "metadata": {},
      "peak_memory_mb": 33940.43904
    }
  },
  "{\"x\":\"bf16[1,4352,4352,128]\",\"weights\":\"bf16[128,2,512]\",\"activation\":\"jax._src.nn.functions.silu\",\"precision\":\"BF16_BF16_F32\",\"return_residuals\":false}": {},
  "{\"x\":\"bf16[4352,4352,128]\",\"weights\":\"bf16[128,2,256]\",\"activation\":\"jax._src.nn.functions.sigmoid\",\"precision\":\"BF16_BF16_F32\",\"return_residuals\":false}": {
    "{}": {
      "compile_time_ms": 219.63436199996522,
      "lower_time_ms": 11.727722999978596,
      "evaluation_times_ms": [
        18.724975,
        18.626117,
        18.768677,
        18.419475,
        18.56661
      ],
      "metadata": {},
      "peak_memory_mb": 33940.43904
    }
  },
  "{\"x\":\"bf16[4352,4352,128]\",\"weights\":\"bf16[128,2,512]\",\"activation\":\"jax._src.nn.functions.silu\",\"precision\":\"BF16_BF16_F32\",\"return_residuals\":false}": {},
  "{\"x\":\"bf16[4352,4352,64]\",\"weights\":\"bf16[64,2,128]\",\"activation\":\"jax._src.nn.functions.sigmoid\",\"precision\":\"BF16_BF16_F32\",\"return_residuals\":false}": {
    "{}": {
      "compile_time_ms": 2481.1402360000016,
      "lower_time_ms": 219.24823000000515,
      "evaluation_times_ms": [
        8.926009,
        8.933661,
        8.924441,
        8.924601,
        8.923705
      ],
      "metadata": {},
      "peak_memory_mb": 16970.186752
    }
  },
  "{\"x\":\"bf16[4352,4352,64]\",\"weights\":\"bf16[64,2,128]\",\"activation\":\"jax._src.nn.functions.silu\",\"precision\":\"BF16_BF16_F32\",\"return_residuals\":false}": {
    "{}": {
      "compile_time_ms": 3201.0084209999973,
      "lower_time_ms": 208.00203400000328,
      "evaluation_times_ms": [
        8.922324,
        8.912695,
        8.920373,
        8.924116,
        8.923252000000002
      ],
      "metadata": {},
      "peak_memory_mb": 16970.186752
    }
  },
  "{\"x\":\"f32[5,4352,32,128]\",\"weights\":\"f32[128,2,256]\",\"activation\":\"jax._src.nn.functions.silu\",\"precision\":\"BF16_BF16_F32\",\"return_residuals\":false}": {
    "{}": {
      "compile_time_ms": 821.1935889999893,
      "lower_time_ms": 16.53961699997808,
      "evaluation_times_ms": [
        1.418952,
        1.4327429999999999,
        1.4175119999999999,
        1.436229,
        1.4310779999999999
      ],
      "metadata": {},
      "peak_memory_mb": 2495.873024
    }
  },
  "{\"x\":\"f32[4352,32,128]\",\"weights\":\"f32[128,2,256]\",\"activation\":\"jax._src.nn.functions.silu\",\"precision\":\"BF16_BF16_F32\",\"return_residuals\":false}": {
    "{}": {
      "compile_time_ms": 712.302770000008,
      "lower_time_ms": 11.56178200000113,
      "evaluation_times_ms": [
        0.29706699999999997,
        0.299115,
        0.296396,
        0.297452,
        0.29889299999999996
      ],
      "metadata": {},
      "peak_memory_mb": 499.38432
    }
  },
  "{\"x\":\"bf16[5,4352,384]\",\"weights\":\"bf16[384,2,1536]\",\"activation\":\"jax._src.nn.functions.silu\",\"precision\":\"BF16_BF16_F32\",\"return_residuals\":false}": {
    "{}": {
      "compile_time_ms": 612.6713020000238,
      "lower_time_ms": 12.463421000006747,
      "evaluation_times_ms": [
        0.143943,
        0.144391,
        0.144359,
        0.142727,
        0.14349499999999998
      ],
      "metadata": {},
      "peak_memory_mb": 219.611136
    }
  },
  "{\"x\":\"bf16[4352,384]\",\"weights\":\"bf16[384,2,1536]\",\"activation\":\"jax._src.nn.functions.silu\",\"precision\":\"BF16_BF16_F32\",\"return_residuals\":false}": {
    "{}": {
      "compile_time_ms": 671.2605330000088,
      "lower_time_ms": 12.103359999997565,
      "evaluation_times_ms": [
        0.034362,
        0.034043000000000004,
        0.034489,
        0.034491,
        0.03385
      ],
      "metadata": {},
      "peak_memory_mb": 45.809664
    }
  },
  "{\"x\":\"f32[5,4352,384]\",\"weights\":\"f32[384,2,768]\",\"activation\":\"jax._src.nn.functions.silu\",\"precision\":\"BF16_BF16_F32\",\"return_residuals\":false}": {
    "{}": {
      "compile_time_ms": 544.3615199999954,
      "lower_time_ms": 11.991094999984853,
      "evaluation_times_ms": [
        0.145095,
        0.144806,
        0.146182,
        0.147014,
        0.146727
      ],
      "metadata": {},
      "peak_memory_mb": 254.214144
    }
  },
  "{\"x\":\"f32[4352,384]\",\"weights\":\"f32[384,2,768]\",\"activation\":\"jax._src.nn.functions.silu\",\"precision\":\"BF16_BF16_F32\",\"return_residuals\":false}": {
    "{}": {
      "compile_time_ms": 592.8511999999841,
      "lower_time_ms": 11.510235999992346,
      "evaluation_times_ms": [
        0.029819000000000002,
        0.030202,
        0.029499,
        0.030234,
        0.030137999999999998
      ],
      "metadata": {},
      "peak_memory_mb": 83.88608
    }
  },
  "{\"x\":\"f32[5,4352,768]\",\"weights\":\"f32[768,2,1536]\",\"activation\":\"jax._src.nn.functions.silu\",\"precision\":\"BF16_BF16_F32\",\"return_residuals\":false}": {
    "{}": {
      "compile_time_ms": 582.420452000008,
      "lower_time_ms": 10.53788400000144,
      "evaluation_times_ms": [
        0.32579800000000003,
        0.328038,
        0.32695,
        0.327143,
        0.326246
      ],
      "metadata": {},
      "peak_memory_mb": 515.506176
    }
  },
  "{\"x\":\"f32[4352,768]\",\"weights\":\"f32[768,2,1536]\",\"activation\":\"jax._src.nn.functions.silu\",\"precision\":\"BF16_BF16_F32\",\"return_residuals\":false}": {
    "{}": {
      "compile_time_ms": 608.8059129999976,
      "lower_time_ms": 10.969818000006626,
      "evaluation_times_ms": [
        0.075602,
        0.075186,
        0.075699,
        0.074995,
        0.075665
      ],
      "metadata": {},
      "peak_memory_mb": 141.295616
    }
  },
  "{\"x\":\"bf16[1,4608,4608,128]\",\"weights\":\"bf16[128,2,256]\",\"activation\":\"jax._src.nn.functions.sigmoid\",\"precision\":\"BF16_BF16_F32\",\"return_residuals\":false}": {
    "{}": {
      "compile_time_ms": 1613.8002090000043,
      "lower_time_ms": 11.73340599999051,
      "evaluation_times_ms": [
        21.12586,
        21.071213999999998,
        21.09393,
        21.380693,
        21.353306
      ],
      "metadata": {},
      "peak_memory_mb": 38050.85696
    }
  },
  "{\"x\":\"bf16[1,4608,4608,128]\",\"weights\":\"bf16[128,2,512]\",\"activation\":\"jax._src.nn.functions.silu\",\"precision\":\"BF16_BF16_F32\",\"return_residuals\":false}": {},
  "{\"x\":\"bf16[4608,4608,128]\",\"weights\":\"bf16[128,2,256]\",\"activation\":\"jax._src.nn.functions.sigmoid\",\"precision\":\"BF16_BF16_F32\",\"return_residuals\":false}": {
    "{}": {
      "compile_time_ms": 3749.4878510000262,
      "lower_time_ms": 183.04293399998528,
      "evaluation_times_ms": [
        20.913556999999997,
        20.880592,
        21.042314,
        21.044043000000002,
        21.056397
      ],
      "metadata": {},
      "peak_memory_mb": 38050.85696
    }
  },
  "{\"x\":\"bf16[4608,4608,128]\",\"weights\":\"bf16[128,2,512]\",\"activation\":\"jax._src.nn.functions.silu\",\"precision\":\"BF16_BF16_F32\",\"return_residuals\":false}": {},
  "{\"x\":\"bf16[4608,4608,64]\",\"weights\":\"bf16[64,2,128]\",\"activation\":\"jax._src.nn.functions.sigmoid\",\"precision\":\"BF16_BF16_F32\",\"return_residuals\":false}": {
    "{}": {
      "compile_time_ms": 3000.992432999993,
      "lower_time_ms": 210.51334899999574,
      "evaluation_times_ms": [
        10.004565,
        10.007925,
        10.010966,
        10.01199,
        10.013622000000002
      ],
      "metadata": {},
      "peak_memory_mb": 19025.395712
    }
  },
  "{\"x\":\"bf16[4608,4608,64]\",\"weights\":\"bf16[64,2,128]\",\"activation\":\"jax._src.nn.functions.silu\",\"precision\":\"BF16_BF16_F32\",\"return_residuals\":false}": {
    "{}": {
      "compile_time_ms": 3278.8647699999983,
      "lower_time_ms": 209.01558799999975,
      "evaluation_times_ms": [
        10.004794,
        10.000248,
        10.002329,
        10.002426,
        10.004249999999999
      ],
      "metadata": {},
      "peak_memory_mb": 19025.395712
    }
  },
  "{\"x\":\"f32[5,4608,32,128]\",\"weights\":\"f32[128,2,256]\",\"activation\":\"jax._src.nn.functions.silu\",\"precision\":\"BF16_BF16_F32\",\"return_residuals\":false}": {
    "{}": {
      "compile_time_ms": 789.1404259999888,
      "lower_time_ms": 18.23559400000363,
      "evaluation_times_ms": [
        1.506226,
        1.50485,
        1.514452,
        1.504753,
        1.504113
      ],
      "metadata": {},
      "peak_memory_mb": 2642.673664
    }
  },
  "{\"x\":\"f32[4608,32,128]\",\"weights\":\"f32[128,2,256]\",\"activation\":\"jax._src.nn.functions.silu\",\"precision\":\"BF16_BF16_F32\",\"return_residuals\":false}": {
    "{}": {
      "compile_time_ms": 863.1450590000043,
      "lower_time_ms": 11.907460000003312,
      "evaluation_times_ms": [
        0.31496999999999997,
        0.31513,
        0.314233,
        0.314299,
        0.313818
      ],
      "metadata": {},
      "peak_memory_mb": 528.744448
    }
  },
  "{\"x\":\"bf16[5,4608,384]\",\"weights\":\"bf16[384,2,1536]\",\"activation\":\"jax._src.nn.functions.silu\",\"precision\":\"BF16_BF16_F32\",\"return_residuals\":false}": {
    "{}": {
      "compile_time_ms": 484.12793899998974,
      "lower_time_ms": 12.828423000001976,
      "evaluation_times_ms": [
        0.15718100000000002,
        0.15865400000000002,
        0.157182,
        0.158333,
        0.158045
      ],
      "metadata": {},
      "peak_memory_mb": 232.390656
    }
  },
  "{\"x\":\"bf16[4608,384]\",\"weights\":\"bf16[384,2,1536]\",\"activation\":\"jax._src.nn.functions.silu\",\"precision\":\"BF16_BF16_F32\",\"return_residuals\":false}": {
    "{}": {
      "compile_time_ms": 691.5818599999852,
      "lower_time_ms": 12.441959000000224,
      "evaluation_times_ms": [
        0.037863,
        0.038055000000000005,
        0.037159,
        0.036967,
        0.038248
      ],
      "metadata": {},
      "peak_memory_mb": 48.365568
    }
  },
  "{\"x\":\"f32[5,4608,384]\",\"weights\":\"f32[384,2,768]\",\"activation\":\"jax._src.nn.functions.silu\",\"precision\":\"BF16_BF16_F32\",\"return_residuals\":false}": {
    "{}": {
      "compile_time_ms": 654.7758730000055,
      "lower_time_ms": 12.492370000018127,
      "evaluation_times_ms": [
        0.153405,
        0.153149,
        0.154462,
        0.153086,
        0.154397
      ],
      "metadata": {},
      "peak_memory_mb": 268.959744
    }
  },
  "{\"x\":\"f32[4608,384]\",\"weights\":\"f32[384,2,768]\",\"activation\":\"jax._src.nn.functions.silu\",\"precision\":\"BF16_BF16_F32\",\"return_residuals\":false}": {
    "{}": {
      "compile_time_ms": 519.3251070000429,
      "lower_time_ms": 11.835825999980898,
      "evaluation_times_ms": [
        0.031398,
        0.03111,
        0.031175,
        0.031206,
        0.031718
      ],
      "metadata": {},
      "peak_memory_mb": 86.638592
    }
  },
  "{\"x\":\"f32[5,4608,768]\",\"weights\":\"f32[768,2,1536]\",\"activation\":\"jax._src.nn.functions.silu\",\"precision\":\"BF16_BF16_F32\",\"return_residuals\":false}": {
    "{}": {
      "compile_time_ms": 3196.703198999998,
      "lower_time_ms": 205.32717800000455,
      "evaluation_times_ms": [
        0.34325799999999995,
        0.347706,
        0.340857,
        0.341625,
        0.340151
      ],
      "metadata": {},
      "peak_memory_mb": 543.162368
    }
  },
  "{\"x\":\"f32[4608,768]\",\"weights\":\"f32[768,2,1536]\",\"activation\":\"jax._src.nn.functions.silu\",\"precision\":\"BF16_BF16_F32\",\"return_residuals\":false}": {
    "{}": {
      "compile_time_ms": 580.5556939999974,
      "lower_time_ms": 16.566385999993827,
      "evaluation_times_ms": [
        0.079564,
        0.079405,
        0.079918,
        0.079948,
        0.079245
      ],
      "metadata": {},
      "peak_memory_mb": 146.80064
    }
  },
  "{\"x\":\"bf16[1,4864,4864,128]\",\"weights\":\"bf16[128,2,256]\",\"activation\":\"jax._src.nn.functions.sigmoid\",\"precision\":\"BF16_BF16_F32\",\"return_residuals\":false}": {},
  "{\"x\":\"bf16[1,4864,4864,128]\",\"weights\":\"bf16[128,2,512]\",\"activation\":\"jax._src.nn.functions.silu\",\"precision\":\"BF16_BF16_F32\",\"return_residuals\":false}": {},
  "{\"x\":\"bf16[4864,4864,128]\",\"weights\":\"bf16[128,2,256]\",\"activation\":\"jax._src.nn.functions.sigmoid\",\"precision\":\"BF16_BF16_F32\",\"return_residuals\":false}": {},
  "{\"x\":\"bf16[4864,4864,128]\",\"weights\":\"bf16[128,2,512]\",\"activation\":\"jax._src.nn.functions.silu\",\"precision\":\"BF16_BF16_F32\",\"return_residuals\":false}": {},
  "{\"x\":\"f32[5,4864,32,128]\",\"weights\":\"f32[128,2,256]\",\"activation\":\"jax._src.nn.functions.silu\",\"precision\":\"BF16_BF16_F32\",\"return_residuals\":false}": {
    "{}": {
      "compile_time_ms": 2733.7200567126274,
      "lower_time_ms": 176.86434090137482,
      "evaluation_times_ms": [
        1.588415,
        1.591104,
        1.589439,
        1.5841910000000001,
        1.5917430000000001
      ],
      "metadata": {},
      "peak_memory_mb": 2789.474304
    }
  },
  "{\"x\":\"f32[4864,32,128]\",\"weights\":\"f32[128,2,256]\",\"activation\":\"jax._src.nn.functions.silu\",\"precision\":\"BF16_BF16_F32\",\"return_residuals\":false}": {
    "{}": {
      "compile_time_ms": 2856.1523730000004,
      "lower_time_ms": 204.5070629999941,
      "evaluation_times_ms": [
        0.333433,
        0.333719,
        0.335353,
        0.331384,
        0.331863
      ],
      "metadata": {},
      "peak_memory_mb": 558.104576
    }
  },
  "{\"x\":\"bf16[1024,1024,128]\",\"weights\":\"bf16[128,2,512]\",\"activation\":\"jax._src.nn.functions.silu\",\"precision\":\"BF16_BF16_F32\",\"return_residuals\":false}": {
    "{}": {
      "compile_time_ms": 3490.2614780000076,
      "lower_time_ms": 198.19924399999422,
      "evaluation_times_ms": [
        2.085383,
        2.0857029999999996,
        2.080935,
        2.084647,
        2.088326
      ],
      "metadata": {},
      "peak_memory_mb": 3489.923072
    }
  },
  "{\"x\":\"f32[1024,1024,128]\",\"weights\":\"f32[128,2,256]\",\"activation\":\"jax._src.nn.functions.silu\",\"precision\":\"BF16_BF16_F32\",\"return_residuals\":false}": {
    "{}": {
      "compile_time_ms": 804.0762830000006,
      "lower_time_ms": 18.02349500002265,
      "evaluation_times_ms": [
        2.1321820000000002,
        2.1386779999999996,
        2.127576,
        2.129112,
        2.125752
      ],
      "metadata": {},
      "peak_memory_mb": 3758.358528
    }
  },
  "{\"x\":\"bf16[1024,1024,64]\",\"weights\":\"bf16[64,2,128]\",\"activation\":\"jax._src.nn.functions.sigmoid\",\"precision\":\"BF16_BF16_F32\",\"return_residuals\":false}": {
    "{}": {
      "compile_time_ms": 355.2968479999947,
      "lower_time_ms": 11.5328959999772,
      "evaluation_times_ms": [
        0.49920200000000003,
        0.502721,
        0.5004500000000001,
        0.501987,
        0.499139
      ],
      "metadata": {},
      "peak_memory_mb": 939.556864
    }
  },
  "{\"x\":\"bf16[1024,1024,64]\",\"weights\":\"bf16[64,2,128]\",\"activation\":\"jax._src.nn.functions.silu\",\"precision\":\"BF16_BF16_F32\",\"return_residuals\":false}": {
    "{}": {
      "compile_time_ms": 101.25518000000966,
      "lower_time_ms": 11.085952999991378,
      "evaluation_times_ms": [
        0.496674,
        0.500001,
        0.49977800000000006,
        0.500417,
        0.501057
      ],
      "metadata": {},
      "peak_memory_mb": 939.556864
    }
  },
  "{\"x\":\"f32[5,1024,32,128]\",\"weights\":\"f32[128,2,256]\",\"activation\":\"jax._src.nn.functions.silu\",\"precision\":\"BF16_BF16_F32\",\"return_residuals\":false}": {
    "{}": {
      "compile_time_ms": 695.8264929999984,
      "lower_time_ms": 11.829510000012533,
      "evaluation_times_ms": [
        0.348093,
        0.347357,
        0.346143,
        0.344734,
        0.350142
      ],
      "metadata": {},
      "peak_memory_mb": 587.464704
    }
  },
  "{\"x\":\"f32[1024,32,128]\",\"weights\":\"f32[128,2,256]\",\"activation\":\"jax._src.nn.functions.silu\",\"precision\":\"BF16_BF16_F32\",\"return_residuals\":false}": {
    "{}": {
      "compile_time_ms": 614.2915429999789,
      "lower_time_ms": 12.300335000020368,
      "evaluation_times_ms": [
        0.076592,
        0.075793,
        0.076401,
        0.07573,
        0.075793
      ],
      "metadata": {},
      "peak_memory_mb": 117.702656
    }
  },
  "{\"x\":\"bf16[5,1024,384]\",\"weights\":\"bf16[384,2,1536]\",\"activation\":\"jax._src.nn.functions.silu\",\"precision\":\"BF16_BF16_F32\",\"return_residuals\":false}": {
    "{}": {
      "compile_time_ms": 636.6945689999852,
      "lower_time_ms": 12.016927999979998,
      "evaluation_times_ms": [
        0.044343,
        0.043032,
        0.044150999999999996,
        0.044023,
        0.044055
      ],
      "metadata": {},
      "peak_memory_mb": 53.477376
    }
  },
  "{\"x\":\"bf16[1024,384]\",\"weights\":\"bf16[384,2,1536]\",\"activation\":\"jax._src.nn.functions.silu\",\"precision\":\"BF16_BF16_F32\",\"return_residuals\":false}": {
    "{}": {
      "compile_time_ms": 551.1779540000248,
      "lower_time_ms": 12.899556000036227,
      "evaluation_times_ms": [
        0.009566,
        0.009501,
        0.009597,
        0.009567,
        0.009534
      ],
      "metadata": {},
      "peak_memory_mb": 12.582912
    }
  },
  "{\"x\":\"f32[5,1024,384]\",\"weights\":\"f32[384,2,768]\",\"activation\":\"jax._src.nn.functions.silu\",\"precision\":\"BF16_BF16_F32\",\"return_residuals\":false}": {
    "{}": {
      "compile_time_ms": 553.0382469999608,
      "lower_time_ms": 11.664868000025308,
      "evaluation_times_ms": [
        0.035,
        0.034042,
        0.034393,
        0.034969,
        0.034393
      ],
      "metadata": {},
      "peak_memory_mb": 92.143616
    }
  },
  "{\"x\":\"f32[1024,384]\",\"weights\":\"f32[384,2,768]\",\"activation\":\"jax._src.nn.functions.silu\",\"precision\":\"BF16_BF16_F32\",\"return_residuals\":false}": {
    "{}": {
      "compile_time_ms": 818.1212510000364,
      "lower_time_ms": 12.263919999952577,
      "evaluation_times_ms": [
        0.012638,
        0.012606,
        0.012637,
        0.012606000000000001,
        0.01267
      ],
      "metadata": {},
      "peak_memory_mb": 13.369344
    }
  },
  "{\"x\":\"f32[5,1024,768]\",\"weights\":\"f32[768,2,1536]\",\"activation\":\"jax._src.nn.functions.silu\",\"precision\":\"BF16_BF16_F32\",\"return_residuals\":false}": {
    "{}": {
      "compile_time_ms": 3364.6016880000075,
      "lower_time_ms": 289.02271899998766,
      "evaluation_times_ms": [
        0.088464,
        0.087729,
        0.088274,
        0.087345,
        0.088336
      ],
      "metadata": {},
      "peak_memory_mb": 157.810688
    }
  },
  "{\"x\":\"f32[1024,768]\",\"weights\":\"f32[768,2,1536]\",\"activation\":\"jax._src.nn.functions.silu\",\"precision\":\"BF16_BF16_F32\",\"return_residuals\":false}": {
    "{}": {
      "compile_time_ms": 2846.478445999992,
      "lower_time_ms": 184.9032419999901,
      "evaluation_times_ms": [
        0.021627,
        0.020413,
        0.020252,
        0.020507,
        0.020444
      ],
      "metadata": {},
      "peak_memory_mb": 66.584576
    }
  },
  "{\"x\":\"bf16[1,1280,1280,128]\",\"weights\":\"bf16[128,2,256]\",\"activation\":\"jax._src.nn.functions.sigmoid\",\"precision\":\"BF16_BF16_F32\",\"return_residuals\":false}": {
    "{}": {
      "compile_time_ms": 628.9954349999931,
      "lower_time_ms": 16.91889500000343,
      "evaluation_times_ms": [
        1.611622,
        1.608679,
        1.6105019999999999,
        1.6262759999999998,
        1.6370580000000001
      ],
      "metadata": {},
      "peak_memory_mb": 2936.143872
    }
  },
  "{\"x\":\"bf16[1,1280,1280,128]\",\"weights\":\"bf16[128,2,512]\",\"activation\":\"jax._src.nn.functions.silu\",\"precision\":\"BF16_BF16_F32\",\"return_residuals\":false}": {
    "{}": {
      "compile_time_ms": 603.9068850000149,
      "lower_time_ms": 12.645738999992773,
      "evaluation_times_ms": [
        3.257282,
        3.259042,
        3.255522,
        3.261121,
        3.254242
      ],
      "metadata": {},
      "peak_memory_mb": 5452.857344
    }
  },
  "{\"x\":\"bf16[1280,1280,128]\",\"weights\":\"bf16[128,2,256]\",\"activation\":\"jax._src.nn.functions.sigmoid\",\"precision\":\"BF16_BF16_F32\",\"return_residuals\":false}": {
    "{}": {
      "compile_time_ms": 207.55592300000103,
      "lower_time_ms": 12.010158999999021,
      "evaluation_times_ms": [
        1.646461,
        1.621634,
        1.6437089999999999,
        1.641438,
        1.6385580000000002
      ],
      "metadata": {},
      "peak_memory_mb": 2936.143872
    }
  },
  "{\"x\":\"bf16[1280,1280,128]\",\"weights\":\"bf16[128,2,512]\",\"activation\":\"jax._src.nn.functions.silu\",\"precision\":\"BF16_BF16_F32\",\"return_residuals\":false}": {
    "{}": {
      "compile_time_ms": 209.74238099998388,
      "lower_time_ms": 12.123119000023053,
      "evaluation_times_ms": [
        3.254462,
        3.260638,
        3.2503349999999998,
        3.260317,
        3.2502079999999998
      ],
      "metadata": {},
      "peak_memory_mb": 5452.857344
    }
  },
  "{\"x\":\"f32[1280,1280,128]\",\"weights\":\"f32[128,2,256]\",\"activation\":\"jax._src.nn.functions.silu\",\"precision\":\"BF16_BF16_F32\",\"return_residuals\":false}": {
    "{}": {
      "compile_time_ms": 857.9965880000202,
      "lower_time_ms": 10.948514999995496,
      "evaluation_times_ms": [
        3.335756,
        3.320111,
        3.32299,
        3.313136,
        3.317646
      ],
      "metadata": {},
      "peak_memory_mb": 5872.287744
    }
  },
  "{\"x\":\"bf16[1280,1280,64]\",\"weights\":\"bf16[64,2,128]\",\"activation\":\"jax._src.nn.functions.sigmoid\",\"precision\":\"BF16_BF16_F32\",\"return_residuals\":false}": {
    "{}": {
      "compile_time_ms": 404.85377900000685,
      "lower_time_ms": 12.024792000005391,
      "evaluation_times_ms": [
        0.773909,
        0.777429,
        0.776181,
        0.7788360000000001,
        0.777108
      ],
      "metadata": {},
      "peak_memory_mb": 1468.039168
    }
  },
  "{\"x\":\"bf16[1280,1280,64]\",\"weights\":\"bf16[64,2,128]\",\"activation\":\"jax._src.nn.functions.silu\",\"precision\":\"BF16_BF16_F32\",\"return_residuals\":false}": {
    "{}": {
      "compile_time_ms": 102.3338330000172,
      "lower_time_ms": 10.540090999995755,
      "evaluation_times_ms": [
        0.778004,
        0.7756369999999999,
        0.777109,
        0.7771079999999999,
        0.7757970000000001
      ],
      "metadata": {},
      "peak_memory_mb": 1468.039168
    }
  },
  "{\"x\":\"f32[5,1280,32,128]\",\"weights\":\"f32[128,2,256]\",\"activation\":\"jax._src.nn.functions.silu\",\"precision\":\"BF16_BF16_F32\",\"return_residuals\":false}": {
    "{}": {
      "compile_time_ms": 710.7739080000215,
      "lower_time_ms": 11.710724000010941,
      "evaluation_times_ms": [
        0.429523,
        0.431762,
        0.43045100000000003,
        0.42929799999999996,
        0.432435
      ],
      "metadata": {},
      "peak_memory_mb": 734.265344
    }
  },
  "{\"x\":\"f32[1280,32,128]\",\"weights\":\"f32[128,2,256]\",\"activation\":\"jax._src.nn.functions.silu\",\"precision\":\"BF16_BF16_F32\",\"return_residuals\":false}": {
    "{}": {
      "compile_time_ms": 599.8850870000183,
      "lower_time_ms": 12.265145000014854,
      "evaluation_times_ms": [
        0.09646199999999999,
        0.09345400000000001,
        0.094223,
        0.094383,
        0.093199
      ],
      "metadata": {},
      "peak_memory_mb": 147.062784
    }
  },
  "{\"x\":\"bf16[5,1280,384]\",\"weights\":\"bf16[384,2,1536]\",\"activation\":\"jax._src.nn.functions.silu\",\"precision\":\"BF16_BF16_F32\",\"return_residuals\":false}": {
    "{}": {
      "compile_time_ms": 2701.6588989999946,
      "lower_time_ms": 216.20269400000325,
      "evaluation_times_ms": [
        0.056264999999999996,
        0.056552,
        0.056458,
        0.056010000000000004,
        0.055656
      ],
      "metadata": {},
      "peak_memory_mb": 66.256896
    }
  },
  "{\"x\":\"bf16[1280,384]\",\"weights\":\"bf16[384,2,1536]\",\"activation\":\"jax._src.nn.functions.silu\",\"precision\":\"BF16_BF16_F32\",\"return_residuals\":false}": {
    "{}": {
      "compile_time_ms": 3328.620141999991,
      "lower_time_ms": 216.9799260000076,
      "evaluation_times_ms": [
        0.011615,
        0.011199,
        0.011134999999999999,
        0.011006,
        0.011134999999999999
      ],
      "metadata": {},
      "peak_memory_mb": 15.138816
    }
  },
  "{\"x\":\"f32[5,1280,384]\",\"weights\":\"f32[384,2,768]\",\"activation\":\"jax._src.nn.functions.silu\",\"precision\":\"BF16_BF16_F32\",\"return_residuals\":false}": {
    "{}": {
      "compile_time_ms": 685.6562749999995,
      "lower_time_ms": 17.822042999995347,
      "evaluation_times_ms": [
        0.045883,
        0.046299,
        0.045596,
        0.04614,
        0.045724
      ],
      "metadata": {},
      "peak_memory_mb": 105.906176
    }
  },
  "{\"x\":\"f32[1280,384]\",\"weights\":\"f32[384,2,768]\",\"activation\":\"jax._src.nn.functions.silu\",\"precision\":\"BF16_BF16_F32\",\"return_residuals\":false}": {
    "{}": {
      "compile_time_ms": 890.0145810000026,
      "lower_time_ms": 11.405701000001045,
      "evaluation_times_ms": [
        0.013214,
        0.013215,
        0.013183,
        0.013215,
        0.013183
      ],
      "metadata": {},
      "peak_memory_mb": 16.121856
    }
  },
  "{\"x\":\"f32[5,1280,768]\",\"weights\":\"f32[768,2,1536]\",\"activation\":\"jax._src.nn.functions.silu\",\"precision\":\"BF16_BF16_F32\",\"return_residuals\":false}": {
    "{}": {
      "compile_time_ms": 599.1911769999945,
      "lower_time_ms": 12.006003999999848,
      "evaluation_times_ms": [
        0.107223,
        0.105687,
        0.10779899999999999,
        0.105525,
        0.105846
      ],
      "metadata": {},
      "peak_memory_mb": 161.611776
    }
  },
  "{\"x\":\"f32[1280,768]\",\"weights\":\"f32[768,2,1536]\",\"activation\":\"jax._src.nn.functions.silu\",\"precision\":\"BF16_BF16_F32\",\"return_residuals\":false}": {
    "{}": {
      "compile_time_ms": 582.6816530000087,
      "lower_time_ms": 10.561923000011575,
      "evaluation_times_ms": [
        0.025182,
        0.024957,
        0.025215,
        0.025308999999999998,
        0.025085000000000003
      ],
      "metadata": {},
      "peak_memory_mb": 72.482816
    }
  },
  "{\"x\":\"bf16[1,1536,1536,128]\",\"weights\":\"bf16[128,2,256]\",\"activation\":\"jax._src.nn.functions.sigmoid\",\"precision\":\"BF16_BF16_F32\",\"return_residuals\":false}": {
    "{}": {
      "compile_time_ms": 602.8987029999939,
      "lower_time_ms": 11.901456999993343,
      "evaluation_times_ms": [
        2.372536,
        2.3710649999999998,
        2.382136,
        2.3809519999999997,
        2.3702639999999997
      ],
      "metadata": {},
      "peak_memory_mb": 4227.989504
    }
  },
  "{\"x\":\"bf16[1,1536,1536,128]\",\"weights\":\"bf16[128,2,512]\",\"activation\":\"jax._src.nn.functions.silu\",\"precision\":\"BF16_BF16_F32\",\"return_residuals\":false}": {
    "{}": {
      "compile_time_ms": 623.8155709999944,
      "lower_time_ms": 12.703014000010171,
      "evaluation_times_ms": [
        4.689163000000001,
        4.700074,
        4.70243,
        4.703453,
        4.704541000000001
      ],
      "metadata": {},
      "peak_memory_mb": 7851.999232
    }
  },
  "{\"x\":\"bf16[1536,1536,128]\",\"weights\":\"bf16[128,2,256]\",\"activation\":\"jax._src.nn.functions.sigmoid\",\"precision\":\"BF16_BF16_F32\",\"return_residuals\":false}": {
    "{}": {
      "compile_time_ms": 209.7010000000239,
      "lower_time_ms": 11.512544999987995,
      "evaluation_times_ms": [
        2.377014,
        2.3741339999999997,
        2.3773030000000004,
        2.3677349999999997,
        2.380182
      ],
      "metadata": {},
      "peak_memory_mb": 4227.989504
    }
  },
  "{\"x\":\"bf16[1536,1536,128]\",\"weights\":\"bf16[128,2,512]\",\"activation\":\"jax._src.nn.functions.silu\",\"precision\":\"BF16_BF16_F32\",\"return_residuals\":false}": {
    "{}": {
      "compile_time_ms": 208.82438999998953,
      "lower_time_ms": 12.425369000027331,
      "evaluation_times_ms": [
        4.704642,
        4.696291,
        4.692738,
        4.699458,
        4.690708
      ],
      "metadata": {},
      "peak_memory_mb": 7851.999232
    }
  },
  "{\"x\":\"f32[1536,1536,128]\",\"weights\":\"f32[128,2,256]\",\"activation\":\"jax._src.nn.functions.silu\",\"precision\":\"BF16_BF16_F32\",\"return_residuals\":false}": {
    "{}": {
      "compile_time_ms": 981.742607000001,
      "lower_time_ms": 10.80167099999585,
      "evaluation_times_ms": [
        4.781854,
        4.776574,
        4.765855,
        4.766718,
        4.785118
      ],
      "metadata": {},
      "peak_memory_mb": 8455.979008
    }
  },
  "{\"x\":\"bf16[1536,1536,64]\",\"weights\":\"bf16[64,2,128]\",\"activation\":\"jax._src.nn.functions.sigmoid\",\"precision\":\"BF16_BF16_F32\",\"return_residuals\":false}": {
    "{}": {
      "compile_time_ms": 399.21571200000017,
      "lower_time_ms": 11.42432500000723,
      "evaluation_times_ms": [
        1.116096,
        1.118079,
        1.1155840000000001,
        1.113057,
        1.115104
      ],
      "metadata": {},
      "peak_memory_mb": 2113.961984
    }
  },
  "{\"x\":\"bf16[1536,1536,64]\",\"weights\":\"bf16[64,2,128]\",\"activation\":\"jax._src.nn.functions.silu\",\"precision\":\"BF16_BF16_F32\",\"return_residuals\":false}": {
    "{}": {
      "compile_time_ms": 2532.8466445207596,
      "lower_time_ms": 196.27060741186142,
      "evaluation_times_ms": [
        1.115738,
        1.120186,
        1.115065,
        1.116408,
        1.117657
      ],
      "metadata": {},
      "peak_memory_mb": 2113.961984
    }
  },
  "{\"x\":\"f32[5,1536,32,128]\",\"weights\":\"f32[128,2,256]\",\"activation\":\"jax._src.nn.functions.silu\",\"precision\":\"BF16_BF16_F32\",\"return_residuals\":false}": {
    "{}": {
      "compile_time_ms": 713.2508400827646,
      "lower_time_ms": 11.36058196425438,
      "evaluation_times_ms": [
        0.514208,
        0.515487,
        0.514944,
        0.513952,
        0.5128
      ],
      "metadata": {},
      "peak_memory_mb": 881.065984
    }
  },
  "{\"x\":\"f32[1536,32,128]\",\"weights\":\"f32[128,2,256]\",\"activation\":\"jax._src.nn.functions.silu\",\"precision\":\"BF16_BF16_F32\",\"return_residuals\":false}": {
    "{}": {
      "compile_time_ms": 695.4717487096786,
      "lower_time_ms": 11.504923924803734,
      "evaluation_times_ms": [
        0.111008,
        0.111008,
        0.112672,
        0.11161599999999999,
        0.111008
      ],
      "metadata": {},
      "peak_memory_mb": 176.422912
    }
  },
  "{\"x\":\"bf16[5,1536,384]\",\"weights\":\"bf16[384,2,1536]\",\"activation\":\"jax._src.nn.functions.silu\",\"precision\":\"BF16_BF16_F32\",\"return_residuals\":false}": {
    "{}": {
      "compile_time_ms": 573.4786558896303,
      "lower_time_ms": 11.491181328892708,
      "evaluation_times_ms": [
        0.068192,
        0.067648,
        0.067424,
        0.067744,
        0.067392
      ],
      "metadata": {},
      "peak_memory_mb": 79.036416
    }
  },
  "{\"x\":\"bf16[1536,384]\",\"weights\":\"bf16[384,2,1536]\",\"activation\":\"jax._src.nn.functions.silu\",\"precision\":\"BF16_BF16_F32\",\"return_residuals\":false}": {
    "{}": {
      "compile_time_ms": 572.8171896189451,
      "lower_time_ms": 11.832894757390022,
      "evaluation_times_ms": [
        0.013728,
        0.013856,
        0.013856,
        0.013856,
        0.013663999999999999
      ],
      "metadata": {},
      "peak_memory_mb": 17.69472
    }
  },
  "{\"x\":\"f32[5,1536,384]\",\"weights\":\"f32[384,2,768]\",\"activation\":\"jax._src.nn.functions.silu\",\"precision\":\"BF16_BF16_F32\",\"return_residuals\":false}": {
    "{}": {
      "compile_time_ms": 490.03513902425766,
      "lower_time_ms": 10.918503627181053,
      "evaluation_times_ms": [
        0.056575,
        0.057568,
        0.056832,
        0.057471999999999995,
        0.056799999999999996
      ],
      "metadata": {},
      "peak_memory_mb": 119.668736
    }
  },
  "{\"x\":\"f32[1536,384]\",\"weights\":\"f32[384,2,768]\",\"activation\":\"jax._src.nn.functions.silu\",\"precision\":\"BF16_BF16_F32\",\"return_residuals\":false}": {
    "{}": {
      "compile_time_ms": 500.48774667084217,
      "lower_time_ms": 11.326516047120094,
      "evaluation_times_ms": [
        0.013696,
        0.013663999999999999,
        0.013664,
        0.013600000000000001,
        0.013728
      ],
      "metadata": {},
      "peak_memory_mb": 53.608448
    }
  },
  "{\"x\":\"f32[5,1536,768]\",\"weights\":\"f32[768,2,1536]\",\"activation\":\"jax._src.nn.functions.silu\",\"precision\":\"BF16_BF16_F32\",\"return_residuals\":false}": {
    "{}": {
      "compile_time_ms": 507.2009190917015,
      "lower_time_ms": 10.089412331581116,
      "evaluation_times_ms": [
        0.123168,
        0.123456,
        0.122976,
        0.12332800000000001,
        0.125312
      ],
      "metadata": {},
      "peak_memory_mb": 191.102976
    }
  },
  "{\"x\":\"f32[1536,768]\",\"weights\":\"f32[768,2,1536]\",\"activation\":\"jax._src.nn.functions.silu\",\"precision\":\"BF16_BF16_F32\",\"return_residuals\":false}": {
    "{}": {
      "compile_time_ms": 481.48779198527336,
      "lower_time_ms": 9.664919227361679,
      "evaluation_times_ms": [
        0.030848,
        0.030208,
        0.030976,
        0.030368,
        0.031008
      ],
      "metadata": {},
      "peak_memory_mb": 78.381056
    }
  },
  "{\"x\":\"bf16[1,1792,1792,128]\",\"weights\":\"bf16[128,2,256]\",\"activation\":\"jax._src.nn.functions.sigmoid\",\"precision\":\"BF16_BF16_F32\",\"return_residuals\":false}": {
    "{}": {
      "compile_time_ms": 550.3340549767017,
      "lower_time_ms": 11.496022343635559,
      "evaluation_times_ms": [
        3.231104,
        3.2279679999999997,
        3.244543,
        3.223231,
        3.234175
      ],
      "metadata": {},
      "peak_memory_mb": 5754.71616
    }
  },
  "{\"x\":\"bf16[1,1792,1792,128]\",\"weights\":\"bf16[128,2,512]\",\"activation\":\"jax._src.nn.functions.silu\",\"precision\":\"BF16_BF16_F32\",\"return_residuals\":false}": {
    "{}": {
      "compile_time_ms": 3059.2713730000014,
      "lower_time_ms": 218.49065600000017,
      "evaluation_times_ms": [
        6.382114,
        6.374912999999999,
        6.377921,
        6.380802,
        6.368415000000001
      ],
      "metadata": {},
      "peak_memory_mb": 10687.348736
    }
  },
  "{\"x\":\"bf16[1792,1792,128]\",\"weights\":\"bf16[128,2,256]\",\"activation\":\"jax._src.nn.functions.sigmoid\",\"precision\":\"BF16_BF16_F32\",\"return_residuals\":false}": {
    "{}": {
      "compile_time_ms": 3371.047578999992,
      "lower_time_ms": 196.7341619999985,
      "evaluation_times_ms": [
        3.230963,
        3.1784280000000003,
        3.194522,
        3.216502,
        3.221941
      ],
      "metadata": {},
      "peak_memory_mb": 5754.71616
    }
  },
  "{\"x\":\"bf16[1792,1792,128]\",\"weights\":\"bf16[128,2,512]\",\"activation\":\"jax._src.nn.functions.silu\",\"precision\":\"BF16_BF16_F32\",\"return_residuals\":false}": {
    "{}": {
      "compile_time_ms": 675.4780070000095,
      "lower_time_ms": 18.04480000001263,
      "evaluation_times_ms": [
        6.368727,
        6.3638639999999995,
        6.3702939999999995,
        6.363896,
        6.377269
      ],
      "metadata": {},
      "peak_memory_mb": 10687.348736
    }
  },
  "{\"x\":\"f32[1792,1792,128]\",\"weights\":\"f32[128,2,256]\",\"activation\":\"jax._src.nn.functions.silu\",\"precision\":\"BF16_BF16_F32\",\"return_residuals\":false}": {
    "{}": {
      "compile_time_ms": 1218.2858230000022,
      "lower_time_ms": 11.043045999997503,
      "evaluation_times_ms": [
        6.481972,
        6.490354,
        6.482163,
        6.477684,
        6.515022
      ],
      "metadata": {},
      "peak_memory_mb": 11509.43232
    }
  },
  "{\"x\":\"bf16[1792,1792,64]\",\"weights\":\"bf16[64,2,128]\",\"activation\":\"jax._src.nn.functions.sigmoid\",\"precision\":\"BF16_BF16_F32\",\"return_residuals\":false}": {
    "{}": {
      "compile_time_ms": 541.9034010000132,
      "lower_time_ms": 11.836025999997446,
      "evaluation_times_ms": [
        1.5130059999999999,
        1.51243,
        1.513871,
        1.5174539999999999,
        1.517614
      ],
      "metadata": {},
      "peak_memory_mb": 2877.325312
    }
  },
  "{\"x\":\"bf16[1792,1792,64]\",\"weights\":\"bf16[64,2,128]\",\"activation\":\"jax._src.nn.functions.silu\",\"precision\":\"BF16_BF16_F32\",\"return_residuals\":false}": {
    "{}": {
      "compile_time_ms": 103.44949199998155,
      "lower_time_ms": 11.23524299998735,
      "evaluation_times_ms": [
        1.519946,
        1.517482,
        1.517738,
        1.5190190000000001,
        1.5183140000000002
      ],
      "metadata": {},
      "peak_memory_mb": 2877.325312
    }
  },
  "{\"x\":\"f32[5,1792,32,128]\",\"weights\":\"f32[128,2,256]\",\"activation\":\"jax._src.nn.functions.silu\",\"precision\":\"BF16_BF16_F32\",\"return_residuals\":false}": {
    "{}": {
      "compile_time_ms": 765.0488860000166,
      "lower_time_ms": 12.250152999996544,
      "evaluation_times_ms": [
        0.59685,
        0.593458,
        0.5947709999999999,
        0.593075,
        0.594994
      ],
      "metadata": {},
      "peak_memory_mb": 1027.866624
    }
  },
  "{\"x\":\"f32[1792,32,128]\",\"weights\":\"f32[128,2,256]\",\"activation\":\"jax._src.nn.functions.silu\",\"precision\":\"BF16_BF16_F32\",\"return_residuals\":false}": {
    "{}": {
      "compile_time_ms": 608.0940360000113,
      "lower_time_ms": 12.775035999993634,
      "evaluation_times_ms": [
        0.128519,
        0.128168,
        0.130088,
        0.129032,
        0.127912
      ],
      "metadata": {},
      "peak_memory_mb": 205.78304
    }
  },
  "{\"x\":\"bf16[5,1792,384]\",\"weights\":\"bf16[384,2,1536]\",\"activation\":\"jax._src.nn.functions.silu\",\"precision\":\"BF16_BF16_F32\",\"return_residuals\":false}": {
    "{}": {
      "compile_time_ms": 575.8456689999889,
      "lower_time_ms": 12.755736999991996,
      "evaluation_times_ms": [
        0.06258,
        0.062484,
        0.062325000000000005,
        0.06258,
        0.062709
      ],
      "metadata": {},
      "peak_memory_mb": 125.370368
    }
  },
  "{\"x\":\"bf16[1792,384]\",\"weights\":\"bf16[384,2,1536]\",\"activation\":\"jax._src.nn.functions.silu\",\"precision\":\"BF16_BF16_F32\",\"return_residuals\":false}": {
    "{}": {
      "compile_time_ms": 708.556389999984,
      "lower_time_ms": 12.827570000013111,
      "evaluation_times_ms": [
        0.01459,
        0.014622,
        0.014685,
        0.014749000000000002,
        0.014558
      ],
      "metadata": {},
      "peak_memory_mb": 20.250624
    }
  },
  "{\"x\":\"f32[5,1792,384]\",\"weights\":\"f32[384,2,768]\",\"activation\":\"jax._src.nn.functions.silu\",\"precision\":\"BF16_BF16_F32\",\"return_residuals\":false}": {
    "{}": {
      "compile_time_ms": 601.1444059999747,
      "lower_time_ms": 12.73134400000231,
      "evaluation_times_ms": [
        0.066643,
        0.06705900000000001,
        0.065459,
        0.06594,
        0.066132
      ],
      "metadata": {},
      "peak_memory_mb": 133.431296
    }
  },
  "{\"x\":\"f32[1792,384]\",\"weights\":\"f32[384,2,768]\",\"activation\":\"jax._src.nn.functions.silu\",\"precision\":\"BF16_BF16_F32\",\"return_residuals\":false}": {
    "{}": {
      "compile_time_ms": 2369.8494490000003,
      "lower_time_ms": 210.0124539999939,
      "evaluation_times_ms": [
        0.016062,
        0.015518,
        0.015261,
        0.015101,
        0.01555
      ],
      "metadata": {},
      "peak_memory_mb": 56.36096
    }
  },
  "{\"x\":\"f32[5,1792,768]\",\"weights\":\"f32[768,2,1536]\",\"activation\":\"jax._src.nn.functions.silu\",\"precision\":\"BF16_BF16_F32\",\"return_residuals\":false}": {
    "{}": {
      "compile_time_ms": 2972.6144450000047,
      "lower_time_ms": 205.1043759999942,
      "evaluation_times_ms": [
        0.142535,
        0.143209,
        0.142056,
        0.14359,
        0.143943
      ],
      "metadata": {},
      "peak_memory_mb": 220.594176
    }
  },
  "{\"x\":\"f32[1792,768]\",\"weights\":\"f32[768,2,1536]\",\"activation\":\"jax._src.nn.functions.silu\",\"precision\":\"BF16_BF16_F32\",\"return_residuals\":false}": {
    "{}": {
      "compile_time_ms": 582.9355350000043,
      "lower_time_ms": 15.30001399999037,
      "evaluation_times_ms": [
        0.033818,
        0.03433,
        0.033947,
        0.033819,
        0.034073
      ],
      "metadata": {},
      "peak_memory_mb": 84.279296
    }
  },
  "{\"x\":\"bf16[1,2048,2048,128]\",\"weights\":\"bf16[128,2,256]\",\"activation\":\"jax._src.nn.functions.sigmoid\",\"precision\":\"BF16_BF16_F32\",\"return_residuals\":false}": {
    "{}": {
      "compile_time_ms": 774.371594999991,
      "lower_time_ms": 11.818021999999928,
      "evaluation_times_ms": [
        4.09496,
        4.131754,
        4.143975,
        4.121227,
        4.133193
      ],
      "metadata": {},
      "peak_memory_mb": 7516.32384
    }
  },
  "{\"x\":\"bf16[1,2048,2048,128]\",\"weights\":\"bf16[128,2,512]\",\"activation\":\"jax._src.nn.functions.silu\",\"precision\":\"BF16_BF16_F32\",\"return_residuals\":false}": {
    "{}": {
      "compile_time_ms": 660.9879320000118,
      "lower_time_ms": 13.087315999996463,
      "evaluation_times_ms": [
        7.581506000000001,
        7.590944,
        7.585025,
        7.587935999999999,
        7.589088
      ],
      "metadata": {},
      "peak_memory_mb": 13958.905856
    }
  },
  "{\"x\":\"bf16[2048,2048,128]\",\"weights\":\"bf16[128,2,256]\",\"activation\":\"jax._src.nn.functions.sigmoid\",\"precision\":\"BF16_BF16_F32\",\"return_residuals\":false}": {
    "{}": {
      "compile_time_ms": 208.02394399999002,
      "lower_time_ms": 11.71802000001776,
      "evaluation_times_ms": [
        4.101157000000001,
        4.1136029999999995,
        4.0964860000000005,
        4.138942999999999,
        4.099525
      ],
      "metadata": {},
      "peak_memory_mb": 7516.32384
    }
  },
  "{\"x\":\"bf16[2048,2048,128]\",\"weights\":\"bf16[128,2,512]\",\"activation\":\"jax._src.nn.functions.silu\",\"precision\":\"BF16_BF16_F32\",\"return_residuals\":false}": {
    "{}": {
      "compile_time_ms": 48.17314300001385,
      "lower_time_ms": 12.819933999992372,
      "evaluation_times_ms": [
        7.585326,
        7.580559,
        7.590669999999999,
        7.586127,
        7.581487
      ],
      "metadata": {},
      "peak_memory_mb": 13958.905856
    }
  },
  "{\"x\":\"f32[2048,2048,128]\",\"weights\":\"f32[128,2,256]\",\"activation\":\"jax._src.nn.functions.silu\",\"precision\":\"BF16_BF16_F32\",\"return_residuals\":false}": {
    "{}": {
      "compile_time_ms": 1198.2542339999895,
      "lower_time_ms": 10.743183000016643,
      "evaluation_times_ms": [
        8.450724000000001,
        8.478272,
        8.484766,
        8.529206,
        8.447493
      ],
      "metadata": {},
      "peak_memory_mb": 15032.64768
    }
  },
  "{\"x\":\"bf16[2048,2048,64]\",\"weights\":\"bf16[64,2,128]\",\"activation\":\"jax._src.nn.functions.sigmoid\",\"precision\":\"BF16_BF16_F32\",\"return_residuals\":false}": {
    "{}": {
      "compile_time_ms": 402.9030739999939,
      "lower_time_ms": 11.602025000001959,
      "evaluation_times_ms": [
        1.9762490000000001,
        1.980088,
        1.979448,
        1.974297,
        1.981656
      ],
      "metadata": {},
      "peak_memory_mb": 3758.129152
    }
  },
  "{\"x\":\"bf16[2048,2048,64]\",\"weights\":\"bf16[64,2,128]\",\"activation\":\"jax._src.nn.functions.silu\",\"precision\":\"BF16_BF16_F32\",\"return_residuals\":false}": {
    "{}": {
      "compile_time_ms": 102.32103000001302,
      "lower_time_ms": 11.444864999987203,
      "evaluation_times_ms": [
        1.976759,
        1.97452,
        1.977656,
        1.9814950000000002,
        1.979479
      ],
      "metadata": {},
      "peak_memory_mb": 3758.129152
    }
  },
  "{\"x\":\"f32[5,2048,32,128]\",\"weights\":\"f32[128,2,256]\",\"activation\":\"jax._src.nn.functions.silu\",\"precision\":\"BF16_BF16_F32\",\"return_residuals\":false}": {
    "{}": {
      "compile_time_ms": 709.0678479999895,
      "lower_time_ms": 11.693000999997594,
      "evaluation_times_ms": [
        0.677411,
        0.6777329999999999,
        0.678437,
        0.679044,
        0.676164
      ],
      "metadata": {},
      "peak_memory_mb": 1174.667264
    }
  },
  "{\"x\":\"f32[2048,32,128]\",\"weights\":\"f32[128,2,256]\",\"activation\":\"jax._src.nn.functions.silu\",\"precision\":\"BF16_BF16_F32\",\"return_residuals\":false}": {
    "{}": {
      "compile_time_ms": 3212.2655220000097,
      "lower_time_ms": 228.64439200000675,
      "evaluation_times_ms": [
        0.145398,
        0.146551,
        0.148952,
        0.145335,
        0.144279
      ],
      "metadata": {},
      "peak_memory_mb": 235.143168
    }
  },
  "{\"x\":\"bf16[5,2048,384]\",\"weights\":\"bf16[384,2,1536]\",\"activation\":\"jax._src.nn.functions.silu\",\"precision\":\"BF16_BF16_F32\",\"return_residuals\":false}": {
    "{}": {
      "compile_time_ms": 3964.6832299999915,
      "lower_time_ms": 307.32323800000927,
      "evaluation_times_ms": [
        0.070324,
        0.06965199999999999,
        0.07019600000000001,
        0.06946,
        0.06917100000000001
      ],
      "metadata": {},
      "peak_memory_mb": 138.149888
    }
  },
  "{\"x\":\"bf16[2048,384]\",\"weights\":\"bf16[384,2,1536]\",\"activation\":\"jax._src.nn.functions.silu\",\"precision\":\"BF16_BF16_F32\",\"return_residuals\":false}": {
    "{}": {
      "compile_time_ms": 709.1794140000047,
      "lower_time_ms": 19.45193999998196,
      "evaluation_times_ms": [
        0.016126,
        0.016253999999999998,
        0.016125,
        0.015996999999999997,
        0.016093
      ],
      "metadata": {},
      "peak_memory_mb": 22.806528
    }
  },
  "{\"x\":\"f32[5,2048,384]\",\"weights\":\"f32[384,2,768]\",\"activation\":\"jax._src.nn.functions.silu\",\"precision\":\"BF16_BF16_F32\",\"return_residuals\":false}": {
    "{}": {
      "compile_time_ms": 666.9807369999887,
      "lower_time_ms": 15.99945300000627,
      "evaluation_times_ms": [
        0.075059,
        0.074578,
        0.074163,
        0.074739,
        0.074898
      ],
      "metadata": {},
      "peak_memory_mb": 147.193856
    }
  },
  "{\"x\":\"f32[2048,384]\",\"weights\":\"f32[384,2,768]\",\"activation\":\"jax._src.nn.functions.silu\",\"precision\":\"BF16_BF16_F32\",\"return_residuals\":false}": {
    "{}": {
      "compile_time_ms": 592.4533859999883,
      "lower_time_ms": 12.237642000002324,
      "evaluation_times_ms": [
        0.016413,
        0.016509,
        0.016508000000000002,
        0.016189000000000002,
        0.016125
      ],
      "metadata": {},
      "peak_memory_mb": 59.113472
    }
  },
  "{\"x\":\"f32[5,2048,768]\",\"weights\":\"f32[768,2,1536]\",\"activation\":\"jax._src.nn.functions.silu\",\"precision\":\"BF16_BF16_F32\",\"return_residuals\":false}": {
    "{}": {
      "compile_time_ms": 687.6822709999999,
      "lower_time_ms": 15.16196500000433,
      "evaluation_times_ms": [
        0.161059,
        0.160866,
        0.160739,
        0.16256299999999999,
        0.160163
      ],
      "metadata": {},
      "peak_memory_mb": 250.085376
    }
  },
  "{\"x\":\"f32[2048,768]\",\"weights\":\"f32[768,2,1536]\",\"activation\":\"jax._src.nn.functions.silu\",\"precision\":\"BF16_BF16_F32\",\"return_residuals\":false}": {
    "{}": {
      "compile_time_ms": 552.8387349999946,
      "lower_time_ms": 10.905643000000964,
      "evaluation_times_ms": [
        0.035739,
        0.036314,
        0.035897,
        0.035545,
        0.035546
      ],
      "metadata": {},
      "peak_memory_mb": 90.177536
    }
  },
  "{\"x\":\"bf16[1,2304,2304,128]\",\"weights\":\"bf16[128,2,256]\",\"activation\":\"jax._src.nn.functions.sigmoid\",\"precision\":\"BF16_BF16_F32\",\"return_residuals\":false}": {
    "{}": {
      "compile_time_ms": 875.8579929999826,
      "lower_time_ms": 13.459435999976677,
      "evaluation_times_ms": [
        5.306388,
        5.30642,
        5.322737,
        5.340877,
        5.318033
      ],
      "metadata": {},
      "peak_memory_mb": 9512.812544
    }
  },
  "{\"x\":\"bf16[1,2304,2304,128]\",\"weights\":\"bf16[128,2,512]\",\"activation\":\"jax._src.nn.functions.silu\",\"precision\":\"BF16_BF16_F32\",\"return_residuals\":false}": {
    "{}": {
      "compile_time_ms": 935.7940300000109,
      "lower_time_ms": 13.35209799998438,
      "evaluation_times_ms": [
        10.599606000000001,
        10.585913000000001,
        10.614803,
        10.60495,
        10.596343000000001
      ],
      "metadata": {},
      "peak_memory_mb": 17666.670592
    }
  },
  "{\"x\":\"bf16[2304,2304,128]\",\"weights\":\"bf16[128,2,256]\",\"activation\":\"jax._src.nn.functions.sigmoid\",\"precision\":\"BF16_BF16_F32\",\"return_residuals\":false}": {
    "{}": {
      "compile_time_ms": 209.15351700000429,
      "lower_time_ms": 11.99742800000081,
      "evaluation_times_ms": [
        5.306623999999999,
        5.303648,
        5.326365,
        5.324285,
        5.329437
      ],
      "metadata": {},
      "peak_memory_mb": 9512.812544
    }
  },
  "{\"x\":\"bf16[2304,2304,128]\",\"weights\":\"bf16[128,2,512]\",\"activation\":\"jax._src.nn.functions.silu\",\"precision\":\"BF16_BF16_F32\",\"return_residuals\":false}": {
    "{}": {
      "compile_time_ms": 231.03915099997607,
      "lower_time_ms": 16.35298100001137,
      "evaluation_times_ms": [
        10.581652,
        10.57103,
        10.565303,
        10.587858,
        10.575477
      ],
      "metadata": {},
      "peak_memory_mb": 17666.670592
    }
  },
  "{\"x\":\"f32[2304,2304,128]\",\"weights\":\"f32[128,2,256]\",\"activation\":\"jax._src.nn.functions.silu\",\"precision\":\"BF16_BF16_F32\",\"return_residuals\":false}": {
    "{}": {
      "compile_time_ms": 3544.9975149999914,
      "lower_time_ms": 208.13261600000033,
      "evaluation_times_ms": [
        10.740273,
        10.717044999999999,
        10.74504,
        10.758541000000001,
        10.737266
      ],
      "metadata": {},
      "peak_memory_mb": 19025.625088
    }
  }
}
