{
  "{\"x\":\"bf16[1,512,512,128]\",\"weights\":\"bf16[128,2,256]\",\"activation\":\"jax._src.nn.functions.sigmoid\",\"precision\":\"BF16_BF16_F32\",\"return_residuals\":false}": {
    "{}": {
      "compile_time_ms": 460.31550299994706,
      "lower_time_ms": 14.801144999637472,
      "evaluation_times_ms": [
        0.27257200000000004,
        0.274364,
        0.266813,
        0.273725,
        0.273916
      ],
      "metadata": {},
      "peak_memory_mb": 469.89312
    }
  },
  "{\"x\":\"bf16[1,512,512,128]\",\"weights\":\"bf16[128,2,512]\",\"activation\":\"jax._src.nn.functions.silu\",\"precision\":\"BF16_BF16_F32\",\"return_residuals\":false}": {
    "{}": {
      "compile_time_ms": 357.0098010000038,
      "lower_time_ms": 11.277921999862883,
      "evaluation_times_ms": [
        0.526106,
        0.528537,
        0.525146,
        0.526457,
        0.525882
      ],
      "metadata": {},
      "peak_memory_mb": 872.677376
    }
  },
  "{\"x\":\"bf16[512,512,128]\",\"weights\":\"bf16[128,2,256]\",\"activation\":\"jax._src.nn.functions.sigmoid\",\"precision\":\"BF16_BF16_F32\",\"return_residuals\":false}": {
    "{}": {
      "compile_time_ms": 185.26220500007184,
      "lower_time_ms": 10.808210000050167,
      "evaluation_times_ms": [
        0.269404,
        0.271261,
        0.26991699999999996,
        0.27285899999999996,
        0.268188
      ],
      "metadata": {},
      "peak_memory_mb": 469.89312
    }
  },
  "{\"x\":\"bf16[512,512,128]\",\"weights\":\"bf16[128,2,512]\",\"activation\":\"jax._src.nn.functions.silu\",\"precision\":\"BF16_BF16_F32\",\"return_residuals\":false}": {
    "{}": {
      "compile_time_ms": 193.53596900009506,
      "lower_time_ms": 12.020482000025368,
      "evaluation_times_ms": [
        0.529177,
        0.52425,
        0.524569,
        0.527288,
        0.527994
      ],
      "metadata": {},
      "peak_memory_mb": 872.677376
    }
  },
  "{\"x\":\"f32[512,512,128]\",\"weights\":\"f32[128,2,256]\",\"activation\":\"jax._src.nn.functions.silu\",\"precision\":\"BF16_BF16_F32\",\"return_residuals\":false}": {
    "{}": {
      "compile_time_ms": 589.6638949998305,
      "lower_time_ms": 9.924911999860342,
      "evaluation_times_ms": [
        0.546937,
        0.54633,
        0.549017,
        0.550745,
        0.555289
      ],
      "metadata": {},
      "peak_memory_mb": 939.78624
    }
  },
  "{\"x\":\"bf16[512,512,64]\",\"weights\":\"bf16[64,2,128]\",\"activation\":\"jax._src.nn.functions.sigmoid\",\"precision\":\"BF16_BF16_F32\",\"return_residuals\":false}": {
    "{}": {
      "compile_time_ms": 321.468239999831,
      "lower_time_ms": 10.37093900004038,
      "evaluation_times_ms": [
        0.131774,
        0.133662,
        0.13161499999999998,
        0.131262,
        0.132062
      ],
      "metadata": {},
      "peak_memory_mb": 234.913792
    }
  },
  "{\"x\":\"bf16[512,512,64]\",\"weights\":\"bf16[64,2,128]\",\"activation\":\"jax._src.nn.functions.silu\",\"precision\":\"BF16_BF16_F32\",\"return_residuals\":false}": {
    "{}": {
      "compile_time_ms": 104.03741600021021,
      "lower_time_ms": 9.425118999843107,
      "evaluation_times_ms": [
        0.13055899999999998,
        0.13107,
        0.130718,
        0.131551,
        0.130975
      ],
      "metadata": {},
      "peak_memory_mb": 234.913792
    }
  },
  "{\"x\":\"f32[5,512,32,128]\",\"weights\":\"f32[128,2,256]\",\"activation\":\"jax._src.nn.functions.silu\",\"precision\":\"BF16_BF16_F32\",\"return_residuals\":false}": {
    "{}": {
      "compile_time_ms": 612.9570230000354,
      "lower_time_ms": 10.736104999978124,
      "evaluation_times_ms": [
        0.18083,
        0.181501,
        0.182078,
        0.17875,
        0.180893
      ],
      "metadata": {},
      "peak_memory_mb": 293.863424
    }
  },
  "{\"x\":\"f32[512,32,128]\",\"weights\":\"f32[128,2,256]\",\"activation\":\"jax._src.nn.functions.silu\",\"precision\":\"BF16_BF16_F32\",\"return_residuals\":false}": {
    "{}": {
      "compile_time_ms": 601.2480260001212,
      "lower_time_ms": 10.623446999943553,
      "evaluation_times_ms": [
        0.03488,
        0.035744,
        0.035615,
        0.036320000000000005,
        0.035104
      ],
      "metadata": {},
      "peak_memory_mb": 58.9824
    }
  },
  "{\"x\":\"bf16[5,512,384]\",\"weights\":\"bf16[384,2,1536]\",\"activation\":\"jax._src.nn.functions.silu\",\"precision\":\"BF16_BF16_F32\",\"return_residuals\":false}": {
    "{}": {
      "compile_time_ms": 538.6174930004017,
      "lower_time_ms": 10.922259999915696,
      "evaluation_times_ms": [
        0.020832,
        0.020352,
        0.020512,
        0.020352000000000002,
        0.02064
      ],
      "metadata": {},
      "peak_memory_mb": 27.918336
    }
  },
  "{\"x\":\"bf16[512,384]\",\"weights\":\"bf16[384,2,1536]\",\"activation\":\"jax._src.nn.functions.silu\",\"precision\":\"BF16_BF16_F32\",\"return_residuals\":false}": {
    "{}": {
      "compile_time_ms": 508.5683269999208,
      "lower_time_ms": 11.385519999748794,
      "evaluation_times_ms": [
        0.006879999999999999,
        0.006879,
        0.006848,
        0.006784,
        0.006816
      ],
      "metadata": {},
      "peak_memory_mb": 7.471104
    }
  },
  "{\"x\":\"f32[5,512,384]\",\"weights\":\"f32[384,2,768]\",\"activation\":\"jax._src.nn.functions.silu\",\"precision\":\"BF16_BF16_F32\",\"return_residuals\":false}": {
    "{}": {
      "compile_time_ms": 470.79318499982037,
      "lower_time_ms": 10.615070000312699,
      "evaluation_times_ms": [
        0.018399,
        0.018304,
        0.018175,
        0.018208000000000002,
        0.018176
      ],
      "metadata": {},
      "peak_memory_mb": 64.618496
    }
  },
  "{\"x\":\"f32[512,384]\",\"weights\":\"f32[384,2,768]\",\"activation\":\"jax._src.nn.functions.silu\",\"precision\":\"BF16_BF16_F32\",\"return_residuals\":false}": {
    "{}": {
      "compile_time_ms": 570.7237110000278,
      "lower_time_ms": 10.46461099986118,
      "evaluation_times_ms": [
        0.00912,
        0.009151,
        0.009152,
        0.009184,
        0.009088
      ],
      "metadata": {},
      "peak_memory_mb": 7.86432
    }
  },
  "{\"x\":\"f32[5,512,768]\",\"weights\":\"f32[768,2,1536]\",\"activation\":\"jax._src.nn.functions.silu\",\"precision\":\"BF16_BF16_F32\",\"return_residuals\":false}": {
    "{}": {
      "compile_time_ms": 493.2029189999412,
      "lower_time_ms": 9.868533999906504,
      "evaluation_times_ms": [
        0.043008,
        0.043615,
        0.043711,
        0.043327,
        0.043008
      ],
      "metadata": {},
      "peak_memory_mb": 101.974016
    }
  },
  "{\"x\":\"f32[512,768]\",\"weights\":\"f32[768,2,1536]\",\"activation\":\"jax._src.nn.functions.silu\",\"precision\":\"BF16_BF16_F32\",\"return_residuals\":false}": {
    "{}": {
      "compile_time_ms": 484.26205499981734,
      "lower_time_ms": 9.411325999735709,
      "evaluation_times_ms": [
        0.015264,
        0.015232,
        0.015456000000000001,
        0.015072,
        0.015136
      ],
      "metadata": {},
      "peak_memory_mb": 58.720256
    }
  },
  "{\"x\":\"bf16[1,768,768,128]\",\"weights\":\"bf16[128,2,256]\",\"activation\":\"jax._src.nn.functions.sigmoid\",\"precision\":\"BF16_BF16_F32\",\"return_residuals\":false}": {
    "{}": {
      "compile_time_ms": 353.2270390001031,
      "lower_time_ms": 10.741923000296083,
      "evaluation_times_ms": [
        0.601432,
        0.598105,
        0.597912,
        0.5971759999999999,
        0.6056889999999999
      ],
      "metadata": {},
      "peak_memory_mb": 1057.09568
    }
  },
  "{\"x\":\"bf16[1,768,768,128]\",\"weights\":\"bf16[128,2,512]\",\"activation\":\"jax._src.nn.functions.silu\",\"precision\":\"BF16_BF16_F32\",\"return_residuals\":false}": {
    "{}": {
      "compile_time_ms": 400.7647230000657,
      "lower_time_ms": 11.936361999687506,
      "evaluation_times_ms": [
        1.181168,
        1.1811379999999998,
        1.1754099999999998,
        1.185586,
        1.175057
      ],
      "metadata": {},
      "peak_memory_mb": 1963.196416
    }
  },
  "{\"x\":\"bf16[768,768,128]\",\"weights\":\"bf16[128,2,256]\",\"activation\":\"jax._src.nn.functions.sigmoid\",\"precision\":\"BF16_BF16_F32\",\"return_residuals\":false}": {
    "{}": {
      "compile_time_ms": 189.01639299974704,
      "lower_time_ms": 10.9252249999372,
      "evaluation_times_ms": [
        0.6011770000000001,
        0.60172,
        0.600345,
        0.59964,
        0.5985199999999999
      ],
      "metadata": {},
      "peak_memory_mb": 1057.09568
    }
  },
  "{\"x\":\"bf16[768,768,128]\",\"weights\":\"bf16[128,2,512]\",\"activation\":\"jax._src.nn.functions.silu\",\"precision\":\"BF16_BF16_F32\",\"return_residuals\":false}": {
    "{}": {
      "compile_time_ms": 184.20518300035837,
      "lower_time_ms": 11.30960899990896,
      "evaluation_times_ms": [
        1.1731699999999998,
        1.179314,
        1.179506,
        1.179729,
        1.1834099999999999
      ],
      "metadata": {},
      "peak_memory_mb": 1963.196416
    }
  },
  "{\"x\":\"f32[768,768,128]\",\"weights\":\"f32[128,2,256]\",\"activation\":\"jax._src.nn.functions.silu\",\"precision\":\"BF16_BF16_F32\",\"return_residuals\":false}": {
    "{}": {
      "compile_time_ms": 632.3185390001527,
      "lower_time_ms": 10.5247579999741,
      "evaluation_times_ms": [
        1.207538,
        1.202513,
        1.2070889999999999,
        1.2070889999999999,
        1.213169
      ],
      "metadata": {},
      "peak_memory_mb": 2114.19136
    }
  },
  "{\"x\":\"bf16[768,768,64]\",\"weights\":\"bf16[64,2,128]\",\"activation\":\"jax._src.nn.functions.sigmoid\",\"precision\":\"BF16_BF16_F32\",\"return_residuals\":false}": {
    "{}": {
      "compile_time_ms": 283.25283499998477,
      "lower_time_ms": 10.50065099980202,
      "evaluation_times_ms": [
        0.284253,
        0.286269,
        0.28758,
        0.28687799999999997,
        0.284284
      ],
      "metadata": {},
      "peak_memory_mb": 528.515072
    }
  },
  "{\"x\":\"bf16[768,768,64]\",\"weights\":\"bf16[64,2,128]\",\"activation\":\"jax._src.nn.functions.silu\",\"precision\":\"BF16_BF16_F32\",\"return_residuals\":false}": {
    "{}": {
      "compile_time_ms": 108.88877900015359,
      "lower_time_ms": 9.444304000226111,
      "evaluation_times_ms": [
        0.283772,
        0.284541,
        0.284061,
        0.282941,
        0.285308
      ],
      "metadata": {},
      "peak_memory_mb": 528.515072
    }
  },
  "{\"x\":\"f32[5,768,32,128]\",\"weights\":\"f32[128,2,256]\",\"activation\":\"jax._src.nn.functions.silu\",\"precision\":\"BF16_BF16_F32\",\"return_residuals\":false}": {
    "{}": {
      "compile_time_ms": 572.0991700000013,
      "lower_time_ms": 11.317141000290576,
      "evaluation_times_ms": [
        0.263164,
        0.26348499999999997,
        0.265788,
        0.265533,
        0.263356
      ],
      "metadata": {},
      "peak_memory_mb": 440.664064
    }
  },
  "{\"x\":\"f32[768,32,128]\",\"weights\":\"f32[128,2,256]\",\"activation\":\"jax._src.nn.functions.silu\",\"precision\":\"BF16_BF16_F32\",\"return_residuals\":false}": {
    "{}": {
      "compile_time_ms": 596.796927000014,
      "lower_time_ms": 10.80440899977475,
      "evaluation_times_ms": [
        0.059327000000000005,
        0.059327,
        0.058879,
        0.058688,
        0.059264
      ],
      "metadata": {},
      "peak_memory_mb": 88.342528
    }
  },
  "{\"x\":\"bf16[5,768,384]\",\"weights\":\"bf16[384,2,1536]\",\"activation\":\"jax._src.nn.functions.silu\",\"precision\":\"BF16_BF16_F32\",\"return_residuals\":false}": {
    "{}": {
      "compile_time_ms": 545.2168990000246,
      "lower_time_ms": 11.240475999784394,
      "evaluation_times_ms": [
        0.030143,
        0.030784,
        0.030208,
        0.030238,
        0.030303999999999998
      ],
      "metadata": {},
      "peak_memory_mb": 40.697856
    }
  },
  "{\"x\":\"bf16[768,384]\",\"weights\":\"bf16[384,2,1536]\",\"activation\":\"jax._src.nn.functions.silu\",\"precision\":\"BF16_BF16_F32\",\"return_residuals\":false}": {
    "{}": {
      "compile_time_ms": 451.93323699959365,
      "lower_time_ms": 11.371460999725969,
      "evaluation_times_ms": [
        0.00848,
        0.008576,
        0.008544,
        0.008511000000000001,
        0.008448
      ],
      "metadata": {},
      "peak_memory_mb": 10.027008
    }
  },
  "{\"x\":\"f32[5,768,384]\",\"weights\":\"f32[384,2,768]\",\"activation\":\"jax._src.nn.functions.silu\",\"precision\":\"BF16_BF16_F32\",\"return_residuals\":false}": {
    "{}": {
      "compile_time_ms": 480.3078469999491,
      "lower_time_ms": 10.458643000220036,
      "evaluation_times_ms": [
        0.026559,
        0.026495,
        0.026431,
        0.026752,
        0.026654999999999998
      ],
      "metadata": {},
      "peak_memory_mb": 78.381056
    }
  },
  "{\"x\":\"f32[768,384]\",\"weights\":\"f32[384,2,768]\",\"activation\":\"jax._src.nn.functions.silu\",\"precision\":\"BF16_BF16_F32\",\"return_residuals\":false}": {
    "{}": {
      "compile_time_ms": 730.6251149998388,
      "lower_time_ms": 10.586077999960253,
      "evaluation_times_ms": [
        0.011935999999999999,
        0.011968,
        0.011967,
        0.011968,
        0.012032000000000001
      ],
      "metadata": {},
      "peak_memory_mb": 10.616832
    }
  },
  "{\"x\":\"f32[5,768,768]\",\"weights\":\"f32[768,2,1536]\",\"activation\":\"jax._src.nn.functions.silu\",\"precision\":\"BF16_BF16_F32\",\"return_residuals\":false}": {
    "{}": {
      "compile_time_ms": 469.90015999972456,
      "lower_time_ms": 10.084669000207214,
      "evaluation_times_ms": [
        0.06816,
        0.067263,
        0.068702,
        0.068,
        0.068191
      ],
      "metadata": {},
      "peak_memory_mb": 130.285568
    }
  },
  "{\"x\":\"f32[768,768]\",\"weights\":\"f32[768,2,1536]\",\"activation\":\"jax._src.nn.functions.silu\",\"precision\":\"BF16_BF16_F32\",\"return_residuals\":false}": {
    "{}": {
      "compile_time_ms": 478.57953299990186,
      "lower_time_ms": 9.585540999978548,
      "evaluation_times_ms": [
        0.018304,
        0.01824,
        0.018304,
        0.018304,
        0.018112
      ],
      "metadata": {},
      "peak_memory_mb": 60.686336
    }
  },
  "{\"x\":\"bf16[1,1024,1024,128]\",\"weights\":\"bf16[128,2,256]\",\"activation\":\"jax._src.nn.functions.sigmoid\",\"precision\":\"BF16_BF16_F32\",\"return_residuals\":false}": {
    "{}": {
      "compile_time_ms": 402.9666369997358,
      "lower_time_ms": 10.762186999727419,
      "evaluation_times_ms": [
        1.048211,
        1.052883,
        1.0485950000000002,
        1.0605310000000001,
        1.0541
      ],
      "metadata": {},
      "peak_memory_mb": 1879.179264
    }
  },
  "{\"x\":\"bf16[1,1024,1024,128]\",\"weights\":\"bf16[128,2,512]\",\"activation\":\"jax._src.nn.functions.silu\",\"precision\":\"BF16_BF16_F32\",\"return_residuals\":false}": {
    "{}": {
      "compile_time_ms": 408.50417599995126,
      "lower_time_ms": 11.984062000010454,
      "evaluation_times_ms": [
        2.0849659999999997,
        2.0848380000000004,
        2.081062,
        2.0849349999999998,
        2.08807
      ],
      "metadata": {},
      "peak_memory_mb": 3489.923072
    }
  },
  "{\"x\":\"bf16[1024,1024,128]\",\"weights\":\"bf16[128,2,256]\",\"activation\":\"jax._src.nn.functions.sigmoid\",\"precision\":\"BF16_BF16_F32\",\"return_residuals\":false}": {
    "{}": {
      "compile_time_ms": 189.3038329999399,
      "lower_time_ms": 10.80481899998631,
      "evaluation_times_ms": [
        1.051188,
        1.0479880000000001,
        1.048947,
        1.035891,
        1.043923
      ],
      "metadata": {},
      "peak_memory_mb": 1879.179264
    }
  },
  "{\"x\":\"bf16[1024,1024,128]\",\"weights\":\"bf16[128,2,512]\",\"activation\":\"jax._src.nn.functions.silu\",\"precision\":\"BF16_BF16_F32\",\"return_residuals\":false}": {
    "{}": {
      "compile_time_ms": 190.33195199972397,
      "lower_time_ms": 11.406546000216622,
      "evaluation_times_ms": [
        2.085126,
        2.092423,
        2.087015,
        2.085255,
        2.079174
      ],
      "metadata": {},
      "peak_memory_mb": 3489.923072
    }
  },
  "{\"x\":\"f32[1024,1024,128]\",\"weights\":\"f32[128,2,256]\",\"activation\":\"jax._src.nn.functions.silu\",\"precision\":\"BF16_BF16_F32\",\"return_residuals\":false}": {
    "{}": {
      "compile_time_ms": 301.01494600000933,
      "lower_time_ms": 16.30336499999885,
      "evaluation_times_ms": [
        2.131774,
        2.129631,
        2.147198,
        2.129982,
        2.130271
      ],
      "metadata": {},
      "peak_memory_mb": 3758.358528
    }
  },
  "{\"x\":\"bf16[1024,1024,64]\",\"weights\":\"bf16[64,2,128]\",\"activation\":\"jax._src.nn.functions.sigmoid\",\"precision\":\"BF16_BF16_F32\",\"return_residuals\":false}": {
    "{}": {
      "compile_time_ms": 319.3630000005214,
      "lower_time_ms": 15.10329200027627,
      "evaluation_times_ms": [
        0.503679,
        0.499425,
        0.500736,
        0.503008,
        0.503872
      ],
      "metadata": {},
      "peak_memory_mb": 939.556864
    }
  },
  "{\"x\":\"bf16[1024,1024,64]\",\"weights\":\"bf16[64,2,128]\",\"activation\":\"jax._src.nn.functions.silu\",\"precision\":\"BF16_BF16_F32\",\"return_residuals\":false}": {
    "{}": {
      "compile_time_ms": 123.63260199981596,
      "lower_time_ms": 9.680113999820605,
      "evaluation_times_ms": [
        0.502113,
        0.500193,
        0.50288,
        0.500385,
        0.5042880000000001
      ],
      "metadata": {},
      "peak_memory_mb": 939.556864
    }
  },
  "{\"x\":\"f32[5,1024,32,128]\",\"weights\":\"f32[128,2,256]\",\"activation\":\"jax._src.nn.functions.silu\",\"precision\":\"BF16_BF16_F32\",\"return_residuals\":false}": {
    "{}": {
      "compile_time_ms": 576.3719329997912,
      "lower_time_ms": 10.944512000605755,
      "evaluation_times_ms": [
        0.349696,
        0.348032,
        0.34732799999999997,
        0.347264,
        0.34816
      ],
      "metadata": {},
      "peak_memory_mb": 587.464704
    }
  },
  "{\"x\":\"f32[1024,32,128]\",\"weights\":\"f32[128,2,256]\",\"activation\":\"jax._src.nn.functions.silu\",\"precision\":\"BF16_BF16_F32\",\"return_residuals\":false}": {
    "{}": {
      "compile_time_ms": 514.1893670006539,
      "lower_time_ms": 11.370696000085445,
      "evaluation_times_ms": [
        0.076127,
        0.075744,
        0.076864,
        0.076928,
        0.07708799999999999
      ],
      "metadata": {},
      "peak_memory_mb": 117.702656
    }
  },
  "{\"x\":\"bf16[5,1024,384]\",\"weights\":\"bf16[384,2,1536]\",\"activation\":\"jax._src.nn.functions.silu\",\"precision\":\"BF16_BF16_F32\",\"return_residuals\":false}": {
    "{}": {
      "compile_time_ms": 519.4523750005828,
      "lower_time_ms": 11.108656999567756,
      "evaluation_times_ms": [
        0.044064,
        0.044544,
        0.04432,
        0.042849,
        0.04448
      ],
      "metadata": {},
      "peak_memory_mb": 53.477376
    }
  },
  "{\"x\":\"bf16[1024,384]\",\"weights\":\"bf16[384,2,1536]\",\"activation\":\"jax._src.nn.functions.silu\",\"precision\":\"BF16_BF16_F32\",\"return_residuals\":false}": {
    "{}": {
      "compile_time_ms": 501.9251499998063,
      "lower_time_ms": 11.104471000180638,
      "evaluation_times_ms": [
        0.009376,
        0.009568,
        0.009472,
        0.009503999999999999,
        0.009568
      ],
      "metadata": {},
      "peak_memory_mb": 12.582912
    }
  },
  "{\"x\":\"f32[5,1024,384]\",\"weights\":\"f32[384,2,768]\",\"activation\":\"jax._src.nn.functions.silu\",\"precision\":\"BF16_BF16_F32\",\"return_residuals\":false}": {
    "{}": {
      "compile_time_ms": 518.2255099998656,
      "lower_time_ms": 11.168068000188214,
      "evaluation_times_ms": [
        0.03424,
        0.034528,
        0.034367999999999996,
        0.034464,
        0.033952
      ],
      "metadata": {},
      "peak_memory_mb": 92.143616
    }
  },
  "{\"x\":\"f32[1024,384]\",\"weights\":\"f32[384,2,768]\",\"activation\":\"jax._src.nn.functions.silu\",\"precision\":\"BF16_BF16_F32\",\"return_residuals\":false}": {
    "{}": {
      "compile_time_ms": 735.4422980006348,
      "lower_time_ms": 10.64228399991407,
      "evaluation_times_ms": [
        0.012768,
        0.0128,
        0.012864,
        0.0128,
        0.012768
      ],
      "metadata": {},
      "peak_memory_mb": 13.369344
    }
  },
  "{\"x\":\"f32[5,1024,768]\",\"weights\":\"f32[768,2,1536]\",\"activation\":\"jax._src.nn.functions.silu\",\"precision\":\"BF16_BF16_F32\",\"return_residuals\":false}": {
    "{}": {
      "compile_time_ms": 467.29073699953005,
      "lower_time_ms": 9.486406000178249,
      "evaluation_times_ms": [
        0.087008,
        0.087296,
        0.086944,
        0.087201,
        0.08768
      ],
      "metadata": {},
      "peak_memory_mb": 157.810688
    }
  },
  "{\"x\":\"f32[1024,768]\",\"weights\":\"f32[768,2,1536]\",\"activation\":\"jax._src.nn.functions.silu\",\"precision\":\"BF16_BF16_F32\",\"return_residuals\":false}": {
    "{}": {
      "compile_time_ms": 457.70879100018647,
      "lower_time_ms": 9.52384699940012,
      "evaluation_times_ms": [
        0.021088,
        0.02064,
        0.020512000000000002,
        0.020704,
        0.0208
      ],
      "metadata": {},
      "peak_memory_mb": 66.584576
    }
  },
  "{\"x\":\"bf16[1,1280,1280,128]\",\"weights\":\"bf16[128,2,256]\",\"activation\":\"jax._src.nn.functions.sigmoid\",\"precision\":\"BF16_BF16_F32\",\"return_residuals\":false}": {
    "{}": {
      "compile_time_ms": 446.7764310002167,
      "lower_time_ms": 11.388318999706826,
      "evaluation_times_ms": [
        1.663233,
        1.653152,
        1.647937,
        1.660225,
        1.660224
      ],
      "metadata": {},
      "peak_memory_mb": 2936.143872
    }
  },
  "{\"x\":\"bf16[1,1280,1280,128]\",\"weights\":\"bf16[128,2,512]\",\"activation\":\"jax._src.nn.functions.silu\",\"precision\":\"BF16_BF16_F32\",\"return_residuals\":false}": {
    "{}": {
      "compile_time_ms": 461.59752899984596,
      "lower_time_ms": 11.50893699923472,
      "evaluation_times_ms": [
        3.284193,
        3.273185,
        3.274817,
        3.272704,
        3.2784000000000004
      ],
      "metadata": {},
      "peak_memory_mb": 5452.857344
    }
  },
  "{\"x\":\"bf16[1280,1280,128]\",\"weights\":\"bf16[128,2,256]\",\"activation\":\"jax._src.nn.functions.sigmoid\",\"precision\":\"BF16_BF16_F32\",\"return_residuals\":false}": {
    "{}": {
      "compile_time_ms": 187.433406999844,
      "lower_time_ms": 10.888333000366401,
      "evaluation_times_ms": [
        1.647201,
        1.657152,
        1.657632,
        1.642368,
        1.655616
      ],
      "metadata": {},
      "peak_memory_mb": 2936.143872
    }
  },
  "{\"x\":\"bf16[1280,1280,128]\",\"weights\":\"bf16[128,2,512]\",\"activation\":\"jax._src.nn.functions.silu\",\"precision\":\"BF16_BF16_F32\",\"return_residuals\":false}": {
    "{}": {
      "compile_time_ms": 187.02809299975343,
      "lower_time_ms": 11.980070999925374,
      "evaluation_times_ms": [
        3.273793,
        3.268513,
        3.262144,
        3.280065,
        3.280065
      ],
      "metadata": {},
      "peak_memory_mb": 5452.857344
    }
  },
  "{\"x\":\"f32[1280,1280,128]\",\"weights\":\"f32[128,2,256]\",\"activation\":\"jax._src.nn.functions.silu\",\"precision\":\"BF16_BF16_F32\",\"return_residuals\":false}": {
    "{}": {
      "compile_time_ms": 679.1225570004826,
      "lower_time_ms": 10.24361100007809,
      "evaluation_times_ms": [
        3.316193,
        3.330657,
        3.32272,
        3.344385,
        3.318657
      ],
      "metadata": {},
      "peak_memory_mb": 5872.287744
    }
  },
  "{\"x\":\"bf16[1280,1280,64]\",\"weights\":\"bf16[64,2,128]\",\"activation\":\"jax._src.nn.functions.sigmoid\",\"precision\":\"BF16_BF16_F32\",\"return_residuals\":false}": {
    "{}": {
      "compile_time_ms": 310.18953300008434,
      "lower_time_ms": 10.655041000063648,
      "evaluation_times_ms": [
        0.777439,
        0.7782720000000001,
        0.7784,
        0.780704,
        0.7774399999999999
      ],
      "metadata": {},
      "peak_memory_mb": 1468.039168
    }
  },
  "{\"x\":\"bf16[1280,1280,64]\",\"weights\":\"bf16[64,2,128]\",\"activation\":\"jax._src.nn.functions.silu\",\"precision\":\"BF16_BF16_F32\",\"return_residuals\":false}": {
    "{}": {
      "compile_time_ms": 112.17335100081982,
      "lower_time_ms": 10.172186000090733,
      "evaluation_times_ms": [
        0.777919,
        0.7769280000000001,
        0.779937,
        0.778752,
        0.781025
      ],
      "metadata": {},
      "peak_memory_mb": 1468.039168
    }
  },
  "{\"x\":\"f32[5,1280,32,128]\",\"weights\":\"f32[128,2,256]\",\"activation\":\"jax._src.nn.functions.silu\",\"precision\":\"BF16_BF16_F32\",\"return_residuals\":false}": {
    "{}": {
      "compile_time_ms": 636.3274410005033,
      "lower_time_ms": 10.988719000124547,
      "evaluation_times_ms": [
        0.43254400000000004,
        0.43113599999999996,
        0.430304,
        0.430593,
        0.43142400000000003
      ],
      "metadata": {},
      "peak_memory_mb": 734.265344
    }
  },
  "{\"x\":\"f32[1280,32,128]\",\"weights\":\"f32[128,2,256]\",\"activation\":\"jax._src.nn.functions.silu\",\"precision\":\"BF16_BF16_F32\",\"return_residuals\":false}": {
    "{}": {
      "compile_time_ms": 577.9579529998955,
      "lower_time_ms": 10.902787999839347,
      "evaluation_times_ms": [
        0.093472,
        0.0928,
        0.092895,
        0.092736,
        0.095328
      ],
      "metadata": {},
      "peak_memory_mb": 147.062784
    }
  },
  "{\"x\":\"bf16[5,1280,384]\",\"weights\":\"bf16[384,2,1536]\",\"activation\":\"jax._src.nn.functions.silu\",\"precision\":\"BF16_BF16_F32\",\"return_residuals\":false}": {
    "{}": {
      "compile_time_ms": 493.2297280001876,
      "lower_time_ms": 12.702342000011413,
      "evaluation_times_ms": [
        0.055936,
        0.055552000000000004,
        0.05584,
        0.05616,
        0.055744
      ],
      "metadata": {},
      "peak_memory_mb": 66.256896
    }
  },
  "{\"x\":\"bf16[1280,384]\",\"weights\":\"bf16[384,2,1536]\",\"activation\":\"jax._src.nn.functions.silu\",\"precision\":\"BF16_BF16_F32\",\"return_residuals\":false}": {
    "{}": {
      "compile_time_ms": 490.6598910001776,
      "lower_time_ms": 11.161704000187456,
      "evaluation_times_ms": [
        0.011231999999999999,
        0.011264,
        0.011328000000000001,
        0.0112,
        0.0112
      ],
      "metadata": {},
      "peak_memory_mb": 15.138816
    }
  },
  "{\"x\":\"f32[5,1280,384]\",\"weights\":\"f32[384,2,768]\",\"activation\":\"jax._src.nn.functions.silu\",\"precision\":\"BF16_BF16_F32\",\"return_residuals\":false}": {
    "{}": {
      "compile_time_ms": 516.0674580001796,
      "lower_time_ms": 10.673380000298494,
      "evaluation_times_ms": [
        0.045536,
        0.044768,
        0.04528,
        0.045152,
        0.045248
      ],
      "metadata": {},
      "peak_memory_mb": 105.906176
    }
  },
  "{\"x\":\"f32[1280,384]\",\"weights\":\"f32[384,2,768]\",\"activation\":\"jax._src.nn.functions.silu\",\"precision\":\"BF16_BF16_F32\",\"return_residuals\":false}": {
    "{}": {
      "compile_time_ms": 703.3184009997058,
      "lower_time_ms": 11.926314999982424,
      "evaluation_times_ms": [
        0.013568,
        0.013568,
        0.013568,
        0.013632,
        0.013568
      ],
      "metadata": {},
      "peak_memory_mb": 16.121856
    }
  },
  "{\"x\":\"f32[5,1280,768]\",\"weights\":\"f32[768,2,1536]\",\"activation\":\"jax._src.nn.functions.silu\",\"precision\":\"BF16_BF16_F32\",\"return_residuals\":false}": {
    "{}": {
      "compile_time_ms": 475.1385610006764,
      "lower_time_ms": 9.5949960004873,
      "evaluation_times_ms": [
        0.1072,
        0.104864,
        0.105472,
        0.106464,
        0.105856
      ],
      "metadata": {},
      "peak_memory_mb": 161.611776
    }
  },
  "{\"x\":\"f32[1280,768]\",\"weights\":\"f32[768,2,1536]\",\"activation\":\"jax._src.nn.functions.silu\",\"precision\":\"BF16_BF16_F32\",\"return_residuals\":false}": {
    "{}": {
      "compile_time_ms": 468.9809179999429,
      "lower_time_ms": 9.494305999396602,
      "evaluation_times_ms": [
        0.02544,
        0.025472,
        0.025568,
        0.025888,
        0.025504
      ],
      "metadata": {},
      "peak_memory_mb": 72.482816
    }
  },
  "{\"x\":\"bf16[1,1536,1536,128]\",\"weights\":\"bf16[128,2,256]\",\"activation\":\"jax._src.nn.functions.sigmoid\",\"precision\":\"BF16_BF16_F32\",\"return_residuals\":false}": {
    "{}": {
      "compile_time_ms": 415.7898940002269,
      "lower_time_ms": 11.20787800027756,
      "evaluation_times_ms": [
        2.378208,
        2.3686730000000003,
        2.356864,
        2.357952,
        2.368544
      ],
      "metadata": {},
      "peak_memory_mb": 4227.989504
    }
  },
  "{\"x\":\"bf16[1,1536,1536,128]\",\"weights\":\"bf16[128,2,512]\",\"activation\":\"jax._src.nn.functions.silu\",\"precision\":\"BF16_BF16_F32\",\"return_residuals\":false}": {
    "{}": {
      "compile_time_ms": 495.1066779995017,
      "lower_time_ms": 12.061002000336885,
      "evaluation_times_ms": [
        4.695265,
        4.704448,
        4.698976999999999,
        4.701153,
        4.712161
      ],
      "metadata": {},
      "peak_memory_mb": 7851.999232
    }
  },
  "{\"x\":\"bf16[1536,1536,128]\",\"weights\":\"bf16[128,2,256]\",\"activation\":\"jax._src.nn.functions.sigmoid\",\"precision\":\"BF16_BF16_F32\",\"return_residuals\":false}": {
    "{}": {
      "compile_time_ms": 198.85652100037987,
      "lower_time_ms": 10.707922000619874,
      "evaluation_times_ms": [
        2.3678090000000003,
        2.3522879999999997,
        2.341216,
        2.3351360000000003,
        2.367937
      ],
      "metadata": {},
      "peak_memory_mb": 4227.989504
    }
  },
  "{\"x\":\"bf16[1536,1536,128]\",\"weights\":\"bf16[128,2,512]\",\"activation\":\"jax._src.nn.functions.silu\",\"precision\":\"BF16_BF16_F32\",\"return_residuals\":false}": {
    "{}": {
      "compile_time_ms": 187.46375099999568,
      "lower_time_ms": 11.41224200000579,
      "evaluation_times_ms": [
        4.7062729999999995,
        4.696448999999999,
        4.698113,
        4.7037130000000005,
        4.701377
      ],
      "metadata": {},
      "peak_memory_mb": 7851.999232
    }
  },
  "{\"x\":\"f32[1536,1536,128]\",\"weights\":\"f32[128,2,256]\",\"activation\":\"jax._src.nn.functions.silu\",\"precision\":\"BF16_BF16_F32\",\"return_residuals\":false}": {
    "{}": {
      "compile_time_ms": 787.8167629996824,
      "lower_time_ms": 10.657574999640929,
      "evaluation_times_ms": [
        4.771169,
        4.775073,
        4.800385,
        4.818017,
        4.7757439999999995
      ],
      "metadata": {},
      "peak_memory_mb": 8455.979008
    }
  },
  "{\"x\":\"bf16[1536,1536,64]\",\"weights\":\"bf16[64,2,128]\",\"activation\":\"jax._src.nn.functions.sigmoid\",\"precision\":\"BF16_BF16_F32\",\"return_residuals\":false}": {
    "{}": {
      "compile_time_ms": 291.1425980000786,
      "lower_time_ms": 10.816155999236798,
      "evaluation_times_ms": [
        1.11648,
        1.115872,
        1.116864,
        1.115424,
        1.117248
      ],
      "metadata": {},
      "peak_memory_mb": 2113.961984
    }
  },
  "{\"x\":\"bf16[1536,1536,64]\",\"weights\":\"bf16[64,2,128]\",\"activation\":\"jax._src.nn.functions.silu\",\"precision\":\"BF16_BF16_F32\",\"return_residuals\":false}": {
    "{}": {
      "compile_time_ms": 105.46806900038064,
      "lower_time_ms": 9.797401000469108,
      "evaluation_times_ms": [
        1.12144,
        1.1209280000000001,
        1.122337,
        1.120768,
        1.121504
      ],
      "metadata": {},
      "peak_memory_mb": 2113.961984
    }
  },
  "{\"x\":\"f32[5,1536,32,128]\",\"weights\":\"f32[128,2,256]\",\"activation\":\"jax._src.nn.functions.silu\",\"precision\":\"BF16_BF16_F32\",\"return_residuals\":false}": {
    "{}": {
      "compile_time_ms": 641.2596499994834,
      "lower_time_ms": 11.519673999828228,
      "evaluation_times_ms": [
        0.514176,
        0.515232,
        0.513984,
        0.512992,
        0.512064
      ],
      "metadata": {},
      "peak_memory_mb": 881.065984
    }
  },
  "{\"x\":\"f32[1536,32,128]\",\"weights\":\"f32[128,2,256]\",\"activation\":\"jax._src.nn.functions.silu\",\"precision\":\"BF16_BF16_F32\",\"return_residuals\":false}": {
    "{}": {
      "compile_time_ms": 558.0747979993248,
      "lower_time_ms": 11.003571999935957,
      "evaluation_times_ms": [
        0.111008,
        0.113216,
        0.11132800000000001,
        0.11055999999999999,
        0.113984
      ],
      "metadata": {},
      "peak_memory_mb": 176.422912
    }
  },
  "{\"x\":\"bf16[5,1536,384]\",\"weights\":\"bf16[384,2,1536]\",\"activation\":\"jax._src.nn.functions.silu\",\"precision\":\"BF16_BF16_F32\",\"return_residuals\":false}": {
    "{}": {
      "compile_time_ms": 135.21004000006087,
      "lower_time_ms": 14.276130999974157,
      "evaluation_times_ms": [
        0.061903,
        0.061519000000000004,
        0.06056,
        0.061103,
        0.060848
      ],
      "metadata": {},
      "peak_memory_mb": 114.950144
    }
  },
  "{\"x\":\"bf16[1536,384]\",\"weights\":\"bf16[384,2,1536]\",\"activation\":\"jax._src.nn.functions.silu\",\"precision\":\"BF16_BF16_F32\",\"return_residuals\":false}": {
    "{}": {
      "compile_time_ms": 494.08746301196516,
      "lower_time_ms": 14.445589040406048,
      "evaluation_times_ms": [
        0.013632,
        0.013696,
        0.013568,
        0.013728,
        0.013631999999999998
      ],
      "metadata": {},
      "peak_memory_mb": 17.69472
    }
  },
  "{\"x\":\"f32[5,1536,384]\",\"weights\":\"f32[384,2,768]\",\"activation\":\"jax._src.nn.functions.silu\",\"precision\":\"BF16_BF16_F32\",\"return_residuals\":false}": {
    "{}": {
      "compile_time_ms": 413.4733910905197,
      "lower_time_ms": 10.266426019370556,
      "evaluation_times_ms": [
        0.056832,
        0.057694999999999996,
        0.057311,
        0.056351,
        0.05664
      ],
      "metadata": {},
      "peak_memory_mb": 119.668736
    }
  },
  "{\"x\":\"f32[1536,384]\",\"weights\":\"f32[384,2,768]\",\"activation\":\"jax._src.nn.functions.silu\",\"precision\":\"BF16_BF16_F32\",\"return_residuals\":false}": {
    "{}": {
      "compile_time_ms": 556.3181739998981,
      "lower_time_ms": 10.254001012071967,
      "evaluation_times_ms": [
        0.01344,
        0.013408,
        0.013632,
        0.013631,
        0.01344
      ],
      "metadata": {},
      "peak_memory_mb": 53.608448
    }
  },
  "{\"x\":\"f32[5,1536,768]\",\"weights\":\"f32[768,2,1536]\",\"activation\":\"jax._src.nn.functions.silu\",\"precision\":\"BF16_BF16_F32\",\"return_residuals\":false}": {
    "{}": {
      "compile_time_ms": 460.6152680935338,
      "lower_time_ms": 11.046797968447208,
      "evaluation_times_ms": [
        0.124959,
        0.124543,
        0.123775,
        0.123775,
        0.12332800000000001
      ],
      "metadata": {},
      "peak_memory_mb": 191.102976
    }
  },
  "{\"x\":\"f32[1536,768]\",\"weights\":\"f32[768,2,1536]\",\"activation\":\"jax._src.nn.functions.silu\",\"precision\":\"BF16_BF16_F32\",\"return_residuals\":false}": {
    "{}": {
      "compile_time_ms": 423.52560709696263,
      "lower_time_ms": 9.008256951346993,
      "evaluation_times_ms": [
        0.030432,
        0.03024,
        0.030496,
        0.030304,
        0.030816
      ],
      "metadata": {},
      "peak_memory_mb": 78.381056
    }
  },
  "{\"x\":\"bf16[1,1792,1792,128]\",\"weights\":\"bf16[128,2,256]\",\"activation\":\"jax._src.nn.functions.sigmoid\",\"precision\":\"BF16_BF16_F32\",\"return_residuals\":false}": {
    "{}": {
      "compile_time_ms": 447.483169962652,
      "lower_time_ms": 10.603151051327586,
      "evaluation_times_ms": [
        3.187761,
        3.16552,
        3.165776,
        3.172144,
        3.148944
      ],
      "metadata": {},
      "peak_memory_mb": 5754.71616
    }
  },
  "{\"x\":\"bf16[1,1792,1792,128]\",\"weights\":\"bf16[128,2,512]\",\"activation\":\"jax._src.nn.functions.silu\",\"precision\":\"BF16_BF16_F32\",\"return_residuals\":false}": {
    "{}": {
      "compile_time_ms": 435.3209070395678,
      "lower_time_ms": 11.307288077659905,
      "evaluation_times_ms": [
        6.365631,
        6.37008,
        6.36848,
        6.3706879999999995,
        6.368767999999999
      ],
      "metadata": {},
      "peak_memory_mb": 10721.165312
    }
  },
  "{\"x\":\"bf16[1792,1792,128]\",\"weights\":\"bf16[128,2,256]\",\"activation\":\"jax._src.nn.functions.sigmoid\",\"precision\":\"BF16_BF16_F32\",\"return_residuals\":false}": {
    "{}": {
      "compile_time_ms": 192.62307393364608,
      "lower_time_ms": 10.306726908311248,
      "evaluation_times_ms": [
        3.147857,
        3.154128,
        3.171088,
        3.1463840000000003,
        3.167568
      ],
      "metadata": {},
      "peak_memory_mb": 5754.71616
    }
  },
  "{\"x\":\"bf16[1792,1792,128]\",\"weights\":\"bf16[128,2,512]\",\"activation\":\"jax._src.nn.functions.silu\",\"precision\":\"BF16_BF16_F32\",\"return_residuals\":false}": {
    "{}": {
      "compile_time_ms": 88.91595806926489,
      "lower_time_ms": 10.775040951557457,
      "evaluation_times_ms": [
        6.369568,
        6.3690240000000005,
        6.3637429999999995,
        6.363327,
        6.366816
      ],
      "metadata": {},
      "peak_memory_mb": 10721.165312
    }
  },
  "{\"x\":\"f32[1792,1792,128]\",\"weights\":\"f32[128,2,256]\",\"activation\":\"jax._src.nn.functions.silu\",\"precision\":\"BF16_BF16_F32\",\"return_residuals\":false}": {
    "{}": {
      "compile_time_ms": 805.3147899918258,
      "lower_time_ms": 10.099195060320199,
      "evaluation_times_ms": [
        6.476383,
        6.467358000000001,
        6.492799,
        6.502079,
        6.531583
      ],
      "metadata": {},
      "peak_memory_mb": 11509.43232
    }
  },
  "{\"x\":\"bf16[1792,1792,64]\",\"weights\":\"bf16[64,2,128]\",\"activation\":\"jax._src.nn.functions.sigmoid\",\"precision\":\"BF16_BF16_F32\",\"return_residuals\":false}": {
    "{}": {
      "compile_time_ms": 298.09849394951016,
      "lower_time_ms": 10.464633000083268,
      "evaluation_times_ms": [
        1.5176560000000001,
        1.5160239999999998,
        1.511223,
        1.515032,
        1.5130810000000001
      ],
      "metadata": {},
      "peak_memory_mb": 2877.325312
    }
  },
  "{\"x\":\"bf16[1792,1792,64]\",\"weights\":\"bf16[64,2,128]\",\"activation\":\"jax._src.nn.functions.silu\",\"precision\":\"BF16_BF16_F32\",\"return_residuals\":false}": {
    "{}": {
      "compile_time_ms": 115.68930197972804,
      "lower_time_ms": 9.247142006643116,
      "evaluation_times_ms": [
        1.5182959999999999,
        1.5141360000000001,
        1.5186169999999999,
        1.52044,
        1.516568
      ],
      "metadata": {},
      "peak_memory_mb": 2877.325312
    }
  },
  "{\"x\":\"f32[5,1792,32,128]\",\"weights\":\"f32[128,2,256]\",\"activation\":\"jax._src.nn.functions.silu\",\"precision\":\"BF16_BF16_F32\",\"return_residuals\":false}": {
    "{}": {
      "compile_time_ms": 573.7155489623547,
      "lower_time_ms": 10.73600398376584,
      "evaluation_times_ms": [
        0.601246,
        0.597534,
        0.594589,
        0.595164,
        0.597213
      ],
      "metadata": {},
      "peak_memory_mb": 1027.866624
    }
  },
  "{\"x\":\"f32[1792,32,128]\",\"weights\":\"f32[128,2,256]\",\"activation\":\"jax._src.nn.functions.silu\",\"precision\":\"BF16_BF16_F32\",\"return_residuals\":false}": {
    "{}": {
      "compile_time_ms": 606.4543849788606,
      "lower_time_ms": 10.206046979874372,
      "evaluation_times_ms": [
        0.12752,
        0.129408,
        0.12873400000000002,
        0.130304,
        0.128
      ],
      "metadata": {},
      "peak_memory_mb": 205.78304
    }
  },
  "{\"x\":\"bf16[5,1792,384]\",\"weights\":\"bf16[384,2,1536]\",\"activation\":\"jax._src.nn.functions.silu\",\"precision\":\"BF16_BF16_F32\",\"return_residuals\":false}": {
    "{}": {
      "compile_time_ms": 384.3264060560614,
      "lower_time_ms": 10.484484024345875,
      "evaluation_times_ms": [
        0.071391,
        0.072064,
        0.071712,
        0.071359,
        0.07283200000000001
      ],
      "metadata": {},
      "peak_memory_mb": 127.729664
    }
  },
  "{\"x\":\"bf16[1792,384]\",\"weights\":\"bf16[384,2,1536]\",\"activation\":\"jax._src.nn.functions.silu\",\"precision\":\"BF16_BF16_F32\",\"return_residuals\":false}": {
    "{}": {
      "compile_time_ms": 450.67085907794535,
      "lower_time_ms": 10.957872960716486,
      "evaluation_times_ms": [
        0.01456,
        0.014432,
        0.014976,
        0.014624000000000002,
        0.014816
      ],
      "metadata": {},
      "peak_memory_mb": 20.250624
    }
  },
  "{\"x\":\"f32[5,1792,384]\",\"weights\":\"f32[384,2,768]\",\"activation\":\"jax._src.nn.functions.silu\",\"precision\":\"BF16_BF16_F32\",\"return_residuals\":false}": {
    "{}": {
      "compile_time_ms": 465.59956995770335,
      "lower_time_ms": 10.516830021515489,
      "evaluation_times_ms": [
        0.065311,
        0.066623,
        0.065279,
        0.06614300000000001,
        0.066368
      ],
      "metadata": {},
      "peak_memory_mb": 133.431296
    }
  },
  "{\"x\":\"f32[1792,384]\",\"weights\":\"f32[384,2,768]\",\"activation\":\"jax._src.nn.functions.silu\",\"precision\":\"BF16_BF16_F32\",\"return_residuals\":false}": {
    "{}": {
      "compile_time_ms": 397.743635927327,
      "lower_time_ms": 10.05849801003933,
      "evaluation_times_ms": [
        0.015264,
        0.015296,
        0.015296,
        0.015903999999999998,
        0.015807
      ],
      "metadata": {},
      "peak_memory_mb": 56.36096
    }
  },
  "{\"x\":\"f32[5,1792,768]\",\"weights\":\"f32[768,2,1536]\",\"activation\":\"jax._src.nn.functions.silu\",\"precision\":\"BF16_BF16_F32\",\"return_residuals\":false}": {
    "{}": {
      "compile_time_ms": 474.62542611174285,
      "lower_time_ms": 9.593107039108872,
      "evaluation_times_ms": [
        0.14252599999999999,
        0.14272,
        0.143616,
        0.143263,
        0.141984
      ],
      "metadata": {},
      "peak_memory_mb": 220.594176
    }
  },
  "{\"x\":\"f32[1792,768]\",\"weights\":\"f32[768,2,1536]\",\"activation\":\"jax._src.nn.functions.silu\",\"precision\":\"BF16_BF16_F32\",\"return_residuals\":false}": {
    "{}": {
      "compile_time_ms": 437.5885119661689,
      "lower_time_ms": 8.999181096442044,
      "evaluation_times_ms": [
        0.033792,
        0.033664,
        0.03344,
        0.033184,
        0.033376
      ],
      "metadata": {},
      "peak_memory_mb": 84.279296
    }
  },
  "{\"x\":\"bf16[1,2048,2048,128]\",\"weights\":\"bf16[128,2,256]\",\"activation\":\"jax._src.nn.functions.sigmoid\",\"precision\":\"BF16_BF16_F32\",\"return_residuals\":false}": {
    "{}": {
      "compile_time_ms": 473.58075389638543,
      "lower_time_ms": 10.267048026435077,
      "evaluation_times_ms": [
        4.170667,
        4.161834000000001,
        4.151210000000001,
        4.189738,
        4.17857
      ],
      "metadata": {},
      "peak_memory_mb": 7516.32384
    }
  },
  "{\"x\":\"bf16[1,2048,2048,128]\",\"weights\":\"bf16[128,2,512]\",\"activation\":\"jax._src.nn.functions.silu\",\"precision\":\"BF16_BF16_F32\",\"return_residuals\":false}": {
    "{}": {
      "compile_time_ms": 517.5376610131934,
      "lower_time_ms": 11.24750601593405,
      "evaluation_times_ms": [
        8.318676,
        8.317235,
        8.317331000000001,
        8.320500000000001,
        8.315507
      ],
      "metadata": {},
      "peak_memory_mb": 13992.722432
    }
  },
  "{\"x\":\"bf16[2048,2048,128]\",\"weights\":\"bf16[128,2,256]\",\"activation\":\"jax._src.nn.functions.sigmoid\",\"precision\":\"BF16_BF16_F32\",\"return_residuals\":false}": {
    "{}": {
      "compile_time_ms": 203.31874897237867,
      "lower_time_ms": 10.505893034860492,
      "evaluation_times_ms": [
        4.180777,
        4.193514,
        4.17809,
        4.160458,
        4.185002
      ],
      "metadata": {},
      "peak_memory_mb": 7516.32384
    }
  },
  "{\"x\":\"bf16[2048,2048,128]\",\"weights\":\"bf16[128,2,512]\",\"activation\":\"jax._src.nn.functions.silu\",\"precision\":\"BF16_BF16_F32\",\"return_residuals\":false}": {
    "{}": {
      "compile_time_ms": 83.29750900156796,
      "lower_time_ms": 11.22681307606399,
      "evaluation_times_ms": [
        8.316116000000001,
        8.316819,
        8.319444,
        8.314995999999999,
        8.313939000000001
      ],
      "metadata": {},
      "peak_memory_mb": 13992.722432
    }
  },
  "{\"x\":\"f32[2048,2048,128]\",\"weights\":\"f32[128,2,256]\",\"activation\":\"jax._src.nn.functions.silu\",\"precision\":\"BF16_BF16_F32\",\"return_residuals\":false}": {
    "{}": {
      "compile_time_ms": 880.9744239551947,
      "lower_time_ms": 10.552354040555656,
      "evaluation_times_ms": [
        8.479634,
        8.463731,
        8.474194,
        8.459154,
        8.489842
      ],
      "metadata": {},
      "peak_memory_mb": 15032.64768
    }
  },
  "{\"x\":\"bf16[2048,2048,64]\",\"weights\":\"bf16[64,2,128]\",\"activation\":\"jax._src.nn.functions.sigmoid\",\"precision\":\"BF16_BF16_F32\",\"return_residuals\":false}": {
    "{}": {
      "compile_time_ms": 297.55840299185365,
      "lower_time_ms": 10.303645976819098,
      "evaluation_times_ms": [
        1.9796049999999998,
        1.975574,
        1.9742289999999998,
        1.975669,
        1.980213
      ],
      "metadata": {},
      "peak_memory_mb": 3758.129152
    }
  },
  "{\"x\":\"bf16[2048,2048,64]\",\"weights\":\"bf16[64,2,128]\",\"activation\":\"jax._src.nn.functions.silu\",\"precision\":\"BF16_BF16_F32\",\"return_residuals\":false}": {
    "{}": {
      "compile_time_ms": 114.29862002842128,
      "lower_time_ms": 9.385064942762256,
      "evaluation_times_ms": [
        1.980597,
        1.975286,
        1.978421,
        1.976757,
        1.981782
      ],
      "metadata": {},
      "peak_memory_mb": 3758.129152
    }
  },
  "{\"x\":\"f32[5,2048,32,128]\",\"weights\":\"f32[128,2,256]\",\"activation\":\"jax._src.nn.functions.silu\",\"precision\":\"BF16_BF16_F32\",\"return_residuals\":false}": {
    "{}": {
      "compile_time_ms": 620.1112519484013,
      "lower_time_ms": 10.910206008702517,
      "evaluation_times_ms": [
        0.675484,
        0.678172,
        0.675548,
        0.677276,
        0.6782360000000001
      ],
      "metadata": {},
      "peak_memory_mb": 1174.667264
    }
  },
  "{\"x\":\"f32[2048,32,128]\",\"weights\":\"f32[128,2,256]\",\"activation\":\"jax._src.nn.functions.silu\",\"precision\":\"BF16_BF16_F32\",\"return_residuals\":false}": {
    "{}": {
      "compile_time_ms": 598.9800529787317,
      "lower_time_ms": 10.310819023288786,
      "evaluation_times_ms": [
        0.145279,
        0.145344,
        0.145055,
        0.146943,
        0.144319
      ],
      "metadata": {},
      "peak_memory_mb": 235.143168
    }
  },
  "{\"x\":\"bf16[5,2048,384]\",\"weights\":\"bf16[384,2,1536]\",\"activation\":\"jax._src.nn.functions.silu\",\"precision\":\"BF16_BF16_F32\",\"return_residuals\":false}": {
    "{}": {
      "compile_time_ms": 380.65631792414933,
      "lower_time_ms": 10.550411068834364,
      "evaluation_times_ms": [
        0.08048,
        0.078783,
        0.079359,
        0.079327,
        0.079072
      ],
      "metadata": {},
      "peak_memory_mb": 140.509184
    }
  },
  "{\"x\":\"bf16[2048,384]\",\"weights\":\"bf16[384,2,1536]\",\"activation\":\"jax._src.nn.functions.silu\",\"precision\":\"BF16_BF16_F32\",\"return_residuals\":false}": {
    "{}": {
      "compile_time_ms": 470.50849499646574,
      "lower_time_ms": 11.03036105632782,
      "evaluation_times_ms": [
        0.01632,
        0.016352,
        0.016384,
        0.016384,
        0.016576
      ],
      "metadata": {},
      "peak_memory_mb": 22.806528
    }
  },
  "{\"x\":\"f32[5,2048,384]\",\"weights\":\"f32[384,2,768]\",\"activation\":\"jax._src.nn.functions.silu\",\"precision\":\"BF16_BF16_F32\",\"return_residuals\":false}": {
    "{}": {
      "compile_time_ms": 400.3285840153694,
      "lower_time_ms": 10.220249998383224,
      "evaluation_times_ms": [
        0.07491199999999999,
        0.073823,
        0.075743,
        0.074656,
        0.07439899999999999
      ],
      "metadata": {},
      "peak_memory_mb": 147.193856
    }
  },
  "{\"x\":\"f32[2048,384]\",\"weights\":\"f32[384,2,768]\",\"activation\":\"jax._src.nn.functions.silu\",\"precision\":\"BF16_BF16_F32\",\"return_residuals\":false}": {
    "{}": {
      "compile_time_ms": 438.4718920337036,
      "lower_time_ms": 10.075879050418735,
      "evaluation_times_ms": [
        0.016352,
        0.016416,
        0.016255000000000002,
        0.01616,
        0.01648
      ],
      "metadata": {},
      "peak_memory_mb": 59.113472
    }
  },
  "{\"x\":\"f32[5,2048,768]\",\"weights\":\"f32[768,2,1536]\",\"activation\":\"jax._src.nn.functions.silu\",\"precision\":\"BF16_BF16_F32\",\"return_residuals\":false}": {
    "{}": {
      "compile_time_ms": 465.4436659766361,
      "lower_time_ms": 9.700222057290375,
      "evaluation_times_ms": [
        0.163039,
        0.162655,
        0.16095900000000002,
        0.162175,
        0.161471
      ],
      "metadata": {},
      "peak_memory_mb": 250.085376
    }
  },
  "{\"x\":\"f32[2048,768]\",\"weights\":\"f32[768,2,1536]\",\"activation\":\"jax._src.nn.functions.silu\",\"precision\":\"BF16_BF16_F32\",\"return_residuals\":false}": {
    "{}": {
      "compile_time_ms": 110.54338997928426,
      "lower_time_ms": 12.96365400776267,
      "evaluation_times_ms": [
        0.035744,
        0.036128,
        0.035616,
        0.035936,
        0.035968
      ],
      "metadata": {},
      "peak_memory_mb": 90.177536
    }
  },
  "{\"x\":\"bf16[1,2304,2304,128]\",\"weights\":\"bf16[128,2,256]\",\"activation\":\"jax._src.nn.functions.sigmoid\",\"precision\":\"BF16_BF16_F32\",\"return_residuals\":false}": {
    "{}": {
      "compile_time_ms": 575.2151400001821,
      "lower_time_ms": 17.03005299987126,
      "evaluation_times_ms": [
        5.294074999999999,
        5.274876000000001,
        5.282267,
        5.296507,
        5.280251
      ],
      "metadata": {},
      "peak_memory_mb": 9512.812544
    }
  },
  "{\"x\":\"bf16[1,2304,2304,128]\",\"weights\":\"bf16[128,2,512]\",\"activation\":\"jax._src.nn.functions.silu\",\"precision\":\"BF16_BF16_F32\",\"return_residuals\":false}": {
    "{}": {
      "compile_time_ms": 675.836254999922,
      "lower_time_ms": 11.915291000150319,
      "evaluation_times_ms": [
        10.540083,
        10.533491,
        10.526995,
        10.54133,
        10.552083
      ],
      "metadata": {},
      "peak_memory_mb": 17666.670592
    }
  },
  "{\"x\":\"bf16[2304,2304,128]\",\"weights\":\"bf16[128,2,256]\",\"activation\":\"jax._src.nn.functions.sigmoid\",\"precision\":\"BF16_BF16_F32\",\"return_residuals\":false}": {
    "{}": {
      "compile_time_ms": 246.35204500009422,
      "lower_time_ms": 11.095896999904653,
      "evaluation_times_ms": [
        5.278361,
        5.249593,
        5.248984999999999,
        5.293305,
        5.2510010000000005
      ],
      "metadata": {},
      "peak_memory_mb": 9512.812544
    }
  },
  "{\"x\":\"bf16[2304,2304,128]\",\"weights\":\"bf16[128,2,512]\",\"activation\":\"jax._src.nn.functions.silu\",\"precision\":\"BF16_BF16_F32\",\"return_residuals\":false}": {
    "{}": {
      "compile_time_ms": 221.45285100032197,
      "lower_time_ms": 12.740039999698638,
      "evaluation_times_ms": [
        10.542926999999999,
        10.546543,
        10.530543999999999,
        10.534288,
        10.54264
      ],
      "metadata": {},
      "peak_memory_mb": 17666.670592
    }
  },
  "{\"x\":\"f32[2304,2304,128]\",\"weights\":\"f32[128,2,256]\",\"activation\":\"jax._src.nn.functions.silu\",\"precision\":\"BF16_BF16_F32\",\"return_residuals\":false}": {
    "{}": {
      "compile_time_ms": 1028.7333899996156,
      "lower_time_ms": 10.660914000254706,
      "evaluation_times_ms": [
        10.720043,
        10.738666,
        10.705227,
        10.727530000000002,
        10.707947
      ],
      "metadata": {},
      "peak_memory_mb": 19025.625088
    }
  },
  "{\"x\":\"bf16[2304,2304,64]\",\"weights\":\"bf16[64,2,128]\",\"activation\":\"jax._src.nn.functions.sigmoid\",\"precision\":\"BF16_BF16_F32\",\"return_residuals\":false}": {
    "{}": {
      "compile_time_ms": 397.7533850002146,
      "lower_time_ms": 11.052437999751419,
      "evaluation_times_ms": [
        2.497324,
        2.501389,
        2.501132,
        2.499596,
        2.501676
      ],
      "metadata": {},
      "peak_memory_mb": 4756.373504
    }
  },
  "{\"x\":\"bf16[2304,2304,64]\",\"weights\":\"bf16[64,2,128]\",\"activation\":\"jax._src.nn.functions.silu\",\"precision\":\"BF16_BF16_F32\",\"return_residuals\":false}": {
    "{}": {
      "compile_time_ms": 128.98216299981868,
      "lower_time_ms": 10.028300999692874,
      "evaluation_times_ms": [
        2.5031160000000003,
        2.506476,
        2.503564,
        2.502252,
        2.499276
      ],
      "metadata": {},
      "peak_memory_mb": 4756.373504
    }
  },
  "{\"x\":\"f32[5,2304,32,128]\",\"weights\":\"f32[128,2,256]\",\"activation\":\"jax._src.nn.functions.silu\",\"precision\":\"BF16_BF16_F32\",\"return_residuals\":false}": {
    "{}": {
      "compile_time_ms": 650.5596749993856,
      "lower_time_ms": 11.548067000148876,
      "evaluation_times_ms": [
        0.761017,
        0.762106,
        0.761882,
        0.7597700000000001,
        0.765626
      ],
      "metadata": {},
      "peak_memory_mb": 1321.467904
    }
  },
  "{\"x\":\"f32[2304,32,128]\",\"weights\":\"f32[128,2,256]\",\"activation\":\"jax._src.nn.functions.silu\",\"precision\":\"BF16_BF16_F32\",\"return_residuals\":false}": {
    "{}": {
      "compile_time_ms": 604.337871000098,
      "lower_time_ms": 11.299372999928892,
      "evaluation_times_ms": [
        0.16336,
        0.16291,
        0.163135,
        0.16323,
        0.16316599999999998
      ],
      "metadata": {},
      "peak_memory_mb": 264.503296
    }
  },
  "{\"x\":\"bf16[5,2304,384]\",\"weights\":\"bf16[384,2,1536]\",\"activation\":\"jax._src.nn.functions.silu\",\"precision\":\"BF16_BF16_F32\",\"return_residuals\":false}": {
    "{}": {
      "compile_time_ms": 466.52011100013624,
      "lower_time_ms": 11.394752000342123,
      "evaluation_times_ms": [
        0.089375,
        0.088607,
        0.088896,
        0.088896,
        0.088735
      ],
      "metadata": {},
      "peak_memory_mb": 128.581632
    }
  },
  "{\"x\":\"bf16[2304,384]\",\"weights\":\"bf16[384,2,1536]\",\"activation\":\"jax._src.nn.functions.silu\",\"precision\":\"BF16_BF16_F32\",\"return_residuals\":false}": {
    "{}": {
      "compile_time_ms": 541.648785999314,
      "lower_time_ms": 11.787638999521732,
      "evaluation_times_ms": [
        0.019136,
        0.019232,
        0.019232,
        0.019167999999999998,
        0.019200000000000002
      ],
      "metadata": {},
      "peak_memory_mb": 25.362432
    }
  },
  "{\"x\":\"f32[5,2304,384]\",\"weights\":\"f32[384,2,768]\",\"activation\":\"jax._src.nn.functions.silu\",\"precision\":\"BF16_BF16_F32\",\"return_residuals\":false}": {
    "{}": {
      "compile_time_ms": 463.61202299976867,
      "lower_time_ms": 11.013231000106316,
      "evaluation_times_ms": [
        0.082559,
        0.082688,
        0.082752,
        0.083807,
        0.083904
      ],
      "metadata": {},
      "peak_memory_mb": 136.249344
    }
  },
  "{\"x\":\"f32[2304,384]\",\"weights\":\"f32[384,2,768]\",\"activation\":\"jax._src.nn.functions.silu\",\"precision\":\"BF16_BF16_F32\",\"return_residuals\":false}": {
    "{}": {
      "compile_time_ms": 492.27821400018,
      "lower_time_ms": 10.620740999911504,
      "evaluation_times_ms": [
        0.017824,
        0.017824,
        0.017792,
        0.017664,
        0.017823
      ],
      "metadata": {},
      "peak_memory_mb": 61.865984
    }
  },
  "{\"x\":\"f32[5,2304,768]\",\"weights\":\"f32[768,2,1536]\",\"activation\":\"jax._src.nn.functions.silu\",\"precision\":\"BF16_BF16_F32\",\"return_residuals\":false}": {
    "{}": {
      "compile_time_ms": 580.2336439992359,
      "lower_time_ms": 10.198199000114982,
      "evaluation_times_ms": [
        0.18249500000000002,
        0.182719,
        0.183359,
        0.183903,
        0.182142
      ],
      "metadata": {},
      "peak_memory_mb": 279.576576
    }
  },
  "{\"x\":\"f32[2304,768]\",\"weights\":\"f32[768,2,1536]\",\"activation\":\"jax._src.nn.functions.silu\",\"precision\":\"BF16_BF16_F32\",\"return_residuals\":false}": {
    "{}": {
      "compile_time_ms": 485.9173280001414,
      "lower_time_ms": 9.75137099976564,
      "evaluation_times_ms": [
        0.041568,
        0.041280000000000004,
        0.041791999999999996,
        0.041344,
        0.042173999999999996
      ],
      "metadata": {},
      "peak_memory_mb": 96.075776
    }
  },
  "{\"x\":\"bf16[1,2560,2560,128]\",\"weights\":\"bf16[128,2,256]\",\"activation\":\"jax._src.nn.functions.sigmoid\",\"precision\":\"BF16_BF16_F32\",\"return_residuals\":false}": {
    "{}": {
      "compile_time_ms": 628.0448580000666,
      "lower_time_ms": 11.49406500007899,
      "evaluation_times_ms": [
        6.553065,
        6.53169,
        6.583209,
        6.526922000000001,
        6.544169
      ],
      "metadata": {},
      "peak_memory_mb": 11744.182272
    }
  },
  "{\"x\":\"bf16[1,2560,2560,128]\",\"weights\":\"bf16[128,2,512]\",\"activation\":\"jax._src.nn.functions.silu\",\"precision\":\"BF16_BF16_F32\",\"return_residuals\":false}": {
    "{}": {
      "compile_time_ms": 898.8003679996837,
      "lower_time_ms": 12.576203999742575,
      "evaluation_times_ms": [
        13.037554,
        13.039763,
        13.074674000000002,
        13.054226,
        13.052498
      ],
      "metadata": {},
      "peak_memory_mb": 21810.642944
    }
  },
  "{\"x\":\"bf16[2560,2560,128]\",\"weights\":\"bf16[128,2,256]\",\"activation\":\"jax._src.nn.functions.sigmoid\",\"precision\":\"BF16_BF16_F32\",\"return_residuals\":false}": {
    "{}": {
      "compile_time_ms": 212.85335599986865,
      "lower_time_ms": 11.49368599999434,
      "evaluation_times_ms": [
        6.559272,
        6.533992,
        6.551625,
        6.537545,
        6.522953
      ],
      "metadata": {},
      "peak_memory_mb": 11744.182272
    }
  },
  "{\"x\":\"bf16[2560,2560,128]\",\"weights\":\"bf16[128,2,512]\",\"activation\":\"jax._src.nn.functions.silu\",\"precision\":\"BF16_BF16_F32\",\"return_residuals\":false}": {
    "{}": {
      "compile_time_ms": 215.5946259999837,
      "lower_time_ms": 12.029296000036993,
      "evaluation_times_ms": [
        13.029969,
        13.026321,
        13.024944999999999,
        13.021457999999999,
        13.027953
      ],
      "metadata": {},
      "peak_memory_mb": 21810.642944
    }
  },
  "{\"x\":\"f32[2560,2560,128]\",\"weights\":\"f32[128,2,256]\",\"activation\":\"jax._src.nn.functions.silu\",\"precision\":\"BF16_BF16_F32\",\"return_residuals\":false}": {
    "{}": {
      "compile_time_ms": 1122.449127999971,
      "lower_time_ms": 11.212796000108938,
      "evaluation_times_ms": [
        13.211407,
        13.23803,
        13.224687,
        13.239982999999999,
        13.213871000000001
      ],
      "metadata": {},
      "peak_memory_mb": 23488.364544
    }
  },
  "{\"x\":\"bf16[2560,2560,64]\",\"weights\":\"bf16[64,2,128]\",\"activation\":\"jax._src.nn.functions.sigmoid\",\"precision\":\"BF16_BF16_F32\",\"return_residuals\":false}": {
    "{}": {
      "compile_time_ms": 577.5474760002908,
      "lower_time_ms": 11.386511999262439,
      "evaluation_times_ms": [
        3.085094,
        3.08663,
        3.091621,
        3.0883570000000002,
        3.089029
      ],
      "metadata": {},
      "peak_memory_mb": 5872.058368
    }
  },
  "{\"x\":\"bf16[2560,2560,64]\",\"weights\":\"bf16[64,2,128]\",\"activation\":\"jax._src.nn.functions.silu\",\"precision\":\"BF16_BF16_F32\",\"return_residuals\":false}": {
    "{}": {
      "compile_time_ms": 125.46661299984407,
      "lower_time_ms": 10.032633000264468,
      "evaluation_times_ms": [
        3.092389,
        3.0988860000000003,
        3.091462,
        3.089542,
        3.09207
      ],
      "metadata": {},
      "peak_memory_mb": 5872.058368
    }
  },
  "{\"x\":\"f32[5,2560,32,128]\",\"weights\":\"f32[128,2,256]\",\"activation\":\"jax._src.nn.functions.silu\",\"precision\":\"BF16_BF16_F32\",\"return_residuals\":false}": {
    "{}": {
      "compile_time_ms": 696.6774599995915,
      "lower_time_ms": 11.641068000244559,
      "evaluation_times_ms": [
        0.845241,
        0.842489,
        0.843224,
        0.843801,
        0.843417
      ],
      "metadata": {},
      "peak_memory_mb": 1468.268544
    }
  },
  "{\"x\":\"f32[2560,32,128]\",\"weights\":\"f32[128,2,256]\",\"activation\":\"jax._src.nn.functions.silu\",\"precision\":\"BF16_BF16_F32\",\"return_residuals\":false}": {
    "{}": {
      "compile_time_ms": 669.2250870000862,
      "lower_time_ms": 11.090257999967434,
      "evaluation_times_ms": [
        0.180063,
        0.18179,
        0.179262,
        0.180031,
        0.18083100000000002
      ],
      "metadata": {},
      "peak_memory_mb": 293.863424
    }
  },
  "{\"x\":\"bf16[5,2560,384]\",\"weights\":\"bf16[384,2,1536]\",\"activation\":\"jax._src.nn.functions.silu\",\"precision\":\"BF16_BF16_F32\",\"return_residuals\":false}": {
    "{}": {
      "compile_time_ms": 561.164323000412,
      "lower_time_ms": 11.474815999463317,
      "evaluation_times_ms": [
        0.096383,
        0.0976,
        0.096959,
        0.096671,
        0.096192
      ],
      "metadata": {},
      "peak_memory_mb": 142.344192
    }
  },
  "{\"x\":\"bf16[2560,384]\",\"weights\":\"bf16[384,2,1536]\",\"activation\":\"jax._src.nn.functions.silu\",\"precision\":\"BF16_BF16_F32\",\"return_residuals\":false}": {
    "{}": {
      "compile_time_ms": 701.4013580001119,
      "lower_time_ms": 11.871175000123912,
      "evaluation_times_ms": [
        0.020704,
        0.020256,
        0.020416,
        0.020384,
        0.020288
      ],
      "metadata": {},
      "peak_memory_mb": 27.918336
    }
  },
  "{\"x\":\"f32[5,2560,384]\",\"weights\":\"f32[384,2,768]\",\"activation\":\"jax._src.nn.functions.silu\",\"precision\":\"BF16_BF16_F32\",\"return_residuals\":false}": {
    "{}": {
      "compile_time_ms": 547.657206000622,
      "lower_time_ms": 10.978487999636855,
      "evaluation_times_ms": [
        0.090687,
        0.091648,
        0.091199,
        0.091615,
        0.090335
      ],
      "metadata": {},
      "peak_memory_mb": 150.994944
    }
  },
  "{\"x\":\"f32[2560,384]\",\"weights\":\"f32[384,2,768]\",\"activation\":\"jax._src.nn.functions.silu\",\"precision\":\"BF16_BF16_F32\",\"return_residuals\":false}": {
    "{}": {
      "compile_time_ms": 455.8556019992466,
      "lower_time_ms": 10.89807500011375,
      "evaluation_times_ms": [
        0.019072,
        0.018592,
        0.018527000000000002,
        0.018624,
        0.018688
      ],
      "metadata": {},
      "peak_memory_mb": 64.618496
    }
  },
  "{\"x\":\"f32[5,2560,768]\",\"weights\":\"f32[768,2,1536]\",\"activation\":\"jax._src.nn.functions.silu\",\"precision\":\"BF16_BF16_F32\",\"return_residuals\":false}": {
    "{}": {
      "compile_time_ms": 549.0502969996669,
      "lower_time_ms": 10.440789999847766,
      "evaluation_times_ms": [
        0.199294,
        0.199262,
        0.199518,
        0.19964600000000002,
        0.200126
      ],
      "metadata": {},
      "peak_memory_mb": 309.067776
    }
  },
  "{\"x\":\"f32[2560,768]\",\"weights\":\"f32[768,2,1536]\",\"activation\":\"jax._src.nn.functions.silu\",\"precision\":\"BF16_BF16_F32\",\"return_residuals\":false}": {
    "{}": {
      "compile_time_ms": 467.6818549996824,
      "lower_time_ms": 9.748606999892218,
      "evaluation_times_ms": [
        0.043519999999999996,
        0.043584,
        0.043519,
        0.043488,
        0.0432
      ],
      "metadata": {},
      "peak_memory_mb": 101.974016
    }
  },
  "{\"x\":\"bf16[1,2816,2816,128]\",\"weights\":\"bf16[128,2,256]\",\"activation\":\"jax._src.nn.functions.sigmoid\",\"precision\":\"BF16_BF16_F32\",\"return_residuals\":false}": {
    "{}": {
      "compile_time_ms": 685.663360000035,
      "lower_time_ms": 11.31527500001539,
      "evaluation_times_ms": [
        7.836988,
        7.864827999999999,
        7.836924,
        7.8552599999999995,
        7.851931
      ],
      "metadata": {},
      "peak_memory_mb": 14210.433024
    }
  },
  "{\"x\":\"bf16[1,2816,2816,128]\",\"weights\":\"bf16[128,2,512]\",\"activation\":\"jax._src.nn.functions.silu\",\"precision\":\"BF16_BF16_F32\",\"return_residuals\":false}": {
    "{}": {
      "compile_time_ms": 1058.7657500000205,
      "lower_time_ms": 12.530621999758296,
      "evaluation_times_ms": [
        15.743159,
        15.733751999999999,
        15.733654999999999,
        15.742199,
        15.738710999999999
      ],
      "metadata": {},
      "peak_memory_mb": 26390.822912
    }
  },
  "{\"x\":\"bf16[2816,2816,128]\",\"weights\":\"bf16[128,2,256]\",\"activation\":\"jax._src.nn.functions.sigmoid\",\"precision\":\"BF16_BF16_F32\",\"return_residuals\":false}": {
    "{}": {
      "compile_time_ms": 210.66979700026423,
      "lower_time_ms": 11.21197599968582,
      "evaluation_times_ms": [
        7.851453,
        7.847004,
        7.884348,
        7.845212,
        7.865372
      ],
      "metadata": {},
      "peak_memory_mb": 14210.433024
    }
  },
  "{\"x\":\"bf16[2816,2816,128]\",\"weights\":\"bf16[128,2,512]\",\"activation\":\"jax._src.nn.functions.silu\",\"precision\":\"BF16_BF16_F32\",\"return_residuals\":false}": {
    "{}": {
      "compile_time_ms": 219.97890599959646,
      "lower_time_ms": 12.023858000247856,
      "evaluation_times_ms": [
        15.742266,
        15.74761,
        15.763514,
        15.748249999999999,
        15.741496999999999
      ],
      "metadata": {},
      "peak_memory_mb": 26390.822912
    }
  },
  "{\"x\":\"f32[2816,2816,128]\",\"weights\":\"f32[128,2,256]\",\"activation\":\"jax._src.nn.functions.silu\",\"precision\":\"BF16_BF16_F32\",\"return_residuals\":false}": {
    "{}": {
      "compile_time_ms": 154.31285600004685,
      "lower_time_ms": 16.196852999996736,
      "evaluation_times_ms": [
        16.630381,
        16.634027,
        16.628491,
        16.622447,
        16.621328000000002
      ],
      "metadata": {},
      "peak_memory_mb": 28454.551552
    }
  },
  "{\"x\":\"bf16[2816,2816,64]\",\"weights\":\"bf16[64,2,128]\",\"activation\":\"jax._src.nn.functions.sigmoid\",\"precision\":\"BF16_BF16_F32\",\"return_residuals\":false}": {
    "{}": {
      "compile_time_ms": 448.510565000106,
      "lower_time_ms": 15.49244899979385,
      "evaluation_times_ms": [
        3.7363239999999998,
        3.743459,
        3.7398439999999997,
        3.749315,
        3.7324200000000003
      ],
      "metadata": {},
      "peak_memory_mb": 7105.183744
    }
  },
  "{\"x\":\"bf16[2816,2816,64]\",\"weights\":\"bf16[64,2,128]\",\"activation\":\"jax._src.nn.functions.silu\",\"precision\":\"BF16_BF16_F32\",\"return_residuals\":false}": {
    "{}": {
      "compile_time_ms": 126.90990999999485,
      "lower_time_ms": 9.844709999924817,
      "evaluation_times_ms": [
        3.74362,
        3.745251,
        3.739492,
        3.7379550000000004,
        3.739715
      ],
      "metadata": {},
      "peak_memory_mb": 7105.183744
    }
  },
  "{\"x\":\"f32[5,2816,32,128]\",\"weights\":\"f32[128,2,256]\",\"activation\":\"jax._src.nn.functions.silu\",\"precision\":\"BF16_BF16_F32\",\"return_residuals\":false}": {
    "{}": {
      "compile_time_ms": 664.0242399998897,
      "lower_time_ms": 11.146833999646333,
      "evaluation_times_ms": [
        0.924697,
        0.926841,
        0.926201,
        0.925305,
        0.929497
      ],
      "metadata": {},
      "peak_memory_mb": 1615.069184
    }
  },
  "{\"x\":\"f32[2816,32,128]\",\"weights\":\"f32[128,2,256]\",\"activation\":\"jax._src.nn.functions.silu\",\"precision\":\"BF16_BF16_F32\",\"return_residuals\":false}": {
    "{}": {
      "compile_time_ms": 619.1322569998192,
      "lower_time_ms": 11.829335999664181,
      "evaluation_times_ms": [
        0.19814199999999998,
        0.197183,
        0.196382,
        0.198365,
        0.197791
      ],
      "metadata": {},
      "peak_memory_mb": 323.223552
    }
  },
  "{\"x\":\"bf16[5,2816,384]\",\"weights\":\"bf16[384,2,1536]\",\"activation\":\"jax._src.nn.functions.silu\",\"precision\":\"BF16_BF16_F32\",\"return_residuals\":false}": {
    "{}": {
      "compile_time_ms": 465.22683400007736,
      "lower_time_ms": 11.39585700002499,
      "evaluation_times_ms": [
        0.105503,
        0.105215,
        0.104224,
        0.104767,
        0.104959
      ],
      "metadata": {},
      "peak_memory_mb": 156.106752
    }
  },
  "{\"x\":\"bf16[2816,384]\",\"weights\":\"bf16[384,2,1536]\",\"activation\":\"jax._src.nn.functions.silu\",\"precision\":\"BF16_BF16_F32\",\"return_residuals\":false}": {
    "{}": {
      "compile_time_ms": 1138.06369599979,
      "lower_time_ms": 11.145613999815396,
      "evaluation_times_ms": [
        0.022496,
        0.022464,
        0.022463,
        0.022464,
        0.022784
      ],
      "metadata": {},
      "peak_memory_mb": 30.47424
    }
  },
  "{\"x\":\"f32[5,2816,384]\",\"weights\":\"f32[384,2,768]\",\"activation\":\"jax._src.nn.functions.silu\",\"precision\":\"BF16_BF16_F32\",\"return_residuals\":false}": {
    "{}": {
      "compile_time_ms": 534.707907000211,
      "lower_time_ms": 11.274251000031654,
      "evaluation_times_ms": [
        0.09827,
        0.098591,
        0.098495,
        0.098496,
        0.09782300000000001
      ],
      "metadata": {},
      "peak_memory_mb": 165.740544
    }
  },
  "{\"x\":\"f32[2816,384]\",\"weights\":\"f32[384,2,768]\",\"activation\":\"jax._src.nn.functions.silu\",\"precision\":\"BF16_BF16_F32\",\"return_residuals\":false}": {
    "{}": {
      "compile_time_ms": 483.64733100015656,
      "lower_time_ms": 10.870260000046983,
      "evaluation_times_ms": [
        0.019744,
        0.020031,
        0.019808,
        0.019648,
        0.019712
      ],
      "metadata": {},
      "peak_memory_mb": 67.371008
    }
  },
  "{\"x\":\"f32[5,2816,768]\",\"weights\":\"f32[768,2,1536]\",\"activation\":\"jax._src.nn.functions.silu\",\"precision\":\"BF16_BF16_F32\",\"return_residuals\":false}": {
    "{}": {
      "compile_time_ms": 458.1914339996729,
      "lower_time_ms": 9.751606000008906,
      "evaluation_times_ms": [
        0.216383,
        0.21695799999999998,
        0.21667,
        0.215518,
        0.215871
      ],
      "metadata": {},
      "peak_memory_mb": 338.558976
    }
  },
  "{\"x\":\"f32[2816,768]\",\"weights\":\"f32[768,2,1536]\",\"activation\":\"jax._src.nn.functions.silu\",\"precision\":\"BF16_BF16_F32\",\"return_residuals\":false}": {
    "{}": {
      "compile_time_ms": 73.99028700001509,
      "lower_time_ms": 13.908485000001747,
      "evaluation_times_ms": [
        0.049108,
        0.047475,
        0.047988,
        0.048051,
        0.048147
      ],
      "metadata": {},
      "peak_memory_mb": 107.872256
    }
  },
  "{\"x\":\"bf16[1,3072,3072,128]\",\"weights\":\"bf16[128,2,256]\",\"activation\":\"jax._src.nn.functions.sigmoid\",\"precision\":\"BF16_BF16_F32\",\"return_residuals\":false}": {
    "{}": {
      "compile_time_ms": 760.742362999963,
      "lower_time_ms": 11.0208659999671,
      "evaluation_times_ms": [
        9.239621,
        9.297749,
        9.246627,
        9.272027,
        9.336586
      ],
      "metadata": {},
      "peak_memory_mb": 16911.5648
    }
  },
  "{\"x\":\"bf16[1,3072,3072,128]\",\"weights\":\"bf16[128,2,512]\",\"activation\":\"jax._src.nn.functions.silu\",\"precision\":\"BF16_BF16_F32\",\"return_residuals\":false}": {
    "{}": {
      "compile_time_ms": 960.2945120000186,
      "lower_time_ms": 11.685499000009258,
      "evaluation_times_ms": [
        18.740629,
        18.734389999999998,
        18.734198,
        18.748403,
        18.747028
      ],
      "metadata": {},
      "peak_memory_mb": 31407.210496
    }
  },
  "{\"x\":\"bf16[3072,3072,128]\",\"weights\":\"bf16[128,2,256]\",\"activation\":\"jax._src.nn.functions.sigmoid\",\"precision\":\"BF16_BF16_F32\",\"return_residuals\":false}": {
    "{}": {
      "compile_time_ms": 209.25677399998222,
      "lower_time_ms": 11.820456999998896,
      "evaluation_times_ms": [
        9.421733,
        9.327455,
        9.344028,
        9.387055,
        9.294089
      ],
      "metadata": {},
      "peak_memory_mb": 16911.5648
    }
  },
  "{\"x\":\"bf16[3072,3072,128]\",\"weights\":\"bf16[128,2,512]\",\"activation\":\"jax._src.nn.functions.silu\",\"precision\":\"BF16_BF16_F32\",\"return_residuals\":false}": {
    "{}": {
      "compile_time_ms": 205.50911699990593,
      "lower_time_ms": 11.767164999923807,
      "evaluation_times_ms": [
        18.720927000000003,
        18.702436,
        18.712801,
        18.766291000000002,
        18.746809
      ],
      "metadata": {},
      "peak_memory_mb": 31407.210496
    }
  },
  "{\"x\":\"f32[3072,3072,128]\",\"weights\":\"f32[128,2,256]\",\"activation\":\"jax._src.nn.functions.silu\",\"precision\":\"BF16_BF16_F32\",\"return_residuals\":false}": {
    "{}": {
      "compile_time_ms": 1459.3815969999469,
      "lower_time_ms": 10.4300069999681,
      "evaluation_times_ms": [
        19.005589999999998,
        19.017074,
        19.013876000000003,
        18.997943999999997,
        19.050826
      ],
      "metadata": {},
      "peak_memory_mb": 33823.1296
    }
  },
  "{\"x\":\"bf16[3072,3072,64]\",\"weights\":\"bf16[64,2,128]\",\"activation\":\"jax._src.nn.functions.sigmoid\",\"precision\":\"BF16_BF16_F32\",\"return_residuals\":false}": {
    "{}": {
      "compile_time_ms": 451.0041489999139,
      "lower_time_ms": 11.60597599994162,
      "evaluation_times_ms": [
        4.4528929999999995,
        4.451772,
        4.4465889999999995,
        4.44403,
        4.440831
      ],
      "metadata": {},
      "peak_memory_mb": 8455.749632
    }
  },
  "{\"x\":\"bf16[3072,3072,64]\",\"weights\":\"bf16[64,2,128]\",\"activation\":\"jax._src.nn.functions.silu\",\"precision\":\"BF16_BF16_F32\",\"return_residuals\":false}": {
    "{}": {
      "compile_time_ms": 125.38174099995558,
      "lower_time_ms": 10.330820000035601,
      "evaluation_times_ms": [
        4.447544000000001,
        4.452438,
        4.447896,
        4.448472000000001,
        4.448984
      ],
      "metadata": {},
      "peak_memory_mb": 8455.749632
    }
  },
  "{\"x\":\"f32[5,3072,32,128]\",\"weights\":\"f32[128,2,256]\",\"activation\":\"jax._src.nn.functions.silu\",\"precision\":\"BF16_BF16_F32\",\"return_residuals\":false}": {
    "{}": {
      "compile_time_ms": 672.1031859999584,
      "lower_time_ms": 11.111589999927673,
      "evaluation_times_ms": [
        1.0099879999999999,
        1.014945,
        1.0086439999999999,
        1.008708,
        1.008803
      ],
      "metadata": {},
      "peak_memory_mb": 1761.869824
    }
  },
  "{\"x\":\"f32[3072,32,128]\",\"weights\":\"f32[128,2,256]\",\"activation\":\"jax._src.nn.functions.silu\",\"precision\":\"BF16_BF16_F32\",\"return_residuals\":false}": {
    "{}": {
      "compile_time_ms": 578.0175740000004,
      "lower_time_ms": 11.635993999902894,
      "evaluation_times_ms": [
        0.21312399999999998,
        0.215908,
        0.212995,
        0.21501199999999998,
        0.21440399999999998
      ],
      "metadata": {},
      "peak_memory_mb": 352.58368
    }
  },
  "{\"x\":\"bf16[5,3072,384]\",\"weights\":\"bf16[384,2,1536]\",\"activation\":\"jax._src.nn.functions.silu\",\"precision\":\"BF16_BF16_F32\",\"return_residuals\":false}": {
    "{}": {
      "compile_time_ms": 391.6004800000792,
      "lower_time_ms": 11.119201000042267,
      "evaluation_times_ms": [
        0.114944,
        0.114367,
        0.113921,
        0.11392100000000001,
        0.11408
      ],
      "metadata": {},
      "peak_memory_mb": 169.869312
    }
  },
  "{\"x\":\"bf16[3072,384]\",\"weights\":\"bf16[384,2,1536]\",\"activation\":\"jax._src.nn.functions.silu\",\"precision\":\"BF16_BF16_F32\",\"return_residuals\":false}": {
    "{}": {
      "compile_time_ms": 500.50469300003897,
      "lower_time_ms": 10.993106000000807,
      "evaluation_times_ms": [
        0.025178,
        0.025209,
        0.025624,
        0.025497000000000002,
        0.025401
      ],
      "metadata": {},
      "peak_memory_mb": 33.030144
    }
  },
  "{\"x\":\"f32[5,3072,384]\",\"weights\":\"f32[384,2,768]\",\"activation\":\"jax._src.nn.functions.silu\",\"precision\":\"BF16_BF16_F32\",\"return_residuals\":false}": {
    "{}": {
      "compile_time_ms": 452.8820000000451,
      "lower_time_ms": 11.088955000104761,
      "evaluation_times_ms": [
        0.10525,
        0.10393999999999999,
        0.106465,
        0.10637,
        0.10378
      ],
      "metadata": {},
      "peak_memory_mb": 180.486144
    }
  },
  "{\"x\":\"f32[3072,384]\",\"weights\":\"f32[384,2,768]\",\"activation\":\"jax._src.nn.functions.silu\",\"precision\":\"BF16_BF16_F32\",\"return_residuals\":false}": {
    "{}": {
      "compile_time_ms": 485.48253699993893,
      "lower_time_ms": 10.632877000034568,
      "evaluation_times_ms": [
        0.023513,
        0.023514,
        0.023577999999999998,
        0.023673,
        0.023513
      ],
      "metadata": {},
      "peak_memory_mb": 70.12352
    }
  },
  "{\"x\":\"f32[5,3072,768]\",\"weights\":\"f32[768,2,1536]\",\"activation\":\"jax._src.nn.functions.silu\",\"precision\":\"BF16_BF16_F32\",\"return_residuals\":false}": {
    "{}": {
      "compile_time_ms": 439.67995599996357,
      "lower_time_ms": 9.64047100001153,
      "evaluation_times_ms": [
        0.235773,
        0.235806,
        0.23724299999999998,
        0.235741,
        0.235868
      ],
      "metadata": {},
      "peak_memory_mb": 368.050176
    }
  },
  "{\"x\":\"f32[3072,768]\",\"weights\":\"f32[768,2,1536]\",\"activation\":\"jax._src.nn.functions.silu\",\"precision\":\"BF16_BF16_F32\",\"return_residuals\":false}": {
    "{}": {
      "compile_time_ms": 467.1890299999859,
      "lower_time_ms": 9.981725999978153,
      "evaluation_times_ms": [
        0.055312,
        0.056112,
        0.055121,
        0.055312,
        0.055056
      ],
      "metadata": {},
      "peak_memory_mb": 113.770496
    }
  },
  "{\"x\":\"bf16[1,3328,3328,128]\",\"weights\":\"bf16[128,2,256]\",\"activation\":\"jax._src.nn.functions.sigmoid\",\"precision\":\"BF16_BF16_F32\",\"return_residuals\":false}": {
    "{}": {
      "compile_time_ms": 810.2259519999961,
      "lower_time_ms": 11.308899999903588,
      "evaluation_times_ms": [
        11.005427000000001,
        11.004595,
        10.931816999999999,
        10.991767,
        11.072032
      ],
      "metadata": {},
      "peak_memory_mb": 19847.5776
    }
  },
  "{\"x\":\"bf16[1,3328,3328,128]\",\"weights\":\"bf16[128,2,512]\",\"activation\":\"jax._src.nn.functions.silu\",\"precision\":\"BF16_BF16_F32\",\"return_residuals\":false}": {
    "{}": {
      "compile_time_ms": 120409.91630300005,
      "lower_time_ms": 11.950708999961535,
      "evaluation_times_ms": [
        22.316305,
        22.324685,
        22.32555,
        22.328523,
        22.329836
      ],
      "metadata": {},
      "peak_memory_mb": 36893.622272
    }
  },
  "{\"x\":\"bf16[3328,3328,128]\",\"weights\":\"bf16[128,2,256]\",\"activation\":\"jax._src.nn.functions.sigmoid\",\"precision\":\"BF16_BF16_F32\",\"return_residuals\":false}": {
    "{}": {
      "compile_time_ms": 190.9804440000471,
      "lower_time_ms": 11.574971999948502,
      "evaluation_times_ms": [
        11.042362,
        10.998248,
        11.047673,
        11.050136,
        11.004678
      ],
      "metadata": {},
      "peak_memory_mb": 19847.5776
    }
  },
  "{\"x\":\"bf16[3328,3328,128]\",\"weights\":\"bf16[128,2,512]\",\"activation\":\"jax._src.nn.functions.silu\",\"precision\":\"BF16_BF16_F32\",\"return_residuals\":false}": {
    "{}": {
      "compile_time_ms": 114.41054299996267,
      "lower_time_ms": 12.444213999970088,
      "evaluation_times_ms": [
        22.329491,
        22.326149,
        22.328005,
        22.327588,
        22.335266
      ],
      "metadata": {},
      "peak_memory_mb": 36893.622272
    }
  },
  "{\"x\":\"f32[3328,3328,128]\",\"weights\":\"f32[128,2,256]\",\"activation\":\"jax._src.nn.functions.silu\",\"precision\":\"BF16_BF16_F32\",\"return_residuals\":false}": {},
  "{\"x\":\"bf16[3328,3328,64]\",\"weights\":\"bf16[64,2,128]\",\"activation\":\"jax._src.nn.functions.sigmoid\",\"precision\":\"BF16_BF16_F32\",\"return_residuals\":false}": {},
  "{\"x\":\"bf16[3328,3328,64]\",\"weights\":\"bf16[64,2,128]\",\"activation\":\"jax._src.nn.functions.silu\",\"precision\":\"BF16_BF16_F32\",\"return_residuals\":false}": {},
  "{\"x\":\"f32[5,3328,32,128]\",\"weights\":\"f32[128,2,256]\",\"activation\":\"jax._src.nn.functions.silu\",\"precision\":\"BF16_BF16_F32\",\"return_residuals\":false}": {
    "{}": {
      "compile_time_ms": 605.4534279999189,
      "lower_time_ms": 12.007347999997364,
      "evaluation_times_ms": [
        1.0872540000000002,
        1.090101,
        1.091605,
        1.095029,
        1.08895
      ],
      "metadata": {},
      "peak_memory_mb": 1908.670464
    }
  },
  "{\"x\":\"f32[3328,32,128]\",\"weights\":\"f32[128,2,256]\",\"activation\":\"jax._src.nn.functions.silu\",\"precision\":\"BF16_BF16_F32\",\"return_residuals\":false}": {
    "{}": {
      "compile_time_ms": 586.1472240001149,
      "lower_time_ms": 10.940260999859674,
      "evaluation_times_ms": [
        0.23008800000000001,
        0.230279,
        0.231912,
        0.231335,
        0.231048
      ],
      "metadata": {},
      "peak_memory_mb": 381.943808
    }
  },
  "{\"x\":\"bf16[5,3328,384]\",\"weights\":\"bf16[384,2,1536]\",\"activation\":\"jax._src.nn.functions.silu\",\"precision\":\"BF16_BF16_F32\",\"return_residuals\":false}": {
    "{}": {
      "compile_time_ms": 135.24244400002772,
      "lower_time_ms": 13.718842000002951,
      "evaluation_times_ms": [
        0.12224,
        0.122176,
        0.122208,
        0.122271,
        0.12134299999999999
      ],
      "metadata": {},
      "peak_memory_mb": 183.631872
    }
  },
  "{\"x\":\"bf16[3328,384]\",\"weights\":\"bf16[384,2,1536]\",\"activation\":\"jax._src.nn.functions.silu\",\"precision\":\"BF16_BF16_F32\",\"return_residuals\":false}": {
    "{}": {
      "compile_time_ms": 547.1691810525954,
      "lower_time_ms": 15.188043005764484,
      "evaluation_times_ms": [
        0.026496,
        0.026176,
        0.026175999999999998,
        0.026239,
        0.02624
      ],
      "metadata": {},
      "peak_memory_mb": 35.586048
    }
  },
  "{\"x\":\"f32[5,3328,384]\",\"weights\":\"f32[384,2,768]\",\"activation\":\"jax._src.nn.functions.silu\",\"precision\":\"BF16_BF16_F32\",\"return_residuals\":false}": {
    "{}": {
      "compile_time_ms": 411.99403698556125,
      "lower_time_ms": 10.484645026735961,
      "evaluation_times_ms": [
        0.1152,
        0.115616,
        0.11504,
        0.11507200000000001,
        0.115168
      ],
      "metadata": {},
      "peak_memory_mb": 195.231744
    }
  },
  "{\"x\":\"f32[3328,384]\",\"weights\":\"f32[384,2,768]\",\"activation\":\"jax._src.nn.functions.silu\",\"precision\":\"BF16_BF16_F32\",\"return_residuals\":false}": {
    "{}": {
      "compile_time_ms": 456.05928800068796,
      "lower_time_ms": 10.02601208165288,
      "evaluation_times_ms": [
        0.022976,
        0.0232,
        0.023488,
        0.02368,
        0.023039999999999998
      ],
      "metadata": {},
      "peak_memory_mb": 72.876032
    }
  },
  "{\"x\":\"f32[5,3328,768]\",\"weights\":\"f32[768,2,1536]\",\"activation\":\"jax._src.nn.functions.silu\",\"precision\":\"BF16_BF16_F32\",\"return_residuals\":false}": {
    "{}": {
      "compile_time_ms": 471.7918859096244,
      "lower_time_ms": 10.966054978780448,
      "evaluation_times_ms": [
        0.251936,
        0.251903,
        0.252447,
        0.252127,
        0.250944
      ],
      "metadata": {},
      "peak_memory_mb": 397.541376
    }
  },
  "{\"x\":\"f32[3328,768]\",\"weights\":\"f32[768,2,1536]\",\"activation\":\"jax._src.nn.functions.silu\",\"precision\":\"BF16_BF16_F32\",\"return_residuals\":false}": {
    "{}": {
      "compile_time_ms": 466.72585897613317,
      "lower_time_ms": 9.336811024695635,
      "evaluation_times_ms": [
        0.0584,
        0.059488,
        0.058496,
        0.058912,
        0.059392
      ],
      "metadata": {},
      "peak_memory_mb": 119.27552
    }
  },
  "{\"x\":\"bf16[1,3584,3584,128]\",\"weights\":\"bf16[128,2,256]\",\"activation\":\"jax._src.nn.functions.sigmoid\",\"precision\":\"BF16_BF16_F32\",\"return_residuals\":false}": {
    "{}": {
      "compile_time_ms": 958.4917220054194,
      "lower_time_ms": 10.787802981212735,
      "evaluation_times_ms": [
        12.845507999999999,
        12.868035,
        12.841443,
        12.790787,
        12.799043999999999
      ],
      "metadata": {},
      "peak_memory_mb": 23018.471424
    }
  },
  "{\"x\":\"bf16[1,3584,3584,128]\",\"weights\":\"bf16[128,2,512]\",\"activation\":\"jax._src.nn.functions.silu\",\"precision\":\"BF16_BF16_F32\",\"return_residuals\":false}": {
    "{}": {
      "compile_time_ms": 120425.81318400335,
      "lower_time_ms": 12.214820017106831,
      "evaluation_times_ms": [
        25.872194,
        25.874209999999998,
        25.871809,
        25.876417,
        25.870849
      ],
      "metadata": {},
      "peak_memory_mb": 42782.425088
    }
  },
  "{\"x\":\"bf16[3584,3584,128]\",\"weights\":\"bf16[128,2,256]\",\"activation\":\"jax._src.nn.functions.sigmoid\",\"precision\":\"BF16_BF16_F32\",\"return_residuals\":false}": {
    "{}": {
      "compile_time_ms": 199.6667250059545,
      "lower_time_ms": 11.194083956070244,
      "evaluation_times_ms": [
        12.82733,
        12.837442,
        12.797792999999999,
        12.807521000000001,
        12.785185
      ],
      "metadata": {},
      "peak_memory_mb": 23018.471424
    }
  },
  "{\"x\":\"bf16[3584,3584,128]\",\"weights\":\"bf16[128,2,512]\",\"activation\":\"jax._src.nn.functions.silu\",\"precision\":\"BF16_BF16_F32\",\"return_residuals\":false}": {
    "{}": {
      "compile_time_ms": 74.97864996548742,
      "lower_time_ms": 11.79214206058532,
      "evaluation_times_ms": [
        25.862818,
        25.870753,
        25.87885,
        25.87229,
        25.876386
      ],
      "metadata": {},
      "peak_memory_mb": 42782.425088
    }
  },
  "{\"x\":\"f32[3584,3584,128]\",\"weights\":\"f32[128,2,256]\",\"activation\":\"jax._src.nn.functions.silu\",\"precision\":\"BF16_BF16_F32\",\"return_residuals\":false}": {
    "{}": {
      "compile_time_ms": 160800.50688399933,
      "lower_time_ms": 10.502901044674218,
      "evaluation_times_ms": [
        26.906623,
        26.901855,
        26.910238,
        26.899166,
        26.910781
      ],
      "metadata": {},
      "peak_memory_mb": 46070.628352
    }
  },
  "{\"x\":\"bf16[3584,3584,64]\",\"weights\":\"bf16[64,2,128]\",\"activation\":\"jax._src.nn.functions.sigmoid\",\"precision\":\"BF16_BF16_F32\",\"return_residuals\":false}": {
    "{}": {
      "compile_time_ms": 466.315841069445,
      "lower_time_ms": 11.193820042535663,
      "evaluation_times_ms": [
        6.053521,
        6.050162,
        6.0558890000000005,
        6.056049,
        6.056754
      ],
      "metadata": {},
      "peak_memory_mb": 11509.202944
    }
  },
  "{\"x\":\"bf16[3584,3584,64]\",\"weights\":\"bf16[64,2,128]\",\"activation\":\"jax._src.nn.functions.silu\",\"precision\":\"BF16_BF16_F32\",\"return_residuals\":false}": {
    "{}": {
      "compile_time_ms": 113.1383249303326,
      "lower_time_ms": 9.78436495643109,
      "evaluation_times_ms": [
        6.059602,
        6.056977,
        6.052721,
        6.051569000000001,
        6.054033
      ],
      "metadata": {},
      "peak_memory_mb": 11509.202944
    }
  },
  "{\"x\":\"f32[5,3584,32,128]\",\"weights\":\"f32[128,2,256]\",\"activation\":\"jax._src.nn.functions.silu\",\"precision\":\"BF16_BF16_F32\",\"return_residuals\":false}": {
    "{}": {
      "compile_time_ms": 655.4659720277414,
      "lower_time_ms": 11.17762504145503,
      "evaluation_times_ms": [
        1.171134,
        1.1705899999999998,
        1.186077,
        1.177117,
        1.175004
      ],
      "metadata": {},
      "peak_memory_mb": 2055.471104
    }
  },
  "{\"x\":\"f32[3584,32,128]\",\"weights\":\"f32[128,2,256]\",\"activation\":\"jax._src.nn.functions.silu\",\"precision\":\"BF16_BF16_F32\",\"return_residuals\":false}": {
    "{}": {
      "compile_time_ms": 622.195805888623,
      "lower_time_ms": 10.484558995813131,
      "evaluation_times_ms": [
        0.24611099999999997,
        0.24921500000000002,
        0.250944,
        0.247966,
        0.248
      ],
      "metadata": {},
      "peak_memory_mb": 411.303936
    }
  },
  "{\"x\":\"bf16[5,3584,384]\",\"weights\":\"bf16[384,2,1536]\",\"activation\":\"jax._src.nn.functions.silu\",\"precision\":\"BF16_BF16_F32\",\"return_residuals\":false}": {
    "{}": {
      "compile_time_ms": 392.39612605888397,
      "lower_time_ms": 10.684240027330816,
      "evaluation_times_ms": [
        0.130144,
        0.130848,
        0.1296,
        0.129792,
        0.130336
      ],
      "metadata": {},
      "peak_memory_mb": 197.394432
    }
  },
  "{\"x\":\"bf16[3584,384]\",\"weights\":\"bf16[384,2,1536]\",\"activation\":\"jax._src.nn.functions.silu\",\"precision\":\"BF16_BF16_F32\",\"return_residuals\":false}": {
    "{}": {
      "compile_time_ms": 487.78980190400034,
      "lower_time_ms": 10.94571000430733,
      "evaluation_times_ms": [
        0.028192000000000002,
        0.028735999999999998,
        0.028832,
        0.028352,
        0.029184
      ],
      "metadata": {},
      "peak_memory_mb": 38.141952
    }
  },
  "{\"x\":\"f32[5,3584,384]\",\"weights\":\"f32[384,2,768]\",\"activation\":\"jax._src.nn.functions.silu\",\"precision\":\"BF16_BF16_F32\",\"return_residuals\":false}": {
    "{}": {
      "compile_time_ms": 462.4014840228483,
      "lower_time_ms": 10.686638997867703,
      "evaluation_times_ms": [
        0.12240000000000001,
        0.12198400000000001,
        0.122848,
        0.12227199999999999,
        0.1224
      ],
      "metadata": {},
      "peak_memory_mb": 209.977344
    }
  },
  "{\"x\":\"f32[3584,384]\",\"weights\":\"f32[384,2,768]\",\"activation\":\"jax._src.nn.functions.silu\",\"precision\":\"BF16_BF16_F32\",\"return_residuals\":false}": {
    "{}": {
      "compile_time_ms": 410.15052096918225,
      "lower_time_ms": 10.275054955855012,
      "evaluation_times_ms": [
        0.02736,
        0.02832,
        0.028064,
        0.027872,
        0.0272
      ],
      "metadata": {},
      "peak_memory_mb": 75.628544
    }
  },
  "{\"x\":\"f32[5,3584,768]\",\"weights\":\"f32[768,2,1536]\",\"activation\":\"jax._src.nn.functions.silu\",\"precision\":\"BF16_BF16_F32\",\"return_residuals\":false}": {
    "{}": {
      "compile_time_ms": 431.9661599583924,
      "lower_time_ms": 9.73024102859199,
      "evaluation_times_ms": [
        0.272831,
        0.273439,
        0.274048,
        0.273791,
        0.27353500000000003
      ],
      "metadata": {},
      "peak_memory_mb": 427.032576
    }
  },
  "{\"x\":\"f32[3584,768]\",\"weights\":\"f32[768,2,1536]\",\"activation\":\"jax._src.nn.functions.silu\",\"precision\":\"BF16_BF16_F32\",\"return_residuals\":false}": {
    "{}": {
      "compile_time_ms": 407.56196493748575,
      "lower_time_ms": 9.45197802502662,
      "evaluation_times_ms": [
        0.06780800000000001,
        0.06736,
        0.067136,
        0.067744,
        0.06704
      ],
      "metadata": {},
      "peak_memory_mb": 124.780544
    }
  },
  "{\"x\":\"bf16[1,3840,3840,128]\",\"weights\":\"bf16[128,2,256]\",\"activation\":\"jax._src.nn.functions.sigmoid\",\"precision\":\"BF16_BF16_F32\",\"return_residuals\":false}": {},
  "{\"x\":\"bf16[1,3840,3840,128]\",\"weights\":\"bf16[128,2,512]\",\"activation\":\"jax._src.nn.functions.silu\",\"precision\":\"BF16_BF16_F32\",\"return_residuals\":false}": {},
  "{\"x\":\"bf16[3840,3840,128]\",\"weights\":\"bf16[128,2,256]\",\"activation\":\"jax._src.nn.functions.sigmoid\",\"precision\":\"BF16_BF16_F32\",\"return_residuals\":false}": {},
  "{\"x\":\"bf16[3840,3840,128]\",\"weights\":\"bf16[128,2,512]\",\"activation\":\"jax._src.nn.functions.silu\",\"precision\":\"BF16_BF16_F32\",\"return_residuals\":false}": {},
  "{\"x\":\"f32[5,3840,32,128]\",\"weights\":\"f32[128,2,256]\",\"activation\":\"jax._src.nn.functions.silu\",\"precision\":\"BF16_BF16_F32\",\"return_residuals\":false}": {},
  "{\"x\":\"f32[3840,32,128]\",\"weights\":\"f32[128,2,256]\",\"activation\":\"jax._src.nn.functions.silu\",\"precision\":\"BF16_BF16_F32\",\"return_residuals\":false}": {
    "{}": {
      "compile_time_ms": 575.5148269236088,
      "lower_time_ms": 12.197865988127887,
      "evaluation_times_ms": [
        0.263775,
        0.265727,
        0.26579200000000003,
        0.266528,
        0.267904
      ],
      "metadata": {},
      "peak_memory_mb": 440.664064
    }
  },
  "{\"x\":\"bf16[5,3840,384]\",\"weights\":\"bf16[384,2,1536]\",\"activation\":\"jax._src.nn.functions.silu\",\"precision\":\"BF16_BF16_F32\",\"return_residuals\":false}": {
    "{}": {
      "compile_time_ms": 339.79169093072414,
      "lower_time_ms": 10.807591024786234,
      "evaluation_times_ms": [
        0.13888,
        0.140736,
        0.140288,
        0.139392,
        0.13875099999999999
      ],
      "metadata": {},
      "peak_memory_mb": 211.156992
    }
  },
  "{\"x\":\"bf16[3840,384]\",\"weights\":\"bf16[384,2,1536]\",\"activation\":\"jax._src.nn.functions.silu\",\"precision\":\"BF16_BF16_F32\",\"return_residuals\":false}": {
    "{}": {
      "compile_time_ms": 476.22581699397415,
      "lower_time_ms": 10.64315007533878,
      "evaluation_times_ms": [
        0.030719999999999997,
        0.030144,
        0.030016,
        0.030175999999999998,
        0.030240000000000003
      ],
      "metadata": {},
      "peak_memory_mb": 40.697856
    }
  },
  "{\"x\":\"f32[5,3840,384]\",\"weights\":\"f32[384,2,768]\",\"activation\":\"jax._src.nn.functions.silu\",\"precision\":\"BF16_BF16_F32\",\"return_residuals\":false}": {
    "{}": {
      "compile_time_ms": 423.4040069859475,
      "lower_time_ms": 10.818753973580897,
      "evaluation_times_ms": [
        0.131487,
        0.13072,
        0.129152,
        0.129888,
        0.129663
      ],
      "metadata": {},
      "peak_memory_mb": 224.722944
    }
  },
  "{\"x\":\"f32[3840,384]\",\"weights\":\"f32[384,2,768]\",\"activation\":\"jax._src.nn.functions.silu\",\"precision\":\"BF16_BF16_F32\",\"return_residuals\":false}": {
    "{}": {
      "compile_time_ms": 432.03707702923566,
      "lower_time_ms": 10.212681023404002,
      "evaluation_times_ms": [
        0.02848,
        0.028191,
        0.028256,
        0.028064000000000002,
        0.0288
      ],
      "metadata": {},
      "peak_memory_mb": 78.381056
    }
  },
  "{\"x\":\"f32[5,3840,768]\",\"weights\":\"f32[768,2,1536]\",\"activation\":\"jax._src.nn.functions.silu\",\"precision\":\"BF16_BF16_F32\",\"return_residuals\":false}": {
    "{}": {
      "compile_time_ms": 425.1968420576304,
      "lower_time_ms": 9.348407038487494,
      "evaluation_times_ms": [
        0.288799,
        0.289887,
        0.290495,
        0.289344,
        0.289567
      ],
      "metadata": {},
      "peak_memory_mb": 456.523776
    }
  },
  "{\"x\":\"f32[3840,768]\",\"weights\":\"f32[768,2,1536]\",\"activation\":\"jax._src.nn.functions.silu\",\"precision\":\"BF16_BF16_F32\",\"return_residuals\":false}": {
    "{}": {
      "compile_time_ms": 430.0106269074604,
      "lower_time_ms": 9.691359009593725,
      "evaluation_times_ms": [
        0.067968,
        0.068064,
        0.068544,
        0.067392,
        0.068032
      ],
      "metadata": {},
      "peak_memory_mb": 130.285568
    }
  },
  "{\"x\":\"bf16[1,4096,4096,128]\",\"weights\":\"bf16[128,2,256]\",\"activation\":\"jax._src.nn.functions.sigmoid\",\"precision\":\"BF16_BF16_F32\",\"return_residuals\":false}": {
    "{}": {
      "compile_time_ms": 1152.4404410156421,
      "lower_time_ms": 15.517588995862752,
      "evaluation_times_ms": [
        16.948145,
        16.976913000000003,
        17.025008999999997,
        16.946609000000002,
        17.014481
      ],
      "metadata": {},
      "peak_memory_mb": 30064.902144
    }
  },
  "{\"x\":\"bf16[1,4096,4096,128]\",\"weights\":\"bf16[128,2,512]\",\"activation\":\"jax._src.nn.functions.silu\",\"precision\":\"BF16_BF16_F32\",\"return_residuals\":false}": {},
  "{\"x\":\"bf16[4096,4096,128]\",\"weights\":\"bf16[128,2,256]\",\"activation\":\"jax._src.nn.functions.sigmoid\",\"precision\":\"BF16_BF16_F32\",\"return_residuals\":false}": {
    "{}": {
      "compile_time_ms": 237.1345690335147,
      "lower_time_ms": 13.8386320322752,
      "evaluation_times_ms": [
        17.055951,
        17.066383000000002,
        17.050991,
        17.066350999999997,
        17.040591
      ],
      "metadata": {},
      "peak_memory_mb": 30064.902144
    }
  },
  "{\"x\":\"bf16[4096,4096,128]\",\"weights\":\"bf16[128,2,512]\",\"activation\":\"jax._src.nn.functions.silu\",\"precision\":\"BF16_BF16_F32\",\"return_residuals\":false}": {},
  "{\"x\":\"f32[4096,4096,128]\",\"weights\":\"f32[128,2,256]\",\"activation\":\"jax._src.nn.functions.silu\",\"precision\":\"BF16_BF16_F32\",\"return_residuals\":false}": {},
  "{\"x\":\"f32[5,4096,32,128]\",\"weights\":\"f32[128,2,256]\",\"activation\":\"jax._src.nn.functions.silu\",\"precision\":\"BF16_BF16_F32\",\"return_residuals\":false}": {
    "{}": {
      "compile_time_ms": 160436.06916599674,
      "lower_time_ms": 16.416385013144463,
      "evaluation_times_ms": [
        1.373148,
        1.373372,
        1.37462,
        1.374492,
        1.372124
      ],
      "metadata": {},
      "peak_memory_mb": 2382.757888
    }
  },
  "{\"x\":\"f32[4096,32,128]\",\"weights\":\"f32[128,2,256]\",\"activation\":\"jax._src.nn.functions.silu\",\"precision\":\"BF16_BF16_F32\",\"return_residuals\":false}": {
    "{}": {
      "compile_time_ms": 417.8945050225593,
      "lower_time_ms": 12.313963030464947,
      "evaluation_times_ms": [
        0.27776,
        0.278656,
        0.279071,
        0.279999,
        0.278176
      ],
      "metadata": {},
      "peak_memory_mb": 503.709696
    }
  },
  "{\"x\":\"bf16[5,4096,384]\",\"weights\":\"bf16[384,2,1536]\",\"activation\":\"jax._src.nn.functions.silu\",\"precision\":\"BF16_BF16_F32\",\"return_residuals\":false}": {
    "{}": {
      "compile_time_ms": 474.690789997112,
      "lower_time_ms": 13.922190002631396,
      "evaluation_times_ms": [
        0.14921600000000002,
        0.149408,
        0.1488,
        0.150303,
        0.149727
      ],
      "metadata": {},
      "peak_memory_mb": 224.919552
    }
  },
  "{\"x\":\"bf16[4096,384]\",\"weights\":\"bf16[384,2,1536]\",\"activation\":\"jax._src.nn.functions.silu\",\"precision\":\"BF16_BF16_F32\",\"return_residuals\":false}": {
    "{}": {
      "compile_time_ms": 549.6037179837003,
      "lower_time_ms": 13.960951007902622,
      "evaluation_times_ms": [
        0.031647999999999996,
        0.031424,
        0.03168,
        0.031743999999999994,
        0.031328
      ],
      "metadata": {},
      "peak_memory_mb": 43.25376
    }
  },
  "{\"x\":\"f32[5,4096,384]\",\"weights\":\"f32[384,2,768]\",\"activation\":\"jax._src.nn.functions.silu\",\"precision\":\"BF16_BF16_F32\",\"return_residuals\":false}": {
    "{}": {
      "compile_time_ms": 543.3239000267349,
      "lower_time_ms": 13.007610978092998,
      "evaluation_times_ms": [
        0.137536,
        0.137247,
        0.138144,
        0.137344,
        0.137855
      ],
      "metadata": {},
      "peak_memory_mb": 239.468544
    }
  },
  "{\"x\":\"f32[4096,384]\",\"weights\":\"f32[384,2,768]\",\"activation\":\"jax._src.nn.functions.silu\",\"precision\":\"BF16_BF16_F32\",\"return_residuals\":false}": {
    "{}": {
      "compile_time_ms": 531.6897919983603,
      "lower_time_ms": 12.469873006921262,
      "evaluation_times_ms": [
        0.029311999999999998,
        0.029632,
        0.029184,
        0.028928,
        0.029344000000000002
      ],
      "metadata": {},
      "peak_memory_mb": 81.133568
    }
  },
  "{\"x\":\"f32[5,4096,768]\",\"weights\":\"f32[768,2,1536]\",\"activation\":\"jax._src.nn.functions.silu\",\"precision\":\"BF16_BF16_F32\",\"return_residuals\":false}": {
    "{}": {
      "compile_time_ms": 539.072158979252,
      "lower_time_ms": 12.584226031322032,
      "evaluation_times_ms": [
        0.309567,
        0.307999,
        0.308351,
        0.311263,
        0.312991
      ],
      "metadata": {},
      "peak_memory_mb": 486.014976
    }
  },
  "{\"x\":\"f32[4096,768]\",\"weights\":\"f32[768,2,1536]\",\"activation\":\"jax._src.nn.functions.silu\",\"precision\":\"BF16_BF16_F32\",\"return_residuals\":false}": {
    "{}": {
      "compile_time_ms": 494.54928399063647,
      "lower_time_ms": 11.061055993195623,
      "evaluation_times_ms": [
        0.070688,
        0.070496,
        0.07062399999999999,
        0.071392,
        0.070944
      ],
      "metadata": {},
      "peak_memory_mb": 135.790592
    }
  },
  "{\"x\":\"f32[5,4352,32,128]\",\"weights\":\"f32[128,2,256]\",\"activation\":\"jax._src.nn.functions.silu\",\"precision\":\"BF16_BF16_F32\",\"return_residuals\":false}": {},
  "{\"x\":\"f32[4352,32,128]\",\"weights\":\"f32[128,2,256]\",\"activation\":\"jax._src.nn.functions.silu\",\"precision\":\"BF16_BF16_F32\",\"return_residuals\":false}": {
    "{}": {
      "compile_time_ms": 633.6710120085627,
      "lower_time_ms": 13.892440008930862,
      "evaluation_times_ms": [
        0.299967,
        0.298976,
        0.29856,
        0.299519,
        0.29846300000000003
      ],
      "metadata": {},
      "peak_memory_mb": 499.38432
    }
  },
  "{\"x\":\"bf16[5,4352,384]\",\"weights\":\"bf16[384,2,1536]\",\"activation\":\"jax._src.nn.functions.silu\",\"precision\":\"BF16_BF16_F32\",\"return_residuals\":false}": {
    "{}": {
      "compile_time_ms": 356.5760049968958,
      "lower_time_ms": 12.510386004578322,
      "evaluation_times_ms": [
        0.156767,
        0.156576,
        0.15583999999999998,
        0.157055,
        0.156128
      ],
      "metadata": {},
      "peak_memory_mb": 238.682112
    }
  },
  "{\"x\":\"bf16[4352,384]\",\"weights\":\"bf16[384,2,1536]\",\"activation\":\"jax._src.nn.functions.silu\",\"precision\":\"BF16_BF16_F32\",\"return_residuals\":false}": {
    "{}": {
      "compile_time_ms": 583.3125750068575,
      "lower_time_ms": 12.065101996995509,
      "evaluation_times_ms": [
        0.036608,
        0.035584,
        0.035808,
        0.035648,
        0.035776
      ],
      "metadata": {},
      "peak_memory_mb": 45.809664
    }
  },
  "{\"x\":\"f32[5,4352,384]\",\"weights\":\"f32[384,2,768]\",\"activation\":\"jax._src.nn.functions.silu\",\"precision\":\"BF16_BF16_F32\",\"return_residuals\":false}": {
    "{}": {
      "compile_time_ms": 493.23715502396226,
      "lower_time_ms": 12.5050829956308,
      "evaluation_times_ms": [
        0.146752,
        0.146335,
        0.145728,
        0.146815,
        0.146976
      ],
      "metadata": {},
      "peak_memory_mb": 254.214144
    }
  },
  "{\"x\":\"f32[4352,384]\",\"weights\":\"f32[384,2,768]\",\"activation\":\"jax._src.nn.functions.silu\",\"precision\":\"BF16_BF16_F32\",\"return_residuals\":false}": {
    "{}": {
      "compile_time_ms": 538.0594620364718,
      "lower_time_ms": 11.94430998293683,
      "evaluation_times_ms": [
        0.02992,
        0.030048000000000002,
        0.030656,
        0.029888,
        0.030399
      ],
      "metadata": {},
      "peak_memory_mb": 83.88608
    }
  },
  "{\"x\":\"f32[5,4352,768]\",\"weights\":\"f32[768,2,1536]\",\"activation\":\"jax._src.nn.functions.silu\",\"precision\":\"BF16_BF16_F32\",\"return_residuals\":false}": {
    "{}": {
      "compile_time_ms": 561.18780199904,
      "lower_time_ms": 11.583621031604707,
      "evaluation_times_ms": [
        0.327231,
        0.325887,
        0.325855,
        0.325631,
        0.326175
      ],
      "metadata": {},
      "peak_memory_mb": 515.506176
    }
  },
  "{\"x\":\"f32[4352,768]\",\"weights\":\"f32[768,2,1536]\",\"activation\":\"jax._src.nn.functions.silu\",\"precision\":\"BF16_BF16_F32\",\"return_residuals\":false}": {
    "{}": {
      "compile_time_ms": 114.03120902832597,
      "lower_time_ms": 14.800053089857101,
      "evaluation_times_ms": [
        0.075233,
        0.074688,
        0.075104,
        0.074752,
        0.074272
      ],
      "metadata": {},
      "peak_memory_mb": 141.295616
    }
  },
  "{\"x\":\"bf16[1,4608,4608,128]\",\"weights\":\"bf16[128,2,256]\",\"activation\":\"jax._src.nn.functions.sigmoid\",\"precision\":\"BF16_BF16_F32\",\"return_residuals\":false}": {
    "{}": {
      "compile_time_ms": 1415.8399850130081,
      "lower_time_ms": 11.603544000536203,
      "evaluation_times_ms": [
        21.181499000000002,
        21.117819,
        21.154939,
        21.10313,
        21.167130999999998
      ],
      "metadata": {},
      "peak_memory_mb": 38050.85696
    }
  },
  "{\"x\":\"bf16[1,4608,4608,128]\",\"weights\":\"bf16[128,2,512]\",\"activation\":\"jax._src.nn.functions.silu\",\"precision\":\"BF16_BF16_F32\",\"return_residuals\":false}": {},
  "{\"x\":\"bf16[4608,4608,128]\",\"weights\":\"bf16[128,2,256]\",\"activation\":\"jax._src.nn.functions.sigmoid\",\"precision\":\"BF16_BF16_F32\",\"return_residuals\":false}": {
    "{}": {
      "compile_time_ms": 188.41099692508578,
      "lower_time_ms": 13.85998004116118,
      "evaluation_times_ms": [
        21.222334,
        21.142463,
        21.25472,
        21.242334,
        21.127454999999998
      ],
      "metadata": {},
      "peak_memory_mb": 38050.85696
    }
  },
  "{\"x\":\"bf16[4608,4608,128]\",\"weights\":\"bf16[128,2,512]\",\"activation\":\"jax._src.nn.functions.silu\",\"precision\":\"BF16_BF16_F32\",\"return_residuals\":false}": {},
  "{\"x\":\"f32[4608,4608,128]\",\"weights\":\"f32[128,2,256]\",\"activation\":\"jax._src.nn.functions.silu\",\"precision\":\"BF16_BF16_F32\",\"return_residuals\":false}": {},
  "{\"x\":\"bf16[4608,4608,64]\",\"weights\":\"bf16[64,2,128]\",\"activation\":\"jax._src.nn.functions.sigmoid\",\"precision\":\"BF16_BF16_F32\",\"return_residuals\":false}": {
    "{}": {
      "compile_time_ms": 658.6617430002661,
      "lower_time_ms": 15.349710999998933,
      "evaluation_times_ms": [
        10.017997,
        10.008014,
        10.015789999999999,
        10.015086,
        10.013262000000001
      ],
      "metadata": {},
      "peak_memory_mb": 19025.395712
    }
  },
  "{\"x\":\"bf16[4608,4608,64]\",\"weights\":\"bf16[64,2,128]\",\"activation\":\"jax._src.nn.functions.silu\",\"precision\":\"BF16_BF16_F32\",\"return_residuals\":false}": {
    "{}": {
      "compile_time_ms": 118.58525300021938,
      "lower_time_ms": 10.026463000031072,
      "evaluation_times_ms": [
        10.00427,
        9.999662,
        10.01115,
        10.007469,
        10.009902
      ],
      "metadata": {},
      "peak_memory_mb": 19025.395712
    }
  },
  "{\"x\":\"f32[5,4608,32,128]\",\"weights\":\"f32[128,2,256]\",\"activation\":\"jax._src.nn.functions.silu\",\"precision\":\"BF16_BF16_F32\",\"return_residuals\":false}": {
    "{}": {
      "compile_time_ms": 681.9256730000234,
      "lower_time_ms": 11.28644800019174,
      "evaluation_times_ms": [
        1.5099710000000002,
        1.5053,
        1.503475,
        1.504308,
        1.5014280000000002
      ],
      "metadata": {},
      "peak_memory_mb": 2642.673664
    }
  },
  "{\"x\":\"f32[4608,32,128]\",\"weights\":\"f32[128,2,256]\",\"activation\":\"jax._src.nn.functions.silu\",\"precision\":\"BF16_BF16_F32\",\"return_residuals\":false}": {
    "{}": {
      "compile_time_ms": 571.0275709998314,
      "lower_time_ms": 11.684484999932465,
      "evaluation_times_ms": [
        0.313245,
        0.31391800000000003,
        0.314141,
        0.314718,
        0.3143
      ],
      "metadata": {},
      "peak_memory_mb": 528.744448
    }
  },
  "{\"x\":\"bf16[5,4608,384]\",\"weights\":\"bf16[384,2,1536]\",\"activation\":\"jax._src.nn.functions.silu\",\"precision\":\"BF16_BF16_F32\",\"return_residuals\":false}": {
    "{}": {
      "compile_time_ms": 427.2105179998107,
      "lower_time_ms": 11.394014999950741,
      "evaluation_times_ms": [
        0.166015,
        0.166558,
        0.166719,
        0.165791,
        0.167166
      ],
      "metadata": {},
      "peak_memory_mb": 252.444672
    }
  },
  "{\"x\":\"bf16[4608,384]\",\"weights\":\"bf16[384,2,1536]\",\"activation\":\"jax._src.nn.functions.silu\",\"precision\":\"BF16_BF16_F32\",\"return_residuals\":false}": {
    "{}": {
      "compile_time_ms": 547.5946130000011,
      "lower_time_ms": 11.242681000112498,
      "evaluation_times_ms": [
        0.037984000000000004,
        0.037919,
        0.037792,
        0.038112,
        0.03744
      ],
      "metadata": {},
      "peak_memory_mb": 48.365568
    }
  },
  "{\"x\":\"f32[5,4608,384]\",\"weights\":\"f32[384,2,768]\",\"activation\":\"jax._src.nn.functions.silu\",\"precision\":\"BF16_BF16_F32\",\"return_residuals\":false}": {
    "{}": {
      "compile_time_ms": 491.18166500011284,
      "lower_time_ms": 11.229365999952279,
      "evaluation_times_ms": [
        0.153631,
        0.154046,
        0.154463,
        0.154303,
        0.154367
      ],
      "metadata": {},
      "peak_memory_mb": 268.959744
    }
  },
  "{\"x\":\"f32[4608,384]\",\"weights\":\"f32[384,2,768]\",\"activation\":\"jax._src.nn.functions.silu\",\"precision\":\"BF16_BF16_F32\",\"return_residuals\":false}": {
    "{}": {
      "compile_time_ms": 517.1301519999361,
      "lower_time_ms": 10.797571999773936,
      "evaluation_times_ms": [
        0.032256,
        0.031711,
        0.031744,
        0.031616,
        0.031935
      ],
      "metadata": {},
      "peak_memory_mb": 86.638592
    }
  },
  "{\"x\":\"f32[5,4608,768]\",\"weights\":\"f32[768,2,1536]\",\"activation\":\"jax._src.nn.functions.silu\",\"precision\":\"BF16_BF16_F32\",\"return_residuals\":false}": {
    "{}": {
      "compile_time_ms": 538.3685629999491,
      "lower_time_ms": 9.669072000178858,
      "evaluation_times_ms": [
        0.344381,
        0.343485,
        0.341725,
        0.34214100000000003,
        0.341373
      ],
      "metadata": {},
      "peak_memory_mb": 543.162368
    }
  },
  "{\"x\":\"f32[4608,768]\",\"weights\":\"f32[768,2,1536]\",\"activation\":\"jax._src.nn.functions.silu\",\"precision\":\"BF16_BF16_F32\",\"return_residuals\":false}": {
    "{}": {
      "compile_time_ms": 520.4281010001068,
      "lower_time_ms": 9.755908999977692,
      "evaluation_times_ms": [
        0.079968,
        0.07974300000000001,
        0.07952,
        0.07878399999999999,
        0.079872
      ],
      "metadata": {},
      "peak_memory_mb": 146.80064
    }
  },
  "{\"x\":\"bf16[1,4864,4864,128]\",\"weights\":\"bf16[128,2,256]\",\"activation\":\"jax._src.nn.functions.sigmoid\",\"precision\":\"BF16_BF16_F32\",\"return_residuals\":false}": {},
  "{\"x\":\"bf16[1,4864,4864,128]\",\"weights\":\"bf16[128,2,512]\",\"activation\":\"jax._src.nn.functions.silu\",\"precision\":\"BF16_BF16_F32\",\"return_residuals\":false}": {},
  "{\"x\":\"bf16[4864,4864,128]\",\"weights\":\"bf16[128,2,256]\",\"activation\":\"jax._src.nn.functions.sigmoid\",\"precision\":\"BF16_BF16_F32\",\"return_residuals\":false}": {},
  "{\"x\":\"bf16[4864,4864,128]\",\"weights\":\"bf16[128,2,512]\",\"activation\":\"jax._src.nn.functions.silu\",\"precision\":\"BF16_BF16_F32\",\"return_residuals\":false}": {},
  "{\"x\":\"f32[4864,4864,128]\",\"weights\":\"f32[128,2,256]\",\"activation\":\"jax._src.nn.functions.silu\",\"precision\":\"BF16_BF16_F32\",\"return_residuals\":false}": {},
  "{\"x\":\"bf16[4864,4864,64]\",\"weights\":\"bf16[64,2,128]\",\"activation\":\"jax._src.nn.functions.sigmoid\",\"precision\":\"BF16_BF16_F32\",\"return_residuals\":false}": {
    "{}": {
      "compile_time_ms": 708.3837599998333,
      "lower_time_ms": 11.008068000137428,
      "evaluation_times_ms": [
        11.142244,
        11.147364,
        11.153058999999999,
        11.156227000000001,
        11.157827999999999
      ],
      "metadata": {},
      "peak_memory_mb": 21198.045184
    }
  },
  "{\"x\":\"bf16[4864,4864,64]\",\"weights\":\"bf16[64,2,128]\",\"activation\":\"jax._src.nn.functions.silu\",\"precision\":\"BF16_BF16_F32\",\"return_residuals\":false}": {
    "{}": {
      "compile_time_ms": 121.12818600007813,
      "lower_time_ms": 10.76317500019286,
      "evaluation_times_ms": [
        11.151268,
        11.14506,
        11.146723999999999,
        11.153891,
        11.147459000000001
      ],
      "metadata": {},
      "peak_memory_mb": 21198.045184
    }
  },
  "{\"x\":\"f32[5,4864,32,128]\",\"weights\":\"f32[128,2,256]\",\"activation\":\"jax._src.nn.functions.silu\",\"precision\":\"BF16_BF16_F32\",\"return_residuals\":false}": {
    "{}": {
      "compile_time_ms": 647.2011710002334,
      "lower_time_ms": 10.988144999828364,
      "evaluation_times_ms": [
        1.5875810000000001,
        1.585436,
        1.5882839999999998,
        1.583836,
        1.5877080000000001
      ],
      "metadata": {},
      "peak_memory_mb": 2789.474304
    }
  },
  "{\"x\":\"f32[4864,32,128]\",\"weights\":\"f32[128,2,256]\",\"activation\":\"jax._src.nn.functions.silu\",\"precision\":\"BF16_BF16_F32\",\"return_residuals\":false}": {
    "{}": {
      "compile_time_ms": 567.0228949998091,
      "lower_time_ms": 11.117737000404304,
      "evaluation_times_ms": [
        0.33216,
        0.329886,
        0.332414,
        0.332382,
        0.33206199999999997
      ],
      "metadata": {},
      "peak_memory_mb": 558.104576
    }
  },
  "{\"x\":\"bf16[5,4864,384]\",\"weights\":\"bf16[384,2,1536]\",\"activation\":\"jax._src.nn.functions.silu\",\"precision\":\"BF16_BF16_F32\",\"return_residuals\":false}": {
    "{}": {
      "compile_time_ms": 414.81229999999414,
      "lower_time_ms": 11.469170000054874,
      "evaluation_times_ms": [
        0.17555199999999999,
        0.17491199999999998,
        0.17584,
        0.17580700000000002,
        0.176415
      ],
      "metadata": {},
      "peak_memory_mb": 266.207232
    }
  },
  "{\"x\":\"bf16[4864,384]\",\"weights\":\"bf16[384,2,1536]\",\"activation\":\"jax._src.nn.functions.silu\",\"precision\":\"BF16_BF16_F32\",\"return_residuals\":false}": {
    "{}": {
      "compile_time_ms": 489.9052739997387,
      "lower_time_ms": 10.975231999964308,
      "evaluation_times_ms": [
        0.040255,
        0.040895,
        0.040639999999999996,
        0.040768,
        0.040959999999999996
      ],
      "metadata": {},
      "peak_memory_mb": 50.921472
    }
  },
  "{\"x\":\"f32[5,4864,384]\",\"weights\":\"f32[384,2,768]\",\"activation\":\"jax._src.nn.functions.silu\",\"precision\":\"BF16_BF16_F32\",\"return_residuals\":false}": {
    "{}": {
      "compile_time_ms": 519.0147299999808,
      "lower_time_ms": 10.815731000093365,
      "evaluation_times_ms": [
        0.162207,
        0.162048,
        0.162367,
        0.160608,
        0.161344
      ],
      "metadata": {},
      "peak_memory_mb": 283.705344
    }
  },
  "{\"x\":\"f32[4864,384]\",\"weights\":\"f32[384,2,768]\",\"activation\":\"jax._src.nn.functions.silu\",\"precision\":\"BF16_BF16_F32\",\"return_residuals\":false}": {
    "{}": {
      "compile_time_ms": 474.06448499987164,
      "lower_time_ms": 11.138457000015478,
      "evaluation_times_ms": [
        0.033184,
        0.03424,
        0.033504,
        0.033344,
        0.033088
      ],
      "metadata": {},
      "peak_memory_mb": 89.391104
    }
  },
  "{\"x\":\"f32[5,4864,768]\",\"weights\":\"f32[768,2,1536]\",\"activation\":\"jax._src.nn.functions.silu\",\"precision\":\"BF16_BF16_F32\",\"return_residuals\":false}": {
    "{}": {
      "compile_time_ms": 550.3661539996756,
      "lower_time_ms": 9.513550999599829,
      "evaluation_times_ms": [
        0.361631,
        0.362015,
        0.363552,
        0.361375,
        0.36102399999999996
      ],
      "metadata": {},
      "peak_memory_mb": 570.687488
    }
  },
  "{\"x\":\"f32[4864,768]\",\"weights\":\"f32[768,2,1536]\",\"activation\":\"jax._src.nn.functions.silu\",\"precision\":\"BF16_BF16_F32\",\"return_residuals\":false}": {
    "{}": {
      "compile_time_ms": 440.66670500023974,
      "lower_time_ms": 9.473651999996946,
      "evaluation_times_ms": [
        0.082848,
        0.082912,
        0.081919,
        0.082049,
        0.082431
      ],
      "metadata": {},
      "peak_memory_mb": 152.305664
    }
  },
  "{\"x\":\"bf16[1,5120,5120,128]\",\"weights\":\"bf16[128,2,256]\",\"activation\":\"jax._src.nn.functions.sigmoid\",\"precision\":\"BF16_BF16_F32\",\"return_residuals\":false}": {},
  "{\"x\":\"bf16[1,5120,5120,128]\",\"weights\":\"bf16[128,2,512]\",\"activation\":\"jax._src.nn.functions.silu\",\"precision\":\"BF16_BF16_F32\",\"return_residuals\":false}": {},
  "{\"x\":\"bf16[5120,5120,128]\",\"weights\":\"bf16[128,2,256]\",\"activation\":\"jax._src.nn.functions.sigmoid\",\"precision\":\"BF16_BF16_F32\",\"return_residuals\":false}": {},
  "{\"x\":\"bf16[5120,5120,128]\",\"weights\":\"bf16[128,2,512]\",\"activation\":\"jax._src.nn.functions.silu\",\"precision\":\"BF16_BF16_F32\",\"return_residuals\":false}": {},
  "{\"x\":\"bf16[5120,5120,64]\",\"weights\":\"bf16[64,2,128]\",\"activation\":\"jax._src.nn.functions.sigmoid\",\"precision\":\"BF16_BF16_F32\",\"return_residuals\":false}": {},
  "{\"x\":\"bf16[5120,5120,64]\",\"weights\":\"bf16[64,2,128]\",\"activation\":\"jax._src.nn.functions.silu\",\"precision\":\"BF16_BF16_F32\",\"return_residuals\":false}": {},
  "{\"x\":\"f32[5,5120,32,128]\",\"weights\":\"f32[128,2,256]\",\"activation\":\"jax._src.nn.functions.silu\",\"precision\":\"BF16_BF16_F32\",\"return_residuals\":false}": {
    "{}": {
      "compile_time_ms": 1808.6570750001556,
      "lower_time_ms": 11.921289999918372,
      "evaluation_times_ms": [
        1.6692740000000001,
        1.671641,
        1.665145,
        1.6698490000000001,
        1.670553
      ],
      "metadata": {},
      "peak_memory_mb": 2936.274944
    }
  },
  "{\"x\":\"f32[5120,32,128]\",\"weights\":\"f32[128,2,256]\",\"activation\":\"jax._src.nn.functions.silu\",\"precision\":\"BF16_BF16_F32\",\"return_residuals\":false}": {
    "{}": {
      "compile_time_ms": 578.6154150000584,
      "lower_time_ms": 10.686921999877086,
      "evaluation_times_ms": [
        0.35091,
        0.34764700000000004,
        0.34911800000000004,
        0.348384,
        0.350783
      ],
      "metadata": {},
      "peak_memory_mb": 587.464704
    }
  },
  "{\"x\":\"bf16[5,5120,384]\",\"weights\":\"bf16[384,2,1536]\",\"activation\":\"jax._src.nn.functions.silu\",\"precision\":\"BF16_BF16_F32\",\"return_residuals\":false}": {
    "{}": {
      "compile_time_ms": 92.41114599990397,
      "lower_time_ms": 443.9636770000561,
      "evaluation_times_ms": [
        0.18612199999999998,
        0.184203,
        0.184331,
        0.185258,
        0.18449
      ],
      "metadata": {},
      "peak_memory_mb": 279.969792
    }
  }
}
