{
  "{\"residuals\":[\"bf16[1024]\"],\"out\":\"f32[]\",\"dout\":\"f32[]\",\"x\":\"bf16[1024,4096]\",\"labels\":\"i32[1024]\",\"w\":\"bf16[4096,151936]\",\"reduction\":\"mean\",\"return_residuals\":false}": {
    "{}": {
      "compile_time_ms": 1518.3086469996852,
      "lower_time_ms": 18.997381000190217,
      "evaluation_times_ms": [
        6.205067,
        6.210699,
        6.216138,
        6.2183459999999995,
        6.311465
      ],
      "metadata": {},
      "peak_memory_mb": 5037.369376
    }
  },
  "{\"residuals\":[\"f32[1024]\"],\"out\":\"f32[]\",\"dout\":\"f32[]\",\"x\":\"f32[1024,4096]\",\"labels\":\"i32[1024]\",\"w\":\"bf16[4096,151936]\",\"reduction\":\"mean\",\"return_residuals\":false}": {
    "{}": {
      "compile_time_ms": 2546.613516999969,
      "lower_time_ms": 15.502557000218076,
      "evaluation_times_ms": [
        15.811962999999999,
        15.800443,
        15.820154,
        15.823675,
        15.73478
      ],
      "metadata": {},
      "peak_memory_mb": 4423.43018
    }
  },
  "{\"residuals\":[\"bf16[1024]\"],\"out\":\"f32[]\",\"dout\":\"f32[]\",\"x\":\"bf16[1024,4096]\",\"labels\":\"i32[1024]\",\"w\":\"bf16[4096,151936]\",\"reduction\":\"sum\",\"return_residuals\":false}": {
    "{}": {
      "compile_time_ms": 1044.5384229997217,
      "lower_time_ms": 10.584349000055226,
      "evaluation_times_ms": [
        6.202732999999999,
        6.205516,
        6.211308,
        6.258796,
        6.244781
      ],
      "metadata": {},
      "peak_memory_mb": 5037.369376
    }
  },
  "{\"residuals\":[\"f32[1024]\"],\"out\":\"f32[]\",\"dout\":\"f32[]\",\"x\":\"f32[1024,4096]\",\"labels\":\"i32[1024]\",\"w\":\"bf16[4096,151936]\",\"reduction\":\"sum\",\"return_residuals\":false}": {
    "{}": {
      "compile_time_ms": 1938.9903319997757,
      "lower_time_ms": 10.280579999744077,
      "evaluation_times_ms": [
        15.809023,
        15.817150999999999,
        15.81715,
        15.800927,
        15.744671
      ],
      "metadata": {},
      "peak_memory_mb": 4423.430176
    }
  },
  "{\"residuals\":[\"bf16[2048]\"],\"out\":\"f32[]\",\"dout\":\"f32[]\",\"x\":\"bf16[2048,4096]\",\"labels\":\"i32[2048]\",\"w\":\"bf16[4096,151936]\",\"reduction\":\"mean\",\"return_residuals\":false}": {
    "{}": {
      "compile_time_ms": 2074.101398000039,
      "lower_time_ms": 15.768991000186361,
      "evaluation_times_ms": [
        11.019527,
        10.997959,
        11.296678,
        11.519875,
        11.609442
      ],
      "metadata": {},
      "peak_memory_mb": 5062.54544
    }
  },
  "{\"residuals\":[\"f32[2048]\"],\"out\":\"f32[]\",\"dout\":\"f32[]\",\"x\":\"f32[2048,4096]\",\"labels\":\"i32[2048]\",\"w\":\"bf16[4096,151936]\",\"reduction\":\"mean\",\"return_residuals\":false}": {
    "{}": {
      "compile_time_ms": 3514.39626399997,
      "lower_time_ms": 14.603583000280196,
      "evaluation_times_ms": [
        26.864396,
        27.581989,
        27.289447,
        27.24004,
        27.165352
      ],
      "metadata": {},
      "peak_memory_mb": 5079.326756
    }
  },
  "{\"residuals\":[\"bf16[2048]\"],\"out\":\"f32[]\",\"dout\":\"f32[]\",\"x\":\"bf16[2048,4096]\",\"labels\":\"i32[2048]\",\"w\":\"bf16[4096,151936]\",\"reduction\":\"sum\",\"return_residuals\":false}": {
    "{}": {
      "compile_time_ms": 1689.571129000342,
      "lower_time_ms": 11.217631999898003,
      "evaluation_times_ms": [
        10.998349,
        11.157067,
        11.492648,
        11.495529,
        11.509097
      ],
      "metadata": {},
      "peak_memory_mb": 5062.54544
    }
  },
  "{\"residuals\":[\"f32[2048]\"],\"out\":\"f32[]\",\"dout\":\"f32[]\",\"x\":\"f32[2048,4096]\",\"labels\":\"i32[2048]\",\"w\":\"bf16[4096,151936]\",\"reduction\":\"sum\",\"return_residuals\":false}": {
    "{}": {
      "compile_time_ms": 2830.3837309999835,
      "lower_time_ms": 11.025579000033758,
      "evaluation_times_ms": [
        26.963283,
        27.489679,
        27.404943,
        27.594797,
        27.319888
      ],
      "metadata": {},
      "peak_memory_mb": 5079.326752
    }
  },
  "{\"residuals\":[\"bf16[4096]\"],\"out\":\"f32[]\",\"dout\":\"f32[]\",\"x\":\"bf16[4096,4096]\",\"labels\":\"i32[4096]\",\"w\":\"bf16[4096,151936]\",\"reduction\":\"mean\",\"return_residuals\":false}": {
    "{}": {
      "compile_time_ms": 244.13653600004181,
      "lower_time_ms": 17.688893000013195,
      "evaluation_times_ms": [
        21.044658,
        21.758191,
        22.633675,
        22.426509,
        22.250446
      ],
      "metadata": {},
      "peak_memory_mb": 5112.897568
    }
  },
  "{\"residuals\":[\"f32[4096]\"],\"out\":\"f32[]\",\"dout\":\"f32[]\",\"x\":\"f32[4096,4096]\",\"labels\":\"i32[4096]\",\"w\":\"bf16[4096,151936]\",\"reduction\":\"mean\",\"return_residuals\":false}": {
    "{}": {
      "compile_time_ms": 6184.6037079999405,
      "lower_time_ms": 15.396405999808849,
      "evaluation_times_ms": [
        51.393544999999996,
        52.565573,
        51.281962,
        52.323877,
        53.031491
      ],
      "metadata": {},
      "peak_memory_mb": 6391.119912
    }
  },
  "{\"residuals\":[\"bf16[4096]\"],\"out\":\"f32[]\",\"dout\":\"f32[]\",\"x\":\"bf16[4096,4096]\",\"labels\":\"i32[4096]\",\"w\":\"bf16[4096,151936]\",\"reduction\":\"sum\",\"return_residuals\":false}": {
    "{}": {
      "compile_time_ms": 2812.233132000074,
      "lower_time_ms": 10.443477999842798,
      "evaluation_times_ms": [
        21.089986,
        21.702336,
        21.780255999999998,
        22.340094,
        22.28019
      ],
      "metadata": {},
      "peak_memory_mb": 5112.897568
    }
  },
  "{\"residuals\":[\"f32[4096]\"],\"out\":\"f32[]\",\"dout\":\"f32[]\",\"x\":\"f32[4096,4096]\",\"labels\":\"i32[4096]\",\"w\":\"bf16[4096,151936]\",\"reduction\":\"sum\",\"return_residuals\":false}": {
    "{}": {
      "compile_time_ms": 4710.195599000144,
      "lower_time_ms": 10.55292199998803,
      "evaluation_times_ms": [
        51.233327,
        51.312495,
        51.926189,
        52.610155,
        51.271631
      ],
      "metadata": {},
      "peak_memory_mb": 6391.119904
    }
  },
  "{\"residuals\":[\"bf16[16384]\"],\"out\":\"f32[]\",\"dout\":\"f32[]\",\"x\":\"bf16[16384,4096]\",\"labels\":\"i32[16384]\",\"w\":\"bf16[4096,151936]\",\"reduction\":\"mean\",\"return_residuals\":false}": {
    "{}": {
      "compile_time_ms": 13038.7038209999,
      "lower_time_ms": 15.687954999975773,
      "evaluation_times_ms": [
        90.09461,
        90.771056,
        93.165771,
        92.322382,
        109.327699
      ],
      "metadata": {},
      "peak_memory_mb": 14094.073888
    }
  },
  "{\"residuals\":[\"f32[16384]\"],\"out\":\"f32[]\",\"dout\":\"f32[]\",\"x\":\"f32[16384,4096]\",\"labels\":\"i32[16384]\",\"w\":\"bf16[4096,151936]\",\"reduction\":\"mean\",\"return_residuals\":false}": {
    "{}": {
      "compile_time_ms": 18028.091743000004,
      "lower_time_ms": 14.931526000054873,
      "evaluation_times_ms": [
        202.651306,
        205.35153,
        213.543236,
        205.575774,
        216.822939
      ],
      "metadata": {},
      "peak_memory_mb": 24185.60208
    }
  },
  "{\"residuals\":[\"bf16[16384]\"],\"out\":\"f32[]\",\"dout\":\"f32[]\",\"x\":\"bf16[16384,4096]\",\"labels\":\"i32[16384]\",\"w\":\"bf16[4096,151936]\",\"reduction\":\"sum\",\"return_residuals\":false}": {
    "{}": {
      "compile_time_ms": 10221.724640000048,
      "lower_time_ms": 11.24962000017149,
      "evaluation_times_ms": [
        92.20747300000001,
        91.942289,
        88.370929,
        91.953553,
        106.666853
      ],
      "metadata": {},
      "peak_memory_mb": 14094.073888
    }
  },
  "{\"residuals\":[\"f32[16384]\"],\"out\":\"f32[]\",\"dout\":\"f32[]\",\"x\":\"f32[16384,4096]\",\"labels\":\"i32[16384]\",\"w\":\"bf16[4096,151936]\",\"reduction\":\"sum\",\"return_residuals\":false}": {
    "{}": {
      "compile_time_ms": 12380.145630000015,
      "lower_time_ms": 10.585109999965425,
      "evaluation_times_ms": [
        200.931022,
        200.171918,
        207.628977,
        202.849967,
        212.114354
      ],
      "metadata": {},
      "peak_memory_mb": 24185.60208
    }
  },
  "{\"residuals\":[\"bf16[32768]\"],\"out\":\"f32[]\",\"dout\":\"f32[]\",\"x\":\"bf16[32768,4096]\",\"labels\":\"i32[32768]\",\"w\":\"bf16[4096,151936]\",\"reduction\":\"mean\",\"return_residuals\":false}": {
    "{}": {
      "compile_time_ms": 14589.765725000007,
      "lower_time_ms": 15.882297999951334,
      "evaluation_times_ms": [
        183.55389499999998,
        178.495585,
        190.258382,
        180.75514,
        184.171975
      ],
      "metadata": {},
      "peak_memory_mb": 24454.168608
    }
  },
  "{\"residuals\":[\"f32[32768]\"],\"out\":\"f32[]\",\"dout\":\"f32[]\",\"x\":\"f32[32768,4096]\",\"labels\":\"i32[32768]\",\"w\":\"bf16[4096,151936]\",\"reduction\":\"mean\",\"return_residuals\":false}": {
    "{}": {
      "compile_time_ms": 34987.636314999916,
      "lower_time_ms": 14.30858999992779,
      "evaluation_times_ms": [
        416.901118,
        445.211928,
        470.464624,
        447.226813,
        412.405264
      ],
      "metadata": {},
      "peak_memory_mb": 44637.224992
    }
  },
  "{\"residuals\":[\"bf16[32768]\"],\"out\":\"f32[]\",\"dout\":\"f32[]\",\"x\":\"bf16[32768,4096]\",\"labels\":\"i32[32768]\",\"w\":\"bf16[4096,151936]\",\"reduction\":\"sum\",\"return_residuals\":false}": {
    "{}": {
      "compile_time_ms": 9605.726717999914,
      "lower_time_ms": 11.038343999871358,
      "evaluation_times_ms": [
        179.694323,
        182.851931,
        190.326316,
        180.909782,
        189.719051
      ],
      "metadata": {},
      "peak_memory_mb": 24454.168608
    }
  },
  "{\"residuals\":[\"f32[32768]\"],\"out\":\"f32[]\",\"dout\":\"f32[]\",\"x\":\"f32[32768,4096]\",\"labels\":\"i32[32768]\",\"w\":\"bf16[4096,151936]\",\"reduction\":\"sum\",\"return_residuals\":false}": {
    "{}": {
      "compile_time_ms": 222.54603999999745,
      "lower_time_ms": 16.807204999963687,
      "evaluation_times_ms": [
        454.507714,
        484.934901,
        481.082219,
        450.39529,
        457.870894
      ],
      "metadata": {},
      "peak_memory_mb": 44637.224992
    }
  },
  "{\"residuals\":[\"bf16[131072]\"],\"out\":\"f32[]\",\"dout\":\"f32[]\",\"x\":\"bf16[131072,4096]\",\"labels\":\"i32[131072]\",\"w\":\"bf16[4096,151936]\",\"reduction\":\"mean\",\"return_residuals\":false}": {},
  "{\"residuals\":[\"f32[131072]\"],\"out\":\"f32[]\",\"dout\":\"f32[]\",\"x\":\"f32[131072,4096]\",\"labels\":\"i32[131072]\",\"w\":\"bf16[4096,151936]\",\"reduction\":\"mean\",\"return_residuals\":false}": {},
  "{\"residuals\":[\"bf16[131072]\"],\"out\":\"f32[]\",\"dout\":\"f32[]\",\"x\":\"bf16[131072,4096]\",\"labels\":\"i32[131072]\",\"w\":\"bf16[4096,151936]\",\"reduction\":\"sum\",\"return_residuals\":false}": {},
  "{\"residuals\":[\"f32[131072]\"],\"out\":\"f32[]\",\"dout\":\"f32[]\",\"x\":\"f32[131072,4096]\",\"labels\":\"i32[131072]\",\"w\":\"bf16[4096,151936]\",\"reduction\":\"sum\",\"return_residuals\":false}": {},
  "{\"residuals\":[\"bf16[1024]\"],\"out\":\"f32[]\",\"dout\":\"f32[]\",\"x\":\"bf16[1024,2560]\",\"labels\":\"i32[1024]\",\"w\":\"bf16[2560,262144]\",\"reduction\":\"mean\",\"return_residuals\":false}": {
    "{}": {
      "compile_time_ms": 1417.198578999887,
      "lower_time_ms": 16.318981000040367,
      "evaluation_times_ms": [
        7.183525,
        7.191909,
        7.195717,
        7.1942129999999995,
        7.207109
      ],
      "metadata": {},
      "peak_memory_mb": 5418.002464
    }
  },
  "{\"residuals\":[\"f32[1024]\"],\"out\":\"f32[]\",\"dout\":\"f32[]\",\"x\":\"f32[1024,2560]\",\"labels\":\"i32[1024]\",\"w\":\"bf16[2560,262144]\",\"reduction\":\"mean\",\"return_residuals\":false}": {
    "{}": {
      "compile_time_ms": 2573.296085000038,
      "lower_time_ms": 14.955926999391522,
      "evaluation_times_ms": [
        18.481964,
        18.536109,
        18.617421,
        18.471277,
        18.458285
      ],
      "metadata": {},
      "peak_memory_mb": 5154.81194
    }
  },
  "{\"residuals\":[\"bf16[1024]\"],\"out\":\"f32[]\",\"dout\":\"f32[]\",\"x\":\"bf16[1024,2560]\",\"labels\":\"i32[1024]\",\"w\":\"bf16[2560,262144]\",\"reduction\":\"sum\",\"return_residuals\":false}": {
    "{}": {
      "compile_time_ms": 1072.7517169998464,
      "lower_time_ms": 10.221579000244674,
      "evaluation_times_ms": [
        7.196581,
        7.166981,
        7.194085,
        7.221157,
        7.218053
      ],
      "metadata": {},
      "peak_memory_mb": 5418.002464
    }
  },
  "{\"residuals\":[\"f32[1024]\"],\"out\":\"f32[]\",\"dout\":\"f32[]\",\"x\":\"f32[1024,2560]\",\"labels\":\"i32[1024]\",\"w\":\"bf16[2560,262144]\",\"reduction\":\"sum\",\"return_residuals\":false}": {
    "{}": {
      "compile_time_ms": 2036.1556950001614,
      "lower_time_ms": 10.250253000776866,
      "evaluation_times_ms": [
        18.433291999999998,
        18.417868,
        18.413997,
        18.470572,
        18.616044
      ],
      "metadata": {},
      "peak_memory_mb": 5154.811936
    }
  },
  "{\"residuals\":[\"bf16[2048]\"],\"out\":\"f32[]\",\"dout\":\"f32[]\",\"x\":\"bf16[2048,2560]\",\"labels\":\"i32[2048]\",\"w\":\"bf16[2560,262144]\",\"reduction\":\"mean\",\"return_residuals\":false}": {
    "{}": {
      "compile_time_ms": 2358.8094939996154,
      "lower_time_ms": 15.752117999909387,
      "evaluation_times_ms": [
        12.656137,
        12.616265,
        12.767946,
        13.224682,
        13.28753
      ],
      "metadata": {},
      "peak_memory_mb": 5433.741344
    }
  },
  "{\"residuals\":[\"f32[2048]\"],\"out\":\"f32[]\",\"dout\":\"f32[]\",\"x\":\"f32[2048,2560]\",\"labels\":\"i32[2048]\",\"w\":\"bf16[2560,262144]\",\"reduction\":\"mean\",\"return_residuals\":false}": {
    "{}": {
      "compile_time_ms": 4222.577245000139,
      "lower_time_ms": 14.005664000251272,
      "evaluation_times_ms": [
        31.895129,
        32.052313,
        32.775865,
        32.060377,
        32.500121
      ],
      "metadata": {},
      "peak_memory_mb": 6249.537572
    }
  },
  "{\"residuals\":[\"bf16[2048]\"],\"out\":\"f32[]\",\"dout\":\"f32[]\",\"x\":\"bf16[2048,2560]\",\"labels\":\"i32[2048]\",\"w\":\"bf16[2560,262144]\",\"reduction\":\"sum\",\"return_residuals\":false}": {
    "{}": {
      "compile_time_ms": 1753.8518699993801,
      "lower_time_ms": 11.039756000172929,
      "evaluation_times_ms": [
        12.588779,
        12.620011,
        12.769547,
        12.915371,
        12.899244
      ],
      "metadata": {},
      "peak_memory_mb": 5433.741344
    }
  },
  "{\"residuals\":[\"f32[2048]\"],\"out\":\"f32[]\",\"dout\":\"f32[]\",\"x\":\"f32[2048,2560]\",\"labels\":\"i32[2048]\",\"w\":\"bf16[2560,262144]\",\"reduction\":\"sum\",\"return_residuals\":false}": {
    "{}": {
      "compile_time_ms": 3135.1154900003166,
      "lower_time_ms": 10.121907999746327,
      "evaluation_times_ms": [
        31.893884,
        32.062396,
        32.579164999999996,
        31.998459,
        32.44854
      ],
      "metadata": {},
      "peak_memory_mb": 6249.537568
    }
  },
  "{\"residuals\":[\"bf16[4096]\"],\"out\":\"f32[]\",\"dout\":\"f32[]\",\"x\":\"bf16[4096,2560]\",\"labels\":\"i32[4096]\",\"w\":\"bf16[2560,262144]\",\"reduction\":\"mean\",\"return_residuals\":false}": {
    "{}": {
      "compile_time_ms": 4000.3402389993425,
      "lower_time_ms": 15.203114999167155,
      "evaluation_times_ms": [
        24.276311,
        25.095575,
        25.598297,
        25.530936,
        25.776632
      ],
      "metadata": {},
      "peak_memory_mb": 5465.219104
    }
  },
  "{\"residuals\":[\"f32[4096]\"],\"out\":\"f32[]\",\"dout\":\"f32[]\",\"x\":\"f32[4096,2560]\",\"labels\":\"i32[4096]\",\"w\":\"bf16[2560,262144]\",\"reduction\":\"mean\",\"return_residuals\":false}": {
    "{}": {
      "compile_time_ms": 6682.323654000356,
      "lower_time_ms": 14.257006000661931,
      "evaluation_times_ms": [
        61.858592,
        61.6936,
        60.718879,
        61.792223,
        63.580642000000005
      ],
      "metadata": {},
      "peak_memory_mb": 12700.4017
    }
  },
  "{\"residuals\":[\"bf16[4096]\"],\"out\":\"f32[]\",\"dout\":\"f32[]\",\"x\":\"bf16[4096,2560]\",\"labels\":\"i32[4096]\",\"w\":\"bf16[2560,262144]\",\"reduction\":\"sum\",\"return_residuals\":false}": {
    "{}": {
      "compile_time_ms": 3034.8774829999456,
      "lower_time_ms": 10.915048999777355,
      "evaluation_times_ms": [
        24.199099,
        25.158397,
        25.319197,
        25.460669,
        25.524893
      ],
      "metadata": {},
      "peak_memory_mb": 5465.219104
    }
  },
  "{\"residuals\":[\"f32[4096]\"],\"out\":\"f32[]\",\"dout\":\"f32[]\",\"x\":\"f32[4096,2560]\",\"labels\":\"i32[4096]\",\"w\":\"bf16[2560,262144]\",\"reduction\":\"sum\",\"return_residuals\":false}": {
    "{}": {
      "compile_time_ms": 5090.754062999622,
      "lower_time_ms": 10.211101000095368,
      "evaluation_times_ms": [
        61.906501999999996,
        60.48442,
        60.622147,
        63.699815,
        61.927206000000005
      ],
      "metadata": {},
      "peak_memory_mb": 12700.401696
    }
  },
  "{\"residuals\":[\"bf16[16384]\"],\"out\":\"f32[]\",\"dout\":\"f32[]\",\"x\":\"bf16[16384,2560]\",\"labels\":\"i32[16384]\",\"w\":\"bf16[2560,262144]\",\"reduction\":\"mean\",\"return_residuals\":false}": {
    "{}": {
      "compile_time_ms": 14542.114640999898,
      "lower_time_ms": 15.456166999683774,
      "evaluation_times_ms": [
        99.537482,
        104.699471,
        103.532942,
        104.944495,
        107.042961
      ],
      "metadata": {},
      "peak_memory_mb": 21458.223136
    }
  },
  "{\"residuals\":[\"f32[16384]\"],\"out\":\"f32[]\",\"dout\":\"f32[]\",\"x\":\"f32[16384,2560]\",\"labels\":\"i32[16384]\",\"w\":\"bf16[2560,262144]\",\"reduction\":\"mean\",\"return_residuals\":false}": {},
  "{\"residuals\":[\"bf16[16384]\"],\"out\":\"f32[]\",\"dout\":\"f32[]\",\"x\":\"bf16[16384,2560]\",\"labels\":\"i32[16384]\",\"w\":\"bf16[2560,262144]\",\"reduction\":\"sum\",\"return_residuals\":false}": {},
  "{\"residuals\":[\"bf16[32768]\"],\"out\":\"f32[]\",\"dout\":\"f32[]\",\"x\":\"bf16[32768,2560]\",\"labels\":\"i32[32768]\",\"w\":\"bf16[2560,262144]\",\"reduction\":\"mean\",\"return_residuals\":false}": {
    "{}": {
      "compile_time_ms": 29050.447790999897,
      "lower_time_ms": 18.66589899873361,
      "evaluation_times_ms": [
        207.292664,
        208.09778599999999,
        208.07225,
        206.113236,
        214.862058
      ],
      "metadata": {},
      "peak_memory_mb": 38889.9144
    }
  },
  "{\"residuals\":[\"f32[32768]\"],\"out\":\"f32[]\",\"dout\":\"f32[]\",\"x\":\"f32[32768,2560]\",\"labels\":\"i32[32768]\",\"w\":\"bf16[2560,262144]\",\"reduction\":\"mean\",\"return_residuals\":false}": {},
  "{\"residuals\":[\"bf16[32768]\"],\"out\":\"f32[]\",\"dout\":\"f32[]\",\"x\":\"bf16[32768,2560]\",\"labels\":\"i32[32768]\",\"w\":\"bf16[2560,262144]\",\"reduction\":\"sum\",\"return_residuals\":false}": {
    "{}": {
      "compile_time_ms": 22562.6200310071,
      "lower_time_ms": 10.522990021854639,
      "evaluation_times_ms": [
        208.059597,
        201.11148,
        205.113572,
        205.953864,
        211.439685
      ],
      "metadata": {},
      "peak_memory_mb": 38889.9144
    }
  },
  "{\"residuals\":[\"f32[32768]\"],\"out\":\"f32[]\",\"dout\":\"f32[]\",\"x\":\"f32[32768,2560]\",\"labels\":\"i32[32768]\",\"w\":\"bf16[2560,262144]\",\"reduction\":\"sum\",\"return_residuals\":false}": {},
  "{\"residuals\":[\"bf16[131072]\"],\"out\":\"f32[]\",\"dout\":\"f32[]\",\"x\":\"bf16[131072,2560]\",\"labels\":\"i32[131072]\",\"w\":\"bf16[2560,262144]\",\"reduction\":\"mean\",\"return_residuals\":false}": {},
  "{\"residuals\":[\"f32[131072]\"],\"out\":\"f32[]\",\"dout\":\"f32[]\",\"x\":\"f32[131072,2560]\",\"labels\":\"i32[131072]\",\"w\":\"bf16[2560,262144]\",\"reduction\":\"mean\",\"return_residuals\":false}": {},
  "{\"residuals\":[\"bf16[131072]\"],\"out\":\"f32[]\",\"dout\":\"f32[]\",\"x\":\"bf16[131072,2560]\",\"labels\":\"i32[131072]\",\"w\":\"bf16[2560,262144]\",\"reduction\":\"sum\",\"return_residuals\":false}": {},
  "{\"residuals\":[\"f32[131072]\"],\"out\":\"f32[]\",\"dout\":\"f32[]\",\"x\":\"f32[131072,2560]\",\"labels\":\"i32[131072]\",\"w\":\"bf16[2560,262144]\",\"reduction\":\"sum\",\"return_residuals\":false}": {},
  "{\"residuals\":[\"bf16[1024]\"],\"out\":\"f32[]\",\"dout\":\"f32[]\",\"x\":\"bf16[1024,3840]\",\"labels\":\"i32[1024]\",\"w\":\"bf16[3840,262144]\",\"reduction\":\"mean\",\"return_residuals\":false}": {
    "{}": {
      "compile_time_ms": 1666.525968001224,
      "lower_time_ms": 15.952182991895825,
      "evaluation_times_ms": [
        10.233716,
        10.224788,
        10.282452000000001,
        10.516497,
        10.560369
      ],
      "metadata": {},
      "peak_memory_mb": 8110.221344
    }
  },
  "{\"residuals\":[\"f32[1024]\"],\"out\":\"f32[]\",\"dout\":\"f32[]\",\"x\":\"f32[1024,3840]\",\"labels\":\"i32[1024]\",\"w\":\"bf16[3840,262144]\",\"reduction\":\"mean\",\"return_residuals\":false}": {
    "{}": {
      "compile_time_ms": 3062.842159997672,
      "lower_time_ms": 14.64932196540758,
      "evaluation_times_ms": [
        26.01573,
        26.023506,
        25.973841999999998,
        25.973843000000002,
        25.961906
      ],
      "metadata": {},
      "peak_memory_mb": 7178.56362
    }
  },
  "{\"residuals\":[\"bf16[1024]\"],\"out\":\"f32[]\",\"dout\":\"f32[]\",\"x\":\"bf16[1024,3840]\",\"labels\":\"i32[1024]\",\"w\":\"bf16[3840,262144]\",\"reduction\":\"sum\",\"return_residuals\":false}": {
    "{}": {
      "compile_time_ms": 1285.6416419963352,
      "lower_time_ms": 9.990112972445786,
      "evaluation_times_ms": [
        10.223002,
        10.249786,
        10.250297,
        10.423255,
        10.425463
      ],
      "metadata": {},
      "peak_memory_mb": 8110.221344
    }
  },
  "{\"residuals\":[\"f32[1024]\"],\"out\":\"f32[]\",\"dout\":\"f32[]\",\"x\":\"f32[1024,3840]\",\"labels\":\"i32[1024]\",\"w\":\"bf16[3840,262144]\",\"reduction\":\"sum\",\"return_residuals\":false}": {
    "{}": {
      "compile_time_ms": 2441.631916037295,
      "lower_time_ms": 9.876308962702751,
      "evaluation_times_ms": [
        25.955773,
        25.89987,
        25.865502,
        25.771583,
        25.757854
      ],
      "metadata": {},
      "peak_memory_mb": 7178.563616
    }
  },
  "{\"residuals\":[\"bf16[2048]\"],\"out\":\"f32[]\",\"dout\":\"f32[]\",\"x\":\"bf16[2048,3840]\",\"labels\":\"i32[2048]\",\"w\":\"bf16[3840,262144]\",\"reduction\":\"mean\",\"return_residuals\":false}": {
    "{}": {
      "compile_time_ms": 2906.3246020232327,
      "lower_time_ms": 14.873600041028112,
      "evaluation_times_ms": [
        18.332492,
        18.496619,
        19.566496,
        19.573759,
        19.480192
      ],
      "metadata": {},
      "peak_memory_mb": 8133.824544
    }
  },
  "{\"residuals\":[\"f32[2048]\"],\"out\":\"f32[]\",\"dout\":\"f32[]\",\"x\":\"f32[2048,3840]\",\"labels\":\"i32[2048]\",\"w\":\"bf16[3840,262144]\",\"reduction\":\"mean\",\"return_residuals\":false}": {
    "{}": {
      "compile_time_ms": 5004.598953004461,
      "lower_time_ms": 14.095790043938905,
      "evaluation_times_ms": [
        44.875249000000004,
        45.733993,
        45.275181,
        45.693289,
        45.405228
      ],
      "metadata": {},
      "peak_memory_mb": 8283.775012
    }
  },
  "{\"residuals\":[\"bf16[2048]\"],\"out\":\"f32[]\",\"dout\":\"f32[]\",\"x\":\"bf16[2048,3840]\",\"labels\":\"i32[2048]\",\"w\":\"bf16[3840,262144]\",\"reduction\":\"sum\",\"return_residuals\":false}": {
    "{}": {
      "compile_time_ms": 2385.0597059936263,
      "lower_time_ms": 10.808903025463223,
      "evaluation_times_ms": [
        18.124535,
        18.517108,
        18.933744,
        19.082318,
        19.323245
      ],
      "metadata": {},
      "peak_memory_mb": 8133.824544
    }
  },
  "{\"residuals\":[\"f32[2048]\"],\"out\":\"f32[]\",\"dout\":\"f32[]\",\"x\":\"f32[2048,3840]\",\"labels\":\"i32[2048]\",\"w\":\"bf16[3840,262144]\",\"reduction\":\"sum\",\"return_residuals\":false}": {
    "{}": {
      "compile_time_ms": 3887.718473037239,
      "lower_time_ms": 10.218590032309294,
      "evaluation_times_ms": [
        44.37278,
        45.114598,
        46.420186,
        45.603809999999996,
        45.088518
      ],
      "metadata": {},
      "peak_memory_mb": 8283.775008
    }
  },
  "{\"residuals\":[\"bf16[4096]\"],\"out\":\"f32[]\",\"dout\":\"f32[]\",\"x\":\"bf16[4096,3840]\",\"labels\":\"i32[4096]\",\"w\":\"bf16[3840,262144]\",\"reduction\":\"mean\",\"return_residuals\":false}": {
    "{}": {
      "compile_time_ms": 5381.334316043649,
      "lower_time_ms": 15.050824964419007,
      "evaluation_times_ms": [
        35.709824,
        37.8563,
        38.050315,
        37.138836,
        37.863244
      ],
      "metadata": {},
      "peak_memory_mb": 8178.933792
    }
  },
  "{\"residuals\":[\"f32[4096]\"],\"out\":\"f32[]\",\"dout\":\"f32[]\",\"x\":\"f32[4096,3840]\",\"labels\":\"i32[4096]\",\"w\":\"bf16[3840,262144]\",\"reduction\":\"mean\",\"return_residuals\":false}": {
    "{}": {
      "compile_time_ms": 9129.455992020667,
      "lower_time_ms": 13.710734026972204,
      "evaluation_times_ms": [
        85.021156,
        86.651222,
        87.88481300000001,
        86.077275,
        88.27668
      ],
      "metadata": {},
      "peak_memory_mb": 14755.61066
    }
  },
  "{\"residuals\":[\"bf16[4096]\"],\"out\":\"f32[]\",\"dout\":\"f32[]\",\"x\":\"bf16[4096,3840]\",\"labels\":\"i32[4096]\",\"w\":\"bf16[3840,262144]\",\"reduction\":\"sum\",\"return_residuals\":false}": {
    "{}": {
      "compile_time_ms": 4098.601404984947,
      "lower_time_ms": 10.715834039729089,
      "evaluation_times_ms": [
        36.024321,
        38.183504,
        38.092721,
        38.713324,
        40.831354
      ],
      "metadata": {},
      "peak_memory_mb": 8178.933792
    }
  },
  "{\"residuals\":[\"f32[4096]\"],\"out\":\"f32[]\",\"dout\":\"f32[]\",\"x\":\"f32[4096,3840]\",\"labels\":\"i32[4096]\",\"w\":\"bf16[3840,262144]\",\"reduction\":\"sum\",\"return_residuals\":false}": {
    "{}": {
      "compile_time_ms": 7097.586346033495,
      "lower_time_ms": 10.169729997869581,
      "evaluation_times_ms": [
        85.476523,
        86.455653,
        87.61586700000001,
        90.139337,
        89.90237900000001
      ],
      "metadata": {},
      "peak_memory_mb": 14755.610656
    }
  },
  "{\"residuals\":[\"bf16[16384]\"],\"out\":\"f32[]\",\"dout\":\"f32[]\",\"x\":\"bf16[16384,3840]\",\"labels\":\"i32[16384]\",\"w\":\"bf16[3840,262144]\",\"reduction\":\"mean\",\"return_residuals\":false}": {
    "{}": {
      "compile_time_ms": 20974.541847999943,
      "lower_time_ms": 19.36649299977944,
      "evaluation_times_ms": [
        147.969825,
        148.819011,
        151.382988,
        149.77655000000001,
        149.058413
      ],
      "metadata": {},
      "peak_memory_mb": 23597.318176
    }
  },
  "{\"residuals\":[\"f32[16384]\"],\"out\":\"f32[]\",\"dout\":\"f32[]\",\"x\":\"f32[16384,3840]\",\"labels\":\"i32[16384]\",\"w\":\"bf16[3840,262144]\",\"reduction\":\"mean\",\"return_residuals\":false}": {
    "{}": {
      "compile_time_ms": 27763.791297000127,
      "lower_time_ms": 15.977900999814665,
      "evaluation_times_ms": [
        326.738907,
        335.976511,
        328.792099,
        327.808991,
        339.948287
      ],
      "metadata": {},
      "peak_memory_mb": 40903.049248
    }
  },
  "{\"residuals\":[\"bf16[16384]\"],\"out\":\"f32[]\",\"dout\":\"f32[]\",\"x\":\"bf16[16384,3840]\",\"labels\":\"i32[16384]\",\"w\":\"bf16[3840,262144]\",\"reduction\":\"sum\",\"return_residuals\":false}": {
    "{}": {
      "compile_time_ms": 16448.337261000008,
      "lower_time_ms": 10.80571400007102,
      "evaluation_times_ms": [
        147.001012,
        147.707638,
        160.819782,
        150.292575,
        146.82373
      ],
      "metadata": {},
      "peak_memory_mb": 23597.318176
    }
  },
  "{\"residuals\":[\"f32[16384]\"],\"out\":\"f32[]\",\"dout\":\"f32[]\",\"x\":\"f32[16384,3840]\",\"labels\":\"i32[16384]\",\"w\":\"bf16[3840,262144]\",\"reduction\":\"sum\",\"return_residuals\":false}": {
    "{}": {
      "compile_time_ms": 20202.34647799998,
      "lower_time_ms": 10.709467999959088,
      "evaluation_times_ms": [
        329.20721,
        336.138242,
        340.864757,
        329.949901,
        341.41407
      ],
      "metadata": {},
      "peak_memory_mb": 40903.049248
    }
  },
  "{\"residuals\":[\"bf16[32768]\"],\"out\":\"f32[]\",\"dout\":\"f32[]\",\"x\":\"bf16[32768,3840]\",\"labels\":\"i32[32768]\",\"w\":\"bf16[3840,262144]\",\"reduction\":\"mean\",\"return_residuals\":false}": {
    "{}": {
      "compile_time_ms": 22695.45946900007,
      "lower_time_ms": 15.791502000183755,
      "evaluation_times_ms": [
        302.19545,
        310.458201,
        311.359579,
        302.937597,
        314.883177
      ],
      "metadata": {},
      "peak_memory_mb": 41154.83856
    }
  },
  "{\"residuals\":[\"f32[32768]\"],\"out\":\"f32[]\",\"dout\":\"f32[]\",\"x\":\"f32[32768,3840]\",\"labels\":\"i32[32768]\",\"w\":\"bf16[3840,262144]\",\"reduction\":\"mean\",\"return_residuals\":false}": {},
  "{\"residuals\":[\"bf16[32768]\"],\"out\":\"f32[]\",\"dout\":\"f32[]\",\"x\":\"bf16[32768,3840]\",\"labels\":\"i32[32768]\",\"w\":\"bf16[3840,262144]\",\"reduction\":\"sum\",\"return_residuals\":false}": {
    "{}": {
      "compile_time_ms": 787.2877909999261,
      "lower_time_ms": 17.32554699992761,
      "evaluation_times_ms": [
        298.187208,
        309.025254,
        306.486836,
        302.872055,
        314.480237
      ],
      "metadata": {},
      "peak_memory_mb": 41154.83856
    }
  },
  "{\"residuals\":[\"f32[32768]\"],\"out\":\"f32[]\",\"dout\":\"f32[]\",\"x\":\"f32[32768,3840]\",\"labels\":\"i32[32768]\",\"w\":\"bf16[3840,262144]\",\"reduction\":\"sum\",\"return_residuals\":false}": {},
  "{\"residuals\":[\"bf16[131072]\"],\"out\":\"f32[]\",\"dout\":\"f32[]\",\"x\":\"bf16[131072,3840]\",\"labels\":\"i32[131072]\",\"w\":\"bf16[3840,262144]\",\"reduction\":\"mean\",\"return_residuals\":false}": {},
  "{\"residuals\":[\"f32[131072]\"],\"out\":\"f32[]\",\"dout\":\"f32[]\",\"x\":\"f32[131072,3840]\",\"labels\":\"i32[131072]\",\"w\":\"bf16[3840,262144]\",\"reduction\":\"mean\",\"return_residuals\":false}": {},
  "{\"residuals\":[\"bf16[131072]\"],\"out\":\"f32[]\",\"dout\":\"f32[]\",\"x\":\"bf16[131072,3840]\",\"labels\":\"i32[131072]\",\"w\":\"bf16[3840,262144]\",\"reduction\":\"sum\",\"return_residuals\":false}": {},
  "{\"residuals\":[\"f32[131072]\"],\"out\":\"f32[]\",\"dout\":\"f32[]\",\"x\":\"f32[131072,3840]\",\"labels\":\"i32[131072]\",\"w\":\"bf16[3840,262144]\",\"reduction\":\"sum\",\"return_residuals\":false}": {},
  "{\"residuals\":[\"bf16[1024]\"],\"out\":\"f32[]\",\"dout\":\"f32[]\",\"x\":\"bf16[1024,4096]\",\"labels\":\"i32[1024]\",\"w\":\"bf16[4096,128256]\",\"reduction\":\"mean\",\"return_residuals\":false}": {
    "{}": {
      "compile_time_ms": 1203.8501800000176,
      "lower_time_ms": 16.427748999831238,
      "evaluation_times_ms": [
        5.271543,
        5.27551,
        5.27407,
        5.280215,
        5.306454
      ],
      "metadata": {},
      "peak_memory_mb": 4261.423136
    }
  },
  "{\"residuals\":[\"f32[1024]\"],\"out\":\"f32[]\",\"dout\":\"f32[]\",\"x\":\"f32[1024,4096]\",\"labels\":\"i32[1024]\",\"w\":\"bf16[4096,128256]\",\"reduction\":\"mean\",\"return_residuals\":false}": {
    "{}": {
      "compile_time_ms": 2049.4197900000017,
      "lower_time_ms": 15.782224999838945,
      "evaluation_times_ms": [
        13.335544,
        13.33084,
        13.326136,
        13.327512,
        13.328439999999999
      ],
      "metadata": {},
      "peak_memory_mb": 3744.47722
    }
  },
  "{\"residuals\":[\"bf16[1024]\"],\"out\":\"f32[]\",\"dout\":\"f32[]\",\"x\":\"bf16[1024,4096]\",\"labels\":\"i32[1024]\",\"w\":\"bf16[4096,128256]\",\"reduction\":\"sum\",\"return_residuals\":false}": {
    "{}": {
      "compile_time_ms": 958.865686000081,
      "lower_time_ms": 10.874807999925906,
      "evaluation_times_ms": [
        5.271897,
        5.280343,
        5.277368,
        5.273464,
        5.285656
      ],
      "metadata": {},
      "peak_memory_mb": 4261.423136
    }
  },
  "{\"residuals\":[\"f32[1024]\"],\"out\":\"f32[]\",\"dout\":\"f32[]\",\"x\":\"f32[1024,4096]\",\"labels\":\"i32[1024]\",\"w\":\"bf16[4096,128256]\",\"reduction\":\"sum\",\"return_residuals\":false}": {
    "{}": {
      "compile_time_ms": 1710.7977299999675,
      "lower_time_ms": 10.579181999901266,
      "evaluation_times_ms": [
        13.320347,
        13.322043,
        13.315963,
        13.32201,
        13.315546999999999
      ],
      "metadata": {},
      "peak_memory_mb": 3744.477216
    }
  },
  "{\"residuals\":[\"bf16[2048]\"],\"out\":\"f32[]\",\"dout\":\"f32[]\",\"x\":\"bf16[2048,4096]\",\"labels\":\"i32[2048]\",\"w\":\"bf16[4096,128256]\",\"reduction\":\"mean\",\"return_residuals\":false}": {
    "{}": {
      "compile_time_ms": 1926.8099239998264,
      "lower_time_ms": 15.639740000096936,
      "evaluation_times_ms": [
        9.38089,
        9.403065999999999,
        9.475705,
        9.457241,
        9.885909999999999
      ],
      "metadata": {},
      "peak_memory_mb": 4286.5992
    }
  },
  "{\"residuals\":[\"f32[2048]\"],\"out\":\"f32[]\",\"dout\":\"f32[]\",\"x\":\"f32[2048,4096]\",\"labels\":\"i32[2048]\",\"w\":\"bf16[4096,128256]\",\"reduction\":\"mean\",\"return_residuals\":false}": {
    "{}": {
      "compile_time_ms": 3341.26785799981,
      "lower_time_ms": 14.649580999957834,
      "evaluation_times_ms": [
        22.809818,
        23.090776,
        23.04556,
        23.196023,
        23.058392
      ],
      "metadata": {},
      "peak_memory_mb": 4303.380516
    }
  },
  "{\"residuals\":[\"bf16[2048]\"],\"out\":\"f32[]\",\"dout\":\"f32[]\",\"x\":\"bf16[2048,4096]\",\"labels\":\"i32[2048]\",\"w\":\"bf16[4096,128256]\",\"reduction\":\"sum\",\"return_residuals\":false}": {
    "{}": {
      "compile_time_ms": 1464.8228949999975,
      "lower_time_ms": 11.337233000176639,
      "evaluation_times_ms": [
        9.304734,
        9.523965,
        9.521085,
        9.711804,
        9.735995
      ],
      "metadata": {},
      "peak_memory_mb": 4286.5992
    }
  },
  "{\"residuals\":[\"f32[2048]\"],\"out\":\"f32[]\",\"dout\":\"f32[]\",\"x\":\"f32[2048,4096]\",\"labels\":\"i32[2048]\",\"w\":\"bf16[4096,128256]\",\"reduction\":\"sum\",\"return_residuals\":false}": {
    "{}": {
      "compile_time_ms": 2555.132242000127,
      "lower_time_ms": 10.617734999868844,
      "evaluation_times_ms": [
        22.802432,
        23.232893,
        23.138911,
        23.207805,
        23.408797
      ],
      "metadata": {},
      "peak_memory_mb": 4303.380512
    }
  },
  "{\"residuals\":[\"bf16[4096]\"],\"out\":\"f32[]\",\"dout\":\"f32[]\",\"x\":\"bf16[4096,4096]\",\"labels\":\"i32[4096]\",\"w\":\"bf16[4096,128256]\",\"reduction\":\"mean\",\"return_residuals\":false}": {
    "{}": {
      "compile_time_ms": 2965.438078999796,
      "lower_time_ms": 18.4202670002378,
      "evaluation_times_ms": [
        17.41075,
        18.35952,
        19.051201,
        19.153984,
        19.157185
      ],
      "metadata": {},
      "peak_memory_mb": 4336.951328
    }
  },
  "{\"residuals\":[\"f32[4096]\"],\"out\":\"f32[]\",\"dout\":\"f32[]\",\"x\":\"f32[4096,4096]\",\"labels\":\"i32[4096]\",\"w\":\"bf16[4096,128256]\",\"reduction\":\"mean\",\"return_residuals\":false}": {
    "{}": {
      "compile_time_ms": 5260.731854999904,
      "lower_time_ms": 15.348184000231413,
      "evaluation_times_ms": [
        42.587765,
        44.220888,
        43.308311,
        44.754138000000005,
        43.676215
      ],
      "metadata": {},
      "peak_memory_mb": 5421.187112
    }
  },
  "{\"residuals\":[\"bf16[4096]\"],\"out\":\"f32[]\",\"dout\":\"f32[]\",\"x\":\"bf16[4096,4096]\",\"labels\":\"i32[4096]\",\"w\":\"bf16[4096,128256]\",\"reduction\":\"sum\",\"return_residuals\":false}": {
    "{}": {
      "compile_time_ms": 2347.2104080001372,
      "lower_time_ms": 10.62489000014466,
      "evaluation_times_ms": [
        17.426251999999998,
        18.377231,
        18.673967,
        18.677837999999998,
        18.773231
      ],
      "metadata": {},
      "peak_memory_mb": 4336.951328
    }
  },
  "{\"residuals\":[\"f32[4096]\"],\"out\":\"f32[]\",\"dout\":\"f32[]\",\"x\":\"f32[4096,4096]\",\"labels\":\"i32[4096]\",\"w\":\"bf16[4096,128256]\",\"reduction\":\"sum\",\"return_residuals\":false}": {
    "{}": {
      "compile_time_ms": 4021.1493249998966,
      "lower_time_ms": 10.54592299988144,
      "evaluation_times_ms": [
        42.409194,
        42.526794,
        43.56635,
        42.644683,
        43.130668
      ],
      "metadata": {},
      "peak_memory_mb": 5421.187104
    }
  },
  "{\"residuals\":[\"bf16[16384]\"],\"out\":\"f32[]\",\"dout\":\"f32[]\",\"x\":\"bf16[16384,4096]\",\"labels\":\"i32[16384]\",\"w\":\"bf16[4096,128256]\",\"reduction\":\"mean\",\"return_residuals\":false}": {
    "{}": {
      "compile_time_ms": 10860.966702000042,
      "lower_time_ms": 15.431540999998106,
      "evaluation_times_ms": [
        76.068807,
        76.472521,
        79.737461,
        75.807559,
        76.922026
      ],
      "metadata": {},
      "peak_memory_mb": 11960.221728
    }
  },
  "{\"residuals\":[\"f32[16384]\"],\"out\":\"f32[]\",\"dout\":\"f32[]\",\"x\":\"f32[16384,4096]\",\"labels\":\"i32[16384]\",\"w\":\"bf16[4096,128256]\",\"reduction\":\"mean\",\"return_residuals\":false}": {
    "{}": {
      "compile_time_ms": 14856.94433899971,
      "lower_time_ms": 14.430167999762489,
      "evaluation_times_ms": [
        177.331688,
        176.849157,
        183.872101,
        175.76611300000002,
        182.448222
      ],
      "metadata": {},
      "peak_memory_mb": 20499.85744
    }
  },
  "{\"residuals\":[\"bf16[16384]\"],\"out\":\"f32[]\",\"dout\":\"f32[]\",\"x\":\"bf16[16384,4096]\",\"labels\":\"i32[16384]\",\"w\":\"bf16[4096,128256]\",\"reduction\":\"sum\",\"return_residuals\":false}": {
    "{}": {
      "compile_time_ms": 8520.674334999967,
      "lower_time_ms": 11.196501000085846,
      "evaluation_times_ms": [
        77.81758,
        76.017091,
        76.473574,
        75.34595300000001,
        76.610214
      ],
      "metadata": {},
      "peak_memory_mb": 11960.221728
    }
  },
  "{\"residuals\":[\"f32[16384]\"],\"out\":\"f32[]\",\"dout\":\"f32[]\",\"x\":\"f32[16384,4096]\",\"labels\":\"i32[16384]\",\"w\":\"bf16[4096,128256]\",\"reduction\":\"sum\",\"return_residuals\":false}": {
    "{}": {
      "compile_time_ms": 10727.820203999727,
      "lower_time_ms": 10.690969999814115,
      "evaluation_times_ms": [
        170.267665,
        172.378874,
        188.769676,
        174.512773,
        169.847214
      ],
      "metadata": {},
      "peak_memory_mb": 20499.85744
    }
  },
  "{\"residuals\":[\"bf16[32768]\"],\"out\":\"f32[]\",\"dout\":\"f32[]\",\"x\":\"bf16[32768,4096]\",\"labels\":\"i32[32768]\",\"w\":\"bf16[4096,128256]\",\"reduction\":\"mean\",\"return_residuals\":false}": {
    "{}": {
      "compile_time_ms": 12085.076396000204,
      "lower_time_ms": 15.718738000032317,
      "evaluation_times_ms": [
        156.115967,
        153.571697,
        169.766567,
        156.76397,
        153.967603
      ],
      "metadata": {},
      "peak_memory_mb": 20768.423968
    }
  },
  "{\"residuals\":[\"f32[32768]\"],\"out\":\"f32[]\",\"dout\":\"f32[]\",\"x\":\"f32[32768,4096]\",\"labels\":\"i32[32768]\",\"w\":\"bf16[4096,128256]\",\"reduction\":\"mean\",\"return_residuals\":false}": {
    "{}": {
      "compile_time_ms": 29574.368935000166,
      "lower_time_ms": 14.733897000041907,
      "evaluation_times_ms": [
        361.806647,
        363.629096,
        351.111067,
        364.874543,
        362.00515
      ],
      "metadata": {},
      "peak_memory_mb": 37847.695392
    }
  },
  "{\"residuals\":[\"bf16[32768]\"],\"out\":\"f32[]\",\"dout\":\"f32[]\",\"x\":\"bf16[32768,4096]\",\"labels\":\"i32[32768]\",\"w\":\"bf16[4096,128256]\",\"reduction\":\"sum\",\"return_residuals\":false}": {
    "{}": {
      "compile_time_ms": 7886.2552639998285,
      "lower_time_ms": 11.45195600020088,
      "evaluation_times_ms": [
        152.699506,
        155.819749,
        166.754438,
        155.232897,
        158.265619
      ],
      "metadata": {},
      "peak_memory_mb": 20768.423968
    }
  },
  "{\"residuals\":[\"f32[32768]\"],\"out\":\"f32[]\",\"dout\":\"f32[]\",\"x\":\"f32[32768,4096]\",\"labels\":\"i32[32768]\",\"w\":\"bf16[4096,128256]\",\"reduction\":\"sum\",\"return_residuals\":false}": {
    "{}": {
      "compile_time_ms": 21140.465503000087,
      "lower_time_ms": 10.586737000267021,
      "evaluation_times_ms": [
        336.158027,
        350.160355,
        353.484824,
        344.144798,
        398.817197
      ],
      "metadata": {},
      "peak_memory_mb": 37847.695392
    }
  },
  "{\"residuals\":[\"bf16[131072]\"],\"out\":\"f32[]\",\"dout\":\"f32[]\",\"x\":\"bf16[131072,4096]\",\"labels\":\"i32[131072]\",\"w\":\"bf16[4096,128256]\",\"reduction\":\"mean\",\"return_residuals\":false}": {},
  "{\"residuals\":[\"f32[131072]\"],\"out\":\"f32[]\",\"dout\":\"f32[]\",\"x\":\"f32[131072,4096]\",\"labels\":\"i32[131072]\",\"w\":\"bf16[4096,128256]\",\"reduction\":\"mean\",\"return_residuals\":false}": {},
  "{\"residuals\":[\"bf16[131072]\"],\"out\":\"f32[]\",\"dout\":\"f32[]\",\"x\":\"bf16[131072,4096]\",\"labels\":\"i32[131072]\",\"w\":\"bf16[4096,128256]\",\"reduction\":\"sum\",\"return_residuals\":false}": {},
  "{\"residuals\":[\"f32[131072]\"],\"out\":\"f32[]\",\"dout\":\"f32[]\",\"x\":\"f32[131072,4096]\",\"labels\":\"i32[131072]\",\"w\":\"bf16[4096,128256]\",\"reduction\":\"sum\",\"return_residuals\":false}": {},
  "{\"residuals\":[\"bf16[4096]\"],\"out\":\"f32[]\",\"dout\":\"f32[]\",\"x\":\"bf16[4096,7168]\",\"labels\":\"i32[4096]\",\"w\":\"bf16[7168,128256]\",\"reduction\":\"mean\",\"return_residuals\":false}": {
    "{}": {
      "compile_time_ms": 4945.919697000136,
      "lower_time_ms": 13.783084999886341,
      "evaluation_times_ms": [
        30.521077,
        33.72089,
        33.362777,
        32.739705,
        33.120921
      ],
      "metadata": {},
      "peak_memory_mb": 7564.468256
    }
  },
  "{\"residuals\":[\"f32[4096]\"],\"out\":\"f32[]\",\"dout\":\"f32[]\",\"x\":\"f32[4096,7168]\",\"labels\":\"i32[4096]\",\"w\":\"bf16[7168,128256]\",\"reduction\":\"mean\",\"return_residuals\":false}": {
    "{}": {
      "compile_time_ms": 8792.12067599974,
      "lower_time_ms": 13.717111000005389,
      "evaluation_times_ms": [
        77.844345,
        76.544983,
        75.146164,
        77.137688,
        76.268374
      ],
      "metadata": {},
      "peak_memory_mb": 7885.865
    }
  },
  "{\"residuals\":[\"bf16[4096]\"],\"out\":\"f32[]\",\"dout\":\"f32[]\",\"x\":\"bf16[4096,7168]\",\"labels\":\"i32[4096]\",\"w\":\"bf16[7168,128256]\",\"reduction\":\"sum\",\"return_residuals\":false}": {
    "{}": {
      "compile_time_ms": 4275.787831999878,
      "lower_time_ms": 10.636514999987412,
      "evaluation_times_ms": [
        32.317941,
        32.815349,
        31.804755,
        33.895608,
        33.228791
      ],
      "metadata": {},
      "peak_memory_mb": 7564.468256
    }
  },
  "{\"residuals\":[\"f32[4096]\"],\"out\":\"f32[]\",\"dout\":\"f32[]\",\"x\":\"f32[4096,7168]\",\"labels\":\"i32[4096]\",\"w\":\"bf16[7168,128256]\",\"reduction\":\"sum\",\"return_residuals\":false}": {
    "{}": {
      "compile_time_ms": 314.37172300002203,
      "lower_time_ms": 17.14817799984303,
      "evaluation_times_ms": [
        71.084101,
        72.625831,
        72.79095,
        75.450857,
        72.76890300000001
      ],
      "metadata": {},
      "peak_memory_mb": 7885.864992
    }
  },
  "{\"residuals\":[\"bf16[8192]\"],\"out\":\"f32[]\",\"dout\":\"f32[]\",\"x\":\"bf16[8192,7168]\",\"labels\":\"i32[8192]\",\"w\":\"bf16[7168,128256]\",\"reduction\":\"mean\",\"return_residuals\":false}": {
    "{}": {
      "compile_time_ms": 9346.241484978236,
      "lower_time_ms": 19.10259702708572,
      "evaluation_times_ms": [
        69.214639,
        66.767733,
        67.191219,
        66.687861,
        67.914993
      ],
      "metadata": {},
      "peak_memory_mb": 7824.556064
    }
  },
  "{\"residuals\":[\"f32[8192]\"],\"out\":\"f32[]\",\"dout\":\"f32[]\",\"x\":\"f32[8192,7168]\",\"labels\":\"i32[8192]\",\"w\":\"bf16[7168,128256]\",\"reduction\":\"mean\",\"return_residuals\":false}": {
    "{}": {
      "compile_time_ms": 13221.61823301576,
      "lower_time_ms": 15.64753707498312,
      "evaluation_times_ms": [
        149.942657,
        152.664379,
        155.538676,
        153.879832,
        153.420076
      ],
      "metadata": {},
      "peak_memory_mb": 14391.279656
    }
  },
  "{\"residuals\":[\"bf16[8192]\"],\"out\":\"f32[]\",\"dout\":\"f32[]\",\"x\":\"bf16[8192,7168]\",\"labels\":\"i32[8192]\",\"w\":\"bf16[7168,128256]\",\"reduction\":\"sum\",\"return_residuals\":false}": {
    "{}": {
      "compile_time_ms": 7342.75508497376,
      "lower_time_ms": 10.212105000391603,
      "evaluation_times_ms": [
        66.357831,
        67.766469,
        67.20320600000001,
        68.198563,
        68.644102
      ],
      "metadata": {},
      "peak_memory_mb": 7824.556064
    }
  },
  "{\"residuals\":[\"f32[8192]\"],\"out\":\"f32[]\",\"dout\":\"f32[]\",\"x\":\"f32[8192,7168]\",\"labels\":\"i32[8192]\",\"w\":\"bf16[7168,128256]\",\"reduction\":\"sum\",\"return_residuals\":false}": {
    "{}": {
      "compile_time_ms": 9304.201463004574,
      "lower_time_ms": 10.230962070636451,
      "evaluation_times_ms": [
        147.483183,
        150.873479,
        155.251101,
        152.883587,
        152.729347
      ],
      "metadata": {},
      "peak_memory_mb": 14391.279648
    }
  },
  "{\"residuals\":[\"bf16[16384]\"],\"out\":\"f32[]\",\"dout\":\"f32[]\",\"x\":\"bf16[16384,7168]\",\"labels\":\"i32[16384]\",\"w\":\"bf16[7168,128256]\",\"reduction\":\"mean\",\"return_residuals\":false}": {
    "{}": {
      "compile_time_ms": 10433.823449886404,
      "lower_time_ms": 14.995845966041088,
      "evaluation_times_ms": [
        134.175723,
        135.598919,
        135.257608,
        140.534843,
        138.223522
      ],
      "metadata": {},
      "peak_memory_mb": 14626.226208
    }
  },
  "{\"residuals\":[\"f32[16384]\"],\"out\":\"f32[]\",\"dout\":\"f32[]\",\"x\":\"f32[16384,7168]\",\"labels\":\"i32[16384]\",\"w\":\"bf16[7168,128256]\",\"reduction\":\"mean\",\"return_residuals\":false}": {},
  "{\"residuals\":[\"bf16[16384]\"],\"out\":\"f32[]\",\"dout\":\"f32[]\",\"x\":\"bf16[16384,7168]\",\"labels\":\"i32[16384]\",\"w\":\"bf16[7168,128256]\",\"reduction\":\"sum\",\"return_residuals\":false}": {},
  "{\"residuals\":[\"f32[16384]\"],\"out\":\"f32[]\",\"dout\":\"f32[]\",\"x\":\"f32[16384,7168]\",\"labels\":\"i32[16384]\",\"w\":\"bf16[7168,128256]\",\"reduction\":\"sum\",\"return_residuals\":false}": {},
  "{\"residuals\":[\"bf16[32768]\"],\"out\":\"f32[]\",\"dout\":\"f32[]\",\"x\":\"bf16[32768,7168]\",\"labels\":\"i32[32768]\",\"w\":\"bf16[7168,128256]\",\"reduction\":\"mean\",\"return_residuals\":false}": {},
  "{\"residuals\":[\"bf16[1024]\"],\"out\":\"f32[]\",\"dout\":\"f32[]\",\"x\":\"bf16[1024,2880]\",\"labels\":\"i32[1024]\",\"w\":\"bf16[2880,201088]\",\"reduction\":\"mean\",\"return_residuals\":false}": {},
  "{\"residuals\":[\"bf16[4096]\"],\"out\":\"f32[]\",\"dout\":\"f32[]\",\"x\":\"bf16[4096,2880]\",\"labels\":\"i32[4096]\",\"w\":\"bf16[2880,201088]\",\"reduction\":\"mean\",\"return_residuals\":false}": {
    "{}": {
      "compile_time_ms": 3395.796634024009,
      "lower_time_ms": 18.45319103449583,
      "evaluation_times_ms": [
        20.440722,
        21.194448,
        22.108078,
        21.883311,
        22.141966
      ],
      "metadata": {},
      "peak_memory_mb": 4727.480352
    }
  },
  "{\"residuals\":[\"f32[4096]\"],\"out\":\"f32[]\",\"dout\":\"f32[]\",\"x\":\"f32[4096,2880]\",\"labels\":\"i32[4096]\",\"w\":\"bf16[2880,201088]\",\"reduction\":\"mean\",\"return_residuals\":false}": {
    "{}": {
      "compile_time_ms": 5498.401163029484,
      "lower_time_ms": 14.708811067976058,
      "evaluation_times_ms": [
        50.912228,
        52.453602,
        51.473667999999996,
        54.969820999999996,
        51.712067000000005
      ],
      "metadata": {},
      "peak_memory_mb": 10158.473252
    }
  },
  "{\"residuals\":[\"bf16[4096]\"],\"out\":\"f32[]\",\"dout\":\"f32[]\",\"x\":\"bf16[4096,2880]\",\"labels\":\"i32[4096]\",\"w\":\"bf16[2880,201088]\",\"reduction\":\"sum\",\"return_residuals\":false}": {
    "{}": {
      "compile_time_ms": 2546.9401930458844,
      "lower_time_ms": 9.975443943403661,
      "evaluation_times_ms": [
        20.368098,
        21.808417,
        22.074976,
        21.733665000000002,
        22.029185
      ],
      "metadata": {},
      "peak_memory_mb": 4727.480352
    }
  },
  "{\"residuals\":[\"f32[4096]\"],\"out\":\"f32[]\",\"dout\":\"f32[]\",\"x\":\"f32[4096,2880]\",\"labels\":\"i32[4096]\",\"w\":\"bf16[2880,201088]\",\"reduction\":\"sum\",\"return_residuals\":false}": {
    "{}": {
      "compile_time_ms": 4243.577506043948,
      "lower_time_ms": 9.80842497665435,
      "evaluation_times_ms": [
        52.459137000000005,
        51.956097,
        53.702367,
        51.538018,
        53.488608
      ],
      "metadata": {},
      "peak_memory_mb": 10158.473248
    }
  },
  "{\"residuals\":[\"bf16[8192]\"],\"out\":\"f32[]\",\"dout\":\"f32[]\",\"x\":\"bf16[8192,2880]\",\"labels\":\"i32[8192]\",\"w\":\"bf16[2880,201088]\",\"reduction\":\"mean\",\"return_residuals\":false}": {
    "{}": {
      "compile_time_ms": 6443.616571021266,
      "lower_time_ms": 14.63801902718842,
      "evaluation_times_ms": [
        42.999288,
        42.825997,
        42.342158,
        42.879726,
        43.954541
      ],
      "metadata": {},
      "peak_memory_mb": 10205.691936
    }
  },
  "{\"residuals\":[\"f32[8192]\"],\"out\":\"f32[]\",\"dout\":\"f32[]\",\"x\":\"f32[8192,2880]\",\"labels\":\"i32[8192]\",\"w\":\"bf16[2880,201088]\",\"reduction\":\"mean\",\"return_residuals\":false}": {
    "{}": {
      "compile_time_ms": 10256.185661070049,
      "lower_time_ms": 13.893880066461861,
      "evaluation_times_ms": [
        102.224003,
        102.399747,
        104.48986,
        103.310595,
        103.414756
      ],
      "metadata": {},
      "peak_memory_mb": 16842.145824
    }
  },
  "{\"residuals\":[\"bf16[8192]\"],\"out\":\"f32[]\",\"dout\":\"f32[]\",\"x\":\"bf16[8192,2880]\",\"labels\":\"i32[8192]\",\"w\":\"bf16[2880,201088]\",\"reduction\":\"sum\",\"return_residuals\":false}": {
    "{}": {
      "compile_time_ms": 4918.136463966221,
      "lower_time_ms": 10.628325981087983,
      "evaluation_times_ms": [
        39.97633,
        43.07249,
        43.138987,
        42.497642,
        43.160211000000004
      ],
      "metadata": {},
      "peak_memory_mb": 10205.691936
    }
  },
  "{\"residuals\":[\"f32[8192]\"],\"out\":\"f32[]\",\"dout\":\"f32[]\",\"x\":\"f32[8192,2880]\",\"labels\":\"i32[8192]\",\"w\":\"bf16[2880,201088]\",\"reduction\":\"sum\",\"return_residuals\":false}": {
    "{}": {
      "compile_time_ms": 7968.886155984364,
      "lower_time_ms": 10.225447011180222,
      "evaluation_times_ms": [
        107.340575,
        102.045596,
        106.23884,
        104.31035800000001,
        100.358899
      ],
      "metadata": {},
      "peak_memory_mb": 16842.145824
    }
  },
  "{\"residuals\":[\"bf16[16384]\"],\"out\":\"f32[]\",\"dout\":\"f32[]\",\"x\":\"bf16[16384,2880]\",\"labels\":\"i32[16384]\",\"w\":\"bf16[2880,201088]\",\"reduction\":\"mean\",\"return_residuals\":false}": {
    "{}": {
      "compile_time_ms": 13562.43849801831,
      "lower_time_ms": 14.820273965597153,
      "evaluation_times_ms": [
        85.602256,
        87.258355,
        85.534193,
        86.121682,
        87.051891
      ],
      "metadata": {},
      "peak_memory_mb": 16936.5832
    }
  },
  "{\"residuals\":[\"f32[16384]\"],\"out\":\"f32[]\",\"dout\":\"f32[]\",\"x\":\"f32[16384,2880]\",\"labels\":\"i32[16384]\",\"w\":\"bf16[2880,201088]\",\"reduction\":\"mean\",\"return_residuals\":false}": {
    "{}": {
      "compile_time_ms": 16235.039639985189,
      "lower_time_ms": 13.801714056171477,
      "evaluation_times_ms": [
        207.518112,
        204.238907,
        202.07359,
        201.327284,
        210.319163
      ],
      "metadata": {},
      "peak_memory_mb": 30209.490976
    }
  },
  "{\"residuals\":[\"bf16[16384]\"],\"out\":\"f32[]\",\"dout\":\"f32[]\",\"x\":\"bf16[16384,2880]\",\"labels\":\"i32[16384]\",\"w\":\"bf16[2880,201088]\",\"reduction\":\"sum\",\"return_residuals\":false}": {
    "{}": {
      "compile_time_ms": 9865.94737204723,
      "lower_time_ms": 10.699779028072953,
      "evaluation_times_ms": [
        84.888292,
        84.762788,
        84.757892,
        86.649288,
        90.77048
      ],
      "metadata": {},
      "peak_memory_mb": 16936.5832
    }
  },
  "{\"residuals\":[\"f32[16384]\"],\"out\":\"f32[]\",\"dout\":\"f32[]\",\"x\":\"f32[16384,2880]\",\"labels\":\"i32[16384]\",\"w\":\"bf16[2880,201088]\",\"reduction\":\"sum\",\"return_residuals\":false}": {
    "{}": {
      "compile_time_ms": 11535.567510989495,
      "lower_time_ms": 9.721670998260379,
      "evaluation_times_ms": [
        203.602408,
        203.753319,
        226.52187899999998,
        220.51761100000002,
        204.404297
      ],
      "metadata": {},
      "peak_memory_mb": 30209.490976
    }
  },
  "{\"residuals\":[\"bf16[32768]\"],\"out\":\"f32[]\",\"dout\":\"f32[]\",\"x\":\"bf16[32768,2880]\",\"labels\":\"i32[32768]\",\"w\":\"bf16[2880,201088]\",\"reduction\":\"mean\",\"return_residuals\":false}": {
    "{}": {
      "compile_time_ms": 14196.890137973242,
      "lower_time_ms": 15.613666968420148,
      "evaluation_times_ms": [
        174.613296,
        176.740725,
        188.177711,
        176.009875,
        178.98409
      ],
      "metadata": {},
      "peak_memory_mb": 30398.365728
    }
  },
  "{\"residuals\":[\"f32[32768]\"],\"out\":\"f32[]\",\"dout\":\"f32[]\",\"x\":\"f32[32768,2880]\",\"labels\":\"i32[32768]\",\"w\":\"bf16[2880,201088]\",\"reduction\":\"mean\",\"return_residuals\":false}": {},
  "{\"residuals\":[\"bf16[32768]\"],\"out\":\"f32[]\",\"dout\":\"f32[]\",\"x\":\"bf16[32768,2880]\",\"labels\":\"i32[32768]\",\"w\":\"bf16[2880,201088]\",\"reduction\":\"sum\",\"return_residuals\":false}": {
    "{}": {
      "compile_time_ms": 9117.102532065473,
      "lower_time_ms": 11.116444948129356,
      "evaluation_times_ms": [
        170.860265,
        175.531351,
        186.331129,
        174.944792,
        171.916215
      ],
      "metadata": {},
      "peak_memory_mb": 30398.365728
    }
  },
  "{\"residuals\":[\"f32[32768]\"],\"out\":\"f32[]\",\"dout\":\"f32[]\",\"x\":\"f32[32768,2880]\",\"labels\":\"i32[32768]\",\"w\":\"bf16[2880,201088]\",\"reduction\":\"sum\",\"return_residuals\":false}": {},
  "{\"residuals\":[\"bf16[1024]\"],\"out\":\"f32[]\",\"dout\":\"f32[]\",\"x\":\"bf16[1024,5120]\",\"labels\":\"i32[1024]\",\"w\":\"bf16[5120,151936]\",\"reduction\":\"mean\",\"return_residuals\":false}": {
    "{}": {
      "compile_time_ms": 1368.8564089825377,
      "lower_time_ms": 16.807009000331163,
      "evaluation_times_ms": [
        7.725126,
        7.732935,
        7.739623,
        7.840231,
        7.811207
      ],
      "metadata": {},
      "peak_memory_mb": 6288.320544
    }
  },
  "{\"residuals\":[\"f32[1024]\"],\"out\":\"f32[]\",\"dout\":\"f32[]\",\"x\":\"f32[1024,5120]\",\"labels\":\"i32[1024]\",\"w\":\"bf16[5120,151936]\",\"reduction\":\"mean\",\"return_residuals\":false}": {
    "{}": {
      "compile_time_ms": 2428.9136490551755,
      "lower_time_ms": 14.859420014545321,
      "evaluation_times_ms": [
        19.355437,
        19.524301,
        19.450286,
        19.427598,
        19.435982
      ],
      "metadata": {},
      "peak_memory_mb": 5365.313572
    }
  },
  "{\"residuals\":[\"bf16[1024]\"],\"out\":\"f32[]\",\"dout\":\"f32[]\",\"x\":\"bf16[1024,5120]\",\"labels\":\"i32[1024]\",\"w\":\"bf16[5120,151936]\",\"reduction\":\"sum\",\"return_residuals\":false}": {
    "{}": {
      "compile_time_ms": 1130.2591980202124,
      "lower_time_ms": 10.33931493293494,
      "evaluation_times_ms": [
        7.71322,
        7.717156,
        7.72666,
        7.7301150000000005,
        7.775107
      ],
      "metadata": {},
      "peak_memory_mb": 6288.320544
    }
  },
  "{\"residuals\":[\"f32[1024]\"],\"out\":\"f32[]\",\"dout\":\"f32[]\",\"x\":\"f32[1024,5120]\",\"labels\":\"i32[1024]\",\"w\":\"bf16[5120,151936]\",\"reduction\":\"sum\",\"return_residuals\":false}": {
    "{}": {
      "compile_time_ms": 167.34781803097576,
      "lower_time_ms": 16.150095965713263,
      "evaluation_times_ms": [
        19.499512,
        19.518265,
        19.523769,
        19.507225,
        19.574841
      ],
      "metadata": {},
      "peak_memory_mb": 5365.313568
    }
  },
  "{\"residuals\":[\"bf16[2048]\"],\"out\":\"f32[]\",\"dout\":\"f32[]\",\"x\":\"bf16[2048,5120]\",\"labels\":\"i32[2048]\",\"w\":\"bf16[5120,151936]\",\"reduction\":\"mean\",\"return_residuals\":false}": {
    "{}": {
      "compile_time_ms": 2488.7689100005446,
      "lower_time_ms": 19.315857999572472,
      "evaluation_times_ms": [
        13.742975,
        13.991389999999999,
        14.411034,
        14.464891,
        14.513146
      ],
      "metadata": {},
      "peak_memory_mb": 6319.788064
    }
  },
  "{\"residuals\":[\"f32[2048]\"],\"out\":\"f32[]\",\"dout\":\"f32[]\",\"x\":\"f32[2048,5120]\",\"labels\":\"i32[2048]\",\"w\":\"bf16[5120,151936]\",\"reduction\":\"mean\",\"return_residuals\":false}": {
    "{}": {
      "compile_time_ms": 4458.0643900008,
      "lower_time_ms": 16.10183299999335,
      "evaluation_times_ms": [
        33.911326,
        34.12758,
        34.140732,
        34.471227,
        34.492442
      ],
      "metadata": {},
      "peak_memory_mb": 6029.598756
    }
  },
  "{\"residuals\":[\"bf16[2048]\"],\"out\":\"f32[]\",\"dout\":\"f32[]\",\"x\":\"bf16[2048,5120]\",\"labels\":\"i32[2048]\",\"w\":\"bf16[5120,151936]\",\"reduction\":\"sum\",\"return_residuals\":false}": {
    "{}": {
      "compile_time_ms": 2016.9986379996772,
      "lower_time_ms": 10.76118699984363,
      "evaluation_times_ms": [
        14.227719,
        14.267365999999999,
        14.489957,
        14.767619,
        14.82253
      ],
      "metadata": {},
      "peak_memory_mb": 6319.788064
    }
  },
  "{\"residuals\":[\"f32[2048]\"],\"out\":\"f32[]\",\"dout\":\"f32[]\",\"x\":\"f32[2048,5120]\",\"labels\":\"i32[2048]\",\"w\":\"bf16[5120,151936]\",\"reduction\":\"sum\",\"return_residuals\":false}": {
    "{}": {
      "compile_time_ms": 3298.9519550001205,
      "lower_time_ms": 10.680041999876266,
      "evaluation_times_ms": [
        33.763151,
        34.451628,
        34.929224,
        34.502379,
        34.821672
      ],
      "metadata": {},
      "peak_memory_mb": 6029.598752
    }
  },
  "{\"residuals\":[\"bf16[4096]\"],\"out\":\"f32[]\",\"dout\":\"f32[]\",\"x\":\"bf16[4096,5120]\",\"labels\":\"i32[4096]\",\"w\":\"bf16[5120,151936]\",\"reduction\":\"mean\",\"return_residuals\":false}": {
    "{}": {
      "compile_time_ms": 4240.317132999735,
      "lower_time_ms": 15.823835000446707,
      "evaluation_times_ms": [
        27.127007,
        27.867994,
        27.477821000000002,
        27.650203,
        28.111192
      ],
      "metadata": {},
      "peak_memory_mb": 6382.723104
    }
  },
  "{\"residuals\":[\"f32[4096]\"],\"out\":\"f32[]\",\"dout\":\"f32[]\",\"x\":\"f32[4096,5120]\",\"labels\":\"i32[4096]\",\"w\":\"bf16[5120,151936]\",\"reduction\":\"mean\",\"return_residuals\":false}": {
    "{}": {
      "compile_time_ms": 7790.784970999994,
      "lower_time_ms": 14.479256000413443,
      "evaluation_times_ms": [
        65.332953,
        64.525245,
        66.991057,
        66.509235,
        64.002207
      ],
      "metadata": {},
      "peak_memory_mb": 7358.169128
    }
  },
  "{\"residuals\":[\"bf16[4096]\"],\"out\":\"f32[]\",\"dout\":\"f32[]\",\"x\":\"bf16[4096,5120]\",\"labels\":\"i32[4096]\",\"w\":\"bf16[5120,151936]\",\"reduction\":\"sum\",\"return_residuals\":false}": {
    "{}": {
      "compile_time_ms": 3906.455043999813,
      "lower_time_ms": 11.347958999976981,
      "evaluation_times_ms": [
        27.060693,
        28.691084,
        28.467406,
        28.637452999999997,
        28.597677
      ],
      "metadata": {},
      "peak_memory_mb": 6382.723104
    }
  },
  "{\"residuals\":[\"f32[4096]\"],\"out\":\"f32[]\",\"dout\":\"f32[]\",\"x\":\"f32[4096,5120]\",\"labels\":\"i32[4096]\",\"w\":\"bf16[5120,151936]\",\"reduction\":\"sum\",\"return_residuals\":false}": {
    "{}": {
      "compile_time_ms": 5739.53472499943,
      "lower_time_ms": 10.69370599998365,
      "evaluation_times_ms": [
        64.114328,
        63.616028,
        64.104823,
        63.802648000000005,
        65.991118
      ],
      "metadata": {},
      "peak_memory_mb": 7358.16912
    }
  },
  "{\"residuals\":[\"bf16[8192]\"],\"out\":\"f32[]\",\"dout\":\"f32[]\",\"x\":\"bf16[8192,5120]\",\"labels\":\"i32[8192]\",\"w\":\"bf16[5120,151936]\",\"reduction\":\"mean\",\"return_residuals\":false}": {
    "{}": {
      "compile_time_ms": 8481.354640000063,
      "lower_time_ms": 15.70839300075022,
      "evaluation_times_ms": [
        57.009531,
        58.078773999999996,
        55.046596,
        55.709089,
        56.401341
      ],
      "metadata": {},
      "peak_memory_mb": 6508.593184
    }
  },
  "{\"residuals\":[\"f32[8192]\"],\"out\":\"f32[]\",\"dout\":\"f32[]\",\"x\":\"f32[8192,5120]\",\"labels\":\"i32[8192]\",\"w\":\"bf16[5120,151936]\",\"reduction\":\"mean\",\"return_residuals\":false}": {
    "{}": {
      "compile_time_ms": 13858.249492999676,
      "lower_time_ms": 14.800726000430586,
      "evaluation_times_ms": [
        127.345171,
        124.097232,
        128.69024100000001,
        133.871216,
        125.910698
      ],
      "metadata": {},
      "peak_memory_mb": 14960.39428
    }
  },
  "{\"residuals\":[\"bf16[8192]\"],\"out\":\"f32[]\",\"dout\":\"f32[]\",\"x\":\"bf16[8192,5120]\",\"labels\":\"i32[8192]\",\"w\":\"bf16[5120,151936]\",\"reduction\":\"sum\",\"return_residuals\":false}": {
    "{}": {
      "compile_time_ms": 6438.026998999703,
      "lower_time_ms": 11.281076000159374,
      "evaluation_times_ms": [
        55.668158,
        56.386267,
        58.485971,
        57.732502,
        55.51043
      ],
      "metadata": {},
      "peak_memory_mb": 6508.593184
    }
  },
  "{\"residuals\":[\"f32[8192]\"],\"out\":\"f32[]\",\"dout\":\"f32[]\",\"x\":\"f32[8192,5120]\",\"labels\":\"i32[8192]\",\"w\":\"bf16[5120,151936]\",\"reduction\":\"sum\",\"return_residuals\":false}": {
    "{}": {
      "compile_time_ms": 10676.43448400031,
      "lower_time_ms": 10.735468999882869,
      "evaluation_times_ms": [
        126.48172799999999,
        129.334263,
        129.264631,
        131.170514,
        129.630589
      ],
      "metadata": {},
      "peak_memory_mb": 14960.394272
    }
  },
  "{\"residuals\":[\"bf16[16384]\"],\"out\":\"f32[]\",\"dout\":\"f32[]\",\"x\":\"bf16[16384,5120]\",\"labels\":\"i32[16384]\",\"w\":\"bf16[5120,151936]\",\"reduction\":\"mean\",\"return_residuals\":false}": {
    "{}": {
      "compile_time_ms": 16125.60902199948,
      "lower_time_ms": 15.913567000097828,
      "evaluation_times_ms": [
        111.402193,
        116.442756,
        111.428722,
        123.11265900000001,
        117.070466
      ],
      "metadata": {},
      "peak_memory_mb": 15128.231968
    }
  },
  "{\"residuals\":[\"f32[16384]\"],\"out\":\"f32[]\",\"dout\":\"f32[]\",\"x\":\"f32[16384,5120]\",\"labels\":\"i32[16384]\",\"w\":\"bf16[5120,151936]\",\"reduction\":\"mean\",\"return_residuals\":false}": {
    "{}": {
      "compile_time_ms": 22475.289335000525,
      "lower_time_ms": 14.664523000647023,
      "evaluation_times_ms": [
        248.91075999999998,
        267.67040399999996,
        251.818498,
        263.159629,
        250.385414
      ],
      "metadata": {},
      "peak_memory_mb": 25253.314592
    }
  },
  "{\"residuals\":[\"bf16[16384]\"],\"out\":\"f32[]\",\"dout\":\"f32[]\",\"x\":\"bf16[16384,5120]\",\"labels\":\"i32[16384]\",\"w\":\"bf16[5120,151936]\",\"reduction\":\"sum\",\"return_residuals\":false}": {
    "{}": {
      "compile_time_ms": 12760.545753999395,
      "lower_time_ms": 11.270783999862033,
      "evaluation_times_ms": [
        111.65833500000001,
        113.14434800000001,
        113.540987,
        122.004362,
        117.222259
      ],
      "metadata": {},
      "peak_memory_mb": 15128.231968
    }
  },
  "{\"residuals\":[\"f32[16384]\"],\"out\":\"f32[]\",\"dout\":\"f32[]\",\"x\":\"f32[16384,5120]\",\"labels\":\"i32[16384]\",\"w\":\"bf16[5120,151936]\",\"reduction\":\"sum\",\"return_residuals\":false}": {
    "{}": {
      "compile_time_ms": 15762.101608000194,
      "lower_time_ms": 10.872845999983838,
      "evaluation_times_ms": [
        252.65387,
        266.680437,
        250.494803,
        260.18035199999997,
        254.196204
      ],
      "metadata": {},
      "peak_memory_mb": 25253.314592
    }
  },
  "{\"residuals\":[\"bf16[32768]\"],\"out\":\"f32[]\",\"dout\":\"f32[]\",\"x\":\"bf16[32768,5120]\",\"labels\":\"i32[32768]\",\"w\":\"bf16[5120,151936]\",\"reduction\":\"mean\",\"return_residuals\":false}": {
    "{}": {
      "compile_time_ms": 18078.985176999595,
      "lower_time_ms": 15.852386999540613,
      "evaluation_times_ms": [
        229.787846,
        238.520795,
        228.02532,
        226.553098,
        226.623563
      ],
      "metadata": {},
      "peak_memory_mb": 25588.989984
    }
  },
  "{\"residuals\":[\"f32[32768]\"],\"out\":\"f32[]\",\"dout\":\"f32[]\",\"x\":\"f32[32768,5120]\",\"labels\":\"i32[32768]\",\"w\":\"bf16[5120,151936]\",\"reduction\":\"mean\",\"return_residuals\":false}": {},
  "{\"residuals\":[\"bf16[32768]\"],\"out\":\"f32[]\",\"dout\":\"f32[]\",\"x\":\"bf16[32768,5120]\",\"labels\":\"i32[32768]\",\"w\":\"bf16[5120,151936]\",\"reduction\":\"sum\",\"return_residuals\":false}": {
    "{}": {
      "compile_time_ms": 12060.305101000267,
      "lower_time_ms": 11.292296999272367,
      "evaluation_times_ms": [
        222.61808200000002,
        249.940033,
        226.72299,
        235.538757,
        231.26389700000001
      ],
      "metadata": {},
      "peak_memory_mb": 25588.989984
    }
  },
  "{\"residuals\":[\"f32[32768]\"],\"out\":\"f32[]\",\"dout\":\"f32[]\",\"x\":\"f32[32768,5120]\",\"labels\":\"i32[32768]\",\"w\":\"bf16[5120,151936]\",\"reduction\":\"sum\",\"return_residuals\":false}": {}
}
