{
  "{\"x\":\"bf16[1024,4096]\",\"labels\":\"i32[1024]\",\"w\":\"bf16[4096,151936]\",\"reduction\":\"mean\",\"return_residuals\":false}": {
    "{}": {
      "compile_time_ms": 642.7164510000694,
      "lower_time_ms": 24.26300300010098,
      "evaluation_times_ms": [
        1.871159,
        1.869334,
        1.8701329999999998,
        1.8710939999999998,
        1.872662
      ],
      "metadata": {},
      "peak_memory_mb": 1597.77178
    }
  },
  "{\"x\":\"bf16[1024,4096]\",\"labels\":\"i32[1024]\",\"w\":\"bf16[4096,151936]\",\"reduction\":\"mean\",\"return_residuals\":true}": {
    "{}": {
      "compile_time_ms": 267.1748329998991,
      "lower_time_ms": 10.52407999998195,
      "evaluation_times_ms": [
        1.977269,
        1.980568,
        1.9775260000000001,
        1.980342,
        1.978904
      ],
      "metadata": {},
      "peak_memory_mb": 1597.773844
    }
  },
  "{\"x\":\"f32[1024,4096]\",\"labels\":\"i32[1024]\",\"w\":\"bf16[4096,151936]\",\"reduction\":\"mean\",\"return_residuals\":false}": {
    "{}": {
      "compile_time_ms": 1109.6118510000679,
      "lower_time_ms": 18.061766999949214,
      "evaluation_times_ms": [
        4.864247,
        4.869946,
        4.87049,
        4.865816000000001,
        4.875132000000001
      ],
      "metadata": {},
      "peak_memory_mb": 4406.64474
    }
  },
  "{\"x\":\"f32[1024,4096]\",\"labels\":\"i32[1024]\",\"w\":\"bf16[4096,151936]\",\"reduction\":\"mean\",\"return_residuals\":true}": {
    "{}": {
      "compile_time_ms": 225.49849099993935,
      "lower_time_ms": 10.043721999977606,
      "evaluation_times_ms": [
        5.075356,
        5.072474000000001,
        5.072027,
        5.077052,
        5.082109
      ],
      "metadata": {},
      "peak_memory_mb": 4406.648852
    }
  },
  "{\"x\":\"bf16[1024,4096]\",\"labels\":\"i32[1024]\",\"w\":\"bf16[4096,151936]\",\"reduction\":\"sum\",\"return_residuals\":false}": {
    "{}": {
      "compile_time_ms": 74.34004800006733,
      "lower_time_ms": 11.835927999982232,
      "evaluation_times_ms": [
        1.865631,
        1.86755,
        1.870943,
        1.866621,
        1.8696300000000001
      ],
      "metadata": {},
      "peak_memory_mb": 1597.77178
    }
  },
  "{\"x\":\"bf16[1024,4096]\",\"labels\":\"i32[1024]\",\"w\":\"bf16[4096,151936]\",\"reduction\":\"sum\",\"return_residuals\":true}": {
    "{}": {
      "compile_time_ms": 77.11284599997725,
      "lower_time_ms": 10.002573999940978,
      "evaluation_times_ms": [
        1.977503,
        1.976991,
        1.977089,
        1.980323,
        1.9783680000000001
      ],
      "metadata": {},
      "peak_memory_mb": 1597.773844
    }
  },
  "{\"x\":\"f32[1024,4096]\",\"labels\":\"i32[1024]\",\"w\":\"bf16[4096,151936]\",\"reduction\":\"sum\",\"return_residuals\":false}": {
    "{}": {
      "compile_time_ms": 77.07073699998546,
      "lower_time_ms": 11.91956700006358,
      "evaluation_times_ms": [
        4.8653260000000005,
        4.8631839999999995,
        4.869744,
        4.867343,
        4.874705
      ],
      "metadata": {},
      "peak_memory_mb": 4406.64474
    }
  },
  "{\"x\":\"f32[1024,4096]\",\"labels\":\"i32[1024]\",\"w\":\"bf16[4096,151936]\",\"reduction\":\"sum\",\"return_residuals\":true}": {
    "{}": {
      "compile_time_ms": 83.46685300000445,
      "lower_time_ms": 9.671417000049587,
      "evaluation_times_ms": [
        5.066447,
        5.065583,
        5.071472,
        5.078322,
        5.076467
      ],
      "metadata": {},
      "peak_memory_mb": 4406.648852
    }
  },
  "{\"x\":\"bf16[2048,4096]\",\"labels\":\"i32[2048]\",\"w\":\"bf16[4096,151936]\",\"reduction\":\"mean\",\"return_residuals\":false}": {
    "{}": {
      "compile_time_ms": 697.3482669999385,
      "lower_time_ms": 19.19922599995516,
      "evaluation_times_ms": [
        3.70823,
        3.713128,
        3.7017659999999997,
        3.706598,
        3.70567
      ],
      "metadata": {},
      "peak_memory_mb": 1917.329412
    }
  },
  "{\"x\":\"bf16[2048,4096]\",\"labels\":\"i32[2048]\",\"w\":\"bf16[4096,151936]\",\"reduction\":\"mean\",\"return_residuals\":true}": {
    "{}": {
      "compile_time_ms": 256.9046219999791,
      "lower_time_ms": 10.665050000056908,
      "evaluation_times_ms": [
        3.9055750000000002,
        3.91316,
        3.913063,
        3.910696,
        3.9076229999999996
      ],
      "metadata": {},
      "peak_memory_mb": 1917.333524
    }
  },
  "{\"x\":\"f32[2048,4096]\",\"labels\":\"i32[2048]\",\"w\":\"bf16[4096,151936]\",\"reduction\":\"mean\",\"return_residuals\":false}": {
    "{}": {
      "compile_time_ms": 1389.1650310000614,
      "lower_time_ms": 18.090956000037295,
      "evaluation_times_ms": [
        8.516455,
        8.536204,
        8.539149,
        8.631879,
        8.677109
      ],
      "metadata": {},
      "peak_memory_mb": 5045.755908
    }
  },
  "{\"x\":\"f32[2048,4096]\",\"labels\":\"i32[2048]\",\"w\":\"bf16[4096,151936]\",\"reduction\":\"mean\",\"return_residuals\":true}": {
    "{}": {
      "compile_time_ms": 279.36627599990516,
      "lower_time_ms": 10.051728000007643,
      "evaluation_times_ms": [
        8.9138,
        8.936205,
        8.921545,
        8.931949,
        8.94661
      ],
      "metadata": {},
      "peak_memory_mb": 5045.764116
    }
  },
  "{\"x\":\"bf16[2048,4096]\",\"labels\":\"i32[2048]\",\"w\":\"bf16[4096,151936]\",\"reduction\":\"sum\",\"return_residuals\":false}": {
    "{}": {
      "compile_time_ms": 70.28694600001018,
      "lower_time_ms": 11.779883000031077,
      "evaluation_times_ms": [
        3.687986,
        3.6940039999999996,
        3.700663,
        3.6972039999999997,
        3.717563
      ],
      "metadata": {},
      "peak_memory_mb": 1917.329412
    }
  },
  "{\"x\":\"bf16[2048,4096]\",\"labels\":\"i32[2048]\",\"w\":\"bf16[4096,151936]\",\"reduction\":\"sum\",\"return_residuals\":true}": {
    "{}": {
      "compile_time_ms": 81.60280899994632,
      "lower_time_ms": 10.446378999972694,
      "evaluation_times_ms": [
        3.90047,
        3.9065190000000003,
        3.909592,
        3.909816,
        3.912186
      ],
      "metadata": {},
      "peak_memory_mb": 1917.333524
    }
  },
  "{\"x\":\"f32[2048,4096]\",\"labels\":\"i32[2048]\",\"w\":\"bf16[4096,151936]\",\"reduction\":\"sum\",\"return_residuals\":false}": {
    "{}": {
      "compile_time_ms": 75.6852170000002,
      "lower_time_ms": 11.539803999994547,
      "evaluation_times_ms": [
        8.526864,
        8.534164,
        8.517517,
        8.507276,
        8.515599
      ],
      "metadata": {},
      "peak_memory_mb": 5045.755908
    }
  },
  "{\"x\":\"f32[2048,4096]\",\"labels\":\"i32[2048]\",\"w\":\"bf16[4096,151936]\",\"reduction\":\"sum\",\"return_residuals\":true}": {
    "{}": {
      "compile_time_ms": 81.67724699990231,
      "lower_time_ms": 10.063085999945542,
      "evaluation_times_ms": [
        8.913038,
        8.915664,
        8.920081,
        8.940726,
        8.904782
      ],
      "metadata": {},
      "peak_memory_mb": 5045.764116
    }
  },
  "{\"x\":\"bf16[4096,4096]\",\"labels\":\"i32[4096]\",\"w\":\"bf16[4096,151936]\",\"reduction\":\"mean\",\"return_residuals\":false}": {
    "{}": {
      "compile_time_ms": 872.4037109998335,
      "lower_time_ms": 19.144450000112556,
      "evaluation_times_ms": [
        7.396464,
        7.391855,
        7.4490870000000005,
        7.454338,
        7.64739
      ],
      "metadata": {},
      "peak_memory_mb": 2556.444676
    }
  },
  "{\"x\":\"bf16[4096,4096]\",\"labels\":\"i32[4096]\",\"w\":\"bf16[4096,151936]\",\"reduction\":\"mean\",\"return_residuals\":true}": {
    "{}": {
      "compile_time_ms": 349.8853279998002,
      "lower_time_ms": 10.324462999960815,
      "evaluation_times_ms": [
        7.7970440000000005,
        7.8108070000000005,
        7.811162,
        8.278664,
        8.370564
      ],
      "metadata": {},
      "peak_memory_mb": 2556.452884
    }
  },
  "{\"x\":\"f32[4096,4096]\",\"labels\":\"i32[4096]\",\"w\":\"bf16[4096,151936]\",\"reduction\":\"mean\",\"return_residuals\":false}": {
    "{}": {
      "compile_time_ms": 1963.7087650000922,
      "lower_time_ms": 17.93318399995769,
      "evaluation_times_ms": [
        16.006619,
        16.381548000000002,
        16.530106,
        16.207128,
        16.307767
      ],
      "metadata": {},
      "peak_memory_mb": 6323.978244
    }
  },
  "{\"x\":\"f32[4096,4096]\",\"labels\":\"i32[4096]\",\"w\":\"bf16[4096,151936]\",\"reduction\":\"mean\",\"return_residuals\":true}": {
    "{}": {
      "compile_time_ms": 297.3684480000429,
      "lower_time_ms": 10.14449100011916,
      "evaluation_times_ms": [
        16.732176,
        16.741745,
        17.4363,
        17.671571,
        17.433738
      ],
      "metadata": {},
      "peak_memory_mb": 6323.994644
    }
  },
  "{\"x\":\"bf16[4096,4096]\",\"labels\":\"i32[4096]\",\"w\":\"bf16[4096,151936]\",\"reduction\":\"sum\",\"return_residuals\":false}": {
    "{}": {
      "compile_time_ms": 72.96060099997703,
      "lower_time_ms": 11.72449399996367,
      "evaluation_times_ms": [
        7.372045,
        7.389492000000001,
        7.518395,
        7.568137,
        7.625916
      ],
      "metadata": {},
      "peak_memory_mb": 2556.444676
    }
  },
  "{\"x\":\"bf16[4096,4096]\",\"labels\":\"i32[4096]\",\"w\":\"bf16[4096,151936]\",\"reduction\":\"sum\",\"return_residuals\":true}": {
    "{}": {
      "compile_time_ms": 76.37414400005582,
      "lower_time_ms": 11.1479810000219,
      "evaluation_times_ms": [
        7.797146,
        7.816672,
        7.826722,
        8.200758,
        8.203096
      ],
      "metadata": {},
      "peak_memory_mb": 2556.452884
    }
  },
  "{\"x\":\"f32[4096,4096]\",\"labels\":\"i32[4096]\",\"w\":\"bf16[4096,151936]\",\"reduction\":\"sum\",\"return_residuals\":false}": {
    "{}": {
      "compile_time_ms": 74.9460879999333,
      "lower_time_ms": 11.379830000123548,
      "evaluation_times_ms": [
        15.899623,
        15.956190999999999,
        16.03865,
        16.210511,
        16.104111
      ],
      "metadata": {},
      "peak_memory_mb": 6323.978244
    }
  },
  "{\"x\":\"f32[4096,4096]\",\"labels\":\"i32[4096]\",\"w\":\"bf16[4096,151936]\",\"reduction\":\"sum\",\"return_residuals\":true}": {
    "{}": {
      "compile_time_ms": 77.42518999998538,
      "lower_time_ms": 10.000605999948675,
      "evaluation_times_ms": [
        16.725317999999998,
        16.728742999999998,
        17.297082,
        16.880212,
        16.991706
      ],
      "metadata": {},
      "peak_memory_mb": 6323.994644
    }
  },
  "{\"x\":\"bf16[16384,4096]\",\"labels\":\"i32[16384]\",\"w\":\"bf16[4096,151936]\",\"reduction\":\"mean\",\"return_residuals\":false}": {
    "{}": {
      "compile_time_ms": 2842.98015100012,
      "lower_time_ms": 18.741750000117463,
      "evaluation_times_ms": [
        31.813036,
        33.870388,
        34.216866,
        33.332685,
        33.776216
      ],
      "metadata": {},
      "peak_memory_mb": 6391.13626
    }
  },
  "{\"x\":\"bf16[16384,4096]\",\"labels\":\"i32[16384]\",\"w\":\"bf16[4096,151936]\",\"reduction\":\"mean\",\"return_residuals\":true}": {
    "{}": {
      "compile_time_ms": 363.80740999993577,
      "lower_time_ms": 10.606127000073684,
      "evaluation_times_ms": [
        31.903276,
        35.394496,
        34.488867,
        36.098784,
        35.465112
      ],
      "metadata": {},
      "peak_memory_mb": 6391.169044
    }
  },
  "{\"x\":\"f32[16384,4096]\",\"labels\":\"i32[16384]\",\"w\":\"bf16[4096,151936]\",\"reduction\":\"mean\",\"return_residuals\":false}": {
    "{}": {
      "compile_time_ms": 6028.333089999933,
      "lower_time_ms": 18.31377500002418,
      "evaluation_times_ms": [
        66.35388999999999,
        65.409171,
        64.807091,
        66.288461,
        65.544511
      ],
      "metadata": {},
      "peak_memory_mb": 13993.31226
    }
  },
  "{\"x\":\"f32[16384,4096]\",\"labels\":\"i32[16384]\",\"w\":\"bf16[4096,151936]\",\"reduction\":\"mean\",\"return_residuals\":true}": {
    "{}": {
      "compile_time_ms": 216.94205100016006,
      "lower_time_ms": 10.123937999878763,
      "evaluation_times_ms": [
        68.068552,
        68.618133,
        68.00724600000001,
        66.534806,
        68.98199
      ],
      "metadata": {},
      "peak_memory_mb": 13993.377812
    }
  },
  "{\"x\":\"bf16[16384,4096]\",\"labels\":\"i32[16384]\",\"w\":\"bf16[4096,151936]\",\"reduction\":\"sum\",\"return_residuals\":false}": {
    "{}": {
      "compile_time_ms": 70.02798799999255,
      "lower_time_ms": 11.382527000023401,
      "evaluation_times_ms": [
        29.980363,
        33.847531000000004,
        33.905052999999995,
        33.478291,
        33.90739
      ],
      "metadata": {},
      "peak_memory_mb": 6391.13626
    }
  },
  "{\"x\":\"bf16[16384,4096]\",\"labels\":\"i32[16384]\",\"w\":\"bf16[4096,151936]\",\"reduction\":\"sum\",\"return_residuals\":true}": {
    "{}": {
      "compile_time_ms": 76.10915999998724,
      "lower_time_ms": 13.681594999980007,
      "evaluation_times_ms": [
        32.862897000000004,
        34.14328,
        35.602987,
        34.613799,
        35.917486
      ],
      "metadata": {},
      "peak_memory_mb": 6391.169044
    }
  },
  "{\"x\":\"f32[16384,4096]\",\"labels\":\"i32[16384]\",\"w\":\"bf16[4096,151936]\",\"reduction\":\"sum\",\"return_residuals\":false}": {
    "{}": {
      "compile_time_ms": 72.90572800002337,
      "lower_time_ms": 11.281873000143605,
      "evaluation_times_ms": [
        62.16503,
        65.946677,
        65.31459600000001,
        64.003612,
        67.024754
      ],
      "metadata": {},
      "peak_memory_mb": 13993.31226
    }
  },
  "{\"x\":\"f32[16384,4096]\",\"labels\":\"i32[16384]\",\"w\":\"bf16[4096,151936]\",\"reduction\":\"sum\",\"return_residuals\":true}": {
    "{}": {
      "compile_time_ms": 80.29631800013703,
      "lower_time_ms": 9.83031700002357,
      "evaluation_times_ms": [
        66.88923700000001,
        66.03011099999999,
        67.293785,
        68.41767300000001,
        69.651065
      ],
      "metadata": {},
      "peak_memory_mb": 13993.377812
    }
  },
  "{\"x\":\"bf16[32768,4096]\",\"labels\":\"i32[32768]\",\"w\":\"bf16[4096,151936]\",\"reduction\":\"mean\",\"return_residuals\":false}": {
    "{}": {
      "compile_time_ms": 180572.95036400002,
      "lower_time_ms": 19.088322000015978,
      "evaluation_times_ms": [
        66.75473,
        66.897615,
        66.64240099999999,
        67.052153,
        68.361382
      ],
      "metadata": {},
      "peak_memory_mb": 11518.738436
    }
  },
  "{\"x\":\"bf16[32768,4096]\",\"labels\":\"i32[32768]\",\"w\":\"bf16[4096,151936]\",\"reduction\":\"mean\",\"return_residuals\":true}": {
    "{}": {
      "compile_time_ms": 381.5438550000181,
      "lower_time_ms": 10.677234000013414,
      "evaluation_times_ms": [
        69.997323,
        70.506565,
        68.80279800000001,
        70.109424,
        70.09448
      ],
      "metadata": {},
      "peak_memory_mb": 11518.738452
    }
  },
  "{\"x\":\"f32[32768,4096]\",\"labels\":\"i32[32768]\",\"w\":\"bf16[4096,151936]\",\"reduction\":\"mean\",\"return_residuals\":false}": {},
  "{\"x\":\"f32[32768,4096]\",\"labels\":\"i32[32768]\",\"w\":\"bf16[4096,151936]\",\"reduction\":\"mean\",\"return_residuals\":true}": {},
  "{\"x\":\"bf16[32768,4096]\",\"labels\":\"i32[32768]\",\"w\":\"bf16[4096,151936]\",\"reduction\":\"sum\",\"return_residuals\":false}": {
    "{}": {
      "compile_time_ms": 73.25564699999632,
      "lower_time_ms": 12.048430000049848,
      "evaluation_times_ms": [
        65.650552,
        67.061086,
        67.29151399999999,
        67.768259,
        67.557286
      ],
      "metadata": {},
      "peak_memory_mb": 11518.738436
    }
  },
  "{\"x\":\"bf16[32768,4096]\",\"labels\":\"i32[32768]\",\"w\":\"bf16[4096,151936]\",\"reduction\":\"sum\",\"return_residuals\":true}": {
    "{}": {
      "compile_time_ms": 72.58476199990582,
      "lower_time_ms": 10.325131999934456,
      "evaluation_times_ms": [
        70.923701,
        70.92913999999999,
        69.704425,
        69.777351,
        70.37353399999999
      ],
      "metadata": {},
      "peak_memory_mb": 11518.738452
    }
  },
  "{\"x\":\"f32[32768,4096]\",\"labels\":\"i32[32768]\",\"w\":\"bf16[4096,151936]\",\"reduction\":\"sum\",\"return_residuals\":false}": {},
  "{\"x\":\"f32[32768,4096]\",\"labels\":\"i32[32768]\",\"w\":\"bf16[4096,151936]\",\"reduction\":\"sum\",\"return_residuals\":true}": {
    "{}": {
      "compile_time_ms": 473.10012100001586,
      "lower_time_ms": 21.826524999937646,
      "evaluation_times_ms": [
        136.46414,
        134.47628,
        135.676945,
        143.389988,
        139.95004
      ],
      "metadata": {},
      "peak_memory_mb": 24219.222036
    }
  },
  "{\"x\":\"bf16[131072,4096]\",\"labels\":\"i32[131072]\",\"w\":\"bf16[4096,151936]\",\"reduction\":\"mean\",\"return_residuals\":false}": {
    "{}": {
      "compile_time_ms": 181066.1917519999,
      "lower_time_ms": 22.453389000020252,
      "evaluation_times_ms": [
        271.918223,
        292.390182,
        273.13721,
        279.71163,
        274.652656
      ],
      "metadata": {},
      "peak_memory_mb": 42340.974596
    }
  },
  "{\"x\":\"bf16[131072,4096]\",\"labels\":\"i32[131072]\",\"w\":\"bf16[4096,151936]\",\"reduction\":\"mean\",\"return_residuals\":true}": {
    "{}": {
      "compile_time_ms": 288.26228999992054,
      "lower_time_ms": 10.396565000064584,
      "evaluation_times_ms": [
        285.502856,
        303.386681,
        286.58312,
        291.105995,
        293.957043
      ],
      "metadata": {},
      "peak_memory_mb": 42340.974612
    }
  },
  "{\"x\":\"f32[131072,4096]\",\"labels\":\"i32[131072]\",\"w\":\"bf16[4096,151936]\",\"reduction\":\"mean\",\"return_residuals\":false}": {},
  "{\"x\":\"f32[131072,4096]\",\"labels\":\"i32[131072]\",\"w\":\"bf16[4096,151936]\",\"reduction\":\"mean\",\"return_residuals\":true}": {},
  "{\"x\":\"bf16[131072,4096]\",\"labels\":\"i32[131072]\",\"w\":\"bf16[4096,151936]\",\"reduction\":\"sum\",\"return_residuals\":false}": {
    "{}": {
      "compile_time_ms": 72.78464399996665,
      "lower_time_ms": 12.123988999974245,
      "evaluation_times_ms": [
        271.089214,
        288.751545,
        273.216288,
        280.91049100000004,
        276.360338
      ],
      "metadata": {},
      "peak_memory_mb": 42340.974596
    }
  },
  "{\"x\":\"bf16[131072,4096]\",\"labels\":\"i32[131072]\",\"w\":\"bf16[4096,151936]\",\"reduction\":\"sum\",\"return_residuals\":true}": {
    "{}": {
      "compile_time_ms": 74.8169329999655,
      "lower_time_ms": 10.234300000320218,
      "evaluation_times_ms": [
        285.928003,
        305.803106,
        284.799956,
        290.950221,
        290.268931
      ],
      "metadata": {},
      "peak_memory_mb": 42340.974612
    }
  },
  "{\"x\":\"f32[131072,4096]\",\"labels\":\"i32[131072]\",\"w\":\"bf16[4096,151936]\",\"reduction\":\"sum\",\"return_residuals\":false}": {},
  "{\"x\":\"f32[131072,4096]\",\"labels\":\"i32[131072]\",\"w\":\"bf16[4096,151936]\",\"reduction\":\"sum\",\"return_residuals\":true}": {},
  "{\"x\":\"bf16[1024,2560]\",\"labels\":\"i32[1024]\",\"w\":\"bf16[2560,262144]\",\"reduction\":\"mean\",\"return_residuals\":false}": {
    "{}": {
      "compile_time_ms": 550.2889519998462,
      "lower_time_ms": 19.03085200001442,
      "evaluation_times_ms": [
        2.26023,
        2.26023,
        2.259525,
        2.26311,
        2.26007
      ],
      "metadata": {},
      "peak_memory_mb": 1917.849604
    }
  },
  "{\"x\":\"bf16[1024,2560]\",\"labels\":\"i32[1024]\",\"w\":\"bf16[2560,262144]\",\"reduction\":\"mean\",\"return_residuals\":true}": {
    "{}": {
      "compile_time_ms": 275.7201330000498,
      "lower_time_ms": 10.418058000141173,
      "evaluation_times_ms": [
        2.445561,
        2.4413050000000003,
        2.443737,
        2.44188,
        2.44092
      ],
      "metadata": {},
      "peak_memory_mb": 1917.851668
    }
  },
  "{\"x\":\"f32[1024,2560]\",\"labels\":\"i32[1024]\",\"w\":\"bf16[2560,262144]\",\"reduction\":\"mean\",\"return_residuals\":false}": {
    "{}": {
      "compile_time_ms": 1007.3559809998187,
      "lower_time_ms": 18.012729000020045,
      "evaluation_times_ms": [
        6.161988,
        6.181953999999999,
        6.131492,
        6.1454450000000005,
        6.180419
      ],
      "metadata": {},
      "peak_memory_mb": 5144.317956
    }
  },
  "{\"x\":\"f32[1024,2560]\",\"labels\":\"i32[1024]\",\"w\":\"bf16[2560,262144]\",\"reduction\":\"mean\",\"return_residuals\":true}": {
    "{}": {
      "compile_time_ms": 232.17491200011864,
      "lower_time_ms": 10.227340000255936,
      "evaluation_times_ms": [
        6.48503,
        6.4729659999999996,
        6.4945330000000006,
        6.496901,
        6.5159069999999994
      ],
      "metadata": {},
      "peak_memory_mb": 5144.322068
    }
  },
  "{\"x\":\"bf16[1024,2560]\",\"labels\":\"i32[1024]\",\"w\":\"bf16[2560,262144]\",\"reduction\":\"sum\",\"return_residuals\":false}": {
    "{}": {
      "compile_time_ms": 65.515255000264,
      "lower_time_ms": 11.486803000025247,
      "evaluation_times_ms": [
        2.257819,
        2.262649,
        2.26121,
        2.254746,
        2.256569
      ],
      "metadata": {},
      "peak_memory_mb": 1917.849604
    }
  },
  "{\"x\":\"bf16[1024,2560]\",\"labels\":\"i32[1024]\",\"w\":\"bf16[2560,262144]\",\"reduction\":\"sum\",\"return_residuals\":true}": {
    "{}": {
      "compile_time_ms": 65.17890599980092,
      "lower_time_ms": 10.288423000019975,
      "evaluation_times_ms": [
        2.434476,
        2.432268,
        2.437419,
        2.441996,
        2.438956
      ],
      "metadata": {},
      "peak_memory_mb": 1917.851668
    }
  },
  "{\"x\":\"f32[1024,2560]\",\"labels\":\"i32[1024]\",\"w\":\"bf16[2560,262144]\",\"reduction\":\"sum\",\"return_residuals\":false}": {
    "{}": {
      "compile_time_ms": 66.54317400034415,
      "lower_time_ms": 12.30786199994327,
      "evaluation_times_ms": [
        6.101926,
        6.139235,
        6.136036,
        6.17485,
        6.184353
      ],
      "metadata": {},
      "peak_memory_mb": 5144.317956
    }
  },
  "{\"x\":\"f32[1024,2560]\",\"labels\":\"i32[1024]\",\"w\":\"bf16[2560,262144]\",\"reduction\":\"sum\",\"return_residuals\":true}": {
    "{}": {
      "compile_time_ms": 72.62957800003278,
      "lower_time_ms": 9.98728000013216,
      "evaluation_times_ms": [
        6.460775,
        6.4772870000000005,
        6.481158,
        6.504453,
        6.486054
      ],
      "metadata": {},
      "peak_memory_mb": 5144.322068
    }
  },
  "{\"x\":\"bf16[2048,2560]\",\"labels\":\"i32[2048]\",\"w\":\"bf16[2560,262144]\",\"reduction\":\"mean\",\"return_residuals\":false}": {
    "{}": {
      "compile_time_ms": 656.3922950003871,
      "lower_time_ms": 18.91876800027603,
      "evaluation_times_ms": [
        4.4375029999999995,
        4.434591,
        4.437536,
        4.435199,
        4.437056
      ],
      "metadata": {},
      "peak_memory_mb": 2459.967492
    }
  },
  "{\"x\":\"bf16[2048,2560]\",\"labels\":\"i32[2048]\",\"w\":\"bf16[2560,262144]\",\"reduction\":\"mean\",\"return_residuals\":true}": {
    "{}": {
      "compile_time_ms": 243.37979200026894,
      "lower_time_ms": 10.729343999628327,
      "evaluation_times_ms": [
        4.777699,
        4.778882,
        4.787363,
        4.783683,
        4.784228
      ],
      "metadata": {},
      "peak_memory_mb": 2459.971604
    }
  },
  "{\"x\":\"f32[2048,2560]\",\"labels\":\"i32[2048]\",\"w\":\"bf16[2560,262144]\",\"reduction\":\"mean\",\"return_residuals\":false}": {
    "{}": {
      "compile_time_ms": 1314.589049999995,
      "lower_time_ms": 18.606573999932152,
      "evaluation_times_ms": [
        10.991866,
        10.972251,
        11.044501,
        11.259624,
        11.177806
      ],
      "metadata": {},
      "peak_memory_mb": 6228.549636
    }
  },
  "{\"x\":\"f32[2048,2560]\",\"labels\":\"i32[2048]\",\"w\":\"bf16[2560,262144]\",\"reduction\":\"mean\",\"return_residuals\":true}": {
    "{}": {
      "compile_time_ms": 260.5699270002333,
      "lower_time_ms": 10.294187999988935,
      "evaluation_times_ms": [
        11.581438,
        11.757778,
        11.664758,
        11.605916,
        11.702613
      ],
      "metadata": {},
      "peak_memory_mb": 6228.557844
    }
  },
  "{\"x\":\"bf16[2048,2560]\",\"labels\":\"i32[2048]\",\"w\":\"bf16[2560,262144]\",\"reduction\":\"sum\",\"return_residuals\":false}": {
    "{}": {
      "compile_time_ms": 66.08391200006736,
      "lower_time_ms": 11.614197999733733,
      "evaluation_times_ms": [
        4.4284870000000005,
        4.432519,
        4.428552,
        4.433031,
        4.432711
      ],
      "metadata": {},
      "peak_memory_mb": 2459.967492
    }
  },
  "{\"x\":\"bf16[2048,2560]\",\"labels\":\"i32[2048]\",\"w\":\"bf16[2560,262144]\",\"reduction\":\"sum\",\"return_residuals\":true}": {
    "{}": {
      "compile_time_ms": 87.79395100009424,
      "lower_time_ms": 10.474033000264171,
      "evaluation_times_ms": [
        4.776617,
        4.781033,
        4.781801,
        4.786825,
        4.780841
      ],
      "metadata": {},
      "peak_memory_mb": 2459.971604
    }
  },
  "{\"x\":\"f32[2048,2560]\",\"labels\":\"i32[2048]\",\"w\":\"bf16[2560,262144]\",\"reduction\":\"sum\",\"return_residuals\":false}": {
    "{}": {
      "compile_time_ms": 64.55893199972706,
      "lower_time_ms": 11.203091999959724,
      "evaluation_times_ms": [
        11.02838,
        11.02486,
        11.0135,
        10.997502,
        11.017532
      ],
      "metadata": {},
      "peak_memory_mb": 6228.549636
    }
  },
  "{\"x\":\"f32[2048,2560]\",\"labels\":\"i32[2048]\",\"w\":\"bf16[2560,262144]\",\"reduction\":\"sum\",\"return_residuals\":true}": {
    "{}": {
      "compile_time_ms": 72.19057200018142,
      "lower_time_ms": 10.096885000166367,
      "evaluation_times_ms": [
        11.671645999999999,
        11.666077999999999,
        11.617059,
        11.774486,
        11.650304
      ],
      "metadata": {},
      "peak_memory_mb": 6228.557844
    }
  },
  "{\"x\":\"bf16[4096,2560]\",\"labels\":\"i32[4096]\",\"w\":\"bf16[2560,262144]\",\"reduction\":\"mean\",\"return_residuals\":false}": {
    "{}": {
      "compile_time_ms": 904.5436050000717,
      "lower_time_ms": 19.21040700017329,
      "evaluation_times_ms": [
        8.862622,
        8.868542999999999,
        8.906587,
        9.190053,
        9.186853
      ],
      "metadata": {},
      "peak_memory_mb": 3544.203268
    }
  },
  "{\"x\":\"bf16[4096,2560]\",\"labels\":\"i32[4096]\",\"w\":\"bf16[2560,262144]\",\"reduction\":\"mean\",\"return_residuals\":true}": {
    "{}": {
      "compile_time_ms": 311.27976199968543,
      "lower_time_ms": 10.579711999980645,
      "evaluation_times_ms": [
        9.545215,
        9.563678,
        9.577916,
        9.635223,
        9.821161
      ],
      "metadata": {},
      "peak_memory_mb": 3544.211476
    }
  },
  "{\"x\":\"f32[4096,2560]\",\"labels\":\"i32[4096]\",\"w\":\"bf16[2560,262144]\",\"reduction\":\"mean\",\"return_residuals\":false}": {
    "{}": {
      "compile_time_ms": 1982.3969310000393,
      "lower_time_ms": 21.249761000035505,
      "evaluation_times_ms": [
        20.925332,
        21.785684,
        22.234547,
        21.589058,
        22.285231
      ],
      "metadata": {},
      "peak_memory_mb": 8397.012996
    }
  },
  "{\"x\":\"f32[4096,2560]\",\"labels\":\"i32[4096]\",\"w\":\"bf16[2560,262144]\",\"reduction\":\"mean\",\"return_residuals\":true}": {
    "{}": {
      "compile_time_ms": 251.07748399977936,
      "lower_time_ms": 10.404728000139585,
      "evaluation_times_ms": [
        22.280667,
        22.299577,
        23.297145,
        22.467758,
        23.559527
      ],
      "metadata": {},
      "peak_memory_mb": 8397.029396
    }
  },
  "{\"x\":\"bf16[4096,2560]\",\"labels\":\"i32[4096]\",\"w\":\"bf16[2560,262144]\",\"reduction\":\"sum\",\"return_residuals\":false}": {
    "{}": {
      "compile_time_ms": 63.498144000277534,
      "lower_time_ms": 12.161421999735467,
      "evaluation_times_ms": [
        8.857522,
        8.884688,
        8.888528,
        8.934923,
        9.054629
      ],
      "metadata": {},
      "peak_memory_mb": 3544.203268
    }
  },
  "{\"x\":\"bf16[4096,2560]\",\"labels\":\"i32[4096]\",\"w\":\"bf16[2560,262144]\",\"reduction\":\"sum\",\"return_residuals\":true}": {
    "{}": {
      "compile_time_ms": 76.07656499976656,
      "lower_time_ms": 10.321607000150834,
      "evaluation_times_ms": [
        9.565403,
        9.559291,
        9.564636,
        9.589755,
        9.751089
      ],
      "metadata": {},
      "peak_memory_mb": 3544.211476
    }
  },
  "{\"x\":\"f32[4096,2560]\",\"labels\":\"i32[4096]\",\"w\":\"bf16[2560,262144]\",\"reduction\":\"sum\",\"return_residuals\":false}": {
    "{}": {
      "compile_time_ms": 63.70208700036528,
      "lower_time_ms": 11.428693999732786,
      "evaluation_times_ms": [
        20.893894,
        21.834556,
        21.877335,
        21.403568,
        22.508092
      ],
      "metadata": {},
      "peak_memory_mb": 8397.012996
    }
  },
  "{\"x\":\"f32[4096,2560]\",\"labels\":\"i32[4096]\",\"w\":\"bf16[2560,262144]\",\"reduction\":\"sum\",\"return_residuals\":true}": {
    "{}": {
      "compile_time_ms": 66.13278299982994,
      "lower_time_ms": 9.940488999745867,
      "evaluation_times_ms": [
        22.246924,
        23.371582,
        22.443396,
        23.694481,
        22.659003000000002
      ],
      "metadata": {},
      "peak_memory_mb": 8397.029396
    }
  },
  "{\"x\":\"bf16[16384,2560]\",\"labels\":\"i32[16384]\",\"w\":\"bf16[2560,262144]\",\"reduction\":\"mean\",\"return_residuals\":false}": {},
  "{\"x\":\"bf16[16384,2560]\",\"labels\":\"i32[16384]\",\"w\":\"bf16[2560,262144]\",\"reduction\":\"mean\",\"return_residuals\":true}": {},
  "{\"x\":\"f32[16384,2560]\",\"labels\":\"i32[16384]\",\"w\":\"bf16[2560,262144]\",\"reduction\":\"mean\",\"return_residuals\":false}": {},
  "{\"x\":\"f32[16384,2560]\",\"labels\":\"i32[16384]\",\"w\":\"bf16[2560,262144]\",\"reduction\":\"mean\",\"return_residuals\":true}": {},
  "{\"x\":\"bf16[16384,2560]\",\"labels\":\"i32[16384]\",\"w\":\"bf16[2560,262144]\",\"reduction\":\"sum\",\"return_residuals\":false}": {},
  "{\"x\":\"bf16[32768,2560]\",\"labels\":\"i32[32768]\",\"w\":\"bf16[2560,262144]\",\"reduction\":\"mean\",\"return_residuals\":false}": {
    "{}": {
      "compile_time_ms": 5762.756897995132,
      "lower_time_ms": 21.65546899777837,
      "evaluation_times_ms": [
        76.06645999999999,
        76.217884,
        77.244306,
        76.064797,
        76.461305
      ],
      "metadata": {},
      "peak_memory_mb": 18757.189636
    }
  },
  "{\"x\":\"bf16[32768,2560]\",\"labels\":\"i32[32768]\",\"w\":\"bf16[2560,262144]\",\"reduction\":\"mean\",\"return_residuals\":true}": {
    "{}": {
      "compile_time_ms": 287.8419619955821,
      "lower_time_ms": 9.855721000349149,
      "evaluation_times_ms": [
        82.516712,
        81.151252,
        81.510481,
        81.86874999999999,
        81.161844
      ],
      "metadata": {},
      "peak_memory_mb": 18757.189652
    }
  },
  "{\"x\":\"f32[32768,2560]\",\"labels\":\"i32[32768]\",\"w\":\"bf16[2560,262144]\",\"reduction\":\"mean\",\"return_residuals\":false}": {
    "{}": {
      "compile_time_ms": 180996.47018399264,
      "lower_time_ms": 16.99037299840711,
      "evaluation_times_ms": [
        169.863539,
        170.65767499999998,
        184.90295799999998,
        170.87496299999998,
        170.86830700000002
      ],
      "metadata": {},
      "peak_memory_mb": 38755.500036
    }
  },
  "{\"x\":\"f32[32768,2560]\",\"labels\":\"i32[32768]\",\"w\":\"bf16[2560,262144]\",\"reduction\":\"mean\",\"return_residuals\":true}": {
    "{}": {
      "compile_time_ms": 242.85063199931756,
      "lower_time_ms": 10.021836002124473,
      "evaluation_times_ms": [
        180.45229600000002,
        180.29786499999997,
        194.68046299999997,
        181.071008,
        181.529947
      ],
      "metadata": {},
      "peak_memory_mb": 38755.631124
    }
  },
  "{\"x\":\"bf16[32768,2560]\",\"labels\":\"i32[32768]\",\"w\":\"bf16[2560,262144]\",\"reduction\":\"sum\",\"return_residuals\":false}": {
    "{}": {
      "compile_time_ms": 101.2734329997329,
      "lower_time_ms": 11.333171991282143,
      "evaluation_times_ms": [
        74.526123,
        76.013403,
        76.159801,
        76.640373,
        75.723327
      ],
      "metadata": {},
      "peak_memory_mb": 18757.189636
    }
  },
  "{\"x\":\"bf16[32768,2560]\",\"labels\":\"i32[32768]\",\"w\":\"bf16[2560,262144]\",\"reduction\":\"sum\",\"return_residuals\":true}": {
    "{}": {
      "compile_time_ms": 98.84094100561924,
      "lower_time_ms": 9.677169000497088,
      "evaluation_times_ms": [
        81.135819,
        81.427367,
        81.71018,
        80.89787,
        81.070188
      ],
      "metadata": {},
      "peak_memory_mb": 18757.189652
    }
  },
  "{\"x\":\"f32[32768,2560]\",\"labels\":\"i32[32768]\",\"w\":\"bf16[2560,262144]\",\"reduction\":\"sum\",\"return_residuals\":false}": {
    "{}": {
      "compile_time_ms": 92.40756000508554,
      "lower_time_ms": 10.916698010987602,
      "evaluation_times_ms": [
        169.54118,
        171.093164,
        187.269496,
        171.84687300000002,
        170.558342
      ],
      "metadata": {},
      "peak_memory_mb": 38755.500036
    }
  },
  "{\"x\":\"f32[32768,2560]\",\"labels\":\"i32[32768]\",\"w\":\"bf16[2560,262144]\",\"reduction\":\"sum\",\"return_residuals\":true}": {
    "{}": {
      "compile_time_ms": 93.23777499957941,
      "lower_time_ms": 9.51810399419628,
      "evaluation_times_ms": [
        181.041726,
        181.29321099999999,
        188.321555,
        181.889143,
        184.356604
      ],
      "metadata": {},
      "peak_memory_mb": 38755.631124
    }
  },
  "{\"x\":\"bf16[131072,2560]\",\"labels\":\"i32[131072]\",\"w\":\"bf16[2560,262144]\",\"reduction\":\"mean\",\"return_residuals\":false}": {},
  "{\"x\":\"bf16[131072,2560]\",\"labels\":\"i32[131072]\",\"w\":\"bf16[2560,262144]\",\"reduction\":\"mean\",\"return_residuals\":true}": {},
  "{\"x\":\"f32[131072,2560]\",\"labels\":\"i32[131072]\",\"w\":\"bf16[2560,262144]\",\"reduction\":\"mean\",\"return_residuals\":false}": {},
  "{\"x\":\"f32[131072,2560]\",\"labels\":\"i32[131072]\",\"w\":\"bf16[2560,262144]\",\"reduction\":\"mean\",\"return_residuals\":true}": {},
  "{\"x\":\"bf16[131072,2560]\",\"labels\":\"i32[131072]\",\"w\":\"bf16[2560,262144]\",\"reduction\":\"sum\",\"return_residuals\":false}": {},
  "{\"x\":\"bf16[131072,2560]\",\"labels\":\"i32[131072]\",\"w\":\"bf16[2560,262144]\",\"reduction\":\"sum\",\"return_residuals\":true}": {},
  "{\"x\":\"f32[131072,2560]\",\"labels\":\"i32[131072]\",\"w\":\"bf16[2560,262144]\",\"reduction\":\"sum\",\"return_residuals\":false}": {},
  "{\"x\":\"f32[131072,2560]\",\"labels\":\"i32[131072]\",\"w\":\"bf16[2560,262144]\",\"reduction\":\"sum\",\"return_residuals\":true}": {},
  "{\"x\":\"bf16[1024,3840]\",\"labels\":\"i32[1024]\",\"w\":\"bf16[3840,262144]\",\"reduction\":\"mean\",\"return_residuals\":false}": {
    "{}": {
      "compile_time_ms": 588.7413989985362,
      "lower_time_ms": 18.398995976895094,
      "evaluation_times_ms": [
        3.0574410000000003,
        3.0570570000000004,
        3.057505,
        3.0600970000000003,
        3.0627530000000003
      ],
      "metadata": {},
      "peak_memory_mb": 2591.559684
    }
  },
  "{\"x\":\"bf16[1024,3840]\",\"labels\":\"i32[1024]\",\"w\":\"bf16[3840,262144]\",\"reduction\":\"mean\",\"return_residuals\":true}": {
    "{}": {
      "compile_time_ms": 285.89301701867953,
      "lower_time_ms": 9.856418997514993,
      "evaluation_times_ms": [
        3.234016,
        3.2334080000000003,
        3.233025,
        3.231489,
        3.234049
      ],
      "metadata": {},
      "peak_memory_mb": 2591.561748
    }
  },
  "{\"x\":\"f32[1024,3840]\",\"labels\":\"i32[1024]\",\"w\":\"bf16[3840,262144]\",\"reduction\":\"mean\",\"return_residuals\":false}": {
    "{}": {
      "compile_time_ms": 1187.4913280480541,
      "lower_time_ms": 17.355089948978275,
      "evaluation_times_ms": [
        7.973409999999999,
        7.967587,
        7.972290999999999,
        7.977761999999999,
        7.971299
      ],
      "metadata": {},
      "peak_memory_mb": 7162.826756
    }
  },
  "{\"x\":\"f32[1024,3840]\",\"labels\":\"i32[1024]\",\"w\":\"bf16[3840,262144]\",\"reduction\":\"mean\",\"return_residuals\":true}": {
    "{}": {
      "compile_time_ms": 315.0053009740077,
      "lower_time_ms": 9.657357994001359,
      "evaluation_times_ms": [
        8.295523000000001,
        8.303906000000001,
        8.309411,
        8.313827,
        8.313027
      ],
      "metadata": {},
      "peak_memory_mb": 7162.830868
    }
  },
  "{\"x\":\"bf16[1024,3840]\",\"labels\":\"i32[1024]\",\"w\":\"bf16[3840,262144]\",\"reduction\":\"sum\",\"return_residuals\":false}": {
    "{}": {
      "compile_time_ms": 56.349446007516235,
      "lower_time_ms": 11.159268964547664,
      "evaluation_times_ms": [
        3.053697,
        3.049985,
        3.0566410000000004,
        3.0564489999999997,
        3.0565130000000003
      ],
      "metadata": {},
      "peak_memory_mb": 2591.559684
    }
  },
  "{\"x\":\"bf16[1024,3840]\",\"labels\":\"i32[1024]\",\"w\":\"bf16[3840,262144]\",\"reduction\":\"sum\",\"return_residuals\":true}": {
    "{}": {
      "compile_time_ms": 70.56484901113436,
      "lower_time_ms": 10.054335987661034,
      "evaluation_times_ms": [
        3.227745,
        3.236065,
        3.2360010000000003,
        3.232769,
        3.2326409999999997
      ],
      "metadata": {},
      "peak_memory_mb": 2591.561748
    }
  },
  "{\"x\":\"f32[1024,3840]\",\"labels\":\"i32[1024]\",\"w\":\"bf16[3840,262144]\",\"reduction\":\"sum\",\"return_residuals\":false}": {
    "{}": {
      "compile_time_ms": 85.737140965648,
      "lower_time_ms": 11.212499055545777,
      "evaluation_times_ms": [
        7.950018,
        7.955075,
        7.950146,
        7.955618,
        7.959938
      ],
      "metadata": {},
      "peak_memory_mb": 7162.826756
    }
  },
  "{\"x\":\"f32[1024,3840]\",\"labels\":\"i32[1024]\",\"w\":\"bf16[3840,262144]\",\"reduction\":\"sum\",\"return_residuals\":true}": {
    "{}": {
      "compile_time_ms": 89.4053079537116,
      "lower_time_ms": 9.376757021527737,
      "evaluation_times_ms": [
        8.294658,
        8.297666,
        8.30013,
        8.299842,
        8.304546
      ],
      "metadata": {},
      "peak_memory_mb": 7162.830868
    }
  },
  "{\"x\":\"bf16[2048,3840]\",\"labels\":\"i32[2048]\",\"w\":\"bf16[3840,262144]\",\"reduction\":\"mean\",\"return_residuals\":false}": {
    "{}": {
      "compile_time_ms": 1227.1068950067274,
      "lower_time_ms": 18.173712014686316,
      "evaluation_times_ms": [
        6.041442,
        6.046754,
        6.05245,
        6.067553,
        6.082082
      ],
      "metadata": {},
      "peak_memory_mb": 3136.299012
    }
  },
  "{\"x\":\"bf16[2048,3840]\",\"labels\":\"i32[2048]\",\"w\":\"bf16[3840,262144]\",\"reduction\":\"mean\",\"return_residuals\":true}": {
    "{}": {
      "compile_time_ms": 292.8106850013137,
      "lower_time_ms": 9.762867004610598,
      "evaluation_times_ms": [
        6.386337,
        6.398434,
        6.396963,
        6.406978,
        6.416354
      ],
      "metadata": {},
      "peak_memory_mb": 3136.303124
    }
  },
  "{\"x\":\"f32[2048,3840]\",\"labels\":\"i32[2048]\",\"w\":\"bf16[3840,262144]\",\"reduction\":\"mean\",\"return_residuals\":false}": {
    "{}": {
      "compile_time_ms": 1468.1144089554437,
      "lower_time_ms": 17.177090980112553,
      "evaluation_times_ms": [
        13.953123,
        13.999715,
        14.134564000000001,
        14.338467000000001,
        14.179491
      ],
      "metadata": {},
      "peak_memory_mb": 8252.301316
    }
  },
  "{\"x\":\"f32[2048,3840]\",\"labels\":\"i32[2048]\",\"w\":\"bf16[3840,262144]\",\"reduction\":\"mean\",\"return_residuals\":true}": {
    "{}": {
      "compile_time_ms": 290.27474496979266,
      "lower_time_ms": 9.905862039886415,
      "evaluation_times_ms": [
        14.666246,
        14.633317,
        14.635878,
        14.958502,
        14.746469
      ],
      "metadata": {},
      "peak_memory_mb": 8252.309524
    }
  },
  "{\"x\":\"bf16[2048,3840]\",\"labels\":\"i32[2048]\",\"w\":\"bf16[3840,262144]\",\"reduction\":\"sum\",\"return_residuals\":false}": {
    "{}": {
      "compile_time_ms": 57.059429003857076,
      "lower_time_ms": 11.700919014401734,
      "evaluation_times_ms": [
        6.037538,
        6.046691,
        6.048418,
        6.04925,
        6.0526740000000006
      ],
      "metadata": {},
      "peak_memory_mb": 3136.299012
    }
  },
  "{\"x\":\"bf16[2048,3840]\",\"labels\":\"i32[2048]\",\"w\":\"bf16[3840,262144]\",\"reduction\":\"sum\",\"return_residuals\":true}": {
    "{}": {
      "compile_time_ms": 58.728606963995844,
      "lower_time_ms": 9.791441960260272,
      "evaluation_times_ms": [
        6.389987,
        6.390498,
        6.40557,
        6.41325,
        6.415203
      ],
      "metadata": {},
      "peak_memory_mb": 3136.303124
    }
  },
  "{\"x\":\"f32[2048,3840]\",\"labels\":\"i32[2048]\",\"w\":\"bf16[3840,262144]\",\"reduction\":\"sum\",\"return_residuals\":false}": {
    "{}": {
      "compile_time_ms": 65.25258399778977,
      "lower_time_ms": 10.716444987338036,
      "evaluation_times_ms": [
        13.952548,
        13.964068000000001,
        13.948452,
        13.956164,
        14.132516
      ],
      "metadata": {},
      "peak_memory_mb": 8252.301316
    }
  },
  "{\"x\":\"f32[2048,3840]\",\"labels\":\"i32[2048]\",\"w\":\"bf16[3840,262144]\",\"reduction\":\"sum\",\"return_residuals\":true}": {
    "{}": {
      "compile_time_ms": 67.00399797409773,
      "lower_time_ms": 10.086820984724909,
      "evaluation_times_ms": [
        14.614436,
        14.601541,
        14.641221,
        14.901285,
        14.613925
      ],
      "metadata": {},
      "peak_memory_mb": 8252.309524
    }
  },
  "{\"x\":\"bf16[4096,3840]\",\"labels\":\"i32[4096]\",\"w\":\"bf16[3840,262144]\",\"reduction\":\"mean\",\"return_residuals\":false}": {
    "{}": {
      "compile_time_ms": 1011.4025229704566,
      "lower_time_ms": 21.267521020490676,
      "evaluation_times_ms": [
        12.441188,
        12.462659,
        12.480644999999999,
        13.312356,
        13.482436
      ],
      "metadata": {},
      "peak_memory_mb": 4225.777668
    }
  },
  "{\"x\":\"bf16[4096,3840]\",\"labels\":\"i32[4096]\",\"w\":\"bf16[3840,262144]\",\"reduction\":\"mean\",\"return_residuals\":true}": {
    "{}": {
      "compile_time_ms": 277.2318990319036,
      "lower_time_ms": 9.930004947818816,
      "evaluation_times_ms": [
        13.101732,
        13.113380000000001,
        14.158180999999999,
        14.066374,
        14.138149
      ],
      "metadata": {},
      "peak_memory_mb": 4225.785876
    }
  },
  "{\"x\":\"f32[4096,3840]\",\"labels\":\"i32[4096]\",\"w\":\"bf16[3840,262144]\",\"reduction\":\"mean\",\"return_residuals\":false}": {},
  "{\"x\":\"f32[4096,3840]\",\"labels\":\"i32[4096]\",\"w\":\"bf16[3840,262144]\",\"reduction\":\"mean\",\"return_residuals\":true}": {},
  "{\"x\":\"bf16[4096,3840]\",\"labels\":\"i32[4096]\",\"w\":\"bf16[3840,262144]\",\"reduction\":\"sum\",\"return_residuals\":false}": {
    "{}": {
      "compile_time_ms": 437.03676998848096,
      "lower_time_ms": 19.920919032301754,
      "evaluation_times_ms": [
        12.434862,
        12.439886,
        12.561133,
        13.309382000000001,
        13.325605
      ],
      "metadata": {},
      "peak_memory_mb": 4225.777668
    }
  },
  "{\"x\":\"bf16[4096,3840]\",\"labels\":\"i32[4096]\",\"w\":\"bf16[3840,262144]\",\"reduction\":\"sum\",\"return_residuals\":true}": {
    "{}": {
      "compile_time_ms": 163.41784701216966,
      "lower_time_ms": 9.767148992978036,
      "evaluation_times_ms": [
        13.099781,
        13.24106,
        13.768,
        14.071259999999999,
        13.908382
      ],
      "metadata": {},
      "peak_memory_mb": 4225.785876
    }
  },
  "{\"x\":\"f32[4096,3840]\",\"labels\":\"i32[4096]\",\"w\":\"bf16[3840,262144]\",\"reduction\":\"sum\",\"return_residuals\":false}": {
    "{}": {
      "compile_time_ms": 2593.463533965405,
      "lower_time_ms": 17.19764800509438,
      "evaluation_times_ms": [
        26.455459,
        26.736801,
        27.300538,
        27.389403,
        27.860661
      ],
      "metadata": {},
      "peak_memory_mb": 10431.250436
    }
  },
  "{\"x\":\"f32[4096,3840]\",\"labels\":\"i32[4096]\",\"w\":\"bf16[3840,262144]\",\"reduction\":\"sum\",\"return_residuals\":true}": {
    "{}": {
      "compile_time_ms": 343.66387204499915,
      "lower_time_ms": 9.488510026130825,
      "evaluation_times_ms": [
        27.594171,
        30.016228,
        29.555207999999997,
        29.269867,
        29.550217
      ],
      "metadata": {},
      "peak_memory_mb": 10431.266836
    }
  },
  "{\"x\":\"bf16[16384,3840]\",\"labels\":\"i32[16384]\",\"w\":\"bf16[3840,262144]\",\"reduction\":\"mean\",\"return_residuals\":false}": {
    "{}": {
      "compile_time_ms": 4295.611984000061,
      "lower_time_ms": 23.460734999389388,
      "evaluation_times_ms": [
        53.343671,
        55.197686,
        55.09167,
        55.04319,
        54.731478
      ],
      "metadata": {},
      "peak_memory_mb": 10762.71514
    }
  },
  "{\"x\":\"bf16[16384,3840]\",\"labels\":\"i32[16384]\",\"w\":\"bf16[3840,262144]\",\"reduction\":\"mean\",\"return_residuals\":true}": {
    "{}": {
      "compile_time_ms": 368.1171139996877,
      "lower_time_ms": 10.704685000746395,
      "evaluation_times_ms": [
        57.305969,
        56.838961000000005,
        56.844657,
        56.665137,
        55.408080999999996
      ],
      "metadata": {},
      "peak_memory_mb": 10762.715156
    }
  },
  "{\"x\":\"f32[16384,3840]\",\"labels\":\"i32[16384]\",\"w\":\"bf16[3840,262144]\",\"reduction\":\"mean\",\"return_residuals\":false}": {
    "{}": {
      "compile_time_ms": 8228.290642999127,
      "lower_time_ms": 18.18531600110873,
      "evaluation_times_ms": [
        107.110918,
        107.27927,
        108.014663,
        110.81524200000001,
        111.11386599999999
      ],
      "metadata": {},
      "peak_memory_mb": 23504.945156
    }
  },
  "{\"x\":\"f32[16384,3840]\",\"labels\":\"i32[16384]\",\"w\":\"bf16[3840,262144]\",\"reduction\":\"mean\",\"return_residuals\":true}": {
    "{}": {
      "compile_time_ms": 437.7900910003518,
      "lower_time_ms": 10.411880999527057,
      "evaluation_times_ms": [
        112.336039,
        114.005834,
        112.224296,
        124.951222,
        117.25697299999999
      ],
      "metadata": {},
      "peak_memory_mb": 23505.010708
    }
  },
  "{\"x\":\"bf16[16384,3840]\",\"labels\":\"i32[16384]\",\"w\":\"bf16[3840,262144]\",\"reduction\":\"sum\",\"return_residuals\":false}": {
    "{}": {
      "compile_time_ms": 69.98599600046873,
      "lower_time_ms": 12.130176999562536,
      "evaluation_times_ms": [
        52.735796,
        53.979126,
        55.097398,
        53.963029,
        55.125846
      ],
      "metadata": {},
      "peak_memory_mb": 10762.71514
    }
  },
  "{\"x\":\"bf16[16384,3840]\",\"labels\":\"i32[16384]\",\"w\":\"bf16[3840,262144]\",\"reduction\":\"sum\",\"return_residuals\":true}": {
    "{}": {
      "compile_time_ms": 78.83483099976729,
      "lower_time_ms": 10.853158999452717,
      "evaluation_times_ms": [
        54.774221,
        57.427695,
        57.336976,
        57.237423,
        57.555952
      ],
      "metadata": {},
      "peak_memory_mb": 10762.715156
    }
  },
  "{\"x\":\"f32[16384,3840]\",\"labels\":\"i32[16384]\",\"w\":\"bf16[3840,262144]\",\"reduction\":\"sum\",\"return_residuals\":false}": {
    "{}": {
      "compile_time_ms": 69.8567749986978,
      "lower_time_ms": 11.926327999390196,
      "evaluation_times_ms": [
        106.728739,
        108.38979699999999,
        103.396768,
        108.064452,
        117.60385
      ],
      "metadata": {},
      "peak_memory_mb": 23504.945156
    }
  },
  "{\"x\":\"f32[16384,3840]\",\"labels\":\"i32[16384]\",\"w\":\"bf16[3840,262144]\",\"reduction\":\"sum\",\"return_residuals\":true}": {
    "{}": {
      "compile_time_ms": 69.75129800048308,
      "lower_time_ms": 10.243856000670348,
      "evaluation_times_ms": [
        113.074244,
        111.49958600000001,
        115.12259700000001,
        118.91990700000001,
        114.75974400000001
      ],
      "metadata": {},
      "peak_memory_mb": 23505.010708
    }
  },
  "{\"x\":\"bf16[32768,3840]\",\"labels\":\"i32[32768]\",\"w\":\"bf16[3840,262144]\",\"reduction\":\"mean\",\"return_residuals\":false}": {
    "{}": {
      "compile_time_ms": 8325.52016900081,
      "lower_time_ms": 19.245098999817856,
      "evaluation_times_ms": [
        105.80515899999999,
        106.342471,
        106.396743,
        115.123986,
        110.552909
      ],
      "metadata": {},
      "peak_memory_mb": 19512.164356
    }
  },
  "{\"x\":\"bf16[32768,3840]\",\"labels\":\"i32[32768]\",\"w\":\"bf16[3840,262144]\",\"reduction\":\"mean\",\"return_residuals\":true}": {
    "{}": {
      "compile_time_ms": 465.45273999981873,
      "lower_time_ms": 10.71111900091637,
      "evaluation_times_ms": [
        111.79260000000001,
        113.69180300000001,
        109.97605399999999,
        123.03956,
        117.70944
      ],
      "metadata": {},
      "peak_memory_mb": 19512.164372
    }
  },
  "{\"x\":\"f32[32768,3840]\",\"labels\":\"i32[32768]\",\"w\":\"bf16[3840,262144]\",\"reduction\":\"mean\",\"return_residuals\":false}": {},
  "{\"x\":\"f32[32768,3840]\",\"labels\":\"i32[32768]\",\"w\":\"bf16[3840,262144]\",\"reduction\":\"mean\",\"return_residuals\":true}": {},
  "{\"x\":\"bf16[32768,3840]\",\"labels\":\"i32[32768]\",\"w\":\"bf16[3840,262144]\",\"reduction\":\"sum\",\"return_residuals\":false}": {
    "{}": {
      "compile_time_ms": 107.24187699997856,
      "lower_time_ms": 12.5045009990572,
      "evaluation_times_ms": [
        104.576072,
        107.189223,
        106.497768,
        106.355816,
        110.32032699999999
      ],
      "metadata": {},
      "peak_memory_mb": 19512.164356
    }
  },
  "{\"x\":\"bf16[32768,3840]\",\"labels\":\"i32[32768]\",\"w\":\"bf16[3840,262144]\",\"reduction\":\"sum\",\"return_residuals\":true}": {
    "{}": {
      "compile_time_ms": 113.44318199917325,
      "lower_time_ms": 10.760007999124355,
      "evaluation_times_ms": [
        111.823801,
        111.11746600000001,
        110.152538,
        120.445337,
        115.105624
      ],
      "metadata": {},
      "peak_memory_mb": 19512.164372
    }
  },
  "{\"x\":\"f32[32768,3840]\",\"labels\":\"i32[32768]\",\"w\":\"bf16[3840,262144]\",\"reduction\":\"sum\",\"return_residuals\":false}": {},
  "{\"x\":\"f32[32768,3840]\",\"labels\":\"i32[32768]\",\"w\":\"bf16[3840,262144]\",\"reduction\":\"sum\",\"return_residuals\":true}": {
    "{}": {
      "compile_time_ms": 181290.9928020001,
      "lower_time_ms": 21.485682000047746,
      "evaluation_times_ms": [
        252.901636,
        267.108119,
        254.910173,
        261.730455,
        256.32726
      ],
      "metadata": {},
      "peak_memory_mb": 40936.669204
    }
  },
  "{\"x\":\"bf16[131072,3840]\",\"labels\":\"i32[131072]\",\"w\":\"bf16[3840,262144]\",\"reduction\":\"mean\",\"return_residuals\":false}": {},
  "{\"x\":\"bf16[131072,3840]\",\"labels\":\"i32[131072]\",\"w\":\"bf16[3840,262144]\",\"reduction\":\"mean\",\"return_residuals\":true}": {},
  "{\"x\":\"f32[131072,3840]\",\"labels\":\"i32[131072]\",\"w\":\"bf16[3840,262144]\",\"reduction\":\"mean\",\"return_residuals\":false}": {},
  "{\"x\":\"f32[131072,3840]\",\"labels\":\"i32[131072]\",\"w\":\"bf16[3840,262144]\",\"reduction\":\"mean\",\"return_residuals\":true}": {},
  "{\"x\":\"bf16[131072,3840]\",\"labels\":\"i32[131072]\",\"w\":\"bf16[3840,262144]\",\"reduction\":\"sum\",\"return_residuals\":false}": {},
  "{\"x\":\"bf16[131072,3840]\",\"labels\":\"i32[131072]\",\"w\":\"bf16[3840,262144]\",\"reduction\":\"sum\",\"return_residuals\":true}": {},
  "{\"x\":\"f32[131072,3840]\",\"labels\":\"i32[131072]\",\"w\":\"bf16[3840,262144]\",\"reduction\":\"sum\",\"return_residuals\":false}": {},
  "{\"x\":\"f32[131072,3840]\",\"labels\":\"i32[131072]\",\"w\":\"bf16[3840,262144]\",\"reduction\":\"sum\",\"return_residuals\":true}": {},
  "{\"x\":\"bf16[1024,4096]\",\"labels\":\"i32[1024]\",\"w\":\"bf16[4096,128256]\",\"reduction\":\"mean\",\"return_residuals\":false}": {
    "{}": {
      "compile_time_ms": 612.7081340000586,
      "lower_time_ms": 19.206733000373788,
      "evaluation_times_ms": [
        1.624582,
        1.6311120000000001,
        1.630439,
        1.6272710000000001,
        1.6283269999999999
      ],
      "metadata": {},
      "peak_memory_mb": 1355.28858
    }
  },
  "{\"x\":\"bf16[1024,4096]\",\"labels\":\"i32[1024]\",\"w\":\"bf16[4096,128256]\",\"reduction\":\"mean\",\"return_residuals\":true}": {
    "{}": {
      "compile_time_ms": 390.9798380000211,
      "lower_time_ms": 10.580171999663435,
      "evaluation_times_ms": [
        1.722961,
        1.726322,
        1.722224,
        1.723409,
        1.723153
      ],
      "metadata": {},
      "peak_memory_mb": 1355.290644
    }
  },
  "{\"x\":\"f32[1024,4096]\",\"labels\":\"i32[1024]\",\"w\":\"bf16[4096,128256]\",\"reduction\":\"mean\",\"return_residuals\":false}": {
    "{}": {
      "compile_time_ms": 1006.2686600003872,
      "lower_time_ms": 18.264102000102866,
      "evaluation_times_ms": [
        4.141218,
        4.141186,
        4.135521,
        4.142753,
        4.140033
      ],
      "metadata": {},
      "peak_memory_mb": 3727.69178
    }
  },
  "{\"x\":\"f32[1024,4096]\",\"labels\":\"i32[1024]\",\"w\":\"bf16[4096,128256]\",\"reduction\":\"mean\",\"return_residuals\":true}": {
    "{}": {
      "compile_time_ms": 363.3270889999949,
      "lower_time_ms": 10.20196500030579,
      "evaluation_times_ms": [
        4.316534,
        4.3126619999999996,
        4.312469,
        4.310837,
        4.316694
      ],
      "metadata": {},
      "peak_memory_mb": 3727.695892
    }
  },
  "{\"x\":\"bf16[1024,4096]\",\"labels\":\"i32[1024]\",\"w\":\"bf16[4096,128256]\",\"reduction\":\"sum\",\"return_residuals\":false}": {
    "{}": {
      "compile_time_ms": 74.48373299985178,
      "lower_time_ms": 11.84766899996248,
      "evaluation_times_ms": [
        1.627054,
        1.624654,
        1.624494,
        1.6293900000000001,
        1.6236300000000001
      ],
      "metadata": {},
      "peak_memory_mb": 1355.28858
    }
  },
  "{\"x\":\"bf16[1024,4096]\",\"labels\":\"i32[1024]\",\"w\":\"bf16[4096,128256]\",\"reduction\":\"sum\",\"return_residuals\":true}": {
    "{}": {
      "compile_time_ms": 71.08482199964783,
      "lower_time_ms": 10.851743999864993,
      "evaluation_times_ms": [
        1.720309,
        1.720757,
        1.724535,
        1.723254,
        1.723413
      ],
      "metadata": {},
      "peak_memory_mb": 1355.290644
    }
  },
  "{\"x\":\"f32[1024,4096]\",\"labels\":\"i32[1024]\",\"w\":\"bf16[4096,128256]\",\"reduction\":\"sum\",\"return_residuals\":false}": {
    "{}": {
      "compile_time_ms": 66.4327479998974,
      "lower_time_ms": 11.859643000207143,
      "evaluation_times_ms": [
        4.13789,
        4.1340509999999995,
        4.137858,
        4.138242,
        4.133089
      ],
      "metadata": {},
      "peak_memory_mb": 3727.69178
    }
  },
  "{\"x\":\"f32[1024,4096]\",\"labels\":\"i32[1024]\",\"w\":\"bf16[4096,128256]\",\"reduction\":\"sum\",\"return_residuals\":true}": {
    "{}": {
      "compile_time_ms": 75.15556799990009,
      "lower_time_ms": 9.941845999946963,
      "evaluation_times_ms": [
        4.307915,
        4.307434,
        4.308172,
        4.310732,
        4.313643
      ],
      "metadata": {},
      "peak_memory_mb": 3727.695892
    }
  },
  "{\"x\":\"bf16[2048,4096]\",\"labels\":\"i32[2048]\",\"w\":\"bf16[4096,128256]\",\"reduction\":\"mean\",\"return_residuals\":false}": {
    "{}": {
      "compile_time_ms": 686.850609999965,
      "lower_time_ms": 19.326615999943897,
      "evaluation_times_ms": [
        3.1683890000000003,
        3.171078,
        3.175782,
        3.1780869999999997,
        3.177126
      ],
      "metadata": {},
      "peak_memory_mb": 1626.349572
    }
  },
  "{\"x\":\"bf16[2048,4096]\",\"labels\":\"i32[2048]\",\"w\":\"bf16[4096,128256]\",\"reduction\":\"mean\",\"return_residuals\":true}": {
    "{}": {
      "compile_time_ms": 350.2812700003233,
      "lower_time_ms": 10.328600999855553,
      "evaluation_times_ms": [
        3.3571579999999996,
        3.351558,
        3.356615,
        3.356166,
        3.371559
      ],
      "metadata": {},
      "peak_memory_mb": 1626.353684
    }
  },
  "{\"x\":\"f32[2048,4096]\",\"labels\":\"i32[2048]\",\"w\":\"bf16[4096,128256]\",\"reduction\":\"mean\",\"return_residuals\":false}": {
    "{}": {
      "compile_time_ms": 1722.99970999984,
      "lower_time_ms": 18.311428000288288,
      "evaluation_times_ms": [
        7.254251,
        7.247212,
        7.255692,
        7.245932,
        7.241516
      ],
      "metadata": {},
      "peak_memory_mb": 4269.809668
    }
  },
  "{\"x\":\"f32[2048,4096]\",\"labels\":\"i32[2048]\",\"w\":\"bf16[4096,128256]\",\"reduction\":\"mean\",\"return_residuals\":true}": {
    "{}": {
      "compile_time_ms": 430.59126200023456,
      "lower_time_ms": 10.07579999986774,
      "evaluation_times_ms": [
        7.597035999999999,
        7.596521999999999,
        7.598283,
        7.583754,
        7.553064
      ],
      "metadata": {},
      "peak_memory_mb": 4269.817876
    }
  },
  "{\"x\":\"bf16[2048,4096]\",\"labels\":\"i32[2048]\",\"w\":\"bf16[4096,128256]\",\"reduction\":\"sum\",\"return_residuals\":false}": {
    "{}": {
      "compile_time_ms": 69.25599100031832,
      "lower_time_ms": 16.392241999710677,
      "evaluation_times_ms": [
        3.165768,
        3.168871,
        3.168808,
        3.167784,
        3.1782480000000004
      ],
      "metadata": {},
      "peak_memory_mb": 1626.349572
    }
  },
  "{\"x\":\"bf16[2048,4096]\",\"labels\":\"i32[2048]\",\"w\":\"bf16[4096,128256]\",\"reduction\":\"sum\",\"return_residuals\":true}": {
    "{}": {
      "compile_time_ms": 77.5735489996805,
      "lower_time_ms": 10.366327000156161,
      "evaluation_times_ms": [
        3.354241,
        3.359457,
        3.3583689999999997,
        3.355105,
        3.362018
      ],
      "metadata": {},
      "peak_memory_mb": 1626.353684
    }
  },
  "{\"x\":\"f32[2048,4096]\",\"labels\":\"i32[2048]\",\"w\":\"bf16[4096,128256]\",\"reduction\":\"sum\",\"return_residuals\":false}": {
    "{}": {
      "compile_time_ms": 114.42729300006249,
      "lower_time_ms": 11.671176000163541,
      "evaluation_times_ms": [
        7.231899,
        7.245915,
        7.253594,
        7.193594,
        7.176185
      ],
      "metadata": {},
      "peak_memory_mb": 4269.809668
    }
  },
  "{\"x\":\"f32[2048,4096]\",\"labels\":\"i32[2048]\",\"w\":\"bf16[4096,128256]\",\"reduction\":\"sum\",\"return_residuals\":true}": {
    "{}": {
      "compile_time_ms": 696.2232359999234,
      "lower_time_ms": 22.202443999958632,
      "evaluation_times_ms": [
        7.501995999999999,
        7.51313,
        7.526918,
        7.523461999999999,
        7.526757
      ],
      "metadata": {},
      "peak_memory_mb": 4269.817876
    }
  },
  "{\"x\":\"bf16[4096,4096]\",\"labels\":\"i32[4096]\",\"w\":\"bf16[4096,128256]\",\"reduction\":\"mean\",\"return_residuals\":false}": {
    "{}": {
      "compile_time_ms": 895.2558780001709,
      "lower_time_ms": 22.888469000008627,
      "evaluation_times_ms": [
        6.281601,
        6.285665,
        6.287905,
        6.297153,
        6.450432
      ],
      "metadata": {},
      "peak_memory_mb": 2168.471556
    }
  },
  "{\"x\":\"bf16[4096,4096]\",\"labels\":\"i32[4096]\",\"w\":\"bf16[4096,128256]\",\"reduction\":\"mean\",\"return_residuals\":true}": {
    "{}": {
      "compile_time_ms": 375.6665820001217,
      "lower_time_ms": 10.131670999726339,
      "evaluation_times_ms": [
        6.633246,
        6.642621,
        6.642526,
        6.678685,
        6.677981
      ],
      "metadata": {},
      "peak_memory_mb": 2168.479764
    }
  },
  "{\"x\":\"f32[4096,4096]\",\"labels\":\"i32[4096]\",\"w\":\"bf16[4096,128256]\",\"reduction\":\"mean\",\"return_residuals\":false}": {
    "{}": {
      "compile_time_ms": 1789.5681939999122,
      "lower_time_ms": 17.758380000032048,
      "evaluation_times_ms": [
        13.425944000000001,
        13.463640000000002,
        13.9085,
        14.031442,
        13.925427999999998
      ],
      "metadata": {},
      "peak_memory_mb": 5354.045444
    }
  },
  "{\"x\":\"f32[4096,4096]\",\"labels\":\"i32[4096]\",\"w\":\"bf16[4096,128256]\",\"reduction\":\"mean\",\"return_residuals\":true}": {
    "{}": {
      "compile_time_ms": 287.51415700025973,
      "lower_time_ms": 9.869779999917228,
      "evaluation_times_ms": [
        14.131251,
        14.429968,
        14.146002999999999,
        14.863756,
        14.588173999999999
      ],
      "metadata": {},
      "peak_memory_mb": 5354.061844
    }
  },
  "{\"x\":\"bf16[4096,4096]\",\"labels\":\"i32[4096]\",\"w\":\"bf16[4096,128256]\",\"reduction\":\"sum\",\"return_residuals\":false}": {
    "{}": {
      "compile_time_ms": 120.92927000003328,
      "lower_time_ms": 11.088286999893171,
      "evaluation_times_ms": [
        6.2737300000000005,
        6.283296999999999,
        6.289823999999999,
        6.305568,
        6.395103
      ],
      "metadata": {},
      "peak_memory_mb": 2168.471556
    }
  },
  "{\"x\":\"bf16[4096,4096]\",\"labels\":\"i32[4096]\",\"w\":\"bf16[4096,128256]\",\"reduction\":\"sum\",\"return_residuals\":true}": {
    "{}": {
      "compile_time_ms": 123.21663099965008,
      "lower_time_ms": 9.922960000039893,
      "evaluation_times_ms": [
        6.626781,
        6.640284,
        6.648733,
        6.646972,
        6.666685
      ],
      "metadata": {},
      "peak_memory_mb": 2168.479764
    }
  },
  "{\"x\":\"f32[4096,4096]\",\"labels\":\"i32[4096]\",\"w\":\"bf16[4096,128256]\",\"reduction\":\"sum\",\"return_residuals\":false}": {
    "{}": {
      "compile_time_ms": 71.41490699996211,
      "lower_time_ms": 11.45303800012698,
      "evaluation_times_ms": [
        13.407416,
        13.432824,
        13.45388,
        13.500086999999999,
        13.842516999999999
      ],
      "metadata": {},
      "peak_memory_mb": 5354.045444
    }
  },
  "{\"x\":\"f32[4096,4096]\",\"labels\":\"i32[4096]\",\"w\":\"bf16[4096,128256]\",\"reduction\":\"sum\",\"return_residuals\":true}": {
    "{}": {
      "compile_time_ms": 82.24383600008878,
      "lower_time_ms": 9.58238099974551,
      "evaluation_times_ms": [
        14.107953,
        14.133553000000001,
        14.149457,
        14.335951000000001,
        14.818794
      ],
      "metadata": {},
      "peak_memory_mb": 5354.061844
    }
  },
  "{\"x\":\"bf16[16384,4096]\",\"labels\":\"i32[16384]\",\"w\":\"bf16[4096,128256]\",\"reduction\":\"mean\",\"return_residuals\":false}": {
    "{}": {
      "compile_time_ms": 2393.125057999896,
      "lower_time_ms": 18.607909999900585,
      "evaluation_times_ms": [
        25.871097,
        27.86762,
        27.352714,
        27.615814,
        28.251009
      ],
      "metadata": {},
      "peak_memory_mb": 5421.20346
    }
  },
  "{\"x\":\"bf16[16384,4096]\",\"labels\":\"i32[16384]\",\"w\":\"bf16[4096,128256]\",\"reduction\":\"mean\",\"return_residuals\":true}": {
    "{}": {
      "compile_time_ms": 621.6280999999526,
      "lower_time_ms": 21.074816999998802,
      "evaluation_times_ms": [
        26.334788,
        27.852842000000003,
        30.396850999999998,
        30.214035,
        30.609268
      ],
      "metadata": {},
      "peak_memory_mb": 5421.236244
    }
  },
  "{\"x\":\"f32[16384,4096]\",\"labels\":\"i32[16384]\",\"w\":\"bf16[4096,128256]\",\"reduction\":\"mean\",\"return_residuals\":false}": {
    "{}": {
      "compile_time_ms": 5215.752032999944,
      "lower_time_ms": 18.69895599998017,
      "evaluation_times_ms": [
        54.419066,
        54.339578,
        54.496026,
        55.507327000000004,
        55.912927999999994
      ],
      "metadata": {},
      "peak_memory_mb": 11859.4601
    }
  },
  "{\"x\":\"f32[16384,4096]\",\"labels\":\"i32[16384]\",\"w\":\"bf16[4096,128256]\",\"reduction\":\"mean\",\"return_residuals\":true}": {
    "{}": {
      "compile_time_ms": 205.5752629999006,
      "lower_time_ms": 9.938038999962373,
      "evaluation_times_ms": [
        56.240827,
        54.373106,
        56.983965,
        58.602341,
        57.951105999999996
      ],
      "metadata": {},
      "peak_memory_mb": 11859.525652
    }
  },
  "{\"x\":\"bf16[16384,4096]\",\"labels\":\"i32[16384]\",\"w\":\"bf16[4096,128256]\",\"reduction\":\"sum\",\"return_residuals\":false}": {
    "{}": {
      "compile_time_ms": 127.42450299992925,
      "lower_time_ms": 11.479263000182982,
      "evaluation_times_ms": [
        25.757937000000002,
        27.414713,
        28.37107,
        27.729658,
        28.147963999999998
      ],
      "metadata": {},
      "peak_memory_mb": 5421.20346
    }
  },
  "{\"x\":\"bf16[16384,4096]\",\"labels\":\"i32[16384]\",\"w\":\"bf16[4096,128256]\",\"reduction\":\"sum\",\"return_residuals\":true}": {
    "{}": {
      "compile_time_ms": 131.50081300000238,
      "lower_time_ms": 10.218828999995822,
      "evaluation_times_ms": [
        26.125104,
        28.987453000000002,
        29.513311,
        29.519838999999997,
        29.621855
      ],
      "metadata": {},
      "peak_memory_mb": 5421.236244
    }
  },
  "{\"x\":\"f32[16384,4096]\",\"labels\":\"i32[16384]\",\"w\":\"bf16[4096,128256]\",\"reduction\":\"sum\",\"return_residuals\":false}": {
    "{}": {
      "compile_time_ms": 71.20001299995238,
      "lower_time_ms": 406.87213299997893,
      "evaluation_times_ms": [
        54.461962,
        53.580102,
        55.523503,
        54.814282,
        57.041204
      ],
      "metadata": {},
      "peak_memory_mb": 11859.4601
    }
  },
  "{\"x\":\"f32[16384,4096]\",\"labels\":\"i32[16384]\",\"w\":\"bf16[4096,128256]\",\"reduction\":\"sum\",\"return_residuals\":true}": {
    "{}": {
      "compile_time_ms": 77.32925800019075,
      "lower_time_ms": 9.977561000141577,
      "evaluation_times_ms": [
        55.99781,
        57.534872,
        58.082426,
        56.592693,
        57.679928999999994
      ],
      "metadata": {},
      "peak_memory_mb": 11859.525652
    }
  },
  "{\"x\":\"bf16[32768,4096]\",\"labels\":\"i32[32768]\",\"w\":\"bf16[4096,128256]\",\"reduction\":\"mean\",\"return_residuals\":false}": {
    "{}": {
      "compile_time_ms": 4451.238870999987,
      "lower_time_ms": 18.915056000196273,
      "evaluation_times_ms": [
        50.657334999999996,
        55.551212,
        55.526827000000004,
        56.357743,
        55.207146
      ],
      "metadata": {},
      "peak_memory_mb": 9790.423044
    }
  },
  "{\"x\":\"bf16[32768,4096]\",\"labels\":\"i32[32768]\",\"w\":\"bf16[4096,128256]\",\"reduction\":\"mean\",\"return_residuals\":true}": {
    "{}": {
      "compile_time_ms": 403.2624559999931,
      "lower_time_ms": 10.43079700002636,
      "evaluation_times_ms": [
        57.815892,
        57.290257999999994,
        57.400113,
        55.976619,
        58.929401
      ],
      "metadata": {},
      "peak_memory_mb": 9790.42306
    }
  },
  "{\"x\":\"f32[32768,4096]\",\"labels\":\"i32[32768]\",\"w\":\"bf16[4096,128256]\",\"reduction\":\"mean\",\"return_residuals\":false}": {
    "{}": {
      "compile_time_ms": 9651.468162000128,
      "lower_time_ms": 18.068671000037284,
      "evaluation_times_ms": [
        111.921502,
        113.66896799999999,
        115.616946,
        128.408471,
        115.095695
      ],
      "metadata": {},
      "peak_memory_mb": 20533.346308
    }
  },
  "{\"x\":\"f32[32768,4096]\",\"labels\":\"i32[32768]\",\"w\":\"bf16[4096,128256]\",\"reduction\":\"mean\",\"return_residuals\":true}": {
    "{}": {
      "compile_time_ms": 276.9903299999896,
      "lower_time_ms": 10.048224999991362,
      "evaluation_times_ms": [
        117.868838,
        116.22982300000001,
        117.49395700000001,
        135.308743,
        118.391082
      ],
      "metadata": {},
      "peak_memory_mb": 20533.477396
    }
  },
  "{\"x\":\"bf16[32768,4096]\",\"labels\":\"i32[32768]\",\"w\":\"bf16[4096,128256]\",\"reduction\":\"sum\",\"return_residuals\":false}": {
    "{}": {
      "compile_time_ms": 121.16379199983385,
      "lower_time_ms": 11.454990999936854,
      "evaluation_times_ms": [
        52.979966000000005,
        56.828722,
        55.690602999999996,
        54.499813,
        56.908114
      ],
      "metadata": {},
      "peak_memory_mb": 9790.423044
    }
  },
  "{\"x\":\"bf16[32768,4096]\",\"labels\":\"i32[32768]\",\"w\":\"bf16[4096,128256]\",\"reduction\":\"sum\",\"return_residuals\":true}": {
    "{}": {
      "compile_time_ms": 122.41368600007263,
      "lower_time_ms": 10.683791000019482,
      "evaluation_times_ms": [
        57.083597000000005,
        58.994263,
        58.024211,
        57.593647000000004,
        57.327311
      ],
      "metadata": {},
      "peak_memory_mb": 9790.42306
    }
  },
  "{\"x\":\"f32[32768,4096]\",\"labels\":\"i32[32768]\",\"w\":\"bf16[4096,128256]\",\"reduction\":\"sum\",\"return_residuals\":false}": {
    "{}": {
      "compile_time_ms": 70.4372059999514,
      "lower_time_ms": 11.552524000080666,
      "evaluation_times_ms": [
        111.777802,
        113.649812,
        111.972043,
        124.596877,
        116.93162
      ],
      "metadata": {},
      "peak_memory_mb": 20533.346308
    }
  },
  "{\"x\":\"f32[32768,4096]\",\"labels\":\"i32[32768]\",\"w\":\"bf16[4096,128256]\",\"reduction\":\"sum\",\"return_residuals\":true}": {
    "{}": {
      "compile_time_ms": 75.18900900004155,
      "lower_time_ms": 9.84570800005713,
      "evaluation_times_ms": [
        115.47768599999999,
        115.960537,
        117.91296200000001,
        133.062609,
        120.089805
      ],
      "metadata": {},
      "peak_memory_mb": 20533.477396
    }
  },
  "{\"x\":\"bf16[131072,4096]\",\"labels\":\"i32[131072]\",\"w\":\"bf16[4096,128256]\",\"reduction\":\"mean\",\"return_residuals\":false}": {
    "{}": {
      "compile_time_ms": 181008.08805199995,
      "lower_time_ms": 19.107954999981303,
      "evaluation_times_ms": [
        229.974277,
        237.459005,
        231.434344,
        232.776273,
        233.82994200000002
      ],
      "metadata": {},
      "peak_memory_mb": 36009.672708
    }
  },
  "{\"x\":\"bf16[131072,4096]\",\"labels\":\"i32[131072]\",\"w\":\"bf16[4096,128256]\",\"reduction\":\"mean\",\"return_residuals\":true}": {
    "{}": {
      "compile_time_ms": 335.35088700000415,
      "lower_time_ms": 10.372813999993014,
      "evaluation_times_ms": [
        238.138372,
        252.66303200000002,
        241.187055,
        247.702246,
        242.39595599999998
      ],
      "metadata": {},
      "peak_memory_mb": 36009.672724
    }
  },
  "{\"x\":\"f32[131072,4096]\",\"labels\":\"i32[131072]\",\"w\":\"bf16[4096,128256]\",\"reduction\":\"mean\",\"return_residuals\":false}": {},
  "{\"x\":\"f32[131072,4096]\",\"labels\":\"i32[131072]\",\"w\":\"bf16[4096,128256]\",\"reduction\":\"mean\",\"return_residuals\":true}": {},
  "{\"x\":\"bf16[131072,4096]\",\"labels\":\"i32[131072]\",\"w\":\"bf16[4096,128256]\",\"reduction\":\"sum\",\"return_residuals\":false}": {},
  "{\"x\":\"bf16[131072,4096]\",\"labels\":\"i32[131072]\",\"w\":\"bf16[4096,128256]\",\"reduction\":\"sum\",\"return_residuals\":true}": {},
  "{\"x\":\"f32[131072,4096]\",\"labels\":\"i32[131072]\",\"w\":\"bf16[4096,128256]\",\"reduction\":\"sum\",\"return_residuals\":false}": {},
  "{\"x\":\"f32[131072,4096]\",\"labels\":\"i32[131072]\",\"w\":\"bf16[4096,128256]\",\"reduction\":\"sum\",\"return_residuals\":true}": {},
  "{\"x\":\"bf16[4096,7168]\",\"labels\":\"i32[4096]\",\"w\":\"bf16[7168,128256]\",\"reduction\":\"mean\",\"return_residuals\":false}": {
    "{}": {
      "compile_time_ms": 1251.5605959997629,
      "lower_time_ms": 22.093241000220587,
      "evaluation_times_ms": [
        10.136949,
        10.176789,
        10.069429,
        10.744022000000001,
        11.263095
      ],
      "metadata": {},
      "peak_memory_mb": 2981.642244
    }
  },
  "{\"x\":\"bf16[4096,7168]\",\"labels\":\"i32[4096]\",\"w\":\"bf16[7168,128256]\",\"reduction\":\"mean\",\"return_residuals\":true}": {
    "{}": {
      "compile_time_ms": 211.20331600013742,
      "lower_time_ms": 10.200221999639325,
      "evaluation_times_ms": [
        10.442581,
        10.511093,
        11.136182,
        11.13743,
        11.552662999999999
      ],
      "metadata": {},
      "peak_memory_mb": 2981.650452
    }
  },
  "{\"x\":\"f32[4096,7168]\",\"labels\":\"i32[4096]\",\"w\":\"bf16[7168,128256]\",\"reduction\":\"mean\",\"return_residuals\":false}": {
    "{}": {
      "compile_time_ms": 2536.4471779998894,
      "lower_time_ms": 17.938893000064127,
      "evaluation_times_ms": [
        21.331436999999998,
        21.954285000000002,
        23.299664,
        23.082832,
        22.425391
      ],
      "metadata": {},
      "peak_memory_mb": 7768.391684
    }
  },
  "{\"x\":\"f32[4096,7168]\",\"labels\":\"i32[4096]\",\"w\":\"bf16[7168,128256]\",\"reduction\":\"mean\",\"return_residuals\":true}": {
    "{}": {
      "compile_time_ms": 165.60284900015176,
      "lower_time_ms": 9.915163999721699,
      "evaluation_times_ms": [
        21.98245,
        21.953298999999998,
        25.045849,
        22.89762,
        23.941398
      ],
      "metadata": {},
      "peak_memory_mb": 7768.408084
    }
  },
  "{\"x\":\"bf16[4096,7168]\",\"labels\":\"i32[4096]\",\"w\":\"bf16[7168,128256]\",\"reduction\":\"sum\",\"return_residuals\":false}": {
    "{}": {
      "compile_time_ms": 123.98951400018632,
      "lower_time_ms": 11.631016000137606,
      "evaluation_times_ms": [
        10.104855,
        10.036598,
        10.849495999999998,
        10.837016,
        11.284089
      ],
      "metadata": {},
      "peak_memory_mb": 2981.642244
    }
  },
  "{\"x\":\"bf16[4096,7168]\",\"labels\":\"i32[4096]\",\"w\":\"bf16[7168,128256]\",\"reduction\":\"sum\",\"return_residuals\":true}": {
    "{}": {
      "compile_time_ms": 123.83452199992462,
      "lower_time_ms": 10.123861000010947,
      "evaluation_times_ms": [
        10.396087,
        10.502551,
        11.615929,
        11.435065999999999,
        11.302105000000001
      ],
      "metadata": {},
      "peak_memory_mb": 2981.650452
    }
  },
  "{\"x\":\"f32[4096,7168]\",\"labels\":\"i32[4096]\",\"w\":\"bf16[7168,128256]\",\"reduction\":\"sum\",\"return_residuals\":false}": {
    "{}": {
      "compile_time_ms": 71.8183379999573,
      "lower_time_ms": 11.68234399983703,
      "evaluation_times_ms": [
        21.250958,
        22.504848,
        22.51368,
        21.955599,
        24.367125
      ],
      "metadata": {},
      "peak_memory_mb": 7768.391684
    }
  },
  "{\"x\":\"f32[4096,7168]\",\"labels\":\"i32[4096]\",\"w\":\"bf16[7168,128256]\",\"reduction\":\"sum\",\"return_residuals\":true}": {
    "{}": {
      "compile_time_ms": 518.6435739999524,
      "lower_time_ms": 20.09404499995071,
      "evaluation_times_ms": [
        22.21922,
        23.640875,
        23.27655,
        22.414136,
        23.942352
      ],
      "metadata": {},
      "peak_memory_mb": 7768.408084
    }
  },
  "{\"x\":\"bf16[8192,7168]\",\"labels\":\"i32[8192]\",\"w\":\"bf16[7168,128256]\",\"reduction\":\"mean\",\"return_residuals\":false}": {
    "{}": {
      "compile_time_ms": 2018.6566970078275,
      "lower_time_ms": 22.12515997234732,
      "evaluation_times_ms": [
        21.211049,
        21.899463,
        24.046049,
        22.544229,
        23.856898
      ],
      "metadata": {},
      "peak_memory_mb": 4091.052036
    }
  },
  "{\"x\":\"bf16[8192,7168]\",\"labels\":\"i32[8192]\",\"w\":\"bf16[7168,128256]\",\"reduction\":\"mean\",\"return_residuals\":true}": {
    "{}": {
      "compile_time_ms": 355.3755320608616,
      "lower_time_ms": 9.916428942233324,
      "evaluation_times_ms": [
        22.027943999999998,
        22.071816,
        23.91402,
        23.960962,
        23.828227000000002
      ],
      "metadata": {},
      "peak_memory_mb": 4091.068436
    }
  },
  "{\"x\":\"f32[8192,7168]\",\"labels\":\"i32[8192]\",\"w\":\"bf16[7168,128256]\",\"reduction\":\"mean\",\"return_residuals\":false}": {
    "{}": {
      "compile_time_ms": 4683.20850294549,
      "lower_time_ms": 17.254956997931004,
      "evaluation_times_ms": [
        45.129813,
        47.903534,
        47.862221999999996,
        47.862254,
        48.009741
      ],
      "metadata": {},
      "peak_memory_mb": 9987.194884
    }
  },
  "{\"x\":\"f32[8192,7168]\",\"labels\":\"i32[8192]\",\"w\":\"bf16[7168,128256]\",\"reduction\":\"mean\",\"return_residuals\":true}": {
    "{}": {
      "compile_time_ms": 280.01628804486245,
      "lower_time_ms": 9.40550398081541,
      "evaluation_times_ms": [
        47.054697999999995,
        46.356268,
        47.151914,
        46.749131000000006,
        46.749483999999995
      ],
      "metadata": {},
      "peak_memory_mb": 9987.227668
    }
  },
  "{\"x\":\"bf16[8192,7168]\",\"labels\":\"i32[8192]\",\"w\":\"bf16[7168,128256]\",\"reduction\":\"sum\",\"return_residuals\":false}": {
    "{}": {
      "compile_time_ms": 132.04349495936185,
      "lower_time_ms": 11.56192203052342,
      "evaluation_times_ms": [
        21.242637,
        21.349901,
        24.056838,
        23.165384,
        23.848103
      ],
      "metadata": {},
      "peak_memory_mb": 4091.052036
    }
  },
  "{\"x\":\"bf16[8192,7168]\",\"labels\":\"i32[8192]\",\"w\":\"bf16[7168,128256]\",\"reduction\":\"sum\",\"return_residuals\":true}": {
    "{}": {
      "compile_time_ms": 133.08909710031003,
      "lower_time_ms": 10.080752079375088,
      "evaluation_times_ms": [
        21.909031,
        22.610822,
        24.146849,
        23.211044,
        24.021058
      ],
      "metadata": {},
      "peak_memory_mb": 4091.068436
    }
  },
  "{\"x\":\"f32[8192,7168]\",\"labels\":\"i32[8192]\",\"w\":\"bf16[7168,128256]\",\"reduction\":\"sum\",\"return_residuals\":false}": {
    "{}": {
      "compile_time_ms": 69.713335018605,
      "lower_time_ms": 11.551824980415404,
      "evaluation_times_ms": [
        44.090639,
        45.710859,
        46.351978,
        46.889833,
        46.202986
      ],
      "metadata": {},
      "peak_memory_mb": 9987.194884
    }
  },
  "{\"x\":\"f32[8192,7168]\",\"labels\":\"i32[8192]\",\"w\":\"bf16[7168,128256]\",\"reduction\":\"sum\",\"return_residuals\":true}": {
    "{}": {
      "compile_time_ms": 71.05895108543336,
      "lower_time_ms": 9.727603988721967,
      "evaluation_times_ms": [
        44.933358999999996,
        48.480422999999995,
        48.276553,
        46.266702,
        48.161386
      ],
      "metadata": {},
      "peak_memory_mb": 9987.227668
    }
  },
  "{\"x\":\"bf16[16384,7168]\",\"labels\":\"i32[16384]\",\"w\":\"bf16[7168,128256]\",\"reduction\":\"mean\",\"return_residuals\":false}": {
    "{}": {
      "compile_time_ms": 3855.452596093528,
      "lower_time_ms": 18.744644010439515,
      "evaluation_times_ms": [
        47.157421,
        47.02443,
        47.176526,
        48.49992,
        47.955697
      ],
      "metadata": {},
      "peak_memory_mb": 6309.87162
    }
  },
  "{\"x\":\"bf16[16384,7168]\",\"labels\":\"i32[16384]\",\"w\":\"bf16[7168,128256]\",\"reduction\":\"mean\",\"return_residuals\":true}": {
    "{}": {
      "compile_time_ms": 389.54242994077504,
      "lower_time_ms": 10.095942998304963,
      "evaluation_times_ms": [
        48.605191000000005,
        48.195783,
        47.667529,
        47.038347,
        49.5705
      ],
      "metadata": {},
      "peak_memory_mb": 6309.904404
    }
  },
  "{\"x\":\"f32[16384,7168]\",\"labels\":\"i32[16384]\",\"w\":\"bf16[7168,128256]\",\"reduction\":\"mean\",\"return_residuals\":false}": {
    "{}": {
      "compile_time_ms": 200857.9036440933,
      "lower_time_ms": 17.290879972279072,
      "evaluation_times_ms": [
        92.64887200000001,
        93.989092,
        94.873699,
        93.839557,
        107.86886299999999
      ],
      "metadata": {},
      "peak_memory_mb": 14424.801284
    }
  },
  "{\"x\":\"f32[16384,7168]\",\"labels\":\"i32[16384]\",\"w\":\"bf16[7168,128256]\",\"reduction\":\"mean\",\"return_residuals\":true}": {
    "{}": {
      "compile_time_ms": 288.89642597641796,
      "lower_time_ms": 10.230966960079968,
      "evaluation_times_ms": [
        94.686709,
        96.483184,
        93.464216,
        96.27608000000001,
        107.916912
      ],
      "metadata": {},
      "peak_memory_mb": 14424.866836
    }
  },
  "{\"x\":\"bf16[16384,7168]\",\"labels\":\"i32[16384]\",\"w\":\"bf16[7168,128256]\",\"reduction\":\"sum\",\"return_residuals\":false}": {
    "{}": {
      "compile_time_ms": 122.81958607491106,
      "lower_time_ms": 11.336148018017411,
      "evaluation_times_ms": [
        46.188992,
        46.837758,
        47.261084,
        47.284188,
        46.77923
      ],
      "metadata": {},
      "peak_memory_mb": 6309.87162
    }
  },
  "{\"x\":\"bf16[16384,7168]\",\"labels\":\"i32[16384]\",\"w\":\"bf16[7168,128256]\",\"reduction\":\"sum\",\"return_residuals\":true}": {
    "{}": {
      "compile_time_ms": 124.58147702272981,
      "lower_time_ms": 10.023175040259957,
      "evaluation_times_ms": [
        47.621502,
        49.319449,
        48.760763,
        47.900253,
        47.03152
      ],
      "metadata": {},
      "peak_memory_mb": 6309.904404
    }
  },
  "{\"x\":\"f32[16384,7168]\",\"labels\":\"i32[16384]\",\"w\":\"bf16[7168,128256]\",\"reduction\":\"sum\",\"return_residuals\":false}": {},
  "{\"x\":\"f32[16384,7168]\",\"labels\":\"i32[16384]\",\"w\":\"bf16[7168,128256]\",\"reduction\":\"sum\",\"return_residuals\":true}": {},
  "{\"x\":\"bf16[32768,7168]\",\"labels\":\"i32[32768]\",\"w\":\"bf16[7168,128256]\",\"reduction\":\"mean\",\"return_residuals\":false}": {},
  "{\"x\":\"bf16[32768,7168]\",\"labels\":\"i32[32768]\",\"w\":\"bf16[7168,128256]\",\"reduction\":\"mean\",\"return_residuals\":true}": {},
  "{\"x\":\"bf16[1024,2880]\",\"labels\":\"i32[1024]\",\"w\":\"bf16[2880,201088]\",\"reduction\":\"mean\",\"return_residuals\":false}": {},
  "{\"x\":\"bf16[4096,2880]\",\"labels\":\"i32[4096]\",\"w\":\"bf16[2880,201088]\",\"reduction\":\"mean\",\"return_residuals\":false}": {
    "{}": {
      "compile_time_ms": 886.7482439382002,
      "lower_time_ms": 21.059808903373778,
      "evaluation_times_ms": [
        7.447727,
        7.476751,
        7.58632,
        7.658799,
        7.778192000000001
      ],
      "metadata": {},
      "peak_memory_mb": 2862.743556
    }
  },
  "{\"x\":\"bf16[4096,2880]\",\"labels\":\"i32[4096]\",\"w\":\"bf16[2880,201088]\",\"reduction\":\"mean\",\"return_residuals\":true}": {
    "{}": {
      "compile_time_ms": 347.1417889231816,
      "lower_time_ms": 9.560017962940037,
      "evaluation_times_ms": [
        8.01192,
        8.043569,
        8.038161,
        8.031761,
        8.218225
      ],
      "metadata": {},
      "peak_memory_mb": 2862.751764
    }
  },
  "{\"x\":\"f32[4096,2880]\",\"labels\":\"i32[4096]\",\"w\":\"bf16[2880,201088]\",\"reduction\":\"mean\",\"return_residuals\":false}": {
    "{}": {
      "compile_time_ms": 1956.9676379906014,
      "lower_time_ms": 17.294604098424315,
      "evaluation_times_ms": [
        17.566468,
        17.658341,
        17.906405,
        18.758407,
        18.616198
      ],
      "metadata": {},
      "peak_memory_mb": 6850.183172
    }
  },
  "{\"x\":\"f32[4096,2880]\",\"labels\":\"i32[4096]\",\"w\":\"bf16[2880,201088]\",\"reduction\":\"mean\",\"return_residuals\":true}": {
    "{}": {
      "compile_time_ms": 259.8176010651514,
      "lower_time_ms": 9.600394987501204,
      "evaluation_times_ms": [
        18.591563,
        18.786411,
        19.694925,
        19.568941,
        19.566477
      ],
      "metadata": {},
      "peak_memory_mb": 6850.199572
    }
  },
  "{\"x\":\"bf16[4096,2880]\",\"labels\":\"i32[4096]\",\"w\":\"bf16[2880,201088]\",\"reduction\":\"sum\",\"return_residuals\":false}": {
    "{}": {
      "compile_time_ms": 69.50759096071124,
      "lower_time_ms": 10.957287973724306,
      "evaluation_times_ms": [
        7.4485600000000005,
        7.439985,
        7.461553,
        7.461232,
        7.4916
      ],
      "metadata": {},
      "peak_memory_mb": 2862.743556
    }
  },
  "{\"x\":\"bf16[4096,2880]\",\"labels\":\"i32[4096]\",\"w\":\"bf16[2880,201088]\",\"reduction\":\"sum\",\"return_residuals\":true}": {
    "{}": {
      "compile_time_ms": 68.95730597898364,
      "lower_time_ms": 9.6893539885059,
      "evaluation_times_ms": [
        8.012914,
        8.035473,
        8.052337,
        8.050673,
        8.248978000000001
      ],
      "metadata": {},
      "peak_memory_mb": 2862.751764
    }
  },
  "{\"x\":\"f32[4096,2880]\",\"labels\":\"i32[4096]\",\"w\":\"bf16[2880,201088]\",\"reduction\":\"sum\",\"return_residuals\":false}": {
    "{}": {
      "compile_time_ms": 64.46181004866958,
      "lower_time_ms": 10.875948006287217,
      "evaluation_times_ms": [
        17.485478999999998,
        17.527272,
        18.071496,
        18.497354,
        18.708202
      ],
      "metadata": {},
      "peak_memory_mb": 6850.183172
    }
  },
  "{\"x\":\"f32[4096,2880]\",\"labels\":\"i32[4096]\",\"w\":\"bf16[2880,201088]\",\"reduction\":\"sum\",\"return_residuals\":true}": {
    "{}": {
      "compile_time_ms": 66.96647696662694,
      "lower_time_ms": 9.386462974362075,
      "evaluation_times_ms": [
        18.599688999999998,
        18.683146,
        19.012139,
        18.896266,
        18.697194
      ],
      "metadata": {},
      "peak_memory_mb": 6850.199572
    }
  },
  "{\"x\":\"bf16[8192,2880]\",\"labels\":\"i32[8192]\",\"w\":\"bf16[2880,201088]\",\"reduction\":\"mean\",\"return_residuals\":false}": {
    "{}": {
      "compile_time_ms": 180663.55853900313,
      "lower_time_ms": 17.904071020893753,
      "evaluation_times_ms": [
        15.124002,
        15.209442,
        15.800868000000001,
        16.399845,
        16.051555999999998
      ],
      "metadata": {},
      "peak_memory_mb": 4533.665796
    }
  },
  "{\"x\":\"bf16[8192,2880]\",\"labels\":\"i32[8192]\",\"w\":\"bf16[2880,201088]\",\"reduction\":\"mean\",\"return_residuals\":true}": {
    "{}": {
      "compile_time_ms": 559.8596790805459,
      "lower_time_ms": 21.504668053239584,
      "evaluation_times_ms": [
        16.653973,
        17.073974,
        17.910936,
        18.563257,
        18.565561
      ],
      "metadata": {},
      "peak_memory_mb": 4533.682196
    }
  },
  "{\"x\":\"f32[8192,2880]\",\"labels\":\"i32[8192]\",\"w\":\"bf16[2880,201088]\",\"reduction\":\"mean\",\"return_residuals\":false}": {
    "{}": {
      "compile_time_ms": 3184.800059068948,
      "lower_time_ms": 17.13359507266432,
      "evaluation_times_ms": [
        34.700331,
        37.698255,
        37.790575000000004,
        37.838958999999996,
        38.519344
      ],
      "metadata": {},
      "peak_memory_mb": 10192.011268
    }
  },
  "{\"x\":\"f32[8192,2880]\",\"labels\":\"i32[8192]\",\"w\":\"bf16[2880,201088]\",\"reduction\":\"mean\",\"return_residuals\":true}": {
    "{}": {
      "compile_time_ms": 272.4985401146114,
      "lower_time_ms": 9.640344069339335,
      "evaluation_times_ms": [
        38.589822,
        39.523007,
        39.802687,
        39.246462,
        39.13875
      ],
      "metadata": {},
      "peak_memory_mb": 10192.044052
    }
  },
  "{\"x\":\"bf16[8192,2880]\",\"labels\":\"i32[8192]\",\"w\":\"bf16[2880,201088]\",\"reduction\":\"sum\",\"return_residuals\":false}": {
    "{}": {
      "compile_time_ms": 179.2564271017909,
      "lower_time_ms": 10.8356709824875,
      "evaluation_times_ms": [
        15.524859000000001,
        15.682011,
        16.837821,
        17.33795,
        17.096958
      ],
      "metadata": {},
      "peak_memory_mb": 4533.665796
    }
  },
  "{\"x\":\"bf16[8192,2880]\",\"labels\":\"i32[8192]\",\"w\":\"bf16[2880,201088]\",\"reduction\":\"sum\",\"return_residuals\":true}": {
    "{}": {
      "compile_time_ms": 186.17559492122382,
      "lower_time_ms": 9.908041916787624,
      "evaluation_times_ms": [
        16.657529,
        16.986905,
        16.993274,
        18.576156,
        18.736188
      ],
      "metadata": {},
      "peak_memory_mb": 4533.682196
    }
  },
  "{\"x\":\"f32[8192,2880]\",\"labels\":\"i32[8192]\",\"w\":\"bf16[2880,201088]\",\"reduction\":\"sum\",\"return_residuals\":false}": {
    "{}": {
      "compile_time_ms": 66.94155291188508,
      "lower_time_ms": 10.805557016283274,
      "evaluation_times_ms": [
        34.350581,
        37.934299,
        36.894871,
        37.471386,
        37.528538
      ],
      "metadata": {},
      "peak_memory_mb": 10192.011268
    }
  },
  "{\"x\":\"f32[8192,2880]\",\"labels\":\"i32[8192]\",\"w\":\"bf16[2880,201088]\",\"reduction\":\"sum\",\"return_residuals\":true}": {
    "{}": {
      "compile_time_ms": 65.85809797979891,
      "lower_time_ms": 9.328728076070547,
      "evaluation_times_ms": [
        37.183323,
        39.551007,
        39.462815,
        39.332671,
        39.14211
      ],
      "metadata": {},
      "peak_memory_mb": 10192.044052
    }
  },
  "{\"x\":\"bf16[16384,2880]\",\"labels\":\"i32[16384]\",\"w\":\"bf16[2880,201088]\",\"reduction\":\"mean\",\"return_residuals\":false}": {
    "{}": {
      "compile_time_ms": 2768.1629619328305,
      "lower_time_ms": 18.089495017193258,
      "evaluation_times_ms": [
        31.955256000000002,
        34.879324000000004,
        35.277149,
        34.777084,
        34.357116
      ],
      "metadata": {},
      "peak_memory_mb": 7875.510276
    }
  },
  "{\"x\":\"bf16[16384,2880]\",\"labels\":\"i32[16384]\",\"w\":\"bf16[2880,201088]\",\"reduction\":\"mean\",\"return_residuals\":true}": {
    "{}": {
      "compile_time_ms": 306.2819829210639,
      "lower_time_ms": 9.925586986355484,
      "evaluation_times_ms": [
        34.827678,
        37.98906,
        37.066626,
        37.137186,
        36.753057
      ],
      "metadata": {},
      "peak_memory_mb": 7875.54306
    }
  },
  "{\"x\":\"f32[16384,2880]\",\"labels\":\"i32[16384]\",\"w\":\"bf16[2880,201088]\",\"reduction\":\"mean\",\"return_residuals\":false}": {
    "{}": {
      "compile_time_ms": 190776.34163596667,
      "lower_time_ms": 16.70988800469786,
      "evaluation_times_ms": [
        73.995427,
        73.560897,
        73.724834,
        73.706242,
        73.646049
      ],
      "metadata": {},
      "peak_memory_mb": 16875.66746
    }
  },
  "{\"x\":\"f32[16384,2880]\",\"labels\":\"i32[16384]\",\"w\":\"bf16[2880,201088]\",\"reduction\":\"mean\",\"return_residuals\":true}": {
    "{}": {
      "compile_time_ms": 220.34259501378983,
      "lower_time_ms": 9.669673978351057,
      "evaluation_times_ms": [
        79.146186,
        78.694858,
        77.77332,
        77.908232,
        77.37364
      ],
      "metadata": {},
      "peak_memory_mb": 16875.733012
    }
  },
  "{\"x\":\"bf16[16384,2880]\",\"labels\":\"i32[16384]\",\"w\":\"bf16[2880,201088]\",\"reduction\":\"sum\",\"return_residuals\":false}": {
    "{}": {
      "compile_time_ms": 65.37487800233066,
      "lower_time_ms": 10.985150001943111,
      "evaluation_times_ms": [
        33.013068000000004,
        34.274191,
        35.31928,
        34.833967,
        34.330894
      ],
      "metadata": {},
      "peak_memory_mb": 7875.510276
    }
  },
  "{\"x\":\"bf16[16384,2880]\",\"labels\":\"i32[16384]\",\"w\":\"bf16[2880,201088]\",\"reduction\":\"sum\",\"return_residuals\":true}": {
    "{}": {
      "compile_time_ms": 65.83339907228947,
      "lower_time_ms": 9.976433939300478,
      "evaluation_times_ms": [
        33.683854000000004,
        38.501044,
        37.273362,
        36.694705,
        36.344561
      ],
      "metadata": {},
      "peak_memory_mb": 7875.54306
    }
  },
  "{\"x\":\"f32[16384,2880]\",\"labels\":\"i32[16384]\",\"w\":\"bf16[2880,201088]\",\"reduction\":\"sum\",\"return_residuals\":false}": {
    "{}": {
      "compile_time_ms": 65.04079501610249,
      "lower_time_ms": 10.713721974752843,
      "evaluation_times_ms": [
        73.41146,
        75.401928,
        74.14886899999999,
        74.344933,
        72.719971
      ],
      "metadata": {},
      "peak_memory_mb": 16875.66746
    }
  },
  "{\"x\":\"f32[16384,2880]\",\"labels\":\"i32[16384]\",\"w\":\"bf16[2880,201088]\",\"reduction\":\"sum\",\"return_residuals\":true}": {
    "{}": {
      "compile_time_ms": 67.28654797188938,
      "lower_time_ms": 9.416671935468912,
      "evaluation_times_ms": [
        78.27352,
        77.114319,
        78.081808,
        78.36171399999999,
        78.3156
      ],
      "metadata": {},
      "peak_memory_mb": 16875.733012
    }
  },
  "{\"x\":\"bf16[32768,2880]\",\"labels\":\"i32[32768]\",\"w\":\"bf16[2880,201088]\",\"reduction\":\"mean\",\"return_residuals\":false}": {
    "{}": {
      "compile_time_ms": 180495.4550419934,
      "lower_time_ms": 17.873762059025466,
      "evaluation_times_ms": [
        69.93581,
        69.061216,
        68.702943,
        69.587393,
        68.689568
      ],
      "metadata": {},
      "peak_memory_mb": 14583.578628
    }
  },
  "{\"x\":\"bf16[32768,2880]\",\"labels\":\"i32[32768]\",\"w\":\"bf16[2880,201088]\",\"reduction\":\"mean\",\"return_residuals\":true}": {
    "{}": {
      "compile_time_ms": 319.87673602998257,
      "lower_time_ms": 10.219376999884844,
      "evaluation_times_ms": [
        73.73965700000001,
        73.7218,
        73.386089,
        74.388682,
        73.557256
      ],
      "metadata": {},
      "peak_memory_mb": 14583.578644
    }
  },
  "{\"x\":\"f32[32768,2880]\",\"labels\":\"i32[32768]\",\"w\":\"bf16[2880,201088]\",\"reduction\":\"mean\",\"return_residuals\":false}": {},
  "{\"x\":\"f32[32768,2880]\",\"labels\":\"i32[32768]\",\"w\":\"bf16[2880,201088]\",\"reduction\":\"mean\",\"return_residuals\":true}": {},
  "{\"x\":\"bf16[32768,2880]\",\"labels\":\"i32[32768]\",\"w\":\"bf16[2880,201088]\",\"reduction\":\"sum\",\"return_residuals\":false}": {
    "{}": {
      "compile_time_ms": 68.9706050325185,
      "lower_time_ms": 11.571361916139722,
      "evaluation_times_ms": [
        69.603711,
        69.00070199999999,
        69.136798,
        67.45814,
        68.245789
      ],
      "metadata": {},
      "peak_memory_mb": 14583.578628
    }
  },
  "{\"x\":\"bf16[32768,2880]\",\"labels\":\"i32[32768]\",\"w\":\"bf16[2880,201088]\",\"reduction\":\"sum\",\"return_residuals\":true}": {},
  "{\"x\":\"f32[32768,2880]\",\"labels\":\"i32[32768]\",\"w\":\"bf16[2880,201088]\",\"reduction\":\"sum\",\"return_residuals\":false}": {},
  "{\"x\":\"f32[32768,2880]\",\"labels\":\"i32[32768]\",\"w\":\"bf16[2880,201088]\",\"reduction\":\"sum\",\"return_residuals\":true}": {},
  "{\"x\":\"bf16[1024,5120]\",\"labels\":\"i32[1024]\",\"w\":\"bf16[5120,151936]\",\"reduction\":\"mean\",\"return_residuals\":false}": {
    "{}": {
      "compile_time_ms": 486.70530691742897,
      "lower_time_ms": 18.93337001092732,
      "evaluation_times_ms": [
        2.301539,
        2.302436,
        2.306052,
        2.305635,
        2.307235
      ],
      "metadata": {},
      "peak_memory_mb": 1911.03386
    }
  },
  "{\"x\":\"bf16[1024,5120]\",\"labels\":\"i32[1024]\",\"w\":\"bf16[5120,151936]\",\"reduction\":\"mean\",\"return_residuals\":true}": {
    "{}": {
      "compile_time_ms": 232.1271690307185,
      "lower_time_ms": 9.864942985586822,
      "evaluation_times_ms": [
        2.411747,
        2.413508,
        2.412355,
        2.4116839999999997,
        2.414468
      ],
      "metadata": {},
      "peak_memory_mb": 1911.035924
    }
  },
  "{\"x\":\"f32[1024,5120]\",\"labels\":\"i32[1024]\",\"w\":\"bf16[5120,151936]\",\"reduction\":\"mean\",\"return_residuals\":false}": {
    "{}": {
      "compile_time_ms": 1072.9789369506761,
      "lower_time_ms": 20.360553986392915,
      "evaluation_times_ms": [
        5.9778649999999995,
        5.981320999999999,
        5.983592,
        5.982824,
        5.989576
      ],
      "metadata": {},
      "peak_memory_mb": 5344.333828
    }
  },
  "{\"x\":\"f32[1024,5120]\",\"labels\":\"i32[1024]\",\"w\":\"bf16[5120,151936]\",\"reduction\":\"mean\",\"return_residuals\":true}": {
    "{}": {
      "compile_time_ms": 237.31135309208184,
      "lower_time_ms": 9.317982010543346,
      "evaluation_times_ms": [
        6.171721,
        6.178186,
        6.175114,
        6.180649,
        6.187177999999999
      ],
      "metadata": {},
      "peak_memory_mb": 5344.33794
    }
  },
  "{\"x\":\"bf16[1024,5120]\",\"labels\":\"i32[1024]\",\"w\":\"bf16[5120,151936]\",\"reduction\":\"sum\",\"return_residuals\":false}": {
    "{}": {
      "compile_time_ms": 61.95744196884334,
      "lower_time_ms": 11.50503195822239,
      "evaluation_times_ms": [
        2.299203,
        2.300419,
        2.30426,
        2.305156,
        2.3044189999999998
      ],
      "metadata": {},
      "peak_memory_mb": 1911.03386
    }
  },
  "{\"x\":\"bf16[1024,5120]\",\"labels\":\"i32[1024]\",\"w\":\"bf16[5120,151936]\",\"reduction\":\"sum\",\"return_residuals\":true}": {
    "{}": {
      "compile_time_ms": 63.72452701907605,
      "lower_time_ms": 9.654424036853015,
      "evaluation_times_ms": [
        2.406116,
        2.411235,
        2.408516,
        2.41402,
        2.412163
      ],
      "metadata": {},
      "peak_memory_mb": 1911.035924
    }
  },
  "{\"x\":\"f32[1024,5120]\",\"labels\":\"i32[1024]\",\"w\":\"bf16[5120,151936]\",\"reduction\":\"sum\",\"return_residuals\":false}": {
    "{}": {
      "compile_time_ms": 67.26110598538071,
      "lower_time_ms": 11.017485987395048,
      "evaluation_times_ms": [
        5.959976999999999,
        5.961386,
        5.964906,
        5.963497,
        5.972522
      ],
      "metadata": {},
      "peak_memory_mb": 5344.333828
    }
  },
  "{\"x\":\"f32[1024,5120]\",\"labels\":\"i32[1024]\",\"w\":\"bf16[5120,151936]\",\"reduction\":\"sum\",\"return_residuals\":true}": {
    "{}": {
      "compile_time_ms": 395.4069659812376,
      "lower_time_ms": 20.130401011556387,
      "evaluation_times_ms": [
        6.11594,
        6.107682,
        6.116995,
        6.117891,
        6.118274
      ],
      "metadata": {},
      "peak_memory_mb": 5344.33794
    }
  },
  "{\"x\":\"bf16[2048,5120]\",\"labels\":\"i32[2048]\",\"w\":\"bf16[5120,151936]\",\"reduction\":\"mean\",\"return_residuals\":false}": {
    "{}": {
      "compile_time_ms": 992.170865999924,
      "lower_time_ms": 22.35811200034732,
      "evaluation_times_ms": [
        4.503805,
        4.509212,
        4.515132,
        4.540988,
        4.556732
      ],
      "metadata": {},
      "peak_memory_mb": 2232.688644
    }
  },
  "{\"x\":\"bf16[2048,5120]\",\"labels\":\"i32[2048]\",\"w\":\"bf16[5120,151936]\",\"reduction\":\"mean\",\"return_residuals\":true}": {
    "{}": {
      "compile_time_ms": 377.32202200004394,
      "lower_time_ms": 10.43537900022784,
      "evaluation_times_ms": [
        4.708858,
        4.714138,
        4.729626,
        4.73193,
        4.73609
      ],
      "metadata": {},
      "peak_memory_mb": 2232.692756
    }
  },
  "{\"x\":\"f32[2048,5120]\",\"labels\":\"i32[2048]\",\"w\":\"bf16[5120,151936]\",\"reduction\":\"mean\",\"return_residuals\":false}": {
    "{}": {
      "compile_time_ms": 1581.6566950002198,
      "lower_time_ms": 17.923084000358358,
      "evaluation_times_ms": [
        10.316525,
        10.319949000000001,
        10.318509,
        10.256462,
        10.716298
      ],
      "metadata": {},
      "peak_memory_mb": 5987.6393
    }
  },
  "{\"x\":\"f32[2048,5120]\",\"labels\":\"i32[2048]\",\"w\":\"bf16[5120,151936]\",\"reduction\":\"mean\",\"return_residuals\":true}": {
    "{}": {
      "compile_time_ms": 322.32297900009144,
      "lower_time_ms": 10.230889000013121,
      "evaluation_times_ms": [
        10.714220000000001,
        10.672653,
        10.677933,
        11.019593,
        11.105737
      ],
      "metadata": {},
      "peak_memory_mb": 5987.647508
    }
  },
  "{\"x\":\"bf16[2048,5120]\",\"labels\":\"i32[2048]\",\"w\":\"bf16[5120,151936]\",\"reduction\":\"sum\",\"return_residuals\":false}": {
    "{}": {
      "compile_time_ms": 73.96336700003303,
      "lower_time_ms": 11.693677999573993,
      "evaluation_times_ms": [
        4.49446,
        4.5015,
        4.507356,
        4.511132,
        4.54166
      ],
      "metadata": {},
      "peak_memory_mb": 2232.688644
    }
  },
  "{\"x\":\"bf16[2048,5120]\",\"labels\":\"i32[2048]\",\"w\":\"bf16[5120,151936]\",\"reduction\":\"sum\",\"return_residuals\":true}": {
    "{}": {
      "compile_time_ms": 76.34187199982989,
      "lower_time_ms": 10.320717000013246,
      "evaluation_times_ms": [
        4.714971,
        4.711194,
        4.71561,
        4.719834,
        4.725946
      ],
      "metadata": {},
      "peak_memory_mb": 2232.692756
    }
  },
  "{\"x\":\"f32[2048,5120]\",\"labels\":\"i32[2048]\",\"w\":\"bf16[5120,151936]\",\"reduction\":\"sum\",\"return_residuals\":false}": {
    "{}": {
      "compile_time_ms": 73.51546100017003,
      "lower_time_ms": 12.043594000260782,
      "evaluation_times_ms": [
        10.286572999999999,
        10.296686,
        10.301837,
        10.319022,
        10.335245
      ],
      "metadata": {},
      "peak_memory_mb": 5987.6393
    }
  },
  "{\"x\":\"f32[2048,5120]\",\"labels\":\"i32[2048]\",\"w\":\"bf16[5120,151936]\",\"reduction\":\"sum\",\"return_residuals\":true}": {
    "{}": {
      "compile_time_ms": 79.57153500001368,
      "lower_time_ms": 9.967197999685595,
      "evaluation_times_ms": [
        10.678794,
        10.688619000000001,
        10.714346,
        10.643498,
        10.611212
      ],
      "metadata": {},
      "peak_memory_mb": 5987.647508
    }
  },
  "{\"x\":\"bf16[4096,5120]\",\"labels\":\"i32[4096]\",\"w\":\"bf16[5120,151936]\",\"reduction\":\"mean\",\"return_residuals\":false}": {
    "{}": {
      "compile_time_ms": 1330.8749210000315,
      "lower_time_ms": 18.91050099993663,
      "evaluation_times_ms": [
        9.061622999999999,
        9.080759,
        9.091063,
        9.652243,
        9.651602
      ],
      "metadata": {},
      "peak_memory_mb": 2875.998212
    }
  },
  "{\"x\":\"bf16[4096,5120]\",\"labels\":\"i32[4096]\",\"w\":\"bf16[5120,151936]\",\"reduction\":\"mean\",\"return_residuals\":true}": {
    "{}": {
      "compile_time_ms": 1238.199347000318,
      "lower_time_ms": 10.628758999700949,
      "evaluation_times_ms": [
        9.473749,
        9.521075999999999,
        9.506965000000001,
        10.033009,
        10.113232
      ],
      "metadata": {},
      "peak_memory_mb": 2876.00642
    }
  },
  "{\"x\":\"f32[4096,5120]\",\"labels\":\"i32[4096]\",\"w\":\"bf16[5120,151936]\",\"reduction\":\"mean\",\"return_residuals\":false}": {
    "{}": {
      "compile_time_ms": 2413.059263999912,
      "lower_time_ms": 18.120286999874224,
      "evaluation_times_ms": [
        19.246374,
        20.245983,
        20.080512,
        19.874242,
        19.675012
      ],
      "metadata": {},
      "peak_memory_mb": 7274.250244
    }
  },
  "{\"x\":\"f32[4096,5120]\",\"labels\":\"i32[4096]\",\"w\":\"bf16[5120,151936]\",\"reduction\":\"mean\",\"return_residuals\":true}": {
    "{}": {
      "compile_time_ms": 285.28165099987746,
      "lower_time_ms": 10.276972000156093,
      "evaluation_times_ms": [
        19.918661,
        21.21846,
        21.159931999999998,
        20.655872,
        20.351554
      ],
      "metadata": {},
      "peak_memory_mb": 7274.266644
    }
  },
  "{\"x\":\"bf16[4096,5120]\",\"labels\":\"i32[4096]\",\"w\":\"bf16[5120,151936]\",\"reduction\":\"sum\",\"return_residuals\":false}": {
    "{}": {
      "compile_time_ms": 73.08405899993886,
      "lower_time_ms": 11.627488999693014,
      "evaluation_times_ms": [
        9.039035,
        9.074554000000001,
        9.141912999999999,
        9.139001,
        9.749493
      ],
      "metadata": {},
      "peak_memory_mb": 2875.998212
    }
  },
  "{\"x\":\"bf16[4096,5120]\",\"labels\":\"i32[4096]\",\"w\":\"bf16[5120,151936]\",\"reduction\":\"sum\",\"return_residuals\":true}": {
    "{}": {
      "compile_time_ms": 79.66037799997139,
      "lower_time_ms": 10.291217000030883,
      "evaluation_times_ms": [
        9.469366,
        9.484598,
        9.493431000000001,
        10.124305,
        10.119280999999999
      ],
      "metadata": {},
      "peak_memory_mb": 2876.00642
    }
  },
  "{\"x\":\"f32[4096,5120]\",\"labels\":\"i32[4096]\",\"w\":\"bf16[5120,151936]\",\"reduction\":\"sum\",\"return_residuals\":false}": {
    "{}": {
      "compile_time_ms": 72.00109099994734,
      "lower_time_ms": 11.712495000210765,
      "evaluation_times_ms": [
        19.099788,
        19.123468,
        19.247627,
        19.522889,
        19.501609000000002
      ],
      "metadata": {},
      "peak_memory_mb": 7274.250244
    }
  },
  "{\"x\":\"f32[4096,5120]\",\"labels\":\"i32[4096]\",\"w\":\"bf16[5120,151936]\",\"reduction\":\"sum\",\"return_residuals\":true}": {
    "{}": {
      "compile_time_ms": 77.64275499994255,
      "lower_time_ms": 10.029422000116028,
      "evaluation_times_ms": [
        19.983652,
        20.641726,
        21.541687,
        21.465592,
        20.792669
      ],
      "metadata": {},
      "peak_memory_mb": 7274.266644
    }
  },
  "{\"x\":\"bf16[8192,5120]\",\"labels\":\"i32[8192]\",\"w\":\"bf16[5120,151936]\",\"reduction\":\"mean\",\"return_residuals\":false}": {
    "{}": {
      "compile_time_ms": 1803.4524940003394,
      "lower_time_ms": 18.863838000015676,
      "evaluation_times_ms": [
        18.271569,
        19.044010999999998,
        19.571207,
        20.462176000000003,
        21.003418
      ],
      "metadata": {},
      "peak_memory_mb": 4162.617348
    }
  },
  "{\"x\":\"bf16[8192,5120]\",\"labels\":\"i32[8192]\",\"w\":\"bf16[5120,151936]\",\"reduction\":\"mean\",\"return_residuals\":true}": {
    "{}": {
      "compile_time_ms": 428.4462620003069,
      "lower_time_ms": 10.632373999669653,
      "evaluation_times_ms": [
        19.071600999999998,
        19.839883,
        20.475046,
        21.392478,
        21.953657
      ],
      "metadata": {},
      "peak_memory_mb": 4162.633748
    }
  },
  "{\"x\":\"f32[8192,5120]\",\"labels\":\"i32[8192]\",\"w\":\"bf16[5120,151936]\",\"reduction\":\"mean\",\"return_residuals\":false}": {
    "{}": {
      "compile_time_ms": 3939.0995210001165,
      "lower_time_ms": 18.67750699966564,
      "evaluation_times_ms": [
        38.015295,
        39.785810000000005,
        40.242606,
        40.566475999999994,
        41.649924
      ],
      "metadata": {},
      "peak_memory_mb": 9847.472132
    }
  },
  "{\"x\":\"f32[8192,5120]\",\"labels\":\"i32[8192]\",\"w\":\"bf16[5120,151936]\",\"reduction\":\"mean\",\"return_residuals\":true}": {
    "{}": {
      "compile_time_ms": 264.250935999371,
      "lower_time_ms": 10.354901000027894,
      "evaluation_times_ms": [
        42.183824,
        41.510517,
        42.227216,
        43.847300000000004,
        41.780276
      ],
      "metadata": {},
      "peak_memory_mb": 9847.504916
    }
  },
  "{\"x\":\"bf16[8192,5120]\",\"labels\":\"i32[8192]\",\"w\":\"bf16[5120,151936]\",\"reduction\":\"sum\",\"return_residuals\":false}": {
    "{}": {
      "compile_time_ms": 69.51909399958822,
      "lower_time_ms": 11.674264000248513,
      "evaluation_times_ms": [
        18.27574,
        19.904624000000002,
        21.198279,
        20.991272,
        20.581066999999997
      ],
      "metadata": {},
      "peak_memory_mb": 4162.617348
    }
  },
  "{\"x\":\"bf16[8192,5120]\",\"labels\":\"i32[8192]\",\"w\":\"bf16[5120,151936]\",\"reduction\":\"sum\",\"return_residuals\":true}": {
    "{}": {
      "compile_time_ms": 71.50086399997235,
      "lower_time_ms": 10.779010000078415,
      "evaluation_times_ms": [
        19.108084,
        21.272835999999998,
        21.207589,
        21.380964,
        21.337667000000003
      ],
      "metadata": {},
      "peak_memory_mb": 4162.633748
    }
  },
  "{\"x\":\"f32[8192,5120]\",\"labels\":\"i32[8192]\",\"w\":\"bf16[5120,151936]\",\"reduction\":\"sum\",\"return_residuals\":false}": {
    "{}": {
      "compile_time_ms": 72.12227299987717,
      "lower_time_ms": 11.576828999750433,
      "evaluation_times_ms": [
        39.426235999999996,
        40.709298999999994,
        40.017877999999996,
        40.423955,
        40.012150000000005
      ],
      "metadata": {},
      "peak_memory_mb": 9847.472132
    }
  },
  "{\"x\":\"f32[8192,5120]\",\"labels\":\"i32[8192]\",\"w\":\"bf16[5120,151936]\",\"reduction\":\"sum\",\"return_residuals\":true}": {
    "{}": {
      "compile_time_ms": 78.6994969994339,
      "lower_time_ms": 10.040415000730718,
      "evaluation_times_ms": [
        39.644922,
        41.881544999999996,
        41.369997,
        41.437484,
        42.09348
      ],
      "metadata": {},
      "peak_memory_mb": 9847.504916
    }
  },
  "{\"x\":\"bf16[16384,5120]\",\"labels\":\"i32[16384]\",\"w\":\"bf16[5120,151936]\",\"reduction\":\"mean\",\"return_residuals\":false}": {
    "{}": {
      "compile_time_ms": 180756.06610799968,
      "lower_time_ms": 19.092935999651672,
      "evaluation_times_ms": [
        40.260872,
        40.777571,
        40.904835,
        41.365503,
        42.238137
      ],
      "metadata": {},
      "peak_memory_mb": 6735.85562
    }
  },
  "{\"x\":\"bf16[16384,5120]\",\"labels\":\"i32[16384]\",\"w\":\"bf16[5120,151936]\",\"reduction\":\"mean\",\"return_residuals\":true}": {
    "{}": {
      "compile_time_ms": 392.05043700076203,
      "lower_time_ms": 10.519108999687887,
      "evaluation_times_ms": [
        42.66959,
        42.951251,
        42.933588,
        43.626638,
        42.531351
      ],
      "metadata": {},
      "peak_memory_mb": 6735.888404
    }
  },
  "{\"x\":\"f32[16384,5120]\",\"labels\":\"i32[16384]\",\"w\":\"bf16[5120,151936]\",\"reduction\":\"mean\",\"return_residuals\":false}": {},
  "{\"x\":\"f32[16384,5120]\",\"labels\":\"i32[16384]\",\"w\":\"bf16[5120,151936]\",\"reduction\":\"mean\",\"return_residuals\":true}": {},
  "{\"x\":\"bf16[16384,5120]\",\"labels\":\"i32[16384]\",\"w\":\"bf16[5120,151936]\",\"reduction\":\"sum\",\"return_residuals\":false}": {},
  "{\"x\":\"bf16[16384,5120]\",\"labels\":\"i32[16384]\",\"w\":\"bf16[5120,151936]\",\"reduction\":\"sum\",\"return_residuals\":true}": {}
}
