{
  "{\"residuals\":[\"f32[384,384,1]\",\"f32[384,384,1]\"],\"out\":\"bf16[384,384,64]\",\"dout\":\"bf16[384,384,64]\",\"x\":\"bf16[384,384,64]\",\"scale\":\"f32[64]\",\"offset\":\"f32[64]\",\"axis\":-1,\"epsilon\":1e-6,\"scale_offset\":0.0,\"subtract_mean\":true,\"return_residuals\":false}": {
    "{\"block_m\":32,\"block_n\":null,\"num_warps\":1}": {
      "compile_time_ms": 373.47462200000336,
      "lower_time_ms": 7873.964436999927,
      "evaluation_times_ms": [
        0.024992,
        0.025599,
        0.026113,
        0.025888,
        0.024768000000000002
      ],
      "metadata": {},
      "peak_memory_mb": 79.053848
    }
  },
  "{\"residuals\":[\"f32[384,384,1]\",\"f32[384,384,1]\"],\"out\":\"bf16[384,384,128]\",\"dout\":\"bf16[384,384,128]\",\"x\":\"bf16[384,384,128]\",\"scale\":\"f32[128]\",\"offset\":\"f32[128]\",\"axis\":-1,\"epsilon\":1e-6,\"scale_offset\":0.0,\"subtract_mean\":true,\"return_residuals\":false}": {
    "{\"block_m\":32,\"block_n\":null,\"num_warps\":4}": {
      "compile_time_ms": 220.55485599958047,
      "lower_time_ms": 9981.11853499995,
      "evaluation_times_ms": [
        0.053665,
        0.052768,
        0.0544,
        0.05312,
        0.054495999999999996
      ],
      "metadata": {},
      "peak_memory_mb": 156.928024
    }
  },
  "{\"residuals\":[\"f32[768,768,1]\",\"f32[768,768,1]\"],\"out\":\"bf16[768,768,128]\",\"dout\":\"bf16[768,768,128]\",\"x\":\"bf16[768,768,128]\",\"scale\":\"f32[128]\",\"offset\":\"f32[128]\",\"axis\":-1,\"epsilon\":1e-6,\"scale_offset\":0.0,\"subtract_mean\":true,\"return_residuals\":false}": {
    "{\"block_m\":64,\"block_n\":null,\"num_warps\":4}": {
      "compile_time_ms": 308.1391919986345,
      "lower_time_ms": 498.4207859961316,
      "evaluation_times_ms": [
        0.179391,
        0.17974199999999999,
        0.179071,
        0.177567,
        0.17811
      ],
      "metadata": {},
      "peak_memory_mb": 618.170392
    }
  },
  "{\"residuals\":[\"f32[1,384,384]\",\"f32[1,384,384]\"],\"out\":\"bf16[128,384,384]\",\"dout\":\"bf16[128,384,384]\",\"x\":\"bf16[128,384,384]\",\"scale\":\"f32[128]\",\"offset\":\"f32[128]\",\"axis\":0,\"epsilon\":1e-6,\"scale_offset\":0.0,\"subtract_mean\":true,\"return_residuals\":false}": {
    "{\"block_m\":1,\"block_n\":64,\"num_warps\":4}": {
      "compile_time_ms": 232.53991899991888,
      "lower_time_ms": 9603.033158000017,
      "evaluation_times_ms": [
        0.05408,
        0.053503,
        0.054015999999999995,
        0.053696,
        0.053023999999999995
      ],
      "metadata": {},
      "peak_memory_mb": 154.53596
    }
  },
  "{\"residuals\":[\"f32[1,768,768]\",\"f32[1,768,768]\"],\"out\":\"bf16[128,768,768]\",\"dout\":\"bf16[128,768,768]\",\"x\":\"bf16[128,768,768]\",\"scale\":\"f32[128]\",\"offset\":\"f32[128]\",\"axis\":0,\"epsilon\":1e-6,\"scale_offset\":0.0,\"subtract_mean\":true,\"return_residuals\":false}": {
    "{\"block_m\":1,\"block_n\":64,\"num_warps\":4}": {
      "compile_time_ms": 225.61463400006687,
      "lower_time_ms": 9842.631833000041,
      "evaluation_times_ms": [
        0.20099,
        0.200798,
        0.200062,
        0.200446,
        0.201373
      ],
      "metadata": {},
      "peak_memory_mb": 618.137624
    }
  }
}
