{
  "{\"x\":\"bf16[384,384,64]\",\"scale\":\"f32[64]\",\"offset\":\"f32[64]\",\"axis\":-1,\"epsilon\":1e-6,\"scale_offset\":0.0,\"subtract_mean\":true,\"return_residuals\":false}": {
    "{\"block_m\":32,\"block_n\":null,\"num_warps\":4}": {
      "compile_time_ms": 56.964484999980414,
      "lower_time_ms": 7207.049451000103,
      "evaluation_times_ms": [
        0.008608,
        0.008768,
        0.008896,
        0.008704,
        0.008544
      ],
      "metadata": {},
      "peak_memory_mb": 37.749248
    },
    "{\"block_m\":64,\"block_n\":null,\"num_warps\":4}": {
      "compile_time_ms": 73.32809800004725,
      "lower_time_ms": 2471.512035000046,
      "evaluation_times_ms": [
        0.008416,
        0.008608,
        0.008608,
        0.008512,
        0.00848
      ],
      "metadata": {},
      "peak_memory_mb": 37.749248
    },
    "{\"block_m\":16,\"block_n\":null,\"num_warps\":1}": {
      "compile_time_ms": 78.3862879999333,
      "lower_time_ms": 3435.3189539999676,
      "evaluation_times_ms": [
        0.008447,
        0.008448,
        0.008416,
        0.008608,
        0.008511
      ],
      "metadata": {},
      "peak_memory_mb": 37.749248
    }
  },
  "{\"x\":\"bf16[384,384,64]\",\"scale\":\"f32[64]\",\"offset\":\"f32[64]\",\"axis\":-1,\"epsilon\":1e-6,\"scale_offset\":0.0,\"subtract_mean\":true,\"return_residuals\":true}": {
    "{\"block_m\":64,\"block_n\":null,\"num_warps\":4}": {
      "compile_time_ms": 83.93635699940205,
      "lower_time_ms": 2986.8418409996593,
      "evaluation_times_ms": [
        0.010432,
        0.010656,
        0.011264,
        0.011136,
        0.010944
      ],
      "metadata": {},
      "peak_memory_mb": 38.92892
    }
  },
  "{\"x\":\"bf16[384,384,128]\",\"scale\":\"f32[128]\",\"offset\":\"f32[128]\",\"axis\":-1,\"epsilon\":1e-6,\"scale_offset\":0.0,\"subtract_mean\":true,\"return_residuals\":false}": {
    "{\"block_m\":32,\"block_n\":null,\"num_warps\":1}": {
      "compile_time_ms": 219.7610669536516,
      "lower_time_ms": 750.9129800018854,
      "evaluation_times_ms": [
        0.02352,
        0.023776,
        0.02384,
        0.023904,
        0.024928
      ],
      "metadata": {},
      "peak_memory_mb": 75.498496
    }
  },
  "{\"x\":\"bf16[384,384,128]\",\"scale\":\"f32[128]\",\"offset\":\"f32[128]\",\"axis\":-1,\"epsilon\":1e-6,\"scale_offset\":0.0,\"subtract_mean\":true,\"return_residuals\":true}": {
    "{\"block_m\":16,\"block_n\":null,\"num_warps\":4}": {
      "compile_time_ms": 84.88550399988526,
      "lower_time_ms": 5508.471018999899,
      "evaluation_times_ms": [
        0.026688,
        0.026624,
        0.027008,
        0.026848,
        0.028032
      ],
      "metadata": {},
      "peak_memory_mb": 76.678168
    }
  },
  "{\"x\":\"bf16[768,768,128]\",\"scale\":\"f32[128]\",\"offset\":\"f32[128]\",\"axis\":-1,\"epsilon\":1e-6,\"scale_offset\":0.0,\"subtract_mean\":true,\"return_residuals\":false}": {
    "{\"block_m\":8,\"block_n\":null,\"num_warps\":4}": {
      "compile_time_ms": 71.576142999902,
      "lower_time_ms": 3865.767017000053,
      "evaluation_times_ms": [
        0.099775,
        0.100352,
        0.100672,
        0.098847,
        0.099903
      ],
      "metadata": {},
      "peak_memory_mb": 301.990912
    }
  },
  "{\"x\":\"bf16[768,768,128]\",\"scale\":\"f32[128]\",\"offset\":\"f32[128]\",\"axis\":-1,\"epsilon\":1e-6,\"scale_offset\":0.0,\"subtract_mean\":true,\"return_residuals\":true}": {
    "{\"block_m\":8,\"block_n\":null,\"num_warps\":2}": {
      "compile_time_ms": 84.27994803059846,
      "lower_time_ms": 692.3686679219827,
      "evaluation_times_ms": [
        0.102751,
        0.102944,
        0.103615,
        0.102367,
        0.102591
      ],
      "metadata": {},
      "peak_memory_mb": 306.709528
    }
  },
  "{\"x\":\"bf16[128,384,384]\",\"scale\":\"f32[128]\",\"offset\":\"f32[128]\",\"axis\":0,\"epsilon\":1e-6,\"scale_offset\":0.0,\"subtract_mean\":true,\"return_residuals\":false}": {
    "{\"block_m\":1,\"block_n\":128,\"num_warps\":4}": {
      "compile_time_ms": 276.2168230256066,
      "lower_time_ms": 451.41939201857895,
      "evaluation_times_ms": [
        0.02352,
        0.02336,
        0.022976,
        0.023264,
        0.022976
      ],
      "metadata": {},
      "peak_memory_mb": 75.498496
    }
  },
  "{\"x\":\"bf16[128,384,384]\",\"scale\":\"f32[128]\",\"offset\":\"f32[128]\",\"axis\":0,\"epsilon\":1e-6,\"scale_offset\":0.0,\"subtract_mean\":true,\"return_residuals\":true}": {
    "{\"block_m\":1,\"block_n\":128,\"num_warps\":4}": {
      "compile_time_ms": 286.9659349998983,
      "lower_time_ms": 4463.332394000645,
      "evaluation_times_ms": [
        0.030144,
        0.0296,
        0.029376,
        0.03024,
        0.029696
      ],
      "metadata": {},
      "peak_memory_mb": 76.678168
    }
  }
}
