{
  "{\"lhs\":\"bf16[262144,7168]\",\"rhs\":\"bf16[256,7168,2048]\",\"group_sizes\":{\"num_groups\":256,\"total_size\":262144},\"ragged_dot_dimension_numbers\":{\"dot_dimension_numbers\":[[[1],[1]],[[],[]]],\"lhs_ragged_dimensions\":[0],\"rhs_group_dimensions\":[0]},\"precision\":[\"DEFAULT\",\"DEFAULT\"],\"preferred_element_type\":null,\"return_residuals\":false,\"activation\":null}": {
    "{\"block_m\":128,\"block_n\":64,\"block_k\":128,\"num_stages\":4,\"split_k\":1,\"split_m\":1,\"grid_block_n\":8,\"persistent\":false,\"post_scale\":false,\"collective\":false,\"grid_minor_dim\":1,\"grid_tile_width\":8}": {
      "compile_time_ms": 3928.720476999956,
      "lower_time_ms": 37876.21228000001,
      "evaluation_times_ms": [
        23.3106,
        23.233413000000002,
        23.317351,
        23.348968,
        23.352648000000002
      ],
      "metadata": {},
      "peak_memory_mb": 11776.149349212646
    }
  },
  "{\"lhs\":\"bf16[327680,2880]\",\"rhs\":\"bf16[128,2880,2880]\",\"group_sizes\":{\"num_groups\":128,\"total_size\":327680},\"ragged_dot_dimension_numbers\":{\"dot_dimension_numbers\":[[[1],[1]],[[],[]]],\"lhs_ragged_dimensions\":[0],\"rhs_group_dimensions\":[0]},\"precision\":[\"DEFAULT\",\"DEFAULT\"],\"preferred_element_type\":null,\"return_residuals\":false,\"activation\":null}": {
    "{\"block_m\":128,\"block_n\":64,\"block_k\":128,\"num_stages\":4,\"split_k\":1,\"split_m\":1,\"grid_block_n\":4,\"persistent\":true,\"post_scale\":false,\"collective\":false,\"grid_minor_dim\":1,\"grid_tile_width\":4}": {
      "compile_time_ms": 2063.6300279999773,
      "lower_time_ms": 19158.078982999996,
      "evaluation_times_ms": [
        16.533188,
        16.211523,
        15.29261,
        17.234662999999998,
        14.836065000000001
      ],
      "metadata": {},
      "peak_memory_mb": 5625.071750640869
    }
  },
  "{\"lhs\":\"bf16[393216,2048]\",\"rhs\":\"bf16[128,2048,768]\",\"group_sizes\":{\"num_groups\":128,\"total_size\":393216},\"ragged_dot_dimension_numbers\":{\"dot_dimension_numbers\":[[[1],[1]],[[],[]]],\"lhs_ragged_dimensions\":[0],\"rhs_group_dimensions\":[0]},\"precision\":[\"DEFAULT\",\"DEFAULT\"],\"preferred_element_type\":null,\"return_residuals\":false,\"activation\":null}": {
    "{\"block_m\":128,\"block_n\":64,\"block_k\":128,\"num_stages\":4,\"split_k\":1,\"split_m\":1,\"grid_block_n\":4,\"persistent\":true,\"post_scale\":false,\"collective\":false,\"grid_minor_dim\":1,\"grid_tile_width\":4}": {
      "compile_time_ms": 2370.927246000008,
      "lower_time_ms": 19926.36828899998,
      "evaluation_times_ms": [
        2.73735,
        2.736743,
        2.760775,
        2.741126,
        2.736903
      ],
      "metadata": {},
      "peak_memory_mb": 2496.085422515869
    }
  },
  "{\"lhs\":\"bf16[393216,768]\",\"rhs\":\"bf16[128,768,2048]\",\"group_sizes\":{\"num_groups\":128,\"total_size\":393216},\"ragged_dot_dimension_numbers\":{\"dot_dimension_numbers\":[[[1],[1]],[[],[]]],\"lhs_ragged_dimensions\":[0],\"rhs_group_dimensions\":[0]},\"precision\":[\"DEFAULT\",\"DEFAULT\"],\"preferred_element_type\":null,\"return_residuals\":false,\"activation\":null}": {
    "{\"block_m\":128,\"block_n\":64,\"block_k\":512,\"num_stages\":2,\"split_k\":1,\"split_m\":1,\"grid_block_n\":4,\"persistent\":true,\"post_scale\":false,\"collective\":false,\"grid_minor_dim\":1,\"grid_tile_width\":4}": {
      "compile_time_ms": 1549.5712759998241,
      "lower_time_ms": 23749.99924999997,
      "evaluation_times_ms": [
        3.155845,
        3.1380209999999997,
        3.142501,
        3.133158,
        3.143429
      ],
      "metadata": {},
      "peak_memory_mb": 2496.085422515869
    }
  },
  "{\"lhs\":\"bf16[262144,7168]\",\"rhs\":\"bf16[262144,2048]\",\"group_sizes\":{\"num_groups\":262144,\"total_size\":262144},\"ragged_dot_dimension_numbers\":{\"dot_dimension_numbers\":[[[0],[0]],[[],[]]],\"lhs_ragged_dimensions\":[0],\"rhs_group_dimensions\":[]},\"precision\":[\"DEFAULT\",\"DEFAULT\"],\"preferred_element_type\":null,\"return_residuals\":false,\"activation\":null}": {
    "{\"block_m\":128,\"block_n\":64,\"block_k\":128,\"num_stages\":4,\"split_k\":1,\"split_m\":1,\"grid_block_n\":2,\"persistent\":true,\"post_scale\":false,\"collective\":false,\"grid_minor_dim\":1,\"grid_tile_width\":2}": {
      "compile_time_ms": 99.93959300004462,
      "lower_time_ms": 135.97139699993477,
      "evaluation_times_ms": [
        71.23217199999999,
        71.2331,
        71.23015699999999,
        71.23159600000001,
        71.23364500000001
      ],
      "metadata": {},
      "peak_memory_mb": 15360.001953125
    }
  },
  "{\"lhs\":\"bf16[327680,2880]\",\"rhs\":\"bf16[128,2880,2880]\",\"group_sizes\":{\"num_groups\":128,\"total_size\":327680},\"ragged_dot_dimension_numbers\":{\"dot_dimension_numbers\":[[[1],[2]],[[],[]]],\"lhs_ragged_dimensions\":[0],\"rhs_group_dimensions\":[0]},\"precision\":[\"DEFAULT\",\"DEFAULT\"],\"preferred_element_type\":null,\"return_residuals\":false,\"activation\":null}": {
    "{\"block_m\":128,\"block_n\":64,\"block_k\":128,\"num_stages\":4,\"split_k\":1,\"split_m\":1,\"grid_block_n\":4,\"persistent\":true,\"post_scale\":false,\"collective\":false,\"grid_minor_dim\":1,\"grid_tile_width\":4}": {
      "compile_time_ms": 1525.973840000006,
      "lower_time_ms": 18792.065631000012,
      "evaluation_times_ms": [
        18.038266,
        18.153119,
        18.094285,
        17.702476,
        17.996453
      ],
      "metadata": {},
      "peak_memory_mb": 7650.071750640869
    }
  },
  "{\"lhs\":\"bf16[327680,2880]\",\"rhs\":\"bf16[327680,2880]\",\"group_sizes\":{\"num_groups\":327680,\"total_size\":327680},\"ragged_dot_dimension_numbers\":{\"dot_dimension_numbers\":[[[0],[0]],[[],[]]],\"lhs_ragged_dimensions\":[0],\"rhs_group_dimensions\":[]},\"precision\":[\"DEFAULT\",\"DEFAULT\"],\"preferred_element_type\":null,\"return_residuals\":false,\"activation\":null}": {
    "{\"block_m\":128,\"block_n\":64,\"block_k\":128,\"num_stages\":4,\"split_k\":1,\"split_m\":1,\"grid_block_n\":1,\"persistent\":false,\"post_scale\":false,\"collective\":false,\"grid_minor_dim\":1,\"grid_tile_width\":1}": {
      "compile_time_ms": 100.05463599998166,
      "lower_time_ms": 135.7262839999862,
      "evaluation_times_ms": [
        48.343705,
        48.344408,
        48.333563,
        48.338362,
        48.338043000000006
      ],
      "metadata": {},
      "peak_memory_mb": 7425.0009765625
    }
  },
  "{\"lhs\":\"bf16[393216,768]\",\"rhs\":\"bf16[128,2048,768]\",\"group_sizes\":{\"num_groups\":128,\"total_size\":393216},\"ragged_dot_dimension_numbers\":{\"dot_dimension_numbers\":[[[1],[2]],[[],[]]],\"lhs_ragged_dimensions\":[0],\"rhs_group_dimensions\":[0]},\"precision\":[\"DEFAULT\",\"DEFAULT\"],\"preferred_element_type\":null,\"return_residuals\":false,\"activation\":null}": {
    "{\"block_m\":128,\"block_n\":64,\"block_k\":512,\"num_stages\":4,\"split_k\":1,\"split_m\":1,\"grid_block_n\":4,\"persistent\":true,\"post_scale\":false,\"collective\":false,\"grid_minor_dim\":1,\"grid_tile_width\":4}": {
      "compile_time_ms": 1606.5516339999704,
      "lower_time_ms": 22150.196720999927,
      "evaluation_times_ms": [
        3.380272,
        3.3782560000000004,
        3.3846890000000003,
        3.3806249999999998,
        3.3943849999999998
      ],
      "metadata": {},
      "peak_memory_mb": 2880.085422515869
    }
  },
  "{\"lhs\":\"bf16[393216,2048]\",\"rhs\":\"bf16[393216,768]\",\"group_sizes\":{\"num_groups\":393216,\"total_size\":393216},\"ragged_dot_dimension_numbers\":{\"dot_dimension_numbers\":[[[0],[0]],[[],[]]],\"lhs_ragged_dimensions\":[0],\"rhs_group_dimensions\":[]},\"precision\":[\"DEFAULT\",\"DEFAULT\"],\"preferred_element_type\":null,\"return_residuals\":false,\"activation\":null}": {
    "{\"block_m\":128,\"block_n\":64,\"block_k\":128,\"num_stages\":4,\"split_k\":1,\"split_m\":1,\"grid_block_n\":2,\"persistent\":true,\"post_scale\":false,\"collective\":false,\"grid_minor_dim\":1,\"grid_tile_width\":2}": {
      "compile_time_ms": 101.10100699995428,
      "lower_time_ms": 123.69808399995463,
      "evaluation_times_ms": [
        11.705928,
        11.70452,
        11.709802,
        11.703817,
        11.702535999999998
      ],
      "metadata": {},
      "peak_memory_mb": 4032.0009765625
    }
  },
  "{\"lhs\":\"bf16[393216,2048]\",\"rhs\":\"bf16[128,768,2048]\",\"group_sizes\":{\"num_groups\":128,\"total_size\":393216},\"ragged_dot_dimension_numbers\":{\"dot_dimension_numbers\":[[[1],[2]],[[],[]]],\"lhs_ragged_dimensions\":[0],\"rhs_group_dimensions\":[0]},\"precision\":[\"DEFAULT\",\"DEFAULT\"],\"preferred_element_type\":null,\"return_residuals\":false,\"activation\":null}": {
    "{\"block_m\":128,\"block_n\":64,\"block_k\":128,\"num_stages\":4,\"split_k\":1,\"split_m\":1,\"grid_block_n\":4,\"persistent\":true,\"post_scale\":false,\"collective\":false,\"grid_minor_dim\":1,\"grid_tile_width\":4}": {
      "compile_time_ms": 1500.3258130000177,
      "lower_time_ms": 25481.906898000034,
      "evaluation_times_ms": [
        3.013055,
        3.024032,
        3.099359,
        3.0165439999999997,
        3.0138879999999997
      ],
      "metadata": {},
      "peak_memory_mb": 2880.085422515869
    }
  },
  "{\"lhs\":\"bf16[393216,768]\",\"rhs\":\"bf16[393216,2048]\",\"group_sizes\":{\"num_groups\":393216,\"total_size\":393216},\"ragged_dot_dimension_numbers\":{\"dot_dimension_numbers\":[[[0],[0]],[[],[]]],\"lhs_ragged_dimensions\":[0],\"rhs_group_dimensions\":[]},\"precision\":[\"DEFAULT\",\"DEFAULT\"],\"preferred_element_type\":null,\"return_residuals\":false,\"activation\":null}": {
    "{\"block_m\":128,\"block_n\":64,\"block_k\":128,\"num_stages\":4,\"split_k\":1,\"split_m\":1,\"grid_block_n\":8,\"persistent\":false,\"post_scale\":false,\"collective\":false,\"grid_minor_dim\":1,\"grid_tile_width\":8}": {
      "compile_time_ms": 91.34044800003949,
      "lower_time_ms": 193.7561440000195,
      "evaluation_times_ms": [
        10.945139,
        10.943636,
        10.951025000000001,
        10.950546,
        10.945235
      ],
      "metadata": {},
      "peak_memory_mb": 3072.0009765625
    }
  },
  "{\"lhs\":\"bf16[524288,1536]\",\"rhs\":\"bf16[128,4096,1536]\",\"group_sizes\":{\"num_groups\":128,\"total_size\":524288},\"ragged_dot_dimension_numbers\":{\"dot_dimension_numbers\":[[[1],[2]],[[],[]]],\"lhs_ragged_dimensions\":[0],\"rhs_group_dimensions\":[0]},\"precision\":[\"DEFAULT\",\"DEFAULT\"],\"preferred_element_type\":null,\"return_residuals\":false,\"activation\":null}": {
    "{\"block_m\":128,\"block_n\":64,\"block_k\":128,\"num_stages\":4,\"split_k\":1,\"split_m\":1,\"grid_block_n\":8,\"persistent\":true,\"post_scale\":false,\"collective\":false,\"grid_minor_dim\":1,\"grid_tile_width\":8}": {
      "compile_time_ms": 1521.9296179999446,
      "lower_time_ms": 21305.77653800003,
      "evaluation_times_ms": [
        15.362008,
        15.337528,
        15.439,
        15.566297,
        15.551449
      ],
      "metadata": {},
      "peak_memory_mb": 8704.11276626587
    }
  },
  "{\"lhs\":\"bf16[524288,4096]\",\"rhs\":\"bf16[524288,1536]\",\"group_sizes\":{\"num_groups\":524288,\"total_size\":524288},\"ragged_dot_dimension_numbers\":{\"dot_dimension_numbers\":[[[0],[0]],[[],[]]],\"lhs_ragged_dimensions\":[0],\"rhs_group_dimensions\":[]},\"precision\":[\"DEFAULT\",\"DEFAULT\"],\"preferred_element_type\":null,\"return_residuals\":false,\"activation\":null}": {
    "{\"block_m\":128,\"block_n\":64,\"block_k\":128,\"num_stages\":4,\"split_k\":1,\"split_m\":1,\"grid_block_n\":2,\"persistent\":false,\"post_scale\":false,\"collective\":false,\"grid_minor_dim\":1,\"grid_tile_width\":2}": {
      "compile_time_ms": 1868.2428629999777,
      "lower_time_ms": 146.53425700009848,
      "evaluation_times_ms": [
        58.43029,
        58.423856,
        58.42981,
        58.426193000000005,
        58.425906
      ],
      "metadata": {},
      "peak_memory_mb": 11264.0009765625
    }
  },
  "{\"lhs\":\"bf16[524288,4096]\",\"rhs\":\"bf16[128,1536,4096]\",\"group_sizes\":{\"num_groups\":128,\"total_size\":524288},\"ragged_dot_dimension_numbers\":{\"dot_dimension_numbers\":[[[1],[2]],[[],[]]],\"lhs_ragged_dimensions\":[0],\"rhs_group_dimensions\":[0]},\"precision\":[\"DEFAULT\",\"DEFAULT\"],\"preferred_element_type\":null,\"return_residuals\":false,\"activation\":null}": {
    "{\"block_m\":128,\"block_n\":64,\"block_k\":128,\"num_stages\":4,\"split_k\":1,\"split_m\":1,\"grid_block_n\":4,\"persistent\":true,\"post_scale\":false,\"collective\":false,\"grid_minor_dim\":1,\"grid_tile_width\":4}": {
      "compile_time_ms": 1539.124734999973,
      "lower_time_ms": 18971.075909999967,
      "evaluation_times_ms": [
        15.638971000000002,
        16.662114,
        16.169327,
        15.882212,
        16.126989000000002
      ],
      "metadata": {},
      "peak_memory_mb": 8704.11276626587
    }
  },
  "{\"lhs\":\"bf16[524288,1536]\",\"rhs\":\"bf16[524288,4096]\",\"group_sizes\":{\"num_groups\":524288,\"total_size\":524288},\"ragged_dot_dimension_numbers\":{\"dot_dimension_numbers\":[[[0],[0]],[[],[]]],\"lhs_ragged_dimensions\":[0],\"rhs_group_dimensions\":[]},\"precision\":[\"DEFAULT\",\"DEFAULT\"],\"preferred_element_type\":null,\"return_residuals\":false,\"activation\":null}": {
    "{\"block_m\":128,\"block_n\":64,\"block_k\":128,\"num_stages\":4,\"split_k\":1,\"split_m\":1,\"grid_block_n\":1,\"persistent\":true,\"post_scale\":false,\"collective\":false,\"grid_minor_dim\":1,\"grid_tile_width\":1}": {
      "compile_time_ms": 90.18531700002086,
      "lower_time_ms": 125.04806900000176,
      "evaluation_times_ms": [
        56.463693,
        56.466381,
        56.460877,
        56.466542000000004,
        56.467277
      ],
      "metadata": {},
      "peak_memory_mb": 8704.0009765625
    }
  },
  "{\"lhs\":\"bf16[262144,1536]\",\"rhs\":\"bf16[128,4096,1536]\",\"group_sizes\":{\"num_groups\":128,\"total_size\":262144},\"ragged_dot_dimension_numbers\":{\"dot_dimension_numbers\":[[[1],[2]],[[],[]]],\"lhs_ragged_dimensions\":[0],\"rhs_group_dimensions\":[0]},\"precision\":[\"DEFAULT\",\"DEFAULT\"],\"preferred_element_type\":null,\"return_residuals\":false,\"activation\":null}": {
    "{\"block_m\":128,\"block_n\":64,\"block_k\":128,\"num_stages\":4,\"split_k\":1,\"split_m\":1,\"grid_block_n\":8,\"persistent\":true,\"post_scale\":false,\"collective\":false,\"grid_minor_dim\":1,\"grid_tile_width\":8}": {
      "compile_time_ms": 1481.4073430000008,
      "lower_time_ms": 20810.31242300003,
      "evaluation_times_ms": [
        9.217153999999999,
        8.43895,
        8.509509,
        8.239942,
        8.175206
      ],
      "metadata": {},
      "peak_memory_mb": 5888.058078765869
    },
    "{\"block_m\":128,\"block_n\":64,\"block_k\":128,\"num_stages\":4,\"split_k\":1,\"split_m\":1,\"grid_block_n\":8,\"persistent\":true,\"post_scale\":false,\"collective\":false,\"grid_minor_dim\":1,\"grid_tile_width\":8}": {
      "compile_time_ms": 2082.0969050000144,
      "lower_time_ms": 21159.327351999993,
      "evaluation_times_ms": [
        8.222036,
        8.489877,
        8.192788,
        8.195508,
        8.219892
      ],
      "metadata": {},
      "peak_memory_mb": 5888.058078765869
    }
  },
  "{\"lhs\":\"bf16[262144,4096]\",\"rhs\":\"bf16[262144,1536]\",\"group_sizes\":{\"num_groups\":262144,\"total_size\":262144},\"ragged_dot_dimension_numbers\":{\"dot_dimension_numbers\":[[[0],[0]],[[],[]]],\"lhs_ragged_dimensions\":[0],\"rhs_group_dimensions\":[]},\"precision\":[\"DEFAULT\",\"DEFAULT\"],\"preferred_element_type\":null,\"return_residuals\":false,\"activation\":null}": {
    "{\"block_m\":128,\"block_n\":64,\"block_k\":128,\"num_stages\":4,\"split_k\":1,\"split_m\":1,\"grid_block_n\":1,\"persistent\":false,\"post_scale\":false,\"collective\":false,\"grid_minor_dim\":1,\"grid_tile_width\":1}": {
      "compile_time_ms": 105.27253200001496,
      "lower_time_ms": 129.00155699998095,
      "evaluation_times_ms": [
        30.099008,
        30.091169999999998,
        30.101886,
        30.095136,
        30.094464
      ],
      "metadata": {},
      "peak_memory_mb": 6400.0009765625
    }
  },
  "{\"lhs\":\"bf16[262144,4096]\",\"rhs\":\"bf16[128,1536,4096]\",\"group_sizes\":{\"num_groups\":128,\"total_size\":262144},\"ragged_dot_dimension_numbers\":{\"dot_dimension_numbers\":[[[1],[2]],[[],[]]],\"lhs_ragged_dimensions\":[0],\"rhs_group_dimensions\":[0]},\"precision\":[\"DEFAULT\",\"DEFAULT\"],\"preferred_element_type\":null,\"return_residuals\":false,\"activation\":null}": {
    "{\"block_m\":128,\"block_n\":64,\"block_k\":128,\"num_stages\":4,\"split_k\":1,\"split_m\":1,\"grid_block_n\":4,\"persistent\":true,\"post_scale\":false,\"collective\":false,\"grid_minor_dim\":1,\"grid_tile_width\":4}": {
      "compile_time_ms": 1528.6607739999454,
      "lower_time_ms": 25752.668253999902,
      "evaluation_times_ms": [
        8.658322,
        8.959668,
        8.33032,
        8.376496,
        8.36968
      ],
      "metadata": {},
      "peak_memory_mb": 5888.058078765869
    }
  },
  "{\"lhs\":\"bf16[262144,1536]\",\"rhs\":\"bf16[262144,4096]\",\"group_sizes\":{\"num_groups\":262144,\"total_size\":262144},\"ragged_dot_dimension_numbers\":{\"dot_dimension_numbers\":[[[0],[0]],[[],[]]],\"lhs_ragged_dimensions\":[0],\"rhs_group_dimensions\":[]},\"precision\":[\"DEFAULT\",\"DEFAULT\"],\"preferred_element_type\":null,\"return_residuals\":false,\"activation\":null}": {
    "{\"block_m\":128,\"block_n\":64,\"block_k\":128,\"num_stages\":4,\"split_k\":1,\"split_m\":1,\"grid_block_n\":8,\"persistent\":false,\"post_scale\":false,\"collective\":false,\"grid_minor_dim\":1,\"grid_tile_width\":8}": {
      "compile_time_ms": 93.42120999997405,
      "lower_time_ms": 144.63460199999645,
      "evaluation_times_ms": [
        29.17786,
        29.168162000000002,
        29.173315000000002,
        29.166304,
        29.168896
      ],
      "metadata": {},
      "peak_memory_mb": 5120.0009765625
    }
  },
  "{\"lhs\":\"bf16[131072,2048]\",\"rhs\":\"bf16[128,7168,2048]\",\"group_sizes\":{\"num_groups\":128,\"total_size\":131072},\"ragged_dot_dimension_numbers\":{\"dot_dimension_numbers\":[[[1],[2]],[[],[]]],\"lhs_ragged_dimensions\":[0],\"rhs_group_dimensions\":[0]},\"precision\":[\"DEFAULT\",\"DEFAULT\"],\"preferred_element_type\":null,\"return_residuals\":false,\"activation\":null}": {
    "{\"block_m\":128,\"block_n\":64,\"block_k\":128,\"num_stages\":4,\"split_k\":1,\"split_m\":1,\"grid_block_n\":4,\"persistent\":true,\"post_scale\":false,\"collective\":false,\"grid_minor_dim\":1,\"grid_tile_width\":4}": {
      "compile_time_ms": 1712.5124220001453,
      "lower_time_ms": 26639.572366000037,
      "evaluation_times_ms": [
        12.701882999999999,
        12.586671,
        12.485958,
        12.936443,
        12.211864
      ],
      "metadata": {},
      "peak_memory_mb": 9472.03073501587
    }
  },
  "{\"lhs\":\"bf16[131072,7168]\",\"rhs\":\"bf16[131072,2048]\",\"group_sizes\":{\"num_groups\":131072,\"total_size\":131072},\"ragged_dot_dimension_numbers\":{\"dot_dimension_numbers\":[[[0],[0]],[[],[]]],\"lhs_ragged_dimensions\":[0],\"rhs_group_dimensions\":[]},\"precision\":[\"DEFAULT\",\"DEFAULT\"],\"preferred_element_type\":null,\"return_residuals\":false,\"activation\":null}": {
    "{\"block_m\":128,\"block_n\":64,\"block_k\":128,\"num_stages\":4,\"split_k\":1,\"split_m\":1,\"grid_block_n\":8,\"persistent\":false,\"post_scale\":false,\"collective\":false,\"grid_minor_dim\":1,\"grid_tile_width\":8}": {
      "compile_time_ms": 98.0442640000092,
      "lower_time_ms": 141.5249120000226,
      "evaluation_times_ms": [
        34.70958,
        34.702313,
        34.702089,
        34.706410000000005,
        34.702793
      ],
      "metadata": {},
      "peak_memory_mb": 11264.001953125
    }
  },
  "{\"lhs\":\"bf16[131072,768]\",\"rhs\":\"bf16[128,2048,768]\",\"group_sizes\":{\"num_groups\":128,\"total_size\":131072},\"ragged_dot_dimension_numbers\":{\"dot_dimension_numbers\":[[[1],[2]],[[],[]]],\"lhs_ragged_dimensions\":[0],\"rhs_group_dimensions\":[0]},\"precision\":[\"DEFAULT\",\"DEFAULT\"],\"preferred_element_type\":null,\"return_residuals\":false,\"activation\":null}": {
    "{\"block_m\":128,\"block_n\":64,\"block_k\":512,\"num_stages\":2,\"split_k\":1,\"split_m\":1,\"grid_block_n\":4,\"persistent\":true,\"post_scale\":false,\"collective\":false,\"grid_minor_dim\":1,\"grid_tile_width\":4}": {
      "compile_time_ms": 1525.8545630000526,
      "lower_time_ms": 22993.984784999953,
      "evaluation_times_ms": [
        1.3454540000000001,
        1.357522,
        1.3585150000000001,
        1.3510879999999998,
        1.3536160000000002
      ],
      "metadata": {},
      "peak_memory_mb": 1472.0307350158691
    }
  },
  "{\"lhs\":\"bf16[131072,2048]\",\"rhs\":\"bf16[131072,768]\",\"group_sizes\":{\"num_groups\":131072,\"total_size\":131072},\"ragged_dot_dimension_numbers\":{\"dot_dimension_numbers\":[[[0],[0]],[[],[]]],\"lhs_ragged_dimensions\":[0],\"rhs_group_dimensions\":[]},\"precision\":[\"DEFAULT\",\"DEFAULT\"],\"preferred_element_type\":null,\"return_residuals\":false,\"activation\":null}": {
    "{\"block_m\":128,\"block_n\":64,\"block_k\":128,\"num_stages\":4,\"split_k\":1,\"split_m\":1,\"grid_block_n\":4,\"persistent\":false,\"post_scale\":false,\"collective\":false,\"grid_minor_dim\":1,\"grid_tile_width\":4}": {
      "compile_time_ms": 88.91759199997296,
      "lower_time_ms": 288.88172400002077,
      "evaluation_times_ms": [
        3.878403,
        3.874212,
        3.8753,
        3.875556,
        3.875939
      ],
      "metadata": {},
      "peak_memory_mb": 1600.0009765625
    }
  },
  "{\"lhs\":\"bf16[131072,1536]\",\"rhs\":\"bf16[128,4096,1536]\",\"group_sizes\":{\"num_groups\":128,\"total_size\":131072},\"ragged_dot_dimension_numbers\":{\"dot_dimension_numbers\":[[[1],[2]],[[],[]]],\"lhs_ragged_dimensions\":[0],\"rhs_group_dimensions\":[0]},\"precision\":[\"DEFAULT\",\"DEFAULT\"],\"preferred_element_type\":null,\"return_residuals\":false,\"activation\":null}": {
    "{\"block_m\":128,\"block_n\":64,\"block_k\":128,\"num_stages\":4,\"split_k\":1,\"split_m\":1,\"grid_block_n\":4,\"persistent\":true,\"post_scale\":false,\"collective\":false,\"grid_minor_dim\":1,\"grid_tile_width\":4}": {
      "compile_time_ms": 1604.361173999905,
      "lower_time_ms": 26081.392056999903,
      "evaluation_times_ms": [
        5.256241,
        5.2545139999999995,
        5.249232999999999,
        5.248977999999999,
        5.253105
      ],
      "metadata": {},
      "peak_memory_mb": 4480.030735015869
    }
  },
  "{\"lhs\":\"bf16[524288,4096]\",\"rhs\":\"bf16[128,4096,1536]\",\"group_sizes\":{\"num_groups\":128,\"total_size\":524288},\"ragged_dot_dimension_numbers\":{\"dot_dimension_numbers\":[[[1],[1]],[[],[]]],\"lhs_ragged_dimensions\":[0],\"rhs_group_dimensions\":[0]},\"precision\":[\"DEFAULT\",\"DEFAULT\"],\"preferred_element_type\":null,\"return_residuals\":false,\"activation\":null}": {
    "{\"block_m\":128,\"block_n\":64,\"block_k\":128,\"num_stages\":4,\"split_k\":1,\"split_m\":1,\"grid_block_n\":4,\"persistent\":true,\"post_scale\":false,\"collective\":false,\"grid_minor_dim\":1,\"grid_tile_width\":4}": {
      "compile_time_ms": 2186.561562999941,
      "lower_time_ms": 19406.847168000015,
      "evaluation_times_ms": [
        14.545207,
        15.688042,
        15.056343,
        15.169132000000001,
        15.314101999999998
      ],
      "metadata": {},
      "peak_memory_mb": 7168.112766265869
    }
  },
  "{\"lhs\":\"bf16[524288,1536]\",\"rhs\":\"bf16[128,1536,4096]\",\"group_sizes\":{\"num_groups\":128,\"total_size\":524288},\"ragged_dot_dimension_numbers\":{\"dot_dimension_numbers\":[[[1],[1]],[[],[]]],\"lhs_ragged_dimensions\":[0],\"rhs_group_dimensions\":[0]},\"precision\":[\"DEFAULT\",\"DEFAULT\"],\"preferred_element_type\":null,\"return_residuals\":false,\"activation\":null}": {
    "{\"block_m\":128,\"block_n\":64,\"block_k\":128,\"num_stages\":4,\"split_k\":1,\"split_m\":1,\"grid_block_n\":8,\"persistent\":true,\"post_scale\":false,\"collective\":false,\"grid_minor_dim\":1,\"grid_tile_width\":8}": {
      "compile_time_ms": 1519.3363399998816,
      "lower_time_ms": 21812.00343699993,
      "evaluation_times_ms": [
        15.026862,
        14.840900999999999,
        15.228568999999998,
        15.105171,
        15.607693
      ],
      "metadata": {},
      "peak_memory_mb": 7168.112766265869
    }
  },
  "{\"lhs\":\"bf16[131072,4096]\",\"rhs\":\"bf16[131072,1536]\",\"group_sizes\":{\"num_groups\":131072,\"total_size\":131072},\"ragged_dot_dimension_numbers\":{\"dot_dimension_numbers\":[[[0],[0]],[[],[]]],\"lhs_ragged_dimensions\":[0],\"rhs_group_dimensions\":[]},\"precision\":[\"DEFAULT\",\"DEFAULT\"],\"preferred_element_type\":null,\"return_residuals\":false,\"activation\":null}": {
    "{\"block_m\":128,\"block_n\":64,\"block_k\":128,\"num_stages\":4,\"split_k\":1,\"split_m\":1,\"grid_block_n\":4,\"persistent\":false,\"post_scale\":false,\"collective\":false,\"grid_minor_dim\":1,\"grid_tile_width\":4}": {
      "compile_time_ms": 93.116144000021,
      "lower_time_ms": 182.55729800000609,
      "evaluation_times_ms": [
        14.681379999999999,
        14.681829,
        14.680803,
        14.684901,
        14.685861000000001
      ],
      "metadata": {},
      "peak_memory_mb": 3968.0009765625
    }
  },
  "{\"lhs\":\"bf16[131072,4096]\",\"rhs\":\"bf16[128,1536,4096]\",\"group_sizes\":{\"num_groups\":128,\"total_size\":131072},\"ragged_dot_dimension_numbers\":{\"dot_dimension_numbers\":[[[1],[2]],[[],[]]],\"lhs_ragged_dimensions\":[0],\"rhs_group_dimensions\":[0]},\"precision\":[\"DEFAULT\",\"DEFAULT\"],\"preferred_element_type\":null,\"return_residuals\":false,\"activation\":null}": {
    "{\"block_m\":128,\"block_n\":64,\"block_k\":128,\"num_stages\":4,\"split_k\":1,\"split_m\":1,\"grid_block_n\":4,\"persistent\":true,\"post_scale\":false,\"collective\":false,\"grid_minor_dim\":1,\"grid_tile_width\":4}": {
      "compile_time_ms": 2178.7288350000154,
      "lower_time_ms": 18867.796868000027,
      "evaluation_times_ms": [
        5.437184,
        5.356481,
        5.342113,
        5.468449,
        5.297985
      ],
      "metadata": {},
      "peak_memory_mb": 4480.030735015869
    }
  },
  "{\"lhs\":\"bf16[131072,1536]\",\"rhs\":\"bf16[131072,4096]\",\"group_sizes\":{\"num_groups\":131072,\"total_size\":131072},\"ragged_dot_dimension_numbers\":{\"dot_dimension_numbers\":[[[0],[0]],[[],[]]],\"lhs_ragged_dimensions\":[0],\"rhs_group_dimensions\":[]},\"precision\":[\"DEFAULT\",\"DEFAULT\"],\"preferred_element_type\":null,\"return_residuals\":false,\"activation\":null}": {
    "{\"block_m\":128,\"block_n\":64,\"block_k\":128,\"num_stages\":4,\"split_k\":1,\"split_m\":1,\"grid_block_n\":1,\"persistent\":false,\"post_scale\":false,\"collective\":false,\"grid_minor_dim\":1,\"grid_tile_width\":1}": {
      "compile_time_ms": 105.1666750000777,
      "lower_time_ms": 127.56463200003054,
      "evaluation_times_ms": [
        14.216444,
        14.216733,
        14.217661,
        14.217022,
        14.218653999999999
      ],
      "metadata": {},
      "peak_memory_mb": 3328.0009765625
    }
  },
  "{\"lhs\":\"bf16[131072,2048]\",\"rhs\":\"bf16[256,7168,2048]\",\"group_sizes\":{\"num_groups\":256,\"total_size\":131072},\"ragged_dot_dimension_numbers\":{\"dot_dimension_numbers\":[[[1],[2]],[[],[]]],\"lhs_ragged_dimensions\":[0],\"rhs_group_dimensions\":[0]},\"precision\":[\"DEFAULT\",\"DEFAULT\"],\"preferred_element_type\":null,\"return_residuals\":false,\"activation\":null}": {
    "{\"block_m\":128,\"block_n\":64,\"block_k\":128,\"num_stages\":4,\"split_k\":1,\"split_m\":1,\"grid_block_n\":8,\"persistent\":false,\"post_scale\":false,\"collective\":false,\"grid_minor_dim\":1,\"grid_tile_width\":8}": {
      "compile_time_ms": 4521.42255900003,
      "lower_time_ms": 37404.871419000076,
      "evaluation_times_ms": [
        17.178193,
        17.097935,
        17.103823,
        17.181361000000003,
        17.151792
      ],
      "metadata": {},
      "peak_memory_mb": 16640.03415298462
    },
    "{\"block_m\":128,\"block_n\":64,\"block_k\":128,\"num_stages\":4,\"split_k\":1,\"split_m\":1,\"grid_block_n\":8,\"persistent\":false,\"post_scale\":false,\"collective\":false,\"grid_minor_dim\":1,\"grid_tile_width\":8}": {
      "compile_time_ms": 4895.669712999961,
      "lower_time_ms": 39322.271828,
      "evaluation_times_ms": [
        17.264518,
        17.337798,
        17.229767,
        17.214215,
        17.20903
      ],
      "metadata": {},
      "peak_memory_mb": 16640.03415298462
    }
  },
  "{\"lhs\":\"bf16[65536,2048]\",\"rhs\":\"bf16[256,7168,2048]\",\"group_sizes\":{\"num_groups\":256,\"total_size\":65536},\"ragged_dot_dimension_numbers\":{\"dot_dimension_numbers\":[[[1],[2]],[[],[]]],\"lhs_ragged_dimensions\":[0],\"rhs_group_dimensions\":[0]},\"precision\":[\"DEFAULT\",\"DEFAULT\"],\"preferred_element_type\":null,\"return_residuals\":false,\"activation\":null}": {
    "{\"block_m\":128,\"block_n\":64,\"block_k\":128,\"num_stages\":4,\"split_k\":1,\"split_m\":1,\"grid_block_n\":8,\"persistent\":false,\"post_scale\":false,\"collective\":false,\"grid_minor_dim\":1,\"grid_tile_width\":8}": {
      "compile_time_ms": 3801.6225719999284,
      "lower_time_ms": 39995.008310000005,
      "evaluation_times_ms": [
        12.222058,
        12.198794000000001,
        12.12078,
        12.139819000000001,
        12.124044
      ],
      "metadata": {},
      "peak_memory_mb": 15488.02048110962
    }
  },
  "{\"lhs\":\"bf16[65536,7168]\",\"rhs\":\"bf16[65536,2048]\",\"group_sizes\":{\"num_groups\":65536,\"total_size\":65536},\"ragged_dot_dimension_numbers\":{\"dot_dimension_numbers\":[[[0],[0]],[[],[]]],\"lhs_ragged_dimensions\":[0],\"rhs_group_dimensions\":[]},\"precision\":[\"DEFAULT\",\"DEFAULT\"],\"preferred_element_type\":null,\"return_residuals\":false,\"activation\":null}": {
    "{\"block_m\":128,\"block_n\":64,\"block_k\":128,\"num_stages\":2,\"split_k\":1,\"split_m\":1,\"grid_block_n\":2,\"persistent\":false,\"post_scale\":false,\"collective\":false,\"grid_minor_dim\":1,\"grid_tile_width\":2}": {
      "compile_time_ms": 93.32443700003523,
      "lower_time_ms": 122.63464799997337,
      "evaluation_times_ms": [
        13.587192,
        13.588793,
        13.586743,
        13.592376,
        13.601016
      ],
      "metadata": {},
      "peak_memory_mb": 9216.001953125
    }
  },
  "{\"lhs\":\"bf16[131072,512]\",\"rhs\":\"bf16[256,7168,512]\",\"group_sizes\":{\"num_groups\":256,\"total_size\":131072},\"ragged_dot_dimension_numbers\":{\"dot_dimension_numbers\":[[[1],[2]],[[],[]]],\"lhs_ragged_dimensions\":[0],\"rhs_group_dimensions\":[0]},\"precision\":[\"DEFAULT\",\"DEFAULT\"],\"preferred_element_type\":null,\"return_residuals\":false,\"activation\":null}": {
    "{\"block_m\":128,\"block_n\":64,\"block_k\":128,\"num_stages\":4,\"split_k\":1,\"split_m\":1,\"grid_block_n\":8,\"persistent\":true,\"post_scale\":false,\"collective\":false,\"grid_minor_dim\":1,\"grid_tile_width\":8}": {
      "compile_time_ms": 4649.058876000026,
      "lower_time_ms": 42285.89781000005,
      "evaluation_times_ms": [
        4.585996,
        4.578444,
        4.584524,
        4.592172000000001,
        4.584779999999999
      ],
      "metadata": {},
      "peak_memory_mb": 5504.034152984619
    },
    "{\"block_m\":128,\"block_n\":64,\"block_k\":128,\"num_stages\":4,\"split_k\":1,\"split_m\":1,\"grid_block_n\":8,\"persistent\":true,\"post_scale\":false,\"collective\":false,\"grid_minor_dim\":1,\"grid_tile_width\":8}": {
      "compile_time_ms": 8547.059716999967,
      "lower_time_ms": 37707.60925600001,
      "evaluation_times_ms": [
        4.584349,
        4.579517,
        4.580957000000001,
        4.573533,
        4.575486000000001
      ],
      "metadata": {},
      "peak_memory_mb": 5504.034152984619
    }
  },
  "{\"lhs\":\"bf16[262144,4096]\",\"rhs\":\"bf16[128,4096,1536]\",\"group_sizes\":{\"num_groups\":128,\"total_size\":262144},\"ragged_dot_dimension_numbers\":{\"dot_dimension_numbers\":[[[1],[1]],[[],[]]],\"lhs_ragged_dimensions\":[0],\"rhs_group_dimensions\":[0]},\"precision\":[\"DEFAULT\",\"DEFAULT\"],\"preferred_element_type\":null,\"return_residuals\":false,\"activation\":null}": {
    "{\"block_m\":128,\"block_n\":64,\"block_k\":128,\"num_stages\":4,\"split_k\":1,\"split_m\":1,\"grid_block_n\":4,\"persistent\":true,\"post_scale\":false,\"collective\":false,\"grid_minor_dim\":1,\"grid_tile_width\":4}": {
      "compile_time_ms": 2401.2919859999897,
      "lower_time_ms": 3788.2337119999647,
      "evaluation_times_ms": [
        7.287277,
        7.439885,
        7.056654,
        7.5029889999999995,
        7.576045
      ],
      "metadata": {},
      "peak_memory_mb": 4352.058078765869
    }
  },
  "{\"lhs\":\"bf16[262144,1536]\",\"rhs\":\"bf16[128,1536,4096]\",\"group_sizes\":{\"num_groups\":128,\"total_size\":262144},\"ragged_dot_dimension_numbers\":{\"dot_dimension_numbers\":[[[1],[1]],[[],[]]],\"lhs_ragged_dimensions\":[0],\"rhs_group_dimensions\":[0]},\"precision\":[\"DEFAULT\",\"DEFAULT\"],\"preferred_element_type\":null,\"return_residuals\":false,\"activation\":null}": {
    "{\"block_m\":128,\"block_n\":64,\"block_k\":128,\"num_stages\":4,\"split_k\":1,\"split_m\":1,\"grid_block_n\":8,\"persistent\":true,\"post_scale\":false,\"collective\":false,\"grid_minor_dim\":1,\"grid_tile_width\":8}": {
      "compile_time_ms": 2264.9728229999937,
      "lower_time_ms": 20418.829912000034,
      "evaluation_times_ms": [
        7.53519,
        7.519222,
        7.180103,
        7.0985629999999995,
        7.202951
      ],
      "metadata": {},
      "peak_memory_mb": 4352.058078765869
    }
  },
  "{\"lhs\":\"bf16[131072,7168]\",\"rhs\":\"bf16[128,7168,2048]\",\"group_sizes\":{\"num_groups\":128,\"total_size\":131072},\"ragged_dot_dimension_numbers\":{\"dot_dimension_numbers\":[[[1],[1]],[[],[]]],\"lhs_ragged_dimensions\":[0],\"rhs_group_dimensions\":[0]},\"precision\":[\"DEFAULT\",\"DEFAULT\"],\"preferred_element_type\":null,\"return_residuals\":false,\"activation\":null}": {
    "{\"block_m\":128,\"block_n\":64,\"block_k\":128,\"num_stages\":4,\"split_k\":1,\"split_m\":1,\"grid_block_n\":4,\"persistent\":true,\"post_scale\":false,\"collective\":false,\"grid_minor_dim\":1,\"grid_tile_width\":4}": {
      "compile_time_ms": 1542.6186369999755,
      "lower_time_ms": 18587.089171999993,
      "evaluation_times_ms": [
        10.025477,
        10.042186000000001,
        10.128648,
        10.237900999999999,
        10.231722
      ],
      "metadata": {},
      "peak_memory_mb": 5888.030735015869
    }
  },
  "{\"lhs\":\"bf16[131072,2048]\",\"rhs\":\"bf16[128,2048,768]\",\"group_sizes\":{\"num_groups\":128,\"total_size\":131072},\"ragged_dot_dimension_numbers\":{\"dot_dimension_numbers\":[[[1],[1]],[[],[]]],\"lhs_ragged_dimensions\":[0],\"rhs_group_dimensions\":[0]},\"precision\":[\"DEFAULT\",\"DEFAULT\"],\"preferred_element_type\":null,\"return_residuals\":false,\"activation\":null}": {
    "{\"block_m\":128,\"block_n\":64,\"block_k\":128,\"num_stages\":4,\"split_k\":1,\"split_m\":1,\"grid_block_n\":4,\"persistent\":true,\"post_scale\":false,\"collective\":false,\"grid_minor_dim\":1,\"grid_tile_width\":4}": {
      "compile_time_ms": 1520.850438000025,
      "lower_time_ms": 25119.626017999963,
      "evaluation_times_ms": [
        1.0055910000000001,
        1.010359,
        1.0062309999999999,
        1.004695,
        1.011511
      ],
      "metadata": {},
      "peak_memory_mb": 1088.0307350158691
    }
  },
  "{\"lhs\":\"bf16[131072,4096]\",\"rhs\":\"bf16[128,4096,1536]\",\"group_sizes\":{\"num_groups\":128,\"total_size\":131072},\"ragged_dot_dimension_numbers\":{\"dot_dimension_numbers\":[[[1],[1]],[[],[]]],\"lhs_ragged_dimensions\":[0],\"rhs_group_dimensions\":[0]},\"precision\":[\"DEFAULT\",\"DEFAULT\"],\"preferred_element_type\":null,\"return_residuals\":false,\"activation\":null}": {
    "{\"block_m\":128,\"block_n\":64,\"block_k\":128,\"num_stages\":4,\"split_k\":1,\"split_m\":1,\"grid_block_n\":4,\"persistent\":true,\"post_scale\":false,\"collective\":false,\"grid_minor_dim\":1,\"grid_tile_width\":4}": {
      "compile_time_ms": 3110.029750000024,
      "lower_time_ms": 20326.212261999957,
      "evaluation_times_ms": [
        4.2451859999999995,
        4.317826,
        4.226209,
        4.186338,
        4.218146
      ],
      "metadata": {},
      "peak_memory_mb": 2944.030735015869
    }
  },
  "{\"lhs\":\"bf16[131072,1536]\",\"rhs\":\"bf16[128,1536,4096]\",\"group_sizes\":{\"num_groups\":128,\"total_size\":131072},\"ragged_dot_dimension_numbers\":{\"dot_dimension_numbers\":[[[1],[1]],[[],[]]],\"lhs_ragged_dimensions\":[0],\"rhs_group_dimensions\":[0]},\"precision\":[\"DEFAULT\",\"DEFAULT\"],\"preferred_element_type\":null,\"return_residuals\":false,\"activation\":null}": {
    "{\"block_m\":128,\"block_n\":64,\"block_k\":128,\"num_stages\":4,\"split_k\":1,\"split_m\":1,\"grid_block_n\":8,\"persistent\":true,\"post_scale\":false,\"collective\":false,\"grid_minor_dim\":1,\"grid_tile_width\":8}": {
      "compile_time_ms": 1521.678688999998,
      "lower_time_ms": 20585.586358,
      "evaluation_times_ms": [
        4.063408,
        4.140584,
        4.221443,
        3.8383100000000003,
        4.340362
      ],
      "metadata": {},
      "peak_memory_mb": 2944.030735015869
    }
  },
  "{\"lhs\":\"bf16[131072,7168]\",\"rhs\":\"bf16[256,7168,2048]\",\"group_sizes\":{\"num_groups\":256,\"total_size\":131072},\"ragged_dot_dimension_numbers\":{\"dot_dimension_numbers\":[[[1],[1]],[[],[]]],\"lhs_ragged_dimensions\":[0],\"rhs_group_dimensions\":[0]},\"precision\":[\"DEFAULT\",\"DEFAULT\"],\"preferred_element_type\":null,\"return_residuals\":false,\"activation\":null}": {
    "{\"block_m\":128,\"block_n\":64,\"block_k\":128,\"num_stages\":4,\"split_k\":1,\"split_m\":1,\"grid_block_n\":8,\"persistent\":false,\"post_scale\":false,\"collective\":false,\"grid_minor_dim\":1,\"grid_tile_width\":8}": {
      "compile_time_ms": 4469.625640000004,
      "lower_time_ms": 27501.80637099993,
      "evaluation_times_ms": [
        12.800372,
        12.741489999999999,
        12.765426,
        12.75285,
        12.877078
      ],
      "metadata": {},
      "peak_memory_mb": 9472.086602210999
    },
    "{\"block_m\":128,\"block_n\":64,\"block_k\":128,\"num_stages\":4,\"split_k\":1,\"split_m\":1,\"grid_block_n\":8,\"persistent\":false,\"post_scale\":false,\"collective\":false,\"grid_minor_dim\":1,\"grid_tile_width\":8}": {
      "compile_time_ms": 5061.449308999954,
      "lower_time_ms": 40377.03181100005,
      "evaluation_times_ms": [
        12.730259,
        12.669554999999999,
        12.658643000000001,
        12.729140000000001,
        12.708724
      ],
      "metadata": {},
      "peak_memory_mb": 9472.086602210999
    }
  },
  "{\"lhs\":\"bf16[65536,7168]\",\"rhs\":\"bf16[256,7168,2048]\",\"group_sizes\":{\"num_groups\":256,\"total_size\":65536},\"ragged_dot_dimension_numbers\":{\"dot_dimension_numbers\":[[[1],[1]],[[],[]]],\"lhs_ragged_dimensions\":[0],\"rhs_group_dimensions\":[0]},\"precision\":[\"DEFAULT\",\"DEFAULT\"],\"preferred_element_type\":null,\"return_residuals\":false,\"activation\":null}": {
    "{\"block_m\":128,\"block_n\":64,\"block_k\":128,\"num_stages\":4,\"split_k\":1,\"split_m\":1,\"grid_block_n\":8,\"persistent\":false,\"post_scale\":false,\"collective\":false,\"grid_minor_dim\":1,\"grid_tile_width\":8}": {
      "compile_time_ms": 3359.913669999969,
      "lower_time_ms": 38732.42519299993,
      "evaluation_times_ms": [
        7.362766,
        7.3386379999999996,
        7.331373,
        7.359567,
        7.434093
      ],
      "metadata": {},
      "peak_memory_mb": 8320.02048110962
    }
  },
  "{\"lhs\":\"bf16[131072,7168]\",\"rhs\":\"bf16[256,7168,512]\",\"group_sizes\":{\"num_groups\":256,\"total_size\":131072},\"ragged_dot_dimension_numbers\":{\"dot_dimension_numbers\":[[[1],[1]],[[],[]]],\"lhs_ragged_dimensions\":[0],\"rhs_group_dimensions\":[0]},\"precision\":[\"DEFAULT\",\"DEFAULT\"],\"preferred_element_type\":null,\"return_residuals\":false,\"activation\":null}": {
    "{\"block_m\":128,\"block_n\":64,\"block_k\":128,\"num_stages\":4,\"split_k\":1,\"split_m\":1,\"grid_block_n\":8,\"persistent\":true,\"post_scale\":false,\"collective\":false,\"grid_minor_dim\":1,\"grid_tile_width\":8}": {
      "compile_time_ms": 5169.368883999937,
      "lower_time_ms": 36881.83964799998,
      "evaluation_times_ms": [
        2.749788,
        2.721723,
        2.7161549999999997,
        2.767835,
        2.773372
      ],
      "metadata": {},
      "peak_memory_mb": 3712.0866022109985
    },
    "{\"block_m\":128,\"block_n\":64,\"block_k\":128,\"num_stages\":4,\"split_k\":1,\"split_m\":1,\"grid_block_n\":8,\"persistent\":true,\"post_scale\":false,\"collective\":false,\"grid_minor_dim\":1,\"grid_tile_width\":8}": {
      "compile_time_ms": 4414.734646000056,
      "lower_time_ms": 38417.72478300004,
      "evaluation_times_ms": [
        2.724576,
        2.7233289999999997,
        2.7133760000000002,
        2.71904,
        2.7127689999999998
      ],
      "metadata": {},
      "peak_memory_mb": 3712.0866022109985
    }
  },
  "{\"lhs\":\"bf16[131072,512]\",\"rhs\":\"bf16[256,512,7168]\",\"group_sizes\":{\"num_groups\":256,\"total_size\":131072},\"ragged_dot_dimension_numbers\":{\"dot_dimension_numbers\":[[[1],[1]],[[],[]]],\"lhs_ragged_dimensions\":[0],\"rhs_group_dimensions\":[0]},\"precision\":[\"DEFAULT\",\"DEFAULT\"],\"preferred_element_type\":null,\"return_residuals\":false,\"activation\":null}": {
    "{\"block_m\":128,\"block_n\":64,\"block_k\":128,\"num_stages\":4,\"split_k\":1,\"split_m\":1,\"grid_block_n\":8,\"persistent\":true,\"post_scale\":false,\"collective\":false,\"grid_minor_dim\":1,\"grid_tile_width\":8}": {
      "compile_time_ms": 4513.896493000175,
      "lower_time_ms": 37150.888179000045,
      "evaluation_times_ms": [
        3.3293760000000003,
        3.3160640000000003,
        3.320769,
        3.324129,
        3.3220810000000003
      ],
      "metadata": {},
      "peak_memory_mb": 3712.0866022109985
    }
  },
  "{\"lhs\":\"bf16[4096,4096]\",\"rhs\":\"bf16[8,4096,4096]\",\"group_sizes\":[4096,0,0,0,0,0,0,0],\"ragged_dot_dimension_numbers\":{\"dot_dimension_numbers\":[[[1],[1]],[[],[]]],\"lhs_ragged_dimensions\":[0],\"rhs_group_dimensions\":[0]},\"precision\":[\"DEFAULT\",\"DEFAULT\"],\"preferred_element_type\":null,\"return_residuals\":false,\"activation\":null}": {
    "{\"block_m\":128,\"block_n\":64,\"block_k\":128,\"num_stages\":4,\"split_k\":1,\"split_m\":1,\"grid_block_n\":8,\"persistent\":true,\"post_scale\":false,\"collective\":false,\"grid_minor_dim\":1,\"grid_tile_width\":8}": {
      "compile_time_ms": 722.3039419999964,
      "lower_time_ms": 490.67472999996653,
      "evaluation_times_ms": [
        0.250708,
        0.253813,
        0.251476,
        0.255063,
        0.251604
      ],
      "metadata": {},
      "peak_memory_mb": 320.0010414123535
    }
  },
  "{\"lhs\":\"bf16[8,4096]\",\"rhs\":\"bf16[8,4096,4096]\",\"group_sizes\":[1,1,1,1,1,1,1,1],\"ragged_dot_dimension_numbers\":{\"dot_dimension_numbers\":[[[1],[1]],[[],[]]],\"lhs_ragged_dimensions\":[0],\"rhs_group_dimensions\":[0]},\"precision\":[\"DEFAULT\",\"DEFAULT\"],\"preferred_element_type\":null,\"return_residuals\":false,\"activation\":null}": {
    "{\"block_m\":64,\"block_n\":64,\"block_k\":128,\"num_stages\":4,\"split_k\":1,\"split_m\":1,\"grid_block_n\":4,\"persistent\":false,\"post_scale\":false,\"collective\":false,\"grid_minor_dim\":1,\"grid_tile_width\":4}": {
      "compile_time_ms": 342.61690199997474,
      "lower_time_ms": 160.7986220000157,
      "evaluation_times_ms": [
        0.118402,
        0.118434,
        0.11945800000000001,
        0.118657,
        0.119746
      ],
      "metadata": {},
      "peak_memory_mb": 256.1252136230469
    }
  },
  "{\"lhs\":\"bf16[8192,4096]\",\"rhs\":\"bf16[8,4096,14336]\",\"group_sizes\":{\"num_groups\":8,\"total_size\":8192},\"ragged_dot_dimension_numbers\":{\"dot_dimension_numbers\":[[[1],[1]],[[],[]]],\"lhs_ragged_dimensions\":[0],\"rhs_group_dimensions\":[0]},\"precision\":[\"DEFAULT\",\"DEFAULT\"],\"preferred_element_type\":null,\"return_residuals\":false,\"activation\":null}": {
    "{\"block_m\":128,\"block_n\":64,\"block_k\":128,\"num_stages\":4,\"split_k\":1,\"split_m\":1,\"grid_block_n\":4,\"persistent\":true,\"post_scale\":false,\"collective\":false,\"grid_minor_dim\":1,\"grid_tile_width\":4}": {
      "compile_time_ms": 92.27735799998982,
      "lower_time_ms": 6306.694669000024,
      "evaluation_times_ms": [
        2.1755430000000002,
        2.1655930000000003,
        2.1655599999999997,
        2.164825,
        2.172215
      ],
      "metadata": {},
      "peak_memory_mb": 1184.001895904541
    }
  },
  "{\"lhs\":\"bf16[262144,2048]\",\"rhs\":\"bf16[256,7168,2048]\",\"group_sizes\":{\"num_groups\":256,\"total_size\":262144},\"ragged_dot_dimension_numbers\":{\"dot_dimension_numbers\":[[[1],[2]],[[],[]]],\"lhs_ragged_dimensions\":[0],\"rhs_group_dimensions\":[0]},\"precision\":[\"DEFAULT\",\"DEFAULT\"],\"preferred_element_type\":null,\"return_residuals\":false,\"activation\":null}": {
    "{\"block_m\":128,\"block_n\":64,\"block_k\":128,\"num_stages\":4,\"split_k\":1,\"split_m\":1,\"grid_block_n\":8,\"persistent\":false,\"post_scale\":false,\"collective\":false,\"grid_minor_dim\":1,\"grid_tile_width\":8}": {
      "compile_time_ms": 4177.206459000104,
      "lower_time_ms": 35466.36038300005,
      "evaluation_times_ms": [
        27.220488,
        26.944039,
        26.847016,
        27.015816,
        26.889479
      ],
      "metadata": {},
      "peak_memory_mb": 18944.06149673462
    },
    "{\"block_m\":128,\"block_n\":64,\"block_k\":128,\"num_stages\":4,\"split_k\":1,\"split_m\":1,\"grid_block_n\":8,\"persistent\":false,\"post_scale\":false,\"collective\":false,\"grid_minor_dim\":1,\"grid_tile_width\":8}": {
      "compile_time_ms": 3737.5835899999856,
      "lower_time_ms": 39384.476976000085,
      "evaluation_times_ms": [
        27.332537000000002,
        27.086457,
        27.025817,
        27.387608999999998,
        27.153849
      ],
      "metadata": {},
      "peak_memory_mb": 18944.06149673462
    }
  }
}