{
  "{\"x\":\"bf16[1,512,512,128]\",\"weights\":\"bf16[128,2,256]\",\"activation\":\"jax._src.nn.functions.sigmoid\",\"precision\":\"BF16_BF16_F32\",\"return_residuals\":false}": {
    "{\"tile_m\":128,\"tile_n\":64,\"tile_k\":128,\"num_stages\":1,\"epi_tile_n\":32,\"epi_tile_m\":64,\"grid_minor_dim\":1,\"grid_tile_width\":4,\"wg_dimension\":1,\"cluster_size_m\":1,\"cluster_size_n\":2}": {
      "compile_time_ms": 22.908754000013687,
      "lower_time_ms": 144.32238699998834,
      "evaluation_times_ms": [
        0.122114,
        0.121889,
        0.126337,
        0.122178,
        0.123202
      ],
      "metadata": {},
      "peak_memory_mb": 201.457664
    }
  },
  "{\"x\":\"bf16[1,512,512,128]\",\"weights\":\"bf16[128,2,512]\",\"activation\":\"jax._src.nn.functions.silu\",\"precision\":\"BF16_BF16_F32\",\"return_residuals\":false}": {
    "{\"tile_m\":128,\"tile_n\":64,\"tile_k\":128,\"num_stages\":2,\"epi_tile_n\":32,\"epi_tile_m\":64,\"grid_minor_dim\":1,\"grid_tile_width\":4,\"wg_dimension\":0,\"cluster_size_m\":1,\"cluster_size_n\":2}": {
      "compile_time_ms": 428.4451019999551,
      "lower_time_ms": 152.2391170000219,
      "evaluation_times_ms": [
        0.23635,
        0.236414,
        0.233502,
        0.234686,
        0.234494
      ],
      "metadata": {},
      "peak_memory_mb": 335.806464
    },
    "{\"tile_m\":128,\"tile_n\":64,\"tile_k\":128,\"num_stages\":1,\"epi_tile_n\":32,\"epi_tile_m\":64,\"grid_minor_dim\":1,\"grid_tile_width\":16,\"wg_dimension\":0,\"cluster_size_m\":1,\"cluster_size_n\":2}": {
      "compile_time_ms": 237.35872499997868,
      "lower_time_ms": 124.21785600002977,
      "evaluation_times_ms": [
        0.234929,
        0.235089,
        0.235632,
        0.236272,
        0.235377
      ],
      "metadata": {},
      "peak_memory_mb": 335.806464
    }
  },
  "{\"x\":\"bf16[512,512,128]\",\"weights\":\"bf16[128,2,256]\",\"activation\":\"jax._src.nn.functions.sigmoid\",\"precision\":\"BF16_BF16_F32\",\"return_residuals\":false}": {
    "{\"tile_m\":128,\"tile_n\":64,\"tile_k\":128,\"num_stages\":4,\"epi_tile_n\":32,\"epi_tile_m\":64,\"grid_minor_dim\":1,\"grid_tile_width\":2,\"wg_dimension\":1,\"cluster_size_m\":1,\"cluster_size_n\":2}": {
      "compile_time_ms": 1966.7336969999951,
      "lower_time_ms": 366.2338199999908,
      "evaluation_times_ms": [
        0.121252,
        0.121059,
        0.121763,
        0.122916,
        0.122499
      ],
      "metadata": {},
      "peak_memory_mb": 201.457664
    }
  },
  "{\"x\":\"bf16[512,512,128]\",\"weights\":\"bf16[128,2,512]\",\"activation\":\"jax._src.nn.functions.silu\",\"precision\":\"BF16_BF16_F32\",\"return_residuals\":false}": {
    "{\"tile_m\":128,\"tile_n\":64,\"tile_k\":128,\"num_stages\":1,\"epi_tile_n\":32,\"epi_tile_m\":64,\"grid_minor_dim\":1,\"grid_tile_width\":16,\"wg_dimension\":0,\"cluster_size_m\":1,\"cluster_size_n\":2}": {
      "compile_time_ms": 90.95982700000604,
      "lower_time_ms": 497.0757419999927,
      "evaluation_times_ms": [
        0.232419,
        0.234146,
        0.233283,
        0.237282,
        0.234755
      ],
      "metadata": {},
      "peak_memory_mb": 335.806464
    }
  },
  "{\"x\":\"f32[512,512,128]\",\"weights\":\"f32[128,2,256]\",\"activation\":\"jax._src.nn.functions.silu\",\"precision\":\"BF16_BF16_F32\",\"return_residuals\":false}": {},
  "{\"x\":\"bf16[512,512,64]\",\"weights\":\"bf16[64,2,128]\",\"activation\":\"jax._src.nn.functions.sigmoid\",\"precision\":\"BF16_BF16_F32\",\"return_residuals\":false}": {
    "{\"tile_m\":128,\"tile_n\":64,\"tile_k\":64,\"num_stages\":4,\"epi_tile_n\":64,\"epi_tile_m\":64,\"grid_minor_dim\":1,\"grid_tile_width\":1,\"wg_dimension\":1,\"cluster_size_m\":1,\"cluster_size_n\":1}": {
      "compile_time_ms": 559.8830500000531,
      "lower_time_ms": 117.92222300005051,
      "evaluation_times_ms": [
        0.056448,
        0.056481,
        0.05664,
        0.056384,
        0.056641
      ],
      "metadata": {},
      "peak_memory_mb": 100.696064
    }
  },
  "{\"x\":\"bf16[512,512,64]\",\"weights\":\"bf16[64,2,128]\",\"activation\":\"jax._src.nn.functions.silu\",\"precision\":\"BF16_BF16_F32\",\"return_residuals\":false}": {
    "{\"tile_m\":128,\"tile_n\":64,\"tile_k\":64,\"num_stages\":1,\"epi_tile_n\":32,\"epi_tile_m\":64,\"grid_minor_dim\":1,\"grid_tile_width\":1,\"wg_dimension\":1,\"cluster_size_m\":2,\"cluster_size_n\":1}": {
      "compile_time_ms": 20.15829200013286,
      "lower_time_ms": 126.19634700013194,
      "evaluation_times_ms": [
        0.055041,
        0.054689,
        0.056096,
        0.054849,
        0.054976
      ],
      "metadata": {},
      "peak_memory_mb": 100.696064
    }
  },
  "{\"x\":\"f32[5,512,32,128]\",\"weights\":\"f32[128,2,256]\",\"activation\":\"jax._src.nn.functions.silu\",\"precision\":\"BF16_BF16_F32\",\"return_residuals\":false}": {},
  "{\"x\":\"f32[512,32,128]\",\"weights\":\"f32[128,2,256]\",\"activation\":\"jax._src.nn.functions.silu\",\"precision\":\"BF16_BF16_F32\",\"return_residuals\":false}": {},
  "{\"x\":\"bf16[5,512,384]\",\"weights\":\"bf16[384,2,1536]\",\"activation\":\"jax._src.nn.functions.silu\",\"precision\":\"BF16_BF16_F32\",\"return_residuals\":false}": {
    "{\"tile_m\":128,\"tile_n\":64,\"tile_k\":64,\"num_stages\":4,\"epi_tile_n\":32,\"epi_tile_m\":64,\"grid_minor_dim\":1,\"grid_tile_width\":2,\"wg_dimension\":1,\"cluster_size_m\":1,\"cluster_size_n\":1}": {
      "compile_time_ms": 2734.7738849998677,
      "lower_time_ms": 236.70145699998102,
      "evaluation_times_ms": [
        0.014816,
        0.01488,
        0.014848,
        0.014816,
        0.014816
      ],
      "metadata": {},
      "peak_memory_mb": 12.189696
    }
  },
  "{\"x\":\"bf16[512,384]\",\"weights\":\"bf16[384,2,1536]\",\"activation\":\"jax._src.nn.functions.silu\",\"precision\":\"BF16_BF16_F32\",\"return_residuals\":false}": {
    "{\"tile_m\":128,\"tile_n\":64,\"tile_k\":64,\"num_stages\":2,\"epi_tile_n\":32,\"epi_tile_m\":64,\"grid_minor_dim\":1,\"grid_tile_width\":1,\"wg_dimension\":0,\"cluster_size_m\":1,\"cluster_size_n\":1}": {
      "compile_time_ms": 2359.1474209997614,
      "lower_time_ms": 269.83678799979316,
      "evaluation_times_ms": [
        0.008,
        0.008192,
        0.008064,
        0.008064,
        0.008096
      ],
      "metadata": {},
      "peak_memory_mb": 4.325376
    }
  },
  "{\"x\":\"f32[5,512,384]\",\"weights\":\"f32[384,2,768]\",\"activation\":\"jax._src.nn.functions.silu\",\"precision\":\"BF16_BF16_F32\",\"return_residuals\":false}": {},
  "{\"x\":\"f32[512,384]\",\"weights\":\"f32[384,2,768]\",\"activation\":\"jax._src.nn.functions.silu\",\"precision\":\"BF16_BF16_F32\",\"return_residuals\":false}": {},
  "{\"x\":\"f32[5,512,768]\",\"weights\":\"f32[768,2,1536]\",\"activation\":\"jax._src.nn.functions.silu\",\"precision\":\"BF16_BF16_F32\",\"return_residuals\":false}": {},
  "{\"x\":\"f32[512,768]\",\"weights\":\"f32[768,2,1536]\",\"activation\":\"jax._src.nn.functions.silu\",\"precision\":\"BF16_BF16_F32\",\"return_residuals\":false}": {},
  "{\"x\":\"bf16[1,768,768,128]\",\"weights\":\"bf16[128,2,256]\",\"activation\":\"jax._src.nn.functions.sigmoid\",\"precision\":\"BF16_BF16_F32\",\"return_residuals\":false}": {
    "{\"tile_m\":128,\"tile_n\":64,\"tile_k\":128,\"num_stages\":1,\"epi_tile_n\":32,\"epi_tile_m\":64,\"grid_minor_dim\":1,\"grid_tile_width\":4,\"wg_dimension\":0,\"cluster_size_m\":1,\"cluster_size_n\":2}": {
      "compile_time_ms": 10649.648824997712,
      "lower_time_ms": 17191.462062997743,
      "evaluation_times_ms": [
        0.267902,
        0.265823,
        0.265246,
        0.272158,
        0.265214
      ],
      "metadata": {},
      "peak_memory_mb": 453.115904
    },
    "{\"tile_m\":128,\"tile_n\":64,\"tile_k\":128,\"num_stages\":1,\"epi_tile_n\":32,\"epi_tile_m\":64,\"grid_minor_dim\":1,\"grid_tile_width\":1,\"wg_dimension\":1,\"cluster_size_m\":1,\"cluster_size_n\":2}": {
      "compile_time_ms": 81.89466600001083,
      "lower_time_ms": 354.11678099998767,
      "evaluation_times_ms": [
        0.265542,
        0.261446,
        0.263462,
        0.266662,
        0.265957
      ],
      "metadata": {},
      "peak_memory_mb": 453.115904
    }
  },
  "{\"x\":\"bf16[1,768,768,128]\",\"weights\":\"bf16[128,2,512]\",\"activation\":\"jax._src.nn.functions.silu\",\"precision\":\"BF16_BF16_F32\",\"return_residuals\":false}": {
    "{\"tile_m\":128,\"tile_n\":64,\"tile_k\":128,\"num_stages\":1,\"epi_tile_n\":32,\"epi_tile_m\":64,\"grid_minor_dim\":1,\"grid_tile_width\":8,\"wg_dimension\":1,\"cluster_size_m\":1,\"cluster_size_n\":2}": {
      "compile_time_ms": 149.44876700002396,
      "lower_time_ms": 521.178926999994,
      "evaluation_times_ms": [
        0.503773,
        0.503837,
        0.5095,
        0.504988,
        0.505117
      ],
      "metadata": {},
      "peak_memory_mb": 755.236864
    }
  },
  "{\"x\":\"bf16[768,768,128]\",\"weights\":\"bf16[128,2,256]\",\"activation\":\"jax._src.nn.functions.sigmoid\",\"precision\":\"BF16_BF16_F32\",\"return_residuals\":false}": {
    "{\"tile_m\":128,\"tile_n\":64,\"tile_k\":128,\"num_stages\":1,\"epi_tile_n\":32,\"epi_tile_m\":64,\"grid_minor_dim\":1,\"grid_tile_width\":16,\"wg_dimension\":0,\"cluster_size_m\":1,\"cluster_size_n\":2}": {
      "compile_time_ms": 20.858373000010033,
      "lower_time_ms": 127.5590129999955,
      "evaluation_times_ms": [
        0.266397,
        0.262748,
        0.269212,
        0.264028,
        0.269084
      ],
      "metadata": {},
      "peak_memory_mb": 453.115904
    }
  },
  "{\"x\":\"bf16[768,768,128]\",\"weights\":\"bf16[128,2,512]\",\"activation\":\"jax._src.nn.functions.silu\",\"precision\":\"BF16_BF16_F32\",\"return_residuals\":false}": {
    "{\"tile_m\":128,\"tile_n\":64,\"tile_k\":128,\"num_stages\":4,\"epi_tile_n\":32,\"epi_tile_m\":64,\"grid_minor_dim\":1,\"grid_tile_width\":16,\"wg_dimension\":1,\"cluster_size_m\":1,\"cluster_size_n\":2}": {
      "compile_time_ms": 22.250472000109767,
      "lower_time_ms": 135.91108499997517,
      "evaluation_times_ms": [
        0.511193,
        0.508985,
        0.500377,
        0.50553,
        0.505786
      ],
      "metadata": {},
      "peak_memory_mb": 755.236864
    }
  },
  "{\"x\":\"f32[768,768,128]\",\"weights\":\"f32[128,2,256]\",\"activation\":\"jax._src.nn.functions.silu\",\"precision\":\"BF16_BF16_F32\",\"return_residuals\":false}": {},
  "{\"x\":\"bf16[768,768,64]\",\"weights\":\"bf16[64,2,128]\",\"activation\":\"jax._src.nn.functions.sigmoid\",\"precision\":\"BF16_BF16_F32\",\"return_residuals\":false}": {
    "{\"tile_m\":128,\"tile_n\":64,\"tile_k\":64,\"num_stages\":4,\"epi_tile_n\":64,\"epi_tile_m\":64,\"grid_minor_dim\":1,\"grid_tile_width\":1,\"wg_dimension\":1,\"cluster_size_m\":1,\"cluster_size_n\":1}": {
      "compile_time_ms": 576.9557220000934,
      "lower_time_ms": 127.3666869999488,
      "evaluation_times_ms": [
        0.122622,
        0.122398,
        0.121822,
        0.122431,
        0.121791
      ],
      "metadata": {},
      "peak_memory_mb": 226.525184
    }
  },
  "{\"x\":\"bf16[768,768,64]\",\"weights\":\"bf16[64,2,128]\",\"activation\":\"jax._src.nn.functions.silu\",\"precision\":\"BF16_BF16_F32\",\"return_residuals\":false}": {
    "{\"tile_m\":128,\"tile_n\":64,\"tile_k\":64,\"num_stages\":1,\"epi_tile_n\":32,\"epi_tile_m\":64,\"grid_minor_dim\":1,\"grid_tile_width\":2,\"wg_dimension\":1,\"cluster_size_m\":2,\"cluster_size_n\":1}": {
      "compile_time_ms": 518.5608060000959,
      "lower_time_ms": 223.93512099984036,
      "evaluation_times_ms": [
        0.119742,
        0.119742,
        0.120606,
        0.120671,
        0.119103
      ],
      "metadata": {},
      "peak_memory_mb": 226.525184
    }
  },
  "{\"x\":\"bf16[2304,2304,64]\",\"weights\":\"bf16[64,2,128]\",\"activation\":\"jax._src.nn.functions.sigmoid\",\"precision\":\"BF16_BF16_F32\",\"return_residuals\":false}": {
    "{\"tile_m\":128,\"tile_n\":64,\"tile_k\":64,\"num_stages\":1,\"epi_tile_n\":32,\"epi_tile_m\":64,\"grid_minor_dim\":1,\"grid_tile_width\":2,\"wg_dimension\":1,\"cluster_size_m\":2,\"cluster_size_n\":1}": {
      "compile_time_ms": 568.3777570000075,
      "lower_time_ms": 230.1143100000047,
      "evaluation_times_ms": [
        1.023234,
        1.025634,
        1.030786,
        1.042689,
        1.036354
      ],
      "metadata": {},
      "peak_memory_mb": 2038.464512
    }
  },
  "{\"x\":\"bf16[2304,2304,64]\",\"weights\":\"bf16[64,2,128]\",\"activation\":\"jax._src.nn.functions.silu\",\"precision\":\"BF16_BF16_F32\",\"return_residuals\":false}": {
    "{\"tile_m\":128,\"tile_n\":64,\"tile_k\":64,\"num_stages\":1,\"epi_tile_n\":32,\"epi_tile_m\":64,\"grid_minor_dim\":1,\"grid_tile_width\":4,\"wg_dimension\":1,\"cluster_size_m\":2,\"cluster_size_n\":1}": {
      "compile_time_ms": 1292.692700000032,
      "lower_time_ms": 358.8822159999836,
      "evaluation_times_ms": [
        1.036921,
        1.018713,
        1.014137,
        1.012761,
        1.012729
      ],
      "metadata": {},
      "peak_memory_mb": 2038.464512
    }
  },
  "{\"x\":\"f32[5,2304,32,128]\",\"weights\":\"f32[128,2,256]\",\"activation\":\"jax._src.nn.functions.silu\",\"precision\":\"BF16_BF16_F32\",\"return_residuals\":false}": {},
  "{\"x\":\"f32[2304,32,128]\",\"weights\":\"f32[128,2,256]\",\"activation\":\"jax._src.nn.functions.silu\",\"precision\":\"BF16_BF16_F32\",\"return_residuals\":false}": {},
  "{\"x\":\"bf16[5,2304,384]\",\"weights\":\"bf16[384,2,1536]\",\"activation\":\"jax._src.nn.functions.silu\",\"precision\":\"BF16_BF16_F32\",\"return_residuals\":false}": {
    "{\"tile_m\":128,\"tile_n\":64,\"tile_k\":64,\"num_stages\":4,\"epi_tile_n\":64,\"epi_tile_m\":64,\"grid_minor_dim\":1,\"grid_tile_width\":1,\"wg_dimension\":1,\"cluster_size_m\":1,\"cluster_size_n\":1}": {
      "compile_time_ms": 1818.0282289999923,
      "lower_time_ms": 147.47333900004378,
      "evaluation_times_ms": [
        0.059605,
        0.059253,
        0.059093,
        0.059317,
        0.059989
      ],
      "metadata": {},
      "peak_memory_mb": 46.596096
    }
  },
  "{\"x\":\"bf16[2304,384]\",\"weights\":\"bf16[384,2,1536]\",\"activation\":\"jax._src.nn.functions.silu\",\"precision\":\"BF16_BF16_F32\",\"return_residuals\":false}": {
    "{\"tile_m\":128,\"tile_n\":64,\"tile_k\":64,\"num_stages\":4,\"epi_tile_n\":32,\"epi_tile_m\":64,\"grid_minor_dim\":1,\"grid_tile_width\":1,\"wg_dimension\":1,\"cluster_size_m\":1,\"cluster_size_n\":1}": {
      "compile_time_ms": 1387.6833760000409,
      "lower_time_ms": 167.7884069999891,
      "evaluation_times_ms": [
        0.014964,
        0.014932,
        0.014963,
        0.014931,
        0.014932
      ],
      "metadata": {},
      "peak_memory_mb": 11.206656
    }
  },
  "{\"x\":\"f32[5,2304,384]\",\"weights\":\"f32[384,2,768]\",\"activation\":\"jax._src.nn.functions.silu\",\"precision\":\"BF16_BF16_F32\",\"return_residuals\":false}": {},
  "{\"x\":\"f32[2304,384]\",\"weights\":\"f32[384,2,768]\",\"activation\":\"jax._src.nn.functions.silu\",\"precision\":\"BF16_BF16_F32\",\"return_residuals\":false}": {},
  "{\"x\":\"f32[5,2304,768]\",\"weights\":\"f32[768,2,1536]\",\"activation\":\"jax._src.nn.functions.silu\",\"precision\":\"BF16_BF16_F32\",\"return_residuals\":false}": {},
  "{\"x\":\"f32[2304,768]\",\"weights\":\"f32[768,2,1536]\",\"activation\":\"jax._src.nn.functions.silu\",\"precision\":\"BF16_BF16_F32\",\"return_residuals\":false}": {},
  "{\"x\":\"bf16[1,2560,2560,128]\",\"weights\":\"bf16[128,2,256]\",\"activation\":\"jax._src.nn.functions.sigmoid\",\"precision\":\"BF16_BF16_F32\",\"return_residuals\":false}": {
    "{\"tile_m\":128,\"tile_n\":64,\"tile_k\":128,\"num_stages\":2,\"epi_tile_n\":32,\"epi_tile_m\":64,\"grid_minor_dim\":1,\"grid_tile_width\":2,\"wg_dimension\":0,\"cluster_size_m\":1,\"cluster_size_n\":2}": {
      "compile_time_ms": 64.05688800009557,
      "lower_time_ms": 522.0611990000634,
      "evaluation_times_ms": [
        2.777943,
        2.773943,
        2.763447,
        2.772663,
        2.776087
      ],
      "metadata": {},
      "peak_memory_mb": 5033.295872
    }
  },
  "{\"x\":\"bf16[1,2560,2560,128]\",\"weights\":\"bf16[128,2,512]\",\"activation\":\"jax._src.nn.functions.silu\",\"precision\":\"BF16_BF16_F32\",\"return_residuals\":false}": {
    "{\"tile_m\":128,\"tile_n\":64,\"tile_k\":128,\"num_stages\":2,\"epi_tile_n\":32,\"epi_tile_m\":64,\"grid_minor_dim\":1,\"grid_tile_width\":16,\"wg_dimension\":1,\"cluster_size_m\":1,\"cluster_size_n\":2}": {
      "compile_time_ms": 189.65297199997622,
      "lower_time_ms": 473.6930939999979,
      "evaluation_times_ms": [
        5.365206,
        5.347419,
        5.350298,
        5.755355,
        5.753723
      ],
      "metadata": {},
      "peak_memory_mb": 8388.870144
    }
  },
  "{\"x\":\"bf16[2560,2560,128]\",\"weights\":\"bf16[128,2,256]\",\"activation\":\"jax._src.nn.functions.sigmoid\",\"precision\":\"BF16_BF16_F32\",\"return_residuals\":false}": {
    "{\"tile_m\":128,\"tile_n\":64,\"tile_k\":128,\"num_stages\":4,\"epi_tile_n\":32,\"epi_tile_m\":64,\"grid_minor_dim\":1,\"grid_tile_width\":8,\"wg_dimension\":0,\"cluster_size_m\":1,\"cluster_size_n\":2}": {
      "compile_time_ms": 51.351819999922554,
      "lower_time_ms": 232.9723099999228,
      "evaluation_times_ms": [
        2.768682,
        2.776583,
        2.755022,
        2.76625,
        2.766538
      ],
      "metadata": {},
      "peak_memory_mb": 5033.295872
    },
    "{\"tile_m\":128,\"tile_n\":64,\"tile_k\":128,\"num_stages\":1,\"epi_tile_n\":32,\"epi_tile_m\":64,\"grid_minor_dim\":1,\"grid_tile_width\":8,\"wg_dimension\":0,\"cluster_size_m\":1,\"cluster_size_n\":2}": {
      "compile_time_ms": 475.42856800004074,
      "lower_time_ms": 578.3694099999934,
      "evaluation_times_ms": [
        2.777567,
        2.772702,
        2.77808,
        2.776735,
        2.765725
      ],
      "metadata": {},
      "peak_memory_mb": 5033.295872
    }
  },
  "{\"x\":\"bf16[2560,2560,128]\",\"weights\":\"bf16[128,2,512]\",\"activation\":\"jax._src.nn.functions.silu\",\"precision\":\"BF16_BF16_F32\",\"return_residuals\":false}": {
    "{\"tile_m\":128,\"tile_n\":64,\"tile_k\":128,\"num_stages\":2,\"epi_tile_n\":32,\"epi_tile_m\":64,\"grid_minor_dim\":1,\"grid_tile_width\":16,\"wg_dimension\":1,\"cluster_size_m\":1,\"cluster_size_n\":2}": {
      "compile_time_ms": 115.22327199998017,
      "lower_time_ms": 510.20852400006333,
      "evaluation_times_ms": [
        5.412251,
        5.396182,
        5.39942,
        5.404702,
        5.677958
      ],
      "metadata": {},
      "peak_memory_mb": 8388.870144
    }
  },
  "{\"x\":\"f32[2560,2560,128]\",\"weights\":\"f32[128,2,256]\",\"activation\":\"jax._src.nn.functions.silu\",\"precision\":\"BF16_BF16_F32\",\"return_residuals\":false}": {},
  "{\"x\":\"bf16[2560,2560,64]\",\"weights\":\"bf16[64,2,128]\",\"activation\":\"jax._src.nn.functions.sigmoid\",\"precision\":\"BF16_BF16_F32\",\"return_residuals\":false}": {
    "{\"tile_m\":128,\"tile_n\":64,\"tile_k\":64,\"num_stages\":2,\"epi_tile_n\":32,\"epi_tile_m\":64,\"grid_minor_dim\":1,\"grid_tile_width\":4,\"wg_dimension\":1,\"cluster_size_m\":2,\"cluster_size_n\":1}": {
      "compile_time_ms": 401.11255399995116,
      "lower_time_ms": 140.56625900002473,
      "evaluation_times_ms": [
        1.26925,
        1.275269,
        1.295244,
        1.267202,
        1.283784
      ],
      "metadata": {},
      "peak_memory_mb": 2516.615168
    }
  },
  "{\"x\":\"bf16[2560,2560,64]\",\"weights\":\"bf16[64,2,128]\",\"activation\":\"jax._src.nn.functions.silu\",\"precision\":\"BF16_BF16_F32\",\"return_residuals\":false}": {
    "{\"tile_m\":128,\"tile_n\":64,\"tile_k\":64,\"num_stages\":1,\"epi_tile_n\":32,\"epi_tile_m\":64,\"grid_minor_dim\":1,\"grid_tile_width\":2,\"wg_dimension\":1,\"cluster_size_m\":2,\"cluster_size_n\":1}": {
      "compile_time_ms": 500.12867400005234,
      "lower_time_ms": 142.9118229998494,
      "evaluation_times_ms": [
        1.250951,
        1.253799,
        1.26212,
        1.255944,
        1.26532
      ],
      "metadata": {},
      "peak_memory_mb": 2516.615168
    }
  },
  "{\"x\":\"f32[5,2560,32,128]\",\"weights\":\"f32[128,2,256]\",\"activation\":\"jax._src.nn.functions.silu\",\"precision\":\"BF16_BF16_F32\",\"return_residuals\":false}": {},
  "{\"x\":\"f32[2560,32,128]\",\"weights\":\"f32[128,2,256]\",\"activation\":\"jax._src.nn.functions.silu\",\"precision\":\"BF16_BF16_F32\",\"return_residuals\":false}": {},
  "{\"x\":\"bf16[5,2560,384]\",\"weights\":\"bf16[384,2,1536]\",\"activation\":\"jax._src.nn.functions.silu\",\"precision\":\"BF16_BF16_F32\",\"return_residuals\":false}": {
    "{\"tile_m\":128,\"tile_n\":64,\"tile_k\":64,\"num_stages\":4,\"epi_tile_n\":32,\"epi_tile_m\":64,\"grid_minor_dim\":1,\"grid_tile_width\":2,\"wg_dimension\":1,\"cluster_size_m\":1,\"cluster_size_n\":1}": {
      "compile_time_ms": 2678.003727000032,
      "lower_time_ms": 314.97962599996754,
      "evaluation_times_ms": [
        0.064736,
        0.06464,
        0.065056,
        0.064735,
        0.064799
      ],
      "metadata": {},
      "peak_memory_mb": 51.511296
    }
  },
  "{\"x\":\"bf16[2560,384]\",\"weights\":\"bf16[384,2,1536]\",\"activation\":\"jax._src.nn.functions.silu\",\"precision\":\"BF16_BF16_F32\",\"return_residuals\":false}": {
    "{\"tile_m\":128,\"tile_n\":64,\"tile_k\":64,\"num_stages\":2,\"epi_tile_n\":32,\"epi_tile_m\":64,\"grid_minor_dim\":1,\"grid_tile_width\":2,\"wg_dimension\":1,\"cluster_size_m\":1,\"cluster_size_n\":1}": {
      "compile_time_ms": 2443.396954000036,
      "lower_time_ms": 262.62674600002356,
      "evaluation_times_ms": [
        0.01472,
        0.014688,
        0.014719,
        0.01472,
        0.014656
      ],
      "metadata": {},
      "peak_memory_mb": 12.189696
    }
  },
  "{\"x\":\"f32[5,2560,384]\",\"weights\":\"f32[384,2,768]\",\"activation\":\"jax._src.nn.functions.silu\",\"precision\":\"BF16_BF16_F32\",\"return_residuals\":false}": {},
  "{\"x\":\"f32[2560,384]\",\"weights\":\"f32[384,2,768]\",\"activation\":\"jax._src.nn.functions.silu\",\"precision\":\"BF16_BF16_F32\",\"return_residuals\":false}": {},
  "{\"x\":\"f32[5,2560,768]\",\"weights\":\"f32[768,2,1536]\",\"activation\":\"jax._src.nn.functions.silu\",\"precision\":\"BF16_BF16_F32\",\"return_residuals\":false}": {},
  "{\"x\":\"f32[2560,768]\",\"weights\":\"f32[768,2,1536]\",\"activation\":\"jax._src.nn.functions.silu\",\"precision\":\"BF16_BF16_F32\",\"return_residuals\":false}": {},
  "{\"x\":\"bf16[1,2816,2816,128]\",\"weights\":\"bf16[128,2,256]\",\"activation\":\"jax._src.nn.functions.sigmoid\",\"precision\":\"BF16_BF16_F32\",\"return_residuals\":false}": {
    "{\"tile_m\":128,\"tile_n\":64,\"tile_k\":128,\"num_stages\":4,\"epi_tile_n\":32,\"epi_tile_m\":64,\"grid_minor_dim\":1,\"grid_tile_width\":8,\"wg_dimension\":0,\"cluster_size_m\":1,\"cluster_size_n\":2}": {
      "compile_time_ms": 21.76469599999109,
      "lower_time_ms": 146.39445299997078,
      "evaluation_times_ms": [
        3.35392,
        3.376737,
        3.352543,
        3.358944,
        3.353567
      ],
      "metadata": {},
      "peak_memory_mb": 6090.26048
    }
  },
  "{\"x\":\"bf16[1,2816,2816,128]\",\"weights\":\"bf16[128,2,512]\",\"activation\":\"jax._src.nn.functions.silu\",\"precision\":\"BF16_BF16_F32\",\"return_residuals\":false}": {
    "{\"tile_m\":128,\"tile_n\":64,\"tile_k\":128,\"num_stages\":4,\"epi_tile_n\":32,\"epi_tile_m\":64,\"grid_minor_dim\":1,\"grid_tile_width\":2,\"wg_dimension\":1,\"cluster_size_m\":1,\"cluster_size_n\":2}": {
      "compile_time_ms": 1760.8097919999182,
      "lower_time_ms": 200.26865099998759,
      "evaluation_times_ms": [
        6.544793,
        6.549241,
        6.577881,
        7.021751,
        7.029302
      ],
      "metadata": {},
      "peak_memory_mb": 10150.477824
    }
  },
  "{\"x\":\"bf16[2816,2816,128]\",\"weights\":\"bf16[128,2,256]\",\"activation\":\"jax._src.nn.functions.sigmoid\",\"precision\":\"BF16_BF16_F32\",\"return_residuals\":false}": {
    "{\"tile_m\":128,\"tile_n\":64,\"tile_k\":128,\"num_stages\":4,\"epi_tile_n\":32,\"epi_tile_m\":64,\"grid_minor_dim\":1,\"grid_tile_width\":8,\"wg_dimension\":0,\"cluster_size_m\":1,\"cluster_size_n\":2}": {
      "compile_time_ms": 19.155049000119106,
      "lower_time_ms": 135.1444670001456,
      "evaluation_times_ms": [
        3.355857,
        3.380817,
        3.36885,
        3.35256,
        3.49704
      ],
      "metadata": {},
      "peak_memory_mb": 6090.26048
    }
  },
  "{\"x\":\"bf16[2816,2816,128]\",\"weights\":\"bf16[128,2,512]\",\"activation\":\"jax._src.nn.functions.silu\",\"precision\":\"BF16_BF16_F32\",\"return_residuals\":false}": {
    "{\"tile_m\":128,\"tile_n\":64,\"tile_k\":128,\"num_stages\":4,\"epi_tile_n\":32,\"epi_tile_m\":64,\"grid_minor_dim\":1,\"grid_tile_width\":8,\"wg_dimension\":1,\"cluster_size_m\":1,\"cluster_size_n\":2}": {
      "compile_time_ms": 16.77076200007832,
      "lower_time_ms": 128.95875000003798,
      "evaluation_times_ms": [
        6.563525,
        6.535013,
        6.573701,
        7.057379,
        7.104066
      ],
      "metadata": {},
      "peak_memory_mb": 10150.477824
    }
  },
  "{\"x\":\"f32[2816,2816,128]\",\"weights\":\"f32[128,2,256]\",\"activation\":\"jax._src.nn.functions.silu\",\"precision\":\"BF16_BF16_F32\",\"return_residuals\":false}": {},
  "{\"x\":\"bf16[2816,2816,64]\",\"weights\":\"bf16[64,2,128]\",\"activation\":\"jax._src.nn.functions.sigmoid\",\"precision\":\"BF16_BF16_F32\",\"return_residuals\":false}": {
    "{\"tile_m\":128,\"tile_n\":64,\"tile_k\":64,\"num_stages\":2,\"epi_tile_n\":32,\"epi_tile_m\":64,\"grid_minor_dim\":1,\"grid_tile_width\":2,\"wg_dimension\":0,\"cluster_size_m\":2,\"cluster_size_n\":1}": {
      "compile_time_ms": 22.019644000010885,
      "lower_time_ms": 131.9759929999691,
      "evaluation_times_ms": [
        1.542678,
        1.55231,
        1.542262,
        1.561878,
        1.541974
      ],
      "metadata": {},
      "peak_memory_mb": 3045.097472
    }
  },
  "{\"x\":\"bf16[2816,2816,64]\",\"weights\":\"bf16[64,2,128]\",\"activation\":\"jax._src.nn.functions.silu\",\"precision\":\"BF16_BF16_F32\",\"return_residuals\":false}": {
    "{\"tile_m\":128,\"tile_n\":64,\"tile_k\":64,\"num_stages\":4,\"epi_tile_n\":32,\"epi_tile_m\":64,\"grid_minor_dim\":1,\"grid_tile_width\":1,\"wg_dimension\":1,\"cluster_size_m\":2,\"cluster_size_n\":1}": {
      "compile_time_ms": 710.3675659998316,
      "lower_time_ms": 156.96890799995344,
      "evaluation_times_ms": [
        1.508919,
        1.543926,
        1.516791,
        1.521334,
        1.515446
      ],
      "metadata": {},
      "peak_memory_mb": 3045.097472
    },
    "{\"tile_m\":128,\"tile_n\":64,\"tile_k\":64,\"num_stages\":4,\"epi_tile_n\":32,\"epi_tile_m\":64,\"grid_minor_dim\":1,\"grid_tile_width\":16,\"wg_dimension\":1,\"cluster_size_m\":2,\"cluster_size_n\":1}": {
      "compile_time_ms": 21.759883000015634,
      "lower_time_ms": 134.64454500001466,
      "evaluation_times_ms": [
        1.514854,
        1.51146,
        1.511749,
        1.512517,
        1.511364
      ],
      "metadata": {},
      "peak_memory_mb": 3045.097472
    }
  },
  "{\"x\":\"f32[5,2816,32,128]\",\"weights\":\"f32[128,2,256]\",\"activation\":\"jax._src.nn.functions.silu\",\"precision\":\"BF16_BF16_F32\",\"return_residuals\":false}": {},
  "{\"x\":\"f32[2816,32,128]\",\"weights\":\"f32[128,2,256]\",\"activation\":\"jax._src.nn.functions.silu\",\"precision\":\"BF16_BF16_F32\",\"return_residuals\":false}": {},
  "{\"x\":\"bf16[5,2816,384]\",\"weights\":\"bf16[384,2,1536]\",\"activation\":\"jax._src.nn.functions.silu\",\"precision\":\"BF16_BF16_F32\",\"return_residuals\":false}": {
    "{\"tile_m\":128,\"tile_n\":64,\"tile_k\":64,\"num_stages\":4,\"epi_tile_n\":32,\"epi_tile_m\":64,\"grid_minor_dim\":1,\"grid_tile_width\":8,\"wg_dimension\":1,\"cluster_size_m\":1,\"cluster_size_n\":1}": {
      "compile_time_ms": 2056.991728000014,
      "lower_time_ms": 271.1681519999729,
      "evaluation_times_ms": [
        0.065007,
        0.065199,
        0.065391,
        0.065167,
        0.065423
      ],
      "metadata": {},
      "peak_memory_mb": 56.426496
    }
  },
  "{\"x\":\"bf16[2816,384]\",\"weights\":\"bf16[384,2,1536]\",\"activation\":\"jax._src.nn.functions.silu\",\"precision\":\"BF16_BF16_F32\",\"return_residuals\":false}": {
    "{\"tile_m\":128,\"tile_n\":64,\"tile_k\":64,\"num_stages\":4,\"epi_tile_n\":32,\"epi_tile_m\":64,\"grid_minor_dim\":1,\"grid_tile_width\":2,\"wg_dimension\":1,\"cluster_size_m\":1,\"cluster_size_n\":1}": {
      "compile_time_ms": 1116.2748770000235,
      "lower_time_ms": 160.22785799998474,
      "evaluation_times_ms": [
        0.014976,
        0.014879,
        0.014848,
        0.01488,
        0.015008
      ],
      "metadata": {},
      "peak_memory_mb": 13.172736
    },
    "{\"tile_m\":128,\"tile_n\":64,\"tile_k\":64,\"num_stages\":4,\"epi_tile_n\":32,\"epi_tile_m\":64,\"grid_minor_dim\":1,\"grid_tile_width\":8,\"wg_dimension\":0,\"cluster_size_m\":1,\"cluster_size_n\":1}": {
      "compile_time_ms": 650.5097320000175,
      "lower_time_ms": 160.9325139999953,
      "evaluation_times_ms": [
        0.015011,
        0.015107,
        0.015075,
        0.015043,
        0.015042
      ],
      "metadata": {},
      "peak_memory_mb": 13.172736
    }
  },
  "{\"x\":\"f32[5,2816,384]\",\"weights\":\"f32[384,2,768]\",\"activation\":\"jax._src.nn.functions.silu\",\"precision\":\"BF16_BF16_F32\",\"return_residuals\":false}": {},
  "{\"x\":\"f32[2816,384]\",\"weights\":\"f32[384,2,768]\",\"activation\":\"jax._src.nn.functions.silu\",\"precision\":\"BF16_BF16_F32\",\"return_residuals\":false}": {},
  "{\"x\":\"f32[5,2816,768]\",\"weights\":\"f32[768,2,1536]\",\"activation\":\"jax._src.nn.functions.silu\",\"precision\":\"BF16_BF16_F32\",\"return_residuals\":false}": {},
  "{\"x\":\"f32[2816,768]\",\"weights\":\"f32[768,2,1536]\",\"activation\":\"jax._src.nn.functions.silu\",\"precision\":\"BF16_BF16_F32\",\"return_residuals\":false}": {},
  "{\"x\":\"bf16[1,3072,3072,128]\",\"weights\":\"bf16[128,2,256]\",\"activation\":\"jax._src.nn.functions.sigmoid\",\"precision\":\"BF16_BF16_F32\",\"return_residuals\":false}": {
    "{\"tile_m\":128,\"tile_n\":64,\"tile_k\":128,\"num_stages\":2,\"epi_tile_n\":32,\"epi_tile_m\":64,\"grid_minor_dim\":1,\"grid_tile_width\":16,\"wg_dimension\":1,\"cluster_size_m\":1,\"cluster_size_n\":2}": {
      "compile_time_ms": 47.91457399983301,
      "lower_time_ms": 473.70042600005036,
      "evaluation_times_ms": [
        4.010687,
        4.013151,
        3.998335,
        4.013343,
        4.257725
      ],
      "metadata": {},
      "peak_memory_mb": 7247.888384
    }
  },
  "{\"x\":\"bf16[1,3072,3072,128]\",\"weights\":\"bf16[128,2,512]\",\"activation\":\"jax._src.nn.functions.silu\",\"precision\":\"BF16_BF16_F32\",\"return_residuals\":false}": {
    "{\"tile_m\":128,\"tile_n\":64,\"tile_k\":128,\"num_stages\":4,\"epi_tile_n\":32,\"epi_tile_m\":64,\"grid_minor_dim\":1,\"grid_tile_width\":16,\"wg_dimension\":0,\"cluster_size_m\":1,\"cluster_size_n\":2}": {
      "compile_time_ms": 689.2976399999498,
      "lower_time_ms": 249.20835200009606,
      "evaluation_times_ms": [
        7.943693,
        7.934797,
        7.930798,
        8.933096,
        8.927143
      ],
      "metadata": {},
      "peak_memory_mb": 12079.857664
    }
  },
  "{\"x\":\"bf16[3072,3072,128]\",\"weights\":\"bf16[128,2,256]\",\"activation\":\"jax._src.nn.functions.sigmoid\",\"precision\":\"BF16_BF16_F32\",\"return_residuals\":false}": {
    "{\"tile_m\":128,\"tile_n\":64,\"tile_k\":128,\"num_stages\":4,\"epi_tile_n\":32,\"epi_tile_m\":64,\"grid_minor_dim\":1,\"grid_tile_width\":2,\"wg_dimension\":1,\"cluster_size_m\":1,\"cluster_size_n\":2}": {
      "compile_time_ms": 52.23201500007235,
      "lower_time_ms": 360.1124770000297,
      "evaluation_times_ms": [
        3.991133,
        3.996733,
        4.003357,
        4.075804,
        4.135483
      ],
      "metadata": {},
      "peak_memory_mb": 7247.888384
    }
  },
  "{\"x\":\"bf16[3072,3072,128]\",\"weights\":\"bf16[128,2,512]\",\"activation\":\"jax._src.nn.functions.silu\",\"precision\":\"BF16_BF16_F32\",\"return_residuals\":false}": {
    "{\"tile_m\":128,\"tile_n\":64,\"tile_k\":128,\"num_stages\":2,\"epi_tile_n\":32,\"epi_tile_m\":64,\"grid_minor_dim\":1,\"grid_tile_width\":4,\"wg_dimension\":1,\"cluster_size_m\":1,\"cluster_size_n\":2}": {
      "compile_time_ms": 289.8746989999381,
      "lower_time_ms": 1408.9478329997291,
      "evaluation_times_ms": [
        7.761552,
        7.764367,
        7.764624,
        8.178829,
        8.371181
      ],
      "metadata": {},
      "peak_memory_mb": 12079.857664
    }
  },
  "{\"x\":\"f32[3072,3072,128]\",\"weights\":\"f32[128,2,256]\",\"activation\":\"jax._src.nn.functions.silu\",\"precision\":\"BF16_BF16_F32\",\"return_residuals\":false}": {},
  "{\"x\":\"bf16[3072,3072,64]\",\"weights\":\"bf16[64,2,128]\",\"activation\":\"jax._src.nn.functions.sigmoid\",\"precision\":\"BF16_BF16_F32\",\"return_residuals\":false}": {
    "{\"tile_m\":128,\"tile_n\":64,\"tile_k\":64,\"num_stages\":4,\"epi_tile_n\":32,\"epi_tile_m\":64,\"grid_minor_dim\":1,\"grid_tile_width\":16,\"wg_dimension\":1,\"cluster_size_m\":2,\"cluster_size_n\":1}": {
      "compile_time_ms": 21.710731000041505,
      "lower_time_ms": 147.8805619999548,
      "evaluation_times_ms": [
        1.819208,
        1.83345,
        1.830762,
        1.823273,
        1.826537
      ],
      "metadata": {},
      "peak_memory_mb": 3623.911424
    }
  },
  "{\"x\":\"bf16[3072,3072,64]\",\"weights\":\"bf16[64,2,128]\",\"activation\":\"jax._src.nn.functions.silu\",\"precision\":\"BF16_BF16_F32\",\"return_residuals\":false}": {
    "{\"tile_m\":128,\"tile_n\":64,\"tile_k\":64,\"num_stages\":4,\"epi_tile_n\":32,\"epi_tile_m\":64,\"grid_minor_dim\":1,\"grid_tile_width\":8,\"wg_dimension\":0,\"cluster_size_m\":2,\"cluster_size_n\":1}": {
      "compile_time_ms": 21.690225999918766,
      "lower_time_ms": 135.7683219999899,
      "evaluation_times_ms": [
        1.796279,
        1.819415,
        1.788439,
        1.784183,
        1.787095
      ],
      "metadata": {},
      "peak_memory_mb": 3623.911424
    },
    "{\"tile_m\":128,\"tile_n\":64,\"tile_k\":64,\"num_stages\":2,\"epi_tile_n\":32,\"epi_tile_m\":64,\"grid_minor_dim\":1,\"grid_tile_width\":8,\"wg_dimension\":1,\"cluster_size_m\":2,\"cluster_size_n\":1}": {
      "compile_time_ms": 94.4038930174429,
      "lower_time_ms": 2197.4575339991134,
      "evaluation_times_ms": [
        1.78939,
        1.78251,
        1.804397,
        1.792525,
        1.799565
      ],
      "metadata": {},
      "peak_memory_mb": 3623.911424
    }
  },
  "{\"x\":\"f32[5,3072,32,128]\",\"weights\":\"f32[128,2,256]\",\"activation\":\"jax._src.nn.functions.silu\",\"precision\":\"BF16_BF16_F32\",\"return_residuals\":false}": {},
  "{\"x\":\"f32[3072,32,128]\",\"weights\":\"f32[128,2,256]\",\"activation\":\"jax._src.nn.functions.silu\",\"precision\":\"BF16_BF16_F32\",\"return_residuals\":false}": {},
  "{\"x\":\"bf16[5,3072,384]\",\"weights\":\"bf16[384,2,1536]\",\"activation\":\"jax._src.nn.functions.silu\",\"precision\":\"BF16_BF16_F32\",\"return_residuals\":false}": {
    "{\"tile_m\":128,\"tile_n\":64,\"tile_k\":64,\"num_stages\":4,\"epi_tile_n\":32,\"epi_tile_m\":64,\"grid_minor_dim\":1,\"grid_tile_width\":1,\"wg_dimension\":1,\"cluster_size_m\":1,\"cluster_size_n\":1}": {
      "compile_time_ms": 2506.1389969999937,
      "lower_time_ms": 315.443259999995,
      "evaluation_times_ms": [
        0.072148,
        0.072852,
        0.072372,
        0.072469,
        0.072756
      ],
      "metadata": {},
      "peak_memory_mb": 61.341696
    }
  },
  "{\"x\":\"bf16[3072,384]\",\"weights\":\"bf16[384,2,1536]\",\"activation\":\"jax._src.nn.functions.silu\",\"precision\":\"BF16_BF16_F32\",\"return_residuals\":false}": {
    "{\"tile_m\":128,\"tile_n\":64,\"tile_k\":64,\"num_stages\":2,\"epi_tile_n\":32,\"epi_tile_m\":64,\"grid_minor_dim\":1,\"grid_tile_width\":2,\"wg_dimension\":1,\"cluster_size_m\":1,\"cluster_size_n\":1}": {
      "compile_time_ms": 2133.433185999934,
      "lower_time_ms": 137.0852019999802,
      "evaluation_times_ms": [
        0.021056,
        0.021056,
        0.020992,
        0.021024,
        0.021248
      ],
      "metadata": {},
      "peak_memory_mb": 14.155776
    }
  },
  "{\"x\":\"f32[5,3072,384]\",\"weights\":\"f32[384,2,768]\",\"activation\":\"jax._src.nn.functions.silu\",\"precision\":\"BF16_BF16_F32\",\"return_residuals\":false}": {},
  "{\"x\":\"f32[3072,384]\",\"weights\":\"f32[384,2,768]\",\"activation\":\"jax._src.nn.functions.silu\",\"precision\":\"BF16_BF16_F32\",\"return_residuals\":false}": {},
  "{\"x\":\"f32[5,3072,768]\",\"weights\":\"f32[768,2,1536]\",\"activation\":\"jax._src.nn.functions.silu\",\"precision\":\"BF16_BF16_F32\",\"return_residuals\":false}": {},
  "{\"x\":\"f32[3072,768]\",\"weights\":\"f32[768,2,1536]\",\"activation\":\"jax._src.nn.functions.silu\",\"precision\":\"BF16_BF16_F32\",\"return_residuals\":false}": {},
  "{\"x\":\"bf16[1,3328,3328,128]\",\"weights\":\"bf16[128,2,256]\",\"activation\":\"jax._src.nn.functions.sigmoid\",\"precision\":\"BF16_BF16_F32\",\"return_residuals\":false}": {
    "{\"tile_m\":128,\"tile_n\":64,\"tile_k\":128,\"num_stages\":1,\"epi_tile_n\":32,\"epi_tile_m\":64,\"grid_minor_dim\":1,\"grid_tile_width\":8,\"wg_dimension\":0,\"cluster_size_m\":1,\"cluster_size_n\":2}": {
      "compile_time_ms": 79.98592500007362,
      "lower_time_ms": 655.7401649999974,
      "evaluation_times_ms": [
        4.663528,
        4.672518,
        4.680771,
        4.673222,
        4.859957
      ],
      "metadata": {},
      "peak_memory_mb": 8506.179584
    },
    "{\"tile_m\":128,\"tile_n\":64,\"tile_k\":128,\"num_stages\":2,\"epi_tile_n\":32,\"epi_tile_m\":64,\"grid_minor_dim\":1,\"grid_tile_width\":4,\"wg_dimension\":0,\"cluster_size_m\":1,\"cluster_size_n\":2}": {
      "compile_time_ms": 387.1102809999911,
      "lower_time_ms": 256.87950200000387,
      "evaluation_times_ms": [
        4.673055,
        4.664287,
        4.696575,
        4.839679,
        4.837599
      ],
      "metadata": {},
      "peak_memory_mb": 8506.179584
    }
  },
  "{\"x\":\"bf16[1,3328,3328,128]\",\"weights\":\"bf16[128,2,512]\",\"activation\":\"jax._src.nn.functions.silu\",\"precision\":\"BF16_BF16_F32\",\"return_residuals\":false}": {
    "{\"tile_m\":128,\"tile_n\":64,\"tile_k\":128,\"num_stages\":4,\"epi_tile_n\":32,\"epi_tile_m\":64,\"grid_minor_dim\":1,\"grid_tile_width\":16,\"wg_dimension\":0,\"cluster_size_m\":1,\"cluster_size_n\":2}": {
      "compile_time_ms": 927.8873820001081,
      "lower_time_ms": 125.8496869999135,
      "evaluation_times_ms": [
        9.305715,
        9.699345,
        9.691921,
        10.368461,
        10.360174
      ],
      "metadata": {},
      "peak_memory_mb": 14177.009664
    }
  },
  "{\"x\":\"bf16[3328,3328,128]\",\"weights\":\"bf16[128,2,256]\",\"activation\":\"jax._src.nn.functions.sigmoid\",\"precision\":\"BF16_BF16_F32\",\"return_residuals\":false}": {
    "{\"tile_m\":128,\"tile_n\":64,\"tile_k\":128,\"num_stages\":4,\"epi_tile_n\":32,\"epi_tile_m\":64,\"grid_minor_dim\":1,\"grid_tile_width\":8,\"wg_dimension\":0,\"cluster_size_m\":1,\"cluster_size_n\":2}": {
      "compile_time_ms": 20.42122099999233,
      "lower_time_ms": 148.98489699999118,
      "evaluation_times_ms": [
        4.690374,
        4.685318,
        4.672102,
        4.725094,
        4.774533
      ],
      "metadata": {},
      "peak_memory_mb": 8506.179584
    }
  },
  "{\"x\":\"bf16[3328,3328,128]\",\"weights\":\"bf16[128,2,512]\",\"activation\":\"jax._src.nn.functions.silu\",\"precision\":\"BF16_BF16_F32\",\"return_residuals\":false}": {
    "{\"tile_m\":128,\"tile_n\":64,\"tile_k\":128,\"num_stages\":4,\"epi_tile_n\":32,\"epi_tile_m\":64,\"grid_minor_dim\":1,\"grid_tile_width\":4,\"wg_dimension\":1,\"cluster_size_m\":1,\"cluster_size_n\":2}": {
      "compile_time_ms": 108.65008700011458,
      "lower_time_ms": 207.63429799990263,
      "evaluation_times_ms": [
        9.107277,
        9.105325,
        9.127405,
        9.951176,
        10.074088
      ],
      "metadata": {},
      "peak_memory_mb": 14177.009664
    }
  },
  "{\"x\":\"f32[3328,3328,128]\",\"weights\":\"f32[128,2,256]\",\"activation\":\"jax._src.nn.functions.silu\",\"precision\":\"BF16_BF16_F32\",\"return_residuals\":false}": {},
  "{\"x\":\"bf16[3328,3328,64]\",\"weights\":\"bf16[64,2,128]\",\"activation\":\"jax._src.nn.functions.sigmoid\",\"precision\":\"BF16_BF16_F32\",\"return_residuals\":false}": {
    "{\"tile_m\":128,\"tile_n\":64,\"tile_k\":64,\"num_stages\":4,\"epi_tile_n\":32,\"epi_tile_m\":64,\"grid_minor_dim\":1,\"grid_tile_width\":16,\"wg_dimension\":1,\"cluster_size_m\":2,\"cluster_size_n\":1}": {
      "compile_time_ms": 22.701433000065663,
      "lower_time_ms": 138.9719530000093,
      "evaluation_times_ms": [
        2.146446,
        2.134255,
        2.148814,
        2.126543,
        2.134159
      ],
      "metadata": {},
      "peak_memory_mb": 4253.057024
    }
  },
  "{\"x\":\"bf16[3328,3328,64]\",\"weights\":\"bf16[64,2,128]\",\"activation\":\"jax._src.nn.functions.silu\",\"precision\":\"BF16_BF16_F32\",\"return_residuals\":false}": {
    "{\"tile_m\":128,\"tile_n\":64,\"tile_k\":64,\"num_stages\":2,\"epi_tile_n\":32,\"epi_tile_m\":64,\"grid_minor_dim\":1,\"grid_tile_width\":2,\"wg_dimension\":1,\"cluster_size_m\":2,\"cluster_size_n\":1}": {
      "compile_time_ms": 16.9682539999485,
      "lower_time_ms": 127.42219099982321,
      "evaluation_times_ms": [
        2.085491,
        2.091027,
        2.096306,
        2.081426,
        2.095347
      ],
      "metadata": {},
      "peak_memory_mb": 4253.057024
    }
  },
  "{\"x\":\"f32[5,3328,32,128]\",\"weights\":\"f32[128,2,256]\",\"activation\":\"jax._src.nn.functions.silu\",\"precision\":\"BF16_BF16_F32\",\"return_residuals\":false}": {},
  "{\"x\":\"f32[3328,32,128]\",\"weights\":\"f32[128,2,256]\",\"activation\":\"jax._src.nn.functions.silu\",\"precision\":\"BF16_BF16_F32\",\"return_residuals\":false}": {},
  "{\"x\":\"bf16[5,3328,384]\",\"weights\":\"bf16[384,2,1536]\",\"activation\":\"jax._src.nn.functions.silu\",\"precision\":\"BF16_BF16_F32\",\"return_residuals\":false}": {
    "{\"tile_m\":128,\"tile_n\":64,\"tile_k\":64,\"num_stages\":4,\"epi_tile_n\":32,\"epi_tile_m\":64,\"grid_minor_dim\":1,\"grid_tile_width\":16,\"wg_dimension\":1,\"cluster_size_m\":1,\"cluster_size_n\":1}": {
      "compile_time_ms": 964.7059020003326,
      "lower_time_ms": 160.39074599984815,
      "evaluation_times_ms": [
        0.079104,
        0.079232,
        0.079935,
        0.079168,
        0.079359
      ],
      "metadata": {},
      "peak_memory_mb": 66.256896
    }
  },
  "{\"x\":\"bf16[3328,384]\",\"weights\":\"bf16[384,2,1536]\",\"activation\":\"jax._src.nn.functions.silu\",\"precision\":\"BF16_BF16_F32\",\"return_residuals\":false}": {
    "{\"tile_m\":128,\"tile_n\":64,\"tile_k\":64,\"num_stages\":4,\"epi_tile_n\":32,\"epi_tile_m\":64,\"grid_minor_dim\":1,\"grid_tile_width\":2,\"wg_dimension\":1,\"cluster_size_m\":1,\"cluster_size_n\":1}": {
      "compile_time_ms": 1419.8394790000748,
      "lower_time_ms": 163.7876560002951,
      "evaluation_times_ms": [
        0.020928,
        0.02096,
        0.020991,
        0.02096,
        0.020928
      ],
      "metadata": {},
      "peak_memory_mb": 15.138816
    }
  },
  "{\"x\":\"f32[5,3328,384]\",\"weights\":\"f32[384,2,768]\",\"activation\":\"jax._src.nn.functions.silu\",\"precision\":\"BF16_BF16_F32\",\"return_residuals\":false}": {},
  "{\"x\":\"f32[3328,384]\",\"weights\":\"f32[384,2,768]\",\"activation\":\"jax._src.nn.functions.silu\",\"precision\":\"BF16_BF16_F32\",\"return_residuals\":false}": {},
  "{\"x\":\"f32[5,3328,768]\",\"weights\":\"f32[768,2,1536]\",\"activation\":\"jax._src.nn.functions.silu\",\"precision\":\"BF16_BF16_F32\",\"return_residuals\":false}": {},
  "{\"x\":\"f32[3328,768]\",\"weights\":\"f32[768,2,1536]\",\"activation\":\"jax._src.nn.functions.silu\",\"precision\":\"BF16_BF16_F32\",\"return_residuals\":false}": {},
  "{\"x\":\"bf16[1,3584,3584,128]\",\"weights\":\"bf16[128,2,256]\",\"activation\":\"jax._src.nn.functions.sigmoid\",\"precision\":\"BF16_BF16_F32\",\"return_residuals\":false}": {
    "{\"tile_m\":128,\"tile_n\":64,\"tile_k\":128,\"num_stages\":1,\"epi_tile_n\":32,\"epi_tile_m\":64,\"grid_minor_dim\":1,\"grid_tile_width\":4,\"wg_dimension\":1,\"cluster_size_m\":1,\"cluster_size_n\":2}": {
      "compile_time_ms": 114.43424099979893,
      "lower_time_ms": 134.59851700008585,
      "evaluation_times_ms": [
        5.457579,
        5.464234,
        5.467208,
        5.911227,
        5.965801
      ],
      "metadata": {},
      "peak_memory_mb": 9865.13408
    }
  },
  "{\"x\":\"bf16[1,3584,3584,128]\",\"weights\":\"bf16[128,2,512]\",\"activation\":\"jax._src.nn.functions.silu\",\"precision\":\"BF16_BF16_F32\",\"return_residuals\":false}": {
    "{\"tile_m\":128,\"tile_n\":64,\"tile_k\":128,\"num_stages\":2,\"epi_tile_n\":32,\"epi_tile_m\":64,\"grid_minor_dim\":1,\"grid_tile_width\":8,\"wg_dimension\":1,\"cluster_size_m\":1,\"cluster_size_n\":2}": {
      "compile_time_ms": 245.60423200000514,
      "lower_time_ms": 302.06158399982996,
      "evaluation_times_ms": [
        10.572182,
        10.570069,
        10.966804,
        11.712727,
        11.630872
      ],
      "metadata": {},
      "peak_memory_mb": 16441.933824
    }
  },
  "{\"x\":\"bf16[3584,3584,128]\",\"weights\":\"bf16[128,2,256]\",\"activation\":\"jax._src.nn.functions.sigmoid\",\"precision\":\"BF16_BF16_F32\",\"return_residuals\":false}": {
    "{\"tile_m\":128,\"tile_n\":64,\"tile_k\":128,\"num_stages\":4,\"epi_tile_n\":32,\"epi_tile_m\":64,\"grid_minor_dim\":1,\"grid_tile_width\":8,\"wg_dimension\":0,\"cluster_size_m\":1,\"cluster_size_n\":2}": {
      "compile_time_ms": 18.14320600010433,
      "lower_time_ms": 146.99209500008692,
      "evaluation_times_ms": [
        5.446084,
        5.447973,
        5.430724,
        5.478469,
        5.654219
      ],
      "metadata": {},
      "peak_memory_mb": 9865.13408
    }
  },
  "{\"x\":\"bf16[3584,3584,128]\",\"weights\":\"bf16[128,2,512]\",\"activation\":\"jax._src.nn.functions.silu\",\"precision\":\"BF16_BF16_F32\",\"return_residuals\":false}": {
    "{\"tile_m\":128,\"tile_n\":64,\"tile_k\":64,\"num_stages\":2,\"epi_tile_n\":32,\"epi_tile_m\":64,\"grid_minor_dim\":1,\"grid_tile_width\":8,\"wg_dimension\":0,\"cluster_size_m\":1,\"cluster_size_n\":2}": {
      "compile_time_ms": 131.35669999996935,
      "lower_time_ms": 777.6070879999679,
      "evaluation_times_ms": [
        11.199046,
        11.135589,
        11.107844,
        12.146227,
        12.384118
      ],
      "metadata": {},
      "peak_memory_mb": 16441.933824
    }
  },
  "{\"x\":\"f32[3584,3584,128]\",\"weights\":\"f32[128,2,256]\",\"activation\":\"jax._src.nn.functions.silu\",\"precision\":\"BF16_BF16_F32\",\"return_residuals\":false}": {},
  "{\"x\":\"bf16[3584,3584,64]\",\"weights\":\"bf16[64,2,128]\",\"activation\":\"jax._src.nn.functions.sigmoid\",\"precision\":\"BF16_BF16_F32\",\"return_residuals\":false}": {
    "{\"tile_m\":128,\"tile_n\":64,\"tile_k\":64,\"num_stages\":2,\"epi_tile_n\":32,\"epi_tile_m\":64,\"grid_minor_dim\":1,\"grid_tile_width\":8,\"wg_dimension\":1,\"cluster_size_m\":2,\"cluster_size_n\":1}": {
      "compile_time_ms": 21.359486999699584,
      "lower_time_ms": 132.0514069998353,
      "evaluation_times_ms": [
        2.468735,
        2.461407,
        2.471263,
        2.467583,
        2.461535
      ],
      "metadata": {},
      "peak_memory_mb": 4932.534272
    }
  },
  "{\"x\":\"bf16[3584,3584,64]\",\"weights\":\"bf16[64,2,128]\",\"activation\":\"jax._src.nn.functions.silu\",\"precision\":\"BF16_BF16_F32\",\"return_residuals\":false}": {
    "{\"tile_m\":128,\"tile_n\":64,\"tile_k\":64,\"num_stages\":2,\"epi_tile_n\":32,\"epi_tile_m\":64,\"grid_minor_dim\":1,\"grid_tile_width\":8,\"wg_dimension\":1,\"cluster_size_m\":2,\"cluster_size_n\":1}": {
      "compile_time_ms": 22.02807200001189,
      "lower_time_ms": 131.10834299959606,
      "evaluation_times_ms": [
        2.426236,
        2.408444,
        2.425308,
        2.427548,
        2.417628
      ],
      "metadata": {},
      "peak_memory_mb": 4932.534272
    }
  },
  "{\"x\":\"f32[5,3584,32,128]\",\"weights\":\"f32[128,2,256]\",\"activation\":\"jax._src.nn.functions.silu\",\"precision\":\"BF16_BF16_F32\",\"return_residuals\":false}": {},
  "{\"x\":\"f32[3584,32,128]\",\"weights\":\"f32[128,2,256]\",\"activation\":\"jax._src.nn.functions.silu\",\"precision\":\"BF16_BF16_F32\",\"return_residuals\":false}": {},
  "{\"x\":\"bf16[5,3584,384]\",\"weights\":\"bf16[384,2,1536]\",\"activation\":\"jax._src.nn.functions.silu\",\"precision\":\"BF16_BF16_F32\",\"return_residuals\":false}": {
    "{\"tile_m\":128,\"tile_n\":64,\"tile_k\":64,\"num_stages\":4,\"epi_tile_n\":32,\"epi_tile_m\":64,\"grid_minor_dim\":1,\"grid_tile_width\":1,\"wg_dimension\":1,\"cluster_size_m\":1,\"cluster_size_n\":1}": {
      "compile_time_ms": 8107.3470410192385,
      "lower_time_ms": 7588.020485010929,
      "evaluation_times_ms": [
        0.085728,
        0.085632,
        0.085632,
        0.085951,
        0.085536
      ],
      "metadata": {},
      "peak_memory_mb": 71.172096
    }
  },
  "{\"x\":\"bf16[3584,384]\",\"weights\":\"bf16[384,2,1536]\",\"activation\":\"jax._src.nn.functions.silu\",\"precision\":\"BF16_BF16_F32\",\"return_residuals\":false}": {
    "{\"tile_m\":128,\"tile_n\":64,\"tile_k\":64,\"num_stages\":2,\"epi_tile_n\":32,\"epi_tile_m\":64,\"grid_minor_dim\":1,\"grid_tile_width\":2,\"wg_dimension\":1,\"cluster_size_m\":1,\"cluster_size_n\":1}": {
      "compile_time_ms": 9343.495307984995,
      "lower_time_ms": 5287.254933005897,
      "evaluation_times_ms": [
        0.021152,
        0.021056,
        0.02112,
        0.021056,
        0.021184
      ],
      "metadata": {},
      "peak_memory_mb": 16.121856
    }
  },
  "{\"x\":\"f32[5,3584,384]\",\"weights\":\"f32[384,2,768]\",\"activation\":\"jax._src.nn.functions.silu\",\"precision\":\"BF16_BF16_F32\",\"return_residuals\":false}": {},
  "{\"x\":\"f32[3584,384]\",\"weights\":\"f32[384,2,768]\",\"activation\":\"jax._src.nn.functions.silu\",\"precision\":\"BF16_BF16_F32\",\"return_residuals\":false}": {},
  "{\"x\":\"f32[5,3584,768]\",\"weights\":\"f32[768,2,1536]\",\"activation\":\"jax._src.nn.functions.silu\",\"precision\":\"BF16_BF16_F32\",\"return_residuals\":false}": {},
  "{\"x\":\"f32[3584,768]\",\"weights\":\"f32[768,2,1536]\",\"activation\":\"jax._src.nn.functions.silu\",\"precision\":\"BF16_BF16_F32\",\"return_residuals\":false}": {},
  "{\"x\":\"bf16[1,3840,3840,128]\",\"weights\":\"bf16[128,2,256]\",\"activation\":\"jax._src.nn.functions.sigmoid\",\"precision\":\"BF16_BF16_F32\",\"return_residuals\":false}": {
    "{\"tile_m\":128,\"tile_n\":64,\"tile_k\":128,\"num_stages\":4,\"epi_tile_n\":32,\"epi_tile_m\":64,\"grid_minor_dim\":1,\"grid_tile_width\":8,\"wg_dimension\":1,\"cluster_size_m\":1,\"cluster_size_n\":2}": {
      "compile_time_ms": 12302.875816996675,
      "lower_time_ms": 18291.15167100099,
      "evaluation_times_ms": [
        6.235328,
        6.359393,
        6.391233,
        6.718944,
        6.824544
      ],
      "metadata": {},
      "peak_memory_mb": 11324.751872
    }
  },
  "{\"x\":\"bf16[1,3840,3840,128]\",\"weights\":\"bf16[128,2,512]\",\"activation\":\"jax._src.nn.functions.silu\",\"precision\":\"BF16_BF16_F32\",\"return_residuals\":false}": {
    "{\"tile_m\":128,\"tile_n\":64,\"tile_k\":128,\"num_stages\":2,\"epi_tile_n\":32,\"epi_tile_m\":64,\"grid_minor_dim\":1,\"grid_tile_width\":16,\"wg_dimension\":0,\"cluster_size_m\":1,\"cluster_size_n\":2}": {
      "compile_time_ms": 3083.106403995771,
      "lower_time_ms": 2486.763886990957,
      "evaluation_times_ms": [
        12.29934,
        12.395755,
        12.800427,
        12.778859,
        13.425034
      ],
      "metadata": {},
      "peak_memory_mb": 18874.630144
    }
  },
  "{\"x\":\"bf16[3840,3840,128]\",\"weights\":\"bf16[128,2,256]\",\"activation\":\"jax._src.nn.functions.sigmoid\",\"precision\":\"BF16_BF16_F32\",\"return_residuals\":false}": {
    "{\"tile_m\":128,\"tile_n\":64,\"tile_k\":128,\"num_stages\":2,\"epi_tile_n\":32,\"epi_tile_m\":64,\"grid_minor_dim\":1,\"grid_tile_width\":2,\"wg_dimension\":1,\"cluster_size_m\":1,\"cluster_size_n\":1}": {
      "compile_time_ms": 617.0877229887992,
      "lower_time_ms": 1659.1622889973223,
      "evaluation_times_ms": [
        6.382936,
        6.395703,
        6.36748,
        6.683127,
        6.817815
      ],
      "metadata": {},
      "peak_memory_mb": 11324.751872
    }
  },
  "{\"x\":\"bf16[3840,3840,128]\",\"weights\":\"bf16[128,2,512]\",\"activation\":\"jax._src.nn.functions.silu\",\"precision\":\"BF16_BF16_F32\",\"return_residuals\":false}": {
    "{\"tile_m\":128,\"tile_n\":64,\"tile_k\":128,\"num_stages\":4,\"epi_tile_n\":32,\"epi_tile_m\":64,\"grid_minor_dim\":1,\"grid_tile_width\":16,\"wg_dimension\":1,\"cluster_size_m\":2,\"cluster_size_n\":1}": {
      "compile_time_ms": 1665.4811109999912,
      "lower_time_ms": 365.8297479999817,
      "evaluation_times_ms": [
        12.562841,
        12.532672,
        12.91224,
        13.745312,
        13.654482
      ],
      "metadata": {},
      "peak_memory_mb": 18874.630144
    }
  },
  "{\"x\":\"f32[3840,3840,128]\",\"weights\":\"f32[128,2,256]\",\"activation\":\"jax._src.nn.functions.silu\",\"precision\":\"BF16_BF16_F32\",\"return_residuals\":false}": {},
  "{\"x\":\"bf16[3840,3840,64]\",\"weights\":\"bf16[64,2,128]\",\"activation\":\"jax._src.nn.functions.sigmoid\",\"precision\":\"BF16_BF16_F32\",\"return_residuals\":false}": {
    "{\"tile_m\":128,\"tile_n\":64,\"tile_k\":64,\"num_stages\":2,\"epi_tile_n\":32,\"epi_tile_m\":64,\"grid_minor_dim\":1,\"grid_tile_width\":16,\"wg_dimension\":1,\"cluster_size_m\":2,\"cluster_size_n\":1}": {
      "compile_time_ms": 21.127757000044767,
      "lower_time_ms": 122.99985399999969,
      "evaluation_times_ms": [
        2.88089,
        2.831002,
        2.836666,
        2.842458,
        2.838906
      ],
      "metadata": {},
      "peak_memory_mb": 5662.343168
    }
  },
  "{\"x\":\"bf16[3840,3840,64]\",\"weights\":\"bf16[64,2,128]\",\"activation\":\"jax._src.nn.functions.silu\",\"precision\":\"BF16_BF16_F32\",\"return_residuals\":false}": {
    "{\"tile_m\":128,\"tile_n\":64,\"tile_k\":64,\"num_stages\":4,\"epi_tile_n\":32,\"epi_tile_m\":64,\"grid_minor_dim\":1,\"grid_tile_width\":8,\"wg_dimension\":1,\"cluster_size_m\":2,\"cluster_size_n\":1}": {
      "compile_time_ms": 22.555207000095834,
      "lower_time_ms": 137.2978399999738,
      "evaluation_times_ms": [
        2.797655,
        2.789688,
        2.786872,
        2.776664,
        2.780376
      ],
      "metadata": {},
      "peak_memory_mb": 5662.343168
    }
  },
  "{\"x\":\"f32[5,3840,32,128]\",\"weights\":\"f32[128,2,256]\",\"activation\":\"jax._src.nn.functions.silu\",\"precision\":\"BF16_BF16_F32\",\"return_residuals\":false}": {},
  "{\"x\":\"f32[3840,32,128]\",\"weights\":\"f32[128,2,256]\",\"activation\":\"jax._src.nn.functions.silu\",\"precision\":\"BF16_BF16_F32\",\"return_residuals\":false}": {},
  "{\"x\":\"bf16[5,3840,384]\",\"weights\":\"bf16[384,2,1536]\",\"activation\":\"jax._src.nn.functions.silu\",\"precision\":\"BF16_BF16_F32\",\"return_residuals\":false}": {
    "{\"tile_m\":128,\"tile_n\":64,\"tile_k\":64,\"num_stages\":4,\"epi_tile_n\":32,\"epi_tile_m\":64,\"grid_minor_dim\":1,\"grid_tile_width\":2,\"wg_dimension\":0,\"cluster_size_m\":1,\"cluster_size_n\":1}": {
      "compile_time_ms": 909.0446770001108,
      "lower_time_ms": 165.3127450001648,
      "evaluation_times_ms": [
        0.0928,
        0.093407,
        0.092576,
        0.093119,
        0.093056
      ],
      "metadata": {},
      "peak_memory_mb": 76.087296
    }
  },
  "{\"x\":\"bf16[3840,384]\",\"weights\":\"bf16[384,2,1536]\",\"activation\":\"jax._src.nn.functions.silu\",\"precision\":\"BF16_BF16_F32\",\"return_residuals\":false}": {
    "{\"tile_m\":128,\"tile_n\":64,\"tile_k\":64,\"num_stages\":4,\"epi_tile_n\":32,\"epi_tile_m\":64,\"grid_minor_dim\":1,\"grid_tile_width\":4,\"wg_dimension\":1,\"cluster_size_m\":1,\"cluster_size_n\":1}": {
      "compile_time_ms": 570.716401000027,
      "lower_time_ms": 164.24870700006977,
      "evaluation_times_ms": [
        0.021152,
        0.02112,
        0.021152,
        0.021216,
        0.021152
      ],
      "metadata": {},
      "peak_memory_mb": 17.104896
    }
  },
  "{\"x\":\"f32[5,3840,384]\",\"weights\":\"f32[384,2,768]\",\"activation\":\"jax._src.nn.functions.silu\",\"precision\":\"BF16_BF16_F32\",\"return_residuals\":false}": {},
  "{\"x\":\"f32[3840,384]\",\"weights\":\"f32[384,2,768]\",\"activation\":\"jax._src.nn.functions.silu\",\"precision\":\"BF16_BF16_F32\",\"return_residuals\":false}": {},
  "{\"x\":\"f32[5,3840,768]\",\"weights\":\"f32[768,2,1536]\",\"activation\":\"jax._src.nn.functions.silu\",\"precision\":\"BF16_BF16_F32\",\"return_residuals\":false}": {},
  "{\"x\":\"f32[3840,768]\",\"weights\":\"f32[768,2,1536]\",\"activation\":\"jax._src.nn.functions.silu\",\"precision\":\"BF16_BF16_F32\",\"return_residuals\":false}": {},
  "{\"x\":\"bf16[1,4096,4096,128]\",\"weights\":\"bf16[128,2,256]\",\"activation\":\"jax._src.nn.functions.sigmoid\",\"precision\":\"BF16_BF16_F32\",\"return_residuals\":false}": {
    "{\"tile_m\":128,\"tile_n\":64,\"tile_k\":128,\"num_stages\":2,\"epi_tile_n\":32,\"epi_tile_m\":64,\"grid_minor_dim\":1,\"grid_tile_width\":2,\"wg_dimension\":1,\"cluster_size_m\":1,\"cluster_size_n\":2}": {
      "compile_time_ms": 891.9385580000494,
      "lower_time_ms": 138.55335300002025,
      "evaluation_times_ms": [
        6.971732,
        7.007709,
        7.155906,
        7.304935,
        7.781599
      ],
      "metadata": {},
      "peak_memory_mb": 12885.03296
    }
  },
  "{\"x\":\"bf16[1,4096,4096,128]\",\"weights\":\"bf16[128,2,512]\",\"activation\":\"jax._src.nn.functions.silu\",\"precision\":\"BF16_BF16_F32\",\"return_residuals\":false}": {
    "{\"tile_m\":128,\"tile_n\":64,\"tile_k\":128,\"num_stages\":2,\"epi_tile_n\":32,\"epi_tile_m\":64,\"grid_minor_dim\":1,\"grid_tile_width\":16,\"wg_dimension\":0,\"cluster_size_m\":1,\"cluster_size_n\":2}": {
      "compile_time_ms": 1033.850230999974,
      "lower_time_ms": 951.2123330000577,
      "evaluation_times_ms": [
        14.222199,
        14.972855,
        15.555896,
        15.396696,
        15.029239
      ],
      "metadata": {},
      "peak_memory_mb": 21475.098624
    }
  },
  "{\"x\":\"bf16[4096,4096,128]\",\"weights\":\"bf16[128,2,256]\",\"activation\":\"jax._src.nn.functions.sigmoid\",\"precision\":\"BF16_BF16_F32\",\"return_residuals\":false}": {
    "{\"tile_m\":128,\"tile_n\":64,\"tile_k\":128,\"num_stages\":1,\"epi_tile_n\":32,\"epi_tile_m\":64,\"grid_minor_dim\":1,\"grid_tile_width\":4,\"wg_dimension\":1,\"cluster_size_m\":1,\"cluster_size_n\":2}": {
      "compile_time_ms": 21.954358999892065,
      "lower_time_ms": 147.2121709998646,
      "evaluation_times_ms": [
        6.983481,
        6.945626,
        6.939514,
        7.512121,
        7.701528
      ],
      "metadata": {},
      "peak_memory_mb": 12885.03296
    }
  },
  "{\"x\":\"bf16[4096,4096,128]\",\"weights\":\"bf16[128,2,512]\",\"activation\":\"jax._src.nn.functions.silu\",\"precision\":\"BF16_BF16_F32\",\"return_residuals\":false}": {
    "{\"tile_m\":128,\"tile_n\":64,\"tile_k\":128,\"num_stages\":4,\"epi_tile_n\":32,\"epi_tile_m\":64,\"grid_minor_dim\":1,\"grid_tile_width\":16,\"wg_dimension\":0,\"cluster_size_m\":2,\"cluster_size_n\":1}": {
      "compile_time_ms": 183.94883700011633,
      "lower_time_ms": 408.25896000001194,
      "evaluation_times_ms": [
        14.167247,
        14.832558,
        15.23947,
        15.243566,
        15.070222
      ],
      "metadata": {},
      "peak_memory_mb": 21475.098624
    }
  },
  "{\"x\":\"f32[4096,4096,128]\",\"weights\":\"f32[128,2,256]\",\"activation\":\"jax._src.nn.functions.silu\",\"precision\":\"BF16_BF16_F32\",\"return_residuals\":false}": {},
  "{\"x\":\"bf16[4096,4096,64]\",\"weights\":\"bf16[64,2,128]\",\"activation\":\"jax._src.nn.functions.sigmoid\",\"precision\":\"BF16_BF16_F32\",\"return_residuals\":false}": {
    "{\"tile_m\":128,\"tile_n\":64,\"tile_k\":64,\"num_stages\":1,\"epi_tile_n\":32,\"epi_tile_m\":64,\"grid_minor_dim\":1,\"grid_tile_width\":1,\"wg_dimension\":1,\"cluster_size_m\":2,\"cluster_size_n\":1}": {
      "compile_time_ms": 18.300169000212918,
      "lower_time_ms": 126.11064400016403,
      "evaluation_times_ms": [
        3.233018,
        3.199578,
        3.20713,
        3.211545,
        3.227033
      ],
      "metadata": {},
      "peak_memory_mb": 6442.483712
    }
  },
  "{\"x\":\"bf16[4096,4096,64]\",\"weights\":\"bf16[64,2,128]\",\"activation\":\"jax._src.nn.functions.silu\",\"precision\":\"BF16_BF16_F32\",\"return_residuals\":false}": {
    "{\"tile_m\":128,\"tile_n\":64,\"tile_k\":64,\"num_stages\":2,\"epi_tile_n\":32,\"epi_tile_m\":64,\"grid_minor_dim\":1,\"grid_tile_width\":16,\"wg_dimension\":1,\"cluster_size_m\":2,\"cluster_size_n\":1}": {
      "compile_time_ms": 25.702777999867976,
      "lower_time_ms": 141.66575999979614,
      "evaluation_times_ms": [
        3.180126,
        3.155837,
        3.168957,
        3.168925,
        3.157437
      ],
      "metadata": {},
      "peak_memory_mb": 6442.483712
    }
  },
  "{\"x\":\"f32[5,4096,32,128]\",\"weights\":\"f32[128,2,256]\",\"activation\":\"jax._src.nn.functions.silu\",\"precision\":\"BF16_BF16_F32\",\"return_residuals\":false}": {},
  "{\"x\":\"f32[4096,32,128]\",\"weights\":\"f32[128,2,256]\",\"activation\":\"jax._src.nn.functions.silu\",\"precision\":\"BF16_BF16_F32\",\"return_residuals\":false}": {},
  "{\"x\":\"bf16[5,4096,384]\",\"weights\":\"bf16[384,2,1536]\",\"activation\":\"jax._src.nn.functions.silu\",\"precision\":\"BF16_BF16_F32\",\"return_residuals\":false}": {
    "{\"tile_m\":128,\"tile_n\":64,\"tile_k\":64,\"num_stages\":4,\"epi_tile_n\":32,\"epi_tile_m\":64,\"grid_minor_dim\":1,\"grid_tile_width\":1,\"wg_dimension\":1,\"cluster_size_m\":1,\"cluster_size_n\":1}": {
      "compile_time_ms": 2421.1997399997927,
      "lower_time_ms": 395.754420999765,
      "evaluation_times_ms": [
        0.099168,
        0.099199,
        0.099327,
        0.099456,
        0.099616
      ],
      "metadata": {},
      "peak_memory_mb": 81.002496
    }
  },
  "{\"x\":\"f32[5,768,32,128]\",\"weights\":\"f32[128,2,256]\",\"activation\":\"jax._src.nn.functions.silu\",\"precision\":\"BF16_BF16_F32\",\"return_residuals\":false}": {},
  "{\"x\":\"f32[768,32,128]\",\"weights\":\"f32[128,2,256]\",\"activation\":\"jax._src.nn.functions.silu\",\"precision\":\"BF16_BF16_F32\",\"return_residuals\":false}": {},
  "{\"x\":\"bf16[5,768,384]\",\"weights\":\"bf16[384,2,1536]\",\"activation\":\"jax._src.nn.functions.silu\",\"precision\":\"BF16_BF16_F32\",\"return_residuals\":false}": {
    "{\"tile_m\":128,\"tile_n\":64,\"tile_k\":64,\"num_stages\":4,\"epi_tile_n\":32,\"epi_tile_m\":64,\"grid_minor_dim\":1,\"grid_tile_width\":4,\"wg_dimension\":1,\"cluster_size_m\":1,\"cluster_size_n\":1}": {
      "compile_time_ms": 4746.614713978488,
      "lower_time_ms": 7519.239845976699,
      "evaluation_times_ms": [
        0.021248,
        0.021248,
        0.021248,
        0.021248,
        0.021312
      ],
      "metadata": {},
      "peak_memory_mb": 17.104896
    }
  },
  "{\"x\":\"bf16[768,384]\",\"weights\":\"bf16[384,2,1536]\",\"activation\":\"jax._src.nn.functions.silu\",\"precision\":\"BF16_BF16_F32\",\"return_residuals\":false}": {
    "{\"tile_m\":128,\"tile_n\":64,\"tile_k\":64,\"num_stages\":2,\"epi_tile_n\":32,\"epi_tile_m\":64,\"grid_minor_dim\":1,\"grid_tile_width\":1,\"wg_dimension\":1,\"cluster_size_m\":1,\"cluster_size_n\":1}": {
      "compile_time_ms": 3905.4548860294744,
      "lower_time_ms": 3074.4365049758926,
      "evaluation_times_ms": [
        0.008256,
        0.008288,
        0.00832,
        0.008288,
        0.008352
      ],
      "metadata": {},
      "peak_memory_mb": 5.308416
    }
  },
  "{\"x\":\"f32[5,768,384]\",\"weights\":\"f32[384,2,768]\",\"activation\":\"jax._src.nn.functions.silu\",\"precision\":\"BF16_BF16_F32\",\"return_residuals\":false}": {},
  "{\"x\":\"f32[768,384]\",\"weights\":\"f32[384,2,768]\",\"activation\":\"jax._src.nn.functions.silu\",\"precision\":\"BF16_BF16_F32\",\"return_residuals\":false}": {},
  "{\"x\":\"f32[5,768,768]\",\"weights\":\"f32[768,2,1536]\",\"activation\":\"jax._src.nn.functions.silu\",\"precision\":\"BF16_BF16_F32\",\"return_residuals\":false}": {},
  "{\"x\":\"f32[768,768]\",\"weights\":\"f32[768,2,1536]\",\"activation\":\"jax._src.nn.functions.silu\",\"precision\":\"BF16_BF16_F32\",\"return_residuals\":false}": {},
  "{\"x\":\"bf16[1,1024,1024,128]\",\"weights\":\"bf16[128,2,256]\",\"activation\":\"jax._src.nn.functions.sigmoid\",\"precision\":\"BF16_BF16_F32\",\"return_residuals\":false}": {
    "{\"tile_m\":128,\"tile_n\":64,\"tile_k\":128,\"num_stages\":4,\"epi_tile_n\":32,\"epi_tile_m\":64,\"grid_minor_dim\":1,\"grid_tile_width\":4,\"wg_dimension\":1,\"cluster_size_m\":1,\"cluster_size_n\":2}": {
      "compile_time_ms": 16791.432106983848,
      "lower_time_ms": 11657.606381981168,
      "evaluation_times_ms": [
        0.449696,
        0.458176,
        0.447488,
        0.449633,
        0.455489
      ],
      "metadata": {},
      "peak_memory_mb": 805.43744
    }
  },
  "{\"x\":\"bf16[1,1024,1024,128]\",\"weights\":\"bf16[128,2,512]\",\"activation\":\"jax._src.nn.functions.silu\",\"precision\":\"BF16_BF16_F32\",\"return_residuals\":false}": {
    "{\"tile_m\":128,\"tile_n\":64,\"tile_k\":128,\"num_stages\":1,\"epi_tile_n\":32,\"epi_tile_m\":64,\"grid_minor_dim\":1,\"grid_tile_width\":8,\"wg_dimension\":0,\"cluster_size_m\":2,\"cluster_size_n\":1}": {
      "compile_time_ms": 17210.63842996955,
      "lower_time_ms": 11751.48460600758,
      "evaluation_times_ms": [
        0.894913,
        0.886624,
        0.889473,
        0.886689,
        0.884225
      ],
      "metadata": {},
      "peak_memory_mb": 1342.439424
    }
  },
  "{\"x\":\"bf16[1024,1024,128]\",\"weights\":\"bf16[128,2,256]\",\"activation\":\"jax._src.nn.functions.sigmoid\",\"precision\":\"BF16_BF16_F32\",\"return_residuals\":false}": {
    "{\"tile_m\":128,\"tile_n\":64,\"tile_k\":128,\"num_stages\":4,\"epi_tile_n\":32,\"epi_tile_m\":64,\"grid_minor_dim\":1,\"grid_tile_width\":4,\"wg_dimension\":1,\"cluster_size_m\":1,\"cluster_size_n\":2}": {
      "compile_time_ms": 15714.396463998128,
      "lower_time_ms": 12395.054337044712,
      "evaluation_times_ms": [
        0.462912,
        0.452161,
        0.452417,
        0.463361,
        0.449793
      ],
      "metadata": {},
      "peak_memory_mb": 805.43744
    }
  },
  "{\"x\":\"bf16[4096,384]\",\"weights\":\"bf16[384,2,1536]\",\"activation\":\"jax._src.nn.functions.silu\",\"precision\":\"BF16_BF16_F32\",\"return_residuals\":false}": {
    "{\"tile_m\":128,\"tile_n\":64,\"tile_k\":64,\"num_stages\":4,\"epi_tile_n\":32,\"epi_tile_m\":64,\"grid_minor_dim\":1,\"grid_tile_width\":1,\"wg_dimension\":1,\"cluster_size_m\":1,\"cluster_size_n\":1}": {
      "compile_time_ms": 2509.2816729999754,
      "lower_time_ms": 365.3309400000353,
      "evaluation_times_ms": [
        0.021377,
        0.021216,
        0.02112,
        0.021184,
        0.021151
      ],
      "metadata": {},
      "peak_memory_mb": 18.087936
    }
  },
  "{\"x\":\"f32[5,4096,384]\",\"weights\":\"f32[384,2,768]\",\"activation\":\"jax._src.nn.functions.silu\",\"precision\":\"BF16_BF16_F32\",\"return_residuals\":false}": {},
  "{\"x\":\"f32[4096,384]\",\"weights\":\"f32[384,2,768]\",\"activation\":\"jax._src.nn.functions.silu\",\"precision\":\"BF16_BF16_F32\",\"return_residuals\":false}": {},
  "{\"x\":\"f32[5,4096,768]\",\"weights\":\"f32[768,2,1536]\",\"activation\":\"jax._src.nn.functions.silu\",\"precision\":\"BF16_BF16_F32\",\"return_residuals\":false}": {},
  "{\"x\":\"f32[4096,768]\",\"weights\":\"f32[768,2,1536]\",\"activation\":\"jax._src.nn.functions.silu\",\"precision\":\"BF16_BF16_F32\",\"return_residuals\":false}": {},
  "{\"x\":\"bf16[1,4352,4352,128]\",\"weights\":\"bf16[128,2,256]\",\"activation\":\"jax._src.nn.functions.sigmoid\",\"precision\":\"BF16_BF16_F32\",\"return_residuals\":false}": {
    "{\"tile_m\":128,\"tile_n\":64,\"tile_k\":128,\"num_stages\":1,\"epi_tile_n\":32,\"epi_tile_m\":64,\"grid_minor_dim\":1,\"grid_tile_width\":4,\"wg_dimension\":1,\"cluster_size_m\":1,\"cluster_size_n\":2}": {
      "compile_time_ms": 358.0604090000179,
      "lower_time_ms": 143.2055110001329,
      "evaluation_times_ms": [
        8.085833,
        8.068745,
        8.07857,
        8.076361,
        8.682952
      ],
      "metadata": {},
      "peak_memory_mb": 14545.977344
    }
  },
  "{\"x\":\"bf16[1,4352,4352,128]\",\"weights\":\"bf16[128,2,512]\",\"activation\":\"jax._src.nn.functions.silu\",\"precision\":\"BF16_BF16_F32\",\"return_residuals\":false}": {
    "{\"tile_m\":128,\"tile_n\":64,\"tile_k\":128,\"num_stages\":4,\"epi_tile_n\":32,\"epi_tile_m\":64,\"grid_minor_dim\":1,\"grid_tile_width\":8,\"wg_dimension\":1,\"cluster_size_m\":1,\"cluster_size_n\":2}": {
      "compile_time_ms": 999.0647090000948,
      "lower_time_ms": 405.4014069999994,
      "evaluation_times_ms": [
        15.953844,
        17.262129,
        16.916305,
        16.722226,
        16.73429
      ],
      "metadata": {},
      "peak_memory_mb": 24243.339264
    }
  },
  "{\"x\":\"bf16[4352,4352,128]\",\"weights\":\"bf16[128,2,256]\",\"activation\":\"jax._src.nn.functions.sigmoid\",\"precision\":\"BF16_BF16_F32\",\"return_residuals\":false}": {
    "{\"tile_m\":128,\"tile_n\":64,\"tile_k\":128,\"num_stages\":2,\"epi_tile_n\":32,\"epi_tile_m\":64,\"grid_minor_dim\":1,\"grid_tile_width\":4,\"wg_dimension\":0,\"cluster_size_m\":2,\"cluster_size_n\":1}": {
      "compile_time_ms": 114.79494400009571,
      "lower_time_ms": 189.80979200023285,
      "evaluation_times_ms": [
        8.097611,
        8.082603,
        8.090347,
        8.863721,
        8.743145
      ],
      "metadata": {},
      "peak_memory_mb": 14545.977344
    }
  },
  "{\"x\":\"bf16[4352,4352,128]\",\"weights\":\"bf16[128,2,512]\",\"activation\":\"jax._src.nn.functions.silu\",\"precision\":\"BF16_BF16_F32\",\"return_residuals\":false}": {
    "{\"tile_m\":128,\"tile_n\":64,\"tile_k\":128,\"num_stages\":2,\"epi_tile_n\":32,\"epi_tile_m\":64,\"grid_minor_dim\":1,\"grid_tile_width\":4,\"wg_dimension\":1,\"cluster_size_m\":1,\"cluster_size_n\":2}": {
      "compile_time_ms": 181.31112299988672,
      "lower_time_ms": 564.1070800002126,
      "evaluation_times_ms": [
        15.486241,
        16.901471,
        17.221373,
        17.025246,
        16.864479
      ],
      "metadata": {},
      "peak_memory_mb": 24243.339264
    }
  },
  "{\"x\":\"f32[4352,4352,128]\",\"weights\":\"f32[128,2,256]\",\"activation\":\"jax._src.nn.functions.silu\",\"precision\":\"BF16_BF16_F32\",\"return_residuals\":false}": {},
  "{\"x\":\"bf16[4352,4352,64]\",\"weights\":\"bf16[64,2,128]\",\"activation\":\"jax._src.nn.functions.sigmoid\",\"precision\":\"BF16_BF16_F32\",\"return_residuals\":false}": {
    "{\"tile_m\":128,\"tile_n\":64,\"tile_k\":64,\"num_stages\":4,\"epi_tile_n\":32,\"epi_tile_m\":64,\"grid_minor_dim\":1,\"grid_tile_width\":2,\"wg_dimension\":1,\"cluster_size_m\":2,\"cluster_size_n\":1}": {
      "compile_time_ms": 22.62099700010367,
      "lower_time_ms": 130.0437149998288,
      "evaluation_times_ms": [
        3.626797,
        3.631372,
        3.651661,
        3.6371,
        3.620876
      ],
      "metadata": {},
      "peak_memory_mb": 7272.955904
    },
    "{\"tile_m\":128,\"tile_n\":64,\"tile_k\":64,\"num_stages\":4,\"epi_tile_n\":32,\"epi_tile_m\":64,\"grid_minor_dim\":1,\"grid_tile_width\":4,\"wg_dimension\":1,\"cluster_size_m\":2,\"cluster_size_n\":1}": {
      "compile_time_ms": 360.60599600000387,
      "lower_time_ms": 138.2353070000022,
      "evaluation_times_ms": [
        3.606349,
        3.62494,
        3.628461,
        3.642444,
        3.649324
      ],
      "metadata": {},
      "peak_memory_mb": 7272.955904
    }
  },
  "{\"x\":\"bf16[4352,4352,64]\",\"weights\":\"bf16[64,2,128]\",\"activation\":\"jax._src.nn.functions.silu\",\"precision\":\"BF16_BF16_F32\",\"return_residuals\":false}": {
    "{\"tile_m\":128,\"tile_n\":64,\"tile_k\":64,\"num_stages\":2,\"epi_tile_n\":32,\"epi_tile_m\":64,\"grid_minor_dim\":1,\"grid_tile_width\":16,\"wg_dimension\":1,\"cluster_size_m\":2,\"cluster_size_n\":1}": {
      "compile_time_ms": 286.5395919980074,
      "lower_time_ms": 2889.349625002069,
      "evaluation_times_ms": [
        3.521923,
        3.548163,
        3.539619,
        3.546147,
        3.545347
      ],
      "metadata": {},
      "peak_memory_mb": 7272.955904
    }
  },
  "{\"x\":\"f32[5,4352,32,128]\",\"weights\":\"f32[128,2,256]\",\"activation\":\"jax._src.nn.functions.silu\",\"precision\":\"BF16_BF16_F32\",\"return_residuals\":false}": {},
  "{\"x\":\"f32[4352,32,128]\",\"weights\":\"f32[128,2,256]\",\"activation\":\"jax._src.nn.functions.silu\",\"precision\":\"BF16_BF16_F32\",\"return_residuals\":false}": {},
  "{\"x\":\"bf16[5,4352,384]\",\"weights\":\"bf16[384,2,1536]\",\"activation\":\"jax._src.nn.functions.silu\",\"precision\":\"BF16_BF16_F32\",\"return_residuals\":false}": {
    "{\"tile_m\":128,\"tile_n\":64,\"tile_k\":64,\"num_stages\":4,\"epi_tile_n\":32,\"epi_tile_m\":64,\"grid_minor_dim\":1,\"grid_tile_width\":2,\"wg_dimension\":1,\"cluster_size_m\":1,\"cluster_size_n\":1}": {
      "compile_time_ms": 5655.532078999386,
      "lower_time_ms": 2881.711264999467,
      "evaluation_times_ms": [
        0.10704,
        0.107488,
        0.106977,
        0.106816,
        0.107296
      ],
      "metadata": {},
      "peak_memory_mb": 85.917696
    }
  },
  "{\"x\":\"bf16[4352,384]\",\"weights\":\"bf16[384,2,1536]\",\"activation\":\"jax._src.nn.functions.silu\",\"precision\":\"BF16_BF16_F32\",\"return_residuals\":false}": {
    "{\"tile_m\":128,\"tile_n\":64,\"tile_k\":64,\"num_stages\":4,\"epi_tile_n\":32,\"epi_tile_m\":64,\"grid_minor_dim\":1,\"grid_tile_width\":4,\"wg_dimension\":1,\"cluster_size_m\":1,\"cluster_size_n\":1}": {
      "compile_time_ms": 4263.932841000496,
      "lower_time_ms": 4111.597544000688,
      "evaluation_times_ms": [
        0.027488,
        0.027328,
        0.027392,
        0.027328,
        0.027296
      ],
      "metadata": {},
      "peak_memory_mb": 19.070976
    }
  },
  "{\"x\":\"f32[5,4352,384]\",\"weights\":\"f32[384,2,768]\",\"activation\":\"jax._src.nn.functions.silu\",\"precision\":\"BF16_BF16_F32\",\"return_residuals\":false}": {},
  "{\"x\":\"f32[4352,384]\",\"weights\":\"f32[384,2,768]\",\"activation\":\"jax._src.nn.functions.silu\",\"precision\":\"BF16_BF16_F32\",\"return_residuals\":false}": {},
  "{\"x\":\"f32[5,4352,768]\",\"weights\":\"f32[768,2,1536]\",\"activation\":\"jax._src.nn.functions.silu\",\"precision\":\"BF16_BF16_F32\",\"return_residuals\":false}": {},
  "{\"x\":\"f32[4352,768]\",\"weights\":\"f32[768,2,1536]\",\"activation\":\"jax._src.nn.functions.silu\",\"precision\":\"BF16_BF16_F32\",\"return_residuals\":false}": {},
  "{\"x\":\"bf16[1,4608,4608,128]\",\"weights\":\"bf16[128,2,256]\",\"activation\":\"jax._src.nn.functions.sigmoid\",\"precision\":\"BF16_BF16_F32\",\"return_residuals\":false}": {
    "{\"tile_m\":128,\"tile_n\":64,\"tile_k\":128,\"num_stages\":2,\"epi_tile_n\":32,\"epi_tile_m\":64,\"grid_minor_dim\":1,\"grid_tile_width\":2,\"wg_dimension\":1,\"cluster_size_m\":1,\"cluster_size_n\":2}": {
      "compile_time_ms": 14220.172893998097,
      "lower_time_ms": 13896.343921998778,
      "evaluation_times_ms": [
        8.937657,
        8.908441,
        8.919257,
        9.955645,
        10.26755
      ],
      "metadata": {},
      "peak_memory_mb": 16307.585024
    }
  },
  "{\"x\":\"bf16[1,4608,4608,128]\",\"weights\":\"bf16[128,2,512]\",\"activation\":\"jax._src.nn.functions.silu\",\"precision\":\"BF16_BF16_F32\",\"return_residuals\":false}": {
    "{\"tile_m\":128,\"tile_n\":64,\"tile_k\":128,\"num_stages\":4,\"epi_tile_n\":32,\"epi_tile_m\":64,\"grid_minor_dim\":1,\"grid_tile_width\":4,\"wg_dimension\":1,\"cluster_size_m\":1,\"cluster_size_n\":2}": {
      "compile_time_ms": 14086.404456997116,
      "lower_time_ms": 10144.278083997051,
      "evaluation_times_ms": [
        17.706645,
        19.669115,
        19.646907,
        19.273241,
        19.15449
      ],
      "metadata": {},
      "peak_memory_mb": 27179.352064
    }
  },
  "{\"x\":\"bf16[4608,4608,128]\",\"weights\":\"bf16[128,2,256]\",\"activation\":\"jax._src.nn.functions.sigmoid\",\"precision\":\"BF16_BF16_F32\",\"return_residuals\":false}": {
    "{\"tile_m\":128,\"tile_n\":64,\"tile_k\":128,\"num_stages\":1,\"epi_tile_n\":32,\"epi_tile_m\":64,\"grid_minor_dim\":1,\"grid_tile_width\":16,\"wg_dimension\":0,\"cluster_size_m\":1,\"cluster_size_n\":2}": {
      "compile_time_ms": 422.4168220000024,
      "lower_time_ms": 1075.091595999993,
      "evaluation_times_ms": [
        9.031819,
        9.050769,
        9.079223,
        9.906664,
        9.870271
      ],
      "metadata": {},
      "peak_memory_mb": 16307.585024
    }
  },
  "{\"x\":\"bf16[4608,4608,128]\",\"weights\":\"bf16[128,2,512]\",\"activation\":\"jax._src.nn.functions.silu\",\"precision\":\"BF16_BF16_F32\",\"return_residuals\":false}": {
    "{\"tile_m\":128,\"tile_n\":64,\"tile_k\":128,\"num_stages\":2,\"epi_tile_n\":32,\"epi_tile_m\":64,\"grid_minor_dim\":1,\"grid_tile_width\":8,\"wg_dimension\":1,\"cluster_size_m\":1,\"cluster_size_n\":2}": {
      "compile_time_ms": 268.93022900003416,
      "lower_time_ms": 603.5286889999725,
      "evaluation_times_ms": [
        17.999672,
        19.359329,
        19.13961,
        18.960501,
        19.118426
      ],
      "metadata": {},
      "peak_memory_mb": 27179.352064
    }
  },
  "{\"x\":\"f32[4608,4608,128]\",\"weights\":\"f32[128,2,256]\",\"activation\":\"jax._src.nn.functions.silu\",\"precision\":\"BF16_BF16_F32\",\"return_residuals\":false}": {},
  "{\"x\":\"bf16[4608,4608,64]\",\"weights\":\"bf16[64,2,128]\",\"activation\":\"jax._src.nn.functions.sigmoid\",\"precision\":\"BF16_BF16_F32\",\"return_residuals\":false}": {
    "{\"tile_m\":128,\"tile_n\":64,\"tile_k\":64,\"num_stages\":4,\"epi_tile_n\":32,\"epi_tile_m\":64,\"grid_minor_dim\":1,\"grid_tile_width\":8,\"wg_dimension\":1,\"cluster_size_m\":2,\"cluster_size_n\":1}": {
      "compile_time_ms": 19.850961999964056,
      "lower_time_ms": 128.93997899982423,
      "evaluation_times_ms": [
        4.107789,
        4.069198,
        4.060141,
        4.077229,
        4.059502
      ],
      "metadata": {},
      "peak_memory_mb": 8153.759744
    }
  },
  "{\"x\":\"bf16[4608,4608,64]\",\"weights\":\"bf16[64,2,128]\",\"activation\":\"jax._src.nn.functions.silu\",\"precision\":\"BF16_BF16_F32\",\"return_residuals\":false}": {
    "{\"tile_m\":128,\"tile_n\":64,\"tile_k\":64,\"num_stages\":2,\"epi_tile_n\":32,\"epi_tile_m\":64,\"grid_minor_dim\":1,\"grid_tile_width\":8,\"wg_dimension\":1,\"cluster_size_m\":2,\"cluster_size_n\":1}": {
      "compile_time_ms": 17.017778000081307,
      "lower_time_ms": 134.89580100008425,
      "evaluation_times_ms": [
        3.981941,
        3.999541,
        3.976148,
        3.98242,
        3.999093
      ],
      "metadata": {},
      "peak_memory_mb": 8153.759744
    }
  },
  "{\"x\":\"f32[5,4608,32,128]\",\"weights\":\"f32[128,2,256]\",\"activation\":\"jax._src.nn.functions.silu\",\"precision\":\"BF16_BF16_F32\",\"return_residuals\":false}": {},
  "{\"x\":\"f32[4608,32,128]\",\"weights\":\"f32[128,2,256]\",\"activation\":\"jax._src.nn.functions.silu\",\"precision\":\"BF16_BF16_F32\",\"return_residuals\":false}": {},
  "{\"x\":\"bf16[5,4608,384]\",\"weights\":\"bf16[384,2,1536]\",\"activation\":\"jax._src.nn.functions.silu\",\"precision\":\"BF16_BF16_F32\",\"return_residuals\":false}": {
    "{\"tile_m\":128,\"tile_n\":64,\"tile_k\":64,\"num_stages\":4,\"epi_tile_n\":64,\"epi_tile_m\":64,\"grid_minor_dim\":1,\"grid_tile_width\":1,\"wg_dimension\":1,\"cluster_size_m\":1,\"cluster_size_n\":1}": {
      "compile_time_ms": 1662.0465969999714,
      "lower_time_ms": 322.92181699995126,
      "evaluation_times_ms": [
        0.113152,
        0.112896,
        0.113728,
        0.112864,
        0.113248
      ],
      "metadata": {},
      "peak_memory_mb": 90.832896
    }
  },
  "{\"x\":\"bf16[4608,384]\",\"weights\":\"bf16[384,2,1536]\",\"activation\":\"jax._src.nn.functions.silu\",\"precision\":\"BF16_BF16_F32\",\"return_residuals\":false}": {
    "{\"tile_m\":128,\"tile_n\":64,\"tile_k\":64,\"num_stages\":4,\"epi_tile_n\":32,\"epi_tile_m\":64,\"grid_minor_dim\":1,\"grid_tile_width\":4,\"wg_dimension\":1,\"cluster_size_m\":1,\"cluster_size_n\":1}": {
      "compile_time_ms": 1583.3022749998236,
      "lower_time_ms": 273.1799400003183,
      "evaluation_times_ms": [
        0.027328,
        0.027296,
        0.027328,
        0.027392,
        0.027648
      ],
      "metadata": {},
      "peak_memory_mb": 20.054016
    }
  },
  "{\"x\":\"f32[5,4608,384]\",\"weights\":\"f32[384,2,768]\",\"activation\":\"jax._src.nn.functions.silu\",\"precision\":\"BF16_BF16_F32\",\"return_residuals\":false}": {},
  "{\"x\":\"f32[4608,384]\",\"weights\":\"f32[384,2,768]\",\"activation\":\"jax._src.nn.functions.silu\",\"precision\":\"BF16_BF16_F32\",\"return_residuals\":false}": {},
  "{\"x\":\"f32[5,4608,768]\",\"weights\":\"f32[768,2,1536]\",\"activation\":\"jax._src.nn.functions.silu\",\"precision\":\"BF16_BF16_F32\",\"return_residuals\":false}": {},
  "{\"x\":\"f32[4608,768]\",\"weights\":\"f32[768,2,1536]\",\"activation\":\"jax._src.nn.functions.silu\",\"precision\":\"BF16_BF16_F32\",\"return_residuals\":false}": {},
  "{\"x\":\"bf16[1,4864,4864,128]\",\"weights\":\"bf16[128,2,256]\",\"activation\":\"jax._src.nn.functions.sigmoid\",\"precision\":\"BF16_BF16_F32\",\"return_residuals\":false}": {
    "{\"tile_m\":128,\"tile_n\":64,\"tile_k\":128,\"num_stages\":2,\"epi_tile_n\":32,\"epi_tile_m\":64,\"grid_minor_dim\":1,\"grid_tile_width\":2,\"wg_dimension\":1,\"cluster_size_m\":1,\"cluster_size_n\":1}": {
      "compile_time_ms": 732.1642569999653,
      "lower_time_ms": 1328.5054230000242,
      "evaluation_times_ms": [
        10.162406,
        10.178025,
        10.193741,
        10.424418,
        10.491955
      ],
      "metadata": {},
      "peak_memory_mb": 18169.856
    }
  },
  "{\"x\":\"bf16[1,4864,4864,128]\",\"weights\":\"bf16[128,2,512]\",\"activation\":\"jax._src.nn.functions.silu\",\"precision\":\"BF16_BF16_F32\",\"return_residuals\":false}": {
    "{\"tile_m\":128,\"tile_n\":64,\"tile_k\":128,\"num_stages\":4,\"epi_tile_n\":32,\"epi_tile_m\":64,\"grid_minor_dim\":1,\"grid_tile_width\":2,\"wg_dimension\":1,\"cluster_size_m\":1,\"cluster_size_n\":2}": {
      "compile_time_ms": 1502.4591420000206,
      "lower_time_ms": 489.8448090000329,
      "evaluation_times_ms": [
        19.917071,
        21.521971,
        21.481895,
        21.075884,
        21.11929
      ],
      "metadata": {},
      "peak_memory_mb": 30283.137024
    }
  },
  "{\"x\":\"bf16[4864,4864,128]\",\"weights\":\"bf16[128,2,256]\",\"activation\":\"jax._src.nn.functions.sigmoid\",\"precision\":\"BF16_BF16_F32\",\"return_residuals\":false}": {
    "{\"tile_m\":128,\"tile_n\":64,\"tile_k\":128,\"num_stages\":1,\"epi_tile_n\":32,\"epi_tile_m\":64,\"grid_minor_dim\":1,\"grid_tile_width\":8,\"wg_dimension\":1,\"cluster_size_m\":1,\"cluster_size_n\":1}": {
      "compile_time_ms": 77.95434100012244,
      "lower_time_ms": 509.2719169999782,
      "evaluation_times_ms": [
        10.132407,
        10.138072,
        10.115319,
        10.769015,
        10.881174
      ],
      "metadata": {},
      "peak_memory_mb": 18169.856
    }
  },
  "{\"x\":\"bf16[4864,4864,128]\",\"weights\":\"bf16[128,2,512]\",\"activation\":\"jax._src.nn.functions.silu\",\"precision\":\"BF16_BF16_F32\",\"return_residuals\":false}": {
    "{\"tile_m\":128,\"tile_n\":64,\"tile_k\":128,\"num_stages\":4,\"epi_tile_n\":32,\"epi_tile_m\":64,\"grid_minor_dim\":1,\"grid_tile_width\":8,\"wg_dimension\":1,\"cluster_size_m\":1,\"cluster_size_n\":2}": {
      "compile_time_ms": 20.506924000073923,
      "lower_time_ms": 132.97354400015138,
      "evaluation_times_ms": [
        20.039161,
        21.079531,
        21.086123,
        21.50023,
        21.32836
      ],
      "metadata": {},
      "peak_memory_mb": 30283.137024
    }
  },
  "{\"x\":\"f32[4864,4864,128]\",\"weights\":\"f32[128,2,256]\",\"activation\":\"jax._src.nn.functions.silu\",\"precision\":\"BF16_BF16_F32\",\"return_residuals\":false}": {},
  "{\"x\":\"bf16[4864,4864,64]\",\"weights\":\"bf16[64,2,128]\",\"activation\":\"jax._src.nn.functions.sigmoid\",\"precision\":\"BF16_BF16_F32\",\"return_residuals\":false}": {
    "{\"tile_m\":128,\"tile_n\":64,\"tile_k\":64,\"num_stages\":2,\"epi_tile_n\":32,\"epi_tile_m\":64,\"grid_minor_dim\":1,\"grid_tile_width\":4,\"wg_dimension\":1,\"cluster_size_m\":2,\"cluster_size_n\":1}": {
      "compile_time_ms": 366.3334200000463,
      "lower_time_ms": 131.05432300017128,
      "evaluation_times_ms": [
        4.532419,
        4.546787,
        4.533476,
        4.524739,
        4.533443
      ],
      "metadata": {},
      "peak_memory_mb": 9084.895232
    }
  },
  "{\"x\":\"bf16[4864,4864,64]\",\"weights\":\"bf16[64,2,128]\",\"activation\":\"jax._src.nn.functions.silu\",\"precision\":\"BF16_BF16_F32\",\"return_residuals\":false}": {
    "{\"tile_m\":128,\"tile_n\":64,\"tile_k\":64,\"num_stages\":4,\"epi_tile_n\":32,\"epi_tile_m\":64,\"grid_minor_dim\":1,\"grid_tile_width\":4,\"wg_dimension\":1,\"cluster_size_m\":2,\"cluster_size_n\":1}": {
      "compile_time_ms": 605.727633999777,
      "lower_time_ms": 259.80035400016277,
      "evaluation_times_ms": [
        4.457997,
        4.454414,
        4.434126,
        4.426254,
        4.441229
      ],
      "metadata": {},
      "peak_memory_mb": 9084.895232
    }
  },
  "{\"x\":\"f32[5,4864,32,128]\",\"weights\":\"f32[128,2,256]\",\"activation\":\"jax._src.nn.functions.silu\",\"precision\":\"BF16_BF16_F32\",\"return_residuals\":false}": {},
  "{\"x\":\"f32[4864,32,128]\",\"weights\":\"f32[128,2,256]\",\"activation\":\"jax._src.nn.functions.silu\",\"precision\":\"BF16_BF16_F32\",\"return_residuals\":false}": {},
  "{\"x\":\"bf16[1024,1024,128]\",\"weights\":\"bf16[128,2,512]\",\"activation\":\"jax._src.nn.functions.silu\",\"precision\":\"BF16_BF16_F32\",\"return_residuals\":false}": {
    "{\"tile_m\":128,\"tile_n\":64,\"tile_k\":128,\"num_stages\":2,\"epi_tile_n\":32,\"epi_tile_m\":64,\"grid_minor_dim\":1,\"grid_tile_width\":16,\"wg_dimension\":0,\"cluster_size_m\":2,\"cluster_size_n\":1}": {
      "compile_time_ms": 346.31394199999477,
      "lower_time_ms": 642.0565770000053,
      "evaluation_times_ms": [
        0.881388,
        0.888906,
        0.885259,
        0.887274,
        0.887243
      ],
      "metadata": {},
      "peak_memory_mb": 1342.439424
    }
  },
  "{\"x\":\"f32[1024,1024,128]\",\"weights\":\"f32[128,2,256]\",\"activation\":\"jax._src.nn.functions.silu\",\"precision\":\"BF16_BF16_F32\",\"return_residuals\":false}": {},
  "{\"x\":\"bf16[1024,1024,64]\",\"weights\":\"bf16[64,2,128]\",\"activation\":\"jax._src.nn.functions.sigmoid\",\"precision\":\"BF16_BF16_F32\",\"return_residuals\":false}": {
    "{\"tile_m\":128,\"tile_n\":64,\"tile_k\":64,\"num_stages\":1,\"epi_tile_n\":32,\"epi_tile_m\":64,\"grid_minor_dim\":1,\"grid_tile_width\":2,\"wg_dimension\":0,\"cluster_size_m\":1,\"cluster_size_n\":1}": {
      "compile_time_ms": 539.8188110000319,
      "lower_time_ms": 155.50681199999872,
      "evaluation_times_ms": [
        0.21619,
        0.213343,
        0.214175,
        0.214751,
        0.215134
      ],
      "metadata": {},
      "peak_memory_mb": 402.685952
    }
  },
  "{\"x\":\"bf16[1024,1024,64]\",\"weights\":\"bf16[64,2,128]\",\"activation\":\"jax._src.nn.functions.silu\",\"precision\":\"BF16_BF16_F32\",\"return_residuals\":false}": {
    "{\"tile_m\":128,\"tile_n\":64,\"tile_k\":64,\"num_stages\":1,\"epi_tile_n\":32,\"epi_tile_m\":64,\"grid_minor_dim\":1,\"grid_tile_width\":1,\"wg_dimension\":1,\"cluster_size_m\":2,\"cluster_size_n\":1}": {
      "compile_time_ms": 21.691833999966548,
      "lower_time_ms": 147.36892199994145,
      "evaluation_times_ms": [
        0.210177,
        0.210048,
        0.210528,
        0.20976,
        0.210945
      ],
      "metadata": {},
      "peak_memory_mb": 402.685952
    }
  },
  "{\"x\":\"f32[5,1024,32,128]\",\"weights\":\"f32[128,2,256]\",\"activation\":\"jax._src.nn.functions.silu\",\"precision\":\"BF16_BF16_F32\",\"return_residuals\":false}": {},
  "{\"x\":\"f32[1024,32,128]\",\"weights\":\"f32[128,2,256]\",\"activation\":\"jax._src.nn.functions.silu\",\"precision\":\"BF16_BF16_F32\",\"return_residuals\":false}": {},
  "{\"x\":\"bf16[5,1024,384]\",\"weights\":\"bf16[384,2,1536]\",\"activation\":\"jax._src.nn.functions.silu\",\"precision\":\"BF16_BF16_F32\",\"return_residuals\":false}": {
    "{\"tile_m\":128,\"tile_n\":64,\"tile_k\":64,\"num_stages\":4,\"epi_tile_n\":32,\"epi_tile_m\":64,\"grid_minor_dim\":1,\"grid_tile_width\":16,\"wg_dimension\":1,\"cluster_size_m\":1,\"cluster_size_n\":1}": {
      "compile_time_ms": 2510.667357000102,
      "lower_time_ms": 287.3643689999881,
      "evaluation_times_ms": [
        0.027584,
        0.027712,
        0.027424,
        0.027392,
        0.027392
      ],
      "metadata": {},
      "peak_memory_mb": 22.020096
    }
  },
  "{\"x\":\"bf16[1024,384]\",\"weights\":\"bf16[384,2,1536]\",\"activation\":\"jax._src.nn.functions.silu\",\"precision\":\"BF16_BF16_F32\",\"return_residuals\":false}": {
    "{\"tile_m\":128,\"tile_n\":64,\"tile_k\":64,\"num_stages\":2,\"epi_tile_n\":32,\"epi_tile_m\":64,\"grid_minor_dim\":1,\"grid_tile_width\":2,\"wg_dimension\":1,\"cluster_size_m\":1,\"cluster_size_n\":1}": {
      "compile_time_ms": 2455.8021570001074,
      "lower_time_ms": 667.9615479999939,
      "evaluation_times_ms": [
        0.008256,
        0.008384,
        0.00832,
        0.00848,
        0.00832
      ],
      "metadata": {},
      "peak_memory_mb": 6.291456
    }
  },
  "{\"x\":\"f32[5,1024,384]\",\"weights\":\"f32[384,2,768]\",\"activation\":\"jax._src.nn.functions.silu\",\"precision\":\"BF16_BF16_F32\",\"return_residuals\":false}": {},
  "{\"x\":\"f32[1024,384]\",\"weights\":\"f32[384,2,768]\",\"activation\":\"jax._src.nn.functions.silu\",\"precision\":\"BF16_BF16_F32\",\"return_residuals\":false}": {},
  "{\"x\":\"f32[5,1024,768]\",\"weights\":\"f32[768,2,1536]\",\"activation\":\"jax._src.nn.functions.silu\",\"precision\":\"BF16_BF16_F32\",\"return_residuals\":false}": {},
  "{\"x\":\"f32[1024,768]\",\"weights\":\"f32[768,2,1536]\",\"activation\":\"jax._src.nn.functions.silu\",\"precision\":\"BF16_BF16_F32\",\"return_residuals\":false}": {},
  "{\"x\":\"bf16[1,1280,1280,128]\",\"weights\":\"bf16[128,2,256]\",\"activation\":\"jax._src.nn.functions.sigmoid\",\"precision\":\"BF16_BF16_F32\",\"return_residuals\":false}": {
    "{\"tile_m\":128,\"tile_n\":64,\"tile_k\":128,\"num_stages\":4,\"epi_tile_n\":32,\"epi_tile_m\":64,\"grid_minor_dim\":1,\"grid_tile_width\":16,\"wg_dimension\":0,\"cluster_size_m\":1,\"cluster_size_n\":2}": {
      "compile_time_ms": 402.14010699992286,
      "lower_time_ms": 257.23376799999187,
      "evaluation_times_ms": [
        0.705206,
        0.716788,
        0.718932,
        0.708726,
        0.703543
      ],
      "metadata": {},
      "peak_memory_mb": 1258.422272
    }
  },
  "{\"x\":\"bf16[1,1280,1280,128]\",\"weights\":\"bf16[128,2,512]\",\"activation\":\"jax._src.nn.functions.silu\",\"precision\":\"BF16_BF16_F32\",\"return_residuals\":false}": {
    "{\"tile_m\":128,\"tile_n\":64,\"tile_k\":128,\"num_stages\":4,\"epi_tile_n\":32,\"epi_tile_m\":64,\"grid_minor_dim\":1,\"grid_tile_width\":8,\"wg_dimension\":1,\"cluster_size_m\":1,\"cluster_size_n\":2}": {
      "compile_time_ms": 1081.8397279999772,
      "lower_time_ms": 348.81145899998955,
      "evaluation_times_ms": [
        1.384328,
        1.363374,
        1.36571,
        1.375147,
        1.367085
      ],
      "metadata": {},
      "peak_memory_mb": 2097.414144
    },
    "{\"tile_m\":128,\"tile_n\":64,\"tile_k\":128,\"num_stages\":1,\"epi_tile_n\":32,\"epi_tile_m\":64,\"grid_minor_dim\":1,\"grid_tile_width\":4,\"wg_dimension\":1,\"cluster_size_m\":1,\"cluster_size_n\":2}": {
      "compile_time_ms": 22.035529999982373,
      "lower_time_ms": 140.25761400000647,
      "evaluation_times_ms": [
        1.366493,
        1.376794,
        1.365693,
        1.367484,
        1.361086
      ],
      "metadata": {},
      "peak_memory_mb": 2097.414144
    }
  },
  "{\"x\":\"bf16[1280,1280,128]\",\"weights\":\"bf16[128,2,256]\",\"activation\":\"jax._src.nn.functions.sigmoid\",\"precision\":\"BF16_BF16_F32\",\"return_residuals\":false}": {
    "{\"tile_m\":128,\"tile_n\":64,\"tile_k\":128,\"num_stages\":2,\"epi_tile_n\":32,\"epi_tile_m\":64,\"grid_minor_dim\":1,\"grid_tile_width\":2,\"wg_dimension\":0,\"cluster_size_m\":1,\"cluster_size_n\":2}": {
      "compile_time_ms": 54.93050199999061,
      "lower_time_ms": 1484.9172259999932,
      "evaluation_times_ms": [
        0.711058,
        0.720144,
        0.707283,
        0.727758,
        0.708083
      ],
      "metadata": {},
      "peak_memory_mb": 1258.422272
    }
  },
  "{\"x\":\"bf16[1280,1280,128]\",\"weights\":\"bf16[128,2,512]\",\"activation\":\"jax._src.nn.functions.silu\",\"precision\":\"BF16_BF16_F32\",\"return_residuals\":false}": {
    "{\"tile_m\":128,\"tile_n\":64,\"tile_k\":128,\"num_stages\":1,\"epi_tile_n\":32,\"epi_tile_m\":64,\"grid_minor_dim\":1,\"grid_tile_width\":4,\"wg_dimension\":1,\"cluster_size_m\":1,\"cluster_size_n\":2}": {
      "compile_time_ms": 21.48270500003946,
      "lower_time_ms": 142.41415800006507,
      "evaluation_times_ms": [
        1.373571,
        1.362534,
        1.369797,
        1.361927,
        1.362951
      ],
      "metadata": {},
      "peak_memory_mb": 2097.414144
    }
  },
  "{\"x\":\"f32[1280,1280,128]\",\"weights\":\"f32[128,2,256]\",\"activation\":\"jax._src.nn.functions.silu\",\"precision\":\"BF16_BF16_F32\",\"return_residuals\":false}": {},
  "{\"x\":\"bf16[1280,1280,64]\",\"weights\":\"bf16[64,2,128]\",\"activation\":\"jax._src.nn.functions.sigmoid\",\"precision\":\"BF16_BF16_F32\",\"return_residuals\":false}": {
    "{\"tile_m\":128,\"tile_n\":64,\"tile_k\":64,\"num_stages\":4,\"epi_tile_n\":64,\"epi_tile_m\":64,\"grid_minor_dim\":1,\"grid_tile_width\":1,\"wg_dimension\":1,\"cluster_size_m\":1,\"cluster_size_n\":1}": {
      "compile_time_ms": 518.9963660000103,
      "lower_time_ms": 118.23689999982889,
      "evaluation_times_ms": [
        0.328976,
        0.328399,
        0.328496,
        0.327728,
        0.329103
      ],
      "metadata": {},
      "peak_memory_mb": 629.178368
    }
  },
  "{\"x\":\"bf16[1280,1280,64]\",\"weights\":\"bf16[64,2,128]\",\"activation\":\"jax._src.nn.functions.silu\",\"precision\":\"BF16_BF16_F32\",\"return_residuals\":false}": {
    "{\"tile_m\":128,\"tile_n\":64,\"tile_k\":64,\"num_stages\":2,\"epi_tile_n\":32,\"epi_tile_m\":64,\"grid_minor_dim\":1,\"grid_tile_width\":8,\"wg_dimension\":1,\"cluster_size_m\":2,\"cluster_size_n\":1}": {
      "compile_time_ms": 29.070833000105267,
      "lower_time_ms": 125.76158000001669,
      "evaluation_times_ms": [
        0.322832,
        0.324176,
        0.325776,
        0.323408,
        0.325904
      ],
      "metadata": {},
      "peak_memory_mb": 629.178368
    },
    "{\"tile_m\":128,\"tile_n\":64,\"tile_k\":64,\"num_stages\":1,\"epi_tile_n\":32,\"epi_tile_m\":64,\"grid_minor_dim\":1,\"grid_tile_width\":1,\"wg_dimension\":1,\"cluster_size_m\":2,\"cluster_size_n\":1}": {
      "compile_time_ms": 21.552568999993582,
      "lower_time_ms": 131.19594600004802,
      "evaluation_times_ms": [
        0.322334,
        0.322368,
        0.325183,
        0.322432,
        0.323071
      ],
      "metadata": {},
      "peak_memory_mb": 629.178368
    }
  },
  "{\"x\":\"f32[5,1280,32,128]\",\"weights\":\"f32[128,2,256]\",\"activation\":\"jax._src.nn.functions.silu\",\"precision\":\"BF16_BF16_F32\",\"return_residuals\":false}": {},
  "{\"x\":\"f32[1280,32,128]\",\"weights\":\"f32[128,2,256]\",\"activation\":\"jax._src.nn.functions.silu\",\"precision\":\"BF16_BF16_F32\",\"return_residuals\":false}": {},
  "{\"x\":\"bf16[5,1280,384]\",\"weights\":\"bf16[384,2,1536]\",\"activation\":\"jax._src.nn.functions.silu\",\"precision\":\"BF16_BF16_F32\",\"return_residuals\":false}": {
    "{\"tile_m\":128,\"tile_n\":64,\"tile_k\":64,\"num_stages\":4,\"epi_tile_n\":32,\"epi_tile_m\":64,\"grid_minor_dim\":1,\"grid_tile_width\":2,\"wg_dimension\":0,\"cluster_size_m\":1,\"cluster_size_n\":1}": {
      "compile_time_ms": 944.5969439999544,
      "lower_time_ms": 194.69576500000585,
      "evaluation_times_ms": [
        0.033731,
        0.033508,
        0.033476,
        0.03354,
        0.033699
      ],
      "metadata": {},
      "peak_memory_mb": 26.935296
    }
  },
  "{\"x\":\"bf16[1280,384]\",\"weights\":\"bf16[384,2,1536]\",\"activation\":\"jax._src.nn.functions.silu\",\"precision\":\"BF16_BF16_F32\",\"return_residuals\":false}": {
    "{\"tile_m\":128,\"tile_n\":64,\"tile_k\":64,\"num_stages\":2,\"epi_tile_n\":32,\"epi_tile_m\":64,\"grid_minor_dim\":1,\"grid_tile_width\":1,\"wg_dimension\":0,\"cluster_size_m\":1,\"cluster_size_n\":1}": {
      "compile_time_ms": 842.0349630000032,
      "lower_time_ms": 138.9851669999871,
      "evaluation_times_ms": [
        0.008544,
        0.008512,
        0.008544,
        0.008448,
        0.008512
      ],
      "metadata": {},
      "peak_memory_mb": 7.274496
    }
  },
  "{\"x\":\"f32[5,1280,384]\",\"weights\":\"f32[384,2,768]\",\"activation\":\"jax._src.nn.functions.silu\",\"precision\":\"BF16_BF16_F32\",\"return_residuals\":false}": {},
  "{\"x\":\"f32[1280,384]\",\"weights\":\"f32[384,2,768]\",\"activation\":\"jax._src.nn.functions.silu\",\"precision\":\"BF16_BF16_F32\",\"return_residuals\":false}": {},
  "{\"x\":\"f32[5,1280,768]\",\"weights\":\"f32[768,2,1536]\",\"activation\":\"jax._src.nn.functions.silu\",\"precision\":\"BF16_BF16_F32\",\"return_residuals\":false}": {},
  "{\"x\":\"f32[1280,768]\",\"weights\":\"f32[768,2,1536]\",\"activation\":\"jax._src.nn.functions.silu\",\"precision\":\"BF16_BF16_F32\",\"return_residuals\":false}": {},
  "{\"x\":\"bf16[1,1536,1536,128]\",\"weights\":\"bf16[128,2,256]\",\"activation\":\"jax._src.nn.functions.sigmoid\",\"precision\":\"BF16_BF16_F32\",\"return_residuals\":false}": {
    "{\"tile_m\":128,\"tile_n\":64,\"tile_k\":128,\"num_stages\":4,\"epi_tile_n\":32,\"epi_tile_m\":64,\"grid_minor_dim\":1,\"grid_tile_width\":4,\"wg_dimension\":0,\"cluster_size_m\":1,\"cluster_size_n\":2}": {
      "compile_time_ms": 956.105935999858,
      "lower_time_ms": 126.62613700013026,
      "evaluation_times_ms": [
        1.013113,
        1.018329,
        1.023384,
        1.024633,
        1.011897
      ],
      "metadata": {},
      "peak_memory_mb": 1812.0704
    }
  },
  "{\"x\":\"bf16[1,1536,1536,128]\",\"weights\":\"bf16[128,2,512]\",\"activation\":\"jax._src.nn.functions.silu\",\"precision\":\"BF16_BF16_F32\",\"return_residuals\":false}": {
    "{\"tile_m\":128,\"tile_n\":64,\"tile_k\":128,\"num_stages\":1,\"epi_tile_n\":32,\"epi_tile_m\":64,\"grid_minor_dim\":1,\"grid_tile_width\":8,\"wg_dimension\":1,\"cluster_size_m\":1,\"cluster_size_n\":2}": {
      "compile_time_ms": 24.698187000012695,
      "lower_time_ms": 123.50522299993827,
      "evaluation_times_ms": [
        1.965429,
        1.961685,
        1.963446,
        1.960277,
        1.966037
      ],
      "metadata": {},
      "peak_memory_mb": 3020.161024
    }
  },
  "{\"x\":\"bf16[1536,1536,128]\",\"weights\":\"bf16[128,2,256]\",\"activation\":\"jax._src.nn.functions.sigmoid\",\"precision\":\"BF16_BF16_F32\",\"return_residuals\":false}": {
    "{\"tile_m\":128,\"tile_n\":64,\"tile_k\":128,\"num_stages\":1,\"epi_tile_n\":32,\"epi_tile_m\":64,\"grid_minor_dim\":1,\"grid_tile_width\":16,\"wg_dimension\":1,\"cluster_size_m\":1,\"cluster_size_n\":2}": {
      "compile_time_ms": 65.16950200011706,
      "lower_time_ms": 378.2610969999496,
      "evaluation_times_ms": [
        1.013498,
        1.028857,
        1.011354,
        1.016953,
        1.016058
      ],
      "metadata": {},
      "peak_memory_mb": 1812.0704
    }
  },
  "{\"x\":\"bf16[1536,1536,128]\",\"weights\":\"bf16[128,2,512]\",\"activation\":\"jax._src.nn.functions.silu\",\"precision\":\"BF16_BF16_F32\",\"return_residuals\":false}": {
    "{\"tile_m\":128,\"tile_n\":64,\"tile_k\":128,\"num_stages\":2,\"epi_tile_n\":32,\"epi_tile_m\":64,\"grid_minor_dim\":1,\"grid_tile_width\":2,\"wg_dimension\":1,\"cluster_size_m\":1,\"cluster_size_n\":2}": {
      "compile_time_ms": 26.682012000037503,
      "lower_time_ms": 152.0417340000222,
      "evaluation_times_ms": [
        1.96162,
        1.964948,
        1.958612,
        1.967285,
        1.964853
      ],
      "metadata": {},
      "peak_memory_mb": 3020.161024
    }
  },
  "{\"x\":\"f32[1536,1536,128]\",\"weights\":\"f32[128,2,256]\",\"activation\":\"jax._src.nn.functions.silu\",\"precision\":\"BF16_BF16_F32\",\"return_residuals\":false}": {},
  "{\"x\":\"bf16[1536,1536,64]\",\"weights\":\"bf16[64,2,128]\",\"activation\":\"jax._src.nn.functions.sigmoid\",\"precision\":\"BF16_BF16_F32\",\"return_residuals\":false}": {
    "{\"tile_m\":128,\"tile_n\":64,\"tile_k\":64,\"num_stages\":2,\"epi_tile_n\":32,\"epi_tile_m\":64,\"grid_minor_dim\":1,\"grid_tile_width\":2,\"wg_dimension\":0,\"cluster_size_m\":2,\"cluster_size_n\":1}": {
      "compile_time_ms": 24.255039999843575,
      "lower_time_ms": 145.7251929996346,
      "evaluation_times_ms": [
        0.47238,
        0.474492,
        0.472957,
        0.475996,
        0.467901
      ],
      "metadata": {},
      "peak_memory_mb": 906.002432
    }
  },
  "{\"x\":\"bf16[1536,1536,64]\",\"weights\":\"bf16[64,2,128]\",\"activation\":\"jax._src.nn.functions.silu\",\"precision\":\"BF16_BF16_F32\",\"return_residuals\":false}": {
    "{\"tile_m\":128,\"tile_n\":64,\"tile_k\":64,\"num_stages\":1,\"epi_tile_n\":32,\"epi_tile_m\":64,\"grid_minor_dim\":1,\"grid_tile_width\":4,\"wg_dimension\":1,\"cluster_size_m\":2,\"cluster_size_n\":1}": {
      "compile_time_ms": 2902.4558514356613,
      "lower_time_ms": 3273.738458752632,
      "evaluation_times_ms": [
        0.465921,
        0.464704,
        0.461472,
        0.461408,
        0.46224
      ],
      "metadata": {},
      "peak_memory_mb": 906.002432
    }
  },
  "{\"x\":\"f32[5,1536,32,128]\",\"weights\":\"f32[128,2,256]\",\"activation\":\"jax._src.nn.functions.silu\",\"precision\":\"BF16_BF16_F32\",\"return_residuals\":false}": {},
  "{\"x\":\"f32[1536,32,128]\",\"weights\":\"f32[128,2,256]\",\"activation\":\"jax._src.nn.functions.silu\",\"precision\":\"BF16_BF16_F32\",\"return_residuals\":false}": {},
  "{\"x\":\"bf16[5,1536,384]\",\"weights\":\"bf16[384,2,1536]\",\"activation\":\"jax._src.nn.functions.silu\",\"precision\":\"BF16_BF16_F32\",\"return_residuals\":false}": {
    "{\"tile_m\":128,\"tile_n\":64,\"tile_k\":64,\"num_stages\":4,\"epi_tile_n\":32,\"epi_tile_m\":64,\"grid_minor_dim\":1,\"grid_tile_width\":16,\"wg_dimension\":1,\"cluster_size_m\":1,\"cluster_size_n\":1}": {
      "compile_time_ms": 8477.726452052593,
      "lower_time_ms": 7695.4398062080145,
      "evaluation_times_ms": [
        0.040225,
        0.040384,
        0.040096,
        0.040096,
        0.040097
      ],
      "metadata": {},
      "peak_memory_mb": 31.850496
    }
  },
  "{\"x\":\"bf16[1536,384]\",\"weights\":\"bf16[384,2,1536]\",\"activation\":\"jax._src.nn.functions.silu\",\"precision\":\"BF16_BF16_F32\",\"return_residuals\":false}": {
    "{\"tile_m\":128,\"tile_n\":64,\"tile_k\":64,\"num_stages\":2,\"epi_tile_n\":32,\"epi_tile_m\":64,\"grid_minor_dim\":1,\"grid_tile_width\":4,\"wg_dimension\":0,\"cluster_size_m\":1,\"cluster_size_n\":1}": {
      "compile_time_ms": 3768.2817569999543,
      "lower_time_ms": 398.5549729999889,
      "evaluation_times_ms": [
        0.014435,
        0.014275,
        0.014371,
        0.014275,
        0.014339
      ],
      "metadata": {},
      "peak_memory_mb": 8.257536
    }
  },
  "{\"x\":\"f32[5,1536,384]\",\"weights\":\"f32[384,2,768]\",\"activation\":\"jax._src.nn.functions.silu\",\"precision\":\"BF16_BF16_F32\",\"return_residuals\":false}": {},
  "{\"x\":\"f32[1536,384]\",\"weights\":\"f32[384,2,768]\",\"activation\":\"jax._src.nn.functions.silu\",\"precision\":\"BF16_BF16_F32\",\"return_residuals\":false}": {},
  "{\"x\":\"f32[5,1536,768]\",\"weights\":\"f32[768,2,1536]\",\"activation\":\"jax._src.nn.functions.silu\",\"precision\":\"BF16_BF16_F32\",\"return_residuals\":false}": {},
  "{\"x\":\"f32[1536,768]\",\"weights\":\"f32[768,2,1536]\",\"activation\":\"jax._src.nn.functions.silu\",\"precision\":\"BF16_BF16_F32\",\"return_residuals\":false}": {},
  "{\"x\":\"bf16[1,1792,1792,128]\",\"weights\":\"bf16[128,2,256]\",\"activation\":\"jax._src.nn.functions.sigmoid\",\"precision\":\"BF16_BF16_F32\",\"return_residuals\":false}": {
    "{\"tile_m\":128,\"tile_n\":64,\"tile_k\":128,\"num_stages\":2,\"epi_tile_n\":32,\"epi_tile_m\":64,\"grid_minor_dim\":1,\"grid_tile_width\":8,\"wg_dimension\":0,\"cluster_size_m\":1,\"cluster_size_n\":2}": {
      "compile_time_ms": 1017.4074529998052,
      "lower_time_ms": 394.7857489999933,
      "evaluation_times_ms": [
        1.374355,
        1.377395,
        1.39957,
        1.380562,
        1.369075
      ],
      "metadata": {},
      "peak_memory_mb": 2466.381824
    }
  },
  "{\"x\":\"bf16[1,1792,1792,128]\",\"weights\":\"bf16[128,2,512]\",\"activation\":\"jax._src.nn.functions.silu\",\"precision\":\"BF16_BF16_F32\",\"return_residuals\":false}": {
    "{\"tile_m\":128,\"tile_n\":64,\"tile_k\":128,\"num_stages\":2,\"epi_tile_n\":32,\"epi_tile_m\":64,\"grid_minor_dim\":1,\"grid_tile_width\":16,\"wg_dimension\":1,\"cluster_size_m\":1,\"cluster_size_n\":2}": {
      "compile_time_ms": 182.23923399978048,
      "lower_time_ms": 181.33737500011193,
      "evaluation_times_ms": [
        2.640467,
        2.645139,
        2.652115,
        2.645811,
        2.646035
      ],
      "metadata": {},
      "peak_memory_mb": 4110.680064
    }
  },
  "{\"x\":\"bf16[1792,1792,128]\",\"weights\":\"bf16[128,2,256]\",\"activation\":\"jax._src.nn.functions.sigmoid\",\"precision\":\"BF16_BF16_F32\",\"return_residuals\":false}": {
    "{\"tile_m\":128,\"tile_n\":64,\"tile_k\":128,\"num_stages\":2,\"epi_tile_n\":32,\"epi_tile_m\":64,\"grid_minor_dim\":1,\"grid_tile_width\":4,\"wg_dimension\":0,\"cluster_size_m\":1,\"cluster_size_n\":2}": {
      "compile_time_ms": 494.16087099996275,
      "lower_time_ms": 489.25406500001145,
      "evaluation_times_ms": [
        1.369616,
        1.372591,
        1.369392,
        1.381388,
        1.372015
      ],
      "metadata": {},
      "peak_memory_mb": 2466.381824
    }
  },
  "{\"x\":\"bf16[1792,1792,128]\",\"weights\":\"bf16[128,2,512]\",\"activation\":\"jax._src.nn.functions.silu\",\"precision\":\"BF16_BF16_F32\",\"return_residuals\":false}": {
    "{\"tile_m\":128,\"tile_n\":64,\"tile_k\":128,\"num_stages\":4,\"epi_tile_n\":32,\"epi_tile_m\":64,\"grid_minor_dim\":1,\"grid_tile_width\":2,\"wg_dimension\":1,\"cluster_size_m\":1,\"cluster_size_n\":2}": {
      "compile_time_ms": 1182.6971780000122,
      "lower_time_ms": 138.56172900000274,
      "evaluation_times_ms": [
        2.659761,
        2.661617,
        2.653745,
        2.652337,
        2.66133
      ],
      "metadata": {},
      "peak_memory_mb": 4110.680064
    },
    "{\"tile_m\":128,\"tile_n\":64,\"tile_k\":128,\"num_stages\":1,\"epi_tile_n\":32,\"epi_tile_m\":64,\"grid_minor_dim\":1,\"grid_tile_width\":8,\"wg_dimension\":1,\"cluster_size_m\":1,\"cluster_size_n\":2}": {
      "compile_time_ms": 71.91856699995469,
      "lower_time_ms": 417.1361740000066,
      "evaluation_times_ms": [
        2.663528,
        2.678956,
        2.671946,
        2.690702,
        2.671562
      ],
      "metadata": {},
      "peak_memory_mb": 4110.680064
    }
  },
  "{\"x\":\"f32[1792,1792,128]\",\"weights\":\"f32[128,2,256]\",\"activation\":\"jax._src.nn.functions.silu\",\"precision\":\"BF16_BF16_F32\",\"return_residuals\":false}": {},
  "{\"x\":\"bf16[1792,1792,64]\",\"weights\":\"bf16[64,2,128]\",\"activation\":\"jax._src.nn.functions.sigmoid\",\"precision\":\"BF16_BF16_F32\",\"return_residuals\":false}": {
    "{\"tile_m\":128,\"tile_n\":64,\"tile_k\":64,\"num_stages\":4,\"epi_tile_n\":32,\"epi_tile_m\":64,\"grid_minor_dim\":1,\"grid_tile_width\":16,\"wg_dimension\":0,\"cluster_size_m\":2,\"cluster_size_n\":1}": {
      "compile_time_ms": 633.0808079999315,
      "lower_time_ms": 175.04541400001017,
      "evaluation_times_ms": [
        0.632168,
        0.635047,
        0.633064,
        0.632487,
        0.639368
      ],
      "metadata": {},
      "peak_memory_mb": 1233.158144
    }
  },
  "{\"x\":\"bf16[1792,1792,64]\",\"weights\":\"bf16[64,2,128]\",\"activation\":\"jax._src.nn.functions.silu\",\"precision\":\"BF16_BF16_F32\",\"return_residuals\":false}": {
    "{\"tile_m\":128,\"tile_n\":64,\"tile_k\":64,\"num_stages\":1,\"epi_tile_n\":32,\"epi_tile_m\":64,\"grid_minor_dim\":1,\"grid_tile_width\":8,\"wg_dimension\":1,\"cluster_size_m\":2,\"cluster_size_n\":1}": {
      "compile_time_ms": 510.8948980000605,
      "lower_time_ms": 271.98604299996987,
      "evaluation_times_ms": [
        0.625597,
        0.622397,
        0.623165,
        0.623677,
        0.621916
      ],
      "metadata": {},
      "peak_memory_mb": 1233.158144
    }
  },
  "{\"x\":\"f32[5,1792,32,128]\",\"weights\":\"f32[128,2,256]\",\"activation\":\"jax._src.nn.functions.silu\",\"precision\":\"BF16_BF16_F32\",\"return_residuals\":false}": {},
  "{\"x\":\"f32[1792,32,128]\",\"weights\":\"f32[128,2,256]\",\"activation\":\"jax._src.nn.functions.silu\",\"precision\":\"BF16_BF16_F32\",\"return_residuals\":false}": {},
  "{\"x\":\"bf16[5,1792,384]\",\"weights\":\"bf16[384,2,1536]\",\"activation\":\"jax._src.nn.functions.silu\",\"precision\":\"BF16_BF16_F32\",\"return_residuals\":false}": {
    "{\"tile_m\":128,\"tile_n\":64,\"tile_k\":64,\"num_stages\":4,\"epi_tile_n\":32,\"epi_tile_m\":64,\"grid_minor_dim\":1,\"grid_tile_width\":1,\"wg_dimension\":1,\"cluster_size_m\":1,\"cluster_size_n\":1}": {
      "compile_time_ms": 485.7803410000088,
      "lower_time_ms": 170.90356400012752,
      "evaluation_times_ms": [
        0.046912,
        0.046496,
        0.046528,
        0.046879,
        0.046463
      ],
      "metadata": {},
      "peak_memory_mb": 36.765696
    },
    "{\"tile_m\":128,\"tile_n\":64,\"tile_k\":64,\"num_stages\":4,\"epi_tile_n\":32,\"epi_tile_m\":64,\"grid_minor_dim\":1,\"grid_tile_width\":16,\"wg_dimension\":1,\"cluster_size_m\":1,\"cluster_size_n\":1}": {
      "compile_time_ms": 1102.1792780000226,
      "lower_time_ms": 328.34400799998775,
      "evaluation_times_ms": [
        0.046614,
        0.046134,
        0.04639,
        0.046263,
        0.046134
      ],
      "metadata": {},
      "peak_memory_mb": 36.765696
    }
  },
  "{\"x\":\"bf16[1792,384]\",\"weights\":\"bf16[384,2,1536]\",\"activation\":\"jax._src.nn.functions.silu\",\"precision\":\"BF16_BF16_F32\",\"return_residuals\":false}": {
    "{\"tile_m\":128,\"tile_n\":64,\"tile_k\":64,\"num_stages\":2,\"epi_tile_n\":32,\"epi_tile_m\":64,\"grid_minor_dim\":1,\"grid_tile_width\":4,\"wg_dimension\":1,\"cluster_size_m\":1,\"cluster_size_n\":1}": {
      "compile_time_ms": 2388.8913330000037,
      "lower_time_ms": 144.45706700001892,
      "evaluation_times_ms": [
        0.014688,
        0.014592,
        0.014592,
        0.014463,
        0.014783
      ],
      "metadata": {},
      "peak_memory_mb": 9.240576
    }
  },
  "{\"x\":\"f32[5,1792,384]\",\"weights\":\"f32[384,2,768]\",\"activation\":\"jax._src.nn.functions.silu\",\"precision\":\"BF16_BF16_F32\",\"return_residuals\":false}": {},
  "{\"x\":\"f32[1792,384]\",\"weights\":\"f32[384,2,768]\",\"activation\":\"jax._src.nn.functions.silu\",\"precision\":\"BF16_BF16_F32\",\"return_residuals\":false}": {},
  "{\"x\":\"f32[5,1792,768]\",\"weights\":\"f32[768,2,1536]\",\"activation\":\"jax._src.nn.functions.silu\",\"precision\":\"BF16_BF16_F32\",\"return_residuals\":false}": {},
  "{\"x\":\"f32[1792,768]\",\"weights\":\"f32[768,2,1536]\",\"activation\":\"jax._src.nn.functions.silu\",\"precision\":\"BF16_BF16_F32\",\"return_residuals\":false}": {},
  "{\"x\":\"bf16[1,2048,2048,128]\",\"weights\":\"bf16[128,2,256]\",\"activation\":\"jax._src.nn.functions.sigmoid\",\"precision\":\"BF16_BF16_F32\",\"return_residuals\":false}": {
    "{\"tile_m\":128,\"tile_n\":64,\"tile_k\":128,\"num_stages\":4,\"epi_tile_n\":32,\"epi_tile_m\":64,\"grid_minor_dim\":1,\"grid_tile_width\":4,\"wg_dimension\":1,\"cluster_size_m\":1,\"cluster_size_n\":2}": {
      "compile_time_ms": 1982.9313509999338,
      "lower_time_ms": 390.6482979999737,
      "evaluation_times_ms": [
        1.74263,
        1.758336,
        1.752899,
        1.758338,
        1.751331
      ],
      "metadata": {},
      "peak_memory_mb": 3221.356544
    },
    "{\"tile_m\":128,\"tile_n\":64,\"tile_k\":128,\"num_stages\":2,\"epi_tile_n\":32,\"epi_tile_m\":64,\"grid_minor_dim\":1,\"grid_tile_width\":8,\"wg_dimension\":1,\"cluster_size_m\":1,\"cluster_size_n\":2}": {
      "compile_time_ms": 53.28559399998767,
      "lower_time_ms": 824.9421819999725,
      "evaluation_times_ms": [
        1.750094,
        1.781572,
        1.759669,
        1.753072,
        1.754225
      ],
      "metadata": {},
      "peak_memory_mb": 3221.356544
    }
  },
  "{\"x\":\"bf16[1,2048,2048,128]\",\"weights\":\"bf16[128,2,512]\",\"activation\":\"jax._src.nn.functions.silu\",\"precision\":\"BF16_BF16_F32\",\"return_residuals\":false}": {
    "{\"tile_m\":128,\"tile_n\":64,\"tile_k\":128,\"num_stages\":2,\"epi_tile_n\":32,\"epi_tile_m\":64,\"grid_minor_dim\":1,\"grid_tile_width\":2,\"wg_dimension\":0,\"cluster_size_m\":1,\"cluster_size_n\":2}": {
      "compile_time_ms": 388.1758400000308,
      "lower_time_ms": 512.5348779999968,
      "evaluation_times_ms": [
        3.476197,
        3.472869,
        3.469988,
        3.463493,
        3.498661
      ],
      "metadata": {},
      "peak_memory_mb": 5368.971264
    }
  },
  "{\"x\":\"bf16[2048,2048,128]\",\"weights\":\"bf16[128,2,256]\",\"activation\":\"jax._src.nn.functions.sigmoid\",\"precision\":\"BF16_BF16_F32\",\"return_residuals\":false}": {
    "{\"tile_m\":128,\"tile_n\":64,\"tile_k\":128,\"num_stages\":2,\"epi_tile_n\":32,\"epi_tile_m\":64,\"grid_minor_dim\":1,\"grid_tile_width\":8,\"wg_dimension\":1,\"cluster_size_m\":1,\"cluster_size_n\":2}": {
      "compile_time_ms": 38.832016000014846,
      "lower_time_ms": 288.65794099999675,
      "evaluation_times_ms": [
        1.761793,
        1.756034,
        1.766242,
        1.749986,
        1.753922
      ],
      "metadata": {},
      "peak_memory_mb": 3221.356544
    }
  },
  "{\"x\":\"bf16[2048,2048,128]\",\"weights\":\"bf16[128,2,512]\",\"activation\":\"jax._src.nn.functions.silu\",\"precision\":\"BF16_BF16_F32\",\"return_residuals\":false}": {
    "{\"tile_m\":128,\"tile_n\":64,\"tile_k\":128,\"num_stages\":4,\"epi_tile_n\":32,\"epi_tile_m\":64,\"grid_minor_dim\":1,\"grid_tile_width\":2,\"wg_dimension\":0,\"cluster_size_m\":1,\"cluster_size_n\":2}": {
      "compile_time_ms": 290.0916439999719,
      "lower_time_ms": 663.5655279999355,
      "evaluation_times_ms": [
        3.49761,
        3.497001,
        3.510345,
        3.506857,
        3.517641
      ],
      "metadata": {},
      "peak_memory_mb": 5368.971264
    }
  },
  "{\"x\":\"f32[2048,2048,128]\",\"weights\":\"f32[128,2,256]\",\"activation\":\"jax._src.nn.functions.silu\",\"precision\":\"BF16_BF16_F32\",\"return_residuals\":false}": {},
  "{\"x\":\"bf16[2048,2048,64]\",\"weights\":\"bf16[64,2,128]\",\"activation\":\"jax._src.nn.functions.sigmoid\",\"precision\":\"BF16_BF16_F32\",\"return_residuals\":false}": {
    "{\"tile_m\":128,\"tile_n\":64,\"tile_k\":64,\"num_stages\":1,\"epi_tile_n\":32,\"epi_tile_m\":64,\"grid_minor_dim\":1,\"grid_tile_width\":16,\"wg_dimension\":1,\"cluster_size_m\":2,\"cluster_size_n\":1}": {
      "compile_time_ms": 460.3824660000555,
      "lower_time_ms": 141.41664699991452,
      "evaluation_times_ms": [
        0.832309,
        0.824917,
        0.812277,
        0.817685,
        0.815188
      ],
      "metadata": {},
      "peak_memory_mb": 1610.645504
    }
  },
  "{\"x\":\"bf16[2048,2048,64]\",\"weights\":\"bf16[64,2,128]\",\"activation\":\"jax._src.nn.functions.silu\",\"precision\":\"BF16_BF16_F32\",\"return_residuals\":false}": {
    "{\"tile_m\":128,\"tile_n\":64,\"tile_k\":64,\"num_stages\":4,\"epi_tile_n\":32,\"epi_tile_m\":64,\"grid_minor_dim\":1,\"grid_tile_width\":2,\"wg_dimension\":1,\"cluster_size_m\":2,\"cluster_size_n\":1}": {
      "compile_time_ms": 20.094607999908476,
      "lower_time_ms": 137.30035399998997,
      "evaluation_times_ms": [
        0.797269,
        0.810965,
        0.808278,
        0.815093,
        0.810582
      ],
      "metadata": {},
      "peak_memory_mb": 1610.645504
    }
  },
  "{\"x\":\"f32[5,2048,32,128]\",\"weights\":\"f32[128,2,256]\",\"activation\":\"jax._src.nn.functions.silu\",\"precision\":\"BF16_BF16_F32\",\"return_residuals\":false}": {},
  "{\"x\":\"f32[2048,32,128]\",\"weights\":\"f32[128,2,256]\",\"activation\":\"jax._src.nn.functions.silu\",\"precision\":\"BF16_BF16_F32\",\"return_residuals\":false}": {},
  "{\"x\":\"bf16[5,2048,384]\",\"weights\":\"bf16[384,2,1536]\",\"activation\":\"jax._src.nn.functions.silu\",\"precision\":\"BF16_BF16_F32\",\"return_residuals\":false}": {
    "{\"tile_m\":128,\"tile_n\":64,\"tile_k\":64,\"num_stages\":4,\"epi_tile_n\":32,\"epi_tile_m\":64,\"grid_minor_dim\":1,\"grid_tile_width\":16,\"wg_dimension\":1,\"cluster_size_m\":1,\"cluster_size_n\":1}": {
      "compile_time_ms": 2892.1908740000504,
      "lower_time_ms": 194.86570700001948,
      "evaluation_times_ms": [
        0.05218,
        0.052148,
        0.052051,
        0.052307,
        0.052595
      ],
      "metadata": {},
      "peak_memory_mb": 41.680896
    }
  },
  "{\"x\":\"bf16[2048,384]\",\"weights\":\"bf16[384,2,1536]\",\"activation\":\"jax._src.nn.functions.silu\",\"precision\":\"BF16_BF16_F32\",\"return_residuals\":false}": {
    "{\"tile_m\":128,\"tile_n\":64,\"tile_k\":64,\"num_stages\":2,\"epi_tile_n\":32,\"epi_tile_m\":64,\"grid_minor_dim\":1,\"grid_tile_width\":4,\"wg_dimension\":1,\"cluster_size_m\":1,\"cluster_size_n\":1}": {
      "compile_time_ms": 2240.491814000052,
      "lower_time_ms": 184.67828600000757,
      "evaluation_times_ms": [
        0.014587,
        0.01462,
        0.014588,
        0.014588,
        0.014747
      ],
      "metadata": {},
      "peak_memory_mb": 10.223616
    },
    "{\"tile_m\":128,\"tile_n\":64,\"tile_k\":64,\"num_stages\":2,\"epi_tile_n\":32,\"epi_tile_m\":64,\"grid_minor_dim\":1,\"grid_tile_width\":2,\"wg_dimension\":1,\"cluster_size_m\":1,\"cluster_size_n\":1}": {
      "compile_time_ms": 2454.7291180000175,
      "lower_time_ms": 270.2621369999747,
      "evaluation_times_ms": [
        0.014652,
        0.01462,
        0.014589,
        0.014525,
        0.014588
      ],
      "metadata": {},
      "peak_memory_mb": 10.223616
    }
  },
  "{\"x\":\"f32[5,2048,384]\",\"weights\":\"f32[384,2,768]\",\"activation\":\"jax._src.nn.functions.silu\",\"precision\":\"BF16_BF16_F32\",\"return_residuals\":false}": {},
  "{\"x\":\"f32[2048,384]\",\"weights\":\"f32[384,2,768]\",\"activation\":\"jax._src.nn.functions.silu\",\"precision\":\"BF16_BF16_F32\",\"return_residuals\":false}": {},
  "{\"x\":\"f32[5,2048,768]\",\"weights\":\"f32[768,2,1536]\",\"activation\":\"jax._src.nn.functions.silu\",\"precision\":\"BF16_BF16_F32\",\"return_residuals\":false}": {},
  "{\"x\":\"f32[2048,768]\",\"weights\":\"f32[768,2,1536]\",\"activation\":\"jax._src.nn.functions.silu\",\"precision\":\"BF16_BF16_F32\",\"return_residuals\":false}": {},
  "{\"x\":\"bf16[1,2304,2304,128]\",\"weights\":\"bf16[128,2,256]\",\"activation\":\"jax._src.nn.functions.sigmoid\",\"precision\":\"BF16_BF16_F32\",\"return_residuals\":false}": {
    "{\"tile_m\":128,\"tile_n\":64,\"tile_k\":128,\"num_stages\":4,\"epi_tile_n\":32,\"epi_tile_m\":64,\"grid_minor_dim\":1,\"grid_tile_width\":8,\"wg_dimension\":0,\"cluster_size_m\":1,\"cluster_size_n\":2}": {
      "compile_time_ms": 21.175935999963258,
      "lower_time_ms": 149.15550400019129,
      "evaluation_times_ms": [
        2.262526,
        2.276249,
        2.266588,
        2.277529,
        2.264094
      ],
      "metadata": {},
      "peak_memory_mb": 4076.99456
    }
  },
  "{\"x\":\"bf16[1,2304,2304,128]\",\"weights\":\"bf16[128,2,512]\",\"activation\":\"jax._src.nn.functions.silu\",\"precision\":\"BF16_BF16_F32\",\"return_residuals\":false}": {
    "{\"tile_m\":128,\"tile_n\":64,\"tile_k\":128,\"num_stages\":2,\"epi_tile_n\":32,\"epi_tile_m\":64,\"grid_minor_dim\":1,\"grid_tile_width\":16,\"wg_dimension\":1,\"cluster_size_m\":1,\"cluster_size_n\":2}": {
      "compile_time_ms": 69.85351200000878,
      "lower_time_ms": 403.3898309999131,
      "evaluation_times_ms": [
        4.375736,
        4.372407,
        4.383159,
        4.694591,
        4.720477
      ],
      "metadata": {},
      "peak_memory_mb": 6795.034624
    }
  },
  "{\"x\":\"bf16[2304,2304,128]\",\"weights\":\"bf16[128,2,256]\",\"activation\":\"jax._src.nn.functions.sigmoid\",\"precision\":\"BF16_BF16_F32\",\"return_residuals\":false}": {
    "{\"tile_m\":128,\"tile_n\":64,\"tile_k\":128,\"num_stages\":4,\"epi_tile_n\":32,\"epi_tile_m\":64,\"grid_minor_dim\":1,\"grid_tile_width\":8,\"wg_dimension\":0,\"cluster_size_m\":1,\"cluster_size_n\":2}": {
      "compile_time_ms": 15.615737999951307,
      "lower_time_ms": 123.44205599993074,
      "evaluation_times_ms": [
        2.257575,
        2.265158,
        2.293702,
        2.266119,
        2.269319
      ],
      "metadata": {},
      "peak_memory_mb": 4076.99456
    }
  },
  "{\"x\":\"bf16[2304,2304,128]\",\"weights\":\"bf16[128,2,512]\",\"activation\":\"jax._src.nn.functions.silu\",\"precision\":\"BF16_BF16_F32\",\"return_residuals\":false}": {
    "{\"tile_m\":128,\"tile_n\":64,\"tile_k\":128,\"num_stages\":2,\"epi_tile_n\":32,\"epi_tile_m\":64,\"grid_minor_dim\":1,\"grid_tile_width\":16,\"wg_dimension\":1,\"cluster_size_m\":1,\"cluster_size_n\":2}": {
      "compile_time_ms": 97.47161899986168,
      "lower_time_ms": 339.7223539996048,
      "evaluation_times_ms": [
        4.382443,
        4.373451,
        4.390922,
        4.633804,
        4.707435
      ],
      "metadata": {},
      "peak_memory_mb": 6795.034624
    }
  },
  "{\"x\":\"f32[2304,2304,128]\",\"weights\":\"f32[128,2,256]\",\"activation\":\"jax._src.nn.functions.silu\",\"precision\":\"BF16_BF16_F32\",\"return_residuals\":false}": {}
}
