{
  "{\"x\":\"bf16[1,512,512,128]\",\"weights\":\"bf16[128,2,256]\",\"activation\":\"jax._src.nn.functions.sigmoid\",\"precision\":\"BF16_BF16_F32\",\"return_residuals\":false}": {
    "{\"block_m\":64,\"block_n\":64,\"block_k\":32,\"num_warps\":4,\"num_stages\":3}": {
      "compile_time_ms": 201.21500499999456,
      "lower_time_ms": 3922.399976000179,
      "evaluation_times_ms": [
        0.148544,
        0.148257,
        0.148128,
        0.147841,
        0.146688
      ],
      "metadata": {},
      "peak_memory_mb": 201.457664
    }
  },
  "{\"x\":\"bf16[1,512,512,128]\",\"weights\":\"bf16[128,2,512]\",\"activation\":\"jax._src.nn.functions.silu\",\"precision\":\"BF16_BF16_F32\",\"return_residuals\":false}": {
    "{\"block_m\":64,\"block_n\":64,\"block_k\":32,\"num_warps\":4,\"num_stages\":3}": {
      "compile_time_ms": 209.13281499997538,
      "lower_time_ms": 4779.585558000235,
      "evaluation_times_ms": [
        0.307137,
        0.304193,
        0.303873,
        0.303521,
        0.304321
      ],
      "metadata": {},
      "peak_memory_mb": 335.806464
    }
  },
  "{\"x\":\"bf16[512,512,128]\",\"weights\":\"bf16[128,2,256]\",\"activation\":\"jax._src.nn.functions.sigmoid\",\"precision\":\"BF16_BF16_F32\",\"return_residuals\":false}": {
    "{\"block_m\":64,\"block_n\":64,\"block_k\":32,\"num_warps\":4,\"num_stages\":3}": {
      "compile_time_ms": 199.88639900020644,
      "lower_time_ms": 5973.161669000092,
      "evaluation_times_ms": [
        0.148801,
        0.147745,
        0.149761,
        0.147776,
        0.147777
      ],
      "metadata": {},
      "peak_memory_mb": 201.457664
    }
  },
  "{\"x\":\"bf16[512,512,128]\",\"weights\":\"bf16[128,2,512]\",\"activation\":\"jax._src.nn.functions.silu\",\"precision\":\"BF16_BF16_F32\",\"return_residuals\":false}": {
    "{\"block_m\":64,\"block_n\":64,\"block_k\":32,\"num_warps\":4,\"num_stages\":3}": {
      "compile_time_ms": 204.3436319995635,
      "lower_time_ms": 4607.063900999947,
      "evaluation_times_ms": [
        0.303905,
        0.304961,
        0.304897,
        0.303969,
        0.304161
      ],
      "metadata": {},
      "peak_memory_mb": 335.806464
    }
  },
  "{\"x\":\"f32[512,512,128]\",\"weights\":\"f32[128,2,256]\",\"activation\":\"jax._src.nn.functions.silu\",\"precision\":\"BF16_BF16_F32\",\"return_residuals\":false}": {
    "{\"block_m\":128,\"block_n\":64,\"block_k\":32,\"num_warps\":4,\"num_stages\":4}": {
      "compile_time_ms": 523.4972989997004,
      "lower_time_ms": 3813.3612199999334,
      "evaluation_times_ms": [
        0.238337,
        0.237089,
        0.238881,
        0.238177,
        0.238273
      ],
      "metadata": {},
      "peak_memory_mb": 402.915328
    }
  },
  "{\"x\":\"bf16[512,512,64]\",\"weights\":\"bf16[64,2,128]\",\"activation\":\"jax._src.nn.functions.sigmoid\",\"precision\":\"BF16_BF16_F32\",\"return_residuals\":false}": {
    "{\"block_m\":64,\"block_n\":64,\"block_k\":32,\"num_warps\":4,\"num_stages\":3}": {
      "compile_time_ms": 187.73049099991113,
      "lower_time_ms": 4192.158915000164,
      "evaluation_times_ms": [
        0.057408,
        0.056704,
        0.056448,
        0.057568,
        0.05648
      ],
      "metadata": {},
      "peak_memory_mb": 100.696064
    }
  },
  "{\"x\":\"bf16[512,512,64]\",\"weights\":\"bf16[64,2,128]\",\"activation\":\"jax._src.nn.functions.silu\",\"precision\":\"BF16_BF16_F32\",\"return_residuals\":false}": {
    "{\"block_m\":64,\"block_n\":64,\"block_k\":32,\"num_warps\":4,\"num_stages\":3}": {
      "compile_time_ms": 199.4026649999796,
      "lower_time_ms": 5074.863246999939,
      "evaluation_times_ms": [
        0.062625,
        0.062048,
        0.061984,
        0.062816,
        0.062112
      ],
      "metadata": {},
      "peak_memory_mb": 100.696064
    }
  },
  "{\"x\":\"f32[5,512,32,128]\",\"weights\":\"f32[128,2,256]\",\"activation\":\"jax._src.nn.functions.silu\",\"precision\":\"BF16_BF16_F32\",\"return_residuals\":false}": {
    "{\"block_m\":128,\"block_n\":64,\"block_k\":32,\"num_warps\":4,\"num_stages\":4}": {
      "compile_time_ms": 374.7423939998953,
      "lower_time_ms": 5119.102925999869,
      "evaluation_times_ms": [
        0.077536,
        0.077953,
        0.078016,
        0.07744,
        0.077568
      ],
      "metadata": {},
      "peak_memory_mb": 126.091264
    }
  },
  "{\"x\":\"f32[512,32,128]\",\"weights\":\"f32[128,2,256]\",\"activation\":\"jax._src.nn.functions.silu\",\"precision\":\"BF16_BF16_F32\",\"return_residuals\":false}": {
    "{\"block_m\":128,\"block_n\":64,\"block_k\":32,\"num_warps\":4,\"num_stages\":3}": {
      "compile_time_ms": 382.2592229998918,
      "lower_time_ms": 4634.715920999952,
      "evaluation_times_ms": [
        0.017152,
        0.016992,
        0.017152,
        0.017184,
        0.017024
      ],
      "metadata": {},
      "peak_memory_mb": 25.427968
    }
  },
  "{\"x\":\"bf16[5,512,384]\",\"weights\":\"bf16[384,2,1536]\",\"activation\":\"jax._src.nn.functions.silu\",\"precision\":\"BF16_BF16_F32\",\"return_residuals\":false}": {
    "{\"block_m\":128,\"block_n\":64,\"block_k\":32,\"num_warps\":8,\"num_stages\":3}": {
      "compile_time_ms": 349.66056200028106,
      "lower_time_ms": 4371.458698999959,
      "evaluation_times_ms": [
        0.019328,
        0.019168,
        0.0192,
        0.019232,
        0.019296
      ],
      "metadata": {},
      "peak_memory_mb": 12.189696
    }
  },
  "{\"x\":\"bf16[512,384]\",\"weights\":\"bf16[384,2,1536]\",\"activation\":\"jax._src.nn.functions.silu\",\"precision\":\"BF16_BF16_F32\",\"return_residuals\":false}": {
    "{\"block_m\":64,\"block_n\":64,\"block_k\":32,\"num_warps\":4,\"num_stages\":3}": {
      "compile_time_ms": 400.71212500015463,
      "lower_time_ms": 4956.720205999773,
      "evaluation_times_ms": [
        0.006432,
        0.006464,
        0.0064,
        0.006432,
        0.006432
      ],
      "metadata": {},
      "peak_memory_mb": 4.325376
    }
  },
  "{\"x\":\"f32[5,512,384]\",\"weights\":\"f32[384,2,768]\",\"activation\":\"jax._src.nn.functions.silu\",\"precision\":\"BF16_BF16_F32\",\"return_residuals\":false}": {
    "{\"block_m\":128,\"block_n\":64,\"block_k\":32,\"num_warps\":4,\"num_stages\":3}": {
      "compile_time_ms": 1293.1764630000089,
      "lower_time_ms": 3300.8821700000226,
      "evaluation_times_ms": [
        0.016864,
        0.0168,
        0.016864,
        0.016991,
        0.016864
      ],
      "metadata": {},
      "peak_memory_mb": 14.155776
    }
  },
  "{\"x\":\"f32[512,384]\",\"weights\":\"f32[384,2,768]\",\"activation\":\"jax._src.nn.functions.silu\",\"precision\":\"BF16_BF16_F32\",\"return_residuals\":false}": {
    "{\"block_m\":128,\"block_n\":32,\"block_k\":32,\"num_warps\":4,\"num_stages\":4}": {
      "compile_time_ms": 232.7191120000407,
      "lower_time_ms": 6478.931535999891,
      "evaluation_times_ms": [
        0.008416,
        0.008384,
        0.008384,
        0.008384,
        0.008384
      ],
      "metadata": {},
      "peak_memory_mb": 4.718592
    }
  },
  "{\"x\":\"f32[5,512,768]\",\"weights\":\"f32[768,2,1536]\",\"activation\":\"jax._src.nn.functions.silu\",\"precision\":\"BF16_BF16_F32\",\"return_residuals\":false}": {
    "{\"block_m\":128,\"block_n\":64,\"block_k\":32,\"num_warps\":4,\"num_stages\":3}": {
      "compile_time_ms": 416.884348999929,
      "lower_time_ms": 4136.424454000007,
      "evaluation_times_ms": [
        0.055903,
        0.055136,
        0.054975,
        0.055679,
        0.055199
      ],
      "metadata": {},
      "peak_memory_mb": 33.030144
    }
  },
  "{\"x\":\"f32[512,768]\",\"weights\":\"f32[768,2,1536]\",\"activation\":\"jax._src.nn.functions.silu\",\"precision\":\"BF16_BF16_F32\",\"return_residuals\":false}": {
    "{\"block_m\":128,\"block_n\":64,\"block_k\":32,\"num_warps\":4,\"num_stages\":3}": {
      "compile_time_ms": 366.2054439998883,
      "lower_time_ms": 3699.4149140000445,
      "evaluation_times_ms": [
        0.018879,
        0.018816,
        0.01888,
        0.018848,
        0.018816
      ],
      "metadata": {},
      "peak_memory_mb": 14.155776
    }
  },
  "{\"x\":\"bf16[1,768,768,128]\",\"weights\":\"bf16[128,2,256]\",\"activation\":\"jax._src.nn.functions.sigmoid\",\"precision\":\"BF16_BF16_F32\",\"return_residuals\":false}": {
    "{\"block_m\":64,\"block_n\":64,\"block_k\":32,\"num_warps\":4,\"num_stages\":3}": {
      "compile_time_ms": 198.8682759999847,
      "lower_time_ms": 5742.05209999991,
      "evaluation_times_ms": [
        0.32518,
        0.324027,
        0.324443,
        0.324411,
        0.325147
      ],
      "metadata": {},
      "peak_memory_mb": 453.115904
    }
  },
  "{\"x\":\"bf16[1,768,768,128]\",\"weights\":\"bf16[128,2,512]\",\"activation\":\"jax._src.nn.functions.silu\",\"precision\":\"BF16_BF16_F32\",\"return_residuals\":false}": {
    "{\"block_m\":64,\"block_n\":64,\"block_k\":32,\"num_warps\":4,\"num_stages\":3}": {
      "compile_time_ms": 192.74928499999078,
      "lower_time_ms": 5526.416478999863,
      "evaluation_times_ms": [
        0.670198,
        0.673397,
        0.672566,
        0.672565,
        0.674326
      ],
      "metadata": {},
      "peak_memory_mb": 755.236864
    }
  },
  "{\"x\":\"bf16[768,768,128]\",\"weights\":\"bf16[128,2,256]\",\"activation\":\"jax._src.nn.functions.sigmoid\",\"precision\":\"BF16_BF16_F32\",\"return_residuals\":false}": {
    "{\"block_m\":64,\"block_n\":64,\"block_k\":32,\"num_warps\":4,\"num_stages\":3}": {
      "compile_time_ms": 199.52628600003663,
      "lower_time_ms": 4850.746898000125,
      "evaluation_times_ms": [
        0.324315,
        0.322907,
        0.324987,
        0.324123,
        0.324379
      ],
      "metadata": {},
      "peak_memory_mb": 453.115904
    }
  },
  "{\"x\":\"bf16[768,768,128]\",\"weights\":\"bf16[128,2,512]\",\"activation\":\"jax._src.nn.functions.silu\",\"precision\":\"BF16_BF16_F32\",\"return_residuals\":false}": {
    "{\"block_m\":64,\"block_n\":64,\"block_k\":32,\"num_warps\":4,\"num_stages\":3}": {
      "compile_time_ms": 200.7269369998994,
      "lower_time_ms": 4394.692271000167,
      "evaluation_times_ms": [
        0.671446,
        0.67615,
        0.671702,
        0.67135,
        0.672854
      ],
      "metadata": {},
      "peak_memory_mb": 755.236864
    }
  },
  "{\"x\":\"f32[768,768,128]\",\"weights\":\"f32[128,2,256]\",\"activation\":\"jax._src.nn.functions.silu\",\"precision\":\"BF16_BF16_F32\",\"return_residuals\":false}": {
    "{\"block_m\":128,\"block_n\":64,\"block_k\":32,\"num_warps\":4,\"num_stages\":4}": {
      "compile_time_ms": 377.7091639999526,
      "lower_time_ms": 4230.4796020000595,
      "evaluation_times_ms": [
        0.521848,
        0.520984,
        0.51948,
        0.520792,
        0.520984
      ],
      "metadata": {},
      "peak_memory_mb": 906.231808
    }
  },
  "{\"x\":\"bf16[768,768,64]\",\"weights\":\"bf16[64,2,128]\",\"activation\":\"jax._src.nn.functions.sigmoid\",\"precision\":\"BF16_BF16_F32\",\"return_residuals\":false}": {
    "{\"block_m\":64,\"block_n\":64,\"block_k\":32,\"num_warps\":4,\"num_stages\":3}": {
      "compile_time_ms": 200.30601999997089,
      "lower_time_ms": 4142.2442010000395,
      "evaluation_times_ms": [
        0.126046,
        0.126238,
        0.12563,
        0.126558,
        0.126238
      ],
      "metadata": {},
      "peak_memory_mb": 226.525184
    }
  },
  "{\"x\":\"bf16[768,768,64]\",\"weights\":\"bf16[64,2,128]\",\"activation\":\"jax._src.nn.functions.silu\",\"precision\":\"BF16_BF16_F32\",\"return_residuals\":false}": {
    "{\"block_m\":64,\"block_n\":64,\"block_k\":32,\"num_warps\":4,\"num_stages\":3}": {
      "compile_time_ms": 196.96616300007008,
      "lower_time_ms": 3611.8145309999363,
      "evaluation_times_ms": [
        0.13907,
        0.139135,
        0.137854,
        0.137502,
        0.138142
      ],
      "metadata": {},
      "peak_memory_mb": 226.525184
    }
  },
  "{\"x\":\"bf16[2304,2304,64]\",\"weights\":\"bf16[64,2,128]\",\"activation\":\"jax._src.nn.functions.sigmoid\",\"precision\":\"BF16_BF16_F32\",\"return_residuals\":false}": {
    "{\"block_m\":64,\"block_n\":64,\"block_k\":32,\"num_warps\":4,\"num_stages\":3}": {
      "compile_time_ms": 190.58252900003936,
      "lower_time_ms": 4034.6957049998764,
      "evaluation_times_ms": [
        1.062557,
        1.063517,
        1.065276,
        1.065372,
        1.064412
      ],
      "metadata": {},
      "peak_memory_mb": 2038.464512
    }
  },
  "{\"x\":\"bf16[2304,2304,64]\",\"weights\":\"bf16[64,2,128]\",\"activation\":\"jax._src.nn.functions.silu\",\"precision\":\"BF16_BF16_F32\",\"return_residuals\":false}": {
    "{\"block_m\":64,\"block_n\":64,\"block_k\":32,\"num_warps\":4,\"num_stages\":3}": {
      "compile_time_ms": 194.20095700002094,
      "lower_time_ms": 4455.049302999896,
      "evaluation_times_ms": [
        1.176027,
        1.175131,
        1.180987,
        1.176827,
        1.180763
      ],
      "metadata": {},
      "peak_memory_mb": 2038.464512
    }
  },
  "{\"x\":\"f32[5,2304,32,128]\",\"weights\":\"f32[128,2,256]\",\"activation\":\"jax._src.nn.functions.silu\",\"precision\":\"BF16_BF16_F32\",\"return_residuals\":false}": {
    "{\"block_m\":128,\"block_n\":64,\"block_k\":32,\"num_warps\":4,\"num_stages\":4}": {
      "compile_time_ms": 373.01327299996956,
      "lower_time_ms": 3898.528739000085,
      "evaluation_times_ms": [
        0.332574,
        0.331615,
        0.332318,
        0.331679,
        0.330878
      ],
      "metadata": {},
      "peak_memory_mb": 566.493184
    }
  },
  "{\"x\":\"f32[2304,32,128]\",\"weights\":\"f32[128,2,256]\",\"activation\":\"jax._src.nn.functions.silu\",\"precision\":\"BF16_BF16_F32\",\"return_residuals\":false}": {
    "{\"block_m\":128,\"block_n\":64,\"block_k\":32,\"num_warps\":4,\"num_stages\":4}": {
      "compile_time_ms": 400.7554590000382,
      "lower_time_ms": 4446.639434999952,
      "evaluation_times_ms": [
        0.071328,
        0.070271,
        0.070464,
        0.070688,
        0.070463
      ],
      "metadata": {},
      "peak_memory_mb": 113.508352
    }
  },
  "{\"x\":\"bf16[5,2304,384]\",\"weights\":\"bf16[384,2,1536]\",\"activation\":\"jax._src.nn.functions.silu\",\"precision\":\"BF16_BF16_F32\",\"return_residuals\":false}": {
    "{\"block_m\":64,\"block_n\":128,\"block_k\":32,\"num_warps\":4,\"num_stages\":3}": {
      "compile_time_ms": 935.231333000047,
      "lower_time_ms": 4399.364213000126,
      "evaluation_times_ms": [
        0.075936,
        0.075967,
        0.075519,
        0.07584,
        0.075775
      ],
      "metadata": {},
      "peak_memory_mb": 46.596096
    }
  },
  "{\"x\":\"bf16[2304,384]\",\"weights\":\"bf16[384,2,1536]\",\"activation\":\"jax._src.nn.functions.silu\",\"precision\":\"BF16_BF16_F32\",\"return_residuals\":false}": {
    "{\"block_m\":64,\"block_n\":64,\"block_k\":32,\"num_warps\":4,\"num_stages\":3}": {
      "compile_time_ms": 339.8971920000804,
      "lower_time_ms": 3141.1210969999956,
      "evaluation_times_ms": [
        0.017951,
        0.018016,
        0.018048,
        0.017888,
        0.018112
      ],
      "metadata": {},
      "peak_memory_mb": 11.206656
    }
  },
  "{\"x\":\"f32[5,2304,384]\",\"weights\":\"f32[384,2,768]\",\"activation\":\"jax._src.nn.functions.silu\",\"precision\":\"BF16_BF16_F32\",\"return_residuals\":false}": {
    "{\"block_m\":128,\"block_n\":64,\"block_k\":32,\"num_warps\":4,\"num_stages\":4}": {
      "compile_time_ms": 380.2284729999883,
      "lower_time_ms": 4195.161573000178,
      "evaluation_times_ms": [
        0.071456,
        0.071968,
        0.071552,
        0.072128,
        0.071872
      ],
      "metadata": {},
      "peak_memory_mb": 55.443456
    }
  },
  "{\"x\":\"f32[2304,384]\",\"weights\":\"f32[384,2,768]\",\"activation\":\"jax._src.nn.functions.silu\",\"precision\":\"BF16_BF16_F32\",\"return_residuals\":false}": {
    "{\"block_m\":128,\"block_n\":64,\"block_k\":32,\"num_warps\":4,\"num_stages\":3}": {
      "compile_time_ms": 358.9940930000921,
      "lower_time_ms": 3787.3571000000084,
      "evaluation_times_ms": [
        0.016896,
        0.016736,
        0.016736,
        0.016704,
        0.017056
      ],
      "metadata": {},
      "peak_memory_mb": 12.976128
    }
  },
  "{\"x\":\"f32[5,2304,768]\",\"weights\":\"f32[768,2,1536]\",\"activation\":\"jax._src.nn.functions.silu\",\"precision\":\"BF16_BF16_F32\",\"return_residuals\":false}": {
    "{\"block_m\":128,\"block_n\":64,\"block_k\":32,\"num_warps\":4,\"num_stages\":3}": {
      "compile_time_ms": 395.80424999985553,
      "lower_time_ms": 3992.8181550001227,
      "evaluation_times_ms": [
        0.242207,
        0.241087,
        0.242206,
        0.241855,
        0.240414
      ],
      "metadata": {},
      "peak_memory_mb": 115.605504
    }
  },
  "{\"x\":\"f32[2304,768]\",\"weights\":\"f32[768,2,1536]\",\"activation\":\"jax._src.nn.functions.silu\",\"precision\":\"BF16_BF16_F32\",\"return_residuals\":false}": {
    "{\"block_m\":128,\"block_n\":64,\"block_k\":32,\"num_warps\":4,\"num_stages\":3}": {
      "compile_time_ms": 395.4699159999109,
      "lower_time_ms": 3567.175794999912,
      "evaluation_times_ms": [
        0.055136,
        0.054848,
        0.054912,
        0.054623,
        0.054815
      ],
      "metadata": {},
      "peak_memory_mb": 30.670848
    }
  },
  "{\"x\":\"bf16[1,2560,2560,128]\",\"weights\":\"bf16[128,2,256]\",\"activation\":\"jax._src.nn.functions.sigmoid\",\"precision\":\"BF16_BF16_F32\",\"return_residuals\":false}": {
    "{\"block_m\":64,\"block_n\":64,\"block_k\":32,\"num_warps\":4,\"num_stages\":3}": {
      "compile_time_ms": 194.28029899995636,
      "lower_time_ms": 4085.2120030001515,
      "evaluation_times_ms": [
        3.430255,
        3.427343,
        3.430895,
        3.565102,
        3.635822
      ],
      "metadata": {},
      "peak_memory_mb": 5033.295872
    }
  },
  "{\"x\":\"bf16[1,2560,2560,128]\",\"weights\":\"bf16[128,2,512]\",\"activation\":\"jax._src.nn.functions.silu\",\"precision\":\"BF16_BF16_F32\",\"return_residuals\":false}": {
    "{\"block_m\":64,\"block_n\":64,\"block_k\":32,\"num_warps\":4,\"num_stages\":3}": {
      "compile_time_ms": 195.272500000101,
      "lower_time_ms": 4109.810129999914,
      "evaluation_times_ms": [
        7.348343,
        7.43711,
        7.596022,
        7.65663,
        7.714582
      ],
      "metadata": {},
      "peak_memory_mb": 8388.870144
    }
  },
  "{\"x\":\"bf16[2560,2560,128]\",\"weights\":\"bf16[128,2,256]\",\"activation\":\"jax._src.nn.functions.sigmoid\",\"precision\":\"BF16_BF16_F32\",\"return_residuals\":false}": {
    "{\"block_m\":64,\"block_n\":64,\"block_k\":32,\"num_warps\":4,\"num_stages\":3}": {
      "compile_time_ms": 196.8967560001147,
      "lower_time_ms": 3970.108675999654,
      "evaluation_times_ms": [
        3.447037,
        3.450749,
        3.441277,
        3.443549,
        3.446174
      ],
      "metadata": {},
      "peak_memory_mb": 5033.295872
    }
  },
  "{\"x\":\"bf16[2560,2560,128]\",\"weights\":\"bf16[128,2,512]\",\"activation\":\"jax._src.nn.functions.silu\",\"precision\":\"BF16_BF16_F32\",\"return_residuals\":false}": {
    "{\"block_m\":64,\"block_n\":64,\"block_k\":32,\"num_warps\":4,\"num_stages\":3}": {
      "compile_time_ms": 195.8635390001291,
      "lower_time_ms": 3813.509721000173,
      "evaluation_times_ms": [
        7.376769,
        7.378625,
        7.576865,
        7.655009,
        7.759713
      ],
      "metadata": {},
      "peak_memory_mb": 8388.870144
    }
  },
  "{\"x\":\"f32[2560,2560,128]\",\"weights\":\"f32[128,2,256]\",\"activation\":\"jax._src.nn.functions.silu\",\"precision\":\"BF16_BF16_F32\",\"return_residuals\":false}": {
    "{\"block_m\":128,\"block_n\":64,\"block_k\":32,\"num_warps\":4,\"num_stages\":4}": {
      "compile_time_ms": 378.165806999732,
      "lower_time_ms": 5488.746572999844,
      "evaluation_times_ms": [
        5.712896,
        5.713311,
        5.710975,
        5.711871,
        5.71523
      ],
      "metadata": {},
      "peak_memory_mb": 10066.591744
    }
  },
  "{\"x\":\"bf16[2560,2560,64]\",\"weights\":\"bf16[64,2,128]\",\"activation\":\"jax._src.nn.functions.sigmoid\",\"precision\":\"BF16_BF16_F32\",\"return_residuals\":false}": {
    "{\"block_m\":64,\"block_n\":64,\"block_k\":32,\"num_warps\":4,\"num_stages\":3}": {
      "compile_time_ms": 189.9584939997112,
      "lower_time_ms": 5195.270378999794,
      "evaluation_times_ms": [
        1.314944,
        1.316288,
        1.315968,
        1.314721,
        1.315392
      ],
      "metadata": {},
      "peak_memory_mb": 2516.615168
    }
  },
  "{\"x\":\"bf16[2560,2560,64]\",\"weights\":\"bf16[64,2,128]\",\"activation\":\"jax._src.nn.functions.silu\",\"precision\":\"BF16_BF16_F32\",\"return_residuals\":false}": {
    "{\"block_m\":64,\"block_n\":64,\"block_k\":32,\"num_warps\":4,\"num_stages\":3}": {
      "compile_time_ms": 215.56571500013888,
      "lower_time_ms": 3375.8414530002483,
      "evaluation_times_ms": [
        1.46192,
        1.464319,
        1.45552,
        1.462047,
        1.464256
      ],
      "metadata": {},
      "peak_memory_mb": 2516.615168
    }
  },
  "{\"x\":\"f32[5,2560,32,128]\",\"weights\":\"f32[128,2,256]\",\"activation\":\"jax._src.nn.functions.silu\",\"precision\":\"BF16_BF16_F32\",\"return_residuals\":false}": {
    "{\"block_m\":128,\"block_n\":64,\"block_k\":32,\"num_warps\":4,\"num_stages\":4}": {
      "compile_time_ms": 390.6516070001089,
      "lower_time_ms": 5194.512670000222,
      "evaluation_times_ms": [
        0.36368,
        0.364704,
        0.363807,
        0.364032,
        0.364641
      ],
      "metadata": {},
      "peak_memory_mb": 629.407744
    }
  },
  "{\"x\":\"f32[2560,32,128]\",\"weights\":\"f32[128,2,256]\",\"activation\":\"jax._src.nn.functions.silu\",\"precision\":\"BF16_BF16_F32\",\"return_residuals\":false}": {
    "{\"block_m\":128,\"block_n\":64,\"block_k\":32,\"num_warps\":4,\"num_stages\":4}": {
      "compile_time_ms": 378.1377710001834,
      "lower_time_ms": 4039.994165999815,
      "evaluation_times_ms": [
        0.076864,
        0.077344,
        0.076608,
        0.077696,
        0.076992
      ],
      "metadata": {},
      "peak_memory_mb": 126.091264
    }
  },
  "{\"x\":\"bf16[5,2560,384]\",\"weights\":\"bf16[384,2,1536]\",\"activation\":\"jax._src.nn.functions.silu\",\"precision\":\"BF16_BF16_F32\",\"return_residuals\":false}": {
    "{\"block_m\":128,\"block_n\":64,\"block_k\":32,\"num_warps\":4,\"num_stages\":4}": {
      "compile_time_ms": 882.1053910000956,
      "lower_time_ms": 5336.3355129999945,
      "evaluation_times_ms": [
        0.084512,
        0.08448,
        0.085024,
        0.08464,
        0.08464
      ],
      "metadata": {},
      "peak_memory_mb": 51.511296
    }
  },
  "{\"x\":\"bf16[2560,384]\",\"weights\":\"bf16[384,2,1536]\",\"activation\":\"jax._src.nn.functions.silu\",\"precision\":\"BF16_BF16_F32\",\"return_residuals\":false}": {
    "{\"block_m\":128,\"block_n\":64,\"block_k\":32,\"num_warps\":8,\"num_stages\":3}": {
      "compile_time_ms": 367.3817510002664,
      "lower_time_ms": 4289.11104000008,
      "evaluation_times_ms": [
        0.019073,
        0.019296,
        0.0192,
        0.019168,
        0.019167
      ],
      "metadata": {},
      "peak_memory_mb": 12.189696
    }
  },
  "{\"x\":\"f32[5,2560,384]\",\"weights\":\"f32[384,2,768]\",\"activation\":\"jax._src.nn.functions.silu\",\"precision\":\"BF16_BF16_F32\",\"return_residuals\":false}": {
    "{\"block_m\":128,\"block_n\":64,\"block_k\":32,\"num_warps\":4,\"num_stages\":4}": {
      "compile_time_ms": 381.9123970001783,
      "lower_time_ms": 3987.1439890002875,
      "evaluation_times_ms": [
        0.077824,
        0.077056,
        0.077536,
        0.077344,
        0.077792
      ],
      "metadata": {},
      "peak_memory_mb": 61.341696
    }
  },
  "{\"x\":\"f32[2560,384]\",\"weights\":\"f32[384,2,768]\",\"activation\":\"jax._src.nn.functions.silu\",\"precision\":\"BF16_BF16_F32\",\"return_residuals\":false}": {
    "{\"block_m\":128,\"block_n\":64,\"block_k\":32,\"num_warps\":4,\"num_stages\":3}": {
      "compile_time_ms": 493.8161670000909,
      "lower_time_ms": 4550.927660999946,
      "evaluation_times_ms": [
        0.01658,
        0.016676,
        0.016612,
        0.016644,
        0.016709
      ],
      "metadata": {},
      "peak_memory_mb": 14.155776
    }
  },
  "{\"x\":\"f32[5,2560,768]\",\"weights\":\"f32[768,2,1536]\",\"activation\":\"jax._src.nn.functions.silu\",\"precision\":\"BF16_BF16_F32\",\"return_residuals\":false}": {
    "{\"block_m\":128,\"block_n\":64,\"block_k\":32,\"num_warps\":4,\"num_stages\":4}": {
      "compile_time_ms": 414.24168600008215,
      "lower_time_ms": 5694.640747999983,
      "evaluation_times_ms": [
        0.266406,
        0.267206,
        0.266214,
        0.267238,
        0.263621
      ],
      "metadata": {},
      "peak_memory_mb": 127.401984
    }
  },
  "{\"x\":\"f32[2560,768]\",\"weights\":\"f32[768,2,1536]\",\"activation\":\"jax._src.nn.functions.silu\",\"precision\":\"BF16_BF16_F32\",\"return_residuals\":false}": {
    "{\"block_m\":128,\"block_n\":64,\"block_k\":32,\"num_warps\":4,\"num_stages\":3}": {
      "compile_time_ms": 407.15628400005244,
      "lower_time_ms": 4571.955966000019,
      "evaluation_times_ms": [
        0.05499,
        0.055471,
        0.055055,
        0.055439,
        0.055663
      ],
      "metadata": {},
      "peak_memory_mb": 33.030144
    }
  },
  "{\"x\":\"bf16[1,2816,2816,128]\",\"weights\":\"bf16[128,2,256]\",\"activation\":\"jax._src.nn.functions.sigmoid\",\"precision\":\"BF16_BF16_F32\",\"return_residuals\":false}": {
    "{\"block_m\":64,\"block_n\":64,\"block_k\":32,\"num_warps\":4,\"num_stages\":3}": {
      "compile_time_ms": 196.29793700005393,
      "lower_time_ms": 4350.870573000066,
      "evaluation_times_ms": [
        4.16841,
        4.171163,
        4.282619,
        4.313252,
        4.385432
      ],
      "metadata": {},
      "peak_memory_mb": 6090.26048
    }
  },
  "{\"x\":\"bf16[1,2816,2816,128]\",\"weights\":\"bf16[128,2,512]\",\"activation\":\"jax._src.nn.functions.silu\",\"precision\":\"BF16_BF16_F32\",\"return_residuals\":false}": {
    "{\"block_m\":64,\"block_n\":64,\"block_k\":32,\"num_warps\":4,\"num_stages\":3}": {
      "compile_time_ms": 193.4775909999189,
      "lower_time_ms": 4146.731566999961,
      "evaluation_times_ms": [
        8.895126,
        9.126715,
        9.328278,
        9.486469,
        9.547128
      ],
      "metadata": {},
      "peak_memory_mb": 10150.477824
    }
  },
  "{\"x\":\"bf16[2816,2816,128]\",\"weights\":\"bf16[128,2,256]\",\"activation\":\"jax._src.nn.functions.sigmoid\",\"precision\":\"BF16_BF16_F32\",\"return_residuals\":false}": {
    "{\"block_m\":64,\"block_n\":64,\"block_k\":32,\"num_warps\":4,\"num_stages\":3}": {
      "compile_time_ms": 245.70000100004563,
      "lower_time_ms": 3821.5612520000377,
      "evaluation_times_ms": [
        4.181999,
        4.17294,
        4.268745,
        4.350851,
        4.381997
      ],
      "metadata": {},
      "peak_memory_mb": 6090.26048
    }
  },
  "{\"x\":\"bf16[2816,2816,128]\",\"weights\":\"bf16[128,2,512]\",\"activation\":\"jax._src.nn.functions.silu\",\"precision\":\"BF16_BF16_F32\",\"return_residuals\":false}": {
    "{\"block_m\":64,\"block_n\":64,\"block_k\":32,\"num_warps\":4,\"num_stages\":3}": {
      "compile_time_ms": 210.9797600001002,
      "lower_time_ms": 3934.6920320001573,
      "evaluation_times_ms": [
        8.910332,
        8.91286,
        9.218079,
        9.47778,
        9.594617
      ],
      "metadata": {},
      "peak_memory_mb": 10150.477824
    }
  },
  "{\"x\":\"f32[2816,2816,128]\",\"weights\":\"f32[128,2,256]\",\"activation\":\"jax._src.nn.functions.silu\",\"precision\":\"BF16_BF16_F32\",\"return_residuals\":false}": {
    "{\"block_m\":128,\"block_n\":64,\"block_k\":32,\"num_warps\":4,\"num_stages\":4}": {
      "compile_time_ms": 369.12648500015166,
      "lower_time_ms": 5070.391686999983,
      "evaluation_times_ms": [
        7.154165,
        7.107078,
        7.029163,
        6.980443,
        7.017735
      ],
      "metadata": {},
      "peak_memory_mb": 12180.52096
    }
  },
  "{\"x\":\"bf16[2816,2816,64]\",\"weights\":\"bf16[64,2,128]\",\"activation\":\"jax._src.nn.functions.sigmoid\",\"precision\":\"BF16_BF16_F32\",\"return_residuals\":false}": {
    "{\"block_m\":64,\"block_n\":64,\"block_k\":32,\"num_warps\":4,\"num_stages\":3}": {
      "compile_time_ms": 187.21677899998213,
      "lower_time_ms": 4348.59078799991,
      "evaluation_times_ms": [
        1.587073,
        1.588706,
        1.588449,
        1.583039,
        1.587745
      ],
      "metadata": {},
      "peak_memory_mb": 3045.097472
    }
  },
  "{\"x\":\"bf16[2816,2816,64]\",\"weights\":\"bf16[64,2,128]\",\"activation\":\"jax._src.nn.functions.silu\",\"precision\":\"BF16_BF16_F32\",\"return_residuals\":false}": {
    "{\"block_m\":64,\"block_n\":64,\"block_k\":32,\"num_warps\":4,\"num_stages\":3}": {
      "compile_time_ms": 205.38808599985714,
      "lower_time_ms": 4814.614225000014,
      "evaluation_times_ms": [
        1.754534,
        1.760424,
        1.762569,
        1.762601,
        1.755462
      ],
      "metadata": {},
      "peak_memory_mb": 3045.097472
    }
  },
  "{\"x\":\"f32[5,2816,32,128]\",\"weights\":\"f32[128,2,256]\",\"activation\":\"jax._src.nn.functions.silu\",\"precision\":\"BF16_BF16_F32\",\"return_residuals\":false}": {
    "{\"block_m\":128,\"block_n\":64,\"block_k\":32,\"num_warps\":4,\"num_stages\":4}": {
      "compile_time_ms": 380.2494280000701,
      "lower_time_ms": 3810.6441569998424,
      "evaluation_times_ms": [
        0.405233,
        0.405201,
        0.405424,
        0.405873,
        0.404912
      ],
      "metadata": {},
      "peak_memory_mb": 692.322304
    }
  },
  "{\"x\":\"f32[2816,32,128]\",\"weights\":\"f32[128,2,256]\",\"activation\":\"jax._src.nn.functions.silu\",\"precision\":\"BF16_BF16_F32\",\"return_residuals\":false}": {
    "{\"block_m\":128,\"block_n\":64,\"block_k\":32,\"num_warps\":4,\"num_stages\":4}": {
      "compile_time_ms": 378.3897260000231,
      "lower_time_ms": 4978.566505999879,
      "evaluation_times_ms": [
        0.086304,
        0.086207,
        0.085728,
        0.086176,
        0.085951
      ],
      "metadata": {},
      "peak_memory_mb": 138.674176
    }
  },
  "{\"x\":\"bf16[5,2816,384]\",\"weights\":\"bf16[384,2,1536]\",\"activation\":\"jax._src.nn.functions.silu\",\"precision\":\"BF16_BF16_F32\",\"return_residuals\":false}": {
    "{\"block_m\":64,\"block_n\":128,\"block_k\":32,\"num_warps\":4,\"num_stages\":3}": {
      "compile_time_ms": 906.9881219998024,
      "lower_time_ms": 4380.183162999856,
      "evaluation_times_ms": [
        0.091744,
        0.092159,
        0.092064,
        0.091583,
        0.092256
      ],
      "metadata": {},
      "peak_memory_mb": 56.426496
    }
  },
  "{\"x\":\"bf16[2816,384]\",\"weights\":\"bf16[384,2,1536]\",\"activation\":\"jax._src.nn.functions.silu\",\"precision\":\"BF16_BF16_F32\",\"return_residuals\":false}": {
    "{\"block_m\":128,\"block_n\":64,\"block_k\":32,\"num_warps\":8,\"num_stages\":3}": {
      "compile_time_ms": 344.30007799983287,
      "lower_time_ms": 3184.7919540000476,
      "evaluation_times_ms": [
        0.019616,
        0.019552,
        0.019712,
        0.019776,
        0.019584
      ],
      "metadata": {},
      "peak_memory_mb": 13.172736
    }
  },
  "{\"x\":\"f32[5,2816,384]\",\"weights\":\"f32[384,2,768]\",\"activation\":\"jax._src.nn.functions.silu\",\"precision\":\"BF16_BF16_F32\",\"return_residuals\":false}": {
    "{\"block_m\":128,\"block_n\":64,\"block_k\":32,\"num_warps\":4,\"num_stages\":4}": {
      "compile_time_ms": 389.5856939998339,
      "lower_time_ms": 5167.506093000156,
      "evaluation_times_ms": [
        0.080832,
        0.081279,
        0.080287,
        0.080159,
        0.080064
      ],
      "metadata": {},
      "peak_memory_mb": 67.239936
    }
  },
  "{\"x\":\"f32[2816,384]\",\"weights\":\"f32[384,2,768]\",\"activation\":\"jax._src.nn.functions.silu\",\"precision\":\"BF16_BF16_F32\",\"return_residuals\":false}": {
    "{\"block_m\":128,\"block_n\":64,\"block_k\":32,\"num_warps\":4,\"num_stages\":4}": {
      "compile_time_ms": 382.9920149996724,
      "lower_time_ms": 3583.0098530000214,
      "evaluation_times_ms": [
        0.017088,
        0.017088,
        0.017056,
        0.017024,
        0.01712
      ],
      "metadata": {},
      "peak_memory_mb": 15.335424
    }
  },
  "{\"x\":\"f32[5,2816,768]\",\"weights\":\"f32[768,2,1536]\",\"activation\":\"jax._src.nn.functions.silu\",\"precision\":\"BF16_BF16_F32\",\"return_residuals\":false}": {
    "{\"block_m\":128,\"block_n\":64,\"block_k\":32,\"num_warps\":4,\"num_stages\":4}": {
      "compile_time_ms": 420.0556810001217,
      "lower_time_ms": 5041.397270999823,
      "evaluation_times_ms": [
        0.277311,
        0.277726,
        0.27891,
        0.276734,
        0.278109
      ],
      "metadata": {},
      "peak_memory_mb": 139.198464
    }
  },
  "{\"x\":\"f32[2816,768]\",\"weights\":\"f32[768,2,1536]\",\"activation\":\"jax._src.nn.functions.silu\",\"precision\":\"BF16_BF16_F32\",\"return_residuals\":false}": {
    "{\"block_m\":128,\"block_n\":64,\"block_k\":32,\"num_warps\":4,\"num_stages\":3}": {
      "compile_time_ms": 385.9388169998965,
      "lower_time_ms": 4765.057884000271,
      "evaluation_times_ms": [
        0.056864,
        0.057088,
        0.057696,
        0.057663,
        0.057247
      ],
      "metadata": {},
      "peak_memory_mb": 35.38944
    }
  },
  "{\"x\":\"bf16[1,3072,3072,128]\",\"weights\":\"bf16[128,2,256]\",\"activation\":\"jax._src.nn.functions.sigmoid\",\"precision\":\"BF16_BF16_F32\",\"return_residuals\":false}": {
    "{\"block_m\":64,\"block_n\":128,\"block_k\":32,\"num_warps\":4,\"num_stages\":3}": {
      "compile_time_ms": 381.35479700031283,
      "lower_time_ms": 6125.476203999824,
      "evaluation_times_ms": [
        5.115797,
        5.115285,
        5.142037,
        5.180468,
        5.240595
      ],
      "metadata": {},
      "peak_memory_mb": 7247.888384
    }
  },
  "{\"x\":\"bf16[1,3072,3072,128]\",\"weights\":\"bf16[128,2,512]\",\"activation\":\"jax._src.nn.functions.silu\",\"precision\":\"BF16_BF16_F32\",\"return_residuals\":false}": {
    "{\"block_m\":128,\"block_n\":64,\"block_k\":32,\"num_warps\":8,\"num_stages\":4}": {
      "compile_time_ms": 238.3208360001845,
      "lower_time_ms": 3663.855630999933,
      "evaluation_times_ms": [
        11.314253,
        11.312846,
        11.29867,
        11.296238,
        11.299214
      ],
      "metadata": {},
      "peak_memory_mb": 12079.857664
    }
  },
  "{\"x\":\"bf16[3072,3072,128]\",\"weights\":\"bf16[128,2,256]\",\"activation\":\"jax._src.nn.functions.sigmoid\",\"precision\":\"BF16_BF16_F32\",\"return_residuals\":false}": {
    "{\"block_m\":64,\"block_n\":128,\"block_k\":32,\"num_warps\":4,\"num_stages\":3}": {
      "compile_time_ms": 385.93432300012864,
      "lower_time_ms": 4247.581251000156,
      "evaluation_times_ms": [
        5.132604,
        5.135868,
        5.159964,
        5.17494,
        5.252827
      ],
      "metadata": {},
      "peak_memory_mb": 7247.888384
    }
  },
  "{\"x\":\"bf16[3072,3072,128]\",\"weights\":\"bf16[128,2,512]\",\"activation\":\"jax._src.nn.functions.silu\",\"precision\":\"BF16_BF16_F32\",\"return_residuals\":false}": {
    "{\"block_m\":64,\"block_n\":64,\"block_k\":32,\"num_warps\":4,\"num_stages\":3}": {
      "compile_time_ms": 199.89520199987965,
      "lower_time_ms": 4385.92259699999,
      "evaluation_times_ms": [
        10.655551,
        10.937822,
        11.294044,
        11.386299,
        11.356059
      ],
      "metadata": {},
      "peak_memory_mb": 12079.857664
    }
  },
  "{\"x\":\"f32[3072,3072,128]\",\"weights\":\"f32[128,2,256]\",\"activation\":\"jax._src.nn.functions.silu\",\"precision\":\"BF16_BF16_F32\",\"return_residuals\":false}": {
    "{\"block_m\":128,\"block_n\":64,\"block_k\":32,\"num_warps\":4,\"num_stages\":4}": {
      "compile_time_ms": 385.3719069999215,
      "lower_time_ms": 4646.4437939999925,
      "evaluation_times_ms": [
        8.210536,
        8.207367,
        8.210951,
        8.207943,
        8.376143
      ],
      "metadata": {},
      "peak_memory_mb": 14495.776768
    }
  },
  "{\"x\":\"bf16[3072,3072,64]\",\"weights\":\"bf16[64,2,128]\",\"activation\":\"jax._src.nn.functions.sigmoid\",\"precision\":\"BF16_BF16_F32\",\"return_residuals\":false}": {
    "{\"block_m\":64,\"block_n\":64,\"block_k\":32,\"num_warps\":4,\"num_stages\":3}": {
      "compile_time_ms": 198.1548080000266,
      "lower_time_ms": 4252.810773999954,
      "evaluation_times_ms": [
        1.880913,
        1.879793,
        1.886738,
        1.882097,
        1.884498
      ],
      "metadata": {},
      "peak_memory_mb": 3623.911424
    }
  },
  "{\"x\":\"bf16[3072,3072,64]\",\"weights\":\"bf16[64,2,128]\",\"activation\":\"jax._src.nn.functions.silu\",\"precision\":\"BF16_BF16_F32\",\"return_residuals\":false}": {
    "{\"block_m\":64,\"block_n\":64,\"block_k\":32,\"num_warps\":4,\"num_stages\":3}": {
      "compile_time_ms": 198.77834100009295,
      "lower_time_ms": 3958.9904219999426,
      "evaluation_times_ms": [
        2.078701,
        2.078253,
        2.077613,
        2.075533,
        2.072556
      ],
      "metadata": {},
      "peak_memory_mb": 3623.911424
    }
  },
  "{\"x\":\"f32[5,3072,32,128]\",\"weights\":\"f32[128,2,256]\",\"activation\":\"jax._src.nn.functions.silu\",\"precision\":\"BF16_BF16_F32\",\"return_residuals\":false}": {
    "{\"block_m\":128,\"block_n\":64,\"block_k\":32,\"num_warps\":4,\"num_stages\":4}": {
      "compile_time_ms": 402.481785999953,
      "lower_time_ms": 3165.690124999969,
      "evaluation_times_ms": [
        0.432432,
        0.434673,
        0.432623,
        0.436017,
        0.434192
      ],
      "metadata": {},
      "peak_memory_mb": 755.236864
    }
  },
  "{\"x\":\"f32[3072,32,128]\",\"weights\":\"f32[128,2,256]\",\"activation\":\"jax._src.nn.functions.silu\",\"precision\":\"BF16_BF16_F32\",\"return_residuals\":false}": {
    "{\"block_m\":128,\"block_n\":64,\"block_k\":32,\"num_warps\":4,\"num_stages\":4}": {
      "compile_time_ms": 383.7170210000522,
      "lower_time_ms": 3248.5370519999606,
      "evaluation_times_ms": [
        0.092504,
        0.09292,
        0.092856,
        0.09244,
        0.092888
      ],
      "metadata": {},
      "peak_memory_mb": 151.257088
    }
  },
  "{\"x\":\"bf16[5,3072,384]\",\"weights\":\"bf16[384,2,1536]\",\"activation\":\"jax._src.nn.functions.silu\",\"precision\":\"BF16_BF16_F32\",\"return_residuals\":false}": {
    "{\"block_m\":128,\"block_n\":64,\"block_k\":32,\"num_warps\":4,\"num_stages\":4}": {
      "compile_time_ms": 872.3858289999953,
      "lower_time_ms": 3188.022277000073,
      "evaluation_times_ms": [
        0.101147,
        0.098811,
        0.099611,
        0.099675,
        0.100955
      ],
      "metadata": {},
      "peak_memory_mb": 61.341696
    }
  },
  "{\"x\":\"bf16[3072,384]\",\"weights\":\"bf16[384,2,1536]\",\"activation\":\"jax._src.nn.functions.silu\",\"precision\":\"BF16_BF16_F32\",\"return_residuals\":false}": {
    "{\"block_m\":64,\"block_n\":64,\"block_k\":32,\"num_warps\":4,\"num_stages\":3}": {
      "compile_time_ms": 350.68101499996374,
      "lower_time_ms": 3843.2558970000628,
      "evaluation_times_ms": [
        0.022086,
        0.022215,
        0.021862,
        0.021574,
        0.021925
      ],
      "metadata": {},
      "peak_memory_mb": 14.155776
    }
  },
  "{\"x\":\"f32[5,3072,384]\",\"weights\":\"f32[384,2,768]\",\"activation\":\"jax._src.nn.functions.silu\",\"precision\":\"BF16_BF16_F32\",\"return_residuals\":false}": {
    "{\"block_m\":128,\"block_n\":64,\"block_k\":32,\"num_warps\":4,\"num_stages\":4}": {
      "compile_time_ms": 1115.5622789999597,
      "lower_time_ms": 3853.569458000038,
      "evaluation_times_ms": [
        0.091802,
        0.089625,
        0.091065,
        0.090201,
        0.088089
      ],
      "metadata": {},
      "peak_memory_mb": 73.138176
    }
  },
  "{\"x\":\"f32[3072,384]\",\"weights\":\"f32[384,2,768]\",\"activation\":\"jax._src.nn.functions.silu\",\"precision\":\"BF16_BF16_F32\",\"return_residuals\":false}": {
    "{\"block_m\":128,\"block_n\":64,\"block_k\":32,\"num_warps\":4,\"num_stages\":3}": {
      "compile_time_ms": 388.15543099997285,
      "lower_time_ms": 4528.27328300009,
      "evaluation_times_ms": [
        0.025639,
        0.025576,
        0.025543,
        0.025767,
        0.025895
      ],
      "metadata": {},
      "peak_memory_mb": 16.515072
    }
  },
  "{\"x\":\"f32[5,3072,768]\",\"weights\":\"f32[768,2,1536]\",\"activation\":\"jax._src.nn.functions.silu\",\"precision\":\"BF16_BF16_F32\",\"return_residuals\":false}": {
    "{\"block_m\":128,\"block_n\":64,\"block_k\":32,\"num_warps\":4,\"num_stages\":4}": {
      "compile_time_ms": 445.14069800004563,
      "lower_time_ms": 3092.8614320000634,
      "evaluation_times_ms": [
        0.296725,
        0.297942,
        0.298774,
        0.29711,
        0.29759
      ],
      "metadata": {},
      "peak_memory_mb": 150.994944
    }
  },
  "{\"x\":\"f32[3072,768]\",\"weights\":\"f32[768,2,1536]\",\"activation\":\"jax._src.nn.functions.silu\",\"precision\":\"BF16_BF16_F32\",\"return_residuals\":false}": {
    "{\"block_m\":128,\"block_n\":64,\"block_k\":32,\"num_warps\":8,\"num_stages\":4}": {
      "compile_time_ms": 241.34646200002408,
      "lower_time_ms": 4342.855812999915,
      "evaluation_times_ms": [
        0.076631,
        0.076695,
        0.077014,
        0.076759,
        0.077143
      ],
      "metadata": {},
      "peak_memory_mb": 37.748736
    }
  },
  "{\"x\":\"bf16[1,3328,3328,128]\",\"weights\":\"bf16[128,2,256]\",\"activation\":\"jax._src.nn.functions.sigmoid\",\"precision\":\"BF16_BF16_F32\",\"return_residuals\":false}": {
    "{\"block_m\":64,\"block_n\":128,\"block_k\":32,\"num_warps\":4,\"num_stages\":3}": {
      "compile_time_ms": 526.9917110003917,
      "lower_time_ms": 5167.4530289997165,
      "evaluation_times_ms": [
        6.009522,
        6.002514,
        5.998898,
        6.003826,
        6.025234
      ],
      "metadata": {},
      "peak_memory_mb": 8506.179584
    }
  },
  "{\"x\":\"bf16[1,3328,3328,128]\",\"weights\":\"bf16[128,2,512]\",\"activation\":\"jax._src.nn.functions.silu\",\"precision\":\"BF16_BF16_F32\",\"return_residuals\":false}": {
    "{\"block_m\":64,\"block_n\":64,\"block_k\":32,\"num_warps\":4,\"num_stages\":3}": {
      "compile_time_ms": 204.50072599987834,
      "lower_time_ms": 4976.212570999905,
      "evaluation_times_ms": [
        12.499077,
        12.813028,
        13.128706,
        13.134434,
        13.031811
      ],
      "metadata": {},
      "peak_memory_mb": 14177.009664
    }
  },
  "{\"x\":\"bf16[3328,3328,128]\",\"weights\":\"bf16[128,2,256]\",\"activation\":\"jax._src.nn.functions.sigmoid\",\"precision\":\"BF16_BF16_F32\",\"return_residuals\":false}": {
    "{\"block_m\":64,\"block_n\":128,\"block_k\":32,\"num_warps\":4,\"num_stages\":3}": {
      "compile_time_ms": 522.1307329998126,
      "lower_time_ms": 4829.109750999578,
      "evaluation_times_ms": [
        6.033025,
        6.030305,
        6.049857,
        6.074369,
        6.161216
      ],
      "metadata": {},
      "peak_memory_mb": 8506.179584
    }
  },
  "{\"x\":\"bf16[3328,3328,128]\",\"weights\":\"bf16[128,2,512]\",\"activation\":\"jax._src.nn.functions.silu\",\"precision\":\"BF16_BF16_F32\",\"return_residuals\":false}": {
    "{\"block_m\":128,\"block_n\":64,\"block_k\":32,\"num_warps\":8,\"num_stages\":4}": {
      "compile_time_ms": 264.90144399986093,
      "lower_time_ms": 4263.71852200009,
      "evaluation_times_ms": [
        13.160158,
        13.151357,
        13.161149,
        13.252605,
        13.254237
      ],
      "metadata": {},
      "peak_memory_mb": 14177.009664
    }
  },
  "{\"x\":\"f32[3328,3328,128]\",\"weights\":\"f32[128,2,256]\",\"activation\":\"jax._src.nn.functions.silu\",\"precision\":\"BF16_BF16_F32\",\"return_residuals\":false}": {
    "{\"block_m\":128,\"block_n\":64,\"block_k\":32,\"num_warps\":4,\"num_stages\":4}": {
      "compile_time_ms": 408.97791699990194,
      "lower_time_ms": 5872.762629000135,
      "evaluation_times_ms": [
        9.635717,
        9.638501,
        9.674085,
        9.708357,
        9.715749
      ],
      "metadata": {},
      "peak_memory_mb": 17012.359168
    }
  },
  "{\"x\":\"bf16[3328,3328,64]\",\"weights\":\"bf16[64,2,128]\",\"activation\":\"jax._src.nn.functions.sigmoid\",\"precision\":\"BF16_BF16_F32\",\"return_residuals\":false}": {
    "{\"block_m\":64,\"block_n\":64,\"block_k\":32,\"num_warps\":4,\"num_stages\":3}": {
      "compile_time_ms": 269.6817599999122,
      "lower_time_ms": 5648.313637999763,
      "evaluation_times_ms": [
        2.20229,
        2.204402,
        2.205618,
        2.20757,
        2.206418
      ],
      "metadata": {},
      "peak_memory_mb": 4253.057024
    }
  },
  "{\"x\":\"bf16[3328,3328,64]\",\"weights\":\"bf16[64,2,128]\",\"activation\":\"jax._src.nn.functions.silu\",\"precision\":\"BF16_BF16_F32\",\"return_residuals\":false}": {
    "{\"block_m\":64,\"block_n\":64,\"block_k\":32,\"num_warps\":4,\"num_stages\":3}": {
      "compile_time_ms": 203.10634799989202,
      "lower_time_ms": 4879.318000000239,
      "evaluation_times_ms": [
        2.454703,
        2.449391,
        2.448816,
        2.444591,
        2.4604
      ],
      "metadata": {},
      "peak_memory_mb": 4253.057024
    }
  },
  "{\"x\":\"f32[5,3328,32,128]\",\"weights\":\"f32[128,2,256]\",\"activation\":\"jax._src.nn.functions.silu\",\"precision\":\"BF16_BF16_F32\",\"return_residuals\":false}": {
    "{\"block_m\":128,\"block_n\":64,\"block_k\":32,\"num_warps\":4,\"num_stages\":4}": {
      "compile_time_ms": 399.4299679998221,
      "lower_time_ms": 5588.525839999875,
      "evaluation_times_ms": [
        0.471773,
        0.472701,
        0.472412,
        0.473308,
        0.473725
      ],
      "metadata": {},
      "peak_memory_mb": 818.151424
    }
  },
  "{\"x\":\"f32[3328,32,128]\",\"weights\":\"f32[128,2,256]\",\"activation\":\"jax._src.nn.functions.silu\",\"precision\":\"BF16_BF16_F32\",\"return_residuals\":false}": {
    "{\"block_m\":128,\"block_n\":64,\"block_k\":32,\"num_warps\":4,\"num_stages\":4}": {
      "compile_time_ms": 389.0963990002092,
      "lower_time_ms": 4886.159864000092,
      "evaluation_times_ms": [
        0.101343,
        0.101439,
        0.101535,
        0.10144,
        0.101983
      ],
      "metadata": {},
      "peak_memory_mb": 163.84
    }
  },
  "{\"x\":\"bf16[5,3328,384]\",\"weights\":\"bf16[384,2,1536]\",\"activation\":\"jax._src.nn.functions.silu\",\"precision\":\"BF16_BF16_F32\",\"return_residuals\":false}": {
    "{\"block_m\":64,\"block_n\":128,\"block_k\":32,\"num_warps\":4,\"num_stages\":3}": {
      "compile_time_ms": 971.965507999812,
      "lower_time_ms": 4917.522964,
      "evaluation_times_ms": [
        0.106592,
        0.105951,
        0.105919,
        0.105055,
        0.105503
      ],
      "metadata": {},
      "peak_memory_mb": 66.256896
    }
  },
  "{\"x\":\"bf16[3328,384]\",\"weights\":\"bf16[384,2,1536]\",\"activation\":\"jax._src.nn.functions.silu\",\"precision\":\"BF16_BF16_F32\",\"return_residuals\":false}": {
    "{\"block_m\":64,\"block_n\":128,\"block_k\":32,\"num_warps\":4,\"num_stages\":3}": {
      "compile_time_ms": 965.0370859999384,
      "lower_time_ms": 4602.411404000122,
      "evaluation_times_ms": [
        0.02336,
        0.023264,
        0.023328,
        0.023424,
        0.023424
      ],
      "metadata": {},
      "peak_memory_mb": 15.138816
    }
  },
  "{\"x\":\"f32[5,3328,384]\",\"weights\":\"f32[384,2,768]\",\"activation\":\"jax._src.nn.functions.silu\",\"precision\":\"BF16_BF16_F32\",\"return_residuals\":false}": {
    "{\"block_m\":128,\"block_n\":64,\"block_k\":32,\"num_warps\":4,\"num_stages\":4}": {
      "compile_time_ms": 386.64475399991716,
      "lower_time_ms": 4280.570884000099,
      "evaluation_times_ms": [
        0.094849,
        0.094881,
        0.094785,
        0.09501,
        0.094689
      ],
      "metadata": {},
      "peak_memory_mb": 79.036416
    }
  },
  "{\"x\":\"f32[3328,384]\",\"weights\":\"f32[384,2,768]\",\"activation\":\"jax._src.nn.functions.silu\",\"precision\":\"BF16_BF16_F32\",\"return_residuals\":false}": {
    "{\"block_m\":128,\"block_n\":32,\"block_k\":32,\"num_warps\":4,\"num_stages\":3}": {
      "compile_time_ms": 235.57439400019575,
      "lower_time_ms": 5112.161916999867,
      "evaluation_times_ms": [
        0.026145,
        0.026017,
        0.025984,
        0.026112,
        0.025985
      ],
      "metadata": {},
      "peak_memory_mb": 17.69472
    }
  },
  "{\"x\":\"f32[5,3328,768]\",\"weights\":\"f32[768,2,1536]\",\"activation\":\"jax._src.nn.functions.silu\",\"precision\":\"BF16_BF16_F32\",\"return_residuals\":false}": {
    "{\"block_m\":128,\"block_n\":64,\"block_k\":32,\"num_warps\":4,\"num_stages\":4}": {
      "compile_time_ms": 421.11891100012144,
      "lower_time_ms": 3632.633039999746,
      "evaluation_times_ms": [
        0.323012,
        0.322212,
        0.322212,
        0.322948,
        0.324291
      ],
      "metadata": {},
      "peak_memory_mb": 162.791424
    }
  },
  "{\"x\":\"f32[3328,768]\",\"weights\":\"f32[768,2,1536]\",\"activation\":\"jax._src.nn.functions.silu\",\"precision\":\"BF16_BF16_F32\",\"return_residuals\":false}": {
    "{\"block_m\":128,\"block_n\":64,\"block_k\":32,\"num_warps\":8,\"num_stages\":3}": {
      "compile_time_ms": 227.13423899995178,
      "lower_time_ms": 4422.189913000238,
      "evaluation_times_ms": [
        0.078081,
        0.078369,
        0.078528,
        0.07808,
        0.0784
      ],
      "metadata": {},
      "peak_memory_mb": 40.108032
    }
  },
  "{\"x\":\"bf16[1,3584,3584,128]\",\"weights\":\"bf16[128,2,256]\",\"activation\":\"jax._src.nn.functions.sigmoid\",\"precision\":\"BF16_BF16_F32\",\"return_residuals\":false}": {
    "{\"block_m\":64,\"block_n\":64,\"block_k\":32,\"num_warps\":4,\"num_stages\":3}": {
      "compile_time_ms": 211.68386199997258,
      "lower_time_ms": 4629.598890000125,
      "evaluation_times_ms": [
        6.757069,
        6.777388,
        6.858158,
        6.869037,
        7.44162
      ],
      "metadata": {},
      "peak_memory_mb": 9865.13408
    }
  },
  "{\"x\":\"bf16[1,3584,3584,128]\",\"weights\":\"bf16[128,2,512]\",\"activation\":\"jax._src.nn.functions.silu\",\"precision\":\"BF16_BF16_F32\",\"return_residuals\":false}": {
    "{\"block_m\":64,\"block_n\":64,\"block_k\":32,\"num_warps\":4,\"num_stages\":3}": {
      "compile_time_ms": 253.793726999902,
      "lower_time_ms": 3520.164186999864,
      "evaluation_times_ms": [
        14.719496,
        15.445233,
        15.565682,
        15.575474,
        15.57749
      ],
      "metadata": {},
      "peak_memory_mb": 16441.933824
    }
  },
  "{\"x\":\"bf16[3584,3584,128]\",\"weights\":\"bf16[128,2,256]\",\"activation\":\"jax._src.nn.functions.sigmoid\",\"precision\":\"BF16_BF16_F32\",\"return_residuals\":false}": {
    "{\"block_m\":64,\"block_n\":128,\"block_k\":32,\"num_warps\":4,\"num_stages\":3}": {
      "compile_time_ms": 383.57460399993215,
      "lower_time_ms": 5209.87543199999,
      "evaluation_times_ms": [
        6.989997,
        7.008941,
        7.153358,
        7.242735,
        7.354993
      ],
      "metadata": {},
      "peak_memory_mb": 9865.13408
    }
  },
  "{\"x\":\"bf16[3584,3584,128]\",\"weights\":\"bf16[128,2,512]\",\"activation\":\"jax._src.nn.functions.silu\",\"precision\":\"BF16_BF16_F32\",\"return_residuals\":false}": {
    "{\"block_m\":64,\"block_n\":64,\"block_k\":32,\"num_warps\":4,\"num_stages\":3}": {
      "compile_time_ms": 194.27672400024676,
      "lower_time_ms": 3818.8523759999953,
      "evaluation_times_ms": [
        14.465537,
        15.193768,
        15.467276,
        15.44062,
        15.453036
      ],
      "metadata": {},
      "peak_memory_mb": 16441.933824
    }
  },
  "{\"x\":\"f32[3584,3584,128]\",\"weights\":\"f32[128,2,256]\",\"activation\":\"jax._src.nn.functions.silu\",\"precision\":\"BF16_BF16_F32\",\"return_residuals\":false}": {
    "{\"block_m\":128,\"block_n\":64,\"block_k\":32,\"num_warps\":4,\"num_stages\":4}": {
      "compile_time_ms": 371.24712200011345,
      "lower_time_ms": 4751.022900000407,
      "evaluation_times_ms": [
        11.537402,
        11.538651,
        11.422041,
        11.403994,
        11.440633
      ],
      "metadata": {},
      "peak_memory_mb": 19730.26816
    }
  },
  "{\"x\":\"bf16[3584,3584,64]\",\"weights\":\"bf16[64,2,128]\",\"activation\":\"jax._src.nn.functions.sigmoid\",\"precision\":\"BF16_BF16_F32\",\"return_residuals\":false}": {
    "{\"block_m\":64,\"block_n\":64,\"block_k\":32,\"num_warps\":4,\"num_stages\":3}": {
      "compile_time_ms": 193.04305499963448,
      "lower_time_ms": 4405.4552580000745,
      "evaluation_times_ms": [
        2.555931,
        2.563099,
        2.559835,
        2.556859,
        2.59222
      ],
      "metadata": {},
      "peak_memory_mb": 4932.534272
    }
  },
  "{\"x\":\"bf16[3584,3584,64]\",\"weights\":\"bf16[64,2,128]\",\"activation\":\"jax._src.nn.functions.silu\",\"precision\":\"BF16_BF16_F32\",\"return_residuals\":false}": {
    "{\"block_m\":64,\"block_n\":64,\"block_k\":32,\"num_warps\":4,\"num_stages\":3}": {
      "compile_time_ms": 196.7189470001358,
      "lower_time_ms": 5109.809881999809,
      "evaluation_times_ms": [
        2.834429,
        2.832061,
        2.832157,
        2.83667,
        2.836702
      ],
      "metadata": {},
      "peak_memory_mb": 4932.534272
    }
  },
  "{\"x\":\"f32[5,3584,32,128]\",\"weights\":\"f32[128,2,256]\",\"activation\":\"jax._src.nn.functions.silu\",\"precision\":\"BF16_BF16_F32\",\"return_residuals\":false}": {
    "{\"block_m\":128,\"block_n\":64,\"block_k\":32,\"num_warps\":4,\"num_stages\":4}": {
      "compile_time_ms": 391.5530740050599,
      "lower_time_ms": 6947.203775984235,
      "evaluation_times_ms": [
        0.507968,
        0.509632,
        0.512,
        0.510144,
        0.50912
      ],
      "metadata": {},
      "peak_memory_mb": 881.065984
    }
  },
  "{\"x\":\"f32[3584,32,128]\",\"weights\":\"f32[128,2,256]\",\"activation\":\"jax._src.nn.functions.silu\",\"precision\":\"BF16_BF16_F32\",\"return_residuals\":false}": {
    "{\"block_m\":128,\"block_n\":64,\"block_k\":32,\"num_warps\":4,\"num_stages\":4}": {
      "compile_time_ms": 393.38903900352307,
      "lower_time_ms": 2584.9160499928985,
      "evaluation_times_ms": [
        0.108672,
        0.10896,
        0.108384,
        0.108288,
        0.108448
      ],
      "metadata": {},
      "peak_memory_mb": 176.422912
    }
  },
  "{\"x\":\"bf16[5,3584,384]\",\"weights\":\"bf16[384,2,1536]\",\"activation\":\"jax._src.nn.functions.silu\",\"precision\":\"BF16_BF16_F32\",\"return_residuals\":false}": {
    "{\"block_m\":128,\"block_n\":64,\"block_k\":32,\"num_warps\":4,\"num_stages\":3}": {
      "compile_time_ms": 848.4647169825621,
      "lower_time_ms": 2619.0778719901573,
      "evaluation_times_ms": [
        0.117632,
        0.11744,
        0.117408,
        0.117536,
        0.117248
      ],
      "metadata": {},
      "peak_memory_mb": 71.172096
    }
  },
  "{\"x\":\"bf16[3584,384]\",\"weights\":\"bf16[384,2,1536]\",\"activation\":\"jax._src.nn.functions.silu\",\"precision\":\"BF16_BF16_F32\",\"return_residuals\":false}": {
    "{\"block_m\":64,\"block_n\":128,\"block_k\":32,\"num_warps\":4,\"num_stages\":3}": {
      "compile_time_ms": 988.9547339989804,
      "lower_time_ms": 3025.459754979238,
      "evaluation_times_ms": [
        0.0264,
        0.026304,
        0.026208,
        0.02624,
        0.026336
      ],
      "metadata": {},
      "peak_memory_mb": 16.121856
    }
  },
  "{\"x\":\"f32[5,3584,384]\",\"weights\":\"f32[384,2,768]\",\"activation\":\"jax._src.nn.functions.silu\",\"precision\":\"BF16_BF16_F32\",\"return_residuals\":false}": {
    "{\"block_m\":128,\"block_n\":64,\"block_k\":32,\"num_warps\":4,\"num_stages\":4}": {
      "compile_time_ms": 387.82279900624417,
      "lower_time_ms": 3120.2476210019086,
      "evaluation_times_ms": [
        0.103776,
        0.104256,
        0.104032,
        0.103616,
        0.105792
      ],
      "metadata": {},
      "peak_memory_mb": 84.934656
    }
  },
  "{\"x\":\"f32[3584,384]\",\"weights\":\"f32[384,2,768]\",\"activation\":\"jax._src.nn.functions.silu\",\"precision\":\"BF16_BF16_F32\",\"return_residuals\":false}": {
    "{\"block_m\":128,\"block_n\":64,\"block_k\":32,\"num_warps\":4,\"num_stages\":4}": {
      "compile_time_ms": 392.36083201831207,
      "lower_time_ms": 1830.1468400168233,
      "evaluation_times_ms": [
        0.026112,
        0.026016,
        0.025888,
        0.025984,
        0.02592
      ],
      "metadata": {},
      "peak_memory_mb": 18.874368
    }
  },
  "{\"x\":\"f32[5,3584,768]\",\"weights\":\"f32[768,2,1536]\",\"activation\":\"jax._src.nn.functions.silu\",\"precision\":\"BF16_BF16_F32\",\"return_residuals\":false}": {
    "{\"block_m\":128,\"block_n\":64,\"block_k\":32,\"num_warps\":4,\"num_stages\":3}": {
      "compile_time_ms": 392.3144830041565,
      "lower_time_ms": 1742.0097019930836,
      "evaluation_times_ms": [
        0.34832,
        0.348159,
        0.348735,
        0.348959,
        0.347423
      ],
      "metadata": {},
      "peak_memory_mb": 174.587904
    }
  },
  "{\"x\":\"f32[3584,768]\",\"weights\":\"f32[768,2,1536]\",\"activation\":\"jax._src.nn.functions.silu\",\"precision\":\"BF16_BF16_F32\",\"return_residuals\":false}": {
    "{\"block_m\":128,\"block_n\":64,\"block_k\":32,\"num_warps\":4,\"num_stages\":3}": {
      "compile_time_ms": 1104.6328869997524,
      "lower_time_ms": 6450.52168899565,
      "evaluation_times_ms": [
        0.081152,
        0.081343,
        0.080704,
        0.081344,
        0.08144
      ],
      "metadata": {},
      "peak_memory_mb": 42.467328
    }
  },
  "{\"x\":\"bf16[1,3840,3840,128]\",\"weights\":\"bf16[128,2,256]\",\"activation\":\"jax._src.nn.functions.sigmoid\",\"precision\":\"BF16_BF16_F32\",\"return_residuals\":false}": {
    "{\"block_m\":64,\"block_n\":128,\"block_k\":32,\"num_warps\":4,\"num_stages\":3}": {
      "compile_time_ms": 388.29364598495886,
      "lower_time_ms": 2944.703099987237,
      "evaluation_times_ms": [
        8.021529,
        8.022009,
        8.266553,
        8.276056,
        8.30092
      ],
      "metadata": {},
      "peak_memory_mb": 11324.751872
    }
  },
  "{\"x\":\"bf16[1,3840,3840,128]\",\"weights\":\"bf16[128,2,512]\",\"activation\":\"jax._src.nn.functions.silu\",\"precision\":\"BF16_BF16_F32\",\"return_residuals\":false}": {
    "{\"block_m\":64,\"block_n\":64,\"block_k\":32,\"num_warps\":4,\"num_stages\":3}": {
      "compile_time_ms": 199.44399798987433,
      "lower_time_ms": 1730.4218909994233,
      "evaluation_times_ms": [
        17.301914,
        17.606874,
        17.691192,
        17.605305,
        17.574874
      ],
      "metadata": {},
      "peak_memory_mb": 18874.630144
    }
  },
  "{\"x\":\"bf16[3840,3840,128]\",\"weights\":\"bf16[128,2,256]\",\"activation\":\"jax._src.nn.functions.sigmoid\",\"precision\":\"BF16_BF16_F32\",\"return_residuals\":false}": {
    "{\"block_m\":64,\"block_n\":128,\"block_k\":32,\"num_warps\":4,\"num_stages\":3}": {
      "compile_time_ms": 391.0803640028462,
      "lower_time_ms": 3227.0646760007367,
      "evaluation_times_ms": [
        8.009121,
        8.00253,
        8.176194,
        8.218593,
        8.338625
      ],
      "metadata": {},
      "peak_memory_mb": 11324.751872
    }
  },
  "{\"x\":\"bf16[3840,3840,128]\",\"weights\":\"bf16[128,2,512]\",\"activation\":\"jax._src.nn.functions.silu\",\"precision\":\"BF16_BF16_F32\",\"return_residuals\":false}": {
    "{\"block_m\":128,\"block_n\":64,\"block_k\":32,\"num_warps\":8,\"num_stages\":4}": {
      "compile_time_ms": 239.6787609995954,
      "lower_time_ms": 4152.047785999912,
      "evaluation_times_ms": [
        17.587633,
        17.554066,
        17.556625,
        17.679537,
        17.721745
      ],
      "metadata": {},
      "peak_memory_mb": 18874.630144
    }
  },
  "{\"x\":\"f32[3840,3840,128]\",\"weights\":\"f32[128,2,256]\",\"activation\":\"jax._src.nn.functions.silu\",\"precision\":\"BF16_BF16_F32\",\"return_residuals\":false}": {
    "{\"block_m\":128,\"block_n\":64,\"block_k\":32,\"num_warps\":4,\"num_stages\":4}": {
      "compile_time_ms": 381.43529299986767,
      "lower_time_ms": 4443.239980000271,
      "evaluation_times_ms": [
        13.148082,
        13.025106,
        13.138898,
        13.115507,
        13.098483
      ],
      "metadata": {},
      "peak_memory_mb": 22649.503744
    }
  },
  "{\"x\":\"bf16[3840,3840,64]\",\"weights\":\"bf16[64,2,128]\",\"activation\":\"jax._src.nn.functions.sigmoid\",\"precision\":\"BF16_BF16_F32\",\"return_residuals\":false}": {
    "{\"block_m\":64,\"block_n\":64,\"block_k\":32,\"num_warps\":4,\"num_stages\":3}": {
      "compile_time_ms": 191.00892100004785,
      "lower_time_ms": 4443.226035000407,
      "evaluation_times_ms": [
        2.951422,
        2.950879,
        2.949182,
        2.951358,
        3.047262
      ],
      "metadata": {},
      "peak_memory_mb": 5662.343168
    }
  },
  "{\"x\":\"bf16[3840,3840,64]\",\"weights\":\"bf16[64,2,128]\",\"activation\":\"jax._src.nn.functions.silu\",\"precision\":\"BF16_BF16_F32\",\"return_residuals\":false}": {
    "{\"block_m\":64,\"block_n\":64,\"block_k\":32,\"num_warps\":4,\"num_stages\":3}": {
      "compile_time_ms": 194.4229069999892,
      "lower_time_ms": 4972.917516000052,
      "evaluation_times_ms": [
        3.271196,
        3.2815,
        3.27798,
        3.273724,
        3.282428
      ],
      "metadata": {},
      "peak_memory_mb": 5662.343168
    }
  },
  "{\"x\":\"f32[5,3840,32,128]\",\"weights\":\"f32[128,2,256]\",\"activation\":\"jax._src.nn.functions.silu\",\"precision\":\"BF16_BF16_F32\",\"return_residuals\":false}": {
    "{\"block_m\":128,\"block_n\":64,\"block_k\":32,\"num_warps\":4,\"num_stages\":4}": {
      "compile_time_ms": 376.8123449999621,
      "lower_time_ms": 4681.443709999712,
      "evaluation_times_ms": [
        0.543967,
        0.54672,
        0.546718,
        0.549278,
        0.546687
      ],
      "metadata": {},
      "peak_memory_mb": 943.980544
    }
  },
  "{\"x\":\"f32[3840,32,128]\",\"weights\":\"f32[128,2,256]\",\"activation\":\"jax._src.nn.functions.silu\",\"precision\":\"BF16_BF16_F32\",\"return_residuals\":false}": {
    "{\"block_m\":128,\"block_n\":64,\"block_k\":32,\"num_warps\":4,\"num_stages\":4}": {
      "compile_time_ms": 383.0709029998616,
      "lower_time_ms": 3483.0672419998336,
      "evaluation_times_ms": [
        0.115488,
        0.115456,
        0.115616,
        0.115071,
        0.114848
      ],
      "metadata": {},
      "peak_memory_mb": 189.005824
    }
  },
  "{\"x\":\"bf16[5,3840,384]\",\"weights\":\"bf16[384,2,1536]\",\"activation\":\"jax._src.nn.functions.silu\",\"precision\":\"BF16_BF16_F32\",\"return_residuals\":false}": {
    "{\"block_m\":128,\"block_n\":64,\"block_k\":32,\"num_warps\":4,\"num_stages\":4}": {
      "compile_time_ms": 850.1978219997,
      "lower_time_ms": 4447.285433000161,
      "evaluation_times_ms": [
        0.123905,
        0.124064,
        0.124447,
        0.126335,
        0.124671
      ],
      "metadata": {},
      "peak_memory_mb": 76.087296
    }
  },
  "{\"x\":\"bf16[3840,384]\",\"weights\":\"bf16[384,2,1536]\",\"activation\":\"jax._src.nn.functions.silu\",\"precision\":\"BF16_BF16_F32\",\"return_residuals\":false}": {
    "{\"block_m\":64,\"block_n\":128,\"block_k\":32,\"num_warps\":4,\"num_stages\":3}": {
      "compile_time_ms": 911.4169670001502,
      "lower_time_ms": 4639.60185399992,
      "evaluation_times_ms": [
        0.02656,
        0.026592,
        0.02656,
        0.026496,
        0.026592
      ],
      "metadata": {},
      "peak_memory_mb": 17.104896
    }
  },
  "{\"x\":\"f32[5,3840,384]\",\"weights\":\"f32[384,2,768]\",\"activation\":\"jax._src.nn.functions.silu\",\"precision\":\"BF16_BF16_F32\",\"return_residuals\":false}": {
    "{\"block_m\":128,\"block_n\":64,\"block_k\":32,\"num_warps\":4,\"num_stages\":4}": {
      "compile_time_ms": 403.8215699997636,
      "lower_time_ms": 4014.501071000268,
      "evaluation_times_ms": [
        0.111488,
        0.1112,
        0.111776,
        0.111328,
        0.11184
      ],
      "metadata": {},
      "peak_memory_mb": 90.832896
    }
  },
  "{\"x\":\"f32[3840,384]\",\"weights\":\"f32[384,2,768]\",\"activation\":\"jax._src.nn.functions.silu\",\"precision\":\"BF16_BF16_F32\",\"return_residuals\":false}": {
    "{\"block_m\":128,\"block_n\":64,\"block_k\":32,\"num_warps\":4,\"num_stages\":4}": {
      "compile_time_ms": 385.4168570001093,
      "lower_time_ms": 5078.810966000219,
      "evaluation_times_ms": [
        0.026655,
        0.026624,
        0.026623,
        0.02672,
        0.02656
      ],
      "metadata": {},
      "peak_memory_mb": 20.054016
    }
  },
  "{\"x\":\"f32[5,3840,768]\",\"weights\":\"f32[768,2,1536]\",\"activation\":\"jax._src.nn.functions.silu\",\"precision\":\"BF16_BF16_F32\",\"return_residuals\":false}": {
    "{\"block_m\":128,\"block_n\":64,\"block_k\":32,\"num_warps\":4,\"num_stages\":3}": {
      "compile_time_ms": 544.9573309997504,
      "lower_time_ms": 3583.7195080002857,
      "evaluation_times_ms": [
        0.373919,
        0.374911,
        0.374782,
        0.374399,
        0.373726
      ],
      "metadata": {},
      "peak_memory_mb": 186.384384
    }
  },
  "{\"x\":\"f32[3840,768]\",\"weights\":\"f32[768,2,1536]\",\"activation\":\"jax._src.nn.functions.silu\",\"precision\":\"BF16_BF16_F32\",\"return_residuals\":false}": {
    "{\"block_m\":128,\"block_n\":64,\"block_k\":32,\"num_warps\":4,\"num_stages\":3}": {
      "compile_time_ms": 400.0594789999923,
      "lower_time_ms": 4138.24006699997,
      "evaluation_times_ms": [
        0.081952,
        0.082112,
        0.0824,
        0.0824,
        0.082176
      ],
      "metadata": {},
      "peak_memory_mb": 44.826624
    }
  },
  "{\"x\":\"bf16[1,4096,4096,128]\",\"weights\":\"bf16[128,2,256]\",\"activation\":\"jax._src.nn.functions.sigmoid\",\"precision\":\"BF16_BF16_F32\",\"return_residuals\":false}": {
    "{\"block_m\":64,\"block_n\":128,\"block_k\":32,\"num_warps\":4,\"num_stages\":3}": {
      "compile_time_ms": 371.2473460000183,
      "lower_time_ms": 4010.8287590001055,
      "evaluation_times_ms": [
        9.296055,
        9.305271,
        9.342103,
        9.375191,
        9.378232
      ],
      "metadata": {},
      "peak_memory_mb": 12885.03296
    }
  },
  "{\"x\":\"bf16[1,4096,4096,128]\",\"weights\":\"bf16[128,2,512]\",\"activation\":\"jax._src.nn.functions.silu\",\"precision\":\"BF16_BF16_F32\",\"return_residuals\":false}": {
    "{\"block_m\":128,\"block_n\":64,\"block_k\":32,\"num_warps\":8,\"num_stages\":4}": {
      "compile_time_ms": 255.39608400004,
      "lower_time_ms": 5229.584467999757,
      "evaluation_times_ms": [
        19.945936,
        19.934703,
        19.945872,
        19.989583,
        19.987472
      ],
      "metadata": {},
      "peak_memory_mb": 21475.098624
    }
  },
  "{\"x\":\"bf16[4096,4096,128]\",\"weights\":\"bf16[128,2,256]\",\"activation\":\"jax._src.nn.functions.sigmoid\",\"precision\":\"BF16_BF16_F32\",\"return_residuals\":false}": {
    "{\"block_m\":64,\"block_n\":128,\"block_k\":32,\"num_warps\":4,\"num_stages\":3}": {
      "compile_time_ms": 390.4257939998388,
      "lower_time_ms": 4511.027870000362,
      "evaluation_times_ms": [
        9.140841,
        9.175401,
        9.370601,
        9.398473,
        9.485098
      ],
      "metadata": {},
      "peak_memory_mb": 12885.03296
    }
  },
  "{\"x\":\"bf16[4096,4096,128]\",\"weights\":\"bf16[128,2,512]\",\"activation\":\"jax._src.nn.functions.silu\",\"precision\":\"BF16_BF16_F32\",\"return_residuals\":false}": {},
  "{\"x\":\"f32[4096,4096,128]\",\"weights\":\"f32[128,2,256]\",\"activation\":\"jax._src.nn.functions.silu\",\"precision\":\"BF16_BF16_F32\",\"return_residuals\":false}": {},
  "{\"x\":\"bf16[4096,4096,64]\",\"weights\":\"bf16[64,2,128]\",\"activation\":\"jax._src.nn.functions.sigmoid\",\"precision\":\"BF16_BF16_F32\",\"return_residuals\":false}": {
    "{\"block_m\":64,\"block_n\":64,\"block_k\":32,\"num_warps\":4,\"num_stages\":3}": {
      "compile_time_ms": 191.81546599975263,
      "lower_time_ms": 4509.743005999553,
      "evaluation_times_ms": [
        3.323293,
        3.317021,
        3.316189,
        3.312157,
        3.334524
      ],
      "metadata": {},
      "peak_memory_mb": 6442.483712
    }
  },
  "{\"x\":\"bf16[4096,4096,64]\",\"weights\":\"bf16[64,2,128]\",\"activation\":\"jax._src.nn.functions.silu\",\"precision\":\"BF16_BF16_F32\",\"return_residuals\":false}": {},
  "{\"x\":\"f32[5,4096,32,128]\",\"weights\":\"f32[128,2,256]\",\"activation\":\"jax._src.nn.functions.silu\",\"precision\":\"BF16_BF16_F32\",\"return_residuals\":false}": {
    "{\"block_m\":128,\"block_n\":64,\"block_k\":32,\"num_warps\":4,\"num_stages\":4}": {
      "compile_time_ms": 376.4603800000259,
      "lower_time_ms": 3964.7971770000368,
      "evaluation_times_ms": [
        0.580863,
        0.581696,
        0.583232,
        0.581056,
        0.580447
      ],
      "metadata": {},
      "peak_memory_mb": 1006.895104
    }
  },
  "{\"x\":\"f32[4096,32,128]\",\"weights\":\"f32[128,2,256]\",\"activation\":\"jax._src.nn.functions.silu\",\"precision\":\"BF16_BF16_F32\",\"return_residuals\":false}": {
    "{\"block_m\":128,\"block_n\":64,\"block_k\":32,\"num_warps\":4,\"num_stages\":4}": {
      "compile_time_ms": 388.3529240001735,
      "lower_time_ms": 4552.602315000513,
      "evaluation_times_ms": [
        0.122368,
        0.122784,
        0.122559,
        0.120896,
        0.12128
      ],
      "metadata": {},
      "peak_memory_mb": 201.588736
    }
  },
  "{\"x\":\"bf16[5,4096,384]\",\"weights\":\"bf16[384,2,1536]\",\"activation\":\"jax._src.nn.functions.silu\",\"precision\":\"BF16_BF16_F32\",\"return_residuals\":false}": {
    "{\"block_m\":64,\"block_n\":128,\"block_k\":32,\"num_warps\":4,\"num_stages\":3}": {
      "compile_time_ms": 936.8543850005153,
      "lower_time_ms": 3343.2661520000693,
      "evaluation_times_ms": [
        0.131712,
        0.131232,
        0.131488,
        0.131136,
        0.131648
      ],
      "metadata": {},
      "peak_memory_mb": 81.002496
    }
  },
  "{\"x\":\"f32[5,768,32,128]\",\"weights\":\"f32[128,2,256]\",\"activation\":\"jax._src.nn.functions.silu\",\"precision\":\"BF16_BF16_F32\",\"return_residuals\":false}": {
    "{\"block_m\":128,\"block_n\":64,\"block_k\":32,\"num_warps\":4,\"num_stages\":4}": {
      "compile_time_ms": 381.7307089921087,
      "lower_time_ms": 6502.514805004466,
      "evaluation_times_ms": [
        0.115808,
        0.116672,
        0.115168,
        0.116256,
        0.115936
      ],
      "metadata": {},
      "peak_memory_mb": 189.005824
    }
  },
  "{\"x\":\"f32[768,32,128]\",\"weights\":\"f32[128,2,256]\",\"activation\":\"jax._src.nn.functions.silu\",\"precision\":\"BF16_BF16_F32\",\"return_residuals\":false}": {
    "{\"block_m\":128,\"block_n\":64,\"block_k\":32,\"num_warps\":4,\"num_stages\":3}": {
      "compile_time_ms": 385.4562919586897,
      "lower_time_ms": 2562.9827000084333,
      "evaluation_times_ms": [
        0.025664,
        0.02608,
        0.026016,
        0.025953,
        0.025376
      ],
      "metadata": {},
      "peak_memory_mb": 38.01088
    }
  },
  "{\"x\":\"bf16[5,768,384]\",\"weights\":\"bf16[384,2,1536]\",\"activation\":\"jax._src.nn.functions.silu\",\"precision\":\"BF16_BF16_F32\",\"return_residuals\":false}": {
    "{\"block_m\":64,\"block_n\":128,\"block_k\":32,\"num_warps\":4,\"num_stages\":3}": {
      "compile_time_ms": 955.6890900130384,
      "lower_time_ms": 3256.3214260153472,
      "evaluation_times_ms": [
        0.02688,
        0.026976,
        0.026816,
        0.026848,
        0.026944
      ],
      "metadata": {},
      "peak_memory_mb": 17.104896
    }
  },
  "{\"x\":\"bf16[768,384]\",\"weights\":\"bf16[384,2,1536]\",\"activation\":\"jax._src.nn.functions.silu\",\"precision\":\"BF16_BF16_F32\",\"return_residuals\":false}": {
    "{\"block_m\":64,\"block_n\":64,\"block_k\":32,\"num_warps\":4,\"num_stages\":3}": {
      "compile_time_ms": 364.6712130284868,
      "lower_time_ms": 2351.5928290435113,
      "evaluation_times_ms": [
        0.008384,
        0.008576,
        0.008416,
        0.008512,
        0.008448
      ],
      "metadata": {},
      "peak_memory_mb": 5.308416
    }
  },
  "{\"x\":\"f32[5,768,384]\",\"weights\":\"f32[384,2,768]\",\"activation\":\"jax._src.nn.functions.silu\",\"precision\":\"BF16_BF16_F32\",\"return_residuals\":false}": {
    "{\"block_m\":128,\"block_n\":64,\"block_k\":32,\"num_warps\":4,\"num_stages\":4}": {
      "compile_time_ms": 395.41765599278733,
      "lower_time_ms": 3330.0231249886565,
      "evaluation_times_ms": [
        0.026816,
        0.0264,
        0.0264,
        0.026624,
        0.026432
      ],
      "metadata": {},
      "peak_memory_mb": 20.054016
    }
  },
  "{\"x\":\"f32[768,384]\",\"weights\":\"f32[384,2,768]\",\"activation\":\"jax._src.nn.functions.silu\",\"precision\":\"BF16_BF16_F32\",\"return_residuals\":false}": {
    "{\"block_m\":128,\"block_n\":64,\"block_k\":32,\"num_warps\":4,\"num_stages\":3}": {
      "compile_time_ms": 369.26682002376765,
      "lower_time_ms": 2853.2824009889737,
      "evaluation_times_ms": [
        0.010944,
        0.010944,
        0.010976,
        0.010944,
        0.010944
      ],
      "metadata": {},
      "peak_memory_mb": 5.89824
    }
  },
  "{\"x\":\"f32[5,768,768]\",\"weights\":\"f32[768,2,1536]\",\"activation\":\"jax._src.nn.functions.silu\",\"precision\":\"BF16_BF16_F32\",\"return_residuals\":false}": {
    "{\"block_m\":128,\"block_n\":64,\"block_k\":32,\"num_warps\":4,\"num_stages\":3}": {
      "compile_time_ms": 397.4436510470696,
      "lower_time_ms": 3003.4528269898146,
      "evaluation_times_ms": [
        0.083808,
        0.083936,
        0.082848,
        0.08304,
        0.082849
      ],
      "metadata": {},
      "peak_memory_mb": 44.826624
    }
  },
  "{\"x\":\"f32[768,768]\",\"weights\":\"f32[768,2,1536]\",\"activation\":\"jax._src.nn.functions.silu\",\"precision\":\"BF16_BF16_F32\",\"return_residuals\":false}": {
    "{\"block_m\":128,\"block_n\":64,\"block_k\":32,\"num_warps\":4,\"num_stages\":3}": {
      "compile_time_ms": 382.44552398100495,
      "lower_time_ms": 1524.3466990068555,
      "evaluation_times_ms": [
        0.027041,
        0.027168,
        0.027936,
        0.027136,
        0.027776
      ],
      "metadata": {},
      "peak_memory_mb": 16.515072
    }
  },
  "{\"x\":\"bf16[1,1024,1024,128]\",\"weights\":\"bf16[128,2,256]\",\"activation\":\"jax._src.nn.functions.sigmoid\",\"precision\":\"BF16_BF16_F32\",\"return_residuals\":false}": {
    "{\"block_m\":64,\"block_n\":64,\"block_k\":32,\"num_warps\":4,\"num_stages\":3}": {
      "compile_time_ms": 206.41519298078492,
      "lower_time_ms": 1932.5882769771852,
      "evaluation_times_ms": [
        0.559873,
        0.558081,
        0.556993,
        0.557664,
        0.558017
      ],
      "metadata": {},
      "peak_memory_mb": 805.43744
    }
  },
  "{\"x\":\"bf16[1,1024,1024,128]\",\"weights\":\"bf16[128,2,512]\",\"activation\":\"jax._src.nn.functions.silu\",\"precision\":\"BF16_BF16_F32\",\"return_residuals\":false}": {
    "{\"block_m\":64,\"block_n\":64,\"block_k\":32,\"num_warps\":4,\"num_stages\":3}": {
      "compile_time_ms": 211.7908459622413,
      "lower_time_ms": 2666.948035999667,
      "evaluation_times_ms": [
        1.181762,
        1.187489,
        1.188994,
        1.18749,
        1.18509
      ],
      "metadata": {},
      "peak_memory_mb": 1342.439424
    }
  },
  "{\"x\":\"bf16[1024,1024,128]\",\"weights\":\"bf16[128,2,256]\",\"activation\":\"jax._src.nn.functions.sigmoid\",\"precision\":\"BF16_BF16_F32\",\"return_residuals\":false}": {
    "{\"block_m\":64,\"block_n\":64,\"block_k\":32,\"num_warps\":4,\"num_stages\":3}": {
      "compile_time_ms": 192.32133898185566,
      "lower_time_ms": 2292.461812030524,
      "evaluation_times_ms": [
        0.559778,
        0.557794,
        0.560577,
        0.558945,
        0.560641
      ],
      "metadata": {},
      "peak_memory_mb": 805.43744
    }
  },
  "{\"x\":\"bf16[4096,384]\",\"weights\":\"bf16[384,2,1536]\",\"activation\":\"jax._src.nn.functions.silu\",\"precision\":\"BF16_BF16_F32\",\"return_residuals\":false}": {
    "{\"block_m\":64,\"block_n\":128,\"block_k\":32,\"num_warps\":4,\"num_stages\":3}": {
      "compile_time_ms": 924.883298000168,
      "lower_time_ms": 4042.153626999607,
      "evaluation_times_ms": [
        0.026976,
        0.027008,
        0.026912,
        0.027008,
        0.027008
      ],
      "metadata": {},
      "peak_memory_mb": 18.087936
    }
  },
  "{\"x\":\"f32[5,4096,384]\",\"weights\":\"f32[384,2,768]\",\"activation\":\"jax._src.nn.functions.silu\",\"precision\":\"BF16_BF16_F32\",\"return_residuals\":false}": {
    "{\"block_m\":128,\"block_n\":64,\"block_k\":32,\"num_warps\":4,\"num_stages\":4}": {
      "compile_time_ms": 390.1781889999256,
      "lower_time_ms": 4112.227652000001,
      "evaluation_times_ms": [
        0.119616,
        0.119936,
        0.119584,
        0.120543,
        0.119295
      ],
      "metadata": {},
      "peak_memory_mb": 96.731136
    }
  },
  "{\"x\":\"f32[4096,384]\",\"weights\":\"f32[384,2,768]\",\"activation\":\"jax._src.nn.functions.silu\",\"precision\":\"BF16_BF16_F32\",\"return_residuals\":false}": {
    "{\"block_m\":128,\"block_n\":64,\"block_k\":32,\"num_warps\":8,\"num_stages\":3}": {
      "compile_time_ms": 637.7346330000364,
      "lower_time_ms": 3780.4506909997144,
      "evaluation_times_ms": [
        0.027744,
        0.02752,
        0.027456,
        0.027648,
        0.027392
      ],
      "metadata": {},
      "peak_memory_mb": 21.233664
    }
  },
  "{\"x\":\"f32[5,4096,768]\",\"weights\":\"f32[768,2,1536]\",\"activation\":\"jax._src.nn.functions.silu\",\"precision\":\"BF16_BF16_F32\",\"return_residuals\":false}": {
    "{\"block_m\":128,\"block_n\":64,\"block_k\":32,\"num_warps\":4,\"num_stages\":4}": {
      "compile_time_ms": 419.7870569996667,
      "lower_time_ms": 5516.738626000006,
      "evaluation_times_ms": [
        0.400799,
        0.400158,
        0.400958,
        0.400734,
        0.400317
      ],
      "metadata": {},
      "peak_memory_mb": 198.180864
    }
  },
  "{\"x\":\"f32[4096,768]\",\"weights\":\"f32[768,2,1536]\",\"activation\":\"jax._src.nn.functions.silu\",\"precision\":\"BF16_BF16_F32\",\"return_residuals\":false}": {
    "{\"block_m\":128,\"block_n\":64,\"block_k\":32,\"num_warps\":4,\"num_stages\":3}": {
      "compile_time_ms": 417.1951869998338,
      "lower_time_ms": 4541.216330000225,
      "evaluation_times_ms": [
        0.08288,
        0.083168,
        0.084128,
        0.083616,
        0.084319
      ],
      "metadata": {},
      "peak_memory_mb": 47.18592
    }
  },
  "{\"x\":\"bf16[1,4352,4352,128]\",\"weights\":\"bf16[128,2,256]\",\"activation\":\"jax._src.nn.functions.sigmoid\",\"precision\":\"BF16_BF16_F32\",\"return_residuals\":false}": {
    "{\"block_m\":64,\"block_n\":64,\"block_k\":32,\"num_warps\":4,\"num_stages\":3}": {
      "compile_time_ms": 191.68840800011822,
      "lower_time_ms": 3659.1485750000174,
      "evaluation_times_ms": [
        10.084601,
        10.262584,
        10.570231,
        10.674231,
        11.099893
      ],
      "metadata": {},
      "peak_memory_mb": 14545.977344
    }
  },
  "{\"x\":\"bf16[1,4352,4352,128]\",\"weights\":\"bf16[128,2,512]\",\"activation\":\"jax._src.nn.functions.silu\",\"precision\":\"BF16_BF16_F32\",\"return_residuals\":false}": {
    "{\"block_m\":64,\"block_n\":64,\"block_k\":32,\"num_warps\":4,\"num_stages\":3}": {
      "compile_time_ms": 218.7573109999903,
      "lower_time_ms": 3181.956716000059,
      "evaluation_times_ms": [
        21.733249,
        22.1688,
        22.007489,
        22.314431,
        22.296863
      ],
      "metadata": {},
      "peak_memory_mb": 24243.339264
    }
  },
  "{\"x\":\"bf16[4352,4352,128]\",\"weights\":\"bf16[128,2,256]\",\"activation\":\"jax._src.nn.functions.sigmoid\",\"precision\":\"BF16_BF16_F32\",\"return_residuals\":false}": {
    "{\"block_m\":64,\"block_n\":64,\"block_k\":32,\"num_warps\":4,\"num_stages\":3}": {
      "compile_time_ms": 192.9478009997183,
      "lower_time_ms": 5131.909071999871,
      "evaluation_times_ms": [
        10.001341,
        9.988445,
        10.478779,
        11.103737,
        11.099449
      ],
      "metadata": {},
      "peak_memory_mb": 14545.977344
    },
    "{\"block_m\":64,\"block_n\":128,\"block_k\":32,\"num_warps\":4,\"num_stages\":3}": {
      "compile_time_ms": 379.19779400004927,
      "lower_time_ms": 4124.947489000022,
      "evaluation_times_ms": [
        10.379957,
        10.39026,
        10.679985,
        10.70341,
        10.783441
      ],
      "metadata": {},
      "peak_memory_mb": 14545.977344
    }
  },
  "{\"x\":\"bf16[4352,4352,128]\",\"weights\":\"bf16[128,2,512]\",\"activation\":\"jax._src.nn.functions.silu\",\"precision\":\"BF16_BF16_F32\",\"return_residuals\":false}": {
    "{\"block_m\":64,\"block_n\":64,\"block_k\":32,\"num_warps\":4,\"num_stages\":3}": {
      "compile_time_ms": 197.1064379999916,
      "lower_time_ms": 3749.6287510000457,
      "evaluation_times_ms": [
        21.245569,
        22.420159,
        22.4176,
        22.433727,
        22.398783
      ],
      "metadata": {},
      "peak_memory_mb": 24243.339264
    }
  },
  "{\"x\":\"f32[4352,4352,128]\",\"weights\":\"f32[128,2,256]\",\"activation\":\"jax._src.nn.functions.silu\",\"precision\":\"BF16_BF16_F32\",\"return_residuals\":false}": {
    "{\"block_m\":128,\"block_n\":64,\"block_k\":32,\"num_warps\":4,\"num_stages\":4}": {
      "compile_time_ms": 375.4412470000261,
      "lower_time_ms": 5408.434110999906,
      "evaluation_times_ms": [
        16.805153,
        16.980737,
        16.977633,
        16.944865,
        16.946434
      ],
      "metadata": {},
      "peak_memory_mb": 29091.954688
    }
  },
  "{\"x\":\"bf16[4352,4352,64]\",\"weights\":\"bf16[64,2,128]\",\"activation\":\"jax._src.nn.functions.sigmoid\",\"precision\":\"BF16_BF16_F32\",\"return_residuals\":false}": {
    "{\"block_m\":64,\"block_n\":64,\"block_k\":32,\"num_warps\":4,\"num_stages\":3}": {
      "compile_time_ms": 198.42848799999047,
      "lower_time_ms": 4872.587451999948,
      "evaluation_times_ms": [
        3.78381,
        3.783523,
        3.78445,
        3.783586,
        3.878402
      ],
      "metadata": {},
      "peak_memory_mb": 7272.955904
    }
  },
  "{\"x\":\"bf16[4352,4352,64]\",\"weights\":\"bf16[64,2,128]\",\"activation\":\"jax._src.nn.functions.silu\",\"precision\":\"BF16_BF16_F32\",\"return_residuals\":false}": {
    "{\"block_m\":64,\"block_n\":64,\"block_k\":32,\"num_warps\":4,\"num_stages\":3}": {
      "compile_time_ms": 209.3712459973176,
      "lower_time_ms": 4618.160884001554,
      "evaluation_times_ms": [
        4.215149,
        4.216844,
        4.217741,
        4.213548,
        4.213101
      ],
      "metadata": {},
      "peak_memory_mb": 7272.955904
    }
  },
  "{\"x\":\"f32[5,4352,32,128]\",\"weights\":\"f32[128,2,256]\",\"activation\":\"jax._src.nn.functions.silu\",\"precision\":\"BF16_BF16_F32\",\"return_residuals\":false}": {
    "{\"block_m\":128,\"block_n\":64,\"block_k\":32,\"num_warps\":4,\"num_stages\":4}": {
      "compile_time_ms": 431.07982100264053,
      "lower_time_ms": 3341.990461001842,
      "evaluation_times_ms": [
        0.614242,
        0.613665,
        0.614305,
        0.615297,
        0.615298
      ],
      "metadata": {},
      "peak_memory_mb": 1069.809664
    }
  },
  "{\"x\":\"f32[4352,32,128]\",\"weights\":\"f32[128,2,256]\",\"activation\":\"jax._src.nn.functions.silu\",\"precision\":\"BF16_BF16_F32\",\"return_residuals\":false}": {
    "{\"block_m\":128,\"block_n\":64,\"block_k\":32,\"num_warps\":4,\"num_stages\":4}": {
      "compile_time_ms": 388.8331880007172,
      "lower_time_ms": 3067.6290759984113,
      "evaluation_times_ms": [
        0.129152,
        0.129728,
        0.130273,
        0.129536,
        0.131456
      ],
      "metadata": {},
      "peak_memory_mb": 214.171648
    }
  },
  "{\"x\":\"bf16[5,4352,384]\",\"weights\":\"bf16[384,2,1536]\",\"activation\":\"jax._src.nn.functions.silu\",\"precision\":\"BF16_BF16_F32\",\"return_residuals\":false}": {
    "{\"block_m\":128,\"block_n\":64,\"block_k\":32,\"num_warps\":4,\"num_stages\":4}": {
      "compile_time_ms": 960.0304999985383,
      "lower_time_ms": 3666.397893000976,
      "evaluation_times_ms": [
        0.139328,
        0.140128,
        0.139776,
        0.140032,
        0.139328
      ],
      "metadata": {},
      "peak_memory_mb": 85.917696
    }
  },
  "{\"x\":\"bf16[4352,384]\",\"weights\":\"bf16[384,2,1536]\",\"activation\":\"jax._src.nn.functions.silu\",\"precision\":\"BF16_BF16_F32\",\"return_residuals\":false}": {
    "{\"block_m\":64,\"block_n\":64,\"block_k\":32,\"num_warps\":4,\"num_stages\":3}": {
      "compile_time_ms": 391.60709300267627,
      "lower_time_ms": 3111.263126000267,
      "evaluation_times_ms": [
        0.031456,
        0.0312,
        0.031104,
        0.03136,
        0.031328
      ],
      "metadata": {},
      "peak_memory_mb": 19.070976
    }
  },
  "{\"x\":\"f32[5,4352,384]\",\"weights\":\"f32[384,2,768]\",\"activation\":\"jax._src.nn.functions.silu\",\"precision\":\"BF16_BF16_F32\",\"return_residuals\":false}": {
    "{\"block_m\":128,\"block_n\":64,\"block_k\":32,\"num_warps\":4,\"num_stages\":3}": {
      "compile_time_ms": 391.9980700011365,
      "lower_time_ms": 2697.1542089995637,
      "evaluation_times_ms": [
        0.12736,
        0.127104,
        0.127552,
        0.127264,
        0.127201
      ],
      "metadata": {},
      "peak_memory_mb": 102.629376
    }
  },
  "{\"x\":\"f32[4352,384]\",\"weights\":\"f32[384,2,768]\",\"activation\":\"jax._src.nn.functions.silu\",\"precision\":\"BF16_BF16_F32\",\"return_residuals\":false}": {
    "{\"block_m\":128,\"block_n\":64,\"block_k\":32,\"num_warps\":4,\"num_stages\":4}": {
      "compile_time_ms": 404.7154589970887,
      "lower_time_ms": 2994.1084929996578,
      "evaluation_times_ms": [
        0.031744,
        0.031137,
        0.031296,
        0.031136,
        0.031392
      ],
      "metadata": {},
      "peak_memory_mb": 22.413312
    }
  },
  "{\"x\":\"f32[5,4352,768]\",\"weights\":\"f32[768,2,1536]\",\"activation\":\"jax._src.nn.functions.silu\",\"precision\":\"BF16_BF16_F32\",\"return_residuals\":false}": {
    "{\"block_m\":128,\"block_n\":64,\"block_k\":32,\"num_warps\":4,\"num_stages\":4}": {
      "compile_time_ms": 431.7384360001597,
      "lower_time_ms": 7854.493580998678,
      "evaluation_times_ms": [
        0.423553,
        0.42368,
        0.424,
        0.424929,
        0.423776
      ],
      "metadata": {},
      "peak_memory_mb": 209.977344
    }
  },
  "{\"x\":\"f32[4352,768]\",\"weights\":\"f32[768,2,1536]\",\"activation\":\"jax._src.nn.functions.silu\",\"precision\":\"BF16_BF16_F32\",\"return_residuals\":false}": {
    "{\"block_m\":128,\"block_n\":64,\"block_k\":32,\"num_warps\":4,\"num_stages\":4}": {
      "compile_time_ms": 407.7564330000314,
      "lower_time_ms": 3293.128348999744,
      "evaluation_times_ms": [
        0.099616,
        0.099424,
        0.098976,
        0.100001,
        0.098816
      ],
      "metadata": {},
      "peak_memory_mb": 49.545216
    }
  },
  "{\"x\":\"bf16[1,4608,4608,128]\",\"weights\":\"bf16[128,2,256]\",\"activation\":\"jax._src.nn.functions.sigmoid\",\"precision\":\"BF16_BF16_F32\",\"return_residuals\":false}": {
    "{\"block_m\":128,\"block_n\":64,\"block_k\":32,\"num_warps\":4,\"num_stages\":4}": {
      "compile_time_ms": 365.677069999947,
      "lower_time_ms": 1795.9684140005265,
      "evaluation_times_ms": [
        12.084169,
        12.021769,
        11.995784,
        11.992872,
        11.989896
      ],
      "metadata": {},
      "peak_memory_mb": 16307.585024
    }
  },
  "{\"x\":\"bf16[1,4608,4608,128]\",\"weights\":\"bf16[128,2,512]\",\"activation\":\"jax._src.nn.functions.silu\",\"precision\":\"BF16_BF16_F32\",\"return_residuals\":false}": {
    "{\"block_m\":64,\"block_n\":64,\"block_k\":32,\"num_warps\":4,\"num_stages\":3}": {
      "compile_time_ms": 206.4176080020843,
      "lower_time_ms": 1124.743196000054,
      "evaluation_times_ms": [
        23.905422,
        25.864081,
        25.565169,
        25.30264,
        25.492593
      ],
      "metadata": {},
      "peak_memory_mb": 27179.352064
    }
  },
  "{\"x\":\"bf16[4608,4608,128]\",\"weights\":\"bf16[128,2,256]\",\"activation\":\"jax._src.nn.functions.sigmoid\",\"precision\":\"BF16_BF16_F32\",\"return_residuals\":false}": {
    "{\"block_m\":64,\"block_n\":128,\"block_k\":32,\"num_warps\":4,\"num_stages\":3}": {
      "compile_time_ms": 390.39421999996193,
      "lower_time_ms": 3797.9123189998063,
      "evaluation_times_ms": [
        11.631653,
        11.796101,
        12.098276,
        12.094853,
        12.120549
      ],
      "metadata": {},
      "peak_memory_mb": 16307.585024
    }
  },
  "{\"x\":\"bf16[4608,4608,128]\",\"weights\":\"bf16[128,2,512]\",\"activation\":\"jax._src.nn.functions.silu\",\"precision\":\"BF16_BF16_F32\",\"return_residuals\":false}": {
    "{\"block_m\":64,\"block_n\":64,\"block_k\":32,\"num_warps\":4,\"num_stages\":3}": {
      "compile_time_ms": 197.62165800011644,
      "lower_time_ms": 4968.595153000024,
      "evaluation_times_ms": [
        23.505471,
        24.590402,
        25.038627,
        24.899779,
        24.863779
      ],
      "metadata": {},
      "peak_memory_mb": 27179.352064
    }
  },
  "{\"x\":\"f32[4608,4608,128]\",\"weights\":\"f32[128,2,256]\",\"activation\":\"jax._src.nn.functions.silu\",\"precision\":\"BF16_BF16_F32\",\"return_residuals\":false}": {},
  "{\"x\":\"bf16[4608,4608,64]\",\"weights\":\"bf16[64,2,128]\",\"activation\":\"jax._src.nn.functions.sigmoid\",\"precision\":\"BF16_BF16_F32\",\"return_residuals\":false}": {
    "{\"block_m\":64,\"block_n\":64,\"block_k\":32,\"num_warps\":4,\"num_stages\":3}": {
      "compile_time_ms": 188.26988299952063,
      "lower_time_ms": 4457.242082000448,
      "evaluation_times_ms": [
        4.280992,
        4.308704,
        4.348511,
        4.359968,
        4.36496
      ],
      "metadata": {},
      "peak_memory_mb": 8153.759744
    }
  },
  "{\"x\":\"bf16[4608,4608,64]\",\"weights\":\"bf16[64,2,128]\",\"activation\":\"jax._src.nn.functions.silu\",\"precision\":\"BF16_BF16_F32\",\"return_residuals\":false}": {
    "{\"block_m\":64,\"block_n\":64,\"block_k\":32,\"num_warps\":4,\"num_stages\":3}": {
      "compile_time_ms": 193.3596660001058,
      "lower_time_ms": 4843.563055999766,
      "evaluation_times_ms": [
        5.001633,
        4.995585,
        4.876001,
        4.868897,
        4.818081
      ],
      "metadata": {},
      "peak_memory_mb": 8153.759744
    }
  },
  "{\"x\":\"f32[5,4608,32,128]\",\"weights\":\"f32[128,2,256]\",\"activation\":\"jax._src.nn.functions.silu\",\"precision\":\"BF16_BF16_F32\",\"return_residuals\":false}": {
    "{\"block_m\":128,\"block_n\":64,\"block_k\":32,\"num_warps\":4,\"num_stages\":4}": {
      "compile_time_ms": 388.09497199963516,
      "lower_time_ms": 3996.0198569997374,
      "evaluation_times_ms": [
        0.655936,
        0.655424,
        0.656192,
        0.657025,
        0.65424
      ],
      "metadata": {},
      "peak_memory_mb": 1132.724224
    }
  },
  "{\"x\":\"f32[4608,32,128]\",\"weights\":\"f32[128,2,256]\",\"activation\":\"jax._src.nn.functions.silu\",\"precision\":\"BF16_BF16_F32\",\"return_residuals\":false}": {
    "{\"block_m\":128,\"block_n\":64,\"block_k\":32,\"num_warps\":4,\"num_stages\":4}": {
      "compile_time_ms": 377.8732700002365,
      "lower_time_ms": 4168.063600999631,
      "evaluation_times_ms": [
        0.136544,
        0.136672,
        0.136864,
        0.13648,
        0.13664
      ],
      "metadata": {},
      "peak_memory_mb": 226.75456
    }
  },
  "{\"x\":\"bf16[5,4608,384]\",\"weights\":\"bf16[384,2,1536]\",\"activation\":\"jax._src.nn.functions.silu\",\"precision\":\"BF16_BF16_F32\",\"return_residuals\":false}": {
    "{\"block_m\":64,\"block_n\":128,\"block_k\":32,\"num_warps\":4,\"num_stages\":3}": {
      "compile_time_ms": 904.3867999998838,
      "lower_time_ms": 5106.932622999921,
      "evaluation_times_ms": [
        0.145216,
        0.14576,
        0.145952,
        0.145408,
        0.14544
      ],
      "metadata": {},
      "peak_memory_mb": 90.832896
    }
  },
  "{\"x\":\"bf16[4608,384]\",\"weights\":\"bf16[384,2,1536]\",\"activation\":\"jax._src.nn.functions.silu\",\"precision\":\"BF16_BF16_F32\",\"return_residuals\":false}": {
    "{\"block_m\":64,\"block_n\":64,\"block_k\":32,\"num_warps\":4,\"num_stages\":3}": {
      "compile_time_ms": 1365.2332350002325,
      "lower_time_ms": 3666.0498650007867,
      "evaluation_times_ms": [
        0.032928,
        0.032768,
        0.03296,
        0.032032,
        0.033248
      ],
      "metadata": {},
      "peak_memory_mb": 20.054016
    }
  },
  "{\"x\":\"f32[5,4608,384]\",\"weights\":\"f32[384,2,768]\",\"activation\":\"jax._src.nn.functions.silu\",\"precision\":\"BF16_BF16_F32\",\"return_residuals\":false}": {
    "{\"block_m\":128,\"block_n\":64,\"block_k\":32,\"num_warps\":4,\"num_stages\":3}": {
      "compile_time_ms": 360.5214069993963,
      "lower_time_ms": 4477.395636999972,
      "evaluation_times_ms": [
        0.134368,
        0.1344,
        0.134751,
        0.134112,
        0.134528
      ],
      "metadata": {},
      "peak_memory_mb": 108.527616
    }
  },
  "{\"x\":\"f32[4608,384]\",\"weights\":\"f32[384,2,768]\",\"activation\":\"jax._src.nn.functions.silu\",\"precision\":\"BF16_BF16_F32\",\"return_residuals\":false}": {
    "{\"block_m\":128,\"block_n\":64,\"block_k\":32,\"num_warps\":4,\"num_stages\":3}": {
      "compile_time_ms": 364.6247599999697,
      "lower_time_ms": 4301.345513999877,
      "evaluation_times_ms": [
        0.031456,
        0.031456,
        0.031968,
        0.031744,
        0.03168
      ],
      "metadata": {},
      "peak_memory_mb": 23.59296
    }
  },
  "{\"x\":\"f32[5,4608,768]\",\"weights\":\"f32[768,2,1536]\",\"activation\":\"jax._src.nn.functions.silu\",\"precision\":\"BF16_BF16_F32\",\"return_residuals\":false}": {
    "{\"block_m\":128,\"block_n\":64,\"block_k\":32,\"num_warps\":4,\"num_stages\":3}": {
      "compile_time_ms": 415.2800440001556,
      "lower_time_ms": 5205.686082999819,
      "evaluation_times_ms": [
        0.453435,
        0.455227,
        0.453978,
        0.454011,
        0.453498
      ],
      "metadata": {},
      "peak_memory_mb": 221.773824
    }
  },
  "{\"x\":\"f32[4608,768]\",\"weights\":\"f32[768,2,1536]\",\"activation\":\"jax._src.nn.functions.silu\",\"precision\":\"BF16_BF16_F32\",\"return_residuals\":false}": {
    "{\"block_m\":128,\"block_n\":64,\"block_k\":32,\"num_warps\":4,\"num_stages\":3}": {
      "compile_time_ms": 389.8995200001991,
      "lower_time_ms": 4612.482328000169,
      "evaluation_times_ms": [
        0.109023,
        0.108927,
        0.107646,
        0.108799,
        0.110046
      ],
      "metadata": {},
      "peak_memory_mb": 51.904512
    }
  },
  "{\"x\":\"bf16[1,4864,4864,128]\",\"weights\":\"bf16[128,2,256]\",\"activation\":\"jax._src.nn.functions.sigmoid\",\"precision\":\"BF16_BF16_F32\",\"return_residuals\":false}": {
    "{\"block_m\":64,\"block_n\":128,\"block_k\":32,\"num_warps\":4,\"num_stages\":3}": {
      "compile_time_ms": 490.72792400011167,
      "lower_time_ms": 7623.869081000066,
      "evaluation_times_ms": [
        13.071998,
        13.250013,
        13.570202,
        13.573593,
        13.538969
      ],
      "metadata": {},
      "peak_memory_mb": 18169.856
    }
  },
  "{\"x\":\"bf16[1,4864,4864,128]\",\"weights\":\"bf16[128,2,512]\",\"activation\":\"jax._src.nn.functions.silu\",\"precision\":\"BF16_BF16_F32\",\"return_residuals\":false}": {
    "{\"block_m\":64,\"block_n\":64,\"block_k\":32,\"num_warps\":4,\"num_stages\":3}": {
      "compile_time_ms": 195.83950800000594,
      "lower_time_ms": 4137.415403999967,
      "evaluation_times_ms": [
        26.776004,
        28.788058,
        27.944853,
        28.018695,
        27.986398
      ],
      "metadata": {},
      "peak_memory_mb": 30283.137024
    }
  },
  "{\"x\":\"bf16[4864,4864,128]\",\"weights\":\"bf16[128,2,256]\",\"activation\":\"jax._src.nn.functions.sigmoid\",\"precision\":\"BF16_BF16_F32\",\"return_residuals\":false}": {
    "{\"block_m\":128,\"block_n\":64,\"block_k\":32,\"num_warps\":4,\"num_stages\":4}": {
      "compile_time_ms": 352.6926250000315,
      "lower_time_ms": 4181.408401999988,
      "evaluation_times_ms": [
        13.367827,
        13.438661,
        13.534429,
        13.752243,
        13.862
      ],
      "metadata": {},
      "peak_memory_mb": 18169.856
    }
  },
  "{\"x\":\"bf16[4864,4864,128]\",\"weights\":\"bf16[128,2,512]\",\"activation\":\"jax._src.nn.functions.silu\",\"precision\":\"BF16_BF16_F32\",\"return_residuals\":false}": {
    "{\"block_m\":64,\"block_n\":64,\"block_k\":32,\"num_warps\":4,\"num_stages\":3}": {
      "compile_time_ms": 204.00142400001187,
      "lower_time_ms": 5239.274468999952,
      "evaluation_times_ms": [
        26.114667,
        28.336929,
        28.141302,
        27.870217,
        28.050834
      ],
      "metadata": {},
      "peak_memory_mb": 30283.137024
    }
  },
  "{\"x\":\"f32[4864,4864,128]\",\"weights\":\"f32[128,2,256]\",\"activation\":\"jax._src.nn.functions.silu\",\"precision\":\"BF16_BF16_F32\",\"return_residuals\":false}": {
    "{\"block_m\":128,\"block_n\":64,\"block_k\":32,\"num_warps\":4,\"num_stages\":4}": {
      "compile_time_ms": 367.6179429999138,
      "lower_time_ms": 5059.002972999906,
      "evaluation_times_ms": [
        21.20443,
        20.946572,
        21.336207,
        22.235605,
        22.501302
      ],
      "metadata": {},
      "peak_memory_mb": 36339.712
    }
  },
  "{\"x\":\"bf16[4864,4864,64]\",\"weights\":\"bf16[64,2,128]\",\"activation\":\"jax._src.nn.functions.sigmoid\",\"precision\":\"BF16_BF16_F32\",\"return_residuals\":false}": {
    "{\"block_m\":64,\"block_n\":64,\"block_k\":32,\"num_warps\":4,\"num_stages\":3}": {
      "compile_time_ms": 192.35124800002268,
      "lower_time_ms": 3469.389160000105,
      "evaluation_times_ms": [
        4.789089,
        4.785537,
        4.867232,
        4.889249,
        4.879873
      ],
      "metadata": {},
      "peak_memory_mb": 9084.895232
    }
  },
  "{\"x\":\"bf16[4864,4864,64]\",\"weights\":\"bf16[64,2,128]\",\"activation\":\"jax._src.nn.functions.silu\",\"precision\":\"BF16_BF16_F32\",\"return_residuals\":false}": {
    "{\"block_m\":64,\"block_n\":64,\"block_k\":32,\"num_warps\":4,\"num_stages\":3}": {
      "compile_time_ms": 203.0841529999634,
      "lower_time_ms": 4121.543241999916,
      "evaluation_times_ms": [
        5.222969,
        5.23529,
        5.232569,
        5.224025,
        5.322298
      ],
      "metadata": {},
      "peak_memory_mb": 9084.895232
    }
  },
  "{\"x\":\"f32[5,4864,32,128]\",\"weights\":\"f32[128,2,256]\",\"activation\":\"jax._src.nn.functions.silu\",\"precision\":\"BF16_BF16_F32\",\"return_residuals\":false}": {
    "{\"block_m\":128,\"block_n\":64,\"block_k\":32,\"num_warps\":4,\"num_stages\":4}": {
      "compile_time_ms": 388.3515400000306,
      "lower_time_ms": 5381.581562000065,
      "evaluation_times_ms": [
        0.690911,
        0.690943,
        0.689567,
        0.689087,
        0.68787
      ],
      "metadata": {},
      "peak_memory_mb": 1195.638784
    }
  },
  "{\"x\":\"f32[4864,32,128]\",\"weights\":\"f32[128,2,256]\",\"activation\":\"jax._src.nn.functions.silu\",\"precision\":\"BF16_BF16_F32\",\"return_residuals\":false}": {
    "{\"block_m\":128,\"block_n\":64,\"block_k\":32,\"num_warps\":4,\"num_stages\":4}": {
      "compile_time_ms": 371.4778749999823,
      "lower_time_ms": 4574.074039999914,
      "evaluation_times_ms": [
        0.144511,
        0.143999,
        0.14368,
        0.143872,
        0.143743
      ],
      "metadata": {},
      "peak_memory_mb": 239.337472
    }
  },
  "{\"x\":\"bf16[1024,1024,128]\",\"weights\":\"bf16[128,2,512]\",\"activation\":\"jax._src.nn.functions.silu\",\"precision\":\"BF16_BF16_F32\",\"return_residuals\":false}": {
    "{\"block_m\":64,\"block_n\":64,\"block_k\":32,\"num_warps\":4,\"num_stages\":3}": {
      "compile_time_ms": 196.02147300020079,
      "lower_time_ms": 4235.708360999979,
      "evaluation_times_ms": [
        1.187008,
        1.183296,
        1.188063,
        1.184672,
        1.18656
      ],
      "metadata": {},
      "peak_memory_mb": 1342.439424
    }
  },
  "{\"x\":\"f32[1024,1024,128]\",\"weights\":\"f32[128,2,256]\",\"activation\":\"jax._src.nn.functions.silu\",\"precision\":\"BF16_BF16_F32\",\"return_residuals\":false}": {
    "{\"block_m\":128,\"block_n\":64,\"block_k\":32,\"num_warps\":4,\"num_stages\":4}": {
      "compile_time_ms": 378.1876680000096,
      "lower_time_ms": 5900.156362999951,
      "evaluation_times_ms": [
        0.922496,
        0.921888,
        0.920832,
        0.920384,
        0.919424
      ],
      "metadata": {},
      "peak_memory_mb": 1610.87488
    }
  },
  "{\"x\":\"bf16[1024,1024,64]\",\"weights\":\"bf16[64,2,128]\",\"activation\":\"jax._src.nn.functions.sigmoid\",\"precision\":\"BF16_BF16_F32\",\"return_residuals\":false}": {
    "{\"block_m\":64,\"block_n\":64,\"block_k\":32,\"num_warps\":4,\"num_stages\":3}": {
      "compile_time_ms": 204.37911700037148,
      "lower_time_ms": 4481.362304999948,
      "evaluation_times_ms": [
        0.21872,
        0.219104,
        0.219168,
        0.21856,
        0.219521
      ],
      "metadata": {},
      "peak_memory_mb": 402.685952
    }
  },
  "{\"x\":\"bf16[1024,1024,64]\",\"weights\":\"bf16[64,2,128]\",\"activation\":\"jax._src.nn.functions.silu\",\"precision\":\"BF16_BF16_F32\",\"return_residuals\":false}": {
    "{\"block_m\":64,\"block_n\":64,\"block_k\":32,\"num_warps\":4,\"num_stages\":3}": {
      "compile_time_ms": 198.5054280003169,
      "lower_time_ms": 4782.318224999926,
      "evaluation_times_ms": [
        0.240097,
        0.24032,
        0.240192,
        0.241312,
        0.239968
      ],
      "metadata": {},
      "peak_memory_mb": 402.685952
    }
  },
  "{\"x\":\"f32[5,1024,32,128]\",\"weights\":\"f32[128,2,256]\",\"activation\":\"jax._src.nn.functions.silu\",\"precision\":\"BF16_BF16_F32\",\"return_residuals\":false}": {
    "{\"block_m\":128,\"block_n\":64,\"block_k\":32,\"num_warps\":4,\"num_stages\":4}": {
      "compile_time_ms": 386.98691899980986,
      "lower_time_ms": 4552.066450999973,
      "evaluation_times_ms": [
        0.151873,
        0.152097,
        0.152767,
        0.152223,
        0.152672
      ],
      "metadata": {},
      "peak_memory_mb": 251.920384
    }
  },
  "{\"x\":\"f32[1024,32,128]\",\"weights\":\"f32[128,2,256]\",\"activation\":\"jax._src.nn.functions.silu\",\"precision\":\"BF16_BF16_F32\",\"return_residuals\":false}": {
    "{\"block_m\":128,\"block_n\":64,\"block_k\":32,\"num_warps\":4,\"num_stages\":4}": {
      "compile_time_ms": 369.1516229996523,
      "lower_time_ms": 4434.863795000183,
      "evaluation_times_ms": [
        0.034624,
        0.034496,
        0.034688,
        0.034336,
        0.033856
      ],
      "metadata": {},
      "peak_memory_mb": 50.593792
    }
  },
  "{\"x\":\"bf16[5,1024,384]\",\"weights\":\"bf16[384,2,1536]\",\"activation\":\"jax._src.nn.functions.silu\",\"precision\":\"BF16_BF16_F32\",\"return_residuals\":false}": {
    "{\"block_m\":64,\"block_n\":64,\"block_k\":32,\"num_warps\":4,\"num_stages\":3}": {
      "compile_time_ms": 347.14646499969604,
      "lower_time_ms": 4837.281444999917,
      "evaluation_times_ms": [
        0.035456,
        0.035744,
        0.035936,
        0.035936,
        0.035584
      ],
      "metadata": {},
      "peak_memory_mb": 22.020096
    }
  },
  "{\"x\":\"bf16[1024,384]\",\"weights\":\"bf16[384,2,1536]\",\"activation\":\"jax._src.nn.functions.silu\",\"precision\":\"BF16_BF16_F32\",\"return_residuals\":false}": {
    "{\"block_m\":64,\"block_n\":64,\"block_k\":32,\"num_warps\":4,\"num_stages\":4}": {
      "compile_time_ms": 356.7848550001145,
      "lower_time_ms": 3420.5910949999634,
      "evaluation_times_ms": [
        0.008832,
        0.009056,
        0.008928,
        0.008928,
        0.008992
      ],
      "metadata": {},
      "peak_memory_mb": 6.291456
    }
  },
  "{\"x\":\"f32[5,1024,384]\",\"weights\":\"f32[384,2,768]\",\"activation\":\"jax._src.nn.functions.silu\",\"precision\":\"BF16_BF16_F32\",\"return_residuals\":false}": {
    "{\"block_m\":128,\"block_n\":64,\"block_k\":32,\"num_warps\":4,\"num_stages\":3}": {
      "compile_time_ms": 361.41426599988336,
      "lower_time_ms": 5593.1848239997635,
      "evaluation_times_ms": [
        0.032384,
        0.032352,
        0.032608,
        0.032384,
        0.032
      ],
      "metadata": {},
      "peak_memory_mb": 25.952256
    }
  },
  "{\"x\":\"f32[1024,384]\",\"weights\":\"f32[384,2,768]\",\"activation\":\"jax._src.nn.functions.silu\",\"precision\":\"BF16_BF16_F32\",\"return_residuals\":false}": {
    "{\"block_m\":128,\"block_n\":64,\"block_k\":32,\"num_warps\":4,\"num_stages\":3}": {
      "compile_time_ms": 377.8377170001477,
      "lower_time_ms": 3254.651642999761,
      "evaluation_times_ms": [
        0.011136,
        0.011136,
        0.011168,
        0.011168,
        0.011136
      ],
      "metadata": {},
      "peak_memory_mb": 7.077888
    }
  },
  "{\"x\":\"f32[5,1024,768]\",\"weights\":\"f32[768,2,1536]\",\"activation\":\"jax._src.nn.functions.silu\",\"precision\":\"BF16_BF16_F32\",\"return_residuals\":false}": {
    "{\"block_m\":128,\"block_n\":64,\"block_k\":32,\"num_warps\":4,\"num_stages\":4}": {
      "compile_time_ms": 411.60058699961155,
      "lower_time_ms": 3865.90171700027,
      "evaluation_times_ms": [
        0.110496,
        0.110112,
        0.109856,
        0.109664,
        0.110112
      ],
      "metadata": {},
      "peak_memory_mb": 56.623104
    }
  },
  "{\"x\":\"f32[1024,768]\",\"weights\":\"f32[768,2,1536]\",\"activation\":\"jax._src.nn.functions.silu\",\"precision\":\"BF16_BF16_F32\",\"return_residuals\":false}": {
    "{\"block_m\":128,\"block_n\":32,\"block_k\":32,\"num_warps\":4,\"num_stages\":4}": {
      "compile_time_ms": 252.17858299993168,
      "lower_time_ms": 3937.020184000062,
      "evaluation_times_ms": [
        0.027778,
        0.028001,
        0.028066,
        0.027937,
        0.027937
      ],
      "metadata": {},
      "peak_memory_mb": 18.874368
    }
  },
  "{\"x\":\"bf16[1,1280,1280,128]\",\"weights\":\"bf16[128,2,256]\",\"activation\":\"jax._src.nn.functions.sigmoid\",\"precision\":\"BF16_BF16_F32\",\"return_residuals\":false}": {
    "{\"block_m\":64,\"block_n\":64,\"block_k\":32,\"num_warps\":4,\"num_stages\":3}": {
      "compile_time_ms": 192.22283700003118,
      "lower_time_ms": 4131.917501999965,
      "evaluation_times_ms": [
        0.871699,
        0.871059,
        0.875764,
        0.872947,
        0.871828
      ],
      "metadata": {},
      "peak_memory_mb": 1258.422272
    }
  },
  "{\"x\":\"bf16[1,1280,1280,128]\",\"weights\":\"bf16[128,2,512]\",\"activation\":\"jax._src.nn.functions.silu\",\"precision\":\"BF16_BF16_F32\",\"return_residuals\":false}": {
    "{\"block_m\":64,\"block_n\":64,\"block_k\":32,\"num_warps\":4,\"num_stages\":3}": {
      "compile_time_ms": 211.1985049998566,
      "lower_time_ms": 3978.171181999869,
      "evaluation_times_ms": [
        1.847817,
        1.850281,
        1.850729,
        1.849097,
        1.846665
      ],
      "metadata": {},
      "peak_memory_mb": 2097.414144
    }
  },
  "{\"x\":\"bf16[1280,1280,128]\",\"weights\":\"bf16[128,2,256]\",\"activation\":\"jax._src.nn.functions.sigmoid\",\"precision\":\"BF16_BF16_F32\",\"return_residuals\":false}": {
    "{\"block_m\":64,\"block_n\":64,\"block_k\":32,\"num_warps\":4,\"num_stages\":3}": {
      "compile_time_ms": 193.9269960000729,
      "lower_time_ms": 5042.569692000143,
      "evaluation_times_ms": [
        0.875259,
        0.870332,
        0.870812,
        0.871292,
        0.87206
      ],
      "metadata": {},
      "peak_memory_mb": 1258.422272
    }
  },
  "{\"x\":\"bf16[1280,1280,128]\",\"weights\":\"bf16[128,2,512]\",\"activation\":\"jax._src.nn.functions.silu\",\"precision\":\"BF16_BF16_F32\",\"return_residuals\":false}": {
    "{\"block_m\":64,\"block_n\":64,\"block_k\":32,\"num_warps\":4,\"num_stages\":3}": {
      "compile_time_ms": 199.19247100006032,
      "lower_time_ms": 3974.9232639999263,
      "evaluation_times_ms": [
        1.852718,
        1.850093,
        1.850477,
        1.852366,
        1.853709
      ],
      "metadata": {},
      "peak_memory_mb": 2097.414144
    }
  },
  "{\"x\":\"f32[1280,1280,128]\",\"weights\":\"f32[128,2,256]\",\"activation\":\"jax._src.nn.functions.silu\",\"precision\":\"BF16_BF16_F32\",\"return_residuals\":false}": {
    "{\"block_m\":128,\"block_n\":64,\"block_k\":32,\"num_warps\":4,\"num_stages\":4}": {
      "compile_time_ms": 380.175872999871,
      "lower_time_ms": 5577.902601000005,
      "evaluation_times_ms": [
        1.443054,
        1.440846,
        1.440525,
        1.439342,
        1.444013
      ],
      "metadata": {},
      "peak_memory_mb": 2516.844544
    }
  },
  "{\"x\":\"bf16[1280,1280,64]\",\"weights\":\"bf16[64,2,128]\",\"activation\":\"jax._src.nn.functions.sigmoid\",\"precision\":\"BF16_BF16_F32\",\"return_residuals\":false}": {
    "{\"block_m\":64,\"block_n\":64,\"block_k\":32,\"num_warps\":4,\"num_stages\":3}": {
      "compile_time_ms": 191.81391400002212,
      "lower_time_ms": 4915.879881999899,
      "evaluation_times_ms": [
        0.340219,
        0.340859,
        0.339931,
        0.341724,
        0.340635
      ],
      "metadata": {},
      "peak_memory_mb": 629.178368
    }
  },
  "{\"x\":\"bf16[1280,1280,64]\",\"weights\":\"bf16[64,2,128]\",\"activation\":\"jax._src.nn.functions.silu\",\"precision\":\"BF16_BF16_F32\",\"return_residuals\":false}": {
    "{\"block_m\":64,\"block_n\":64,\"block_k\":32,\"num_warps\":4,\"num_stages\":3}": {
      "compile_time_ms": 195.87536599988198,
      "lower_time_ms": 5152.906371999961,
      "evaluation_times_ms": [
        0.373147,
        0.37433,
        0.375163,
        0.373915,
        0.373754
      ],
      "metadata": {},
      "peak_memory_mb": 629.178368
    }
  },
  "{\"x\":\"f32[5,1280,32,128]\",\"weights\":\"f32[128,2,256]\",\"activation\":\"jax._src.nn.functions.silu\",\"precision\":\"BF16_BF16_F32\",\"return_residuals\":false}": {
    "{\"block_m\":128,\"block_n\":64,\"block_k\":32,\"num_warps\":4,\"num_stages\":4}": {
      "compile_time_ms": 376.4848670000447,
      "lower_time_ms": 4031.568696000022,
      "evaluation_times_ms": [
        0.190365,
        0.191293,
        0.190236,
        0.189789,
        0.191133
      ],
      "metadata": {},
      "peak_memory_mb": 314.834944
    }
  },
  "{\"x\":\"f32[1280,32,128]\",\"weights\":\"f32[128,2,256]\",\"activation\":\"jax._src.nn.functions.silu\",\"precision\":\"BF16_BF16_F32\",\"return_residuals\":false}": {
    "{\"block_m\":128,\"block_n\":64,\"block_k\":32,\"num_warps\":4,\"num_stages\":4}": {
      "compile_time_ms": 386.05344600000535,
      "lower_time_ms": 5396.672458000012,
      "evaluation_times_ms": [
        0.042303,
        0.041535,
        0.041664,
        0.041311,
        0.041695
      ],
      "metadata": {},
      "peak_memory_mb": 63.176704
    }
  },
  "{\"x\":\"bf16[5,1280,384]\",\"weights\":\"bf16[384,2,1536]\",\"activation\":\"jax._src.nn.functions.silu\",\"precision\":\"BF16_BF16_F32\",\"return_residuals\":false}": {
    "{\"block_m\":64,\"block_n\":64,\"block_k\":32,\"num_warps\":4,\"num_stages\":3}": {
      "compile_time_ms": 347.69160099995133,
      "lower_time_ms": 4701.398761000064,
      "evaluation_times_ms": [
        0.044736,
        0.044479,
        0.045023,
        0.044543,
        0.044384
      ],
      "metadata": {},
      "peak_memory_mb": 26.935296
    }
  },
  "{\"x\":\"bf16[1280,384]\",\"weights\":\"bf16[384,2,1536]\",\"activation\":\"jax._src.nn.functions.silu\",\"precision\":\"BF16_BF16_F32\",\"return_residuals\":false}": {
    "{\"block_m\":128,\"block_n\":64,\"block_k\":32,\"num_warps\":8,\"num_stages\":3}": {
      "compile_time_ms": 341.4876950000689,
      "lower_time_ms": 9534.471394999855,
      "evaluation_times_ms": [
        0.010304,
        0.010208,
        0.01024,
        0.010304,
        0.010272
      ],
      "metadata": {},
      "peak_memory_mb": 7.274496
    }
  },
  "{\"x\":\"f32[5,1280,384]\",\"weights\":\"f32[384,2,768]\",\"activation\":\"jax._src.nn.functions.silu\",\"precision\":\"BF16_BF16_F32\",\"return_residuals\":false}": {
    "{\"block_m\":128,\"block_n\":64,\"block_k\":32,\"num_warps\":4,\"num_stages\":4}": {
      "compile_time_ms": 404.89982200006125,
      "lower_time_ms": 4521.941470999991,
      "evaluation_times_ms": [
        0.041376,
        0.04128,
        0.04144,
        0.041216,
        0.041184
      ],
      "metadata": {},
      "peak_memory_mb": 31.850496
    }
  },
  "{\"x\":\"f32[1280,384]\",\"weights\":\"f32[384,2,768]\",\"activation\":\"jax._src.nn.functions.silu\",\"precision\":\"BF16_BF16_F32\",\"return_residuals\":false}": {
    "{\"block_m\":128,\"block_n\":64,\"block_k\":32,\"num_warps\":4,\"num_stages\":4}": {
      "compile_time_ms": 378.87477799995395,
      "lower_time_ms": 3887.751026999922,
      "evaluation_times_ms": [
        0.01136,
        0.01136,
        0.01136,
        0.01136,
        0.011424
      ],
      "metadata": {},
      "peak_memory_mb": 8.257536
    }
  },
  "{\"x\":\"f32[5,1280,768]\",\"weights\":\"f32[768,2,1536]\",\"activation\":\"jax._src.nn.functions.silu\",\"precision\":\"BF16_BF16_F32\",\"return_residuals\":false}": {
    "{\"block_m\":128,\"block_n\":64,\"block_k\":32,\"num_warps\":4,\"num_stages\":3}": {
      "compile_time_ms": 409.58937599998535,
      "lower_time_ms": 4744.998647000102,
      "evaluation_times_ms": [
        0.137759,
        0.138047,
        0.137791,
        0.137663,
        0.137471
      ],
      "metadata": {},
      "peak_memory_mb": 68.419584
    }
  },
  "{\"x\":\"f32[1280,768]\",\"weights\":\"f32[768,2,1536]\",\"activation\":\"jax._src.nn.functions.silu\",\"precision\":\"BF16_BF16_F32\",\"return_residuals\":false}": {
    "{\"block_m\":128,\"block_n\":64,\"block_k\":32,\"num_warps\":4,\"num_stages\":3}": {
      "compile_time_ms": 385.85879599986583,
      "lower_time_ms": 3609.6219690002727,
      "evaluation_times_ms": [
        0.02896,
        0.028863,
        0.029216,
        0.028735,
        0.0288
      ],
      "metadata": {},
      "peak_memory_mb": 21.233664
    }
  },
  "{\"x\":\"bf16[1,1536,1536,128]\",\"weights\":\"bf16[128,2,256]\",\"activation\":\"jax._src.nn.functions.sigmoid\",\"precision\":\"BF16_BF16_F32\",\"return_residuals\":false}": {
    "{\"block_m\":64,\"block_n\":64,\"block_k\":32,\"num_warps\":4,\"num_stages\":3}": {
      "compile_time_ms": 192.84825800014005,
      "lower_time_ms": 3981.6030070001034,
      "evaluation_times_ms": [
        1.248759,
        1.251703,
        1.257655,
        1.251798,
        1.254231
      ],
      "metadata": {},
      "peak_memory_mb": 1812.0704
    }
  },
  "{\"x\":\"bf16[1,1536,1536,128]\",\"weights\":\"bf16[128,2,512]\",\"activation\":\"jax._src.nn.functions.silu\",\"precision\":\"BF16_BF16_F32\",\"return_residuals\":false}": {
    "{\"block_m\":64,\"block_n\":64,\"block_k\":32,\"num_warps\":4,\"num_stages\":3}": {
      "compile_time_ms": 204.78943600028288,
      "lower_time_ms": 3362.241455000003,
      "evaluation_times_ms": [
        2.665742,
        2.664526,
        2.665358,
        2.665262,
        2.66795
      ],
      "metadata": {},
      "peak_memory_mb": 3020.161024
    }
  },
  "{\"x\":\"bf16[1536,1536,128]\",\"weights\":\"bf16[128,2,256]\",\"activation\":\"jax._src.nn.functions.sigmoid\",\"precision\":\"BF16_BF16_F32\",\"return_residuals\":false}": {
    "{\"block_m\":64,\"block_n\":64,\"block_k\":32,\"num_warps\":4,\"num_stages\":3}": {
      "compile_time_ms": 197.16084799983946,
      "lower_time_ms": 4462.74124699994,
      "evaluation_times_ms": [
        1.257207,
        1.251064,
        1.256568,
        1.251735,
        1.256632
      ],
      "metadata": {},
      "peak_memory_mb": 1812.0704
    }
  },
  "{\"x\":\"bf16[1536,1536,128]\",\"weights\":\"bf16[128,2,512]\",\"activation\":\"jax._src.nn.functions.silu\",\"precision\":\"BF16_BF16_F32\",\"return_residuals\":false}": {
    "{\"block_m\":64,\"block_n\":64,\"block_k\":32,\"num_warps\":4,\"num_stages\":3}": {
      "compile_time_ms": 195.8839569997508,
      "lower_time_ms": 3114.095711000118,
      "evaluation_times_ms": [
        2.675663,
        2.709934,
        2.710542,
        2.72235,
        2.730543
      ],
      "metadata": {},
      "peak_memory_mb": 3020.161024
    }
  },
  "{\"x\":\"f32[1536,1536,128]\",\"weights\":\"f32[128,2,256]\",\"activation\":\"jax._src.nn.functions.silu\",\"precision\":\"BF16_BF16_F32\",\"return_residuals\":false}": {
    "{\"block_m\":128,\"block_n\":64,\"block_k\":32,\"num_warps\":4,\"num_stages\":4}": {
      "compile_time_ms": 391.64972800017495,
      "lower_time_ms": 4312.0183419996465,
      "evaluation_times_ms": [
        2.056659,
        2.056467,
        2.056754,
        2.060274,
        2.061874
      ],
      "metadata": {},
      "peak_memory_mb": 3624.1408
    }
  },
  "{\"x\":\"bf16[1536,1536,64]\",\"weights\":\"bf16[64,2,128]\",\"activation\":\"jax._src.nn.functions.sigmoid\",\"precision\":\"BF16_BF16_F32\",\"return_residuals\":false}": {
    "{\"block_m\":64,\"block_n\":64,\"block_k\":32,\"num_warps\":4,\"num_stages\":3}": {
      "compile_time_ms": 190.95802699985143,
      "lower_time_ms": 3857.49569599966,
      "evaluation_times_ms": [
        0.480605,
        0.481533,
        0.479613,
        0.479804,
        0.479676
      ],
      "metadata": {},
      "peak_memory_mb": 906.002432
    }
  },
  "{\"x\":\"bf16[1536,1536,64]\",\"weights\":\"bf16[64,2,128]\",\"activation\":\"jax._src.nn.functions.silu\",\"precision\":\"BF16_BF16_F32\",\"return_residuals\":false}": {
    "{\"block_m\":64,\"block_n\":64,\"block_k\":32,\"num_warps\":4,\"num_stages\":3}": {
      "compile_time_ms": 197.09694199991645,
      "lower_time_ms": 4924.446390999947,
      "evaluation_times_ms": [
        0.528765,
        0.528829,
        0.527485,
        0.526301,
        0.531164
      ],
      "metadata": {},
      "peak_memory_mb": 906.002432
    }
  },
  "{\"x\":\"f32[5,1536,32,128]\",\"weights\":\"f32[128,2,256]\",\"activation\":\"jax._src.nn.functions.silu\",\"precision\":\"BF16_BF16_F32\",\"return_residuals\":false}": {
    "{\"block_m\":128,\"block_n\":64,\"block_k\":32,\"num_warps\":4,\"num_stages\":4}": {
      "compile_time_ms": 384.9783269999989,
      "lower_time_ms": 4927.378764999958,
      "evaluation_times_ms": [
        0.221982,
        0.223999,
        0.223423,
        0.222686,
        0.223934
      ],
      "metadata": {},
      "peak_memory_mb": 377.749504
    }
  },
  "{\"x\":\"f32[1536,32,128]\",\"weights\":\"f32[128,2,256]\",\"activation\":\"jax._src.nn.functions.silu\",\"precision\":\"BF16_BF16_F32\",\"return_residuals\":false}": {
    "{\"block_m\":128,\"block_n\":64,\"block_k\":32,\"num_warps\":4,\"num_stages\":4}": {
      "compile_time_ms": 378.51262899994254,
      "lower_time_ms": 4842.252371000086,
      "evaluation_times_ms": [
        0.047936,
        0.047712,
        0.048,
        0.048159,
        0.047776
      ],
      "metadata": {},
      "peak_memory_mb": 75.759616
    }
  },
  "{\"x\":\"bf16[5,1536,384]\",\"weights\":\"bf16[384,2,1536]\",\"activation\":\"jax._src.nn.functions.silu\",\"precision\":\"BF16_BF16_F32\",\"return_residuals\":false}": {
    "{\"block_m\":64,\"block_n\":128,\"block_k\":32,\"num_warps\":4,\"num_stages\":3}": {
      "compile_time_ms": 916.1451340000895,
      "lower_time_ms": 4835.307273000126,
      "evaluation_times_ms": [
        0.05056,
        0.049311,
        0.050016,
        0.04944,
        0.049248
      ],
      "metadata": {},
      "peak_memory_mb": 31.850496
    }
  },
  "{\"x\":\"bf16[1536,384]\",\"weights\":\"bf16[384,2,1536]\",\"activation\":\"jax._src.nn.functions.silu\",\"precision\":\"BF16_BF16_F32\",\"return_residuals\":false}": {
    "{\"block_m\":64,\"block_n\":64,\"block_k\":32,\"num_warps\":4,\"num_stages\":3}": {
      "compile_time_ms": 369.4702180000604,
      "lower_time_ms": 3912.7299950000634,
      "evaluation_times_ms": [
        0.012384,
        0.012384,
        0.01232,
        0.012352,
        0.01232
      ],
      "metadata": {},
      "peak_memory_mb": 8.257536
    }
  },
  "{\"x\":\"f32[5,1536,384]\",\"weights\":\"f32[384,2,768]\",\"activation\":\"jax._src.nn.functions.silu\",\"precision\":\"BF16_BF16_F32\",\"return_residuals\":false}": {
    "{\"block_m\":128,\"block_n\":64,\"block_k\":32,\"num_warps\":4,\"num_stages\":4}": {
      "compile_time_ms": 419.52235200005816,
      "lower_time_ms": 5096.025337000128,
      "evaluation_times_ms": [
        0.04768,
        0.047455,
        0.046848,
        0.047295,
        0.047104
      ],
      "metadata": {},
      "peak_memory_mb": 37.748736
    }
  },
  "{\"x\":\"f32[1536,384]\",\"weights\":\"f32[384,2,768]\",\"activation\":\"jax._src.nn.functions.silu\",\"precision\":\"BF16_BF16_F32\",\"return_residuals\":false}": {
    "{\"block_m\":128,\"block_n\":32,\"block_k\":32,\"num_warps\":4,\"num_stages\":3}": {
      "compile_time_ms": 237.92711000010058,
      "lower_time_ms": 4415.76871999996,
      "evaluation_times_ms": [
        0.015807,
        0.015936,
        0.016127,
        0.01616,
        0.015872
      ],
      "metadata": {},
      "peak_memory_mb": 9.437184
    }
  },
  "{\"x\":\"f32[5,1536,768]\",\"weights\":\"f32[768,2,1536]\",\"activation\":\"jax._src.nn.functions.silu\",\"precision\":\"BF16_BF16_F32\",\"return_residuals\":false}": {
    "{\"block_m\":128,\"block_n\":64,\"block_k\":32,\"num_warps\":4,\"num_stages\":3}": {
      "compile_time_ms": 525.6108690000474,
      "lower_time_ms": 4342.605086000049,
      "evaluation_times_ms": [
        0.162943,
        0.16323,
        0.162559,
        0.163551,
        0.162495
      ],
      "metadata": {},
      "peak_memory_mb": 80.216064
    }
  },
  "{\"x\":\"f32[1536,768]\",\"weights\":\"f32[768,2,1536]\",\"activation\":\"jax._src.nn.functions.silu\",\"precision\":\"BF16_BF16_F32\",\"return_residuals\":false}": {
    "{\"block_m\":128,\"block_n\":64,\"block_k\":32,\"num_warps\":4,\"num_stages\":3}": {
      "compile_time_ms": 401.4493479999146,
      "lower_time_ms": 4160.160170000154,
      "evaluation_times_ms": [
        0.043808,
        0.043839,
        0.044128,
        0.043968,
        0.043743
      ],
      "metadata": {},
      "peak_memory_mb": 23.59296
    }
  },
  "{\"x\":\"bf16[1,1792,1792,128]\",\"weights\":\"bf16[128,2,256]\",\"activation\":\"jax._src.nn.functions.sigmoid\",\"precision\":\"BF16_BF16_F32\",\"return_residuals\":false}": {
    "{\"block_m\":64,\"block_n\":64,\"block_k\":32,\"num_warps\":4,\"num_stages\":3}": {
      "compile_time_ms": 188.22193699998024,
      "lower_time_ms": 3784.137150000106,
      "evaluation_times_ms": [
        1.708467,
        1.703284,
        1.710675,
        1.70578,
        1.70658
      ],
      "metadata": {},
      "peak_memory_mb": 2466.381824
    }
  },
  "{\"x\":\"bf16[1,1792,1792,128]\",\"weights\":\"bf16[128,2,512]\",\"activation\":\"jax._src.nn.functions.silu\",\"precision\":\"BF16_BF16_F32\",\"return_residuals\":false}": {
    "{\"block_m\":64,\"block_n\":64,\"block_k\":32,\"num_warps\":4,\"num_stages\":3}": {
      "compile_time_ms": 195.27031899997382,
      "lower_time_ms": 4850.921004999918,
      "evaluation_times_ms": [
        3.627562,
        3.635401,
        3.622474,
        3.632202,
        3.629002
      ],
      "metadata": {},
      "peak_memory_mb": 4110.680064
    }
  },
  "{\"x\":\"bf16[1792,1792,128]\",\"weights\":\"bf16[128,2,256]\",\"activation\":\"jax._src.nn.functions.sigmoid\",\"precision\":\"BF16_BF16_F32\",\"return_residuals\":false}": {
    "{\"block_m\":64,\"block_n\":64,\"block_k\":32,\"num_warps\":4,\"num_stages\":3}": {
      "compile_time_ms": 194.6644050001396,
      "lower_time_ms": 5133.515288999888,
      "evaluation_times_ms": [
        1.706312,
        1.699272,
        1.700711,
        1.701287,
        1.703335
      ],
      "metadata": {},
      "peak_memory_mb": 2466.381824
    }
  },
  "{\"x\":\"bf16[1792,1792,128]\",\"weights\":\"bf16[128,2,512]\",\"activation\":\"jax._src.nn.functions.silu\",\"precision\":\"BF16_BF16_F32\",\"return_residuals\":false}": {
    "{\"block_m\":64,\"block_n\":64,\"block_k\":32,\"num_warps\":4,\"num_stages\":3}": {
      "compile_time_ms": 200.70425499989142,
      "lower_time_ms": 5265.714997000032,
      "evaluation_times_ms": [
        3.623888,
        3.618001,
        3.627376,
        3.624656,
        3.620401
      ],
      "metadata": {},
      "peak_memory_mb": 4110.680064
    }
  },
  "{\"x\":\"f32[1792,1792,128]\",\"weights\":\"f32[128,2,256]\",\"activation\":\"jax._src.nn.functions.silu\",\"precision\":\"BF16_BF16_F32\",\"return_residuals\":false}": {
    "{\"block_m\":128,\"block_n\":64,\"block_k\":32,\"num_warps\":4,\"num_stages\":4}": {
      "compile_time_ms": 394.7800000000825,
      "lower_time_ms": 4370.286551000163,
      "evaluation_times_ms": [
        2.787467,
        2.786316,
        2.789036,
        2.787948,
        2.789612
      ],
      "metadata": {},
      "peak_memory_mb": 4932.763648
    }
  },
  "{\"x\":\"bf16[1792,1792,64]\",\"weights\":\"bf16[64,2,128]\",\"activation\":\"jax._src.nn.functions.sigmoid\",\"precision\":\"BF16_BF16_F32\",\"return_residuals\":false}": {
    "{\"block_m\":64,\"block_n\":64,\"block_k\":32,\"num_warps\":4,\"num_stages\":3}": {
      "compile_time_ms": 183.3383389998744,
      "lower_time_ms": 5161.094787000138,
      "evaluation_times_ms": [
        0.650115,
        0.647811,
        0.649474,
        0.649315,
        0.648355
      ],
      "metadata": {},
      "peak_memory_mb": 1233.158144
    }
  },
  "{\"x\":\"bf16[1792,1792,64]\",\"weights\":\"bf16[64,2,128]\",\"activation\":\"jax._src.nn.functions.silu\",\"precision\":\"BF16_BF16_F32\",\"return_residuals\":false}": {
    "{\"block_m\":64,\"block_n\":64,\"block_k\":32,\"num_warps\":4,\"num_stages\":3}": {
      "compile_time_ms": 198.78154899993206,
      "lower_time_ms": 3265.647885000135,
      "evaluation_times_ms": [
        0.719555,
        0.716707,
        0.719875,
        0.715618,
        0.718627
      ],
      "metadata": {},
      "peak_memory_mb": 1233.158144
    }
  },
  "{\"x\":\"f32[5,1792,32,128]\",\"weights\":\"f32[128,2,256]\",\"activation\":\"jax._src.nn.functions.silu\",\"precision\":\"BF16_BF16_F32\",\"return_residuals\":false}": {
    "{\"block_m\":128,\"block_n\":64,\"block_k\":32,\"num_warps\":4,\"num_stages\":4}": {
      "compile_time_ms": 379.9968060000083,
      "lower_time_ms": 4178.255067999999,
      "evaluation_times_ms": [
        0.260032,
        0.259169,
        0.258593,
        0.258657,
        0.259137
      ],
      "metadata": {},
      "peak_memory_mb": 440.664064
    }
  },
  "{\"x\":\"f32[1792,32,128]\",\"weights\":\"f32[128,2,256]\",\"activation\":\"jax._src.nn.functions.silu\",\"precision\":\"BF16_BF16_F32\",\"return_residuals\":false}": {
    "{\"block_m\":128,\"block_n\":64,\"block_k\":32,\"num_warps\":4,\"num_stages\":4}": {
      "compile_time_ms": 381.669575999922,
      "lower_time_ms": 3955.508889999919,
      "evaluation_times_ms": [
        0.054976,
        0.055744,
        0.055488,
        0.055744,
        0.055073
      ],
      "metadata": {},
      "peak_memory_mb": 88.342528
    }
  },
  "{\"x\":\"bf16[5,1792,384]\",\"weights\":\"bf16[384,2,1536]\",\"activation\":\"jax._src.nn.functions.silu\",\"precision\":\"BF16_BF16_F32\",\"return_residuals\":false}": {
    "{\"block_m\":128,\"block_n\":64,\"block_k\":32,\"num_warps\":4,\"num_stages\":3}": {
      "compile_time_ms": 864.7288299998763,
      "lower_time_ms": 3381.0552519998964,
      "evaluation_times_ms": [
        0.061056,
        0.060992,
        0.061088,
        0.061088,
        0.06096
      ],
      "metadata": {},
      "peak_memory_mb": 36.765696
    }
  },
  "{\"x\":\"bf16[1792,384]\",\"weights\":\"bf16[384,2,1536]\",\"activation\":\"jax._src.nn.functions.silu\",\"precision\":\"BF16_BF16_F32\",\"return_residuals\":false}": {
    "{\"block_m\":64,\"block_n\":128,\"block_k\":32,\"num_warps\":4,\"num_stages\":3}": {
      "compile_time_ms": 920.7007910001721,
      "lower_time_ms": 3704.525482000008,
      "evaluation_times_ms": [
        0.013984,
        0.01392,
        0.01392,
        0.01392,
        0.01392
      ],
      "metadata": {},
      "peak_memory_mb": 9.240576
    }
  },
  "{\"x\":\"f32[5,1792,384]\",\"weights\":\"f32[384,2,768]\",\"activation\":\"jax._src.nn.functions.silu\",\"precision\":\"BF16_BF16_F32\",\"return_residuals\":false}": {
    "{\"block_m\":128,\"block_n\":64,\"block_k\":32,\"num_warps\":4,\"num_stages\":4}": {
      "compile_time_ms": 413.6522969999987,
      "lower_time_ms": 5074.046910000106,
      "evaluation_times_ms": [
        0.057536,
        0.056928,
        0.056865,
        0.057408,
        0.056992
      ],
      "metadata": {},
      "peak_memory_mb": 43.646976
    }
  },
  "{\"x\":\"f32[1792,384]\",\"weights\":\"f32[384,2,768]\",\"activation\":\"jax._src.nn.functions.silu\",\"precision\":\"BF16_BF16_F32\",\"return_residuals\":false}": {
    "{\"block_m\":128,\"block_n\":32,\"block_k\":32,\"num_warps\":4,\"num_stages\":3}": {
      "compile_time_ms": 235.0678320001407,
      "lower_time_ms": 5321.303460000081,
      "evaluation_times_ms": [
        0.016544,
        0.016384,
        0.016352,
        0.016416,
        0.016352
      ],
      "metadata": {},
      "peak_memory_mb": 10.616832
    }
  },
  "{\"x\":\"f32[5,1792,768]\",\"weights\":\"f32[768,2,1536]\",\"activation\":\"jax._src.nn.functions.silu\",\"precision\":\"BF16_BF16_F32\",\"return_residuals\":false}": {
    "{\"block_m\":128,\"block_n\":64,\"block_k\":32,\"num_warps\":4,\"num_stages\":3}": {
      "compile_time_ms": 390.96558399978676,
      "lower_time_ms": 4546.7864459997145,
      "evaluation_times_ms": [
        0.189054,
        0.191645,
        0.192093,
        0.190077,
        0.191005
      ],
      "metadata": {},
      "peak_memory_mb": 92.012544
    }
  },
  "{\"x\":\"f32[1792,768]\",\"weights\":\"f32[768,2,1536]\",\"activation\":\"jax._src.nn.functions.silu\",\"precision\":\"BF16_BF16_F32\",\"return_residuals\":false}": {
    "{\"block_m\":128,\"block_n\":64,\"block_k\":32,\"num_warps\":8,\"num_stages\":3}": {
      "compile_time_ms": 220.53109999978915,
      "lower_time_ms": 5811.121683000238,
      "evaluation_times_ms": [
        0.048287,
        0.048447,
        0.048511,
        0.048511,
        0.048256
      ],
      "metadata": {},
      "peak_memory_mb": 25.952256
    }
  },
  "{\"x\":\"bf16[1,2048,2048,128]\",\"weights\":\"bf16[128,2,256]\",\"activation\":\"jax._src.nn.functions.sigmoid\",\"precision\":\"BF16_BF16_F32\",\"return_residuals\":false}": {
    "{\"block_m\":64,\"block_n\":64,\"block_k\":32,\"num_warps\":4,\"num_stages\":3}": {
      "compile_time_ms": 197.99512600002345,
      "lower_time_ms": 4227.682004000144,
      "evaluation_times_ms": [
        2.198564,
        2.202371,
        2.199779,
        2.197316,
        2.195843
      ],
      "metadata": {},
      "peak_memory_mb": 3221.356544
    }
  },
  "{\"x\":\"bf16[1,2048,2048,128]\",\"weights\":\"bf16[128,2,512]\",\"activation\":\"jax._src.nn.functions.silu\",\"precision\":\"BF16_BF16_F32\",\"return_residuals\":false}": {
    "{\"block_m\":64,\"block_n\":64,\"block_k\":32,\"num_warps\":4,\"num_stages\":3}": {
      "compile_time_ms": 1180.8184940000501,
      "lower_time_ms": 5149.619523999718,
      "evaluation_times_ms": [
        4.720585,
        4.724233,
        4.766664,
        4.769097,
        4.776712
      ],
      "metadata": {},
      "peak_memory_mb": 5368.971264
    }
  },
  "{\"x\":\"bf16[2048,2048,128]\",\"weights\":\"bf16[128,2,256]\",\"activation\":\"jax._src.nn.functions.sigmoid\",\"precision\":\"BF16_BF16_F32\",\"return_residuals\":false}": {
    "{\"block_m\":64,\"block_n\":64,\"block_k\":32,\"num_warps\":4,\"num_stages\":3}": {
      "compile_time_ms": 187.53765199971895,
      "lower_time_ms": 4636.470482000277,
      "evaluation_times_ms": [
        2.211142,
        2.211685,
        2.213733,
        2.212293,
        2.216933
      ],
      "metadata": {},
      "peak_memory_mb": 3221.356544
    }
  },
  "{\"x\":\"bf16[2048,2048,128]\",\"weights\":\"bf16[128,2,512]\",\"activation\":\"jax._src.nn.functions.silu\",\"precision\":\"BF16_BF16_F32\",\"return_residuals\":false}": {
    "{\"block_m\":64,\"block_n\":64,\"block_k\":32,\"num_warps\":4,\"num_stages\":3}": {
      "compile_time_ms": 188.8558830000875,
      "lower_time_ms": 4410.407189000125,
      "evaluation_times_ms": [
        4.70849,
        4.711242,
        4.714474,
        4.771849,
        4.865416
      ],
      "metadata": {},
      "peak_memory_mb": 5368.971264
    }
  },
  "{\"x\":\"f32[2048,2048,128]\",\"weights\":\"f32[128,2,256]\",\"activation\":\"jax._src.nn.functions.silu\",\"precision\":\"BF16_BF16_F32\",\"return_residuals\":false}": {
    "{\"block_m\":128,\"block_n\":64,\"block_k\":32,\"num_warps\":4,\"num_stages\":4}": {
      "compile_time_ms": 368.86625999977696,
      "lower_time_ms": 4066.645055999743,
      "evaluation_times_ms": [
        3.695092,
        3.693972,
        3.700341,
        3.700788,
        3.690549
      ],
      "metadata": {},
      "peak_memory_mb": 6442.713088
    }
  },
  "{\"x\":\"bf16[2048,2048,64]\",\"weights\":\"bf16[64,2,128]\",\"activation\":\"jax._src.nn.functions.sigmoid\",\"precision\":\"BF16_BF16_F32\",\"return_residuals\":false}": {
    "{\"block_m\":64,\"block_n\":64,\"block_k\":32,\"num_warps\":4,\"num_stages\":3}": {
      "compile_time_ms": 185.69480899986957,
      "lower_time_ms": 4168.468120000398,
      "evaluation_times_ms": [
        0.838615,
        0.836054,
        0.836246,
        0.836983,
        0.837207
      ],
      "metadata": {},
      "peak_memory_mb": 1610.645504
    }
  },
  "{\"x\":\"bf16[2048,2048,64]\",\"weights\":\"bf16[64,2,128]\",\"activation\":\"jax._src.nn.functions.silu\",\"precision\":\"BF16_BF16_F32\",\"return_residuals\":false}": {
    "{\"block_m\":64,\"block_n\":64,\"block_k\":32,\"num_warps\":4,\"num_stages\":3}": {
      "compile_time_ms": 208.551449999959,
      "lower_time_ms": 3944.4460039999285,
      "evaluation_times_ms": [
        0.922613,
        0.919989,
        0.926837,
        0.927445,
        0.921141
      ],
      "metadata": {},
      "peak_memory_mb": 1610.645504
    }
  },
  "{\"x\":\"f32[5,2048,32,128]\",\"weights\":\"f32[128,2,256]\",\"activation\":\"jax._src.nn.functions.silu\",\"precision\":\"BF16_BF16_F32\",\"return_residuals\":false}": {
    "{\"block_m\":128,\"block_n\":64,\"block_k\":32,\"num_warps\":4,\"num_stages\":4}": {
      "compile_time_ms": 375.15360299994427,
      "lower_time_ms": 5319.867367999905,
      "evaluation_times_ms": [
        0.292541,
        0.294205,
        0.293468,
        0.294141,
        0.293596
      ],
      "metadata": {},
      "peak_memory_mb": 503.578624
    }
  },
  "{\"x\":\"f32[2048,32,128]\",\"weights\":\"f32[128,2,256]\",\"activation\":\"jax._src.nn.functions.silu\",\"precision\":\"BF16_BF16_F32\",\"return_residuals\":false}": {
    "{\"block_m\":128,\"block_n\":64,\"block_k\":32,\"num_warps\":4,\"num_stages\":4}": {
      "compile_time_ms": 397.4692559995674,
      "lower_time_ms": 3809.8099919998276,
      "evaluation_times_ms": [
        0.063231,
        0.062911,
        0.062719,
        0.063039,
        0.063263
      ],
      "metadata": {},
      "peak_memory_mb": 100.92544
    }
  },
  "{\"x\":\"bf16[5,2048,384]\",\"weights\":\"bf16[384,2,1536]\",\"activation\":\"jax._src.nn.functions.silu\",\"precision\":\"BF16_BF16_F32\",\"return_residuals\":false}": {
    "{\"block_m\":64,\"block_n\":128,\"block_k\":32,\"num_warps\":4,\"num_stages\":3}": {
      "compile_time_ms": 904.4900439998855,
      "lower_time_ms": 4440.829398000005,
      "evaluation_times_ms": [
        0.065922,
        0.065602,
        0.065827,
        0.066018,
        0.065891
      ],
      "metadata": {},
      "peak_memory_mb": 41.680896
    }
  },
  "{\"x\":\"bf16[2048,384]\",\"weights\":\"bf16[384,2,1536]\",\"activation\":\"jax._src.nn.functions.silu\",\"precision\":\"BF16_BF16_F32\",\"return_residuals\":false}": {
    "{\"block_m\":64,\"block_n\":128,\"block_k\":32,\"num_warps\":4,\"num_stages\":3}": {
      "compile_time_ms": 902.0954769998752,
      "lower_time_ms": 4761.628695000127,
      "evaluation_times_ms": [
        0.014337,
        0.014145,
        0.014177,
        0.014177,
        0.014209
      ],
      "metadata": {},
      "peak_memory_mb": 10.223616
    }
  },
  "{\"x\":\"f32[5,2048,384]\",\"weights\":\"f32[384,2,768]\",\"activation\":\"jax._src.nn.functions.silu\",\"precision\":\"BF16_BF16_F32\",\"return_residuals\":false}": {
    "{\"block_m\":128,\"block_n\":64,\"block_k\":32,\"num_warps\":4,\"num_stages\":3}": {
      "compile_time_ms": 361.89401499996166,
      "lower_time_ms": 4903.5878720001165,
      "evaluation_times_ms": [
        0.063236,
        0.063139,
        0.063043,
        0.06378,
        0.063267
      ],
      "metadata": {},
      "peak_memory_mb": 49.545216
    }
  },
  "{\"x\":\"f32[2048,384]\",\"weights\":\"f32[384,2,768]\",\"activation\":\"jax._src.nn.functions.silu\",\"precision\":\"BF16_BF16_F32\",\"return_residuals\":false}": {
    "{\"block_m\":128,\"block_n\":32,\"block_k\":32,\"num_warps\":4,\"num_stages\":4}": {
      "compile_time_ms": 318.5422019996622,
      "lower_time_ms": 4815.5945199996495,
      "evaluation_times_ms": [
        0.016481,
        0.016352,
        0.016449,
        0.016418,
        0.016481
      ],
      "metadata": {},
      "peak_memory_mb": 11.79648
    }
  },
  "{\"x\":\"f32[5,2048,768]\",\"weights\":\"f32[768,2,1536]\",\"activation\":\"jax._src.nn.functions.silu\",\"precision\":\"BF16_BF16_F32\",\"return_residuals\":false}": {
    "{\"block_m\":128,\"block_n\":64,\"block_k\":32,\"num_warps\":4,\"num_stages\":3}": {
      "compile_time_ms": 390.1779279999573,
      "lower_time_ms": 4655.304195000099,
      "evaluation_times_ms": [
        0.215374,
        0.215662,
        0.21515,
        0.215086,
        0.215855
      ],
      "metadata": {},
      "peak_memory_mb": 103.809024
    }
  },
  "{\"x\":\"f32[2048,768]\",\"weights\":\"f32[768,2,1536]\",\"activation\":\"jax._src.nn.functions.silu\",\"precision\":\"BF16_BF16_F32\",\"return_residuals\":false}": {
    "{\"block_m\":128,\"block_n\":64,\"block_k\":32,\"num_warps\":8,\"num_stages\":3}": {
      "compile_time_ms": 218.62464200012255,
      "lower_time_ms": 4994.042156999967,
      "evaluation_times_ms": [
        0.048771,
        0.048739,
        0.048675,
        0.048804,
        0.048803
      ],
      "metadata": {},
      "peak_memory_mb": 28.311552
    }
  },
  "{\"x\":\"bf16[1,2304,2304,128]\",\"weights\":\"bf16[128,2,256]\",\"activation\":\"jax._src.nn.functions.sigmoid\",\"precision\":\"BF16_BF16_F32\",\"return_residuals\":false}": {
    "{\"block_m\":64,\"block_n\":64,\"block_k\":32,\"num_warps\":4,\"num_stages\":3}": {
      "compile_time_ms": 199.78693000030034,
      "lower_time_ms": 8668.721228999857,
      "evaluation_times_ms": [
        2.909853,
        2.910813,
        2.910941,
        2.990143,
        3.02928
      ],
      "metadata": {},
      "peak_memory_mb": 4076.99456
    }
  },
  "{\"x\":\"bf16[1,2304,2304,128]\",\"weights\":\"bf16[128,2,512]\",\"activation\":\"jax._src.nn.functions.silu\",\"precision\":\"BF16_BF16_F32\",\"return_residuals\":false}": {
    "{\"block_m\":64,\"block_n\":64,\"block_k\":32,\"num_warps\":4,\"num_stages\":3}": {
      "compile_time_ms": 206.031701000029,
      "lower_time_ms": 4586.752914000044,
      "evaluation_times_ms": [
        5.98468,
        5.97348,
        5.975271,
        6.217833,
        6.318731
      ],
      "metadata": {},
      "peak_memory_mb": 6795.034624
    }
  },
  "{\"x\":\"bf16[2304,2304,128]\",\"weights\":\"bf16[128,2,256]\",\"activation\":\"jax._src.nn.functions.sigmoid\",\"precision\":\"BF16_BF16_F32\",\"return_residuals\":false}": {
    "{\"block_m\":64,\"block_n\":64,\"block_k\":32,\"num_warps\":4,\"num_stages\":3}": {
      "compile_time_ms": 198.22705900014626,
      "lower_time_ms": 3658.808895999755,
      "evaluation_times_ms": [
        2.813858,
        2.80925,
        2.810306,
        2.808514,
        2.806786
      ],
      "metadata": {},
      "peak_memory_mb": 4076.99456
    }
  },
  "{\"x\":\"bf16[2304,2304,128]\",\"weights\":\"bf16[128,2,512]\",\"activation\":\"jax._src.nn.functions.silu\",\"precision\":\"BF16_BF16_F32\",\"return_residuals\":false}": {
    "{\"block_m\":64,\"block_n\":64,\"block_k\":32,\"num_warps\":4,\"num_stages\":3}": {
      "compile_time_ms": 200.44248600015635,
      "lower_time_ms": 6018.858022000131,
      "evaluation_times_ms": [
        5.959833,
        6.007161,
        6.091481,
        6.310169,
        6.309178
      ],
      "metadata": {},
      "peak_memory_mb": 6795.034624
    }
  },
  "{\"x\":\"f32[2304,2304,128]\",\"weights\":\"f32[128,2,256]\",\"activation\":\"jax._src.nn.functions.silu\",\"precision\":\"BF16_BF16_F32\",\"return_residuals\":false}": {
    "{\"block_m\":128,\"block_n\":64,\"block_k\":32,\"num_warps\":4,\"num_stages\":4}": {
      "compile_time_ms": 385.8268619997034,
      "lower_time_ms": 4985.850218999985,
      "evaluation_times_ms": [
        4.71877,
        4.691378,
        4.696306,
        4.693746,
        4.692049
      ],
      "metadata": {},
      "peak_memory_mb": 8153.98912
    }
  }
}
