{
  "{\"x\":\"bf16[1,512,512,128]\",\"weights\":\"bf16[128,2,256]\",\"activation\":\"jax._src.nn.functions.sigmoid\",\"precision\":\"BF16_BF16_F32\",\"return_residuals\":false}": {
    "{\"block_m\":64,\"block_n\":64,\"block_k\":32,\"num_warps\":4,\"num_stages\":3}": {
      "compile_time_ms": 182.87366199911048,
      "lower_time_ms": 3653.9130469991505,
      "evaluation_times_ms": [
        0.148542,
        0.147582,
        0.147998,
        0.147615,
        0.148639
      ],
      "metadata": {},
      "peak_memory_mb": 201.457664
    }
  },
  "{\"x\":\"bf16[1,512,512,128]\",\"weights\":\"bf16[128,2,512]\",\"activation\":\"jax._src.nn.functions.silu\",\"precision\":\"BF16_BF16_F32\",\"return_residuals\":false}": {
    "{\"block_m\":64,\"block_n\":64,\"block_k\":32,\"num_warps\":4,\"num_stages\":3}": {
      "compile_time_ms": 185.36397000025318,
      "lower_time_ms": 1983.2181109995872,
      "evaluation_times_ms": [
        0.303709,
        0.304158,
        0.305182,
        0.304669,
        0.304669
      ],
      "metadata": {},
      "peak_memory_mb": 335.806464
    }
  },
  "{\"x\":\"bf16[512,512,128]\",\"weights\":\"bf16[128,2,256]\",\"activation\":\"jax._src.nn.functions.sigmoid\",\"precision\":\"BF16_BF16_F32\",\"return_residuals\":false}": {
    "{\"block_m\":64,\"block_n\":64,\"block_k\":32,\"num_warps\":4,\"num_stages\":3}": {
      "compile_time_ms": 196.58745100059605,
      "lower_time_ms": 4197.363322999081,
      "evaluation_times_ms": [
        0.148383,
        0.148415,
        0.148575,
        0.148607,
        0.148479
      ],
      "metadata": {},
      "peak_memory_mb": 201.457664
    }
  },
  "{\"x\":\"bf16[512,512,128]\",\"weights\":\"bf16[128,2,512]\",\"activation\":\"jax._src.nn.functions.silu\",\"precision\":\"BF16_BF16_F32\",\"return_residuals\":false}": {
    "{\"block_m\":64,\"block_n\":64,\"block_k\":32,\"num_warps\":4,\"num_stages\":3}": {
      "compile_time_ms": 181.08835499879206,
      "lower_time_ms": 3074.792368999624,
      "evaluation_times_ms": [
        0.305117,
        0.30483,
        0.30435,
        0.303838,
        0.30563
      ],
      "metadata": {},
      "peak_memory_mb": 335.806464
    }
  },
  "{\"x\":\"f32[512,512,128]\",\"weights\":\"f32[128,2,256]\",\"activation\":\"jax._src.nn.functions.silu\",\"precision\":\"BF16_BF16_F32\",\"return_residuals\":false}": {
    "{\"block_m\":128,\"block_n\":64,\"block_k\":32,\"num_warps\":4,\"num_stages\":4}": {
      "compile_time_ms": 353.424831000666,
      "lower_time_ms": 4266.068676000941,
      "evaluation_times_ms": [
        0.236798,
        0.236766,
        0.236286,
        0.236126,
        0.237085
      ],
      "metadata": {},
      "peak_memory_mb": 402.915328
    }
  },
  "{\"x\":\"bf16[512,512,64]\",\"weights\":\"bf16[64,2,128]\",\"activation\":\"jax._src.nn.functions.sigmoid\",\"precision\":\"BF16_BF16_F32\",\"return_residuals\":false}": {
    "{\"block_m\":64,\"block_n\":64,\"block_k\":32,\"num_warps\":4,\"num_stages\":3}": {
      "compile_time_ms": 178.13431399918045,
      "lower_time_ms": 3718.104473000494,
      "evaluation_times_ms": [
        0.057152,
        0.057376,
        0.057024,
        0.057504,
        0.057056
      ],
      "metadata": {},
      "peak_memory_mb": 100.696064
    }
  },
  "{\"x\":\"bf16[512,512,64]\",\"weights\":\"bf16[64,2,128]\",\"activation\":\"jax._src.nn.functions.silu\",\"precision\":\"BF16_BF16_F32\",\"return_residuals\":false}": {
    "{\"block_m\":64,\"block_n\":64,\"block_k\":32,\"num_warps\":4,\"num_stages\":3}": {
      "compile_time_ms": 201.99448600033065,
      "lower_time_ms": 3887.250480998773,
      "evaluation_times_ms": [
        0.062912,
        0.062656,
        0.062399,
        0.062144,
        0.062368
      ],
      "metadata": {},
      "peak_memory_mb": 100.696064
    }
  },
  "{\"x\":\"f32[5,512,32,128]\",\"weights\":\"f32[128,2,256]\",\"activation\":\"jax._src.nn.functions.silu\",\"precision\":\"BF16_BF16_F32\",\"return_residuals\":false}": {
    "{\"block_m\":128,\"block_n\":64,\"block_k\":32,\"num_warps\":4,\"num_stages\":4}": {
      "compile_time_ms": 354.2087610003364,
      "lower_time_ms": 4479.944394000995,
      "evaluation_times_ms": [
        0.077855,
        0.077952,
        0.077696,
        0.07856,
        0.078496
      ],
      "metadata": {},
      "peak_memory_mb": 126.091264
    }
  },
  "{\"x\":\"f32[512,32,128]\",\"weights\":\"f32[128,2,256]\",\"activation\":\"jax._src.nn.functions.silu\",\"precision\":\"BF16_BF16_F32\",\"return_residuals\":false}": {
    "{\"block_m\":128,\"block_n\":64,\"block_k\":32,\"num_warps\":4,\"num_stages\":3}": {
      "compile_time_ms": 358.79488800128456,
      "lower_time_ms": 3104.149299999335,
      "evaluation_times_ms": [
        0.016864,
        0.016832,
        0.017024,
        0.016896,
        0.017152
      ],
      "metadata": {},
      "peak_memory_mb": 25.427968
    }
  },
  "{\"x\":\"bf16[5,512,384]\",\"weights\":\"bf16[384,2,1536]\",\"activation\":\"jax._src.nn.functions.silu\",\"precision\":\"BF16_BF16_F32\",\"return_residuals\":false}": {
    "{\"block_m\":128,\"block_n\":64,\"block_k\":32,\"num_warps\":8,\"num_stages\":3}": {
      "compile_time_ms": 318.0599879997317,
      "lower_time_ms": 3674.4394229990576,
      "evaluation_times_ms": [
        0.0192,
        0.019263,
        0.019328,
        0.019296,
        0.019296
      ],
      "metadata": {},
      "peak_memory_mb": 12.189696
    }
  },
  "{\"x\":\"bf16[512,384]\",\"weights\":\"bf16[384,2,1536]\",\"activation\":\"jax._src.nn.functions.silu\",\"precision\":\"BF16_BF16_F32\",\"return_residuals\":false}": {
    "{\"block_m\":128,\"block_n\":64,\"block_k\":32,\"num_warps\":8,\"num_stages\":5}": {
      "compile_time_ms": 337.27100100077223,
      "lower_time_ms": 2495.4614319995017,
      "evaluation_times_ms": [
        0.006528,
        0.00656,
        0.006528,
        0.006496,
        0.006528
      ],
      "metadata": {},
      "peak_memory_mb": 4.325376
    }
  },
  "{\"x\":\"f32[5,512,384]\",\"weights\":\"f32[384,2,768]\",\"activation\":\"jax._src.nn.functions.silu\",\"precision\":\"BF16_BF16_F32\",\"return_residuals\":false}": {
    "{\"block_m\":128,\"block_n\":64,\"block_k\":32,\"num_warps\":4,\"num_stages\":3}": {
      "compile_time_ms": 345.8017020002444,
      "lower_time_ms": 2601.3947729989013,
      "evaluation_times_ms": [
        0.016895,
        0.016831,
        0.016864,
        0.016832,
        0.016992
      ],
      "metadata": {},
      "peak_memory_mb": 14.155776
    }
  },
  "{\"x\":\"f32[512,384]\",\"weights\":\"f32[384,2,768]\",\"activation\":\"jax._src.nn.functions.silu\",\"precision\":\"BF16_BF16_F32\",\"return_residuals\":false}": {
    "{\"block_m\":128,\"block_n\":32,\"block_k\":32,\"num_warps\":4,\"num_stages\":4}": {
      "compile_time_ms": 292.61697299989464,
      "lower_time_ms": 2573.545588998968,
      "evaluation_times_ms": [
        0.008352,
        0.008352,
        0.008384,
        0.008352,
        0.008352
      ],
      "metadata": {},
      "peak_memory_mb": 4.718592
    }
  },
  "{\"x\":\"f32[5,512,768]\",\"weights\":\"f32[768,2,1536]\",\"activation\":\"jax._src.nn.functions.silu\",\"precision\":\"BF16_BF16_F32\",\"return_residuals\":false}": {
    "{\"block_m\":128,\"block_n\":64,\"block_k\":32,\"num_warps\":4,\"num_stages\":3}": {
      "compile_time_ms": 353.5465850000037,
      "lower_time_ms": 3216.6180389995134,
      "evaluation_times_ms": [
        0.056064,
        0.056032,
        0.055391,
        0.054623,
        0.055391
      ],
      "metadata": {},
      "peak_memory_mb": 33.030144
    }
  },
  "{\"x\":\"f32[512,768]\",\"weights\":\"f32[768,2,1536]\",\"activation\":\"jax._src.nn.functions.silu\",\"precision\":\"BF16_BF16_F32\",\"return_residuals\":false}": {
    "{\"block_m\":128,\"block_n\":64,\"block_k\":32,\"num_warps\":4,\"num_stages\":3}": {
      "compile_time_ms": 341.73602199916786,
      "lower_time_ms": 3631.934684999578,
      "evaluation_times_ms": [
        0.018719,
        0.018816,
        0.018784,
        0.018847,
        0.018784
      ],
      "metadata": {},
      "peak_memory_mb": 14.155776
    }
  },
  "{\"x\":\"bf16[1,768,768,128]\",\"weights\":\"bf16[128,2,256]\",\"activation\":\"jax._src.nn.functions.sigmoid\",\"precision\":\"BF16_BF16_F32\",\"return_residuals\":false}": {
    "{\"block_m\":64,\"block_n\":64,\"block_k\":32,\"num_warps\":4,\"num_stages\":3}": {
      "compile_time_ms": 181.5980049996142,
      "lower_time_ms": 4155.776817000515,
      "evaluation_times_ms": [
        0.324125,
        0.324734,
        0.323709,
        0.325086,
        0.323933
      ],
      "metadata": {},
      "peak_memory_mb": 453.115904
    }
  },
  "{\"x\":\"bf16[1,768,768,128]\",\"weights\":\"bf16[128,2,512]\",\"activation\":\"jax._src.nn.functions.silu\",\"precision\":\"BF16_BF16_F32\",\"return_residuals\":false}": {
    "{\"block_m\":64,\"block_n\":64,\"block_k\":32,\"num_warps\":4,\"num_stages\":3}": {
      "compile_time_ms": 192.99585899898375,
      "lower_time_ms": 3601.616746998843,
      "evaluation_times_ms": [
        0.67433,
        0.675514,
        0.677147,
        0.676155,
        0.675291
      ],
      "metadata": {},
      "peak_memory_mb": 755.236864
    }
  },
  "{\"x\":\"bf16[768,768,128]\",\"weights\":\"bf16[128,2,256]\",\"activation\":\"jax._src.nn.functions.sigmoid\",\"precision\":\"BF16_BF16_F32\",\"return_residuals\":false}": {
    "{\"block_m\":64,\"block_n\":64,\"block_k\":32,\"num_warps\":4,\"num_stages\":3}": {
      "compile_time_ms": 181.06341999919096,
      "lower_time_ms": 2423.7749249987246,
      "evaluation_times_ms": [
        0.324893,
        0.326142,
        0.325277,
        0.325885,
        0.326334
      ],
      "metadata": {},
      "peak_memory_mb": 453.115904
    }
  },
  "{\"x\":\"bf16[768,768,128]\",\"weights\":\"bf16[128,2,512]\",\"activation\":\"jax._src.nn.functions.silu\",\"precision\":\"BF16_BF16_F32\",\"return_residuals\":false}": {
    "{\"block_m\":64,\"block_n\":64,\"block_k\":32,\"num_warps\":4,\"num_stages\":3}": {
      "compile_time_ms": 193.9512230001128,
      "lower_time_ms": 3093.1889709991083,
      "evaluation_times_ms": [
        0.670938,
        0.668891,
        0.667674,
        0.669563,
        0.671739
      ],
      "metadata": {},
      "peak_memory_mb": 755.236864
    }
  },
  "{\"x\":\"f32[768,768,128]\",\"weights\":\"f32[128,2,256]\",\"activation\":\"jax._src.nn.functions.silu\",\"precision\":\"BF16_BF16_F32\",\"return_residuals\":false}": {
    "{\"block_m\":128,\"block_n\":64,\"block_k\":32,\"num_warps\":4,\"num_stages\":4}": {
      "compile_time_ms": 463.60591200027557,
      "lower_time_ms": 3908.012497000527,
      "evaluation_times_ms": [
        0.525212,
        0.522268,
        0.52518,
        0.524892,
        0.524412
      ],
      "metadata": {},
      "peak_memory_mb": 906.231808
    }
  },
  "{\"x\":\"bf16[768,768,64]\",\"weights\":\"bf16[64,2,128]\",\"activation\":\"jax._src.nn.functions.sigmoid\",\"precision\":\"BF16_BF16_F32\",\"return_residuals\":false}": {
    "{\"block_m\":64,\"block_n\":64,\"block_k\":32,\"num_warps\":4,\"num_stages\":3}": {
      "compile_time_ms": 184.61034999927506,
      "lower_time_ms": 3371.726696999758,
      "evaluation_times_ms": [
        0.127327,
        0.128191,
        0.127264,
        0.127038,
        0.127135
      ],
      "metadata": {},
      "peak_memory_mb": 226.525184
    }
  },
  "{\"x\":\"bf16[768,768,64]\",\"weights\":\"bf16[64,2,128]\",\"activation\":\"jax._src.nn.functions.silu\",\"precision\":\"BF16_BF16_F32\",\"return_residuals\":false}": {
    "{\"block_m\":64,\"block_n\":64,\"block_k\":32,\"num_warps\":4,\"num_stages\":3}": {
      "compile_time_ms": 187.44765699921118,
      "lower_time_ms": 4437.645962998431,
      "evaluation_times_ms": [
        0.139743,
        0.138879,
        0.138207,
        0.139423,
        0.139391
      ],
      "metadata": {},
      "peak_memory_mb": 226.525184
    }
  },
  "{\"x\":\"f32[5,768,32,128]\",\"weights\":\"f32[128,2,256]\",\"activation\":\"jax._src.nn.functions.silu\",\"precision\":\"BF16_BF16_F32\",\"return_residuals\":false}": {
    "{\"block_m\":128,\"block_n\":64,\"block_k\":32,\"num_warps\":4,\"num_stages\":4}": {
      "compile_time_ms": 352.53871199893183,
      "lower_time_ms": 3294.2278670016094,
      "evaluation_times_ms": [
        0.115839,
        0.115775,
        0.115327,
        0.116352,
        0.115967
      ],
      "metadata": {},
      "peak_memory_mb": 189.005824
    }
  },
  "{\"x\":\"f32[768,32,128]\",\"weights\":\"f32[128,2,256]\",\"activation\":\"jax._src.nn.functions.silu\",\"precision\":\"BF16_BF16_F32\",\"return_residuals\":false}": {
    "{\"block_m\":128,\"block_n\":64,\"block_k\":32,\"num_warps\":4,\"num_stages\":4}": {
      "compile_time_ms": 369.2363310001383,
      "lower_time_ms": 3389.998888000264,
      "evaluation_times_ms": [
        0.025599,
        0.02624,
        0.025696,
        0.025696,
        0.025727
      ],
      "metadata": {},
      "peak_memory_mb": 38.01088
    }
  },
  "{\"x\":\"bf16[5,768,384]\",\"weights\":\"bf16[384,2,1536]\",\"activation\":\"jax._src.nn.functions.silu\",\"precision\":\"BF16_BF16_F32\",\"return_residuals\":false}": {
    "{\"block_m\":64,\"block_n\":128,\"block_k\":32,\"num_warps\":4,\"num_stages\":3}": {
      "compile_time_ms": 879.9717149995558,
      "lower_time_ms": 3319.3331679995026,
      "evaluation_times_ms": [
        0.02656,
        0.026687,
        0.02672,
        0.026624,
        0.026624
      ],
      "metadata": {},
      "peak_memory_mb": 17.104896
    }
  },
  "{\"x\":\"bf16[768,384]\",\"weights\":\"bf16[384,2,1536]\",\"activation\":\"jax._src.nn.functions.silu\",\"precision\":\"BF16_BF16_F32\",\"return_residuals\":false}": {
    "{\"block_m\":64,\"block_n\":64,\"block_k\":32,\"num_warps\":4,\"num_stages\":3}": {
      "compile_time_ms": 338.54609100126254,
      "lower_time_ms": 2236.463052000545,
      "evaluation_times_ms": [
        0.008352,
        0.00848,
        0.008448,
        0.008288,
        0.008352
      ],
      "metadata": {},
      "peak_memory_mb": 5.308416
    }
  },
  "{\"x\":\"f32[5,768,384]\",\"weights\":\"f32[384,2,768]\",\"activation\":\"jax._src.nn.functions.silu\",\"precision\":\"BF16_BF16_F32\",\"return_residuals\":false}": {
    "{\"block_m\":128,\"block_n\":64,\"block_k\":32,\"num_warps\":4,\"num_stages\":4}": {
      "compile_time_ms": 353.6074040002859,
      "lower_time_ms": 3010.980936998749,
      "evaluation_times_ms": [
        0.02656,
        0.026752,
        0.026592,
        0.02672,
        0.026816
      ],
      "metadata": {},
      "peak_memory_mb": 20.054016
    }
  },
  "{\"x\":\"f32[768,384]\",\"weights\":\"f32[384,2,768]\",\"activation\":\"jax._src.nn.functions.silu\",\"precision\":\"BF16_BF16_F32\",\"return_residuals\":false}": {
    "{\"block_m\":128,\"block_n\":64,\"block_k\":32,\"num_warps\":4,\"num_stages\":3}": {
      "compile_time_ms": 346.76677400000244,
      "lower_time_ms": 3744.368694000059,
      "evaluation_times_ms": [
        0.010947,
        0.010979,
        0.010947,
        0.010979,
        0.010979
      ],
      "metadata": {},
      "peak_memory_mb": 5.89824
    }
  },
  "{\"x\":\"f32[5,768,768]\",\"weights\":\"f32[768,2,1536]\",\"activation\":\"jax._src.nn.functions.silu\",\"precision\":\"BF16_BF16_F32\",\"return_residuals\":false}": {
    "{\"block_m\":128,\"block_n\":64,\"block_k\":32,\"num_warps\":4,\"num_stages\":3}": {
      "compile_time_ms": 365.4061599999068,
      "lower_time_ms": 4599.228068999992,
      "evaluation_times_ms": [
        0.082133,
        0.082901,
        0.083381,
        0.082741,
        0.083285
      ],
      "metadata": {},
      "peak_memory_mb": 44.826624
    }
  },
  "{\"x\":\"f32[768,768]\",\"weights\":\"f32[768,2,1536]\",\"activation\":\"jax._src.nn.functions.silu\",\"precision\":\"BF16_BF16_F32\",\"return_residuals\":false}": {
    "{\"block_m\":128,\"block_n\":64,\"block_k\":32,\"num_warps\":4,\"num_stages\":3}": {
      "compile_time_ms": 359.23586199999136,
      "lower_time_ms": 4014.629353000032,
      "evaluation_times_ms": [
        0.026631,
        0.026759,
        0.026759,
        0.026631,
        0.026726
      ],
      "metadata": {},
      "peak_memory_mb": 16.515072
    }
  },
  "{\"x\":\"bf16[1,1024,1024,128]\",\"weights\":\"bf16[128,2,256]\",\"activation\":\"jax._src.nn.functions.sigmoid\",\"precision\":\"BF16_BF16_F32\",\"return_residuals\":false}": {
    "{\"block_m\":64,\"block_n\":64,\"block_k\":32,\"num_warps\":4,\"num_stages\":3}": {
      "compile_time_ms": 180.1775249999764,
      "lower_time_ms": 4572.206105999953,
      "evaluation_times_ms": [
        0.562483,
        0.561747,
        0.559634,
        0.559315,
        0.558131
      ],
      "metadata": {},
      "peak_memory_mb": 805.43744
    }
  },
  "{\"x\":\"bf16[1,1024,1024,128]\",\"weights\":\"bf16[128,2,512]\",\"activation\":\"jax._src.nn.functions.silu\",\"precision\":\"BF16_BF16_F32\",\"return_residuals\":false}": {
    "{\"block_m\":64,\"block_n\":64,\"block_k\":32,\"num_warps\":4,\"num_stages\":3}": {
      "compile_time_ms": 186.21058799999446,
      "lower_time_ms": 4228.639754000028,
      "evaluation_times_ms": [
        1.188255,
        1.190815,
        1.193344,
        1.18787,
        1.190175
      ],
      "metadata": {},
      "peak_memory_mb": 1342.439424
    }
  },
  "{\"x\":\"bf16[1024,1024,128]\",\"weights\":\"bf16[128,2,256]\",\"activation\":\"jax._src.nn.functions.sigmoid\",\"precision\":\"BF16_BF16_F32\",\"return_residuals\":false}": {
    "{\"block_m\":64,\"block_n\":64,\"block_k\":32,\"num_warps\":4,\"num_stages\":3}": {
      "compile_time_ms": 174.45281199991314,
      "lower_time_ms": 3044.8711609999464,
      "evaluation_times_ms": [
        0.56201,
        0.558968,
        0.56153,
        0.560473,
        0.560633
      ],
      "metadata": {},
      "peak_memory_mb": 805.43744
    }
  },
  "{\"x\":\"bf16[1024,1024,128]\",\"weights\":\"bf16[128,2,512]\",\"activation\":\"jax._src.nn.functions.silu\",\"precision\":\"BF16_BF16_F32\",\"return_residuals\":false}": {
    "{\"block_m\":64,\"block_n\":64,\"block_k\":32,\"num_warps\":4,\"num_stages\":3}": {
      "compile_time_ms": 198.96426499997233,
      "lower_time_ms": 4156.538669000042,
      "evaluation_times_ms": [
        1.188777,
        1.185992,
        1.189866,
        1.190698,
        1.191627
      ],
      "metadata": {},
      "peak_memory_mb": 1342.439424
    }
  },
  "{\"x\":\"f32[1024,1024,128]\",\"weights\":\"f32[128,2,256]\",\"activation\":\"jax._src.nn.functions.silu\",\"precision\":\"BF16_BF16_F32\",\"return_residuals\":false}": {
    "{\"block_m\":128,\"block_n\":64,\"block_k\":32,\"num_warps\":4,\"num_stages\":4}": {
      "compile_time_ms": 340.8729369999719,
      "lower_time_ms": 3274.6978249999756,
      "evaluation_times_ms": [
        0.921115,
        0.921627,
        0.920506,
        0.919835,
        0.920155
      ],
      "metadata": {},
      "peak_memory_mb": 1610.87488
    }
  },
  "{\"x\":\"bf16[1024,1024,64]\",\"weights\":\"bf16[64,2,128]\",\"activation\":\"jax._src.nn.functions.sigmoid\",\"precision\":\"BF16_BF16_F32\",\"return_residuals\":false}": {
    "{\"block_m\":64,\"block_n\":64,\"block_k\":32,\"num_warps\":4,\"num_stages\":3}": {
      "compile_time_ms": 177.19481700078177,
      "lower_time_ms": 4005.6127429998014,
      "evaluation_times_ms": [
        0.220736,
        0.220416,
        0.221568,
        0.221728,
        0.221695
      ],
      "metadata": {},
      "peak_memory_mb": 402.685952
    }
  },
  "{\"x\":\"bf16[1024,1024,64]\",\"weights\":\"bf16[64,2,128]\",\"activation\":\"jax._src.nn.functions.silu\",\"precision\":\"BF16_BF16_F32\",\"return_residuals\":false}": {
    "{\"block_m\":64,\"block_n\":64,\"block_k\":32,\"num_warps\":4,\"num_stages\":3}": {
      "compile_time_ms": 185.10411500028567,
      "lower_time_ms": 3456.793454000035,
      "evaluation_times_ms": [
        0.242464,
        0.243232,
        0.242752,
        0.243136,
        0.242784
      ],
      "metadata": {},
      "peak_memory_mb": 402.685952
    }
  },
  "{\"x\":\"f32[5,1024,32,128]\",\"weights\":\"f32[128,2,256]\",\"activation\":\"jax._src.nn.functions.silu\",\"precision\":\"BF16_BF16_F32\",\"return_residuals\":false}": {
    "{\"block_m\":128,\"block_n\":64,\"block_k\":32,\"num_warps\":4,\"num_stages\":4}": {
      "compile_time_ms": 349.8060460005945,
      "lower_time_ms": 3317.357820000325,
      "evaluation_times_ms": [
        0.151616,
        0.151392,
        0.151071,
        0.151456,
        0.152352
      ],
      "metadata": {},
      "peak_memory_mb": 251.920384
    }
  },
  "{\"x\":\"f32[1024,32,128]\",\"weights\":\"f32[128,2,256]\",\"activation\":\"jax._src.nn.functions.silu\",\"precision\":\"BF16_BF16_F32\",\"return_residuals\":false}": {
    "{\"block_m\":128,\"block_n\":64,\"block_k\":32,\"num_warps\":4,\"num_stages\":4}": {
      "compile_time_ms": 388.96885699978156,
      "lower_time_ms": 4520.14529600001,
      "evaluation_times_ms": [
        0.032896,
        0.033152,
        0.034336,
        0.032992,
        0.034112
      ],
      "metadata": {},
      "peak_memory_mb": 50.593792
    }
  },
  "{\"x\":\"bf16[5,1024,384]\",\"weights\":\"bf16[384,2,1536]\",\"activation\":\"jax._src.nn.functions.silu\",\"precision\":\"BF16_BF16_F32\",\"return_residuals\":false}": {
    "{\"block_m\":64,\"block_n\":64,\"block_k\":32,\"num_warps\":4,\"num_stages\":3}": {
      "compile_time_ms": 338.2017760004601,
      "lower_time_ms": 3319.6365120002156,
      "evaluation_times_ms": [
        0.035744,
        0.035552,
        0.035776,
        0.035392,
        0.035584
      ],
      "metadata": {},
      "peak_memory_mb": 22.020096
    }
  },
  "{\"x\":\"bf16[1024,384]\",\"weights\":\"bf16[384,2,1536]\",\"activation\":\"jax._src.nn.functions.silu\",\"precision\":\"BF16_BF16_F32\",\"return_residuals\":false}": {
    "{\"block_m\":64,\"block_n\":64,\"block_k\":32,\"num_warps\":4,\"num_stages\":4}": {
      "compile_time_ms": 344.8790040001768,
      "lower_time_ms": 2929.747316999965,
      "evaluation_times_ms": [
        0.00928,
        0.009248,
        0.009248,
        0.009216,
        0.009312
      ],
      "metadata": {},
      "peak_memory_mb": 6.291456
    }
  },
  "{\"x\":\"f32[5,1024,384]\",\"weights\":\"f32[384,2,768]\",\"activation\":\"jax._src.nn.functions.silu\",\"precision\":\"BF16_BF16_F32\",\"return_residuals\":false}": {
    "{\"block_m\":128,\"block_n\":64,\"block_k\":32,\"num_warps\":4,\"num_stages\":3}": {
      "compile_time_ms": 348.8053060000311,
      "lower_time_ms": 3173.626544000399,
      "evaluation_times_ms": [
        0.03216,
        0.032416,
        0.032384,
        0.032128,
        0.032352
      ],
      "metadata": {},
      "peak_memory_mb": 25.952256
    }
  },
  "{\"x\":\"f32[1024,384]\",\"weights\":\"f32[384,2,768]\",\"activation\":\"jax._src.nn.functions.silu\",\"precision\":\"BF16_BF16_F32\",\"return_residuals\":false}": {
    "{\"block_m\":128,\"block_n\":64,\"block_k\":32,\"num_warps\":4,\"num_stages\":3}": {
      "compile_time_ms": 352.8286550008488,
      "lower_time_ms": 3855.344865999541,
      "evaluation_times_ms": [
        0.011136,
        0.011168,
        0.011168,
        0.011168,
        0.011168
      ],
      "metadata": {},
      "peak_memory_mb": 7.077888
    }
  },
  "{\"x\":\"f32[5,1024,768]\",\"weights\":\"f32[768,2,1536]\",\"activation\":\"jax._src.nn.functions.silu\",\"precision\":\"BF16_BF16_F32\",\"return_residuals\":false}": {
    "{\"block_m\":128,\"block_n\":64,\"block_k\":32,\"num_warps\":4,\"num_stages\":3}": {
      "compile_time_ms": 459.58610599973326,
      "lower_time_ms": 3870.6932649993178,
      "evaluation_times_ms": [
        0.110688,
        0.109728,
        0.110304,
        0.11008,
        0.110399
      ],
      "metadata": {},
      "peak_memory_mb": 56.623104
    }
  },
  "{\"x\":\"f32[1024,768]\",\"weights\":\"f32[768,2,1536]\",\"activation\":\"jax._src.nn.functions.silu\",\"precision\":\"BF16_BF16_F32\",\"return_residuals\":false}": {
    "{\"block_m\":128,\"block_n\":32,\"block_k\":32,\"num_warps\":4,\"num_stages\":4}": {
      "compile_time_ms": 240.16578000009758,
      "lower_time_ms": 3869.5066549998955,
      "evaluation_times_ms": [
        0.027904,
        0.027968,
        0.02816,
        0.027968,
        0.028032
      ],
      "metadata": {},
      "peak_memory_mb": 18.874368
    }
  },
  "{\"x\":\"bf16[1,1280,1280,128]\",\"weights\":\"bf16[128,2,256]\",\"activation\":\"jax._src.nn.functions.sigmoid\",\"precision\":\"BF16_BF16_F32\",\"return_residuals\":false}": {
    "{\"block_m\":64,\"block_n\":64,\"block_k\":32,\"num_warps\":4,\"num_stages\":3}": {
      "compile_time_ms": 178.8095029996839,
      "lower_time_ms": 3283.1925500004218,
      "evaluation_times_ms": [
        0.866303,
        0.866591,
        0.864351,
        0.865183,
        0.868863
      ],
      "metadata": {},
      "peak_memory_mb": 1258.422272
    }
  },
  "{\"x\":\"bf16[1,1280,1280,128]\",\"weights\":\"bf16[128,2,512]\",\"activation\":\"jax._src.nn.functions.silu\",\"precision\":\"BF16_BF16_F32\",\"return_residuals\":false}": {
    "{\"block_m\":64,\"block_n\":64,\"block_k\":32,\"num_warps\":4,\"num_stages\":3}": {
      "compile_time_ms": 190.93504099964775,
      "lower_time_ms": 2731.5603229999397,
      "evaluation_times_ms": [
        1.846399,
        1.851647,
        1.845567,
        1.843807,
        1.845182
      ],
      "metadata": {},
      "peak_memory_mb": 2097.414144
    }
  },
  "{\"x\":\"bf16[1280,1280,128]\",\"weights\":\"bf16[128,2,256]\",\"activation\":\"jax._src.nn.functions.sigmoid\",\"precision\":\"BF16_BF16_F32\",\"return_residuals\":false}": {
    "{\"block_m\":64,\"block_n\":64,\"block_k\":32,\"num_warps\":4,\"num_stages\":3}": {
      "compile_time_ms": 231.35913199985225,
      "lower_time_ms": 3057.2607470003277,
      "evaluation_times_ms": [
        0.866207,
        0.867071,
        0.86432,
        0.867296,
        0.86576
      ],
      "metadata": {},
      "peak_memory_mb": 1258.422272
    }
  },
  "{\"x\":\"bf16[1280,1280,128]\",\"weights\":\"bf16[128,2,512]\",\"activation\":\"jax._src.nn.functions.silu\",\"precision\":\"BF16_BF16_F32\",\"return_residuals\":false}": {
    "{\"block_m\":64,\"block_n\":64,\"block_k\":32,\"num_warps\":4,\"num_stages\":3}": {
      "compile_time_ms": 180.28710700036754,
      "lower_time_ms": 3697.754175999762,
      "evaluation_times_ms": [
        1.847456,
        1.854336,
        1.851648,
        1.851039,
        1.852672
      ],
      "metadata": {},
      "peak_memory_mb": 2097.414144
    }
  },
  "{\"x\":\"f32[1280,1280,128]\",\"weights\":\"f32[128,2,256]\",\"activation\":\"jax._src.nn.functions.silu\",\"precision\":\"BF16_BF16_F32\",\"return_residuals\":false}": {
    "{\"block_m\":128,\"block_n\":64,\"block_k\":32,\"num_warps\":4,\"num_stages\":4}": {
      "compile_time_ms": 393.7971799996376,
      "lower_time_ms": 3482.7436420000595,
      "evaluation_times_ms": [
        1.429056,
        1.426721,
        1.428129,
        1.426561,
        1.42544
      ],
      "metadata": {},
      "peak_memory_mb": 2516.844544
    }
  },
  "{\"x\":\"bf16[1280,1280,64]\",\"weights\":\"bf16[64,2,128]\",\"activation\":\"jax._src.nn.functions.sigmoid\",\"precision\":\"BF16_BF16_F32\",\"return_residuals\":false}": {
    "{\"block_m\":64,\"block_n\":64,\"block_k\":32,\"num_warps\":4,\"num_stages\":3}": {
      "compile_time_ms": 183.14047200055938,
      "lower_time_ms": 2943.4491780002645,
      "evaluation_times_ms": [
        0.33872,
        0.34,
        0.339297,
        0.339968,
        0.339584
      ],
      "metadata": {},
      "peak_memory_mb": 629.178368
    }
  },
  "{\"x\":\"bf16[1280,1280,64]\",\"weights\":\"bf16[64,2,128]\",\"activation\":\"jax._src.nn.functions.silu\",\"precision\":\"BF16_BF16_F32\",\"return_residuals\":false}": {
    "{\"block_m\":64,\"block_n\":64,\"block_k\":32,\"num_warps\":4,\"num_stages\":3}": {
      "compile_time_ms": 185.83178500011854,
      "lower_time_ms": 3021.020325999416,
      "evaluation_times_ms": [
        0.376736,
        0.37344,
        0.3728,
        0.373632,
        0.373601
      ],
      "metadata": {},
      "peak_memory_mb": 629.178368
    }
  },
  "{\"x\":\"f32[5,1280,32,128]\",\"weights\":\"f32[128,2,256]\",\"activation\":\"jax._src.nn.functions.silu\",\"precision\":\"BF16_BF16_F32\",\"return_residuals\":false}": {
    "{\"block_m\":128,\"block_n\":64,\"block_k\":32,\"num_warps\":4,\"num_stages\":4}": {
      "compile_time_ms": 348.6361949999264,
      "lower_time_ms": 3974.091645000044,
      "evaluation_times_ms": [
        0.190272,
        0.188736,
        0.188864,
        0.188256,
        0.188992
      ],
      "metadata": {},
      "peak_memory_mb": 314.834944
    }
  },
  "{\"x\":\"f32[1280,32,128]\",\"weights\":\"f32[128,2,256]\",\"activation\":\"jax._src.nn.functions.silu\",\"precision\":\"BF16_BF16_F32\",\"return_residuals\":false}": {
    "{\"block_m\":128,\"block_n\":64,\"block_k\":32,\"num_warps\":4,\"num_stages\":4}": {
      "compile_time_ms": 361.96944800030906,
      "lower_time_ms": 4147.800364999966,
      "evaluation_times_ms": [
        0.041152,
        0.041696,
        0.042464,
        0.042304,
        0.04176
      ],
      "metadata": {},
      "peak_memory_mb": 63.176704
    }
  },
  "{\"x\":\"bf16[5,1280,384]\",\"weights\":\"bf16[384,2,1536]\",\"activation\":\"jax._src.nn.functions.silu\",\"precision\":\"BF16_BF16_F32\",\"return_residuals\":false}": {
    "{\"block_m\":64,\"block_n\":64,\"block_k\":32,\"num_warps\":4,\"num_stages\":3}": {
      "compile_time_ms": 335.96605000002455,
      "lower_time_ms": 2935.7870630001344,
      "evaluation_times_ms": [
        0.044864,
        0.044448,
        0.044416,
        0.04416,
        0.04448
      ],
      "metadata": {},
      "peak_memory_mb": 26.935296
    }
  },
  "{\"x\":\"bf16[1280,384]\",\"weights\":\"bf16[384,2,1536]\",\"activation\":\"jax._src.nn.functions.silu\",\"precision\":\"BF16_BF16_F32\",\"return_residuals\":false}": {
    "{\"block_m\":128,\"block_n\":64,\"block_k\":32,\"num_warps\":8,\"num_stages\":3}": {
      "compile_time_ms": 324.57630800035986,
      "lower_time_ms": 3171.384778999709,
      "evaluation_times_ms": [
        0.010272,
        0.01024,
        0.010144,
        0.010304,
        0.010144
      ],
      "metadata": {},
      "peak_memory_mb": 7.274496
    }
  },
  "{\"x\":\"f32[5,1280,384]\",\"weights\":\"f32[384,2,768]\",\"activation\":\"jax._src.nn.functions.silu\",\"precision\":\"BF16_BF16_F32\",\"return_residuals\":false}": {
    "{\"block_m\":128,\"block_n\":64,\"block_k\":32,\"num_warps\":4,\"num_stages\":4}": {
      "compile_time_ms": 359.14318599998296,
      "lower_time_ms": 3108.4259699999848,
      "evaluation_times_ms": [
        0.041549,
        0.041292,
        0.04142,
        0.041964,
        0.041484
      ],
      "metadata": {},
      "peak_memory_mb": 31.850496
    }
  },
  "{\"x\":\"f32[1280,384]\",\"weights\":\"f32[384,2,768]\",\"activation\":\"jax._src.nn.functions.silu\",\"precision\":\"BF16_BF16_F32\",\"return_residuals\":false}": {
    "{\"block_m\":128,\"block_n\":64,\"block_k\":32,\"num_warps\":4,\"num_stages\":3}": {
      "compile_time_ms": 332.1692350000376,
      "lower_time_ms": 3574.3012959999305,
      "evaluation_times_ms": [
        0.011299,
        0.011363,
        0.011331,
        0.011396,
        0.011331
      ],
      "metadata": {},
      "peak_memory_mb": 8.257536
    }
  },
  "{\"x\":\"f32[5,1280,768]\",\"weights\":\"f32[768,2,1536]\",\"activation\":\"jax._src.nn.functions.silu\",\"precision\":\"BF16_BF16_F32\",\"return_residuals\":false}": {
    "{\"block_m\":128,\"block_n\":64,\"block_k\":32,\"num_warps\":4,\"num_stages\":4}": {
      "compile_time_ms": 376.70417800006817,
      "lower_time_ms": 3761.61498700003,
      "evaluation_times_ms": [
        0.138059,
        0.138026,
        0.137642,
        0.138154,
        0.138411
      ],
      "metadata": {},
      "peak_memory_mb": 68.419584
    }
  },
  "{\"x\":\"f32[1280,768]\",\"weights\":\"f32[768,2,1536]\",\"activation\":\"jax._src.nn.functions.silu\",\"precision\":\"BF16_BF16_F32\",\"return_residuals\":false}": {
    "{\"block_m\":128,\"block_n\":64,\"block_k\":32,\"num_warps\":4,\"num_stages\":3}": {
      "compile_time_ms": 379.42885899997236,
      "lower_time_ms": 3441.029881000077,
      "evaluation_times_ms": [
        0.028874,
        0.029481,
        0.029226,
        0.029098,
        0.029033
      ],
      "metadata": {},
      "peak_memory_mb": 21.233664
    }
  },
  "{\"x\":\"bf16[1,1536,1536,128]\",\"weights\":\"bf16[128,2,256]\",\"activation\":\"jax._src.nn.functions.sigmoid\",\"precision\":\"BF16_BF16_F32\",\"return_residuals\":false}": {
    "{\"block_m\":64,\"block_n\":64,\"block_k\":32,\"num_warps\":4,\"num_stages\":3}": {
      "compile_time_ms": 213.53065899984358,
      "lower_time_ms": 3180.65072100012,
      "evaluation_times_ms": [
        1.242862,
        1.241421,
        1.243309,
        1.246575,
        1.244687
      ],
      "metadata": {},
      "peak_memory_mb": 1812.0704
    }
  },
  "{\"x\":\"bf16[1,1536,1536,128]\",\"weights\":\"bf16[128,2,512]\",\"activation\":\"jax._src.nn.functions.silu\",\"precision\":\"BF16_BF16_F32\",\"return_residuals\":false}": {
    "{\"block_m\":64,\"block_n\":64,\"block_k\":32,\"num_warps\":4,\"num_stages\":3}": {
      "compile_time_ms": 221.81520899994212,
      "lower_time_ms": 3610.6865199999447,
      "evaluation_times_ms": [
        2.663272,
        2.65751,
        2.665704,
        2.662471,
        2.666408
      ],
      "metadata": {},
      "peak_memory_mb": 3020.161024
    }
  },
  "{\"x\":\"bf16[1536,1536,128]\",\"weights\":\"bf16[128,2,256]\",\"activation\":\"jax._src.nn.functions.sigmoid\",\"precision\":\"BF16_BF16_F32\",\"return_residuals\":false}": {
    "{\"block_m\":64,\"block_n\":64,\"block_k\":32,\"num_warps\":4,\"num_stages\":3}": {
      "compile_time_ms": 178.6993309999616,
      "lower_time_ms": 3354.976625000063,
      "evaluation_times_ms": [
        1.244831,
        1.248449,
        1.246784,
        1.242078,
        1.243711
      ],
      "metadata": {},
      "peak_memory_mb": 1812.0704
    }
  },
  "{\"x\":\"bf16[1536,1536,128]\",\"weights\":\"bf16[128,2,512]\",\"activation\":\"jax._src.nn.functions.silu\",\"precision\":\"BF16_BF16_F32\",\"return_residuals\":false}": {
    "{\"block_m\":64,\"block_n\":64,\"block_k\":32,\"num_warps\":4,\"num_stages\":3}": {
      "compile_time_ms": 184.7889050000049,
      "lower_time_ms": 4040.100652000092,
      "evaluation_times_ms": [
        2.657255,
        2.659335,
        2.665417,
        2.665578,
        2.654886
      ],
      "metadata": {},
      "peak_memory_mb": 3020.161024
    }
  },
  "{\"x\":\"f32[1536,1536,128]\",\"weights\":\"f32[128,2,256]\",\"activation\":\"jax._src.nn.functions.silu\",\"precision\":\"BF16_BF16_F32\",\"return_residuals\":false}": {
    "{\"block_m\":128,\"block_n\":64,\"block_k\":32,\"num_warps\":4,\"num_stages\":4}": {
      "compile_time_ms": 474.0542629999709,
      "lower_time_ms": 3337.4802229998295,
      "evaluation_times_ms": [
        2.06276,
        2.058951,
        2.06004,
        2.060456,
        2.063081
      ],
      "metadata": {},
      "peak_memory_mb": 3624.1408
    }
  },
  "{\"x\":\"bf16[1536,1536,64]\",\"weights\":\"bf16[64,2,128]\",\"activation\":\"jax._src.nn.functions.sigmoid\",\"precision\":\"BF16_BF16_F32\",\"return_residuals\":false}": {
    "{\"block_m\":64,\"block_n\":64,\"block_k\":32,\"num_warps\":4,\"num_stages\":3}": {
      "compile_time_ms": 188.0232219998561,
      "lower_time_ms": 4928.24187899987,
      "evaluation_times_ms": [
        0.482793,
        0.481225,
        0.481672,
        0.480296,
        0.479015
      ],
      "metadata": {},
      "peak_memory_mb": 906.002432
    }
  },
  "{\"x\":\"bf16[1536,1536,64]\",\"weights\":\"bf16[64,2,128]\",\"activation\":\"jax._src.nn.functions.silu\",\"precision\":\"BF16_BF16_F32\",\"return_residuals\":false}": {
    "{\"block_m\":64,\"block_n\":64,\"block_k\":32,\"num_warps\":4,\"num_stages\":3}": {
      "compile_time_ms": 200.7033180000235,
      "lower_time_ms": 3240.1989150000645,
      "evaluation_times_ms": [
        0.52649,
        0.526874,
        0.529692,
        0.527898,
        0.527162
      ],
      "metadata": {},
      "peak_memory_mb": 906.002432
    }
  },
  "{\"x\":\"f32[5,1536,32,128]\",\"weights\":\"f32[128,2,256]\",\"activation\":\"jax._src.nn.functions.silu\",\"precision\":\"BF16_BF16_F32\",\"return_residuals\":false}": {
    "{\"block_m\":128,\"block_n\":64,\"block_k\":32,\"num_warps\":4,\"num_stages\":4}": {
      "compile_time_ms": 368.21169699987877,
      "lower_time_ms": 3799.5784889999413,
      "evaluation_times_ms": [
        0.225777,
        0.224689,
        0.2236,
        0.224625,
        0.225424
      ],
      "metadata": {},
      "peak_memory_mb": 377.749504
    }
  },
  "{\"x\":\"f32[1536,32,128]\",\"weights\":\"f32[128,2,256]\",\"activation\":\"jax._src.nn.functions.silu\",\"precision\":\"BF16_BF16_F32\",\"return_residuals\":false}": {
    "{\"block_m\":128,\"block_n\":64,\"block_k\":32,\"num_warps\":4,\"num_stages\":4}": {
      "compile_time_ms": 351.75060899996424,
      "lower_time_ms": 3939.463595999996,
      "evaluation_times_ms": [
        0.048402,
        0.048946,
        0.050738,
        0.048369,
        0.04837
      ],
      "metadata": {},
      "peak_memory_mb": 75.759616
    }
  },
  "{\"x\":\"bf16[5,1536,384]\",\"weights\":\"bf16[384,2,1536]\",\"activation\":\"jax._src.nn.functions.silu\",\"precision\":\"BF16_BF16_F32\",\"return_residuals\":false}": {
    "{\"block_m\":64,\"block_n\":128,\"block_k\":32,\"num_warps\":4,\"num_stages\":3}": {
      "compile_time_ms": 862.9867009999543,
      "lower_time_ms": 3824.081886000158,
      "evaluation_times_ms": [
        0.05029,
        0.050099,
        0.049586,
        0.04949,
        0.050834
      ],
      "metadata": {},
      "peak_memory_mb": 31.850496
    }
  },
  "{\"x\":\"bf16[1536,384]\",\"weights\":\"bf16[384,2,1536]\",\"activation\":\"jax._src.nn.functions.silu\",\"precision\":\"BF16_BF16_F32\",\"return_residuals\":false}": {
    "{\"block_m\":64,\"block_n\":64,\"block_k\":32,\"num_warps\":4,\"num_stages\":3}": {
      "compile_time_ms": 842.7230410015909,
      "lower_time_ms": 2121.149223006796,
      "evaluation_times_ms": [
        0.012287,
        0.012352,
        0.012256,
        0.012288,
        0.012256
      ],
      "metadata": {},
      "peak_memory_mb": 8.257536
    }
  },
  "{\"x\":\"f32[5,1536,384]\",\"weights\":\"f32[384,2,768]\",\"activation\":\"jax._src.nn.functions.silu\",\"precision\":\"BF16_BF16_F32\",\"return_residuals\":false}": {
    "{\"block_m\":128,\"block_n\":64,\"block_k\":32,\"num_warps\":4,\"num_stages\":4}": {
      "compile_time_ms": 524.6892629947979,
      "lower_time_ms": 3034.853067001677,
      "evaluation_times_ms": [
        0.047744,
        0.047583,
        0.047648,
        0.047679,
        0.048096
      ],
      "metadata": {},
      "peak_memory_mb": 37.748736
    }
  },
  "{\"x\":\"f32[1536,384]\",\"weights\":\"f32[384,2,768]\",\"activation\":\"jax._src.nn.functions.silu\",\"precision\":\"BF16_BF16_F32\",\"return_residuals\":false}": {
    "{\"block_m\":128,\"block_n\":32,\"block_k\":32,\"num_warps\":4,\"num_stages\":3}": {
      "compile_time_ms": 229.71827701258007,
      "lower_time_ms": 1658.8542960089399,
      "evaluation_times_ms": [
        0.016,
        0.016032,
        0.016096,
        0.016256,
        0.016032
      ],
      "metadata": {},
      "peak_memory_mb": 9.437184
    }
  },
  "{\"x\":\"f32[5,1536,768]\",\"weights\":\"f32[768,2,1536]\",\"activation\":\"jax._src.nn.functions.silu\",\"precision\":\"BF16_BF16_F32\",\"return_residuals\":false}": {
    "{\"block_m\":128,\"block_n\":64,\"block_k\":32,\"num_warps\":4,\"num_stages\":3}": {
      "compile_time_ms": 480.40725200553425,
      "lower_time_ms": 2696.6965530009475,
      "evaluation_times_ms": [
        0.162622,
        0.162078,
        0.162206,
        0.163551,
        0.162655
      ],
      "metadata": {},
      "peak_memory_mb": 80.216064
    }
  },
  "{\"x\":\"f32[1536,768]\",\"weights\":\"f32[768,2,1536]\",\"activation\":\"jax._src.nn.functions.silu\",\"precision\":\"BF16_BF16_F32\",\"return_residuals\":false}": {
    "{\"block_m\":128,\"block_n\":64,\"block_k\":32,\"num_warps\":4,\"num_stages\":3}": {
      "compile_time_ms": 378.241185011575,
      "lower_time_ms": 2099.11940600432,
      "evaluation_times_ms": [
        0.043711,
        0.044,
        0.044319,
        0.044127,
        0.043967
      ],
      "metadata": {},
      "peak_memory_mb": 23.59296
    }
  },
  "{\"x\":\"bf16[1,1792,1792,128]\",\"weights\":\"bf16[128,2,256]\",\"activation\":\"jax._src.nn.functions.sigmoid\",\"precision\":\"BF16_BF16_F32\",\"return_residuals\":false}": {
    "{\"block_m\":64,\"block_n\":64,\"block_k\":32,\"num_warps\":4,\"num_stages\":3}": {
      "compile_time_ms": 181.32239900296554,
      "lower_time_ms": 1790.2073080040282,
      "evaluation_times_ms": [
        1.684365,
        1.685198,
        1.689997,
        1.688589,
        1.682095
      ],
      "metadata": {},
      "peak_memory_mb": 2466.381824
    }
  },
  "{\"x\":\"bf16[1,1792,1792,128]\",\"weights\":\"bf16[128,2,512]\",\"activation\":\"jax._src.nn.functions.silu\",\"precision\":\"BF16_BF16_F32\",\"return_residuals\":false}": {
    "{\"block_m\":64,\"block_n\":64,\"block_k\":32,\"num_warps\":4,\"num_stages\":3}": {
      "compile_time_ms": 192.22902199544478,
      "lower_time_ms": 1880.0778320000973,
      "evaluation_times_ms": [
        3.611996,
        3.611356,
        3.61478,
        3.62774,
        3.654523
      ],
      "metadata": {},
      "peak_memory_mb": 4110.680064
    }
  },
  "{\"x\":\"bf16[1792,1792,128]\",\"weights\":\"bf16[128,2,256]\",\"activation\":\"jax._src.nn.functions.sigmoid\",\"precision\":\"BF16_BF16_F32\",\"return_residuals\":false}": {
    "{\"block_m\":64,\"block_n\":64,\"block_k\":32,\"num_warps\":4,\"num_stages\":3}": {
      "compile_time_ms": 185.10879899258725,
      "lower_time_ms": 1199.3928820011206,
      "evaluation_times_ms": [
        1.688273,
        1.682929,
        1.684657,
        1.683761,
        1.686833
      ],
      "metadata": {},
      "peak_memory_mb": 2466.381824
    }
  },
  "{\"x\":\"bf16[1792,1792,128]\",\"weights\":\"bf16[128,2,512]\",\"activation\":\"jax._src.nn.functions.silu\",\"precision\":\"BF16_BF16_F32\",\"return_residuals\":false}": {
    "{\"block_m\":64,\"block_n\":64,\"block_k\":32,\"num_warps\":4,\"num_stages\":3}": {
      "compile_time_ms": 256.24136900296435,
      "lower_time_ms": 1820.636389995343,
      "evaluation_times_ms": [
        3.607041,
        3.610016,
        3.609472,
        3.615776,
        3.620128
      ],
      "metadata": {},
      "peak_memory_mb": 4110.680064
    }
  },
  "{\"x\":\"f32[1792,1792,128]\",\"weights\":\"f32[128,2,256]\",\"activation\":\"jax._src.nn.functions.silu\",\"precision\":\"BF16_BF16_F32\",\"return_residuals\":false}": {
    "{\"block_m\":128,\"block_n\":64,\"block_k\":32,\"num_warps\":4,\"num_stages\":4}": {
      "compile_time_ms": 416.1918290046742,
      "lower_time_ms": 2552.640005989815,
      "evaluation_times_ms": [
        2.813512,
        2.81556,
        2.80052,
        2.805257,
        2.801385
      ],
      "metadata": {},
      "peak_memory_mb": 4932.763648
    }
  },
  "{\"x\":\"bf16[1792,1792,64]\",\"weights\":\"bf16[64,2,128]\",\"activation\":\"jax._src.nn.functions.sigmoid\",\"precision\":\"BF16_BF16_F32\",\"return_residuals\":false}": {
    "{\"block_m\":64,\"block_n\":64,\"block_k\":32,\"num_warps\":4,\"num_stages\":3}": {
      "compile_time_ms": 184.62957300653215,
      "lower_time_ms": 1160.3101439977763,
      "evaluation_times_ms": [
        0.650075,
        0.649339,
        0.649882,
        0.648667,
        0.64937
      ],
      "metadata": {},
      "peak_memory_mb": 1233.158144
    }
  },
  "{\"x\":\"bf16[1792,1792,64]\",\"weights\":\"bf16[64,2,128]\",\"activation\":\"jax._src.nn.functions.silu\",\"precision\":\"BF16_BF16_F32\",\"return_residuals\":false}": {
    "{\"block_m\":64,\"block_n\":64,\"block_k\":32,\"num_warps\":4,\"num_stages\":3}": {
      "compile_time_ms": 210.78900899738073,
      "lower_time_ms": 465.41904599871486,
      "evaluation_times_ms": [
        0.713722,
        0.714042,
        0.713274,
        0.713946,
        0.712699
      ],
      "metadata": {},
      "peak_memory_mb": 1233.158144
    }
  },
  "{\"x\":\"f32[5,1792,32,128]\",\"weights\":\"f32[128,2,256]\",\"activation\":\"jax._src.nn.functions.silu\",\"precision\":\"BF16_BF16_F32\",\"return_residuals\":false}": {
    "{\"block_m\":128,\"block_n\":64,\"block_k\":32,\"num_warps\":4,\"num_stages\":4}": {
      "compile_time_ms": 365.53808000462595,
      "lower_time_ms": 3100.322521000635,
      "evaluation_times_ms": [
        0.257278,
        0.256222,
        0.25747,
        0.257086,
        0.257726
      ],
      "metadata": {},
      "peak_memory_mb": 440.664064
    }
  },
  "{\"x\":\"f32[1792,32,128]\",\"weights\":\"f32[128,2,256]\",\"activation\":\"jax._src.nn.functions.silu\",\"precision\":\"BF16_BF16_F32\",\"return_residuals\":false}": {
    "{\"block_m\":128,\"block_n\":64,\"block_k\":32,\"num_warps\":4,\"num_stages\":4}": {
      "compile_time_ms": 357.7202719898196,
      "lower_time_ms": 1917.4692640081048,
      "evaluation_times_ms": [
        0.055615,
        0.055424,
        0.055552,
        0.055648,
        0.056319
      ],
      "metadata": {},
      "peak_memory_mb": 88.342528
    }
  },
  "{\"x\":\"bf16[5,1792,384]\",\"weights\":\"bf16[384,2,1536]\",\"activation\":\"jax._src.nn.functions.silu\",\"precision\":\"BF16_BF16_F32\",\"return_residuals\":false}": {
    "{\"block_m\":128,\"block_n\":64,\"block_k\":32,\"num_warps\":4,\"num_stages\":3}": {
      "compile_time_ms": 852.1304300084012,
      "lower_time_ms": 3256.4447869954165,
      "evaluation_times_ms": [
        0.060479,
        0.060703,
        0.061184,
        0.060511,
        0.060959
      ],
      "metadata": {},
      "peak_memory_mb": 36.765696
    }
  },
  "{\"x\":\"bf16[1792,384]\",\"weights\":\"bf16[384,2,1536]\",\"activation\":\"jax._src.nn.functions.silu\",\"precision\":\"BF16_BF16_F32\",\"return_residuals\":false}": {
    "{\"block_m\":64,\"block_n\":128,\"block_k\":32,\"num_warps\":4,\"num_stages\":3}": {
      "compile_time_ms": 857.6995199982775,
      "lower_time_ms": 2683.0421479971847,
      "evaluation_times_ms": [
        0.014048,
        0.014016,
        0.014079,
        0.01408,
        0.014048
      ],
      "metadata": {},
      "peak_memory_mb": 9.240576
    }
  },
  "{\"x\":\"f32[5,1792,384]\",\"weights\":\"f32[384,2,768]\",\"activation\":\"jax._src.nn.functions.silu\",\"precision\":\"BF16_BF16_F32\",\"return_residuals\":false}": {
    "{\"block_m\":128,\"block_n\":64,\"block_k\":32,\"num_warps\":4,\"num_stages\":4}": {
      "compile_time_ms": 374.81248000403866,
      "lower_time_ms": 3282.56705601234,
      "evaluation_times_ms": [
        0.05712,
        0.055935,
        0.056639,
        0.056736,
        0.056384
      ],
      "metadata": {},
      "peak_memory_mb": 43.646976
    }
  },
  "{\"x\":\"f32[1792,384]\",\"weights\":\"f32[384,2,768]\",\"activation\":\"jax._src.nn.functions.silu\",\"precision\":\"BF16_BF16_F32\",\"return_residuals\":false}": {
    "{\"block_m\":128,\"block_n\":32,\"block_k\":32,\"num_warps\":4,\"num_stages\":3}": {
      "compile_time_ms": 228.39203699550126,
      "lower_time_ms": 1301.5156800101977,
      "evaluation_times_ms": [
        0.016256,
        0.016224,
        0.016063,
        0.016352,
        0.016128
      ],
      "metadata": {},
      "peak_memory_mb": 10.616832
    }
  },
  "{\"x\":\"f32[5,1792,768]\",\"weights\":\"f32[768,2,1536]\",\"activation\":\"jax._src.nn.functions.silu\",\"precision\":\"BF16_BF16_F32\",\"return_residuals\":false}": {
    "{\"block_m\":128,\"block_n\":64,\"block_k\":32,\"num_warps\":4,\"num_stages\":3}": {
      "compile_time_ms": 373.4294619935099,
      "lower_time_ms": 2259.642144999816,
      "evaluation_times_ms": [
        0.187806,
        0.18835,
        0.188382,
        0.187806,
        0.187294
      ],
      "metadata": {},
      "peak_memory_mb": 92.012544
    }
  },
  "{\"x\":\"f32[1792,768]\",\"weights\":\"f32[768,2,1536]\",\"activation\":\"jax._src.nn.functions.silu\",\"precision\":\"BF16_BF16_F32\",\"return_residuals\":false}": {
    "{\"block_m\":128,\"block_n\":64,\"block_k\":32,\"num_warps\":8,\"num_stages\":3}": {
      "compile_time_ms": 201.93819800624624,
      "lower_time_ms": 2533.612069004448,
      "evaluation_times_ms": [
        0.048159,
        0.048352,
        0.048256,
        0.048063,
        0.04816
      ],
      "metadata": {},
      "peak_memory_mb": 25.952256
    }
  },
  "{\"x\":\"bf16[1,2048,2048,128]\",\"weights\":\"bf16[128,2,256]\",\"activation\":\"jax._src.nn.functions.sigmoid\",\"precision\":\"BF16_BF16_F32\",\"return_residuals\":false}": {
    "{\"block_m\":64,\"block_n\":64,\"block_k\":32,\"num_warps\":4,\"num_stages\":3}": {
      "compile_time_ms": 236.31187799037434,
      "lower_time_ms": 1827.0751200034283,
      "evaluation_times_ms": [
        2.209547,
        2.21169,
        2.218507,
        2.234474,
        2.229386
      ],
      "metadata": {},
      "peak_memory_mb": 3221.356544
    }
  },
  "{\"x\":\"bf16[1,2048,2048,128]\",\"weights\":\"bf16[128,2,512]\",\"activation\":\"jax._src.nn.functions.silu\",\"precision\":\"BF16_BF16_F32\",\"return_residuals\":false}": {
    "{\"block_m\":64,\"block_n\":64,\"block_k\":32,\"num_warps\":4,\"num_stages\":3}": {
      "compile_time_ms": 268.95210599468555,
      "lower_time_ms": 1902.9076259903377,
      "evaluation_times_ms": [
        4.710104,
        4.717399,
        4.759319,
        4.867798,
        4.878646
      ],
      "metadata": {},
      "peak_memory_mb": 5368.971264
    }
  },
  "{\"x\":\"bf16[2048,2048,128]\",\"weights\":\"bf16[128,2,256]\",\"activation\":\"jax._src.nn.functions.sigmoid\",\"precision\":\"BF16_BF16_F32\",\"return_residuals\":false}": {
    "{\"block_m\":64,\"block_n\":64,\"block_k\":32,\"num_warps\":4,\"num_stages\":3}": {
      "compile_time_ms": 181.2335639988305,
      "lower_time_ms": 1609.8377900052583,
      "evaluation_times_ms": [
        2.204333,
        2.20894,
        2.195757,
        2.206893,
        2.202509
      ],
      "metadata": {},
      "peak_memory_mb": 3221.356544
    }
  },
  "{\"x\":\"bf16[2048,2048,128]\",\"weights\":\"bf16[128,2,512]\",\"activation\":\"jax._src.nn.functions.silu\",\"precision\":\"BF16_BF16_F32\",\"return_residuals\":false}": {
    "{\"block_m\":64,\"block_n\":64,\"block_k\":32,\"num_warps\":4,\"num_stages\":3}": {
      "compile_time_ms": 231.40863499429543,
      "lower_time_ms": 2010.8628690068144,
      "evaluation_times_ms": [
        4.772924,
        4.766684,
        4.852795,
        4.858139,
        4.979451
      ],
      "metadata": {},
      "peak_memory_mb": 5368.971264
    }
  },
  "{\"x\":\"f32[2048,2048,128]\",\"weights\":\"f32[128,2,256]\",\"activation\":\"jax._src.nn.functions.silu\",\"precision\":\"BF16_BF16_F32\",\"return_residuals\":false}": {
    "{\"block_m\":128,\"block_n\":64,\"block_k\":32,\"num_warps\":4,\"num_stages\":4}": {
      "compile_time_ms": 347.50010501011275,
      "lower_time_ms": 3230.505651998101,
      "evaluation_times_ms": [
        3.694499,
        3.691587,
        3.692836,
        3.694211,
        3.696099
      ],
      "metadata": {},
      "peak_memory_mb": 6442.713088
    }
  },
  "{\"x\":\"bf16[2048,2048,64]\",\"weights\":\"bf16[64,2,128]\",\"activation\":\"jax._src.nn.functions.sigmoid\",\"precision\":\"BF16_BF16_F32\",\"return_residuals\":false}": {
    "{\"block_m\":64,\"block_n\":64,\"block_k\":32,\"num_warps\":4,\"num_stages\":3}": {
      "compile_time_ms": 184.5323540037498,
      "lower_time_ms": 903.4795840125298,
      "evaluation_times_ms": [
        0.837914,
        0.840089,
        0.838234,
        0.839322,
        0.839386
      ],
      "metadata": {},
      "peak_memory_mb": 1610.645504
    }
  },
  "{\"x\":\"bf16[2048,2048,64]\",\"weights\":\"bf16[64,2,128]\",\"activation\":\"jax._src.nn.functions.silu\",\"precision\":\"BF16_BF16_F32\",\"return_residuals\":false}": {
    "{\"block_m\":64,\"block_n\":64,\"block_k\":32,\"num_warps\":4,\"num_stages\":3}": {
      "compile_time_ms": 176.39365399372764,
      "lower_time_ms": 1350.5076820001705,
      "evaluation_times_ms": [
        0.923257,
        0.925785,
        0.922489,
        0.925113,
        0.926233
      ],
      "metadata": {},
      "peak_memory_mb": 1610.645504
    }
  },
  "{\"x\":\"f32[5,2048,32,128]\",\"weights\":\"f32[128,2,256]\",\"activation\":\"jax._src.nn.functions.silu\",\"precision\":\"BF16_BF16_F32\",\"return_residuals\":false}": {
    "{\"block_m\":128,\"block_n\":64,\"block_k\":32,\"num_warps\":4,\"num_stages\":4}": {
      "compile_time_ms": 350.6174679932883,
      "lower_time_ms": 3212.7507840050384,
      "evaluation_times_ms": [
        0.29443,
        0.29411,
        0.29443,
        0.294718,
        0.295934
      ],
      "metadata": {},
      "peak_memory_mb": 503.578624
    }
  },
  "{\"x\":\"f32[2048,32,128]\",\"weights\":\"f32[128,2,256]\",\"activation\":\"jax._src.nn.functions.silu\",\"precision\":\"BF16_BF16_F32\",\"return_residuals\":false}": {
    "{\"block_m\":128,\"block_n\":64,\"block_k\":32,\"num_warps\":4,\"num_stages\":4}": {
      "compile_time_ms": 345.7617549865972,
      "lower_time_ms": 2334.8072079970734,
      "evaluation_times_ms": [
        0.062527,
        0.062367,
        0.062336,
        0.062912,
        0.062879
      ],
      "metadata": {},
      "peak_memory_mb": 100.92544
    }
  },
  "{\"x\":\"bf16[5,2048,384]\",\"weights\":\"bf16[384,2,1536]\",\"activation\":\"jax._src.nn.functions.silu\",\"precision\":\"BF16_BF16_F32\",\"return_residuals\":false}": {
    "{\"block_m\":64,\"block_n\":128,\"block_k\":32,\"num_warps\":4,\"num_stages\":3}": {
      "compile_time_ms": 890.6158419995336,
      "lower_time_ms": 1824.7349410085008,
      "evaluation_times_ms": [
        0.064928,
        0.065023,
        0.064928,
        0.065056,
        0.065216
      ],
      "metadata": {},
      "peak_memory_mb": 41.680896
    }
  },
  "{\"x\":\"bf16[2048,384]\",\"weights\":\"bf16[384,2,1536]\",\"activation\":\"jax._src.nn.functions.silu\",\"precision\":\"BF16_BF16_F32\",\"return_residuals\":false}": {
    "{\"block_m\":64,\"block_n\":128,\"block_k\":32,\"num_warps\":4,\"num_stages\":3}": {
      "compile_time_ms": 864.54288000823,
      "lower_time_ms": 2273.727456005872,
      "evaluation_times_ms": [
        0.014175,
        0.014176,
        0.014144,
        0.014112,
        0.014144
      ],
      "metadata": {},
      "peak_memory_mb": 10.223616
    }
  },
  "{\"x\":\"f32[5,2048,384]\",\"weights\":\"f32[384,2,768]\",\"activation\":\"jax._src.nn.functions.silu\",\"precision\":\"BF16_BF16_F32\",\"return_residuals\":false}": {
    "{\"block_m\":128,\"block_n\":64,\"block_k\":32,\"num_warps\":4,\"num_stages\":4}": {
      "compile_time_ms": 362.71998299343977,
      "lower_time_ms": 2532.56082200096,
      "evaluation_times_ms": [
        0.062815,
        0.063711,
        0.062879,
        0.063328,
        0.062815
      ],
      "metadata": {},
      "peak_memory_mb": 49.545216
    }
  },
  "{\"x\":\"f32[2048,384]\",\"weights\":\"f32[384,2,768]\",\"activation\":\"jax._src.nn.functions.silu\",\"precision\":\"BF16_BF16_F32\",\"return_residuals\":false}": {
    "{\"block_m\":128,\"block_n\":32,\"block_k\":32,\"num_warps\":4,\"num_stages\":3}": {
      "compile_time_ms": 221.29364000284113,
      "lower_time_ms": 3299.112498003524,
      "evaluation_times_ms": [
        0.016448,
        0.016352,
        0.016384,
        0.016352,
        0.016192
      ],
      "metadata": {},
      "peak_memory_mb": 11.79648
    }
  },
  "{\"x\":\"f32[5,2048,768]\",\"weights\":\"f32[768,2,1536]\",\"activation\":\"jax._src.nn.functions.silu\",\"precision\":\"BF16_BF16_F32\",\"return_residuals\":false}": {
    "{\"block_m\":128,\"block_n\":64,\"block_k\":32,\"num_warps\":4,\"num_stages\":3}": {
      "compile_time_ms": 363.05708800500724,
      "lower_time_ms": 2016.3965199899394,
      "evaluation_times_ms": [
        0.214654,
        0.213535,
        0.21395,
        0.212958,
        0.213598
      ],
      "metadata": {},
      "peak_memory_mb": 103.809024
    }
  },
  "{\"x\":\"f32[2048,768]\",\"weights\":\"f32[768,2,1536]\",\"activation\":\"jax._src.nn.functions.silu\",\"precision\":\"BF16_BF16_F32\",\"return_residuals\":false}": {
    "{\"block_m\":128,\"block_n\":64,\"block_k\":32,\"num_warps\":8,\"num_stages\":4}": {
      "compile_time_ms": 205.90892600012012,
      "lower_time_ms": 1959.7560000111116,
      "evaluation_times_ms": [
        0.048864,
        0.048576,
        0.048767,
        0.048639,
        0.048864
      ],
      "metadata": {},
      "peak_memory_mb": 28.311552
    },
    "{\"block_m\":128,\"block_n\":64,\"block_k\":32,\"num_warps\":8,\"num_stages\":3}": {
      "compile_time_ms": 229.08276796806604,
      "lower_time_ms": 2893.178105005063,
      "evaluation_times_ms": [
        0.049216,
        0.048383,
        0.048512,
        0.048191,
        0.048736
      ],
      "metadata": {},
      "peak_memory_mb": 28.311552
    }
  },
  "{\"x\":\"bf16[1,2304,2304,128]\",\"weights\":\"bf16[128,2,256]\",\"activation\":\"jax._src.nn.functions.sigmoid\",\"precision\":\"BF16_BF16_F32\",\"return_residuals\":false}": {
    "{\"block_m\":64,\"block_n\":64,\"block_k\":32,\"num_warps\":4,\"num_stages\":3}": {
      "compile_time_ms": 179.8728679996202,
      "lower_time_ms": 4237.783949999539,
      "evaluation_times_ms": [
        2.785441,
        2.783457,
        2.786113,
        2.811841,
        2.814465
      ],
      "metadata": {},
      "peak_memory_mb": 4076.99456
    }
  },
  "{\"x\":\"bf16[1,2304,2304,128]\",\"weights\":\"bf16[128,2,512]\",\"activation\":\"jax._src.nn.functions.silu\",\"precision\":\"BF16_BF16_F32\",\"return_residuals\":false}": {
    "{\"block_m\":64,\"block_n\":64,\"block_k\":32,\"num_warps\":4,\"num_stages\":3}": {
      "compile_time_ms": 239.58021599992207,
      "lower_time_ms": 3528.7104469998667,
      "evaluation_times_ms": [
        5.920555,
        5.919275,
        5.923883,
        6.182028,
        6.200395
      ],
      "metadata": {},
      "peak_memory_mb": 6795.034624
    }
  },
  "{\"x\":\"bf16[2304,2304,128]\",\"weights\":\"bf16[128,2,256]\",\"activation\":\"jax._src.nn.functions.sigmoid\",\"precision\":\"BF16_BF16_F32\",\"return_residuals\":false}": {
    "{\"block_m\":64,\"block_n\":64,\"block_k\":32,\"num_warps\":4,\"num_stages\":3}": {
      "compile_time_ms": 177.22016799962148,
      "lower_time_ms": 3879.3795500005217,
      "evaluation_times_ms": [
        2.787557,
        2.78746,
        2.785732,
        2.778852,
        2.8849
      ],
      "metadata": {},
      "peak_memory_mb": 4076.99456
    }
  },
  "{\"x\":\"bf16[2304,2304,128]\",\"weights\":\"bf16[128,2,512]\",\"activation\":\"jax._src.nn.functions.silu\",\"precision\":\"BF16_BF16_F32\",\"return_residuals\":false}": {
    "{\"block_m\":64,\"block_n\":64,\"block_k\":32,\"num_warps\":4,\"num_stages\":3}": {
      "compile_time_ms": 188.82698200013692,
      "lower_time_ms": 3655.1141770005415,
      "evaluation_times_ms": [
        5.934508,
        5.923533,
        6.094893,
        6.186861,
        6.280461
      ],
      "metadata": {},
      "peak_memory_mb": 6795.034624
    }
  },
  "{\"x\":\"f32[2304,2304,128]\",\"weights\":\"f32[128,2,256]\",\"activation\":\"jax._src.nn.functions.silu\",\"precision\":\"BF16_BF16_F32\",\"return_residuals\":false}": {
    "{\"block_m\":128,\"block_n\":64,\"block_k\":32,\"num_warps\":4,\"num_stages\":4}": {
      "compile_time_ms": 474.8443889993723,
      "lower_time_ms": 3980.9369069998866,
      "evaluation_times_ms": [
        4.685158,
        4.687333,
        4.687558,
        4.685894,
        4.682694
      ],
      "metadata": {},
      "peak_memory_mb": 8153.98912
    }
  },
  "{\"x\":\"bf16[2304,2304,64]\",\"weights\":\"bf16[64,2,128]\",\"activation\":\"jax._src.nn.functions.sigmoid\",\"precision\":\"BF16_BF16_F32\",\"return_residuals\":false}": {
    "{\"block_m\":64,\"block_n\":64,\"block_k\":32,\"num_warps\":4,\"num_stages\":3}": {
      "compile_time_ms": 261.28651299950434,
      "lower_time_ms": 3973.00943800019,
      "evaluation_times_ms": [
        1.070434,
        1.070369,
        1.070785,
        1.069537,
        1.068642
      ],
      "metadata": {},
      "peak_memory_mb": 2038.464512
    }
  },
  "{\"x\":\"bf16[2304,2304,64]\",\"weights\":\"bf16[64,2,128]\",\"activation\":\"jax._src.nn.functions.silu\",\"precision\":\"BF16_BF16_F32\",\"return_residuals\":false}": {
    "{\"block_m\":64,\"block_n\":64,\"block_k\":32,\"num_warps\":4,\"num_stages\":3}": {
      "compile_time_ms": 184.50533999930485,
      "lower_time_ms": 5137.7124520004145,
      "evaluation_times_ms": [
        1.182625,
        1.182689,
        1.179265,
        1.186145,
        1.180385
      ],
      "metadata": {},
      "peak_memory_mb": 2038.464512
    }
  },
  "{\"x\":\"f32[5,2304,32,128]\",\"weights\":\"f32[128,2,256]\",\"activation\":\"jax._src.nn.functions.silu\",\"precision\":\"BF16_BF16_F32\",\"return_residuals\":false}": {
    "{\"block_m\":128,\"block_n\":64,\"block_k\":32,\"num_warps\":4,\"num_stages\":4}": {
      "compile_time_ms": 352.22171700024774,
      "lower_time_ms": 5931.28571500074,
      "evaluation_times_ms": [
        0.33168,
        0.331776,
        0.33136,
        0.33072,
        0.330975
      ],
      "metadata": {},
      "peak_memory_mb": 566.493184
    }
  },
  "{\"x\":\"f32[2304,32,128]\",\"weights\":\"f32[128,2,256]\",\"activation\":\"jax._src.nn.functions.silu\",\"precision\":\"BF16_BF16_F32\",\"return_residuals\":false}": {
    "{\"block_m\":128,\"block_n\":64,\"block_k\":32,\"num_warps\":4,\"num_stages\":4}": {
      "compile_time_ms": 347.7600629994413,
      "lower_time_ms": 3316.3058719992478,
      "evaluation_times_ms": [
        0.07008,
        0.070368,
        0.070144,
        0.07024,
        0.070624
      ],
      "metadata": {},
      "peak_memory_mb": 113.508352
    }
  },
  "{\"x\":\"bf16[5,2304,384]\",\"weights\":\"bf16[384,2,1536]\",\"activation\":\"jax._src.nn.functions.silu\",\"precision\":\"BF16_BF16_F32\",\"return_residuals\":false}": {
    "{\"block_m\":64,\"block_n\":128,\"block_k\":32,\"num_warps\":4,\"num_stages\":3}": {
      "compile_time_ms": 864.699720000317,
      "lower_time_ms": 4373.235785999896,
      "evaluation_times_ms": [
        0.075072,
        0.074976,
        0.07504,
        0.075168,
        0.075136
      ],
      "metadata": {},
      "peak_memory_mb": 46.596096
    }
  },
  "{\"x\":\"bf16[2304,384]\",\"weights\":\"bf16[384,2,1536]\",\"activation\":\"jax._src.nn.functions.silu\",\"precision\":\"BF16_BF16_F32\",\"return_residuals\":false}": {
    "{\"block_m\":64,\"block_n\":64,\"block_k\":32,\"num_warps\":4,\"num_stages\":3}": {
      "compile_time_ms": 331.08043799984443,
      "lower_time_ms": 4458.00397900075,
      "evaluation_times_ms": [
        0.017728,
        0.01792,
        0.017664,
        0.01792,
        0.017664
      ],
      "metadata": {},
      "peak_memory_mb": 11.206656
    }
  },
  "{\"x\":\"f32[5,2304,384]\",\"weights\":\"f32[384,2,768]\",\"activation\":\"jax._src.nn.functions.silu\",\"precision\":\"BF16_BF16_F32\",\"return_residuals\":false}": {
    "{\"block_m\":128,\"block_n\":64,\"block_k\":32,\"num_warps\":4,\"num_stages\":4}": {
      "compile_time_ms": 370.26551099916105,
      "lower_time_ms": 4465.394617000129,
      "evaluation_times_ms": [
        0.071584,
        0.072096,
        0.071936,
        0.071712,
        0.071648
      ],
      "metadata": {},
      "peak_memory_mb": 55.443456
    }
  },
  "{\"x\":\"f32[2304,384]\",\"weights\":\"f32[384,2,768]\",\"activation\":\"jax._src.nn.functions.silu\",\"precision\":\"BF16_BF16_F32\",\"return_residuals\":false}": {
    "{\"block_m\":128,\"block_n\":64,\"block_k\":32,\"num_warps\":4,\"num_stages\":4}": {
      "compile_time_ms": 349.4626550000248,
      "lower_time_ms": 4267.927021000105,
      "evaluation_times_ms": [
        0.016736,
        0.016768,
        0.016672,
        0.017056,
        0.016736
      ],
      "metadata": {},
      "peak_memory_mb": 12.976128
    }
  },
  "{\"x\":\"f32[5,2304,768]\",\"weights\":\"f32[768,2,1536]\",\"activation\":\"jax._src.nn.functions.silu\",\"precision\":\"BF16_BF16_F32\",\"return_residuals\":false}": {
    "{\"block_m\":128,\"block_n\":64,\"block_k\":32,\"num_warps\":4,\"num_stages\":3}": {
      "compile_time_ms": 360.2632990005077,
      "lower_time_ms": 5321.5822170004685,
      "evaluation_times_ms": [
        0.239615,
        0.239776,
        0.24048,
        0.23808,
        0.239073
      ],
      "metadata": {},
      "peak_memory_mb": 115.605504
    }
  },
  "{\"x\":\"f32[2304,768]\",\"weights\":\"f32[768,2,1536]\",\"activation\":\"jax._src.nn.functions.silu\",\"precision\":\"BF16_BF16_F32\",\"return_residuals\":false}": {
    "{\"block_m\":128,\"block_n\":64,\"block_k\":32,\"num_warps\":4,\"num_stages\":3}": {
      "compile_time_ms": 355.8751580003445,
      "lower_time_ms": 5875.556308999876,
      "evaluation_times_ms": [
        0.054336,
        0.05392,
        0.053952,
        0.053664,
        0.054496
      ],
      "metadata": {},
      "peak_memory_mb": 30.670848
    }
  },
  "{\"x\":\"bf16[1,2560,2560,128]\",\"weights\":\"bf16[128,2,256]\",\"activation\":\"jax._src.nn.functions.sigmoid\",\"precision\":\"BF16_BF16_F32\",\"return_residuals\":false}": {
    "{\"block_m\":64,\"block_n\":64,\"block_k\":32,\"num_warps\":4,\"num_stages\":3}": {
      "compile_time_ms": 191.37221300024976,
      "lower_time_ms": 3854.045672999746,
      "evaluation_times_ms": [
        3.431329,
        3.432289,
        3.436417,
        3.470082,
        3.458914
      ],
      "metadata": {},
      "peak_memory_mb": 5033.295872
    }
  },
  "{\"x\":\"bf16[1,2560,2560,128]\",\"weights\":\"bf16[128,2,512]\",\"activation\":\"jax._src.nn.functions.silu\",\"precision\":\"BF16_BF16_F32\",\"return_residuals\":false}": {
    "{\"block_m\":64,\"block_n\":64,\"block_k\":32,\"num_warps\":4,\"num_stages\":3}": {
      "compile_time_ms": 188.58243199974822,
      "lower_time_ms": 5025.520758999846,
      "evaluation_times_ms": [
        7.304273,
        7.300592,
        7.644785,
        7.675793,
        7.816753
      ],
      "metadata": {},
      "peak_memory_mb": 8388.870144
    }
  },
  "{\"x\":\"bf16[2560,2560,128]\",\"weights\":\"bf16[128,2,256]\",\"activation\":\"jax._src.nn.functions.sigmoid\",\"precision\":\"BF16_BF16_F32\",\"return_residuals\":false}": {
    "{\"block_m\":64,\"block_n\":64,\"block_k\":32,\"num_warps\":4,\"num_stages\":3}": {
      "compile_time_ms": 188.5878329994739,
      "lower_time_ms": 5306.589282999994,
      "evaluation_times_ms": [
        3.430599,
        3.430598,
        3.498247,
        3.49015,
        3.588711
      ],
      "metadata": {},
      "peak_memory_mb": 5033.295872
    }
  },
  "{\"x\":\"bf16[2560,2560,128]\",\"weights\":\"bf16[128,2,512]\",\"activation\":\"jax._src.nn.functions.silu\",\"precision\":\"BF16_BF16_F32\",\"return_residuals\":false}": {
    "{\"block_m\":64,\"block_n\":64,\"block_k\":32,\"num_warps\":4,\"num_stages\":3}": {
      "compile_time_ms": 240.87058199984313,
      "lower_time_ms": 4360.869588999776,
      "evaluation_times_ms": [
        7.294226,
        7.291602,
        7.525554,
        7.669395,
        7.662675
      ],
      "metadata": {},
      "peak_memory_mb": 8388.870144
    }
  },
  "{\"x\":\"f32[2560,2560,128]\",\"weights\":\"f32[128,2,256]\",\"activation\":\"jax._src.nn.functions.silu\",\"precision\":\"BF16_BF16_F32\",\"return_residuals\":false}": {
    "{\"block_m\":128,\"block_n\":64,\"block_k\":32,\"num_warps\":4,\"num_stages\":4}": {
      "compile_time_ms": 348.3867819995794,
      "lower_time_ms": 5139.990105999459,
      "evaluation_times_ms": [
        5.78484,
        5.783847,
        5.784264,
        5.784551,
        5.784936
      ],
      "metadata": {},
      "peak_memory_mb": 10066.591744
    }
  },
  "{\"x\":\"bf16[2560,2560,64]\",\"weights\":\"bf16[64,2,128]\",\"activation\":\"jax._src.nn.functions.sigmoid\",\"precision\":\"BF16_BF16_F32\",\"return_residuals\":false}": {
    "{\"block_m\":64,\"block_n\":64,\"block_k\":32,\"num_warps\":4,\"num_stages\":3}": {
      "compile_time_ms": 181.0040199998184,
      "lower_time_ms": 3996.7208540001593,
      "evaluation_times_ms": [
        1.31437,
        1.315298,
        1.317987,
        1.315426,
        1.313346
      ],
      "metadata": {},
      "peak_memory_mb": 2516.615168
    }
  },
  "{\"x\":\"bf16[2560,2560,64]\",\"weights\":\"bf16[64,2,128]\",\"activation\":\"jax._src.nn.functions.silu\",\"precision\":\"BF16_BF16_F32\",\"return_residuals\":false}": {
    "{\"block_m\":64,\"block_n\":64,\"block_k\":32,\"num_warps\":4,\"num_stages\":3}": {
      "compile_time_ms": 182.11082100060594,
      "lower_time_ms": 4241.833326999767,
      "evaluation_times_ms": [
        1.456546,
        1.459042,
        1.461857,
        1.464546,
        1.463425
      ],
      "metadata": {},
      "peak_memory_mb": 2516.615168
    }
  },
  "{\"x\":\"f32[5,2560,32,128]\",\"weights\":\"f32[128,2,256]\",\"activation\":\"jax._src.nn.functions.silu\",\"precision\":\"BF16_BF16_F32\",\"return_residuals\":false}": {
    "{\"block_m\":128,\"block_n\":64,\"block_k\":32,\"num_warps\":4,\"num_stages\":4}": {
      "compile_time_ms": 354.97938499975135,
      "lower_time_ms": 4014.416371000152,
      "evaluation_times_ms": [
        0.367552,
        0.366945,
        0.366016,
        0.367328,
        0.36592
      ],
      "metadata": {},
      "peak_memory_mb": 629.407744
    }
  },
  "{\"x\":\"f32[2560,32,128]\",\"weights\":\"f32[128,2,256]\",\"activation\":\"jax._src.nn.functions.silu\",\"precision\":\"BF16_BF16_F32\",\"return_residuals\":false}": {
    "{\"block_m\":128,\"block_n\":64,\"block_k\":32,\"num_warps\":4,\"num_stages\":4}": {
      "compile_time_ms": 358.4891410000637,
      "lower_time_ms": 3868.1542340000306,
      "evaluation_times_ms": [
        0.078304,
        0.078048,
        0.078336,
        0.078048,
        0.078111
      ],
      "metadata": {},
      "peak_memory_mb": 126.091264
    }
  },
  "{\"x\":\"bf16[5,2560,384]\",\"weights\":\"bf16[384,2,1536]\",\"activation\":\"jax._src.nn.functions.silu\",\"precision\":\"BF16_BF16_F32\",\"return_residuals\":false}": {
    "{\"block_m\":64,\"block_n\":128,\"block_k\":32,\"num_warps\":4,\"num_stages\":3}": {
      "compile_time_ms": 870.3348300005018,
      "lower_time_ms": 5096.644625999943,
      "evaluation_times_ms": [
        0.085632,
        0.085664,
        0.085696,
        0.08608,
        0.085921
      ],
      "metadata": {},
      "peak_memory_mb": 51.511296
    }
  },
  "{\"x\":\"bf16[2560,384]\",\"weights\":\"bf16[384,2,1536]\",\"activation\":\"jax._src.nn.functions.silu\",\"precision\":\"BF16_BF16_F32\",\"return_residuals\":false}": {
    "{\"block_m\":128,\"block_n\":64,\"block_k\":32,\"num_warps\":8,\"num_stages\":3}": {
      "compile_time_ms": 321.36146899938467,
      "lower_time_ms": 2841.139572999964,
      "evaluation_times_ms": [
        0.019008,
        0.019232,
        0.019232,
        0.019168,
        0.019104
      ],
      "metadata": {},
      "peak_memory_mb": 12.189696
    }
  },
  "{\"x\":\"f32[5,2560,384]\",\"weights\":\"f32[384,2,768]\",\"activation\":\"jax._src.nn.functions.silu\",\"precision\":\"BF16_BF16_F32\",\"return_residuals\":false}": {
    "{\"block_m\":128,\"block_n\":64,\"block_k\":32,\"num_warps\":4,\"num_stages\":4}": {
      "compile_time_ms": 371.88810699990427,
      "lower_time_ms": 4084.3792860005124,
      "evaluation_times_ms": [
        0.078048,
        0.0776,
        0.077887,
        0.077632,
        0.078144
      ],
      "metadata": {},
      "peak_memory_mb": 61.341696
    }
  },
  "{\"x\":\"f32[2560,384]\",\"weights\":\"f32[384,2,768]\",\"activation\":\"jax._src.nn.functions.silu\",\"precision\":\"BF16_BF16_F32\",\"return_residuals\":false}": {
    "{\"block_m\":128,\"block_n\":64,\"block_k\":32,\"num_warps\":4,\"num_stages\":3}": {
      "compile_time_ms": 335.9526679996634,
      "lower_time_ms": 3542.645067000194,
      "evaluation_times_ms": [
        0.016544,
        0.016608,
        0.016608,
        0.016768,
        0.016672
      ],
      "metadata": {},
      "peak_memory_mb": 14.155776
    }
  },
  "{\"x\":\"f32[5,2560,768]\",\"weights\":\"f32[768,2,1536]\",\"activation\":\"jax._src.nn.functions.silu\",\"precision\":\"BF16_BF16_F32\",\"return_residuals\":false}": {
    "{\"block_m\":128,\"block_n\":64,\"block_k\":32,\"num_warps\":4,\"num_stages\":3}": {
      "compile_time_ms": 7666.778607999731,
      "lower_time_ms": 399.56552300009207,
      "evaluation_times_ms": [
        0.263872,
        0.263871,
        0.26448,
        0.264288,
        0.263328
      ],
      "metadata": {},
      "peak_memory_mb": 127.401984
    }
  },
  "{\"x\":\"f32[2560,768]\",\"weights\":\"f32[768,2,1536]\",\"activation\":\"jax._src.nn.functions.silu\",\"precision\":\"BF16_BF16_F32\",\"return_residuals\":false}": {
    "{\"block_m\":128,\"block_n\":64,\"block_k\":32,\"num_warps\":4,\"num_stages\":3}": {
      "compile_time_ms": 7541.261028999543,
      "lower_time_ms": 245.66467000022385,
      "evaluation_times_ms": [
        0.056192,
        0.055168,
        0.054656,
        0.055584,
        0.055296
      ],
      "metadata": {},
      "peak_memory_mb": 33.030144
    }
  },
  "{\"x\":\"bf16[1,2816,2816,128]\",\"weights\":\"bf16[128,2,256]\",\"activation\":\"jax._src.nn.functions.sigmoid\",\"precision\":\"BF16_BF16_F32\",\"return_residuals\":false}": {
    "{\"block_m\":64,\"block_n\":64,\"block_k\":32,\"num_warps\":4,\"num_stages\":3}": {
      "compile_time_ms": 184.27364800027135,
      "lower_time_ms": 4517.461434999859,
      "evaluation_times_ms": [
        4.145188,
        4.151588,
        4.165027,
        4.386051,
        4.382276
      ],
      "metadata": {},
      "peak_memory_mb": 6090.26048
    }
  },
  "{\"x\":\"bf16[1,2816,2816,128]\",\"weights\":\"bf16[128,2,512]\",\"activation\":\"jax._src.nn.functions.silu\",\"precision\":\"BF16_BF16_F32\",\"return_residuals\":false}": {
    "{\"block_m\":64,\"block_n\":64,\"block_k\":32,\"num_warps\":4,\"num_stages\":3}": {
      "compile_time_ms": 188.45602000055806,
      "lower_time_ms": 5136.057449999498,
      "evaluation_times_ms": [
        8.849432,
        8.882296,
        9.238969,
        9.274522,
        9.410042
      ],
      "metadata": {},
      "peak_memory_mb": 10150.477824
    }
  },
  "{\"x\":\"bf16[2816,2816,128]\",\"weights\":\"bf16[128,2,256]\",\"activation\":\"jax._src.nn.functions.sigmoid\",\"precision\":\"BF16_BF16_F32\",\"return_residuals\":false}": {
    "{\"block_m\":64,\"block_n\":64,\"block_k\":32,\"num_warps\":4,\"num_stages\":3}": {
      "compile_time_ms": 235.10769300082757,
      "lower_time_ms": 4275.971121001021,
      "evaluation_times_ms": [
        4.159818,
        4.159786,
        4.157994,
        4.291211,
        4.27601
      ],
      "metadata": {},
      "peak_memory_mb": 6090.26048
    }
  },
  "{\"x\":\"bf16[2816,2816,128]\",\"weights\":\"bf16[128,2,512]\",\"activation\":\"jax._src.nn.functions.silu\",\"precision\":\"BF16_BF16_F32\",\"return_residuals\":false}": {},
  "{\"x\":\"f32[2816,2816,128]\",\"weights\":\"f32[128,2,256]\",\"activation\":\"jax._src.nn.functions.silu\",\"precision\":\"BF16_BF16_F32\",\"return_residuals\":false}": {
    "{\"block_m\":128,\"block_n\":64,\"block_k\":32,\"num_warps\":4,\"num_stages\":4}": {
      "compile_time_ms": 360.3493980000394,
      "lower_time_ms": 4204.868484000031,
      "evaluation_times_ms": [
        6.960103,
        6.962311,
        6.97018,
        6.962086,
        6.959463
      ],
      "metadata": {},
      "peak_memory_mb": 12180.52096
    }
  },
  "{\"x\":\"bf16[2816,2816,64]\",\"weights\":\"bf16[64,2,128]\",\"activation\":\"jax._src.nn.functions.sigmoid\",\"precision\":\"BF16_BF16_F32\",\"return_residuals\":false}": {
    "{\"block_m\":64,\"block_n\":64,\"block_k\":32,\"num_warps\":4,\"num_stages\":3}": {
      "compile_time_ms": 178.26702399997885,
      "lower_time_ms": 2957.699049999974,
      "evaluation_times_ms": [
        1.588432,
        1.589104,
        1.591056,
        1.587984,
        1.5884
      ],
      "metadata": {},
      "peak_memory_mb": 3045.097472
    }
  },
  "{\"x\":\"bf16[2816,2816,64]\",\"weights\":\"bf16[64,2,128]\",\"activation\":\"jax._src.nn.functions.silu\",\"precision\":\"BF16_BF16_F32\",\"return_residuals\":false}": {
    "{\"block_m\":64,\"block_n\":64,\"block_k\":32,\"num_warps\":4,\"num_stages\":3}": {
      "compile_time_ms": 193.67439899997407,
      "lower_time_ms": 3656.75705700005,
      "evaluation_times_ms": [
        1.758094,
        1.757999,
        1.754287,
        1.758255,
        1.751087
      ],
      "metadata": {},
      "peak_memory_mb": 3045.097472
    }
  },
  "{\"x\":\"f32[5,2816,32,128]\",\"weights\":\"f32[128,2,256]\",\"activation\":\"jax._src.nn.functions.silu\",\"precision\":\"BF16_BF16_F32\",\"return_residuals\":false}": {
    "{\"block_m\":128,\"block_n\":64,\"block_k\":32,\"num_warps\":4,\"num_stages\":4}": {
      "compile_time_ms": 347.78885399964565,
      "lower_time_ms": 3435.3276309998364,
      "evaluation_times_ms": [
        0.404124,
        0.404285,
        0.402396,
        0.404348,
        0.40454
      ],
      "metadata": {},
      "peak_memory_mb": 692.322304
    }
  },
  "{\"x\":\"f32[2816,32,128]\",\"weights\":\"f32[128,2,256]\",\"activation\":\"jax._src.nn.functions.silu\",\"precision\":\"BF16_BF16_F32\",\"return_residuals\":false}": {
    "{\"block_m\":128,\"block_n\":64,\"block_k\":32,\"num_warps\":4,\"num_stages\":4}": {
      "compile_time_ms": 345.258350000222,
      "lower_time_ms": 6977.129137999782,
      "evaluation_times_ms": [
        0.086079,
        0.085919,
        0.085407,
        0.086111,
        0.086208
      ],
      "metadata": {},
      "peak_memory_mb": 138.674176
    }
  },
  "{\"x\":\"bf16[5,2816,384]\",\"weights\":\"bf16[384,2,1536]\",\"activation\":\"jax._src.nn.functions.silu\",\"precision\":\"BF16_BF16_F32\",\"return_residuals\":false}": {
    "{\"block_m\":128,\"block_n\":64,\"block_k\":32,\"num_warps\":4,\"num_stages\":3}": {
      "compile_time_ms": 797.4959100001797,
      "lower_time_ms": 3729.773214999568,
      "evaluation_times_ms": [
        0.091999,
        0.091935,
        0.092447,
        0.092319,
        0.092415
      ],
      "metadata": {},
      "peak_memory_mb": 56.426496
    }
  },
  "{\"x\":\"bf16[2816,384]\",\"weights\":\"bf16[384,2,1536]\",\"activation\":\"jax._src.nn.functions.silu\",\"precision\":\"BF16_BF16_F32\",\"return_residuals\":false}": {
    "{\"block_m\":128,\"block_n\":64,\"block_k\":32,\"num_warps\":8,\"num_stages\":3}": {
      "compile_time_ms": 314.60224800002834,
      "lower_time_ms": 4204.2912709998745,
      "evaluation_times_ms": [
        0.01952,
        0.019456,
        0.019455,
        0.019488,
        0.019296
      ],
      "metadata": {},
      "peak_memory_mb": 13.172736
    }
  },
  "{\"x\":\"f32[5,2816,384]\",\"weights\":\"f32[384,2,768]\",\"activation\":\"jax._src.nn.functions.silu\",\"precision\":\"BF16_BF16_F32\",\"return_residuals\":false}": {
    "{\"block_m\":128,\"block_n\":64,\"block_k\":32,\"num_warps\":4,\"num_stages\":3}": {
      "compile_time_ms": 340.8260410001276,
      "lower_time_ms": 4769.273153000086,
      "evaluation_times_ms": [
        0.079775,
        0.079936,
        0.080287,
        0.081056,
        0.080703
      ],
      "metadata": {},
      "peak_memory_mb": 67.239936
    }
  },
  "{\"x\":\"f32[2816,384]\",\"weights\":\"f32[384,2,768]\",\"activation\":\"jax._src.nn.functions.silu\",\"precision\":\"BF16_BF16_F32\",\"return_residuals\":false}": {
    "{\"block_m\":128,\"block_n\":64,\"block_k\":32,\"num_warps\":4,\"num_stages\":4}": {
      "compile_time_ms": 342.2056340000381,
      "lower_time_ms": 4363.533068999914,
      "evaluation_times_ms": [
        0.016896,
        0.016992,
        0.016928,
        0.017024,
        0.016896
      ],
      "metadata": {},
      "peak_memory_mb": 15.335424
    }
  },
  "{\"x\":\"f32[5,2816,768]\",\"weights\":\"f32[768,2,1536]\",\"activation\":\"jax._src.nn.functions.silu\",\"precision\":\"BF16_BF16_F32\",\"return_residuals\":false}": {
    "{\"block_m\":128,\"block_n\":64,\"block_k\":32,\"num_warps\":4,\"num_stages\":3}": {
      "compile_time_ms": 449.5977920000769,
      "lower_time_ms": 4444.4607370000995,
      "evaluation_times_ms": [
        0.276925,
        0.277533,
        0.276702,
        0.276701,
        0.277245
      ],
      "metadata": {},
      "peak_memory_mb": 139.198464
    }
  },
  "{\"x\":\"f32[2816,768]\",\"weights\":\"f32[768,2,1536]\",\"activation\":\"jax._src.nn.functions.silu\",\"precision\":\"BF16_BF16_F32\",\"return_residuals\":false}": {
    "{\"block_m\":128,\"block_n\":64,\"block_k\":32,\"num_warps\":4,\"num_stages\":3}": {
      "compile_time_ms": 401.295269000002,
      "lower_time_ms": 3497.477938999964,
      "evaluation_times_ms": [
        0.0552,
        0.05712,
        0.057792,
        0.056544,
        0.056287
      ],
      "metadata": {},
      "peak_memory_mb": 35.38944
    }
  },
  "{\"x\":\"bf16[1,3072,3072,128]\",\"weights\":\"bf16[128,2,256]\",\"activation\":\"jax._src.nn.functions.sigmoid\",\"precision\":\"BF16_BF16_F32\",\"return_residuals\":false}": {
    "{\"block_m\":64,\"block_n\":64,\"block_k\":32,\"num_warps\":4,\"num_stages\":3}": {
      "compile_time_ms": 185.031041000002,
      "lower_time_ms": 4072.8251829996225,
      "evaluation_times_ms": [
        4.956696,
        4.968184,
        5.104151,
        5.129814,
        5.346357
      ],
      "metadata": {},
      "peak_memory_mb": 7247.888384
    }
  },
  "{\"x\":\"bf16[1,3072,3072,128]\",\"weights\":\"bf16[128,2,512]\",\"activation\":\"jax._src.nn.functions.silu\",\"precision\":\"BF16_BF16_F32\",\"return_residuals\":false}": {
    "{\"block_m\":64,\"block_n\":64,\"block_k\":32,\"num_warps\":4,\"num_stages\":3}": {
      "compile_time_ms": 196.07073999986824,
      "lower_time_ms": 3438.5551669997767,
      "evaluation_times_ms": [
        10.622111,
        10.95043,
        11.035965,
        11.082652,
        11.328219
      ],
      "metadata": {},
      "peak_memory_mb": 12079.857664
    }
  },
  "{\"x\":\"bf16[3072,3072,128]\",\"weights\":\"bf16[128,2,256]\",\"activation\":\"jax._src.nn.functions.sigmoid\",\"precision\":\"BF16_BF16_F32\",\"return_residuals\":false}": {
    "{\"block_m\":64,\"block_n\":64,\"block_k\":32,\"num_warps\":4,\"num_stages\":3}": {
      "compile_time_ms": 184.33968199997253,
      "lower_time_ms": 4211.1816519995955,
      "evaluation_times_ms": [
        5.020225,
        5.012513,
        5.008801,
        5.290016,
        5.28832
      ],
      "metadata": {},
      "peak_memory_mb": 7247.888384
    }
  },
  "{\"x\":\"bf16[3072,3072,128]\",\"weights\":\"bf16[128,2,512]\",\"activation\":\"jax._src.nn.functions.silu\",\"precision\":\"BF16_BF16_F32\",\"return_residuals\":false}": {
    "{\"block_m\":128,\"block_n\":64,\"block_k\":32,\"num_warps\":8,\"num_stages\":4}": {
      "compile_time_ms": 245.55773600013708,
      "lower_time_ms": 3733.9991710000504,
      "evaluation_times_ms": [
        11.167803,
        11.168315,
        11.168731,
        11.247322,
        11.241658
      ],
      "metadata": {},
      "peak_memory_mb": 12079.857664
    }
  },
  "{\"x\":\"f32[3072,3072,128]\",\"weights\":\"f32[128,2,256]\",\"activation\":\"jax._src.nn.functions.silu\",\"precision\":\"BF16_BF16_F32\",\"return_residuals\":false}": {
    "{\"block_m\":128,\"block_n\":64,\"block_k\":32,\"num_warps\":4,\"num_stages\":4}": {
      "compile_time_ms": 363.1229070001609,
      "lower_time_ms": 2806.9248520000656,
      "evaluation_times_ms": [
        8.22212,
        8.217927,
        8.220711,
        8.229512,
        8.232584
      ],
      "metadata": {},
      "peak_memory_mb": 14495.776768
    }
  },
  "{\"x\":\"bf16[3072,3072,64]\",\"weights\":\"bf16[64,2,128]\",\"activation\":\"jax._src.nn.functions.sigmoid\",\"precision\":\"BF16_BF16_F32\",\"return_residuals\":false}": {
    "{\"block_m\":64,\"block_n\":64,\"block_k\":32,\"num_warps\":4,\"num_stages\":3}": {
      "compile_time_ms": 174.49232800026948,
      "lower_time_ms": 4912.929728000108,
      "evaluation_times_ms": [
        1.899186,
        1.898514,
        1.90021,
        1.897266,
        1.898674
      ],
      "metadata": {},
      "peak_memory_mb": 3623.911424
    }
  },
  "{\"x\":\"bf16[3072,3072,64]\",\"weights\":\"bf16[64,2,128]\",\"activation\":\"jax._src.nn.functions.silu\",\"precision\":\"BF16_BF16_F32\",\"return_residuals\":false}": {
    "{\"block_m\":64,\"block_n\":64,\"block_k\":32,\"num_warps\":4,\"num_stages\":3}": {
      "compile_time_ms": 190.4094809997332,
      "lower_time_ms": 4547.124126999734,
      "evaluation_times_ms": [
        2.09819,
        2.094383,
        2.08923,
        2.099182,
        2.090351
      ],
      "metadata": {},
      "peak_memory_mb": 3623.911424
    }
  },
  "{\"x\":\"f32[5,3072,32,128]\",\"weights\":\"f32[128,2,256]\",\"activation\":\"jax._src.nn.functions.silu\",\"precision\":\"BF16_BF16_F32\",\"return_residuals\":false}": {
    "{\"block_m\":128,\"block_n\":64,\"block_k\":32,\"num_warps\":4,\"num_stages\":4}": {
      "compile_time_ms": 364.50379600000815,
      "lower_time_ms": 3178.6150419998194,
      "evaluation_times_ms": [
        0.439452,
        0.437308,
        0.43814,
        0.437437,
        0.438204
      ],
      "metadata": {},
      "peak_memory_mb": 755.236864
    }
  },
  "{\"x\":\"f32[3072,32,128]\",\"weights\":\"f32[128,2,256]\",\"activation\":\"jax._src.nn.functions.silu\",\"precision\":\"BF16_BF16_F32\",\"return_residuals\":false}": {
    "{\"block_m\":128,\"block_n\":64,\"block_k\":32,\"num_warps\":4,\"num_stages\":4}": {
      "compile_time_ms": 354.43003399996087,
      "lower_time_ms": 4019.2330380000385,
      "evaluation_times_ms": [
        0.093535,
        0.093727,
        0.093535,
        0.094079,
        0.093695
      ],
      "metadata": {},
      "peak_memory_mb": 151.257088
    }
  },
  "{\"x\":\"bf16[5,3072,384]\",\"weights\":\"bf16[384,2,1536]\",\"activation\":\"jax._src.nn.functions.silu\",\"precision\":\"BF16_BF16_F32\",\"return_residuals\":false}": {
    "{\"block_m\":128,\"block_n\":64,\"block_k\":32,\"num_warps\":4,\"num_stages\":4}": {
      "compile_time_ms": 817.7636119999079,
      "lower_time_ms": 3696.9442000004165,
      "evaluation_times_ms": [
        0.102815,
        0.100959,
        0.101023,
        0.101631,
        0.100959
      ],
      "metadata": {},
      "peak_memory_mb": 61.341696
    }
  },
  "{\"x\":\"bf16[3072,384]\",\"weights\":\"bf16[384,2,1536]\",\"activation\":\"jax._src.nn.functions.silu\",\"precision\":\"BF16_BF16_F32\",\"return_residuals\":false}": {
    "{\"block_m\":64,\"block_n\":64,\"block_k\":32,\"num_warps\":4,\"num_stages\":3}": {
      "compile_time_ms": 330.34541699998954,
      "lower_time_ms": 5302.67670899957,
      "evaluation_times_ms": [
        0.022017,
        0.021856,
        0.021888,
        0.022271,
        0.022016
      ],
      "metadata": {},
      "peak_memory_mb": 14.155776
    }
  },
  "{\"x\":\"f32[5,3072,384]\",\"weights\":\"f32[384,2,768]\",\"activation\":\"jax._src.nn.functions.silu\",\"precision\":\"BF16_BF16_F32\",\"return_residuals\":false}": {
    "{\"block_m\":128,\"block_n\":64,\"block_k\":32,\"num_warps\":4,\"num_stages\":4}": {
      "compile_time_ms": 372.75209700010237,
      "lower_time_ms": 3766.4584069998455,
      "evaluation_times_ms": [
        0.090143,
        0.090847,
        0.091263,
        0.090911,
        0.090943
      ],
      "metadata": {},
      "peak_memory_mb": 73.138176
    }
  },
  "{\"x\":\"f32[3072,384]\",\"weights\":\"f32[384,2,768]\",\"activation\":\"jax._src.nn.functions.silu\",\"precision\":\"BF16_BF16_F32\",\"return_residuals\":false}": {
    "{\"block_m\":128,\"block_n\":32,\"block_k\":32,\"num_warps\":4,\"num_stages\":3}": {
      "compile_time_ms": 243.1083250003212,
      "lower_time_ms": 3226.8883420001657,
      "evaluation_times_ms": [
        0.025855,
        0.025728,
        0.025919,
        0.026016,
        0.026016
      ],
      "metadata": {},
      "peak_memory_mb": 16.515072
    }
  },
  "{\"x\":\"f32[5,3072,768]\",\"weights\":\"f32[768,2,1536]\",\"activation\":\"jax._src.nn.functions.silu\",\"precision\":\"BF16_BF16_F32\",\"return_residuals\":false}": {
    "{\"block_m\":128,\"block_n\":64,\"block_k\":32,\"num_warps\":4,\"num_stages\":3}": {
      "compile_time_ms": 479.07319900014045,
      "lower_time_ms": 3613.3519439999873,
      "evaluation_times_ms": [
        0.300925,
        0.300797,
        0.300253,
        0.300189,
        0.300093
      ],
      "metadata": {},
      "peak_memory_mb": 150.994944
    }
  },
  "{\"x\":\"f32[3072,768]\",\"weights\":\"f32[768,2,1536]\",\"activation\":\"jax._src.nn.functions.silu\",\"precision\":\"BF16_BF16_F32\",\"return_residuals\":false}": {
    "{\"block_m\":128,\"block_n\":64,\"block_k\":32,\"num_warps\":4,\"num_stages\":4}": {
      "compile_time_ms": 393.2954229999268,
      "lower_time_ms": 4422.650244000124,
      "evaluation_times_ms": [
        0.080767,
        0.079807,
        0.071295,
        0.071327,
        0.071967
      ],
      "metadata": {},
      "peak_memory_mb": 37.748736
    }
  },
  "{\"x\":\"bf16[1,3328,3328,128]\",\"weights\":\"bf16[128,2,256]\",\"activation\":\"jax._src.nn.functions.sigmoid\",\"precision\":\"BF16_BF16_F32\",\"return_residuals\":false}": {
    "{\"block_m\":64,\"block_n\":64,\"block_k\":32,\"num_warps\":4,\"num_stages\":3}": {
      "compile_time_ms": 237.0356270002958,
      "lower_time_ms": 3406.4545440000984,
      "evaluation_times_ms": [
        5.851882,
        5.83537,
        5.94516,
        6.278694,
        6.273573
      ],
      "metadata": {},
      "peak_memory_mb": 8506.179584
    }
  },
  "{\"x\":\"bf16[1,3328,3328,128]\",\"weights\":\"bf16[128,2,512]\",\"activation\":\"jax._src.nn.functions.silu\",\"precision\":\"BF16_BF16_F32\",\"return_residuals\":false}": {
    "{\"block_m\":64,\"block_n\":64,\"block_k\":32,\"num_warps\":4,\"num_stages\":3}": {
      "compile_time_ms": 182.0399279999947,
      "lower_time_ms": 3061.703297999884,
      "evaluation_times_ms": [
        12.465119,
        12.45472,
        13.010559,
        13.241821,
        13.244285
      ],
      "metadata": {},
      "peak_memory_mb": 14177.009664
    }
  },
  "{\"x\":\"bf16[3328,3328,128]\",\"weights\":\"bf16[128,2,256]\",\"activation\":\"jax._src.nn.functions.sigmoid\",\"precision\":\"BF16_BF16_F32\",\"return_residuals\":false}": {
    "{\"block_m\":64,\"block_n\":64,\"block_k\":32,\"num_warps\":4,\"num_stages\":3}": {
      "compile_time_ms": 195.9522960000868,
      "lower_time_ms": 3885.660236000149,
      "evaluation_times_ms": [
        5.820309,
        5.831638,
        6.215282,
        6.278418,
        6.30917
      ],
      "metadata": {},
      "peak_memory_mb": 8506.179584
    }
  },
  "{\"x\":\"bf16[3328,3328,128]\",\"weights\":\"bf16[128,2,512]\",\"activation\":\"jax._src.nn.functions.silu\",\"precision\":\"BF16_BF16_F32\",\"return_residuals\":false}": {
    "{\"block_m\":128,\"block_n\":64,\"block_k\":32,\"num_warps\":8,\"num_stages\":4}": {
      "compile_time_ms": 239.64395399980276,
      "lower_time_ms": 4544.343676999688,
      "evaluation_times_ms": [
        13.170945,
        13.171618,
        13.173538,
        13.208193,
        13.392992
      ],
      "metadata": {},
      "peak_memory_mb": 14177.009664
    }
  },
  "{\"x\":\"f32[3328,3328,128]\",\"weights\":\"f32[128,2,256]\",\"activation\":\"jax._src.nn.functions.silu\",\"precision\":\"BF16_BF16_F32\",\"return_residuals\":false}": {
    "{\"block_m\":128,\"block_n\":64,\"block_k\":32,\"num_warps\":4,\"num_stages\":4}": {
      "compile_time_ms": 353.45317200017234,
      "lower_time_ms": 2984.7463599999173,
      "evaluation_times_ms": [
        9.650738,
        9.664593,
        9.66341,
        9.666898,
        9.67173
      ],
      "metadata": {},
      "peak_memory_mb": 17012.359168
    }
  },
  "{\"x\":\"bf16[3328,3328,64]\",\"weights\":\"bf16[64,2,128]\",\"activation\":\"jax._src.nn.functions.sigmoid\",\"precision\":\"BF16_BF16_F32\",\"return_residuals\":false}": {
    "{\"block_m\":64,\"block_n\":64,\"block_k\":32,\"num_warps\":4,\"num_stages\":3}": {
      "compile_time_ms": 189.25799399994503,
      "lower_time_ms": 4499.08997700004,
      "evaluation_times_ms": [
        2.220526,
        2.215918,
        2.222414,
        2.216013,
        2.215822
      ],
      "metadata": {},
      "peak_memory_mb": 4253.057024
    }
  },
  "{\"x\":\"bf16[3328,3328,64]\",\"weights\":\"bf16[64,2,128]\",\"activation\":\"jax._src.nn.functions.silu\",\"precision\":\"BF16_BF16_F32\",\"return_residuals\":false}": {
    "{\"block_m\":64,\"block_n\":64,\"block_k\":32,\"num_warps\":4,\"num_stages\":3}": {
      "compile_time_ms": 182.51755899973432,
      "lower_time_ms": 4101.537634999659,
      "evaluation_times_ms": [
        2.463914,
        2.452522,
        2.445546,
        2.448426,
        2.451914
      ],
      "metadata": {},
      "peak_memory_mb": 4253.057024
    }
  },
  "{\"x\":\"f32[5,3328,32,128]\",\"weights\":\"f32[128,2,256]\",\"activation\":\"jax._src.nn.functions.silu\",\"precision\":\"BF16_BF16_F32\",\"return_residuals\":false}": {
    "{\"block_m\":128,\"block_n\":64,\"block_k\":32,\"num_warps\":4,\"num_stages\":4}": {
      "compile_time_ms": 346.10521200011135,
      "lower_time_ms": 3418.8062960001844,
      "evaluation_times_ms": [
        0.472316,
        0.472348,
        0.470332,
        0.4703,
        0.470235
      ],
      "metadata": {},
      "peak_memory_mb": 818.151424
    }
  },
  "{\"x\":\"f32[3328,32,128]\",\"weights\":\"f32[128,2,256]\",\"activation\":\"jax._src.nn.functions.silu\",\"precision\":\"BF16_BF16_F32\",\"return_residuals\":false}": {
    "{\"block_m\":128,\"block_n\":64,\"block_k\":32,\"num_warps\":4,\"num_stages\":4}": {
      "compile_time_ms": 345.97805299972606,
      "lower_time_ms": 4107.923401999869,
      "evaluation_times_ms": [
        0.100511,
        0.099839,
        0.099679,
        0.100288,
        0.099903
      ],
      "metadata": {},
      "peak_memory_mb": 163.84
    }
  },
  "{\"x\":\"bf16[5,3328,384]\",\"weights\":\"bf16[384,2,1536]\",\"activation\":\"jax._src.nn.functions.silu\",\"precision\":\"BF16_BF16_F32\",\"return_residuals\":false}": {
    "{\"block_m\":64,\"block_n\":128,\"block_k\":32,\"num_warps\":4,\"num_stages\":3}": {
      "compile_time_ms": 876.1767500000133,
      "lower_time_ms": 4354.408651999961,
      "evaluation_times_ms": [
        0.10672,
        0.106144,
        0.106688,
        0.106625,
        0.107039
      ],
      "metadata": {},
      "peak_memory_mb": 66.256896
    },
    "{\"block_m\":128,\"block_n\":64,\"block_k\":32,\"num_warps\":4,\"num_stages\":3}": {
      "compile_time_ms": 877.8817690000551,
      "lower_time_ms": 4950.091149000059,
      "evaluation_times_ms": [
        0.106114,
        0.106434,
        0.106659,
        0.106274,
        0.105474
      ],
      "metadata": {},
      "peak_memory_mb": 66.256896
    }
  },
  "{\"x\":\"bf16[3328,384]\",\"weights\":\"bf16[384,2,1536]\",\"activation\":\"jax._src.nn.functions.silu\",\"precision\":\"BF16_BF16_F32\",\"return_residuals\":false}": {
    "{\"block_m\":128,\"block_n\":64,\"block_k\":32,\"num_warps\":4,\"num_stages\":3}": {
      "compile_time_ms": 828.0738389585167,
      "lower_time_ms": 2712.731659063138,
      "evaluation_times_ms": [
        0.023424,
        0.023616,
        0.02336,
        0.02336,
        0.023296
      ],
      "metadata": {},
      "peak_memory_mb": 15.138816
    }
  },
  "{\"x\":\"f32[5,3328,384]\",\"weights\":\"f32[384,2,768]\",\"activation\":\"jax._src.nn.functions.silu\",\"precision\":\"BF16_BF16_F32\",\"return_residuals\":false}": {
    "{\"block_m\":128,\"block_n\":64,\"block_k\":32,\"num_warps\":4,\"num_stages\":4}": {
      "compile_time_ms": 639.6060399711132,
      "lower_time_ms": 3324.587134993635,
      "evaluation_times_ms": [
        0.094496,
        0.094367,
        0.094495,
        0.094368,
        0.09472
      ],
      "metadata": {},
      "peak_memory_mb": 79.036416
    }
  },
  "{\"x\":\"f32[3328,384]\",\"weights\":\"f32[384,2,768]\",\"activation\":\"jax._src.nn.functions.silu\",\"precision\":\"BF16_BF16_F32\",\"return_residuals\":false}": {
    "{\"block_m\":128,\"block_n\":64,\"block_k\":32,\"num_warps\":4,\"num_stages\":4}": {
      "compile_time_ms": 367.6412060158327,
      "lower_time_ms": 2982.550865970552,
      "evaluation_times_ms": [
        0.025888,
        0.025888,
        0.025792,
        0.025728,
        0.025824
      ],
      "metadata": {},
      "peak_memory_mb": 17.69472
    }
  },
  "{\"x\":\"f32[5,3328,768]\",\"weights\":\"f32[768,2,1536]\",\"activation\":\"jax._src.nn.functions.silu\",\"precision\":\"BF16_BF16_F32\",\"return_residuals\":false}": {},
  "{\"x\":\"f32[3328,768]\",\"weights\":\"f32[768,2,1536]\",\"activation\":\"jax._src.nn.functions.silu\",\"precision\":\"BF16_BF16_F32\",\"return_residuals\":false}": {
    "{\"block_m\":128,\"block_n\":64,\"block_k\":32,\"num_warps\":8,\"num_stages\":3}": {
      "compile_time_ms": 217.65282400883734,
      "lower_time_ms": 3333.804435096681,
      "evaluation_times_ms": [
        0.07808,
        0.0776,
        0.077664,
        0.077375,
        0.077632
      ],
      "metadata": {},
      "peak_memory_mb": 40.108032
    }
  },
  "{\"x\":\"bf16[5,3584,384]\",\"weights\":\"bf16[384,2,1536]\",\"activation\":\"jax._src.nn.functions.silu\",\"precision\":\"BF16_BF16_F32\",\"return_residuals\":false}": {},
  "{\"x\":\"bf16[3584,384]\",\"weights\":\"bf16[384,2,1536]\",\"activation\":\"jax._src.nn.functions.silu\",\"precision\":\"BF16_BF16_F32\",\"return_residuals\":false}": {
    "{\"block_m\":128,\"block_n\":64,\"block_k\":32,\"num_warps\":4,\"num_stages\":3}": {
      "compile_time_ms": 855.2648220211267,
      "lower_time_ms": 2384.8711389582604,
      "evaluation_times_ms": [
        0.02624,
        0.026176,
        0.02624,
        0.026304,
        0.026304
      ],
      "metadata": {},
      "peak_memory_mb": 16.121856
    }
  },
  "{\"x\":\"f32[3584,384]\",\"weights\":\"f32[384,2,768]\",\"activation\":\"jax._src.nn.functions.silu\",\"precision\":\"BF16_BF16_F32\",\"return_residuals\":false}": {},
  "{\"x\":\"f32[5,4096,32,128]\",\"weights\":\"f32[128,2,256]\",\"activation\":\"jax._src.nn.functions.silu\",\"precision\":\"BF16_BF16_F32\",\"return_residuals\":false}": {
    "{\"block_m\":128,\"block_n\":64,\"block_k\":32,\"num_warps\":4,\"num_stages\":4}": {
      "compile_time_ms": 358.8774009840563,
      "lower_time_ms": 2343.858917010948,
      "evaluation_times_ms": [
        0.576706,
        0.576481,
        0.578209,
        0.577153,
        0.577281
      ],
      "metadata": {},
      "peak_memory_mb": 1006.895104
    }
  },
  "{\"x\":\"f32[4096,32,128]\",\"weights\":\"f32[128,2,256]\",\"activation\":\"jax._src.nn.functions.silu\",\"precision\":\"BF16_BF16_F32\",\"return_residuals\":false}": {
    "{\"block_m\":128,\"block_n\":64,\"block_k\":32,\"num_warps\":4,\"num_stages\":4}": {
      "compile_time_ms": 350.6453869631514,
      "lower_time_ms": 2406.254917033948,
      "evaluation_times_ms": [
        0.121249,
        0.122433,
        0.121728,
        0.121984,
        0.122848
      ],
      "metadata": {},
      "peak_memory_mb": 201.588736
    }
  },
  "{\"x\":\"bf16[5,4096,384]\",\"weights\":\"bf16[384,2,1536]\",\"activation\":\"jax._src.nn.functions.silu\",\"precision\":\"BF16_BF16_F32\",\"return_residuals\":false}": {
    "{\"block_m\":128,\"block_n\":64,\"block_k\":32,\"num_warps\":4,\"num_stages\":4}": {
      "compile_time_ms": 862.8376489505172,
      "lower_time_ms": 3114.5029519684613,
      "evaluation_times_ms": [
        0.130433,
        0.130976,
        0.130464,
        0.130401,
        0.130656
      ],
      "metadata": {},
      "peak_memory_mb": 81.002496
    }
  },
  "{\"x\":\"bf16[4096,384]\",\"weights\":\"bf16[384,2,1536]\",\"activation\":\"jax._src.nn.functions.silu\",\"precision\":\"BF16_BF16_F32\",\"return_residuals\":false}": {
    "{\"block_m\":64,\"block_n\":128,\"block_k\":32,\"num_warps\":4,\"num_stages\":3}": {
      "compile_time_ms": 873.2954040169716,
      "lower_time_ms": 2424.4152850005776,
      "evaluation_times_ms": [
        0.026977,
        0.026944,
        0.026976,
        0.026976,
        0.026944
      ],
      "metadata": {},
      "peak_memory_mb": 18.087936
    }
  },
  "{\"x\":\"f32[5,4096,384]\",\"weights\":\"f32[384,2,768]\",\"activation\":\"jax._src.nn.functions.silu\",\"precision\":\"BF16_BF16_F32\",\"return_residuals\":false}": {
    "{\"block_m\":128,\"block_n\":64,\"block_k\":32,\"num_warps\":4,\"num_stages\":4}": {
      "compile_time_ms": 354.5984619995579,
      "lower_time_ms": 3127.2145609837025,
      "evaluation_times_ms": [
        0.119104,
        0.118368,
        0.119424,
        0.118688,
        0.119072
      ],
      "metadata": {},
      "peak_memory_mb": 96.731136
    }
  },
  "{\"x\":\"f32[4096,384]\",\"weights\":\"f32[384,2,768]\",\"activation\":\"jax._src.nn.functions.silu\",\"precision\":\"BF16_BF16_F32\",\"return_residuals\":false}": {
    "{\"block_m\":128,\"block_n\":64,\"block_k\":32,\"num_warps\":8,\"num_stages\":3}": {
      "compile_time_ms": 20965.772863011807,
      "lower_time_ms": 4038.4906260296702,
      "evaluation_times_ms": [
        0.027648,
        0.027648,
        0.027584,
        0.027616,
        0.02768
      ],
      "metadata": {},
      "peak_memory_mb": 21.233664
    }
  },
  "{\"x\":\"f32[5,4096,768]\",\"weights\":\"f32[768,2,1536]\",\"activation\":\"jax._src.nn.functions.silu\",\"precision\":\"BF16_BF16_F32\",\"return_residuals\":false}": {
    "{\"block_m\":128,\"block_n\":64,\"block_k\":32,\"num_warps\":4,\"num_stages\":4}": {
      "compile_time_ms": 8927.575442939997,
      "lower_time_ms": 3447.481896961108,
      "evaluation_times_ms": [
        0.398624,
        0.398177,
        0.398336,
        0.397472,
        0.398337
      ],
      "metadata": {},
      "peak_memory_mb": 198.180864
    }
  },
  "{\"x\":\"f32[4096,768]\",\"weights\":\"f32[768,2,1536]\",\"activation\":\"jax._src.nn.functions.silu\",\"precision\":\"BF16_BF16_F32\",\"return_residuals\":false}": {
    "{\"block_m\":128,\"block_n\":64,\"block_k\":32,\"num_warps\":4,\"num_stages\":3}": {
      "compile_time_ms": 10218.270520912483,
      "lower_time_ms": 2984.3643159838393,
      "evaluation_times_ms": [
        0.084224,
        0.0832,
        0.0832,
        0.083488,
        0.083168
      ],
      "metadata": {},
      "peak_memory_mb": 47.18592
    }
  },
  "{\"x\":\"f32[5,4352,32,128]\",\"weights\":\"f32[128,2,256]\",\"activation\":\"jax._src.nn.functions.silu\",\"precision\":\"BF16_BF16_F32\",\"return_residuals\":false}": {
    "{\"block_m\":128,\"block_n\":64,\"block_k\":32,\"num_warps\":4,\"num_stages\":4}": {
      "compile_time_ms": 370.34132902044803,
      "lower_time_ms": 2115.1206369977444,
      "evaluation_times_ms": [
        0.611938,
        0.612737,
        0.614177,
        0.614146,
        0.612929
      ],
      "metadata": {},
      "peak_memory_mb": 1069.809664
    }
  },
  "{\"x\":\"f32[4352,32,128]\",\"weights\":\"f32[128,2,256]\",\"activation\":\"jax._src.nn.functions.silu\",\"precision\":\"BF16_BF16_F32\",\"return_residuals\":false}": {
    "{\"block_m\":128,\"block_n\":64,\"block_k\":32,\"num_warps\":4,\"num_stages\":4}": {
      "compile_time_ms": 348.0365079594776,
      "lower_time_ms": 3668.0484579410404,
      "evaluation_times_ms": [
        0.127712,
        0.128545,
        0.128256,
        0.127968,
        0.128065
      ],
      "metadata": {},
      "peak_memory_mb": 214.171648
    }
  },
  "{\"x\":\"bf16[5,4352,384]\",\"weights\":\"bf16[384,2,1536]\",\"activation\":\"jax._src.nn.functions.silu\",\"precision\":\"BF16_BF16_F32\",\"return_residuals\":false}": {
    "{\"block_m\":128,\"block_n\":64,\"block_k\":32,\"num_warps\":4,\"num_stages\":4}": {
      "compile_time_ms": 1147.1862778998911,
      "lower_time_ms": 3171.1802729405463,
      "evaluation_times_ms": [
        0.136224,
        0.13744,
        0.137248,
        0.137408,
        0.137472
      ],
      "metadata": {},
      "peak_memory_mb": 85.917696
    }
  },
  "{\"x\":\"bf16[4352,384]\",\"weights\":\"bf16[384,2,1536]\",\"activation\":\"jax._src.nn.functions.silu\",\"precision\":\"BF16_BF16_F32\",\"return_residuals\":false}": {
    "{\"block_m\":64,\"block_n\":64,\"block_k\":32,\"num_warps\":4,\"num_stages\":3}": {
      "compile_time_ms": 332.1131080156192,
      "lower_time_ms": 591.247163945809,
      "evaluation_times_ms": [
        0.031104,
        0.030912,
        0.031072,
        0.031232,
        0.03136
      ],
      "metadata": {},
      "peak_memory_mb": 19.070976
    }
  },
  "{\"x\":\"f32[5,4352,384]\",\"weights\":\"f32[384,2,768]\",\"activation\":\"jax._src.nn.functions.silu\",\"precision\":\"BF16_BF16_F32\",\"return_residuals\":false}": {
    "{\"block_m\":128,\"block_n\":64,\"block_k\":32,\"num_warps\":4,\"num_stages\":4}": {
      "compile_time_ms": 366.14045198075473,
      "lower_time_ms": 2451.209933962673,
      "evaluation_times_ms": [
        0.12496,
        0.124896,
        0.125569,
        0.125888,
        0.125792
      ],
      "metadata": {},
      "peak_memory_mb": 102.629376
    }
  },
  "{\"x\":\"f32[4352,384]\",\"weights\":\"f32[384,2,768]\",\"activation\":\"jax._src.nn.functions.silu\",\"precision\":\"BF16_BF16_F32\",\"return_residuals\":false}": {
    "{\"block_m\":128,\"block_n\":64,\"block_k\":32,\"num_warps\":4,\"num_stages\":4}": {
      "compile_time_ms": 8561.473686015233,
      "lower_time_ms": 2875.313263037242,
      "evaluation_times_ms": [
        0.030688,
        0.031008,
        0.031201,
        0.031008,
        0.031104
      ],
      "metadata": {},
      "peak_memory_mb": 22.413312
    }
  },
  "{\"x\":\"f32[5,4352,768]\",\"weights\":\"f32[768,2,1536]\",\"activation\":\"jax._src.nn.functions.silu\",\"precision\":\"BF16_BF16_F32\",\"return_residuals\":false}": {
    "{\"block_m\":128,\"block_n\":64,\"block_k\":32,\"num_warps\":4,\"num_stages\":4}": {
      "compile_time_ms": 10588.558662915602,
      "lower_time_ms": 2746.792951016687,
      "evaluation_times_ms": [
        0.425473,
        0.425249,
        0.426209,
        0.425056,
        0.424033
      ],
      "metadata": {},
      "peak_memory_mb": 209.977344
    }
  },
  "{\"x\":\"f32[4352,768]\",\"weights\":\"f32[768,2,1536]\",\"activation\":\"jax._src.nn.functions.silu\",\"precision\":\"BF16_BF16_F32\",\"return_residuals\":false}": {
    "{\"block_m\":128,\"block_n\":64,\"block_k\":32,\"num_warps\":4,\"num_stages\":3}": {
      "compile_time_ms": 723.9764030091465,
      "lower_time_ms": 1983.5830429801717,
      "evaluation_times_ms": [
        0.105153,
        0.097696,
        0.104608,
        0.09824,
        0.097984
      ],
      "metadata": {},
      "peak_memory_mb": 49.545216
    },
    "{\"block_m\":128,\"block_n\":64,\"block_k\":32,\"num_warps\":4,\"num_stages\":4}": {
      "compile_time_ms": 374.4432721287012,
      "lower_time_ms": 2702.0352808758616,
      "evaluation_times_ms": [
        0.105953,
        0.098337,
        0.098336,
        0.09856,
        0.098177
      ],
      "metadata": {},
      "peak_memory_mb": 49.545216
    }
  },
  "{\"x\":\"bf16[1,4608,4608,128]\",\"weights\":\"bf16[128,2,256]\",\"activation\":\"jax._src.nn.functions.sigmoid\",\"precision\":\"BF16_BF16_F32\",\"return_residuals\":false}": {
    "{\"block_m\":128,\"block_n\":64,\"block_k\":32,\"num_warps\":4,\"num_stages\":4}": {
      "compile_time_ms": 343.4421841520816,
      "lower_time_ms": 2876.621579984203,
      "evaluation_times_ms": [
        12.218383,
        12.305455,
        12.180079,
        12.09499,
        12.207503
      ],
      "metadata": {},
      "peak_memory_mb": 16307.585024
    }
  },
  "{\"x\":\"bf16[1,4608,4608,128]\",\"weights\":\"bf16[128,2,512]\",\"activation\":\"jax._src.nn.functions.silu\",\"precision\":\"BF16_BF16_F32\",\"return_residuals\":false}": {
    "{\"block_m\":64,\"block_n\":64,\"block_k\":32,\"num_warps\":4,\"num_stages\":3}": {
      "compile_time_ms": 188.41075501404703,
      "lower_time_ms": 2347.9121030541137,
      "evaluation_times_ms": [
        24.948908,
        25.753102,
        25.771631,
        25.554253,
        25.429069
      ],
      "metadata": {},
      "peak_memory_mb": 27179.352064
    }
  },
  "{\"x\":\"bf16[4608,4608,128]\",\"weights\":\"bf16[128,2,256]\",\"activation\":\"jax._src.nn.functions.sigmoid\",\"precision\":\"BF16_BF16_F32\",\"return_residuals\":false}": {
    "{\"block_m\":128,\"block_n\":64,\"block_k\":32,\"num_warps\":4,\"num_stages\":4}": {
      "compile_time_ms": 341.2515359232202,
      "lower_time_ms": 1601.265663979575,
      "evaluation_times_ms": [
        12.253867,
        12.303883,
        12.090442,
        12.157578,
        12.197547
      ],
      "metadata": {},
      "peak_memory_mb": 16307.585024
    }
  },
  "{\"x\":\"bf16[4608,4608,128]\",\"weights\":\"bf16[128,2,512]\",\"activation\":\"jax._src.nn.functions.silu\",\"precision\":\"BF16_BF16_F32\",\"return_residuals\":false}": {
    "{\"block_m\":64,\"block_n\":64,\"block_k\":32,\"num_warps\":4,\"num_stages\":3}": {
      "compile_time_ms": 182.058644015342,
      "lower_time_ms": 1252.9987309826538,
      "evaluation_times_ms": [
        24.765267,
        25.715863,
        25.57983,
        25.46879,
        25.493398
      ],
      "metadata": {},
      "peak_memory_mb": 27179.352064
    }
  },
  "{\"x\":\"f32[4608,4608,128]\",\"weights\":\"f32[128,2,256]\",\"activation\":\"jax._src.nn.functions.silu\",\"precision\":\"BF16_BF16_F32\",\"return_residuals\":false}": {
    "{\"block_m\":128,\"block_n\":64,\"block_k\":32,\"num_warps\":4,\"num_stages\":4}": {
      "compile_time_ms": 377.77801393531263,
      "lower_time_ms": 2926.6248190542683,
      "evaluation_times_ms": [
        18.763892,
        18.89269,
        18.887763,
        18.89573,
        18.918482
      ],
      "metadata": {},
      "peak_memory_mb": 32615.170048
    }
  },
  "{\"x\":\"bf16[4608,4608,64]\",\"weights\":\"bf16[64,2,128]\",\"activation\":\"jax._src.nn.functions.sigmoid\",\"precision\":\"BF16_BF16_F32\",\"return_residuals\":false}": {
    "{\"block_m\":64,\"block_n\":64,\"block_k\":32,\"num_warps\":4,\"num_stages\":3}": {
      "compile_time_ms": 190.15204300012556,
      "lower_time_ms": 4872.104584000226,
      "evaluation_times_ms": [
        4.288061,
        4.289821,
        4.318909,
        4.371389,
        4.365149
      ],
      "metadata": {},
      "peak_memory_mb": 8153.759744
    }
  },
  "{\"x\":\"bf16[4608,4608,64]\",\"weights\":\"bf16[64,2,128]\",\"activation\":\"jax._src.nn.functions.silu\",\"precision\":\"BF16_BF16_F32\",\"return_residuals\":false}": {
    "{\"block_m\":64,\"block_n\":64,\"block_k\":32,\"num_warps\":4,\"num_stages\":3}": {
      "compile_time_ms": 198.32012100005159,
      "lower_time_ms": 3545.5837419999625,
      "evaluation_times_ms": [
        4.753308,
        4.738747,
        4.752476,
        4.750875,
        4.754363
      ],
      "metadata": {},
      "peak_memory_mb": 8153.759744
    }
  },
  "{\"x\":\"f32[5,4608,32,128]\",\"weights\":\"f32[128,2,256]\",\"activation\":\"jax._src.nn.functions.silu\",\"precision\":\"BF16_BF16_F32\",\"return_residuals\":false}": {
    "{\"block_m\":128,\"block_n\":64,\"block_k\":32,\"num_warps\":4,\"num_stages\":4}": {
      "compile_time_ms": 368.41386600008263,
      "lower_time_ms": 4643.944723000004,
      "evaluation_times_ms": [
        0.650395,
        0.654363,
        0.653051,
        0.65241,
        0.653179
      ],
      "metadata": {},
      "peak_memory_mb": 1132.724224
    }
  },
  "{\"x\":\"f32[4608,32,128]\",\"weights\":\"f32[128,2,256]\",\"activation\":\"jax._src.nn.functions.silu\",\"precision\":\"BF16_BF16_F32\",\"return_residuals\":false}": {
    "{\"block_m\":128,\"block_n\":64,\"block_k\":32,\"num_warps\":4,\"num_stages\":4}": {
      "compile_time_ms": 366.6785099999288,
      "lower_time_ms": 4309.987982000166,
      "evaluation_times_ms": [
        0.136095,
        0.136575,
        0.136382,
        0.136351,
        0.136191
      ],
      "metadata": {},
      "peak_memory_mb": 226.75456
    }
  },
  "{\"x\":\"bf16[5,4608,384]\",\"weights\":\"bf16[384,2,1536]\",\"activation\":\"jax._src.nn.functions.silu\",\"precision\":\"BF16_BF16_F32\",\"return_residuals\":false}": {
    "{\"block_m\":128,\"block_n\":64,\"block_k\":32,\"num_warps\":4,\"num_stages\":3}": {
      "compile_time_ms": 1311.6349100000662,
      "lower_time_ms": 4161.413059000097,
      "evaluation_times_ms": [
        0.147358,
        0.146046,
        0.147167,
        0.146654,
        0.14739
      ],
      "metadata": {},
      "peak_memory_mb": 90.832896
    }
  },
  "{\"x\":\"bf16[4608,384]\",\"weights\":\"bf16[384,2,1536]\",\"activation\":\"jax._src.nn.functions.silu\",\"precision\":\"BF16_BF16_F32\",\"return_residuals\":false}": {
    "{\"block_m\":64,\"block_n\":64,\"block_k\":32,\"num_warps\":4,\"num_stages\":3}": {
      "compile_time_ms": 325.7767589998366,
      "lower_time_ms": 5048.027560000264,
      "evaluation_times_ms": [
        0.032479,
        0.03264,
        0.033344,
        0.0328,
        0.032608
      ],
      "metadata": {},
      "peak_memory_mb": 20.054016
    }
  },
  "{\"x\":\"f32[5,4608,384]\",\"weights\":\"f32[384,2,768]\",\"activation\":\"jax._src.nn.functions.silu\",\"precision\":\"BF16_BF16_F32\",\"return_residuals\":false}": {
    "{\"block_m\":128,\"block_n\":64,\"block_k\":32,\"num_warps\":4,\"num_stages\":3}": {
      "compile_time_ms": 382.02572000000146,
      "lower_time_ms": 5429.702626999642,
      "evaluation_times_ms": [
        0.134239,
        0.134239,
        0.134239,
        0.134879,
        0.134111
      ],
      "metadata": {},
      "peak_memory_mb": 108.527616
    }
  },
  "{\"x\":\"f32[4608,384]\",\"weights\":\"f32[384,2,768]\",\"activation\":\"jax._src.nn.functions.silu\",\"precision\":\"BF16_BF16_F32\",\"return_residuals\":false}": {
    "{\"block_m\":128,\"block_n\":64,\"block_k\":32,\"num_warps\":4,\"num_stages\":3}": {
      "compile_time_ms": 343.2657640000798,
      "lower_time_ms": 4937.262925000141,
      "evaluation_times_ms": [
        0.032032,
        0.031552,
        0.031743,
        0.031711,
        0.031808
      ],
      "metadata": {},
      "peak_memory_mb": 23.59296
    }
  },
  "{\"x\":\"f32[5,4608,768]\",\"weights\":\"f32[768,2,1536]\",\"activation\":\"jax._src.nn.functions.silu\",\"precision\":\"BF16_BF16_F32\",\"return_residuals\":false}": {
    "{\"block_m\":128,\"block_n\":64,\"block_k\":32,\"num_warps\":4,\"num_stages\":4}": {
      "compile_time_ms": 472.4352549997093,
      "lower_time_ms": 3530.365513999641,
      "evaluation_times_ms": [
        0.450876,
        0.450844,
        0.450716,
        0.450172,
        0.450301
      ],
      "metadata": {},
      "peak_memory_mb": 221.773824
    }
  },
  "{\"x\":\"f32[4608,768]\",\"weights\":\"f32[768,2,1536]\",\"activation\":\"jax._src.nn.functions.silu\",\"precision\":\"BF16_BF16_F32\",\"return_residuals\":false}": {
    "{\"block_m\":128,\"block_n\":64,\"block_k\":32,\"num_warps\":4,\"num_stages\":4}": {
      "compile_time_ms": 377.5190289998136,
      "lower_time_ms": 3317.061026999909,
      "evaluation_times_ms": [
        0.108256,
        0.109023,
        0.107551,
        0.107615,
        0.107902
      ],
      "metadata": {},
      "peak_memory_mb": 51.904512
    }
  },
  "{\"x\":\"bf16[1,4864,4864,128]\",\"weights\":\"bf16[128,2,256]\",\"activation\":\"jax._src.nn.functions.sigmoid\",\"precision\":\"BF16_BF16_F32\",\"return_residuals\":false}": {
    "{\"block_m\":64,\"block_n\":128,\"block_k\":32,\"num_warps\":4,\"num_stages\":3}": {
      "compile_time_ms": 359.40777400037405,
      "lower_time_ms": 4914.165671999854,
      "evaluation_times_ms": [
        13.432092,
        13.355292,
        13.42678,
        13.496348,
        13.386749
      ],
      "metadata": {},
      "peak_memory_mb": 18169.856
    }
  },
  "{\"x\":\"bf16[1,4864,4864,128]\",\"weights\":\"bf16[128,2,512]\",\"activation\":\"jax._src.nn.functions.silu\",\"precision\":\"BF16_BF16_F32\",\"return_residuals\":false}": {
    "{\"block_m\":64,\"block_n\":64,\"block_k\":32,\"num_warps\":4,\"num_stages\":3}": {
      "compile_time_ms": 180.73943300032624,
      "lower_time_ms": 3527.46826900011,
      "evaluation_times_ms": [
        27.354952,
        28.115654,
        27.853991,
        27.931655,
        27.950951
      ],
      "metadata": {},
      "peak_memory_mb": 30283.137024
    }
  },
  "{\"x\":\"bf16[4864,4864,128]\",\"weights\":\"bf16[128,2,256]\",\"activation\":\"jax._src.nn.functions.sigmoid\",\"precision\":\"BF16_BF16_F32\",\"return_residuals\":false}": {
    "{\"block_m\":64,\"block_n\":128,\"block_k\":32,\"num_warps\":4,\"num_stages\":3}": {
      "compile_time_ms": 376.14222600018365,
      "lower_time_ms": 3990.6689750000623,
      "evaluation_times_ms": [
        12.820745,
        13.086154,
        13.11777,
        13.191242,
        13.287851
      ],
      "metadata": {},
      "peak_memory_mb": 18169.856
    }
  },
  "{\"x\":\"bf16[4864,4864,128]\",\"weights\":\"bf16[128,2,512]\",\"activation\":\"jax._src.nn.functions.silu\",\"precision\":\"BF16_BF16_F32\",\"return_residuals\":false}": {
    "{\"block_m\":64,\"block_n\":64,\"block_k\":32,\"num_warps\":4,\"num_stages\":4}": {
      "compile_time_ms": 255.76389299976654,
      "lower_time_ms": 4073.379522000323,
      "evaluation_times_ms": [
        27.498339,
        27.989157,
        27.923621,
        28.079973,
        28.098501
      ],
      "metadata": {},
      "peak_memory_mb": 30283.137024
    }
  },
  "{\"x\":\"f32[4864,4864,128]\",\"weights\":\"f32[128,2,256]\",\"activation\":\"jax._src.nn.functions.silu\",\"precision\":\"BF16_BF16_F32\",\"return_residuals\":false}": {
    "{\"block_m\":128,\"block_n\":64,\"block_k\":32,\"num_warps\":4,\"num_stages\":4}": {
      "compile_time_ms": 368.8200910000887,
      "lower_time_ms": 3852.387653000278,
      "evaluation_times_ms": [
        20.904517,
        20.942022,
        21.304743,
        21.231143,
        21.03607
      ],
      "metadata": {},
      "peak_memory_mb": 36339.712
    }
  },
  "{\"x\":\"bf16[4864,4864,64]\",\"weights\":\"bf16[64,2,128]\",\"activation\":\"jax._src.nn.functions.sigmoid\",\"precision\":\"BF16_BF16_F32\",\"return_residuals\":false}": {
    "{\"block_m\":64,\"block_n\":64,\"block_k\":32,\"num_warps\":4,\"num_stages\":3}": {
      "compile_time_ms": 179.86281799994686,
      "lower_time_ms": 3451.5039489997434,
      "evaluation_times_ms": [
        4.712898,
        4.716291,
        4.933956,
        4.959013,
        4.992644
      ],
      "metadata": {},
      "peak_memory_mb": 9084.895232
    }
  },
  "{\"x\":\"bf16[4864,4864,64]\",\"weights\":\"bf16[64,2,128]\",\"activation\":\"jax._src.nn.functions.silu\",\"precision\":\"BF16_BF16_F32\",\"return_residuals\":false}": {
    "{\"block_m\":64,\"block_n\":64,\"block_k\":32,\"num_warps\":4,\"num_stages\":3}": {
      "compile_time_ms": 187.63532100001612,
      "lower_time_ms": 3774.923438999849,
      "evaluation_times_ms": [
        5.292676,
        5.292132,
        5.321477,
        5.373092,
        5.406213
      ],
      "metadata": {},
      "peak_memory_mb": 9084.895232
    }
  },
  "{\"x\":\"f32[5,4864,32,128]\",\"weights\":\"f32[128,2,256]\",\"activation\":\"jax._src.nn.functions.silu\",\"precision\":\"BF16_BF16_F32\",\"return_residuals\":false}": {
    "{\"block_m\":128,\"block_n\":64,\"block_k\":32,\"num_warps\":4,\"num_stages\":4}": {
      "compile_time_ms": 350.8506909997777,
      "lower_time_ms": 3216.8723499999032,
      "evaluation_times_ms": [
        0.683812,
        0.683749,
        0.684965,
        0.685413,
        0.685829
      ],
      "metadata": {},
      "peak_memory_mb": 1195.638784
    }
  },
  "{\"x\":\"f32[4864,32,128]\",\"weights\":\"f32[128,2,256]\",\"activation\":\"jax._src.nn.functions.silu\",\"precision\":\"BF16_BF16_F32\",\"return_residuals\":false}": {
    "{\"block_m\":128,\"block_n\":64,\"block_k\":32,\"num_warps\":4,\"num_stages\":4}": {
      "compile_time_ms": 355.34066199988956,
      "lower_time_ms": 3748.189463000017,
      "evaluation_times_ms": [
        0.144641,
        0.14429,
        0.143937,
        0.144609,
        0.143969
      ],
      "metadata": {},
      "peak_memory_mb": 239.337472
    }
  },
  "{\"x\":\"bf16[5,4864,384]\",\"weights\":\"bf16[384,2,1536]\",\"activation\":\"jax._src.nn.functions.silu\",\"precision\":\"BF16_BF16_F32\",\"return_residuals\":false}": {
    "{\"block_m\":64,\"block_n\":128,\"block_k\":32,\"num_warps\":4,\"num_stages\":3}": {
      "compile_time_ms": 884.5729310000934,
      "lower_time_ms": 4022.8766300001553,
      "evaluation_times_ms": [
        0.155393,
        0.154657,
        0.154657,
        0.157377,
        0.154721
      ],
      "metadata": {},
      "peak_memory_mb": 95.748096
    }
  },
  "{\"x\":\"bf16[4864,384]\",\"weights\":\"bf16[384,2,1536]\",\"activation\":\"jax._src.nn.functions.silu\",\"precision\":\"BF16_BF16_F32\",\"return_residuals\":false}": {
    "{\"block_m\":64,\"block_n\":64,\"block_k\":32,\"num_warps\":4,\"num_stages\":3}": {
      "compile_time_ms": 325.0633400002698,
      "lower_time_ms": 3698.3897529999012,
      "evaluation_times_ms": [
        0.033888,
        0.034368,
        0.033792,
        0.033824,
        0.033953
      ],
      "metadata": {},
      "peak_memory_mb": 21.037056
    }
  },
  "{\"x\":\"f32[5,4864,384]\",\"weights\":\"f32[384,2,768]\",\"activation\":\"jax._src.nn.functions.silu\",\"precision\":\"BF16_BF16_F32\",\"return_residuals\":false}": {
    "{\"block_m\":128,\"block_n\":64,\"block_k\":32,\"num_warps\":4,\"num_stages\":3}": {
      "compile_time_ms": 342.9479279998304,
      "lower_time_ms": 4971.219245999691,
      "evaluation_times_ms": [
        0.140321,
        0.140577,
        0.139841,
        0.140769,
        0.141345
      ],
      "metadata": {},
      "peak_memory_mb": 114.425856
    }
  },
  "{\"x\":\"f32[4864,384]\",\"weights\":\"f32[384,2,768]\",\"activation\":\"jax._src.nn.functions.silu\",\"precision\":\"BF16_BF16_F32\",\"return_residuals\":false}": {
    "{\"block_m\":128,\"block_n\":64,\"block_k\":32,\"num_warps\":4,\"num_stages\":3}": {
      "compile_time_ms": 356.0620920002293,
      "lower_time_ms": 3421.0461799998484,
      "evaluation_times_ms": [
        0.031873,
        0.031872,
        0.032,
        0.031968,
        0.031872
      ],
      "metadata": {},
      "peak_memory_mb": 24.772608
    }
  },
  "{\"x\":\"f32[5,4864,768]\",\"weights\":\"f32[768,2,1536]\",\"activation\":\"jax._src.nn.functions.silu\",\"precision\":\"BF16_BF16_F32\",\"return_residuals\":false}": {
    "{\"block_m\":128,\"block_n\":64,\"block_k\":32,\"num_warps\":4,\"num_stages\":3}": {
      "compile_time_ms": 357.7927050000653,
      "lower_time_ms": 5769.4705670000985,
      "evaluation_times_ms": [
        0.476386,
        0.476866,
        0.475266,
        0.475906,
        0.475234
      ],
      "metadata": {},
      "peak_memory_mb": 233.570304
    }
  },
  "{\"x\":\"f32[4864,768]\",\"weights\":\"f32[768,2,1536]\",\"activation\":\"jax._src.nn.functions.silu\",\"precision\":\"BF16_BF16_F32\",\"return_residuals\":false}": {
    "{\"block_m\":128,\"block_n\":64,\"block_k\":32,\"num_warps\":8,\"num_stages\":3}": {
      "compile_time_ms": 217.94293900029515,
      "lower_time_ms": 3048.349251000218,
      "evaluation_times_ms": [
        0.108129,
        0.10832,
        0.108449,
        0.109281,
        0.109153
      ],
      "metadata": {},
      "peak_memory_mb": 54.263808
    }
  },
  "{\"x\":\"bf16[1,5120,5120,128]\",\"weights\":\"bf16[128,2,256]\",\"activation\":\"jax._src.nn.functions.sigmoid\",\"precision\":\"BF16_BF16_F32\",\"return_residuals\":false}": {
    "{\"block_m\":64,\"block_n\":128,\"block_k\":32,\"num_warps\":4,\"num_stages\":3}": {
      "compile_time_ms": 450.83444000010786,
      "lower_time_ms": 4466.1544549999235,
      "evaluation_times_ms": [
        14.251598,
        14.754058,
        14.956692,
        14.959349,
        14.951412
      ],
      "metadata": {},
      "peak_memory_mb": 20132.790272
    }
  },
  "{\"x\":\"bf16[1,5120,5120,128]\",\"weights\":\"bf16[128,2,512]\",\"activation\":\"jax._src.nn.functions.silu\",\"precision\":\"BF16_BF16_F32\",\"return_residuals\":false}": {
    "{\"block_m\":64,\"block_n\":64,\"block_k\":32,\"num_warps\":4,\"num_stages\":3}": {
      "compile_time_ms": 195.46662499988088,
      "lower_time_ms": 2640.090543000042,
      "evaluation_times_ms": [
        30.31496,
        31.562808,
        31.630778,
        31.593593,
        31.578169
      ],
      "metadata": {},
      "peak_memory_mb": 33554.694144
    }
  },
  "{\"x\":\"bf16[5120,5120,128]\",\"weights\":\"bf16[128,2,256]\",\"activation\":\"jax._src.nn.functions.sigmoid\",\"precision\":\"BF16_BF16_F32\",\"return_residuals\":false}": {
    "{\"block_m\":64,\"block_n\":128,\"block_k\":32,\"num_warps\":4,\"num_stages\":3}": {
      "compile_time_ms": 354.4038909999472,
      "lower_time_ms": 3131.475953000063,
      "evaluation_times_ms": [
        14.176951,
        14.6127,
        14.609276,
        14.915551,
        14.913631
      ],
      "metadata": {},
      "peak_memory_mb": 20132.790272
    }
  },
  "{\"x\":\"bf16[5120,5120,128]\",\"weights\":\"bf16[128,2,512]\",\"activation\":\"jax._src.nn.functions.silu\",\"precision\":\"BF16_BF16_F32\",\"return_residuals\":false}": {
    "{\"block_m\":128,\"block_n\":64,\"block_k\":32,\"num_warps\":8,\"num_stages\":4}": {
      "compile_time_ms": 228.1402460002937,
      "lower_time_ms": 2971.93788200002,
      "evaluation_times_ms": [
        31.228582,
        31.509539,
        31.432131,
        31.545731,
        32.700664
      ],
      "metadata": {},
      "peak_memory_mb": 33554.694144
    }
  },
  "{\"x\":\"f32[5120,5120,128]\",\"weights\":\"f32[128,2,256]\",\"activation\":\"jax._src.nn.functions.silu\",\"precision\":\"BF16_BF16_F32\",\"return_residuals\":false}": {},
  "{\"x\":\"bf16[5120,5120,64]\",\"weights\":\"bf16[64,2,128]\",\"activation\":\"jax._src.nn.functions.sigmoid\",\"precision\":\"BF16_BF16_F32\",\"return_residuals\":false}": {
    "{\"block_m\":64,\"block_n\":64,\"block_k\":32,\"num_warps\":4,\"num_stages\":3}": {
      "compile_time_ms": 185.301705999791,
      "lower_time_ms": 4451.972022999598,
      "evaluation_times_ms": [
        5.218932,
        5.226803,
        5.223827,
        5.470578,
        5.474129
      ],
      "metadata": {},
      "peak_memory_mb": 10066.362368
    }
  },
  "{\"x\":\"bf16[5120,5120,64]\",\"weights\":\"bf16[64,2,128]\",\"activation\":\"jax._src.nn.functions.silu\",\"precision\":\"BF16_BF16_F32\",\"return_residuals\":false}": {
    "{\"block_m\":64,\"block_n\":64,\"block_k\":32,\"num_warps\":4,\"num_stages\":3}": {
      "compile_time_ms": 192.3307339998246,
      "lower_time_ms": 3662.446215000273,
      "evaluation_times_ms": [
        5.847475,
        5.847827,
        5.836243,
        5.95573,
        5.984946
      ],
      "metadata": {},
      "peak_memory_mb": 10066.362368
    }
  },
  "{\"x\":\"f32[5,5120,32,128]\",\"weights\":\"f32[128,2,256]\",\"activation\":\"jax._src.nn.functions.silu\",\"precision\":\"BF16_BF16_F32\",\"return_residuals\":false}": {
    "{\"block_m\":128,\"block_n\":64,\"block_k\":32,\"num_warps\":4,\"num_stages\":4}": {
      "compile_time_ms": 353.683010000168,
      "lower_time_ms": 5280.521965999924,
      "evaluation_times_ms": [
        0.722747,
        0.723099,
        0.725595,
        0.724987,
        0.725851
      ],
      "metadata": {},
      "peak_memory_mb": 1258.553344
    }
  },
  "{\"x\":\"f32[5120,32,128]\",\"weights\":\"f32[128,2,256]\",\"activation\":\"jax._src.nn.functions.silu\",\"precision\":\"BF16_BF16_F32\",\"return_residuals\":false}": {
    "{\"block_m\":128,\"block_n\":64,\"block_k\":32,\"num_warps\":4,\"num_stages\":4}": {
      "compile_time_ms": 395.1210949999222,
      "lower_time_ms": 3995.0637810002263,
      "evaluation_times_ms": [
        0.151519,
        0.150783,
        0.151999,
        0.151679,
        0.151743
      ],
      "metadata": {},
      "peak_memory_mb": 251.920384
    }
  },
  "{\"x\":\"bf16[5,5120,384]\",\"weights\":\"bf16[384,2,1536]\",\"activation\":\"jax._src.nn.functions.silu\",\"precision\":\"BF16_BF16_F32\",\"return_residuals\":false}": {
    "{\"block_m\":128,\"block_n\":64,\"block_k\":32,\"num_warps\":4,\"num_stages\":4}": {
      "compile_time_ms": 857.3567840003307,
      "lower_time_ms": 2989.397853000355,
      "evaluation_times_ms": [
        0.162238,
        0.16147,
        0.160927,
        0.162367,
        0.162335
      ],
      "metadata": {},
      "peak_memory_mb": 100.663296
    }
  }
}
