{
  "{\"lhs\":\"bf16[262144,7168]\",\"rhs\":\"bf16[256,7168,2048]\",\"group_sizes\":{\"num_groups\":256,\"total_size\":262144},\"ragged_dot_dimension_numbers\":{\"dot_dimension_numbers\":[[[1],[1]],[[],[]]],\"lhs_ragged_dimensions\":[0],\"rhs_group_dimensions\":[0]},\"precision\":[\"DEFAULT\",\"DEFAULT\"],\"preferred_element_type\":null,\"return_residuals\":false,\"activation\":null}": {
    "{\"block_m\":128,\"block_n\":128,\"block_k\":64,\"split_k\":1,\"num_warps\":4,\"num_stages\":2}": {
      "compile_time_ms": 268.86103799998295,
      "lower_time_ms": 1551.6401369999926,
      "evaluation_times_ms": [
        17.626377,
        18.307562,
        18.590198,
        18.787409,
        18.824779
      ],
      "metadata": {},
      "peak_memory_mb": 11776.001953125
    }
  },
  "{\"lhs\":\"bf16[327680,2880]\",\"rhs\":\"bf16[128,2880,2880]\",\"group_sizes\":{\"num_groups\":128,\"total_size\":327680},\"ragged_dot_dimension_numbers\":{\"dot_dimension_numbers\":[[[1],[1]],[[],[]]],\"lhs_ragged_dimensions\":[0],\"rhs_group_dimensions\":[0]},\"precision\":[\"DEFAULT\",\"DEFAULT\"],\"preferred_element_type\":null,\"return_residuals\":false,\"activation\":null}": {
    "{\"block_m\":128,\"block_n\":128,\"block_k\":32,\"split_k\":1,\"num_warps\":4,\"num_stages\":4}": {
      "compile_time_ms": 249.02843599998903,
      "lower_time_ms": 1396.094766999994,
      "evaluation_times_ms": [
        13.03238,
        13.127307,
        13.854316,
        13.955323,
        14.045067
      ],
      "metadata": {},
      "peak_memory_mb": 5625.0009765625
    },
    "{\"block_m\":128,\"block_n\":128,\"block_k\":32,\"split_k\":1,\"num_warps\":4,\"num_stages\":3}": {
      "compile_time_ms": 239.6990839999944,
      "lower_time_ms": 1283.4955739999998,
      "evaluation_times_ms": [
        13.567231,
        13.847665,
        13.839664,
        14.505639,
        14.475714
      ],
      "metadata": {},
      "peak_memory_mb": 5625.0009765625
    }
  },
  "{\"lhs\":\"bf16[393216,2048]\",\"rhs\":\"bf16[128,2048,768]\",\"group_sizes\":{\"num_groups\":128,\"total_size\":393216},\"ragged_dot_dimension_numbers\":{\"dot_dimension_numbers\":[[[1],[1]],[[],[]]],\"lhs_ragged_dimensions\":[0],\"rhs_group_dimensions\":[0]},\"precision\":[\"DEFAULT\",\"DEFAULT\"],\"preferred_element_type\":null,\"return_residuals\":false,\"activation\":null}": {
    "{\"block_m\":128,\"block_n\":128,\"block_k\":32,\"split_k\":1,\"num_warps\":4,\"num_stages\":4}": {
      "compile_time_ms": 275.1871920000042,
      "lower_time_ms": 1073.8617610000033,
      "evaluation_times_ms": [
        3.413586,
        3.411057,
        3.410611,
        3.41349,
        3.410866
      ],
      "metadata": {},
      "peak_memory_mb": 2496.0009765625
    }
  },
  "{\"lhs\":\"bf16[393216,768]\",\"rhs\":\"bf16[128,768,2048]\",\"group_sizes\":{\"num_groups\":128,\"total_size\":393216},\"ragged_dot_dimension_numbers\":{\"dot_dimension_numbers\":[[[1],[1]],[[],[]]],\"lhs_ragged_dimensions\":[0],\"rhs_group_dimensions\":[0]},\"precision\":[\"DEFAULT\",\"DEFAULT\"],\"preferred_element_type\":null,\"return_residuals\":false,\"activation\":null}": {
    "{\"block_m\":128,\"block_n\":128,\"block_k\":32,\"split_k\":1,\"num_warps\":4,\"num_stages\":4}": {
      "compile_time_ms": 1868.433103000001,
      "lower_time_ms": 595.9201729999961,
      "evaluation_times_ms": [
        6.683078,
        6.685446,
        6.68215,
        6.681382,
        6.683878
      ],
      "metadata": {},
      "peak_memory_mb": 2496.0009765625
    }
  },
  "{\"lhs\":\"bf16[262144,7168]\",\"rhs\":\"bf16[262144,2048]\",\"group_sizes\":{\"num_groups\":262144,\"total_size\":262144},\"ragged_dot_dimension_numbers\":{\"dot_dimension_numbers\":[[[0],[0]],[[],[]]],\"lhs_ragged_dimensions\":[0],\"rhs_group_dimensions\":[]},\"precision\":[\"DEFAULT\",\"DEFAULT\"],\"preferred_element_type\":null,\"return_residuals\":false,\"activation\":null}": {
    "{\"block_m\":128,\"block_n\":128,\"block_k\":32,\"split_k\":1,\"num_warps\":4,\"num_stages\":4}": {
      "compile_time_ms": 321.8666409999855,
      "lower_time_ms": 1130.8663789999969,
      "evaluation_times_ms": [
        14.011352,
        14.068622,
        14.459719,
        15.897283,
        15.857675
      ],
      "metadata": {},
      "peak_memory_mb": 11776.001953125
    }
  },
  "{\"lhs\":\"bf16[327680,2880]\",\"rhs\":\"bf16[128,2880,2880]\",\"group_sizes\":{\"num_groups\":128,\"total_size\":327680},\"ragged_dot_dimension_numbers\":{\"dot_dimension_numbers\":[[[1],[2]],[[],[]]],\"lhs_ragged_dimensions\":[0],\"rhs_group_dimensions\":[0]},\"precision\":[\"DEFAULT\",\"DEFAULT\"],\"preferred_element_type\":null,\"return_residuals\":false,\"activation\":null}": {
    "{\"block_m\":128,\"block_n\":128,\"block_k\":32,\"split_k\":1,\"num_warps\":4,\"num_stages\":4}": {
      "compile_time_ms": 273.88758000000735,
      "lower_time_ms": 1202.8901770000289,
      "evaluation_times_ms": [
        14.604266,
        14.832315999999999,
        15.072558,
        15.708559,
        15.468221999999999
      ],
      "metadata": {},
      "peak_memory_mb": 7650.0009765625
    }
  },
  "{\"lhs\":\"bf16[327680,2880]\",\"rhs\":\"bf16[327680,2880]\",\"group_sizes\":{\"num_groups\":327680,\"total_size\":327680},\"ragged_dot_dimension_numbers\":{\"dot_dimension_numbers\":[[[0],[0]],[[],[]]],\"lhs_ragged_dimensions\":[0],\"rhs_group_dimensions\":[]},\"precision\":[\"DEFAULT\",\"DEFAULT\"],\"preferred_element_type\":null,\"return_residuals\":false,\"activation\":null}": {
    "{\"block_m\":128,\"block_n\":256,\"block_k\":64,\"split_k\":1,\"num_warps\":8,\"num_stages\":3}": {
      "compile_time_ms": 482.11693900000796,
      "lower_time_ms": 1022.9627310000069,
      "evaluation_times_ms": [
        9.129171,
        9.191143,
        9.199398,
        10.69531,
        11.071496
      ],
      "metadata": {},
      "peak_memory_mb": 5625.0009765625
    }
  },
  "{\"lhs\":\"bf16[393216,768]\",\"rhs\":\"bf16[128,2048,768]\",\"group_sizes\":{\"num_groups\":128,\"total_size\":393216},\"ragged_dot_dimension_numbers\":{\"dot_dimension_numbers\":[[[1],[2]],[[],[]]],\"lhs_ragged_dimensions\":[0],\"rhs_group_dimensions\":[0]},\"precision\":[\"DEFAULT\",\"DEFAULT\"],\"preferred_element_type\":null,\"return_residuals\":false,\"activation\":null}": {
    "{\"block_m\":128,\"block_n\":128,\"block_k\":32,\"split_k\":1,\"num_warps\":4,\"num_stages\":4}": {
      "compile_time_ms": 1809.4539739999789,
      "lower_time_ms": 1762.1339190000072,
      "evaluation_times_ms": [
        6.925175,
        6.919898,
        6.927223,
        6.918938000000001,
        6.921976
      ],
      "metadata": {},
      "peak_memory_mb": 2880.0009765625
    }
  },
  "{\"lhs\":\"bf16[393216,2048]\",\"rhs\":\"bf16[393216,768]\",\"group_sizes\":{\"num_groups\":393216,\"total_size\":393216},\"ragged_dot_dimension_numbers\":{\"dot_dimension_numbers\":[[[0],[0]],[[],[]]],\"lhs_ragged_dimensions\":[0],\"rhs_group_dimensions\":[]},\"precision\":[\"DEFAULT\",\"DEFAULT\"],\"preferred_element_type\":null,\"return_residuals\":false,\"activation\":null}": {
    "{\"block_m\":128,\"block_n\":256,\"block_k\":64,\"split_k\":1,\"num_warps\":8,\"num_stages\":4}": {
      "compile_time_ms": 507.4286969999946,
      "lower_time_ms": 1428.7265380000065,
      "evaluation_times_ms": [
        1.890921,
        1.888393,
        1.899531,
        1.895274,
        1.893961
      ],
      "metadata": {},
      "peak_memory_mb": 2496.0009765625
    }
  },
  "{\"lhs\":\"bf16[393216,2048]\",\"rhs\":\"bf16[128,768,2048]\",\"group_sizes\":{\"num_groups\":128,\"total_size\":393216},\"ragged_dot_dimension_numbers\":{\"dot_dimension_numbers\":[[[1],[2]],[[],[]]],\"lhs_ragged_dimensions\":[0],\"rhs_group_dimensions\":[0]},\"precision\":[\"DEFAULT\",\"DEFAULT\"],\"preferred_element_type\":null,\"return_residuals\":false,\"activation\":null}": {
    "{\"block_m\":128,\"block_n\":128,\"block_k\":32,\"split_k\":1,\"num_warps\":4,\"num_stages\":4}": {
      "compile_time_ms": 280.95185799998035,
      "lower_time_ms": 1730.4666599999905,
      "evaluation_times_ms": [
        3.6880189999999997,
        3.67381,
        3.68354,
        3.688725,
        3.67637
      ],
      "metadata": {},
      "peak_memory_mb": 2880.0009765625
    }
  },
  "{\"lhs\":\"bf16[393216,768]\",\"rhs\":\"bf16[393216,2048]\",\"group_sizes\":{\"num_groups\":393216,\"total_size\":393216},\"ragged_dot_dimension_numbers\":{\"dot_dimension_numbers\":[[[0],[0]],[[],[]]],\"lhs_ragged_dimensions\":[0],\"rhs_group_dimensions\":[]},\"precision\":[\"DEFAULT\",\"DEFAULT\"],\"preferred_element_type\":null,\"return_residuals\":false,\"activation\":null}": {
    "{\"block_m\":128,\"block_n\":256,\"block_k\":64,\"split_k\":1,\"num_warps\":8,\"num_stages\":4}": {
      "compile_time_ms": 495.96562299998936,
      "lower_time_ms": 1905.7896109999888,
      "evaluation_times_ms": [
        1.866922,
        1.863754,
        1.866377,
        1.868937,
        1.867593
      ],
      "metadata": {},
      "peak_memory_mb": 2496.0009765625
    }
  },
  "{\"lhs\":\"bf16[524288,1536]\",\"rhs\":\"bf16[128,4096,1536]\",\"group_sizes\":{\"num_groups\":128,\"total_size\":524288},\"ragged_dot_dimension_numbers\":{\"dot_dimension_numbers\":[[[1],[2]],[[],[]]],\"lhs_ragged_dimensions\":[0],\"rhs_group_dimensions\":[0]},\"precision\":[\"DEFAULT\",\"DEFAULT\"],\"preferred_element_type\":null,\"return_residuals\":false,\"activation\":null}": {
    "{\"block_m\":128,\"block_n\":128,\"block_k\":32,\"split_k\":1,\"num_warps\":4,\"num_stages\":4}": {
      "compile_time_ms": 263.8459359999956,
      "lower_time_ms": 1219.855951999989,
      "evaluation_times_ms": [
        21.786714999999997,
        21.776381,
        21.757952,
        21.866283000000003,
        21.862444999999997
      ],
      "metadata": {},
      "peak_memory_mb": 8704.0009765625
    }
  },
  "{\"lhs\":\"bf16[524288,4096]\",\"rhs\":\"bf16[524288,1536]\",\"group_sizes\":{\"num_groups\":524288,\"total_size\":524288},\"ragged_dot_dimension_numbers\":{\"dot_dimension_numbers\":[[[0],[0]],[[],[]]],\"lhs_ragged_dimensions\":[0],\"rhs_group_dimensions\":[]},\"precision\":[\"DEFAULT\",\"DEFAULT\"],\"preferred_element_type\":null,\"return_residuals\":false,\"activation\":null}": {
    "{\"block_m\":256,\"block_n\":128,\"block_k\":64,\"split_k\":1,\"num_warps\":8,\"num_stages\":3}": {
      "compile_time_ms": 389.7954029999937,
      "lower_time_ms": 1445.7037769999772,
      "evaluation_times_ms": [
        10.358072,
        10.385725,
        10.401312,
        10.960331,
        11.820207
      ],
      "metadata": {},
      "peak_memory_mb": 7168.0009765625
    }
  },
  "{\"lhs\":\"bf16[524288,4096]\",\"rhs\":\"bf16[128,1536,4096]\",\"group_sizes\":{\"num_groups\":128,\"total_size\":524288},\"ragged_dot_dimension_numbers\":{\"dot_dimension_numbers\":[[[1],[2]],[[],[]]],\"lhs_ragged_dimensions\":[0],\"rhs_group_dimensions\":[0]},\"precision\":[\"DEFAULT\",\"DEFAULT\"],\"preferred_element_type\":null,\"return_residuals\":false,\"activation\":null}": {
    "{\"block_m\":128,\"block_n\":256,\"block_k\":64,\"split_k\":1,\"num_warps\":8,\"num_stages\":4}": {
      "compile_time_ms": 527.6893859999632,
      "lower_time_ms": 1333.354087000032,
      "evaluation_times_ms": [
        17.640227,
        17.773279,
        17.681262,
        17.911901,
        18.194903
      ],
      "metadata": {},
      "peak_memory_mb": 8704.0009765625
    }
  },
  "{\"lhs\":\"bf16[524288,1536]\",\"rhs\":\"bf16[524288,4096]\",\"group_sizes\":{\"num_groups\":524288,\"total_size\":524288},\"ragged_dot_dimension_numbers\":{\"dot_dimension_numbers\":[[[0],[0]],[[],[]]],\"lhs_ragged_dimensions\":[0],\"rhs_group_dimensions\":[]},\"precision\":[\"DEFAULT\",\"DEFAULT\"],\"preferred_element_type\":null,\"return_residuals\":false,\"activation\":null}": {
    "{\"block_m\":128,\"block_n\":256,\"block_k\":64,\"split_k\":1,\"num_warps\":8,\"num_stages\":3}": {
      "compile_time_ms": 458.09888300001944,
      "lower_time_ms": 1185.4888870000195,
      "evaluation_times_ms": [
        9.431821,
        9.733608,
        9.807606,
        10.745068,
        10.721576
      ],
      "metadata": {},
      "peak_memory_mb": 7168.0009765625
    }
  },
  "{\"lhs\":\"bf16[262144,1536]\",\"rhs\":\"bf16[128,4096,1536]\",\"group_sizes\":{\"num_groups\":128,\"total_size\":262144},\"ragged_dot_dimension_numbers\":{\"dot_dimension_numbers\":[[[1],[2]],[[],[]]],\"lhs_ragged_dimensions\":[0],\"rhs_group_dimensions\":[0]},\"precision\":[\"DEFAULT\",\"DEFAULT\"],\"preferred_element_type\":null,\"return_residuals\":false,\"activation\":null}": {
    "{\"block_m\":128,\"block_n\":128,\"block_k\":32,\"split_k\":1,\"num_warps\":4,\"num_stages\":4}": {
      "compile_time_ms": 257.05937899999753,
      "lower_time_ms": 1505.0588019999936,
      "evaluation_times_ms": [
        11.461666,
        11.441222999999999,
        11.452452000000001,
        11.453508000000001,
        11.450661
      ],
      "metadata": {},
      "peak_memory_mb": 5888.0009765625
    }
  },
  "{\"lhs\":\"bf16[262144,4096]\",\"rhs\":\"bf16[262144,1536]\",\"group_sizes\":{\"num_groups\":262144,\"total_size\":262144},\"ragged_dot_dimension_numbers\":{\"dot_dimension_numbers\":[[[0],[0]],[[],[]]],\"lhs_ragged_dimensions\":[0],\"rhs_group_dimensions\":[]},\"precision\":[\"DEFAULT\",\"DEFAULT\"],\"preferred_element_type\":null,\"return_residuals\":false,\"activation\":null}": {
    "{\"block_m\":128,\"block_n\":256,\"block_k\":64,\"split_k\":1,\"num_warps\":8,\"num_stages\":3}": {
      "compile_time_ms": 485.1000959999965,
      "lower_time_ms": 1034.1665979999846,
      "evaluation_times_ms": [
        5.206661,
        5.20858,
        5.212228,
        5.272824,
        5.508429
      ],
      "metadata": {},
      "peak_memory_mb": 4352.0009765625
    }
  },
  "{\"lhs\":\"bf16[262144,4096]\",\"rhs\":\"bf16[128,1536,4096]\",\"group_sizes\":{\"num_groups\":128,\"total_size\":262144},\"ragged_dot_dimension_numbers\":{\"dot_dimension_numbers\":[[[1],[2]],[[],[]]],\"lhs_ragged_dimensions\":[0],\"rhs_group_dimensions\":[0]},\"precision\":[\"DEFAULT\",\"DEFAULT\"],\"preferred_element_type\":null,\"return_residuals\":false,\"activation\":null}": {
    "{\"block_m\":128,\"block_n\":128,\"block_k\":32,\"split_k\":1,\"num_warps\":4,\"num_stages\":4}": {
      "compile_time_ms": 274.70366700001136,
      "lower_time_ms": 1187.161857999996,
      "evaluation_times_ms": [
        8.268457,
        8.2929,
        8.327134000000001,
        8.47421,
        8.480160999999999
      ],
      "metadata": {},
      "peak_memory_mb": 5888.0009765625
    }
  },
  "{\"lhs\":\"bf16[262144,1536]\",\"rhs\":\"bf16[262144,4096]\",\"group_sizes\":{\"num_groups\":262144,\"total_size\":262144},\"ragged_dot_dimension_numbers\":{\"dot_dimension_numbers\":[[[0],[0]],[[],[]]],\"lhs_ragged_dimensions\":[0],\"rhs_group_dimensions\":[]},\"precision\":[\"DEFAULT\",\"DEFAULT\"],\"preferred_element_type\":null,\"return_residuals\":false,\"activation\":null}": {
    "{\"block_m\":128,\"block_n\":256,\"block_k\":64,\"split_k\":1,\"num_warps\":8,\"num_stages\":3}": {
      "compile_time_ms": 484.0927560000239,
      "lower_time_ms": 1259.2312069999991,
      "evaluation_times_ms": [
        5.127972,
        5.129094,
        5.146377,
        5.152521,
        5.718772
      ],
      "metadata": {},
      "peak_memory_mb": 4352.0009765625
    }
  },
  "{\"lhs\":\"bf16[131072,2048]\",\"rhs\":\"bf16[128,7168,2048]\",\"group_sizes\":{\"num_groups\":128,\"total_size\":131072},\"ragged_dot_dimension_numbers\":{\"dot_dimension_numbers\":[[[1],[2]],[[],[]]],\"lhs_ragged_dimensions\":[0],\"rhs_group_dimensions\":[0]},\"precision\":[\"DEFAULT\",\"DEFAULT\"],\"preferred_element_type\":null,\"return_residuals\":false,\"activation\":null}": {
    "{\"block_m\":64,\"block_n\":256,\"block_k\":32,\"split_k\":1,\"num_warps\":4,\"num_stages\":3}": {
      "compile_time_ms": 347.0497129999899,
      "lower_time_ms": 483.65860500001645,
      "evaluation_times_ms": [
        13.918945999999998,
        13.894589,
        13.908865,
        13.881563,
        13.878394
      ],
      "metadata": {},
      "peak_memory_mb": 9472.0009765625
    }
  },
  "{\"lhs\":\"bf16[131072,7168]\",\"rhs\":\"bf16[131072,2048]\",\"group_sizes\":{\"num_groups\":131072,\"total_size\":131072},\"ragged_dot_dimension_numbers\":{\"dot_dimension_numbers\":[[[0],[0]],[[],[]]],\"lhs_ragged_dimensions\":[0],\"rhs_group_dimensions\":[]},\"precision\":[\"DEFAULT\",\"DEFAULT\"],\"preferred_element_type\":null,\"return_residuals\":false,\"activation\":null}": {
    "{\"block_m\":128,\"block_n\":128,\"block_k\":32,\"split_k\":1,\"num_warps\":4,\"num_stages\":4}": {
      "compile_time_ms": 317.0196869999984,
      "lower_time_ms": 1413.8906690000113,
      "evaluation_times_ms": [
        7.864152,
        7.846004,
        7.939941,
        8.706036,
        8.8974
      ],
      "metadata": {},
      "peak_memory_mb": 9472.001953125
    }
  },
  "{\"lhs\":\"bf16[131072,768]\",\"rhs\":\"bf16[128,2048,768]\",\"group_sizes\":{\"num_groups\":128,\"total_size\":131072},\"ragged_dot_dimension_numbers\":{\"dot_dimension_numbers\":[[[1],[2]],[[],[]]],\"lhs_ragged_dimensions\":[0],\"rhs_group_dimensions\":[0]},\"precision\":[\"DEFAULT\",\"DEFAULT\"],\"preferred_element_type\":null,\"return_residuals\":false,\"activation\":null}": {
    "{\"block_m\":128,\"block_n\":128,\"block_k\":32,\"split_k\":1,\"num_warps\":4,\"num_stages\":4}": {
      "compile_time_ms": 1723.475124999993,
      "lower_time_ms": 1334.6465309999899,
      "evaluation_times_ms": [
        2.5051669999999997,
        2.503247,
        2.511056,
        2.503472,
        2.5030550000000003
      ],
      "metadata": {},
      "peak_memory_mb": 1472.0009765625
    }
  },
  "{\"lhs\":\"bf16[131072,2048]\",\"rhs\":\"bf16[131072,768]\",\"group_sizes\":{\"num_groups\":131072,\"total_size\":131072},\"ragged_dot_dimension_numbers\":{\"dot_dimension_numbers\":[[[0],[0]],[[],[]]],\"lhs_ragged_dimensions\":[0],\"rhs_group_dimensions\":[]},\"precision\":[\"DEFAULT\",\"DEFAULT\"],\"preferred_element_type\":null,\"return_residuals\":false,\"activation\":null}": {
    "{\"block_m\":128,\"block_n\":128,\"block_k\":32,\"split_k\":1,\"num_warps\":4,\"num_stages\":3}": {
      "compile_time_ms": 303.60197900000685,
      "lower_time_ms": 1695.9676100000252,
      "evaluation_times_ms": [
        0.747765,
        0.749174,
        0.751669,
        0.75154,
        0.749876
      ],
      "metadata": {},
      "peak_memory_mb": 1088.0009765625
    }
  },
  "{\"lhs\":\"bf16[131072,1536]\",\"rhs\":\"bf16[128,4096,1536]\",\"group_sizes\":{\"num_groups\":128,\"total_size\":131072},\"ragged_dot_dimension_numbers\":{\"dot_dimension_numbers\":[[[1],[2]],[[],[]]],\"lhs_ragged_dimensions\":[0],\"rhs_group_dimensions\":[0]},\"precision\":[\"DEFAULT\",\"DEFAULT\"],\"preferred_element_type\":null,\"return_residuals\":false,\"activation\":null}": {
    "{\"block_m\":128,\"block_n\":128,\"block_k\":32,\"split_k\":1,\"num_warps\":4,\"num_stages\":4}": {
      "compile_time_ms": 272.73136699994893,
      "lower_time_ms": 1522.8755100000058,
      "evaluation_times_ms": [
        6.35637,
        6.362896,
        6.364495,
        6.375373,
        6.36955
      ],
      "metadata": {},
      "peak_memory_mb": 4480.0009765625
    }
  },
  "{\"lhs\":\"bf16[524288,4096]\",\"rhs\":\"bf16[128,4096,1536]\",\"group_sizes\":{\"num_groups\":128,\"total_size\":524288},\"ragged_dot_dimension_numbers\":{\"dot_dimension_numbers\":[[[1],[1]],[[],[]]],\"lhs_ragged_dimensions\":[0],\"rhs_group_dimensions\":[0]},\"precision\":[\"DEFAULT\",\"DEFAULT\"],\"preferred_element_type\":null,\"return_residuals\":false,\"activation\":null}": {
    "{\"block_m\":128,\"block_n\":256,\"block_k\":64,\"split_k\":1,\"num_warps\":8,\"num_stages\":4}": {
      "compile_time_ms": 308.6797119999858,
      "lower_time_ms": 1806.5392719999807,
      "evaluation_times_ms": [
        16.946808,
        16.692617,
        16.797557,
        16.797045,
        16.859753
      ],
      "metadata": {},
      "peak_memory_mb": 7168.0009765625
    }
  },
  "{\"lhs\":\"bf16[524288,1536]\",\"rhs\":\"bf16[128,1536,4096]\",\"group_sizes\":{\"num_groups\":128,\"total_size\":524288},\"ragged_dot_dimension_numbers\":{\"dot_dimension_numbers\":[[[1],[1]],[[],[]]],\"lhs_ragged_dimensions\":[0],\"rhs_group_dimensions\":[0]},\"precision\":[\"DEFAULT\",\"DEFAULT\"],\"preferred_element_type\":null,\"return_residuals\":false,\"activation\":null}": {
    "{\"block_m\":128,\"block_n\":128,\"block_k\":32,\"split_k\":1,\"num_warps\":4,\"num_stages\":4}": {
      "compile_time_ms": 255.05175400002145,
      "lower_time_ms": 1474.5194300000435,
      "evaluation_times_ms": [
        20.71291,
        20.685939,
        20.674263,
        20.654363,
        20.648316
      ],
      "metadata": {},
      "peak_memory_mb": 7168.0009765625
    }
  },
  "{\"lhs\":\"bf16[131072,4096]\",\"rhs\":\"bf16[131072,1536]\",\"group_sizes\":{\"num_groups\":131072,\"total_size\":131072},\"ragged_dot_dimension_numbers\":{\"dot_dimension_numbers\":[[[0],[0]],[[],[]]],\"lhs_ragged_dimensions\":[0],\"rhs_group_dimensions\":[]},\"precision\":[\"DEFAULT\",\"DEFAULT\"],\"preferred_element_type\":null,\"return_residuals\":false,\"activation\":null}": {
    "{\"block_m\":128,\"block_n\":256,\"block_k\":64,\"split_k\":1,\"num_warps\":8,\"num_stages\":3}": {
      "compile_time_ms": 554.7130239999944,
      "lower_time_ms": 980.2080709999927,
      "evaluation_times_ms": [
        2.886733,
        2.886188,
        2.887436,
        2.891534,
        2.892398
      ],
      "metadata": {},
      "peak_memory_mb": 2944.0009765625
    }
  },
  "{\"lhs\":\"bf16[131072,4096]\",\"rhs\":\"bf16[128,1536,4096]\",\"group_sizes\":{\"num_groups\":128,\"total_size\":131072},\"ragged_dot_dimension_numbers\":{\"dot_dimension_numbers\":[[[1],[2]],[[],[]]],\"lhs_ragged_dimensions\":[0],\"rhs_group_dimensions\":[0]},\"precision\":[\"DEFAULT\",\"DEFAULT\"],\"preferred_element_type\":null,\"return_residuals\":false,\"activation\":null}": {
    "{\"block_m\":128,\"block_n\":128,\"block_k\":32,\"split_k\":1,\"num_warps\":4,\"num_stages\":4}": {
      "compile_time_ms": 284.80720100000667,
      "lower_time_ms": 1297.1006519999833,
      "evaluation_times_ms": [
        4.706422,
        4.688211,
        4.6759200000000005,
        4.683474,
        4.692628
      ],
      "metadata": {},
      "peak_memory_mb": 4480.0009765625
    }
  },
  "{\"lhs\":\"bf16[131072,1536]\",\"rhs\":\"bf16[131072,4096]\",\"group_sizes\":{\"num_groups\":131072,\"total_size\":131072},\"ragged_dot_dimension_numbers\":{\"dot_dimension_numbers\":[[[0],[0]],[[],[]]],\"lhs_ragged_dimensions\":[0],\"rhs_group_dimensions\":[]},\"precision\":[\"DEFAULT\",\"DEFAULT\"],\"preferred_element_type\":null,\"return_residuals\":false,\"activation\":null}": {
    "{\"block_m\":128,\"block_n\":128,\"block_k\":32,\"split_k\":1,\"num_warps\":4,\"num_stages\":3}": {
      "compile_time_ms": 378.6721650000118,
      "lower_time_ms": 1037.4084249999953,
      "evaluation_times_ms": [
        2.910415,
        2.911919,
        2.9164,
        2.922352,
        2.919632
      ],
      "metadata": {},
      "peak_memory_mb": 2944.0009765625
    }
  },
  "{\"lhs\":\"bf16[131072,2048]\",\"rhs\":\"bf16[256,7168,2048]\",\"group_sizes\":{\"num_groups\":256,\"total_size\":131072},\"ragged_dot_dimension_numbers\":{\"dot_dimension_numbers\":[[[1],[2]],[[],[]]],\"lhs_ragged_dimensions\":[0],\"rhs_group_dimensions\":[0]},\"precision\":[\"DEFAULT\",\"DEFAULT\"],\"preferred_element_type\":null,\"return_residuals\":false,\"activation\":null}": {
    "{\"block_m\":128,\"block_n\":128,\"block_k\":32,\"split_k\":1,\"num_warps\":4,\"num_stages\":4}": {
      "compile_time_ms": 312.384695999981,
      "lower_time_ms": 1035.0072880000027,
      "evaluation_times_ms": [
        20.685368,
        20.680633,
        20.674231,
        20.676567,
        20.639504
      ],
      "metadata": {},
      "peak_memory_mb": 16640.001953125
    }
  },
  "{\"lhs\":\"bf16[65536,2048]\",\"rhs\":\"bf16[256,7168,2048]\",\"group_sizes\":{\"num_groups\":256,\"total_size\":65536},\"ragged_dot_dimension_numbers\":{\"dot_dimension_numbers\":[[[1],[2]],[[],[]]],\"lhs_ragged_dimensions\":[0],\"rhs_group_dimensions\":[0]},\"precision\":[\"DEFAULT\",\"DEFAULT\"],\"preferred_element_type\":null,\"return_residuals\":false,\"activation\":null}": {
    "{\"block_m\":128,\"block_n\":128,\"block_k\":32,\"split_k\":1,\"num_warps\":4,\"num_stages\":4}": {
      "compile_time_ms": 269.2719009999962,
      "lower_time_ms": 1175.9576979999906,
      "evaluation_times_ms": [
        13.231169999999999,
        13.223361999999998,
        13.220897,
        13.235908,
        13.234211
      ],
      "metadata": {},
      "peak_memory_mb": 15488.001953125
    }
  },
  "{\"lhs\":\"bf16[65536,7168]\",\"rhs\":\"bf16[65536,2048]\",\"group_sizes\":{\"num_groups\":65536,\"total_size\":65536},\"ragged_dot_dimension_numbers\":{\"dot_dimension_numbers\":[[[0],[0]],[[],[]]],\"lhs_ragged_dimensions\":[0],\"rhs_group_dimensions\":[]},\"precision\":[\"DEFAULT\",\"DEFAULT\"],\"preferred_element_type\":null,\"return_residuals\":false,\"activation\":null}": {
    "{\"block_m\":128,\"block_n\":128,\"block_k\":32,\"split_k\":1,\"num_warps\":4,\"num_stages\":4}": {
      "compile_time_ms": 336.9466240000065,
      "lower_time_ms": 1420.4149659999814,
      "evaluation_times_ms": [
        5.204077,
        5.196591,
        5.205261,
        5.204557,
        5.195342
      ],
      "metadata": {},
      "peak_memory_mb": 8320.001953125
    }
  },
  "{\"lhs\":\"bf16[131072,512]\",\"rhs\":\"bf16[256,7168,512]\",\"group_sizes\":{\"num_groups\":256,\"total_size\":131072},\"ragged_dot_dimension_numbers\":{\"dot_dimension_numbers\":[[[1],[2]],[[],[]]],\"lhs_ragged_dimensions\":[0],\"rhs_group_dimensions\":[0]},\"precision\":[\"DEFAULT\",\"DEFAULT\"],\"preferred_element_type\":null,\"return_residuals\":false,\"activation\":null}": {
    "{\"block_m\":128,\"block_n\":128,\"block_k\":32,\"split_k\":1,\"num_warps\":4,\"num_stages\":4}": {
      "compile_time_ms": 1009.3072829999983,
      "lower_time_ms": 1010.4309179999973,
      "evaluation_times_ms": [
        14.264503000000001,
        14.269111,
        14.267479,
        14.27116,
        14.26988
      ],
      "metadata": {},
      "peak_memory_mb": 5504.001953125
    }
  },
  "{\"lhs\":\"bf16[262144,4096]\",\"rhs\":\"bf16[128,4096,1536]\",\"group_sizes\":{\"num_groups\":128,\"total_size\":262144},\"ragged_dot_dimension_numbers\":{\"dot_dimension_numbers\":[[[1],[1]],[[],[]]],\"lhs_ragged_dimensions\":[0],\"rhs_group_dimensions\":[0]},\"precision\":[\"DEFAULT\",\"DEFAULT\"],\"preferred_element_type\":null,\"return_residuals\":false,\"activation\":null}": {
    "{\"block_m\":128,\"block_n\":128,\"block_k\":32,\"split_k\":1,\"num_warps\":4,\"num_stages\":4}": {
      "compile_time_ms": 275.79823499999634,
      "lower_time_ms": 1352.7632460000234,
      "evaluation_times_ms": [
        7.178769,
        7.193873,
        7.413821,
        7.721356,
        7.850739
      ],
      "metadata": {},
      "peak_memory_mb": 4352.0009765625
    }
  },
  "{\"lhs\":\"bf16[262144,1536]\",\"rhs\":\"bf16[128,1536,4096]\",\"group_sizes\":{\"num_groups\":128,\"total_size\":262144},\"ragged_dot_dimension_numbers\":{\"dot_dimension_numbers\":[[[1],[1]],[[],[]]],\"lhs_ragged_dimensions\":[0],\"rhs_group_dimensions\":[0]},\"precision\":[\"DEFAULT\",\"DEFAULT\"],\"preferred_element_type\":null,\"return_residuals\":false,\"activation\":null}": {
    "{\"block_m\":128,\"block_n\":128,\"block_k\":32,\"split_k\":1,\"num_warps\":4,\"num_stages\":4}": {
      "compile_time_ms": 251.33759300000236,
      "lower_time_ms": 1226.0117510000014,
      "evaluation_times_ms": [
        10.479525,
        10.45264,
        10.396566,
        10.379443,
        10.340524
      ],
      "metadata": {},
      "peak_memory_mb": 4352.0009765625
    }
  },
  "{\"lhs\":\"bf16[131072,7168]\",\"rhs\":\"bf16[128,7168,2048]\",\"group_sizes\":{\"num_groups\":128,\"total_size\":131072},\"ragged_dot_dimension_numbers\":{\"dot_dimension_numbers\":[[[1],[1]],[[],[]]],\"lhs_ragged_dimensions\":[0],\"rhs_group_dimensions\":[0]},\"precision\":[\"DEFAULT\",\"DEFAULT\"],\"preferred_element_type\":null,\"return_residuals\":false,\"activation\":null}": {
    "{\"block_m\":128,\"block_n\":256,\"block_k\":32,\"split_k\":1,\"num_warps\":8,\"num_stages\":6}": {
      "compile_time_ms": 284.7091459999831,
      "lower_time_ms": 1026.674992000011,
      "evaluation_times_ms": [
        7.810857,
        7.831118,
        7.850001,
        8.476171,
        8.527252
      ],
      "metadata": {},
      "peak_memory_mb": 5888.0009765625
    }
  },
  "{\"lhs\":\"bf16[131072,2048]\",\"rhs\":\"bf16[128,2048,768]\",\"group_sizes\":{\"num_groups\":128,\"total_size\":131072},\"ragged_dot_dimension_numbers\":{\"dot_dimension_numbers\":[[[1],[1]],[[],[]]],\"lhs_ragged_dimensions\":[0],\"rhs_group_dimensions\":[0]},\"precision\":[\"DEFAULT\",\"DEFAULT\"],\"preferred_element_type\":null,\"return_residuals\":false,\"activation\":null}": {
    "{\"block_m\":128,\"block_n\":128,\"block_k\":32,\"split_k\":1,\"num_warps\":4,\"num_stages\":4}": {
      "compile_time_ms": 278.818541999982,
      "lower_time_ms": 1304.1277469999955,
      "evaluation_times_ms": [
        1.141127,
        1.146023,
        1.144104,
        1.147688,
        1.144264
      ],
      "metadata": {},
      "peak_memory_mb": 1088.0009765625
    }
  },
  "{\"lhs\":\"bf16[131072,4096]\",\"rhs\":\"bf16[128,4096,1536]\",\"group_sizes\":{\"num_groups\":128,\"total_size\":131072},\"ragged_dot_dimension_numbers\":{\"dot_dimension_numbers\":[[[1],[1]],[[],[]]],\"lhs_ragged_dimensions\":[0],\"rhs_group_dimensions\":[0]},\"precision\":[\"DEFAULT\",\"DEFAULT\"],\"preferred_element_type\":null,\"return_residuals\":false,\"activation\":null}": {
    "{\"block_m\":128,\"block_n\":128,\"block_k\":32,\"split_k\":1,\"num_warps\":4,\"num_stages\":4}": {
      "compile_time_ms": 248.49372299999573,
      "lower_time_ms": 1480.8676759999742,
      "evaluation_times_ms": [
        3.591839,
        3.595295,
        3.609538,
        3.637959,
        3.641737
      ],
      "metadata": {},
      "peak_memory_mb": 2944.0009765625
    }
  },
  "{\"lhs\":\"bf16[131072,1536]\",\"rhs\":\"bf16[128,1536,4096]\",\"group_sizes\":{\"num_groups\":128,\"total_size\":131072},\"ragged_dot_dimension_numbers\":{\"dot_dimension_numbers\":[[[1],[1]],[[],[]]],\"lhs_ragged_dimensions\":[0],\"rhs_group_dimensions\":[0]},\"precision\":[\"DEFAULT\",\"DEFAULT\"],\"preferred_element_type\":null,\"return_residuals\":false,\"activation\":null}": {
    "{\"block_m\":128,\"block_n\":128,\"block_k\":32,\"split_k\":1,\"num_warps\":4,\"num_stages\":4}": {
      "compile_time_ms": 257.2752009999988,
      "lower_time_ms": 1071.5631749999943,
      "evaluation_times_ms": [
        5.279897,
        5.275096,
        5.269784,
        5.272664,
        5.274456
      ],
      "metadata": {},
      "peak_memory_mb": 2944.0009765625
    }
  },
  "{\"lhs\":\"bf16[131072,7168]\",\"rhs\":\"bf16[256,7168,2048]\",\"group_sizes\":{\"num_groups\":256,\"total_size\":131072},\"ragged_dot_dimension_numbers\":{\"dot_dimension_numbers\":[[[1],[1]],[[],[]]],\"lhs_ragged_dimensions\":[0],\"rhs_group_dimensions\":[0]},\"precision\":[\"DEFAULT\",\"DEFAULT\"],\"preferred_element_type\":null,\"return_residuals\":false,\"activation\":null}": {
    "{\"block_m\":128,\"block_n\":128,\"block_k\":32,\"split_k\":1,\"num_warps\":4,\"num_stages\":4}": {
      "compile_time_ms": 252.3725949999971,
      "lower_time_ms": 1082.781223000012,
      "evaluation_times_ms": [
        8.957152,
        9.035728,
        9.176075,
        9.555734,
        9.624291
      ],
      "metadata": {},
      "peak_memory_mb": 9472.001953125
    }
  },
  "{\"lhs\":\"bf16[65536,7168]\",\"rhs\":\"bf16[256,7168,2048]\",\"group_sizes\":{\"num_groups\":256,\"total_size\":65536},\"ragged_dot_dimension_numbers\":{\"dot_dimension_numbers\":[[[1],[1]],[[],[]]],\"lhs_ragged_dimensions\":[0],\"rhs_group_dimensions\":[0]},\"precision\":[\"DEFAULT\",\"DEFAULT\"],\"preferred_element_type\":null,\"return_residuals\":false,\"activation\":null}": {
    "{\"block_m\":128,\"block_n\":128,\"block_k\":32,\"split_k\":1,\"num_warps\":4,\"num_stages\":4}": {
      "compile_time_ms": 253.22773700000312,
      "lower_time_ms": 1164.0255339999896,
      "evaluation_times_ms": [
        4.949489,
        4.927925,
        4.935187,
        5.075706,
        5.081368
      ],
      "metadata": {},
      "peak_memory_mb": 8320.001953125
    }
  },
  "{\"lhs\":\"bf16[131072,7168]\",\"rhs\":\"bf16[256,7168,512]\",\"group_sizes\":{\"num_groups\":256,\"total_size\":131072},\"ragged_dot_dimension_numbers\":{\"dot_dimension_numbers\":[[[1],[1]],[[],[]]],\"lhs_ragged_dimensions\":[0],\"rhs_group_dimensions\":[0]},\"precision\":[\"DEFAULT\",\"DEFAULT\"],\"preferred_element_type\":null,\"return_residuals\":false,\"activation\":null}": {
    "{\"block_m\":128,\"block_n\":128,\"block_k\":32,\"split_k\":1,\"num_warps\":4,\"num_stages\":4}": {
      "compile_time_ms": 249.93220599998267,
      "lower_time_ms": 1681.010786999991,
      "evaluation_times_ms": [
        2.387324,
        2.392733,
        2.404928,
        2.397342,
        2.409537
      ],
      "metadata": {},
      "peak_memory_mb": 3712.001953125
    }
  },
  "{\"lhs\":\"bf16[131072,512]\",\"rhs\":\"bf16[256,512,7168]\",\"group_sizes\":{\"num_groups\":256,\"total_size\":131072},\"ragged_dot_dimension_numbers\":{\"dot_dimension_numbers\":[[[1],[1]],[[],[]]],\"lhs_ragged_dimensions\":[0],\"rhs_group_dimensions\":[0]},\"precision\":[\"DEFAULT\",\"DEFAULT\"],\"preferred_element_type\":null,\"return_residuals\":false,\"activation\":null}": {
    "{\"block_m\":128,\"block_n\":128,\"block_k\":32,\"split_k\":1,\"num_warps\":4,\"num_stages\":4}": {
      "compile_time_ms": 1035.2236340000047,
      "lower_time_ms": 773.8429999999994,
      "evaluation_times_ms": [
        12.96573,
        12.962337,
        12.966658,
        12.966081,
        12.964449
      ],
      "metadata": {},
      "peak_memory_mb": 3712.001953125
    }
  },
  "{\"lhs\":\"bf16[4096,4096]\",\"rhs\":\"bf16[8,4096,4096]\",\"group_sizes\":[4096,0,0,0,0,0,0,0],\"ragged_dot_dimension_numbers\":{\"dot_dimension_numbers\":[[[1],[1]],[[],[]]],\"lhs_ragged_dimensions\":[0],\"rhs_group_dimensions\":[0]},\"precision\":[\"DEFAULT\",\"DEFAULT\"],\"preferred_element_type\":null,\"return_residuals\":false,\"activation\":null}": {
    "{\"block_m\":128,\"block_n\":256,\"block_k\":64,\"split_k\":1,\"num_warps\":8,\"num_stages\":3}": {
      "compile_time_ms": 413.073919999988,
      "lower_time_ms": 1128.4077699999955,
      "evaluation_times_ms": [
        0.20746,
        0.20717100000000002,
        0.20845100000000003,
        0.20800300000000002,
        0.208355
      ],
      "metadata": {},
      "peak_memory_mb": 320.00006103515625
    }
  },
  "{\"lhs\":\"bf16[8,4096]\",\"rhs\":\"bf16[8,4096,4096]\",\"group_sizes\":[1,1,1,1,1,1,1,1],\"ragged_dot_dimension_numbers\":{\"dot_dimension_numbers\":[[[1],[1]],[[],[]]],\"lhs_ragged_dimensions\":[0],\"rhs_group_dimensions\":[0]},\"precision\":[\"DEFAULT\",\"DEFAULT\"],\"preferred_element_type\":null,\"return_residuals\":false,\"activation\":null}": {
    "{\"block_m\":8,\"block_n\":128,\"block_k\":32,\"split_k\":1,\"num_warps\":4,\"num_stages\":4}": {
      "compile_time_ms": 101.3548720000017,
      "lower_time_ms": 1484.0757050000093,
      "evaluation_times_ms": [
        0.088208,
        0.087921,
        0.08743899999999999,
        0.087504,
        0.08654300000000001
      ],
      "metadata": {},
      "peak_memory_mb": 256.12506103515625
    }
  },
  "{\"lhs\":\"bf16[8192,4096]\",\"rhs\":\"bf16[8,4096,14336]\",\"group_sizes\":{\"num_groups\":8,\"total_size\":8192},\"ragged_dot_dimension_numbers\":{\"dot_dimension_numbers\":[[[1],[1]],[[],[]]],\"lhs_ragged_dimensions\":[0],\"rhs_group_dimensions\":[0]},\"precision\":[\"DEFAULT\",\"DEFAULT\"],\"preferred_element_type\":null,\"return_residuals\":false,\"activation\":null}": {
    "{\"block_m\":128,\"block_n\":256,\"block_k\":64,\"split_k\":1,\"num_warps\":8,\"num_stages\":4}": {
      "compile_time_ms": 345.07894099999703,
      "lower_time_ms": 1231.6370050000103,
      "evaluation_times_ms": [
        1.42021,
        1.422066,
        1.4269290000000001,
        1.420786,
        1.42501
      ],
      "metadata": {},
      "peak_memory_mb": 1184.0000610351562
    }
  },
  "{\"lhs\":\"bf16[262144,2048]\",\"rhs\":\"bf16[256,7168,2048]\",\"group_sizes\":{\"num_groups\":256,\"total_size\":262144},\"ragged_dot_dimension_numbers\":{\"dot_dimension_numbers\":[[[1],[2]],[[],[]]],\"lhs_ragged_dimensions\":[0],\"rhs_group_dimensions\":[0]},\"precision\":[\"DEFAULT\",\"DEFAULT\"],\"preferred_element_type\":null,\"return_residuals\":false,\"activation\":null}": {
    "{\"block_m\":128,\"block_n\":128,\"block_k\":32,\"split_k\":1,\"num_warps\":8,\"num_stages\":6}": {
      "compile_time_ms": 60526.53730100002,
      "lower_time_ms": 1052.5553870000408,
      "evaluation_times_ms": [
        51.306553,
        51.330387,
        51.38084,
        51.292315,
        51.357901
      ],
      "metadata": {},
      "peak_memory_mb": 18944.001953125
    },
    "{\"block_m\":128,\"block_n\":128,\"block_k\":32,\"split_k\":1,\"num_warps\":4,\"num_stages\":4}": {
      "compile_time_ms": 289.95196600001805,
      "lower_time_ms": 1229.3966690000104,
      "evaluation_times_ms": [
        35.557013,
        35.432894,
        35.43763,
        35.441119,
        35.444449
      ],
      "metadata": {},
      "peak_memory_mb": 18944.001953125
    }
  }
}