{
  "{\"q\":\"bf16[384,384,4,32]\",\"k\":\"bf16[384,384,4,32]\",\"v\":\"bf16[384,384,4,32]\",\"precision\":[[\"DEFAULT\",\"DEFAULT\"],[\"DEFAULT\",\"DEFAULT\"]],\"logits_dtype\":\"float32\",\"logits_scale\":0.17677669529663687,\"bias\":\"bf16[1,4,384,384]\",\"logits_soft_cap\":null,\"mask\":{\"bool_mask\":\"bool[384,1,1,384]\",\"q_start\":null,\"q_end\":null,\"k_start\":null,\"k_end\":null,\"is_causal\":false},\"dropout_mask\":null,\"dropout_rate\":0.0,\"paging_info\":null,\"q_indices\":null,\"k_indices\":null,\"normalize_output\":true,\"return_residuals\":false}": {
    "{\"block_q\":64,\"block_k\":64,\"num_stages\":4,\"num_warps\":4,\"block_d\":null,\"block_d_out\":null,\"split_k\":1,\"pack_mask\":false}": {
      "compile_time_ms": 208.7974619999784,
      "lower_time_ms": 7034.696833000026,
      "evaluation_times_ms": [
        0.25742,
        0.257835,
        0.257291,
        0.257739,
        0.257963
      ],
      "metadata": {},
      "peak_memory_mb": 152.322048
    }
  },
  "{\"q\":\"bf16[384,384,4,32]\",\"k\":\"bf16[384,384,4,32]\",\"v\":\"bf16[384,384,4,32]\",\"precision\":[[\"DEFAULT\",\"DEFAULT\"],[\"DEFAULT\",\"DEFAULT\"]],\"logits_dtype\":\"float32\",\"logits_scale\":0.17677669529663687,\"bias\":\"bf16[1,4,384,384]\",\"logits_soft_cap\":null,\"mask\":{\"bool_mask\":\"bool[384,1,1,384]\",\"q_start\":null,\"q_end\":null,\"k_start\":null,\"k_end\":null,\"is_causal\":false},\"dropout_mask\":null,\"dropout_rate\":0.0,\"paging_info\":null,\"q_indices\":null,\"k_indices\":null,\"normalize_output\":true,\"return_residuals\":true}": {
    "{\"block_q\":64,\"block_k\":64,\"num_stages\":4,\"num_warps\":4,\"block_d\":null,\"block_d_out\":null,\"split_k\":1,\"pack_mask\":false}": {
      "compile_time_ms": 203.84384900000896,
      "lower_time_ms": 7538.003360999994,
      "evaluation_times_ms": [
        0.257843,
        0.258387,
        0.258195,
        0.259347,
        0.259091
      ],
      "metadata": {},
      "peak_memory_mb": 157.040664
    }
  },
  "{\"q\":\"bf16[384,384,4,64]\",\"k\":\"bf16[384,384,4,64]\",\"v\":\"bf16[384,384,4,64]\",\"precision\":[[\"DEFAULT\",\"DEFAULT\"],[\"DEFAULT\",\"DEFAULT\"]],\"logits_dtype\":\"float32\",\"logits_scale\":0.125,\"bias\":\"bf16[1,4,384,384]\",\"logits_soft_cap\":null,\"mask\":{\"bool_mask\":\"bool[384,1,1,384]\",\"q_start\":null,\"q_end\":null,\"k_start\":null,\"k_end\":null,\"is_causal\":false},\"dropout_mask\":null,\"dropout_rate\":0.0,\"paging_info\":null,\"q_indices\":null,\"k_indices\":null,\"normalize_output\":true,\"return_residuals\":false}": {
    "{\"block_q\":64,\"block_k\":64,\"num_stages\":3,\"num_warps\":4,\"block_d\":null,\"block_d_out\":null,\"split_k\":1,\"pack_mask\":false}": {
      "compile_time_ms": 257.4301740000351,
      "lower_time_ms": 4142.684646000021,
      "evaluation_times_ms": [
        0.328157,
        0.328092,
        0.327932,
        0.328284,
        0.3279
      ],
      "metadata": {},
      "peak_memory_mb": 303.316992
    }
  },
  "{\"q\":\"bf16[384,384,4,64]\",\"k\":\"bf16[384,384,4,64]\",\"v\":\"bf16[384,384,4,64]\",\"precision\":[[\"DEFAULT\",\"DEFAULT\"],[\"DEFAULT\",\"DEFAULT\"]],\"logits_dtype\":\"float32\",\"logits_scale\":0.125,\"bias\":\"bf16[1,4,384,384]\",\"logits_soft_cap\":null,\"mask\":{\"bool_mask\":\"bool[384,1,1,384]\",\"q_start\":null,\"q_end\":null,\"k_start\":null,\"k_end\":null,\"is_causal\":false},\"dropout_mask\":null,\"dropout_rate\":0.0,\"paging_info\":null,\"q_indices\":null,\"k_indices\":null,\"normalize_output\":true,\"return_residuals\":true}": {
    "{\"block_q\":64,\"block_k\":64,\"num_stages\":3,\"num_warps\":4,\"block_d\":null,\"block_d_out\":null,\"split_k\":1,\"pack_mask\":false}": {
      "compile_time_ms": 258.809991000021,
      "lower_time_ms": 9600.742341000001,
      "evaluation_times_ms": [
        0.329694,
        0.329566,
        0.330271,
        0.328862,
        0.329887
      ],
      "metadata": {},
      "peak_memory_mb": 308.035608
    }
  },
  "{\"q\":\"bf16[768,768,4,64]\",\"k\":\"bf16[768,768,4,64]\",\"v\":\"bf16[768,768,4,64]\",\"precision\":[[\"DEFAULT\",\"DEFAULT\"],[\"DEFAULT\",\"DEFAULT\"]],\"logits_dtype\":\"float32\",\"logits_scale\":0.125,\"bias\":\"bf16[1,4,768,768]\",\"logits_soft_cap\":null,\"mask\":{\"bool_mask\":\"bool[768,1,1,768]\",\"q_start\":null,\"q_end\":null,\"k_start\":null,\"k_end\":null,\"is_causal\":false},\"dropout_mask\":null,\"dropout_rate\":0.0,\"paging_info\":null,\"q_indices\":null,\"k_indices\":null,\"normalize_output\":true,\"return_residuals\":false}": {
    "{\"block_q\":64,\"block_k\":64,\"num_stages\":1,\"num_warps\":4,\"block_d\":null,\"block_d_out\":null,\"split_k\":1,\"pack_mask\":false}": {
      "compile_time_ms": 222.1367450000571,
      "lower_time_ms": 6732.540686999982,
      "evaluation_times_ms": [
        2.374555,
        2.369916,
        2.371228,
        2.372636,
        2.371675
      ],
      "metadata": {},
      "peak_memory_mb": 1213.267968
    }
  },
  "{\"q\":\"bf16[768,768,4,64]\",\"k\":\"bf16[768,768,4,64]\",\"v\":\"bf16[768,768,4,64]\",\"precision\":[[\"DEFAULT\",\"DEFAULT\"],[\"DEFAULT\",\"DEFAULT\"]],\"logits_dtype\":\"float32\",\"logits_scale\":0.125,\"bias\":\"bf16[1,4,768,768]\",\"logits_soft_cap\":null,\"mask\":{\"bool_mask\":\"bool[768,1,1,768]\",\"q_start\":null,\"q_end\":null,\"k_start\":null,\"k_end\":null,\"is_causal\":false},\"dropout_mask\":null,\"dropout_rate\":0.0,\"paging_info\":null,\"q_indices\":null,\"k_indices\":null,\"normalize_output\":true,\"return_residuals\":true}": {
    "{\"block_q\":64,\"block_k\":64,\"num_stages\":3,\"num_warps\":4,\"block_d\":null,\"block_d_out\":null,\"split_k\":1,\"pack_mask\":false}": {
      "compile_time_ms": 239.57574899998235,
      "lower_time_ms": 7411.077033999959,
      "evaluation_times_ms": [
        2.393303,
        2.396694,
        2.39327,
        2.395702,
        2.391638
      ],
      "metadata": {},
      "peak_memory_mb": 1232.14236
    }
  },
  "{\"q\":\"bf16[32,512,32,64]\",\"k\":\"bf16[32,512,32,64]\",\"v\":\"bf16[32,512,32,64]\",\"precision\":[[\"DEFAULT\",\"DEFAULT\"],[\"DEFAULT\",\"DEFAULT\"]],\"logits_dtype\":\"float32\",\"logits_scale\":0.125,\"bias\":null,\"logits_soft_cap\":null,\"mask\":{\"bool_mask\":null,\"q_start\":null,\"q_end\":null,\"k_start\":null,\"k_end\":null,\"is_causal\":true},\"dropout_mask\":null,\"dropout_rate\":0.0,\"paging_info\":null,\"q_indices\":null,\"k_indices\":null,\"normalize_output\":true,\"return_residuals\":false}": {
    "{\"block_q\":64,\"block_k\":64,\"num_stages\":3,\"num_warps\":4,\"block_d\":null,\"block_d_out\":null,\"split_k\":1,\"pack_mask\":false}": {
      "compile_time_ms": 328.0342670000209,
      "lower_time_ms": 5807.614381999883,
      "evaluation_times_ms": [
        0.198367,
        0.196191,
        0.19568,
        0.195679,
        0.195295
      ],
      "metadata": {},
      "peak_memory_mb": 268.435456
    }
  },
  "{\"q\":\"bf16[32,512,32,64]\",\"k\":\"bf16[32,512,32,64]\",\"v\":\"bf16[32,512,32,64]\",\"precision\":[[\"DEFAULT\",\"DEFAULT\"],[\"DEFAULT\",\"DEFAULT\"]],\"logits_dtype\":\"float32\",\"logits_scale\":0.125,\"bias\":null,\"logits_soft_cap\":null,\"mask\":{\"bool_mask\":null,\"q_start\":null,\"q_end\":null,\"k_start\":null,\"k_end\":null,\"is_causal\":true},\"dropout_mask\":null,\"dropout_rate\":0.0,\"paging_info\":null,\"q_indices\":null,\"k_indices\":null,\"normalize_output\":true,\"return_residuals\":true}": {
    "{\"block_q\":64,\"block_k\":64,\"num_stages\":3,\"num_warps\":4,\"block_d\":null,\"block_d_out\":null,\"split_k\":1,\"pack_mask\":false}": {
      "compile_time_ms": 352.53680899995743,
      "lower_time_ms": 7972.010154000145,
      "evaluation_times_ms": [
        0.198175,
        0.198271,
        0.198815,
        0.198494,
        0.198399
      ],
      "metadata": {},
      "peak_memory_mb": 272.629784
    }
  },
  "{\"q\":\"f16[32,512,32,64]\",\"k\":\"f16[32,512,32,64]\",\"v\":\"f16[32,512,32,64]\",\"precision\":[[\"DEFAULT\",\"DEFAULT\"],[\"DEFAULT\",\"DEFAULT\"]],\"logits_dtype\":\"float32\",\"logits_scale\":0.125,\"bias\":null,\"logits_soft_cap\":null,\"mask\":{\"bool_mask\":null,\"q_start\":null,\"q_end\":null,\"k_start\":null,\"k_end\":null,\"is_causal\":true},\"dropout_mask\":null,\"dropout_rate\":0.0,\"paging_info\":null,\"q_indices\":null,\"k_indices\":null,\"normalize_output\":true,\"return_residuals\":false}": {
    "{\"block_q\":64,\"block_k\":64,\"num_stages\":3,\"num_warps\":4,\"block_d\":null,\"block_d_out\":null,\"split_k\":1,\"pack_mask\":false}": {
      "compile_time_ms": 337.1006520001174,
      "lower_time_ms": 6059.4125380000605,
      "evaluation_times_ms": [
        0.197407,
        0.196415,
        0.196543,
        0.19632,
        0.196639
      ],
      "metadata": {},
      "peak_memory_mb": 268.435456
    }
  },
  "{\"q\":\"f16[32,512,32,64]\",\"k\":\"f16[32,512,32,64]\",\"v\":\"f16[32,512,32,64]\",\"precision\":[[\"DEFAULT\",\"DEFAULT\"],[\"DEFAULT\",\"DEFAULT\"]],\"logits_dtype\":\"float32\",\"logits_scale\":0.125,\"bias\":null,\"logits_soft_cap\":null,\"mask\":{\"bool_mask\":null,\"q_start\":null,\"q_end\":null,\"k_start\":null,\"k_end\":null,\"is_causal\":true},\"dropout_mask\":null,\"dropout_rate\":0.0,\"paging_info\":null,\"q_indices\":null,\"k_indices\":null,\"normalize_output\":true,\"return_residuals\":true}": {
    "{\"block_q\":64,\"block_k\":64,\"num_stages\":3,\"num_warps\":4,\"block_d\":null,\"block_d_out\":null,\"split_k\":1,\"pack_mask\":false}": {
      "compile_time_ms": 340.33129700014797,
      "lower_time_ms": 7572.306428999809,
      "evaluation_times_ms": [
        0.197918,
        0.200223,
        0.198815,
        0.198751,
        0.199455
      ],
      "metadata": {},
      "peak_memory_mb": 272.629784
    }
  },
  "{\"q\":\"bf16[32,512,32,64]\",\"k\":\"bf16[32,512,32,64]\",\"v\":\"bf16[32,512,32,64]\",\"precision\":[[\"DEFAULT\",\"DEFAULT\"],[\"DEFAULT\",\"DEFAULT\"]],\"logits_dtype\":\"float32\",\"logits_scale\":0.125,\"bias\":null,\"logits_soft_cap\":null,\"mask\":{\"bool_mask\":null,\"q_start\":null,\"q_end\":null,\"k_start\":null,\"k_end\":null,\"is_causal\":false},\"dropout_mask\":null,\"dropout_rate\":0.0,\"paging_info\":null,\"q_indices\":null,\"k_indices\":null,\"normalize_output\":true,\"return_residuals\":false}": {
    "{\"block_q\":64,\"block_k\":64,\"num_stages\":3,\"num_warps\":4,\"block_d\":null,\"block_d_out\":null,\"split_k\":1,\"pack_mask\":false}": {
      "compile_time_ms": 241.02727400008916,
      "lower_time_ms": 3433.5615119998693,
      "evaluation_times_ms": [
        0.259519,
        0.259583,
        0.260382,
        0.260479,
        0.259454
      ],
      "metadata": {},
      "peak_memory_mb": 268.435456
    }
  },
  "{\"q\":\"bf16[32,512,32,64]\",\"k\":\"bf16[32,512,32,64]\",\"v\":\"bf16[32,512,32,64]\",\"precision\":[[\"DEFAULT\",\"DEFAULT\"],[\"DEFAULT\",\"DEFAULT\"]],\"logits_dtype\":\"float32\",\"logits_scale\":0.125,\"bias\":null,\"logits_soft_cap\":null,\"mask\":{\"bool_mask\":null,\"q_start\":null,\"q_end\":null,\"k_start\":null,\"k_end\":null,\"is_causal\":false},\"dropout_mask\":null,\"dropout_rate\":0.0,\"paging_info\":null,\"q_indices\":null,\"k_indices\":null,\"normalize_output\":true,\"return_residuals\":true}": {
    "{\"block_q\":128,\"block_k\":64,\"num_stages\":3,\"num_warps\":4,\"block_d\":null,\"block_d_out\":null,\"split_k\":1,\"pack_mask\":false}": {
      "compile_time_ms": 469.2595399999391,
      "lower_time_ms": 5412.313943000072,
      "evaluation_times_ms": [
        0.261599,
        0.26051,
        0.26243,
        0.261311,
        0.261343
      ],
      "metadata": {},
      "peak_memory_mb": 272.629784
    }
  },
  "{\"q\":\"f16[32,512,32,64]\",\"k\":\"f16[32,512,32,64]\",\"v\":\"f16[32,512,32,64]\",\"precision\":[[\"DEFAULT\",\"DEFAULT\"],[\"DEFAULT\",\"DEFAULT\"]],\"logits_dtype\":\"float32\",\"logits_scale\":0.125,\"bias\":null,\"logits_soft_cap\":null,\"mask\":{\"bool_mask\":null,\"q_start\":null,\"q_end\":null,\"k_start\":null,\"k_end\":null,\"is_causal\":false},\"dropout_mask\":null,\"dropout_rate\":0.0,\"paging_info\":null,\"q_indices\":null,\"k_indices\":null,\"normalize_output\":true,\"return_residuals\":false}": {
    "{\"block_q\":128,\"block_k\":64,\"num_stages\":3,\"num_warps\":8,\"block_d\":null,\"block_d_out\":null,\"split_k\":1,\"pack_mask\":false}": {
      "compile_time_ms": 175.67962999987685,
      "lower_time_ms": 3825.626521000004,
      "evaluation_times_ms": [
        0.261471,
        0.261599,
        0.26243,
        0.261534,
        0.261791
      ],
      "metadata": {},
      "peak_memory_mb": 268.435456
    }
  },
  "{\"q\":\"f16[32,512,32,64]\",\"k\":\"f16[32,512,32,64]\",\"v\":\"f16[32,512,32,64]\",\"precision\":[[\"DEFAULT\",\"DEFAULT\"],[\"DEFAULT\",\"DEFAULT\"]],\"logits_dtype\":\"float32\",\"logits_scale\":0.125,\"bias\":null,\"logits_soft_cap\":null,\"mask\":{\"bool_mask\":null,\"q_start\":null,\"q_end\":null,\"k_start\":null,\"k_end\":null,\"is_causal\":false},\"dropout_mask\":null,\"dropout_rate\":0.0,\"paging_info\":null,\"q_indices\":null,\"k_indices\":null,\"normalize_output\":true,\"return_residuals\":true}": {
    "{\"block_q\":128,\"block_k\":64,\"num_stages\":3,\"num_warps\":4,\"block_d\":null,\"block_d_out\":null,\"split_k\":1,\"pack_mask\":false}": {
      "compile_time_ms": 343.2089980001365,
      "lower_time_ms": 5204.120317999923,
      "evaluation_times_ms": [
        0.264094,
        0.262494,
        0.263326,
        0.263934,
        0.263518
      ],
      "metadata": {},
      "peak_memory_mb": 272.629784
    }
  },
  "{\"q\":\"bf16[32,512,16,128]\",\"k\":\"bf16[32,512,16,128]\",\"v\":\"bf16[32,512,16,128]\",\"precision\":[[\"DEFAULT\",\"DEFAULT\"],[\"DEFAULT\",\"DEFAULT\"]],\"logits_dtype\":\"float32\",\"logits_scale\":0.08838834764831843,\"bias\":null,\"logits_soft_cap\":null,\"mask\":{\"bool_mask\":null,\"q_start\":null,\"q_end\":null,\"k_start\":null,\"k_end\":null,\"is_causal\":true},\"dropout_mask\":null,\"dropout_rate\":0.0,\"paging_info\":null,\"q_indices\":null,\"k_indices\":null,\"normalize_output\":true,\"return_residuals\":false}": {
    "{\"block_q\":64,\"block_k\":64,\"num_stages\":3,\"num_warps\":4,\"block_d\":null,\"block_d_out\":null,\"split_k\":1,\"pack_mask\":false}": {
      "compile_time_ms": 519.8680809999132,
      "lower_time_ms": 5583.411852999916,
      "evaluation_times_ms": [
        0.170079,
        0.169599,
        0.169024,
        0.170239,
        0.170559
      ],
      "metadata": {},
      "peak_memory_mb": 268.435456
    }
  },
  "{\"q\":\"bf16[32,512,16,128]\",\"k\":\"bf16[32,512,16,128]\",\"v\":\"bf16[32,512,16,128]\",\"precision\":[[\"DEFAULT\",\"DEFAULT\"],[\"DEFAULT\",\"DEFAULT\"]],\"logits_dtype\":\"float32\",\"logits_scale\":0.08838834764831843,\"bias\":null,\"logits_soft_cap\":null,\"mask\":{\"bool_mask\":null,\"q_start\":null,\"q_end\":null,\"k_start\":null,\"k_end\":null,\"is_causal\":true},\"dropout_mask\":null,\"dropout_rate\":0.0,\"paging_info\":null,\"q_indices\":null,\"k_indices\":null,\"normalize_output\":true,\"return_residuals\":true}": {
    "{\"block_q\":64,\"block_k\":64,\"num_stages\":3,\"num_warps\":4,\"block_d\":null,\"block_d_out\":null,\"split_k\":1,\"pack_mask\":false}": {
      "compile_time_ms": 526.8436500000462,
      "lower_time_ms": 4833.655992999866,
      "evaluation_times_ms": [
        0.169502,
        0.171487,
        0.171135,
        0.170367,
        0.169951
      ],
      "metadata": {},
      "peak_memory_mb": 270.532632
    }
  },
  "{\"q\":\"f16[32,512,16,128]\",\"k\":\"f16[32,512,16,128]\",\"v\":\"f16[32,512,16,128]\",\"precision\":[[\"DEFAULT\",\"DEFAULT\"],[\"DEFAULT\",\"DEFAULT\"]],\"logits_dtype\":\"float32\",\"logits_scale\":0.08838834764831843,\"bias\":null,\"logits_soft_cap\":null,\"mask\":{\"bool_mask\":null,\"q_start\":null,\"q_end\":null,\"k_start\":null,\"k_end\":null,\"is_causal\":true},\"dropout_mask\":null,\"dropout_rate\":0.0,\"paging_info\":null,\"q_indices\":null,\"k_indices\":null,\"normalize_output\":true,\"return_residuals\":false}": {
    "{\"block_q\":64,\"block_k\":64,\"num_stages\":3,\"num_warps\":4,\"block_d\":null,\"block_d_out\":null,\"split_k\":1,\"pack_mask\":false}": {
      "compile_time_ms": 511.2167140000565,
      "lower_time_ms": 5290.320086000065,
      "evaluation_times_ms": [
        0.171199,
        0.171231,
        0.172255,
        0.171839,
        0.172415
      ],
      "metadata": {},
      "peak_memory_mb": 268.435456
    }
  },
  "{\"q\":\"f16[32,512,16,128]\",\"k\":\"f16[32,512,16,128]\",\"v\":\"f16[32,512,16,128]\",\"precision\":[[\"DEFAULT\",\"DEFAULT\"],[\"DEFAULT\",\"DEFAULT\"]],\"logits_dtype\":\"float32\",\"logits_scale\":0.08838834764831843,\"bias\":null,\"logits_soft_cap\":null,\"mask\":{\"bool_mask\":null,\"q_start\":null,\"q_end\":null,\"k_start\":null,\"k_end\":null,\"is_causal\":true},\"dropout_mask\":null,\"dropout_rate\":0.0,\"paging_info\":null,\"q_indices\":null,\"k_indices\":null,\"normalize_output\":true,\"return_residuals\":true}": {
    "{\"block_q\":64,\"block_k\":64,\"num_stages\":3,\"num_warps\":4,\"block_d\":null,\"block_d_out\":null,\"split_k\":1,\"pack_mask\":false}": {
      "compile_time_ms": 541.4767659999598,
      "lower_time_ms": 8506.98132799971,
      "evaluation_times_ms": [
        0.170622,
        0.170815,
        0.172223,
        0.171679,
        0.170975
      ],
      "metadata": {},
      "peak_memory_mb": 270.532632
    }
  },
  "{\"q\":\"bf16[32,512,16,128]\",\"k\":\"bf16[32,512,16,128]\",\"v\":\"bf16[32,512,16,128]\",\"precision\":[[\"DEFAULT\",\"DEFAULT\"],[\"DEFAULT\",\"DEFAULT\"]],\"logits_dtype\":\"float32\",\"logits_scale\":0.08838834764831843,\"bias\":null,\"logits_soft_cap\":null,\"mask\":{\"bool_mask\":null,\"q_start\":null,\"q_end\":null,\"k_start\":null,\"k_end\":null,\"is_causal\":false},\"dropout_mask\":null,\"dropout_rate\":0.0,\"paging_info\":null,\"q_indices\":null,\"k_indices\":null,\"normalize_output\":true,\"return_residuals\":false}": {
    "{\"block_q\":64,\"block_k\":64,\"num_stages\":3,\"num_warps\":4,\"block_d\":null,\"block_d_out\":null,\"split_k\":1,\"pack_mask\":false}": {
      "compile_time_ms": 287.041089000013,
      "lower_time_ms": 3904.8396140001387,
      "evaluation_times_ms": [
        0.231135,
        0.230942,
        0.230687,
        0.23251,
        0.231678
      ],
      "metadata": {},
      "peak_memory_mb": 268.435456
    }
  },
  "{\"q\":\"bf16[32,512,16,128]\",\"k\":\"bf16[32,512,16,128]\",\"v\":\"bf16[32,512,16,128]\",\"precision\":[[\"DEFAULT\",\"DEFAULT\"],[\"DEFAULT\",\"DEFAULT\"]],\"logits_dtype\":\"float32\",\"logits_scale\":0.08838834764831843,\"bias\":null,\"logits_soft_cap\":null,\"mask\":{\"bool_mask\":null,\"q_start\":null,\"q_end\":null,\"k_start\":null,\"k_end\":null,\"is_causal\":false},\"dropout_mask\":null,\"dropout_rate\":0.0,\"paging_info\":null,\"q_indices\":null,\"k_indices\":null,\"normalize_output\":true,\"return_residuals\":true}": {
    "{\"block_q\":128,\"block_k\":128,\"num_stages\":3,\"num_warps\":8,\"block_d\":null,\"block_d_out\":null,\"split_k\":1,\"pack_mask\":false}": {
      "compile_time_ms": 418.47081100013384,
      "lower_time_ms": 6801.853440000286,
      "evaluation_times_ms": [
        0.236575,
        0.238815,
        0.23779,
        0.23699,
        0.236126
      ],
      "metadata": {},
      "peak_memory_mb": 270.532632
    },
    "{\"block_q\":64,\"block_k\":64,\"num_stages\":3,\"num_warps\":4,\"block_d\":null,\"block_d_out\":null,\"split_k\":1,\"pack_mask\":false}": {
      "compile_time_ms": 294.7086350000063,
      "lower_time_ms": 6898.762004000006,
      "evaluation_times_ms": [
        0.236883,
        0.236051,
        0.235379,
        0.236147,
        0.235827
      ],
      "metadata": {},
      "peak_memory_mb": 270.532632
    }
  },
  "{\"q\":\"f16[32,512,16,128]\",\"k\":\"f16[32,512,16,128]\",\"v\":\"f16[32,512,16,128]\",\"precision\":[[\"DEFAULT\",\"DEFAULT\"],[\"DEFAULT\",\"DEFAULT\"]],\"logits_dtype\":\"float32\",\"logits_scale\":0.08838834764831843,\"bias\":null,\"logits_soft_cap\":null,\"mask\":{\"bool_mask\":null,\"q_start\":null,\"q_end\":null,\"k_start\":null,\"k_end\":null,\"is_causal\":false},\"dropout_mask\":null,\"dropout_rate\":0.0,\"paging_info\":null,\"q_indices\":null,\"k_indices\":null,\"normalize_output\":true,\"return_residuals\":false}": {
    "{\"block_q\":64,\"block_k\":64,\"num_stages\":3,\"num_warps\":4,\"block_d\":null,\"block_d_out\":null,\"split_k\":1,\"pack_mask\":false}": {
      "compile_time_ms": 303.55168600002,
      "lower_time_ms": 4596.299077999987,
      "evaluation_times_ms": [
        0.230833,
        0.231249,
        0.230961,
        0.231313,
        0.230673
      ],
      "metadata": {},
      "peak_memory_mb": 268.435456
    }
  },
  "{\"q\":\"f16[32,512,16,128]\",\"k\":\"f16[32,512,16,128]\",\"v\":\"f16[32,512,16,128]\",\"precision\":[[\"DEFAULT\",\"DEFAULT\"],[\"DEFAULT\",\"DEFAULT\"]],\"logits_dtype\":\"float32\",\"logits_scale\":0.08838834764831843,\"bias\":null,\"logits_soft_cap\":null,\"mask\":{\"bool_mask\":null,\"q_start\":null,\"q_end\":null,\"k_start\":null,\"k_end\":null,\"is_causal\":false},\"dropout_mask\":null,\"dropout_rate\":0.0,\"paging_info\":null,\"q_indices\":null,\"k_indices\":null,\"normalize_output\":true,\"return_residuals\":true}": {
    "{\"block_q\":64,\"block_k\":64,\"num_stages\":3,\"num_warps\":4,\"block_d\":null,\"block_d_out\":null,\"split_k\":1,\"pack_mask\":false}": {
      "compile_time_ms": 297.9147540000042,
      "lower_time_ms": 4270.226547999997,
      "evaluation_times_ms": [
        0.239525,
        0.238373,
        0.238246,
        0.238757,
        0.239045
      ],
      "metadata": {},
      "peak_memory_mb": 270.532632
    }
  },
  "{\"q\":\"bf16[32,512,8,256]\",\"k\":\"bf16[32,512,8,256]\",\"v\":\"bf16[32,512,8,256]\",\"precision\":[[\"DEFAULT\",\"DEFAULT\"],[\"DEFAULT\",\"DEFAULT\"]],\"logits_dtype\":\"float32\",\"logits_scale\":0.0625,\"bias\":null,\"logits_soft_cap\":null,\"mask\":{\"bool_mask\":null,\"q_start\":null,\"q_end\":null,\"k_start\":null,\"k_end\":null,\"is_causal\":true},\"dropout_mask\":null,\"dropout_rate\":0.0,\"paging_info\":null,\"q_indices\":null,\"k_indices\":null,\"normalize_output\":true,\"return_residuals\":false}": {
    "{\"block_q\":64,\"block_k\":32,\"num_stages\":2,\"num_warps\":4,\"block_d\":null,\"block_d_out\":null,\"split_k\":1,\"pack_mask\":false}": {
      "compile_time_ms": 1321.291892999966,
      "lower_time_ms": 3375.1360850000083,
      "evaluation_times_ms": [
        0.182309,
        0.180006,
        0.18199,
        0.181446,
        0.18023
      ],
      "metadata": {},
      "peak_memory_mb": 268.435456
    }
  },
  "{\"q\":\"bf16[32,512,8,256]\",\"k\":\"bf16[32,512,8,256]\",\"v\":\"bf16[32,512,8,256]\",\"precision\":[[\"DEFAULT\",\"DEFAULT\"],[\"DEFAULT\",\"DEFAULT\"]],\"logits_dtype\":\"float32\",\"logits_scale\":0.0625,\"bias\":null,\"logits_soft_cap\":null,\"mask\":{\"bool_mask\":null,\"q_start\":null,\"q_end\":null,\"k_start\":null,\"k_end\":null,\"is_causal\":true},\"dropout_mask\":null,\"dropout_rate\":0.0,\"paging_info\":null,\"q_indices\":null,\"k_indices\":null,\"normalize_output\":true,\"return_residuals\":true}": {
    "{\"block_q\":64,\"block_k\":32,\"num_stages\":2,\"num_warps\":4,\"block_d\":null,\"block_d_out\":null,\"split_k\":1,\"pack_mask\":false}": {
      "compile_time_ms": 772.178896000014,
      "lower_time_ms": 6662.139395999986,
      "evaluation_times_ms": [
        0.182507,
        0.182827,
        0.183403,
        0.183755,
        0.184652
      ],
      "metadata": {},
      "peak_memory_mb": 269.484056
    }
  },
  "{\"q\":\"f16[32,512,8,256]\",\"k\":\"f16[32,512,8,256]\",\"v\":\"f16[32,512,8,256]\",\"precision\":[[\"DEFAULT\",\"DEFAULT\"],[\"DEFAULT\",\"DEFAULT\"]],\"logits_dtype\":\"float32\",\"logits_scale\":0.0625,\"bias\":null,\"logits_soft_cap\":null,\"mask\":{\"bool_mask\":null,\"q_start\":null,\"q_end\":null,\"k_start\":null,\"k_end\":null,\"is_causal\":true},\"dropout_mask\":null,\"dropout_rate\":0.0,\"paging_info\":null,\"q_indices\":null,\"k_indices\":null,\"normalize_output\":true,\"return_residuals\":false}": {
    "{\"block_q\":64,\"block_k\":32,\"num_stages\":2,\"num_warps\":4,\"block_d\":null,\"block_d_out\":null,\"split_k\":1,\"pack_mask\":false}": {
      "compile_time_ms": 791.800369999919,
      "lower_time_ms": 3890.224685000021,
      "evaluation_times_ms": [
        0.181391,
        0.182255,
        0.181711,
        0.183023,
        0.182223
      ],
      "metadata": {},
      "peak_memory_mb": 268.435456
    }
  },
  "{\"q\":\"f16[32,512,8,256]\",\"k\":\"f16[32,512,8,256]\",\"v\":\"f16[32,512,8,256]\",\"precision\":[[\"DEFAULT\",\"DEFAULT\"],[\"DEFAULT\",\"DEFAULT\"]],\"logits_dtype\":\"float32\",\"logits_scale\":0.0625,\"bias\":null,\"logits_soft_cap\":null,\"mask\":{\"bool_mask\":null,\"q_start\":null,\"q_end\":null,\"k_start\":null,\"k_end\":null,\"is_causal\":true},\"dropout_mask\":null,\"dropout_rate\":0.0,\"paging_info\":null,\"q_indices\":null,\"k_indices\":null,\"normalize_output\":true,\"return_residuals\":true}": {
    "{\"block_q\":64,\"block_k\":32,\"num_stages\":2,\"num_warps\":4,\"block_d\":null,\"block_d_out\":null,\"split_k\":1,\"pack_mask\":false}": {
      "compile_time_ms": 746.57705300001,
      "lower_time_ms": 5259.28538200003,
      "evaluation_times_ms": [
        0.183796,
        0.182611,
        0.184532,
        0.183155,
        0.185621
      ],
      "metadata": {},
      "peak_memory_mb": 269.484056
    }
  },
  "{\"q\":\"bf16[32,512,8,256]\",\"k\":\"bf16[32,512,8,256]\",\"v\":\"bf16[32,512,8,256]\",\"precision\":[[\"DEFAULT\",\"DEFAULT\"],[\"DEFAULT\",\"DEFAULT\"]],\"logits_dtype\":\"float32\",\"logits_scale\":0.0625,\"bias\":null,\"logits_soft_cap\":null,\"mask\":{\"bool_mask\":null,\"q_start\":null,\"q_end\":null,\"k_start\":null,\"k_end\":null,\"is_causal\":false},\"dropout_mask\":null,\"dropout_rate\":0.0,\"paging_info\":null,\"q_indices\":null,\"k_indices\":null,\"normalize_output\":true,\"return_residuals\":false}": {
    "{\"block_q\":128,\"block_k\":32,\"num_stages\":3,\"num_warps\":8,\"block_d\":null,\"block_d_out\":null,\"split_k\":1,\"pack_mask\":false}": {
      "compile_time_ms": 469.31664300007014,
      "lower_time_ms": 5084.41842000002,
      "evaluation_times_ms": [
        0.254636,
        0.254219,
        0.254988,
        0.254444,
        0.25486
      ],
      "metadata": {},
      "peak_memory_mb": 268.435456
    }
  },
  "{\"q\":\"bf16[32,512,8,256]\",\"k\":\"bf16[32,512,8,256]\",\"v\":\"bf16[32,512,8,256]\",\"precision\":[[\"DEFAULT\",\"DEFAULT\"],[\"DEFAULT\",\"DEFAULT\"]],\"logits_dtype\":\"float32\",\"logits_scale\":0.0625,\"bias\":null,\"logits_soft_cap\":null,\"mask\":{\"bool_mask\":null,\"q_start\":null,\"q_end\":null,\"k_start\":null,\"k_end\":null,\"is_causal\":false},\"dropout_mask\":null,\"dropout_rate\":0.0,\"paging_info\":null,\"q_indices\":null,\"k_indices\":null,\"normalize_output\":true,\"return_residuals\":true}": {
    "{\"block_q\":128,\"block_k\":32,\"num_stages\":3,\"num_warps\":8,\"block_d\":null,\"block_d_out\":null,\"split_k\":1,\"pack_mask\":false}": {
      "compile_time_ms": 465.91312400005336,
      "lower_time_ms": 4592.628203999993,
      "evaluation_times_ms": [
        0.25899,
        0.257486,
        0.25819,
        0.258831,
        0.259055
      ],
      "metadata": {},
      "peak_memory_mb": 269.484056
    }
  },
  "{\"q\":\"f16[32,512,8,256]\",\"k\":\"f16[32,512,8,256]\",\"v\":\"f16[32,512,8,256]\",\"precision\":[[\"DEFAULT\",\"DEFAULT\"],[\"DEFAULT\",\"DEFAULT\"]],\"logits_dtype\":\"float32\",\"logits_scale\":0.0625,\"bias\":null,\"logits_soft_cap\":null,\"mask\":{\"bool_mask\":null,\"q_start\":null,\"q_end\":null,\"k_start\":null,\"k_end\":null,\"is_causal\":false},\"dropout_mask\":null,\"dropout_rate\":0.0,\"paging_info\":null,\"q_indices\":null,\"k_indices\":null,\"normalize_output\":true,\"return_residuals\":false}": {
    "{\"block_q\":128,\"block_k\":32,\"num_stages\":3,\"num_warps\":8,\"block_d\":null,\"block_d_out\":null,\"split_k\":1,\"pack_mask\":false}": {
      "compile_time_ms": 469.83089400009703,
      "lower_time_ms": 6345.126598000206,
      "evaluation_times_ms": [
        0.255847,
        0.256071,
        0.255302,
        0.255239,
        0.25527
      ],
      "metadata": {},
      "peak_memory_mb": 268.435456
    }
  },
  "{\"q\":\"f16[32,512,8,256]\",\"k\":\"f16[32,512,8,256]\",\"v\":\"f16[32,512,8,256]\",\"precision\":[[\"DEFAULT\",\"DEFAULT\"],[\"DEFAULT\",\"DEFAULT\"]],\"logits_dtype\":\"float32\",\"logits_scale\":0.0625,\"bias\":null,\"logits_soft_cap\":null,\"mask\":{\"bool_mask\":null,\"q_start\":null,\"q_end\":null,\"k_start\":null,\"k_end\":null,\"is_causal\":false},\"dropout_mask\":null,\"dropout_rate\":0.0,\"paging_info\":null,\"q_indices\":null,\"k_indices\":null,\"normalize_output\":true,\"return_residuals\":true}": {
    "{\"block_q\":128,\"block_k\":32,\"num_stages\":3,\"num_warps\":8,\"block_d\":null,\"block_d_out\":null,\"split_k\":1,\"pack_mask\":false}": {
      "compile_time_ms": 459.3579810000392,
      "lower_time_ms": 4834.055142000125,
      "evaluation_times_ms": [
        0.259486,
        0.259518,
        0.259582,
        0.259647,
        0.26019
      ],
      "metadata": {},
      "peak_memory_mb": 269.484056
    }
  },
  "{\"q\":\"bf16[16,1024,32,64]\",\"k\":\"bf16[16,1024,32,64]\",\"v\":\"bf16[16,1024,32,64]\",\"precision\":[[\"DEFAULT\",\"DEFAULT\"],[\"DEFAULT\",\"DEFAULT\"]],\"logits_dtype\":\"float32\",\"logits_scale\":0.125,\"bias\":null,\"logits_soft_cap\":null,\"mask\":{\"bool_mask\":null,\"q_start\":null,\"q_end\":null,\"k_start\":null,\"k_end\":null,\"is_causal\":true},\"dropout_mask\":null,\"dropout_rate\":0.0,\"paging_info\":null,\"q_indices\":null,\"k_indices\":null,\"normalize_output\":true,\"return_residuals\":false}": {
    "{\"block_q\":64,\"block_k\":64,\"num_stages\":3,\"num_warps\":4,\"block_d\":null,\"block_d_out\":null,\"split_k\":1,\"pack_mask\":false}": {
      "compile_time_ms": 330.74668500012194,
      "lower_time_ms": 4810.535588999983,
      "evaluation_times_ms": [
        0.316093,
        0.314396,
        0.313692,
        0.315197,
        0.317405
      ],
      "metadata": {},
      "peak_memory_mb": 268.435456
    }
  },
  "{\"q\":\"bf16[16,1024,32,64]\",\"k\":\"bf16[16,1024,32,64]\",\"v\":\"bf16[16,1024,32,64]\",\"precision\":[[\"DEFAULT\",\"DEFAULT\"],[\"DEFAULT\",\"DEFAULT\"]],\"logits_dtype\":\"float32\",\"logits_scale\":0.125,\"bias\":null,\"logits_soft_cap\":null,\"mask\":{\"bool_mask\":null,\"q_start\":null,\"q_end\":null,\"k_start\":null,\"k_end\":null,\"is_causal\":true},\"dropout_mask\":null,\"dropout_rate\":0.0,\"paging_info\":null,\"q_indices\":null,\"k_indices\":null,\"normalize_output\":true,\"return_residuals\":true}": {
    "{\"block_q\":64,\"block_k\":64,\"num_stages\":3,\"num_warps\":4,\"block_d\":null,\"block_d_out\":null,\"split_k\":1,\"pack_mask\":false}": {
      "compile_time_ms": 349.522744000069,
      "lower_time_ms": 10847.675081000034,
      "evaluation_times_ms": [
        0.317789,
        0.318236,
        0.318557,
        0.318364,
        0.317052
      ],
      "metadata": {},
      "peak_memory_mb": 272.629784
    }
  },
  "{\"q\":\"f16[16,1024,32,64]\",\"k\":\"f16[16,1024,32,64]\",\"v\":\"f16[16,1024,32,64]\",\"precision\":[[\"DEFAULT\",\"DEFAULT\"],[\"DEFAULT\",\"DEFAULT\"]],\"logits_dtype\":\"float32\",\"logits_scale\":0.125,\"bias\":null,\"logits_soft_cap\":null,\"mask\":{\"bool_mask\":null,\"q_start\":null,\"q_end\":null,\"k_start\":null,\"k_end\":null,\"is_causal\":true},\"dropout_mask\":null,\"dropout_rate\":0.0,\"paging_info\":null,\"q_indices\":null,\"k_indices\":null,\"normalize_output\":true,\"return_residuals\":false}": {
    "{\"block_q\":64,\"block_k\":64,\"num_stages\":3,\"num_warps\":4,\"block_d\":null,\"block_d_out\":null,\"split_k\":1,\"pack_mask\":false}": {
      "compile_time_ms": 330.4519330001767,
      "lower_time_ms": 8751.372132999904,
      "evaluation_times_ms": [
        0.315293,
        0.318876,
        0.3167,
        0.315261,
        0.315037
      ],
      "metadata": {},
      "peak_memory_mb": 268.435456
    }
  },
  "{\"q\":\"f16[16,1024,32,64]\",\"k\":\"f16[16,1024,32,64]\",\"v\":\"f16[16,1024,32,64]\",\"precision\":[[\"DEFAULT\",\"DEFAULT\"],[\"DEFAULT\",\"DEFAULT\"]],\"logits_dtype\":\"float32\",\"logits_scale\":0.125,\"bias\":null,\"logits_soft_cap\":null,\"mask\":{\"bool_mask\":null,\"q_start\":null,\"q_end\":null,\"k_start\":null,\"k_end\":null,\"is_causal\":true},\"dropout_mask\":null,\"dropout_rate\":0.0,\"paging_info\":null,\"q_indices\":null,\"k_indices\":null,\"normalize_output\":true,\"return_residuals\":true}": {
    "{\"block_q\":64,\"block_k\":64,\"num_stages\":3,\"num_warps\":4,\"block_d\":null,\"block_d_out\":null,\"split_k\":1,\"pack_mask\":false}": {
      "compile_time_ms": 349.33108299992455,
      "lower_time_ms": 8206.179019000047,
      "evaluation_times_ms": [
        0.318141,
        0.318077,
        0.320445,
        0.319485,
        0.320669
      ],
      "metadata": {},
      "peak_memory_mb": 272.629784
    }
  },
  "{\"q\":\"bf16[16,1024,32,64]\",\"k\":\"bf16[16,1024,32,64]\",\"v\":\"bf16[16,1024,32,64]\",\"precision\":[[\"DEFAULT\",\"DEFAULT\"],[\"DEFAULT\",\"DEFAULT\"]],\"logits_dtype\":\"float32\",\"logits_scale\":0.125,\"bias\":null,\"logits_soft_cap\":null,\"mask\":{\"bool_mask\":null,\"q_start\":null,\"q_end\":null,\"k_start\":null,\"k_end\":null,\"is_causal\":false},\"dropout_mask\":null,\"dropout_rate\":0.0,\"paging_info\":null,\"q_indices\":null,\"k_indices\":null,\"normalize_output\":true,\"return_residuals\":false}": {
    "{\"block_q\":64,\"block_k\":64,\"num_stages\":3,\"num_warps\":4,\"block_d\":null,\"block_d_out\":null,\"split_k\":1,\"pack_mask\":false}": {
      "compile_time_ms": 205.0670920000357,
      "lower_time_ms": 4097.980297000049,
      "evaluation_times_ms": [
        0.485148,
        0.485627,
        0.484604,
        0.484444,
        0.485212
      ],
      "metadata": {},
      "peak_memory_mb": 268.435456
    }
  },
  "{\"q\":\"bf16[16,1024,32,64]\",\"k\":\"bf16[16,1024,32,64]\",\"v\":\"bf16[16,1024,32,64]\",\"precision\":[[\"DEFAULT\",\"DEFAULT\"],[\"DEFAULT\",\"DEFAULT\"]],\"logits_dtype\":\"float32\",\"logits_scale\":0.125,\"bias\":null,\"logits_soft_cap\":null,\"mask\":{\"bool_mask\":null,\"q_start\":null,\"q_end\":null,\"k_start\":null,\"k_end\":null,\"is_causal\":false},\"dropout_mask\":null,\"dropout_rate\":0.0,\"paging_info\":null,\"q_indices\":null,\"k_indices\":null,\"normalize_output\":true,\"return_residuals\":true}": {
    "{\"block_q\":128,\"block_k\":64,\"num_stages\":3,\"num_warps\":4,\"block_d\":null,\"block_d_out\":null,\"split_k\":1,\"pack_mask\":false}": {
      "compile_time_ms": 373.42467500002385,
      "lower_time_ms": 5976.441888999943,
      "evaluation_times_ms": [
        0.474588,
        0.474428,
        0.475548,
        0.4759,
        0.475324
      ],
      "metadata": {},
      "peak_memory_mb": 272.629784
    }
  },
  "{\"q\":\"f16[16,1024,32,64]\",\"k\":\"f16[16,1024,32,64]\",\"v\":\"f16[16,1024,32,64]\",\"precision\":[[\"DEFAULT\",\"DEFAULT\"],[\"DEFAULT\",\"DEFAULT\"]],\"logits_dtype\":\"float32\",\"logits_scale\":0.125,\"bias\":null,\"logits_soft_cap\":null,\"mask\":{\"bool_mask\":null,\"q_start\":null,\"q_end\":null,\"k_start\":null,\"k_end\":null,\"is_causal\":false},\"dropout_mask\":null,\"dropout_rate\":0.0,\"paging_info\":null,\"q_indices\":null,\"k_indices\":null,\"normalize_output\":true,\"return_residuals\":false}": {
    "{\"block_q\":64,\"block_k\":64,\"num_stages\":3,\"num_warps\":4,\"block_d\":null,\"block_d_out\":null,\"split_k\":1,\"pack_mask\":false}": {
      "compile_time_ms": 189.37896000034016,
      "lower_time_ms": 5347.839210000075,
      "evaluation_times_ms": [
        0.482748,
        0.483613,
        0.483004,
        0.484572,
        0.483068
      ],
      "metadata": {},
      "peak_memory_mb": 268.435456
    }
  },
  "{\"q\":\"f16[16,1024,32,64]\",\"k\":\"f16[16,1024,32,64]\",\"v\":\"f16[16,1024,32,64]\",\"precision\":[[\"DEFAULT\",\"DEFAULT\"],[\"DEFAULT\",\"DEFAULT\"]],\"logits_dtype\":\"float32\",\"logits_scale\":0.125,\"bias\":null,\"logits_soft_cap\":null,\"mask\":{\"bool_mask\":null,\"q_start\":null,\"q_end\":null,\"k_start\":null,\"k_end\":null,\"is_causal\":false},\"dropout_mask\":null,\"dropout_rate\":0.0,\"paging_info\":null,\"q_indices\":null,\"k_indices\":null,\"normalize_output\":true,\"return_residuals\":true}": {
    "{\"block_q\":128,\"block_k\":64,\"num_stages\":3,\"num_warps\":4,\"block_d\":null,\"block_d_out\":null,\"split_k\":1,\"pack_mask\":false}": {
      "compile_time_ms": 349.8072810002668,
      "lower_time_ms": 6637.20898199972,
      "evaluation_times_ms": [
        0.475165,
        0.475068,
        0.47686,
        0.475228,
        0.475197
      ],
      "metadata": {},
      "peak_memory_mb": 272.629784
    }
  },
  "{\"q\":\"bf16[16,1024,16,128]\",\"k\":\"bf16[16,1024,16,128]\",\"v\":\"bf16[16,1024,16,128]\",\"precision\":[[\"DEFAULT\",\"DEFAULT\"],[\"DEFAULT\",\"DEFAULT\"]],\"logits_dtype\":\"float32\",\"logits_scale\":0.08838834764831843,\"bias\":null,\"logits_soft_cap\":null,\"mask\":{\"bool_mask\":null,\"q_start\":null,\"q_end\":null,\"k_start\":null,\"k_end\":null,\"is_causal\":true},\"dropout_mask\":null,\"dropout_rate\":0.0,\"paging_info\":null,\"q_indices\":null,\"k_indices\":null,\"normalize_output\":true,\"return_residuals\":false}": {
    "{\"block_q\":64,\"block_k\":64,\"num_stages\":3,\"num_warps\":4,\"block_d\":null,\"block_d_out\":null,\"split_k\":1,\"pack_mask\":false}": {
      "compile_time_ms": 509.5530959997632,
      "lower_time_ms": 6098.6264799998935,
      "evaluation_times_ms": [
        0.263422,
        0.26659,
        0.266398,
        0.264511,
        0.266814
      ],
      "metadata": {},
      "peak_memory_mb": 268.435456
    }
  },
  "{\"q\":\"bf16[16,1024,16,128]\",\"k\":\"bf16[16,1024,16,128]\",\"v\":\"bf16[16,1024,16,128]\",\"precision\":[[\"DEFAULT\",\"DEFAULT\"],[\"DEFAULT\",\"DEFAULT\"]],\"logits_dtype\":\"float32\",\"logits_scale\":0.08838834764831843,\"bias\":null,\"logits_soft_cap\":null,\"mask\":{\"bool_mask\":null,\"q_start\":null,\"q_end\":null,\"k_start\":null,\"k_end\":null,\"is_causal\":true},\"dropout_mask\":null,\"dropout_rate\":0.0,\"paging_info\":null,\"q_indices\":null,\"k_indices\":null,\"normalize_output\":true,\"return_residuals\":true}": {
    "{\"block_q\":64,\"block_k\":64,\"num_stages\":3,\"num_warps\":4,\"block_d\":null,\"block_d_out\":null,\"split_k\":1,\"pack_mask\":false}": {
      "compile_time_ms": 524.7813940000015,
      "lower_time_ms": 8816.982689999804,
      "evaluation_times_ms": [
        0.264606,
        0.263839,
        0.26211,
        0.262814,
        0.26179
      ],
      "metadata": {},
      "peak_memory_mb": 270.532632
    }
  },
  "{\"q\":\"f16[16,1024,16,128]\",\"k\":\"f16[16,1024,16,128]\",\"v\":\"f16[16,1024,16,128]\",\"precision\":[[\"DEFAULT\",\"DEFAULT\"],[\"DEFAULT\",\"DEFAULT\"]],\"logits_dtype\":\"float32\",\"logits_scale\":0.08838834764831843,\"bias\":null,\"logits_soft_cap\":null,\"mask\":{\"bool_mask\":null,\"q_start\":null,\"q_end\":null,\"k_start\":null,\"k_end\":null,\"is_causal\":true},\"dropout_mask\":null,\"dropout_rate\":0.0,\"paging_info\":null,\"q_indices\":null,\"k_indices\":null,\"normalize_output\":true,\"return_residuals\":false}": {
    "{\"block_q\":64,\"block_k\":64,\"num_stages\":3,\"num_warps\":4,\"block_d\":null,\"block_d_out\":null,\"split_k\":1,\"pack_mask\":false}": {
      "compile_time_ms": 650.5179890000363,
      "lower_time_ms": 4992.603225999574,
      "evaluation_times_ms": [
        0.26371,
        0.263358,
        0.264638,
        0.265918,
        0.265886
      ],
      "metadata": {},
      "peak_memory_mb": 268.435456
    }
  },
  "{\"q\":\"f16[16,1024,16,128]\",\"k\":\"f16[16,1024,16,128]\",\"v\":\"f16[16,1024,16,128]\",\"precision\":[[\"DEFAULT\",\"DEFAULT\"],[\"DEFAULT\",\"DEFAULT\"]],\"logits_dtype\":\"float32\",\"logits_scale\":0.08838834764831843,\"bias\":null,\"logits_soft_cap\":null,\"mask\":{\"bool_mask\":null,\"q_start\":null,\"q_end\":null,\"k_start\":null,\"k_end\":null,\"is_causal\":true},\"dropout_mask\":null,\"dropout_rate\":0.0,\"paging_info\":null,\"q_indices\":null,\"k_indices\":null,\"normalize_output\":true,\"return_residuals\":true}": {
    "{\"block_q\":64,\"block_k\":64,\"num_stages\":3,\"num_warps\":4,\"block_d\":null,\"block_d_out\":null,\"split_k\":1,\"pack_mask\":false}": {
      "compile_time_ms": 529.8973410000087,
      "lower_time_ms": 9552.458105,
      "evaluation_times_ms": [
        0.264818,
        0.264563,
        0.263634,
        0.263922,
        0.263153
      ],
      "metadata": {},
      "peak_memory_mb": 270.532632
    }
  },
  "{\"q\":\"bf16[16,1024,16,128]\",\"k\":\"bf16[16,1024,16,128]\",\"v\":\"bf16[16,1024,16,128]\",\"precision\":[[\"DEFAULT\",\"DEFAULT\"],[\"DEFAULT\",\"DEFAULT\"]],\"logits_dtype\":\"float32\",\"logits_scale\":0.08838834764831843,\"bias\":null,\"logits_soft_cap\":null,\"mask\":{\"bool_mask\":null,\"q_start\":null,\"q_end\":null,\"k_start\":null,\"k_end\":null,\"is_causal\":false},\"dropout_mask\":null,\"dropout_rate\":0.0,\"paging_info\":null,\"q_indices\":null,\"k_indices\":null,\"normalize_output\":true,\"return_residuals\":false}": {
    "{\"block_q\":128,\"block_k\":128,\"num_stages\":3,\"num_warps\":8,\"block_d\":null,\"block_d_out\":null,\"split_k\":1,\"pack_mask\":false}": {
      "compile_time_ms": 394.56848599996874,
      "lower_time_ms": 3706.244115000004,
      "evaluation_times_ms": [
        0.401874,
        0.400689,
        0.400081,
        0.401202,
        0.401874
      ],
      "metadata": {},
      "peak_memory_mb": 268.435456
    }
  },
  "{\"q\":\"bf16[16,1024,16,128]\",\"k\":\"bf16[16,1024,16,128]\",\"v\":\"bf16[16,1024,16,128]\",\"precision\":[[\"DEFAULT\",\"DEFAULT\"],[\"DEFAULT\",\"DEFAULT\"]],\"logits_dtype\":\"float32\",\"logits_scale\":0.08838834764831843,\"bias\":null,\"logits_soft_cap\":null,\"mask\":{\"bool_mask\":null,\"q_start\":null,\"q_end\":null,\"k_start\":null,\"k_end\":null,\"is_causal\":false},\"dropout_mask\":null,\"dropout_rate\":0.0,\"paging_info\":null,\"q_indices\":null,\"k_indices\":null,\"normalize_output\":true,\"return_residuals\":true}": {
    "{\"block_q\":128,\"block_k\":128,\"num_stages\":3,\"num_warps\":8,\"block_d\":null,\"block_d_out\":null,\"split_k\":1,\"pack_mask\":false}": {
      "compile_time_ms": 422.48976000001903,
      "lower_time_ms": 5192.090242000006,
      "evaluation_times_ms": [
        0.410715,
        0.408986,
        0.410586,
        0.410394,
        0.410139
      ],
      "metadata": {},
      "peak_memory_mb": 270.532632
    }
  },
  "{\"q\":\"f16[16,1024,16,128]\",\"k\":\"f16[16,1024,16,128]\",\"v\":\"f16[16,1024,16,128]\",\"precision\":[[\"DEFAULT\",\"DEFAULT\"],[\"DEFAULT\",\"DEFAULT\"]],\"logits_dtype\":\"float32\",\"logits_scale\":0.08838834764831843,\"bias\":null,\"logits_soft_cap\":null,\"mask\":{\"bool_mask\":null,\"q_start\":null,\"q_end\":null,\"k_start\":null,\"k_end\":null,\"is_causal\":false},\"dropout_mask\":null,\"dropout_rate\":0.0,\"paging_info\":null,\"q_indices\":null,\"k_indices\":null,\"normalize_output\":true,\"return_residuals\":false}": {
    "{\"block_q\":128,\"block_k\":128,\"num_stages\":3,\"num_warps\":8,\"block_d\":null,\"block_d_out\":null,\"split_k\":1,\"pack_mask\":false}": {
      "compile_time_ms": 397.12293299999146,
      "lower_time_ms": 3697.9031869999517,
      "evaluation_times_ms": [
        0.404486,
        0.405574,
        0.402406,
        0.40247,
        0.404167
      ],
      "metadata": {},
      "peak_memory_mb": 268.435456
    }
  },
  "{\"q\":\"f16[16,1024,16,128]\",\"k\":\"f16[16,1024,16,128]\",\"v\":\"f16[16,1024,16,128]\",\"precision\":[[\"DEFAULT\",\"DEFAULT\"],[\"DEFAULT\",\"DEFAULT\"]],\"logits_dtype\":\"float32\",\"logits_scale\":0.08838834764831843,\"bias\":null,\"logits_soft_cap\":null,\"mask\":{\"bool_mask\":null,\"q_start\":null,\"q_end\":null,\"k_start\":null,\"k_end\":null,\"is_causal\":false},\"dropout_mask\":null,\"dropout_rate\":0.0,\"paging_info\":null,\"q_indices\":null,\"k_indices\":null,\"normalize_output\":true,\"return_residuals\":true}": {
    "{\"block_q\":128,\"block_k\":128,\"num_stages\":3,\"num_warps\":8,\"block_d\":null,\"block_d_out\":null,\"split_k\":1,\"pack_mask\":false}": {
      "compile_time_ms": 425.7710419999512,
      "lower_time_ms": 4736.831179999967,
      "evaluation_times_ms": [
        0.404422,
        0.407943,
        0.406407,
        0.406278,
        0.407751
      ],
      "metadata": {},
      "peak_memory_mb": 270.532632
    }
  },
  "{\"q\":\"bf16[16,1024,8,256]\",\"k\":\"bf16[16,1024,8,256]\",\"v\":\"bf16[16,1024,8,256]\",\"precision\":[[\"DEFAULT\",\"DEFAULT\"],[\"DEFAULT\",\"DEFAULT\"]],\"logits_dtype\":\"float32\",\"logits_scale\":0.0625,\"bias\":null,\"logits_soft_cap\":null,\"mask\":{\"bool_mask\":null,\"q_start\":null,\"q_end\":null,\"k_start\":null,\"k_end\":null,\"is_causal\":true},\"dropout_mask\":null,\"dropout_rate\":0.0,\"paging_info\":null,\"q_indices\":null,\"k_indices\":null,\"normalize_output\":true,\"return_residuals\":false}": {
    "{\"block_q\":64,\"block_k\":32,\"num_stages\":2,\"num_warps\":4,\"block_d\":null,\"block_d_out\":null,\"split_k\":1,\"pack_mask\":false}": {
      "compile_time_ms": 910.3317309999284,
      "lower_time_ms": 4283.055132000072,
      "evaluation_times_ms": [
        0.28784,
        0.28528,
        0.288544,
        0.287584,
        0.289312
      ],
      "metadata": {},
      "peak_memory_mb": 268.435456
    }
  },
  "{\"q\":\"bf16[16,1024,8,256]\",\"k\":\"bf16[16,1024,8,256]\",\"v\":\"bf16[16,1024,8,256]\",\"precision\":[[\"DEFAULT\",\"DEFAULT\"],[\"DEFAULT\",\"DEFAULT\"]],\"logits_dtype\":\"float32\",\"logits_scale\":0.0625,\"bias\":null,\"logits_soft_cap\":null,\"mask\":{\"bool_mask\":null,\"q_start\":null,\"q_end\":null,\"k_start\":null,\"k_end\":null,\"is_causal\":true},\"dropout_mask\":null,\"dropout_rate\":0.0,\"paging_info\":null,\"q_indices\":null,\"k_indices\":null,\"normalize_output\":true,\"return_residuals\":true}": {
    "{\"block_q\":64,\"block_k\":32,\"num_stages\":2,\"num_warps\":4,\"block_d\":null,\"block_d_out\":null,\"split_k\":1,\"pack_mask\":false}": {
      "compile_time_ms": 791.3368780000098,
      "lower_time_ms": 4910.768654999998,
      "evaluation_times_ms": [
        0.290872,
        0.291416,
        0.29084,
        0.288471,
        0.28732
      ],
      "metadata": {},
      "peak_memory_mb": 269.484056
    }
  },
  "{\"q\":\"f16[16,1024,8,256]\",\"k\":\"f16[16,1024,8,256]\",\"v\":\"f16[16,1024,8,256]\",\"precision\":[[\"DEFAULT\",\"DEFAULT\"],[\"DEFAULT\",\"DEFAULT\"]],\"logits_dtype\":\"float32\",\"logits_scale\":0.0625,\"bias\":null,\"logits_soft_cap\":null,\"mask\":{\"bool_mask\":null,\"q_start\":null,\"q_end\":null,\"k_start\":null,\"k_end\":null,\"is_causal\":true},\"dropout_mask\":null,\"dropout_rate\":0.0,\"paging_info\":null,\"q_indices\":null,\"k_indices\":null,\"normalize_output\":true,\"return_residuals\":false}": {
    "{\"block_q\":64,\"block_k\":32,\"num_stages\":2,\"num_warps\":4,\"block_d\":null,\"block_d_out\":null,\"split_k\":1,\"pack_mask\":false}": {
      "compile_time_ms": 734.6802660031244,
      "lower_time_ms": 2983.7679980009852,
      "evaluation_times_ms": [
        0.289375,
        0.290751,
        0.289439,
        0.289023,
        0.290847
      ],
      "metadata": {},
      "peak_memory_mb": 268.435456
    }
  },
  "{\"q\":\"f16[16,1024,8,256]\",\"k\":\"f16[16,1024,8,256]\",\"v\":\"f16[16,1024,8,256]\",\"precision\":[[\"DEFAULT\",\"DEFAULT\"],[\"DEFAULT\",\"DEFAULT\"]],\"logits_dtype\":\"float32\",\"logits_scale\":0.0625,\"bias\":null,\"logits_soft_cap\":null,\"mask\":{\"bool_mask\":null,\"q_start\":null,\"q_end\":null,\"k_start\":null,\"k_end\":null,\"is_causal\":true},\"dropout_mask\":null,\"dropout_rate\":0.0,\"paging_info\":null,\"q_indices\":null,\"k_indices\":null,\"normalize_output\":true,\"return_residuals\":true}": {
    "{\"block_q\":64,\"block_k\":32,\"num_stages\":2,\"num_warps\":4,\"block_d\":null,\"block_d_out\":null,\"split_k\":1,\"pack_mask\":false}": {
      "compile_time_ms": 887.9604550020304,
      "lower_time_ms": 3618.1307949991606,
      "evaluation_times_ms": [
        0.29232,
        0.290399,
        0.287903,
        0.292255,
        0.292447
      ],
      "metadata": {},
      "peak_memory_mb": 269.484056
    }
  },
  "{\"q\":\"bf16[16,1024,8,256]\",\"k\":\"bf16[16,1024,8,256]\",\"v\":\"bf16[16,1024,8,256]\",\"precision\":[[\"DEFAULT\",\"DEFAULT\"],[\"DEFAULT\",\"DEFAULT\"]],\"logits_dtype\":\"float32\",\"logits_scale\":0.0625,\"bias\":null,\"logits_soft_cap\":null,\"mask\":{\"bool_mask\":null,\"q_start\":null,\"q_end\":null,\"k_start\":null,\"k_end\":null,\"is_causal\":false},\"dropout_mask\":null,\"dropout_rate\":0.0,\"paging_info\":null,\"q_indices\":null,\"k_indices\":null,\"normalize_output\":true,\"return_residuals\":false}": {
    "{\"block_q\":128,\"block_k\":32,\"num_stages\":4,\"num_warps\":8,\"block_d\":null,\"block_d_out\":null,\"split_k\":1,\"pack_mask\":false}": {
      "compile_time_ms": 492.40444599854527,
      "lower_time_ms": 1923.9467709994642,
      "evaluation_times_ms": [
        0.44291,
        0.442655,
        0.442015,
        0.443007,
        0.442942
      ],
      "metadata": {},
      "peak_memory_mb": 268.435456
    }
  },
  "{\"q\":\"bf16[16,1024,8,256]\",\"k\":\"bf16[16,1024,8,256]\",\"v\":\"bf16[16,1024,8,256]\",\"precision\":[[\"DEFAULT\",\"DEFAULT\"],[\"DEFAULT\",\"DEFAULT\"]],\"logits_dtype\":\"float32\",\"logits_scale\":0.0625,\"bias\":null,\"logits_soft_cap\":null,\"mask\":{\"bool_mask\":null,\"q_start\":null,\"q_end\":null,\"k_start\":null,\"k_end\":null,\"is_causal\":false},\"dropout_mask\":null,\"dropout_rate\":0.0,\"paging_info\":null,\"q_indices\":null,\"k_indices\":null,\"normalize_output\":true,\"return_residuals\":true}": {
    "{\"block_q\":128,\"block_k\":32,\"num_stages\":3,\"num_warps\":8,\"block_d\":null,\"block_d_out\":null,\"split_k\":1,\"pack_mask\":false}": {
      "compile_time_ms": 8239.082176998636,
      "lower_time_ms": 11917.79291900093,
      "evaluation_times_ms": [
        0.450174,
        0.45107,
        0.450142,
        0.450623,
        0.449343
      ],
      "metadata": {},
      "peak_memory_mb": 269.484056
    }
  },
  "{\"q\":\"f16[16,1024,8,256]\",\"k\":\"f16[16,1024,8,256]\",\"v\":\"f16[16,1024,8,256]\",\"precision\":[[\"DEFAULT\",\"DEFAULT\"],[\"DEFAULT\",\"DEFAULT\"]],\"logits_dtype\":\"float32\",\"logits_scale\":0.0625,\"bias\":null,\"logits_soft_cap\":null,\"mask\":{\"bool_mask\":null,\"q_start\":null,\"q_end\":null,\"k_start\":null,\"k_end\":null,\"is_causal\":false},\"dropout_mask\":null,\"dropout_rate\":0.0,\"paging_info\":null,\"q_indices\":null,\"k_indices\":null,\"normalize_output\":true,\"return_residuals\":false}": {
    "{\"block_q\":128,\"block_k\":32,\"num_stages\":4,\"num_warps\":8,\"block_d\":null,\"block_d_out\":null,\"split_k\":1,\"pack_mask\":false}": {
      "compile_time_ms": 614.7713440004736,
      "lower_time_ms": 1963.0986359989038,
      "evaluation_times_ms": [
        0.442239,
        0.441918,
        0.44291,
        0.442591,
        0.443295
      ],
      "metadata": {},
      "peak_memory_mb": 268.435456
    }
  },
  "{\"q\":\"f16[16,1024,8,256]\",\"k\":\"f16[16,1024,8,256]\",\"v\":\"f16[16,1024,8,256]\",\"precision\":[[\"DEFAULT\",\"DEFAULT\"],[\"DEFAULT\",\"DEFAULT\"]],\"logits_dtype\":\"float32\",\"logits_scale\":0.0625,\"bias\":null,\"logits_soft_cap\":null,\"mask\":{\"bool_mask\":null,\"q_start\":null,\"q_end\":null,\"k_start\":null,\"k_end\":null,\"is_causal\":false},\"dropout_mask\":null,\"dropout_rate\":0.0,\"paging_info\":null,\"q_indices\":null,\"k_indices\":null,\"normalize_output\":true,\"return_residuals\":true}": {
    "{\"block_q\":128,\"block_k\":32,\"num_stages\":3,\"num_warps\":8,\"block_d\":null,\"block_d_out\":null,\"split_k\":1,\"pack_mask\":false}": {
      "compile_time_ms": 462.9346980000264,
      "lower_time_ms": 10424.505115999636,
      "evaluation_times_ms": [
        0.447775,
        0.448222,
        0.446143,
        0.44787,
        0.447455
      ],
      "metadata": {},
      "peak_memory_mb": 269.484056
    }
  },
  "{\"q\":\"bf16[8,2048,32,64]\",\"k\":\"bf16[8,2048,32,64]\",\"v\":\"bf16[8,2048,32,64]\",\"precision\":[[\"DEFAULT\",\"DEFAULT\"],[\"DEFAULT\",\"DEFAULT\"]],\"logits_dtype\":\"float32\",\"logits_scale\":0.125,\"bias\":null,\"logits_soft_cap\":null,\"mask\":{\"bool_mask\":null,\"q_start\":null,\"q_end\":null,\"k_start\":null,\"k_end\":null,\"is_causal\":true},\"dropout_mask\":null,\"dropout_rate\":0.0,\"paging_info\":null,\"q_indices\":null,\"k_indices\":null,\"normalize_output\":true,\"return_residuals\":false}": {
    "{\"block_q\":128,\"block_k\":64,\"num_stages\":3,\"num_warps\":4,\"block_d\":null,\"block_d_out\":null,\"split_k\":1,\"pack_mask\":false}": {
      "compile_time_ms": 1286.13619799944,
      "lower_time_ms": 3231.7736799996055,
      "evaluation_times_ms": [
        0.551998,
        0.55011,
        0.551518,
        0.552126,
        0.553758
      ],
      "metadata": {},
      "peak_memory_mb": 268.435456
    }
  },
  "{\"q\":\"bf16[8,2048,32,64]\",\"k\":\"bf16[8,2048,32,64]\",\"v\":\"bf16[8,2048,32,64]\",\"precision\":[[\"DEFAULT\",\"DEFAULT\"],[\"DEFAULT\",\"DEFAULT\"]],\"logits_dtype\":\"float32\",\"logits_scale\":0.125,\"bias\":null,\"logits_soft_cap\":null,\"mask\":{\"bool_mask\":null,\"q_start\":null,\"q_end\":null,\"k_start\":null,\"k_end\":null,\"is_causal\":true},\"dropout_mask\":null,\"dropout_rate\":0.0,\"paging_info\":null,\"q_indices\":null,\"k_indices\":null,\"normalize_output\":true,\"return_residuals\":true}": {
    "{\"block_q\":128,\"block_k\":64,\"num_stages\":3,\"num_warps\":4,\"block_d\":null,\"block_d_out\":null,\"split_k\":1,\"pack_mask\":false}": {
      "compile_time_ms": 1478.2920930010732,
      "lower_time_ms": 3886.0988480009837,
      "evaluation_times_ms": [
        0.552446,
        0.545886,
        0.550622,
        0.548958,
        0.55331
      ],
      "metadata": {},
      "peak_memory_mb": 272.629784
    }
  },
  "{\"q\":\"f16[8,2048,32,64]\",\"k\":\"f16[8,2048,32,64]\",\"v\":\"f16[8,2048,32,64]\",\"precision\":[[\"DEFAULT\",\"DEFAULT\"],[\"DEFAULT\",\"DEFAULT\"]],\"logits_dtype\":\"float32\",\"logits_scale\":0.125,\"bias\":null,\"logits_soft_cap\":null,\"mask\":{\"bool_mask\":null,\"q_start\":null,\"q_end\":null,\"k_start\":null,\"k_end\":null,\"is_causal\":true},\"dropout_mask\":null,\"dropout_rate\":0.0,\"paging_info\":null,\"q_indices\":null,\"k_indices\":null,\"normalize_output\":true,\"return_residuals\":false}": {
    "{\"block_q\":64,\"block_k\":64,\"num_stages\":3,\"num_warps\":4,\"block_d\":null,\"block_d_out\":null,\"split_k\":1,\"pack_mask\":false}": {
      "compile_time_ms": 330.0298409994866,
      "lower_time_ms": 12088.52066899999,
      "evaluation_times_ms": [
        0.549662,
        0.552062,
        0.551838,
        0.554622,
        0.554014
      ],
      "metadata": {},
      "peak_memory_mb": 268.435456
    }
  },
  "{\"q\":\"f16[8,2048,32,64]\",\"k\":\"f16[8,2048,32,64]\",\"v\":\"f16[8,2048,32,64]\",\"precision\":[[\"DEFAULT\",\"DEFAULT\"],[\"DEFAULT\",\"DEFAULT\"]],\"logits_dtype\":\"float32\",\"logits_scale\":0.125,\"bias\":null,\"logits_soft_cap\":null,\"mask\":{\"bool_mask\":null,\"q_start\":null,\"q_end\":null,\"k_start\":null,\"k_end\":null,\"is_causal\":true},\"dropout_mask\":null,\"dropout_rate\":0.0,\"paging_info\":null,\"q_indices\":null,\"k_indices\":null,\"normalize_output\":true,\"return_residuals\":true}": {
    "{\"block_q\":128,\"block_k\":64,\"num_stages\":3,\"num_warps\":4,\"block_d\":null,\"block_d_out\":null,\"split_k\":1,\"pack_mask\":false}": {
      "compile_time_ms": 797.2822210031154,
      "lower_time_ms": 4384.493019999354,
      "evaluation_times_ms": [
        0.55283,
        0.551486,
        0.552446,
        0.55267,
        0.554206
      ],
      "metadata": {},
      "peak_memory_mb": 272.629784
    }
  },
  "{\"q\":\"bf16[8,2048,32,64]\",\"k\":\"bf16[8,2048,32,64]\",\"v\":\"bf16[8,2048,32,64]\",\"precision\":[[\"DEFAULT\",\"DEFAULT\"],[\"DEFAULT\",\"DEFAULT\"]],\"logits_dtype\":\"float32\",\"logits_scale\":0.125,\"bias\":null,\"logits_soft_cap\":null,\"mask\":{\"bool_mask\":null,\"q_start\":null,\"q_end\":null,\"k_start\":null,\"k_end\":null,\"is_causal\":false},\"dropout_mask\":null,\"dropout_rate\":0.0,\"paging_info\":null,\"q_indices\":null,\"k_indices\":null,\"normalize_output\":true,\"return_residuals\":false}": {
    "{\"block_q\":64,\"block_k\":128,\"num_stages\":3,\"num_warps\":4,\"block_d\":null,\"block_d_out\":null,\"split_k\":1,\"pack_mask\":false}": {
      "compile_time_ms": 308.6064260023704,
      "lower_time_ms": 6549.60272199969,
      "evaluation_times_ms": [
        0.922941,
        0.923261,
        0.922653,
        0.923068,
        0.925117
      ],
      "metadata": {},
      "peak_memory_mb": 268.435456
    }
  },
  "{\"q\":\"bf16[8,2048,32,64]\",\"k\":\"bf16[8,2048,32,64]\",\"v\":\"bf16[8,2048,32,64]\",\"precision\":[[\"DEFAULT\",\"DEFAULT\"],[\"DEFAULT\",\"DEFAULT\"]],\"logits_dtype\":\"float32\",\"logits_scale\":0.125,\"bias\":null,\"logits_soft_cap\":null,\"mask\":{\"bool_mask\":null,\"q_start\":null,\"q_end\":null,\"k_start\":null,\"k_end\":null,\"is_causal\":false},\"dropout_mask\":null,\"dropout_rate\":0.0,\"paging_info\":null,\"q_indices\":null,\"k_indices\":null,\"normalize_output\":true,\"return_residuals\":true}": {
    "{\"block_q\":128,\"block_k\":64,\"num_stages\":3,\"num_warps\":4,\"block_d\":null,\"block_d_out\":null,\"split_k\":1,\"pack_mask\":false}": {
      "compile_time_ms": 666.0571210013586,
      "lower_time_ms": 3334.9122920008085,
      "evaluation_times_ms": [
        0.892797,
        0.892701,
        0.891678,
        0.89315,
        0.894525
      ],
      "metadata": {},
      "peak_memory_mb": 272.629784
    }
  },
  "{\"q\":\"f16[8,2048,32,64]\",\"k\":\"f16[8,2048,32,64]\",\"v\":\"f16[8,2048,32,64]\",\"precision\":[[\"DEFAULT\",\"DEFAULT\"],[\"DEFAULT\",\"DEFAULT\"]],\"logits_dtype\":\"float32\",\"logits_scale\":0.125,\"bias\":null,\"logits_soft_cap\":null,\"mask\":{\"bool_mask\":null,\"q_start\":null,\"q_end\":null,\"k_start\":null,\"k_end\":null,\"is_causal\":false},\"dropout_mask\":null,\"dropout_rate\":0.0,\"paging_info\":null,\"q_indices\":null,\"k_indices\":null,\"normalize_output\":true,\"return_residuals\":false}": {
    "{\"block_q\":64,\"block_k\":64,\"num_stages\":3,\"num_warps\":4,\"block_d\":null,\"block_d_out\":null,\"split_k\":1,\"pack_mask\":false}": {
      "compile_time_ms": 196.71645400012494,
      "lower_time_ms": 11616.946917998575,
      "evaluation_times_ms": [
        0.927101,
        0.925438,
        0.925309,
        0.925341,
        0.923805
      ],
      "metadata": {},
      "peak_memory_mb": 268.435456
    }
  },
  "{\"q\":\"f16[8,2048,32,64]\",\"k\":\"f16[8,2048,32,64]\",\"v\":\"f16[8,2048,32,64]\",\"precision\":[[\"DEFAULT\",\"DEFAULT\"],[\"DEFAULT\",\"DEFAULT\"]],\"logits_dtype\":\"float32\",\"logits_scale\":0.125,\"bias\":null,\"logits_soft_cap\":null,\"mask\":{\"bool_mask\":null,\"q_start\":null,\"q_end\":null,\"k_start\":null,\"k_end\":null,\"is_causal\":false},\"dropout_mask\":null,\"dropout_rate\":0.0,\"paging_info\":null,\"q_indices\":null,\"k_indices\":null,\"normalize_output\":true,\"return_residuals\":true}": {
    "{\"block_q\":128,\"block_k\":64,\"num_stages\":3,\"num_warps\":4,\"block_d\":null,\"block_d_out\":null,\"split_k\":1,\"pack_mask\":false}": {
      "compile_time_ms": 349.34630199859384,
      "lower_time_ms": 1643.1667130018468,
      "evaluation_times_ms": [
        0.89203,
        0.895805,
        0.892893,
        0.892669,
        0.895774
      ],
      "metadata": {},
      "peak_memory_mb": 272.629784
    }
  },
  "{\"q\":\"bf16[8,2048,16,128]\",\"k\":\"bf16[8,2048,16,128]\",\"v\":\"bf16[8,2048,16,128]\",\"precision\":[[\"DEFAULT\",\"DEFAULT\"],[\"DEFAULT\",\"DEFAULT\"]],\"logits_dtype\":\"float32\",\"logits_scale\":0.08838834764831843,\"bias\":null,\"logits_soft_cap\":null,\"mask\":{\"bool_mask\":null,\"q_start\":null,\"q_end\":null,\"k_start\":null,\"k_end\":null,\"is_causal\":true},\"dropout_mask\":null,\"dropout_rate\":0.0,\"paging_info\":null,\"q_indices\":null,\"k_indices\":null,\"normalize_output\":true,\"return_residuals\":false}": {
    "{\"block_q\":64,\"block_k\":64,\"num_stages\":3,\"num_warps\":4,\"block_d\":null,\"block_d_out\":null,\"split_k\":1,\"pack_mask\":false}": {
      "compile_time_ms": 535.9291360000498,
      "lower_time_ms": 12979.324512998573,
      "evaluation_times_ms": [
        0.444095,
        0.445439,
        0.443135,
        0.443902,
        0.441855
      ],
      "metadata": {},
      "peak_memory_mb": 268.435456
    }
  },
  "{\"q\":\"bf16[8,2048,16,128]\",\"k\":\"bf16[8,2048,16,128]\",\"v\":\"bf16[8,2048,16,128]\",\"precision\":[[\"DEFAULT\",\"DEFAULT\"],[\"DEFAULT\",\"DEFAULT\"]],\"logits_dtype\":\"float32\",\"logits_scale\":0.08838834764831843,\"bias\":null,\"logits_soft_cap\":null,\"mask\":{\"bool_mask\":null,\"q_start\":null,\"q_end\":null,\"k_start\":null,\"k_end\":null,\"is_causal\":true},\"dropout_mask\":null,\"dropout_rate\":0.0,\"paging_info\":null,\"q_indices\":null,\"k_indices\":null,\"normalize_output\":true,\"return_residuals\":true}": {
    "{\"block_q\":64,\"block_k\":64,\"num_stages\":3,\"num_warps\":4,\"block_d\":null,\"block_d_out\":null,\"split_k\":1,\"pack_mask\":false}": {
      "compile_time_ms": 3171.433765000984,
      "lower_time_ms": 16706.097432001116,
      "evaluation_times_ms": [
        0.446206,
        0.446655,
        0.446207,
        0.448735,
        0.444638
      ],
      "metadata": {},
      "peak_memory_mb": 270.532632
    }
  },
  "{\"q\":\"f16[8,2048,16,128]\",\"k\":\"f16[8,2048,16,128]\",\"v\":\"f16[8,2048,16,128]\",\"precision\":[[\"DEFAULT\",\"DEFAULT\"],[\"DEFAULT\",\"DEFAULT\"]],\"logits_dtype\":\"float32\",\"logits_scale\":0.08838834764831843,\"bias\":null,\"logits_soft_cap\":null,\"mask\":{\"bool_mask\":null,\"q_start\":null,\"q_end\":null,\"k_start\":null,\"k_end\":null,\"is_causal\":true},\"dropout_mask\":null,\"dropout_rate\":0.0,\"paging_info\":null,\"q_indices\":null,\"k_indices\":null,\"normalize_output\":true,\"return_residuals\":false}": {
    "{\"block_q\":64,\"block_k\":64,\"num_stages\":3,\"num_warps\":4,\"block_d\":null,\"block_d_out\":null,\"split_k\":1,\"pack_mask\":false}": {
      "compile_time_ms": 1626.8815780022123,
      "lower_time_ms": 15025.38938699945,
      "evaluation_times_ms": [
        0.445758,
        0.444479,
        0.442687,
        0.445086,
        0.44387
      ],
      "metadata": {},
      "peak_memory_mb": 268.435456
    }
  },
  "{\"q\":\"f16[8,2048,16,128]\",\"k\":\"f16[8,2048,16,128]\",\"v\":\"f16[8,2048,16,128]\",\"precision\":[[\"DEFAULT\",\"DEFAULT\"],[\"DEFAULT\",\"DEFAULT\"]],\"logits_dtype\":\"float32\",\"logits_scale\":0.08838834764831843,\"bias\":null,\"logits_soft_cap\":null,\"mask\":{\"bool_mask\":null,\"q_start\":null,\"q_end\":null,\"k_start\":null,\"k_end\":null,\"is_causal\":true},\"dropout_mask\":null,\"dropout_rate\":0.0,\"paging_info\":null,\"q_indices\":null,\"k_indices\":null,\"normalize_output\":true,\"return_residuals\":true}": {
    "{\"block_q\":64,\"block_k\":64,\"num_stages\":3,\"num_warps\":4,\"block_d\":null,\"block_d_out\":null,\"split_k\":1,\"pack_mask\":false}": {
      "compile_time_ms": 1042.7417970022361,
      "lower_time_ms": 16403.974397999264,
      "evaluation_times_ms": [
        0.447935,
        0.447647,
        0.446623,
        0.448095,
        0.449471
      ],
      "metadata": {},
      "peak_memory_mb": 270.532632
    }
  },
  "{\"q\":\"bf16[8,2048,16,128]\",\"k\":\"bf16[8,2048,16,128]\",\"v\":\"bf16[8,2048,16,128]\",\"precision\":[[\"DEFAULT\",\"DEFAULT\"],[\"DEFAULT\",\"DEFAULT\"]],\"logits_dtype\":\"float32\",\"logits_scale\":0.08838834764831843,\"bias\":null,\"logits_soft_cap\":null,\"mask\":{\"bool_mask\":null,\"q_start\":null,\"q_end\":null,\"k_start\":null,\"k_end\":null,\"is_causal\":false},\"dropout_mask\":null,\"dropout_rate\":0.0,\"paging_info\":null,\"q_indices\":null,\"k_indices\":null,\"normalize_output\":true,\"return_residuals\":false}": {
    "{\"block_q\":128,\"block_k\":128,\"num_stages\":3,\"num_warps\":8,\"block_d\":null,\"block_d_out\":null,\"split_k\":1,\"pack_mask\":false}": {
      "compile_time_ms": 393.01330400121515,
      "lower_time_ms": 2770.61707699977,
      "evaluation_times_ms": [
        0.728638,
        0.731806,
        0.729566,
        0.735134,
        0.733982
      ],
      "metadata": {},
      "peak_memory_mb": 268.435456
    }
  },
  "{\"q\":\"bf16[8,2048,16,128]\",\"k\":\"bf16[8,2048,16,128]\",\"v\":\"bf16[8,2048,16,128]\",\"precision\":[[\"DEFAULT\",\"DEFAULT\"],[\"DEFAULT\",\"DEFAULT\"]],\"logits_dtype\":\"float32\",\"logits_scale\":0.08838834764831843,\"bias\":null,\"logits_soft_cap\":null,\"mask\":{\"bool_mask\":null,\"q_start\":null,\"q_end\":null,\"k_start\":null,\"k_end\":null,\"is_causal\":false},\"dropout_mask\":null,\"dropout_rate\":0.0,\"paging_info\":null,\"q_indices\":null,\"k_indices\":null,\"normalize_output\":true,\"return_residuals\":true}": {
    "{\"block_q\":128,\"block_k\":128,\"num_stages\":3,\"num_warps\":8,\"block_d\":null,\"block_d_out\":null,\"split_k\":1,\"pack_mask\":false}": {
      "compile_time_ms": 3199.6073390000674,
      "lower_time_ms": 5319.94202399801,
      "evaluation_times_ms": [
        0.731711,
        0.734207,
        0.734623,
        0.733631,
        0.739231
      ],
      "metadata": {},
      "peak_memory_mb": 270.532632
    }
  },
  "{\"q\":\"f16[8,2048,16,128]\",\"k\":\"f16[8,2048,16,128]\",\"v\":\"f16[8,2048,16,128]\",\"precision\":[[\"DEFAULT\",\"DEFAULT\"],[\"DEFAULT\",\"DEFAULT\"]],\"logits_dtype\":\"float32\",\"logits_scale\":0.08838834764831843,\"bias\":null,\"logits_soft_cap\":null,\"mask\":{\"bool_mask\":null,\"q_start\":null,\"q_end\":null,\"k_start\":null,\"k_end\":null,\"is_causal\":false},\"dropout_mask\":null,\"dropout_rate\":0.0,\"paging_info\":null,\"q_indices\":null,\"k_indices\":null,\"normalize_output\":true,\"return_residuals\":false}": {
    "{\"block_q\":128,\"block_k\":128,\"num_stages\":3,\"num_warps\":8,\"block_d\":null,\"block_d_out\":null,\"split_k\":1,\"pack_mask\":false}": {
      "compile_time_ms": 1029.7068410000065,
      "lower_time_ms": 5078.2104799982335,
      "evaluation_times_ms": [
        0.725119,
        0.727071,
        0.729024,
        0.728863,
        0.726783
      ],
      "metadata": {},
      "peak_memory_mb": 268.435456
    }
  },
  "{\"q\":\"f16[8,2048,16,128]\",\"k\":\"f16[8,2048,16,128]\",\"v\":\"f16[8,2048,16,128]\",\"precision\":[[\"DEFAULT\",\"DEFAULT\"],[\"DEFAULT\",\"DEFAULT\"]],\"logits_dtype\":\"float32\",\"logits_scale\":0.08838834764831843,\"bias\":null,\"logits_soft_cap\":null,\"mask\":{\"bool_mask\":null,\"q_start\":null,\"q_end\":null,\"k_start\":null,\"k_end\":null,\"is_causal\":false},\"dropout_mask\":null,\"dropout_rate\":0.0,\"paging_info\":null,\"q_indices\":null,\"k_indices\":null,\"normalize_output\":true,\"return_residuals\":true}": {
    "{\"block_q\":128,\"block_k\":128,\"num_stages\":3,\"num_warps\":8,\"block_d\":null,\"block_d_out\":null,\"split_k\":1,\"pack_mask\":false}": {
      "compile_time_ms": 653.3040079993953,
      "lower_time_ms": 5023.9264629999525,
      "evaluation_times_ms": [
        0.740766,
        0.735647,
        0.735807,
        0.737471,
        0.737823
      ],
      "metadata": {},
      "peak_memory_mb": 270.532632
    }
  },
  "{\"q\":\"bf16[8,2048,8,256]\",\"k\":\"bf16[8,2048,8,256]\",\"v\":\"bf16[8,2048,8,256]\",\"precision\":[[\"DEFAULT\",\"DEFAULT\"],[\"DEFAULT\",\"DEFAULT\"]],\"logits_dtype\":\"float32\",\"logits_scale\":0.0625,\"bias\":null,\"logits_soft_cap\":null,\"mask\":{\"bool_mask\":null,\"q_start\":null,\"q_end\":null,\"k_start\":null,\"k_end\":null,\"is_causal\":true},\"dropout_mask\":null,\"dropout_rate\":0.0,\"paging_info\":null,\"q_indices\":null,\"k_indices\":null,\"normalize_output\":true,\"return_residuals\":false}": {
    "{\"block_q\":128,\"block_k\":64,\"num_stages\":2,\"num_warps\":8,\"block_d\":null,\"block_d_out\":null,\"split_k\":1,\"pack_mask\":false}": {
      "compile_time_ms": 1387.6343819974863,
      "lower_time_ms": 11741.593173999718,
      "evaluation_times_ms": [
        0.493182,
        0.492543,
        0.494591,
        0.495231,
        0.495198
      ],
      "metadata": {},
      "peak_memory_mb": 268.435456
    }
  },
  "{\"q\":\"bf16[8,2048,8,256]\",\"k\":\"bf16[8,2048,8,256]\",\"v\":\"bf16[8,2048,8,256]\",\"precision\":[[\"DEFAULT\",\"DEFAULT\"],[\"DEFAULT\",\"DEFAULT\"]],\"logits_dtype\":\"float32\",\"logits_scale\":0.0625,\"bias\":null,\"logits_soft_cap\":null,\"mask\":{\"bool_mask\":null,\"q_start\":null,\"q_end\":null,\"k_start\":null,\"k_end\":null,\"is_causal\":true},\"dropout_mask\":null,\"dropout_rate\":0.0,\"paging_info\":null,\"q_indices\":null,\"k_indices\":null,\"normalize_output\":true,\"return_residuals\":true}": {
    "{\"block_q\":128,\"block_k\":64,\"num_stages\":2,\"num_warps\":8,\"block_d\":null,\"block_d_out\":null,\"split_k\":1,\"pack_mask\":false}": {
      "compile_time_ms": 3252.3366089990304,
      "lower_time_ms": 14988.881240002229,
      "evaluation_times_ms": [
        0.491871,
        0.494271,
        0.493216,
        0.495807,
        0.497791
      ],
      "metadata": {},
      "peak_memory_mb": 269.484056
    }
  },
  "{\"q\":\"f16[8,2048,8,256]\",\"k\":\"f16[8,2048,8,256]\",\"v\":\"f16[8,2048,8,256]\",\"precision\":[[\"DEFAULT\",\"DEFAULT\"],[\"DEFAULT\",\"DEFAULT\"]],\"logits_dtype\":\"float32\",\"logits_scale\":0.0625,\"bias\":null,\"logits_soft_cap\":null,\"mask\":{\"bool_mask\":null,\"q_start\":null,\"q_end\":null,\"k_start\":null,\"k_end\":null,\"is_causal\":true},\"dropout_mask\":null,\"dropout_rate\":0.0,\"paging_info\":null,\"q_indices\":null,\"k_indices\":null,\"normalize_output\":true,\"return_residuals\":false}": {
    "{\"block_q\":128,\"block_k\":64,\"num_stages\":2,\"num_warps\":8,\"block_d\":null,\"block_d_out\":null,\"split_k\":1,\"pack_mask\":false}": {
      "compile_time_ms": 1456.3122899999144,
      "lower_time_ms": 12366.384574997937,
      "evaluation_times_ms": [
        0.491968,
        0.492704,
        0.491103,
        0.491776,
        0.492735
      ],
      "metadata": {},
      "peak_memory_mb": 268.435456
    }
  },
  "{\"q\":\"f16[8,2048,8,256]\",\"k\":\"f16[8,2048,8,256]\",\"v\":\"f16[8,2048,8,256]\",\"precision\":[[\"DEFAULT\",\"DEFAULT\"],[\"DEFAULT\",\"DEFAULT\"]],\"logits_dtype\":\"float32\",\"logits_scale\":0.0625,\"bias\":null,\"logits_soft_cap\":null,\"mask\":{\"bool_mask\":null,\"q_start\":null,\"q_end\":null,\"k_start\":null,\"k_end\":null,\"is_causal\":true},\"dropout_mask\":null,\"dropout_rate\":0.0,\"paging_info\":null,\"q_indices\":null,\"k_indices\":null,\"normalize_output\":true,\"return_residuals\":true}": {
    "{\"block_q\":128,\"block_k\":64,\"num_stages\":2,\"num_warps\":8,\"block_d\":null,\"block_d_out\":null,\"split_k\":1,\"pack_mask\":false}": {
      "compile_time_ms": 6803.808033990208,
      "lower_time_ms": 13980.391832999885,
      "evaluation_times_ms": [
        0.495201,
        0.497121,
        0.496064,
        0.495808,
        0.498368
      ],
      "metadata": {},
      "peak_memory_mb": 269.484056
    },
    "{\"block_q\":64,\"block_k\":32,\"num_stages\":2,\"num_warps\":4,\"block_d\":null,\"block_d_out\":null,\"split_k\":1,\"pack_mask\":false}": {
      "compile_time_ms": 3827.7896740473807,
      "lower_time_ms": 6586.4262660034,
      "evaluation_times_ms": [
        0.49641,
        0.497339,
        0.502457,
        0.49609,
        0.496058
      ],
      "metadata": {},
      "peak_memory_mb": 269.484056
    }
  },
  "{\"q\":\"bf16[8,2048,8,256]\",\"k\":\"bf16[8,2048,8,256]\",\"v\":\"bf16[8,2048,8,256]\",\"precision\":[[\"DEFAULT\",\"DEFAULT\"],[\"DEFAULT\",\"DEFAULT\"]],\"logits_dtype\":\"float32\",\"logits_scale\":0.0625,\"bias\":null,\"logits_soft_cap\":null,\"mask\":{\"bool_mask\":null,\"q_start\":null,\"q_end\":null,\"k_start\":null,\"k_end\":null,\"is_causal\":false},\"dropout_mask\":null,\"dropout_rate\":0.0,\"paging_info\":null,\"q_indices\":null,\"k_indices\":null,\"normalize_output\":true,\"return_residuals\":false}": {
    "{\"block_q\":128,\"block_k\":32,\"num_stages\":3,\"num_warps\":8,\"block_d\":null,\"block_d_out\":null,\"split_k\":1,\"pack_mask\":false}": {
      "compile_time_ms": 490.22100600001295,
      "lower_time_ms": 4563.913730000024,
      "evaluation_times_ms": [
        0.816185,
        0.812729,
        0.817402,
        0.816762,
        0.821049
      ],
      "metadata": {},
      "peak_memory_mb": 268.435456
    }
  },
  "{\"q\":\"bf16[8,2048,8,256]\",\"k\":\"bf16[8,2048,8,256]\",\"v\":\"bf16[8,2048,8,256]\",\"precision\":[[\"DEFAULT\",\"DEFAULT\"],[\"DEFAULT\",\"DEFAULT\"]],\"logits_dtype\":\"float32\",\"logits_scale\":0.0625,\"bias\":null,\"logits_soft_cap\":null,\"mask\":{\"bool_mask\":null,\"q_start\":null,\"q_end\":null,\"k_start\":null,\"k_end\":null,\"is_causal\":false},\"dropout_mask\":null,\"dropout_rate\":0.0,\"paging_info\":null,\"q_indices\":null,\"k_indices\":null,\"normalize_output\":true,\"return_residuals\":true}": {
    "{\"block_q\":128,\"block_k\":32,\"num_stages\":3,\"num_warps\":8,\"block_d\":null,\"block_d_out\":null,\"split_k\":1,\"pack_mask\":false}": {
      "compile_time_ms": 472.1325290000209,
      "lower_time_ms": 8111.458809999987,
      "evaluation_times_ms": [
        0.827614,
        0.825469,
        0.825245,
        0.824381,
        0.827517
      ],
      "metadata": {},
      "peak_memory_mb": 269.484056
    }
  },
  "{\"q\":\"f16[8,2048,8,256]\",\"k\":\"f16[8,2048,8,256]\",\"v\":\"f16[8,2048,8,256]\",\"precision\":[[\"DEFAULT\",\"DEFAULT\"],[\"DEFAULT\",\"DEFAULT\"]],\"logits_dtype\":\"float32\",\"logits_scale\":0.0625,\"bias\":null,\"logits_soft_cap\":null,\"mask\":{\"bool_mask\":null,\"q_start\":null,\"q_end\":null,\"k_start\":null,\"k_end\":null,\"is_causal\":false},\"dropout_mask\":null,\"dropout_rate\":0.0,\"paging_info\":null,\"q_indices\":null,\"k_indices\":null,\"normalize_output\":true,\"return_residuals\":false}": {
    "{\"block_q\":128,\"block_k\":32,\"num_stages\":3,\"num_warps\":8,\"block_d\":null,\"block_d_out\":null,\"split_k\":1,\"pack_mask\":false}": {
      "compile_time_ms": 441.94377200005874,
      "lower_time_ms": 3646.486600000003,
      "evaluation_times_ms": [
        0.81955,
        0.816606,
        0.816253,
        0.818781,
        0.816958
      ],
      "metadata": {},
      "peak_memory_mb": 268.435456
    }
  },
  "{\"q\":\"f16[8,2048,8,256]\",\"k\":\"f16[8,2048,8,256]\",\"v\":\"f16[8,2048,8,256]\",\"precision\":[[\"DEFAULT\",\"DEFAULT\"],[\"DEFAULT\",\"DEFAULT\"]],\"logits_dtype\":\"float32\",\"logits_scale\":0.0625,\"bias\":null,\"logits_soft_cap\":null,\"mask\":{\"bool_mask\":null,\"q_start\":null,\"q_end\":null,\"k_start\":null,\"k_end\":null,\"is_causal\":false},\"dropout_mask\":null,\"dropout_rate\":0.0,\"paging_info\":null,\"q_indices\":null,\"k_indices\":null,\"normalize_output\":true,\"return_residuals\":true}": {
    "{\"block_q\":128,\"block_k\":32,\"num_stages\":3,\"num_warps\":8,\"block_d\":null,\"block_d_out\":null,\"split_k\":1,\"pack_mask\":false}": {
      "compile_time_ms": 453.4801239999524,
      "lower_time_ms": 10422.403698000038,
      "evaluation_times_ms": [
        0.824318,
        0.824254,
        0.824541,
        0.820798,
        0.822206
      ],
      "metadata": {},
      "peak_memory_mb": 269.484056
    }
  },
  "{\"q\":\"bf16[4,4096,32,64]\",\"k\":\"bf16[4,4096,32,64]\",\"v\":\"bf16[4,4096,32,64]\",\"precision\":[[\"DEFAULT\",\"DEFAULT\"],[\"DEFAULT\",\"DEFAULT\"]],\"logits_dtype\":\"float32\",\"logits_scale\":0.125,\"bias\":null,\"logits_soft_cap\":null,\"mask\":{\"bool_mask\":null,\"q_start\":null,\"q_end\":null,\"k_start\":null,\"k_end\":null,\"is_causal\":true},\"dropout_mask\":null,\"dropout_rate\":0.0,\"paging_info\":null,\"q_indices\":null,\"k_indices\":null,\"normalize_output\":true,\"return_residuals\":false}": {
    "{\"block_q\":64,\"block_k\":128,\"num_stages\":3,\"num_warps\":4,\"block_d\":null,\"block_d_out\":null,\"split_k\":1,\"pack_mask\":false}": {
      "compile_time_ms": 556.1325329999818,
      "lower_time_ms": 6006.749810999963,
      "evaluation_times_ms": [
        0.982046,
        0.983933,
        0.981405,
        0.984029,
        0.979517
      ],
      "metadata": {},
      "peak_memory_mb": 268.435456
    }
  },
  "{\"q\":\"bf16[4,4096,32,64]\",\"k\":\"bf16[4,4096,32,64]\",\"v\":\"bf16[4,4096,32,64]\",\"precision\":[[\"DEFAULT\",\"DEFAULT\"],[\"DEFAULT\",\"DEFAULT\"]],\"logits_dtype\":\"float32\",\"logits_scale\":0.125,\"bias\":null,\"logits_soft_cap\":null,\"mask\":{\"bool_mask\":null,\"q_start\":null,\"q_end\":null,\"k_start\":null,\"k_end\":null,\"is_causal\":true},\"dropout_mask\":null,\"dropout_rate\":0.0,\"paging_info\":null,\"q_indices\":null,\"k_indices\":null,\"normalize_output\":true,\"return_residuals\":true}": {
    "{\"block_q\":64,\"block_k\":128,\"num_stages\":3,\"num_warps\":4,\"block_d\":null,\"block_d_out\":null,\"split_k\":1,\"pack_mask\":false}": {
      "compile_time_ms": 625.1972689999548,
      "lower_time_ms": 11249.544976999914,
      "evaluation_times_ms": [
        0.990013,
        0.986173,
        0.990332,
        0.983197,
        0.984765
      ],
      "metadata": {},
      "peak_memory_mb": 272.629784
    }
  },
  "{\"q\":\"f16[4,4096,32,64]\",\"k\":\"f16[4,4096,32,64]\",\"v\":\"f16[4,4096,32,64]\",\"precision\":[[\"DEFAULT\",\"DEFAULT\"],[\"DEFAULT\",\"DEFAULT\"]],\"logits_dtype\":\"float32\",\"logits_scale\":0.125,\"bias\":null,\"logits_soft_cap\":null,\"mask\":{\"bool_mask\":null,\"q_start\":null,\"q_end\":null,\"k_start\":null,\"k_end\":null,\"is_causal\":true},\"dropout_mask\":null,\"dropout_rate\":0.0,\"paging_info\":null,\"q_indices\":null,\"k_indices\":null,\"normalize_output\":true,\"return_residuals\":false}": {
    "{\"block_q\":64,\"block_k\":128,\"num_stages\":3,\"num_warps\":4,\"block_d\":null,\"block_d_out\":null,\"split_k\":1,\"pack_mask\":false}": {
      "compile_time_ms": 556.1738680000872,
      "lower_time_ms": 6275.25304400001,
      "evaluation_times_ms": [
        0.990748,
        0.986524,
        0.98566,
        0.992508,
        0.988892
      ],
      "metadata": {},
      "peak_memory_mb": 268.435456
    }
  },
  "{\"q\":\"f16[4,4096,32,64]\",\"k\":\"f16[4,4096,32,64]\",\"v\":\"f16[4,4096,32,64]\",\"precision\":[[\"DEFAULT\",\"DEFAULT\"],[\"DEFAULT\",\"DEFAULT\"]],\"logits_dtype\":\"float32\",\"logits_scale\":0.125,\"bias\":null,\"logits_soft_cap\":null,\"mask\":{\"bool_mask\":null,\"q_start\":null,\"q_end\":null,\"k_start\":null,\"k_end\":null,\"is_causal\":true},\"dropout_mask\":null,\"dropout_rate\":0.0,\"paging_info\":null,\"q_indices\":null,\"k_indices\":null,\"normalize_output\":true,\"return_residuals\":true}": {
    "{\"block_q\":64,\"block_k\":128,\"num_stages\":3,\"num_warps\":4,\"block_d\":null,\"block_d_out\":null,\"split_k\":1,\"pack_mask\":false}": {
      "compile_time_ms": 587.8706640000928,
      "lower_time_ms": 9273.15270300005,
      "evaluation_times_ms": [
        0.987197,
        0.983708,
        0.983388,
        0.98694,
        0.982332
      ],
      "metadata": {},
      "peak_memory_mb": 272.629784
    }
  },
  "{\"q\":\"bf16[4,4096,32,64]\",\"k\":\"bf16[4,4096,32,64]\",\"v\":\"bf16[4,4096,32,64]\",\"precision\":[[\"DEFAULT\",\"DEFAULT\"],[\"DEFAULT\",\"DEFAULT\"]],\"logits_dtype\":\"float32\",\"logits_scale\":0.125,\"bias\":null,\"logits_soft_cap\":null,\"mask\":{\"bool_mask\":null,\"q_start\":null,\"q_end\":null,\"k_start\":null,\"k_end\":null,\"is_causal\":false},\"dropout_mask\":null,\"dropout_rate\":0.0,\"paging_info\":null,\"q_indices\":null,\"k_indices\":null,\"normalize_output\":true,\"return_residuals\":false}": {
    "{\"block_q\":64,\"block_k\":128,\"num_stages\":3,\"num_warps\":4,\"block_d\":null,\"block_d_out\":null,\"split_k\":1,\"pack_mask\":false}": {
      "compile_time_ms": 288.82720500018877,
      "lower_time_ms": 6386.702285999945,
      "evaluation_times_ms": [
        1.783228,
        1.782523,
        1.783452,
        1.786044,
        1.783132
      ],
      "metadata": {},
      "peak_memory_mb": 268.435456
    }
  },
  "{\"q\":\"bf16[4,4096,32,64]\",\"k\":\"bf16[4,4096,32,64]\",\"v\":\"bf16[4,4096,32,64]\",\"precision\":[[\"DEFAULT\",\"DEFAULT\"],[\"DEFAULT\",\"DEFAULT\"]],\"logits_dtype\":\"float32\",\"logits_scale\":0.125,\"bias\":null,\"logits_soft_cap\":null,\"mask\":{\"bool_mask\":null,\"q_start\":null,\"q_end\":null,\"k_start\":null,\"k_end\":null,\"is_causal\":false},\"dropout_mask\":null,\"dropout_rate\":0.0,\"paging_info\":null,\"q_indices\":null,\"k_indices\":null,\"normalize_output\":true,\"return_residuals\":true}": {
    "{\"block_q\":128,\"block_k\":64,\"num_stages\":4,\"num_warps\":4,\"block_d\":null,\"block_d_out\":null,\"split_k\":1,\"pack_mask\":false}": {
      "compile_time_ms": 358.1822310000007,
      "lower_time_ms": 7672.447408999915,
      "evaluation_times_ms": [
        1.758908,
        1.757468,
        1.758108,
        1.755068,
        1.754972
      ],
      "metadata": {},
      "peak_memory_mb": 272.629784
    }
  },
  "{\"q\":\"f16[4,4096,32,64]\",\"k\":\"f16[4,4096,32,64]\",\"v\":\"f16[4,4096,32,64]\",\"precision\":[[\"DEFAULT\",\"DEFAULT\"],[\"DEFAULT\",\"DEFAULT\"]],\"logits_dtype\":\"float32\",\"logits_scale\":0.125,\"bias\":null,\"logits_soft_cap\":null,\"mask\":{\"bool_mask\":null,\"q_start\":null,\"q_end\":null,\"k_start\":null,\"k_end\":null,\"is_causal\":false},\"dropout_mask\":null,\"dropout_rate\":0.0,\"paging_info\":null,\"q_indices\":null,\"k_indices\":null,\"normalize_output\":true,\"return_residuals\":false}": {
    "{\"block_q\":64,\"block_k\":128,\"num_stages\":3,\"num_warps\":4,\"block_d\":null,\"block_d_out\":null,\"split_k\":1,\"pack_mask\":false}": {
      "compile_time_ms": 288.50431399996523,
      "lower_time_ms": 5900.636505999955,
      "evaluation_times_ms": [
        1.783515,
        1.785082,
        1.784731,
        1.782427,
        1.783899
      ],
      "metadata": {},
      "peak_memory_mb": 268.435456
    }
  },
  "{\"q\":\"f16[4,4096,32,64]\",\"k\":\"f16[4,4096,32,64]\",\"v\":\"f16[4,4096,32,64]\",\"precision\":[[\"DEFAULT\",\"DEFAULT\"],[\"DEFAULT\",\"DEFAULT\"]],\"logits_dtype\":\"float32\",\"logits_scale\":0.125,\"bias\":null,\"logits_soft_cap\":null,\"mask\":{\"bool_mask\":null,\"q_start\":null,\"q_end\":null,\"k_start\":null,\"k_end\":null,\"is_causal\":false},\"dropout_mask\":null,\"dropout_rate\":0.0,\"paging_info\":null,\"q_indices\":null,\"k_indices\":null,\"normalize_output\":true,\"return_residuals\":true}": {
    "{\"block_q\":128,\"block_k\":64,\"num_stages\":3,\"num_warps\":4,\"block_d\":null,\"block_d_out\":null,\"split_k\":1,\"pack_mask\":false}": {
      "compile_time_ms": 363.5649689999809,
      "lower_time_ms": 5718.861701999913,
      "evaluation_times_ms": [
        1.75814,
        1.752541,
        1.761756,
        1.758364,
        1.761244
      ],
      "metadata": {},
      "peak_memory_mb": 272.629784
    }
  },
  "{\"q\":\"bf16[4,4096,16,128]\",\"k\":\"bf16[4,4096,16,128]\",\"v\":\"bf16[4,4096,16,128]\",\"precision\":[[\"DEFAULT\",\"DEFAULT\"],[\"DEFAULT\",\"DEFAULT\"]],\"logits_dtype\":\"float32\",\"logits_scale\":0.08838834764831843,\"bias\":null,\"logits_soft_cap\":null,\"mask\":{\"bool_mask\":null,\"q_start\":null,\"q_end\":null,\"k_start\":null,\"k_end\":null,\"is_causal\":true},\"dropout_mask\":null,\"dropout_rate\":0.0,\"paging_info\":null,\"q_indices\":null,\"k_indices\":null,\"normalize_output\":true,\"return_residuals\":false}": {
    "{\"block_q\":128,\"block_k\":128,\"num_stages\":3,\"num_warps\":8,\"block_d\":null,\"block_d_out\":null,\"split_k\":1,\"pack_mask\":false}": {
      "compile_time_ms": 787.4015509999026,
      "lower_time_ms": 6341.951399999971,
      "evaluation_times_ms": [
        0.798141,
        0.795358,
        0.797662,
        0.798366,
        0.79875
      ],
      "metadata": {},
      "peak_memory_mb": 268.435456
    }
  },
  "{\"q\":\"bf16[4,4096,16,128]\",\"k\":\"bf16[4,4096,16,128]\",\"v\":\"bf16[4,4096,16,128]\",\"precision\":[[\"DEFAULT\",\"DEFAULT\"],[\"DEFAULT\",\"DEFAULT\"]],\"logits_dtype\":\"float32\",\"logits_scale\":0.08838834764831843,\"bias\":null,\"logits_soft_cap\":null,\"mask\":{\"bool_mask\":null,\"q_start\":null,\"q_end\":null,\"k_start\":null,\"k_end\":null,\"is_causal\":true},\"dropout_mask\":null,\"dropout_rate\":0.0,\"paging_info\":null,\"q_indices\":null,\"k_indices\":null,\"normalize_output\":true,\"return_residuals\":true}": {
    "{\"block_q\":128,\"block_k\":128,\"num_stages\":3,\"num_warps\":8,\"block_d\":null,\"block_d_out\":null,\"split_k\":1,\"pack_mask\":false}": {
      "compile_time_ms": 806.6746890003742,
      "lower_time_ms": 11153.632505000132,
      "evaluation_times_ms": [
        0.801373,
        0.802909,
        0.800253,
        0.799069,
        0.802013
      ],
      "metadata": {},
      "peak_memory_mb": 270.532632
    }
  },
  "{\"q\":\"f16[4,4096,16,128]\",\"k\":\"f16[4,4096,16,128]\",\"v\":\"f16[4,4096,16,128]\",\"precision\":[[\"DEFAULT\",\"DEFAULT\"],[\"DEFAULT\",\"DEFAULT\"]],\"logits_dtype\":\"float32\",\"logits_scale\":0.08838834764831843,\"bias\":null,\"logits_soft_cap\":null,\"mask\":{\"bool_mask\":null,\"q_start\":null,\"q_end\":null,\"k_start\":null,\"k_end\":null,\"is_causal\":true},\"dropout_mask\":null,\"dropout_rate\":0.0,\"paging_info\":null,\"q_indices\":null,\"k_indices\":null,\"normalize_output\":true,\"return_residuals\":false}": {
    "{\"block_q\":128,\"block_k\":128,\"num_stages\":3,\"num_warps\":8,\"block_d\":null,\"block_d_out\":null,\"split_k\":1,\"pack_mask\":false}": {
      "compile_time_ms": 1001.6276790001939,
      "lower_time_ms": 6726.370842000051,
      "evaluation_times_ms": [
        0.797471,
        0.800127,
        0.797182,
        0.800669,
        0.799421
      ],
      "metadata": {},
      "peak_memory_mb": 268.435456
    }
  },
  "{\"q\":\"f16[4,4096,16,128]\",\"k\":\"f16[4,4096,16,128]\",\"v\":\"f16[4,4096,16,128]\",\"precision\":[[\"DEFAULT\",\"DEFAULT\"],[\"DEFAULT\",\"DEFAULT\"]],\"logits_dtype\":\"float32\",\"logits_scale\":0.08838834764831843,\"bias\":null,\"logits_soft_cap\":null,\"mask\":{\"bool_mask\":null,\"q_start\":null,\"q_end\":null,\"k_start\":null,\"k_end\":null,\"is_causal\":true},\"dropout_mask\":null,\"dropout_rate\":0.0,\"paging_info\":null,\"q_indices\":null,\"k_indices\":null,\"normalize_output\":true,\"return_residuals\":true}": {
    "{\"block_q\":128,\"block_k\":128,\"num_stages\":3,\"num_warps\":8,\"block_d\":null,\"block_d_out\":null,\"split_k\":1,\"pack_mask\":false}": {
      "compile_time_ms": 780.5650959999184,
      "lower_time_ms": 8897.548082999947,
      "evaluation_times_ms": [
        0.801565,
        0.796894,
        0.802813,
        0.799198,
        0.796254
      ],
      "metadata": {},
      "peak_memory_mb": 270.532632
    }
  },
  "{\"q\":\"bf16[4,4096,16,128]\",\"k\":\"bf16[4,4096,16,128]\",\"v\":\"bf16[4,4096,16,128]\",\"precision\":[[\"DEFAULT\",\"DEFAULT\"],[\"DEFAULT\",\"DEFAULT\"]],\"logits_dtype\":\"float32\",\"logits_scale\":0.08838834764831843,\"bias\":null,\"logits_soft_cap\":null,\"mask\":{\"bool_mask\":null,\"q_start\":null,\"q_end\":null,\"k_start\":null,\"k_end\":null,\"is_causal\":false},\"dropout_mask\":null,\"dropout_rate\":0.0,\"paging_info\":null,\"q_indices\":null,\"k_indices\":null,\"normalize_output\":true,\"return_residuals\":false}": {
    "{\"block_q\":128,\"block_k\":128,\"num_stages\":3,\"num_warps\":8,\"block_d\":null,\"block_d_out\":null,\"split_k\":1,\"pack_mask\":false}": {
      "compile_time_ms": 416.34893599984935,
      "lower_time_ms": 4360.180981000212,
      "evaluation_times_ms": [
        1.380477,
        1.380797,
        1.390941,
        1.385564,
        1.379869
      ],
      "metadata": {},
      "peak_memory_mb": 268.435456
    }
  },
  "{\"q\":\"bf16[4,4096,16,128]\",\"k\":\"bf16[4,4096,16,128]\",\"v\":\"bf16[4,4096,16,128]\",\"precision\":[[\"DEFAULT\",\"DEFAULT\"],[\"DEFAULT\",\"DEFAULT\"]],\"logits_dtype\":\"float32\",\"logits_scale\":0.08838834764831843,\"bias\":null,\"logits_soft_cap\":null,\"mask\":{\"bool_mask\":null,\"q_start\":null,\"q_end\":null,\"k_start\":null,\"k_end\":null,\"is_causal\":false},\"dropout_mask\":null,\"dropout_rate\":0.0,\"paging_info\":null,\"q_indices\":null,\"k_indices\":null,\"normalize_output\":true,\"return_residuals\":true}": {
    "{\"block_q\":128,\"block_k\":128,\"num_stages\":3,\"num_warps\":8,\"block_d\":null,\"block_d_out\":null,\"split_k\":1,\"pack_mask\":false}": {
      "compile_time_ms": 452.92478300007133,
      "lower_time_ms": 6837.24862300005,
      "evaluation_times_ms": [
        1.402781,
        1.394909,
        1.395325,
        1.404317,
        1.400668
      ],
      "metadata": {},
      "peak_memory_mb": 270.532632
    }
  },
  "{\"q\":\"f16[4,4096,16,128]\",\"k\":\"f16[4,4096,16,128]\",\"v\":\"f16[4,4096,16,128]\",\"precision\":[[\"DEFAULT\",\"DEFAULT\"],[\"DEFAULT\",\"DEFAULT\"]],\"logits_dtype\":\"float32\",\"logits_scale\":0.08838834764831843,\"bias\":null,\"logits_soft_cap\":null,\"mask\":{\"bool_mask\":null,\"q_start\":null,\"q_end\":null,\"k_start\":null,\"k_end\":null,\"is_causal\":false},\"dropout_mask\":null,\"dropout_rate\":0.0,\"paging_info\":null,\"q_indices\":null,\"k_indices\":null,\"normalize_output\":true,\"return_residuals\":false}": {
    "{\"block_q\":128,\"block_k\":128,\"num_stages\":3,\"num_warps\":8,\"block_d\":null,\"block_d_out\":null,\"split_k\":1,\"pack_mask\":false}": {
      "compile_time_ms": 416.1175550002554,
      "lower_time_ms": 5093.58242899998,
      "evaluation_times_ms": [
        1.402428,
        1.400092,
        1.400508,
        1.399132,
        1.400348
      ],
      "metadata": {},
      "peak_memory_mb": 268.435456
    }
  },
  "{\"q\":\"f16[4,4096,16,128]\",\"k\":\"f16[4,4096,16,128]\",\"v\":\"f16[4,4096,16,128]\",\"precision\":[[\"DEFAULT\",\"DEFAULT\"],[\"DEFAULT\",\"DEFAULT\"]],\"logits_dtype\":\"float32\",\"logits_scale\":0.08838834764831843,\"bias\":null,\"logits_soft_cap\":null,\"mask\":{\"bool_mask\":null,\"q_start\":null,\"q_end\":null,\"k_start\":null,\"k_end\":null,\"is_causal\":false},\"dropout_mask\":null,\"dropout_rate\":0.0,\"paging_info\":null,\"q_indices\":null,\"k_indices\":null,\"normalize_output\":true,\"return_residuals\":true}": {
    "{\"block_q\":128,\"block_k\":128,\"num_stages\":3,\"num_warps\":8,\"block_d\":null,\"block_d_out\":null,\"split_k\":1,\"pack_mask\":false}": {
      "compile_time_ms": 431.18255499985025,
      "lower_time_ms": 7225.027046999912,
      "evaluation_times_ms": [
        1.395196,
        1.406301,
        1.396092,
        1.402941,
        1.407644
      ],
      "metadata": {},
      "peak_memory_mb": 270.532632
    }
  },
  "{\"q\":\"bf16[4,4096,8,256]\",\"k\":\"bf16[4,4096,8,256]\",\"v\":\"bf16[4,4096,8,256]\",\"precision\":[[\"DEFAULT\",\"DEFAULT\"],[\"DEFAULT\",\"DEFAULT\"]],\"logits_dtype\":\"float32\",\"logits_scale\":0.0625,\"bias\":null,\"logits_soft_cap\":null,\"mask\":{\"bool_mask\":null,\"q_start\":null,\"q_end\":null,\"k_start\":null,\"k_end\":null,\"is_causal\":true},\"dropout_mask\":null,\"dropout_rate\":0.0,\"paging_info\":null,\"q_indices\":null,\"k_indices\":null,\"normalize_output\":true,\"return_residuals\":false}": {
    "{\"block_q\":128,\"block_k\":64,\"num_stages\":2,\"num_warps\":8,\"block_d\":null,\"block_d_out\":null,\"split_k\":1,\"pack_mask\":false}": {
      "compile_time_ms": 1377.0086730000912,
      "lower_time_ms": 5863.715266999861,
      "evaluation_times_ms": [
        0.882462,
        0.884765,
        0.882461,
        0.884029,
        0.8839
      ],
      "metadata": {},
      "peak_memory_mb": 268.435456
    }
  },
  "{\"q\":\"bf16[4,4096,8,256]\",\"k\":\"bf16[4,4096,8,256]\",\"v\":\"bf16[4,4096,8,256]\",\"precision\":[[\"DEFAULT\",\"DEFAULT\"],[\"DEFAULT\",\"DEFAULT\"]],\"logits_dtype\":\"float32\",\"logits_scale\":0.0625,\"bias\":null,\"logits_soft_cap\":null,\"mask\":{\"bool_mask\":null,\"q_start\":null,\"q_end\":null,\"k_start\":null,\"k_end\":null,\"is_causal\":true},\"dropout_mask\":null,\"dropout_rate\":0.0,\"paging_info\":null,\"q_indices\":null,\"k_indices\":null,\"normalize_output\":true,\"return_residuals\":true}": {
    "{\"block_q\":128,\"block_k\":64,\"num_stages\":2,\"num_warps\":8,\"block_d\":null,\"block_d_out\":null,\"split_k\":1,\"pack_mask\":false}": {
      "compile_time_ms": 1403.504279000117,
      "lower_time_ms": 6981.727966999642,
      "evaluation_times_ms": [
        0.890492,
        0.887772,
        0.88838,
        0.892092,
        0.892924
      ],
      "metadata": {},
      "peak_memory_mb": 269.484056
    }
  },
  "{\"q\":\"f16[4,4096,8,256]\",\"k\":\"f16[4,4096,8,256]\",\"v\":\"f16[4,4096,8,256]\",\"precision\":[[\"DEFAULT\",\"DEFAULT\"],[\"DEFAULT\",\"DEFAULT\"]],\"logits_dtype\":\"float32\",\"logits_scale\":0.0625,\"bias\":null,\"logits_soft_cap\":null,\"mask\":{\"bool_mask\":null,\"q_start\":null,\"q_end\":null,\"k_start\":null,\"k_end\":null,\"is_causal\":true},\"dropout_mask\":null,\"dropout_rate\":0.0,\"paging_info\":null,\"q_indices\":null,\"k_indices\":null,\"normalize_output\":true,\"return_residuals\":false}": {
    "{\"block_q\":128,\"block_k\":64,\"num_stages\":2,\"num_warps\":8,\"block_d\":null,\"block_d_out\":null,\"split_k\":1,\"pack_mask\":false}": {
      "compile_time_ms": 1377.7188770000066,
      "lower_time_ms": 5249.2754519998925,
      "evaluation_times_ms": [
        0.884957,
        0.884284,
        0.888029,
        0.883004,
        0.882524
      ],
      "metadata": {},
      "peak_memory_mb": 268.435456
    }
  },
  "{\"q\":\"f16[4,4096,8,256]\",\"k\":\"f16[4,4096,8,256]\",\"v\":\"f16[4,4096,8,256]\",\"precision\":[[\"DEFAULT\",\"DEFAULT\"],[\"DEFAULT\",\"DEFAULT\"]],\"logits_dtype\":\"float32\",\"logits_scale\":0.0625,\"bias\":null,\"logits_soft_cap\":null,\"mask\":{\"bool_mask\":null,\"q_start\":null,\"q_end\":null,\"k_start\":null,\"k_end\":null,\"is_causal\":true},\"dropout_mask\":null,\"dropout_rate\":0.0,\"paging_info\":null,\"q_indices\":null,\"k_indices\":null,\"normalize_output\":true,\"return_residuals\":true}": {
    "{\"block_q\":128,\"block_k\":64,\"num_stages\":2,\"num_warps\":8,\"block_d\":null,\"block_d_out\":null,\"split_k\":1,\"pack_mask\":false}": {
      "compile_time_ms": 1703.5842850000336,
      "lower_time_ms": 7340.04018800033,
      "evaluation_times_ms": [
        0.891869,
        0.889756,
        0.89046,
        0.892316,
        0.890748
      ],
      "metadata": {},
      "peak_memory_mb": 269.484056
    }
  },
  "{\"q\":\"bf16[4,4096,8,256]\",\"k\":\"bf16[4,4096,8,256]\",\"v\":\"bf16[4,4096,8,256]\",\"precision\":[[\"DEFAULT\",\"DEFAULT\"],[\"DEFAULT\",\"DEFAULT\"]],\"logits_dtype\":\"float32\",\"logits_scale\":0.0625,\"bias\":null,\"logits_soft_cap\":null,\"mask\":{\"bool_mask\":null,\"q_start\":null,\"q_end\":null,\"k_start\":null,\"k_end\":null,\"is_causal\":false},\"dropout_mask\":null,\"dropout_rate\":0.0,\"paging_info\":null,\"q_indices\":null,\"k_indices\":null,\"normalize_output\":true,\"return_residuals\":false}": {
    "{\"block_q\":128,\"block_k\":32,\"num_stages\":3,\"num_warps\":8,\"block_d\":null,\"block_d_out\":null,\"split_k\":1,\"pack_mask\":false}": {
      "compile_time_ms": 454.7096500000407,
      "lower_time_ms": 3399.44950600011,
      "evaluation_times_ms": [
        1.573338,
        1.572218,
        1.573625,
        1.575194,
        1.56665
      ],
      "metadata": {},
      "peak_memory_mb": 268.435456
    }
  },
  "{\"q\":\"bf16[4,4096,8,256]\",\"k\":\"bf16[4,4096,8,256]\",\"v\":\"bf16[4,4096,8,256]\",\"precision\":[[\"DEFAULT\",\"DEFAULT\"],[\"DEFAULT\",\"DEFAULT\"]],\"logits_dtype\":\"float32\",\"logits_scale\":0.0625,\"bias\":null,\"logits_soft_cap\":null,\"mask\":{\"bool_mask\":null,\"q_start\":null,\"q_end\":null,\"k_start\":null,\"k_end\":null,\"is_causal\":false},\"dropout_mask\":null,\"dropout_rate\":0.0,\"paging_info\":null,\"q_indices\":null,\"k_indices\":null,\"normalize_output\":true,\"return_residuals\":true}": {
    "{\"block_q\":128,\"block_k\":32,\"num_stages\":4,\"num_warps\":8,\"block_d\":null,\"block_d_out\":null,\"split_k\":1,\"pack_mask\":false}": {
      "compile_time_ms": 504.1653080000117,
      "lower_time_ms": 2763.463131999998,
      "evaluation_times_ms": [
        1.596365,
        1.59307,
        1.591277,
        1.600139,
        1.599501
      ],
      "metadata": {},
      "peak_memory_mb": 269.484056
    },
    "{\"block_q\":128,\"block_k\":32,\"num_stages\":3,\"num_warps\":8,\"block_d\":null,\"block_d_out\":null,\"split_k\":1,\"pack_mask\":false}": {
      "compile_time_ms": 601.0059660000024,
      "lower_time_ms": 10030.192752000004,
      "evaluation_times_ms": [
        1.597642,
        1.603401,
        1.597066,
        1.608264,
        1.59761
      ],
      "metadata": {},
      "peak_memory_mb": 269.484056
    }
  },
  "{\"q\":\"f16[4,4096,8,256]\",\"k\":\"f16[4,4096,8,256]\",\"v\":\"f16[4,4096,8,256]\",\"precision\":[[\"DEFAULT\",\"DEFAULT\"],[\"DEFAULT\",\"DEFAULT\"]],\"logits_dtype\":\"float32\",\"logits_scale\":0.0625,\"bias\":null,\"logits_soft_cap\":null,\"mask\":{\"bool_mask\":null,\"q_start\":null,\"q_end\":null,\"k_start\":null,\"k_end\":null,\"is_causal\":false},\"dropout_mask\":null,\"dropout_rate\":0.0,\"paging_info\":null,\"q_indices\":null,\"k_indices\":null,\"normalize_output\":true,\"return_residuals\":false}": {
    "{\"block_q\":128,\"block_k\":32,\"num_stages\":4,\"num_warps\":8,\"block_d\":null,\"block_d_out\":null,\"split_k\":1,\"pack_mask\":false}": {
      "compile_time_ms": 542.5340130000222,
      "lower_time_ms": 1852.7987539999913,
      "evaluation_times_ms": [
        1.569381,
        1.568646,
        1.566149,
        1.568421,
        1.570277
      ],
      "metadata": {},
      "peak_memory_mb": 268.435456
    }
  },
  "{\"q\":\"f16[4,4096,8,256]\",\"k\":\"f16[4,4096,8,256]\",\"v\":\"f16[4,4096,8,256]\",\"precision\":[[\"DEFAULT\",\"DEFAULT\"],[\"DEFAULT\",\"DEFAULT\"]],\"logits_dtype\":\"float32\",\"logits_scale\":0.0625,\"bias\":null,\"logits_soft_cap\":null,\"mask\":{\"bool_mask\":null,\"q_start\":null,\"q_end\":null,\"k_start\":null,\"k_end\":null,\"is_causal\":false},\"dropout_mask\":null,\"dropout_rate\":0.0,\"paging_info\":null,\"q_indices\":null,\"k_indices\":null,\"normalize_output\":true,\"return_residuals\":true}": {
    "{\"block_q\":128,\"block_k\":32,\"num_stages\":3,\"num_warps\":8,\"block_d\":null,\"block_d_out\":null,\"split_k\":1,\"pack_mask\":false}": {
      "compile_time_ms": 452.0365280000078,
      "lower_time_ms": 6207.677092999973,
      "evaluation_times_ms": [
        1.597026,
        1.595905,
        1.598498,
        1.59565,
        1.59405
      ],
      "metadata": {},
      "peak_memory_mb": 269.484056
    }
  },
  "{\"q\":\"bf16[2,8192,32,64]\",\"k\":\"bf16[2,8192,32,64]\",\"v\":\"bf16[2,8192,32,64]\",\"precision\":[[\"DEFAULT\",\"DEFAULT\"],[\"DEFAULT\",\"DEFAULT\"]],\"logits_dtype\":\"float32\",\"logits_scale\":0.125,\"bias\":null,\"logits_soft_cap\":null,\"mask\":{\"bool_mask\":null,\"q_start\":null,\"q_end\":null,\"k_start\":null,\"k_end\":null,\"is_causal\":true},\"dropout_mask\":null,\"dropout_rate\":0.0,\"paging_info\":null,\"q_indices\":null,\"k_indices\":null,\"normalize_output\":true,\"return_residuals\":false}": {
    "{\"block_q\":128,\"block_k\":64,\"num_stages\":4,\"num_warps\":4,\"block_d\":null,\"block_d_out\":null,\"split_k\":1,\"pack_mask\":false}": {
      "compile_time_ms": 1034.488521999947,
      "lower_time_ms": 5473.707390999948,
      "evaluation_times_ms": [
        1.914885,
        1.909349,
        1.912709,
        1.91802,
        1.904612
      ],
      "metadata": {},
      "peak_memory_mb": 268.435456
    }
  },
  "{\"q\":\"bf16[2,8192,32,64]\",\"k\":\"bf16[2,8192,32,64]\",\"v\":\"bf16[2,8192,32,64]\",\"precision\":[[\"DEFAULT\",\"DEFAULT\"],[\"DEFAULT\",\"DEFAULT\"]],\"logits_dtype\":\"float32\",\"logits_scale\":0.125,\"bias\":null,\"logits_soft_cap\":null,\"mask\":{\"bool_mask\":null,\"q_start\":null,\"q_end\":null,\"k_start\":null,\"k_end\":null,\"is_causal\":true},\"dropout_mask\":null,\"dropout_rate\":0.0,\"paging_info\":null,\"q_indices\":null,\"k_indices\":null,\"normalize_output\":true,\"return_residuals\":true}": {
    "{\"block_q\":128,\"block_k\":64,\"num_stages\":4,\"num_warps\":4,\"block_d\":null,\"block_d_out\":null,\"split_k\":1,\"pack_mask\":false}": {
      "compile_time_ms": 699.5025759999862,
      "lower_time_ms": 7725.648412999931,
      "evaluation_times_ms": [
        1.914564,
        1.9017,
        1.903109,
        1.899652,
        1.911365
      ],
      "metadata": {},
      "peak_memory_mb": 272.629784
    }
  },
  "{\"q\":\"f16[2,8192,32,64]\",\"k\":\"f16[2,8192,32,64]\",\"v\":\"f16[2,8192,32,64]\",\"precision\":[[\"DEFAULT\",\"DEFAULT\"],[\"DEFAULT\",\"DEFAULT\"]],\"logits_dtype\":\"float32\",\"logits_scale\":0.125,\"bias\":null,\"logits_soft_cap\":null,\"mask\":{\"bool_mask\":null,\"q_start\":null,\"q_end\":null,\"k_start\":null,\"k_end\":null,\"is_causal\":true},\"dropout_mask\":null,\"dropout_rate\":0.0,\"paging_info\":null,\"q_indices\":null,\"k_indices\":null,\"normalize_output\":true,\"return_residuals\":false}": {
    "{\"block_q\":128,\"block_k\":64,\"num_stages\":4,\"num_warps\":4,\"block_d\":null,\"block_d_out\":null,\"split_k\":1,\"pack_mask\":false}": {
      "compile_time_ms": 666.4983709999888,
      "lower_time_ms": 3853.3124419999467,
      "evaluation_times_ms": [
        1.908709,
        1.919589,
        1.912196,
        1.909828,
        1.913348
      ],
      "metadata": {},
      "peak_memory_mb": 268.435456
    }
  },
  "{\"q\":\"f16[2,8192,32,64]\",\"k\":\"f16[2,8192,32,64]\",\"v\":\"f16[2,8192,32,64]\",\"precision\":[[\"DEFAULT\",\"DEFAULT\"],[\"DEFAULT\",\"DEFAULT\"]],\"logits_dtype\":\"float32\",\"logits_scale\":0.125,\"bias\":null,\"logits_soft_cap\":null,\"mask\":{\"bool_mask\":null,\"q_start\":null,\"q_end\":null,\"k_start\":null,\"k_end\":null,\"is_causal\":true},\"dropout_mask\":null,\"dropout_rate\":0.0,\"paging_info\":null,\"q_indices\":null,\"k_indices\":null,\"normalize_output\":true,\"return_residuals\":true}": {
    "{\"block_q\":128,\"block_k\":64,\"num_stages\":4,\"num_warps\":4,\"block_d\":null,\"block_d_out\":null,\"split_k\":1,\"pack_mask\":false}": {
      "compile_time_ms": 713.8699849999739,
      "lower_time_ms": 7322.181943000032,
      "evaluation_times_ms": [
        1.929157,
        1.94842,
        1.943525,
        1.983493,
        1.972325
      ],
      "metadata": {},
      "peak_memory_mb": 272.629784
    }
  },
  "{\"q\":\"bf16[2,8192,32,64]\",\"k\":\"bf16[2,8192,32,64]\",\"v\":\"bf16[2,8192,32,64]\",\"precision\":[[\"DEFAULT\",\"DEFAULT\"],[\"DEFAULT\",\"DEFAULT\"]],\"logits_dtype\":\"float32\",\"logits_scale\":0.125,\"bias\":null,\"logits_soft_cap\":null,\"mask\":{\"bool_mask\":null,\"q_start\":null,\"q_end\":null,\"k_start\":null,\"k_end\":null,\"is_causal\":false},\"dropout_mask\":null,\"dropout_rate\":0.0,\"paging_info\":null,\"q_indices\":null,\"k_indices\":null,\"normalize_output\":true,\"return_residuals\":false}": {
    "{\"block_q\":64,\"block_k\":128,\"num_stages\":3,\"num_warps\":4,\"block_d\":null,\"block_d_out\":null,\"split_k\":1,\"pack_mask\":false}": {
      "compile_time_ms": 280.5281200000991,
      "lower_time_ms": 4980.674186999977,
      "evaluation_times_ms": [
        3.503881,
        3.534025,
        3.498793,
        3.511593,
        3.533097
      ],
      "metadata": {},
      "peak_memory_mb": 268.435456
    }
  },
  "{\"q\":\"bf16[2,8192,32,64]\",\"k\":\"bf16[2,8192,32,64]\",\"v\":\"bf16[2,8192,32,64]\",\"precision\":[[\"DEFAULT\",\"DEFAULT\"],[\"DEFAULT\",\"DEFAULT\"]],\"logits_dtype\":\"float32\",\"logits_scale\":0.125,\"bias\":null,\"logits_soft_cap\":null,\"mask\":{\"bool_mask\":null,\"q_start\":null,\"q_end\":null,\"k_start\":null,\"k_end\":null,\"is_causal\":false},\"dropout_mask\":null,\"dropout_rate\":0.0,\"paging_info\":null,\"q_indices\":null,\"k_indices\":null,\"normalize_output\":true,\"return_residuals\":true}": {
    "{\"block_q\":128,\"block_k\":64,\"num_stages\":3,\"num_warps\":4,\"block_d\":null,\"block_d_out\":null,\"split_k\":1,\"pack_mask\":false}": {
      "compile_time_ms": 343.4765110000626,
      "lower_time_ms": 6245.557313000063,
      "evaluation_times_ms": [
        3.428171,
        3.432076,
        3.431627,
        3.465548,
        3.464781
      ],
      "metadata": {},
      "peak_memory_mb": 272.629784
    }
  },
  "{\"q\":\"f16[2,8192,32,64]\",\"k\":\"f16[2,8192,32,64]\",\"v\":\"f16[2,8192,32,64]\",\"precision\":[[\"DEFAULT\",\"DEFAULT\"],[\"DEFAULT\",\"DEFAULT\"]],\"logits_dtype\":\"float32\",\"logits_scale\":0.125,\"bias\":null,\"logits_soft_cap\":null,\"mask\":{\"bool_mask\":null,\"q_start\":null,\"q_end\":null,\"k_start\":null,\"k_end\":null,\"is_causal\":false},\"dropout_mask\":null,\"dropout_rate\":0.0,\"paging_info\":null,\"q_indices\":null,\"k_indices\":null,\"normalize_output\":true,\"return_residuals\":false}": {
    "{\"block_q\":128,\"block_k\":128,\"num_stages\":3,\"num_warps\":4,\"block_d\":null,\"block_d_out\":null,\"split_k\":1,\"pack_mask\":false}": {
      "compile_time_ms": 503.25040400002763,
      "lower_time_ms": 3156.114531999947,
      "evaluation_times_ms": [
        3.637514,
        3.632938,
        3.63361,
        3.635274,
        3.634538
      ],
      "metadata": {},
      "peak_memory_mb": 268.435456
    }
  },
  "{\"q\":\"f16[2,8192,32,64]\",\"k\":\"f16[2,8192,32,64]\",\"v\":\"f16[2,8192,32,64]\",\"precision\":[[\"DEFAULT\",\"DEFAULT\"],[\"DEFAULT\",\"DEFAULT\"]],\"logits_dtype\":\"float32\",\"logits_scale\":0.125,\"bias\":null,\"logits_soft_cap\":null,\"mask\":{\"bool_mask\":null,\"q_start\":null,\"q_end\":null,\"k_start\":null,\"k_end\":null,\"is_causal\":false},\"dropout_mask\":null,\"dropout_rate\":0.0,\"paging_info\":null,\"q_indices\":null,\"k_indices\":null,\"normalize_output\":true,\"return_residuals\":true}": {
    "{\"block_q\":128,\"block_k\":64,\"num_stages\":3,\"num_warps\":4,\"block_d\":null,\"block_d_out\":null,\"split_k\":1,\"pack_mask\":false}": {
      "compile_time_ms": 351.01429599990297,
      "lower_time_ms": 5825.029941000139,
      "evaluation_times_ms": [
        3.433741,
        3.432845,
        3.431277,
        3.442797,
        3.446285
      ],
      "metadata": {},
      "peak_memory_mb": 272.629784
    }
  },
  "{\"q\":\"bf16[2,8192,16,128]\",\"k\":\"bf16[2,8192,16,128]\",\"v\":\"bf16[2,8192,16,128]\",\"precision\":[[\"DEFAULT\",\"DEFAULT\"],[\"DEFAULT\",\"DEFAULT\"]],\"logits_dtype\":\"float32\",\"logits_scale\":0.08838834764831843,\"bias\":null,\"logits_soft_cap\":null,\"mask\":{\"bool_mask\":null,\"q_start\":null,\"q_end\":null,\"k_start\":null,\"k_end\":null,\"is_causal\":true},\"dropout_mask\":null,\"dropout_rate\":0.0,\"paging_info\":null,\"q_indices\":null,\"k_indices\":null,\"normalize_output\":true,\"return_residuals\":false}": {
    "{\"block_q\":128,\"block_k\":128,\"num_stages\":3,\"num_warps\":8,\"block_d\":null,\"block_d_out\":null,\"split_k\":1,\"pack_mask\":false}": {
      "compile_time_ms": 949.0854470000158,
      "lower_time_ms": 4895.5009999999675,
      "evaluation_times_ms": [
        1.503204,
        1.5009,
        1.505284,
        1.500997,
        1.506436
      ],
      "metadata": {},
      "peak_memory_mb": 268.435456
    }
  },
  "{\"q\":\"bf16[2,8192,16,128]\",\"k\":\"bf16[2,8192,16,128]\",\"v\":\"bf16[2,8192,16,128]\",\"precision\":[[\"DEFAULT\",\"DEFAULT\"],[\"DEFAULT\",\"DEFAULT\"]],\"logits_dtype\":\"float32\",\"logits_scale\":0.08838834764831843,\"bias\":null,\"logits_soft_cap\":null,\"mask\":{\"bool_mask\":null,\"q_start\":null,\"q_end\":null,\"k_start\":null,\"k_end\":null,\"is_causal\":true},\"dropout_mask\":null,\"dropout_rate\":0.0,\"paging_info\":null,\"q_indices\":null,\"k_indices\":null,\"normalize_output\":true,\"return_residuals\":true}": {
    "{\"block_q\":128,\"block_k\":128,\"num_stages\":3,\"num_warps\":8,\"block_d\":null,\"block_d_out\":null,\"split_k\":1,\"pack_mask\":false}": {
      "compile_time_ms": 1022.9855680001947,
      "lower_time_ms": 7389.031982000006,
      "evaluation_times_ms": [
        1.516356,
        1.514756,
        1.514659,
        1.518404,
        1.5185
      ],
      "metadata": {},
      "peak_memory_mb": 270.532632
    }
  },
  "{\"q\":\"f16[2,8192,16,128]\",\"k\":\"f16[2,8192,16,128]\",\"v\":\"f16[2,8192,16,128]\",\"precision\":[[\"DEFAULT\",\"DEFAULT\"],[\"DEFAULT\",\"DEFAULT\"]],\"logits_dtype\":\"float32\",\"logits_scale\":0.08838834764831843,\"bias\":null,\"logits_soft_cap\":null,\"mask\":{\"bool_mask\":null,\"q_start\":null,\"q_end\":null,\"k_start\":null,\"k_end\":null,\"is_causal\":true},\"dropout_mask\":null,\"dropout_rate\":0.0,\"paging_info\":null,\"q_indices\":null,\"k_indices\":null,\"normalize_output\":true,\"return_residuals\":false}": {
    "{\"block_q\":128,\"block_k\":128,\"num_stages\":3,\"num_warps\":8,\"block_d\":null,\"block_d_out\":null,\"split_k\":1,\"pack_mask\":false}": {
      "compile_time_ms": 746.5516289998959,
      "lower_time_ms": 5173.463193000316,
      "evaluation_times_ms": [
        1.559748,
        1.560837,
        1.561573,
        1.547525,
        1.546085
      ],
      "metadata": {},
      "peak_memory_mb": 268.435456
    }
  },
  "{\"q\":\"f16[2,8192,16,128]\",\"k\":\"f16[2,8192,16,128]\",\"v\":\"f16[2,8192,16,128]\",\"precision\":[[\"DEFAULT\",\"DEFAULT\"],[\"DEFAULT\",\"DEFAULT\"]],\"logits_dtype\":\"float32\",\"logits_scale\":0.08838834764831843,\"bias\":null,\"logits_soft_cap\":null,\"mask\":{\"bool_mask\":null,\"q_start\":null,\"q_end\":null,\"k_start\":null,\"k_end\":null,\"is_causal\":true},\"dropout_mask\":null,\"dropout_rate\":0.0,\"paging_info\":null,\"q_indices\":null,\"k_indices\":null,\"normalize_output\":true,\"return_residuals\":true}": {
    "{\"block_q\":128,\"block_k\":128,\"num_stages\":3,\"num_warps\":8,\"block_d\":null,\"block_d_out\":null,\"split_k\":1,\"pack_mask\":false}": {
      "compile_time_ms": 764.288322000084,
      "lower_time_ms": 7414.127300000018,
      "evaluation_times_ms": [
        1.520516,
        1.522405,
        1.520709,
        1.52394,
        1.522085
      ],
      "metadata": {},
      "peak_memory_mb": 270.532632
    }
  },
  "{\"q\":\"bf16[2,8192,16,128]\",\"k\":\"bf16[2,8192,16,128]\",\"v\":\"bf16[2,8192,16,128]\",\"precision\":[[\"DEFAULT\",\"DEFAULT\"],[\"DEFAULT\",\"DEFAULT\"]],\"logits_dtype\":\"float32\",\"logits_scale\":0.08838834764831843,\"bias\":null,\"logits_soft_cap\":null,\"mask\":{\"bool_mask\":null,\"q_start\":null,\"q_end\":null,\"k_start\":null,\"k_end\":null,\"is_causal\":false},\"dropout_mask\":null,\"dropout_rate\":0.0,\"paging_info\":null,\"q_indices\":null,\"k_indices\":null,\"normalize_output\":true,\"return_residuals\":false}": {
    "{\"block_q\":128,\"block_k\":128,\"num_stages\":3,\"num_warps\":8,\"block_d\":null,\"block_d_out\":null,\"split_k\":1,\"pack_mask\":false}": {
      "compile_time_ms": 416.5627570000652,
      "lower_time_ms": 4865.469802999996,
      "evaluation_times_ms": [
        2.79153,
        2.78113,
        2.789481,
        2.794122,
        2.784586
      ],
      "metadata": {},
      "peak_memory_mb": 268.435456
    }
  },
  "{\"q\":\"bf16[2,8192,16,128]\",\"k\":\"bf16[2,8192,16,128]\",\"v\":\"bf16[2,8192,16,128]\",\"precision\":[[\"DEFAULT\",\"DEFAULT\"],[\"DEFAULT\",\"DEFAULT\"]],\"logits_dtype\":\"float32\",\"logits_scale\":0.08838834764831843,\"bias\":null,\"logits_soft_cap\":null,\"mask\":{\"bool_mask\":null,\"q_start\":null,\"q_end\":null,\"k_start\":null,\"k_end\":null,\"is_causal\":false},\"dropout_mask\":null,\"dropout_rate\":0.0,\"paging_info\":null,\"q_indices\":null,\"k_indices\":null,\"normalize_output\":true,\"return_residuals\":true}": {
    "{\"block_q\":128,\"block_k\":128,\"num_stages\":3,\"num_warps\":8,\"block_d\":null,\"block_d_out\":null,\"split_k\":1,\"pack_mask\":false}": {
      "compile_time_ms": 420.3465790001246,
      "lower_time_ms": 6012.097540000013,
      "evaluation_times_ms": [
        2.731307,
        2.738283,
        2.737259,
        2.730347,
        2.730731
      ],
      "metadata": {},
      "peak_memory_mb": 270.532632
    }
  },
  "{\"q\":\"f16[2,8192,16,128]\",\"k\":\"f16[2,8192,16,128]\",\"v\":\"f16[2,8192,16,128]\",\"precision\":[[\"DEFAULT\",\"DEFAULT\"],[\"DEFAULT\",\"DEFAULT\"]],\"logits_dtype\":\"float32\",\"logits_scale\":0.08838834764831843,\"bias\":null,\"logits_soft_cap\":null,\"mask\":{\"bool_mask\":null,\"q_start\":null,\"q_end\":null,\"k_start\":null,\"k_end\":null,\"is_causal\":false},\"dropout_mask\":null,\"dropout_rate\":0.0,\"paging_info\":null,\"q_indices\":null,\"k_indices\":null,\"normalize_output\":true,\"return_residuals\":false}": {
    "{\"block_q\":128,\"block_k\":128,\"num_stages\":3,\"num_warps\":8,\"block_d\":null,\"block_d_out\":null,\"split_k\":1,\"pack_mask\":false}": {
      "compile_time_ms": 419.92091500014794,
      "lower_time_ms": 3529.966334999699,
      "evaluation_times_ms": [
        2.70289,
        2.710378,
        2.687818,
        2.691499,
        2.696875
      ],
      "metadata": {},
      "peak_memory_mb": 268.435456
    }
  },
  "{\"q\":\"f16[2,8192,16,128]\",\"k\":\"f16[2,8192,16,128]\",\"v\":\"f16[2,8192,16,128]\",\"precision\":[[\"DEFAULT\",\"DEFAULT\"],[\"DEFAULT\",\"DEFAULT\"]],\"logits_dtype\":\"float32\",\"logits_scale\":0.08838834764831843,\"bias\":null,\"logits_soft_cap\":null,\"mask\":{\"bool_mask\":null,\"q_start\":null,\"q_end\":null,\"k_start\":null,\"k_end\":null,\"is_causal\":false},\"dropout_mask\":null,\"dropout_rate\":0.0,\"paging_info\":null,\"q_indices\":null,\"k_indices\":null,\"normalize_output\":true,\"return_residuals\":true}": {
    "{\"block_q\":128,\"block_k\":128,\"num_stages\":3,\"num_warps\":8,\"block_d\":null,\"block_d_out\":null,\"split_k\":1,\"pack_mask\":false}": {
      "compile_time_ms": 414.5043550001901,
      "lower_time_ms": 5713.772212000094,
      "evaluation_times_ms": [
        2.750089,
        2.752362,
        2.749738,
        2.752778,
        2.752394
      ],
      "metadata": {},
      "peak_memory_mb": 270.532632
    }
  },
  "{\"q\":\"bf16[2,8192,8,256]\",\"k\":\"bf16[2,8192,8,256]\",\"v\":\"bf16[2,8192,8,256]\",\"precision\":[[\"DEFAULT\",\"DEFAULT\"],[\"DEFAULT\",\"DEFAULT\"]],\"logits_dtype\":\"float32\",\"logits_scale\":0.0625,\"bias\":null,\"logits_soft_cap\":null,\"mask\":{\"bool_mask\":null,\"q_start\":null,\"q_end\":null,\"k_start\":null,\"k_end\":null,\"is_causal\":true},\"dropout_mask\":null,\"dropout_rate\":0.0,\"paging_info\":null,\"q_indices\":null,\"k_indices\":null,\"normalize_output\":true,\"return_residuals\":false}": {
    "{\"block_q\":128,\"block_k\":32,\"num_stages\":3,\"num_warps\":8,\"block_d\":null,\"block_d_out\":null,\"split_k\":1,\"pack_mask\":false}": {
      "compile_time_ms": 755.8851199996752,
      "lower_time_ms": 4406.5118660000735,
      "evaluation_times_ms": [
        1.767555,
        1.765634,
        1.769923,
        1.763235,
        1.761891
      ],
      "metadata": {},
      "peak_memory_mb": 268.435456
    }
  },
  "{\"q\":\"bf16[2,8192,8,256]\",\"k\":\"bf16[2,8192,8,256]\",\"v\":\"bf16[2,8192,8,256]\",\"precision\":[[\"DEFAULT\",\"DEFAULT\"],[\"DEFAULT\",\"DEFAULT\"]],\"logits_dtype\":\"float32\",\"logits_scale\":0.0625,\"bias\":null,\"logits_soft_cap\":null,\"mask\":{\"bool_mask\":null,\"q_start\":null,\"q_end\":null,\"k_start\":null,\"k_end\":null,\"is_causal\":true},\"dropout_mask\":null,\"dropout_rate\":0.0,\"paging_info\":null,\"q_indices\":null,\"k_indices\":null,\"normalize_output\":true,\"return_residuals\":true}": {
    "{\"block_q\":128,\"block_k\":32,\"num_stages\":3,\"num_warps\":8,\"block_d\":null,\"block_d_out\":null,\"split_k\":1,\"pack_mask\":false}": {
      "compile_time_ms": 740.5566069996894,
      "lower_time_ms": 5434.557951999977,
      "evaluation_times_ms": [
        1.733859,
        1.73293,
        1.734691,
        1.73229,
        1.732962
      ],
      "metadata": {},
      "peak_memory_mb": 269.484056
    }
  },
  "{\"q\":\"f16[2,8192,8,256]\",\"k\":\"f16[2,8192,8,256]\",\"v\":\"f16[2,8192,8,256]\",\"precision\":[[\"DEFAULT\",\"DEFAULT\"],[\"DEFAULT\",\"DEFAULT\"]],\"logits_dtype\":\"float32\",\"logits_scale\":0.0625,\"bias\":null,\"logits_soft_cap\":null,\"mask\":{\"bool_mask\":null,\"q_start\":null,\"q_end\":null,\"k_start\":null,\"k_end\":null,\"is_causal\":true},\"dropout_mask\":null,\"dropout_rate\":0.0,\"paging_info\":null,\"q_indices\":null,\"k_indices\":null,\"normalize_output\":true,\"return_residuals\":false}": {
    "{\"block_q\":128,\"block_k\":32,\"num_stages\":3,\"num_warps\":8,\"block_d\":null,\"block_d_out\":null,\"split_k\":1,\"pack_mask\":false}": {
      "compile_time_ms": 722.5926179999078,
      "lower_time_ms": 4016.0774860000856,
      "evaluation_times_ms": [
        1.764931,
        1.76285,
        1.768131,
        1.764866,
        1.763714
      ],
      "metadata": {},
      "peak_memory_mb": 268.435456
    }
  },
  "{\"q\":\"f16[2,8192,8,256]\",\"k\":\"f16[2,8192,8,256]\",\"v\":\"f16[2,8192,8,256]\",\"precision\":[[\"DEFAULT\",\"DEFAULT\"],[\"DEFAULT\",\"DEFAULT\"]],\"logits_dtype\":\"float32\",\"logits_scale\":0.0625,\"bias\":null,\"logits_soft_cap\":null,\"mask\":{\"bool_mask\":null,\"q_start\":null,\"q_end\":null,\"k_start\":null,\"k_end\":null,\"is_causal\":true},\"dropout_mask\":null,\"dropout_rate\":0.0,\"paging_info\":null,\"q_indices\":null,\"k_indices\":null,\"normalize_output\":true,\"return_residuals\":true}": {
    "{\"block_q\":128,\"block_k\":32,\"num_stages\":3,\"num_warps\":8,\"block_d\":null,\"block_d_out\":null,\"split_k\":1,\"pack_mask\":false}": {
      "compile_time_ms": 907.3716490001971,
      "lower_time_ms": 9502.316916999916,
      "evaluation_times_ms": [
        1.747394,
        1.748514,
        1.753666,
        1.749187,
        1.752355
      ],
      "metadata": {},
      "peak_memory_mb": 269.484056
    }
  },
  "{\"q\":\"bf16[2,8192,8,256]\",\"k\":\"bf16[2,8192,8,256]\",\"v\":\"bf16[2,8192,8,256]\",\"precision\":[[\"DEFAULT\",\"DEFAULT\"],[\"DEFAULT\",\"DEFAULT\"]],\"logits_dtype\":\"float32\",\"logits_scale\":0.0625,\"bias\":null,\"logits_soft_cap\":null,\"mask\":{\"bool_mask\":null,\"q_start\":null,\"q_end\":null,\"k_start\":null,\"k_end\":null,\"is_causal\":false},\"dropout_mask\":null,\"dropout_rate\":0.0,\"paging_info\":null,\"q_indices\":null,\"k_indices\":null,\"normalize_output\":true,\"return_residuals\":false}": {
    "{\"block_q\":128,\"block_k\":32,\"num_stages\":4,\"num_warps\":8,\"block_d\":null,\"block_d_out\":null,\"split_k\":1,\"pack_mask\":false}": {
      "compile_time_ms": 603.0667140003061,
      "lower_time_ms": 1724.3821990005017,
      "evaluation_times_ms": [
        3.077449,
        3.070952,
        3.073768,
        3.071401,
        3.073545
      ],
      "metadata": {},
      "peak_memory_mb": 268.435456
    }
  },
  "{\"q\":\"bf16[2,8192,8,256]\",\"k\":\"bf16[2,8192,8,256]\",\"v\":\"bf16[2,8192,8,256]\",\"precision\":[[\"DEFAULT\",\"DEFAULT\"],[\"DEFAULT\",\"DEFAULT\"]],\"logits_dtype\":\"float32\",\"logits_scale\":0.0625,\"bias\":null,\"logits_soft_cap\":null,\"mask\":{\"bool_mask\":null,\"q_start\":null,\"q_end\":null,\"k_start\":null,\"k_end\":null,\"is_causal\":false},\"dropout_mask\":null,\"dropout_rate\":0.0,\"paging_info\":null,\"q_indices\":null,\"k_indices\":null,\"normalize_output\":true,\"return_residuals\":true}": {
    "{\"block_q\":128,\"block_k\":32,\"num_stages\":3,\"num_warps\":8,\"block_d\":null,\"block_d_out\":null,\"split_k\":1,\"pack_mask\":false}": {
      "compile_time_ms": 492.7382280002348,
      "lower_time_ms": 4479.939607000233,
      "evaluation_times_ms": [
        3.14125,
        3.141922,
        3.14797,
        3.108802,
        3.105635
      ],
      "metadata": {},
      "peak_memory_mb": 269.484056
    }
  },
  "{\"q\":\"f16[2,8192,8,256]\",\"k\":\"f16[2,8192,8,256]\",\"v\":\"f16[2,8192,8,256]\",\"precision\":[[\"DEFAULT\",\"DEFAULT\"],[\"DEFAULT\",\"DEFAULT\"]],\"logits_dtype\":\"float32\",\"logits_scale\":0.0625,\"bias\":null,\"logits_soft_cap\":null,\"mask\":{\"bool_mask\":null,\"q_start\":null,\"q_end\":null,\"k_start\":null,\"k_end\":null,\"is_causal\":false},\"dropout_mask\":null,\"dropout_rate\":0.0,\"paging_info\":null,\"q_indices\":null,\"k_indices\":null,\"normalize_output\":true,\"return_residuals\":false}": {
    "{\"block_q\":128,\"block_k\":32,\"num_stages\":3,\"num_warps\":8,\"block_d\":null,\"block_d_out\":null,\"split_k\":1,\"pack_mask\":false}": {
      "compile_time_ms": 456.5009350000082,
      "lower_time_ms": 4376.288681000005,
      "evaluation_times_ms": [
        3.105554,
        3.10549,
        3.099986,
        3.103985,
        3.085141
      ],
      "metadata": {},
      "peak_memory_mb": 268.435456
    }
  },
  "{\"q\":\"f16[2,8192,8,256]\",\"k\":\"f16[2,8192,8,256]\",\"v\":\"f16[2,8192,8,256]\",\"precision\":[[\"DEFAULT\",\"DEFAULT\"],[\"DEFAULT\",\"DEFAULT\"]],\"logits_dtype\":\"float32\",\"logits_scale\":0.0625,\"bias\":null,\"logits_soft_cap\":null,\"mask\":{\"bool_mask\":null,\"q_start\":null,\"q_end\":null,\"k_start\":null,\"k_end\":null,\"is_causal\":false},\"dropout_mask\":null,\"dropout_rate\":0.0,\"paging_info\":null,\"q_indices\":null,\"k_indices\":null,\"normalize_output\":true,\"return_residuals\":true}": {
    "{\"block_q\":128,\"block_k\":32,\"num_stages\":3,\"num_warps\":8,\"block_d\":null,\"block_d_out\":null,\"split_k\":1,\"pack_mask\":false}": {
      "compile_time_ms": 528.4131869999982,
      "lower_time_ms": 4824.129955000004,
      "evaluation_times_ms": [
        3.143089,
        3.137391,
        3.137904,
        3.143888,
        3.137808
      ],
      "metadata": {},
      "peak_memory_mb": 269.484056
    },
    "{\"block_q\":128,\"block_k\":32,\"num_stages\":4,\"num_warps\":8,\"block_d\":null,\"block_d_out\":null,\"split_k\":1,\"pack_mask\":false}": {
      "compile_time_ms": 1018.4312689999899,
      "lower_time_ms": 2754.304192999996,
      "evaluation_times_ms": [
        3.140773,
        3.139429,
        3.144196,
        3.143588,
        3.139589
      ],
      "metadata": {},
      "peak_memory_mb": 269.484056
    }
  },
  "{\"q\":\"bf16[1,16384,32,64]\",\"k\":\"bf16[1,16384,32,64]\",\"v\":\"bf16[1,16384,32,64]\",\"precision\":[[\"DEFAULT\",\"DEFAULT\"],[\"DEFAULT\",\"DEFAULT\"]],\"logits_dtype\":\"float32\",\"logits_scale\":0.125,\"bias\":null,\"logits_soft_cap\":null,\"mask\":{\"bool_mask\":null,\"q_start\":null,\"q_end\":null,\"k_start\":null,\"k_end\":null,\"is_causal\":true},\"dropout_mask\":null,\"dropout_rate\":0.0,\"paging_info\":null,\"q_indices\":null,\"k_indices\":null,\"normalize_output\":true,\"return_residuals\":false}": {
    "{\"block_q\":64,\"block_k\":128,\"num_stages\":3,\"num_warps\":4,\"block_d\":null,\"block_d_out\":null,\"split_k\":1,\"pack_mask\":false}": {
      "compile_time_ms": 570.1108230277896,
      "lower_time_ms": 9968.828478944488,
      "evaluation_times_ms": [
        3.937999,
        3.957199,
        3.958735,
        4.005967,
        4.332366
      ],
      "metadata": {},
      "peak_memory_mb": 268.435456
    }
  },
  "{\"q\":\"bf16[1,16384,32,64]\",\"k\":\"bf16[1,16384,32,64]\",\"v\":\"bf16[1,16384,32,64]\",\"precision\":[[\"DEFAULT\",\"DEFAULT\"],[\"DEFAULT\",\"DEFAULT\"]],\"logits_dtype\":\"float32\",\"logits_scale\":0.125,\"bias\":null,\"logits_soft_cap\":null,\"mask\":{\"bool_mask\":null,\"q_start\":null,\"q_end\":null,\"k_start\":null,\"k_end\":null,\"is_causal\":true},\"dropout_mask\":null,\"dropout_rate\":0.0,\"paging_info\":null,\"q_indices\":null,\"k_indices\":null,\"normalize_output\":true,\"return_residuals\":true}": {
    "{\"block_q\":128,\"block_k\":64,\"num_stages\":3,\"num_warps\":4,\"block_d\":null,\"block_d_out\":null,\"split_k\":1,\"pack_mask\":false}": {
      "compile_time_ms": 1286.6040898952633,
      "lower_time_ms": 5199.454637011513,
      "evaluation_times_ms": [
        3.713847,
        3.724631,
        3.730679,
        3.769592,
        3.763191
      ],
      "metadata": {},
      "peak_memory_mb": 272.629784
    }
  },
  "{\"q\":\"f16[1,16384,32,64]\",\"k\":\"f16[1,16384,32,64]\",\"v\":\"f16[1,16384,32,64]\",\"precision\":[[\"DEFAULT\",\"DEFAULT\"],[\"DEFAULT\",\"DEFAULT\"]],\"logits_dtype\":\"float32\",\"logits_scale\":0.125,\"bias\":null,\"logits_soft_cap\":null,\"mask\":{\"bool_mask\":null,\"q_start\":null,\"q_end\":null,\"k_start\":null,\"k_end\":null,\"is_causal\":true},\"dropout_mask\":null,\"dropout_rate\":0.0,\"paging_info\":null,\"q_indices\":null,\"k_indices\":null,\"normalize_output\":true,\"return_residuals\":false}": {
    "{\"block_q\":128,\"block_k\":128,\"num_stages\":3,\"num_warps\":4,\"block_d\":null,\"block_d_out\":null,\"split_k\":1,\"pack_mask\":false}": {
      "compile_time_ms": 1143.2424540398642,
      "lower_time_ms": 11862.681350088678,
      "evaluation_times_ms": [
        3.813879,
        3.814167,
        3.800344,
        3.804984,
        3.985432
      ],
      "metadata": {},
      "peak_memory_mb": 268.435456
    }
  },
  "{\"q\":\"f16[1,16384,32,64]\",\"k\":\"f16[1,16384,32,64]\",\"v\":\"f16[1,16384,32,64]\",\"precision\":[[\"DEFAULT\",\"DEFAULT\"],[\"DEFAULT\",\"DEFAULT\"]],\"logits_dtype\":\"float32\",\"logits_scale\":0.125,\"bias\":null,\"logits_soft_cap\":null,\"mask\":{\"bool_mask\":null,\"q_start\":null,\"q_end\":null,\"k_start\":null,\"k_end\":null,\"is_causal\":true},\"dropout_mask\":null,\"dropout_rate\":0.0,\"paging_info\":null,\"q_indices\":null,\"k_indices\":null,\"normalize_output\":true,\"return_residuals\":true}": {
    "{\"block_q\":128,\"block_k\":128,\"num_stages\":4,\"num_warps\":8,\"block_d\":null,\"block_d_out\":null,\"split_k\":1,\"pack_mask\":false}": {
      "compile_time_ms": 648.740436998196,
      "lower_time_ms": 9246.737405890599,
      "evaluation_times_ms": [
        3.852504,
        3.852696,
        3.84508,
        3.878904,
        3.879256
      ],
      "metadata": {},
      "peak_memory_mb": 272.629784
    }
  },
  "{\"q\":\"bf16[1,16384,32,64]\",\"k\":\"bf16[1,16384,32,64]\",\"v\":\"bf16[1,16384,32,64]\",\"precision\":[[\"DEFAULT\",\"DEFAULT\"],[\"DEFAULT\",\"DEFAULT\"]],\"logits_dtype\":\"float32\",\"logits_scale\":0.125,\"bias\":null,\"logits_soft_cap\":null,\"mask\":{\"bool_mask\":null,\"q_start\":null,\"q_end\":null,\"k_start\":null,\"k_end\":null,\"is_causal\":false},\"dropout_mask\":null,\"dropout_rate\":0.0,\"paging_info\":null,\"q_indices\":null,\"k_indices\":null,\"normalize_output\":true,\"return_residuals\":false}": {
    "{\"block_q\":128,\"block_k\":128,\"num_stages\":3,\"num_warps\":4,\"block_d\":null,\"block_d_out\":null,\"split_k\":1,\"pack_mask\":false}": {
      "compile_time_ms": 487.4484270112589,
      "lower_time_ms": 4445.891411975026,
      "evaluation_times_ms": [
        7.119824,
        7.117616,
        7.279631,
        7.422927,
        7.421903
      ],
      "metadata": {},
      "peak_memory_mb": 268.435456
    }
  },
  "{\"q\":\"bf16[1,16384,32,64]\",\"k\":\"bf16[1,16384,32,64]\",\"v\":\"bf16[1,16384,32,64]\",\"precision\":[[\"DEFAULT\",\"DEFAULT\"],[\"DEFAULT\",\"DEFAULT\"]],\"logits_dtype\":\"float32\",\"logits_scale\":0.125,\"bias\":null,\"logits_soft_cap\":null,\"mask\":{\"bool_mask\":null,\"q_start\":null,\"q_end\":null,\"k_start\":null,\"k_end\":null,\"is_causal\":false},\"dropout_mask\":null,\"dropout_rate\":0.0,\"paging_info\":null,\"q_indices\":null,\"k_indices\":null,\"normalize_output\":true,\"return_residuals\":true}": {
    "{\"block_q\":128,\"block_k\":128,\"num_stages\":3,\"num_warps\":4,\"block_d\":null,\"block_d_out\":null,\"split_k\":1,\"pack_mask\":false}": {
      "compile_time_ms": 518.7423179158941,
      "lower_time_ms": 9398.563093040138,
      "evaluation_times_ms": [
        7.28654,
        7.291852,
        7.291916,
        7.294284,
        7.480779
      ],
      "metadata": {},
      "peak_memory_mb": 272.629784
    }
  },
  "{\"q\":\"f16[1,16384,32,64]\",\"k\":\"f16[1,16384,32,64]\",\"v\":\"f16[1,16384,32,64]\",\"precision\":[[\"DEFAULT\",\"DEFAULT\"],[\"DEFAULT\",\"DEFAULT\"]],\"logits_dtype\":\"float32\",\"logits_scale\":0.125,\"bias\":null,\"logits_soft_cap\":null,\"mask\":{\"bool_mask\":null,\"q_start\":null,\"q_end\":null,\"k_start\":null,\"k_end\":null,\"is_causal\":false},\"dropout_mask\":null,\"dropout_rate\":0.0,\"paging_info\":null,\"q_indices\":null,\"k_indices\":null,\"normalize_output\":true,\"return_residuals\":false}": {
    "{\"block_q\":128,\"block_k\":64,\"num_stages\":2,\"num_warps\":8,\"block_d\":null,\"block_d_out\":null,\"split_k\":1,\"pack_mask\":false}": {
      "compile_time_ms": 185.82135601900518,
      "lower_time_ms": 8036.845418042503,
      "evaluation_times_ms": [
        7.459406,
        7.451022,
        7.465005,
        7.779693,
        7.845517
      ],
      "metadata": {},
      "peak_memory_mb": 268.435456
    }
  },
  "{\"q\":\"f16[1,16384,32,64]\",\"k\":\"f16[1,16384,32,64]\",\"v\":\"f16[1,16384,32,64]\",\"precision\":[[\"DEFAULT\",\"DEFAULT\"],[\"DEFAULT\",\"DEFAULT\"]],\"logits_dtype\":\"float32\",\"logits_scale\":0.125,\"bias\":null,\"logits_soft_cap\":null,\"mask\":{\"bool_mask\":null,\"q_start\":null,\"q_end\":null,\"k_start\":null,\"k_end\":null,\"is_causal\":false},\"dropout_mask\":null,\"dropout_rate\":0.0,\"paging_info\":null,\"q_indices\":null,\"k_indices\":null,\"normalize_output\":true,\"return_residuals\":true}": {
    "{\"block_q\":128,\"block_k\":64,\"num_stages\":4,\"num_warps\":4,\"block_d\":null,\"block_d_out\":null,\"split_k\":1,\"pack_mask\":false}": {
      "compile_time_ms": 394.6532990084961,
      "lower_time_ms": 5098.220774088986,
      "evaluation_times_ms": [
        7.301643,
        7.434155,
        7.550602,
        7.609802,
        7.687722
      ],
      "metadata": {},
      "peak_memory_mb": 272.629784
    }
  },
  "{\"q\":\"bf16[1,16384,16,128]\",\"k\":\"bf16[1,16384,16,128]\",\"v\":\"bf16[1,16384,16,128]\",\"precision\":[[\"DEFAULT\",\"DEFAULT\"],[\"DEFAULT\",\"DEFAULT\"]],\"logits_dtype\":\"float32\",\"logits_scale\":0.08838834764831843,\"bias\":null,\"logits_soft_cap\":null,\"mask\":{\"bool_mask\":null,\"q_start\":null,\"q_end\":null,\"k_start\":null,\"k_end\":null,\"is_causal\":true},\"dropout_mask\":null,\"dropout_rate\":0.0,\"paging_info\":null,\"q_indices\":null,\"k_indices\":null,\"normalize_output\":true,\"return_residuals\":false}": {
    "{\"block_q\":128,\"block_k\":128,\"num_stages\":3,\"num_warps\":8,\"block_d\":null,\"block_d_out\":null,\"split_k\":1,\"pack_mask\":false}": {
      "compile_time_ms": 722.0073940698057,
      "lower_time_ms": 2120.112197007984,
      "evaluation_times_ms": [
        3.025785,
        3.032121,
        3.045529,
        3.118329,
        3.113113
      ],
      "metadata": {},
      "peak_memory_mb": 268.435456
    }
  },
  "{\"q\":\"bf16[1,16384,16,128]\",\"k\":\"bf16[1,16384,16,128]\",\"v\":\"bf16[1,16384,16,128]\",\"precision\":[[\"DEFAULT\",\"DEFAULT\"],[\"DEFAULT\",\"DEFAULT\"]],\"logits_dtype\":\"float32\",\"logits_scale\":0.08838834764831843,\"bias\":null,\"logits_soft_cap\":null,\"mask\":{\"bool_mask\":null,\"q_start\":null,\"q_end\":null,\"k_start\":null,\"k_end\":null,\"is_causal\":true},\"dropout_mask\":null,\"dropout_rate\":0.0,\"paging_info\":null,\"q_indices\":null,\"k_indices\":null,\"normalize_output\":true,\"return_residuals\":true}": {
    "{\"block_q\":128,\"block_k\":128,\"num_stages\":3,\"num_warps\":8,\"block_d\":null,\"block_d_out\":null,\"split_k\":1,\"pack_mask\":false}": {
      "compile_time_ms": 1844.2940269596875,
      "lower_time_ms": 7837.228180957027,
      "evaluation_times_ms": [
        3.020985,
        3.027416,
        3.032952,
        3.030328,
        3.276185
      ],
      "metadata": {},
      "peak_memory_mb": 270.532632
    }
  },
  "{\"q\":\"f16[1,16384,16,128]\",\"k\":\"f16[1,16384,16,128]\",\"v\":\"f16[1,16384,16,128]\",\"precision\":[[\"DEFAULT\",\"DEFAULT\"],[\"DEFAULT\",\"DEFAULT\"]],\"logits_dtype\":\"float32\",\"logits_scale\":0.08838834764831843,\"bias\":null,\"logits_soft_cap\":null,\"mask\":{\"bool_mask\":null,\"q_start\":null,\"q_end\":null,\"k_start\":null,\"k_end\":null,\"is_causal\":true},\"dropout_mask\":null,\"dropout_rate\":0.0,\"paging_info\":null,\"q_indices\":null,\"k_indices\":null,\"normalize_output\":true,\"return_residuals\":false}": {
    "{\"block_q\":128,\"block_k\":128,\"num_stages\":3,\"num_warps\":8,\"block_d\":null,\"block_d_out\":null,\"split_k\":1,\"pack_mask\":false}": {
      "compile_time_ms": 756.6511170007288,
      "lower_time_ms": 3937.529745977372,
      "evaluation_times_ms": [
        3.079385,
        3.069945,
        3.078713,
        3.071929,
        3.071672
      ],
      "metadata": {},
      "peak_memory_mb": 268.435456
    }
  },
  "{\"q\":\"f16[1,16384,16,128]\",\"k\":\"f16[1,16384,16,128]\",\"v\":\"f16[1,16384,16,128]\",\"precision\":[[\"DEFAULT\",\"DEFAULT\"],[\"DEFAULT\",\"DEFAULT\"]],\"logits_dtype\":\"float32\",\"logits_scale\":0.08838834764831843,\"bias\":null,\"logits_soft_cap\":null,\"mask\":{\"bool_mask\":null,\"q_start\":null,\"q_end\":null,\"k_start\":null,\"k_end\":null,\"is_causal\":true},\"dropout_mask\":null,\"dropout_rate\":0.0,\"paging_info\":null,\"q_indices\":null,\"k_indices\":null,\"normalize_output\":true,\"return_residuals\":true}": {
    "{\"block_q\":128,\"block_k\":128,\"num_stages\":3,\"num_warps\":8,\"block_d\":null,\"block_d_out\":null,\"split_k\":1,\"pack_mask\":false}": {
      "compile_time_ms": 2401.737045031041,
      "lower_time_ms": 10919.924214947969,
      "evaluation_times_ms": [
        3.066617,
        3.074265,
        3.072761,
        3.125529,
        3.177401
      ],
      "metadata": {},
      "peak_memory_mb": 270.532632
    }
  },
  "{\"q\":\"bf16[1,16384,16,128]\",\"k\":\"bf16[1,16384,16,128]\",\"v\":\"bf16[1,16384,16,128]\",\"precision\":[[\"DEFAULT\",\"DEFAULT\"],[\"DEFAULT\",\"DEFAULT\"]],\"logits_dtype\":\"float32\",\"logits_scale\":0.08838834764831843,\"bias\":null,\"logits_soft_cap\":null,\"mask\":{\"bool_mask\":null,\"q_start\":null,\"q_end\":null,\"k_start\":null,\"k_end\":null,\"is_causal\":false},\"dropout_mask\":null,\"dropout_rate\":0.0,\"paging_info\":null,\"q_indices\":null,\"k_indices\":null,\"normalize_output\":true,\"return_residuals\":false}": {
    "{\"block_q\":128,\"block_k\":128,\"num_stages\":3,\"num_warps\":8,\"block_d\":null,\"block_d_out\":null,\"split_k\":1,\"pack_mask\":false}": {
      "compile_time_ms": 1240.3586839791387,
      "lower_time_ms": 4548.175975913182,
      "evaluation_times_ms": [
        5.290995,
        5.304435,
        5.304339,
        5.288115,
        5.30597
      ],
      "metadata": {},
      "peak_memory_mb": 268.435456
    }
  },
  "{\"q\":\"bf16[1,16384,16,128]\",\"k\":\"bf16[1,16384,16,128]\",\"v\":\"bf16[1,16384,16,128]\",\"precision\":[[\"DEFAULT\",\"DEFAULT\"],[\"DEFAULT\",\"DEFAULT\"]],\"logits_dtype\":\"float32\",\"logits_scale\":0.08838834764831843,\"bias\":null,\"logits_soft_cap\":null,\"mask\":{\"bool_mask\":null,\"q_start\":null,\"q_end\":null,\"k_start\":null,\"k_end\":null,\"is_causal\":false},\"dropout_mask\":null,\"dropout_rate\":0.0,\"paging_info\":null,\"q_indices\":null,\"k_indices\":null,\"normalize_output\":true,\"return_residuals\":true}": {
    "{\"block_q\":128,\"block_k\":128,\"num_stages\":3,\"num_warps\":8,\"block_d\":null,\"block_d_out\":null,\"split_k\":1,\"pack_mask\":false}": {
      "compile_time_ms": 1415.7127689104527,
      "lower_time_ms": 5148.318569059484,
      "evaluation_times_ms": [
        5.300018,
        5.320499,
        5.317874,
        5.362675,
        5.448338
      ],
      "metadata": {},
      "peak_memory_mb": 270.532632
    }
  },
  "{\"q\":\"f16[1,16384,16,128]\",\"k\":\"f16[1,16384,16,128]\",\"v\":\"f16[1,16384,16,128]\",\"precision\":[[\"DEFAULT\",\"DEFAULT\"],[\"DEFAULT\",\"DEFAULT\"]],\"logits_dtype\":\"float32\",\"logits_scale\":0.08838834764831843,\"bias\":null,\"logits_soft_cap\":null,\"mask\":{\"bool_mask\":null,\"q_start\":null,\"q_end\":null,\"k_start\":null,\"k_end\":null,\"is_causal\":false},\"dropout_mask\":null,\"dropout_rate\":0.0,\"paging_info\":null,\"q_indices\":null,\"k_indices\":null,\"normalize_output\":true,\"return_residuals\":false}": {
    "{\"block_q\":128,\"block_k\":128,\"num_stages\":3,\"num_warps\":8,\"block_d\":null,\"block_d_out\":null,\"split_k\":1,\"pack_mask\":false}": {
      "compile_time_ms": 2919.646554044448,
      "lower_time_ms": 5183.65180096589,
      "evaluation_times_ms": [
        7.974861,
        5.751763,
        5.76053,
        5.854066,
        5.885074
      ],
      "metadata": {},
      "peak_memory_mb": 268.435456
    }
  },
  "{\"q\":\"f16[1,16384,16,128]\",\"k\":\"f16[1,16384,16,128]\",\"v\":\"f16[1,16384,16,128]\",\"precision\":[[\"DEFAULT\",\"DEFAULT\"],[\"DEFAULT\",\"DEFAULT\"]],\"logits_dtype\":\"float32\",\"logits_scale\":0.08838834764831843,\"bias\":null,\"logits_soft_cap\":null,\"mask\":{\"bool_mask\":null,\"q_start\":null,\"q_end\":null,\"k_start\":null,\"k_end\":null,\"is_causal\":false},\"dropout_mask\":null,\"dropout_rate\":0.0,\"paging_info\":null,\"q_indices\":null,\"k_indices\":null,\"normalize_output\":true,\"return_residuals\":true}": {
    "{\"block_q\":128,\"block_k\":128,\"num_stages\":3,\"num_warps\":8,\"block_d\":null,\"block_d_out\":null,\"split_k\":1,\"pack_mask\":false}": {
      "compile_time_ms": 426.15313397254795,
      "lower_time_ms": 4280.511244083755,
      "evaluation_times_ms": [
        5.503411,
        5.742642,
        5.758003,
        5.944369,
        5.950962
      ],
      "metadata": {},
      "peak_memory_mb": 270.532632
    }
  },
  "{\"q\":\"bf16[1,16384,8,256]\",\"k\":\"bf16[1,16384,8,256]\",\"v\":\"bf16[1,16384,8,256]\",\"precision\":[[\"DEFAULT\",\"DEFAULT\"],[\"DEFAULT\",\"DEFAULT\"]],\"logits_dtype\":\"float32\",\"logits_scale\":0.0625,\"bias\":null,\"logits_soft_cap\":null,\"mask\":{\"bool_mask\":null,\"q_start\":null,\"q_end\":null,\"k_start\":null,\"k_end\":null,\"is_causal\":true},\"dropout_mask\":null,\"dropout_rate\":0.0,\"paging_info\":null,\"q_indices\":null,\"k_indices\":null,\"normalize_output\":true,\"return_residuals\":false}": {
    "{\"block_q\":128,\"block_k\":32,\"num_stages\":4,\"num_warps\":8,\"block_d\":null,\"block_d_out\":null,\"split_k\":1,\"pack_mask\":false}": {
      "compile_time_ms": 6019.550487981178,
      "lower_time_ms": 2649.0281850565225,
      "evaluation_times_ms": [
        3.434424,
        3.418264,
        3.417624,
        3.427255,
        3.417816
      ],
      "metadata": {},
      "peak_memory_mb": 268.435456
    }
  },
  "{\"q\":\"bf16[1,16384,8,256]\",\"k\":\"bf16[1,16384,8,256]\",\"v\":\"bf16[1,16384,8,256]\",\"precision\":[[\"DEFAULT\",\"DEFAULT\"],[\"DEFAULT\",\"DEFAULT\"]],\"logits_dtype\":\"float32\",\"logits_scale\":0.0625,\"bias\":null,\"logits_soft_cap\":null,\"mask\":{\"bool_mask\":null,\"q_start\":null,\"q_end\":null,\"k_start\":null,\"k_end\":null,\"is_causal\":true},\"dropout_mask\":null,\"dropout_rate\":0.0,\"paging_info\":null,\"q_indices\":null,\"k_indices\":null,\"normalize_output\":true,\"return_residuals\":true}": {
    "{\"block_q\":128,\"block_k\":32,\"num_stages\":4,\"num_warps\":8,\"block_d\":null,\"block_d_out\":null,\"split_k\":1,\"pack_mask\":false}": {
      "compile_time_ms": 4353.572639054619,
      "lower_time_ms": 2967.2905049519613,
      "evaluation_times_ms": [
        3.41356,
        3.376568,
        3.379544,
        3.39724,
        3.38156
      ],
      "metadata": {},
      "peak_memory_mb": 269.484056
    }
  },
  "{\"q\":\"f16[1,16384,8,256]\",\"k\":\"f16[1,16384,8,256]\",\"v\":\"f16[1,16384,8,256]\",\"precision\":[[\"DEFAULT\",\"DEFAULT\"],[\"DEFAULT\",\"DEFAULT\"]],\"logits_dtype\":\"float32\",\"logits_scale\":0.0625,\"bias\":null,\"logits_soft_cap\":null,\"mask\":{\"bool_mask\":null,\"q_start\":null,\"q_end\":null,\"k_start\":null,\"k_end\":null,\"is_causal\":true},\"dropout_mask\":null,\"dropout_rate\":0.0,\"paging_info\":null,\"q_indices\":null,\"k_indices\":null,\"normalize_output\":true,\"return_residuals\":false}": {
    "{\"block_q\":128,\"block_k\":32,\"num_stages\":3,\"num_warps\":8,\"block_d\":null,\"block_d_out\":null,\"split_k\":1,\"pack_mask\":false}": {
      "compile_time_ms": 15354.937480995432,
      "lower_time_ms": 15409.412858076394,
      "evaluation_times_ms": [
        3.498168,
        3.49452,
        3.516183,
        3.494711,
        3.504696
      ],
      "metadata": {},
      "peak_memory_mb": 268.435456
    }
  },
  "{\"q\":\"f16[1,16384,8,256]\",\"k\":\"f16[1,16384,8,256]\",\"v\":\"f16[1,16384,8,256]\",\"precision\":[[\"DEFAULT\",\"DEFAULT\"],[\"DEFAULT\",\"DEFAULT\"]],\"logits_dtype\":\"float32\",\"logits_scale\":0.0625,\"bias\":null,\"logits_soft_cap\":null,\"mask\":{\"bool_mask\":null,\"q_start\":null,\"q_end\":null,\"k_start\":null,\"k_end\":null,\"is_causal\":true},\"dropout_mask\":null,\"dropout_rate\":0.0,\"paging_info\":null,\"q_indices\":null,\"k_indices\":null,\"normalize_output\":true,\"return_residuals\":true}": {
    "{\"block_q\":128,\"block_k\":32,\"num_stages\":4,\"num_warps\":8,\"block_d\":null,\"block_d_out\":null,\"split_k\":1,\"pack_mask\":false}": {
      "compile_time_ms": 5860.215961001813,
      "lower_time_ms": 3377.807140001096,
      "evaluation_times_ms": [
        3.533592,
        3.546583,
        3.527383,
        3.527928,
        3.539096
      ],
      "metadata": {},
      "peak_memory_mb": 269.484056
    }
  },
  "{\"q\":\"bf16[1,16384,8,256]\",\"k\":\"bf16[1,16384,8,256]\",\"v\":\"bf16[1,16384,8,256]\",\"precision\":[[\"DEFAULT\",\"DEFAULT\"],[\"DEFAULT\",\"DEFAULT\"]],\"logits_dtype\":\"float32\",\"logits_scale\":0.0625,\"bias\":null,\"logits_soft_cap\":null,\"mask\":{\"bool_mask\":null,\"q_start\":null,\"q_end\":null,\"k_start\":null,\"k_end\":null,\"is_causal\":false},\"dropout_mask\":null,\"dropout_rate\":0.0,\"paging_info\":null,\"q_indices\":null,\"k_indices\":null,\"normalize_output\":true,\"return_residuals\":false}": {
    "{\"block_q\":128,\"block_k\":32,\"num_stages\":3,\"num_warps\":8,\"block_d\":null,\"block_d_out\":null,\"split_k\":1,\"pack_mask\":false}": {
      "compile_time_ms": 807.8341310610995,
      "lower_time_ms": 12888.646150939167,
      "evaluation_times_ms": [
        6.063345,
        6.059057,
        6.065585,
        6.054449,
        6.050289
      ],
      "metadata": {},
      "peak_memory_mb": 268.435456
    }
  },
  "{\"q\":\"bf16[1,16384,8,256]\",\"k\":\"bf16[1,16384,8,256]\",\"v\":\"bf16[1,16384,8,256]\",\"precision\":[[\"DEFAULT\",\"DEFAULT\"],[\"DEFAULT\",\"DEFAULT\"]],\"logits_dtype\":\"float32\",\"logits_scale\":0.0625,\"bias\":null,\"logits_soft_cap\":null,\"mask\":{\"bool_mask\":null,\"q_start\":null,\"q_end\":null,\"k_start\":null,\"k_end\":null,\"is_causal\":false},\"dropout_mask\":null,\"dropout_rate\":0.0,\"paging_info\":null,\"q_indices\":null,\"k_indices\":null,\"normalize_output\":true,\"return_residuals\":true}": {
    "{\"block_q\":128,\"block_k\":32,\"num_stages\":3,\"num_warps\":8,\"block_d\":null,\"block_d_out\":null,\"split_k\":1,\"pack_mask\":false}": {
      "compile_time_ms": 4924.2585831088945,
      "lower_time_ms": 12362.823191913776,
      "evaluation_times_ms": [
        6.105616,
        6.102,
        6.098257,
        6.095345,
        6.092529
      ],
      "metadata": {},
      "peak_memory_mb": 269.484056
    }
  },
  "{\"q\":\"f16[1,16384,8,256]\",\"k\":\"f16[1,16384,8,256]\",\"v\":\"f16[1,16384,8,256]\",\"precision\":[[\"DEFAULT\",\"DEFAULT\"],[\"DEFAULT\",\"DEFAULT\"]],\"logits_dtype\":\"float32\",\"logits_scale\":0.0625,\"bias\":null,\"logits_soft_cap\":null,\"mask\":{\"bool_mask\":null,\"q_start\":null,\"q_end\":null,\"k_start\":null,\"k_end\":null,\"is_causal\":false},\"dropout_mask\":null,\"dropout_rate\":0.0,\"paging_info\":null,\"q_indices\":null,\"k_indices\":null,\"normalize_output\":true,\"return_residuals\":false}": {
    "{\"block_q\":128,\"block_k\":32,\"num_stages\":3,\"num_warps\":8,\"block_d\":null,\"block_d_out\":null,\"split_k\":1,\"pack_mask\":false}": {
      "compile_time_ms": 1769.1636269446462,
      "lower_time_ms": 11450.755039928481,
      "evaluation_times_ms": [
        6.154064,
        6.148433,
        6.150288,
        6.14728,
        6.155536
      ],
      "metadata": {},
      "peak_memory_mb": 268.435456
    }
  },
  "{\"q\":\"f16[1,16384,8,256]\",\"k\":\"f16[1,16384,8,256]\",\"v\":\"f16[1,16384,8,256]\",\"precision\":[[\"DEFAULT\",\"DEFAULT\"],[\"DEFAULT\",\"DEFAULT\"]],\"logits_dtype\":\"float32\",\"logits_scale\":0.0625,\"bias\":null,\"logits_soft_cap\":null,\"mask\":{\"bool_mask\":null,\"q_start\":null,\"q_end\":null,\"k_start\":null,\"k_end\":null,\"is_causal\":false},\"dropout_mask\":null,\"dropout_rate\":0.0,\"paging_info\":null,\"q_indices\":null,\"k_indices\":null,\"normalize_output\":true,\"return_residuals\":true}": {
    "{\"block_q\":128,\"block_k\":32,\"num_stages\":3,\"num_warps\":8,\"block_d\":null,\"block_d_out\":null,\"split_k\":1,\"pack_mask\":false}": {
      "compile_time_ms": 4597.497088951059,
      "lower_time_ms": 13439.325873972848,
      "evaluation_times_ms": [
        6.101776,
        6.110417,
        6.096465,
        6.0956,
        6.102961
      ],
      "metadata": {},
      "peak_memory_mb": 269.484056
    }
  },
  "{\"q\":\"bf16[32,512,4,16]\",\"k\":\"bf16[32,512,4,16]\",\"v\":\"bf16[32,512,4,16]\",\"precision\":[\"BF16_BF16_F32\",\"BF16_BF16_F32\"],\"logits_dtype\":\"float32\",\"logits_scale\":0.25,\"bias\":\"bf16[1,4,512,512]\",\"logits_soft_cap\":null,\"mask\":{\"bool_mask\":\"bool[32,1,1,512]\",\"q_start\":null,\"q_end\":null,\"k_start\":null,\"k_end\":null,\"is_causal\":false},\"dropout_mask\":null,\"dropout_rate\":0.0,\"paging_info\":null,\"q_indices\":null,\"k_indices\":null,\"normalize_output\":true,\"return_residuals\":false}": {
    "{\"block_q\":64,\"block_k\":64,\"num_stages\":3,\"num_warps\":4,\"block_d\":null,\"block_d_out\":null,\"split_k\":1,\"pack_mask\":false}": {
      "compile_time_ms": 383.60709289554507,
      "lower_time_ms": 12675.129516981542,
      "evaluation_times_ms": [
        0.038368,
        0.03824,
        0.038432,
        0.038432,
        0.038528
      ],
      "metadata": {},
      "peak_memory_mb": 10.502144
    }
  },
  "{\"q\":\"bf16[1,32,512,4,32]\",\"k\":\"bf16[1,32,512,4,32]\",\"v\":\"bf16[1,32,512,4,32]\",\"precision\":[\"BF16_BF16_F32\",\"BF16_BF16_F32\"],\"logits_dtype\":\"float32\",\"logits_scale\":0.17677669529663687,\"bias\":\"bf16[1,1,4,512,512]\",\"logits_soft_cap\":null,\"mask\":{\"bool_mask\":\"bool[32,1,1,512]\",\"q_start\":null,\"q_end\":null,\"k_start\":null,\"k_end\":null,\"is_causal\":false},\"dropout_mask\":null,\"dropout_rate\":0.0,\"paging_info\":null,\"q_indices\":null,\"k_indices\":null,\"normalize_output\":true,\"return_residuals\":false}": {
    "{\"block_q\":64,\"block_k\":64,\"num_stages\":3,\"num_warps\":4,\"block_d\":null,\"block_d_out\":null,\"split_k\":1,\"pack_mask\":false}": {
      "compile_time_ms": 412.91322896722704,
      "lower_time_ms": 12865.692120976746,
      "evaluation_times_ms": [
        0.041024,
        0.041024,
        0.040799,
        0.040608,
        0.040704
      ],
      "metadata": {},
      "peak_memory_mb": 18.890752
    }
  },
  "{\"q\":\"bf16[32,512,4,32]\",\"k\":\"bf16[32,512,4,32]\",\"v\":\"bf16[32,512,4,32]\",\"precision\":[\"BF16_BF16_F32\",\"BF16_BF16_F32\"],\"logits_dtype\":\"float32\",\"logits_scale\":0.17677669529663687,\"bias\":\"bf16[1,4,512,512]\",\"logits_soft_cap\":null,\"mask\":{\"bool_mask\":\"bool[32,1,1,512]\",\"q_start\":null,\"q_end\":null,\"k_start\":null,\"k_end\":null,\"is_causal\":false},\"dropout_mask\":null,\"dropout_rate\":0.0,\"paging_info\":null,\"q_indices\":null,\"k_indices\":null,\"normalize_output\":true,\"return_residuals\":false}": {
    "{\"block_q\":64,\"block_k\":64,\"num_stages\":3,\"num_warps\":4,\"block_d\":null,\"block_d_out\":null,\"split_k\":1,\"pack_mask\":false}": {
      "compile_time_ms": 1364.22243504785,
      "lower_time_ms": 11229.466270888224,
      "evaluation_times_ms": [
        0.041537,
        0.041344,
        0.040864,
        0.040768,
        0.040897
      ],
      "metadata": {},
      "peak_memory_mb": 18.890752
    }
  },
  "{\"q\":\"bf16[32,768,4,16]\",\"k\":\"bf16[32,768,4,16]\",\"v\":\"bf16[32,768,4,16]\",\"precision\":[\"BF16_BF16_F32\",\"BF16_BF16_F32\"],\"logits_dtype\":\"float32\",\"logits_scale\":0.25,\"bias\":\"bf16[1,4,768,768]\",\"logits_soft_cap\":null,\"mask\":{\"bool_mask\":\"bool[32,1,1,768]\",\"q_start\":null,\"q_end\":null,\"k_start\":null,\"k_end\":null,\"is_causal\":false},\"dropout_mask\":null,\"dropout_rate\":0.0,\"paging_info\":null,\"q_indices\":null,\"k_indices\":null,\"normalize_output\":true,\"return_residuals\":false}": {
    "{\"block_q\":128,\"block_k\":64,\"num_stages\":3,\"num_warps\":4,\"block_d\":null,\"block_d_out\":null,\"split_k\":1,\"pack_mask\":false}": {
      "compile_time_ms": 382.01802992261946,
      "lower_time_ms": 3163.844041991979,
      "evaluation_times_ms": [
        0.077216,
        0.076992,
        0.07744,
        0.077024,
        0.076768
      ],
      "metadata": {},
      "peak_memory_mb": 17.32608
    }
  },
  "{\"q\":\"bf16[1,32,768,4,32]\",\"k\":\"bf16[1,32,768,4,32]\",\"v\":\"bf16[1,32,768,4,32]\",\"precision\":[\"BF16_BF16_F32\",\"BF16_BF16_F32\"],\"logits_dtype\":\"float32\",\"logits_scale\":0.17677669529663687,\"bias\":\"bf16[1,1,4,768,768]\",\"logits_soft_cap\":null,\"mask\":{\"bool_mask\":\"bool[32,1,1,768]\",\"q_start\":null,\"q_end\":null,\"k_start\":null,\"k_end\":null,\"is_causal\":false},\"dropout_mask\":null,\"dropout_rate\":0.0,\"paging_info\":null,\"q_indices\":null,\"k_indices\":null,\"normalize_output\":true,\"return_residuals\":false}": {
    "{\"block_q\":64,\"block_k\":64,\"num_stages\":3,\"num_warps\":4,\"block_d\":null,\"block_d_out\":null,\"split_k\":1,\"pack_mask\":false}": {
      "compile_time_ms": 189.73266915418208,
      "lower_time_ms": 9199.13388392888,
      "evaluation_times_ms": [
        0.087073,
        0.08704,
        0.087488,
        0.087168,
        0.087553
      ],
      "metadata": {},
      "peak_memory_mb": 29.908992
    }
  },
  "{\"q\":\"bf16[32,768,4,32]\",\"k\":\"bf16[32,768,4,32]\",\"v\":\"bf16[32,768,4,32]\",\"precision\":[\"BF16_BF16_F32\",\"BF16_BF16_F32\"],\"logits_dtype\":\"float32\",\"logits_scale\":0.17677669529663687,\"bias\":\"bf16[1,4,768,768]\",\"logits_soft_cap\":null,\"mask\":{\"bool_mask\":\"bool[32,1,1,768]\",\"q_start\":null,\"q_end\":null,\"k_start\":null,\"k_end\":null,\"is_causal\":false},\"dropout_mask\":null,\"dropout_rate\":0.0,\"paging_info\":null,\"q_indices\":null,\"k_indices\":null,\"normalize_output\":true,\"return_residuals\":false}": {
    "{\"block_q\":64,\"block_k\":64,\"num_stages\":3,\"num_warps\":4,\"block_d\":null,\"block_d_out\":null,\"split_k\":1,\"pack_mask\":false}": {
      "compile_time_ms": 262.46396312490106,
      "lower_time_ms": 174.15823508054018,
      "evaluation_times_ms": [
        0.087136,
        0.086752,
        0.086816,
        0.08736,
        0.086976
      ],
      "metadata": {},
      "peak_memory_mb": 29.908992
    }
  },
  "{\"q\":\"bf16[32,1024,4,16]\",\"k\":\"bf16[32,1024,4,16]\",\"v\":\"bf16[32,1024,4,16]\",\"precision\":[\"BF16_BF16_F32\",\"BF16_BF16_F32\"],\"logits_dtype\":\"float32\",\"logits_scale\":0.25,\"bias\":\"bf16[1,4,1024,1024]\",\"logits_soft_cap\":null,\"mask\":{\"bool_mask\":\"bool[32,1,1,1024]\",\"q_start\":null,\"q_end\":null,\"k_start\":null,\"k_end\":null,\"is_causal\":false},\"dropout_mask\":null,\"dropout_rate\":0.0,\"paging_info\":null,\"q_indices\":null,\"k_indices\":null,\"normalize_output\":true,\"return_residuals\":false}": {
    "{\"block_q\":128,\"block_k\":64,\"num_stages\":4,\"num_warps\":4,\"block_d\":null,\"block_d_out\":null,\"split_k\":1,\"pack_mask\":false}": {
      "compile_time_ms": 269.5283670909703,
      "lower_time_ms": 2505.1614011172205,
      "evaluation_times_ms": [
        0.133216,
        0.133824,
        0.133728,
        0.132897,
        0.133216
      ],
      "metadata": {},
      "peak_memory_mb": 25.198592
    }
  },
  "{\"q\":\"bf16[1,32,1024,4,32]\",\"k\":\"bf16[1,32,1024,4,32]\",\"v\":\"bf16[1,32,1024,4,32]\",\"precision\":[\"BF16_BF16_F32\",\"BF16_BF16_F32\"],\"logits_dtype\":\"float32\",\"logits_scale\":0.17677669529663687,\"bias\":\"bf16[1,1,4,1024,1024]\",\"logits_soft_cap\":null,\"mask\":{\"bool_mask\":\"bool[32,1,1,1024]\",\"q_start\":null,\"q_end\":null,\"k_start\":null,\"k_end\":null,\"is_causal\":false},\"dropout_mask\":null,\"dropout_rate\":0.0,\"paging_info\":null,\"q_indices\":null,\"k_indices\":null,\"normalize_output\":true,\"return_residuals\":false}": {
    "{\"block_q\":64,\"block_k\":64,\"num_stages\":3,\"num_warps\":4,\"block_d\":null,\"block_d_out\":null,\"split_k\":1,\"pack_mask\":false}": {
      "compile_time_ms": 3792.7201979327947,
      "lower_time_ms": 11428.427808918059,
      "evaluation_times_ms": [
        0.153153,
        0.15248,
        0.152512,
        0.151872,
        0.152609
      ],
      "metadata": {},
      "peak_memory_mb": 41.975808
    }
  },
  "{\"q\":\"bf16[32,1024,4,32]\",\"k\":\"bf16[32,1024,4,32]\",\"v\":\"bf16[32,1024,4,32]\",\"precision\":[\"BF16_BF16_F32\",\"BF16_BF16_F32\"],\"logits_dtype\":\"float32\",\"logits_scale\":0.17677669529663687,\"bias\":\"bf16[1,4,1024,1024]\",\"logits_soft_cap\":null,\"mask\":{\"bool_mask\":\"bool[32,1,1,1024]\",\"q_start\":null,\"q_end\":null,\"k_start\":null,\"k_end\":null,\"is_causal\":false},\"dropout_mask\":null,\"dropout_rate\":0.0,\"paging_info\":null,\"q_indices\":null,\"k_indices\":null,\"normalize_output\":true,\"return_residuals\":false}": {
    "{\"block_q\":64,\"block_k\":64,\"num_stages\":3,\"num_warps\":4,\"block_d\":null,\"block_d_out\":null,\"split_k\":1,\"pack_mask\":false}": {
      "compile_time_ms": 1442.772994050756,
      "lower_time_ms": 12805.62482518144,
      "evaluation_times_ms": [
        0.152224,
        0.152288,
        0.152097,
        0.152416,
        0.152192
      ],
      "metadata": {},
      "peak_memory_mb": 41.975808
    }
  },
  "{\"q\":\"bf16[32,1280,4,16]\",\"k\":\"bf16[32,1280,4,16]\",\"v\":\"bf16[32,1280,4,16]\",\"precision\":[\"BF16_BF16_F32\",\"BF16_BF16_F32\"],\"logits_dtype\":\"float32\",\"logits_scale\":0.25,\"bias\":\"bf16[1,4,1280,1280]\",\"logits_soft_cap\":null,\"mask\":{\"bool_mask\":\"bool[32,1,1,1280]\",\"q_start\":null,\"q_end\":null,\"k_start\":null,\"k_end\":null,\"is_causal\":false},\"dropout_mask\":null,\"dropout_rate\":0.0,\"paging_info\":null,\"q_indices\":null,\"k_indices\":null,\"normalize_output\":true,\"return_residuals\":false}": {
    "{\"block_q\":64,\"block_k\":64,\"num_stages\":3,\"num_warps\":4,\"block_d\":null,\"block_d_out\":null,\"split_k\":1,\"pack_mask\":false}": {
      "compile_time_ms": 1051.9488181453198,
      "lower_time_ms": 12031.35276120156,
      "evaluation_times_ms": [
        0.206017,
        0.205376,
        0.206209,
        0.206208,
        0.206081
      ],
      "metadata": {},
      "peak_memory_mb": 34.11968
    }
  },
  "{\"q\":\"bf16[1,32,1280,4,32]\",\"k\":\"bf16[1,32,1280,4,32]\",\"v\":\"bf16[1,32,1280,4,32]\",\"precision\":[\"BF16_BF16_F32\",\"BF16_BF16_F32\"],\"logits_dtype\":\"float32\",\"logits_scale\":0.17677669529663687,\"bias\":\"bf16[1,1,4,1280,1280]\",\"logits_soft_cap\":null,\"mask\":{\"bool_mask\":\"bool[32,1,1,1280]\",\"q_start\":null,\"q_end\":null,\"k_start\":null,\"k_end\":null,\"is_causal\":false},\"dropout_mask\":null,\"dropout_rate\":0.0,\"paging_info\":null,\"q_indices\":null,\"k_indices\":null,\"normalize_output\":true,\"return_residuals\":false}": {
    "{\"block_q\":64,\"block_k\":64,\"num_stages\":3,\"num_warps\":4,\"block_d\":null,\"block_d_out\":null,\"split_k\":1,\"pack_mask\":false}": {
      "compile_time_ms": 202.58088898845017,
      "lower_time_ms": 10838.996726088226,
      "evaluation_times_ms": [
        0.231489,
        0.230016,
        0.229569,
        0.230208,
        0.230017
      ],
      "metadata": {},
      "peak_memory_mb": 55.0912
    }
  },
  "{\"q\":\"bf16[32,1280,4,32]\",\"k\":\"bf16[32,1280,4,32]\",\"v\":\"bf16[32,1280,4,32]\",\"precision\":[\"BF16_BF16_F32\",\"BF16_BF16_F32\"],\"logits_dtype\":\"float32\",\"logits_scale\":0.17677669529663687,\"bias\":\"bf16[1,4,1280,1280]\",\"logits_soft_cap\":null,\"mask\":{\"bool_mask\":\"bool[32,1,1,1280]\",\"q_start\":null,\"q_end\":null,\"k_start\":null,\"k_end\":null,\"is_causal\":false},\"dropout_mask\":null,\"dropout_rate\":0.0,\"paging_info\":null,\"q_indices\":null,\"k_indices\":null,\"normalize_output\":true,\"return_residuals\":false}": {
    "{\"block_q\":64,\"block_k\":64,\"num_stages\":3,\"num_warps\":4,\"block_d\":null,\"block_d_out\":null,\"split_k\":1,\"pack_mask\":false}": {
      "compile_time_ms": 443.0219328496605,
      "lower_time_ms": 11367.328284075484,
      "evaluation_times_ms": [
        0.23264,
        0.231169,
        0.232576,
        0.231457,
        0.231681
      ],
      "metadata": {},
      "peak_memory_mb": 55.0912
    }
  },
  "{\"q\":\"bf16[32,1536,4,16]\",\"k\":\"bf16[32,1536,4,16]\",\"v\":\"bf16[32,1536,4,16]\",\"precision\":[\"BF16_BF16_F32\",\"BF16_BF16_F32\"],\"logits_dtype\":\"float32\",\"logits_scale\":0.25,\"bias\":\"bf16[1,4,1536,1536]\",\"logits_soft_cap\":null,\"mask\":{\"bool_mask\":\"bool[32,1,1,1536]\",\"q_start\":null,\"q_end\":null,\"k_start\":null,\"k_end\":null,\"is_causal\":false},\"dropout_mask\":null,\"dropout_rate\":0.0,\"paging_info\":null,\"q_indices\":null,\"k_indices\":null,\"normalize_output\":true,\"return_residuals\":false}": {
    "{\"block_q\":64,\"block_k\":64,\"num_stages\":3,\"num_warps\":4,\"block_d\":null,\"block_d_out\":null,\"split_k\":1,\"pack_mask\":false}": {
      "compile_time_ms": 1261.823144974187,
      "lower_time_ms": 11507.382224081084,
      "evaluation_times_ms": [
        0.29328,
        0.294304,
        0.294048,
        0.293664,
        0.294113
      ],
      "metadata": {},
      "peak_memory_mb": 44.089344
    }
  },
  "{\"q\":\"bf16[1,32,1536,4,32]\",\"k\":\"bf16[1,32,1536,4,32]\",\"v\":\"bf16[1,32,1536,4,32]\",\"precision\":[\"BF16_BF16_F32\",\"BF16_BF16_F32\"],\"logits_dtype\":\"float32\",\"logits_scale\":0.17677669529663687,\"bias\":\"bf16[1,1,4,1536,1536]\",\"logits_soft_cap\":null,\"mask\":{\"bool_mask\":\"bool[32,1,1,1536]\",\"q_start\":null,\"q_end\":null,\"k_start\":null,\"k_end\":null,\"is_causal\":false},\"dropout_mask\":null,\"dropout_rate\":0.0,\"paging_info\":null,\"q_indices\":null,\"k_indices\":null,\"normalize_output\":true,\"return_residuals\":false}": {
    "{\"block_q\":64,\"block_k\":64,\"num_stages\":3,\"num_warps\":4,\"block_d\":null,\"block_d_out\":null,\"split_k\":1,\"pack_mask\":false}": {
      "compile_time_ms": 216.1074080504477,
      "lower_time_ms": 11031.043567927554,
      "evaluation_times_ms": [
        0.326017,
        0.328161,
        0.32576,
        0.327905,
        0.326657
      ],
      "metadata": {},
      "peak_memory_mb": 69.255168
    }
  },
  "{\"q\":\"bf16[32,1536,4,32]\",\"k\":\"bf16[32,1536,4,32]\",\"v\":\"bf16[32,1536,4,32]\",\"precision\":[\"BF16_BF16_F32\",\"BF16_BF16_F32\"],\"logits_dtype\":\"float32\",\"logits_scale\":0.17677669529663687,\"bias\":\"bf16[1,4,1536,1536]\",\"logits_soft_cap\":null,\"mask\":{\"bool_mask\":\"bool[32,1,1,1536]\",\"q_start\":null,\"q_end\":null,\"k_start\":null,\"k_end\":null,\"is_causal\":false},\"dropout_mask\":null,\"dropout_rate\":0.0,\"paging_info\":null,\"q_indices\":null,\"k_indices\":null,\"normalize_output\":true,\"return_residuals\":false}": {
    "{\"block_q\":64,\"block_k\":64,\"num_stages\":3,\"num_warps\":4,\"block_d\":null,\"block_d_out\":null,\"split_k\":1,\"pack_mask\":false}": {
      "compile_time_ms": 216.77629300393164,
      "lower_time_ms": 11294.333901954815,
      "evaluation_times_ms": [
        0.329216,
        0.326752,
        0.326689,
        0.327521,
        0.326752
      ],
      "metadata": {},
      "peak_memory_mb": 69.255168
    }
  },
  "{\"q\":\"bf16[128,1792,4,16]\",\"k\":\"bf16[128,1792,4,16]\",\"v\":\"bf16[128,1792,4,16]\",\"precision\":[\"BF16_BF16_F32\",\"BF16_BF16_F32\"],\"logits_dtype\":\"float32\",\"logits_scale\":0.25,\"bias\":\"bf16[1,4,1792,1792]\",\"logits_soft_cap\":null,\"mask\":{\"bool_mask\":\"bool[128,1,1,1792]\",\"q_start\":null,\"q_end\":null,\"k_start\":null,\"k_end\":null,\"is_causal\":false},\"dropout_mask\":null,\"dropout_rate\":0.0,\"paging_info\":null,\"q_indices\":null,\"k_indices\":null,\"normalize_output\":true,\"return_residuals\":false}": {
    "{\"block_q\":64,\"block_k\":64,\"num_stages\":4,\"num_warps\":4,\"block_d\":null,\"block_d_out\":null,\"split_k\":1,\"pack_mask\":false}": {
      "compile_time_ms": 215.91173391789198,
      "lower_time_ms": 10815.799003932625,
      "evaluation_times_ms": [
        1.475172,
        1.473092,
        1.4737,
        1.47114,
        1.476484
      ],
      "metadata": {},
      "peak_memory_mb": 143.36
    }
  },
  "{\"q\":\"bf16[1,128,1792,4,32]\",\"k\":\"bf16[1,128,1792,4,32]\",\"v\":\"bf16[1,128,1792,4,32]\",\"precision\":[\"BF16_BF16_F32\",\"BF16_BF16_F32\"],\"logits_dtype\":\"float32\",\"logits_scale\":0.17677669529663687,\"bias\":\"bf16[1,1,4,1792,1792]\",\"logits_soft_cap\":null,\"mask\":{\"bool_mask\":\"bool[128,1,1,1792]\",\"q_start\":null,\"q_end\":null,\"k_start\":null,\"k_end\":null,\"is_causal\":false},\"dropout_mask\":null,\"dropout_rate\":0.0,\"paging_info\":null,\"q_indices\":null,\"k_indices\":null,\"normalize_output\":true,\"return_residuals\":false}": {
    "{\"block_q\":64,\"block_k\":64,\"num_stages\":3,\"num_warps\":4,\"block_d\":null,\"block_d_out\":null,\"split_k\":1,\"pack_mask\":false}": {
      "compile_time_ms": 3730.3407478611916,
      "lower_time_ms": 12110.42308807373,
      "evaluation_times_ms": [
        1.659909,
        1.656869,
        1.657124,
        1.656101,
        1.656772
      ],
      "metadata": {},
      "peak_memory_mb": 260.800512
    }
  },
  "{\"q\":\"bf16[128,1792,4,32]\",\"k\":\"bf16[128,1792,4,32]\",\"v\":\"bf16[128,1792,4,32]\",\"precision\":[\"BF16_BF16_F32\",\"BF16_BF16_F32\"],\"logits_dtype\":\"float32\",\"logits_scale\":0.17677669529663687,\"bias\":\"bf16[1,4,1792,1792]\",\"logits_soft_cap\":null,\"mask\":{\"bool_mask\":\"bool[128,1,1,1792]\",\"q_start\":null,\"q_end\":null,\"k_start\":null,\"k_end\":null,\"is_causal\":false},\"dropout_mask\":null,\"dropout_rate\":0.0,\"paging_info\":null,\"q_indices\":null,\"k_indices\":null,\"normalize_output\":true,\"return_residuals\":false}": {
    "{\"block_q\":64,\"block_k\":64,\"num_stages\":3,\"num_warps\":4,\"block_d\":null,\"block_d_out\":null,\"split_k\":1,\"pack_mask\":false}": {
      "compile_time_ms": 2288.675735006109,
      "lower_time_ms": 12588.837061077356,
      "evaluation_times_ms": [
        1.662404,
        1.668164,
        1.665669,
        1.665061,
        1.66602
      ],
      "metadata": {},
      "peak_memory_mb": 260.800512
    }
  },
  "{\"q\":\"bf16[128,2048,4,16]\",\"k\":\"bf16[128,2048,4,16]\",\"v\":\"bf16[128,2048,4,16]\",\"precision\":[\"BF16_BF16_F32\",\"BF16_BF16_F32\"],\"logits_dtype\":\"float32\",\"logits_scale\":0.25,\"bias\":\"bf16[1,4,2048,2048]\",\"logits_soft_cap\":null,\"mask\":{\"bool_mask\":\"bool[128,1,1,2048]\",\"q_start\":null,\"q_end\":null,\"k_start\":null,\"k_end\":null,\"is_causal\":false},\"dropout_mask\":null,\"dropout_rate\":0.0,\"paging_info\":null,\"q_indices\":null,\"k_indices\":null,\"normalize_output\":true,\"return_residuals\":false}": {
    "{\"block_q\":64,\"block_k\":64,\"num_stages\":3,\"num_warps\":4,\"block_d\":null,\"block_d_out\":null,\"split_k\":1,\"pack_mask\":false}": {
      "compile_time_ms": 380.1577070262283,
      "lower_time_ms": 11644.311964977533,
      "evaluation_times_ms": [
        1.919494,
        1.922373,
        1.923429,
        1.922661,
        1.920581
      ],
      "metadata": {},
      "peak_memory_mb": 168.034304
    }
  },
  "{\"q\":\"bf16[1,128,2048,4,32]\",\"k\":\"bf16[1,128,2048,4,32]\",\"v\":\"bf16[1,128,2048,4,32]\",\"precision\":[\"BF16_BF16_F32\",\"BF16_BF16_F32\"],\"logits_dtype\":\"float32\",\"logits_scale\":0.17677669529663687,\"bias\":\"bf16[1,1,4,2048,2048]\",\"logits_soft_cap\":null,\"mask\":{\"bool_mask\":\"bool[128,1,1,2048]\",\"q_start\":null,\"q_end\":null,\"k_start\":null,\"k_end\":null,\"is_causal\":false},\"dropout_mask\":null,\"dropout_rate\":0.0,\"paging_info\":null,\"q_indices\":null,\"k_indices\":null,\"normalize_output\":true,\"return_residuals\":false}": {
    "{\"block_q\":64,\"block_k\":64,\"num_stages\":3,\"num_warps\":4,\"block_d\":null,\"block_d_out\":null,\"split_k\":1,\"pack_mask\":false}": {
      "compile_time_ms": 199.86155885271728,
      "lower_time_ms": 11026.288738939911,
      "evaluation_times_ms": [
        2.179878,
        2.195878,
        2.184294,
        2.180454,
        2.183814
      ],
      "metadata": {},
      "peak_memory_mb": 302.252032
    }
  },
  "{\"q\":\"bf16[128,2048,4,32]\",\"k\":\"bf16[128,2048,4,32]\",\"v\":\"bf16[128,2048,4,32]\",\"precision\":[\"BF16_BF16_F32\",\"BF16_BF16_F32\"],\"logits_dtype\":\"float32\",\"logits_scale\":0.17677669529663687,\"bias\":\"bf16[1,4,2048,2048]\",\"logits_soft_cap\":null,\"mask\":{\"bool_mask\":\"bool[128,1,1,2048]\",\"q_start\":null,\"q_end\":null,\"k_start\":null,\"k_end\":null,\"is_causal\":false},\"dropout_mask\":null,\"dropout_rate\":0.0,\"paging_info\":null,\"q_indices\":null,\"k_indices\":null,\"normalize_output\":true,\"return_residuals\":false}": {
    "{\"block_q\":64,\"block_k\":64,\"num_stages\":3,\"num_warps\":4,\"block_d\":null,\"block_d_out\":null,\"split_k\":1,\"pack_mask\":false}": {
      "compile_time_ms": 214.3338080495596,
      "lower_time_ms": 10387.985870009288,
      "evaluation_times_ms": [
        2.186854,
        2.18679,
        2.188166,
        2.191974,
        2.192678
      ],
      "metadata": {},
      "peak_memory_mb": 302.252032
    }
  },
  "{\"q\":\"bf16[128,2304,4,16]\",\"k\":\"bf16[128,2304,4,16]\",\"v\":\"bf16[128,2304,4,16]\",\"precision\":[\"BF16_BF16_F32\",\"BF16_BF16_F32\"],\"logits_dtype\":\"float32\",\"logits_scale\":0.25,\"bias\":\"bf16[1,4,2304,2304]\",\"logits_soft_cap\":null,\"mask\":{\"bool_mask\":\"bool[128,1,1,2304]\",\"q_start\":null,\"q_end\":null,\"k_start\":null,\"k_end\":null,\"is_causal\":false},\"dropout_mask\":null,\"dropout_rate\":0.0,\"paging_info\":null,\"q_indices\":null,\"k_indices\":null,\"normalize_output\":true,\"return_residuals\":false}": {
    "{\"block_q\":64,\"block_k\":64,\"num_stages\":3,\"num_warps\":4,\"block_d\":null,\"block_d_out\":null,\"split_k\":1,\"pack_mask\":false}": {
      "compile_time_ms": 3053.2182410825044,
      "lower_time_ms": 12269.220110960305,
      "evaluation_times_ms": [
        2.474184,
        2.468104,
        2.474632,
        2.47124,
        2.471751
      ],
      "metadata": {},
      "peak_memory_mb": 193.757184
    }
  },
  "{\"q\":\"bf16[1,128,2304,4,32]\",\"k\":\"bf16[1,128,2304,4,32]\",\"v\":\"bf16[1,128,2304,4,32]\",\"precision\":[\"BF16_BF16_F32\",\"BF16_BF16_F32\"],\"logits_dtype\":\"float32\",\"logits_scale\":0.17677669529663687,\"bias\":\"bf16[1,1,4,2304,2304]\",\"logits_soft_cap\":null,\"mask\":{\"bool_mask\":\"bool[128,1,1,2304]\",\"q_start\":null,\"q_end\":null,\"k_start\":null,\"k_end\":null,\"is_causal\":false},\"dropout_mask\":null,\"dropout_rate\":0.0,\"paging_info\":null,\"q_indices\":null,\"k_indices\":null,\"normalize_output\":true,\"return_residuals\":false}": {
    "{\"block_q\":64,\"block_k\":64,\"num_stages\":3,\"num_warps\":4,\"block_d\":null,\"block_d_out\":null,\"split_k\":1,\"pack_mask\":false}": {
      "compile_time_ms": 239.03313907794654,
      "lower_time_ms": 11996.133388020098,
      "evaluation_times_ms": [
        2.787815,
        2.790631,
        2.790056,
        2.781576,
        2.781479
      ],
      "metadata": {},
      "peak_memory_mb": 344.752128
    }
  },
  "{\"q\":\"bf16[128,2304,4,32]\",\"k\":\"bf16[128,2304,4,32]\",\"v\":\"bf16[128,2304,4,32]\",\"precision\":[\"BF16_BF16_F32\",\"BF16_BF16_F32\"],\"logits_dtype\":\"float32\",\"logits_scale\":0.17677669529663687,\"bias\":\"bf16[1,4,2304,2304]\",\"logits_soft_cap\":null,\"mask\":{\"bool_mask\":\"bool[128,1,1,2304]\",\"q_start\":null,\"q_end\":null,\"k_start\":null,\"k_end\":null,\"is_causal\":false},\"dropout_mask\":null,\"dropout_rate\":0.0,\"paging_info\":null,\"q_indices\":null,\"k_indices\":null,\"normalize_output\":true,\"return_residuals\":false}": {
    "{\"block_q\":64,\"block_k\":64,\"num_stages\":3,\"num_warps\":4,\"block_d\":null,\"block_d_out\":null,\"split_k\":1,\"pack_mask\":false}": {
      "compile_time_ms": 207.30413193814456,
      "lower_time_ms": 10377.199053997174,
      "evaluation_times_ms": [
        2.783177,
        2.786056,
        2.786728,
        2.781353,
        2.788233
      ],
      "metadata": {},
      "peak_memory_mb": 344.752128
    }
  },
  "{\"q\":\"bf16[128,2560,4,16]\",\"k\":\"bf16[128,2560,4,16]\",\"v\":\"bf16[128,2560,4,16]\",\"precision\":[\"BF16_BF16_F32\",\"BF16_BF16_F32\"],\"logits_dtype\":\"float32\",\"logits_scale\":0.25,\"bias\":\"bf16[1,4,2560,2560]\",\"logits_soft_cap\":null,\"mask\":{\"bool_mask\":\"bool[128,1,1,2560]\",\"q_start\":null,\"q_end\":null,\"k_start\":null,\"k_end\":null,\"is_causal\":false},\"dropout_mask\":null,\"dropout_rate\":0.0,\"paging_info\":null,\"q_indices\":null,\"k_indices\":null,\"normalize_output\":true,\"return_residuals\":false}": {
    "{\"block_q\":128,\"block_k\":64,\"num_stages\":4,\"num_warps\":4,\"block_d\":null,\"block_d_out\":null,\"split_k\":1,\"pack_mask\":false}": {
      "compile_time_ms": 1478.7439401261508,
      "lower_time_ms": 5712.56019291468,
      "evaluation_times_ms": [
        3.134314,
        3.13761,
        3.134057,
        3.13585,
        3.135497
      ],
      "metadata": {},
      "peak_memory_mb": 220.52864
    }
  },
  "{\"q\":\"bf16[1,128,2560,4,32]\",\"k\":\"bf16[1,128,2560,4,32]\",\"v\":\"bf16[1,128,2560,4,32]\",\"precision\":[\"BF16_BF16_F32\",\"BF16_BF16_F32\"],\"logits_dtype\":\"float32\",\"logits_scale\":0.17677669529663687,\"bias\":\"bf16[1,1,4,2560,2560]\",\"logits_soft_cap\":null,\"mask\":{\"bool_mask\":\"bool[128,1,1,2560]\",\"q_start\":null,\"q_end\":null,\"k_start\":null,\"k_end\":null,\"is_causal\":false},\"dropout_mask\":null,\"dropout_rate\":0.0,\"paging_info\":null,\"q_indices\":null,\"k_indices\":null,\"normalize_output\":true,\"return_residuals\":false}": {
    "{\"block_q\":64,\"block_k\":64,\"num_stages\":4,\"num_warps\":4,\"block_d\":null,\"block_d_out\":null,\"split_k\":1,\"pack_mask\":false}": {
      "compile_time_ms": 206.35264599695802,
      "lower_time_ms": 9706.6722989548,
      "evaluation_times_ms": [
        3.529515,
        3.530507,
        3.533674,
        3.537323,
        3.519018
      ],
      "metadata": {},
      "peak_memory_mb": 388.3008
    }
  },
  "{\"q\":\"bf16[128,2560,4,32]\",\"k\":\"bf16[128,2560,4,32]\",\"v\":\"bf16[128,2560,4,32]\",\"precision\":[\"BF16_BF16_F32\",\"BF16_BF16_F32\"],\"logits_dtype\":\"float32\",\"logits_scale\":0.17677669529663687,\"bias\":\"bf16[1,4,2560,2560]\",\"logits_soft_cap\":null,\"mask\":{\"bool_mask\":\"bool[128,1,1,2560]\",\"q_start\":null,\"q_end\":null,\"k_start\":null,\"k_end\":null,\"is_causal\":false},\"dropout_mask\":null,\"dropout_rate\":0.0,\"paging_info\":null,\"q_indices\":null,\"k_indices\":null,\"normalize_output\":true,\"return_residuals\":false}": {
    "{\"block_q\":64,\"block_k\":64,\"num_stages\":4,\"num_warps\":4,\"block_d\":null,\"block_d_out\":null,\"split_k\":1,\"pack_mask\":false}": {
      "compile_time_ms": 228.56314899399877,
      "lower_time_ms": 8454.201234970242,
      "evaluation_times_ms": [
        3.536553,
        3.525546,
        3.520041,
        3.514858,
        3.523401
      ],
      "metadata": {},
      "peak_memory_mb": 388.3008
    }
  },
  "{\"q\":\"bf16[128,2816,4,16]\",\"k\":\"bf16[128,2816,4,16]\",\"v\":\"bf16[128,2816,4,16]\",\"precision\":[\"BF16_BF16_F32\",\"BF16_BF16_F32\"],\"logits_dtype\":\"float32\",\"logits_scale\":0.25,\"bias\":\"bf16[1,4,2816,2816]\",\"logits_soft_cap\":null,\"mask\":{\"bool_mask\":\"bool[128,1,1,2816]\",\"q_start\":null,\"q_end\":null,\"k_start\":null,\"k_end\":null,\"is_causal\":false},\"dropout_mask\":null,\"dropout_rate\":0.0,\"paging_info\":null,\"q_indices\":null,\"k_indices\":null,\"normalize_output\":true,\"return_residuals\":false}": {
    "{\"block_q\":64,\"block_k\":64,\"num_stages\":4,\"num_warps\":4,\"block_d\":null,\"block_d_out\":null,\"split_k\":1,\"pack_mask\":false}": {
      "compile_time_ms": 2964.9621219723485,
      "lower_time_ms": 10280.046374013182,
      "evaluation_times_ms": [
        3.808132,
        3.8121,
        3.814436,
        3.813828,
        3.892644
      ],
      "metadata": {},
      "peak_memory_mb": 248.348672
    },
    "{\"block_q\":64,\"block_k\":64,\"num_stages\":3,\"num_warps\":4,\"block_d\":null,\"block_d_out\":null,\"split_k\":1,\"pack_mask\":false}": {
      "compile_time_ms": 194.54373593907803,
      "lower_time_ms": 9353.81832998246,
      "evaluation_times_ms": [
        3.800932,
        3.802276,
        3.801539,
        3.801732,
        3.799396
      ],
      "metadata": {},
      "peak_memory_mb": 248.348672
    }
  },
  "{\"q\":\"bf16[1,128,2816,4,32]\",\"k\":\"bf16[1,128,2816,4,32]\",\"v\":\"bf16[1,128,2816,4,32]\",\"precision\":[\"BF16_BF16_F32\",\"BF16_BF16_F32\"],\"logits_dtype\":\"float32\",\"logits_scale\":0.17677669529663687,\"bias\":\"bf16[1,1,4,2816,2816]\",\"logits_soft_cap\":null,\"mask\":{\"bool_mask\":\"bool[128,1,1,2816]\",\"q_start\":null,\"q_end\":null,\"k_start\":null,\"k_end\":null,\"is_causal\":false},\"dropout_mask\":null,\"dropout_rate\":0.0,\"paging_info\":null,\"q_indices\":null,\"k_indices\":null,\"normalize_output\":true,\"return_residuals\":false}": {
    "{\"block_q\":64,\"block_k\":64,\"num_stages\":3,\"num_warps\":4,\"block_d\":null,\"block_d_out\":null,\"split_k\":1,\"pack_mask\":false}": {
      "compile_time_ms": 199.09679299985328,
      "lower_time_ms": 6142.781710999998,
      "evaluation_times_ms": [
        4.326363,
        4.321979,
        4.329755,
        4.325051,
        4.331931
      ],
      "metadata": {},
      "peak_memory_mb": 432.898048
    }
  },
  "{\"q\":\"bf16[128,2816,4,32]\",\"k\":\"bf16[128,2816,4,32]\",\"v\":\"bf16[128,2816,4,32]\",\"precision\":[\"BF16_BF16_F32\",\"BF16_BF16_F32\"],\"logits_dtype\":\"float32\",\"logits_scale\":0.17677669529663687,\"bias\":\"bf16[1,4,2816,2816]\",\"logits_soft_cap\":null,\"mask\":{\"bool_mask\":\"bool[128,1,1,2816]\",\"q_start\":null,\"q_end\":null,\"k_start\":null,\"k_end\":null,\"is_causal\":false},\"dropout_mask\":null,\"dropout_rate\":0.0,\"paging_info\":null,\"q_indices\":null,\"k_indices\":null,\"normalize_output\":true,\"return_residuals\":false}": {
    "{\"block_q\":64,\"block_k\":64,\"num_stages\":4,\"num_warps\":4,\"block_d\":null,\"block_d_out\":null,\"split_k\":1,\"pack_mask\":false}": {
      "compile_time_ms": 200.11167799975738,
      "lower_time_ms": 8400.727827000082,
      "evaluation_times_ms": [
        4.328919,
        4.325399,
        4.334712,
        4.330583,
        4.331767
      ],
      "metadata": {},
      "peak_memory_mb": 432.898048
    }
  },
  "{\"q\":\"bf16[128,3072,4,16]\",\"k\":\"bf16[128,3072,4,16]\",\"v\":\"bf16[128,3072,4,16]\",\"precision\":[\"BF16_BF16_F32\",\"BF16_BF16_F32\"],\"logits_dtype\":\"float32\",\"logits_scale\":0.25,\"bias\":\"bf16[1,4,3072,3072]\",\"logits_soft_cap\":null,\"mask\":{\"bool_mask\":\"bool[128,1,1,3072]\",\"q_start\":null,\"q_end\":null,\"k_start\":null,\"k_end\":null,\"is_causal\":false},\"dropout_mask\":null,\"dropout_rate\":0.0,\"paging_info\":null,\"q_indices\":null,\"k_indices\":null,\"normalize_output\":true,\"return_residuals\":false}": {
    "{\"block_q\":64,\"block_k\":64,\"num_stages\":3,\"num_warps\":4,\"block_d\":null,\"block_d_out\":null,\"split_k\":1,\"pack_mask\":false}": {
      "compile_time_ms": 184.20152199996664,
      "lower_time_ms": 5570.553781999934,
      "evaluation_times_ms": [
        4.562568,
        4.564937,
        4.566122,
        4.565993,
        4.563849
      ],
      "metadata": {},
      "peak_memory_mb": 277.21728
    }
  },
  "{\"q\":\"bf16[1,128,3072,4,32]\",\"k\":\"bf16[1,128,3072,4,32]\",\"v\":\"bf16[1,128,3072,4,32]\",\"precision\":[\"BF16_BF16_F32\",\"BF16_BF16_F32\"],\"logits_dtype\":\"float32\",\"logits_scale\":0.17677669529663687,\"bias\":\"bf16[1,1,4,3072,3072]\",\"logits_soft_cap\":null,\"mask\":{\"bool_mask\":\"bool[128,1,1,3072]\",\"q_start\":null,\"q_end\":null,\"k_start\":null,\"k_end\":null,\"is_causal\":false},\"dropout_mask\":null,\"dropout_rate\":0.0,\"paging_info\":null,\"q_indices\":null,\"k_indices\":null,\"normalize_output\":true,\"return_residuals\":false}": {
    "{\"block_q\":64,\"block_k\":64,\"num_stages\":3,\"num_warps\":4,\"block_d\":null,\"block_d_out\":null,\"split_k\":1,\"pack_mask\":false}": {
      "compile_time_ms": 205.97317500005374,
      "lower_time_ms": 7597.90011799987,
      "evaluation_times_ms": [
        5.12801,
        5.131498,
        5.132842,
        5.130698,
        5.129322
      ],
      "metadata": {},
      "peak_memory_mb": 478.543872
    }
  },
  "{\"q\":\"bf16[128,3072,4,32]\",\"k\":\"bf16[128,3072,4,32]\",\"v\":\"bf16[128,3072,4,32]\",\"precision\":[\"BF16_BF16_F32\",\"BF16_BF16_F32\"],\"logits_dtype\":\"float32\",\"logits_scale\":0.17677669529663687,\"bias\":\"bf16[1,4,3072,3072]\",\"logits_soft_cap\":null,\"mask\":{\"bool_mask\":\"bool[128,1,1,3072]\",\"q_start\":null,\"q_end\":null,\"k_start\":null,\"k_end\":null,\"is_causal\":false},\"dropout_mask\":null,\"dropout_rate\":0.0,\"paging_info\":null,\"q_indices\":null,\"k_indices\":null,\"normalize_output\":true,\"return_residuals\":false}": {
    "{\"block_q\":64,\"block_k\":64,\"num_stages\":3,\"num_warps\":4,\"block_d\":null,\"block_d_out\":null,\"split_k\":1,\"pack_mask\":false}": {
      "compile_time_ms": 196.54537799988248,
      "lower_time_ms": 8019.597691999934,
      "evaluation_times_ms": [
        5.131876,
        5.135172,
        5.133061,
        5.133509,
        5.132325
      ],
      "metadata": {},
      "peak_memory_mb": 478.543872
    }
  },
  "{\"q\":\"bf16[128,3328,4,16]\",\"k\":\"bf16[128,3328,4,16]\",\"v\":\"bf16[128,3328,4,16]\",\"precision\":[\"BF16_BF16_F32\",\"BF16_BF16_F32\"],\"logits_dtype\":\"float32\",\"logits_scale\":0.25,\"bias\":\"bf16[1,4,3328,3328]\",\"logits_soft_cap\":null,\"mask\":{\"bool_mask\":\"bool[128,1,1,3328]\",\"q_start\":null,\"q_end\":null,\"k_start\":null,\"k_end\":null,\"is_causal\":false},\"dropout_mask\":null,\"dropout_rate\":0.0,\"paging_info\":null,\"q_indices\":null,\"k_indices\":null,\"normalize_output\":true,\"return_residuals\":false}": {
    "{\"block_q\":64,\"block_k\":64,\"num_stages\":4,\"num_warps\":4,\"block_d\":null,\"block_d_out\":null,\"split_k\":1,\"pack_mask\":false}": {
      "compile_time_ms": 195.79542500014213,
      "lower_time_ms": 6644.871756000157,
      "evaluation_times_ms": [
        5.357955,
        5.338531,
        5.338498,
        5.339907,
        5.341123
      ],
      "metadata": {},
      "peak_memory_mb": 307.134464
    }
  },
  "{\"q\":\"bf16[1,128,3328,4,32]\",\"k\":\"bf16[1,128,3328,4,32]\",\"v\":\"bf16[1,128,3328,4,32]\",\"precision\":[\"BF16_BF16_F32\",\"BF16_BF16_F32\"],\"logits_dtype\":\"float32\",\"logits_scale\":0.17677669529663687,\"bias\":\"bf16[1,1,4,3328,3328]\",\"logits_soft_cap\":null,\"mask\":{\"bool_mask\":\"bool[128,1,1,3328]\",\"q_start\":null,\"q_end\":null,\"k_start\":null,\"k_end\":null,\"is_causal\":false},\"dropout_mask\":null,\"dropout_rate\":0.0,\"paging_info\":null,\"q_indices\":null,\"k_indices\":null,\"normalize_output\":true,\"return_residuals\":false}": {
    "{\"block_q\":64,\"block_k\":64,\"num_stages\":3,\"num_warps\":4,\"block_d\":null,\"block_d_out\":null,\"split_k\":1,\"pack_mask\":false}": {
      "compile_time_ms": 201.3739980002356,
      "lower_time_ms": 7014.368117000231,
      "evaluation_times_ms": [
        6.033981,
        6.024255,
        6.023999,
        6.021599,
        6.02035
      ],
      "metadata": {},
      "peak_memory_mb": 525.238272
    }
  },
  "{\"q\":\"bf16[128,3328,4,32]\",\"k\":\"bf16[128,3328,4,32]\",\"v\":\"bf16[128,3328,4,32]\",\"precision\":[\"BF16_BF16_F32\",\"BF16_BF16_F32\"],\"logits_dtype\":\"float32\",\"logits_scale\":0.17677669529663687,\"bias\":\"bf16[1,4,3328,3328]\",\"logits_soft_cap\":null,\"mask\":{\"bool_mask\":\"bool[128,1,1,3328]\",\"q_start\":null,\"q_end\":null,\"k_start\":null,\"k_end\":null,\"is_causal\":false},\"dropout_mask\":null,\"dropout_rate\":0.0,\"paging_info\":null,\"q_indices\":null,\"k_indices\":null,\"normalize_output\":true,\"return_residuals\":false}": {
    "{\"block_q\":64,\"block_k\":64,\"num_stages\":3,\"num_warps\":4,\"block_d\":null,\"block_d_out\":null,\"split_k\":1,\"pack_mask\":false}": {
      "compile_time_ms": 202.83405899999707,
      "lower_time_ms": 5457.896340000389,
      "evaluation_times_ms": [
        6.0366,
        6.034488,
        6.036152,
        6.031544,
        6.023992
      ],
      "metadata": {},
      "peak_memory_mb": 525.238272
    }
  },
  "{\"q\":\"bf16[128,3584,4,16]\",\"k\":\"bf16[128,3584,4,16]\",\"v\":\"bf16[128,3584,4,16]\",\"precision\":[\"BF16_BF16_F32\",\"BF16_BF16_F32\"],\"logits_dtype\":\"float32\",\"logits_scale\":0.25,\"bias\":\"bf16[1,4,3584,3584]\",\"logits_soft_cap\":null,\"mask\":{\"bool_mask\":\"bool[128,1,1,3584]\",\"q_start\":null,\"q_end\":null,\"k_start\":null,\"k_end\":null,\"is_causal\":false},\"dropout_mask\":null,\"dropout_rate\":0.0,\"paging_info\":null,\"q_indices\":null,\"k_indices\":null,\"normalize_output\":true,\"return_residuals\":false}": {
    "{\"block_q\":64,\"block_k\":64,\"num_stages\":3,\"num_warps\":4,\"block_d\":null,\"block_d_out\":null,\"split_k\":1,\"pack_mask\":false}": {
      "compile_time_ms": 247.69666000020152,
      "lower_time_ms": 6958.545075000075,
      "evaluation_times_ms": [
        6.234072,
        6.236793,
        6.234584,
        6.232984,
        6.2462
      ],
      "metadata": {},
      "peak_memory_mb": 338.100224
    }
  },
  "{\"q\":\"bf16[1,128,3584,4,32]\",\"k\":\"bf16[1,128,3584,4,32]\",\"v\":\"bf16[1,128,3584,4,32]\",\"precision\":[\"BF16_BF16_F32\",\"BF16_BF16_F32\"],\"logits_dtype\":\"float32\",\"logits_scale\":0.17677669529663687,\"bias\":\"bf16[1,1,4,3584,3584]\",\"logits_soft_cap\":null,\"mask\":{\"bool_mask\":\"bool[128,1,1,3584]\",\"q_start\":null,\"q_end\":null,\"k_start\":null,\"k_end\":null,\"is_causal\":false},\"dropout_mask\":null,\"dropout_rate\":0.0,\"paging_info\":null,\"q_indices\":null,\"k_indices\":null,\"normalize_output\":true,\"return_residuals\":false}": {
    "{\"block_q\":64,\"block_k\":64,\"num_stages\":4,\"num_warps\":4,\"block_d\":null,\"block_d_out\":null,\"split_k\":1,\"pack_mask\":false}": {
      "compile_time_ms": 212.36969600067823,
      "lower_time_ms": 7808.5027409997565,
      "evaluation_times_ms": [
        6.963673,
        6.969433,
        6.969305,
        6.972376,
        6.975001
      ],
      "metadata": {},
      "peak_memory_mb": 572.981248
    }
  },
  "{\"q\":\"bf16[128,3584,4,32]\",\"k\":\"bf16[128,3584,4,32]\",\"v\":\"bf16[128,3584,4,32]\",\"precision\":[\"BF16_BF16_F32\",\"BF16_BF16_F32\"],\"logits_dtype\":\"float32\",\"logits_scale\":0.17677669529663687,\"bias\":\"bf16[1,4,3584,3584]\",\"logits_soft_cap\":null,\"mask\":{\"bool_mask\":\"bool[128,1,1,3584]\",\"q_start\":null,\"q_end\":null,\"k_start\":null,\"k_end\":null,\"is_causal\":false},\"dropout_mask\":null,\"dropout_rate\":0.0,\"paging_info\":null,\"q_indices\":null,\"k_indices\":null,\"normalize_output\":true,\"return_residuals\":false}": {
    "{\"block_q\":64,\"block_k\":64,\"num_stages\":4,\"num_warps\":4,\"block_d\":null,\"block_d_out\":null,\"split_k\":1,\"pack_mask\":false}": {
      "compile_time_ms": 200.9921459994075,
      "lower_time_ms": 5269.656479000332,
      "evaluation_times_ms": [
        6.969845,
        6.962581,
        6.96767,
        6.968501,
        7.006037
      ],
      "metadata": {},
      "peak_memory_mb": 572.981248
    }
  },
  "{\"q\":\"bf16[128,3840,4,16]\",\"k\":\"bf16[128,3840,4,16]\",\"v\":\"bf16[128,3840,4,16]\",\"precision\":[\"BF16_BF16_F32\",\"BF16_BF16_F32\"],\"logits_dtype\":\"float32\",\"logits_scale\":0.25,\"bias\":\"bf16[1,4,3840,3840]\",\"logits_soft_cap\":null,\"mask\":{\"bool_mask\":\"bool[128,1,1,3840]\",\"q_start\":null,\"q_end\":null,\"k_start\":null,\"k_end\":null,\"is_causal\":false},\"dropout_mask\":null,\"dropout_rate\":0.0,\"paging_info\":null,\"q_indices\":null,\"k_indices\":null,\"normalize_output\":true,\"return_residuals\":false}": {
    "{\"block_q\":64,\"block_k\":64,\"num_stages\":3,\"num_warps\":4,\"block_d\":null,\"block_d_out\":null,\"split_k\":1,\"pack_mask\":false}": {
      "compile_time_ms": 176.8160309999871,
      "lower_time_ms": 6939.067373999989,
      "evaluation_times_ms": [
        7.068128,
        7.067392,
        7.068544,
        7.067872,
        7.06384
      ],
      "metadata": {},
      "peak_memory_mb": 370.11456
    }
  },
  "{\"q\":\"bf16[1,128,3840,4,32]\",\"k\":\"bf16[1,128,3840,4,32]\",\"v\":\"bf16[1,128,3840,4,32]\",\"precision\":[\"BF16_BF16_F32\",\"BF16_BF16_F32\"],\"logits_dtype\":\"float32\",\"logits_scale\":0.17677669529663687,\"bias\":\"bf16[1,1,4,3840,3840]\",\"logits_soft_cap\":null,\"mask\":{\"bool_mask\":\"bool[128,1,1,3840]\",\"q_start\":null,\"q_end\":null,\"k_start\":null,\"k_end\":null,\"is_causal\":false},\"dropout_mask\":null,\"dropout_rate\":0.0,\"paging_info\":null,\"q_indices\":null,\"k_indices\":null,\"normalize_output\":true,\"return_residuals\":false}": {
    "{\"block_q\":64,\"block_k\":64,\"num_stages\":4,\"num_warps\":4,\"block_d\":null,\"block_d_out\":null,\"split_k\":1,\"pack_mask\":false}": {
      "compile_time_ms": 199.27106299996922,
      "lower_time_ms": 6555.820185000016,
      "evaluation_times_ms": [
        7.976536,
        7.970426,
        7.985718,
        8.132943,
        8.122481
      ],
      "metadata": {},
      "peak_memory_mb": 621.7728
    }
  },
  "{\"q\":\"bf16[128,3840,4,32]\",\"k\":\"bf16[128,3840,4,32]\",\"v\":\"bf16[128,3840,4,32]\",\"precision\":[\"BF16_BF16_F32\",\"BF16_BF16_F32\"],\"logits_dtype\":\"float32\",\"logits_scale\":0.17677669529663687,\"bias\":\"bf16[1,4,3840,3840]\",\"logits_soft_cap\":null,\"mask\":{\"bool_mask\":\"bool[128,1,1,3840]\",\"q_start\":null,\"q_end\":null,\"k_start\":null,\"k_end\":null,\"is_causal\":false},\"dropout_mask\":null,\"dropout_rate\":0.0,\"paging_info\":null,\"q_indices\":null,\"k_indices\":null,\"normalize_output\":true,\"return_residuals\":false}": {
    "{\"block_q\":64,\"block_k\":64,\"num_stages\":3,\"num_warps\":4,\"block_d\":null,\"block_d_out\":null,\"split_k\":1,\"pack_mask\":false}": {
      "compile_time_ms": 195.26610800005528,
      "lower_time_ms": 6300.783085000035,
      "evaluation_times_ms": [
        8.013694,
        8.017756,
        8.020188,
        8.087271,
        8.136856
      ],
      "metadata": {},
      "peak_memory_mb": 621.7728
    }
  },
  "{\"q\":\"bf16[128,4096,4,16]\",\"k\":\"bf16[128,4096,4,16]\",\"v\":\"bf16[128,4096,4,16]\",\"precision\":[\"BF16_BF16_F32\",\"BF16_BF16_F32\"],\"logits_dtype\":\"float32\",\"logits_scale\":0.25,\"bias\":\"bf16[1,4,4096,4096]\",\"logits_soft_cap\":null,\"mask\":{\"bool_mask\":\"bool[128,1,1,4096]\",\"q_start\":null,\"q_end\":null,\"k_start\":null,\"k_end\":null,\"is_causal\":false},\"dropout_mask\":null,\"dropout_rate\":0.0,\"paging_info\":null,\"q_indices\":null,\"k_indices\":null,\"normalize_output\":true,\"return_residuals\":false}": {
    "{\"block_q\":64,\"block_k\":64,\"num_stages\":4,\"num_warps\":4,\"block_d\":null,\"block_d_out\":null,\"split_k\":1,\"pack_mask\":false}": {
      "compile_time_ms": 185.08979700004602,
      "lower_time_ms": 5623.912488000087,
      "evaluation_times_ms": [
        7.934402,
        7.93613,
        7.946686,
        8.046522,
        8.097063
      ],
      "metadata": {},
      "peak_memory_mb": 403.177472
    }
  },
  "{\"q\":\"bf16[1,128,4096,4,32]\",\"k\":\"bf16[1,128,4096,4,32]\",\"v\":\"bf16[1,128,4096,4,32]\",\"precision\":[\"BF16_BF16_F32\",\"BF16_BF16_F32\"],\"logits_dtype\":\"float32\",\"logits_scale\":0.17677669529663687,\"bias\":\"bf16[1,1,4,4096,4096]\",\"logits_soft_cap\":null,\"mask\":{\"bool_mask\":\"bool[128,1,1,4096]\",\"q_start\":null,\"q_end\":null,\"k_start\":null,\"k_end\":null,\"is_causal\":false},\"dropout_mask\":null,\"dropout_rate\":0.0,\"paging_info\":null,\"q_indices\":null,\"k_indices\":null,\"normalize_output\":true,\"return_residuals\":false}": {
    "{\"block_q\":64,\"block_k\":64,\"num_stages\":4,\"num_warps\":4,\"block_d\":null,\"block_d_out\":null,\"split_k\":1,\"pack_mask\":false}": {
      "compile_time_ms": 209.3475040001067,
      "lower_time_ms": 6561.850564999986,
      "evaluation_times_ms": [
        9.012194,
        9.025121,
        9.019138,
        9.021634,
        9.207
      ],
      "metadata": {},
      "peak_memory_mb": 671.612928
    }
  },
  "{\"q\":\"bf16[128,4096,4,32]\",\"k\":\"bf16[128,4096,4,32]\",\"v\":\"bf16[128,4096,4,32]\",\"precision\":[\"BF16_BF16_F32\",\"BF16_BF16_F32\"],\"logits_dtype\":\"float32\",\"logits_scale\":0.17677669529663687,\"bias\":\"bf16[1,4,4096,4096]\",\"logits_soft_cap\":null,\"mask\":{\"bool_mask\":\"bool[128,1,1,4096]\",\"q_start\":null,\"q_end\":null,\"k_start\":null,\"k_end\":null,\"is_causal\":false},\"dropout_mask\":null,\"dropout_rate\":0.0,\"paging_info\":null,\"q_indices\":null,\"k_indices\":null,\"normalize_output\":true,\"return_residuals\":false}": {
    "{\"block_q\":64,\"block_k\":64,\"num_stages\":4,\"num_warps\":4,\"block_d\":null,\"block_d_out\":null,\"split_k\":1,\"pack_mask\":false}": {
      "compile_time_ms": 208.0540370000108,
      "lower_time_ms": 6555.425431000003,
      "evaluation_times_ms": [
        9.011645,
        9.015485,
        9.017373,
        9.130557,
        9.303164
      ],
      "metadata": {},
      "peak_memory_mb": 671.612928
    }
  },
  "{\"q\":\"bf16[128,4352,4,16]\",\"k\":\"bf16[128,4352,4,16]\",\"v\":\"bf16[128,4352,4,16]\",\"precision\":[\"BF16_BF16_F32\",\"BF16_BF16_F32\"],\"logits_dtype\":\"float32\",\"logits_scale\":0.25,\"bias\":\"bf16[1,4,4352,4352]\",\"logits_soft_cap\":null,\"mask\":{\"bool_mask\":\"bool[128,1,1,4352]\",\"q_start\":null,\"q_end\":null,\"k_start\":null,\"k_end\":null,\"is_causal\":false},\"dropout_mask\":null,\"dropout_rate\":0.0,\"paging_info\":null,\"q_indices\":null,\"k_indices\":null,\"normalize_output\":true,\"return_residuals\":false}": {
    "{\"block_q\":64,\"block_k\":64,\"num_stages\":4,\"num_warps\":4,\"block_d\":null,\"block_d_out\":null,\"split_k\":1,\"pack_mask\":false}": {
      "compile_time_ms": 178.48051500004658,
      "lower_time_ms": 6923.811965999903,
      "evaluation_times_ms": [
        9.072389,
        9.067238,
        9.118087,
        9.250158,
        9.235245
      ],
      "metadata": {},
      "peak_memory_mb": 437.28896
    }
  },
  "{\"q\":\"bf16[1,128,4352,4,32]\",\"k\":\"bf16[1,128,4352,4,32]\",\"v\":\"bf16[1,128,4352,4,32]\",\"precision\":[\"BF16_BF16_F32\",\"BF16_BF16_F32\"],\"logits_dtype\":\"float32\",\"logits_scale\":0.17677669529663687,\"bias\":\"bf16[1,1,4,4352,4352]\",\"logits_soft_cap\":null,\"mask\":{\"bool_mask\":\"bool[128,1,1,4352]\",\"q_start\":null,\"q_end\":null,\"k_start\":null,\"k_end\":null,\"is_causal\":false},\"dropout_mask\":null,\"dropout_rate\":0.0,\"paging_info\":null,\"q_indices\":null,\"k_indices\":null,\"normalize_output\":true,\"return_residuals\":false}": {
    "{\"block_q\":64,\"block_k\":64,\"num_stages\":4,\"num_warps\":4,\"block_d\":null,\"block_d_out\":null,\"split_k\":1,\"pack_mask\":false}": {
      "compile_time_ms": 209.13442900018708,
      "lower_time_ms": 6554.66539400004,
      "evaluation_times_ms": [
        10.249152,
        10.248449,
        10.311489,
        10.384322,
        10.444673
      ],
      "metadata": {},
      "peak_memory_mb": 722.501632
    }
  },
  "{\"q\":\"bf16[128,4352,4,32]\",\"k\":\"bf16[128,4352,4,32]\",\"v\":\"bf16[128,4352,4,32]\",\"precision\":[\"BF16_BF16_F32\",\"BF16_BF16_F32\"],\"logits_dtype\":\"float32\",\"logits_scale\":0.17677669529663687,\"bias\":\"bf16[1,4,4352,4352]\",\"logits_soft_cap\":null,\"mask\":{\"bool_mask\":\"bool[128,1,1,4352]\",\"q_start\":null,\"q_end\":null,\"k_start\":null,\"k_end\":null,\"is_causal\":false},\"dropout_mask\":null,\"dropout_rate\":0.0,\"paging_info\":null,\"q_indices\":null,\"k_indices\":null,\"normalize_output\":true,\"return_residuals\":false}": {
    "{\"block_q\":64,\"block_k\":64,\"num_stages\":3,\"num_warps\":4,\"block_d\":null,\"block_d_out\":null,\"split_k\":1,\"pack_mask\":false}": {
      "compile_time_ms": 192.21125000012762,
      "lower_time_ms": 7853.1881240000985,
      "evaluation_times_ms": [
        10.222517,
        10.294165,
        10.466357,
        10.624118,
        10.648342
      ],
      "metadata": {},
      "peak_memory_mb": 722.501632
    }
  },
  "{\"q\":\"bf16[128,4608,4,16]\",\"k\":\"bf16[128,4608,4,16]\",\"v\":\"bf16[128,4608,4,16]\",\"precision\":[\"BF16_BF16_F32\",\"BF16_BF16_F32\"],\"logits_dtype\":\"float32\",\"logits_scale\":0.25,\"bias\":\"bf16[1,4,4608,4608]\",\"logits_soft_cap\":null,\"mask\":{\"bool_mask\":\"bool[128,1,1,4608]\",\"q_start\":null,\"q_end\":null,\"k_start\":null,\"k_end\":null,\"is_causal\":false},\"dropout_mask\":null,\"dropout_rate\":0.0,\"paging_info\":null,\"q_indices\":null,\"k_indices\":null,\"normalize_output\":true,\"return_residuals\":false}": {
    "{\"block_q\":64,\"block_k\":64,\"num_stages\":3,\"num_warps\":4,\"block_d\":null,\"block_d_out\":null,\"split_k\":1,\"pack_mask\":false}": {
      "compile_time_ms": 244.46014699999807,
      "lower_time_ms": 7494.577452000001,
      "evaluation_times_ms": [
        10.208848,
        10.214928,
        10.178409,
        10.20395,
        10.180105
      ],
      "metadata": {},
      "peak_memory_mb": 472.449024
    }
  },
  "{\"q\":\"bf16[1,128,4608,4,32]\",\"k\":\"bf16[1,128,4608,4,32]\",\"v\":\"bf16[1,128,4608,4,32]\",\"precision\":[\"BF16_BF16_F32\",\"BF16_BF16_F32\"],\"logits_dtype\":\"float32\",\"logits_scale\":0.17677669529663687,\"bias\":\"bf16[1,1,4,4608,4608]\",\"logits_soft_cap\":null,\"mask\":{\"bool_mask\":\"bool[128,1,1,4608]\",\"q_start\":null,\"q_end\":null,\"k_start\":null,\"k_end\":null,\"is_causal\":false},\"dropout_mask\":null,\"dropout_rate\":0.0,\"paging_info\":null,\"q_indices\":null,\"k_indices\":null,\"normalize_output\":true,\"return_residuals\":false}": {
    "{\"block_q\":64,\"block_k\":64,\"num_stages\":4,\"num_warps\":4,\"block_d\":null,\"block_d_out\":null,\"split_k\":1,\"pack_mask\":false}": {
      "compile_time_ms": 196.8821030000072,
      "lower_time_ms": 6312.9329880000005,
      "evaluation_times_ms": [
        11.498515,
        11.508854,
        11.514999,
        11.583561,
        11.660508
      ],
      "metadata": {},
      "peak_memory_mb": 774.438912
    }
  },
  "{\"q\":\"bf16[128,4608,4,32]\",\"k\":\"bf16[128,4608,4,32]\",\"v\":\"bf16[128,4608,4,32]\",\"precision\":[\"BF16_BF16_F32\",\"BF16_BF16_F32\"],\"logits_dtype\":\"float32\",\"logits_scale\":0.17677669529663687,\"bias\":\"bf16[1,4,4608,4608]\",\"logits_soft_cap\":null,\"mask\":{\"bool_mask\":\"bool[128,1,1,4608]\",\"q_start\":null,\"q_end\":null,\"k_start\":null,\"k_end\":null,\"is_causal\":false},\"dropout_mask\":null,\"dropout_rate\":0.0,\"paging_info\":null,\"q_indices\":null,\"k_indices\":null,\"normalize_output\":true,\"return_residuals\":false}": {
    "{\"block_q\":64,\"block_k\":64,\"num_stages\":3,\"num_warps\":4,\"block_d\":null,\"block_d_out\":null,\"split_k\":1,\"pack_mask\":false}": {
      "compile_time_ms": 198.52753899999698,
      "lower_time_ms": 4912.365614000009,
      "evaluation_times_ms": [
        11.497485,
        11.569421,
        11.580845,
        11.650445,
        11.664973
      ],
      "metadata": {},
      "peak_memory_mb": 774.438912
    }
  },
  "{\"q\":\"bf16[128,4864,4,16]\",\"k\":\"bf16[128,4864,4,16]\",\"v\":\"bf16[128,4864,4,16]\",\"precision\":[\"BF16_BF16_F32\",\"BF16_BF16_F32\"],\"logits_dtype\":\"float32\",\"logits_scale\":0.25,\"bias\":\"bf16[1,4,4864,4864]\",\"logits_soft_cap\":null,\"mask\":{\"bool_mask\":\"bool[128,1,1,4864]\",\"q_start\":null,\"q_end\":null,\"k_start\":null,\"k_end\":null,\"is_causal\":false},\"dropout_mask\":null,\"dropout_rate\":0.0,\"paging_info\":null,\"q_indices\":null,\"k_indices\":null,\"normalize_output\":true,\"return_residuals\":false}": {
    "{\"block_q\":64,\"block_k\":64,\"num_stages\":4,\"num_warps\":4,\"block_d\":null,\"block_d_out\":null,\"split_k\":1,\"pack_mask\":false}": {
      "compile_time_ms": 199.55364499992356,
      "lower_time_ms": 6478.1757279999965,
      "evaluation_times_ms": [
        11.321111,
        11.326166,
        11.32255,
        11.328471,
        11.345302
      ],
      "metadata": {},
      "peak_memory_mb": 508.657664
    }
  },
  "{\"q\":\"bf16[1,128,4864,4,32]\",\"k\":\"bf16[1,128,4864,4,32]\",\"v\":\"bf16[1,128,4864,4,32]\",\"precision\":[\"BF16_BF16_F32\",\"BF16_BF16_F32\"],\"logits_dtype\":\"float32\",\"logits_scale\":0.17677669529663687,\"bias\":\"bf16[1,1,4,4864,4864]\",\"logits_soft_cap\":null,\"mask\":{\"bool_mask\":\"bool[128,1,1,4864]\",\"q_start\":null,\"q_end\":null,\"k_start\":null,\"k_end\":null,\"is_causal\":false},\"dropout_mask\":null,\"dropout_rate\":0.0,\"paging_info\":null,\"q_indices\":null,\"k_indices\":null,\"normalize_output\":true,\"return_residuals\":false}": {
    "{\"block_q\":64,\"block_k\":64,\"num_stages\":3,\"num_warps\":4,\"block_d\":null,\"block_d_out\":null,\"split_k\":1,\"pack_mask\":false}": {
      "compile_time_ms": 194.4308600000113,
      "lower_time_ms": 5478.532819999828,
      "evaluation_times_ms": [
        12.780638,
        12.791261,
        12.967965,
        12.907965,
        12.875069
      ],
      "metadata": {},
      "peak_memory_mb": 827.424768
    }
  },
  "{\"q\":\"bf16[128,4864,4,32]\",\"k\":\"bf16[128,4864,4,32]\",\"v\":\"bf16[128,4864,4,32]\",\"precision\":[\"BF16_BF16_F32\",\"BF16_BF16_F32\"],\"logits_dtype\":\"float32\",\"logits_scale\":0.17677669529663687,\"bias\":\"bf16[1,4,4864,4864]\",\"logits_soft_cap\":null,\"mask\":{\"bool_mask\":\"bool[128,1,1,4864]\",\"q_start\":null,\"q_end\":null,\"k_start\":null,\"k_end\":null,\"is_causal\":false},\"dropout_mask\":null,\"dropout_rate\":0.0,\"paging_info\":null,\"q_indices\":null,\"k_indices\":null,\"normalize_output\":true,\"return_residuals\":false}": {
    "{\"block_q\":64,\"block_k\":64,\"num_stages\":3,\"num_warps\":4,\"block_d\":null,\"block_d_out\":null,\"split_k\":1,\"pack_mask\":false}": {
      "compile_time_ms": 213.8216820000025,
      "lower_time_ms": 6018.317803999991,
      "evaluation_times_ms": [
        12.841274,
        12.846937,
        12.937191,
        13.1058,
        13.099529
      ],
      "metadata": {},
      "peak_memory_mb": 827.424768
    },
    "{\"block_q\":64,\"block_k\":64,\"num_stages\":4,\"num_warps\":4,\"block_d\":null,\"block_d_out\":null,\"split_k\":1,\"pack_mask\":false}": {
      "compile_time_ms": 279.1488960000095,
      "lower_time_ms": 4801.958819000007,
      "evaluation_times_ms": [
        12.801725,
        13.003363,
        13.173732,
        13.168483,
        13.141438
      ],
      "metadata": {},
      "peak_memory_mb": 827.424768
    }
  }
}
