{
  "{\"lhs\":\"bf16[131072,7168]\",\"rhs\":\"bf16[256,7168,1024]\",\"group_sizes\":{\"num_groups\":256,\"total_size\":131072},\"ragged_dot_dimension_numbers\":{\"dot_dimension_numbers\":[[[1],[1]],[[],[]]],\"lhs_ragged_dimensions\":[0],\"rhs_group_dimensions\":[0]},\"precision\":[\"DEFAULT\",\"DEFAULT\"],\"preferred_element_type\":null,\"return_residuals\":false,\"activation\":null,\"manual_axis_type\":null,\"group_offset\":null,\"rhs_scale\":null,\"rhs_bias\":null,\"maybe_quantize_lhs\":false,\"zero_initialize\":true,\"fuse_gateup_activation\":null,\"lhs_quantization_dtype\":null,\"rhs_quantization_dtype\":null}": {},
  "{\"lhs\":\"bf16[131072,7168]\",\"rhs\":\"bf16[256,7168,1024]\",\"group_sizes\":{\"num_groups\":256,\"total_size\":131072},\"ragged_dot_dimension_numbers\":{\"dot_dimension_numbers\":[[[1],[1]],[[],[]]],\"lhs_ragged_dimensions\":[0],\"rhs_group_dimensions\":[0]},\"precision\":[\"DEFAULT\",\"DEFAULT\"],\"preferred_element_type\":null,\"return_residuals\":true,\"activation\":null,\"manual_axis_type\":null,\"group_offset\":null,\"rhs_scale\":null,\"rhs_bias\":null,\"maybe_quantize_lhs\":false,\"zero_initialize\":true,\"fuse_gateup_activation\":null,\"lhs_quantization_dtype\":null,\"rhs_quantization_dtype\":null}": {},
  "{\"lhs\":\"bf16[131072,1024]\",\"rhs\":\"bf16[256,1024,7168]\",\"group_sizes\":{\"num_groups\":256,\"total_size\":131072},\"ragged_dot_dimension_numbers\":{\"dot_dimension_numbers\":[[[1],[1]],[[],[]]],\"lhs_ragged_dimensions\":[0],\"rhs_group_dimensions\":[0]},\"precision\":[\"DEFAULT\",\"DEFAULT\"],\"preferred_element_type\":null,\"return_residuals\":false,\"activation\":null,\"manual_axis_type\":null,\"group_offset\":null,\"rhs_scale\":null,\"rhs_bias\":null,\"maybe_quantize_lhs\":false,\"zero_initialize\":true,\"fuse_gateup_activation\":null,\"lhs_quantization_dtype\":null,\"rhs_quantization_dtype\":null}": {},
  "{\"lhs\":\"bf16[131072,1024]\",\"rhs\":\"bf16[256,1024,7168]\",\"group_sizes\":{\"num_groups\":256,\"total_size\":131072},\"ragged_dot_dimension_numbers\":{\"dot_dimension_numbers\":[[[1],[1]],[[],[]]],\"lhs_ragged_dimensions\":[0],\"rhs_group_dimensions\":[0]},\"precision\":[\"DEFAULT\",\"DEFAULT\"],\"preferred_element_type\":null,\"return_residuals\":true,\"activation\":null,\"manual_axis_type\":null,\"group_offset\":null,\"rhs_scale\":null,\"rhs_bias\":null,\"maybe_quantize_lhs\":false,\"zero_initialize\":true,\"fuse_gateup_activation\":null,\"lhs_quantization_dtype\":null,\"rhs_quantization_dtype\":null}": {},
  "{\"lhs\":\"bf16[131072,7168]\",\"rhs\":\"bf16[256,7168,512]\",\"group_sizes\":{\"num_groups\":256,\"total_size\":131072},\"ragged_dot_dimension_numbers\":{\"dot_dimension_numbers\":[[[1],[1]],[[],[]]],\"lhs_ragged_dimensions\":[0],\"rhs_group_dimensions\":[0]},\"precision\":[\"DEFAULT\",\"DEFAULT\"],\"preferred_element_type\":null,\"return_residuals\":false,\"activation\":null,\"manual_axis_type\":null,\"group_offset\":null,\"rhs_scale\":null,\"rhs_bias\":null,\"maybe_quantize_lhs\":false,\"zero_initialize\":true,\"fuse_gateup_activation\":null,\"lhs_quantization_dtype\":null,\"rhs_quantization_dtype\":null}": {},
  "{\"lhs\":\"bf16[131072,7168]\",\"rhs\":\"bf16[256,7168,512]\",\"group_sizes\":{\"num_groups\":256,\"total_size\":131072},\"ragged_dot_dimension_numbers\":{\"dot_dimension_numbers\":[[[1],[1]],[[],[]]],\"lhs_ragged_dimensions\":[0],\"rhs_group_dimensions\":[0]},\"precision\":[\"DEFAULT\",\"DEFAULT\"],\"preferred_element_type\":null,\"return_residuals\":true,\"activation\":null,\"manual_axis_type\":null,\"group_offset\":null,\"rhs_scale\":null,\"rhs_bias\":null,\"maybe_quantize_lhs\":false,\"zero_initialize\":true,\"fuse_gateup_activation\":null,\"lhs_quantization_dtype\":null,\"rhs_quantization_dtype\":null}": {},
  "{\"lhs\":\"bf16[131072,512]\",\"rhs\":\"bf16[256,512,7168]\",\"group_sizes\":{\"num_groups\":256,\"total_size\":131072},\"ragged_dot_dimension_numbers\":{\"dot_dimension_numbers\":[[[1],[1]],[[],[]]],\"lhs_ragged_dimensions\":[0],\"rhs_group_dimensions\":[0]},\"precision\":[\"DEFAULT\",\"DEFAULT\"],\"preferred_element_type\":null,\"return_residuals\":false,\"activation\":null,\"manual_axis_type\":null,\"group_offset\":null,\"rhs_scale\":null,\"rhs_bias\":null,\"maybe_quantize_lhs\":false,\"zero_initialize\":true,\"fuse_gateup_activation\":null,\"lhs_quantization_dtype\":null,\"rhs_quantization_dtype\":null}": {
    "{}": {
      "compile_time_ms": 48417.91656300029,
      "lower_time_ms": 25.071776999993745,
      "evaluation_times_ms": [
        319.817146,
        320.788852,
        318.311429,
        319.390237,
        318.90752299999997
      ],
      "metadata": {},
      "peak_memory_mb": 42010.149888
    }
  },
  "{\"lhs\":\"bf16[131072,512]\",\"rhs\":\"bf16[256,512,7168]\",\"group_sizes\":{\"num_groups\":256,\"total_size\":131072},\"ragged_dot_dimension_numbers\":{\"dot_dimension_numbers\":[[[1],[1]],[[],[]]],\"lhs_ragged_dimensions\":[0],\"rhs_group_dimensions\":[0]},\"precision\":[\"DEFAULT\",\"DEFAULT\"],\"preferred_element_type\":null,\"return_residuals\":true,\"activation\":null,\"manual_axis_type\":null,\"group_offset\":null,\"rhs_scale\":null,\"rhs_bias\":null,\"maybe_quantize_lhs\":false,\"zero_initialize\":true,\"fuse_gateup_activation\":null,\"lhs_quantization_dtype\":null,\"rhs_quantization_dtype\":null}": {
    "{}": {
      "compile_time_ms": 119.84178700004122,
      "lower_time_ms": 8.726792999823374,
      "evaluation_times_ms": [
        318.248747,
        359.636279,
        318.60119399999996,
        318.20295600000003,
        319.69316200000003
      ],
      "metadata": {},
      "peak_memory_mb": 43889.198096
    }
  },
  "{\"lhs\":\"bf16[262144,7168]\",\"rhs\":\"bf16[256,7168,512]\",\"group_sizes\":{\"num_groups\":256,\"total_size\":262144},\"ragged_dot_dimension_numbers\":{\"dot_dimension_numbers\":[[[1],[1]],[[],[]]],\"lhs_ragged_dimensions\":[0],\"rhs_group_dimensions\":[0]},\"precision\":[\"DEFAULT\",\"DEFAULT\"],\"preferred_element_type\":null,\"return_residuals\":false,\"activation\":null,\"manual_axis_type\":null,\"group_offset\":null,\"rhs_scale\":null,\"rhs_bias\":null,\"maybe_quantize_lhs\":false,\"zero_initialize\":true,\"fuse_gateup_activation\":null,\"lhs_quantization_dtype\":null,\"rhs_quantization_dtype\":null}": {},
  "{\"lhs\":\"bf16[262144,7168]\",\"rhs\":\"bf16[256,7168,512]\",\"group_sizes\":{\"num_groups\":256,\"total_size\":262144},\"ragged_dot_dimension_numbers\":{\"dot_dimension_numbers\":[[[1],[1]],[[],[]]],\"lhs_ragged_dimensions\":[0],\"rhs_group_dimensions\":[0]},\"precision\":[\"DEFAULT\",\"DEFAULT\"],\"preferred_element_type\":null,\"return_residuals\":true,\"activation\":null,\"manual_axis_type\":null,\"group_offset\":null,\"rhs_scale\":null,\"rhs_bias\":null,\"maybe_quantize_lhs\":false,\"zero_initialize\":true,\"fuse_gateup_activation\":null,\"lhs_quantization_dtype\":null,\"rhs_quantization_dtype\":null}": {},
  "{\"lhs\":\"bf16[262144,256]\",\"rhs\":\"bf16[256,256,7168]\",\"group_sizes\":{\"num_groups\":256,\"total_size\":262144},\"ragged_dot_dimension_numbers\":{\"dot_dimension_numbers\":[[[1],[1]],[[],[]]],\"lhs_ragged_dimensions\":[0],\"rhs_group_dimensions\":[0]},\"precision\":[\"DEFAULT\",\"DEFAULT\"],\"preferred_element_type\":null,\"return_residuals\":false,\"activation\":null,\"manual_axis_type\":null,\"group_offset\":null,\"rhs_scale\":null,\"rhs_bias\":null,\"maybe_quantize_lhs\":false,\"zero_initialize\":true,\"fuse_gateup_activation\":null,\"lhs_quantization_dtype\":null,\"rhs_quantization_dtype\":null}": {},
  "{\"lhs\":\"bf16[262144,256]\",\"rhs\":\"bf16[256,256,7168]\",\"group_sizes\":{\"num_groups\":256,\"total_size\":262144},\"ragged_dot_dimension_numbers\":{\"dot_dimension_numbers\":[[[1],[1]],[[],[]]],\"lhs_ragged_dimensions\":[0],\"rhs_group_dimensions\":[0]},\"precision\":[\"DEFAULT\",\"DEFAULT\"],\"preferred_element_type\":null,\"return_residuals\":true,\"activation\":null,\"manual_axis_type\":null,\"group_offset\":null,\"rhs_scale\":null,\"rhs_bias\":null,\"maybe_quantize_lhs\":false,\"zero_initialize\":true,\"fuse_gateup_activation\":null,\"lhs_quantization_dtype\":null,\"rhs_quantization_dtype\":null}": {},
  "{\"lhs\":\"bf16[262144,1024]\",\"rhs\":\"bf16[256,1024,7168]\",\"group_sizes\":{\"num_groups\":256,\"total_size\":262144},\"ragged_dot_dimension_numbers\":{\"dot_dimension_numbers\":[[[1],[1]],[[],[]]],\"lhs_ragged_dimensions\":[0],\"rhs_group_dimensions\":[0]},\"precision\":[\"DEFAULT\",\"DEFAULT\"],\"preferred_element_type\":null,\"return_residuals\":false,\"activation\":null,\"manual_axis_type\":null,\"group_offset\":null,\"rhs_scale\":null,\"rhs_bias\":null,\"maybe_quantize_lhs\":false,\"zero_initialize\":true,\"fuse_gateup_activation\":null,\"lhs_quantization_dtype\":null,\"rhs_quantization_dtype\":null}": {},
  "{\"lhs\":\"bf16[262144,1024]\",\"rhs\":\"bf16[256,1024,7168]\",\"group_sizes\":{\"num_groups\":256,\"total_size\":262144},\"ragged_dot_dimension_numbers\":{\"dot_dimension_numbers\":[[[1],[1]],[[],[]]],\"lhs_ragged_dimensions\":[0],\"rhs_group_dimensions\":[0]},\"precision\":[\"DEFAULT\",\"DEFAULT\"],\"preferred_element_type\":null,\"return_residuals\":true,\"activation\":null,\"manual_axis_type\":null,\"group_offset\":null,\"rhs_scale\":null,\"rhs_bias\":null,\"maybe_quantize_lhs\":false,\"zero_initialize\":true,\"fuse_gateup_activation\":null,\"lhs_quantization_dtype\":null,\"rhs_quantization_dtype\":null}": {},
  "{\"lhs\":\"bf16[262144,7168]\",\"rhs\":\"bf16[256,7168,1024]\",\"group_sizes\":{\"num_groups\":256,\"total_size\":262144},\"ragged_dot_dimension_numbers\":{\"dot_dimension_numbers\":[[[1],[1]],[[],[]]],\"lhs_ragged_dimensions\":[0],\"rhs_group_dimensions\":[0]},\"precision\":[\"DEFAULT\",\"DEFAULT\"],\"preferred_element_type\":null,\"return_residuals\":false,\"activation\":null,\"manual_axis_type\":null,\"group_offset\":null,\"rhs_scale\":null,\"rhs_bias\":null,\"maybe_quantize_lhs\":false,\"zero_initialize\":true,\"fuse_gateup_activation\":null,\"lhs_quantization_dtype\":null,\"rhs_quantization_dtype\":null}": {},
  "{\"lhs\":\"bf16[262144,7168]\",\"rhs\":\"bf16[256,7168,1024]\",\"group_sizes\":{\"num_groups\":256,\"total_size\":262144},\"ragged_dot_dimension_numbers\":{\"dot_dimension_numbers\":[[[1],[1]],[[],[]]],\"lhs_ragged_dimensions\":[0],\"rhs_group_dimensions\":[0]},\"precision\":[\"DEFAULT\",\"DEFAULT\"],\"preferred_element_type\":null,\"return_residuals\":true,\"activation\":null,\"manual_axis_type\":null,\"group_offset\":null,\"rhs_scale\":null,\"rhs_bias\":null,\"maybe_quantize_lhs\":false,\"zero_initialize\":true,\"fuse_gateup_activation\":null,\"lhs_quantization_dtype\":null,\"rhs_quantization_dtype\":null}": {},
  "{\"lhs\":\"bf16[262144,7168]\",\"rhs\":\"bf16[256,7168,2048]\",\"group_sizes\":{\"num_groups\":256,\"total_size\":262144},\"ragged_dot_dimension_numbers\":{\"dot_dimension_numbers\":[[[1],[1]],[[],[]]],\"lhs_ragged_dimensions\":[0],\"rhs_group_dimensions\":[0]},\"precision\":[\"DEFAULT\",\"DEFAULT\"],\"preferred_element_type\":null,\"return_residuals\":false,\"activation\":null,\"manual_axis_type\":null,\"group_offset\":null,\"rhs_scale\":null,\"rhs_bias\":null,\"maybe_quantize_lhs\":false,\"zero_initialize\":true,\"fuse_gateup_activation\":null,\"lhs_quantization_dtype\":null,\"rhs_quantization_dtype\":null}": {},
  "{\"lhs\":\"bf16[262144,7168]\",\"rhs\":\"bf16[256,7168,2048]\",\"group_sizes\":{\"num_groups\":256,\"total_size\":262144},\"ragged_dot_dimension_numbers\":{\"dot_dimension_numbers\":[[[1],[1]],[[],[]]],\"lhs_ragged_dimensions\":[0],\"rhs_group_dimensions\":[0]},\"precision\":[\"DEFAULT\",\"DEFAULT\"],\"preferred_element_type\":null,\"return_residuals\":true,\"activation\":null,\"manual_axis_type\":null,\"group_offset\":null,\"rhs_scale\":null,\"rhs_bias\":null,\"maybe_quantize_lhs\":false,\"zero_initialize\":true,\"fuse_gateup_activation\":null,\"lhs_quantization_dtype\":null,\"rhs_quantization_dtype\":null}": {},
  "{\"lhs\":\"bf16[327680,2880]\",\"rhs\":\"bf16[128,2880,2880]\",\"group_sizes\":{\"num_groups\":128,\"total_size\":327680},\"ragged_dot_dimension_numbers\":{\"dot_dimension_numbers\":[[[1],[1]],[[],[]]],\"lhs_ragged_dimensions\":[0],\"rhs_group_dimensions\":[0]},\"precision\":[\"DEFAULT\",\"DEFAULT\"],\"preferred_element_type\":null,\"return_residuals\":false,\"activation\":null,\"manual_axis_type\":null,\"group_offset\":null,\"rhs_scale\":null,\"rhs_bias\":null,\"maybe_quantize_lhs\":false,\"zero_initialize\":true,\"fuse_gateup_activation\":null,\"lhs_quantization_dtype\":null,\"rhs_quantization_dtype\":null}": {},
  "{\"lhs\":\"bf16[327680,2880]\",\"rhs\":\"bf16[128,2880,2880]\",\"group_sizes\":{\"num_groups\":128,\"total_size\":327680},\"ragged_dot_dimension_numbers\":{\"dot_dimension_numbers\":[[[1],[1]],[[],[]]],\"lhs_ragged_dimensions\":[0],\"rhs_group_dimensions\":[0]},\"precision\":[\"DEFAULT\",\"DEFAULT\"],\"preferred_element_type\":null,\"return_residuals\":true,\"activation\":null,\"manual_axis_type\":null,\"group_offset\":null,\"rhs_scale\":null,\"rhs_bias\":null,\"maybe_quantize_lhs\":false,\"zero_initialize\":true,\"fuse_gateup_activation\":null,\"lhs_quantization_dtype\":null,\"rhs_quantization_dtype\":null}": {},
  "{\"lhs\":\"bf16[393216,2048]\",\"rhs\":\"bf16[128,2048,768]\",\"group_sizes\":{\"num_groups\":128,\"total_size\":393216},\"ragged_dot_dimension_numbers\":{\"dot_dimension_numbers\":[[[1],[1]],[[],[]]],\"lhs_ragged_dimensions\":[0],\"rhs_group_dimensions\":[0]},\"precision\":[\"DEFAULT\",\"DEFAULT\"],\"preferred_element_type\":null,\"return_residuals\":false,\"activation\":null,\"manual_axis_type\":null,\"group_offset\":null,\"rhs_scale\":null,\"rhs_bias\":null,\"maybe_quantize_lhs\":false,\"zero_initialize\":true,\"fuse_gateup_activation\":null,\"lhs_quantization_dtype\":null,\"rhs_quantization_dtype\":null}": {},
  "{\"lhs\":\"bf16[393216,2048]\",\"rhs\":\"bf16[128,2048,768]\",\"group_sizes\":{\"num_groups\":128,\"total_size\":393216},\"ragged_dot_dimension_numbers\":{\"dot_dimension_numbers\":[[[1],[1]],[[],[]]],\"lhs_ragged_dimensions\":[0],\"rhs_group_dimensions\":[0]},\"precision\":[\"DEFAULT\",\"DEFAULT\"],\"preferred_element_type\":null,\"return_residuals\":true,\"activation\":null,\"manual_axis_type\":null,\"group_offset\":null,\"rhs_scale\":null,\"rhs_bias\":null,\"maybe_quantize_lhs\":false,\"zero_initialize\":true,\"fuse_gateup_activation\":null,\"lhs_quantization_dtype\":null,\"rhs_quantization_dtype\":null}": {},
  "{\"lhs\":\"bf16[393216,768]\",\"rhs\":\"bf16[128,768,2048]\",\"group_sizes\":{\"num_groups\":128,\"total_size\":393216},\"ragged_dot_dimension_numbers\":{\"dot_dimension_numbers\":[[[1],[1]],[[],[]]],\"lhs_ragged_dimensions\":[0],\"rhs_group_dimensions\":[0]},\"precision\":[\"DEFAULT\",\"DEFAULT\"],\"preferred_element_type\":null,\"return_residuals\":false,\"activation\":null,\"manual_axis_type\":null,\"group_offset\":null,\"rhs_scale\":null,\"rhs_bias\":null,\"maybe_quantize_lhs\":false,\"zero_initialize\":true,\"fuse_gateup_activation\":null,\"lhs_quantization_dtype\":null,\"rhs_quantization_dtype\":null}": {},
  "{\"lhs\":\"bf16[262144,1536]\",\"rhs\":\"bf16[128,1536,4096]\",\"group_sizes\":{\"num_groups\":128,\"total_size\":262144},\"ragged_dot_dimension_numbers\":{\"dot_dimension_numbers\":[[[1],[1]],[[],[]]],\"lhs_ragged_dimensions\":[0],\"rhs_group_dimensions\":[0]},\"precision\":[\"DEFAULT\",\"DEFAULT\"],\"preferred_element_type\":null,\"return_residuals\":false,\"activation\":null,\"manual_axis_type\":null,\"group_offset\":null,\"rhs_scale\":null,\"rhs_bias\":null,\"maybe_quantize_lhs\":false,\"zero_initialize\":true,\"fuse_gateup_activation\":null,\"lhs_quantization_dtype\":null,\"rhs_quantization_dtype\":null}": {},
  "{\"lhs\":\"bf16[262144,1536]\",\"rhs\":\"bf16[128,1536,4096]\",\"group_sizes\":{\"num_groups\":128,\"total_size\":262144},\"ragged_dot_dimension_numbers\":{\"dot_dimension_numbers\":[[[1],[1]],[[],[]]],\"lhs_ragged_dimensions\":[0],\"rhs_group_dimensions\":[0]},\"precision\":[\"DEFAULT\",\"DEFAULT\"],\"preferred_element_type\":null,\"return_residuals\":true,\"activation\":null,\"manual_axis_type\":null,\"group_offset\":null,\"rhs_scale\":null,\"rhs_bias\":null,\"maybe_quantize_lhs\":false,\"zero_initialize\":true,\"fuse_gateup_activation\":null,\"lhs_quantization_dtype\":null,\"rhs_quantization_dtype\":null}": {},
  "{\"lhs\":\"bf16[131072,7168]\",\"rhs\":\"bf16[128,7168,2048]\",\"group_sizes\":{\"num_groups\":128,\"total_size\":131072},\"ragged_dot_dimension_numbers\":{\"dot_dimension_numbers\":[[[1],[1]],[[],[]]],\"lhs_ragged_dimensions\":[0],\"rhs_group_dimensions\":[0]},\"precision\":[\"DEFAULT\",\"DEFAULT\"],\"preferred_element_type\":null,\"return_residuals\":false,\"activation\":null,\"manual_axis_type\":null,\"group_offset\":null,\"rhs_scale\":null,\"rhs_bias\":null,\"maybe_quantize_lhs\":false,\"zero_initialize\":true,\"fuse_gateup_activation\":null,\"lhs_quantization_dtype\":null,\"rhs_quantization_dtype\":null}": {},
  "{\"lhs\":\"bf16[131072,7168]\",\"rhs\":\"bf16[128,7168,2048]\",\"group_sizes\":{\"num_groups\":128,\"total_size\":131072},\"ragged_dot_dimension_numbers\":{\"dot_dimension_numbers\":[[[1],[1]],[[],[]]],\"lhs_ragged_dimensions\":[0],\"rhs_group_dimensions\":[0]},\"precision\":[\"DEFAULT\",\"DEFAULT\"],\"preferred_element_type\":null,\"return_residuals\":true,\"activation\":null,\"manual_axis_type\":null,\"group_offset\":null,\"rhs_scale\":null,\"rhs_bias\":null,\"maybe_quantize_lhs\":false,\"zero_initialize\":true,\"fuse_gateup_activation\":null,\"lhs_quantization_dtype\":null,\"rhs_quantization_dtype\":null}": {},
  "{\"lhs\":\"bf16[131072,2048]\",\"rhs\":\"bf16[128,2048,768]\",\"group_sizes\":{\"num_groups\":128,\"total_size\":131072},\"ragged_dot_dimension_numbers\":{\"dot_dimension_numbers\":[[[1],[1]],[[],[]]],\"lhs_ragged_dimensions\":[0],\"rhs_group_dimensions\":[0]},\"precision\":[\"DEFAULT\",\"DEFAULT\"],\"preferred_element_type\":null,\"return_residuals\":false,\"activation\":null,\"manual_axis_type\":null,\"group_offset\":null,\"rhs_scale\":null,\"rhs_bias\":null,\"maybe_quantize_lhs\":false,\"zero_initialize\":true,\"fuse_gateup_activation\":null,\"lhs_quantization_dtype\":null,\"rhs_quantization_dtype\":null}": {},
  "{\"lhs\":\"bf16[131072,2048]\",\"rhs\":\"bf16[128,2048,768]\",\"group_sizes\":{\"num_groups\":128,\"total_size\":131072},\"ragged_dot_dimension_numbers\":{\"dot_dimension_numbers\":[[[1],[1]],[[],[]]],\"lhs_ragged_dimensions\":[0],\"rhs_group_dimensions\":[0]},\"precision\":[\"DEFAULT\",\"DEFAULT\"],\"preferred_element_type\":null,\"return_residuals\":true,\"activation\":null,\"manual_axis_type\":null,\"group_offset\":null,\"rhs_scale\":null,\"rhs_bias\":null,\"maybe_quantize_lhs\":false,\"zero_initialize\":true,\"fuse_gateup_activation\":null,\"lhs_quantization_dtype\":null,\"rhs_quantization_dtype\":null}": {},
  "{\"lhs\":\"bf16[131072,4096]\",\"rhs\":\"bf16[128,4096,1536]\",\"group_sizes\":{\"num_groups\":128,\"total_size\":131072},\"ragged_dot_dimension_numbers\":{\"dot_dimension_numbers\":[[[1],[1]],[[],[]]],\"lhs_ragged_dimensions\":[0],\"rhs_group_dimensions\":[0]},\"precision\":[\"DEFAULT\",\"DEFAULT\"],\"preferred_element_type\":null,\"return_residuals\":false,\"activation\":null,\"manual_axis_type\":null,\"group_offset\":null,\"rhs_scale\":null,\"rhs_bias\":null,\"maybe_quantize_lhs\":false,\"zero_initialize\":true,\"fuse_gateup_activation\":null,\"lhs_quantization_dtype\":null,\"rhs_quantization_dtype\":null}": {},
  "{\"lhs\":\"bf16[131072,4096]\",\"rhs\":\"bf16[128,4096,1536]\",\"group_sizes\":{\"num_groups\":128,\"total_size\":131072},\"ragged_dot_dimension_numbers\":{\"dot_dimension_numbers\":[[[1],[1]],[[],[]]],\"lhs_ragged_dimensions\":[0],\"rhs_group_dimensions\":[0]},\"precision\":[\"DEFAULT\",\"DEFAULT\"],\"preferred_element_type\":null,\"return_residuals\":true,\"activation\":null,\"manual_axis_type\":null,\"group_offset\":null,\"rhs_scale\":null,\"rhs_bias\":null,\"maybe_quantize_lhs\":false,\"zero_initialize\":true,\"fuse_gateup_activation\":null,\"lhs_quantization_dtype\":null,\"rhs_quantization_dtype\":null}": {},
  "{\"lhs\":\"bf16[131072,1536]\",\"rhs\":\"bf16[128,1536,4096]\",\"group_sizes\":{\"num_groups\":128,\"total_size\":131072},\"ragged_dot_dimension_numbers\":{\"dot_dimension_numbers\":[[[1],[1]],[[],[]]],\"lhs_ragged_dimensions\":[0],\"rhs_group_dimensions\":[0]},\"precision\":[\"DEFAULT\",\"DEFAULT\"],\"preferred_element_type\":null,\"return_residuals\":false,\"activation\":null,\"manual_axis_type\":null,\"group_offset\":null,\"rhs_scale\":null,\"rhs_bias\":null,\"maybe_quantize_lhs\":false,\"zero_initialize\":true,\"fuse_gateup_activation\":null,\"lhs_quantization_dtype\":null,\"rhs_quantization_dtype\":null}": {},
  "{\"lhs\":\"bf16[131072,1536]\",\"rhs\":\"bf16[128,1536,4096]\",\"group_sizes\":{\"num_groups\":128,\"total_size\":131072},\"ragged_dot_dimension_numbers\":{\"dot_dimension_numbers\":[[[1],[1]],[[],[]]],\"lhs_ragged_dimensions\":[0],\"rhs_group_dimensions\":[0]},\"precision\":[\"DEFAULT\",\"DEFAULT\"],\"preferred_element_type\":null,\"return_residuals\":true,\"activation\":null,\"manual_axis_type\":null,\"group_offset\":null,\"rhs_scale\":null,\"rhs_bias\":null,\"maybe_quantize_lhs\":false,\"zero_initialize\":true,\"fuse_gateup_activation\":null,\"lhs_quantization_dtype\":null,\"rhs_quantization_dtype\":null}": {},
  "{\"lhs\":\"bf16[131072,7168]\",\"rhs\":\"bf16[256,7168,2048]\",\"group_sizes\":{\"num_groups\":256,\"total_size\":131072},\"ragged_dot_dimension_numbers\":{\"dot_dimension_numbers\":[[[1],[1]],[[],[]]],\"lhs_ragged_dimensions\":[0],\"rhs_group_dimensions\":[0]},\"precision\":[\"DEFAULT\",\"DEFAULT\"],\"preferred_element_type\":null,\"return_residuals\":false,\"activation\":null,\"manual_axis_type\":null,\"group_offset\":null,\"rhs_scale\":null,\"rhs_bias\":null,\"maybe_quantize_lhs\":false,\"zero_initialize\":true,\"fuse_gateup_activation\":null,\"lhs_quantization_dtype\":null,\"rhs_quantization_dtype\":null}": {},
  "{\"lhs\":\"bf16[131072,7168]\",\"rhs\":\"bf16[256,7168,2048]\",\"group_sizes\":{\"num_groups\":256,\"total_size\":131072},\"ragged_dot_dimension_numbers\":{\"dot_dimension_numbers\":[[[1],[1]],[[],[]]],\"lhs_ragged_dimensions\":[0],\"rhs_group_dimensions\":[0]},\"precision\":[\"DEFAULT\",\"DEFAULT\"],\"preferred_element_type\":null,\"return_residuals\":true,\"activation\":null,\"manual_axis_type\":null,\"group_offset\":null,\"rhs_scale\":null,\"rhs_bias\":null,\"maybe_quantize_lhs\":false,\"zero_initialize\":true,\"fuse_gateup_activation\":null,\"lhs_quantization_dtype\":null,\"rhs_quantization_dtype\":null}": {},
  "{\"lhs\":\"bf16[65536,7168]\",\"rhs\":\"bf16[256,7168,2048]\",\"group_sizes\":{\"num_groups\":256,\"total_size\":65536},\"ragged_dot_dimension_numbers\":{\"dot_dimension_numbers\":[[[1],[1]],[[],[]]],\"lhs_ragged_dimensions\":[0],\"rhs_group_dimensions\":[0]},\"precision\":[\"DEFAULT\",\"DEFAULT\"],\"preferred_element_type\":null,\"return_residuals\":false,\"activation\":null,\"manual_axis_type\":null,\"group_offset\":null,\"rhs_scale\":null,\"rhs_bias\":null,\"maybe_quantize_lhs\":false,\"zero_initialize\":true,\"fuse_gateup_activation\":null,\"lhs_quantization_dtype\":null,\"rhs_quantization_dtype\":null}": {},
  "{\"lhs\":\"bf16[262144,512]\",\"rhs\":\"bf16[256,512,7168]\",\"group_sizes\":{\"num_groups\":256,\"total_size\":262144},\"ragged_dot_dimension_numbers\":{\"dot_dimension_numbers\":[[[1],[1]],[[],[]]],\"lhs_ragged_dimensions\":[0],\"rhs_group_dimensions\":[0]},\"precision\":[\"DEFAULT\",\"DEFAULT\"],\"preferred_element_type\":null,\"return_residuals\":false,\"activation\":null,\"manual_axis_type\":null,\"group_offset\":null,\"rhs_scale\":null,\"rhs_bias\":null,\"maybe_quantize_lhs\":false,\"zero_initialize\":true,\"fuse_gateup_activation\":null,\"lhs_quantization_dtype\":null,\"rhs_quantization_dtype\":null}": {},
  "{\"lhs\":\"bf16[262144,512]\",\"rhs\":\"bf16[256,512,7168]\",\"group_sizes\":{\"num_groups\":256,\"total_size\":262144},\"ragged_dot_dimension_numbers\":{\"dot_dimension_numbers\":[[[1],[1]],[[],[]]],\"lhs_ragged_dimensions\":[0],\"rhs_group_dimensions\":[0]},\"precision\":[\"DEFAULT\",\"DEFAULT\"],\"preferred_element_type\":null,\"return_residuals\":true,\"activation\":null,\"manual_axis_type\":null,\"group_offset\":null,\"rhs_scale\":null,\"rhs_bias\":null,\"maybe_quantize_lhs\":false,\"zero_initialize\":true,\"fuse_gateup_activation\":null,\"lhs_quantization_dtype\":null,\"rhs_quantization_dtype\":null}": {},
  "{\"lhs\":\"bf16[4096,4096]\",\"rhs\":\"bf16[8,4096,4096]\",\"group_sizes\":[4096,0,0,0,0,0,0,0],\"ragged_dot_dimension_numbers\":{\"dot_dimension_numbers\":[[[1],[1]],[[],[]]],\"lhs_ragged_dimensions\":[0],\"rhs_group_dimensions\":[0]},\"precision\":[\"DEFAULT\",\"DEFAULT\"],\"preferred_element_type\":null,\"return_residuals\":false,\"activation\":null,\"manual_axis_type\":null,\"group_offset\":null,\"rhs_scale\":null,\"rhs_bias\":null,\"maybe_quantize_lhs\":false,\"zero_initialize\":true,\"fuse_gateup_activation\":null,\"lhs_quantization_dtype\":null,\"rhs_quantization_dtype\":null}": {
    "{}": {
      "compile_time_ms": 951.643765999961,
      "lower_time_ms": 7.381680999969831,
      "evaluation_times_ms": [
        1.345295,
        1.343376,
        1.34504,
        1.3447209999999998,
        1.344305
      ],
      "metadata": {},
      "peak_memory_mb": 671.088672
    }
  },
  "{\"lhs\":\"bf16[4096,4096]\",\"rhs\":\"bf16[8,4096,4096]\",\"group_sizes\":[4096,0,0,0,0,0,0,0],\"ragged_dot_dimension_numbers\":{\"dot_dimension_numbers\":[[[1],[1]],[[],[]]],\"lhs_ragged_dimensions\":[0],\"rhs_group_dimensions\":[0]},\"precision\":[\"DEFAULT\",\"DEFAULT\"],\"preferred_element_type\":null,\"return_residuals\":true,\"activation\":null,\"manual_axis_type\":null,\"group_offset\":null,\"rhs_scale\":null,\"rhs_bias\":null,\"maybe_quantize_lhs\":false,\"zero_initialize\":true,\"fuse_gateup_activation\":null,\"lhs_quantization_dtype\":null,\"rhs_quantization_dtype\":null}": {
    "{}": {
      "compile_time_ms": 71.02633100021194,
      "lower_time_ms": 6.826862999787409,
      "evaluation_times_ms": [
        1.337906,
        1.340496,
        1.3392810000000002,
        1.34024,
        1.337136
      ],
      "metadata": {},
      "peak_memory_mb": 704.64312
    }
  },
  "{\"lhs\":\"bf16[8,4096]\",\"rhs\":\"bf16[8,4096,4096]\",\"group_sizes\":[1,1,1,1,1,1,1,1],\"ragged_dot_dimension_numbers\":{\"dot_dimension_numbers\":[[[1],[1]],[[],[]]],\"lhs_ragged_dimensions\":[0],\"rhs_group_dimensions\":[0]},\"precision\":[\"DEFAULT\",\"DEFAULT\"],\"preferred_element_type\":null,\"return_residuals\":false,\"activation\":null,\"manual_axis_type\":null,\"group_offset\":null,\"rhs_scale\":null,\"rhs_bias\":null,\"maybe_quantize_lhs\":false,\"zero_initialize\":true,\"fuse_gateup_activation\":null,\"lhs_quantization_dtype\":null,\"rhs_quantization_dtype\":null}": {
    "{}": {
      "compile_time_ms": 424.54190299986294,
      "lower_time_ms": 7.309321000320779,
      "evaluation_times_ms": [
        0.093183,
        0.09302300000000001,
        0.092767,
        0.093279,
        0.09283
      ],
      "metadata": {},
      "peak_memory_mb": 271.188
    }
  },
  "{\"lhs\":\"bf16[8,4096]\",\"rhs\":\"bf16[8,4096,4096]\",\"group_sizes\":[1,1,1,1,1,1,1,1],\"ragged_dot_dimension_numbers\":{\"dot_dimension_numbers\":[[[1],[1]],[[],[]]],\"lhs_ragged_dimensions\":[0],\"rhs_group_dimensions\":[0]},\"precision\":[\"DEFAULT\",\"DEFAULT\"],\"preferred_element_type\":null,\"return_residuals\":true,\"activation\":null,\"manual_axis_type\":null,\"group_offset\":null,\"rhs_scale\":null,\"rhs_bias\":null,\"maybe_quantize_lhs\":false,\"zero_initialize\":true,\"fuse_gateup_activation\":null,\"lhs_quantization_dtype\":null,\"rhs_quantization_dtype\":null}": {
    "{}": {
      "compile_time_ms": 93.56587100000979,
      "lower_time_ms": 6.912594000368699,
      "evaluation_times_ms": [
        0.093246,
        0.092798,
        0.092159,
        0.092223,
        0.093182
      ],
      "metadata": {},
      "peak_memory_mb": 271.253552
    }
  },
  "{\"lhs\":\"bf16[8192,4096]\",\"rhs\":\"bf16[8,4096,14336]\",\"group_sizes\":{\"num_groups\":8,\"total_size\":8192},\"ragged_dot_dimension_numbers\":{\"dot_dimension_numbers\":[[[1],[1]],[[],[]]],\"lhs_ragged_dimensions\":[0],\"rhs_group_dimensions\":[0]},\"precision\":[\"DEFAULT\",\"DEFAULT\"],\"preferred_element_type\":null,\"return_residuals\":false,\"activation\":null,\"manual_axis_type\":null,\"group_offset\":null,\"rhs_scale\":null,\"rhs_bias\":null,\"maybe_quantize_lhs\":false,\"zero_initialize\":true,\"fuse_gateup_activation\":null,\"lhs_quantization_dtype\":null,\"rhs_quantization_dtype\":null}": {
    "{}": {
      "compile_time_ms": 1118.7646469998072,
      "lower_time_ms": 23.544042999674275,
      "evaluation_times_ms": [
        8.762029,
        9.01627,
        9.27163,
        9.427054,
        9.464269999999999
      ],
      "metadata": {},
      "peak_memory_mb": 2248.146976
    }
  },
  "{\"lhs\":\"bf16[8192,4096]\",\"rhs\":\"bf16[8,4096,14336]\",\"group_sizes\":{\"num_groups\":8,\"total_size\":8192},\"ragged_dot_dimension_numbers\":{\"dot_dimension_numbers\":[[[1],[1]],[[],[]]],\"lhs_ragged_dimensions\":[0],\"rhs_group_dimensions\":[0]},\"precision\":[\"DEFAULT\",\"DEFAULT\"],\"preferred_element_type\":null,\"return_residuals\":true,\"activation\":null,\"manual_axis_type\":null,\"group_offset\":null,\"rhs_scale\":null,\"rhs_bias\":null,\"maybe_quantize_lhs\":false,\"zero_initialize\":true,\"fuse_gateup_activation\":null,\"lhs_quantization_dtype\":null,\"rhs_quantization_dtype\":null}": {
    "{}": {
      "compile_time_ms": 69.27658399945358,
      "lower_time_ms": 7.307037999453314,
      "evaluation_times_ms": [
        8.648812,
        8.6251,
        9.179053,
        9.541773999999998,
        9.623149999999999
      ],
      "metadata": {},
      "peak_memory_mb": 2483.028016
    }
  },
  "{\"lhs\":\"bf16[131072,1024]\",\"rhs\":\"bf16[256,7168,1024]\",\"group_sizes\":{\"num_groups\":256,\"total_size\":131072},\"ragged_dot_dimension_numbers\":{\"dot_dimension_numbers\":[[[1],[2]],[[],[]]],\"lhs_ragged_dimensions\":[0],\"rhs_group_dimensions\":[0]},\"precision\":[\"DEFAULT\",\"DEFAULT\"],\"preferred_element_type\":\"bfloat16\",\"return_residuals\":false,\"activation\":null,\"manual_axis_type\":null,\"group_offset\":null,\"rhs_scale\":null,\"rhs_bias\":null,\"maybe_quantize_lhs\":false,\"zero_initialize\":true,\"fuse_gateup_activation\":null,\"lhs_quantization_dtype\":null,\"rhs_quantization_dtype\":null}": {},
  "{\"lhs\":\"bf16[131072,7168]\",\"rhs\":\"bf16[131072,1024]\",\"group_sizes\":{\"num_groups\":256,\"total_size\":131072},\"ragged_dot_dimension_numbers\":{\"dot_dimension_numbers\":[[[0],[0]],[[],[]]],\"lhs_ragged_dimensions\":[0],\"rhs_group_dimensions\":[]},\"precision\":[\"DEFAULT\",\"DEFAULT\"],\"preferred_element_type\":\"bfloat16\",\"return_residuals\":false,\"activation\":null,\"manual_axis_type\":null,\"group_offset\":null,\"rhs_scale\":null,\"rhs_bias\":null,\"maybe_quantize_lhs\":false,\"zero_initialize\":true,\"fuse_gateup_activation\":null,\"lhs_quantization_dtype\":null,\"rhs_quantization_dtype\":null}": {},
  "{\"lhs\":\"bf16[131072,7168]\",\"rhs\":\"bf16[256,1024,7168]\",\"group_sizes\":{\"num_groups\":256,\"total_size\":131072},\"ragged_dot_dimension_numbers\":{\"dot_dimension_numbers\":[[[1],[2]],[[],[]]],\"lhs_ragged_dimensions\":[0],\"rhs_group_dimensions\":[0]},\"precision\":[\"DEFAULT\",\"DEFAULT\"],\"preferred_element_type\":\"bfloat16\",\"return_residuals\":false,\"activation\":null,\"manual_axis_type\":null,\"group_offset\":null,\"rhs_scale\":null,\"rhs_bias\":null,\"maybe_quantize_lhs\":false,\"zero_initialize\":true,\"fuse_gateup_activation\":null,\"lhs_quantization_dtype\":null,\"rhs_quantization_dtype\":null}": {},
  "{\"lhs\":\"bf16[131072,1024]\",\"rhs\":\"bf16[131072,7168]\",\"group_sizes\":{\"num_groups\":256,\"total_size\":131072},\"ragged_dot_dimension_numbers\":{\"dot_dimension_numbers\":[[[0],[0]],[[],[]]],\"lhs_ragged_dimensions\":[0],\"rhs_group_dimensions\":[]},\"precision\":[\"DEFAULT\",\"DEFAULT\"],\"preferred_element_type\":\"bfloat16\",\"return_residuals\":false,\"activation\":null,\"manual_axis_type\":null,\"group_offset\":null,\"rhs_scale\":null,\"rhs_bias\":null,\"maybe_quantize_lhs\":false,\"zero_initialize\":true,\"fuse_gateup_activation\":null,\"lhs_quantization_dtype\":null,\"rhs_quantization_dtype\":null}": {},
  "{\"lhs\":\"bf16[131072,512]\",\"rhs\":\"bf16[256,7168,512]\",\"group_sizes\":{\"num_groups\":256,\"total_size\":131072},\"ragged_dot_dimension_numbers\":{\"dot_dimension_numbers\":[[[1],[2]],[[],[]]],\"lhs_ragged_dimensions\":[0],\"rhs_group_dimensions\":[0]},\"precision\":[\"DEFAULT\",\"DEFAULT\"],\"preferred_element_type\":\"bfloat16\",\"return_residuals\":false,\"activation\":null,\"manual_axis_type\":null,\"group_offset\":null,\"rhs_scale\":null,\"rhs_bias\":null,\"maybe_quantize_lhs\":false,\"zero_initialize\":true,\"fuse_gateup_activation\":null,\"lhs_quantization_dtype\":null,\"rhs_quantization_dtype\":null}": {},
  "{\"lhs\":\"bf16[131072,7168]\",\"rhs\":\"bf16[131072,512]\",\"group_sizes\":{\"num_groups\":256,\"total_size\":131072},\"ragged_dot_dimension_numbers\":{\"dot_dimension_numbers\":[[[0],[0]],[[],[]]],\"lhs_ragged_dimensions\":[0],\"rhs_group_dimensions\":[]},\"precision\":[\"DEFAULT\",\"DEFAULT\"],\"preferred_element_type\":\"bfloat16\",\"return_residuals\":false,\"activation\":null,\"manual_axis_type\":null,\"group_offset\":null,\"rhs_scale\":null,\"rhs_bias\":null,\"maybe_quantize_lhs\":false,\"zero_initialize\":true,\"fuse_gateup_activation\":null,\"lhs_quantization_dtype\":null,\"rhs_quantization_dtype\":null}": {},
  "{\"lhs\":\"bf16[131072,7168]\",\"rhs\":\"bf16[256,512,7168]\",\"group_sizes\":{\"num_groups\":256,\"total_size\":131072},\"ragged_dot_dimension_numbers\":{\"dot_dimension_numbers\":[[[1],[2]],[[],[]]],\"lhs_ragged_dimensions\":[0],\"rhs_group_dimensions\":[0]},\"precision\":[\"DEFAULT\",\"DEFAULT\"],\"preferred_element_type\":\"bfloat16\",\"return_residuals\":false,\"activation\":null,\"manual_axis_type\":null,\"group_offset\":null,\"rhs_scale\":null,\"rhs_bias\":null,\"maybe_quantize_lhs\":false,\"zero_initialize\":true,\"fuse_gateup_activation\":null,\"lhs_quantization_dtype\":null,\"rhs_quantization_dtype\":null}": {},
  "{\"lhs\":\"bf16[131072,512]\",\"rhs\":\"bf16[131072,7168]\",\"group_sizes\":{\"num_groups\":256,\"total_size\":131072},\"ragged_dot_dimension_numbers\":{\"dot_dimension_numbers\":[[[0],[0]],[[],[]]],\"lhs_ragged_dimensions\":[0],\"rhs_group_dimensions\":[]},\"precision\":[\"DEFAULT\",\"DEFAULT\"],\"preferred_element_type\":\"bfloat16\",\"return_residuals\":false,\"activation\":null,\"manual_axis_type\":null,\"group_offset\":null,\"rhs_scale\":null,\"rhs_bias\":null,\"maybe_quantize_lhs\":false,\"zero_initialize\":true,\"fuse_gateup_activation\":null,\"lhs_quantization_dtype\":null,\"rhs_quantization_dtype\":null}": {},
  "{\"lhs\":\"bf16[262144,512]\",\"rhs\":\"bf16[256,7168,512]\",\"group_sizes\":{\"num_groups\":256,\"total_size\":262144},\"ragged_dot_dimension_numbers\":{\"dot_dimension_numbers\":[[[1],[2]],[[],[]]],\"lhs_ragged_dimensions\":[0],\"rhs_group_dimensions\":[0]},\"precision\":[\"DEFAULT\",\"DEFAULT\"],\"preferred_element_type\":\"bfloat16\",\"return_residuals\":false,\"activation\":null,\"manual_axis_type\":null,\"group_offset\":null,\"rhs_scale\":null,\"rhs_bias\":null,\"maybe_quantize_lhs\":false,\"zero_initialize\":true,\"fuse_gateup_activation\":null,\"lhs_quantization_dtype\":null,\"rhs_quantization_dtype\":null}": {},
  "{\"lhs\":\"bf16[262144,7168]\",\"rhs\":\"bf16[262144,512]\",\"group_sizes\":{\"num_groups\":256,\"total_size\":262144},\"ragged_dot_dimension_numbers\":{\"dot_dimension_numbers\":[[[0],[0]],[[],[]]],\"lhs_ragged_dimensions\":[0],\"rhs_group_dimensions\":[]},\"precision\":[\"DEFAULT\",\"DEFAULT\"],\"preferred_element_type\":\"bfloat16\",\"return_residuals\":false,\"activation\":null,\"manual_axis_type\":null,\"group_offset\":null,\"rhs_scale\":null,\"rhs_bias\":null,\"maybe_quantize_lhs\":false,\"zero_initialize\":true,\"fuse_gateup_activation\":null,\"lhs_quantization_dtype\":null,\"rhs_quantization_dtype\":null}": {},
  "{\"lhs\":\"bf16[262144,7168]\",\"rhs\":\"bf16[256,256,7168]\",\"group_sizes\":{\"num_groups\":256,\"total_size\":262144},\"ragged_dot_dimension_numbers\":{\"dot_dimension_numbers\":[[[1],[2]],[[],[]]],\"lhs_ragged_dimensions\":[0],\"rhs_group_dimensions\":[0]},\"precision\":[\"DEFAULT\",\"DEFAULT\"],\"preferred_element_type\":\"bfloat16\",\"return_residuals\":false,\"activation\":null,\"manual_axis_type\":null,\"group_offset\":null,\"rhs_scale\":null,\"rhs_bias\":null,\"maybe_quantize_lhs\":false,\"zero_initialize\":true,\"fuse_gateup_activation\":null,\"lhs_quantization_dtype\":null,\"rhs_quantization_dtype\":null}": {},
  "{\"lhs\":\"bf16[262144,256]\",\"rhs\":\"bf16[262144,7168]\",\"group_sizes\":{\"num_groups\":256,\"total_size\":262144},\"ragged_dot_dimension_numbers\":{\"dot_dimension_numbers\":[[[0],[0]],[[],[]]],\"lhs_ragged_dimensions\":[0],\"rhs_group_dimensions\":[]},\"precision\":[\"DEFAULT\",\"DEFAULT\"],\"preferred_element_type\":\"bfloat16\",\"return_residuals\":false,\"activation\":null,\"manual_axis_type\":null,\"group_offset\":null,\"rhs_scale\":null,\"rhs_bias\":null,\"maybe_quantize_lhs\":false,\"zero_initialize\":true,\"fuse_gateup_activation\":null,\"lhs_quantization_dtype\":null,\"rhs_quantization_dtype\":null}": {},
  "{\"lhs\":\"bf16[262144,7168]\",\"rhs\":\"bf16[256,1024,7168]\",\"group_sizes\":{\"num_groups\":256,\"total_size\":262144},\"ragged_dot_dimension_numbers\":{\"dot_dimension_numbers\":[[[1],[2]],[[],[]]],\"lhs_ragged_dimensions\":[0],\"rhs_group_dimensions\":[0]},\"precision\":[\"DEFAULT\",\"DEFAULT\"],\"preferred_element_type\":\"bfloat16\",\"return_residuals\":false,\"activation\":null,\"manual_axis_type\":null,\"group_offset\":null,\"rhs_scale\":null,\"rhs_bias\":null,\"maybe_quantize_lhs\":false,\"zero_initialize\":true,\"fuse_gateup_activation\":null,\"lhs_quantization_dtype\":null,\"rhs_quantization_dtype\":null}": {},
  "{\"lhs\":\"bf16[262144,1024]\",\"rhs\":\"bf16[262144,7168]\",\"group_sizes\":{\"num_groups\":256,\"total_size\":262144},\"ragged_dot_dimension_numbers\":{\"dot_dimension_numbers\":[[[0],[0]],[[],[]]],\"lhs_ragged_dimensions\":[0],\"rhs_group_dimensions\":[]},\"precision\":[\"DEFAULT\",\"DEFAULT\"],\"preferred_element_type\":\"bfloat16\",\"return_residuals\":false,\"activation\":null,\"manual_axis_type\":null,\"group_offset\":null,\"rhs_scale\":null,\"rhs_bias\":null,\"maybe_quantize_lhs\":false,\"zero_initialize\":true,\"fuse_gateup_activation\":null,\"lhs_quantization_dtype\":null,\"rhs_quantization_dtype\":null}": {},
  "{\"lhs\":\"bf16[262144,1024]\",\"rhs\":\"bf16[256,7168,1024]\",\"group_sizes\":{\"num_groups\":256,\"total_size\":262144},\"ragged_dot_dimension_numbers\":{\"dot_dimension_numbers\":[[[1],[2]],[[],[]]],\"lhs_ragged_dimensions\":[0],\"rhs_group_dimensions\":[0]},\"precision\":[\"DEFAULT\",\"DEFAULT\"],\"preferred_element_type\":\"bfloat16\",\"return_residuals\":false,\"activation\":null,\"manual_axis_type\":null,\"group_offset\":null,\"rhs_scale\":null,\"rhs_bias\":null,\"maybe_quantize_lhs\":false,\"zero_initialize\":true,\"fuse_gateup_activation\":null,\"lhs_quantization_dtype\":null,\"rhs_quantization_dtype\":null}": {},
  "{\"lhs\":\"bf16[262144,7168]\",\"rhs\":\"bf16[262144,1024]\",\"group_sizes\":{\"num_groups\":256,\"total_size\":262144},\"ragged_dot_dimension_numbers\":{\"dot_dimension_numbers\":[[[0],[0]],[[],[]]],\"lhs_ragged_dimensions\":[0],\"rhs_group_dimensions\":[]},\"precision\":[\"DEFAULT\",\"DEFAULT\"],\"preferred_element_type\":\"bfloat16\",\"return_residuals\":false,\"activation\":null,\"manual_axis_type\":null,\"group_offset\":null,\"rhs_scale\":null,\"rhs_bias\":null,\"maybe_quantize_lhs\":false,\"zero_initialize\":true,\"fuse_gateup_activation\":null,\"lhs_quantization_dtype\":null,\"rhs_quantization_dtype\":null}": {},
  "{\"lhs\":\"bf16[262144,7168]\",\"rhs\":\"bf16[262144,2048]\",\"group_sizes\":{\"num_groups\":256,\"total_size\":262144},\"ragged_dot_dimension_numbers\":{\"dot_dimension_numbers\":[[[0],[0]],[[],[]]],\"lhs_ragged_dimensions\":[0],\"rhs_group_dimensions\":[]},\"precision\":[\"DEFAULT\",\"DEFAULT\"],\"preferred_element_type\":\"bfloat16\",\"return_residuals\":false,\"activation\":null,\"manual_axis_type\":null,\"group_offset\":null,\"rhs_scale\":null,\"rhs_bias\":null,\"maybe_quantize_lhs\":false,\"zero_initialize\":true,\"fuse_gateup_activation\":null,\"lhs_quantization_dtype\":null,\"rhs_quantization_dtype\":null}": {},
  "{\"lhs\":\"bf16[327680,2880]\",\"rhs\":\"bf16[128,2880,2880]\",\"group_sizes\":{\"num_groups\":128,\"total_size\":327680},\"ragged_dot_dimension_numbers\":{\"dot_dimension_numbers\":[[[1],[2]],[[],[]]],\"lhs_ragged_dimensions\":[0],\"rhs_group_dimensions\":[0]},\"precision\":[\"DEFAULT\",\"DEFAULT\"],\"preferred_element_type\":\"bfloat16\",\"return_residuals\":false,\"activation\":null,\"manual_axis_type\":null,\"group_offset\":null,\"rhs_scale\":null,\"rhs_bias\":null,\"maybe_quantize_lhs\":false,\"zero_initialize\":true,\"fuse_gateup_activation\":null,\"lhs_quantization_dtype\":null,\"rhs_quantization_dtype\":null}": {},
  "{\"lhs\":\"bf16[393216,768]\",\"rhs\":\"bf16[128,2048,768]\",\"group_sizes\":{\"num_groups\":128,\"total_size\":393216},\"ragged_dot_dimension_numbers\":{\"dot_dimension_numbers\":[[[1],[2]],[[],[]]],\"lhs_ragged_dimensions\":[0],\"rhs_group_dimensions\":[0]},\"precision\":[\"DEFAULT\",\"DEFAULT\"],\"preferred_element_type\":\"bfloat16\",\"return_residuals\":false,\"activation\":null,\"manual_axis_type\":null,\"group_offset\":null,\"rhs_scale\":null,\"rhs_bias\":null,\"maybe_quantize_lhs\":false,\"zero_initialize\":true,\"fuse_gateup_activation\":null,\"lhs_quantization_dtype\":null,\"rhs_quantization_dtype\":null}": {},
  "{\"lhs\":\"bf16[393216,2048]\",\"rhs\":\"bf16[393216,768]\",\"group_sizes\":{\"num_groups\":128,\"total_size\":393216},\"ragged_dot_dimension_numbers\":{\"dot_dimension_numbers\":[[[0],[0]],[[],[]]],\"lhs_ragged_dimensions\":[0],\"rhs_group_dimensions\":[]},\"precision\":[\"DEFAULT\",\"DEFAULT\"],\"preferred_element_type\":\"bfloat16\",\"return_residuals\":false,\"activation\":null,\"manual_axis_type\":null,\"group_offset\":null,\"rhs_scale\":null,\"rhs_bias\":null,\"maybe_quantize_lhs\":false,\"zero_initialize\":true,\"fuse_gateup_activation\":null,\"lhs_quantization_dtype\":null,\"rhs_quantization_dtype\":null}": {},
  "{\"lhs\":\"bf16[262144,1536]\",\"rhs\":\"bf16[128,4096,1536]\",\"group_sizes\":{\"num_groups\":128,\"total_size\":262144},\"ragged_dot_dimension_numbers\":{\"dot_dimension_numbers\":[[[1],[2]],[[],[]]],\"lhs_ragged_dimensions\":[0],\"rhs_group_dimensions\":[0]},\"precision\":[\"DEFAULT\",\"DEFAULT\"],\"preferred_element_type\":\"bfloat16\",\"return_residuals\":false,\"activation\":null,\"manual_axis_type\":null,\"group_offset\":null,\"rhs_scale\":null,\"rhs_bias\":null,\"maybe_quantize_lhs\":false,\"zero_initialize\":true,\"fuse_gateup_activation\":null,\"lhs_quantization_dtype\":null,\"rhs_quantization_dtype\":null}": {},
  "{\"lhs\":\"bf16[262144,4096]\",\"rhs\":\"bf16[262144,1536]\",\"group_sizes\":{\"num_groups\":128,\"total_size\":262144},\"ragged_dot_dimension_numbers\":{\"dot_dimension_numbers\":[[[0],[0]],[[],[]]],\"lhs_ragged_dimensions\":[0],\"rhs_group_dimensions\":[]},\"precision\":[\"DEFAULT\",\"DEFAULT\"],\"preferred_element_type\":\"bfloat16\",\"return_residuals\":false,\"activation\":null,\"manual_axis_type\":null,\"group_offset\":null,\"rhs_scale\":null,\"rhs_bias\":null,\"maybe_quantize_lhs\":false,\"zero_initialize\":true,\"fuse_gateup_activation\":null,\"lhs_quantization_dtype\":null,\"rhs_quantization_dtype\":null}": {},
  "{\"lhs\":\"bf16[262144,4096]\",\"rhs\":\"bf16[128,1536,4096]\",\"group_sizes\":{\"num_groups\":128,\"total_size\":262144},\"ragged_dot_dimension_numbers\":{\"dot_dimension_numbers\":[[[1],[2]],[[],[]]],\"lhs_ragged_dimensions\":[0],\"rhs_group_dimensions\":[0]},\"precision\":[\"DEFAULT\",\"DEFAULT\"],\"preferred_element_type\":\"bfloat16\",\"return_residuals\":false,\"activation\":null,\"manual_axis_type\":null,\"group_offset\":null,\"rhs_scale\":null,\"rhs_bias\":null,\"maybe_quantize_lhs\":false,\"zero_initialize\":true,\"fuse_gateup_activation\":null,\"lhs_quantization_dtype\":null,\"rhs_quantization_dtype\":null}": {},
  "{\"lhs\":\"bf16[262144,1536]\",\"rhs\":\"bf16[262144,4096]\",\"group_sizes\":{\"num_groups\":128,\"total_size\":262144},\"ragged_dot_dimension_numbers\":{\"dot_dimension_numbers\":[[[0],[0]],[[],[]]],\"lhs_ragged_dimensions\":[0],\"rhs_group_dimensions\":[]},\"precision\":[\"DEFAULT\",\"DEFAULT\"],\"preferred_element_type\":\"bfloat16\",\"return_residuals\":false,\"activation\":null,\"manual_axis_type\":null,\"group_offset\":null,\"rhs_scale\":null,\"rhs_bias\":null,\"maybe_quantize_lhs\":false,\"zero_initialize\":true,\"fuse_gateup_activation\":null,\"lhs_quantization_dtype\":null,\"rhs_quantization_dtype\":null}": {},
  "{\"lhs\":\"bf16[131072,2048]\",\"rhs\":\"bf16[128,7168,2048]\",\"group_sizes\":{\"num_groups\":128,\"total_size\":131072},\"ragged_dot_dimension_numbers\":{\"dot_dimension_numbers\":[[[1],[2]],[[],[]]],\"lhs_ragged_dimensions\":[0],\"rhs_group_dimensions\":[0]},\"precision\":[\"DEFAULT\",\"DEFAULT\"],\"preferred_element_type\":\"bfloat16\",\"return_residuals\":false,\"activation\":null,\"manual_axis_type\":null,\"group_offset\":null,\"rhs_scale\":null,\"rhs_bias\":null,\"maybe_quantize_lhs\":false,\"zero_initialize\":true,\"fuse_gateup_activation\":null,\"lhs_quantization_dtype\":null,\"rhs_quantization_dtype\":null}": {},
  "{\"lhs\":\"bf16[131072,7168]\",\"rhs\":\"bf16[131072,2048]\",\"group_sizes\":{\"num_groups\":128,\"total_size\":131072},\"ragged_dot_dimension_numbers\":{\"dot_dimension_numbers\":[[[0],[0]],[[],[]]],\"lhs_ragged_dimensions\":[0],\"rhs_group_dimensions\":[]},\"precision\":[\"DEFAULT\",\"DEFAULT\"],\"preferred_element_type\":\"bfloat16\",\"return_residuals\":false,\"activation\":null,\"manual_axis_type\":null,\"group_offset\":null,\"rhs_scale\":null,\"rhs_bias\":null,\"maybe_quantize_lhs\":false,\"zero_initialize\":true,\"fuse_gateup_activation\":null,\"lhs_quantization_dtype\":null,\"rhs_quantization_dtype\":null}": {},
  "{\"lhs\":\"bf16[131072,768]\",\"rhs\":\"bf16[128,2048,768]\",\"group_sizes\":{\"num_groups\":128,\"total_size\":131072},\"ragged_dot_dimension_numbers\":{\"dot_dimension_numbers\":[[[1],[2]],[[],[]]],\"lhs_ragged_dimensions\":[0],\"rhs_group_dimensions\":[0]},\"precision\":[\"DEFAULT\",\"DEFAULT\"],\"preferred_element_type\":\"bfloat16\",\"return_residuals\":false,\"activation\":null,\"manual_axis_type\":null,\"group_offset\":null,\"rhs_scale\":null,\"rhs_bias\":null,\"maybe_quantize_lhs\":false,\"zero_initialize\":true,\"fuse_gateup_activation\":null,\"lhs_quantization_dtype\":null,\"rhs_quantization_dtype\":null}": {
    "{}": {
      "compile_time_ms": 25794.455113005824,
      "lower_time_ms": 8.30119103193283,
      "evaluation_times_ms": [
        76.905682,
        78.495054,
        77.517841,
        78.305422,
        76.26638700000001
      ],
      "metadata": {},
      "peak_memory_mb": 28017.951232
    }
  },
  "{\"lhs\":\"bf16[131072,2048]\",\"rhs\":\"bf16[131072,768]\",\"group_sizes\":{\"num_groups\":128,\"total_size\":131072},\"ragged_dot_dimension_numbers\":{\"dot_dimension_numbers\":[[[0],[0]],[[],[]]],\"lhs_ragged_dimensions\":[0],\"rhs_group_dimensions\":[]},\"precision\":[\"DEFAULT\",\"DEFAULT\"],\"preferred_element_type\":\"bfloat16\",\"return_residuals\":false,\"activation\":null,\"manual_axis_type\":null,\"group_offset\":null,\"rhs_scale\":null,\"rhs_bias\":null,\"maybe_quantize_lhs\":false,\"zero_initialize\":true,\"fuse_gateup_activation\":null,\"lhs_quantization_dtype\":null,\"rhs_quantization_dtype\":null}": {},
  "{\"lhs\":\"bf16[131072,1536]\",\"rhs\":\"bf16[128,4096,1536]\",\"group_sizes\":{\"num_groups\":128,\"total_size\":131072},\"ragged_dot_dimension_numbers\":{\"dot_dimension_numbers\":[[[1],[2]],[[],[]]],\"lhs_ragged_dimensions\":[0],\"rhs_group_dimensions\":[0]},\"precision\":[\"DEFAULT\",\"DEFAULT\"],\"preferred_element_type\":\"bfloat16\",\"return_residuals\":false,\"activation\":null,\"manual_axis_type\":null,\"group_offset\":null,\"rhs_scale\":null,\"rhs_bias\":null,\"maybe_quantize_lhs\":false,\"zero_initialize\":true,\"fuse_gateup_activation\":null,\"lhs_quantization_dtype\":null,\"rhs_quantization_dtype\":null}": {},
  "{\"lhs\":\"bf16[131072,4096]\",\"rhs\":\"bf16[131072,1536]\",\"group_sizes\":{\"num_groups\":128,\"total_size\":131072},\"ragged_dot_dimension_numbers\":{\"dot_dimension_numbers\":[[[0],[0]],[[],[]]],\"lhs_ragged_dimensions\":[0],\"rhs_group_dimensions\":[]},\"precision\":[\"DEFAULT\",\"DEFAULT\"],\"preferred_element_type\":\"bfloat16\",\"return_residuals\":false,\"activation\":null,\"manual_axis_type\":null,\"group_offset\":null,\"rhs_scale\":null,\"rhs_bias\":null,\"maybe_quantize_lhs\":false,\"zero_initialize\":true,\"fuse_gateup_activation\":null,\"lhs_quantization_dtype\":null,\"rhs_quantization_dtype\":null}": {},
  "{\"lhs\":\"bf16[131072,4096]\",\"rhs\":\"bf16[128,1536,4096]\",\"group_sizes\":{\"num_groups\":128,\"total_size\":131072},\"ragged_dot_dimension_numbers\":{\"dot_dimension_numbers\":[[[1],[2]],[[],[]]],\"lhs_ragged_dimensions\":[0],\"rhs_group_dimensions\":[0]},\"precision\":[\"DEFAULT\",\"DEFAULT\"],\"preferred_element_type\":\"bfloat16\",\"return_residuals\":false,\"activation\":null,\"manual_axis_type\":null,\"group_offset\":null,\"rhs_scale\":null,\"rhs_bias\":null,\"maybe_quantize_lhs\":false,\"zero_initialize\":true,\"fuse_gateup_activation\":null,\"lhs_quantization_dtype\":null,\"rhs_quantization_dtype\":null}": {},
  "{\"lhs\":\"bf16[131072,1536]\",\"rhs\":\"bf16[131072,4096]\",\"group_sizes\":{\"num_groups\":128,\"total_size\":131072},\"ragged_dot_dimension_numbers\":{\"dot_dimension_numbers\":[[[0],[0]],[[],[]]],\"lhs_ragged_dimensions\":[0],\"rhs_group_dimensions\":[]},\"precision\":[\"DEFAULT\",\"DEFAULT\"],\"preferred_element_type\":\"bfloat16\",\"return_residuals\":false,\"activation\":null,\"manual_axis_type\":null,\"group_offset\":null,\"rhs_scale\":null,\"rhs_bias\":null,\"maybe_quantize_lhs\":false,\"zero_initialize\":true,\"fuse_gateup_activation\":null,\"lhs_quantization_dtype\":null,\"rhs_quantization_dtype\":null}": {},
  "{\"lhs\":\"bf16[131072,2048]\",\"rhs\":\"bf16[256,7168,2048]\",\"group_sizes\":{\"num_groups\":256,\"total_size\":131072},\"ragged_dot_dimension_numbers\":{\"dot_dimension_numbers\":[[[1],[2]],[[],[]]],\"lhs_ragged_dimensions\":[0],\"rhs_group_dimensions\":[0]},\"precision\":[\"DEFAULT\",\"DEFAULT\"],\"preferred_element_type\":\"bfloat16\",\"return_residuals\":false,\"activation\":null,\"manual_axis_type\":null,\"group_offset\":null,\"rhs_scale\":null,\"rhs_bias\":null,\"maybe_quantize_lhs\":false,\"zero_initialize\":true,\"fuse_gateup_activation\":null,\"lhs_quantization_dtype\":null,\"rhs_quantization_dtype\":null}": {},
  "{\"lhs\":\"bf16[131072,7168]\",\"rhs\":\"bf16[131072,2048]\",\"group_sizes\":{\"num_groups\":256,\"total_size\":131072},\"ragged_dot_dimension_numbers\":{\"dot_dimension_numbers\":[[[0],[0]],[[],[]]],\"lhs_ragged_dimensions\":[0],\"rhs_group_dimensions\":[]},\"precision\":[\"DEFAULT\",\"DEFAULT\"],\"preferred_element_type\":\"bfloat16\",\"return_residuals\":false,\"activation\":null,\"manual_axis_type\":null,\"group_offset\":null,\"rhs_scale\":null,\"rhs_bias\":null,\"maybe_quantize_lhs\":false,\"zero_initialize\":true,\"fuse_gateup_activation\":null,\"lhs_quantization_dtype\":null,\"rhs_quantization_dtype\":null}": {},
  "{\"lhs\":\"bf16[65536,2048]\",\"rhs\":\"bf16[256,7168,2048]\",\"group_sizes\":{\"num_groups\":256,\"total_size\":65536},\"ragged_dot_dimension_numbers\":{\"dot_dimension_numbers\":[[[1],[2]],[[],[]]],\"lhs_ragged_dimensions\":[0],\"rhs_group_dimensions\":[0]},\"precision\":[\"DEFAULT\",\"DEFAULT\"],\"preferred_element_type\":\"bfloat16\",\"return_residuals\":false,\"activation\":null,\"manual_axis_type\":null,\"group_offset\":null,\"rhs_scale\":null,\"rhs_bias\":null,\"maybe_quantize_lhs\":false,\"zero_initialize\":true,\"fuse_gateup_activation\":null,\"lhs_quantization_dtype\":null,\"rhs_quantization_dtype\":null}": {},
  "{\"lhs\":\"bf16[65536,7168]\",\"rhs\":\"bf16[65536,2048]\",\"group_sizes\":{\"num_groups\":256,\"total_size\":65536},\"ragged_dot_dimension_numbers\":{\"dot_dimension_numbers\":[[[0],[0]],[[],[]]],\"lhs_ragged_dimensions\":[0],\"rhs_group_dimensions\":[]},\"precision\":[\"DEFAULT\",\"DEFAULT\"],\"preferred_element_type\":\"bfloat16\",\"return_residuals\":false,\"activation\":null,\"manual_axis_type\":null,\"group_offset\":null,\"rhs_scale\":null,\"rhs_bias\":null,\"maybe_quantize_lhs\":false,\"zero_initialize\":true,\"fuse_gateup_activation\":null,\"lhs_quantization_dtype\":null,\"rhs_quantization_dtype\":null}": {},
  "{\"lhs\":\"bf16[262144,7168]\",\"rhs\":\"bf16[256,512,7168]\",\"group_sizes\":{\"num_groups\":256,\"total_size\":262144},\"ragged_dot_dimension_numbers\":{\"dot_dimension_numbers\":[[[1],[2]],[[],[]]],\"lhs_ragged_dimensions\":[0],\"rhs_group_dimensions\":[0]},\"precision\":[\"DEFAULT\",\"DEFAULT\"],\"preferred_element_type\":\"bfloat16\",\"return_residuals\":false,\"activation\":null,\"manual_axis_type\":null,\"group_offset\":null,\"rhs_scale\":null,\"rhs_bias\":null,\"maybe_quantize_lhs\":false,\"zero_initialize\":true,\"fuse_gateup_activation\":null,\"lhs_quantization_dtype\":null,\"rhs_quantization_dtype\":null}": {},
  "{\"lhs\":\"bf16[262144,512]\",\"rhs\":\"bf16[262144,7168]\",\"group_sizes\":{\"num_groups\":256,\"total_size\":262144},\"ragged_dot_dimension_numbers\":{\"dot_dimension_numbers\":[[[0],[0]],[[],[]]],\"lhs_ragged_dimensions\":[0],\"rhs_group_dimensions\":[]},\"precision\":[\"DEFAULT\",\"DEFAULT\"],\"preferred_element_type\":\"bfloat16\",\"return_residuals\":false,\"activation\":null,\"manual_axis_type\":null,\"group_offset\":null,\"rhs_scale\":null,\"rhs_bias\":null,\"maybe_quantize_lhs\":false,\"zero_initialize\":true,\"fuse_gateup_activation\":null,\"lhs_quantization_dtype\":null,\"rhs_quantization_dtype\":null}": {},
  "{\"lhs\":\"bf16[4096,4096]\",\"rhs\":\"bf16[8,4096,4096]\",\"group_sizes\":[4096,0,0,0,0,0,0,0],\"ragged_dot_dimension_numbers\":{\"dot_dimension_numbers\":[[[1],[2]],[[],[]]],\"lhs_ragged_dimensions\":[0],\"rhs_group_dimensions\":[0]},\"precision\":[\"DEFAULT\",\"DEFAULT\"],\"preferred_element_type\":\"bfloat16\",\"return_residuals\":false,\"activation\":null,\"manual_axis_type\":null,\"group_offset\":null,\"rhs_scale\":null,\"rhs_bias\":null,\"maybe_quantize_lhs\":false,\"zero_initialize\":true,\"fuse_gateup_activation\":null,\"lhs_quantization_dtype\":null,\"rhs_quantization_dtype\":null}": {
    "{}": {
      "compile_time_ms": 978.0624240001998,
      "lower_time_ms": 7.407448999401822,
      "evaluation_times_ms": [
        1.5288220000000001,
        1.533877,
        1.538421,
        1.533205,
        1.532373
      ],
      "metadata": {},
      "peak_memory_mb": 939.524128
    }
  },
  "{\"lhs\":\"bf16[4096,4096]\",\"rhs\":\"bf16[4096,4096]\",\"group_sizes\":[4096,0,0,0,0,0,0,0],\"ragged_dot_dimension_numbers\":{\"dot_dimension_numbers\":[[[0],[0]],[[],[]]],\"lhs_ragged_dimensions\":[0],\"rhs_group_dimensions\":[]},\"precision\":[\"DEFAULT\",\"DEFAULT\"],\"preferred_element_type\":\"bfloat16\",\"return_residuals\":false,\"activation\":null,\"manual_axis_type\":null,\"group_offset\":null,\"rhs_scale\":null,\"rhs_bias\":null,\"maybe_quantize_lhs\":false,\"zero_initialize\":true,\"fuse_gateup_activation\":null,\"lhs_quantization_dtype\":null,\"rhs_quantization_dtype\":null}": {
    "{}": {
      "compile_time_ms": 727.8731859996697,
      "lower_time_ms": 7.052023999676749,
      "evaluation_times_ms": [
        1.7952199999999998,
        1.7877960000000002,
        1.76882,
        1.781428,
        1.7915400000000001
      ],
      "metadata": {},
      "peak_memory_mb": 872.415296
    }
  }
}
