{
  "{\"x\":\"bf16[384,384,64]\",\"mask\":\"bool[384,384]\",\"projection_in_weights\":\"bf16[64,2,64]\",\"gate_in_weights\":\"bf16[64,2,64]\",\"projection_out_weights\":\"bf16[64,64]\",\"gate_out_weights\":\"bf16[64,64]\",\"layernorm_in_scale\":\"bf16[64]\",\"layernorm_in_offset\":\"bf16[64]\",\"layernorm_out_scale\":\"bf16[64]\",\"layernorm_out_offset\":\"bf16[64]\",\"triangle_type\":\"outgoing\",\"precision\":[\"DEFAULT\",\"DEFAULT\"],\"epsilon\":1e-6,\"return_residuals\":false}": {
    "{}": {
      "compile_time_ms": 998.2763980005984,
      "lower_time_ms": 46.183262999875296,
      "evaluation_times_ms": [
        0.221536,
        0.219009,
        0.221824,
        0.220641,
        0.219392
      ],
      "metadata": {},
      "peak_memory_mb": 203.620864
    }
  },
  "{\"x\":\"bf16[384,384,64]\",\"mask\":\"bool[384,384]\",\"projection_in_weights\":\"bf16[64,2,64]\",\"gate_in_weights\":\"bf16[64,2,64]\",\"projection_out_weights\":\"bf16[64,64]\",\"gate_out_weights\":\"bf16[64,64]\",\"layernorm_in_scale\":\"bf16[64]\",\"layernorm_in_offset\":\"bf16[64]\",\"layernorm_out_scale\":\"bf16[64]\",\"layernorm_out_offset\":\"bf16[64]\",\"triangle_type\":\"outgoing\",\"precision\":[\"DEFAULT\",\"DEFAULT\"],\"epsilon\":1e-6,\"return_residuals\":true}": {
    "{}": {
      "compile_time_ms": 666.9280170003731,
      "lower_time_ms": 42.746195000290754,
      "evaluation_times_ms": [
        0.220927,
        0.217535,
        0.220382,
        0.220255,
        0.22019
      ],
      "metadata": {},
      "peak_memory_mb": 203.620864
    }
  },
  "{\"x\":\"bf16[384,384,64]\",\"mask\":\"bool[384,384]\",\"projection_in_weights\":\"bf16[64,2,64]\",\"gate_in_weights\":\"bf16[64,2,64]\",\"projection_out_weights\":\"bf16[64,64]\",\"gate_out_weights\":\"bf16[64,64]\",\"layernorm_in_scale\":\"bf16[64]\",\"layernorm_in_offset\":\"bf16[64]\",\"layernorm_out_scale\":\"bf16[64]\",\"layernorm_out_offset\":\"bf16[64]\",\"triangle_type\":\"incoming\",\"precision\":[\"DEFAULT\",\"DEFAULT\"],\"epsilon\":1e-6,\"return_residuals\":false}": {
    "{}": {
      "compile_time_ms": 1152.2947630001,
      "lower_time_ms": 41.52841700033605,
      "evaluation_times_ms": [
        0.206816,
        0.205537,
        0.206208,
        0.206208,
        0.206752
      ],
      "metadata": {},
      "peak_memory_mb": 203.620864
    }
  },
  "{\"x\":\"bf16[384,384,64]\",\"mask\":\"bool[384,384]\",\"projection_in_weights\":\"bf16[64,2,64]\",\"gate_in_weights\":\"bf16[64,2,64]\",\"projection_out_weights\":\"bf16[64,64]\",\"gate_out_weights\":\"bf16[64,64]\",\"layernorm_in_scale\":\"bf16[64]\",\"layernorm_in_offset\":\"bf16[64]\",\"layernorm_out_scale\":\"bf16[64]\",\"layernorm_out_offset\":\"bf16[64]\",\"triangle_type\":\"incoming\",\"precision\":[\"DEFAULT\",\"DEFAULT\"],\"epsilon\":1e-6,\"return_residuals\":true}": {
    "{}": {
      "compile_time_ms": 266.64755399997375,
      "lower_time_ms": 23.018374999992375,
      "evaluation_times_ms": [
        0.203872,
        0.205761,
        0.205344,
        0.20569600000000002,
        0.205312
      ],
      "metadata": {},
      "peak_memory_mb": 203.620864
    }
  },
  "{\"x\":\"bf16[640,640,64]\",\"mask\":\"bool[640,640]\",\"projection_in_weights\":\"bf16[64,2,64]\",\"gate_in_weights\":\"bf16[64,2,64]\",\"projection_out_weights\":\"bf16[64,64]\",\"gate_out_weights\":\"bf16[64,64]\",\"layernorm_in_scale\":\"bf16[64]\",\"layernorm_in_offset\":\"bf16[64]\",\"layernorm_out_scale\":\"bf16[64]\",\"layernorm_out_offset\":\"bf16[64]\",\"triangle_type\":\"outgoing\",\"precision\":[\"DEFAULT\",\"DEFAULT\"],\"epsilon\":1e-6,\"return_residuals\":false}": {
    "{}": {
      "compile_time_ms": 591.5829699952155,
      "lower_time_ms": 43.789988034404814,
      "evaluation_times_ms": [
        0.6062339999999999,
        0.606714,
        0.604953,
        0.605402,
        0.607417
      ],
      "metadata": {},
      "peak_memory_mb": 419.889664
    }
  },
  "{\"x\":\"bf16[640,640,64]\",\"mask\":\"bool[640,640]\",\"projection_in_weights\":\"bf16[64,2,64]\",\"gate_in_weights\":\"bf16[64,2,64]\",\"projection_out_weights\":\"bf16[64,64]\",\"gate_out_weights\":\"bf16[64,64]\",\"layernorm_in_scale\":\"bf16[64]\",\"layernorm_in_offset\":\"bf16[64]\",\"layernorm_out_scale\":\"bf16[64]\",\"layernorm_out_offset\":\"bf16[64]\",\"triangle_type\":\"outgoing\",\"precision\":[\"DEFAULT\",\"DEFAULT\"],\"epsilon\":1e-6,\"return_residuals\":true}": {
    "{}": {
      "compile_time_ms": 110.48742401180789,
      "lower_time_ms": 22.688773984555155,
      "evaluation_times_ms": [
        0.607577,
        0.606106,
        0.604121,
        0.603577,
        0.609722
      ],
      "metadata": {},
      "peak_memory_mb": 419.889664
    }
  },
  "{\"x\":\"bf16[640,640,64]\",\"mask\":\"bool[640,640]\",\"projection_in_weights\":\"bf16[64,2,64]\",\"gate_in_weights\":\"bf16[64,2,64]\",\"projection_out_weights\":\"bf16[64,64]\",\"gate_out_weights\":\"bf16[64,64]\",\"layernorm_in_scale\":\"bf16[64]\",\"layernorm_in_offset\":\"bf16[64]\",\"layernorm_out_scale\":\"bf16[64]\",\"layernorm_out_offset\":\"bf16[64]\",\"triangle_type\":\"incoming\",\"precision\":[\"DEFAULT\",\"DEFAULT\"],\"epsilon\":1e-6,\"return_residuals\":false}": {
    "{}": {
      "compile_time_ms": 974.1641689997778,
      "lower_time_ms": 45.46450999987428,
      "evaluation_times_ms": [
        0.549113,
        0.549593,
        0.5487299999999999,
        0.549242,
        0.548633
      ],
      "metadata": {},
      "peak_memory_mb": 419.889664
    }
  },
  "{\"x\":\"bf16[640,640,64]\",\"mask\":\"bool[640,640]\",\"projection_in_weights\":\"bf16[64,2,64]\",\"gate_in_weights\":\"bf16[64,2,64]\",\"projection_out_weights\":\"bf16[64,64]\",\"gate_out_weights\":\"bf16[64,64]\",\"layernorm_in_scale\":\"bf16[64]\",\"layernorm_in_offset\":\"bf16[64]\",\"layernorm_out_scale\":\"bf16[64]\",\"layernorm_out_offset\":\"bf16[64]\",\"triangle_type\":\"incoming\",\"precision\":[\"DEFAULT\",\"DEFAULT\"],\"epsilon\":1e-6,\"return_residuals\":true}": {
    "{}": {
      "compile_time_ms": 276.92164499967475,
      "lower_time_ms": 24.056432000179484,
      "evaluation_times_ms": [
        0.549113,
        0.549113,
        0.550169,
        0.549369,
        0.548985
      ],
      "metadata": {},
      "peak_memory_mb": 419.889664
    }
  },
  "{\"x\":\"bf16[1024,1024,64]\",\"mask\":\"bool[1024,1024]\",\"projection_in_weights\":\"bf16[64,2,64]\",\"gate_in_weights\":\"bf16[64,2,64]\",\"projection_out_weights\":\"bf16[64,64]\",\"gate_out_weights\":\"bf16[64,64]\",\"layernorm_in_scale\":\"bf16[64]\",\"layernorm_in_offset\":\"bf16[64]\",\"layernorm_out_scale\":\"bf16[64]\",\"layernorm_out_offset\":\"bf16[64]\",\"triangle_type\":\"outgoing\",\"precision\":[\"DEFAULT\",\"DEFAULT\"],\"epsilon\":1e-6,\"return_residuals\":false}": {
    "{}": {
      "compile_time_ms": 1066.2546969997493,
      "lower_time_ms": 44.43271099989943,
      "evaluation_times_ms": [
        1.515411,
        1.513395,
        1.513364,
        1.512276,
        1.515315
      ],
      "metadata": {},
      "peak_memory_mb": 1074.840064
    }
  },
  "{\"x\":\"bf16[1024,1024,64]\",\"mask\":\"bool[1024,1024]\",\"projection_in_weights\":\"bf16[64,2,64]\",\"gate_in_weights\":\"bf16[64,2,64]\",\"projection_out_weights\":\"bf16[64,64]\",\"gate_out_weights\":\"bf16[64,64]\",\"layernorm_in_scale\":\"bf16[64]\",\"layernorm_in_offset\":\"bf16[64]\",\"layernorm_out_scale\":\"bf16[64]\",\"layernorm_out_offset\":\"bf16[64]\",\"triangle_type\":\"outgoing\",\"precision\":[\"DEFAULT\",\"DEFAULT\"],\"epsilon\":1e-6,\"return_residuals\":true}": {
    "{}": {
      "compile_time_ms": 223.90079999968293,
      "lower_time_ms": 23.640050999347295,
      "evaluation_times_ms": [
        1.518163,
        1.517331,
        1.515187,
        1.515923,
        1.514515
      ],
      "metadata": {},
      "peak_memory_mb": 1074.840064
    }
  },
  "{\"x\":\"bf16[1024,1024,64]\",\"mask\":\"bool[1024,1024]\",\"projection_in_weights\":\"bf16[64,2,64]\",\"gate_in_weights\":\"bf16[64,2,64]\",\"projection_out_weights\":\"bf16[64,64]\",\"gate_out_weights\":\"bf16[64,64]\",\"layernorm_in_scale\":\"bf16[64]\",\"layernorm_in_offset\":\"bf16[64]\",\"layernorm_out_scale\":\"bf16[64]\",\"layernorm_out_offset\":\"bf16[64]\",\"triangle_type\":\"incoming\",\"precision\":[\"DEFAULT\",\"DEFAULT\"],\"epsilon\":1e-6,\"return_residuals\":false}": {
    "{}": {
      "compile_time_ms": 1024.57913197577,
      "lower_time_ms": 44.75822497624904,
      "evaluation_times_ms": [
        1.393177,
        1.403673,
        1.399992,
        1.399962,
        1.399224
      ],
      "metadata": {},
      "peak_memory_mb": 1074.840064
    }
  },
  "{\"x\":\"bf16[1024,1024,64]\",\"mask\":\"bool[1024,1024]\",\"projection_in_weights\":\"bf16[64,2,64]\",\"gate_in_weights\":\"bf16[64,2,64]\",\"projection_out_weights\":\"bf16[64,64]\",\"gate_out_weights\":\"bf16[64,64]\",\"layernorm_in_scale\":\"bf16[64]\",\"layernorm_in_offset\":\"bf16[64]\",\"layernorm_out_scale\":\"bf16[64]\",\"layernorm_out_offset\":\"bf16[64]\",\"triangle_type\":\"incoming\",\"precision\":[\"DEFAULT\",\"DEFAULT\"],\"epsilon\":1e-6,\"return_residuals\":true}": {
    "{}": {
      "compile_time_ms": 350.7818109355867,
      "lower_time_ms": 23.40875007212162,
      "evaluation_times_ms": [
        1.400569,
        1.402105,
        1.396731,
        1.401529,
        1.403481
      ],
      "metadata": {},
      "peak_memory_mb": 1074.840064
    }
  },
  "{\"x\":\"bf16[2048,2048,64]\",\"mask\":\"bool[2048,2048]\",\"projection_in_weights\":\"bf16[64,2,64]\",\"gate_in_weights\":\"bf16[64,2,64]\",\"projection_out_weights\":\"bf16[64,64]\",\"gate_out_weights\":\"bf16[64,64]\",\"layernorm_in_scale\":\"bf16[64]\",\"layernorm_in_offset\":\"bf16[64]\",\"layernorm_out_scale\":\"bf16[64]\",\"layernorm_out_offset\":\"bf16[64]\",\"triangle_type\":\"outgoing\",\"precision\":[\"DEFAULT\",\"DEFAULT\"],\"epsilon\":1e-6,\"return_residuals\":false}": {
    "{}": {
      "compile_time_ms": 784.6092079998925,
      "lower_time_ms": 42.76526707690209,
      "evaluation_times_ms": [
        6.576479,
        6.597374,
        6.576191,
        6.567071,
        6.557727
      ],
      "metadata": {},
      "peak_memory_mb": 4299.211264
    }
  },
  "{\"x\":\"bf16[2048,2048,64]\",\"mask\":\"bool[2048,2048]\",\"projection_in_weights\":\"bf16[64,2,64]\",\"gate_in_weights\":\"bf16[64,2,64]\",\"projection_out_weights\":\"bf16[64,64]\",\"gate_out_weights\":\"bf16[64,64]\",\"layernorm_in_scale\":\"bf16[64]\",\"layernorm_in_offset\":\"bf16[64]\",\"layernorm_out_scale\":\"bf16[64]\",\"layernorm_out_offset\":\"bf16[64]\",\"triangle_type\":\"outgoing\",\"precision\":[\"DEFAULT\",\"DEFAULT\"],\"epsilon\":1e-6,\"return_residuals\":true}": {
    "{}": {
      "compile_time_ms": 203.7099729059264,
      "lower_time_ms": 22.984661045484245,
      "evaluation_times_ms": [
        6.586076,
        6.558909,
        6.564028,
        6.577853,
        6.5710370000000005
      ],
      "metadata": {},
      "peak_memory_mb": 4299.211264
    }
  },
  "{\"x\":\"bf16[2048,2048,64]\",\"mask\":\"bool[2048,2048]\",\"projection_in_weights\":\"bf16[64,2,64]\",\"gate_in_weights\":\"bf16[64,2,64]\",\"projection_out_weights\":\"bf16[64,64]\",\"gate_out_weights\":\"bf16[64,64]\",\"layernorm_in_scale\":\"bf16[64]\",\"layernorm_in_offset\":\"bf16[64]\",\"layernorm_out_scale\":\"bf16[64]\",\"layernorm_out_offset\":\"bf16[64]\",\"triangle_type\":\"incoming\",\"precision\":[\"DEFAULT\",\"DEFAULT\"],\"epsilon\":1e-6,\"return_residuals\":false}": {
    "{}": {
      "compile_time_ms": 1172.59763400034,
      "lower_time_ms": 571.4184580010624,
      "evaluation_times_ms": [
        6.7102580000000005,
        6.711378,
        6.7093940000000005,
        6.712915,
        6.70901
      ],
      "metadata": {},
      "peak_memory_mb": 4299.211264
    }
  },
  "{\"x\":\"bf16[2048,2048,64]\",\"mask\":\"bool[2048,2048]\",\"projection_in_weights\":\"bf16[64,2,64]\",\"gate_in_weights\":\"bf16[64,2,64]\",\"projection_out_weights\":\"bf16[64,64]\",\"gate_out_weights\":\"bf16[64,64]\",\"layernorm_in_scale\":\"bf16[64]\",\"layernorm_in_offset\":\"bf16[64]\",\"layernorm_out_scale\":\"bf16[64]\",\"layernorm_out_offset\":\"bf16[64]\",\"triangle_type\":\"incoming\",\"precision\":[\"DEFAULT\",\"DEFAULT\"],\"epsilon\":1e-6,\"return_residuals\":true}": {
    "{}": {
      "compile_time_ms": 362.5599520000833,
      "lower_time_ms": 23.65867799926491,
      "evaluation_times_ms": [
        6.709106,
        6.713202,
        6.713618,
        6.7127859999999995,
        6.711698
      ],
      "metadata": {},
      "peak_memory_mb": 4299.211264
    }
  }
}
