{
  "{\"residuals\":[\"f32[32,32,4096]\",\"f32[32,32,4096]\"],\"out\":\"bf16[32,4096,32,128]\",\"dout\":\"bf16[32,4096,32,128]\",\"q\":\"bf16[32,4096,32,128]\",\"k\":\"bf16[32,4096,8,128]\",\"v\":\"bf16[32,4096,8,128]\",\"precision\":[[\"DEFAULT\",\"DEFAULT\"],[\"DEFAULT\",\"DEFAULT\"]],\"logits_dtype\":\"float32\",\"logits_scale\":0.08838834764831843,\"bias\":null,\"logits_soft_cap\":null,\"mask\":{\"bool_mask\":null,\"q_start\":null,\"q_end\":null,\"k_start\":null,\"k_end\":null,\"is_causal\":true},\"dropout_mask\":null,\"dropout_rate\":0.0,\"paging_info\":null,\"q_indices\":null,\"k_indices\":null,\"normalize_output\":true,\"return_residuals\":false}": {},
  "{\"residuals\":[\"f32[512,16,1024]\",\"f32[512,16,1024]\"],\"out\":\"bf16[512,1024,16,128]\",\"dout\":\"bf16[512,1024,16,128]\",\"q\":\"bf16[512,1024,16,192]\",\"k\":\"bf16[512,1024,16,192]\",\"v\":\"bf16[512,1024,16,128]\",\"precision\":[[\"DEFAULT\",\"DEFAULT\"],[\"DEFAULT\",\"DEFAULT\"]],\"logits_dtype\":\"float32\",\"logits_scale\":0.07216878364870323,\"bias\":null,\"logits_soft_cap\":null,\"mask\":{\"bool_mask\":null,\"q_start\":null,\"q_end\":null,\"k_start\":null,\"k_end\":null,\"is_causal\":true},\"dropout_mask\":null,\"dropout_rate\":0.0,\"paging_info\":null,\"q_indices\":null,\"k_indices\":null,\"normalize_output\":true,\"return_residuals\":false}": {},
  "{\"residuals\":[\"f32[384,4,384]\",\"f32[384,4,384]\"],\"out\":\"bf16[384,384,4,32]\",\"dout\":\"bf16[384,384,4,32]\",\"q\":\"bf16[384,384,4,32]\",\"k\":\"bf16[384,384,4,32]\",\"v\":\"bf16[384,384,4,32]\",\"precision\":[[\"DEFAULT\",\"DEFAULT\"],[\"DEFAULT\",\"DEFAULT\"]],\"logits_dtype\":\"float32\",\"logits_scale\":0.17677669529663687,\"bias\":\"bf16[1,4,384,384]\",\"logits_soft_cap\":null,\"mask\":{\"bool_mask\":\"bool[384,1,1,384]\",\"q_start\":null,\"q_end\":null,\"k_start\":null,\"k_end\":null,\"is_causal\":false},\"dropout_mask\":null,\"dropout_rate\":0.0,\"paging_info\":null,\"q_indices\":null,\"k_indices\":null,\"normalize_output\":true,\"return_residuals\":false}": {
    "{}": {
      "compile_time_ms": 1369.944635000138,
      "lower_time_ms": 38.59657399880234,
      "evaluation_times_ms": [
        3.205,
        3.202,
        3.202,
        3.204,
        3.203
      ],
      "metadata": {},
      "peak_memory_mb": 3031.990304
    }
  },
  "{\"residuals\":[\"f32[384,4,384]\",\"f32[384,4,384]\"],\"out\":\"bf16[384,384,4,64]\",\"dout\":\"bf16[384,384,4,64]\",\"q\":\"bf16[384,384,4,64]\",\"k\":\"bf16[384,384,4,64]\",\"v\":\"bf16[384,384,4,64]\",\"precision\":[[\"DEFAULT\",\"DEFAULT\"],[\"DEFAULT\",\"DEFAULT\"]],\"logits_dtype\":\"float32\",\"logits_scale\":0.125,\"bias\":\"bf16[1,4,384,384]\",\"logits_soft_cap\":null,\"mask\":{\"bool_mask\":\"bool[384,1,1,384]\",\"q_start\":null,\"q_end\":null,\"k_start\":null,\"k_end\":null,\"is_causal\":false},\"dropout_mask\":null,\"dropout_rate\":0.0,\"paging_info\":null,\"q_indices\":null,\"k_indices\":null,\"normalize_output\":true,\"return_residuals\":false}": {
    "{}": {
      "compile_time_ms": 1262.6138319974416,
      "lower_time_ms": 29.327093994652387,
      "evaluation_times_ms": [
        3.437,
        3.439,
        3.425,
        3.438,
        3.432
      ],
      "metadata": {},
      "peak_memory_mb": 3333.980192
    }
  },
  "{\"residuals\":[\"f32[768,4,768]\",\"f32[768,4,768]\"],\"out\":\"bf16[768,768,4,64]\",\"dout\":\"bf16[768,768,4,64]\",\"q\":\"bf16[768,768,4,64]\",\"k\":\"bf16[768,768,4,64]\",\"v\":\"bf16[768,768,4,64]\",\"precision\":[[\"DEFAULT\",\"DEFAULT\"],[\"DEFAULT\",\"DEFAULT\"]],\"logits_dtype\":\"float32\",\"logits_scale\":0.125,\"bias\":\"bf16[1,4,768,768]\",\"logits_soft_cap\":null,\"mask\":{\"bool_mask\":\"bool[768,1,1,768]\",\"q_start\":null,\"q_end\":null,\"k_start\":null,\"k_end\":null,\"is_causal\":false},\"dropout_mask\":null,\"dropout_rate\":0.0,\"paging_info\":null,\"q_indices\":null,\"k_indices\":null,\"normalize_output\":true,\"return_residuals\":false}": {
    "{}": {
      "compile_time_ms": 1899.8474290056038,
      "lower_time_ms": 40.436859999317676,
      "evaluation_times_ms": [
        27.651,
        27.61,
        27.706,
        27.71,
        27.65
      ],
      "metadata": {},
      "peak_memory_mb": 24216.993824
    }
  },
  "{\"residuals\":[\"f32[32,32,512]\",\"f32[32,32,512]\"],\"out\":\"bf16[32,512,32,64]\",\"dout\":\"bf16[32,512,32,64]\",\"q\":\"bf16[32,512,32,64]\",\"k\":\"bf16[32,512,32,64]\",\"v\":\"bf16[32,512,32,64]\",\"precision\":[[\"DEFAULT\",\"DEFAULT\"],[\"DEFAULT\",\"DEFAULT\"]],\"logits_dtype\":\"float32\",\"logits_scale\":0.125,\"bias\":null,\"logits_soft_cap\":null,\"mask\":{\"bool_mask\":null,\"q_start\":null,\"q_end\":null,\"k_start\":null,\"k_end\":null,\"is_causal\":true},\"dropout_mask\":null,\"dropout_rate\":0.0,\"paging_info\":null,\"q_indices\":null,\"k_indices\":null,\"normalize_output\":true,\"return_residuals\":false}": {
    "{}": {
      "compile_time_ms": 1000.2535230014473,
      "lower_time_ms": 39.87774299457669,
      "evaluation_times_ms": [
        3.447,
        3.44,
        3.448,
        3.444,
        3.443
      ],
      "metadata": {},
      "peak_memory_mb": 2688.548896
    }
  },
  "{\"residuals\":[\"f32[32,32,512]\",\"f32[32,32,512]\"],\"out\":\"f16[32,512,32,64]\",\"dout\":\"f16[32,512,32,64]\",\"q\":\"f16[32,512,32,64]\",\"k\":\"f16[32,512,32,64]\",\"v\":\"f16[32,512,32,64]\",\"precision\":[[\"DEFAULT\",\"DEFAULT\"],[\"DEFAULT\",\"DEFAULT\"]],\"logits_dtype\":\"float32\",\"logits_scale\":0.125,\"bias\":null,\"logits_soft_cap\":null,\"mask\":{\"bool_mask\":null,\"q_start\":null,\"q_end\":null,\"k_start\":null,\"k_end\":null,\"is_causal\":true},\"dropout_mask\":null,\"dropout_rate\":0.0,\"paging_info\":null,\"q_indices\":null,\"k_indices\":null,\"normalize_output\":true,\"return_residuals\":false}": {
    "{}": {
      "compile_time_ms": 1059.3341310159303,
      "lower_time_ms": 54.682853049598634,
      "evaluation_times_ms": [
        3.453,
        3.465,
        3.464,
        3.453,
        3.456
      ],
      "metadata": {},
      "peak_memory_mb": 2688.548896
    }
  },
  "{\"residuals\":[\"f32[32,32,512]\",\"f32[32,32,512]\"],\"out\":\"bf16[32,512,32,64]\",\"dout\":\"bf16[32,512,32,64]\",\"q\":\"bf16[32,512,32,64]\",\"k\":\"bf16[32,512,32,64]\",\"v\":\"bf16[32,512,32,64]\",\"precision\":[[\"DEFAULT\",\"DEFAULT\"],[\"DEFAULT\",\"DEFAULT\"]],\"logits_dtype\":\"float32\",\"logits_scale\":0.125,\"bias\":null,\"logits_soft_cap\":null,\"mask\":{\"bool_mask\":null,\"q_start\":null,\"q_end\":null,\"k_start\":null,\"k_end\":null,\"is_causal\":false},\"dropout_mask\":null,\"dropout_rate\":0.0,\"paging_info\":null,\"q_indices\":null,\"k_indices\":null,\"normalize_output\":true,\"return_residuals\":false}": {
    "{}": {
      "compile_time_ms": 822.5225480273366,
      "lower_time_ms": 26.06279298197478,
      "evaluation_times_ms": [
        3.205,
        3.199,
        3.199,
        3.203,
        3.206
      ],
      "metadata": {},
      "peak_memory_mb": 2688.548896
    }
  },
  "{\"residuals\":[\"f32[32,32,512]\",\"f32[32,32,512]\"],\"out\":\"f16[32,512,32,64]\",\"dout\":\"f16[32,512,32,64]\",\"q\":\"f16[32,512,32,64]\",\"k\":\"f16[32,512,32,64]\",\"v\":\"f16[32,512,32,64]\",\"precision\":[[\"DEFAULT\",\"DEFAULT\"],[\"DEFAULT\",\"DEFAULT\"]],\"logits_dtype\":\"float32\",\"logits_scale\":0.125,\"bias\":null,\"logits_soft_cap\":null,\"mask\":{\"bool_mask\":null,\"q_start\":null,\"q_end\":null,\"k_start\":null,\"k_end\":null,\"is_causal\":false},\"dropout_mask\":null,\"dropout_rate\":0.0,\"paging_info\":null,\"q_indices\":null,\"k_indices\":null,\"normalize_output\":true,\"return_residuals\":false}": {
    "{}": {
      "compile_time_ms": 825.9564840118401,
      "lower_time_ms": 22.56590302567929,
      "evaluation_times_ms": [
        3.23,
        3.231,
        3.229,
        3.233,
        3.231
      ],
      "metadata": {},
      "peak_memory_mb": 2688.548896
    }
  },
  "{\"residuals\":[\"f32[32,16,512]\",\"f32[32,16,512]\"],\"out\":\"bf16[32,512,16,128]\",\"dout\":\"bf16[32,512,16,128]\",\"q\":\"bf16[32,512,16,128]\",\"k\":\"bf16[32,512,16,128]\",\"v\":\"bf16[32,512,16,128]\",\"precision\":[[\"DEFAULT\",\"DEFAULT\"],[\"DEFAULT\",\"DEFAULT\"]],\"logits_dtype\":\"float32\",\"logits_scale\":0.08838834764831843,\"bias\":null,\"logits_soft_cap\":null,\"mask\":{\"bool_mask\":null,\"q_start\":null,\"q_end\":null,\"k_start\":null,\"k_end\":null,\"is_causal\":true},\"dropout_mask\":null,\"dropout_rate\":0.0,\"paging_info\":null,\"q_indices\":null,\"k_indices\":null,\"normalize_output\":true,\"return_residuals\":false}": {
    "{}": {
      "compile_time_ms": 1363.9912140206434,
      "lower_time_ms": 37.64813399175182,
      "evaluation_times_ms": [
        2.039,
        2.036,
        2.04,
        2.038,
        2.034
      ],
      "metadata": {},
      "peak_memory_mb": 1814.036512
    }
  },
  "{\"residuals\":[\"f32[32,16,512]\",\"f32[32,16,512]\"],\"out\":\"f16[32,512,16,128]\",\"dout\":\"f16[32,512,16,128]\",\"q\":\"f16[32,512,16,128]\",\"k\":\"f16[32,512,16,128]\",\"v\":\"f16[32,512,16,128]\",\"precision\":[[\"DEFAULT\",\"DEFAULT\"],[\"DEFAULT\",\"DEFAULT\"]],\"logits_dtype\":\"float32\",\"logits_scale\":0.08838834764831843,\"bias\":null,\"logits_soft_cap\":null,\"mask\":{\"bool_mask\":null,\"q_start\":null,\"q_end\":null,\"k_start\":null,\"k_end\":null,\"is_causal\":true},\"dropout_mask\":null,\"dropout_rate\":0.0,\"paging_info\":null,\"q_indices\":null,\"k_indices\":null,\"normalize_output\":true,\"return_residuals\":false}": {
    "{}": {
      "compile_time_ms": 1360.088356945198,
      "lower_time_ms": 29.062304995022714,
      "evaluation_times_ms": [
        2.205,
        2.198,
        2.192,
        2.201,
        2.197
      ],
      "metadata": {},
      "peak_memory_mb": 1814.036512
    }
  },
  "{\"residuals\":[\"f32[32,16,512]\",\"f32[32,16,512]\"],\"out\":\"bf16[32,512,16,128]\",\"dout\":\"bf16[32,512,16,128]\",\"q\":\"bf16[32,512,16,128]\",\"k\":\"bf16[32,512,16,128]\",\"v\":\"bf16[32,512,16,128]\",\"precision\":[[\"DEFAULT\",\"DEFAULT\"],[\"DEFAULT\",\"DEFAULT\"]],\"logits_dtype\":\"float32\",\"logits_scale\":0.08838834764831843,\"bias\":null,\"logits_soft_cap\":null,\"mask\":{\"bool_mask\":null,\"q_start\":null,\"q_end\":null,\"k_start\":null,\"k_end\":null,\"is_causal\":false},\"dropout_mask\":null,\"dropout_rate\":0.0,\"paging_info\":null,\"q_indices\":null,\"k_indices\":null,\"normalize_output\":true,\"return_residuals\":false}": {
    "{}": {
      "compile_time_ms": 1159.8616010160185,
      "lower_time_ms": 23.786707024555653,
      "evaluation_times_ms": [
        1.972,
        1.97,
        1.972,
        1.968,
        1.97
      ],
      "metadata": {},
      "peak_memory_mb": 1814.036512
    }
  },
  "{\"residuals\":[\"f32[2,16,8192]\",\"f32[2,16,8192]\"],\"out\":\"f16[2,8192,16,128]\",\"dout\":\"f16[2,8192,16,128]\",\"q\":\"f16[2,8192,16,128]\",\"k\":\"f16[2,8192,16,128]\",\"v\":\"f16[2,8192,16,128]\",\"precision\":[[\"DEFAULT\",\"DEFAULT\"],[\"DEFAULT\",\"DEFAULT\"]],\"logits_dtype\":\"float32\",\"logits_scale\":0.08838834764831843,\"bias\":null,\"logits_soft_cap\":null,\"mask\":{\"bool_mask\":null,\"q_start\":null,\"q_end\":null,\"k_start\":null,\"k_end\":null,\"is_causal\":false},\"dropout_mask\":null,\"dropout_rate\":0.0,\"paging_info\":null,\"q_indices\":null,\"k_indices\":null,\"normalize_output\":true,\"return_residuals\":false}": {
    "{}": {
      "compile_time_ms": 1557.610617019236,
      "lower_time_ms": 42.92411892674863,
      "evaluation_times_ms": [
        24.915,
        24.918,
        24.915,
        24.911,
        24.931
      ],
      "metadata": {},
      "peak_memory_mb": 17920.163872
    }
  },
  "{\"residuals\":[\"f32[2,8,8192]\",\"f32[2,8,8192]\"],\"out\":\"bf16[2,8192,8,256]\",\"dout\":\"bf16[2,8192,8,256]\",\"q\":\"bf16[2,8192,8,256]\",\"k\":\"bf16[2,8192,8,256]\",\"v\":\"bf16[2,8192,8,256]\",\"precision\":[[\"DEFAULT\",\"DEFAULT\"],[\"DEFAULT\",\"DEFAULT\"]],\"logits_dtype\":\"float32\",\"logits_scale\":0.0625,\"bias\":null,\"logits_soft_cap\":null,\"mask\":{\"bool_mask\":null,\"q_start\":null,\"q_end\":null,\"k_start\":null,\"k_end\":null,\"is_causal\":true},\"dropout_mask\":null,\"dropout_rate\":0.0,\"paging_info\":null,\"q_indices\":null,\"k_indices\":null,\"normalize_output\":true,\"return_residuals\":false}": {
    "{}": {
      "compile_time_ms": 2442.1452071983367,
      "lower_time_ms": 43.43469790183008,
      "evaluation_times_ms": [
        15.149,
        15.149,
        15.143,
        15.136,
        15.152
      ],
      "metadata": {},
      "peak_memory_mb": 9329.180704
    }
  },
  "{\"residuals\":[\"f32[2,8,8192]\",\"f32[2,8,8192]\"],\"out\":\"f16[2,8192,8,256]\",\"dout\":\"f16[2,8192,8,256]\",\"q\":\"f16[2,8192,8,256]\",\"k\":\"f16[2,8192,8,256]\",\"v\":\"f16[2,8192,8,256]\",\"precision\":[[\"DEFAULT\",\"DEFAULT\"],[\"DEFAULT\",\"DEFAULT\"]],\"logits_dtype\":\"float32\",\"logits_scale\":0.0625,\"bias\":null,\"logits_soft_cap\":null,\"mask\":{\"bool_mask\":null,\"q_start\":null,\"q_end\":null,\"k_start\":null,\"k_end\":null,\"is_causal\":true},\"dropout_mask\":null,\"dropout_rate\":0.0,\"paging_info\":null,\"q_indices\":null,\"k_indices\":null,\"normalize_output\":true,\"return_residuals\":false}": {
    "{}": {
      "compile_time_ms": 2333.1389711238444,
      "lower_time_ms": 29.47165910154581,
      "evaluation_times_ms": [
        15.264,
        15.251,
        15.268,
        15.266,
        15.267
      ],
      "metadata": {},
      "peak_memory_mb": 9329.180704
    }
  },
  "{\"residuals\":[\"f32[2,8,8192]\",\"f32[2,8,8192]\"],\"out\":\"bf16[2,8192,8,256]\",\"dout\":\"bf16[2,8192,8,256]\",\"q\":\"bf16[2,8192,8,256]\",\"k\":\"bf16[2,8192,8,256]\",\"v\":\"bf16[2,8192,8,256]\",\"precision\":[[\"DEFAULT\",\"DEFAULT\"],[\"DEFAULT\",\"DEFAULT\"]],\"logits_dtype\":\"float32\",\"logits_scale\":0.0625,\"bias\":null,\"logits_soft_cap\":null,\"mask\":{\"bool_mask\":null,\"q_start\":null,\"q_end\":null,\"k_start\":null,\"k_end\":null,\"is_causal\":false},\"dropout_mask\":null,\"dropout_rate\":0.0,\"paging_info\":null,\"q_indices\":null,\"k_indices\":null,\"normalize_output\":true,\"return_residuals\":false}": {
    "{}": {
      "compile_time_ms": 2118.5764921829104,
      "lower_time_ms": 23.097180062904954,
      "evaluation_times_ms": [
        13.836,
        13.831,
        13.829,
        13.818,
        13.828
      ],
      "metadata": {},
      "peak_memory_mb": 9329.180704
    }
  },
  "{\"residuals\":[\"f32[2,8,8192]\",\"f32[2,8,8192]\"],\"out\":\"f16[2,8192,8,256]\",\"dout\":\"f16[2,8192,8,256]\",\"q\":\"f16[2,8192,8,256]\",\"k\":\"f16[2,8192,8,256]\",\"v\":\"f16[2,8192,8,256]\",\"precision\":[[\"DEFAULT\",\"DEFAULT\"],[\"DEFAULT\",\"DEFAULT\"]],\"logits_dtype\":\"float32\",\"logits_scale\":0.0625,\"bias\":null,\"logits_soft_cap\":null,\"mask\":{\"bool_mask\":null,\"q_start\":null,\"q_end\":null,\"k_start\":null,\"k_end\":null,\"is_causal\":false},\"dropout_mask\":null,\"dropout_rate\":0.0,\"paging_info\":null,\"q_indices\":null,\"k_indices\":null,\"normalize_output\":true,\"return_residuals\":false}": {
    "{}": {
      "compile_time_ms": 1969.695639098063,
      "lower_time_ms": 42.30220802128315,
      "evaluation_times_ms": [
        13.987,
        13.987,
        13.981,
        13.984,
        13.984
      ],
      "metadata": {},
      "peak_memory_mb": 9329.180704
    }
  },
  "{\"residuals\":[\"f32[1,32,16384]\",\"f32[1,32,16384]\"],\"out\":\"bf16[1,16384,32,64]\",\"dout\":\"bf16[1,16384,32,64]\",\"q\":\"bf16[1,16384,32,64]\",\"k\":\"bf16[1,16384,32,64]\",\"v\":\"bf16[1,16384,32,64]\",\"precision\":[[\"DEFAULT\",\"DEFAULT\"],[\"DEFAULT\",\"DEFAULT\"]],\"logits_dtype\":\"float32\",\"logits_scale\":0.125,\"bias\":null,\"logits_soft_cap\":null,\"mask\":{\"bool_mask\":null,\"q_start\":null,\"q_end\":null,\"k_start\":null,\"k_end\":null,\"is_causal\":true},\"dropout_mask\":null,\"dropout_rate\":0.0,\"paging_info\":null,\"q_indices\":null,\"k_indices\":null,\"normalize_output\":true,\"return_residuals\":false}": {
    "{}": {
      "compile_time_ms": 1869.6604860015213,
      "lower_time_ms": 44.269331032410264,
      "evaluation_times_ms": [
        105.402,
        105.407,
        105.421,
        105.394,
        105.391
      ],
      "metadata": {},
      "peak_memory_mb": 69528.97744
    }
  },
  "{\"residuals\":[\"f32[1,32,16384]\",\"f32[1,32,16384]\"],\"out\":\"f16[1,16384,32,64]\",\"dout\":\"f16[1,16384,32,64]\",\"q\":\"f16[1,16384,32,64]\",\"k\":\"f16[1,16384,32,64]\",\"v\":\"f16[1,16384,32,64]\",\"precision\":[[\"DEFAULT\",\"DEFAULT\"],[\"DEFAULT\",\"DEFAULT\"]],\"logits_dtype\":\"float32\",\"logits_scale\":0.125,\"bias\":null,\"logits_soft_cap\":null,\"mask\":{\"bool_mask\":null,\"q_start\":null,\"q_end\":null,\"k_start\":null,\"k_end\":null,\"is_causal\":true},\"dropout_mask\":null,\"dropout_rate\":0.0,\"paging_info\":null,\"q_indices\":null,\"k_indices\":null,\"normalize_output\":true,\"return_residuals\":false}": {
    "{}": {
      "compile_time_ms": 1872.4901909999971,
      "lower_time_ms": 52.90216800040071,
      "evaluation_times_ms": [
        105.059,
        105.043,
        105.044,
        105.058,
        105.07
      ],
      "metadata": {},
      "peak_memory_mb": 69528.97744
    }
  },
  "{\"residuals\":[\"f32[1,32,16384]\",\"f32[1,32,16384]\"],\"out\":\"bf16[1,16384,32,64]\",\"dout\":\"bf16[1,16384,32,64]\",\"q\":\"bf16[1,16384,32,64]\",\"k\":\"bf16[1,16384,32,64]\",\"v\":\"bf16[1,16384,32,64]\",\"precision\":[[\"DEFAULT\",\"DEFAULT\"],[\"DEFAULT\",\"DEFAULT\"]],\"logits_dtype\":\"float32\",\"logits_scale\":0.125,\"bias\":null,\"logits_soft_cap\":null,\"mask\":{\"bool_mask\":null,\"q_start\":null,\"q_end\":null,\"k_start\":null,\"k_end\":null,\"is_causal\":false},\"dropout_mask\":null,\"dropout_rate\":0.0,\"paging_info\":null,\"q_indices\":null,\"k_indices\":null,\"normalize_output\":true,\"return_residuals\":false}": {
    "{}": {
      "compile_time_ms": 1345.5325649997576,
      "lower_time_ms": 26.482622000003175,
      "evaluation_times_ms": [
        92.183,
        92.159,
        92.181,
        92.144,
        92.185
      ],
      "metadata": {},
      "peak_memory_mb": 69260.541984
    }
  },
  "{\"residuals\":[\"f32[1,32,16384]\",\"f32[1,32,16384]\"],\"out\":\"f16[1,16384,32,64]\",\"dout\":\"f16[1,16384,32,64]\",\"q\":\"f16[1,16384,32,64]\",\"k\":\"f16[1,16384,32,64]\",\"v\":\"f16[1,16384,32,64]\",\"precision\":[[\"DEFAULT\",\"DEFAULT\"],[\"DEFAULT\",\"DEFAULT\"]],\"logits_dtype\":\"float32\",\"logits_scale\":0.125,\"bias\":null,\"logits_soft_cap\":null,\"mask\":{\"bool_mask\":null,\"q_start\":null,\"q_end\":null,\"k_start\":null,\"k_end\":null,\"is_causal\":false},\"dropout_mask\":null,\"dropout_rate\":0.0,\"paging_info\":null,\"q_indices\":null,\"k_indices\":null,\"normalize_output\":true,\"return_residuals\":false}": {
    "{}": {
      "compile_time_ms": 1343.0108999996264,
      "lower_time_ms": 22.729702000106045,
      "evaluation_times_ms": [
        92.579,
        92.546,
        92.532,
        92.559,
        92.544
      ],
      "metadata": {},
      "peak_memory_mb": 69260.541984
    }
  },
  "{\"residuals\":[\"f32[1,16,16384]\",\"f32[1,16,16384]\"],\"out\":\"bf16[1,16384,16,128]\",\"dout\":\"bf16[1,16384,16,128]\",\"q\":\"bf16[1,16384,16,128]\",\"k\":\"bf16[1,16384,16,128]\",\"v\":\"bf16[1,16384,16,128]\",\"precision\":[[\"DEFAULT\",\"DEFAULT\"],[\"DEFAULT\",\"DEFAULT\"]],\"logits_dtype\":\"float32\",\"logits_scale\":0.08838834764831843,\"bias\":null,\"logits_soft_cap\":null,\"mask\":{\"bool_mask\":null,\"q_start\":null,\"q_end\":null,\"k_start\":null,\"k_end\":null,\"is_causal\":true},\"dropout_mask\":null,\"dropout_rate\":0.0,\"paging_info\":null,\"q_indices\":null,\"k_indices\":null,\"normalize_output\":true,\"return_residuals\":false}": {
    "{}": {
      "compile_time_ms": 1904.387584000233,
      "lower_time_ms": 36.978304000058415,
      "evaluation_times_ms": [
        52.128,
        52.118,
        52.144,
        52.122,
        52.13
      ],
      "metadata": {},
      "peak_memory_mb": 35368.468512
    }
  },
  "{\"residuals\":[\"f32[1,16,16384]\",\"f32[1,16,16384]\"],\"out\":\"f16[1,16384,16,128]\",\"dout\":\"f16[1,16384,16,128]\",\"q\":\"f16[1,16384,16,128]\",\"k\":\"f16[1,16384,16,128]\",\"v\":\"f16[1,16384,16,128]\",\"precision\":[[\"DEFAULT\",\"DEFAULT\"],[\"DEFAULT\",\"DEFAULT\"]],\"logits_dtype\":\"float32\",\"logits_scale\":0.08838834764831843,\"bias\":null,\"logits_soft_cap\":null,\"mask\":{\"bool_mask\":null,\"q_start\":null,\"q_end\":null,\"k_start\":null,\"k_end\":null,\"is_causal\":true},\"dropout_mask\":null,\"dropout_rate\":0.0,\"paging_info\":null,\"q_indices\":null,\"k_indices\":null,\"normalize_output\":true,\"return_residuals\":false}": {
    "{}": {
      "compile_time_ms": 1877.705171999878,
      "lower_time_ms": 29.460749000008946,
      "evaluation_times_ms": [
        52.102,
        52.092,
        52.095,
        52.09,
        52.088
      ],
      "metadata": {},
      "peak_memory_mb": 35368.468512
    }
  },
  "{\"residuals\":[\"f32[1,16,16384]\",\"f32[1,16,16384]\"],\"out\":\"bf16[1,16384,16,128]\",\"dout\":\"bf16[1,16384,16,128]\",\"q\":\"bf16[1,16384,16,128]\",\"k\":\"bf16[1,16384,16,128]\",\"v\":\"bf16[1,16384,16,128]\",\"precision\":[[\"DEFAULT\",\"DEFAULT\"],[\"DEFAULT\",\"DEFAULT\"]],\"logits_dtype\":\"float32\",\"logits_scale\":0.08838834764831843,\"bias\":null,\"logits_soft_cap\":null,\"mask\":{\"bool_mask\":null,\"q_start\":null,\"q_end\":null,\"k_start\":null,\"k_end\":null,\"is_causal\":false},\"dropout_mask\":null,\"dropout_rate\":0.0,\"paging_info\":null,\"q_indices\":null,\"k_indices\":null,\"normalize_output\":true,\"return_residuals\":false}": {
    "{}": {
      "compile_time_ms": 1538.9731720001691,
      "lower_time_ms": 23.020540000288747,
      "evaluation_times_ms": [
        48.193,
        48.182,
        48.182,
        48.169,
        48.185
      ],
      "metadata": {},
      "peak_memory_mb": 35100.033056
    }
  },
  "{\"residuals\":[\"f32[1,16,16384]\",\"f32[1,16,16384]\"],\"out\":\"f16[1,16384,16,128]\",\"dout\":\"f16[1,16384,16,128]\",\"q\":\"f16[1,16384,16,128]\",\"k\":\"f16[1,16384,16,128]\",\"v\":\"f16[1,16384,16,128]\",\"precision\":[[\"DEFAULT\",\"DEFAULT\"],[\"DEFAULT\",\"DEFAULT\"]],\"logits_dtype\":\"float32\",\"logits_scale\":0.08838834764831843,\"bias\":null,\"logits_soft_cap\":null,\"mask\":{\"bool_mask\":null,\"q_start\":null,\"q_end\":null,\"k_start\":null,\"k_end\":null,\"is_causal\":false},\"dropout_mask\":null,\"dropout_rate\":0.0,\"paging_info\":null,\"q_indices\":null,\"k_indices\":null,\"normalize_output\":true,\"return_residuals\":false}": {
    "{}": {
      "compile_time_ms": 1680.8833830000367,
      "lower_time_ms": 42.28589599961197,
      "evaluation_times_ms": [
        48.699,
        48.67,
        48.699,
        48.675,
        48.674
      ],
      "metadata": {},
      "peak_memory_mb": 35100.033056
    }
  },
  "{\"residuals\":[\"f32[1,8,16384]\",\"f32[1,8,16384]\"],\"out\":\"bf16[1,16384,8,256]\",\"dout\":\"bf16[1,16384,8,256]\",\"q\":\"bf16[1,16384,8,256]\",\"k\":\"bf16[1,16384,8,256]\",\"v\":\"bf16[1,16384,8,256]\",\"precision\":[[\"DEFAULT\",\"DEFAULT\"],[\"DEFAULT\",\"DEFAULT\"]],\"logits_dtype\":\"float32\",\"logits_scale\":0.0625,\"bias\":null,\"logits_soft_cap\":null,\"mask\":{\"bool_mask\":null,\"q_start\":null,\"q_end\":null,\"k_start\":null,\"k_end\":null,\"is_causal\":true},\"dropout_mask\":null,\"dropout_rate\":0.0,\"paging_info\":null,\"q_indices\":null,\"k_indices\":null,\"normalize_output\":true,\"return_residuals\":false}": {
    "{}": {
      "compile_time_ms": 2252.2990440002104,
      "lower_time_ms": 41.80863399960799,
      "evaluation_times_ms": [
        29.428,
        29.445,
        29.45,
        29.434,
        29.446
      ],
      "metadata": {},
      "peak_memory_mb": 18187.550752
    }
  },
  "{\"residuals\":[\"f32[1,8,16384]\",\"f32[1,8,16384]\"],\"out\":\"f16[1,16384,8,256]\",\"dout\":\"f16[1,16384,8,256]\",\"q\":\"f16[1,16384,8,256]\",\"k\":\"f16[1,16384,8,256]\",\"v\":\"f16[1,16384,8,256]\",\"precision\":[[\"DEFAULT\",\"DEFAULT\"],[\"DEFAULT\",\"DEFAULT\"]],\"logits_dtype\":\"float32\",\"logits_scale\":0.0625,\"bias\":null,\"logits_soft_cap\":null,\"mask\":{\"bool_mask\":null,\"q_start\":null,\"q_end\":null,\"k_start\":null,\"k_end\":null,\"is_causal\":true},\"dropout_mask\":null,\"dropout_rate\":0.0,\"paging_info\":null,\"q_indices\":null,\"k_indices\":null,\"normalize_output\":true,\"return_residuals\":false}": {
    "{}": {
      "compile_time_ms": 2160.5266180004037,
      "lower_time_ms": 29.597800000374264,
      "evaluation_times_ms": [
        29.746,
        29.765,
        29.747,
        29.743,
        29.763
      ],
      "metadata": {},
      "peak_memory_mb": 18187.550752
    }
  },
  "{\"residuals\":[\"f32[1,8,16384]\",\"f32[1,8,16384]\"],\"out\":\"bf16[1,16384,8,256]\",\"dout\":\"bf16[1,16384,8,256]\",\"q\":\"bf16[1,16384,8,256]\",\"k\":\"bf16[1,16384,8,256]\",\"v\":\"bf16[1,16384,8,256]\",\"precision\":[[\"DEFAULT\",\"DEFAULT\"],[\"DEFAULT\",\"DEFAULT\"]],\"logits_dtype\":\"float32\",\"logits_scale\":0.0625,\"bias\":null,\"logits_soft_cap\":null,\"mask\":{\"bool_mask\":null,\"q_start\":null,\"q_end\":null,\"k_start\":null,\"k_end\":null,\"is_causal\":false},\"dropout_mask\":null,\"dropout_rate\":0.0,\"paging_info\":null,\"q_indices\":null,\"k_indices\":null,\"normalize_output\":true,\"return_residuals\":false}": {
    "{}": {
      "compile_time_ms": 1997.7852459996939,
      "lower_time_ms": 23.6199129999477,
      "evaluation_times_ms": [
        27.718,
        27.714,
        27.707,
        27.722,
        27.728
      ],
      "metadata": {},
      "peak_memory_mb": 17919.115296
    }
  },
  "{\"residuals\":[\"f32[1,8,16384]\",\"f32[1,8,16384]\"],\"out\":\"f16[1,16384,8,256]\",\"dout\":\"f16[1,16384,8,256]\",\"q\":\"f16[1,16384,8,256]\",\"k\":\"f16[1,16384,8,256]\",\"v\":\"f16[1,16384,8,256]\",\"precision\":[[\"DEFAULT\",\"DEFAULT\"],[\"DEFAULT\",\"DEFAULT\"]],\"logits_dtype\":\"float32\",\"logits_scale\":0.0625,\"bias\":null,\"logits_soft_cap\":null,\"mask\":{\"bool_mask\":null,\"q_start\":null,\"q_end\":null,\"k_start\":null,\"k_end\":null,\"is_causal\":false},\"dropout_mask\":null,\"dropout_rate\":0.0,\"paging_info\":null,\"q_indices\":null,\"k_indices\":null,\"normalize_output\":true,\"return_residuals\":false}": {
    "{}": {
      "compile_time_ms": 2073.6733200001254,
      "lower_time_ms": 24.07055499998023,
      "evaluation_times_ms": [
        27.778,
        27.78,
        27.776,
        27.765,
        27.762
      ],
      "metadata": {},
      "peak_memory_mb": 17919.115296
    }
  },
  "{\"residuals\":[\"f32[32,4,512]\",\"f32[32,4,512]\"],\"out\":\"bf16[32,512,4,16]\",\"dout\":\"bf16[32,512,4,16]\",\"q\":\"bf16[32,512,4,16]\",\"k\":\"bf16[32,512,4,16]\",\"v\":\"bf16[32,512,4,16]\",\"precision\":[\"BF16_BF16_F32\",\"BF16_BF16_F32\"],\"logits_dtype\":\"float32\",\"logits_scale\":0.25,\"bias\":\"bf16[1,4,512,512]\",\"logits_soft_cap\":null,\"mask\":{\"bool_mask\":\"bool[32,1,1,512]\",\"q_start\":null,\"q_end\":null,\"k_start\":null,\"k_end\":null,\"is_causal\":false},\"dropout_mask\":null,\"dropout_rate\":0.0,\"paging_info\":null,\"q_indices\":null,\"k_indices\":null,\"normalize_output\":true,\"return_residuals\":false}": {
    "{}": {
      "compile_time_ms": 1315.9023869998236,
      "lower_time_ms": 38.13300199999503,
      "evaluation_times_ms": [
        0.472,
        0.472,
        0.471,
        0.472,
        0.473
      ],
      "metadata": {},
      "peak_memory_mb": 424.165408
    }
  },
  "{\"residuals\":[\"f32[1,32,4,512]\",\"f32[1,32,4,512]\"],\"out\":\"bf16[1,32,512,4,32]\",\"dout\":\"bf16[1,32,512,4,32]\",\"q\":\"bf16[1,32,512,4,32]\",\"k\":\"bf16[1,32,512,4,32]\",\"v\":\"bf16[1,32,512,4,32]\",\"precision\":[\"BF16_BF16_F32\",\"BF16_BF16_F32\"],\"logits_dtype\":\"float32\",\"logits_scale\":0.17677669529663687,\"bias\":\"bf16[1,1,4,512,512]\",\"logits_soft_cap\":null,\"mask\":{\"bool_mask\":\"bool[32,1,1,512]\",\"q_start\":null,\"q_end\":null,\"k_start\":null,\"k_end\":null,\"is_causal\":false},\"dropout_mask\":null,\"dropout_rate\":0.0,\"paging_info\":null,\"q_indices\":null,\"k_indices\":null,\"normalize_output\":true,\"return_residuals\":false}": {
    "{}": {
      "compile_time_ms": 2263.9358550004545,
      "lower_time_ms": 136.2392019946128,
      "evaluation_times_ms": [
        0.49,
        0.489,
        0.487,
        0.489,
        0.49
      ],
      "metadata": {},
      "peak_memory_mb": 440.942624
    }
  },
  "{\"residuals\":[\"f32[32,4,512]\",\"f32[32,4,512]\"],\"out\":\"bf16[32,512,4,32]\",\"dout\":\"bf16[32,512,4,32]\",\"q\":\"bf16[32,512,4,32]\",\"k\":\"bf16[32,512,4,32]\",\"v\":\"bf16[32,512,4,32]\",\"precision\":[\"BF16_BF16_F32\",\"BF16_BF16_F32\"],\"logits_dtype\":\"float32\",\"logits_scale\":0.17677669529663687,\"bias\":\"bf16[1,4,512,512]\",\"logits_soft_cap\":null,\"mask\":{\"bool_mask\":\"bool[32,1,1,512]\",\"q_start\":null,\"q_end\":null,\"k_start\":null,\"k_end\":null,\"is_causal\":false},\"dropout_mask\":null,\"dropout_rate\":0.0,\"paging_info\":null,\"q_indices\":null,\"k_indices\":null,\"normalize_output\":true,\"return_residuals\":false}": {
    "{}": {
      "compile_time_ms": 1298.3735610032454,
      "lower_time_ms": 38.551864003238734,
      "evaluation_times_ms": [
        0.49,
        0.488,
        0.49,
        0.491,
        0.488
      ],
      "metadata": {},
      "peak_memory_mb": 440.942624
    }
  },
  "{\"residuals\":[\"f32[32,4,768]\",\"f32[32,4,768]\"],\"out\":\"bf16[32,768,4,16]\",\"dout\":\"bf16[32,768,4,16]\",\"q\":\"bf16[32,768,4,16]\",\"k\":\"bf16[32,768,4,16]\",\"v\":\"bf16[32,768,4,16]\",\"precision\":[\"BF16_BF16_F32\",\"BF16_BF16_F32\"],\"logits_dtype\":\"float32\",\"logits_scale\":0.25,\"bias\":\"bf16[1,4,768,768]\",\"logits_soft_cap\":null,\"mask\":{\"bool_mask\":\"bool[32,1,1,768]\",\"q_start\":null,\"q_end\":null,\"k_start\":null,\"k_end\":null,\"is_causal\":false},\"dropout_mask\":null,\"dropout_rate\":0.0,\"paging_info\":null,\"q_indices\":null,\"k_indices\":null,\"normalize_output\":true,\"return_residuals\":false}": {
    "{}": {
      "compile_time_ms": 1301.1128910002299,
      "lower_time_ms": 41.117719003523234,
      "evaluation_times_ms": [
        1.061,
        1.068,
        1.062,
        1.062,
        1.064
      ],
      "metadata": {},
      "peak_memory_mb": 951.238688
    }
  },
  "{\"residuals\":[\"f32[1,32,4,768]\",\"f32[1,32,4,768]\"],\"out\":\"bf16[1,32,768,4,32]\",\"dout\":\"bf16[1,32,768,4,32]\",\"q\":\"bf16[1,32,768,4,32]\",\"k\":\"bf16[1,32,768,4,32]\",\"v\":\"bf16[1,32,768,4,32]\",\"precision\":[\"BF16_BF16_F32\",\"BF16_BF16_F32\"],\"logits_dtype\":\"float32\",\"logits_scale\":0.17677669529663687,\"bias\":\"bf16[1,1,4,768,768]\",\"logits_soft_cap\":null,\"mask\":{\"bool_mask\":\"bool[32,1,1,768]\",\"q_start\":null,\"q_end\":null,\"k_start\":null,\"k_end\":null,\"is_causal\":false},\"dropout_mask\":null,\"dropout_rate\":0.0,\"paging_info\":null,\"q_indices\":null,\"k_indices\":null,\"normalize_output\":true,\"return_residuals\":false}": {
    "{}": {
      "compile_time_ms": 1478.9452900004108,
      "lower_time_ms": 38.739032999728806,
      "evaluation_times_ms": [
        1.079,
        1.078,
        1.079,
        1.083,
        1.078
      ],
      "metadata": {},
      "peak_memory_mb": 976.404512
    }
  },
  "{\"residuals\":[\"f32[32,4,768]\",\"f32[32,4,768]\"],\"out\":\"bf16[32,768,4,32]\",\"dout\":\"bf16[32,768,4,32]\",\"q\":\"bf16[32,768,4,32]\",\"k\":\"bf16[32,768,4,32]\",\"v\":\"bf16[32,768,4,32]\",\"precision\":[\"BF16_BF16_F32\",\"BF16_BF16_F32\"],\"logits_dtype\":\"float32\",\"logits_scale\":0.17677669529663687,\"bias\":\"bf16[1,4,768,768]\",\"logits_soft_cap\":null,\"mask\":{\"bool_mask\":\"bool[32,1,1,768]\",\"q_start\":null,\"q_end\":null,\"k_start\":null,\"k_end\":null,\"is_causal\":false},\"dropout_mask\":null,\"dropout_rate\":0.0,\"paging_info\":null,\"q_indices\":null,\"k_indices\":null,\"normalize_output\":true,\"return_residuals\":false}": {
    "{}": {
      "compile_time_ms": 1326.0587559998385,
      "lower_time_ms": 29.204591002780944,
      "evaluation_times_ms": [
        1.08,
        1.077,
        1.081,
        1.078,
        1.081
      ],
      "metadata": {},
      "peak_memory_mb": 976.404512
    }
  },
  "{\"residuals\":[\"f32[32,4,1024]\",\"f32[32,4,1024]\"],\"out\":\"bf16[32,1024,4,16]\",\"dout\":\"bf16[32,1024,4,16]\",\"q\":\"bf16[32,1024,4,16]\",\"k\":\"bf16[32,1024,4,16]\",\"v\":\"bf16[32,1024,4,16]\",\"precision\":[\"BF16_BF16_F32\",\"BF16_BF16_F32\"],\"logits_dtype\":\"float32\",\"logits_scale\":0.25,\"bias\":\"bf16[1,4,1024,1024]\",\"logits_soft_cap\":null,\"mask\":{\"bool_mask\":\"bool[32,1,1,1024]\",\"q_start\":null,\"q_end\":null,\"k_start\":null,\"k_end\":null,\"is_causal\":false},\"dropout_mask\":null,\"dropout_rate\":0.0,\"paging_info\":null,\"q_indices\":null,\"k_indices\":null,\"normalize_output\":true,\"return_residuals\":false}": {
    "{}": {
      "compile_time_ms": 1969.200006002211,
      "lower_time_ms": 38.16907900181832,
      "evaluation_times_ms": [
        1.858,
        1.86,
        1.856,
        1.861,
        1.864
      ],
      "metadata": {},
      "peak_memory_mb": 1679.360032
    }
  },
  "{\"residuals\":[\"f32[1,32,4,1024]\",\"f32[1,32,4,1024]\"],\"out\":\"bf16[1,32,1024,4,32]\",\"dout\":\"bf16[1,32,1024,4,32]\",\"q\":\"bf16[1,32,1024,4,32]\",\"k\":\"bf16[1,32,1024,4,32]\",\"v\":\"bf16[1,32,1024,4,32]\",\"precision\":[\"BF16_BF16_F32\",\"BF16_BF16_F32\"],\"logits_dtype\":\"float32\",\"logits_scale\":0.17677669529663687,\"bias\":\"bf16[1,1,4,1024,1024]\",\"logits_soft_cap\":null,\"mask\":{\"bool_mask\":\"bool[32,1,1,1024]\",\"q_start\":null,\"q_end\":null,\"k_start\":null,\"k_end\":null,\"is_causal\":false},\"dropout_mask\":null,\"dropout_rate\":0.0,\"paging_info\":null,\"q_indices\":null,\"k_indices\":null,\"normalize_output\":true,\"return_residuals\":false}": {
    "{}": {
      "compile_time_ms": 2649.5417370460927,
      "lower_time_ms": 140.1889290427789,
      "evaluation_times_ms": [
        1.891,
        1.892,
        1.889,
        1.893,
        1.891
      ],
      "metadata": {},
      "peak_memory_mb": 1713.438752
    }
  },
  "{\"residuals\":[\"f32[32,4,1024]\",\"f32[32,4,1024]\"],\"out\":\"bf16[32,1024,4,32]\",\"dout\":\"bf16[32,1024,4,32]\",\"q\":\"bf16[32,1024,4,32]\",\"k\":\"bf16[32,1024,4,32]\",\"v\":\"bf16[32,1024,4,32]\",\"precision\":[\"BF16_BF16_F32\",\"BF16_BF16_F32\"],\"logits_dtype\":\"float32\",\"logits_scale\":0.17677669529663687,\"bias\":\"bf16[1,4,1024,1024]\",\"logits_soft_cap\":null,\"mask\":{\"bool_mask\":\"bool[32,1,1,1024]\",\"q_start\":null,\"q_end\":null,\"k_start\":null,\"k_end\":null,\"is_causal\":false},\"dropout_mask\":null,\"dropout_rate\":0.0,\"paging_info\":null,\"q_indices\":null,\"k_indices\":null,\"normalize_output\":true,\"return_residuals\":false}": {
    "{}": {
      "compile_time_ms": 1418.8403469743207,
      "lower_time_ms": 38.60626695677638,
      "evaluation_times_ms": [
        1.888,
        1.891,
        1.887,
        1.89,
        1.888
      ],
      "metadata": {},
      "peak_memory_mb": 1713.438752
    }
  },
  "{\"residuals\":[\"f32[32,4,1280]\",\"f32[32,4,1280]\"],\"out\":\"bf16[32,1280,4,16]\",\"dout\":\"bf16[32,1280,4,16]\",\"q\":\"bf16[32,1280,4,16]\",\"k\":\"bf16[32,1280,4,16]\",\"v\":\"bf16[32,1280,4,16]\",\"precision\":[\"BF16_BF16_F32\",\"BF16_BF16_F32\"],\"logits_dtype\":\"float32\",\"logits_scale\":0.25,\"bias\":\"bf16[1,4,1280,1280]\",\"logits_soft_cap\":null,\"mask\":{\"bool_mask\":\"bool[32,1,1,1280]\",\"q_start\":null,\"q_end\":null,\"k_start\":null,\"k_end\":null,\"is_causal\":false},\"dropout_mask\":null,\"dropout_rate\":0.0,\"paging_info\":null,\"q_indices\":null,\"k_indices\":null,\"normalize_output\":true,\"return_residuals\":false}": {
    "{}": {
      "compile_time_ms": 1001.7659059958532,
      "lower_time_ms": 41.25254892278463,
      "evaluation_times_ms": [
        2.884,
        2.886,
        2.883,
        2.886,
        2.883
      ],
      "metadata": {},
      "peak_memory_mb": 2586.747424
    }
  },
  "{\"residuals\":[\"f32[1,32,4,1280]\",\"f32[1,32,4,1280]\"],\"out\":\"bf16[1,32,1280,4,32]\",\"dout\":\"bf16[1,32,1280,4,32]\",\"q\":\"bf16[1,32,1280,4,32]\",\"k\":\"bf16[1,32,1280,4,32]\",\"v\":\"bf16[1,32,1280,4,32]\",\"precision\":[\"BF16_BF16_F32\",\"BF16_BF16_F32\"],\"logits_dtype\":\"float32\",\"logits_scale\":0.17677669529663687,\"bias\":\"bf16[1,1,4,1280,1280]\",\"logits_soft_cap\":null,\"mask\":{\"bool_mask\":\"bool[32,1,1,1280]\",\"q_start\":null,\"q_end\":null,\"k_start\":null,\"k_end\":null,\"is_causal\":false},\"dropout_mask\":null,\"dropout_rate\":0.0,\"paging_info\":null,\"q_indices\":null,\"k_indices\":null,\"normalize_output\":true,\"return_residuals\":false}": {
    "{}": {
      "compile_time_ms": 1084.7920699743554,
      "lower_time_ms": 37.83948393538594,
      "evaluation_times_ms": [
        2.999,
        3.002,
        3.003,
        3.003,
        3.0
      ],
      "metadata": {},
      "peak_memory_mb": 2628.690464
    }
  },
  "{\"residuals\":[\"f32[32,4,1280]\",\"f32[32,4,1280]\"],\"out\":\"bf16[32,1280,4,32]\",\"dout\":\"bf16[32,1280,4,32]\",\"q\":\"bf16[32,1280,4,32]\",\"k\":\"bf16[32,1280,4,32]\",\"v\":\"bf16[32,1280,4,32]\",\"precision\":[\"BF16_BF16_F32\",\"BF16_BF16_F32\"],\"logits_dtype\":\"float32\",\"logits_scale\":0.17677669529663687,\"bias\":\"bf16[1,4,1280,1280]\",\"logits_soft_cap\":null,\"mask\":{\"bool_mask\":\"bool[32,1,1,1280]\",\"q_start\":null,\"q_end\":null,\"k_start\":null,\"k_end\":null,\"is_causal\":false},\"dropout_mask\":null,\"dropout_rate\":0.0,\"paging_info\":null,\"q_indices\":null,\"k_indices\":null,\"normalize_output\":true,\"return_residuals\":false}": {
    "{}": {
      "compile_time_ms": 1028.4558540442958,
      "lower_time_ms": 28.621369041502476,
      "evaluation_times_ms": [
        2.992,
        2.992,
        2.997,
        2.995,
        2.998
      ],
      "metadata": {},
      "peak_memory_mb": 2628.690464
    }
  },
  "{\"residuals\":[\"f32[32,4,1536]\",\"f32[32,4,1536]\"],\"out\":\"bf16[32,1536,4,16]\",\"dout\":\"bf16[32,1536,4,16]\",\"q\":\"bf16[32,1536,4,16]\",\"k\":\"bf16[32,1536,4,16]\",\"v\":\"bf16[32,1536,4,16]\",\"precision\":[\"BF16_BF16_F32\",\"BF16_BF16_F32\"],\"logits_dtype\":\"float32\",\"logits_scale\":0.25,\"bias\":\"bf16[1,4,1536,1536]\",\"logits_soft_cap\":null,\"mask\":{\"bool_mask\":\"bool[32,1,1,1536]\",\"q_start\":null,\"q_end\":null,\"k_start\":null,\"k_end\":null,\"is_causal\":false},\"dropout_mask\":null,\"dropout_rate\":0.0,\"paging_info\":null,\"q_indices\":null,\"k_indices\":null,\"normalize_output\":true,\"return_residuals\":false}": {
    "{}": {
      "compile_time_ms": 1418.8309470191598,
      "lower_time_ms": 37.54948603454977,
      "evaluation_times_ms": [
        4.301,
        4.302,
        4.303,
        4.3,
        4.299
      ],
      "metadata": {},
      "peak_memory_mb": 3713.5816
    }
  },
  "{\"residuals\":[\"f32[1,32,4,1536]\",\"f32[1,32,4,1536]\"],\"out\":\"bf16[1,32,1536,4,32]\",\"dout\":\"bf16[1,32,1536,4,32]\",\"q\":\"bf16[1,32,1536,4,32]\",\"k\":\"bf16[1,32,1536,4,32]\",\"v\":\"bf16[1,32,1536,4,32]\",\"precision\":[\"BF16_BF16_F32\",\"BF16_BF16_F32\"],\"logits_dtype\":\"float32\",\"logits_scale\":0.17677669529663687,\"bias\":\"bf16[1,1,4,1536,1536]\",\"logits_soft_cap\":null,\"mask\":{\"bool_mask\":\"bool[32,1,1,1536]\",\"q_start\":null,\"q_end\":null,\"k_start\":null,\"k_end\":null,\"is_causal\":false},\"dropout_mask\":null,\"dropout_rate\":0.0,\"paging_info\":null,\"q_indices\":null,\"k_indices\":null,\"normalize_output\":true,\"return_residuals\":false}": {
    "{}": {
      "compile_time_ms": 3299.620107980445,
      "lower_time_ms": 207.67897507175803,
      "evaluation_times_ms": [
        4.246,
        4.246,
        4.248,
        4.252,
        4.25
      ],
      "metadata": {},
      "peak_memory_mb": 3763.913248
    }
  },
  "{\"residuals\":[\"f32[32,4,1536]\",\"f32[32,4,1536]\"],\"out\":\"bf16[32,1536,4,32]\",\"dout\":\"bf16[32,1536,4,32]\",\"q\":\"bf16[32,1536,4,32]\",\"k\":\"bf16[32,1536,4,32]\",\"v\":\"bf16[32,1536,4,32]\",\"precision\":[\"BF16_BF16_F32\",\"BF16_BF16_F32\"],\"logits_dtype\":\"float32\",\"logits_scale\":0.17677669529663687,\"bias\":\"bf16[1,4,1536,1536]\",\"logits_soft_cap\":null,\"mask\":{\"bool_mask\":\"bool[32,1,1,1536]\",\"q_start\":null,\"q_end\":null,\"k_start\":null,\"k_end\":null,\"is_causal\":false},\"dropout_mask\":null,\"dropout_rate\":0.0,\"paging_info\":null,\"q_indices\":null,\"k_indices\":null,\"normalize_output\":true,\"return_residuals\":false}": {
    "{}": {
      "compile_time_ms": 1192.7105899667367,
      "lower_time_ms": 38.59687293879688,
      "evaluation_times_ms": [
        4.351,
        4.352,
        4.357,
        4.349,
        4.352
      ],
      "metadata": {},
      "peak_memory_mb": 3763.913248
    }
  },
  "{\"residuals\":[\"f32[128,4,1792]\",\"f32[128,4,1792]\"],\"out\":\"bf16[128,1792,4,16]\",\"dout\":\"bf16[128,1792,4,16]\",\"q\":\"bf16[128,1792,4,16]\",\"k\":\"bf16[128,1792,4,16]\",\"v\":\"bf16[128,1792,4,16]\",\"precision\":[\"BF16_BF16_F32\",\"BF16_BF16_F32\"],\"logits_dtype\":\"float32\",\"logits_scale\":0.25,\"bias\":\"bf16[1,4,1792,1792]\",\"logits_soft_cap\":null,\"mask\":{\"bool_mask\":\"bool[128,1,1,1792]\",\"q_start\":null,\"q_end\":null,\"k_start\":null,\"k_end\":null,\"is_causal\":false},\"dropout_mask\":null,\"dropout_rate\":0.0,\"paging_info\":null,\"q_indices\":null,\"k_indices\":null,\"normalize_output\":true,\"return_residuals\":false}": {
    "{}": {
      "compile_time_ms": 1987.3672939138487,
      "lower_time_ms": 41.81202396284789,
      "evaluation_times_ms": [
        25.21,
        25.224,
        25.218,
        25.215,
        25.234
      ],
      "metadata": {},
      "peak_memory_mb": 20082.786848
    }
  },
  "{\"residuals\":[\"f32[1,128,4,1792]\",\"f32[1,128,4,1792]\"],\"out\":\"bf16[1,128,1792,4,32]\",\"dout\":\"bf16[1,128,1792,4,32]\",\"q\":\"bf16[1,128,1792,4,32]\",\"k\":\"bf16[1,128,1792,4,32]\",\"v\":\"bf16[1,128,1792,4,32]\",\"precision\":[\"BF16_BF16_F32\",\"BF16_BF16_F32\"],\"logits_dtype\":\"float32\",\"logits_scale\":0.17677669529663687,\"bias\":\"bf16[1,1,4,1792,1792]\",\"logits_soft_cap\":null,\"mask\":{\"bool_mask\":\"bool[128,1,1,1792]\",\"q_start\":null,\"q_end\":null,\"k_start\":null,\"k_end\":null,\"is_causal\":false},\"dropout_mask\":null,\"dropout_rate\":0.0,\"paging_info\":null,\"q_indices\":null,\"k_indices\":null,\"normalize_output\":true,\"return_residuals\":false}": {
    "{}": {
      "compile_time_ms": 1860.5909429024905,
      "lower_time_ms": 39.55734404735267,
      "evaluation_times_ms": [
        25.792,
        25.794,
        25.802,
        25.795,
        25.802
      ],
      "metadata": {},
      "peak_memory_mb": 20313.997856
    }
  },
  "{\"residuals\":[\"f32[128,4,1792]\",\"f32[128,4,1792]\"],\"out\":\"bf16[128,1792,4,32]\",\"dout\":\"bf16[128,1792,4,32]\",\"q\":\"bf16[128,1792,4,32]\",\"k\":\"bf16[128,1792,4,32]\",\"v\":\"bf16[128,1792,4,32]\",\"precision\":[\"BF16_BF16_F32\",\"BF16_BF16_F32\"],\"logits_dtype\":\"float32\",\"logits_scale\":0.17677669529663687,\"bias\":\"bf16[1,4,1792,1792]\",\"logits_soft_cap\":null,\"mask\":{\"bool_mask\":\"bool[128,1,1,1792]\",\"q_start\":null,\"q_end\":null,\"k_start\":null,\"k_end\":null,\"is_causal\":false},\"dropout_mask\":null,\"dropout_rate\":0.0,\"paging_info\":null,\"q_indices\":null,\"k_indices\":null,\"normalize_output\":true,\"return_residuals\":false}": {
    "{}": {
      "compile_time_ms": 1830.504638957791,
      "lower_time_ms": 29.445839929394424,
      "evaluation_times_ms": [
        25.814,
        25.804,
        25.814,
        25.806,
        25.806
      ],
      "metadata": {},
      "peak_memory_mb": 20313.997856
    }
  },
  "{\"residuals\":[\"f32[128,4,2048]\",\"f32[128,4,2048]\"],\"out\":\"bf16[128,2048,4,16]\",\"dout\":\"bf16[128,2048,4,16]\",\"q\":\"bf16[128,2048,4,16]\",\"k\":\"bf16[128,2048,4,16]\",\"v\":\"bf16[128,2048,4,16]\",\"precision\":[\"BF16_BF16_F32\",\"BF16_BF16_F32\"],\"logits_dtype\":\"float32\",\"logits_scale\":0.25,\"bias\":\"bf16[1,4,2048,2048]\",\"logits_soft_cap\":null,\"mask\":{\"bool_mask\":\"bool[128,1,1,2048]\",\"q_start\":null,\"q_end\":null,\"k_start\":null,\"k_end\":null,\"is_causal\":false},\"dropout_mask\":null,\"dropout_rate\":0.0,\"paging_info\":null,\"q_indices\":null,\"k_indices\":null,\"normalize_output\":true,\"return_residuals\":false}": {
    "{}": {
      "compile_time_ms": 1844.6185080101714,
      "lower_time_ms": 38.23353897314519,
      "evaluation_times_ms": [
        32.632,
        32.613,
        32.623,
        32.616,
        32.619
      ],
      "metadata": {},
      "peak_memory_mb": 26181.3704
    }
  },
  "{\"residuals\":[\"f32[1,128,4,2048]\",\"f32[1,128,4,2048]\"],\"out\":\"bf16[1,128,2048,4,32]\",\"dout\":\"bf16[1,128,2048,4,32]\",\"q\":\"bf16[1,128,2048,4,32]\",\"k\":\"bf16[1,128,2048,4,32]\",\"v\":\"bf16[1,128,2048,4,32]\",\"precision\":[\"BF16_BF16_F32\",\"BF16_BF16_F32\"],\"logits_dtype\":\"float32\",\"logits_scale\":0.17677669529663687,\"bias\":\"bf16[1,1,4,2048,2048]\",\"logits_soft_cap\":null,\"mask\":{\"bool_mask\":\"bool[128,1,1,2048]\",\"q_start\":null,\"q_end\":null,\"k_start\":null,\"k_end\":null,\"is_causal\":false},\"dropout_mask\":null,\"dropout_rate\":0.0,\"paging_info\":null,\"q_indices\":null,\"k_indices\":null,\"normalize_output\":true,\"return_residuals\":false}": {
    "{}": {
      "compile_time_ms": 3581.396829104051,
      "lower_time_ms": 170.6904899328947,
      "evaluation_times_ms": [
        32.959,
        32.963,
        32.944,
        32.937,
        32.953
      ],
      "metadata": {},
      "peak_memory_mb": 26386.891296
    }
  },
  "{\"residuals\":[\"f32[128,4,2048]\",\"f32[128,4,2048]\"],\"out\":\"bf16[128,2048,4,32]\",\"dout\":\"bf16[128,2048,4,32]\",\"q\":\"bf16[128,2048,4,32]\",\"k\":\"bf16[128,2048,4,32]\",\"v\":\"bf16[128,2048,4,32]\",\"precision\":[\"BF16_BF16_F32\",\"BF16_BF16_F32\"],\"logits_dtype\":\"float32\",\"logits_scale\":0.17677669529663687,\"bias\":\"bf16[1,4,2048,2048]\",\"logits_soft_cap\":null,\"mask\":{\"bool_mask\":\"bool[128,1,1,2048]\",\"q_start\":null,\"q_end\":null,\"k_start\":null,\"k_end\":null,\"is_causal\":false},\"dropout_mask\":null,\"dropout_rate\":0.0,\"paging_info\":null,\"q_indices\":null,\"k_indices\":null,\"normalize_output\":true,\"return_residuals\":false}": {
    "{}": {
      "compile_time_ms": 1928.6332838237286,
      "lower_time_ms": 39.95732497423887,
      "evaluation_times_ms": [
        32.953,
        32.933,
        32.935,
        32.96,
        32.946
      ],
      "metadata": {},
      "peak_memory_mb": 26386.891296
    }
  },
  "{\"residuals\":[\"f32[128,4,2304]\",\"f32[128,4,2304]\"],\"out\":\"bf16[128,2304,4,16]\",\"dout\":\"bf16[128,2304,4,16]\",\"q\":\"bf16[128,2304,4,16]\",\"k\":\"bf16[128,2304,4,16]\",\"v\":\"bf16[128,2304,4,16]\",\"precision\":[\"BF16_BF16_F32\",\"BF16_BF16_F32\"],\"logits_dtype\":\"float32\",\"logits_scale\":0.25,\"bias\":\"bf16[1,4,2304,2304]\",\"logits_soft_cap\":null,\"mask\":{\"bool_mask\":\"bool[128,1,1,2304]\",\"q_start\":null,\"q_end\":null,\"k_start\":null,\"k_end\":null,\"is_causal\":false},\"dropout_mask\":null,\"dropout_rate\":0.0,\"paging_info\":null,\"q_indices\":null,\"k_indices\":null,\"normalize_output\":true,\"return_residuals\":false}": {
    "{}": {
      "compile_time_ms": 1905.8814810123295,
      "lower_time_ms": 42.00331913307309,
      "evaluation_times_ms": [
        38.233,
        38.22,
        38.227,
        38.23,
        38.228
      ],
      "metadata": {},
      "peak_memory_mb": 33011.565088
    }
  },
  "{\"residuals\":[\"f32[1,128,4,2304]\",\"f32[1,128,4,2304]\"],\"out\":\"bf16[1,128,2304,4,32]\",\"dout\":\"bf16[1,128,2304,4,32]\",\"q\":\"bf16[1,128,2304,4,32]\",\"k\":\"bf16[1,128,2304,4,32]\",\"v\":\"bf16[1,128,2304,4,32]\",\"precision\":[\"BF16_BF16_F32\",\"BF16_BF16_F32\"],\"logits_dtype\":\"float32\",\"logits_scale\":0.17677669529663687,\"bias\":\"bf16[1,1,4,2304,2304]\",\"logits_soft_cap\":null,\"mask\":{\"bool_mask\":\"bool[128,1,1,2304]\",\"q_start\":null,\"q_end\":null,\"k_start\":null,\"k_end\":null,\"is_causal\":false},\"dropout_mask\":null,\"dropout_rate\":0.0,\"paging_info\":null,\"q_indices\":null,\"k_indices\":null,\"normalize_output\":true,\"return_residuals\":false}": {
    "{}": {
      "compile_time_ms": 2079.114397056401,
      "lower_time_ms": 39.855937007814646,
      "evaluation_times_ms": [
        38.401,
        38.394,
        38.404,
        38.399,
        38.417
      ],
      "metadata": {},
      "peak_memory_mb": 33313.554976
    }
  },
  "{\"residuals\":[\"f32[128,4,2304]\",\"f32[128,4,2304]\"],\"out\":\"bf16[128,2304,4,32]\",\"dout\":\"bf16[128,2304,4,32]\",\"q\":\"bf16[128,2304,4,32]\",\"k\":\"bf16[128,2304,4,32]\",\"v\":\"bf16[128,2304,4,32]\",\"precision\":[\"BF16_BF16_F32\",\"BF16_BF16_F32\"],\"logits_dtype\":\"float32\",\"logits_scale\":0.17677669529663687,\"bias\":\"bf16[1,4,2304,2304]\",\"logits_soft_cap\":null,\"mask\":{\"bool_mask\":\"bool[128,1,1,2304]\",\"q_start\":null,\"q_end\":null,\"k_start\":null,\"k_end\":null,\"is_causal\":false},\"dropout_mask\":null,\"dropout_rate\":0.0,\"paging_info\":null,\"q_indices\":null,\"k_indices\":null,\"normalize_output\":true,\"return_residuals\":false}": {
    "{}": {
      "compile_time_ms": 1982.4061370454729,
      "lower_time_ms": 29.386220034211874,
      "evaluation_times_ms": [
        38.406,
        38.4,
        38.395,
        38.38,
        38.403
      ],
      "metadata": {},
      "peak_memory_mb": 33313.554976
    }
  },
  "{\"residuals\":[\"f32[128,4,2560]\",\"f32[128,4,2560]\"],\"out\":\"bf16[128,2560,4,16]\",\"dout\":\"bf16[128,2560,4,16]\",\"q\":\"bf16[128,2560,4,16]\",\"k\":\"bf16[128,2560,4,16]\",\"v\":\"bf16[128,2560,4,16]\",\"precision\":[\"BF16_BF16_F32\",\"BF16_BF16_F32\"],\"logits_dtype\":\"float32\",\"logits_scale\":0.25,\"bias\":\"bf16[1,4,2560,2560]\",\"logits_soft_cap\":null,\"mask\":{\"bool_mask\":\"bool[128,1,1,2560]\",\"q_start\":null,\"q_end\":null,\"k_start\":null,\"k_end\":null,\"is_causal\":false},\"dropout_mask\":null,\"dropout_rate\":0.0,\"paging_info\":null,\"q_indices\":null,\"k_indices\":null,\"normalize_output\":true,\"return_residuals\":false}": {
    "{}": {
      "compile_time_ms": 2395.511046051979,
      "lower_time_ms": 38.093833019956946,
      "evaluation_times_ms": [
        47.482,
        47.476,
        47.484,
        47.486,
        47.495
      ],
      "metadata": {},
      "peak_memory_mb": 40716.534304
    }
  },
  "{\"residuals\":[\"f32[1,128,4,2560]\",\"f32[1,128,4,2560]\"],\"out\":\"bf16[1,128,2560,4,32]\",\"dout\":\"bf16[1,128,2560,4,32]\",\"q\":\"bf16[1,128,2560,4,32]\",\"k\":\"bf16[1,128,2560,4,32]\",\"v\":\"bf16[1,128,2560,4,32]\",\"precision\":[\"BF16_BF16_F32\",\"BF16_BF16_F32\"],\"logits_dtype\":\"float32\",\"logits_scale\":0.17677669529663687,\"bias\":\"bf16[1,1,4,2560,2560]\",\"logits_soft_cap\":null,\"mask\":{\"bool_mask\":\"bool[128,1,1,2560]\",\"q_start\":null,\"q_end\":null,\"k_start\":null,\"k_end\":null,\"is_causal\":false},\"dropout_mask\":null,\"dropout_rate\":0.0,\"paging_info\":null,\"q_indices\":null,\"k_indices\":null,\"normalize_output\":true,\"return_residuals\":false}": {
    "{}": {
      "compile_time_ms": 3942.9116289829835,
      "lower_time_ms": 232.02907701488584,
      "evaluation_times_ms": [
        47.269,
        47.263,
        47.27,
        47.254,
        47.26
      ],
      "metadata": {},
      "peak_memory_mb": 41052.078624
    }
  },
  "{\"residuals\":[\"f32[128,4,2560]\",\"f32[128,4,2560]\"],\"out\":\"bf16[128,2560,4,32]\",\"dout\":\"bf16[128,2560,4,32]\",\"q\":\"bf16[128,2560,4,32]\",\"k\":\"bf16[128,2560,4,32]\",\"v\":\"bf16[128,2560,4,32]\",\"precision\":[\"BF16_BF16_F32\",\"BF16_BF16_F32\"],\"logits_dtype\":\"float32\",\"logits_scale\":0.17677669529663687,\"bias\":\"bf16[1,4,2560,2560]\",\"logits_soft_cap\":null,\"mask\":{\"bool_mask\":\"bool[128,1,1,2560]\",\"q_start\":null,\"q_end\":null,\"k_start\":null,\"k_end\":null,\"is_causal\":false},\"dropout_mask\":null,\"dropout_rate\":0.0,\"paging_info\":null,\"q_indices\":null,\"k_indices\":null,\"normalize_output\":true,\"return_residuals\":false}": {
    "{}": {
      "compile_time_ms": 2002.4178460007533,
      "lower_time_ms": 43.61966799478978,
      "evaluation_times_ms": [
        47.246,
        47.261,
        47.266,
        47.262,
        47.246
      ],
      "metadata": {},
      "peak_memory_mb": 41052.078624
    }
  },
  "{\"residuals\":[\"f32[128,4,2816]\",\"f32[128,4,2816]\"],\"out\":\"bf16[128,2816,4,16]\",\"dout\":\"bf16[128,2816,4,16]\",\"q\":\"bf16[128,2816,4,16]\",\"k\":\"bf16[128,2816,4,16]\",\"v\":\"bf16[128,2816,4,16]\",\"precision\":[\"BF16_BF16_F32\",\"BF16_BF16_F32\"],\"logits_dtype\":\"float32\",\"logits_scale\":0.25,\"bias\":\"bf16[1,4,2816,2816]\",\"logits_soft_cap\":null,\"mask\":{\"bool_mask\":\"bool[128,1,1,2816]\",\"q_start\":null,\"q_end\":null,\"k_start\":null,\"k_end\":null,\"is_causal\":false},\"dropout_mask\":null,\"dropout_rate\":0.0,\"paging_info\":null,\"q_indices\":null,\"k_indices\":null,\"normalize_output\":true,\"return_residuals\":false}": {
    "{}": {
      "compile_time_ms": 2336.5626219892874,
      "lower_time_ms": 41.502188076265156,
      "evaluation_times_ms": [
        63.313,
        63.341,
        63.361,
        63.309,
        63.309
      ],
      "metadata": {},
      "peak_memory_mb": 49356.145184
    }
  },
  "{\"residuals\":[\"f32[1,128,4,2816]\",\"f32[1,128,4,2816]\"],\"out\":\"bf16[1,128,2816,4,32]\",\"dout\":\"bf16[1,128,2816,4,32]\",\"q\":\"bf16[1,128,2816,4,32]\",\"k\":\"bf16[1,128,2816,4,32]\",\"v\":\"bf16[1,128,2816,4,32]\",\"precision\":[\"BF16_BF16_F32\",\"BF16_BF16_F32\"],\"logits_dtype\":\"float32\",\"logits_scale\":0.17677669529663687,\"bias\":\"bf16[1,1,4,2816,2816]\",\"logits_soft_cap\":null,\"mask\":{\"bool_mask\":\"bool[128,1,1,2816]\",\"q_start\":null,\"q_end\":null,\"k_start\":null,\"k_end\":null,\"is_causal\":false},\"dropout_mask\":null,\"dropout_rate\":0.0,\"paging_info\":null,\"q_indices\":null,\"k_indices\":null,\"normalize_output\":true,\"return_residuals\":false}": {
    "{}": {
      "compile_time_ms": 2401.855633012019,
      "lower_time_ms": 40.08785495534539,
      "evaluation_times_ms": [
        64.362,
        64.382,
        64.357,
        64.383,
        64.388
      ],
      "metadata": {},
      "peak_memory_mb": 49725.243936
    }
  },
  "{\"residuals\":[\"f32[128,4,2816]\",\"f32[128,4,2816]\"],\"out\":\"bf16[128,2816,4,32]\",\"dout\":\"bf16[128,2816,4,32]\",\"q\":\"bf16[128,2816,4,32]\",\"k\":\"bf16[128,2816,4,32]\",\"v\":\"bf16[128,2816,4,32]\",\"precision\":[\"BF16_BF16_F32\",\"BF16_BF16_F32\"],\"logits_dtype\":\"float32\",\"logits_scale\":0.17677669529663687,\"bias\":\"bf16[1,4,2816,2816]\",\"logits_soft_cap\":null,\"mask\":{\"bool_mask\":\"bool[128,1,1,2816]\",\"q_start\":null,\"q_end\":null,\"k_start\":null,\"k_end\":null,\"is_causal\":false},\"dropout_mask\":null,\"dropout_rate\":0.0,\"paging_info\":null,\"q_indices\":null,\"k_indices\":null,\"normalize_output\":true,\"return_residuals\":false}": {
    "{}": {
      "compile_time_ms": 2340.6525870086625,
      "lower_time_ms": 29.754749964922667,
      "evaluation_times_ms": [
        64.336,
        64.379,
        64.37,
        64.356,
        64.331
      ],
      "metadata": {},
      "peak_memory_mb": 49725.243936
    }
  },
  "{\"residuals\":[\"f32[128,4,3072]\",\"f32[128,4,3072]\"],\"out\":\"bf16[128,3072,4,16]\",\"dout\":\"bf16[128,3072,4,16]\",\"q\":\"bf16[128,3072,4,16]\",\"k\":\"bf16[128,3072,4,16]\",\"v\":\"bf16[128,3072,4,16]\",\"precision\":[\"BF16_BF16_F32\",\"BF16_BF16_F32\"],\"logits_dtype\":\"float32\",\"logits_scale\":0.25,\"bias\":\"bf16[1,4,3072,3072]\",\"logits_soft_cap\":null,\"mask\":{\"bool_mask\":\"bool[128,1,1,3072]\",\"q_start\":null,\"q_end\":null,\"k_start\":null,\"k_end\":null,\"is_causal\":false},\"dropout_mask\":null,\"dropout_rate\":0.0,\"paging_info\":null,\"q_indices\":null,\"k_indices\":null,\"normalize_output\":true,\"return_residuals\":false}": {
    "{}": {
      "compile_time_ms": 2850.3496600314975,
      "lower_time_ms": 38.02192199509591,
      "evaluation_times_ms": [
        75.117,
        75.158,
        75.11,
        75.138,
        75.14
      ],
      "metadata": {},
      "peak_memory_mb": 58700.071456
    }
  },
  "{\"residuals\":[\"f32[1,128,4,3072]\",\"f32[1,128,4,3072]\"],\"out\":\"bf16[1,128,3072,4,32]\",\"dout\":\"bf16[1,128,3072,4,32]\",\"q\":\"bf16[1,128,3072,4,32]\",\"k\":\"bf16[1,128,3072,4,32]\",\"v\":\"bf16[1,128,3072,4,32]\",\"precision\":[\"BF16_BF16_F32\",\"BF16_BF16_F32\"],\"logits_dtype\":\"float32\",\"logits_scale\":0.17677669529663687,\"bias\":\"bf16[1,1,4,3072,3072]\",\"logits_soft_cap\":null,\"mask\":{\"bool_mask\":\"bool[128,1,1,3072]\",\"q_start\":null,\"q_end\":null,\"k_start\":null,\"k_end\":null,\"is_causal\":false},\"dropout_mask\":null,\"dropout_rate\":0.0,\"paging_info\":null,\"q_indices\":null,\"k_indices\":null,\"normalize_output\":true,\"return_residuals\":false}": {
    "{}": {
      "compile_time_ms": 4403.872663038783,
      "lower_time_ms": 202.95902888756245,
      "evaluation_times_ms": [
        75.493,
        75.526,
        75.512,
        75.513,
        75.534
      ],
      "metadata": {},
      "peak_memory_mb": 59102.72464
    }
  },
  "{\"residuals\":[\"f32[128,4,3072]\",\"f32[128,4,3072]\"],\"out\":\"bf16[128,3072,4,32]\",\"dout\":\"bf16[128,3072,4,32]\",\"q\":\"bf16[128,3072,4,32]\",\"k\":\"bf16[128,3072,4,32]\",\"v\":\"bf16[128,3072,4,32]\",\"precision\":[\"BF16_BF16_F32\",\"BF16_BF16_F32\"],\"logits_dtype\":\"float32\",\"logits_scale\":0.17677669529663687,\"bias\":\"bf16[1,4,3072,3072]\",\"logits_soft_cap\":null,\"mask\":{\"bool_mask\":\"bool[128,1,1,3072]\",\"q_start\":null,\"q_end\":null,\"k_start\":null,\"k_end\":null,\"is_causal\":false},\"dropout_mask\":null,\"dropout_rate\":0.0,\"paging_info\":null,\"q_indices\":null,\"k_indices\":null,\"normalize_output\":true,\"return_residuals\":false}": {
    "{}": {
      "compile_time_ms": 2487.8653089981526,
      "lower_time_ms": 40.665411041118205,
      "evaluation_times_ms": [
        75.507,
        75.515,
        75.517,
        75.532,
        75.493
      ],
      "metadata": {},
      "peak_memory_mb": 59102.72464
    }
  },
  "{\"residuals\":[\"f32[128,4,3328]\",\"f32[128,4,3328]\"],\"out\":\"bf16[128,3328,4,16]\",\"dout\":\"bf16[128,3328,4,16]\",\"q\":\"bf16[128,3328,4,16]\",\"k\":\"bf16[128,3328,4,16]\",\"v\":\"bf16[128,3328,4,16]\",\"precision\":[\"BF16_BF16_F32\",\"BF16_BF16_F32\"],\"logits_dtype\":\"float32\",\"logits_scale\":0.25,\"bias\":\"bf16[1,4,3328,3328]\",\"logits_soft_cap\":null,\"mask\":{\"bool_mask\":\"bool[128,1,1,3328]\",\"q_start\":null,\"q_end\":null,\"k_start\":null,\"k_end\":null,\"is_causal\":false},\"dropout_mask\":null,\"dropout_rate\":0.0,\"paging_info\":null,\"q_indices\":null,\"k_indices\":null,\"normalize_output\":true,\"return_residuals\":false}": {
    "{}": {
      "compile_time_ms": 2376.127252005972,
      "lower_time_ms": 41.92374600097537,
      "evaluation_times_ms": [
        80.453,
        80.449,
        80.442,
        80.445,
        80.475
      ],
      "metadata": {},
      "peak_memory_mb": 68675.863072
    }
  },
  "{\"residuals\":[\"f32[1,128,4,3328]\",\"f32[1,128,4,3328]\"],\"out\":\"bf16[1,128,3328,4,32]\",\"dout\":\"bf16[1,128,3328,4,32]\",\"q\":\"bf16[1,128,3328,4,32]\",\"k\":\"bf16[1,128,3328,4,32]\",\"v\":\"bf16[1,128,3328,4,32]\",\"precision\":[\"BF16_BF16_F32\",\"BF16_BF16_F32\"],\"logits_dtype\":\"float32\",\"logits_scale\":0.17677669529663687,\"bias\":\"bf16[1,1,4,3328,3328]\",\"logits_soft_cap\":null,\"mask\":{\"bool_mask\":\"bool[128,1,1,3328]\",\"q_start\":null,\"q_end\":null,\"k_start\":null,\"k_end\":null,\"is_causal\":false},\"dropout_mask\":null,\"dropout_rate\":0.0,\"paging_info\":null,\"q_indices\":null,\"k_indices\":null,\"normalize_output\":true,\"return_residuals\":false}": {
    "{}": {
      "compile_time_ms": 2385.0662370678037,
      "lower_time_ms": 38.6917560826987,
      "evaluation_times_ms": [
        81.816,
        81.809,
        81.829,
        81.83,
        81.814
      ],
      "metadata": {},
      "peak_memory_mb": 69112.070688
    }
  },
  "{\"residuals\":[\"f32[128,4,3328]\",\"f32[128,4,3328]\"],\"out\":\"bf16[128,3328,4,32]\",\"dout\":\"bf16[128,3328,4,32]\",\"q\":\"bf16[128,3328,4,32]\",\"k\":\"bf16[128,3328,4,32]\",\"v\":\"bf16[128,3328,4,32]\",\"precision\":[\"BF16_BF16_F32\",\"BF16_BF16_F32\"],\"logits_dtype\":\"float32\",\"logits_scale\":0.17677669529663687,\"bias\":\"bf16[1,4,3328,3328]\",\"logits_soft_cap\":null,\"mask\":{\"bool_mask\":\"bool[128,1,1,3328]\",\"q_start\":null,\"q_end\":null,\"k_start\":null,\"k_end\":null,\"is_causal\":false},\"dropout_mask\":null,\"dropout_rate\":0.0,\"paging_info\":null,\"q_indices\":null,\"k_indices\":null,\"normalize_output\":true,\"return_residuals\":false}": {
    "{}": {
      "compile_time_ms": 2374.5724300388247,
      "lower_time_ms": 29.72795895766467,
      "evaluation_times_ms": [
        81.816,
        81.824,
        81.823,
        81.812,
        81.806
      ],
      "metadata": {},
      "peak_memory_mb": 69112.070688
    }
  },
  "{\"residuals\":[\"f32[128,4,3584]\",\"f32[128,4,3584]\"],\"out\":\"bf16[128,3584,4,16]\",\"dout\":\"bf16[128,3584,4,16]\",\"q\":\"bf16[128,3584,4,16]\",\"k\":\"bf16[128,3584,4,16]\",\"v\":\"bf16[128,3584,4,16]\",\"precision\":[\"BF16_BF16_F32\",\"BF16_BF16_F32\"],\"logits_dtype\":\"float32\",\"logits_scale\":0.25,\"bias\":\"bf16[1,4,3584,3584]\",\"logits_soft_cap\":null,\"mask\":{\"bool_mask\":\"bool[128,1,1,3584]\",\"q_start\":null,\"q_end\":null,\"k_start\":null,\"k_end\":null,\"is_causal\":false},\"dropout_mask\":null,\"dropout_rate\":0.0,\"paging_info\":null,\"q_indices\":null,\"k_indices\":null,\"normalize_output\":true,\"return_residuals\":false}": {
    "{}": {
      "compile_time_ms": 2459.3455030117184,
      "lower_time_ms": 38.455964997410774,
      "evaluation_times_ms": [
        92.881,
        92.88,
        92.887,
        92.868,
        92.903
      ],
      "metadata": {},
      "peak_memory_mb": 79610.446368
    }
  },
  "{\"residuals\":[\"f32[1,128,4,3584]\",\"f32[1,128,4,3584]\"],\"out\":\"bf16[1,128,3584,4,32]\",\"dout\":\"bf16[1,128,3584,4,32]\",\"q\":\"bf16[1,128,3584,4,32]\",\"k\":\"bf16[1,128,3584,4,32]\",\"v\":\"bf16[1,128,3584,4,32]\",\"precision\":[\"BF16_BF16_F32\",\"BF16_BF16_F32\"],\"logits_dtype\":\"float32\",\"logits_scale\":0.17677669529663687,\"bias\":\"bf16[1,1,4,3584,3584]\",\"logits_soft_cap\":null,\"mask\":{\"bool_mask\":\"bool[128,1,1,3584]\",\"q_start\":null,\"q_end\":null,\"k_start\":null,\"k_end\":null,\"is_causal\":false},\"dropout_mask\":null,\"dropout_rate\":0.0,\"paging_info\":null,\"q_indices\":null,\"k_indices\":null,\"normalize_output\":true,\"return_residuals\":false}": {
    "{}": {
      "compile_time_ms": 4274.388746009208,
      "lower_time_ms": 209.09186208155006,
      "evaluation_times_ms": [
        94.285,
        94.272,
        94.326,
        94.29,
        94.295
      ],
      "metadata": {},
      "peak_memory_mb": 80080.208416
    }
  },
  "{\"residuals\":[\"f32[128,4,3584]\",\"f32[128,4,3584]\"],\"out\":\"bf16[128,3584,4,32]\",\"dout\":\"bf16[128,3584,4,32]\",\"q\":\"bf16[128,3584,4,32]\",\"k\":\"bf16[128,3584,4,32]\",\"v\":\"bf16[128,3584,4,32]\",\"precision\":[\"BF16_BF16_F32\",\"BF16_BF16_F32\"],\"logits_dtype\":\"float32\",\"logits_scale\":0.17677669529663687,\"bias\":\"bf16[1,4,3584,3584]\",\"logits_soft_cap\":null,\"mask\":{\"bool_mask\":\"bool[128,1,1,3584]\",\"q_start\":null,\"q_end\":null,\"k_start\":null,\"k_end\":null,\"is_causal\":false},\"dropout_mask\":null,\"dropout_rate\":0.0,\"paging_info\":null,\"q_indices\":null,\"k_indices\":null,\"normalize_output\":true,\"return_residuals\":false}": {
    "{}": {
      "compile_time_ms": 2668.564821011387,
      "lower_time_ms": 41.474491939879954,
      "evaluation_times_ms": [
        94.28,
        94.264,
        94.294,
        94.275,
        94.29
      ],
      "metadata": {},
      "peak_memory_mb": 80080.208416
    }
  },
  "{\"residuals\":[\"f32[128,4,3840]\",\"f32[128,4,3840]\"],\"out\":\"bf16[128,3840,4,16]\",\"dout\":\"bf16[128,3840,4,16]\",\"q\":\"bf16[128,3840,4,16]\",\"k\":\"bf16[128,3840,4,16]\",\"v\":\"bf16[128,3840,4,16]\",\"precision\":[\"BF16_BF16_F32\",\"BF16_BF16_F32\"],\"logits_dtype\":\"float32\",\"logits_scale\":0.25,\"bias\":\"bf16[1,4,3840,3840]\",\"logits_soft_cap\":null,\"mask\":{\"bool_mask\":\"bool[128,1,1,3840]\",\"q_start\":null,\"q_end\":null,\"k_start\":null,\"k_end\":null,\"is_causal\":false},\"dropout_mask\":null,\"dropout_rate\":0.0,\"paging_info\":null,\"q_indices\":null,\"k_indices\":null,\"normalize_output\":true,\"return_residuals\":false}": {
    "{}": {
      "compile_time_ms": 3017.2018699813634,
      "lower_time_ms": 42.122157057747245,
      "evaluation_times_ms": [
        118.043,
        118.086,
        118.044,
        118.084,
        118.044
      ],
      "metadata": {},
      "peak_memory_mb": 91588.854304
    }
  },
  "{\"residuals\":[\"f32[1,128,4,3840]\",\"f32[1,128,4,3840]\"],\"out\":\"bf16[1,128,3840,4,32]\",\"dout\":\"bf16[1,128,3840,4,32]\",\"q\":\"bf16[1,128,3840,4,32]\",\"k\":\"bf16[1,128,3840,4,32]\",\"v\":\"bf16[1,128,3840,4,32]\",\"precision\":[\"BF16_BF16_F32\",\"BF16_BF16_F32\"],\"logits_dtype\":\"float32\",\"logits_scale\":0.17677669529663687,\"bias\":\"bf16[1,1,4,3840,3840]\",\"logits_soft_cap\":null,\"mask\":{\"bool_mask\":\"bool[128,1,1,3840]\",\"q_start\":null,\"q_end\":null,\"k_start\":null,\"k_end\":null,\"is_causal\":false},\"dropout_mask\":null,\"dropout_rate\":0.0,\"paging_info\":null,\"q_indices\":null,\"k_indices\":null,\"normalize_output\":true,\"return_residuals\":false}": {
    "{}": {
      "compile_time_ms": 2991.8211629847065,
      "lower_time_ms": 38.88585395179689,
      "evaluation_times_ms": [
        119.705,
        119.701,
        119.668,
        119.668,
        119.657
      ],
      "metadata": {},
      "peak_memory_mb": 92092.170784
    }
  },
  "{\"residuals\":[\"f32[128,4,3840]\",\"f32[128,4,3840]\"],\"out\":\"bf16[128,3840,4,32]\",\"dout\":\"bf16[128,3840,4,32]\",\"q\":\"bf16[128,3840,4,32]\",\"k\":\"bf16[128,3840,4,32]\",\"v\":\"bf16[128,3840,4,32]\",\"precision\":[\"BF16_BF16_F32\",\"BF16_BF16_F32\"],\"logits_dtype\":\"float32\",\"logits_scale\":0.17677669529663687,\"bias\":\"bf16[1,4,3840,3840]\",\"logits_soft_cap\":null,\"mask\":{\"bool_mask\":\"bool[128,1,1,3840]\",\"q_start\":null,\"q_end\":null,\"k_start\":null,\"k_end\":null,\"is_causal\":false},\"dropout_mask\":null,\"dropout_rate\":0.0,\"paging_info\":null,\"q_indices\":null,\"k_indices\":null,\"normalize_output\":true,\"return_residuals\":false}": {
    "{}": {
      "compile_time_ms": 2973.7562139052898,
      "lower_time_ms": 29.5697069959715,
      "evaluation_times_ms": [
        119.677,
        119.677,
        119.683,
        119.691,
        119.712
      ],
      "metadata": {},
      "peak_memory_mb": 92092.170784
    }
  },
  "{\"residuals\":[\"f32[128,4,4096]\",\"f32[128,4,4096]\"],\"out\":\"bf16[128,4096,4,16]\",\"dout\":\"bf16[128,4096,4,16]\",\"q\":\"bf16[128,4096,4,16]\",\"k\":\"bf16[128,4096,4,16]\",\"v\":\"bf16[128,4096,4,16]\",\"precision\":[\"BF16_BF16_F32\",\"BF16_BF16_F32\"],\"logits_dtype\":\"float32\",\"logits_scale\":0.25,\"bias\":\"bf16[1,4,4096,4096]\",\"logits_soft_cap\":null,\"mask\":{\"bool_mask\":\"bool[128,1,1,4096]\",\"q_start\":null,\"q_end\":null,\"k_start\":null,\"k_end\":null,\"is_causal\":false},\"dropout_mask\":null,\"dropout_rate\":0.0,\"paging_info\":null,\"q_indices\":null,\"k_indices\":null,\"normalize_output\":true,\"return_residuals\":false}": {},
  "{\"residuals\":[\"f32[32,16,512]\",\"f32[32,16,512]\"],\"out\":\"f16[32,512,16,128]\",\"dout\":\"f16[32,512,16,128]\",\"q\":\"f16[32,512,16,128]\",\"k\":\"f16[32,512,16,128]\",\"v\":\"f16[32,512,16,128]\",\"precision\":[[\"DEFAULT\",\"DEFAULT\"],[\"DEFAULT\",\"DEFAULT\"]],\"logits_dtype\":\"float32\",\"logits_scale\":0.08838834764831843,\"bias\":null,\"logits_soft_cap\":null,\"mask\":{\"bool_mask\":null,\"q_start\":null,\"q_end\":null,\"k_start\":null,\"k_end\":null,\"is_causal\":false},\"dropout_mask\":null,\"dropout_rate\":0.0,\"paging_info\":null,\"q_indices\":null,\"k_indices\":null,\"normalize_output\":true,\"return_residuals\":false}": {
    "{}": {
      "compile_time_ms": 1164.9976121261716,
      "lower_time_ms": 41.34667804464698,
      "evaluation_times_ms": [
        2.117,
        2.116,
        2.115,
        2.119,
        2.117
      ],
      "metadata": {},
      "peak_memory_mb": 1814.036512
    }
  },
  "{\"residuals\":[\"f32[32,8,512]\",\"f32[32,8,512]\"],\"out\":\"bf16[32,512,8,256]\",\"dout\":\"bf16[32,512,8,256]\",\"q\":\"bf16[32,512,8,256]\",\"k\":\"bf16[32,512,8,256]\",\"v\":\"bf16[32,512,8,256]\",\"precision\":[[\"DEFAULT\",\"DEFAULT\"],[\"DEFAULT\",\"DEFAULT\"]],\"logits_dtype\":\"float32\",\"logits_scale\":0.0625,\"bias\":null,\"logits_soft_cap\":null,\"mask\":{\"bool_mask\":null,\"q_start\":null,\"q_end\":null,\"k_start\":null,\"k_end\":null,\"is_causal\":true},\"dropout_mask\":null,\"dropout_rate\":0.0,\"paging_info\":null,\"q_indices\":null,\"k_indices\":null,\"normalize_output\":true,\"return_residuals\":false}": {
    "{}": {
      "compile_time_ms": 1416.6635628789663,
      "lower_time_ms": 40.0996757671237,
      "evaluation_times_ms": [
        1.312,
        1.312,
        1.312,
        1.311,
        1.313
      ],
      "metadata": {},
      "peak_memory_mb": 1276.117024
    }
  },
  "{\"residuals\":[\"f32[32,8,512]\",\"f32[32,8,512]\"],\"out\":\"f16[32,512,8,256]\",\"dout\":\"f16[32,512,8,256]\",\"q\":\"f16[32,512,8,256]\",\"k\":\"f16[32,512,8,256]\",\"v\":\"f16[32,512,8,256]\",\"precision\":[[\"DEFAULT\",\"DEFAULT\"],[\"DEFAULT\",\"DEFAULT\"]],\"logits_dtype\":\"float32\",\"logits_scale\":0.0625,\"bias\":null,\"logits_soft_cap\":null,\"mask\":{\"bool_mask\":null,\"q_start\":null,\"q_end\":null,\"k_start\":null,\"k_end\":null,\"is_causal\":true},\"dropout_mask\":null,\"dropout_rate\":0.0,\"paging_info\":null,\"q_indices\":null,\"k_indices\":null,\"normalize_output\":true,\"return_residuals\":false}": {
    "{}": {
      "compile_time_ms": 1436.8508430197835,
      "lower_time_ms": 29.295609798282385,
      "evaluation_times_ms": [
        1.487,
        1.487,
        1.484,
        1.481,
        1.484
      ],
      "metadata": {},
      "peak_memory_mb": 1276.117024
    }
  },
  "{\"residuals\":[\"f32[32,8,512]\",\"f32[32,8,512]\"],\"out\":\"bf16[32,512,8,256]\",\"dout\":\"bf16[32,512,8,256]\",\"q\":\"bf16[32,512,8,256]\",\"k\":\"bf16[32,512,8,256]\",\"v\":\"bf16[32,512,8,256]\",\"precision\":[[\"DEFAULT\",\"DEFAULT\"],[\"DEFAULT\",\"DEFAULT\"]],\"logits_dtype\":\"float32\",\"logits_scale\":0.0625,\"bias\":null,\"logits_soft_cap\":null,\"mask\":{\"bool_mask\":null,\"q_start\":null,\"q_end\":null,\"k_start\":null,\"k_end\":null,\"is_causal\":false},\"dropout_mask\":null,\"dropout_rate\":0.0,\"paging_info\":null,\"q_indices\":null,\"k_indices\":null,\"normalize_output\":true,\"return_residuals\":false}": {
    "{}": {
      "compile_time_ms": 1254.5373481698334,
      "lower_time_ms": 22.677291184663773,
      "evaluation_times_ms": [
        1.276,
        1.276,
        1.277,
        1.275,
        1.274
      ],
      "metadata": {},
      "peak_memory_mb": 1276.117024
    }
  },
  "{\"residuals\":[\"f32[32,8,512]\",\"f32[32,8,512]\"],\"out\":\"f16[32,512,8,256]\",\"dout\":\"f16[32,512,8,256]\",\"q\":\"f16[32,512,8,256]\",\"k\":\"f16[32,512,8,256]\",\"v\":\"f16[32,512,8,256]\",\"precision\":[[\"DEFAULT\",\"DEFAULT\"],[\"DEFAULT\",\"DEFAULT\"]],\"logits_dtype\":\"float32\",\"logits_scale\":0.0625,\"bias\":null,\"logits_soft_cap\":null,\"mask\":{\"bool_mask\":null,\"q_start\":null,\"q_end\":null,\"k_start\":null,\"k_end\":null,\"is_causal\":false},\"dropout_mask\":null,\"dropout_rate\":0.0,\"paging_info\":null,\"q_indices\":null,\"k_indices\":null,\"normalize_output\":true,\"return_residuals\":false}": {
    "{}": {
      "compile_time_ms": 1246.5975238010287,
      "lower_time_ms": 22.529240231961012,
      "evaluation_times_ms": [
        1.441,
        1.441,
        1.443,
        1.44,
        1.441
      ],
      "metadata": {},
      "peak_memory_mb": 1276.117024
    }
  },
  "{\"residuals\":[\"f32[16,32,1024]\",\"f32[16,32,1024]\"],\"out\":\"bf16[16,1024,32,64]\",\"dout\":\"bf16[16,1024,32,64]\",\"q\":\"bf16[16,1024,32,64]\",\"k\":\"bf16[16,1024,32,64]\",\"v\":\"bf16[16,1024,32,64]\",\"precision\":[[\"DEFAULT\",\"DEFAULT\"],[\"DEFAULT\",\"DEFAULT\"]],\"logits_dtype\":\"float32\",\"logits_scale\":0.125,\"bias\":null,\"logits_soft_cap\":null,\"mask\":{\"bool_mask\":null,\"q_start\":null,\"q_end\":null,\"k_start\":null,\"k_end\":null,\"is_causal\":true},\"dropout_mask\":null,\"dropout_rate\":0.0,\"paging_info\":null,\"q_indices\":null,\"k_indices\":null,\"normalize_output\":true,\"return_residuals\":false}": {
    "{}": {
      "compile_time_ms": 1193.0708182044327,
      "lower_time_ms": 36.704519763588905,
      "evaluation_times_ms": [
        6.562,
        6.56,
        6.555,
        6.55,
        6.565
      ],
      "metadata": {},
      "peak_memory_mb": 4836.032544
    }
  },
  "{\"residuals\":[\"f32[16,32,1024]\",\"f32[16,32,1024]\"],\"out\":\"f16[16,1024,32,64]\",\"dout\":\"f16[16,1024,32,64]\",\"q\":\"f16[16,1024,32,64]\",\"k\":\"f16[16,1024,32,64]\",\"v\":\"f16[16,1024,32,64]\",\"precision\":[[\"DEFAULT\",\"DEFAULT\"],[\"DEFAULT\",\"DEFAULT\"]],\"logits_dtype\":\"float32\",\"logits_scale\":0.125,\"bias\":null,\"logits_soft_cap\":null,\"mask\":{\"bool_mask\":null,\"q_start\":null,\"q_end\":null,\"k_start\":null,\"k_end\":null,\"is_causal\":true},\"dropout_mask\":null,\"dropout_rate\":0.0,\"paging_info\":null,\"q_indices\":null,\"k_indices\":null,\"normalize_output\":true,\"return_residuals\":false}": {
    "{}": {
      "compile_time_ms": 1188.892422011122,
      "lower_time_ms": 51.53682001400739,
      "evaluation_times_ms": [
        6.632,
        6.634,
        6.625,
        6.631,
        6.633
      ],
      "metadata": {},
      "peak_memory_mb": 4836.032544
    }
  },
  "{\"residuals\":[\"f32[16,32,1024]\",\"f32[16,32,1024]\"],\"out\":\"bf16[16,1024,32,64]\",\"dout\":\"bf16[16,1024,32,64]\",\"q\":\"bf16[16,1024,32,64]\",\"k\":\"bf16[16,1024,32,64]\",\"v\":\"bf16[16,1024,32,64]\",\"precision\":[[\"DEFAULT\",\"DEFAULT\"],[\"DEFAULT\",\"DEFAULT\"]],\"logits_dtype\":\"float32\",\"logits_scale\":0.125,\"bias\":null,\"logits_soft_cap\":null,\"mask\":{\"bool_mask\":null,\"q_start\":null,\"q_end\":null,\"k_start\":null,\"k_end\":null,\"is_causal\":false},\"dropout_mask\":null,\"dropout_rate\":0.0,\"paging_info\":null,\"q_indices\":null,\"k_indices\":null,\"normalize_output\":true,\"return_residuals\":false}": {
    "{}": {
      "compile_time_ms": 897.2056809870992,
      "lower_time_ms": 25.6845060212072,
      "evaluation_times_ms": [
        6.128,
        6.123,
        6.123,
        6.127,
        6.129
      ],
      "metadata": {},
      "peak_memory_mb": 4836.032544
    }
  },
  "{\"residuals\":[\"f32[16,32,1024]\",\"f32[16,32,1024]\"],\"out\":\"f16[16,1024,32,64]\",\"dout\":\"f16[16,1024,32,64]\",\"q\":\"f16[16,1024,32,64]\",\"k\":\"f16[16,1024,32,64]\",\"v\":\"f16[16,1024,32,64]\",\"precision\":[[\"DEFAULT\",\"DEFAULT\"],[\"DEFAULT\",\"DEFAULT\"]],\"logits_dtype\":\"float32\",\"logits_scale\":0.125,\"bias\":null,\"logits_soft_cap\":null,\"mask\":{\"bool_mask\":null,\"q_start\":null,\"q_end\":null,\"k_start\":null,\"k_end\":null,\"is_causal\":false},\"dropout_mask\":null,\"dropout_rate\":0.0,\"paging_info\":null,\"q_indices\":null,\"k_indices\":null,\"normalize_output\":true,\"return_residuals\":false}": {
    "{}": {
      "compile_time_ms": 876.4007049903739,
      "lower_time_ms": 22.447544004535303,
      "evaluation_times_ms": [
        6.167,
        6.163,
        6.166,
        6.168,
        6.169
      ],
      "metadata": {},
      "peak_memory_mb": 4836.032544
    }
  },
  "{\"residuals\":[\"f32[16,16,1024]\",\"f32[16,16,1024]\"],\"out\":\"bf16[16,1024,16,128]\",\"dout\":\"bf16[16,1024,16,128]\",\"q\":\"bf16[16,1024,16,128]\",\"k\":\"bf16[16,1024,16,128]\",\"v\":\"bf16[16,1024,16,128]\",\"precision\":[[\"DEFAULT\",\"DEFAULT\"],[\"DEFAULT\",\"DEFAULT\"]],\"logits_dtype\":\"float32\",\"logits_scale\":0.08838834764831843,\"bias\":null,\"logits_soft_cap\":null,\"mask\":{\"bool_mask\":null,\"q_start\":null,\"q_end\":null,\"k_start\":null,\"k_end\":null,\"is_causal\":true},\"dropout_mask\":null,\"dropout_rate\":0.0,\"paging_info\":null,\"q_indices\":null,\"k_indices\":null,\"normalize_output\":true,\"return_residuals\":false}": {
    "{}": {
      "compile_time_ms": 1390.9064320032485,
      "lower_time_ms": 36.43241198733449,
      "evaluation_times_ms": [
        3.569,
        3.567,
        3.566,
        3.566,
        3.56
      ],
      "metadata": {},
      "peak_memory_mb": 2887.778336
    }
  },
  "{\"residuals\":[\"f32[16,16,1024]\",\"f32[16,16,1024]\"],\"out\":\"f16[16,1024,16,128]\",\"dout\":\"f16[16,1024,16,128]\",\"q\":\"f16[16,1024,16,128]\",\"k\":\"f16[16,1024,16,128]\",\"v\":\"f16[16,1024,16,128]\",\"precision\":[[\"DEFAULT\",\"DEFAULT\"],[\"DEFAULT\",\"DEFAULT\"]],\"logits_dtype\":\"float32\",\"logits_scale\":0.08838834764831843,\"bias\":null,\"logits_soft_cap\":null,\"mask\":{\"bool_mask\":null,\"q_start\":null,\"q_end\":null,\"k_start\":null,\"k_end\":null,\"is_causal\":true},\"dropout_mask\":null,\"dropout_rate\":0.0,\"paging_info\":null,\"q_indices\":null,\"k_indices\":null,\"normalize_output\":true,\"return_residuals\":false}": {
    "{}": {
      "compile_time_ms": 1466.0322300042026,
      "lower_time_ms": 29.480366996722296,
      "evaluation_times_ms": [
        3.703,
        3.708,
        3.713,
        3.706,
        3.709
      ],
      "metadata": {},
      "peak_memory_mb": 2887.778336
    }
  },
  "{\"residuals\":[\"f32[16,16,1024]\",\"f32[16,16,1024]\"],\"out\":\"bf16[16,1024,16,128]\",\"dout\":\"bf16[16,1024,16,128]\",\"q\":\"bf16[16,1024,16,128]\",\"k\":\"bf16[16,1024,16,128]\",\"v\":\"bf16[16,1024,16,128]\",\"precision\":[[\"DEFAULT\",\"DEFAULT\"],[\"DEFAULT\",\"DEFAULT\"]],\"logits_dtype\":\"float32\",\"logits_scale\":0.08838834764831843,\"bias\":null,\"logits_soft_cap\":null,\"mask\":{\"bool_mask\":null,\"q_start\":null,\"q_end\":null,\"k_start\":null,\"k_end\":null,\"is_causal\":false},\"dropout_mask\":null,\"dropout_rate\":0.0,\"paging_info\":null,\"q_indices\":null,\"k_indices\":null,\"normalize_output\":true,\"return_residuals\":false}": {
    "{}": {
      "compile_time_ms": 1169.8265790182631,
      "lower_time_ms": 22.67600200138986,
      "evaluation_times_ms": [
        3.414,
        3.414,
        3.411,
        3.409,
        3.41
      ],
      "metadata": {},
      "peak_memory_mb": 2887.778336
    }
  },
  "{\"residuals\":[\"f32[16,16,1024]\",\"f32[16,16,1024]\"],\"out\":\"f16[16,1024,16,128]\",\"dout\":\"f16[16,1024,16,128]\",\"q\":\"f16[16,1024,16,128]\",\"k\":\"f16[16,1024,16,128]\",\"v\":\"f16[16,1024,16,128]\",\"precision\":[[\"DEFAULT\",\"DEFAULT\"],[\"DEFAULT\",\"DEFAULT\"]],\"logits_dtype\":\"float32\",\"logits_scale\":0.08838834764831843,\"bias\":null,\"logits_soft_cap\":null,\"mask\":{\"bool_mask\":null,\"q_start\":null,\"q_end\":null,\"k_start\":null,\"k_end\":null,\"is_causal\":false},\"dropout_mask\":null,\"dropout_rate\":0.0,\"paging_info\":null,\"q_indices\":null,\"k_indices\":null,\"normalize_output\":true,\"return_residuals\":false}": {
    "{}": {
      "compile_time_ms": 1171.488931053318,
      "lower_time_ms": 41.31228197365999,
      "evaluation_times_ms": [
        3.535,
        3.535,
        3.538,
        3.536,
        3.537
      ],
      "metadata": {},
      "peak_memory_mb": 2887.778336
    }
  },
  "{\"residuals\":[\"f32[16,8,1024]\",\"f32[16,8,1024]\"],\"out\":\"bf16[16,1024,8,256]\",\"dout\":\"bf16[16,1024,8,256]\",\"q\":\"bf16[16,1024,8,256]\",\"k\":\"bf16[16,1024,8,256]\",\"v\":\"bf16[16,1024,8,256]\",\"precision\":[[\"DEFAULT\",\"DEFAULT\"],[\"DEFAULT\",\"DEFAULT\"]],\"logits_dtype\":\"float32\",\"logits_scale\":0.0625,\"bias\":null,\"logits_soft_cap\":null,\"mask\":{\"bool_mask\":null,\"q_start\":null,\"q_end\":null,\"k_start\":null,\"k_end\":null,\"is_causal\":true},\"dropout_mask\":null,\"dropout_rate\":0.0,\"paging_info\":null,\"q_indices\":null,\"k_indices\":null,\"normalize_output\":true,\"return_residuals\":false}": {
    "{}": {
      "compile_time_ms": 1689.9378899252042,
      "lower_time_ms": 40.67891195882112,
      "evaluation_times_ms": [
        2.206,
        2.214,
        2.21,
        2.209,
        2.21
      ],
      "metadata": {},
      "peak_memory_mb": 1812.987936
    }
  },
  "{\"residuals\":[\"f32[16,8,1024]\",\"f32[16,8,1024]\"],\"out\":\"f16[16,1024,8,256]\",\"dout\":\"f16[16,1024,8,256]\",\"q\":\"f16[16,1024,8,256]\",\"k\":\"f16[16,1024,8,256]\",\"v\":\"f16[16,1024,8,256]\",\"precision\":[[\"DEFAULT\",\"DEFAULT\"],[\"DEFAULT\",\"DEFAULT\"]],\"logits_dtype\":\"float32\",\"logits_scale\":0.0625,\"bias\":null,\"logits_soft_cap\":null,\"mask\":{\"bool_mask\":null,\"q_start\":null,\"q_end\":null,\"k_start\":null,\"k_end\":null,\"is_causal\":true},\"dropout_mask\":null,\"dropout_rate\":0.0,\"paging_info\":null,\"q_indices\":null,\"k_indices\":null,\"normalize_output\":true,\"return_residuals\":false}": {
    "{}": {
      "compile_time_ms": 1651.6226090025157,
      "lower_time_ms": 29.206154984422028,
      "evaluation_times_ms": [
        2.41,
        2.408,
        2.415,
        2.411,
        2.414
      ],
      "metadata": {},
      "peak_memory_mb": 1812.987936
    }
  },
  "{\"residuals\":[\"f32[16,8,1024]\",\"f32[16,8,1024]\"],\"out\":\"bf16[16,1024,8,256]\",\"dout\":\"bf16[16,1024,8,256]\",\"q\":\"bf16[16,1024,8,256]\",\"k\":\"bf16[16,1024,8,256]\",\"v\":\"bf16[16,1024,8,256]\",\"precision\":[[\"DEFAULT\",\"DEFAULT\"],[\"DEFAULT\",\"DEFAULT\"]],\"logits_dtype\":\"float32\",\"logits_scale\":0.0625,\"bias\":null,\"logits_soft_cap\":null,\"mask\":{\"bool_mask\":null,\"q_start\":null,\"q_end\":null,\"k_start\":null,\"k_end\":null,\"is_causal\":false},\"dropout_mask\":null,\"dropout_rate\":0.0,\"paging_info\":null,\"q_indices\":null,\"k_indices\":null,\"normalize_output\":true,\"return_residuals\":false}": {
    "{}": {
      "compile_time_ms": 1440.6579589704052,
      "lower_time_ms": 22.191539988853037,
      "evaluation_times_ms": [
        2.128,
        2.128,
        2.129,
        2.126,
        2.127
      ],
      "metadata": {},
      "peak_memory_mb": 1812.987936
    }
  },
  "{\"residuals\":[\"f32[16,8,1024]\",\"f32[16,8,1024]\"],\"out\":\"f16[16,1024,8,256]\",\"dout\":\"f16[16,1024,8,256]\",\"q\":\"f16[16,1024,8,256]\",\"k\":\"f16[16,1024,8,256]\",\"v\":\"f16[16,1024,8,256]\",\"precision\":[[\"DEFAULT\",\"DEFAULT\"],[\"DEFAULT\",\"DEFAULT\"]],\"logits_dtype\":\"float32\",\"logits_scale\":0.0625,\"bias\":null,\"logits_soft_cap\":null,\"mask\":{\"bool_mask\":null,\"q_start\":null,\"q_end\":null,\"k_start\":null,\"k_end\":null,\"is_causal\":false},\"dropout_mask\":null,\"dropout_rate\":0.0,\"paging_info\":null,\"q_indices\":null,\"k_indices\":null,\"normalize_output\":true,\"return_residuals\":false}": {
    "{}": {
      "compile_time_ms": 1430.1743030082434,
      "lower_time_ms": 22.929181926883757,
      "evaluation_times_ms": [
        2.308,
        2.308,
        2.308,
        2.309,
        2.311
      ],
      "metadata": {},
      "peak_memory_mb": 1812.987936
    }
  },
  "{\"residuals\":[\"f32[8,32,2048]\",\"f32[8,32,2048]\"],\"out\":\"bf16[8,2048,32,64]\",\"dout\":\"bf16[8,2048,32,64]\",\"q\":\"bf16[8,2048,32,64]\",\"k\":\"bf16[8,2048,32,64]\",\"v\":\"bf16[8,2048,32,64]\",\"precision\":[[\"DEFAULT\",\"DEFAULT\"],[\"DEFAULT\",\"DEFAULT\"]],\"logits_dtype\":\"float32\",\"logits_scale\":0.125,\"bias\":null,\"logits_soft_cap\":null,\"mask\":{\"bool_mask\":null,\"q_start\":null,\"q_end\":null,\"k_start\":null,\"k_end\":null,\"is_causal\":true},\"dropout_mask\":null,\"dropout_rate\":0.0,\"paging_info\":null,\"q_indices\":null,\"k_indices\":null,\"normalize_output\":true,\"return_residuals\":false}": {
    "{}": {
      "compile_time_ms": 1573.8985310308635,
      "lower_time_ms": 36.84152604546398,
      "evaluation_times_ms": [
        12.883,
        12.891,
        12.887,
        12.895,
        12.89
      ],
      "metadata": {},
      "peak_memory_mb": 9130.99984
    }
  },
  "{\"residuals\":[\"f32[8,32,2048]\",\"f32[8,32,2048]\"],\"out\":\"f16[8,2048,32,64]\",\"dout\":\"f16[8,2048,32,64]\",\"q\":\"f16[8,2048,32,64]\",\"k\":\"f16[8,2048,32,64]\",\"v\":\"f16[8,2048,32,64]\",\"precision\":[[\"DEFAULT\",\"DEFAULT\"],[\"DEFAULT\",\"DEFAULT\"]],\"logits_dtype\":\"float32\",\"logits_scale\":0.125,\"bias\":null,\"logits_soft_cap\":null,\"mask\":{\"bool_mask\":null,\"q_start\":null,\"q_end\":null,\"k_start\":null,\"k_end\":null,\"is_causal\":true},\"dropout_mask\":null,\"dropout_rate\":0.0,\"paging_info\":null,\"q_indices\":null,\"k_indices\":null,\"normalize_output\":true,\"return_residuals\":false}": {
    "{}": {
      "compile_time_ms": 1584.3050619587302,
      "lower_time_ms": 54.49923302512616,
      "evaluation_times_ms": [
        13.094,
        13.103,
        13.096,
        13.096,
        13.089
      ],
      "metadata": {},
      "peak_memory_mb": 9130.99984
    }
  },
  "{\"residuals\":[\"f32[8,32,2048]\",\"f32[8,32,2048]\"],\"out\":\"bf16[8,2048,32,64]\",\"dout\":\"bf16[8,2048,32,64]\",\"q\":\"bf16[8,2048,32,64]\",\"k\":\"bf16[8,2048,32,64]\",\"v\":\"bf16[8,2048,32,64]\",\"precision\":[[\"DEFAULT\",\"DEFAULT\"],[\"DEFAULT\",\"DEFAULT\"]],\"logits_dtype\":\"float32\",\"logits_scale\":0.125,\"bias\":null,\"logits_soft_cap\":null,\"mask\":{\"bool_mask\":null,\"q_start\":null,\"q_end\":null,\"k_start\":null,\"k_end\":null,\"is_causal\":false},\"dropout_mask\":null,\"dropout_rate\":0.0,\"paging_info\":null,\"q_indices\":null,\"k_indices\":null,\"normalize_output\":true,\"return_residuals\":false}": {
    "{}": {
      "compile_time_ms": 1080.1250850781798,
      "lower_time_ms": 27.133244089782238,
      "evaluation_times_ms": [
        11.955,
        11.951,
        11.965,
        11.951,
        11.949
      ],
      "metadata": {},
      "peak_memory_mb": 9130.99984
    }
  },
  "{\"residuals\":[\"f32[8,32,2048]\",\"f32[8,32,2048]\"],\"out\":\"f16[8,2048,32,64]\",\"dout\":\"f16[8,2048,32,64]\",\"q\":\"f16[8,2048,32,64]\",\"k\":\"f16[8,2048,32,64]\",\"v\":\"f16[8,2048,32,64]\",\"precision\":[[\"DEFAULT\",\"DEFAULT\"],[\"DEFAULT\",\"DEFAULT\"]],\"logits_dtype\":\"float32\",\"logits_scale\":0.125,\"bias\":null,\"logits_soft_cap\":null,\"mask\":{\"bool_mask\":null,\"q_start\":null,\"q_end\":null,\"k_start\":null,\"k_end\":null,\"is_causal\":false},\"dropout_mask\":null,\"dropout_rate\":0.0,\"paging_info\":null,\"q_indices\":null,\"k_indices\":null,\"normalize_output\":true,\"return_residuals\":false}": {
    "{}": {
      "compile_time_ms": 1077.8137750457972,
      "lower_time_ms": 22.808257024735212,
      "evaluation_times_ms": [
        12.107,
        12.104,
        12.098,
        12.104,
        12.099
      ],
      "metadata": {},
      "peak_memory_mb": 9130.99984
    }
  },
  "{\"residuals\":[\"f32[8,16,2048]\",\"f32[8,16,2048]\"],\"out\":\"bf16[8,2048,16,128]\",\"dout\":\"bf16[8,2048,16,128]\",\"q\":\"bf16[8,2048,16,128]\",\"k\":\"bf16[8,2048,16,128]\",\"v\":\"bf16[8,2048,16,128]\",\"precision\":[[\"DEFAULT\",\"DEFAULT\"],[\"DEFAULT\",\"DEFAULT\"]],\"logits_dtype\":\"float32\",\"logits_scale\":0.08838834764831843,\"bias\":null,\"logits_soft_cap\":null,\"mask\":{\"bool_mask\":null,\"q_start\":null,\"q_end\":null,\"k_start\":null,\"k_end\":null,\"is_causal\":true},\"dropout_mask\":null,\"dropout_rate\":0.0,\"paging_info\":null,\"q_indices\":null,\"k_indices\":null,\"normalize_output\":true,\"return_residuals\":false}": {
    "{}": {
      "compile_time_ms": 1727.91839891579,
      "lower_time_ms": 36.70047491323203,
      "evaluation_times_ms": [
        6.725,
        6.724,
        6.728,
        6.726,
        6.725
      ],
      "metadata": {},
      "peak_memory_mb": 5035.261984
    }
  },
  "{\"residuals\":[\"f32[8,16,2048]\",\"f32[8,16,2048]\"],\"out\":\"f16[8,2048,16,128]\",\"dout\":\"f16[8,2048,16,128]\",\"q\":\"f16[8,2048,16,128]\",\"k\":\"f16[8,2048,16,128]\",\"v\":\"f16[8,2048,16,128]\",\"precision\":[[\"DEFAULT\",\"DEFAULT\"],[\"DEFAULT\",\"DEFAULT\"]],\"logits_dtype\":\"float32\",\"logits_scale\":0.08838834764831843,\"bias\":null,\"logits_soft_cap\":null,\"mask\":{\"bool_mask\":null,\"q_start\":null,\"q_end\":null,\"k_start\":null,\"k_end\":null,\"is_causal\":true},\"dropout_mask\":null,\"dropout_rate\":0.0,\"paging_info\":null,\"q_indices\":null,\"k_indices\":null,\"normalize_output\":true,\"return_residuals\":false}": {
    "{}": {
      "compile_time_ms": 1714.7946449695155,
      "lower_time_ms": 29.097607010044158,
      "evaluation_times_ms": [
        6.877,
        6.878,
        6.879,
        6.873,
        6.878
      ],
      "metadata": {},
      "peak_memory_mb": 5035.261984
    }
  },
  "{\"residuals\":[\"f32[8,16,2048]\",\"f32[8,16,2048]\"],\"out\":\"bf16[8,2048,16,128]\",\"dout\":\"bf16[8,2048,16,128]\",\"q\":\"bf16[8,2048,16,128]\",\"k\":\"bf16[8,2048,16,128]\",\"v\":\"bf16[8,2048,16,128]\",\"precision\":[[\"DEFAULT\",\"DEFAULT\"],[\"DEFAULT\",\"DEFAULT\"]],\"logits_dtype\":\"float32\",\"logits_scale\":0.08838834764831843,\"bias\":null,\"logits_soft_cap\":null,\"mask\":{\"bool_mask\":null,\"q_start\":null,\"q_end\":null,\"k_start\":null,\"k_end\":null,\"is_causal\":false},\"dropout_mask\":null,\"dropout_rate\":0.0,\"paging_info\":null,\"q_indices\":null,\"k_indices\":null,\"normalize_output\":true,\"return_residuals\":false}": {
    "{}": {
      "compile_time_ms": 1403.2580320490524,
      "lower_time_ms": 23.977500037290156,
      "evaluation_times_ms": [
        6.483,
        6.484,
        6.492,
        6.485,
        6.491
      ],
      "metadata": {},
      "peak_memory_mb": 5035.261984
    }
  },
  "{\"residuals\":[\"f32[8,16,2048]\",\"f32[8,16,2048]\"],\"out\":\"f16[8,2048,16,128]\",\"dout\":\"f16[8,2048,16,128]\",\"q\":\"f16[8,2048,16,128]\",\"k\":\"f16[8,2048,16,128]\",\"v\":\"f16[8,2048,16,128]\",\"precision\":[[\"DEFAULT\",\"DEFAULT\"],[\"DEFAULT\",\"DEFAULT\"]],\"logits_dtype\":\"float32\",\"logits_scale\":0.08838834764831843,\"bias\":null,\"logits_soft_cap\":null,\"mask\":{\"bool_mask\":null,\"q_start\":null,\"q_end\":null,\"k_start\":null,\"k_end\":null,\"is_causal\":false},\"dropout_mask\":null,\"dropout_rate\":0.0,\"paging_info\":null,\"q_indices\":null,\"k_indices\":null,\"normalize_output\":true,\"return_residuals\":false}": {
    "{}": {
      "compile_time_ms": 1352.419495000504,
      "lower_time_ms": 43.02032897248864,
      "evaluation_times_ms": [
        6.645,
        6.645,
        6.645,
        6.647,
        6.652
      ],
      "metadata": {},
      "peak_memory_mb": 5035.261984
    }
  },
  "{\"residuals\":[\"f32[8,8,2048]\",\"f32[8,8,2048]\"],\"out\":\"bf16[8,2048,8,256]\",\"dout\":\"bf16[8,2048,8,256]\",\"q\":\"bf16[8,2048,8,256]\",\"k\":\"bf16[8,2048,8,256]\",\"v\":\"bf16[8,2048,8,256]\",\"precision\":[[\"DEFAULT\",\"DEFAULT\"],[\"DEFAULT\",\"DEFAULT\"]],\"logits_dtype\":\"float32\",\"logits_scale\":0.0625,\"bias\":null,\"logits_soft_cap\":null,\"mask\":{\"bool_mask\":null,\"q_start\":null,\"q_end\":null,\"k_start\":null,\"k_end\":null,\"is_causal\":true},\"dropout_mask\":null,\"dropout_rate\":0.0,\"paging_info\":null,\"q_indices\":null,\"k_indices\":null,\"normalize_output\":true,\"return_residuals\":false}": {
    "{}": {
      "compile_time_ms": 1973.3776790089905,
      "lower_time_ms": 45.72737496346235,
      "evaluation_times_ms": [
        3.902,
        3.893,
        3.902,
        3.902,
        3.901
      ],
      "metadata": {},
      "peak_memory_mb": 2886.72976
    }
  },
  "{\"residuals\":[\"f32[8,8,2048]\",\"f32[8,8,2048]\"],\"out\":\"f16[8,2048,8,256]\",\"dout\":\"f16[8,2048,8,256]\",\"q\":\"f16[8,2048,8,256]\",\"k\":\"f16[8,2048,8,256]\",\"v\":\"f16[8,2048,8,256]\",\"precision\":[[\"DEFAULT\",\"DEFAULT\"],[\"DEFAULT\",\"DEFAULT\"]],\"logits_dtype\":\"float32\",\"logits_scale\":0.0625,\"bias\":null,\"logits_soft_cap\":null,\"mask\":{\"bool_mask\":null,\"q_start\":null,\"q_end\":null,\"k_start\":null,\"k_end\":null,\"is_causal\":true},\"dropout_mask\":null,\"dropout_rate\":0.0,\"paging_info\":null,\"q_indices\":null,\"k_indices\":null,\"normalize_output\":true,\"return_residuals\":false}": {
    "{}": {
      "compile_time_ms": 1866.5749420179054,
      "lower_time_ms": 28.991102008149028,
      "evaluation_times_ms": [
        4.082,
        4.082,
        4.082,
        4.085,
        4.082
      ],
      "metadata": {},
      "peak_memory_mb": 2886.72976
    }
  },
  "{\"residuals\":[\"f32[8,8,2048]\",\"f32[8,8,2048]\"],\"out\":\"bf16[8,2048,8,256]\",\"dout\":\"bf16[8,2048,8,256]\",\"q\":\"bf16[8,2048,8,256]\",\"k\":\"bf16[8,2048,8,256]\",\"v\":\"bf16[8,2048,8,256]\",\"precision\":[[\"DEFAULT\",\"DEFAULT\"],[\"DEFAULT\",\"DEFAULT\"]],\"logits_dtype\":\"float32\",\"logits_scale\":0.0625,\"bias\":null,\"logits_soft_cap\":null,\"mask\":{\"bool_mask\":null,\"q_start\":null,\"q_end\":null,\"k_start\":null,\"k_end\":null,\"is_causal\":false},\"dropout_mask\":null,\"dropout_rate\":0.0,\"paging_info\":null,\"q_indices\":null,\"k_indices\":null,\"normalize_output\":true,\"return_residuals\":false}": {
    "{}": {
      "compile_time_ms": 1582.1110480464995,
      "lower_time_ms": 23.18716305308044,
      "evaluation_times_ms": [
        3.704,
        3.708,
        3.705,
        3.707,
        3.711
      ],
      "metadata": {},
      "peak_memory_mb": 2886.72976
    }
  },
  "{\"residuals\":[\"f32[8,8,2048]\",\"f32[8,8,2048]\"],\"out\":\"f16[8,2048,8,256]\",\"dout\":\"f16[8,2048,8,256]\",\"q\":\"f16[8,2048,8,256]\",\"k\":\"f16[8,2048,8,256]\",\"v\":\"f16[8,2048,8,256]\",\"precision\":[[\"DEFAULT\",\"DEFAULT\"],[\"DEFAULT\",\"DEFAULT\"]],\"logits_dtype\":\"float32\",\"logits_scale\":0.0625,\"bias\":null,\"logits_soft_cap\":null,\"mask\":{\"bool_mask\":null,\"q_start\":null,\"q_end\":null,\"k_start\":null,\"k_end\":null,\"is_causal\":false},\"dropout_mask\":null,\"dropout_rate\":0.0,\"paging_info\":null,\"q_indices\":null,\"k_indices\":null,\"normalize_output\":true,\"return_residuals\":false}": {
    "{}": {
      "compile_time_ms": 1503.3111040247604,
      "lower_time_ms": 22.849707980640233,
      "evaluation_times_ms": [
        3.907,
        3.904,
        3.908,
        3.9,
        3.905
      ],
      "metadata": {},
      "peak_memory_mb": 2886.72976
    }
  },
  "{\"residuals\":[\"f32[4,32,4096]\",\"f32[4,32,4096]\"],\"out\":\"bf16[4,4096,32,64]\",\"dout\":\"bf16[4,4096,32,64]\",\"q\":\"bf16[4,4096,32,64]\",\"k\":\"bf16[4,4096,32,64]\",\"v\":\"bf16[4,4096,32,64]\",\"precision\":[[\"DEFAULT\",\"DEFAULT\"],[\"DEFAULT\",\"DEFAULT\"]],\"logits_dtype\":\"float32\",\"logits_scale\":0.125,\"bias\":null,\"logits_soft_cap\":null,\"mask\":{\"bool_mask\":null,\"q_start\":null,\"q_end\":null,\"k_start\":null,\"k_end\":null,\"is_causal\":true},\"dropout_mask\":null,\"dropout_rate\":0.0,\"paging_info\":null,\"q_indices\":null,\"k_indices\":null,\"normalize_output\":true,\"return_residuals\":false}": {
    "{}": {
      "compile_time_ms": 2636.7121409857646,
      "lower_time_ms": 36.970511078834534,
      "evaluation_times_ms": [
        25.565,
        25.55,
        25.55,
        25.548,
        25.556
      ],
      "metadata": {},
      "peak_memory_mb": 17720.934432
    }
  },
  "{\"residuals\":[\"f32[4,32,4096]\",\"f32[4,32,4096]\"],\"out\":\"f16[4,4096,32,64]\",\"dout\":\"f16[4,4096,32,64]\",\"q\":\"f16[4,4096,32,64]\",\"k\":\"f16[4,4096,32,64]\",\"v\":\"f16[4,4096,32,64]\",\"precision\":[[\"DEFAULT\",\"DEFAULT\"],[\"DEFAULT\",\"DEFAULT\"]],\"logits_dtype\":\"float32\",\"logits_scale\":0.125,\"bias\":null,\"logits_soft_cap\":null,\"mask\":{\"bool_mask\":null,\"q_start\":null,\"q_end\":null,\"k_start\":null,\"k_end\":null,\"is_causal\":true},\"dropout_mask\":null,\"dropout_rate\":0.0,\"paging_info\":null,\"q_indices\":null,\"k_indices\":null,\"normalize_output\":true,\"return_residuals\":false}": {
    "{}": {
      "compile_time_ms": 2786.974399117753,
      "lower_time_ms": 55.593357887119055,
      "evaluation_times_ms": [
        25.627,
        25.626,
        25.619,
        25.623,
        25.626
      ],
      "metadata": {},
      "peak_memory_mb": 17720.934432
    }
  },
  "{\"residuals\":[\"f32[4,32,4096]\",\"f32[4,32,4096]\"],\"out\":\"bf16[4,4096,32,64]\",\"dout\":\"bf16[4,4096,32,64]\",\"q\":\"bf16[4,4096,32,64]\",\"k\":\"bf16[4,4096,32,64]\",\"v\":\"bf16[4,4096,32,64]\",\"precision\":[[\"DEFAULT\",\"DEFAULT\"],[\"DEFAULT\",\"DEFAULT\"]],\"logits_dtype\":\"float32\",\"logits_scale\":0.125,\"bias\":null,\"logits_soft_cap\":null,\"mask\":{\"bool_mask\":null,\"q_start\":null,\"q_end\":null,\"k_start\":null,\"k_end\":null,\"is_causal\":false},\"dropout_mask\":null,\"dropout_rate\":0.0,\"paging_info\":null,\"q_indices\":null,\"k_indices\":null,\"normalize_output\":true,\"return_residuals\":false}": {
    "{}": {
      "compile_time_ms": 1186.1225732136518,
      "lower_time_ms": 25.852387072518468,
      "evaluation_times_ms": [
        23.629,
        23.624,
        23.62,
        23.628,
        23.632
      ],
      "metadata": {},
      "peak_memory_mb": 17720.934432
    }
  },
  "{\"residuals\":[\"f32[4,32,4096]\",\"f32[4,32,4096]\"],\"out\":\"f16[4,4096,32,64]\",\"dout\":\"f16[4,4096,32,64]\",\"q\":\"f16[4,4096,32,64]\",\"k\":\"f16[4,4096,32,64]\",\"v\":\"f16[4,4096,32,64]\",\"precision\":[[\"DEFAULT\",\"DEFAULT\"],[\"DEFAULT\",\"DEFAULT\"]],\"logits_dtype\":\"float32\",\"logits_scale\":0.125,\"bias\":null,\"logits_soft_cap\":null,\"mask\":{\"bool_mask\":null,\"q_start\":null,\"q_end\":null,\"k_start\":null,\"k_end\":null,\"is_causal\":false},\"dropout_mask\":null,\"dropout_rate\":0.0,\"paging_info\":null,\"q_indices\":null,\"k_indices\":null,\"normalize_output\":true,\"return_residuals\":false}": {
    "{}": {
      "compile_time_ms": 1175.8253120351583,
      "lower_time_ms": 22.671696031466126,
      "evaluation_times_ms": [
        23.598,
        23.607,
        23.598,
        23.602,
        23.598
      ],
      "metadata": {},
      "peak_memory_mb": 17720.934432
    }
  },
  "{\"residuals\":[\"f32[4,16,4096]\",\"f32[4,16,4096]\"],\"out\":\"bf16[4,4096,16,128]\",\"dout\":\"bf16[4,4096,16,128]\",\"q\":\"bf16[4,4096,16,128]\",\"k\":\"bf16[4,4096,16,128]\",\"v\":\"bf16[4,4096,16,128]\",\"precision\":[[\"DEFAULT\",\"DEFAULT\"],[\"DEFAULT\",\"DEFAULT\"]],\"logits_dtype\":\"float32\",\"logits_scale\":0.08838834764831843,\"bias\":null,\"logits_soft_cap\":null,\"mask\":{\"bool_mask\":null,\"q_start\":null,\"q_end\":null,\"k_start\":null,\"k_end\":null,\"is_causal\":true},\"dropout_mask\":null,\"dropout_rate\":0.0,\"paging_info\":null,\"q_indices\":null,\"k_indices\":null,\"normalize_output\":true,\"return_residuals\":false}": {
    "{}": {
      "compile_time_ms": 1913.4901179932058,
      "lower_time_ms": 36.511392798274755,
      "evaluation_times_ms": [
        13.225,
        13.228,
        13.226,
        13.228,
        13.235
      ],
      "metadata": {},
      "peak_memory_mb": 9330.22928
    }
  },
  "{\"residuals\":[\"f32[4,16,4096]\",\"f32[4,16,4096]\"],\"out\":\"f16[4,4096,16,128]\",\"dout\":\"f16[4,4096,16,128]\",\"q\":\"f16[4,4096,16,128]\",\"k\":\"f16[4,4096,16,128]\",\"v\":\"f16[4,4096,16,128]\",\"precision\":[[\"DEFAULT\",\"DEFAULT\"],[\"DEFAULT\",\"DEFAULT\"]],\"logits_dtype\":\"float32\",\"logits_scale\":0.08838834764831843,\"bias\":null,\"logits_soft_cap\":null,\"mask\":{\"bool_mask\":null,\"q_start\":null,\"q_end\":null,\"k_start\":null,\"k_end\":null,\"is_causal\":true},\"dropout_mask\":null,\"dropout_rate\":0.0,\"paging_info\":null,\"q_indices\":null,\"k_indices\":null,\"normalize_output\":true,\"return_residuals\":false}": {
    "{}": {
      "compile_time_ms": 1871.9420770648867,
      "lower_time_ms": 28.886913089081645,
      "evaluation_times_ms": [
        13.412,
        13.417,
        13.422,
        13.415,
        13.422
      ],
      "metadata": {},
      "peak_memory_mb": 9330.22928
    }
  },
  "{\"residuals\":[\"f32[4,16,4096]\",\"f32[4,16,4096]\"],\"out\":\"bf16[4,4096,16,128]\",\"dout\":\"bf16[4,4096,16,128]\",\"q\":\"bf16[4,4096,16,128]\",\"k\":\"bf16[4,4096,16,128]\",\"v\":\"bf16[4,4096,16,128]\",\"precision\":[[\"DEFAULT\",\"DEFAULT\"],[\"DEFAULT\",\"DEFAULT\"]],\"logits_dtype\":\"float32\",\"logits_scale\":0.08838834764831843,\"bias\":null,\"logits_soft_cap\":null,\"mask\":{\"bool_mask\":null,\"q_start\":null,\"q_end\":null,\"k_start\":null,\"k_end\":null,\"is_causal\":false},\"dropout_mask\":null,\"dropout_rate\":0.0,\"paging_info\":null,\"q_indices\":null,\"k_indices\":null,\"normalize_output\":true,\"return_residuals\":false}": {
    "{}": {
      "compile_time_ms": 1491.5913250297308,
      "lower_time_ms": 23.184132995083928,
      "evaluation_times_ms": [
        12.609,
        12.619,
        12.623,
        12.616,
        12.626
      ],
      "metadata": {},
      "peak_memory_mb": 9330.22928
    }
  },
  "{\"residuals\":[\"f32[4,16,4096]\",\"f32[4,16,4096]\"],\"out\":\"f16[4,4096,16,128]\",\"dout\":\"f16[4,4096,16,128]\",\"q\":\"f16[4,4096,16,128]\",\"k\":\"f16[4,4096,16,128]\",\"v\":\"f16[4,4096,16,128]\",\"precision\":[[\"DEFAULT\",\"DEFAULT\"],[\"DEFAULT\",\"DEFAULT\"]],\"logits_dtype\":\"float32\",\"logits_scale\":0.08838834764831843,\"bias\":null,\"logits_soft_cap\":null,\"mask\":{\"bool_mask\":null,\"q_start\":null,\"q_end\":null,\"k_start\":null,\"k_end\":null,\"is_causal\":false},\"dropout_mask\":null,\"dropout_rate\":0.0,\"paging_info\":null,\"q_indices\":null,\"k_indices\":null,\"normalize_output\":true,\"return_residuals\":false}": {
    "{}": {
      "compile_time_ms": 1454.9789510201663,
      "lower_time_ms": 44.77382998447865,
      "evaluation_times_ms": [
        12.714,
        12.713,
        12.718,
        12.709,
        12.706
      ],
      "metadata": {},
      "peak_memory_mb": 9330.22928
    }
  },
  "{\"residuals\":[\"f32[4,8,4096]\",\"f32[4,8,4096]\"],\"out\":\"bf16[4,4096,8,256]\",\"dout\":\"bf16[4,4096,8,256]\",\"q\":\"bf16[4,4096,8,256]\",\"k\":\"bf16[4,4096,8,256]\",\"v\":\"bf16[4,4096,8,256]\",\"precision\":[[\"DEFAULT\",\"DEFAULT\"],[\"DEFAULT\",\"DEFAULT\"]],\"logits_dtype\":\"float32\",\"logits_scale\":0.0625,\"bias\":null,\"logits_soft_cap\":null,\"mask\":{\"bool_mask\":null,\"q_start\":null,\"q_end\":null,\"k_start\":null,\"k_end\":null,\"is_causal\":true},\"dropout_mask\":null,\"dropout_rate\":0.0,\"paging_info\":null,\"q_indices\":null,\"k_indices\":null,\"normalize_output\":true,\"return_residuals\":false}": {
    "{}": {
      "compile_time_ms": 3189.0943869948387,
      "lower_time_ms": 44.17702101636678,
      "evaluation_times_ms": [
        7.32,
        7.324,
        7.328,
        7.325,
        7.323
      ],
      "metadata": {},
      "peak_memory_mb": 5034.213408
    }
  },
  "{\"residuals\":[\"f32[4,8,4096]\",\"f32[4,8,4096]\"],\"out\":\"f16[4,4096,8,256]\",\"dout\":\"f16[4,4096,8,256]\",\"q\":\"f16[4,4096,8,256]\",\"k\":\"f16[4,4096,8,256]\",\"v\":\"f16[4,4096,8,256]\",\"precision\":[[\"DEFAULT\",\"DEFAULT\"],[\"DEFAULT\",\"DEFAULT\"]],\"logits_dtype\":\"float32\",\"logits_scale\":0.0625,\"bias\":null,\"logits_soft_cap\":null,\"mask\":{\"bool_mask\":null,\"q_start\":null,\"q_end\":null,\"k_start\":null,\"k_end\":null,\"is_causal\":true},\"dropout_mask\":null,\"dropout_rate\":0.0,\"paging_info\":null,\"q_indices\":null,\"k_indices\":null,\"normalize_output\":true,\"return_residuals\":false}": {
    "{}": {
      "compile_time_ms": 2106.313140015118,
      "lower_time_ms": 29.37908796593547,
      "evaluation_times_ms": [
        7.547,
        7.542,
        7.537,
        7.543,
        7.541
      ],
      "metadata": {},
      "peak_memory_mb": 5034.213408
    }
  },
  "{\"residuals\":[\"f32[4,8,4096]\",\"f32[4,8,4096]\"],\"out\":\"bf16[4,4096,8,256]\",\"dout\":\"bf16[4,4096,8,256]\",\"q\":\"bf16[4,4096,8,256]\",\"k\":\"bf16[4,4096,8,256]\",\"v\":\"bf16[4,4096,8,256]\",\"precision\":[[\"DEFAULT\",\"DEFAULT\"],[\"DEFAULT\",\"DEFAULT\"]],\"logits_dtype\":\"float32\",\"logits_scale\":0.0625,\"bias\":null,\"logits_soft_cap\":null,\"mask\":{\"bool_mask\":null,\"q_start\":null,\"q_end\":null,\"k_start\":null,\"k_end\":null,\"is_causal\":false},\"dropout_mask\":null,\"dropout_rate\":0.0,\"paging_info\":null,\"q_indices\":null,\"k_indices\":null,\"normalize_output\":true,\"return_residuals\":false}": {
    "{}": {
      "compile_time_ms": 1845.6359130796045,
      "lower_time_ms": 22.267153952270746,
      "evaluation_times_ms": [
        6.841,
        6.848,
        6.852,
        6.847,
        6.841
      ],
      "metadata": {},
      "peak_memory_mb": 5034.213408
    }
  },
  "{\"residuals\":[\"f32[4,8,4096]\",\"f32[4,8,4096]\"],\"out\":\"f16[4,4096,8,256]\",\"dout\":\"f16[4,4096,8,256]\",\"q\":\"f16[4,4096,8,256]\",\"k\":\"f16[4,4096,8,256]\",\"v\":\"f16[4,4096,8,256]\",\"precision\":[[\"DEFAULT\",\"DEFAULT\"],[\"DEFAULT\",\"DEFAULT\"]],\"logits_dtype\":\"float32\",\"logits_scale\":0.0625,\"bias\":null,\"logits_soft_cap\":null,\"mask\":{\"bool_mask\":null,\"q_start\":null,\"q_end\":null,\"k_start\":null,\"k_end\":null,\"is_causal\":false},\"dropout_mask\":null,\"dropout_rate\":0.0,\"paging_info\":null,\"q_indices\":null,\"k_indices\":null,\"normalize_output\":true,\"return_residuals\":false}": {
    "{}": {
      "compile_time_ms": 1752.6303550694138,
      "lower_time_ms": 22.61341002304107,
      "evaluation_times_ms": [
        7.095,
        7.104,
        7.105,
        7.104,
        7.102
      ],
      "metadata": {},
      "peak_memory_mb": 5034.213408
    }
  },
  "{\"residuals\":[\"f32[2,32,8192]\",\"f32[2,32,8192]\"],\"out\":\"bf16[2,8192,32,64]\",\"dout\":\"bf16[2,8192,32,64]\",\"q\":\"bf16[2,8192,32,64]\",\"k\":\"bf16[2,8192,32,64]\",\"v\":\"bf16[2,8192,32,64]\",\"precision\":[[\"DEFAULT\",\"DEFAULT\"],[\"DEFAULT\",\"DEFAULT\"]],\"logits_dtype\":\"float32\",\"logits_scale\":0.125,\"bias\":null,\"logits_soft_cap\":null,\"mask\":{\"bool_mask\":null,\"q_start\":null,\"q_end\":null,\"k_start\":null,\"k_end\":null,\"is_causal\":true},\"dropout_mask\":null,\"dropout_rate\":0.0,\"paging_info\":null,\"q_indices\":null,\"k_indices\":null,\"normalize_output\":true,\"return_residuals\":false}": {
    "{}": {
      "compile_time_ms": 1947.5611379602924,
      "lower_time_ms": 36.7814339697361,
      "evaluation_times_ms": [
        52.777,
        52.778,
        52.764,
        52.759,
        52.75
      ],
      "metadata": {},
      "peak_memory_mb": 34967.91248
    }
  },
  "{\"residuals\":[\"f32[2,32,8192]\",\"f32[2,32,8192]\"],\"out\":\"f16[2,8192,32,64]\",\"dout\":\"f16[2,8192,32,64]\",\"q\":\"f16[2,8192,32,64]\",\"k\":\"f16[2,8192,32,64]\",\"v\":\"f16[2,8192,32,64]\",\"precision\":[[\"DEFAULT\",\"DEFAULT\"],[\"DEFAULT\",\"DEFAULT\"]],\"logits_dtype\":\"float32\",\"logits_scale\":0.125,\"bias\":null,\"logits_soft_cap\":null,\"mask\":{\"bool_mask\":null,\"q_start\":null,\"q_end\":null,\"k_start\":null,\"k_end\":null,\"is_causal\":true},\"dropout_mask\":null,\"dropout_rate\":0.0,\"paging_info\":null,\"q_indices\":null,\"k_indices\":null,\"normalize_output\":true,\"return_residuals\":false}": {
    "{}": {
      "compile_time_ms": 1986.9600679999166,
      "lower_time_ms": 52.56127600023319,
      "evaluation_times_ms": [
        52.537,
        52.536,
        52.535,
        52.521,
        52.54
      ],
      "metadata": {},
      "peak_memory_mb": 34967.91248
    }
  },
  "{\"residuals\":[\"f32[2,32,8192]\",\"f32[2,32,8192]\"],\"out\":\"bf16[2,8192,32,64]\",\"dout\":\"bf16[2,8192,32,64]\",\"q\":\"bf16[2,8192,32,64]\",\"k\":\"bf16[2,8192,32,64]\",\"v\":\"bf16[2,8192,32,64]\",\"precision\":[[\"DEFAULT\",\"DEFAULT\"],[\"DEFAULT\",\"DEFAULT\"]],\"logits_dtype\":\"float32\",\"logits_scale\":0.125,\"bias\":null,\"logits_soft_cap\":null,\"mask\":{\"bool_mask\":null,\"q_start\":null,\"q_end\":null,\"k_start\":null,\"k_end\":null,\"is_causal\":false},\"dropout_mask\":null,\"dropout_rate\":0.0,\"paging_info\":null,\"q_indices\":null,\"k_indices\":null,\"normalize_output\":true,\"return_residuals\":false}": {
    "{}": {
      "compile_time_ms": 1317.2686419998172,
      "lower_time_ms": 26.21981699985554,
      "evaluation_times_ms": [
        46.531,
        46.53,
        46.529,
        46.552,
        46.522
      ],
      "metadata": {},
      "peak_memory_mb": 34900.803616
    }
  },
  "{\"residuals\":[\"f32[2,32,8192]\",\"f32[2,32,8192]\"],\"out\":\"f16[2,8192,32,64]\",\"dout\":\"f16[2,8192,32,64]\",\"q\":\"f16[2,8192,32,64]\",\"k\":\"f16[2,8192,32,64]\",\"v\":\"f16[2,8192,32,64]\",\"precision\":[[\"DEFAULT\",\"DEFAULT\"],[\"DEFAULT\",\"DEFAULT\"]],\"logits_dtype\":\"float32\",\"logits_scale\":0.125,\"bias\":null,\"logits_soft_cap\":null,\"mask\":{\"bool_mask\":null,\"q_start\":null,\"q_end\":null,\"k_start\":null,\"k_end\":null,\"is_causal\":false},\"dropout_mask\":null,\"dropout_rate\":0.0,\"paging_info\":null,\"q_indices\":null,\"k_indices\":null,\"normalize_output\":true,\"return_residuals\":false}": {
    "{}": {
      "compile_time_ms": 1317.1744060000492,
      "lower_time_ms": 22.574992000045313,
      "evaluation_times_ms": [
        46.403,
        46.396,
        46.411,
        46.404,
        46.402
      ],
      "metadata": {},
      "peak_memory_mb": 34900.803616
    }
  },
  "{\"residuals\":[\"f32[2,16,8192]\",\"f32[2,16,8192]\"],\"out\":\"bf16[2,8192,16,128]\",\"dout\":\"bf16[2,8192,16,128]\",\"q\":\"bf16[2,8192,16,128]\",\"k\":\"bf16[2,8192,16,128]\",\"v\":\"bf16[2,8192,16,128]\",\"precision\":[[\"DEFAULT\",\"DEFAULT\"],[\"DEFAULT\",\"DEFAULT\"]],\"logits_dtype\":\"float32\",\"logits_scale\":0.08838834764831843,\"bias\":null,\"logits_soft_cap\":null,\"mask\":{\"bool_mask\":null,\"q_start\":null,\"q_end\":null,\"k_start\":null,\"k_end\":null,\"is_causal\":true},\"dropout_mask\":null,\"dropout_rate\":0.0,\"paging_info\":null,\"q_indices\":null,\"k_indices\":null,\"normalize_output\":true,\"return_residuals\":false}": {
    "{}": {
      "compile_time_ms": 2057.5823950002814,
      "lower_time_ms": 36.830199000178254,
      "evaluation_times_ms": [
        27.186,
        27.189,
        27.18,
        27.191,
        27.196
      ],
      "metadata": {},
      "peak_memory_mb": 17920.163872
    }
  },
  "{\"residuals\":[\"f32[2,16,8192]\",\"f32[2,16,8192]\"],\"out\":\"f16[2,8192,16,128]\",\"dout\":\"f16[2,8192,16,128]\",\"q\":\"f16[2,8192,16,128]\",\"k\":\"f16[2,8192,16,128]\",\"v\":\"f16[2,8192,16,128]\",\"precision\":[[\"DEFAULT\",\"DEFAULT\"],[\"DEFAULT\",\"DEFAULT\"]],\"logits_dtype\":\"float32\",\"logits_scale\":0.08838834764831843,\"bias\":null,\"logits_soft_cap\":null,\"mask\":{\"bool_mask\":null,\"q_start\":null,\"q_end\":null,\"k_start\":null,\"k_end\":null,\"is_causal\":true},\"dropout_mask\":null,\"dropout_rate\":0.0,\"paging_info\":null,\"q_indices\":null,\"k_indices\":null,\"normalize_output\":true,\"return_residuals\":false}": {
    "{}": {
      "compile_time_ms": 1994.1692040001726,
      "lower_time_ms": 29.676359000404773,
      "evaluation_times_ms": [
        27.352,
        27.343,
        27.353,
        27.348,
        27.338
      ],
      "metadata": {},
      "peak_memory_mb": 17920.163872
    }
  },
  "{\"residuals\":[\"f32[2,16,8192]\",\"f32[2,16,8192]\"],\"out\":\"bf16[2,8192,16,128]\",\"dout\":\"bf16[2,8192,16,128]\",\"q\":\"bf16[2,8192,16,128]\",\"k\":\"bf16[2,8192,16,128]\",\"v\":\"bf16[2,8192,16,128]\",\"precision\":[[\"DEFAULT\",\"DEFAULT\"],[\"DEFAULT\",\"DEFAULT\"]],\"logits_dtype\":\"float32\",\"logits_scale\":0.08838834764831843,\"bias\":null,\"logits_soft_cap\":null,\"mask\":{\"bool_mask\":null,\"q_start\":null,\"q_end\":null,\"k_start\":null,\"k_end\":null,\"is_causal\":false},\"dropout_mask\":null,\"dropout_rate\":0.0,\"paging_info\":null,\"q_indices\":null,\"k_indices\":null,\"normalize_output\":true,\"return_residuals\":false}": {
    "{}": {
      "compile_time_ms": 1661.9970390001981,
      "lower_time_ms": 1023.6440550002044,
      "evaluation_times_ms": [
        24.615,
        24.624,
        24.616,
        24.618,
        24.627
      ],
      "metadata": {},
      "peak_memory_mb": 17920.163872
    }
  }
}
