{
  "{\"lhs\":\"bf16[131072,7168]\",\"rhs\":\"bf16[256,7168,1024]\",\"group_sizes\":{\"num_groups\":256,\"total_size\":131072},\"ragged_dot_dimension_numbers\":{\"dot_dimension_numbers\":[[[1],[1]],[[],[]]],\"lhs_ragged_dimensions\":[0],\"rhs_group_dimensions\":[0]},\"precision\":[\"DEFAULT\",\"DEFAULT\"],\"preferred_element_type\":null,\"return_residuals\":false,\"activation\":null,\"manual_axis_type\":null}": {
    "{\"tile_m\":128,\"tile_k\":7168,\"tile_n\":1024,\"input_buffer_count\":2,\"combine_scopes\":false}": {
      "compile_time_ms": 6900.091380113736,
      "lower_time_ms": 30191.517582978122,
      "evaluation_times_ms": [
        3.833,
        3.835,
        3.837,
        3.829,
        3.834
      ],
      "metadata": {},
      "peak_memory_mb": 5905.633792
    }
  },
  "{\"lhs\":\"bf16[131072,7168]\",\"rhs\":\"bf16[256,7168,1024]\",\"group_sizes\":{\"num_groups\":256,\"total_size\":131072},\"ragged_dot_dimension_numbers\":{\"dot_dimension_numbers\":[[[1],[1]],[[],[]]],\"lhs_ragged_dimensions\":[0],\"rhs_group_dimensions\":[0]},\"precision\":[\"DEFAULT\",\"DEFAULT\"],\"preferred_element_type\":null,\"return_residuals\":true,\"activation\":null,\"manual_axis_type\":null}": {
    "{\"tile_m\":128,\"tile_k\":7168,\"tile_n\":1024,\"input_buffer_count\":2,\"combine_scopes\":false}": {
      "compile_time_ms": 5529.344560927711,
      "lower_time_ms": 7497.564203920774,
      "evaluation_times_ms": [
        3.991,
        3.996,
        3.999,
        3.995,
        3.997
      ],
      "metadata": {},
      "peak_memory_mb": 6174.06928
    }
  },
  "{\"lhs\":\"bf16[131072,1024]\",\"rhs\":\"bf16[256,1024,7168]\",\"group_sizes\":{\"num_groups\":256,\"total_size\":131072},\"ragged_dot_dimension_numbers\":{\"dot_dimension_numbers\":[[[1],[1]],[[],[]]],\"lhs_ragged_dimensions\":[0],\"rhs_group_dimensions\":[0]},\"precision\":[\"DEFAULT\",\"DEFAULT\"],\"preferred_element_type\":null,\"return_residuals\":false,\"activation\":null,\"manual_axis_type\":null}": {
    "{\"tile_m\":128,\"tile_k\":1024,\"tile_n\":7168,\"input_buffer_count\":2,\"combine_scopes\":false}": {
      "compile_time_ms": 23283.07860903442,
      "lower_time_ms": 16082.285676966421,
      "evaluation_times_ms": [
        4.021,
        4.023,
        4.022,
        4.019,
        4.02
      ],
      "metadata": {},
      "peak_memory_mb": 5905.633792
    }
  },
  "{\"lhs\":\"bf16[131072,1024]\",\"rhs\":\"bf16[256,1024,7168]\",\"group_sizes\":{\"num_groups\":256,\"total_size\":131072},\"ragged_dot_dimension_numbers\":{\"dot_dimension_numbers\":[[[1],[1]],[[],[]]],\"lhs_ragged_dimensions\":[0],\"rhs_group_dimensions\":[0]},\"precision\":[\"DEFAULT\",\"DEFAULT\"],\"preferred_element_type\":null,\"return_residuals\":true,\"activation\":null,\"manual_axis_type\":null}": {
    "{\"tile_m\":128,\"tile_k\":1024,\"tile_n\":7168,\"input_buffer_count\":2,\"combine_scopes\":false}": {
      "compile_time_ms": 9006.18088094052,
      "lower_time_ms": 8090.684060938656,
      "evaluation_times_ms": [
        5.178,
        5.178,
        5.179,
        5.18,
        5.179
      ],
      "metadata": {},
      "peak_memory_mb": 7784.682016
    }
  },
  "{\"lhs\":\"bf16[131072,7168]\",\"rhs\":\"bf16[256,7168,512]\",\"group_sizes\":{\"num_groups\":256,\"total_size\":131072},\"ragged_dot_dimension_numbers\":{\"dot_dimension_numbers\":[[[1],[1]],[[],[]]],\"lhs_ragged_dimensions\":[0],\"rhs_group_dimensions\":[0]},\"precision\":[\"DEFAULT\",\"DEFAULT\"],\"preferred_element_type\":null,\"return_residuals\":false,\"activation\":null,\"manual_axis_type\":null}": {
    "{\"tile_m\":256,\"tile_k\":7168,\"tile_n\":512,\"input_buffer_count\":2,\"combine_scopes\":false}": {
      "compile_time_ms": 21567.663789999642,
      "lower_time_ms": 19554.067490000307,
      "evaluation_times_ms": [
        2.101,
        2.099,
        2.099,
        2.104,
        2.099
      ],
      "metadata": {},
      "peak_memory_mb": 3892.34944
    }
  },
  "{\"lhs\":\"bf16[131072,7168]\",\"rhs\":\"bf16[256,7168,512]\",\"group_sizes\":{\"num_groups\":256,\"total_size\":131072},\"ragged_dot_dimension_numbers\":{\"dot_dimension_numbers\":[[[1],[1]],[[],[]]],\"lhs_ragged_dimensions\":[0],\"rhs_group_dimensions\":[0]},\"precision\":[\"DEFAULT\",\"DEFAULT\"],\"preferred_element_type\":null,\"return_residuals\":true,\"activation\":null,\"manual_axis_type\":null}": {
    "{\"tile_m\":256,\"tile_k\":7168,\"tile_n\":512,\"input_buffer_count\":2,\"combine_scopes\":false}": {
      "compile_time_ms": 20688.480054006504,
      "lower_time_ms": 4501.260723001906,
      "evaluation_times_ms": [
        2.185,
        2.182,
        2.185,
        2.184,
        2.183
      ],
      "metadata": {},
      "peak_memory_mb": 4026.5672
    }
  },
  "{\"lhs\":\"bf16[131072,512]\",\"rhs\":\"bf16[256,512,7168]\",\"group_sizes\":{\"num_groups\":256,\"total_size\":131072},\"ragged_dot_dimension_numbers\":{\"dot_dimension_numbers\":[[[1],[1]],[[],[]]],\"lhs_ragged_dimensions\":[0],\"rhs_group_dimensions\":[0]},\"precision\":[\"DEFAULT\",\"DEFAULT\"],\"preferred_element_type\":null,\"return_residuals\":false,\"activation\":null,\"manual_axis_type\":null}": {
    "{\"tile_m\":256,\"tile_k\":512,\"tile_n\":7168,\"input_buffer_count\":2,\"combine_scopes\":false}": {
      "compile_time_ms": 26112.07139492035,
      "lower_time_ms": 23770.716220024042,
      "evaluation_times_ms": [
        2.434,
        2.434,
        2.434,
        2.438,
        2.434
      ],
      "metadata": {},
      "peak_memory_mb": 3892.34944
    }
  },
  "{\"lhs\":\"bf16[131072,512]\",\"rhs\":\"bf16[256,512,7168]\",\"group_sizes\":{\"num_groups\":256,\"total_size\":131072},\"ragged_dot_dimension_numbers\":{\"dot_dimension_numbers\":[[[1],[1]],[[],[]]],\"lhs_ragged_dimensions\":[0],\"rhs_group_dimensions\":[0]},\"precision\":[\"DEFAULT\",\"DEFAULT\"],\"preferred_element_type\":null,\"return_residuals\":true,\"activation\":null,\"manual_axis_type\":null}": {
    "{\"tile_m\":256,\"tile_k\":512,\"tile_n\":7168,\"input_buffer_count\":2,\"combine_scopes\":false}": {
      "compile_time_ms": 12780.398803995922,
      "lower_time_ms": 5421.270978986286,
      "evaluation_times_ms": [
        3.586,
        3.584,
        3.586,
        3.587,
        3.589
      ],
      "metadata": {},
      "peak_memory_mb": 5771.397664
    }
  },
  "{\"lhs\":\"bf16[262144,7168]\",\"rhs\":\"bf16[256,7168,512]\",\"group_sizes\":{\"num_groups\":256,\"total_size\":262144},\"ragged_dot_dimension_numbers\":{\"dot_dimension_numbers\":[[[1],[1]],[[],[]]],\"lhs_ragged_dimensions\":[0],\"rhs_group_dimensions\":[0]},\"precision\":[\"DEFAULT\",\"DEFAULT\"],\"preferred_element_type\":null,\"return_residuals\":false,\"activation\":null,\"manual_axis_type\":null}": {
    "{\"tile_m\":256,\"tile_k\":7168,\"tile_n\":512,\"input_buffer_count\":2,\"combine_scopes\":false}": {
      "compile_time_ms": 28928.41087805573,
      "lower_time_ms": 16832.854079897515,
      "evaluation_times_ms": [
        3.261,
        3.262,
        3.263,
        3.26,
        3.264
      ],
      "metadata": {},
      "peak_memory_mb": 5905.633792
    }
  },
  "{\"lhs\":\"bf16[262144,7168]\",\"rhs\":\"bf16[256,7168,512]\",\"group_sizes\":{\"num_groups\":256,\"total_size\":262144},\"ragged_dot_dimension_numbers\":{\"dot_dimension_numbers\":[[[1],[1]],[[],[]]],\"lhs_ragged_dimensions\":[0],\"rhs_group_dimensions\":[0]},\"precision\":[\"DEFAULT\",\"DEFAULT\"],\"preferred_element_type\":null,\"return_residuals\":true,\"activation\":null,\"manual_axis_type\":null}": {
    "{\"tile_m\":512,\"tile_k\":7168,\"tile_n\":512,\"input_buffer_count\":2,\"combine_scopes\":false}": {
      "compile_time_ms": 11732.06339601893,
      "lower_time_ms": 9176.014499971643,
      "evaluation_times_ms": [
        3.438,
        3.438,
        3.438,
        3.438,
        3.439
      ],
      "metadata": {},
      "peak_memory_mb": 6174.050848
    },
    "{\"tile_m\":256,\"tile_k\":7168,\"tile_n\":512,\"input_buffer_count\":2,\"combine_scopes\":false}": {
      "compile_time_ms": 10661.419458105229,
      "lower_time_ms": 4801.194088067859,
      "evaluation_times_ms": [
        3.426,
        3.429,
        3.431,
        3.431,
        3.431
      ],
      "metadata": {},
      "peak_memory_mb": 6174.06928
    }
  },
  "{\"lhs\":\"bf16[262144,256]\",\"rhs\":\"bf16[256,256,7168]\",\"group_sizes\":{\"num_groups\":256,\"total_size\":262144},\"ragged_dot_dimension_numbers\":{\"dot_dimension_numbers\":[[[1],[1]],[[],[]]],\"lhs_ragged_dimensions\":[0],\"rhs_group_dimensions\":[0]},\"precision\":[\"DEFAULT\",\"DEFAULT\"],\"preferred_element_type\":null,\"return_residuals\":false,\"activation\":null,\"manual_axis_type\":null}": {
    "{\"tile_m\":512,\"tile_k\":256,\"tile_n\":7168,\"input_buffer_count\":2,\"combine_scopes\":false}": {
      "compile_time_ms": 22195.7735089818,
      "lower_time_ms": 26604.709538980387,
      "evaluation_times_ms": [
        2.475,
        2.47,
        2.474,
        2.474,
        2.474
      ],
      "metadata": {},
      "peak_memory_mb": 4831.873536
    }
  },
  "{\"lhs\":\"bf16[262144,256]\",\"rhs\":\"bf16[256,256,7168]\",\"group_sizes\":{\"num_groups\":256,\"total_size\":262144},\"ragged_dot_dimension_numbers\":{\"dot_dimension_numbers\":[[[1],[1]],[[],[]]],\"lhs_ragged_dimensions\":[0],\"rhs_group_dimensions\":[0]},\"precision\":[\"DEFAULT\",\"DEFAULT\"],\"preferred_element_type\":null,\"return_residuals\":true,\"activation\":null,\"manual_axis_type\":null}": {
    "{\"tile_m\":512,\"tile_k\":256,\"tile_n\":7168,\"input_buffer_count\":2,\"combine_scopes\":false}": {
      "compile_time_ms": 8342.829033033922,
      "lower_time_ms": 8873.010884970427,
      "evaluation_times_ms": [
        4.793,
        4.799,
        4.797,
        4.8,
        4.795
      ],
      "metadata": {},
      "peak_memory_mb": 8589.969952
    }
  },
  "{\"lhs\":\"bf16[262144,512]\",\"rhs\":\"bf16[256,512,7168]\",\"group_sizes\":{\"num_groups\":256,\"total_size\":262144},\"ragged_dot_dimension_numbers\":{\"dot_dimension_numbers\":[[[1],[1]],[[],[]]],\"lhs_ragged_dimensions\":[0],\"rhs_group_dimensions\":[0]},\"precision\":[\"DEFAULT\",\"DEFAULT\"],\"preferred_element_type\":null,\"return_residuals\":false,\"activation\":null,\"manual_axis_type\":null}": {
    "{\"tile_m\":256,\"tile_k\":512,\"tile_n\":7168,\"input_buffer_count\":2,\"combine_scopes\":false}": {
      "compile_time_ms": 32906.362813082524,
      "lower_time_ms": 25442.507938016206,
      "evaluation_times_ms": [
        3.633,
        3.636,
        3.632,
        3.633,
        3.63
      ],
      "metadata": {},
      "peak_memory_mb": 5905.633792
    }
  },
  "{\"lhs\":\"bf16[262144,512]\",\"rhs\":\"bf16[256,512,7168]\",\"group_sizes\":{\"num_groups\":256,\"total_size\":262144},\"ragged_dot_dimension_numbers\":{\"dot_dimension_numbers\":[[[1],[1]],[[],[]]],\"lhs_ragged_dimensions\":[0],\"rhs_group_dimensions\":[0]},\"precision\":[\"DEFAULT\",\"DEFAULT\"],\"preferred_element_type\":null,\"return_residuals\":true,\"activation\":null,\"manual_axis_type\":null}": {
    "{\"tile_m\":256,\"tile_k\":512,\"tile_n\":7168,\"input_buffer_count\":2,\"combine_scopes\":false}": {
      "compile_time_ms": 25618.87204903178,
      "lower_time_ms": 3235.314858960919,
      "evaluation_times_ms": [
        5.958,
        5.958,
        5.958,
        5.959,
        5.956
      ],
      "metadata": {},
      "peak_memory_mb": 9663.730208
    }
  },
  "{\"lhs\":\"bf16[262144,1024]\",\"rhs\":\"bf16[256,1024,7168]\",\"group_sizes\":{\"num_groups\":256,\"total_size\":262144},\"ragged_dot_dimension_numbers\":{\"dot_dimension_numbers\":[[[1],[1]],[[],[]]],\"lhs_ragged_dimensions\":[0],\"rhs_group_dimensions\":[0]},\"precision\":[\"DEFAULT\",\"DEFAULT\"],\"preferred_element_type\":null,\"return_residuals\":false,\"activation\":null,\"manual_axis_type\":null}": {
    "{\"tile_m\":128,\"tile_k\":1024,\"tile_n\":7168,\"input_buffer_count\":2,\"combine_scopes\":false}": {
      "compile_time_ms": 18354.310144030023,
      "lower_time_ms": 8514.24957299605,
      "evaluation_times_ms": [
        6.416,
        6.418,
        6.419,
        6.417,
        6.416
      ],
      "metadata": {},
      "peak_memory_mb": 8053.13792
    }
  },
  "{\"lhs\":\"bf16[262144,1024]\",\"rhs\":\"bf16[256,1024,7168]\",\"group_sizes\":{\"num_groups\":256,\"total_size\":262144},\"ragged_dot_dimension_numbers\":{\"dot_dimension_numbers\":[[[1],[1]],[[],[]]],\"lhs_ragged_dimensions\":[0],\"rhs_group_dimensions\":[0]},\"precision\":[\"DEFAULT\",\"DEFAULT\"],\"preferred_element_type\":null,\"return_residuals\":true,\"activation\":null,\"manual_axis_type\":null}": {
    "{\"tile_m\":128,\"tile_k\":1024,\"tile_n\":7168,\"input_buffer_count\":2,\"combine_scopes\":false}": {
      "compile_time_ms": 2036.5646079881117,
      "lower_time_ms": 4484.49827299919,
      "evaluation_times_ms": [
        8.754,
        8.757,
        8.753,
        8.754,
        8.757
      ],
      "metadata": {},
      "peak_memory_mb": 11811.234336
    }
  },
  "{\"lhs\":\"bf16[262144,7168]\",\"rhs\":\"bf16[256,7168,1024]\",\"group_sizes\":{\"num_groups\":256,\"total_size\":262144},\"ragged_dot_dimension_numbers\":{\"dot_dimension_numbers\":[[[1],[1]],[[],[]]],\"lhs_ragged_dimensions\":[0],\"rhs_group_dimensions\":[0]},\"precision\":[\"DEFAULT\",\"DEFAULT\"],\"preferred_element_type\":null,\"return_residuals\":false,\"activation\":null,\"manual_axis_type\":null}": {
    "{\"tile_m\":128,\"tile_k\":7168,\"tile_n\":1024,\"input_buffer_count\":2,\"combine_scopes\":false}": {
      "compile_time_ms": 12882.746780989692,
      "lower_time_ms": 28037.701953027863,
      "evaluation_times_ms": [
        6.209,
        6.207,
        6.208,
        6.206,
        6.207
      ],
      "metadata": {},
      "peak_memory_mb": 8053.13792
    }
  },
  "{\"lhs\":\"bf16[262144,7168]\",\"rhs\":\"bf16[256,7168,1024]\",\"group_sizes\":{\"num_groups\":256,\"total_size\":262144},\"ragged_dot_dimension_numbers\":{\"dot_dimension_numbers\":[[[1],[1]],[[],[]]],\"lhs_ragged_dimensions\":[0],\"rhs_group_dimensions\":[0]},\"precision\":[\"DEFAULT\",\"DEFAULT\"],\"preferred_element_type\":null,\"return_residuals\":true,\"activation\":null,\"manual_axis_type\":null}": {
    "{\"tile_m\":128,\"tile_k\":7168,\"tile_n\":1024,\"input_buffer_count\":2,\"combine_scopes\":false}": {
      "compile_time_ms": 14897.858868993353,
      "lower_time_ms": 11495.023272989783,
      "evaluation_times_ms": [
        6.539,
        6.54,
        6.539,
        6.537,
        6.54
      ],
      "metadata": {},
      "peak_memory_mb": 8590.008864
    }
  },
  "{\"lhs\":\"bf16[4096,4096]\",\"rhs\":\"bf16[8,4096,4096]\",\"group_sizes\":[4096,0,0,0,0,0,0,0],\"ragged_dot_dimension_numbers\":{\"dot_dimension_numbers\":[[[1],[1]],[[],[]]],\"lhs_ragged_dimensions\":[0],\"rhs_group_dimensions\":[0]},\"precision\":[\"DEFAULT\",\"DEFAULT\"],\"preferred_element_type\":null,\"return_residuals\":false,\"activation\":null,\"manual_axis_type\":null}": {
    "{\"tile_m\":512,\"tile_k\":4096,\"tile_n\":1024,\"input_buffer_count\":2,\"combine_scopes\":false}": {
      "compile_time_ms": 21041.605796000113,
      "lower_time_ms": 24335.261560999927,
      "evaluation_times_ms": [
        0.175,
        0.174,
        0.175,
        0.175,
        0.175
      ],
      "metadata": {},
      "peak_memory_mb": 335.568896
    }
  },
  "{\"lhs\":\"bf16[4096,4096]\",\"rhs\":\"bf16[8,4096,4096]\",\"group_sizes\":[4096,0,0,0,0,0,0,0],\"ragged_dot_dimension_numbers\":{\"dot_dimension_numbers\":[[[1],[1]],[[],[]]],\"lhs_ragged_dimensions\":[0],\"rhs_group_dimensions\":[0]},\"precision\":[\"DEFAULT\",\"DEFAULT\"],\"preferred_element_type\":null,\"return_residuals\":true,\"activation\":null,\"manual_axis_type\":null}": {
    "{\"tile_m\":1024,\"tile_k\":4096,\"tile_n\":512,\"input_buffer_count\":2,\"combine_scopes\":false}": {
      "compile_time_ms": 5178.593294000166,
      "lower_time_ms": 8771.986232000017,
      "evaluation_times_ms": [
        0.197,
        0.197,
        0.197,
        0.197,
        0.198
      ],
      "metadata": {},
      "peak_memory_mb": 402.668064
    }
  },
  "{\"lhs\":\"bf16[8,4096]\",\"rhs\":\"bf16[8,4096,4096]\",\"group_sizes\":[1,1,1,1,1,1,1,1],\"ragged_dot_dimension_numbers\":{\"dot_dimension_numbers\":[[[1],[1]],[[],[]]],\"lhs_ragged_dimensions\":[0],\"rhs_group_dimensions\":[0]},\"precision\":[\"DEFAULT\",\"DEFAULT\"],\"preferred_element_type\":null,\"return_residuals\":false,\"activation\":null,\"manual_axis_type\":null}": {},
  "{\"lhs\":\"bf16[8,4096]\",\"rhs\":\"bf16[8,4096,4096]\",\"group_sizes\":[1,1,1,1,1,1,1,1],\"ragged_dot_dimension_numbers\":{\"dot_dimension_numbers\":[[[1],[1]],[[],[]]],\"lhs_ragged_dimensions\":[0],\"rhs_group_dimensions\":[0]},\"precision\":[\"DEFAULT\",\"DEFAULT\"],\"preferred_element_type\":null,\"return_residuals\":true,\"activation\":null,\"manual_axis_type\":null}": {},
  "{\"lhs\":\"bf16[8192,4096]\",\"rhs\":\"bf16[8,4096,14336]\",\"group_sizes\":{\"num_groups\":8,\"total_size\":8192},\"ragged_dot_dimension_numbers\":{\"dot_dimension_numbers\":[[[1],[1]],[[],[]]],\"lhs_ragged_dimensions\":[0],\"rhs_group_dimensions\":[0]},\"precision\":[\"DEFAULT\",\"DEFAULT\"],\"preferred_element_type\":null,\"return_residuals\":false,\"activation\":null,\"manual_axis_type\":null}": {
    "{\"tile_m\":512,\"tile_k\":4096,\"tile_n\":1024,\"input_buffer_count\":2,\"combine_scopes\":false}": {
      "compile_time_ms": 26024.056298017967,
      "lower_time_ms": 3078.1387130264193,
      "evaluation_times_ms": [
        1.555,
        1.555,
        1.555,
        1.556,
        1.555
      ],
      "metadata": {},
      "peak_memory_mb": 1241.555456
    }
  },
  "{\"lhs\":\"bf16[8192,4096]\",\"rhs\":\"bf16[8,4096,14336]\",\"group_sizes\":{\"num_groups\":8,\"total_size\":8192},\"ragged_dot_dimension_numbers\":{\"dot_dimension_numbers\":[[[1],[1]],[[],[]]],\"lhs_ragged_dimensions\":[0],\"rhs_group_dimensions\":[0]},\"precision\":[\"DEFAULT\",\"DEFAULT\"],\"preferred_element_type\":null,\"return_residuals\":true,\"activation\":null,\"manual_axis_type\":null}": {
    "{\"tile_m\":512,\"tile_k\":4096,\"tile_n\":1024,\"input_buffer_count\":2,\"combine_scopes\":false}": {
      "compile_time_ms": 1166.7161289951764,
      "lower_time_ms": 87.00694103026763,
      "evaluation_times_ms": [
        1.699,
        1.699,
        1.699,
        1.699,
        1.699
      ],
      "metadata": {},
      "peak_memory_mb": 1476.436512
    }
  },
  "{\"lhs\":\"bf16[131072,1024]\",\"rhs\":\"bf16[256,7168,1024]\",\"group_sizes\":{\"num_groups\":256,\"total_size\":131072},\"ragged_dot_dimension_numbers\":{\"dot_dimension_numbers\":[[[1],[2]],[[],[]]],\"lhs_ragged_dimensions\":[0],\"rhs_group_dimensions\":[0]},\"precision\":[\"DEFAULT\",\"DEFAULT\"],\"preferred_element_type\":\"bfloat16\",\"return_residuals\":false,\"activation\":null,\"manual_axis_type\":null}": {
    "{\"tile_m\":512,\"tile_k\":1024,\"tile_n\":1024,\"input_buffer_count\":2,\"combine_scopes\":false}": {
      "compile_time_ms": 21504.432855999767,
      "lower_time_ms": 14090.498203000607,
      "evaluation_times_ms": [
        6.433,
        6.432,
        6.43,
        6.427,
        6.429
      ],
      "metadata": {},
      "peak_memory_mb": 5905.609728
    }
  },
  "{\"lhs\":\"bf16[131072,7168]\",\"rhs\":\"bf16[131072,1024]\",\"group_sizes\":{\"num_groups\":256,\"total_size\":131072},\"ragged_dot_dimension_numbers\":{\"dot_dimension_numbers\":[[[0],[0]],[[],[]]],\"lhs_ragged_dimensions\":[0],\"rhs_group_dimensions\":[]},\"precision\":[\"DEFAULT\",\"DEFAULT\"],\"preferred_element_type\":\"bfloat16\",\"return_residuals\":false,\"activation\":null,\"manual_axis_type\":null}": {
    "{\"tile_m\":256,\"tile_k\":1792,\"tile_n\":1024,\"input_buffer_count\":4,\"combine_scopes\":false}": {
      "compile_time_ms": 26155.274814000222,
      "lower_time_ms": 30172.341720000986,
      "evaluation_times_ms": [
        5.184,
        5.187,
        5.184,
        5.185,
        5.184
      ],
      "metadata": {},
      "peak_memory_mb": 5905.61536
    }
  },
  "{\"lhs\":\"bf16[131072,7168]\",\"rhs\":\"bf16[256,1024,7168]\",\"group_sizes\":{\"num_groups\":256,\"total_size\":131072},\"ragged_dot_dimension_numbers\":{\"dot_dimension_numbers\":[[[1],[2]],[[],[]]],\"lhs_ragged_dimensions\":[0],\"rhs_group_dimensions\":[0]},\"precision\":[\"DEFAULT\",\"DEFAULT\"],\"preferred_element_type\":\"bfloat16\",\"return_residuals\":false,\"activation\":null,\"manual_axis_type\":null}": {
    "{\"tile_m\":512,\"tile_k\":1024,\"tile_n\":1024,\"input_buffer_count\":2,\"combine_scopes\":false}": {
      "compile_time_ms": 19759.61611800085,
      "lower_time_ms": 13857.508590001089,
      "evaluation_times_ms": [
        6.383,
        6.378,
        6.383,
        6.38,
        6.382
      ],
      "metadata": {},
      "peak_memory_mb": 5905.609728
    }
  },
  "{\"lhs\":\"bf16[131072,1024]\",\"rhs\":\"bf16[131072,7168]\",\"group_sizes\":{\"num_groups\":256,\"total_size\":131072},\"ragged_dot_dimension_numbers\":{\"dot_dimension_numbers\":[[[0],[0]],[[],[]]],\"lhs_ragged_dimensions\":[0],\"rhs_group_dimensions\":[]},\"precision\":[\"DEFAULT\",\"DEFAULT\"],\"preferred_element_type\":\"bfloat16\",\"return_residuals\":false,\"activation\":null,\"manual_axis_type\":null}": {
    "{\"tile_m\":256,\"tile_k\":512,\"tile_n\":3584,\"input_buffer_count\":4,\"combine_scopes\":false}": {
      "compile_time_ms": 17456.90784999897,
      "lower_time_ms": 25697.85688400043,
      "evaluation_times_ms": [
        5.189,
        5.188,
        5.189,
        5.188,
        5.19
      ],
      "metadata": {},
      "peak_memory_mb": 5905.61536
    }
  },
  "{\"lhs\":\"bf16[131072,512]\",\"rhs\":\"bf16[256,7168,512]\",\"group_sizes\":{\"num_groups\":256,\"total_size\":131072},\"ragged_dot_dimension_numbers\":{\"dot_dimension_numbers\":[[[1],[2]],[[],[]]],\"lhs_ragged_dimensions\":[0],\"rhs_group_dimensions\":[0]},\"precision\":[\"DEFAULT\",\"DEFAULT\"],\"preferred_element_type\":\"bfloat16\",\"return_residuals\":false,\"activation\":null,\"manual_axis_type\":null}": {
    "{\"tile_m\":1024,\"tile_k\":512,\"tile_n\":512,\"input_buffer_count\":2,\"combine_scopes\":false}": {
      "compile_time_ms": 3395.389232000525,
      "lower_time_ms": 16509.74424999913,
      "evaluation_times_ms": [
        6.109,
        6.096,
        6.101,
        6.106,
        6.098
      ],
      "metadata": {},
      "peak_memory_mb": 3892.466688
    }
  },
  "{\"lhs\":\"bf16[131072,7168]\",\"rhs\":\"bf16[131072,512]\",\"group_sizes\":{\"num_groups\":256,\"total_size\":131072},\"ragged_dot_dimension_numbers\":{\"dot_dimension_numbers\":[[[0],[0]],[[],[]]],\"lhs_ragged_dimensions\":[0],\"rhs_group_dimensions\":[]},\"precision\":[\"DEFAULT\",\"DEFAULT\"],\"preferred_element_type\":\"bfloat16\",\"return_residuals\":false,\"activation\":null,\"manual_axis_type\":null}": {
    "{\"tile_m\":256,\"tile_k\":3584,\"tile_n\":512,\"input_buffer_count\":4,\"combine_scopes\":false}": {
      "compile_time_ms": 1437.446716001432,
      "lower_time_ms": 33951.42879999912,
      "evaluation_times_ms": [
        2.648,
        2.649,
        2.648,
        2.648,
        2.648
      ],
      "metadata": {},
      "peak_memory_mb": 3892.34944
    }
  },
  "{\"lhs\":\"bf16[131072,7168]\",\"rhs\":\"bf16[256,512,7168]\",\"group_sizes\":{\"num_groups\":256,\"total_size\":131072},\"ragged_dot_dimension_numbers\":{\"dot_dimension_numbers\":[[[1],[2]],[[],[]]],\"lhs_ragged_dimensions\":[0],\"rhs_group_dimensions\":[0]},\"precision\":[\"DEFAULT\",\"DEFAULT\"],\"preferred_element_type\":\"bfloat16\",\"return_residuals\":false,\"activation\":null,\"manual_axis_type\":null}": {
    "{\"tile_m\":1024,\"tile_k\":512,\"tile_n\":512,\"input_buffer_count\":2,\"combine_scopes\":false}": {
      "compile_time_ms": 6730.45332300012,
      "lower_time_ms": 19878.709942000114,
      "evaluation_times_ms": [
        6.485,
        6.486,
        6.489,
        6.483,
        6.472
      ],
      "metadata": {},
      "peak_memory_mb": 3892.466688
    }
  },
  "{\"lhs\":\"bf16[131072,512]\",\"rhs\":\"bf16[131072,7168]\",\"group_sizes\":{\"num_groups\":256,\"total_size\":131072},\"ragged_dot_dimension_numbers\":{\"dot_dimension_numbers\":[[[0],[0]],[[],[]]],\"lhs_ragged_dimensions\":[0],\"rhs_group_dimensions\":[]},\"precision\":[\"DEFAULT\",\"DEFAULT\"],\"preferred_element_type\":\"bfloat16\",\"return_residuals\":false,\"activation\":null,\"manual_axis_type\":null}": {
    "{\"tile_m\":256,\"tile_k\":512,\"tile_n\":3584,\"input_buffer_count\":4,\"combine_scopes\":false}": {
      "compile_time_ms": 2905.838192993542,
      "lower_time_ms": 8932.467804988846,
      "evaluation_times_ms": [
        2.641,
        2.641,
        2.642,
        2.641,
        2.64
      ],
      "metadata": {},
      "peak_memory_mb": 3892.34944
    }
  },
  "{\"lhs\":\"bf16[262144,512]\",\"rhs\":\"bf16[256,7168,512]\",\"group_sizes\":{\"num_groups\":256,\"total_size\":262144},\"ragged_dot_dimension_numbers\":{\"dot_dimension_numbers\":[[[1],[2]],[[],[]]],\"lhs_ragged_dimensions\":[0],\"rhs_group_dimensions\":[0]},\"precision\":[\"DEFAULT\",\"DEFAULT\"],\"preferred_element_type\":\"bfloat16\",\"return_residuals\":false,\"activation\":null,\"manual_axis_type\":null}": {
    "{\"tile_m\":1024,\"tile_k\":512,\"tile_n\":512,\"input_buffer_count\":2,\"combine_scopes\":false}": {
      "compile_time_ms": 4626.804936007829,
      "lower_time_ms": 14280.425641016336,
      "evaluation_times_ms": [
        8.721,
        8.72,
        8.713,
        8.725,
        8.712
      ],
      "metadata": {},
      "peak_memory_mb": 5905.609728
    }
  },
  "{\"lhs\":\"bf16[262144,7168]\",\"rhs\":\"bf16[262144,512]\",\"group_sizes\":{\"num_groups\":256,\"total_size\":262144},\"ragged_dot_dimension_numbers\":{\"dot_dimension_numbers\":[[[0],[0]],[[],[]]],\"lhs_ragged_dimensions\":[0],\"rhs_group_dimensions\":[]},\"precision\":[\"DEFAULT\",\"DEFAULT\"],\"preferred_element_type\":\"bfloat16\",\"return_residuals\":false,\"activation\":null,\"manual_axis_type\":null}": {
    "{\"tile_m\":256,\"tile_k\":3584,\"tile_n\":512,\"input_buffer_count\":4,\"combine_scopes\":false}": {
      "compile_time_ms": 16829.47253002203,
      "lower_time_ms": 23056.54505401617,
      "evaluation_times_ms": [
        4.121,
        4.123,
        4.119,
        4.123,
        4.121
      ],
      "metadata": {},
      "peak_memory_mb": 5905.633792
    }
  },
  "{\"lhs\":\"bf16[262144,7168]\",\"rhs\":\"bf16[256,256,7168]\",\"group_sizes\":{\"num_groups\":256,\"total_size\":262144},\"ragged_dot_dimension_numbers\":{\"dot_dimension_numbers\":[[[1],[2]],[[],[]]],\"lhs_ragged_dimensions\":[0],\"rhs_group_dimensions\":[0]},\"precision\":[\"DEFAULT\",\"DEFAULT\"],\"preferred_element_type\":\"bfloat16\",\"return_residuals\":false,\"activation\":null,\"manual_axis_type\":null}": {
    "{\"tile_m\":1024,\"tile_k\":256,\"tile_n\":256,\"input_buffer_count\":4,\"combine_scopes\":false}": {
      "compile_time_ms": 39604.83468900202,
      "lower_time_ms": 18322.816494037397,
      "evaluation_times_ms": [
        11.387,
        11.395,
        11.411,
        11.385,
        11.392
      ],
      "metadata": {},
      "peak_memory_mb": 4831.867904
    }
  },
  "{\"lhs\":\"bf16[262144,256]\",\"rhs\":\"bf16[262144,7168]\",\"group_sizes\":{\"num_groups\":256,\"total_size\":262144},\"ragged_dot_dimension_numbers\":{\"dot_dimension_numbers\":[[[0],[0]],[[],[]]],\"lhs_ragged_dimensions\":[0],\"rhs_group_dimensions\":[]},\"precision\":[\"DEFAULT\",\"DEFAULT\"],\"preferred_element_type\":\"bfloat16\",\"return_residuals\":false,\"activation\":null,\"manual_axis_type\":null}": {
    "{\"tile_m\":256,\"tile_k\":256,\"tile_n\":7168,\"input_buffer_count\":4,\"combine_scopes\":false}": {
      "compile_time_ms": 18596.83520300314,
      "lower_time_ms": 24065.42930402793,
      "evaluation_times_ms": [
        2.075,
        2.074,
        2.073,
        2.076,
        2.077
      ],
      "metadata": {},
      "peak_memory_mb": 4831.891968
    }
  },
  "{\"lhs\":\"bf16[262144,7168]\",\"rhs\":\"bf16[256,1024,7168]\",\"group_sizes\":{\"num_groups\":256,\"total_size\":262144},\"ragged_dot_dimension_numbers\":{\"dot_dimension_numbers\":[[[1],[2]],[[],[]]],\"lhs_ragged_dimensions\":[0],\"rhs_group_dimensions\":[0]},\"precision\":[\"DEFAULT\",\"DEFAULT\"],\"preferred_element_type\":\"bfloat16\",\"return_residuals\":false,\"activation\":null,\"manual_axis_type\":null}": {
    "{\"tile_m\":512,\"tile_k\":1024,\"tile_n\":1024,\"input_buffer_count\":2,\"combine_scopes\":false}": {
      "compile_time_ms": 18704.450765013462,
      "lower_time_ms": 18264.054531988222,
      "evaluation_times_ms": [
        9.595,
        9.584,
        9.586,
        9.59,
        9.583
      ],
      "metadata": {},
      "peak_memory_mb": 8053.099008
    }
  },
  "{\"lhs\":\"bf16[262144,1024]\",\"rhs\":\"bf16[262144,7168]\",\"group_sizes\":{\"num_groups\":256,\"total_size\":262144},\"ragged_dot_dimension_numbers\":{\"dot_dimension_numbers\":[[[0],[0]],[[],[]]],\"lhs_ragged_dimensions\":[0],\"rhs_group_dimensions\":[]},\"precision\":[\"DEFAULT\",\"DEFAULT\"],\"preferred_element_type\":\"bfloat16\",\"return_residuals\":false,\"activation\":null,\"manual_axis_type\":null}": {
    "{\"tile_m\":256,\"tile_k\":512,\"tile_n\":3584,\"input_buffer_count\":4,\"combine_scopes\":false}": {
      "compile_time_ms": 22143.402923975373,
      "lower_time_ms": 31437.332615983905,
      "evaluation_times_ms": [
        8.085,
        8.087,
        8.087,
        8.085,
        8.084
      ],
      "metadata": {},
      "peak_memory_mb": 8053.11744
    }
  },
  "{\"lhs\":\"bf16[262144,1024]\",\"rhs\":\"bf16[256,7168,1024]\",\"group_sizes\":{\"num_groups\":256,\"total_size\":262144},\"ragged_dot_dimension_numbers\":{\"dot_dimension_numbers\":[[[1],[2]],[[],[]]],\"lhs_ragged_dimensions\":[0],\"rhs_group_dimensions\":[0]},\"precision\":[\"DEFAULT\",\"DEFAULT\"],\"preferred_element_type\":\"bfloat16\",\"return_residuals\":false,\"activation\":null,\"manual_axis_type\":null}": {
    "{\"tile_m\":512,\"tile_k\":1024,\"tile_n\":1024,\"input_buffer_count\":2,\"combine_scopes\":false}": {
      "compile_time_ms": 15080.328120995546,
      "lower_time_ms": 17521.003048022976,
      "evaluation_times_ms": [
        9.201,
        9.199,
        9.202,
        9.204,
        9.206
      ],
      "metadata": {},
      "peak_memory_mb": 8053.099008
    }
  },
  "{\"lhs\":\"bf16[262144,7168]\",\"rhs\":\"bf16[262144,1024]\",\"group_sizes\":{\"num_groups\":256,\"total_size\":262144},\"ragged_dot_dimension_numbers\":{\"dot_dimension_numbers\":[[[0],[0]],[[],[]]],\"lhs_ragged_dimensions\":[0],\"rhs_group_dimensions\":[]},\"precision\":[\"DEFAULT\",\"DEFAULT\"],\"preferred_element_type\":\"bfloat16\",\"return_residuals\":false,\"activation\":null,\"manual_axis_type\":null}": {
    "{\"tile_m\":256,\"tile_k\":1792,\"tile_n\":1024,\"input_buffer_count\":4,\"combine_scopes\":false}": {
      "compile_time_ms": 33318.49804599187,
      "lower_time_ms": 24754.645111999707,
      "evaluation_times_ms": [
        8.132,
        8.13,
        8.126,
        8.127,
        8.136
      ],
      "metadata": {},
      "peak_memory_mb": 8053.11744
    }
  },
  "{\"lhs\":\"bf16[262144,7168]\",\"rhs\":\"bf16[256,2048,7168]\",\"group_sizes\":{\"num_groups\":256,\"total_size\":262144},\"ragged_dot_dimension_numbers\":{\"dot_dimension_numbers\":[[[1],[2]],[[],[]]],\"lhs_ragged_dimensions\":[0],\"rhs_group_dimensions\":[0]},\"precision\":[\"DEFAULT\",\"DEFAULT\"],\"preferred_element_type\":\"bfloat16\",\"return_residuals\":false,\"activation\":null,\"manual_axis_type\":null}": {
    "{\"tile_m\":512,\"tile_k\":1024,\"tile_n\":2048,\"input_buffer_count\":2,\"combine_scopes\":false}": {
      "compile_time_ms": 22612.70117299864,
      "lower_time_ms": 14719.204493972939,
      "evaluation_times_ms": [
        14.701,
        14.693,
        14.702,
        14.7,
        14.695
      ],
      "metadata": {},
      "peak_memory_mb": 12348.066304
    }
  },
  "{\"lhs\":\"bf16[262144,2048]\",\"rhs\":\"bf16[262144,7168]\",\"group_sizes\":{\"num_groups\":256,\"total_size\":262144},\"ragged_dot_dimension_numbers\":{\"dot_dimension_numbers\":[[[0],[0]],[[],[]]],\"lhs_ragged_dimensions\":[0],\"rhs_group_dimensions\":[]},\"precision\":[\"DEFAULT\",\"DEFAULT\"],\"preferred_element_type\":\"bfloat16\",\"return_residuals\":false,\"activation\":null,\"manual_axis_type\":null}": {
    "{\"tile_m\":256,\"tile_k\":2048,\"tile_n\":1024,\"input_buffer_count\":4,\"combine_scopes\":false}": {
      "compile_time_ms": 26654.54233402852,
      "lower_time_ms": 24668.3479679632,
      "evaluation_times_ms": [
        15.801,
        15.793,
        15.802,
        15.798,
        15.793
      ],
      "metadata": {},
      "peak_memory_mb": 12348.084736
    }
  },
  "{\"lhs\":\"bf16[262144,2048]\",\"rhs\":\"bf16[256,7168,2048]\",\"group_sizes\":{\"num_groups\":256,\"total_size\":262144},\"ragged_dot_dimension_numbers\":{\"dot_dimension_numbers\":[[[1],[2]],[[],[]]],\"lhs_ragged_dimensions\":[0],\"rhs_group_dimensions\":[0]},\"precision\":[\"DEFAULT\",\"DEFAULT\"],\"preferred_element_type\":\"bfloat16\",\"return_residuals\":false,\"activation\":null,\"manual_axis_type\":null}": {
    "{\"tile_m\":512,\"tile_k\":2048,\"tile_n\":1024,\"input_buffer_count\":2,\"combine_scopes\":false}": {
      "compile_time_ms": 4652.714975003619,
      "lower_time_ms": 9855.258462019265,
      "evaluation_times_ms": [
        14.168,
        14.172,
        14.166,
        14.174,
        14.172
      ],
      "metadata": {},
      "peak_memory_mb": 12348.066304
    }
  },
  "{\"lhs\":\"bf16[262144,7168]\",\"rhs\":\"bf16[262144,2048]\",\"group_sizes\":{\"num_groups\":256,\"total_size\":262144},\"ragged_dot_dimension_numbers\":{\"dot_dimension_numbers\":[[[0],[0]],[[],[]]],\"lhs_ragged_dimensions\":[0],\"rhs_group_dimensions\":[]},\"precision\":[\"DEFAULT\",\"DEFAULT\"],\"preferred_element_type\":\"bfloat16\",\"return_residuals\":false,\"activation\":null,\"manual_axis_type\":null}": {
    "{\"tile_m\":256,\"tile_k\":1024,\"tile_n\":2048,\"input_buffer_count\":4,\"combine_scopes\":false}": {
      "compile_time_ms": 1562.585630977992,
      "lower_time_ms": 103.08301402255893,
      "evaluation_times_ms": [
        15.608,
        15.612,
        15.615,
        15.613,
        15.612
      ],
      "metadata": {},
      "peak_memory_mb": 12348.084736
    }
  },
  "{\"lhs\":\"bf16[327680,2880]\",\"rhs\":\"bf16[128,2880,2880]\",\"group_sizes\":{\"num_groups\":128,\"total_size\":327680},\"ragged_dot_dimension_numbers\":{\"dot_dimension_numbers\":[[[1],[2]],[[],[]]],\"lhs_ragged_dimensions\":[0],\"rhs_group_dimensions\":[0]},\"precision\":[\"DEFAULT\",\"DEFAULT\"],\"preferred_element_type\":\"bfloat16\",\"return_residuals\":false,\"activation\":null,\"manual_axis_type\":null}": {
    "{\"tile_m\":512,\"tile_k\":2944,\"tile_n\":1024,\"input_buffer_count\":2,\"combine_scopes\":false}": {
      "compile_time_ms": 1756.881177017931,
      "lower_time_ms": 1783.0110319773667,
      "evaluation_times_ms": [
        16.034,
        16.038,
        16.024,
        16.012,
        16.024
      ],
      "metadata": {},
      "peak_memory_mb": 11927.56736
    }
  },
  "{\"lhs\":\"bf16[327680,2880]\",\"rhs\":\"bf16[327680,2880]\",\"group_sizes\":{\"num_groups\":128,\"total_size\":327680},\"ragged_dot_dimension_numbers\":{\"dot_dimension_numbers\":[[[0],[0]],[[],[]]],\"lhs_ragged_dimensions\":[0],\"rhs_group_dimensions\":[]},\"precision\":[\"DEFAULT\",\"DEFAULT\"],\"preferred_element_type\":\"bfloat16\",\"return_residuals\":false,\"activation\":null,\"manual_axis_type\":null}": {
    "{\"tile_m\":256,\"tile_k\":2944,\"tile_n\":1024,\"input_buffer_count\":3,\"combine_scopes\":false}": {
      "compile_time_ms": 2495.988822018262,
      "lower_time_ms": 3329.6918369596824,
      "evaluation_times_ms": [
        16.641,
        16.666,
        16.653,
        16.657,
        16.646
      ],
      "metadata": {},
      "peak_memory_mb": 9998.18752
    }
  },
  "{\"lhs\":\"bf16[393216,768]\",\"rhs\":\"bf16[128,2048,768]\",\"group_sizes\":{\"num_groups\":128,\"total_size\":393216},\"ragged_dot_dimension_numbers\":{\"dot_dimension_numbers\":[[[1],[2]],[[],[]]],\"lhs_ragged_dimensions\":[0],\"rhs_group_dimensions\":[0]},\"precision\":[\"DEFAULT\",\"DEFAULT\"],\"preferred_element_type\":\"bfloat16\",\"return_residuals\":false,\"activation\":null,\"manual_axis_type\":null}": {
    "{\"tile_m\":1024,\"tile_k\":1024,\"tile_n\":768,\"input_buffer_count\":2,\"combine_scopes\":false}": {
      "compile_time_ms": 6962.112553010229,
      "lower_time_ms": 7942.031071987003,
      "evaluation_times_ms": [
        3.222,
        3.221,
        3.222,
        3.223,
        3.22
      ],
      "metadata": {},
      "peak_memory_mb": 2617.394688
    }
  },
  "{\"lhs\":\"bf16[393216,2048]\",\"rhs\":\"bf16[393216,768]\",\"group_sizes\":{\"num_groups\":128,\"total_size\":393216},\"ragged_dot_dimension_numbers\":{\"dot_dimension_numbers\":[[[0],[0]],[[],[]]],\"lhs_ragged_dimensions\":[0],\"rhs_group_dimensions\":[]},\"precision\":[\"DEFAULT\",\"DEFAULT\"],\"preferred_element_type\":\"bfloat16\",\"return_residuals\":false,\"activation\":null,\"manual_axis_type\":null}": {
    "{\"tile_m\":512,\"tile_k\":2048,\"tile_n\":768,\"input_buffer_count\":4,\"combine_scopes\":false}": {
      "compile_time_ms": 22285.724901012145,
      "lower_time_ms": 44131.45280099707,
      "evaluation_times_ms": [
        2.055,
        2.056,
        2.056,
        2.054,
        2.057
      ],
      "metadata": {},
      "peak_memory_mb": 2617.396736
    }
  },
  "{\"lhs\":\"bf16[393216,2048]\",\"rhs\":\"bf16[128,768,2048]\",\"group_sizes\":{\"num_groups\":128,\"total_size\":393216},\"ragged_dot_dimension_numbers\":{\"dot_dimension_numbers\":[[[1],[2]],[[],[]]],\"lhs_ragged_dimensions\":[0],\"rhs_group_dimensions\":[0]},\"precision\":[\"DEFAULT\",\"DEFAULT\"],\"preferred_element_type\":\"bfloat16\",\"return_residuals\":false,\"activation\":null,\"manual_axis_type\":null}": {
    "{\"tile_m\":1024,\"tile_k\":768,\"tile_n\":1024,\"input_buffer_count\":3,\"combine_scopes\":false}": {
      "compile_time_ms": 6557.355027995072,
      "lower_time_ms": 10517.584312008694,
      "evaluation_times_ms": [
        3.481,
        3.48,
        3.478,
        3.477,
        3.478
      ],
      "metadata": {},
      "peak_memory_mb": 2617.394688
    }
  },
  "{\"lhs\":\"bf16[393216,768]\",\"rhs\":\"bf16[393216,2048]\",\"group_sizes\":{\"num_groups\":128,\"total_size\":393216},\"ragged_dot_dimension_numbers\":{\"dot_dimension_numbers\":[[[0],[0]],[[],[]]],\"lhs_ragged_dimensions\":[0],\"rhs_group_dimensions\":[]},\"precision\":[\"DEFAULT\",\"DEFAULT\"],\"preferred_element_type\":\"bfloat16\",\"return_residuals\":false,\"activation\":null,\"manual_axis_type\":null}": {
    "{\"tile_m\":512,\"tile_k\":768,\"tile_n\":2048,\"input_buffer_count\":4,\"combine_scopes\":false}": {
      "compile_time_ms": 9698.810963018332,
      "lower_time_ms": 16545.634478970896,
      "evaluation_times_ms": [
        2.054,
        2.052,
        2.054,
        2.054,
        2.052
      ],
      "metadata": {},
      "peak_memory_mb": 2617.396736
    }
  },
  "{\"lhs\":\"bf16[524288,1536]\",\"rhs\":\"bf16[128,4096,1536]\",\"group_sizes\":{\"num_groups\":128,\"total_size\":524288},\"ragged_dot_dimension_numbers\":{\"dot_dimension_numbers\":[[[1],[2]],[[],[]]],\"lhs_ragged_dimensions\":[0],\"rhs_group_dimensions\":[0]},\"precision\":[\"DEFAULT\",\"DEFAULT\"],\"preferred_element_type\":\"bfloat16\",\"return_residuals\":false,\"activation\":null,\"manual_axis_type\":null}": {
    "{\"tile_m\":1024,\"tile_k\":2048,\"tile_n\":1024,\"input_buffer_count\":2,\"combine_scopes\":false}": {
      "compile_time_ms": 12045.653928998945,
      "lower_time_ms": 18616.76609300048,
      "evaluation_times_ms": [
        12.411,
        12.41,
        12.409,
        12.41,
        12.411
      ],
      "metadata": {},
      "peak_memory_mb": 7516.34176
    }
  },
  "{\"lhs\":\"bf16[524288,4096]\",\"rhs\":\"bf16[524288,1536]\",\"group_sizes\":{\"num_groups\":128,\"total_size\":524288},\"ragged_dot_dimension_numbers\":{\"dot_dimension_numbers\":[[[0],[0]],[[],[]]],\"lhs_ragged_dimensions\":[0],\"rhs_group_dimensions\":[]},\"precision\":[\"DEFAULT\",\"DEFAULT\"],\"preferred_element_type\":\"bfloat16\",\"return_residuals\":false,\"activation\":null,\"manual_axis_type\":null}": {
    "{\"tile_m\":256,\"tile_k\":2048,\"tile_n\":1536,\"input_buffer_count\":2,\"combine_scopes\":false}": {
      "compile_time_ms": 15817.366892000791,
      "lower_time_ms": 37393.45079099985,
      "evaluation_times_ms": [
        9.679,
        9.677,
        9.678,
        9.68,
        9.678
      ],
      "metadata": {},
      "peak_memory_mb": 7516.347904
    }
  },
  "{\"lhs\":\"bf16[524288,4096]\",\"rhs\":\"bf16[128,1536,4096]\",\"group_sizes\":{\"num_groups\":128,\"total_size\":524288},\"ragged_dot_dimension_numbers\":{\"dot_dimension_numbers\":[[[1],[2]],[[],[]]],\"lhs_ragged_dimensions\":[0],\"rhs_group_dimensions\":[0]},\"precision\":[\"DEFAULT\",\"DEFAULT\"],\"preferred_element_type\":\"bfloat16\",\"return_residuals\":false,\"activation\":null,\"manual_axis_type\":null}": {
    "{\"tile_m\":512,\"tile_k\":1024,\"tile_n\":2048,\"input_buffer_count\":2,\"combine_scopes\":false}": {
      "compile_time_ms": 12180.920827999216,
      "lower_time_ms": 15368.12789600117,
      "evaluation_times_ms": [
        12.5,
        12.494,
        12.494,
        12.498,
        12.497
      ],
      "metadata": {},
      "peak_memory_mb": 7516.343808
    }
  },
  "{\"lhs\":\"bf16[524288,1536]\",\"rhs\":\"bf16[524288,4096]\",\"group_sizes\":{\"num_groups\":128,\"total_size\":524288},\"ragged_dot_dimension_numbers\":{\"dot_dimension_numbers\":[[[0],[0]],[[],[]]],\"lhs_ragged_dimensions\":[0],\"rhs_group_dimensions\":[]},\"precision\":[\"DEFAULT\",\"DEFAULT\"],\"preferred_element_type\":\"bfloat16\",\"return_residuals\":false,\"activation\":null,\"manual_axis_type\":null}": {
    "{\"tile_m\":256,\"tile_k\":768,\"tile_n\":4096,\"input_buffer_count\":3,\"combine_scopes\":false}": {
      "compile_time_ms": 45172.729087000334,
      "lower_time_ms": 50337.00193699951,
      "evaluation_times_ms": [
        9.609,
        9.609,
        9.612,
        9.613,
        9.613
      ],
      "metadata": {},
      "peak_memory_mb": 7516.347904
    }
  },
  "{\"lhs\":\"bf16[524288,7168]\",\"rhs\":\"bf16[256,2048,7168]\",\"group_sizes\":{\"num_groups\":256,\"total_size\":524288},\"ragged_dot_dimension_numbers\":{\"dot_dimension_numbers\":[[[1],[2]],[[],[]]],\"lhs_ragged_dimensions\":[0],\"rhs_group_dimensions\":[0]},\"precision\":[\"DEFAULT\",\"DEFAULT\"],\"preferred_element_type\":\"bfloat16\",\"return_residuals\":false,\"activation\":null,\"manual_axis_type\":null}": {
    "{\"tile_m\":512,\"tile_k\":1024,\"tile_n\":2048,\"input_buffer_count\":2,\"combine_scopes\":false}": {
      "compile_time_ms": 20882.7122040002,
      "lower_time_ms": 20947.95717800025,
      "evaluation_times_ms": [
        24.544,
        24.548,
        24.547,
        24.54,
        24.54
      ],
      "metadata": {},
      "peak_memory_mb": 17179.922944
    }
  },
  "{\"lhs\":\"bf16[524288,2048]\",\"rhs\":\"bf16[524288,7168]\",\"group_sizes\":{\"num_groups\":256,\"total_size\":524288},\"ragged_dot_dimension_numbers\":{\"dot_dimension_numbers\":[[[0],[0]],[[],[]]],\"lhs_ragged_dimensions\":[0],\"rhs_group_dimensions\":[]},\"precision\":[\"DEFAULT\",\"DEFAULT\"],\"preferred_element_type\":\"bfloat16\",\"return_residuals\":false,\"activation\":null,\"manual_axis_type\":null}": {
    "{\"tile_m\":512,\"tile_k\":2048,\"tile_n\":1024,\"input_buffer_count\":4,\"combine_scopes\":false}": {
      "compile_time_ms": 17951.147026999024,
      "lower_time_ms": 15667.679365998993,
      "evaluation_times_ms": [
        25.456,
        25.457,
        25.456,
        25.454,
        25.454
      ],
      "metadata": {},
      "peak_memory_mb": 17179.922944
    }
  },
  "{\"lhs\":\"bf16[524288,2048]\",\"rhs\":\"bf16[256,7168,2048]\",\"group_sizes\":{\"num_groups\":256,\"total_size\":524288},\"ragged_dot_dimension_numbers\":{\"dot_dimension_numbers\":[[[1],[2]],[[],[]]],\"lhs_ragged_dimensions\":[0],\"rhs_group_dimensions\":[0]},\"precision\":[\"DEFAULT\",\"DEFAULT\"],\"preferred_element_type\":\"bfloat16\",\"return_residuals\":false,\"activation\":null,\"manual_axis_type\":null}": {},
  "{\"lhs\":\"bf16[262144,2048]\",\"rhs\":\"bf16[256,2048,7168]\",\"group_sizes\":{\"num_groups\":256,\"total_size\":262144},\"ragged_dot_dimension_numbers\":{\"dot_dimension_numbers\":[[[1],[1]],[[],[]]],\"lhs_ragged_dimensions\":[0],\"rhs_group_dimensions\":[0]},\"precision\":[\"DEFAULT\",\"DEFAULT\"],\"preferred_element_type\":null,\"return_residuals\":false,\"activation\":null,\"manual_axis_type\":null}": {
    "{\"tile_m\":128,\"tile_k\":2048,\"tile_n\":3584,\"input_buffer_count\":2,\"combine_scopes\":false}": {
      "compile_time_ms": 17919.486693979707,
      "lower_time_ms": 23108.972182963043,
      "evaluation_times_ms": [
        12.595,
        12.596,
        12.6,
        12.598,
        12.598
      ],
      "metadata": {},
      "peak_memory_mb": 12348.105216
    }
  },
  "{\"lhs\":\"bf16[262144,2048]\",\"rhs\":\"bf16[256,2048,7168]\",\"group_sizes\":{\"num_groups\":256,\"total_size\":262144},\"ragged_dot_dimension_numbers\":{\"dot_dimension_numbers\":[[[1],[1]],[[],[]]],\"lhs_ragged_dimensions\":[0],\"rhs_group_dimensions\":[0]},\"precision\":[\"DEFAULT\",\"DEFAULT\"],\"preferred_element_type\":null,\"return_residuals\":true,\"activation\":null,\"manual_axis_type\":null}": {
    "{\"tile_m\":128,\"tile_k\":2048,\"tile_n\":3584,\"input_buffer_count\":2,\"combine_scopes\":false}": {
      "compile_time_ms": 20048.979346989654,
      "lower_time_ms": 583.8195339892991,
      "evaluation_times_ms": [
        14.924,
        14.927,
        14.921,
        14.922,
        14.923
      ],
      "metadata": {},
      "peak_memory_mb": 16106.201632
    }
  },
  "{\"lhs\":\"bf16[262144,1536]\",\"rhs\":\"bf16[128,4096,1536]\",\"group_sizes\":{\"num_groups\":128,\"total_size\":262144},\"ragged_dot_dimension_numbers\":{\"dot_dimension_numbers\":[[[1],[2]],[[],[]]],\"lhs_ragged_dimensions\":[0],\"rhs_group_dimensions\":[0]},\"precision\":[\"DEFAULT\",\"DEFAULT\"],\"preferred_element_type\":\"bfloat16\",\"return_residuals\":false,\"activation\":null,\"manual_axis_type\":null}": {
    "{\"tile_m\":512,\"tile_k\":2048,\"tile_n\":1024,\"input_buffer_count\":2,\"combine_scopes\":false}": {
      "compile_time_ms": 4578.549722999014,
      "lower_time_ms": 12430.849899999885,
      "evaluation_times_ms": [
        6.909,
        6.909,
        6.897,
        6.903,
        6.901
      ],
      "metadata": {},
      "peak_memory_mb": 4563.551744
    }
  },
  "{\"lhs\":\"bf16[262144,4096]\",\"rhs\":\"bf16[262144,1536]\",\"group_sizes\":{\"num_groups\":128,\"total_size\":262144},\"ragged_dot_dimension_numbers\":{\"dot_dimension_numbers\":[[[0],[0]],[[],[]]],\"lhs_ragged_dimensions\":[0],\"rhs_group_dimensions\":[]},\"precision\":[\"DEFAULT\",\"DEFAULT\"],\"preferred_element_type\":\"bfloat16\",\"return_residuals\":false,\"activation\":null,\"manual_axis_type\":null}": {
    "{\"tile_m\":256,\"tile_k\":2048,\"tile_n\":1536,\"input_buffer_count\":4,\"combine_scopes\":false}": {
      "compile_time_ms": 9121.459062000213,
      "lower_time_ms": 24213.829864000218,
      "evaluation_times_ms": [
        5.289,
        5.289,
        5.288,
        5.287,
        5.287
      ],
      "metadata": {},
      "peak_memory_mb": 4563.553792
    }
  },
  "{\"lhs\":\"bf16[262144,4096]\",\"rhs\":\"bf16[128,1536,4096]\",\"group_sizes\":{\"num_groups\":128,\"total_size\":262144},\"ragged_dot_dimension_numbers\":{\"dot_dimension_numbers\":[[[1],[2]],[[],[]]],\"lhs_ragged_dimensions\":[0],\"rhs_group_dimensions\":[0]},\"precision\":[\"DEFAULT\",\"DEFAULT\"],\"preferred_element_type\":\"bfloat16\",\"return_residuals\":false,\"activation\":null,\"manual_axis_type\":null}": {
    "{\"tile_m\":512,\"tile_k\":1024,\"tile_n\":2048,\"input_buffer_count\":2,\"combine_scopes\":false}": {
      "compile_time_ms": 24842.647756000588,
      "lower_time_ms": 10695.203693001531,
      "evaluation_times_ms": [
        6.954,
        6.955,
        6.951,
        6.951,
        6.954
      ],
      "metadata": {},
      "peak_memory_mb": 4563.551744
    }
  },
  "{\"lhs\":\"bf16[262144,1536]\",\"rhs\":\"bf16[262144,4096]\",\"group_sizes\":{\"num_groups\":128,\"total_size\":262144},\"ragged_dot_dimension_numbers\":{\"dot_dimension_numbers\":[[[0],[0]],[[],[]]],\"lhs_ragged_dimensions\":[0],\"rhs_group_dimensions\":[]},\"precision\":[\"DEFAULT\",\"DEFAULT\"],\"preferred_element_type\":\"bfloat16\",\"return_residuals\":false,\"activation\":null,\"manual_axis_type\":null}": {
    "{\"tile_m\":256,\"tile_k\":768,\"tile_n\":4096,\"input_buffer_count\":3,\"combine_scopes\":false}": {
      "compile_time_ms": 4767.426632000934,
      "lower_time_ms": 46159.17824600001,
      "evaluation_times_ms": [
        5.247,
        5.246,
        5.245,
        5.247,
        5.251
      ],
      "metadata": {},
      "peak_memory_mb": 4563.553792
    }
  },
  "{\"lhs\":\"bf16[131072,2048]\",\"rhs\":\"bf16[128,7168,2048]\",\"group_sizes\":{\"num_groups\":128,\"total_size\":131072},\"ragged_dot_dimension_numbers\":{\"dot_dimension_numbers\":[[[1],[2]],[[],[]]],\"lhs_ragged_dimensions\":[0],\"rhs_group_dimensions\":[0]},\"precision\":[\"DEFAULT\",\"DEFAULT\"],\"preferred_element_type\":\"bfloat16\",\"return_residuals\":false,\"activation\":null,\"manual_axis_type\":null}": {
    "{\"tile_m\":512,\"tile_k\":2048,\"tile_n\":1024,\"input_buffer_count\":2,\"combine_scopes\":false}": {
      "compile_time_ms": 4186.744098999043,
      "lower_time_ms": 26982.81934899933,
      "evaluation_times_ms": [
        7.098,
        7.099,
        7.099,
        7.102,
        7.1
      ],
      "metadata": {},
      "peak_memory_mb": 6174.163456
    }
  },
  "{\"lhs\":\"bf16[131072,7168]\",\"rhs\":\"bf16[131072,2048]\",\"group_sizes\":{\"num_groups\":128,\"total_size\":131072},\"ragged_dot_dimension_numbers\":{\"dot_dimension_numbers\":[[[0],[0]],[[],[]]],\"lhs_ragged_dimensions\":[0],\"rhs_group_dimensions\":[]},\"precision\":[\"DEFAULT\",\"DEFAULT\"],\"preferred_element_type\":\"bfloat16\",\"return_residuals\":false,\"activation\":null,\"manual_axis_type\":null}": {
    "{\"tile_m\":256,\"tile_k\":1024,\"tile_n\":2048,\"input_buffer_count\":4,\"combine_scopes\":false}": {
      "compile_time_ms": 13426.314821001142,
      "lower_time_ms": 12226.485298000625,
      "evaluation_times_ms": [
        7.835,
        7.843,
        7.836,
        7.834,
        7.835
      ],
      "metadata": {},
      "peak_memory_mb": 6174.16448
    }
  },
  "{\"lhs\":\"bf16[131072,768]\",\"rhs\":\"bf16[128,2048,768]\",\"group_sizes\":{\"num_groups\":128,\"total_size\":131072},\"ragged_dot_dimension_numbers\":{\"dot_dimension_numbers\":[[[1],[2]],[[],[]]],\"lhs_ragged_dimensions\":[0],\"rhs_group_dimensions\":[0]},\"precision\":[\"DEFAULT\",\"DEFAULT\"],\"preferred_element_type\":\"bfloat16\",\"return_residuals\":false,\"activation\":null,\"manual_axis_type\":null}": {
    "{\"tile_m\":512,\"tile_k\":1024,\"tile_n\":768,\"input_buffer_count\":2,\"combine_scopes\":false}": {
      "compile_time_ms": 4121.333345072344,
      "lower_time_ms": 2653.242790955119,
      "evaluation_times_ms": [
        1.615,
        1.612,
        1.612,
        1.617,
        1.611
      ],
      "metadata": {},
      "peak_memory_mb": 1140.998656
    }
  },
  "{\"lhs\":\"bf16[131072,2048]\",\"rhs\":\"bf16[131072,768]\",\"group_sizes\":{\"num_groups\":128,\"total_size\":131072},\"ragged_dot_dimension_numbers\":{\"dot_dimension_numbers\":[[[0],[0]],[[],[]]],\"lhs_ragged_dimensions\":[0],\"rhs_group_dimensions\":[]},\"precision\":[\"DEFAULT\",\"DEFAULT\"],\"preferred_element_type\":\"bfloat16\",\"return_residuals\":false,\"activation\":null,\"manual_axis_type\":null}": {
    "{\"tile_m\":512,\"tile_k\":2048,\"tile_n\":768,\"input_buffer_count\":4,\"combine_scopes\":false}": {
      "compile_time_ms": 27754.479225026444,
      "lower_time_ms": 30696.197231067345,
      "evaluation_times_ms": [
        0.964,
        0.965,
        0.964,
        0.963,
        0.965
      ],
      "metadata": {},
      "peak_memory_mb": 1140.998656
    }
  },
  "{\"lhs\":\"bf16[131072,1536]\",\"rhs\":\"bf16[128,4096,1536]\",\"group_sizes\":{\"num_groups\":128,\"total_size\":131072},\"ragged_dot_dimension_numbers\":{\"dot_dimension_numbers\":[[[1],[2]],[[],[]]],\"lhs_ragged_dimensions\":[0],\"rhs_group_dimensions\":[0]},\"precision\":[\"DEFAULT\",\"DEFAULT\"],\"preferred_element_type\":\"bfloat16\",\"return_residuals\":false,\"activation\":null,\"manual_axis_type\":null}": {
    "{\"tile_m\":512,\"tile_k\":2048,\"tile_n\":1024,\"input_buffer_count\":2,\"combine_scopes\":false}": {
      "compile_time_ms": 6204.393237945624,
      "lower_time_ms": 9902.404973981902,
      "evaluation_times_ms": [
        4.14,
        4.14,
        4.138,
        4.142,
        4.142
      ],
      "metadata": {},
      "peak_memory_mb": 3087.155712
    }
  },
  "{\"lhs\":\"bf16[131072,4096]\",\"rhs\":\"bf16[131072,1536]\",\"group_sizes\":{\"num_groups\":128,\"total_size\":131072},\"ragged_dot_dimension_numbers\":{\"dot_dimension_numbers\":[[[0],[0]],[[],[]]],\"lhs_ragged_dimensions\":[0],\"rhs_group_dimensions\":[]},\"precision\":[\"DEFAULT\",\"DEFAULT\"],\"preferred_element_type\":\"bfloat16\",\"return_residuals\":false,\"activation\":null,\"manual_axis_type\":null}": {
    "{\"tile_m\":256,\"tile_k\":2048,\"tile_n\":1536,\"input_buffer_count\":4,\"combine_scopes\":false}": {
      "compile_time_ms": 38311.31304602604,
      "lower_time_ms": 19010.837103938684,
      "evaluation_times_ms": [
        3.114,
        3.112,
        3.113,
        3.115,
        3.113
      ],
      "metadata": {},
      "peak_memory_mb": 3087.156736
    }
  },
  "{\"lhs\":\"bf16[131072,4096]\",\"rhs\":\"bf16[128,1536,4096]\",\"group_sizes\":{\"num_groups\":128,\"total_size\":131072},\"ragged_dot_dimension_numbers\":{\"dot_dimension_numbers\":[[[1],[2]],[[],[]]],\"lhs_ragged_dimensions\":[0],\"rhs_group_dimensions\":[0]},\"precision\":[\"DEFAULT\",\"DEFAULT\"],\"preferred_element_type\":\"bfloat16\",\"return_residuals\":false,\"activation\":null,\"manual_axis_type\":null}": {
    "{\"tile_m\":512,\"tile_k\":1024,\"tile_n\":2048,\"input_buffer_count\":2,\"combine_scopes\":false}": {
      "compile_time_ms": 16157.669133972377,
      "lower_time_ms": 26419.70532492269,
      "evaluation_times_ms": [
        4.189,
        4.192,
        4.192,
        4.191,
        4.19
      ],
      "metadata": {},
      "peak_memory_mb": 3087.155712
    }
  },
  "{\"lhs\":\"bf16[131072,1536]\",\"rhs\":\"bf16[131072,4096]\",\"group_sizes\":{\"num_groups\":128,\"total_size\":131072},\"ragged_dot_dimension_numbers\":{\"dot_dimension_numbers\":[[[0],[0]],[[],[]]],\"lhs_ragged_dimensions\":[0],\"rhs_group_dimensions\":[]},\"precision\":[\"DEFAULT\",\"DEFAULT\"],\"preferred_element_type\":\"bfloat16\",\"return_residuals\":false,\"activation\":null,\"manual_axis_type\":null}": {
    "{\"tile_m\":256,\"tile_k\":768,\"tile_n\":4096,\"input_buffer_count\":3,\"combine_scopes\":false}": {
      "compile_time_ms": 21500.368215027265,
      "lower_time_ms": 21601.494072005153,
      "evaluation_times_ms": [
        3.095,
        3.096,
        3.097,
        3.095,
        3.093
      ],
      "metadata": {},
      "peak_memory_mb": 3087.156736
    }
  },
  "{\"lhs\":\"bf16[131072,2048]\",\"rhs\":\"bf16[256,7168,2048]\",\"group_sizes\":{\"num_groups\":256,\"total_size\":131072},\"ragged_dot_dimension_numbers\":{\"dot_dimension_numbers\":[[[1],[2]],[[],[]]],\"lhs_ragged_dimensions\":[0],\"rhs_group_dimensions\":[0]},\"precision\":[\"DEFAULT\",\"DEFAULT\"],\"preferred_element_type\":\"bfloat16\",\"return_residuals\":false,\"activation\":null,\"manual_axis_type\":null}": {
    "{\"tile_m\":256,\"tile_k\":2048,\"tile_n\":2048,\"input_buffer_count\":2,\"combine_scopes\":false}": {
      "compile_time_ms": 20426.77986200033,
      "lower_time_ms": 16156.898658999125,
      "evaluation_times_ms": [
        9.061,
        9.061,
        9.06,
        9.06,
        9.058
      ],
      "metadata": {},
      "peak_memory_mb": 9932.1472
    }
  },
  "{\"lhs\":\"bf16[131072,7168]\",\"rhs\":\"bf16[131072,2048]\",\"group_sizes\":{\"num_groups\":256,\"total_size\":131072},\"ragged_dot_dimension_numbers\":{\"dot_dimension_numbers\":[[[0],[0]],[[],[]]],\"lhs_ragged_dimensions\":[0],\"rhs_group_dimensions\":[]},\"precision\":[\"DEFAULT\",\"DEFAULT\"],\"preferred_element_type\":\"bfloat16\",\"return_residuals\":false,\"activation\":null,\"manual_axis_type\":null}": {
    "{\"tile_m\":256,\"tile_k\":1024,\"tile_n\":2048,\"input_buffer_count\":4,\"combine_scopes\":false}": {
      "compile_time_ms": 33714.84721800152,
      "lower_time_ms": 14838.366059000691,
      "evaluation_times_ms": [
        10.055,
        10.051,
        10.052,
        10.052,
        10.053
      ],
      "metadata": {},
      "peak_memory_mb": 9932.1472
    }
  },
  "{\"lhs\":\"bf16[65536,2048]\",\"rhs\":\"bf16[256,7168,2048]\",\"group_sizes\":{\"num_groups\":256,\"total_size\":65536},\"ragged_dot_dimension_numbers\":{\"dot_dimension_numbers\":[[[1],[2]],[[],[]]],\"lhs_ragged_dimensions\":[0],\"rhs_group_dimensions\":[0]},\"precision\":[\"DEFAULT\",\"DEFAULT\"],\"preferred_element_type\":\"bfloat16\",\"return_residuals\":false,\"activation\":null,\"manual_axis_type\":null}": {
    "{\"tile_m\":256,\"tile_k\":2048,\"tile_n\":2048,\"input_buffer_count\":2,\"combine_scopes\":false}": {
      "compile_time_ms": 19532.98259099938,
      "lower_time_ms": 14967.493738000485,
      "evaluation_times_ms": [
        6.361,
        6.359,
        6.36,
        6.363,
        6.358
      ],
      "metadata": {},
      "peak_memory_mb": 8724.182016
    }
  },
  "{\"lhs\":\"bf16[65536,7168]\",\"rhs\":\"bf16[65536,2048]\",\"group_sizes\":{\"num_groups\":256,\"total_size\":65536},\"ragged_dot_dimension_numbers\":{\"dot_dimension_numbers\":[[[0],[0]],[[],[]]],\"lhs_ragged_dimensions\":[0],\"rhs_group_dimensions\":[]},\"precision\":[\"DEFAULT\",\"DEFAULT\"],\"preferred_element_type\":\"bfloat16\",\"return_residuals\":false,\"activation\":null,\"manual_axis_type\":null}": {
    "{\"tile_m\":256,\"tile_k\":1024,\"tile_n\":2048,\"input_buffer_count\":4,\"combine_scopes\":false}": {
      "compile_time_ms": 12457.733199000359,
      "lower_time_ms": 43790.16174099888,
      "evaluation_times_ms": [
        7.245,
        7.247,
        7.247,
        7.249,
        7.244
      ],
      "metadata": {},
      "peak_memory_mb": 8724.182016
    }
  },
  "{\"lhs\":\"bf16[262144,7168]\",\"rhs\":\"bf16[256,512,7168]\",\"group_sizes\":{\"num_groups\":256,\"total_size\":262144},\"ragged_dot_dimension_numbers\":{\"dot_dimension_numbers\":[[[1],[2]],[[],[]]],\"lhs_ragged_dimensions\":[0],\"rhs_group_dimensions\":[0]},\"precision\":[\"DEFAULT\",\"DEFAULT\"],\"preferred_element_type\":\"bfloat16\",\"return_residuals\":false,\"activation\":null,\"manual_axis_type\":null}": {
    "{\"tile_m\":1024,\"tile_k\":512,\"tile_n\":512,\"input_buffer_count\":2,\"combine_scopes\":false}": {
      "compile_time_ms": 11657.637827011058,
      "lower_time_ms": 14997.69298301544,
      "evaluation_times_ms": [
        8.708,
        8.712,
        8.711,
        8.717,
        8.714
      ],
      "metadata": {},
      "peak_memory_mb": 5905.609728
    }
  },
  "{\"lhs\":\"bf16[262144,512]\",\"rhs\":\"bf16[262144,7168]\",\"group_sizes\":{\"num_groups\":256,\"total_size\":262144},\"ragged_dot_dimension_numbers\":{\"dot_dimension_numbers\":[[[0],[0]],[[],[]]],\"lhs_ragged_dimensions\":[0],\"rhs_group_dimensions\":[]},\"precision\":[\"DEFAULT\",\"DEFAULT\"],\"preferred_element_type\":\"bfloat16\",\"return_residuals\":false,\"activation\":null,\"manual_axis_type\":null}": {
    "{\"tile_m\":256,\"tile_k\":512,\"tile_n\":3584,\"input_buffer_count\":4,\"combine_scopes\":false}": {
      "compile_time_ms": 7447.79321498936,
      "lower_time_ms": 21495.07950199768,
      "evaluation_times_ms": [
        4.068,
        4.067,
        4.069,
        4.067,
        4.07
      ],
      "metadata": {},
      "peak_memory_mb": 5905.633792
    }
  },
  "{\"lhs\":{\"qvalue\":\"f8_e4m3fn[262144,2048]\",\"scale\":\"bf16[262144,8]\",\"zero_point\":null,\"qtype\":\"float8_e4m3fn\"},\"rhs\":{\"qvalue\":\"f8_e4m3fn[256,2048,7168]\",\"scale\":\"bf16[256,8,7168]\",\"zero_point\":null,\"qtype\":\"float8_e4m3fn\"},\"group_sizes\":{\"num_groups\":256,\"total_size\":262144},\"ragged_dot_dimension_numbers\":{\"dot_dimension_numbers\":[[[1],[1]],[[],[]]],\"lhs_ragged_dimensions\":[0],\"rhs_group_dimensions\":[0]},\"precision\":[\"DEFAULT\",\"DEFAULT\"],\"preferred_element_type\":null,\"return_residuals\":false,\"activation\":null,\"manual_axis_type\":null}": {
    "{\"tile_m\":256,\"tile_k\":2048,\"tile_n\":3584,\"input_buffer_count\":2,\"combine_scopes\":false}": {
      "compile_time_ms": 11753.72547400184,
      "lower_time_ms": 7927.528419997543,
      "evaluation_times_ms": [
        13.35,
        13.349,
        13.352,
        13.352,
        13.347
      ],
      "metadata": {},
      "peak_memory_mb": 9093.26848
    }
  },
  "{\"lhs\":{\"qvalue\":\"f8_e4m3fn[262144,2048]\",\"scale\":\"bf16[262144,8]\",\"zero_point\":null,\"qtype\":\"float8_e4m3fn\"},\"rhs\":{\"qvalue\":\"f8_e4m3fn[256,2048,7168]\",\"scale\":\"bf16[256,8,7168]\",\"zero_point\":null,\"qtype\":\"float8_e4m3fn\"},\"group_sizes\":{\"num_groups\":256,\"total_size\":262144},\"ragged_dot_dimension_numbers\":{\"dot_dimension_numbers\":[[[1],[1]],[[],[]]],\"lhs_ragged_dimensions\":[0],\"rhs_group_dimensions\":[0]},\"precision\":[\"DEFAULT\",\"DEFAULT\"],\"preferred_element_type\":null,\"return_residuals\":true,\"activation\":null,\"manual_axis_type\":null}": {
    "{\"tile_m\":256,\"tile_k\":2048,\"tile_n\":3584,\"input_buffer_count\":2,\"combine_scopes\":false}": {
      "compile_time_ms": 5346.259776037186,
      "lower_time_ms": 3688.118225953076,
      "evaluation_times_ms": [
        15.682,
        15.685,
        15.681,
        15.682,
        15.682
      ],
      "metadata": {},
      "peak_memory_mb": 12381.608992
    }
  },
  "{\"lhs\":\"bf16[262144,7168]\",\"rhs\":\"bf16[256,7168,2048]\",\"group_sizes\":{\"num_groups\":256,\"total_size\":262144},\"ragged_dot_dimension_numbers\":{\"dot_dimension_numbers\":[[[1],[1]],[[],[]]],\"lhs_ragged_dimensions\":[0],\"rhs_group_dimensions\":[0]},\"precision\":[\"DEFAULT\",\"DEFAULT\"],\"preferred_element_type\":null,\"return_residuals\":false,\"activation\":null,\"manual_axis_type\":null}": {
    "{\"tile_m\":128,\"tile_k\":7168,\"tile_n\":1024,\"input_buffer_count\":2,\"combine_scopes\":false}": {
      "compile_time_ms": 12443.97917704191,
      "lower_time_ms": 42500.60611299705,
      "evaluation_times_ms": [
        12.376,
        12.376,
        12.379,
        12.373,
        12.372
      ],
      "metadata": {},
      "peak_memory_mb": 12348.105216
    }
  },
  "{\"lhs\":\"bf16[262144,7168]\",\"rhs\":\"bf16[256,7168,2048]\",\"group_sizes\":{\"num_groups\":256,\"total_size\":262144},\"ragged_dot_dimension_numbers\":{\"dot_dimension_numbers\":[[[1],[1]],[[],[]]],\"lhs_ragged_dimensions\":[0],\"rhs_group_dimensions\":[0]},\"precision\":[\"DEFAULT\",\"DEFAULT\"],\"preferred_element_type\":null,\"return_residuals\":true,\"activation\":null,\"manual_axis_type\":null}": {
    "{\"tile_m\":128,\"tile_k\":7168,\"tile_n\":1024,\"input_buffer_count\":2,\"combine_scopes\":false}": {
      "compile_time_ms": 21722.61700598756,
      "lower_time_ms": 2582.4291040189564,
      "evaluation_times_ms": [
        13.033,
        13.034,
        13.034,
        13.038,
        13.033
      ],
      "metadata": {},
      "peak_memory_mb": 13421.847072
    }
  },
  "{\"lhs\":{\"qvalue\":\"f8_e4m3fn[262144,7168]\",\"scale\":\"bf16[262144,28]\",\"zero_point\":null,\"qtype\":\"float8_e4m3fn\"},\"rhs\":{\"qvalue\":\"f8_e4m3fn[256,7168,2048]\",\"scale\":\"bf16[256,28,2048]\",\"zero_point\":null,\"qtype\":\"float8_e4m3fn\"},\"group_sizes\":{\"num_groups\":256,\"total_size\":262144},\"ragged_dot_dimension_numbers\":{\"dot_dimension_numbers\":[[[1],[1]],[[],[]]],\"lhs_ragged_dimensions\":[0],\"rhs_group_dimensions\":[0]},\"precision\":[\"DEFAULT\",\"DEFAULT\"],\"preferred_element_type\":null,\"return_residuals\":false,\"activation\":null,\"manual_axis_type\":null}": {
    "{\"tile_m\":256,\"tile_k\":7168,\"tile_n\":1024,\"input_buffer_count\":2,\"combine_scopes\":false}": {
      "compile_time_ms": 30703.870286000893,
      "lower_time_ms": 28073.501072998624,
      "evaluation_times_ms": [
        14.605,
        14.605,
        14.603,
        14.605,
        14.609
      ],
      "metadata": {},
      "peak_memory_mb": 10515.140096
    }
  },
  "{\"lhs\":{\"qvalue\":\"f8_e4m3fn[262144,7168]\",\"scale\":\"bf16[262144,28]\",\"zero_point\":null,\"qtype\":\"float8_e4m3fn\"},\"rhs\":{\"qvalue\":\"f8_e4m3fn[256,7168,2048]\",\"scale\":\"bf16[256,28,2048]\",\"zero_point\":null,\"qtype\":\"float8_e4m3fn\"},\"group_sizes\":{\"num_groups\":256,\"total_size\":262144},\"ragged_dot_dimension_numbers\":{\"dot_dimension_numbers\":[[[1],[1]],[[],[]]],\"lhs_ragged_dimensions\":[0],\"rhs_group_dimensions\":[0]},\"precision\":[\"DEFAULT\",\"DEFAULT\"],\"preferred_element_type\":null,\"return_residuals\":true,\"activation\":null,\"manual_axis_type\":null}": {
    "{\"tile_m\":256,\"tile_k\":7168,\"tile_n\":1024,\"input_buffer_count\":2,\"combine_scopes\":false}": {
      "compile_time_ms": 7469.427034957334,
      "lower_time_ms": 3494.614791998174,
      "evaluation_times_ms": [
        15.275,
        15.271,
        15.276,
        15.275,
        15.275
      ],
      "metadata": {},
      "peak_memory_mb": 11588.880928
    }
  },
  "{\"lhs\":\"bf16[327680,2880]\",\"rhs\":\"bf16[128,2880,2880]\",\"group_sizes\":{\"num_groups\":128,\"total_size\":327680},\"ragged_dot_dimension_numbers\":{\"dot_dimension_numbers\":[[[1],[1]],[[],[]]],\"lhs_ragged_dimensions\":[0],\"rhs_group_dimensions\":[0]},\"precision\":[\"DEFAULT\",\"DEFAULT\"],\"preferred_element_type\":null,\"return_residuals\":false,\"activation\":null,\"manual_axis_type\":null}": {
    "{\"tile_m\":512,\"tile_k\":2944,\"tile_n\":1024,\"input_buffer_count\":2,\"combine_scopes\":false}": {
      "compile_time_ms": 1174.1615270148031,
      "lower_time_ms": 3647.151440003654,
      "evaluation_times_ms": [
        15.841,
        15.819,
        15.831,
        15.861,
        15.833
      ],
      "metadata": {},
      "peak_memory_mb": 11927.56736
    }
  },
  "{\"lhs\":\"bf16[327680,2880]\",\"rhs\":\"bf16[128,2880,2880]\",\"group_sizes\":{\"num_groups\":128,\"total_size\":327680},\"ragged_dot_dimension_numbers\":{\"dot_dimension_numbers\":[[[1],[1]],[[],[]]],\"lhs_ragged_dimensions\":[0],\"rhs_group_dimensions\":[0]},\"precision\":[\"DEFAULT\",\"DEFAULT\"],\"preferred_element_type\":null,\"return_residuals\":true,\"activation\":null,\"manual_axis_type\":null}": {
    "{\"tile_m\":512,\"tile_k\":2944,\"tile_n\":1024,\"input_buffer_count\":2,\"combine_scopes\":false}": {
      "compile_time_ms": 3468.8194050104357,
      "lower_time_ms": 1285.3381260065362,
      "evaluation_times_ms": [
        16.995,
        17.014,
        17.011,
        17.014,
        17.02
      ],
      "metadata": {},
      "peak_memory_mb": 13815.004192
    }
  },
  "{\"lhs\":\"bf16[393216,2048]\",\"rhs\":\"bf16[128,2048,768]\",\"group_sizes\":{\"num_groups\":128,\"total_size\":393216},\"ragged_dot_dimension_numbers\":{\"dot_dimension_numbers\":[[[1],[1]],[[],[]]],\"lhs_ragged_dimensions\":[0],\"rhs_group_dimensions\":[0]},\"precision\":[\"DEFAULT\",\"DEFAULT\"],\"preferred_element_type\":null,\"return_residuals\":false,\"activation\":null,\"manual_axis_type\":null}": {
    "{\"tile_m\":512,\"tile_k\":2048,\"tile_n\":768,\"input_buffer_count\":2,\"combine_scopes\":false}": {
      "compile_time_ms": 13368.73155500507,
      "lower_time_ms": 16716.7677419784,
      "evaluation_times_ms": [
        1.882,
        1.881,
        1.883,
        1.88,
        1.88
      ],
      "metadata": {},
      "peak_memory_mb": 2617.396736
    }
  },
  "{\"lhs\":\"bf16[393216,2048]\",\"rhs\":\"bf16[128,2048,768]\",\"group_sizes\":{\"num_groups\":128,\"total_size\":393216},\"ragged_dot_dimension_numbers\":{\"dot_dimension_numbers\":[[[1],[1]],[[],[]]],\"lhs_ragged_dimensions\":[0],\"rhs_group_dimensions\":[0]},\"precision\":[\"DEFAULT\",\"DEFAULT\"],\"preferred_element_type\":null,\"return_residuals\":true,\"activation\":null,\"manual_axis_type\":null}": {
    "{\"tile_m\":512,\"tile_k\":2048,\"tile_n\":768,\"input_buffer_count\":2,\"combine_scopes\":false}": {
      "compile_time_ms": 3389.1634159954265,
      "lower_time_ms": 5908.08446900337,
      "evaluation_times_ms": [
        2.252,
        2.254,
        2.254,
        2.253,
        2.252
      ],
      "metadata": {},
      "peak_memory_mb": 3221.376544
    }
  },
  "{\"lhs\":\"bf16[393216,768]\",\"rhs\":\"bf16[128,768,2048]\",\"group_sizes\":{\"num_groups\":128,\"total_size\":393216},\"ragged_dot_dimension_numbers\":{\"dot_dimension_numbers\":[[[1],[1]],[[],[]]],\"lhs_ragged_dimensions\":[0],\"rhs_group_dimensions\":[0]},\"precision\":[\"DEFAULT\",\"DEFAULT\"],\"preferred_element_type\":null,\"return_residuals\":false,\"activation\":null,\"manual_axis_type\":null}": {
    "{\"tile_m\":1024,\"tile_k\":768,\"tile_n\":2048,\"input_buffer_count\":2,\"combine_scopes\":false}": {
      "compile_time_ms": 10705.06710599875,
      "lower_time_ms": 15807.58122698171,
      "evaluation_times_ms": [
        1.931,
        1.931,
        1.93,
        1.931,
        1.931
      ],
      "metadata": {},
      "peak_memory_mb": 2617.394688
    }
  },
  "{\"lhs\":\"bf16[393216,768]\",\"rhs\":\"bf16[128,768,2048]\",\"group_sizes\":{\"num_groups\":128,\"total_size\":393216},\"ragged_dot_dimension_numbers\":{\"dot_dimension_numbers\":[[[1],[1]],[[],[]]],\"lhs_ragged_dimensions\":[0],\"rhs_group_dimensions\":[0]},\"precision\":[\"DEFAULT\",\"DEFAULT\"],\"preferred_element_type\":null,\"return_residuals\":true,\"activation\":null,\"manual_axis_type\":null}": {
    "{\"tile_m\":1024,\"tile_k\":768,\"tile_n\":2048,\"input_buffer_count\":2,\"combine_scopes\":false}": {
      "compile_time_ms": 16087.62364598806,
      "lower_time_ms": 6958.121603995096,
      "evaluation_times_ms": [
        2.929,
        2.929,
        2.928,
        2.929,
        2.928
      ],
      "metadata": {},
      "peak_memory_mb": 4228.007456
    }
  },
  "{\"lhs\":\"bf16[524288,4096]\",\"rhs\":\"bf16[128,4096,1536]\",\"group_sizes\":{\"num_groups\":128,\"total_size\":524288},\"ragged_dot_dimension_numbers\":{\"dot_dimension_numbers\":[[[1],[1]],[[],[]]],\"lhs_ragged_dimensions\":[0],\"rhs_group_dimensions\":[0]},\"precision\":[\"DEFAULT\",\"DEFAULT\"],\"preferred_element_type\":null,\"return_residuals\":false,\"activation\":null,\"manual_axis_type\":null}": {
    "{\"tile_m\":256,\"tile_k\":4096,\"tile_n\":1536,\"input_buffer_count\":2,\"combine_scopes\":false}": {
      "compile_time_ms": 3251.4175749965943,
      "lower_time_ms": 10386.226113012526,
      "evaluation_times_ms": [
        8.137,
        8.138,
        8.138,
        8.142,
        8.137
      ],
      "metadata": {},
      "peak_memory_mb": 7516.347904
    }
  },
  "{\"lhs\":\"bf16[524288,4096]\",\"rhs\":\"bf16[128,4096,1536]\",\"group_sizes\":{\"num_groups\":128,\"total_size\":524288},\"ragged_dot_dimension_numbers\":{\"dot_dimension_numbers\":[[[1],[1]],[[],[]]],\"lhs_ragged_dimensions\":[0],\"rhs_group_dimensions\":[0]},\"precision\":[\"DEFAULT\",\"DEFAULT\"],\"preferred_element_type\":null,\"return_residuals\":true,\"activation\":null,\"manual_axis_type\":null}": {
    "{\"tile_m\":256,\"tile_k\":4096,\"tile_n\":1536,\"input_buffer_count\":2,\"combine_scopes\":false}": {
      "compile_time_ms": 12425.68573798053,
      "lower_time_ms": 8713.680284970906,
      "evaluation_times_ms": [
        9.144,
        9.14,
        9.144,
        9.142,
        9.141
      ],
      "metadata": {},
      "peak_memory_mb": 9126.960672
    }
  },
  "{\"lhs\":\"bf16[524288,1536]\",\"rhs\":\"bf16[128,1536,4096]\",\"group_sizes\":{\"num_groups\":128,\"total_size\":524288},\"ragged_dot_dimension_numbers\":{\"dot_dimension_numbers\":[[[1],[1]],[[],[]]],\"lhs_ragged_dimensions\":[0],\"rhs_group_dimensions\":[0]},\"precision\":[\"DEFAULT\",\"DEFAULT\"],\"preferred_element_type\":null,\"return_residuals\":false,\"activation\":null,\"manual_axis_type\":null}": {
    "{\"tile_m\":256,\"tile_k\":1536,\"tile_n\":4096,\"input_buffer_count\":2,\"combine_scopes\":false}": {
      "compile_time_ms": 13738.409586017951,
      "lower_time_ms": 5094.9265389936045,
      "evaluation_times_ms": [
        8.225,
        8.222,
        8.224,
        8.227,
        8.225
      ],
      "metadata": {},
      "peak_memory_mb": 7516.347904
    }
  },
  "{\"lhs\":\"bf16[524288,1536]\",\"rhs\":\"bf16[128,1536,4096]\",\"group_sizes\":{\"num_groups\":128,\"total_size\":524288},\"ragged_dot_dimension_numbers\":{\"dot_dimension_numbers\":[[[1],[1]],[[],[]]],\"lhs_ragged_dimensions\":[0],\"rhs_group_dimensions\":[0]},\"precision\":[\"DEFAULT\",\"DEFAULT\"],\"preferred_element_type\":null,\"return_residuals\":true,\"activation\":null,\"manual_axis_type\":null}": {
    "{\"tile_m\":256,\"tile_k\":1536,\"tile_n\":4096,\"input_buffer_count\":2,\"combine_scopes\":false}": {
      "compile_time_ms": 4591.2073500221595,
      "lower_time_ms": 4121.9412090140395,
      "evaluation_times_ms": [
        10.891,
        10.894,
        10.894,
        10.89,
        10.894
      ],
      "metadata": {},
      "peak_memory_mb": 11811.315232
    }
  },
  "{\"lhs\":\"bf16[524288,2048]\",\"rhs\":\"bf16[256,2048,7168]\",\"group_sizes\":{\"num_groups\":256,\"total_size\":524288},\"ragged_dot_dimension_numbers\":{\"dot_dimension_numbers\":[[[1],[1]],[[],[]]],\"lhs_ragged_dimensions\":[0],\"rhs_group_dimensions\":[0]},\"precision\":[\"DEFAULT\",\"DEFAULT\"],\"preferred_element_type\":null,\"return_residuals\":false,\"activation\":null,\"manual_axis_type\":null}": {
    "{\"tile_m\":512,\"tile_k\":2048,\"tile_n\":1792,\"input_buffer_count\":2,\"combine_scopes\":false}": {
      "compile_time_ms": 34959.53022898175,
      "lower_time_ms": 12530.40933801094,
      "evaluation_times_ms": [
        21.36,
        21.363,
        21.36,
        21.368,
        21.365
      ],
      "metadata": {},
      "peak_memory_mb": 17179.922944
    }
  },
  "{\"lhs\":\"bf16[524288,2048]\",\"rhs\":\"bf16[256,2048,7168]\",\"group_sizes\":{\"num_groups\":256,\"total_size\":524288},\"ragged_dot_dimension_numbers\":{\"dot_dimension_numbers\":[[[1],[1]],[[],[]]],\"lhs_ragged_dimensions\":[0],\"rhs_group_dimensions\":[0]},\"precision\":[\"DEFAULT\",\"DEFAULT\"],\"preferred_element_type\":null,\"return_residuals\":true,\"activation\":null,\"manual_axis_type\":null}": {
    "{\"tile_m\":512,\"tile_k\":2048,\"tile_n\":1792,\"input_buffer_count\":2,\"combine_scopes\":false}": {
      "compile_time_ms": 26645.964809984434,
      "lower_time_ms": 5198.688810982276,
      "evaluation_times_ms": [
        26.011,
        26.018,
        26.016,
        26.018,
        26.022
      ],
      "metadata": {},
      "peak_memory_mb": 24696.115744
    }
  },
  "{\"lhs\":{\"qvalue\":\"f8_e4m3fn[524288,2048]\",\"scale\":\"bf16[524288,8]\",\"zero_point\":null,\"qtype\":\"float8_e4m3fn\"},\"rhs\":{\"qvalue\":\"f8_e4m3fn[256,2048,7168]\",\"scale\":\"bf16[256,8,7168]\",\"zero_point\":null,\"qtype\":\"float8_e4m3fn\"},\"group_sizes\":{\"num_groups\":256,\"total_size\":524288},\"ragged_dot_dimension_numbers\":{\"dot_dimension_numbers\":[[[1],[1]],[[],[]]],\"lhs_ragged_dimensions\":[0],\"rhs_group_dimensions\":[0]},\"precision\":[\"DEFAULT\",\"DEFAULT\"],\"preferred_element_type\":null,\"return_residuals\":false,\"activation\":null,\"manual_axis_type\":null}": {
    "{\"tile_m\":256,\"tile_k\":2048,\"tile_n\":3584,\"input_buffer_count\":2,\"combine_scopes\":false}": {
      "compile_time_ms": 4069.0811130043585,
      "lower_time_ms": 5456.982126022922,
      "evaluation_times_ms": [
        24.059,
        24.058,
        24.06,
        24.059,
        24.06
      ],
      "metadata": {},
      "peak_memory_mb": 13929.300992
    }
  },
  "{\"lhs\":{\"qvalue\":\"f8_e4m3fn[524288,2048]\",\"scale\":\"bf16[524288,8]\",\"zero_point\":null,\"qtype\":\"float8_e4m3fn\"},\"rhs\":{\"qvalue\":\"f8_e4m3fn[256,2048,7168]\",\"scale\":\"bf16[256,8,7168]\",\"zero_point\":null,\"qtype\":\"float8_e4m3fn\"},\"group_sizes\":{\"num_groups\":256,\"total_size\":524288},\"ragged_dot_dimension_numbers\":{\"dot_dimension_numbers\":[[[1],[1]],[[],[]]],\"lhs_ragged_dimensions\":[0],\"rhs_group_dimensions\":[0]},\"precision\":[\"DEFAULT\",\"DEFAULT\"],\"preferred_element_type\":null,\"return_residuals\":true,\"activation\":null,\"manual_axis_type\":null}": {
    "{\"tile_m\":256,\"tile_k\":2048,\"tile_n\":3584,\"input_buffer_count\":2,\"combine_scopes\":false}": {
      "compile_time_ms": 8883.800837007584,
      "lower_time_ms": 2375.1552310131956,
      "evaluation_times_ms": [
        28.714,
        28.713,
        28.718,
        28.714,
        28.715
      ],
      "metadata": {},
      "peak_memory_mb": 20975.741984
    }
  },
  "{\"lhs\":\"bf16[524288,7168]\",\"rhs\":\"bf16[256,7168,2048]\",\"group_sizes\":{\"num_groups\":256,\"total_size\":524288},\"ragged_dot_dimension_numbers\":{\"dot_dimension_numbers\":[[[1],[1]],[[],[]]],\"lhs_ragged_dimensions\":[0],\"rhs_group_dimensions\":[0]},\"precision\":[\"DEFAULT\",\"DEFAULT\"],\"preferred_element_type\":null,\"return_residuals\":false,\"activation\":null,\"manual_axis_type\":null}": {
    "{\"tile_m\":512,\"tile_k\":7168,\"tile_n\":512,\"input_buffer_count\":2,\"combine_scopes\":false}": {
      "compile_time_ms": 27532.173260988202,
      "lower_time_ms": 25107.164362008916,
      "evaluation_times_ms": [
        21.41,
        21.406,
        21.409,
        21.413,
        21.416
      ],
      "metadata": {},
      "peak_memory_mb": 17179.922944
    }
  },
  "{\"lhs\":\"bf16[524288,7168]\",\"rhs\":\"bf16[256,7168,2048]\",\"group_sizes\":{\"num_groups\":256,\"total_size\":524288},\"ragged_dot_dimension_numbers\":{\"dot_dimension_numbers\":[[[1],[1]],[[],[]]],\"lhs_ragged_dimensions\":[0],\"rhs_group_dimensions\":[0]},\"precision\":[\"DEFAULT\",\"DEFAULT\"],\"preferred_element_type\":null,\"return_residuals\":true,\"activation\":null,\"manual_axis_type\":null}": {
    "{\"tile_m\":512,\"tile_k\":7168,\"tile_n\":512,\"input_buffer_count\":2,\"combine_scopes\":false}": {
      "compile_time_ms": 8078.908441006206,
      "lower_time_ms": 6772.373820014764,
      "evaluation_times_ms": [
        22.752,
        22.748,
        22.745,
        22.746,
        22.744
      ],
      "metadata": {},
      "peak_memory_mb": 19327.406624
    }
  },
  "{\"lhs\":{\"qvalue\":\"f8_e4m3fn[524288,7168]\",\"scale\":\"bf16[524288,28]\",\"zero_point\":null,\"qtype\":\"float8_e4m3fn\"},\"rhs\":{\"qvalue\":\"f8_e4m3fn[256,7168,2048]\",\"scale\":\"bf16[256,28,2048]\",\"zero_point\":null,\"qtype\":\"float8_e4m3fn\"},\"group_sizes\":{\"num_groups\":256,\"total_size\":524288},\"ragged_dot_dimension_numbers\":{\"dot_dimension_numbers\":[[[1],[1]],[[],[]]],\"lhs_ragged_dimensions\":[0],\"rhs_group_dimensions\":[0]},\"precision\":[\"DEFAULT\",\"DEFAULT\"],\"preferred_element_type\":null,\"return_residuals\":false,\"activation\":null,\"manual_axis_type\":null}": {
    "{\"tile_m\":256,\"tile_k\":7168,\"tile_n\":1024,\"input_buffer_count\":2,\"combine_scopes\":false}": {
      "compile_time_ms": 10909.349035995547,
      "lower_time_ms": 32181.62696401123,
      "evaluation_times_ms": [
        27.962,
        27.962,
        27.956,
        27.967,
        27.97
      ],
      "metadata": {},
      "peak_memory_mb": 17242.803712
    }
  },
  "{\"lhs\":{\"qvalue\":\"f8_e4m3fn[524288,7168]\",\"scale\":\"bf16[524288,28]\",\"zero_point\":null,\"qtype\":\"float8_e4m3fn\"},\"rhs\":{\"qvalue\":\"f8_e4m3fn[256,7168,2048]\",\"scale\":\"bf16[256,28,2048]\",\"zero_point\":null,\"qtype\":\"float8_e4m3fn\"},\"group_sizes\":{\"num_groups\":256,\"total_size\":524288},\"ragged_dot_dimension_numbers\":{\"dot_dimension_numbers\":[[[1],[1]],[[],[]]],\"lhs_ragged_dimensions\":[0],\"rhs_group_dimensions\":[0]},\"precision\":[\"DEFAULT\",\"DEFAULT\"],\"preferred_element_type\":null,\"return_residuals\":true,\"activation\":null,\"manual_axis_type\":null}": {
    "{\"tile_m\":256,\"tile_k\":7168,\"tile_n\":1024,\"input_buffer_count\":2,\"combine_scopes\":false}": {
      "compile_time_ms": 11174.011422001058,
      "lower_time_ms": 14187.682646006579,
      "evaluation_times_ms": [
        29.297,
        29.302,
        29.305,
        29.311,
        29.314
      ],
      "metadata": {},
      "peak_memory_mb": 19390.286368
    }
  },
  "{\"lhs\":\"bf16[262144,4096]\",\"rhs\":\"bf16[128,4096,1536]\",\"group_sizes\":{\"num_groups\":128,\"total_size\":262144},\"ragged_dot_dimension_numbers\":{\"dot_dimension_numbers\":[[[1],[1]],[[],[]]],\"lhs_ragged_dimensions\":[0],\"rhs_group_dimensions\":[0]},\"precision\":[\"DEFAULT\",\"DEFAULT\"],\"preferred_element_type\":null,\"return_residuals\":false,\"activation\":null,\"manual_axis_type\":null}": {
    "{\"tile_m\":256,\"tile_k\":4096,\"tile_n\":1536,\"input_buffer_count\":2,\"combine_scopes\":false}": {
      "compile_time_ms": 3217.3516310285777,
      "lower_time_ms": 12091.365332948044,
      "evaluation_times_ms": [
        4.404,
        4.404,
        4.404,
        4.405,
        4.407
      ],
      "metadata": {},
      "peak_memory_mb": 4563.553792
    }
  },
  "{\"lhs\":\"bf16[262144,4096]\",\"rhs\":\"bf16[128,4096,1536]\",\"group_sizes\":{\"num_groups\":128,\"total_size\":262144},\"ragged_dot_dimension_numbers\":{\"dot_dimension_numbers\":[[[1],[1]],[[],[]]],\"lhs_ragged_dimensions\":[0],\"rhs_group_dimensions\":[0]},\"precision\":[\"DEFAULT\",\"DEFAULT\"],\"preferred_element_type\":null,\"return_residuals\":true,\"activation\":null,\"manual_axis_type\":null}": {
    "{\"tile_m\":256,\"tile_k\":4096,\"tile_n\":1536,\"input_buffer_count\":2,\"combine_scopes\":false}": {
      "compile_time_ms": 10314.712938969024,
      "lower_time_ms": 11202.238778991159,
      "evaluation_times_ms": [
        4.903,
        4.903,
        4.901,
        4.903,
        4.903
      ],
      "metadata": {},
      "peak_memory_mb": 5368.860192
    }
  },
  "{\"lhs\":\"bf16[262144,1536]\",\"rhs\":\"bf16[128,1536,4096]\",\"group_sizes\":{\"num_groups\":128,\"total_size\":262144},\"ragged_dot_dimension_numbers\":{\"dot_dimension_numbers\":[[[1],[1]],[[],[]]],\"lhs_ragged_dimensions\":[0],\"rhs_group_dimensions\":[0]},\"precision\":[\"DEFAULT\",\"DEFAULT\"],\"preferred_element_type\":null,\"return_residuals\":false,\"activation\":null,\"manual_axis_type\":null}": {
    "{\"tile_m\":256,\"tile_k\":1536,\"tile_n\":4096,\"input_buffer_count\":2,\"combine_scopes\":false}": {
      "compile_time_ms": 4290.103768988047,
      "lower_time_ms": 5595.767017977778,
      "evaluation_times_ms": [
        4.48,
        4.481,
        4.483,
        4.484,
        4.483
      ],
      "metadata": {},
      "peak_memory_mb": 4563.553792
    }
  },
  "{\"lhs\":\"bf16[262144,1536]\",\"rhs\":\"bf16[128,1536,4096]\",\"group_sizes\":{\"num_groups\":128,\"total_size\":262144},\"ragged_dot_dimension_numbers\":{\"dot_dimension_numbers\":[[[1],[1]],[[],[]]],\"lhs_ragged_dimensions\":[0],\"rhs_group_dimensions\":[0]},\"precision\":[\"DEFAULT\",\"DEFAULT\"],\"preferred_element_type\":null,\"return_residuals\":true,\"activation\":null,\"manual_axis_type\":null}": {
    "{\"tile_m\":256,\"tile_k\":1536,\"tile_n\":4096,\"input_buffer_count\":2,\"combine_scopes\":false}": {
      "compile_time_ms": 4961.424251028802,
      "lower_time_ms": 1385.806236998178,
      "evaluation_times_ms": [
        5.814,
        5.809,
        5.812,
        5.812,
        5.811
      ],
      "metadata": {},
      "peak_memory_mb": 6711.037472
    }
  },
  "{\"lhs\":\"bf16[131072,7168]\",\"rhs\":\"bf16[128,7168,2048]\",\"group_sizes\":{\"num_groups\":128,\"total_size\":131072},\"ragged_dot_dimension_numbers\":{\"dot_dimension_numbers\":[[[1],[1]],[[],[]]],\"lhs_ragged_dimensions\":[0],\"rhs_group_dimensions\":[0]},\"precision\":[\"DEFAULT\",\"DEFAULT\"],\"preferred_element_type\":null,\"return_residuals\":false,\"activation\":null,\"manual_axis_type\":null}": {
    "{\"tile_m\":128,\"tile_k\":7168,\"tile_n\":1024,\"input_buffer_count\":2,\"combine_scopes\":false}": {
      "compile_time_ms": 1659.6737669897266,
      "lower_time_ms": 18307.31912702322,
      "evaluation_times_ms": [
        6.206,
        6.21,
        6.21,
        6.208,
        6.212
      ],
      "metadata": {},
      "peak_memory_mb": 6174.166528
    }
  },
  "{\"lhs\":\"bf16[131072,7168]\",\"rhs\":\"bf16[128,7168,2048]\",\"group_sizes\":{\"num_groups\":128,\"total_size\":131072},\"ragged_dot_dimension_numbers\":{\"dot_dimension_numbers\":[[[1],[1]],[[],[]]],\"lhs_ragged_dimensions\":[0],\"rhs_group_dimensions\":[0]},\"precision\":[\"DEFAULT\",\"DEFAULT\"],\"preferred_element_type\":null,\"return_residuals\":true,\"activation\":null,\"manual_axis_type\":null}": {
    "{\"tile_m\":128,\"tile_k\":7168,\"tile_n\":1024,\"input_buffer_count\":2,\"combine_scopes\":false}": {
      "compile_time_ms": 4699.285650975071,
      "lower_time_ms": 4127.596759004518,
      "evaluation_times_ms": [
        6.549,
        6.551,
        6.548,
        6.549,
        6.553
      ],
      "metadata": {},
      "peak_memory_mb": 6711.037472
    }
  },
  "{\"lhs\":\"bf16[131072,2048]\",\"rhs\":\"bf16[128,2048,768]\",\"group_sizes\":{\"num_groups\":128,\"total_size\":131072},\"ragged_dot_dimension_numbers\":{\"dot_dimension_numbers\":[[[1],[1]],[[],[]]],\"lhs_ragged_dimensions\":[0],\"rhs_group_dimensions\":[0]},\"precision\":[\"DEFAULT\",\"DEFAULT\"],\"preferred_element_type\":null,\"return_residuals\":false,\"activation\":null,\"manual_axis_type\":null}": {
    "{\"tile_m\":512,\"tile_k\":2048,\"tile_n\":768,\"input_buffer_count\":2,\"combine_scopes\":false}": {
      "compile_time_ms": 17104.544058999978,
      "lower_time_ms": 14408.131410999998,
      "evaluation_times_ms": [
        0.858,
        0.858,
        0.86,
        0.862,
        0.859
      ],
      "metadata": {},
      "peak_memory_mb": 1140.998656
    }
  },
  "{\"lhs\":\"bf16[131072,2048]\",\"rhs\":\"bf16[128,2048,768]\",\"group_sizes\":{\"num_groups\":128,\"total_size\":131072},\"ragged_dot_dimension_numbers\":{\"dot_dimension_numbers\":[[[1],[1]],[[],[]]],\"lhs_ragged_dimensions\":[0],\"rhs_group_dimensions\":[0]},\"precision\":[\"DEFAULT\",\"DEFAULT\"],\"preferred_element_type\":null,\"return_residuals\":true,\"activation\":null,\"manual_axis_type\":null}": {
    "{\"tile_m\":512,\"tile_k\":2048,\"tile_n\":768,\"input_buffer_count\":2,\"combine_scopes\":false}": {
      "compile_time_ms": 7323.705581000013,
      "lower_time_ms": 16010.740025000132,
      "evaluation_times_ms": [
        0.988,
        0.988,
        0.987,
        0.987,
        0.987
      ],
      "metadata": {},
      "peak_memory_mb": 1342.32528
    }
  },
  "{\"lhs\":\"bf16[131072,4096]\",\"rhs\":\"bf16[128,4096,1536]\",\"group_sizes\":{\"num_groups\":128,\"total_size\":131072},\"ragged_dot_dimension_numbers\":{\"dot_dimension_numbers\":[[[1],[1]],[[],[]]],\"lhs_ragged_dimensions\":[0],\"rhs_group_dimensions\":[0]},\"precision\":[\"DEFAULT\",\"DEFAULT\"],\"preferred_element_type\":null,\"return_residuals\":false,\"activation\":null,\"manual_axis_type\":null}": {
    "{\"tile_m\":256,\"tile_k\":4096,\"tile_n\":1536,\"input_buffer_count\":2,\"combine_scopes\":false}": {
      "compile_time_ms": 2513.8047100044787,
      "lower_time_ms": 19386.228926014155,
      "evaluation_times_ms": [
        2.535,
        2.537,
        2.537,
        2.538,
        2.534
      ],
      "metadata": {},
      "peak_memory_mb": 3087.156736
    }
  },
  "{\"lhs\":\"bf16[131072,4096]\",\"rhs\":\"bf16[128,4096,1536]\",\"group_sizes\":{\"num_groups\":128,\"total_size\":131072},\"ragged_dot_dimension_numbers\":{\"dot_dimension_numbers\":[[[1],[1]],[[],[]]],\"lhs_ragged_dimensions\":[0],\"rhs_group_dimensions\":[0]},\"precision\":[\"DEFAULT\",\"DEFAULT\"],\"preferred_element_type\":null,\"return_residuals\":true,\"activation\":null,\"manual_axis_type\":null}": {
    "{\"tile_m\":256,\"tile_k\":4096,\"tile_n\":1536,\"input_buffer_count\":2,\"combine_scopes\":false}": {
      "compile_time_ms": 4058.6055900203064,
      "lower_time_ms": 12866.41009093728,
      "evaluation_times_ms": [
        2.801,
        2.798,
        2.8,
        2.8,
        2.798
      ],
      "metadata": {},
      "peak_memory_mb": 3489.809952
    }
  },
  "{\"lhs\":\"bf16[131072,1536]\",\"rhs\":\"bf16[128,1536,4096]\",\"group_sizes\":{\"num_groups\":128,\"total_size\":131072},\"ragged_dot_dimension_numbers\":{\"dot_dimension_numbers\":[[[1],[1]],[[],[]]],\"lhs_ragged_dimensions\":[0],\"rhs_group_dimensions\":[0]},\"precision\":[\"DEFAULT\",\"DEFAULT\"],\"preferred_element_type\":null,\"return_residuals\":false,\"activation\":null,\"manual_axis_type\":null}": {
    "{\"tile_m\":256,\"tile_k\":1536,\"tile_n\":4096,\"input_buffer_count\":2,\"combine_scopes\":false}": {
      "compile_time_ms": 2404.4602550566196,
      "lower_time_ms": 10112.302522989921,
      "evaluation_times_ms": [
        2.619,
        2.613,
        2.615,
        2.617,
        2.617
      ],
      "metadata": {},
      "peak_memory_mb": 3087.156736
    }
  },
  "{\"lhs\":\"bf16[131072,1536]\",\"rhs\":\"bf16[128,1536,4096]\",\"group_sizes\":{\"num_groups\":128,\"total_size\":131072},\"ragged_dot_dimension_numbers\":{\"dot_dimension_numbers\":[[[1],[1]],[[],[]]],\"lhs_ragged_dimensions\":[0],\"rhs_group_dimensions\":[0]},\"precision\":[\"DEFAULT\",\"DEFAULT\"],\"preferred_element_type\":null,\"return_residuals\":true,\"activation\":null,\"manual_axis_type\":null}": {
    "{\"tile_m\":256,\"tile_k\":1536,\"tile_n\":4096,\"input_buffer_count\":2,\"combine_scopes\":false}": {
      "compile_time_ms": 5149.688113946468,
      "lower_time_ms": 2768.694137921557,
      "evaluation_times_ms": [
        3.289,
        3.287,
        3.287,
        3.286,
        3.284
      ],
      "metadata": {},
      "peak_memory_mb": 4160.898592
    }
  },
  "{\"lhs\":\"bf16[131072,7168]\",\"rhs\":\"bf16[256,7168,2048]\",\"group_sizes\":{\"num_groups\":256,\"total_size\":131072},\"ragged_dot_dimension_numbers\":{\"dot_dimension_numbers\":[[[1],[1]],[[],[]]],\"lhs_ragged_dimensions\":[0],\"rhs_group_dimensions\":[0]},\"precision\":[\"DEFAULT\",\"DEFAULT\"],\"preferred_element_type\":null,\"return_residuals\":false,\"activation\":null,\"manual_axis_type\":null}": {
    "{\"tile_m\":128,\"tile_k\":7168,\"tile_n\":1024,\"input_buffer_count\":2,\"combine_scopes\":false}": {
      "compile_time_ms": 10351.101377000305,
      "lower_time_ms": 16928.666094998334,
      "evaluation_times_ms": [
        7.663,
        7.662,
        7.659,
        7.661,
        7.659
      ],
      "metadata": {},
      "peak_memory_mb": 9932.165632
    }
  },
  "{\"lhs\":\"bf16[131072,7168]\",\"rhs\":\"bf16[256,7168,2048]\",\"group_sizes\":{\"num_groups\":256,\"total_size\":131072},\"ragged_dot_dimension_numbers\":{\"dot_dimension_numbers\":[[[1],[1]],[[],[]]],\"lhs_ragged_dimensions\":[0],\"rhs_group_dimensions\":[0]},\"precision\":[\"DEFAULT\",\"DEFAULT\"],\"preferred_element_type\":null,\"return_residuals\":true,\"activation\":null,\"manual_axis_type\":null}": {
    "{\"tile_m\":128,\"tile_k\":7168,\"tile_n\":1024,\"input_buffer_count\":2,\"combine_scopes\":false}": {
      "compile_time_ms": 10142.981176999456,
      "lower_time_ms": 1054.3936829999438,
      "evaluation_times_ms": [
        8.002,
        8.003,
        8.002,
        8.001,
        8.002
      ],
      "metadata": {},
      "peak_memory_mb": 10469.036576
    }
  },
  "{\"lhs\":\"bf16[65536,7168]\",\"rhs\":\"bf16[256,7168,2048]\",\"group_sizes\":{\"num_groups\":256,\"total_size\":65536},\"ragged_dot_dimension_numbers\":{\"dot_dimension_numbers\":[[[1],[1]],[[],[]]],\"lhs_ragged_dimensions\":[0],\"rhs_group_dimensions\":[0]},\"precision\":[\"DEFAULT\",\"DEFAULT\"],\"preferred_element_type\":null,\"return_residuals\":false,\"activation\":null,\"manual_axis_type\":null}": {
    "{\"tile_m\":128,\"tile_k\":7168,\"tile_n\":1024,\"input_buffer_count\":2,\"combine_scopes\":false}": {
      "compile_time_ms": 13237.215796001692,
      "lower_time_ms": 32004.698681001173,
      "evaluation_times_ms": [
        5.267,
        5.267,
        5.268,
        5.266,
        5.267
      ],
      "metadata": {},
      "peak_memory_mb": 8724.187648
    }
  },
  "{\"lhs\":\"bf16[65536,7168]\",\"rhs\":\"bf16[256,7168,2048]\",\"group_sizes\":{\"num_groups\":256,\"total_size\":65536},\"ragged_dot_dimension_numbers\":{\"dot_dimension_numbers\":[[[1],[1]],[[],[]]],\"lhs_ragged_dimensions\":[0],\"rhs_group_dimensions\":[0]},\"precision\":[\"DEFAULT\",\"DEFAULT\"],\"preferred_element_type\":null,\"return_residuals\":true,\"activation\":null,\"manual_axis_type\":null}": {
    "{\"tile_m\":128,\"tile_k\":7168,\"tile_n\":1024,\"input_buffer_count\":2,\"combine_scopes\":false}": {
      "compile_time_ms": 19320.963575999485,
      "lower_time_ms": 4956.78357900033,
      "evaluation_times_ms": [
        5.459,
        5.46,
        5.461,
        5.455,
        5.462
      ],
      "metadata": {},
      "peak_memory_mb": 8992.623136
    }
  }
}
