{
  "{\"lhs\":\"bf16[131072,7168]\",\"rhs\":\"bf16[256,7168,1024]\",\"group_sizes\":{\"num_groups\":256,\"total_size\":131072},\"ragged_dot_dimension_numbers\":{\"dot_dimension_numbers\":[[[1],[1]],[[],[]]],\"lhs_ragged_dimensions\":[0],\"rhs_group_dimensions\":[0]},\"precision\":[\"DEFAULT\",\"DEFAULT\"],\"preferred_element_type\":null,\"return_residuals\":false,\"activation\":null}": {
    "{\"tile_m\":128,\"tile_k\":7168,\"tile_n\":1024,\"input_buffer_count\":2,\"combine_scopes\":false}": {
      "compile_time_ms": 6440.578152949456,
      "lower_time_ms": 36059.724765014835,
      "evaluation_times_ms": [
        3.844,
        3.846,
        3.843,
        3.844,
        3.845
      ],
      "metadata": {},
      "peak_memory_mb": 5905.634816
    }
  },
  "{\"lhs\":\"bf16[131072,7168]\",\"rhs\":\"bf16[256,7168,1024]\",\"group_sizes\":{\"num_groups\":256,\"total_size\":131072},\"ragged_dot_dimension_numbers\":{\"dot_dimension_numbers\":[[[1],[1]],[[],[]]],\"lhs_ragged_dimensions\":[0],\"rhs_group_dimensions\":[0]},\"precision\":[\"DEFAULT\",\"DEFAULT\"],\"preferred_element_type\":null,\"return_residuals\":true,\"activation\":null}": {
    "{\"tile_m\":128,\"tile_k\":7168,\"tile_n\":1024,\"input_buffer_count\":2,\"combine_scopes\":false}": {
      "compile_time_ms": 4824.783548945561,
      "lower_time_ms": 26007.46812100988,
      "evaluation_times_ms": [
        4.008,
        4.002,
        4.008,
        4.009,
        4.005
      ],
      "metadata": {},
      "peak_memory_mb": 6174.070304
    }
  },
  "{\"lhs\":\"bf16[131072,1024]\",\"rhs\":\"bf16[256,1024,7168]\",\"group_sizes\":{\"num_groups\":256,\"total_size\":131072},\"ragged_dot_dimension_numbers\":{\"dot_dimension_numbers\":[[[1],[1]],[[],[]]],\"lhs_ragged_dimensions\":[0],\"rhs_group_dimensions\":[0]},\"precision\":[\"DEFAULT\",\"DEFAULT\"],\"preferred_element_type\":null,\"return_residuals\":false,\"activation\":null}": {
    "{\"tile_m\":128,\"tile_k\":1024,\"tile_n\":7168,\"input_buffer_count\":2,\"combine_scopes\":false}": {
      "compile_time_ms": 9693.810358992778,
      "lower_time_ms": 30459.188545995858,
      "evaluation_times_ms": [
        4.031,
        4.028,
        4.032,
        4.031,
        4.032
      ],
      "metadata": {},
      "peak_memory_mb": 5905.634816
    }
  },
  "{\"lhs\":\"bf16[131072,1024]\",\"rhs\":\"bf16[256,1024,7168]\",\"group_sizes\":{\"num_groups\":256,\"total_size\":131072},\"ragged_dot_dimension_numbers\":{\"dot_dimension_numbers\":[[[1],[1]],[[],[]]],\"lhs_ragged_dimensions\":[0],\"rhs_group_dimensions\":[0]},\"precision\":[\"DEFAULT\",\"DEFAULT\"],\"preferred_element_type\":null,\"return_residuals\":true,\"activation\":null}": {
    "{\"tile_m\":128,\"tile_k\":1024,\"tile_n\":7168,\"input_buffer_count\":2,\"combine_scopes\":false}": {
      "compile_time_ms": 15950.756808975711,
      "lower_time_ms": 20796.784971025772,
      "evaluation_times_ms": [
        5.198,
        5.198,
        5.193,
        5.198,
        5.192
      ],
      "metadata": {},
      "peak_memory_mb": 7784.68304
    }
  },
  "{\"lhs\":\"bf16[131072,7168]\",\"rhs\":\"bf16[256,7168,512]\",\"group_sizes\":{\"num_groups\":256,\"total_size\":131072},\"ragged_dot_dimension_numbers\":{\"dot_dimension_numbers\":[[[1],[1]],[[],[]]],\"lhs_ragged_dimensions\":[0],\"rhs_group_dimensions\":[0]},\"precision\":[\"DEFAULT\",\"DEFAULT\"],\"preferred_element_type\":null,\"return_residuals\":false,\"activation\":null}": {
    "{\"tile_m\":256,\"tile_k\":7168,\"tile_n\":512,\"input_buffer_count\":2,\"combine_scopes\":false}": {
      "compile_time_ms": 10664.486572146416,
      "lower_time_ms": 101942.2065068502,
      "evaluation_times_ms": [
        2.097,
        2.097,
        2.099,
        2.098,
        2.098
      ],
      "metadata": {},
      "peak_memory_mb": 3892.350464
    }
  },
  "{\"lhs\":\"bf16[131072,7168]\",\"rhs\":\"bf16[256,7168,512]\",\"group_sizes\":{\"num_groups\":256,\"total_size\":131072},\"ragged_dot_dimension_numbers\":{\"dot_dimension_numbers\":[[[1],[1]],[[],[]]],\"lhs_ragged_dimensions\":[0],\"rhs_group_dimensions\":[0]},\"precision\":[\"DEFAULT\",\"DEFAULT\"],\"preferred_element_type\":null,\"return_residuals\":true,\"activation\":null}": {
    "{\"tile_m\":256,\"tile_k\":7168,\"tile_n\":512,\"input_buffer_count\":2,\"combine_scopes\":false}": {
      "compile_time_ms": 12242.662359029055,
      "lower_time_ms": 5913.569472031668,
      "evaluation_times_ms": [
        2.177,
        2.18,
        2.18,
        2.179,
        2.179
      ],
      "metadata": {},
      "peak_memory_mb": 4026.568224
    }
  },
  "{\"lhs\":\"bf16[262144,4096]\",\"rhs\":\"bf16[128,4096,1536]\",\"group_sizes\":{\"num_groups\":128,\"total_size\":262144},\"ragged_dot_dimension_numbers\":{\"dot_dimension_numbers\":[[[1],[1]],[[],[]]],\"lhs_ragged_dimensions\":[0],\"rhs_group_dimensions\":[0]},\"precision\":[\"DEFAULT\",\"DEFAULT\"],\"preferred_element_type\":null,\"return_residuals\":false,\"activation\":null}": {
    "{\"tile_m\":256,\"tile_k\":4096,\"tile_n\":1536,\"input_buffer_count\":2,\"combine_scopes\":false}": {
      "compile_time_ms": 1598.1773119419813,
      "lower_time_ms": 27572.33568117954,
      "evaluation_times_ms": [
        4.396,
        4.395,
        4.395,
        4.398,
        4.398
      ],
      "metadata": {},
      "peak_memory_mb": 4563.454464
    }
  },
  "{\"lhs\":\"bf16[262144,4096]\",\"rhs\":\"bf16[128,4096,1536]\",\"group_sizes\":{\"num_groups\":128,\"total_size\":262144},\"ragged_dot_dimension_numbers\":{\"dot_dimension_numbers\":[[[1],[1]],[[],[]]],\"lhs_ragged_dimensions\":[0],\"rhs_group_dimensions\":[0]},\"precision\":[\"DEFAULT\",\"DEFAULT\"],\"preferred_element_type\":null,\"return_residuals\":true,\"activation\":null}": {
    "{\"tile_m\":256,\"tile_k\":4096,\"tile_n\":1536,\"input_buffer_count\":2,\"combine_scopes\":false}": {
      "compile_time_ms": 10806.111156009138,
      "lower_time_ms": 10376.472484786063,
      "evaluation_times_ms": [
        4.895,
        4.896,
        4.895,
        4.894,
        4.894
      ],
      "metadata": {},
      "peak_memory_mb": 5368.760864
    }
  },
  "{\"lhs\":\"bf16[262144,1536]\",\"rhs\":\"bf16[128,1536,4096]\",\"group_sizes\":{\"num_groups\":128,\"total_size\":262144},\"ragged_dot_dimension_numbers\":{\"dot_dimension_numbers\":[[[1],[1]],[[],[]]],\"lhs_ragged_dimensions\":[0],\"rhs_group_dimensions\":[0]},\"precision\":[\"DEFAULT\",\"DEFAULT\"],\"preferred_element_type\":null,\"return_residuals\":false,\"activation\":null}": {
    "{\"tile_m\":256,\"tile_k\":1536,\"tile_n\":4096,\"input_buffer_count\":2,\"combine_scopes\":false}": {
      "compile_time_ms": 1193.271700059995,
      "lower_time_ms": 17911.03005898185,
      "evaluation_times_ms": [
        4.473,
        4.472,
        4.474,
        4.473,
        4.474
      ],
      "metadata": {},
      "peak_memory_mb": 4563.454464
    }
  },
  "{\"lhs\":\"bf16[262144,1536]\",\"rhs\":\"bf16[128,1536,4096]\",\"group_sizes\":{\"num_groups\":128,\"total_size\":262144},\"ragged_dot_dimension_numbers\":{\"dot_dimension_numbers\":[[[1],[1]],[[],[]]],\"lhs_ragged_dimensions\":[0],\"rhs_group_dimensions\":[0]},\"precision\":[\"DEFAULT\",\"DEFAULT\"],\"preferred_element_type\":null,\"return_residuals\":true,\"activation\":null}": {
    "{\"tile_m\":256,\"tile_k\":1536,\"tile_n\":4096,\"input_buffer_count\":2,\"combine_scopes\":false}": {
      "compile_time_ms": 1783.5368629312143,
      "lower_time_ms": 42277.49400900211,
      "evaluation_times_ms": [
        5.801,
        5.8,
        5.801,
        5.804,
        5.803
      ],
      "metadata": {},
      "peak_memory_mb": 6710.938144
    }
  },
  "{\"lhs\":\"bf16[131072,7168]\",\"rhs\":\"bf16[128,7168,2048]\",\"group_sizes\":{\"num_groups\":128,\"total_size\":131072},\"ragged_dot_dimension_numbers\":{\"dot_dimension_numbers\":[[[1],[1]],[[],[]]],\"lhs_ragged_dimensions\":[0],\"rhs_group_dimensions\":[0]},\"precision\":[\"DEFAULT\",\"DEFAULT\"],\"preferred_element_type\":null,\"return_residuals\":false,\"activation\":null}": {
    "{\"tile_m\":128,\"tile_k\":7168,\"tile_n\":1024,\"input_buffer_count\":2,\"combine_scopes\":false}": {
      "compile_time_ms": 4303.156108013354,
      "lower_time_ms": 25216.00439993199,
      "evaluation_times_ms": [
        6.197,
        6.195,
        6.193,
        6.196,
        6.19
      ],
      "metadata": {},
      "peak_memory_mb": 6174.0672
    }
  },
  "{\"lhs\":\"bf16[131072,7168]\",\"rhs\":\"bf16[128,7168,2048]\",\"group_sizes\":{\"num_groups\":128,\"total_size\":131072},\"ragged_dot_dimension_numbers\":{\"dot_dimension_numbers\":[[[1],[1]],[[],[]]],\"lhs_ragged_dimensions\":[0],\"rhs_group_dimensions\":[0]},\"precision\":[\"DEFAULT\",\"DEFAULT\"],\"preferred_element_type\":null,\"return_residuals\":true,\"activation\":null}": {
    "{\"tile_m\":128,\"tile_k\":7168,\"tile_n\":1024,\"input_buffer_count\":2,\"combine_scopes\":false}": {
      "compile_time_ms": 5272.158840904012,
      "lower_time_ms": 8240.644508972764,
      "evaluation_times_ms": [
        6.532,
        6.534,
        6.537,
        6.536,
        6.535
      ],
      "metadata": {},
      "peak_memory_mb": 6710.938144
    }
  },
  "{\"lhs\":\"bf16[131072,2048]\",\"rhs\":\"bf16[128,2048,768]\",\"group_sizes\":{\"num_groups\":128,\"total_size\":131072},\"ragged_dot_dimension_numbers\":{\"dot_dimension_numbers\":[[[1],[1]],[[],[]]],\"lhs_ragged_dimensions\":[0],\"rhs_group_dimensions\":[0]},\"precision\":[\"DEFAULT\",\"DEFAULT\"],\"preferred_element_type\":null,\"return_residuals\":false,\"activation\":null}": {
    "{\"tile_m\":512,\"tile_k\":2048,\"tile_n\":768,\"input_buffer_count\":2,\"combine_scopes\":false}": {
      "compile_time_ms": 4734.812046168372,
      "lower_time_ms": 23445.630016969517,
      "evaluation_times_ms": [
        0.862,
        0.862,
        0.865,
        0.862,
        0.862
      ],
      "metadata": {},
      "peak_memory_mb": 1140.880384
    }
  },
  "{\"lhs\":\"bf16[131072,2048]\",\"rhs\":\"bf16[128,2048,768]\",\"group_sizes\":{\"num_groups\":128,\"total_size\":131072},\"ragged_dot_dimension_numbers\":{\"dot_dimension_numbers\":[[[1],[1]],[[],[]]],\"lhs_ragged_dimensions\":[0],\"rhs_group_dimensions\":[0]},\"precision\":[\"DEFAULT\",\"DEFAULT\"],\"preferred_element_type\":null,\"return_residuals\":true,\"activation\":null}": {
    "{\"tile_m\":512,\"tile_k\":2048,\"tile_n\":768,\"input_buffer_count\":2,\"combine_scopes\":false}": {
      "compile_time_ms": 11120.693841949105,
      "lower_time_ms": 12276.11606195569,
      "evaluation_times_ms": [
        0.986,
        0.987,
        0.985,
        0.985,
        0.986
      ],
      "metadata": {},
      "peak_memory_mb": 1342.207008
    }
  },
  "{\"lhs\":\"bf16[131072,4096]\",\"rhs\":\"bf16[128,4096,1536]\",\"group_sizes\":{\"num_groups\":128,\"total_size\":131072},\"ragged_dot_dimension_numbers\":{\"dot_dimension_numbers\":[[[1],[1]],[[],[]]],\"lhs_ragged_dimensions\":[0],\"rhs_group_dimensions\":[0]},\"precision\":[\"DEFAULT\",\"DEFAULT\"],\"preferred_element_type\":null,\"return_residuals\":false,\"activation\":null}": {
    "{\"tile_m\":256,\"tile_k\":4096,\"tile_n\":1536,\"input_buffer_count\":2,\"combine_scopes\":false}": {
      "compile_time_ms": 3971.1149430368096,
      "lower_time_ms": 15199.260788038373,
      "evaluation_times_ms": [
        2.544,
        2.542,
        2.543,
        2.544,
        2.541
      ],
      "metadata": {},
      "peak_memory_mb": 3087.041024
    }
  },
  "{\"lhs\":\"bf16[131072,4096]\",\"rhs\":\"bf16[128,4096,1536]\",\"group_sizes\":{\"num_groups\":128,\"total_size\":131072},\"ragged_dot_dimension_numbers\":{\"dot_dimension_numbers\":[[[1],[1]],[[],[]]],\"lhs_ragged_dimensions\":[0],\"rhs_group_dimensions\":[0]},\"precision\":[\"DEFAULT\",\"DEFAULT\"],\"preferred_element_type\":null,\"return_residuals\":true,\"activation\":null}": {
    "{\"tile_m\":256,\"tile_k\":4096,\"tile_n\":1536,\"input_buffer_count\":2,\"combine_scopes\":false}": {
      "compile_time_ms": 5469.619347946718,
      "lower_time_ms": 18019.440188072622,
      "evaluation_times_ms": [
        2.793,
        2.794,
        2.791,
        2.791,
        2.792
      ],
      "metadata": {},
      "peak_memory_mb": 3489.69424
    }
  },
  "{\"lhs\":\"bf16[131072,1536]\",\"rhs\":\"bf16[128,1536,4096]\",\"group_sizes\":{\"num_groups\":128,\"total_size\":131072},\"ragged_dot_dimension_numbers\":{\"dot_dimension_numbers\":[[[1],[1]],[[],[]]],\"lhs_ragged_dimensions\":[0],\"rhs_group_dimensions\":[0]},\"precision\":[\"DEFAULT\",\"DEFAULT\"],\"preferred_element_type\":null,\"return_residuals\":false,\"activation\":null}": {
    "{\"tile_m\":256,\"tile_k\":1536,\"tile_n\":4096,\"input_buffer_count\":2,\"combine_scopes\":false}": {
      "compile_time_ms": 1360.540513182059,
      "lower_time_ms": 57896.37958118692,
      "evaluation_times_ms": [
        2.613,
        2.613,
        2.611,
        2.612,
        2.614
      ],
      "metadata": {},
      "peak_memory_mb": 3087.041024
    }
  },
  "{\"lhs\":\"bf16[131072,1536]\",\"rhs\":\"bf16[128,1536,4096]\",\"group_sizes\":{\"num_groups\":128,\"total_size\":131072},\"ragged_dot_dimension_numbers\":{\"dot_dimension_numbers\":[[[1],[1]],[[],[]]],\"lhs_ragged_dimensions\":[0],\"rhs_group_dimensions\":[0]},\"precision\":[\"DEFAULT\",\"DEFAULT\"],\"preferred_element_type\":null,\"return_residuals\":true,\"activation\":null}": {
    "{\"tile_m\":256,\"tile_k\":1536,\"tile_n\":4096,\"input_buffer_count\":2,\"combine_scopes\":false}": {
      "compile_time_ms": 5617.663076147437,
      "lower_time_ms": 2235.667487839237,
      "evaluation_times_ms": [
        3.275,
        3.275,
        3.277,
        3.274,
        3.276
      ],
      "metadata": {},
      "peak_memory_mb": 4160.78288
    }
  },
  "{\"lhs\":\"bf16[131072,7168]\",\"rhs\":\"bf16[256,7168,2048]\",\"group_sizes\":{\"num_groups\":256,\"total_size\":131072},\"ragged_dot_dimension_numbers\":{\"dot_dimension_numbers\":[[[1],[1]],[[],[]]],\"lhs_ragged_dimensions\":[0],\"rhs_group_dimensions\":[0]},\"precision\":[\"DEFAULT\",\"DEFAULT\"],\"preferred_element_type\":null,\"return_residuals\":false,\"activation\":null}": {
    "{\"tile_m\":128,\"tile_k\":7168,\"tile_n\":1024,\"input_buffer_count\":2,\"combine_scopes\":false}": {
      "compile_time_ms": 5988.46667795442,
      "lower_time_ms": 19639.180965954438,
      "evaluation_times_ms": [
        7.663,
        7.662,
        7.669,
        7.667,
        7.665
      ],
      "metadata": {},
      "peak_memory_mb": 9932.166656
    }
  },
  "{\"lhs\":\"bf16[131072,7168]\",\"rhs\":\"bf16[256,7168,2048]\",\"group_sizes\":{\"num_groups\":256,\"total_size\":131072},\"ragged_dot_dimension_numbers\":{\"dot_dimension_numbers\":[[[1],[1]],[[],[]]],\"lhs_ragged_dimensions\":[0],\"rhs_group_dimensions\":[0]},\"precision\":[\"DEFAULT\",\"DEFAULT\"],\"preferred_element_type\":null,\"return_residuals\":true,\"activation\":null}": {
    "{\"tile_m\":128,\"tile_k\":7168,\"tile_n\":1024,\"input_buffer_count\":2,\"combine_scopes\":false}": {
      "compile_time_ms": 20296.18481104262,
      "lower_time_ms": 2208.4084949456155,
      "evaluation_times_ms": [
        7.972,
        7.971,
        7.968,
        7.972,
        7.973
      ],
      "metadata": {},
      "peak_memory_mb": 10469.0376
    }
  },
  "{\"lhs\":\"bf16[65536,7168]\",\"rhs\":\"bf16[256,7168,2048]\",\"group_sizes\":{\"num_groups\":256,\"total_size\":65536},\"ragged_dot_dimension_numbers\":{\"dot_dimension_numbers\":[[[1],[1]],[[],[]]],\"lhs_ragged_dimensions\":[0],\"rhs_group_dimensions\":[0]},\"precision\":[\"DEFAULT\",\"DEFAULT\"],\"preferred_element_type\":null,\"return_residuals\":false,\"activation\":null}": {
    "{\"tile_m\":128,\"tile_k\":7168,\"tile_n\":1024,\"input_buffer_count\":2,\"combine_scopes\":false}": {
      "compile_time_ms": 8284.181914990768,
      "lower_time_ms": 30237.306189956143,
      "evaluation_times_ms": [
        5.28,
        5.273,
        5.277,
        5.273,
        5.271
      ],
      "metadata": {},
      "peak_memory_mb": 8724.188672
    }
  },
  "{\"lhs\":\"bf16[65536,7168]\",\"rhs\":\"bf16[256,7168,2048]\",\"group_sizes\":{\"num_groups\":256,\"total_size\":65536},\"ragged_dot_dimension_numbers\":{\"dot_dimension_numbers\":[[[1],[1]],[[],[]]],\"lhs_ragged_dimensions\":[0],\"rhs_group_dimensions\":[0]},\"precision\":[\"DEFAULT\",\"DEFAULT\"],\"preferred_element_type\":null,\"return_residuals\":true,\"activation\":null}": {
    "{\"tile_m\":128,\"tile_k\":7168,\"tile_n\":1024,\"input_buffer_count\":2,\"combine_scopes\":false}": {
      "compile_time_ms": 18165.817765984684,
      "lower_time_ms": 24596.58621600829,
      "evaluation_times_ms": [
        5.446,
        5.448,
        5.441,
        5.448,
        5.445
      ],
      "metadata": {},
      "peak_memory_mb": 8992.62416
    }
  },
  "{\"lhs\":\"bf16[131072,512]\",\"rhs\":\"bf16[256,512,7168]\",\"group_sizes\":{\"num_groups\":256,\"total_size\":131072},\"ragged_dot_dimension_numbers\":{\"dot_dimension_numbers\":[[[1],[1]],[[],[]]],\"lhs_ragged_dimensions\":[0],\"rhs_group_dimensions\":[0]},\"precision\":[\"DEFAULT\",\"DEFAULT\"],\"preferred_element_type\":null,\"return_residuals\":false,\"activation\":null}": {
    "{\"tile_m\":256,\"tile_k\":512,\"tile_n\":7168,\"input_buffer_count\":2,\"combine_scopes\":false}": {
      "compile_time_ms": 15857.966520008631,
      "lower_time_ms": 22083.41251302045,
      "evaluation_times_ms": [
        2.438,
        2.437,
        2.436,
        2.439,
        2.435
      ],
      "metadata": {},
      "peak_memory_mb": 3892.350464
    }
  },
  "{\"lhs\":\"bf16[131072,512]\",\"rhs\":\"bf16[256,512,7168]\",\"group_sizes\":{\"num_groups\":256,\"total_size\":131072},\"ragged_dot_dimension_numbers\":{\"dot_dimension_numbers\":[[[1],[1]],[[],[]]],\"lhs_ragged_dimensions\":[0],\"rhs_group_dimensions\":[0]},\"precision\":[\"DEFAULT\",\"DEFAULT\"],\"preferred_element_type\":null,\"return_residuals\":true,\"activation\":null}": {
    "{\"tile_m\":256,\"tile_k\":512,\"tile_n\":7168,\"input_buffer_count\":2,\"combine_scopes\":false}": {
      "compile_time_ms": 6446.036319015548,
      "lower_time_ms": 4225.899314973503,
      "evaluation_times_ms": [
        3.596,
        3.595,
        3.594,
        3.592,
        3.596
      ],
      "metadata": {},
      "peak_memory_mb": 5771.398688
    }
  },
  "{\"lhs\":\"bf16[262144,512]\",\"rhs\":\"bf16[256,512,7168]\",\"group_sizes\":{\"num_groups\":256,\"total_size\":262144},\"ragged_dot_dimension_numbers\":{\"dot_dimension_numbers\":[[[1],[1]],[[],[]]],\"lhs_ragged_dimensions\":[0],\"rhs_group_dimensions\":[0]},\"precision\":[\"DEFAULT\",\"DEFAULT\"],\"preferred_element_type\":null,\"return_residuals\":false,\"activation\":null}": {
    "{\"tile_m\":256,\"tile_k\":512,\"tile_n\":7168,\"input_buffer_count\":2,\"combine_scopes\":false}": {
      "compile_time_ms": 29224.272544961423,
      "lower_time_ms": 20970.270918216556,
      "evaluation_times_ms": [
        3.631,
        3.636,
        3.631,
        3.634,
        3.637
      ],
      "metadata": {},
      "peak_memory_mb": 5905.634816
    }
  },
  "{\"lhs\":\"bf16[262144,512]\",\"rhs\":\"bf16[256,512,7168]\",\"group_sizes\":{\"num_groups\":256,\"total_size\":262144},\"ragged_dot_dimension_numbers\":{\"dot_dimension_numbers\":[[[1],[1]],[[],[]]],\"lhs_ragged_dimensions\":[0],\"rhs_group_dimensions\":[0]},\"precision\":[\"DEFAULT\",\"DEFAULT\"],\"preferred_element_type\":null,\"return_residuals\":true,\"activation\":null}": {
    "{\"tile_m\":256,\"tile_k\":512,\"tile_n\":7168,\"input_buffer_count\":2,\"combine_scopes\":false}": {
      "compile_time_ms": 5265.214671147987,
      "lower_time_ms": 48258.43873806298,
      "evaluation_times_ms": [
        5.967,
        5.964,
        5.965,
        5.965,
        5.967
      ],
      "metadata": {},
      "peak_memory_mb": 9663.731232
    }
  },
  "{\"lhs\":\"bf16[262144,7168]\",\"rhs\":\"bf16[256,7168,512]\",\"group_sizes\":{\"num_groups\":256,\"total_size\":262144},\"ragged_dot_dimension_numbers\":{\"dot_dimension_numbers\":[[[1],[1]],[[],[]]],\"lhs_ragged_dimensions\":[0],\"rhs_group_dimensions\":[0]},\"precision\":[\"DEFAULT\",\"DEFAULT\"],\"preferred_element_type\":null,\"return_residuals\":false,\"activation\":null}": {
    "{\"tile_m\":256,\"tile_k\":7168,\"tile_n\":512,\"input_buffer_count\":2,\"combine_scopes\":false}": {
      "compile_time_ms": 1160.8563219197094,
      "lower_time_ms": 31952.475489932112,
      "evaluation_times_ms": [
        3.27,
        3.268,
        3.267,
        3.268,
        3.271
      ],
      "metadata": {},
      "peak_memory_mb": 5905.634816
    }
  },
  "{\"lhs\":\"bf16[262144,7168]\",\"rhs\":\"bf16[256,7168,512]\",\"group_sizes\":{\"num_groups\":256,\"total_size\":262144},\"ragged_dot_dimension_numbers\":{\"dot_dimension_numbers\":[[[1],[1]],[[],[]]],\"lhs_ragged_dimensions\":[0],\"rhs_group_dimensions\":[0]},\"precision\":[\"DEFAULT\",\"DEFAULT\"],\"preferred_element_type\":null,\"return_residuals\":true,\"activation\":null}": {
    "{\"tile_m\":512,\"tile_k\":7168,\"tile_n\":512,\"input_buffer_count\":2,\"combine_scopes\":false}": {
      "compile_time_ms": 21979.71336590126,
      "lower_time_ms": 9888.628312153742,
      "evaluation_times_ms": [
        3.434,
        3.436,
        3.437,
        3.436,
        3.435
      ],
      "metadata": {},
      "peak_memory_mb": 6174.051872
    },
    "{\"tile_m\":256,\"tile_k\":7168,\"tile_n\":512,\"input_buffer_count\":2,\"combine_scopes\":false}": {
      "compile_time_ms": 37311.61135598086,
      "lower_time_ms": 69999.85548388213,
      "evaluation_times_ms": [
        3.448,
        3.45,
        3.45,
        3.451,
        3.449
      ],
      "metadata": {},
      "peak_memory_mb": 6174.070304
    }
  },
  "{\"lhs\":\"bf16[262144,256]\",\"rhs\":\"bf16[256,256,7168]\",\"group_sizes\":{\"num_groups\":256,\"total_size\":262144},\"ragged_dot_dimension_numbers\":{\"dot_dimension_numbers\":[[[1],[1]],[[],[]]],\"lhs_ragged_dimensions\":[0],\"rhs_group_dimensions\":[0]},\"precision\":[\"DEFAULT\",\"DEFAULT\"],\"preferred_element_type\":null,\"return_residuals\":false,\"activation\":null}": {
    "{\"tile_m\":512,\"tile_k\":256,\"tile_n\":7168,\"input_buffer_count\":2,\"combine_scopes\":false}": {
      "compile_time_ms": 7752.80347187072,
      "lower_time_ms": 26008.771259104833,
      "evaluation_times_ms": [
        2.477,
        2.475,
        2.478,
        2.476,
        2.477
      ],
      "metadata": {},
      "peak_memory_mb": 4831.87456
    }
  },
  "{\"lhs\":\"bf16[262144,256]\",\"rhs\":\"bf16[256,256,7168]\",\"group_sizes\":{\"num_groups\":256,\"total_size\":262144},\"ragged_dot_dimension_numbers\":{\"dot_dimension_numbers\":[[[1],[1]],[[],[]]],\"lhs_ragged_dimensions\":[0],\"rhs_group_dimensions\":[0]},\"precision\":[\"DEFAULT\",\"DEFAULT\"],\"preferred_element_type\":null,\"return_residuals\":true,\"activation\":null}": {
    "{\"tile_m\":512,\"tile_k\":256,\"tile_n\":7168,\"input_buffer_count\":2,\"combine_scopes\":false}": {
      "compile_time_ms": 15770.146786933765,
      "lower_time_ms": 8844.69461813569,
      "evaluation_times_ms": [
        4.803,
        4.801,
        4.803,
        4.8,
        4.799
      ],
      "metadata": {},
      "peak_memory_mb": 8589.970976
    }
  },
  "{\"lhs\":\"bf16[262144,1024]\",\"rhs\":\"bf16[256,1024,7168]\",\"group_sizes\":{\"num_groups\":256,\"total_size\":262144},\"ragged_dot_dimension_numbers\":{\"dot_dimension_numbers\":[[[1],[1]],[[],[]]],\"lhs_ragged_dimensions\":[0],\"rhs_group_dimensions\":[0]},\"precision\":[\"DEFAULT\",\"DEFAULT\"],\"preferred_element_type\":null,\"return_residuals\":false,\"activation\":null}": {
    "{\"tile_m\":128,\"tile_k\":1024,\"tile_n\":7168,\"input_buffer_count\":2,\"combine_scopes\":false}": {
      "compile_time_ms": 14490.437566069886,
      "lower_time_ms": 37399.930901126936,
      "evaluation_times_ms": [
        6.416,
        6.42,
        6.417,
        6.42,
        6.419
      ],
      "metadata": {},
      "peak_memory_mb": 8053.138944
    }
  },
  "{\"lhs\":\"bf16[262144,1024]\",\"rhs\":\"bf16[256,1024,7168]\",\"group_sizes\":{\"num_groups\":256,\"total_size\":262144},\"ragged_dot_dimension_numbers\":{\"dot_dimension_numbers\":[[[1],[1]],[[],[]]],\"lhs_ragged_dimensions\":[0],\"rhs_group_dimensions\":[0]},\"precision\":[\"DEFAULT\",\"DEFAULT\"],\"preferred_element_type\":null,\"return_residuals\":true,\"activation\":null}": {
    "{\"tile_m\":128,\"tile_k\":1024,\"tile_n\":7168,\"input_buffer_count\":2,\"combine_scopes\":false}": {
      "compile_time_ms": 67172.64704196714,
      "lower_time_ms": 2532.1862590499222,
      "evaluation_times_ms": [
        8.745,
        8.747,
        8.752,
        8.748,
        8.749
      ],
      "metadata": {},
      "peak_memory_mb": 11811.23536
    }
  },
  "{\"lhs\":\"bf16[262144,7168]\",\"rhs\":\"bf16[256,7168,1024]\",\"group_sizes\":{\"num_groups\":256,\"total_size\":262144},\"ragged_dot_dimension_numbers\":{\"dot_dimension_numbers\":[[[1],[1]],[[],[]]],\"lhs_ragged_dimensions\":[0],\"rhs_group_dimensions\":[0]},\"precision\":[\"DEFAULT\",\"DEFAULT\"],\"preferred_element_type\":null,\"return_residuals\":false,\"activation\":null}": {
    "{\"tile_m\":128,\"tile_k\":7168,\"tile_n\":1024,\"input_buffer_count\":2,\"combine_scopes\":false}": {
      "compile_time_ms": 5544.267548015341,
      "lower_time_ms": 26951.606716029346,
      "evaluation_times_ms": [
        6.205,
        6.207,
        6.209,
        6.206,
        6.207
      ],
      "metadata": {},
      "peak_memory_mb": 8053.138944
    }
  },
  "{\"lhs\":\"bf16[262144,7168]\",\"rhs\":\"bf16[256,7168,1024]\",\"group_sizes\":{\"num_groups\":256,\"total_size\":262144},\"ragged_dot_dimension_numbers\":{\"dot_dimension_numbers\":[[[1],[1]],[[],[]]],\"lhs_ragged_dimensions\":[0],\"rhs_group_dimensions\":[0]},\"precision\":[\"DEFAULT\",\"DEFAULT\"],\"preferred_element_type\":null,\"return_residuals\":true,\"activation\":null}": {
    "{\"tile_m\":128,\"tile_k\":7168,\"tile_n\":1024,\"input_buffer_count\":2,\"combine_scopes\":false}": {
      "compile_time_ms": 2329.343224875629,
      "lower_time_ms": 31289.476067991927,
      "evaluation_times_ms": [
        6.536,
        6.536,
        6.535,
        6.541,
        6.539
      ],
      "metadata": {},
      "peak_memory_mb": 8590.009888
    }
  },
  "{\"lhs\":\"bf16[4096,4096]\",\"rhs\":\"bf16[8,4096,4096]\",\"group_sizes\":[4096,0,0,0,0,0,0,0],\"ragged_dot_dimension_numbers\":{\"dot_dimension_numbers\":[[[1],[1]],[[],[]]],\"lhs_ragged_dimensions\":[0],\"rhs_group_dimensions\":[0]},\"precision\":[\"DEFAULT\",\"DEFAULT\"],\"preferred_element_type\":null,\"return_residuals\":false,\"activation\":null}": {
    "{\"tile_m\":512,\"tile_k\":4096,\"tile_n\":1024,\"input_buffer_count\":2,\"combine_scopes\":false}": {
      "compile_time_ms": 18829.431521939114,
      "lower_time_ms": 22285.69849091582,
      "evaluation_times_ms": [
        0.169,
        0.168,
        0.168,
        0.168,
        0.168
      ],
      "metadata": {},
      "peak_memory_mb": 335.565824
    }
  },
  "{\"lhs\":\"bf16[4096,4096]\",\"rhs\":\"bf16[8,4096,4096]\",\"group_sizes\":[4096,0,0,0,0,0,0,0],\"ragged_dot_dimension_numbers\":{\"dot_dimension_numbers\":[[[1],[1]],[[],[]]],\"lhs_ragged_dimensions\":[0],\"rhs_group_dimensions\":[0]},\"precision\":[\"DEFAULT\",\"DEFAULT\"],\"preferred_element_type\":null,\"return_residuals\":true,\"activation\":null}": {
    "{\"tile_m\":512,\"tile_k\":4096,\"tile_n\":1024,\"input_buffer_count\":2,\"combine_scopes\":false}": {
      "compile_time_ms": 10037.918485933915,
      "lower_time_ms": 6503.297980874777,
      "evaluation_times_ms": [
        0.19,
        0.19,
        0.19,
        0.19,
        0.191
      ],
      "metadata": {},
      "peak_memory_mb": 402.668064
    }
  },
  "{\"lhs\":\"bf16[8,4096]\",\"rhs\":\"bf16[8,4096,4096]\",\"group_sizes\":[1,1,1,1,1,1,1,1],\"ragged_dot_dimension_numbers\":{\"dot_dimension_numbers\":[[[1],[1]],[[],[]]],\"lhs_ragged_dimensions\":[0],\"rhs_group_dimensions\":[0]},\"precision\":[\"DEFAULT\",\"DEFAULT\"],\"preferred_element_type\":null,\"return_residuals\":false,\"activation\":null}": {},
  "{\"lhs\":\"bf16[8,4096]\",\"rhs\":\"bf16[8,4096,4096]\",\"group_sizes\":[1,1,1,1,1,1,1,1],\"ragged_dot_dimension_numbers\":{\"dot_dimension_numbers\":[[[1],[1]],[[],[]]],\"lhs_ragged_dimensions\":[0],\"rhs_group_dimensions\":[0]},\"precision\":[\"DEFAULT\",\"DEFAULT\"],\"preferred_element_type\":null,\"return_residuals\":true,\"activation\":null}": {},
  "{\"lhs\":\"bf16[8192,4096]\",\"rhs\":\"bf16[8,4096,14336]\",\"group_sizes\":{\"num_groups\":8,\"total_size\":8192},\"ragged_dot_dimension_numbers\":{\"dot_dimension_numbers\":[[[1],[1]],[[],[]]],\"lhs_ragged_dimensions\":[0],\"rhs_group_dimensions\":[0]},\"precision\":[\"DEFAULT\",\"DEFAULT\"],\"preferred_element_type\":null,\"return_residuals\":false,\"activation\":null}": {
    "{\"tile_m\":512,\"tile_k\":4096,\"tile_n\":1024,\"input_buffer_count\":2,\"combine_scopes\":false}": {
      "compile_time_ms": 21829.877187032253,
      "lower_time_ms": 14553.42881497927,
      "evaluation_times_ms": [
        1.544,
        1.544,
        1.543,
        1.545,
        1.545
      ],
      "metadata": {},
      "peak_memory_mb": 1241.55392
    }
  },
  "{\"lhs\":\"bf16[8192,4096]\",\"rhs\":\"bf16[8,4096,14336]\",\"group_sizes\":{\"num_groups\":8,\"total_size\":8192},\"ragged_dot_dimension_numbers\":{\"dot_dimension_numbers\":[[[1],[1]],[[],[]]],\"lhs_ragged_dimensions\":[0],\"rhs_group_dimensions\":[0]},\"precision\":[\"DEFAULT\",\"DEFAULT\"],\"preferred_element_type\":null,\"return_residuals\":true,\"activation\":null}": {
    "{\"tile_m\":512,\"tile_k\":4096,\"tile_n\":1024,\"input_buffer_count\":2,\"combine_scopes\":false}": {
      "compile_time_ms": 1724.8849789611995,
      "lower_time_ms": 92.71801309660077,
      "evaluation_times_ms": [
        1.693,
        1.694,
        1.693,
        1.692,
        1.693
      ],
      "metadata": {},
      "peak_memory_mb": 1476.434976
    }
  },
  "{\"lhs\":\"bf16[131072,1024]\",\"rhs\":\"bf16[256,7168,1024]\",\"group_sizes\":{\"num_groups\":256,\"total_size\":131072},\"ragged_dot_dimension_numbers\":{\"dot_dimension_numbers\":[[[1],[2]],[[],[]]],\"lhs_ragged_dimensions\":[0],\"rhs_group_dimensions\":[0]},\"precision\":[\"DEFAULT\",\"DEFAULT\"],\"preferred_element_type\":\"bfloat16\",\"return_residuals\":false,\"activation\":null}": {
    "{\"tile_m\":512,\"tile_k\":1024,\"tile_n\":1024,\"input_buffer_count\":2,\"combine_scopes\":false}": {
      "compile_time_ms": 21539.348328020424,
      "lower_time_ms": 16141.751158982515,
      "evaluation_times_ms": [
        6.43,
        6.435,
        6.431,
        6.438,
        6.434
      ],
      "metadata": {},
      "peak_memory_mb": 5905.611776
    }
  },
  "{\"lhs\":\"bf16[131072,7168]\",\"rhs\":\"bf16[131072,1024]\",\"group_sizes\":{\"num_groups\":256,\"total_size\":131072},\"ragged_dot_dimension_numbers\":{\"dot_dimension_numbers\":[[[0],[0]],[[],[]]],\"lhs_ragged_dimensions\":[0],\"rhs_group_dimensions\":[]},\"precision\":[\"DEFAULT\",\"DEFAULT\"],\"preferred_element_type\":\"bfloat16\",\"return_residuals\":false,\"activation\":null}": {
    "{\"tile_m\":256,\"tile_k\":1792,\"tile_n\":1024,\"input_buffer_count\":4,\"combine_scopes\":false}": {
      "compile_time_ms": 1136.9476330000907,
      "lower_time_ms": 38326.760857133195,
      "evaluation_times_ms": [
        5.413,
        5.413,
        5.409,
        5.414,
        5.409
      ],
      "metadata": {},
      "peak_memory_mb": 5905.616384
    }
  },
  "{\"lhs\":\"bf16[131072,7168]\",\"rhs\":\"bf16[256,1024,7168]\",\"group_sizes\":{\"num_groups\":256,\"total_size\":131072},\"ragged_dot_dimension_numbers\":{\"dot_dimension_numbers\":[[[1],[2]],[[],[]]],\"lhs_ragged_dimensions\":[0],\"rhs_group_dimensions\":[0]},\"precision\":[\"DEFAULT\",\"DEFAULT\"],\"preferred_element_type\":\"bfloat16\",\"return_residuals\":false,\"activation\":null}": {
    "{\"tile_m\":512,\"tile_k\":1024,\"tile_n\":1024,\"input_buffer_count\":2,\"combine_scopes\":false}": {
      "compile_time_ms": 16664.797806181014,
      "lower_time_ms": 25505.787416826934,
      "evaluation_times_ms": [
        6.39,
        6.394,
        6.394,
        6.392,
        6.391
      ],
      "metadata": {},
      "peak_memory_mb": 5905.611776
    }
  },
  "{\"lhs\":\"bf16[131072,1024]\",\"rhs\":\"bf16[131072,7168]\",\"group_sizes\":{\"num_groups\":256,\"total_size\":131072},\"ragged_dot_dimension_numbers\":{\"dot_dimension_numbers\":[[[0],[0]],[[],[]]],\"lhs_ragged_dimensions\":[0],\"rhs_group_dimensions\":[]},\"precision\":[\"DEFAULT\",\"DEFAULT\"],\"preferred_element_type\":\"bfloat16\",\"return_residuals\":false,\"activation\":null}": {
    "{\"tile_m\":256,\"tile_k\":512,\"tile_n\":3584,\"input_buffer_count\":4,\"combine_scopes\":false}": {
      "compile_time_ms": 1250.748431077227,
      "lower_time_ms": 3823.9167788997293,
      "evaluation_times_ms": [
        5.405,
        5.406,
        5.407,
        5.407,
        5.406
      ],
      "metadata": {},
      "peak_memory_mb": 5905.616384
    }
  },
  "{\"lhs\":\"bf16[131072,512]\",\"rhs\":\"bf16[256,7168,512]\",\"group_sizes\":{\"num_groups\":256,\"total_size\":131072},\"ragged_dot_dimension_numbers\":{\"dot_dimension_numbers\":[[[1],[2]],[[],[]]],\"lhs_ragged_dimensions\":[0],\"rhs_group_dimensions\":[0]},\"precision\":[\"DEFAULT\",\"DEFAULT\"],\"preferred_element_type\":\"bfloat16\",\"return_residuals\":false,\"activation\":null}": {
    "{\"tile_m\":256,\"tile_k\":512,\"tile_n\":7168,\"input_buffer_count\":2,\"combine_scopes\":false}": {
      "compile_time_ms": 10875.310030998662,
      "lower_time_ms": 38182.44601180777,
      "evaluation_times_ms": [
        2.47,
        2.471,
        2.467,
        2.47,
        2.469
      ],
      "metadata": {},
      "peak_memory_mb": 3892.350464
    }
  },
  "{\"lhs\":\"bf16[131072,7168]\",\"rhs\":\"bf16[131072,512]\",\"group_sizes\":{\"num_groups\":256,\"total_size\":131072},\"ragged_dot_dimension_numbers\":{\"dot_dimension_numbers\":[[[0],[0]],[[],[]]],\"lhs_ragged_dimensions\":[0],\"rhs_group_dimensions\":[]},\"precision\":[\"DEFAULT\",\"DEFAULT\"],\"preferred_element_type\":\"bfloat16\",\"return_residuals\":false,\"activation\":null}": {
    "{\"tile_m\":256,\"tile_k\":3584,\"tile_n\":512,\"input_buffer_count\":4,\"combine_scopes\":false}": {
      "compile_time_ms": 1263.7263590004295,
      "lower_time_ms": 2879.4414759613574,
      "evaluation_times_ms": [
        2.76,
        2.759,
        2.76,
        2.761,
        2.762
      ],
      "metadata": {},
      "peak_memory_mb": 3892.350464
    },
    "{\"tile_m\":256,\"tile_k\":7168,\"tile_n\":256,\"input_buffer_count\":4,\"combine_scopes\":false}": {
      "compile_time_ms": 1590.4198109637946,
      "lower_time_ms": 2307.1011709980667,
      "evaluation_times_ms": [
        2.799,
        2.799,
        2.799,
        2.797,
        2.8
      ],
      "metadata": {},
      "peak_memory_mb": 3892.350464
    }
  },
  "{\"lhs\":\"bf16[131072,7168]\",\"rhs\":\"bf16[256,512,7168]\",\"group_sizes\":{\"num_groups\":256,\"total_size\":131072},\"ragged_dot_dimension_numbers\":{\"dot_dimension_numbers\":[[[1],[2]],[[],[]]],\"lhs_ragged_dimensions\":[0],\"rhs_group_dimensions\":[0]},\"precision\":[\"DEFAULT\",\"DEFAULT\"],\"preferred_element_type\":\"bfloat16\",\"return_residuals\":false,\"activation\":null}": {
    "{\"tile_m\":256,\"tile_k\":7168,\"tile_n\":512,\"input_buffer_count\":3,\"combine_scopes\":false}": {
      "compile_time_ms": 22714.41034413874,
      "lower_time_ms": 44903.87522010133,
      "evaluation_times_ms": [
        2.413,
        2.414,
        2.414,
        2.414,
        2.414
      ],
      "metadata": {},
      "peak_memory_mb": 3892.350464
    }
  },
  "{\"lhs\":\"bf16[131072,512]\",\"rhs\":\"bf16[131072,7168]\",\"group_sizes\":{\"num_groups\":256,\"total_size\":131072},\"ragged_dot_dimension_numbers\":{\"dot_dimension_numbers\":[[[0],[0]],[[],[]]],\"lhs_ragged_dimensions\":[0],\"rhs_group_dimensions\":[]},\"precision\":[\"DEFAULT\",\"DEFAULT\"],\"preferred_element_type\":\"bfloat16\",\"return_residuals\":false,\"activation\":null}": {
    "{\"tile_m\":256,\"tile_k\":512,\"tile_n\":3584,\"input_buffer_count\":4,\"combine_scopes\":false}": {
      "compile_time_ms": 1475.6129870656878,
      "lower_time_ms": 11865.109109086916,
      "evaluation_times_ms": [
        2.742,
        2.743,
        2.743,
        2.743,
        2.743
      ],
      "metadata": {},
      "peak_memory_mb": 3892.350464
    }
  },
  "{\"lhs\":\"bf16[262144,512]\",\"rhs\":\"bf16[256,7168,512]\",\"group_sizes\":{\"num_groups\":256,\"total_size\":262144},\"ragged_dot_dimension_numbers\":{\"dot_dimension_numbers\":[[[1],[2]],[[],[]]],\"lhs_ragged_dimensions\":[0],\"rhs_group_dimensions\":[0]},\"precision\":[\"DEFAULT\",\"DEFAULT\"],\"preferred_element_type\":\"bfloat16\",\"return_residuals\":false,\"activation\":null}": {
    "{\"tile_m\":256,\"tile_k\":512,\"tile_n\":7168,\"input_buffer_count\":2,\"combine_scopes\":false}": {
      "compile_time_ms": 24947.84932094626,
      "lower_time_ms": 20663.224814925343,
      "evaluation_times_ms": [
        3.681,
        3.683,
        3.68,
        3.682,
        3.679
      ],
      "metadata": {},
      "peak_memory_mb": 5905.634816
    }
  },
  "{\"lhs\":\"bf16[262144,7168]\",\"rhs\":\"bf16[262144,512]\",\"group_sizes\":{\"num_groups\":256,\"total_size\":262144},\"ragged_dot_dimension_numbers\":{\"dot_dimension_numbers\":[[[0],[0]],[[],[]]],\"lhs_ragged_dimensions\":[0],\"rhs_group_dimensions\":[]},\"precision\":[\"DEFAULT\",\"DEFAULT\"],\"preferred_element_type\":\"bfloat16\",\"return_residuals\":false,\"activation\":null}": {
    "{\"tile_m\":256,\"tile_k\":3584,\"tile_n\":512,\"input_buffer_count\":4,\"combine_scopes\":false}": {
      "compile_time_ms": 4185.886206105351,
      "lower_time_ms": 37754.39783418551,
      "evaluation_times_ms": [
        4.22,
        4.217,
        4.218,
        4.218,
        4.219
      ],
      "metadata": {},
      "peak_memory_mb": 5905.634816
    }
  },
  "{\"lhs\":\"bf16[262144,7168]\",\"rhs\":\"bf16[256,256,7168]\",\"group_sizes\":{\"num_groups\":256,\"total_size\":262144},\"ragged_dot_dimension_numbers\":{\"dot_dimension_numbers\":[[[1],[2]],[[],[]]],\"lhs_ragged_dimensions\":[0],\"rhs_group_dimensions\":[0]},\"precision\":[\"DEFAULT\",\"DEFAULT\"],\"preferred_element_type\":\"bfloat16\",\"return_residuals\":false,\"activation\":null}": {
    "{\"tile_m\":512,\"tile_k\":7168,\"tile_n\":128,\"input_buffer_count\":4,\"combine_scopes\":false}": {
      "compile_time_ms": 14370.790873887017,
      "lower_time_ms": 20093.73559989035,
      "evaluation_times_ms": [
        4.324,
        4.322,
        4.323,
        4.326,
        4.321
      ],
      "metadata": {},
      "peak_memory_mb": 4831.87456
    }
  },
  "{\"lhs\":\"bf16[262144,256]\",\"rhs\":\"bf16[262144,7168]\",\"group_sizes\":{\"num_groups\":256,\"total_size\":262144},\"ragged_dot_dimension_numbers\":{\"dot_dimension_numbers\":[[[0],[0]],[[],[]]],\"lhs_ragged_dimensions\":[0],\"rhs_group_dimensions\":[]},\"precision\":[\"DEFAULT\",\"DEFAULT\"],\"preferred_element_type\":\"bfloat16\",\"return_residuals\":false,\"activation\":null}": {
    "{\"tile_m\":256,\"tile_k\":256,\"tile_n\":7168,\"input_buffer_count\":4,\"combine_scopes\":false}": {
      "compile_time_ms": 1714.337013894692,
      "lower_time_ms": 2610.8532620128244,
      "evaluation_times_ms": [
        2.134,
        2.138,
        2.139,
        2.135,
        2.137
      ],
      "metadata": {},
      "peak_memory_mb": 4831.892992
    }
  },
  "{\"lhs\":\"bf16[262144,7168]\",\"rhs\":\"bf16[256,1024,7168]\",\"group_sizes\":{\"num_groups\":256,\"total_size\":262144},\"ragged_dot_dimension_numbers\":{\"dot_dimension_numbers\":[[[1],[2]],[[],[]]],\"lhs_ragged_dimensions\":[0],\"rhs_group_dimensions\":[0]},\"precision\":[\"DEFAULT\",\"DEFAULT\"],\"preferred_element_type\":\"bfloat16\",\"return_residuals\":false,\"activation\":null}": {
    "{\"tile_m\":512,\"tile_k\":1024,\"tile_n\":1024,\"input_buffer_count\":2,\"combine_scopes\":false}": {
      "compile_time_ms": 1644.0165098756552,
      "lower_time_ms": 2109.3279991764575,
      "evaluation_times_ms": [
        9.559,
        9.565,
        9.567,
        9.559,
        9.552
      ],
      "metadata": {},
      "peak_memory_mb": 8053.100032
    }
  },
  "{\"lhs\":\"bf16[262144,1024]\",\"rhs\":\"bf16[262144,7168]\",\"group_sizes\":{\"num_groups\":256,\"total_size\":262144},\"ragged_dot_dimension_numbers\":{\"dot_dimension_numbers\":[[[0],[0]],[[],[]]],\"lhs_ragged_dimensions\":[0],\"rhs_group_dimensions\":[]},\"precision\":[\"DEFAULT\",\"DEFAULT\"],\"preferred_element_type\":\"bfloat16\",\"return_residuals\":false,\"activation\":null}": {
    "{\"tile_m\":256,\"tile_k\":512,\"tile_n\":3584,\"input_buffer_count\":4,\"combine_scopes\":false}": {
      "compile_time_ms": 27525.093361036852,
      "lower_time_ms": 68141.56574499793,
      "evaluation_times_ms": [
        8.253,
        8.253,
        8.254,
        8.254,
        8.253
      ],
      "metadata": {},
      "peak_memory_mb": 8053.118464
    }
  },
  "{\"lhs\":\"bf16[262144,1024]\",\"rhs\":\"bf16[256,7168,1024]\",\"group_sizes\":{\"num_groups\":256,\"total_size\":262144},\"ragged_dot_dimension_numbers\":{\"dot_dimension_numbers\":[[[1],[2]],[[],[]]],\"lhs_ragged_dimensions\":[0],\"rhs_group_dimensions\":[0]},\"precision\":[\"DEFAULT\",\"DEFAULT\"],\"preferred_element_type\":\"bfloat16\",\"return_residuals\":false,\"activation\":null}": {
    "{\"tile_m\":512,\"tile_k\":1024,\"tile_n\":1024,\"input_buffer_count\":2,\"combine_scopes\":false}": {
      "compile_time_ms": 10866.865557152778,
      "lower_time_ms": 45266.591968014836,
      "evaluation_times_ms": [
        9.179,
        9.176,
        9.177,
        9.183,
        9.181
      ],
      "metadata": {},
      "peak_memory_mb": 8053.100032
    }
  },
  "{\"lhs\":\"bf16[262144,7168]\",\"rhs\":\"bf16[262144,1024]\",\"group_sizes\":{\"num_groups\":256,\"total_size\":262144},\"ragged_dot_dimension_numbers\":{\"dot_dimension_numbers\":[[[0],[0]],[[],[]]],\"lhs_ragged_dimensions\":[0],\"rhs_group_dimensions\":[]},\"precision\":[\"DEFAULT\",\"DEFAULT\"],\"preferred_element_type\":\"bfloat16\",\"return_residuals\":false,\"activation\":null}": {
    "{\"tile_m\":256,\"tile_k\":1792,\"tile_n\":1024,\"input_buffer_count\":4,\"combine_scopes\":false}": {
      "compile_time_ms": 1580.0916019361466,
      "lower_time_ms": 35440.114920027554,
      "evaluation_times_ms": [
        8.321,
        8.322,
        8.311,
        8.319,
        8.319
      ],
      "metadata": {},
      "peak_memory_mb": 8053.118464
    }
  },
  "{\"lhs\":\"bf16[262144,2048]\",\"rhs\":\"bf16[256,7168,2048]\",\"group_sizes\":{\"num_groups\":256,\"total_size\":262144},\"ragged_dot_dimension_numbers\":{\"dot_dimension_numbers\":[[[1],[2]],[[],[]]],\"lhs_ragged_dimensions\":[0],\"rhs_group_dimensions\":[0]},\"precision\":[\"DEFAULT\",\"DEFAULT\"],\"preferred_element_type\":\"bfloat16\",\"return_residuals\":false,\"activation\":null}": {
    "{\"tile_m\":256,\"tile_k\":2048,\"tile_n\":1792,\"input_buffer_count\":2,\"combine_scopes\":false}": {
      "compile_time_ms": 15765.993709908798,
      "lower_time_ms": 26240.996176144108,
      "evaluation_times_ms": [
        13.259,
        13.255,
        13.263,
        13.256,
        13.257
      ],
      "metadata": {},
      "peak_memory_mb": 12348.08576
    }
  },
  "{\"lhs\":\"bf16[262144,7168]\",\"rhs\":\"bf16[262144,2048]\",\"group_sizes\":{\"num_groups\":256,\"total_size\":262144},\"ragged_dot_dimension_numbers\":{\"dot_dimension_numbers\":[[[0],[0]],[[],[]]],\"lhs_ragged_dimensions\":[0],\"rhs_group_dimensions\":[]},\"precision\":[\"DEFAULT\",\"DEFAULT\"],\"preferred_element_type\":\"bfloat16\",\"return_residuals\":false,\"activation\":null}": {
    "{\"tile_m\":256,\"tile_k\":1024,\"tile_n\":2048,\"input_buffer_count\":4,\"combine_scopes\":false}": {
      "compile_time_ms": 1623.818884138018,
      "lower_time_ms": 18513.273739954457,
      "evaluation_times_ms": [
        16.186,
        16.186,
        16.187,
        16.181,
        16.185
      ],
      "metadata": {},
      "peak_memory_mb": 12348.08576
    }
  },
  "{\"lhs\":\"bf16[327680,2880]\",\"rhs\":\"bf16[128,2880,2880]\",\"group_sizes\":{\"num_groups\":128,\"total_size\":327680},\"ragged_dot_dimension_numbers\":{\"dot_dimension_numbers\":[[[1],[2]],[[],[]]],\"lhs_ragged_dimensions\":[0],\"rhs_group_dimensions\":[0]},\"precision\":[\"DEFAULT\",\"DEFAULT\"],\"preferred_element_type\":\"bfloat16\",\"return_residuals\":false,\"activation\":null}": {
    "{\"tile_m\":512,\"tile_k\":2944,\"tile_n\":1536,\"input_buffer_count\":2,\"combine_scopes\":false}": {
      "compile_time_ms": 3380.3530889563262,
      "lower_time_ms": 7187.225823989138,
      "evaluation_times_ms": [
        15.679,
        15.695,
        15.696,
        15.668,
        15.674
      ],
      "metadata": {},
      "peak_memory_mb": 11927.571456
    }
  },
  "{\"lhs\":\"bf16[327680,2880]\",\"rhs\":\"bf16[327680,2880]\",\"group_sizes\":{\"num_groups\":128,\"total_size\":327680},\"ragged_dot_dimension_numbers\":{\"dot_dimension_numbers\":[[[0],[0]],[[],[]]],\"lhs_ragged_dimensions\":[0],\"rhs_group_dimensions\":[]},\"precision\":[\"DEFAULT\",\"DEFAULT\"],\"preferred_element_type\":\"bfloat16\",\"return_residuals\":false,\"activation\":null}": {
    "{\"tile_m\":512,\"tile_k\":2944,\"tile_n\":768,\"input_buffer_count\":2,\"combine_scopes\":false}": {
      "compile_time_ms": 2034.443129785359,
      "lower_time_ms": 2479.12497096695,
      "evaluation_times_ms": [
        17.046,
        17.02,
        17.017,
        17.025,
        17.018
      ],
      "metadata": {},
      "peak_memory_mb": 9998.191616
    }
  },
  "{\"lhs\":\"bf16[393216,768]\",\"rhs\":\"bf16[128,2048,768]\",\"group_sizes\":{\"num_groups\":128,\"total_size\":393216},\"ragged_dot_dimension_numbers\":{\"dot_dimension_numbers\":[[[1],[2]],[[],[]]],\"lhs_ragged_dimensions\":[0],\"rhs_group_dimensions\":[0]},\"precision\":[\"DEFAULT\",\"DEFAULT\"],\"preferred_element_type\":\"bfloat16\",\"return_residuals\":false,\"activation\":null}": {
    "{\"tile_m\":1024,\"tile_k\":768,\"tile_n\":2048,\"input_buffer_count\":2,\"combine_scopes\":false}": {
      "compile_time_ms": 3866.3032869808376,
      "lower_time_ms": 5851.277785142884,
      "evaluation_times_ms": [
        1.942,
        1.941,
        1.941,
        1.941,
        1.942
      ],
      "metadata": {},
      "peak_memory_mb": 2617.272832
    }
  },
  "{\"lhs\":\"bf16[393216,2048]\",\"rhs\":\"bf16[393216,768]\",\"group_sizes\":{\"num_groups\":128,\"total_size\":393216},\"ragged_dot_dimension_numbers\":{\"dot_dimension_numbers\":[[[0],[0]],[[],[]]],\"lhs_ragged_dimensions\":[0],\"rhs_group_dimensions\":[]},\"precision\":[\"DEFAULT\",\"DEFAULT\"],\"preferred_element_type\":\"bfloat16\",\"return_residuals\":false,\"activation\":null}": {
    "{\"tile_m\":512,\"tile_k\":2048,\"tile_n\":768,\"input_buffer_count\":4,\"combine_scopes\":false}": {
      "compile_time_ms": 28600.058238953352,
      "lower_time_ms": 5675.413917051628,
      "evaluation_times_ms": [
        2.069,
        2.07,
        2.07,
        2.069,
        2.07
      ],
      "metadata": {},
      "peak_memory_mb": 2617.281024
    }
  },
  "{\"lhs\":\"bf16[393216,2048]\",\"rhs\":\"bf16[128,768,2048]\",\"group_sizes\":{\"num_groups\":128,\"total_size\":393216},\"ragged_dot_dimension_numbers\":{\"dot_dimension_numbers\":[[[1],[2]],[[],[]]],\"lhs_ragged_dimensions\":[0],\"rhs_group_dimensions\":[0]},\"precision\":[\"DEFAULT\",\"DEFAULT\"],\"preferred_element_type\":\"bfloat16\",\"return_residuals\":false,\"activation\":null}": {
    "{\"tile_m\":512,\"tile_k\":2048,\"tile_n\":768,\"input_buffer_count\":2,\"combine_scopes\":false}": {
      "compile_time_ms": 6774.903659010306,
      "lower_time_ms": 13733.80298097618,
      "evaluation_times_ms": [
        1.915,
        1.916,
        1.917,
        1.917,
        1.916
      ],
      "metadata": {},
      "peak_memory_mb": 2617.281024
    }
  },
  "{\"lhs\":\"bf16[393216,768]\",\"rhs\":\"bf16[393216,2048]\",\"group_sizes\":{\"num_groups\":128,\"total_size\":393216},\"ragged_dot_dimension_numbers\":{\"dot_dimension_numbers\":[[[0],[0]],[[],[]]],\"lhs_ragged_dimensions\":[0],\"rhs_group_dimensions\":[]},\"precision\":[\"DEFAULT\",\"DEFAULT\"],\"preferred_element_type\":\"bfloat16\",\"return_residuals\":false,\"activation\":null}": {
    "{\"tile_m\":512,\"tile_k\":768,\"tile_n\":2048,\"input_buffer_count\":4,\"combine_scopes\":false}": {
      "compile_time_ms": 25772.99387799576,
      "lower_time_ms": 21242.40942997858,
      "evaluation_times_ms": [
        2.068,
        2.065,
        2.066,
        2.067,
        2.065
      ],
      "metadata": {},
      "peak_memory_mb": 2617.281024
    }
  },
  "{\"lhs\":\"bf16[524288,1536]\",\"rhs\":\"bf16[128,4096,1536]\",\"group_sizes\":{\"num_groups\":128,\"total_size\":524288},\"ragged_dot_dimension_numbers\":{\"dot_dimension_numbers\":[[[1],[2]],[[],[]]],\"lhs_ragged_dimensions\":[0],\"rhs_group_dimensions\":[0]},\"precision\":[\"DEFAULT\",\"DEFAULT\"],\"preferred_element_type\":\"bfloat16\",\"return_residuals\":false,\"activation\":null}": {
    "{\"tile_m\":1024,\"tile_k\":1536,\"tile_n\":1024,\"input_buffer_count\":2,\"combine_scopes\":false}": {
      "compile_time_ms": 3213.5828020982444,
      "lower_time_ms": 15114.658795995638,
      "evaluation_times_ms": [
        9.467,
        9.468,
        9.468,
        9.467,
        9.468
      ],
      "metadata": {},
      "peak_memory_mb": 7516.226048
    }
  },
  "{\"lhs\":\"bf16[524288,4096]\",\"rhs\":\"bf16[524288,1536]\",\"group_sizes\":{\"num_groups\":128,\"total_size\":524288},\"ragged_dot_dimension_numbers\":{\"dot_dimension_numbers\":[[[0],[0]],[[],[]]],\"lhs_ragged_dimensions\":[0],\"rhs_group_dimensions\":[]},\"precision\":[\"DEFAULT\",\"DEFAULT\"],\"preferred_element_type\":\"bfloat16\",\"return_residuals\":false,\"activation\":null}": {
    "{\"tile_m\":1024,\"tile_k\":1024,\"tile_n\":1536,\"input_buffer_count\":2,\"combine_scopes\":false}": {
      "compile_time_ms": 15012.149487854913,
      "lower_time_ms": 62163.30833104439,
      "evaluation_times_ms": [
        10.032,
        10.032,
        10.028,
        10.03,
        10.03
      ],
      "metadata": {},
      "peak_memory_mb": 7516.226048
    }
  },
  "{\"lhs\":\"bf16[524288,4096]\",\"rhs\":\"bf16[128,1536,4096]\",\"group_sizes\":{\"num_groups\":128,\"total_size\":524288},\"ragged_dot_dimension_numbers\":{\"dot_dimension_numbers\":[[[1],[2]],[[],[]]],\"lhs_ragged_dimensions\":[0],\"rhs_group_dimensions\":[0]},\"precision\":[\"DEFAULT\",\"DEFAULT\"],\"preferred_element_type\":\"bfloat16\",\"return_residuals\":false,\"activation\":null}": {
    "{\"tile_m\":1024,\"tile_k\":1024,\"tile_n\":1536,\"input_buffer_count\":2,\"combine_scopes\":false}": {
      "compile_time_ms": 14193.720599170774,
      "lower_time_ms": 10878.31084500067,
      "evaluation_times_ms": [
        9.8,
        9.8,
        9.8,
        9.801,
        9.801
      ],
      "metadata": {},
      "peak_memory_mb": 7516.226048
    }
  },
  "{\"lhs\":\"bf16[524288,1536]\",\"rhs\":\"bf16[524288,4096]\",\"group_sizes\":{\"num_groups\":128,\"total_size\":524288},\"ragged_dot_dimension_numbers\":{\"dot_dimension_numbers\":[[[0],[0]],[[],[]]],\"lhs_ragged_dimensions\":[0],\"rhs_group_dimensions\":[]},\"precision\":[\"DEFAULT\",\"DEFAULT\"],\"preferred_element_type\":\"bfloat16\",\"return_residuals\":false,\"activation\":null}": {
    "{\"tile_m\":512,\"tile_k\":512,\"tile_n\":4096,\"input_buffer_count\":2,\"combine_scopes\":false}": {
      "compile_time_ms": 3153.241469990462,
      "lower_time_ms": 19700.810360955074,
      "evaluation_times_ms": [
        9.913,
        9.917,
        9.92,
        9.916,
        9.918
      ],
      "metadata": {},
      "peak_memory_mb": 7516.24448
    }
  },
  "{\"lhs\":\"bf16[524288,2048]\",\"rhs\":\"bf16[256,7168,2048]\",\"group_sizes\":{\"num_groups\":256,\"total_size\":524288},\"ragged_dot_dimension_numbers\":{\"dot_dimension_numbers\":[[[1],[2]],[[],[]]],\"lhs_ragged_dimensions\":[0],\"rhs_group_dimensions\":[0]},\"precision\":[\"DEFAULT\",\"DEFAULT\"],\"preferred_element_type\":\"bfloat16\",\"return_residuals\":false,\"activation\":null}": {
    "{\"tile_m\":512,\"tile_k\":2048,\"tile_n\":1024,\"input_buffer_count\":2,\"combine_scopes\":false}": {
      "compile_time_ms": 7634.810314048082,
      "lower_time_ms": 10744.802372995764,
      "evaluation_times_ms": [
        23.466,
        23.478,
        23.474,
        23.479,
        23.48
      ],
      "metadata": {},
      "peak_memory_mb": 17179.923968
    }
  },
  "{\"lhs\":\"bf16[524288,7168]\",\"rhs\":\"bf16[524288,2048]\",\"group_sizes\":{\"num_groups\":256,\"total_size\":524288},\"ragged_dot_dimension_numbers\":{\"dot_dimension_numbers\":[[[0],[0]],[[],[]]],\"lhs_ragged_dimensions\":[0],\"rhs_group_dimensions\":[]},\"precision\":[\"DEFAULT\",\"DEFAULT\"],\"preferred_element_type\":\"bfloat16\",\"return_residuals\":false,\"activation\":null}": {
    "{\"tile_m\":512,\"tile_k\":1024,\"tile_n\":2048,\"input_buffer_count\":4,\"combine_scopes\":false}": {
      "compile_time_ms": 1719.7792038787156,
      "lower_time_ms": 21091.16389718838,
      "evaluation_times_ms": [
        26.263,
        26.261,
        26.264,
        26.269,
        26.267
      ],
      "metadata": {},
      "peak_memory_mb": 17179.923968
    }
  },
  "{\"lhs\":\"bf16[262144,1536]\",\"rhs\":\"bf16[128,4096,1536]\",\"group_sizes\":{\"num_groups\":128,\"total_size\":262144},\"ragged_dot_dimension_numbers\":{\"dot_dimension_numbers\":[[[1],[2]],[[],[]]],\"lhs_ragged_dimensions\":[0],\"rhs_group_dimensions\":[0]},\"precision\":[\"DEFAULT\",\"DEFAULT\"],\"preferred_element_type\":\"bfloat16\",\"return_residuals\":false,\"activation\":null}": {
    "{\"tile_m\":512,\"tile_k\":1536,\"tile_n\":1024,\"input_buffer_count\":2,\"combine_scopes\":false}": {
      "compile_time_ms": 10561.049151001498,
      "lower_time_ms": 36373.250775039196,
      "evaluation_times_ms": [
        5.471,
        5.48,
        5.473,
        5.478,
        5.475
      ],
      "metadata": {},
      "peak_memory_mb": 4563.436032
    }
  },
  "{\"lhs\":\"bf16[262144,4096]\",\"rhs\":\"bf16[262144,1536]\",\"group_sizes\":{\"num_groups\":128,\"total_size\":262144},\"ragged_dot_dimension_numbers\":{\"dot_dimension_numbers\":[[[0],[0]],[[],[]]],\"lhs_ragged_dimensions\":[0],\"rhs_group_dimensions\":[]},\"precision\":[\"DEFAULT\",\"DEFAULT\"],\"preferred_element_type\":\"bfloat16\",\"return_residuals\":false,\"activation\":null}": {
    "{\"tile_m\":256,\"tile_k\":4096,\"tile_n\":512,\"input_buffer_count\":4,\"combine_scopes\":false}": {
      "compile_time_ms": 8450.291087152436,
      "lower_time_ms": 39577.466354938224,
      "evaluation_times_ms": [
        5.929,
        5.933,
        5.932,
        5.934,
        5.927
      ],
      "metadata": {},
      "peak_memory_mb": 4563.454464
    }
  },
  "{\"lhs\":\"bf16[262144,4096]\",\"rhs\":\"bf16[128,1536,4096]\",\"group_sizes\":{\"num_groups\":128,\"total_size\":262144},\"ragged_dot_dimension_numbers\":{\"dot_dimension_numbers\":[[[1],[2]],[[],[]]],\"lhs_ragged_dimensions\":[0],\"rhs_group_dimensions\":[0]},\"precision\":[\"DEFAULT\",\"DEFAULT\"],\"preferred_element_type\":\"bfloat16\",\"return_residuals\":false,\"activation\":null}": {
    "{\"tile_m\":1024,\"tile_k\":1024,\"tile_n\":1536,\"input_buffer_count\":2,\"combine_scopes\":false}": {
      "compile_time_ms": 12768.694452010095,
      "lower_time_ms": 27519.69500584528,
      "evaluation_times_ms": [
        5.907,
        5.907,
        5.907,
        5.908,
        5.908
      ],
      "metadata": {},
      "peak_memory_mb": 4563.432448
    }
  },
  "{\"lhs\":\"bf16[262144,1536]\",\"rhs\":\"bf16[262144,4096]\",\"group_sizes\":{\"num_groups\":128,\"total_size\":262144},\"ragged_dot_dimension_numbers\":{\"dot_dimension_numbers\":[[[0],[0]],[[],[]]],\"lhs_ragged_dimensions\":[0],\"rhs_group_dimensions\":[]},\"precision\":[\"DEFAULT\",\"DEFAULT\"],\"preferred_element_type\":\"bfloat16\",\"return_residuals\":false,\"activation\":null}": {
    "{\"tile_m\":256,\"tile_k\":512,\"tile_n\":4096,\"input_buffer_count\":4,\"combine_scopes\":false}": {
      "compile_time_ms": 28257.527174195275,
      "lower_time_ms": 15520.985978888348,
      "evaluation_times_ms": [
        5.819,
        5.818,
        5.816,
        5.817,
        5.822
      ],
      "metadata": {},
      "peak_memory_mb": 4563.454464
    }
  },
  "{\"lhs\":\"bf16[131072,2048]\",\"rhs\":\"bf16[128,7168,2048]\",\"group_sizes\":{\"num_groups\":128,\"total_size\":131072},\"ragged_dot_dimension_numbers\":{\"dot_dimension_numbers\":[[[1],[2]],[[],[]]],\"lhs_ragged_dimensions\":[0],\"rhs_group_dimensions\":[0]},\"precision\":[\"DEFAULT\",\"DEFAULT\"],\"preferred_element_type\":\"bfloat16\",\"return_residuals\":false,\"activation\":null}": {
    "{\"tile_m\":512,\"tile_k\":2048,\"tile_n\":1024,\"input_buffer_count\":2,\"combine_scopes\":false}": {
      "compile_time_ms": 4841.53650701046,
      "lower_time_ms": 12974.856252083555,
      "evaluation_times_ms": [
        7.108,
        7.111,
        7.108,
        7.111,
        7.11
      ],
      "metadata": {},
      "peak_memory_mb": 6174.045184
    }
  },
  "{\"lhs\":\"bf16[131072,7168]\",\"rhs\":\"bf16[131072,2048]\",\"group_sizes\":{\"num_groups\":128,\"total_size\":131072},\"ragged_dot_dimension_numbers\":{\"dot_dimension_numbers\":[[[0],[0]],[[],[]]],\"lhs_ragged_dimensions\":[0],\"rhs_group_dimensions\":[]},\"precision\":[\"DEFAULT\",\"DEFAULT\"],\"preferred_element_type\":\"bfloat16\",\"return_residuals\":false,\"activation\":null}": {
    "{\"tile_m\":256,\"tile_k\":1024,\"tile_n\":2048,\"input_buffer_count\":4,\"combine_scopes\":false}": {
      "compile_time_ms": 10847.52359194681,
      "lower_time_ms": 70839.64998996817,
      "evaluation_times_ms": [
        8.116,
        8.112,
        8.114,
        8.114,
        8.114
      ],
      "metadata": {},
      "peak_memory_mb": 6174.048768
    }
  },
  "{\"lhs\":\"bf16[131072,768]\",\"rhs\":\"bf16[128,2048,768]\",\"group_sizes\":{\"num_groups\":128,\"total_size\":131072},\"ragged_dot_dimension_numbers\":{\"dot_dimension_numbers\":[[[1],[2]],[[],[]]],\"lhs_ragged_dimensions\":[0],\"rhs_group_dimensions\":[0]},\"precision\":[\"DEFAULT\",\"DEFAULT\"],\"preferred_element_type\":\"bfloat16\",\"return_residuals\":false,\"activation\":null}": {
    "{\"tile_m\":512,\"tile_k\":1024,\"tile_n\":768,\"input_buffer_count\":2,\"combine_scopes\":false}": {
      "compile_time_ms": 4205.79030085355,
      "lower_time_ms": 6437.874623108655,
      "evaluation_times_ms": [
        1.61,
        1.611,
        1.612,
        1.61,
        1.61
      ],
      "metadata": {},
      "peak_memory_mb": 1140.880384
    }
  },
  "{\"lhs\":\"bf16[131072,2048]\",\"rhs\":\"bf16[131072,768]\",\"group_sizes\":{\"num_groups\":128,\"total_size\":131072},\"ragged_dot_dimension_numbers\":{\"dot_dimension_numbers\":[[[0],[0]],[[],[]]],\"lhs_ragged_dimensions\":[0],\"rhs_group_dimensions\":[]},\"precision\":[\"DEFAULT\",\"DEFAULT\"],\"preferred_element_type\":\"bfloat16\",\"return_residuals\":false,\"activation\":null}": {
    "{\"tile_m\":256,\"tile_k\":2048,\"tile_n\":768,\"input_buffer_count\":4,\"combine_scopes\":false}": {
      "compile_time_ms": 18936.705496860668,
      "lower_time_ms": 62595.70597996935,
      "evaluation_times_ms": [
        0.976,
        0.976,
        0.977,
        0.977,
        0.975
      ],
      "metadata": {},
      "peak_memory_mb": 1140.883968
    }
  },
  "{\"lhs\":\"bf16[131072,1536]\",\"rhs\":\"bf16[128,4096,1536]\",\"group_sizes\":{\"num_groups\":128,\"total_size\":131072},\"ragged_dot_dimension_numbers\":{\"dot_dimension_numbers\":[[[1],[2]],[[],[]]],\"lhs_ragged_dimensions\":[0],\"rhs_group_dimensions\":[0]},\"precision\":[\"DEFAULT\",\"DEFAULT\"],\"preferred_element_type\":\"bfloat16\",\"return_residuals\":false,\"activation\":null}": {
    "{\"tile_m\":512,\"tile_k\":1536,\"tile_n\":1024,\"input_buffer_count\":2,\"combine_scopes\":false}": {
      "compile_time_ms": 889.898374909535,
      "lower_time_ms": 23068.325260886922,
      "evaluation_times_ms": [
        3.359,
        3.36,
        3.359,
        3.362,
        3.364
      ],
      "metadata": {},
      "peak_memory_mb": 3087.03744
    }
  },
  "{\"lhs\":\"bf16[131072,4096]\",\"rhs\":\"bf16[131072,1536]\",\"group_sizes\":{\"num_groups\":128,\"total_size\":131072},\"ragged_dot_dimension_numbers\":{\"dot_dimension_numbers\":[[[0],[0]],[[],[]]],\"lhs_ragged_dimensions\":[0],\"rhs_group_dimensions\":[]},\"precision\":[\"DEFAULT\",\"DEFAULT\"],\"preferred_element_type\":\"bfloat16\",\"return_residuals\":false,\"activation\":null}": {
    "{\"tile_m\":256,\"tile_k\":4096,\"tile_n\":512,\"input_buffer_count\":4,\"combine_scopes\":false}": {
      "compile_time_ms": 13275.19821911119,
      "lower_time_ms": 28700.51045808941,
      "evaluation_times_ms": [
        3.491,
        3.491,
        3.491,
        3.488,
        3.488
      ],
      "metadata": {},
      "peak_memory_mb": 3087.041024
    }
  },
  "{\"lhs\":\"bf16[131072,4096]\",\"rhs\":\"bf16[128,1536,4096]\",\"group_sizes\":{\"num_groups\":128,\"total_size\":131072},\"ragged_dot_dimension_numbers\":{\"dot_dimension_numbers\":[[[1],[2]],[[],[]]],\"lhs_ragged_dimensions\":[0],\"rhs_group_dimensions\":[0]},\"precision\":[\"DEFAULT\",\"DEFAULT\"],\"preferred_element_type\":\"bfloat16\",\"return_residuals\":false,\"activation\":null}": {
    "{\"tile_m\":512,\"tile_k\":1024,\"tile_n\":1536,\"input_buffer_count\":2,\"combine_scopes\":false}": {
      "compile_time_ms": 13444.335171021521,
      "lower_time_ms": 17871.435136999935,
      "evaluation_times_ms": [
        3.537,
        3.54,
        3.542,
        3.537,
        3.537
      ],
      "metadata": {},
      "peak_memory_mb": 3087.03744
    }
  },
  "{\"lhs\":\"bf16[131072,1536]\",\"rhs\":\"bf16[131072,4096]\",\"group_sizes\":{\"num_groups\":128,\"total_size\":131072},\"ragged_dot_dimension_numbers\":{\"dot_dimension_numbers\":[[[0],[0]],[[],[]]],\"lhs_ragged_dimensions\":[0],\"rhs_group_dimensions\":[]},\"precision\":[\"DEFAULT\",\"DEFAULT\"],\"preferred_element_type\":\"bfloat16\",\"return_residuals\":false,\"activation\":null}": {
    "{\"tile_m\":256,\"tile_k\":512,\"tile_n\":4096,\"input_buffer_count\":4,\"combine_scopes\":false}": {
      "compile_time_ms": 1748.1090219225734,
      "lower_time_ms": 2145.1847800053656,
      "evaluation_times_ms": [
        3.453,
        3.454,
        3.453,
        3.453,
        3.454
      ],
      "metadata": {},
      "peak_memory_mb": 3087.041024
    }
  },
  "{\"lhs\":\"bf16[131072,2048]\",\"rhs\":\"bf16[256,7168,2048]\",\"group_sizes\":{\"num_groups\":256,\"total_size\":131072},\"ragged_dot_dimension_numbers\":{\"dot_dimension_numbers\":[[[1],[2]],[[],[]]],\"lhs_ragged_dimensions\":[0],\"rhs_group_dimensions\":[0]},\"precision\":[\"DEFAULT\",\"DEFAULT\"],\"preferred_element_type\":\"bfloat16\",\"return_residuals\":false,\"activation\":null}": {
    "{\"tile_m\":512,\"tile_k\":2048,\"tile_n\":1792,\"input_buffer_count\":2,\"combine_scopes\":false}": {
      "compile_time_ms": 19031.002573203295,
      "lower_time_ms": 12995.843142969534,
      "evaluation_times_ms": [
        8.714,
        8.714,
        8.713,
        8.713,
        8.714
      ],
      "metadata": {},
      "peak_memory_mb": 9932.143616
    }
  },
  "{\"lhs\":\"bf16[131072,7168]\",\"rhs\":\"bf16[131072,2048]\",\"group_sizes\":{\"num_groups\":256,\"total_size\":131072},\"ragged_dot_dimension_numbers\":{\"dot_dimension_numbers\":[[[0],[0]],[[],[]]],\"lhs_ragged_dimensions\":[0],\"rhs_group_dimensions\":[]},\"precision\":[\"DEFAULT\",\"DEFAULT\"],\"preferred_element_type\":\"bfloat16\",\"return_residuals\":false,\"activation\":null}": {
    "{\"tile_m\":256,\"tile_k\":1024,\"tile_n\":2048,\"input_buffer_count\":4,\"combine_scopes\":false}": {
      "compile_time_ms": 8324.910718016326,
      "lower_time_ms": 51354.87168794498,
      "evaluation_times_ms": [
        10.541,
        10.536,
        10.539,
        10.542,
        10.541
      ],
      "metadata": {},
      "peak_memory_mb": 9932.148224
    }
  },
  "{\"lhs\":\"bf16[65536,2048]\",\"rhs\":\"bf16[256,7168,2048]\",\"group_sizes\":{\"num_groups\":256,\"total_size\":65536},\"ragged_dot_dimension_numbers\":{\"dot_dimension_numbers\":[[[1],[2]],[[],[]]],\"lhs_ragged_dimensions\":[0],\"rhs_group_dimensions\":[0]},\"precision\":[\"DEFAULT\",\"DEFAULT\"],\"preferred_element_type\":\"bfloat16\",\"return_residuals\":false,\"activation\":null}": {
    "{\"tile_m\":256,\"tile_k\":2048,\"tile_n\":2048,\"input_buffer_count\":2,\"combine_scopes\":false}": {
      "compile_time_ms": 17537.865632912144,
      "lower_time_ms": 26480.971012962982,
      "evaluation_times_ms": [
        6.36,
        6.355,
        6.357,
        6.359,
        6.356
      ],
      "metadata": {},
      "peak_memory_mb": 8724.184064
    }
  },
  "{\"lhs\":\"bf16[65536,7168]\",\"rhs\":\"bf16[65536,2048]\",\"group_sizes\":{\"num_groups\":256,\"total_size\":65536},\"ragged_dot_dimension_numbers\":{\"dot_dimension_numbers\":[[[0],[0]],[[],[]]],\"lhs_ragged_dimensions\":[0],\"rhs_group_dimensions\":[]},\"precision\":[\"DEFAULT\",\"DEFAULT\"],\"preferred_element_type\":\"bfloat16\",\"return_residuals\":false,\"activation\":null}": {
    "{\"tile_m\":256,\"tile_k\":1024,\"tile_n\":2048,\"input_buffer_count\":4,\"combine_scopes\":false}": {
      "compile_time_ms": 13581.736654043198,
      "lower_time_ms": 14336.875742999837,
      "evaluation_times_ms": [
        7.73,
        7.732,
        7.732,
        7.732,
        7.73
      ],
      "metadata": {},
      "peak_memory_mb": 8724.184576
    }
  },
  "{\"lhs\":\"bf16[262144,7168]\",\"rhs\":\"bf16[256,512,7168]\",\"group_sizes\":{\"num_groups\":256,\"total_size\":262144},\"ragged_dot_dimension_numbers\":{\"dot_dimension_numbers\":[[[1],[2]],[[],[]]],\"lhs_ragged_dimensions\":[0],\"rhs_group_dimensions\":[0]},\"precision\":[\"DEFAULT\",\"DEFAULT\"],\"preferred_element_type\":\"bfloat16\",\"return_residuals\":false,\"activation\":null}": {
    "{\"tile_m\":256,\"tile_k\":7168,\"tile_n\":512,\"input_buffer_count\":2,\"combine_scopes\":false}": {
      "compile_time_ms": 1518.4381718281657,
      "lower_time_ms": 3830.7437740731984,
      "evaluation_times_ms": [
        3.317,
        3.315,
        3.314,
        3.315,
        3.314
      ],
      "metadata": {},
      "peak_memory_mb": 5905.634816
    }
  },
  "{\"lhs\":\"bf16[262144,512]\",\"rhs\":\"bf16[262144,7168]\",\"group_sizes\":{\"num_groups\":256,\"total_size\":262144},\"ragged_dot_dimension_numbers\":{\"dot_dimension_numbers\":[[[0],[0]],[[],[]]],\"lhs_ragged_dimensions\":[0],\"rhs_group_dimensions\":[]},\"precision\":[\"DEFAULT\",\"DEFAULT\"],\"preferred_element_type\":\"bfloat16\",\"return_residuals\":false,\"activation\":null}": {
    "{\"tile_m\":256,\"tile_k\":512,\"tile_n\":3584,\"input_buffer_count\":4,\"combine_scopes\":false}": {
      "compile_time_ms": 20072.382671991363,
      "lower_time_ms": 37580.63852391206,
      "evaluation_times_ms": [
        4.178,
        4.179,
        4.179,
        4.181,
        4.179
      ],
      "metadata": {},
      "peak_memory_mb": 5905.634816
    }
  },
  "{\"lhs\":\"bf16[262144,7168]\",\"rhs\":\"bf16[256,7168,2048]\",\"group_sizes\":{\"num_groups\":256,\"total_size\":262144},\"ragged_dot_dimension_numbers\":{\"dot_dimension_numbers\":[[[1],[1]],[[],[]]],\"lhs_ragged_dimensions\":[0],\"rhs_group_dimensions\":[0]},\"precision\":[\"DEFAULT\",\"DEFAULT\"],\"preferred_element_type\":null,\"return_residuals\":false,\"activation\":null}": {
    "{\"tile_m\":128,\"tile_k\":7168,\"tile_n\":1024,\"input_buffer_count\":2,\"combine_scopes\":false}": {
      "compile_time_ms": 7715.876658912748,
      "lower_time_ms": 9589.10133712925,
      "evaluation_times_ms": [
        12.387,
        12.38,
        12.382,
        12.382,
        12.381
      ],
      "metadata": {},
      "peak_memory_mb": 12348.10624
    }
  },
  "{\"lhs\":\"bf16[262144,7168]\",\"rhs\":\"bf16[256,7168,2048]\",\"group_sizes\":{\"num_groups\":256,\"total_size\":262144},\"ragged_dot_dimension_numbers\":{\"dot_dimension_numbers\":[[[1],[1]],[[],[]]],\"lhs_ragged_dimensions\":[0],\"rhs_group_dimensions\":[0]},\"precision\":[\"DEFAULT\",\"DEFAULT\"],\"preferred_element_type\":null,\"return_residuals\":true,\"activation\":null}": {
    "{\"tile_m\":128,\"tile_k\":7168,\"tile_n\":1024,\"input_buffer_count\":2,\"combine_scopes\":false}": {
      "compile_time_ms": 8959.713200107217,
      "lower_time_ms": 874.3852369952947,
      "evaluation_times_ms": [
        13.055,
        13.06,
        13.061,
        13.057,
        13.058
      ],
      "metadata": {},
      "peak_memory_mb": 13421.848096
    }
  },
  "{\"lhs\":\"bf16[327680,2880]\",\"rhs\":\"bf16[128,2880,2880]\",\"group_sizes\":{\"num_groups\":128,\"total_size\":327680},\"ragged_dot_dimension_numbers\":{\"dot_dimension_numbers\":[[[1],[1]],[[],[]]],\"lhs_ragged_dimensions\":[0],\"rhs_group_dimensions\":[0]},\"precision\":[\"DEFAULT\",\"DEFAULT\"],\"preferred_element_type\":null,\"return_residuals\":false,\"activation\":null}": {
    "{\"tile_m\":512,\"tile_k\":2944,\"tile_n\":1536,\"input_buffer_count\":2,\"combine_scopes\":false}": {
      "compile_time_ms": 2009.1600439045578,
      "lower_time_ms": 2743.9971519634128,
      "evaluation_times_ms": [
        15.603,
        15.596,
        15.597,
        15.604,
        15.609
      ],
      "metadata": {},
      "peak_memory_mb": 11927.571456
    }
  },
  "{\"lhs\":\"bf16[327680,2880]\",\"rhs\":\"bf16[128,2880,2880]\",\"group_sizes\":{\"num_groups\":128,\"total_size\":327680},\"ragged_dot_dimension_numbers\":{\"dot_dimension_numbers\":[[[1],[1]],[[],[]]],\"lhs_ragged_dimensions\":[0],\"rhs_group_dimensions\":[0]},\"precision\":[\"DEFAULT\",\"DEFAULT\"],\"preferred_element_type\":null,\"return_residuals\":true,\"activation\":null}": {
    "{\"tile_m\":512,\"tile_k\":2944,\"tile_n\":1536,\"input_buffer_count\":2,\"combine_scopes\":false}": {
      "compile_time_ms": 5234.313297085464,
      "lower_time_ms": 4102.010912960395,
      "evaluation_times_ms": [
        16.75,
        16.753,
        16.77,
        16.765,
        16.772
      ],
      "metadata": {},
      "peak_memory_mb": 13815.008288
    }
  },
  "{\"lhs\":\"bf16[393216,2048]\",\"rhs\":\"bf16[128,2048,768]\",\"group_sizes\":{\"num_groups\":128,\"total_size\":393216},\"ragged_dot_dimension_numbers\":{\"dot_dimension_numbers\":[[[1],[1]],[[],[]]],\"lhs_ragged_dimensions\":[0],\"rhs_group_dimensions\":[0]},\"precision\":[\"DEFAULT\",\"DEFAULT\"],\"preferred_element_type\":null,\"return_residuals\":false,\"activation\":null}": {
    "{\"tile_m\":512,\"tile_k\":2048,\"tile_n\":768,\"input_buffer_count\":2,\"combine_scopes\":false}": {
      "compile_time_ms": 1183.9315898250788,
      "lower_time_ms": 25182.7386720106,
      "evaluation_times_ms": [
        1.883,
        1.882,
        1.884,
        1.882,
        1.882
      ],
      "metadata": {},
      "peak_memory_mb": 2617.281024
    }
  },
  "{\"lhs\":\"bf16[393216,2048]\",\"rhs\":\"bf16[128,2048,768]\",\"group_sizes\":{\"num_groups\":128,\"total_size\":393216},\"ragged_dot_dimension_numbers\":{\"dot_dimension_numbers\":[[[1],[1]],[[],[]]],\"lhs_ragged_dimensions\":[0],\"rhs_group_dimensions\":[0]},\"precision\":[\"DEFAULT\",\"DEFAULT\"],\"preferred_element_type\":null,\"return_residuals\":true,\"activation\":null}": {
    "{\"tile_m\":512,\"tile_k\":2048,\"tile_n\":768,\"input_buffer_count\":2,\"combine_scopes\":false}": {
      "compile_time_ms": 5980.534113943577,
      "lower_time_ms": 19629.991239169613,
      "evaluation_times_ms": [
        2.257,
        2.255,
        2.257,
        2.256,
        2.255
      ],
      "metadata": {},
      "peak_memory_mb": 3221.260832
    }
  },
  "{\"lhs\":\"bf16[393216,768]\",\"rhs\":\"bf16[128,768,2048]\",\"group_sizes\":{\"num_groups\":128,\"total_size\":393216},\"ragged_dot_dimension_numbers\":{\"dot_dimension_numbers\":[[[1],[1]],[[],[]]],\"lhs_ragged_dimensions\":[0],\"rhs_group_dimensions\":[0]},\"precision\":[\"DEFAULT\",\"DEFAULT\"],\"preferred_element_type\":null,\"return_residuals\":false,\"activation\":null}": {
    "{\"tile_m\":1024,\"tile_k\":768,\"tile_n\":2048,\"input_buffer_count\":2,\"combine_scopes\":false}": {
      "compile_time_ms": 5569.604027085006,
      "lower_time_ms": 28327.695936895907,
      "evaluation_times_ms": [
        1.922,
        1.922,
        1.922,
        1.923,
        1.923
      ],
      "metadata": {},
      "peak_memory_mb": 2617.272832
    }
  },
  "{\"lhs\":\"bf16[393216,768]\",\"rhs\":\"bf16[128,768,2048]\",\"group_sizes\":{\"num_groups\":128,\"total_size\":393216},\"ragged_dot_dimension_numbers\":{\"dot_dimension_numbers\":[[[1],[1]],[[],[]]],\"lhs_ragged_dimensions\":[0],\"rhs_group_dimensions\":[0]},\"precision\":[\"DEFAULT\",\"DEFAULT\"],\"preferred_element_type\":null,\"return_residuals\":true,\"activation\":null}": {
    "{\"tile_m\":1024,\"tile_k\":768,\"tile_n\":2048,\"input_buffer_count\":2,\"combine_scopes\":false}": {
      "compile_time_ms": 16141.622087918222,
      "lower_time_ms": 7613.803675863892,
      "evaluation_times_ms": [
        2.917,
        2.917,
        2.916,
        2.917,
        2.916
      ],
      "metadata": {},
      "peak_memory_mb": 4227.8856
    }
  },
  "{\"lhs\":\"bf16[524288,4096]\",\"rhs\":\"bf16[128,4096,1536]\",\"group_sizes\":{\"num_groups\":128,\"total_size\":524288},\"ragged_dot_dimension_numbers\":{\"dot_dimension_numbers\":[[[1],[1]],[[],[]]],\"lhs_ragged_dimensions\":[0],\"rhs_group_dimensions\":[0]},\"precision\":[\"DEFAULT\",\"DEFAULT\"],\"preferred_element_type\":null,\"return_residuals\":false,\"activation\":null}": {
    "{\"tile_m\":256,\"tile_k\":4096,\"tile_n\":1536,\"input_buffer_count\":2,\"combine_scopes\":false}": {
      "compile_time_ms": 3342.840890167281,
      "lower_time_ms": 26121.704685967416,
      "evaluation_times_ms": [
        8.14,
        8.138,
        8.136,
        8.14,
        8.135
      ],
      "metadata": {},
      "peak_memory_mb": 7516.26496
    }
  },
  "{\"lhs\":\"bf16[524288,4096]\",\"rhs\":\"bf16[128,4096,1536]\",\"group_sizes\":{\"num_groups\":128,\"total_size\":524288},\"ragged_dot_dimension_numbers\":{\"dot_dimension_numbers\":[[[1],[1]],[[],[]]],\"lhs_ragged_dimensions\":[0],\"rhs_group_dimensions\":[0]},\"precision\":[\"DEFAULT\",\"DEFAULT\"],\"preferred_element_type\":null,\"return_residuals\":true,\"activation\":null}": {
    "{\"tile_m\":256,\"tile_k\":4096,\"tile_n\":1536,\"input_buffer_count\":2,\"combine_scopes\":false}": {
      "compile_time_ms": 8891.107532894239,
      "lower_time_ms": 9190.252351108938,
      "evaluation_times_ms": [
        9.133,
        9.137,
        9.134,
        9.133,
        9.132
      ],
      "metadata": {},
      "peak_memory_mb": 9126.877728
    }
  },
  "{\"lhs\":\"bf16[524288,1536]\",\"rhs\":\"bf16[128,1536,4096]\",\"group_sizes\":{\"num_groups\":128,\"total_size\":524288},\"ragged_dot_dimension_numbers\":{\"dot_dimension_numbers\":[[[1],[1]],[[],[]]],\"lhs_ragged_dimensions\":[0],\"rhs_group_dimensions\":[0]},\"precision\":[\"DEFAULT\",\"DEFAULT\"],\"preferred_element_type\":null,\"return_residuals\":false,\"activation\":null}": {
    "{\"tile_m\":256,\"tile_k\":1536,\"tile_n\":4096,\"input_buffer_count\":2,\"combine_scopes\":false}": {
      "compile_time_ms": 43528.07790203951,
      "lower_time_ms": 115261.93205011077,
      "evaluation_times_ms": [
        8.22,
        8.221,
        8.218,
        8.223,
        8.221
      ],
      "metadata": {},
      "peak_memory_mb": 7516.26496
    }
  },
  "{\"lhs\":\"bf16[524288,1536]\",\"rhs\":\"bf16[128,1536,4096]\",\"group_sizes\":{\"num_groups\":128,\"total_size\":524288},\"ragged_dot_dimension_numbers\":{\"dot_dimension_numbers\":[[[1],[1]],[[],[]]],\"lhs_ragged_dimensions\":[0],\"rhs_group_dimensions\":[0]},\"precision\":[\"DEFAULT\",\"DEFAULT\"],\"preferred_element_type\":null,\"return_residuals\":true,\"activation\":null}": {
    "{\"tile_m\":256,\"tile_k\":1536,\"tile_n\":4096,\"input_buffer_count\":2,\"combine_scopes\":false}": {
      "compile_time_ms": 35287.11862000637,
      "lower_time_ms": 81605.76257412322,
      "evaluation_times_ms": [
        10.876,
        10.877,
        10.879,
        10.877,
        10.878
      ],
      "metadata": {},
      "peak_memory_mb": 11811.232288
    }
  },
  "{\"lhs\":\"bf16[524288,7168]\",\"rhs\":\"bf16[256,7168,2048]\",\"group_sizes\":{\"num_groups\":256,\"total_size\":524288},\"ragged_dot_dimension_numbers\":{\"dot_dimension_numbers\":[[[1],[1]],[[],[]]],\"lhs_ragged_dimensions\":[0],\"rhs_group_dimensions\":[0]},\"precision\":[\"DEFAULT\",\"DEFAULT\"],\"preferred_element_type\":null,\"return_residuals\":false,\"activation\":null}": {
    "{\"tile_m\":512,\"tile_k\":7168,\"tile_n\":512,\"input_buffer_count\":2,\"combine_scopes\":false}": {
      "compile_time_ms": 13887.649428099394,
      "lower_time_ms": 24645.654644817114,
      "evaluation_times_ms": [
        21.419,
        21.416,
        21.419,
        21.417,
        21.419
      ],
      "metadata": {},
      "peak_memory_mb": 17179.923968
    }
  },
  "{\"lhs\":\"bf16[524288,7168]\",\"rhs\":\"bf16[256,7168,2048]\",\"group_sizes\":{\"num_groups\":256,\"total_size\":524288},\"ragged_dot_dimension_numbers\":{\"dot_dimension_numbers\":[[[1],[1]],[[],[]]],\"lhs_ragged_dimensions\":[0],\"rhs_group_dimensions\":[0]},\"precision\":[\"DEFAULT\",\"DEFAULT\"],\"preferred_element_type\":null,\"return_residuals\":true,\"activation\":null}": {
    "{\"tile_m\":512,\"tile_k\":7168,\"tile_n\":512,\"input_buffer_count\":2,\"combine_scopes\":false}": {
      "compile_time_ms": 59272.66519097611,
      "lower_time_ms": 5825.370599981397,
      "evaluation_times_ms": [
        22.75,
        22.748,
        22.742,
        22.749,
        22.746
      ],
      "metadata": {},
      "peak_memory_mb": 19327.407648
    }
  }
}
