{
  "{\"lhs\":\"bf16[131072,7168]\",\"rhs\":\"bf16[256,7168,1024]\",\"group_sizes\":{\"num_groups\":256,\"total_size\":131072},\"ragged_dot_dimension_numbers\":{\"dot_dimension_numbers\":[[[1],[1]],[[],[]]],\"lhs_ragged_dimensions\":[0],\"rhs_group_dimensions\":[0]},\"precision\":[\"DEFAULT\",\"DEFAULT\"],\"preferred_element_type\":null,\"return_residuals\":false,\"activation\":null}": {
    "{\"tile_m\":128,\"tile_k\":7168,\"tile_n\":1024,\"input_buffer_count\":2,\"combine_scopes\":false}": {
      "compile_time_ms": 4530.06797801936,
      "lower_time_ms": 31151.756422012113,
      "evaluation_times_ms": [
        3.605,
        3.608,
        3.608,
        3.607,
        3.607
      ],
      "metadata": {},
      "peak_memory_mb": 5905.62816
    }
  },
  "{\"lhs\":\"bf16[131072,7168]\",\"rhs\":\"bf16[256,7168,1024]\",\"group_sizes\":{\"num_groups\":256,\"total_size\":131072},\"ragged_dot_dimension_numbers\":{\"dot_dimension_numbers\":[[[1],[1]],[[],[]]],\"lhs_ragged_dimensions\":[0],\"rhs_group_dimensions\":[0]},\"precision\":[\"DEFAULT\",\"DEFAULT\"],\"preferred_element_type\":null,\"return_residuals\":true,\"activation\":null}": {
    "{\"tile_m\":128,\"tile_k\":7168,\"tile_n\":1024,\"input_buffer_count\":2,\"combine_scopes\":false}": {
      "compile_time_ms": 4548.020125017501,
      "lower_time_ms": 13598.719372006599,
      "evaluation_times_ms": [
        3.783,
        3.778,
        3.779,
        3.779,
        3.779
      ],
      "metadata": {},
      "peak_memory_mb": 6174.063648
    }
  },
  "{\"lhs\":\"bf16[131072,1024]\",\"rhs\":\"bf16[256,1024,7168]\",\"group_sizes\":{\"num_groups\":256,\"total_size\":131072},\"ragged_dot_dimension_numbers\":{\"dot_dimension_numbers\":[[[1],[1]],[[],[]]],\"lhs_ragged_dimensions\":[0],\"rhs_group_dimensions\":[0]},\"precision\":[\"DEFAULT\",\"DEFAULT\"],\"preferred_element_type\":null,\"return_residuals\":false,\"activation\":null}": {
    "{\"tile_m\":128,\"tile_k\":1024,\"tile_n\":7168,\"input_buffer_count\":2,\"combine_scopes\":false}": {
      "compile_time_ms": 9885.263044037856,
      "lower_time_ms": 43085.82114701858,
      "evaluation_times_ms": [
        3.772,
        3.773,
        3.773,
        3.773,
        3.772
      ],
      "metadata": {},
      "peak_memory_mb": 5905.62816
    }
  },
  "{\"lhs\":\"bf16[131072,1024]\",\"rhs\":\"bf16[256,1024,7168]\",\"group_sizes\":{\"num_groups\":256,\"total_size\":131072},\"ragged_dot_dimension_numbers\":{\"dot_dimension_numbers\":[[[1],[1]],[[],[]]],\"lhs_ragged_dimensions\":[0],\"rhs_group_dimensions\":[0]},\"precision\":[\"DEFAULT\",\"DEFAULT\"],\"preferred_element_type\":null,\"return_residuals\":true,\"activation\":null}": {
    "{\"tile_m\":128,\"tile_k\":1024,\"tile_n\":7168,\"input_buffer_count\":2,\"combine_scopes\":false}": {
      "compile_time_ms": 9561.174328031484,
      "lower_time_ms": 14055.553189013153,
      "evaluation_times_ms": [
        4.961,
        4.962,
        4.961,
        4.961,
        4.962
      ],
      "metadata": {},
      "peak_memory_mb": 7784.676384
    }
  },
  "{\"lhs\":\"bf16[131072,7168]\",\"rhs\":\"bf16[256,7168,512]\",\"group_sizes\":{\"num_groups\":256,\"total_size\":131072},\"ragged_dot_dimension_numbers\":{\"dot_dimension_numbers\":[[[1],[1]],[[],[]]],\"lhs_ragged_dimensions\":[0],\"rhs_group_dimensions\":[0]},\"precision\":[\"DEFAULT\",\"DEFAULT\"],\"preferred_element_type\":null,\"return_residuals\":false,\"activation\":null}": {
    "{\"tile_m\":256,\"tile_k\":7168,\"tile_n\":512,\"input_buffer_count\":2,\"combine_scopes\":false}": {
      "compile_time_ms": 607.4933700147085,
      "lower_time_ms": 66267.78407301754,
      "evaluation_times_ms": [
        1.923,
        1.918,
        1.916,
        1.924,
        1.921
      ],
      "metadata": {},
      "peak_memory_mb": 3892.343808
    }
  },
  "{\"lhs\":\"bf16[131072,7168]\",\"rhs\":\"bf16[256,7168,512]\",\"group_sizes\":{\"num_groups\":256,\"total_size\":131072},\"ragged_dot_dimension_numbers\":{\"dot_dimension_numbers\":[[[1],[1]],[[],[]]],\"lhs_ragged_dimensions\":[0],\"rhs_group_dimensions\":[0]},\"precision\":[\"DEFAULT\",\"DEFAULT\"],\"preferred_element_type\":null,\"return_residuals\":true,\"activation\":null}": {
    "{\"tile_m\":256,\"tile_k\":7168,\"tile_n\":512,\"input_buffer_count\":2,\"combine_scopes\":false}": {
      "compile_time_ms": 10388.908708991949,
      "lower_time_ms": 26037.517991964705,
      "evaluation_times_ms": [
        2.008,
        2.01,
        2.006,
        2.006,
        2.006
      ],
      "metadata": {},
      "peak_memory_mb": 4026.561568
    }
  },
  "{\"lhs\":\"bf16[131072,512]\",\"rhs\":\"bf16[256,512,7168]\",\"group_sizes\":{\"num_groups\":256,\"total_size\":131072},\"ragged_dot_dimension_numbers\":{\"dot_dimension_numbers\":[[[1],[1]],[[],[]]],\"lhs_ragged_dimensions\":[0],\"rhs_group_dimensions\":[0]},\"precision\":[\"DEFAULT\",\"DEFAULT\"],\"preferred_element_type\":null,\"return_residuals\":false,\"activation\":null}": {
    "{\"tile_m\":256,\"tile_k\":512,\"tile_n\":7168,\"input_buffer_count\":2,\"combine_scopes\":false}": {
      "compile_time_ms": 9452.72835798096,
      "lower_time_ms": 53857.71006002324,
      "evaluation_times_ms": [
        2.199,
        2.2,
        2.198,
        2.2,
        2.199
      ],
      "metadata": {},
      "peak_memory_mb": 3892.343808
    }
  },
  "{\"lhs\":\"bf16[131072,512]\",\"rhs\":\"bf16[256,512,7168]\",\"group_sizes\":{\"num_groups\":256,\"total_size\":131072},\"ragged_dot_dimension_numbers\":{\"dot_dimension_numbers\":[[[1],[1]],[[],[]]],\"lhs_ragged_dimensions\":[0],\"rhs_group_dimensions\":[0]},\"precision\":[\"DEFAULT\",\"DEFAULT\"],\"preferred_element_type\":null,\"return_residuals\":true,\"activation\":null}": {
    "{\"tile_m\":256,\"tile_k\":512,\"tile_n\":7168,\"input_buffer_count\":2,\"combine_scopes\":false}": {
      "compile_time_ms": 9676.212141988799,
      "lower_time_ms": 14141.462294966914,
      "evaluation_times_ms": [
        3.393,
        3.392,
        3.393,
        3.392,
        3.39
      ],
      "metadata": {},
      "peak_memory_mb": 5771.392032
    }
  },
  "{\"lhs\":\"bf16[262144,7168]\",\"rhs\":\"bf16[256,7168,512]\",\"group_sizes\":{\"num_groups\":256,\"total_size\":262144},\"ragged_dot_dimension_numbers\":{\"dot_dimension_numbers\":[[[1],[1]],[[],[]]],\"lhs_ragged_dimensions\":[0],\"rhs_group_dimensions\":[0]},\"precision\":[\"DEFAULT\",\"DEFAULT\"],\"preferred_element_type\":null,\"return_residuals\":false,\"activation\":null}": {
    "{\"tile_m\":512,\"tile_k\":7168,\"tile_n\":512,\"input_buffer_count\":2,\"combine_scopes\":false}": {
      "compile_time_ms": 10246.222540969029,
      "lower_time_ms": 26547.263954998925,
      "evaluation_times_ms": [
        3.085,
        3.085,
        3.087,
        3.085,
        3.085
      ],
      "metadata": {},
      "peak_memory_mb": 5905.609728
    }
  },
  "{\"lhs\":\"bf16[262144,7168]\",\"rhs\":\"bf16[256,7168,512]\",\"group_sizes\":{\"num_groups\":256,\"total_size\":262144},\"ragged_dot_dimension_numbers\":{\"dot_dimension_numbers\":[[[1],[1]],[[],[]]],\"lhs_ragged_dimensions\":[0],\"rhs_group_dimensions\":[0]},\"precision\":[\"DEFAULT\",\"DEFAULT\"],\"preferred_element_type\":null,\"return_residuals\":true,\"activation\":null}": {
    "{\"tile_m\":512,\"tile_k\":7168,\"tile_n\":512,\"input_buffer_count\":2,\"combine_scopes\":false}": {
      "compile_time_ms": 12102.061171084642,
      "lower_time_ms": 15728.138955077156,
      "evaluation_times_ms": [
        3.257,
        3.257,
        3.257,
        3.257,
        3.256
      ],
      "metadata": {},
      "peak_memory_mb": 6174.045216
    }
  },
  "{\"lhs\":\"bf16[262144,256]\",\"rhs\":\"bf16[256,256,7168]\",\"group_sizes\":{\"num_groups\":256,\"total_size\":262144},\"ragged_dot_dimension_numbers\":{\"dot_dimension_numbers\":[[[1],[1]],[[],[]]],\"lhs_ragged_dimensions\":[0],\"rhs_group_dimensions\":[0]},\"precision\":[\"DEFAULT\",\"DEFAULT\"],\"preferred_element_type\":null,\"return_residuals\":false,\"activation\":null}": {
    "{\"tile_m\":512,\"tile_k\":256,\"tile_n\":7168,\"input_buffer_count\":2,\"combine_scopes\":false}": {
      "compile_time_ms": 2407.8075939323753,
      "lower_time_ms": 9111.706546973437,
      "evaluation_times_ms": [
        2.265,
        2.265,
        2.272,
        2.263,
        2.269
      ],
      "metadata": {},
      "peak_memory_mb": 4831.867904
    }
  },
  "{\"lhs\":\"bf16[262144,256]\",\"rhs\":\"bf16[256,256,7168]\",\"group_sizes\":{\"num_groups\":256,\"total_size\":262144},\"ragged_dot_dimension_numbers\":{\"dot_dimension_numbers\":[[[1],[1]],[[],[]]],\"lhs_ragged_dimensions\":[0],\"rhs_group_dimensions\":[0]},\"precision\":[\"DEFAULT\",\"DEFAULT\"],\"preferred_element_type\":null,\"return_residuals\":true,\"activation\":null}": {
    "{\"tile_m\":512,\"tile_k\":256,\"tile_n\":7168,\"input_buffer_count\":2,\"combine_scopes\":false}": {
      "compile_time_ms": 13543.581122998148,
      "lower_time_ms": 12333.266783040017,
      "evaluation_times_ms": [
        4.657,
        4.661,
        4.659,
        4.662,
        4.657
      ],
      "metadata": {},
      "peak_memory_mb": 8589.96432
    }
  },
  "{\"lhs\":\"bf16[262144,1024]\",\"rhs\":\"bf16[256,1024,7168]\",\"group_sizes\":{\"num_groups\":256,\"total_size\":262144},\"ragged_dot_dimension_numbers\":{\"dot_dimension_numbers\":[[[1],[1]],[[],[]]],\"lhs_ragged_dimensions\":[0],\"rhs_group_dimensions\":[0]},\"precision\":[\"DEFAULT\",\"DEFAULT\"],\"preferred_element_type\":null,\"return_residuals\":false,\"activation\":null}": {
    "{\"tile_m\":128,\"tile_k\":1024,\"tile_n\":7168,\"input_buffer_count\":2,\"combine_scopes\":false}": {
      "compile_time_ms": 24358.790448866785,
      "lower_time_ms": 34362.653566058725,
      "evaluation_times_ms": [
        6.188,
        6.189,
        6.19,
        6.189,
        6.189
      ],
      "metadata": {},
      "peak_memory_mb": 8053.132288
    }
  },
  "{\"lhs\":\"bf16[262144,1024]\",\"rhs\":\"bf16[256,1024,7168]\",\"group_sizes\":{\"num_groups\":256,\"total_size\":262144},\"ragged_dot_dimension_numbers\":{\"dot_dimension_numbers\":[[[1],[1]],[[],[]]],\"lhs_ragged_dimensions\":[0],\"rhs_group_dimensions\":[0]},\"precision\":[\"DEFAULT\",\"DEFAULT\"],\"preferred_element_type\":null,\"return_residuals\":true,\"activation\":null}": {
    "{\"tile_m\":128,\"tile_k\":1024,\"tile_n\":7168,\"input_buffer_count\":2,\"combine_scopes\":false}": {
      "compile_time_ms": 10262.180387973785,
      "lower_time_ms": 13497.5420339033,
      "evaluation_times_ms": [
        8.57,
        8.574,
        8.57,
        8.57,
        8.567
      ],
      "metadata": {},
      "peak_memory_mb": 11811.228704
    }
  },
  "{\"lhs\":\"bf16[262144,7168]\",\"rhs\":\"bf16[256,7168,1024]\",\"group_sizes\":{\"num_groups\":256,\"total_size\":262144},\"ragged_dot_dimension_numbers\":{\"dot_dimension_numbers\":[[[1],[1]],[[],[]]],\"lhs_ragged_dimensions\":[0],\"rhs_group_dimensions\":[0]},\"precision\":[\"DEFAULT\",\"DEFAULT\"],\"preferred_element_type\":null,\"return_residuals\":false,\"activation\":null}": {
    "{\"tile_m\":128,\"tile_k\":7168,\"tile_n\":1024,\"input_buffer_count\":2,\"combine_scopes\":false}": {
      "compile_time_ms": 5391.3877620361745,
      "lower_time_ms": 45841.04040614329,
      "evaluation_times_ms": [
        5.994,
        6.001,
        6.003,
        5.999,
        6.003
      ],
      "metadata": {},
      "peak_memory_mb": 8053.132288
    }
  },
  "{\"lhs\":\"bf16[262144,7168]\",\"rhs\":\"bf16[256,7168,1024]\",\"group_sizes\":{\"num_groups\":256,\"total_size\":262144},\"ragged_dot_dimension_numbers\":{\"dot_dimension_numbers\":[[[1],[1]],[[],[]]],\"lhs_ragged_dimensions\":[0],\"rhs_group_dimensions\":[0]},\"precision\":[\"DEFAULT\",\"DEFAULT\"],\"preferred_element_type\":null,\"return_residuals\":true,\"activation\":null}": {
    "{\"tile_m\":128,\"tile_k\":7168,\"tile_n\":1024,\"input_buffer_count\":2,\"combine_scopes\":false}": {
      "compile_time_ms": 4024.394033011049,
      "lower_time_ms": 13439.1324960161,
      "evaluation_times_ms": [
        6.342,
        6.342,
        6.34,
        6.34,
        6.348
      ],
      "metadata": {},
      "peak_memory_mb": 8590.003232
    }
  },
  "{\"lhs\":\"bf16[262144,7168]\",\"rhs\":\"bf16[256,7168,2048]\",\"group_sizes\":{\"num_groups\":256,\"total_size\":262144},\"ragged_dot_dimension_numbers\":{\"dot_dimension_numbers\":[[[1],[1]],[[],[]]],\"lhs_ragged_dimensions\":[0],\"rhs_group_dimensions\":[0]},\"precision\":[\"DEFAULT\",\"DEFAULT\"],\"preferred_element_type\":null,\"return_residuals\":false,\"activation\":null}": {
    "{\"tile_m\":128,\"tile_k\":7168,\"tile_n\":1024,\"input_buffer_count\":2,\"combine_scopes\":false}": {
      "compile_time_ms": 5484.095218009315,
      "lower_time_ms": 32307.49732698314,
      "evaluation_times_ms": [
        11.986,
        11.987,
        11.99,
        11.984,
        11.988
      ],
      "metadata": {},
      "peak_memory_mb": 12348.099584
    }
  },
  "{\"lhs\":\"bf16[393216,2048]\",\"rhs\":\"bf16[128,2048,768]\",\"group_sizes\":{\"num_groups\":128,\"total_size\":393216},\"ragged_dot_dimension_numbers\":{\"dot_dimension_numbers\":[[[1],[1]],[[],[]]],\"lhs_ragged_dimensions\":[0],\"rhs_group_dimensions\":[0]},\"precision\":[\"DEFAULT\",\"DEFAULT\"],\"preferred_element_type\":null,\"return_residuals\":false,\"activation\":null}": {
    "{\"tile_m\":512,\"tile_k\":2048,\"tile_n\":768,\"input_buffer_count\":2,\"combine_scopes\":false}": {
      "compile_time_ms": 3396.2499590124935,
      "lower_time_ms": 46086.78528701421,
      "evaluation_times_ms": [
        1.833,
        1.832,
        1.834,
        1.83,
        1.832
      ],
      "metadata": {},
      "peak_memory_mb": 2617.272832
    }
  },
  "{\"lhs\":\"bf16[393216,768]\",\"rhs\":\"bf16[128,768,2048]\",\"group_sizes\":{\"num_groups\":128,\"total_size\":393216},\"ragged_dot_dimension_numbers\":{\"dot_dimension_numbers\":[[[1],[1]],[[],[]]],\"lhs_ragged_dimensions\":[0],\"rhs_group_dimensions\":[0]},\"precision\":[\"DEFAULT\",\"DEFAULT\"],\"preferred_element_type\":null,\"return_residuals\":false,\"activation\":null}": {},
  "{\"lhs\":\"bf16[524288,1536]\",\"rhs\":\"bf16[128,1536,4096]\",\"group_sizes\":{\"num_groups\":128,\"total_size\":524288},\"ragged_dot_dimension_numbers\":{\"dot_dimension_numbers\":[[[1],[1]],[[],[]]],\"lhs_ragged_dimensions\":[0],\"rhs_group_dimensions\":[0]},\"precision\":[\"DEFAULT\",\"DEFAULT\"],\"preferred_element_type\":null,\"return_residuals\":false,\"activation\":null}": {
    "{\"tile_m\":256,\"tile_k\":1536,\"tile_n\":4096,\"input_buffer_count\":2,\"combine_scopes\":false}": {
      "compile_time_ms": 7575.006503990153,
      "lower_time_ms": 29844.52146998956,
      "evaluation_times_ms": [
        8.143,
        8.147,
        8.144,
        8.14,
        8.147
      ],
      "metadata": {},
      "peak_memory_mb": 7516.256768
    }
  },
  "{\"lhs\":\"bf16[524288,1536]\",\"rhs\":\"bf16[128,1536,4096]\",\"group_sizes\":{\"num_groups\":128,\"total_size\":524288},\"ragged_dot_dimension_numbers\":{\"dot_dimension_numbers\":[[[1],[1]],[[],[]]],\"lhs_ragged_dimensions\":[0],\"rhs_group_dimensions\":[0]},\"precision\":[\"DEFAULT\",\"DEFAULT\"],\"preferred_element_type\":null,\"return_residuals\":true,\"activation\":null}": {
    "{\"tile_m\":256,\"tile_k\":1536,\"tile_n\":4096,\"input_buffer_count\":2,\"combine_scopes\":false}": {
      "compile_time_ms": 9713.0000150064,
      "lower_time_ms": 3507.390360988211,
      "evaluation_times_ms": [
        10.813,
        10.811,
        10.811,
        10.809,
        10.813
      ],
      "metadata": {},
      "peak_memory_mb": 11811.224096
    }
  },
  "{\"lhs\":\"bf16[524288,7168]\",\"rhs\":\"bf16[256,7168,2048]\",\"group_sizes\":{\"num_groups\":256,\"total_size\":524288},\"ragged_dot_dimension_numbers\":{\"dot_dimension_numbers\":[[[1],[1]],[[],[]]],\"lhs_ragged_dimensions\":[0],\"rhs_group_dimensions\":[0]},\"precision\":[\"DEFAULT\",\"DEFAULT\"],\"preferred_element_type\":null,\"return_residuals\":false,\"activation\":null}": {
    "{\"tile_m\":512,\"tile_k\":7168,\"tile_n\":512,\"input_buffer_count\":2,\"combine_scopes\":false}": {
      "compile_time_ms": 10749.562401993899,
      "lower_time_ms": 42369.9661080027,
      "evaluation_times_ms": [
        20.817,
        20.81,
        20.815,
        20.812,
        20.811
      ],
      "metadata": {},
      "peak_memory_mb": 17179.917312
    }
  },
  "{\"lhs\":\"bf16[524288,7168]\",\"rhs\":\"bf16[256,7168,2048]\",\"group_sizes\":{\"num_groups\":256,\"total_size\":524288},\"ragged_dot_dimension_numbers\":{\"dot_dimension_numbers\":[[[1],[1]],[[],[]]],\"lhs_ragged_dimensions\":[0],\"rhs_group_dimensions\":[0]},\"precision\":[\"DEFAULT\",\"DEFAULT\"],\"preferred_element_type\":null,\"return_residuals\":true,\"activation\":null}": {},
  "{\"lhs\":\"bf16[131072,4096]\",\"rhs\":\"bf16[128,4096,1536]\",\"group_sizes\":{\"num_groups\":128,\"total_size\":131072},\"ragged_dot_dimension_numbers\":{\"dot_dimension_numbers\":[[[1],[1]],[[],[]]],\"lhs_ragged_dimensions\":[0],\"rhs_group_dimensions\":[0]},\"precision\":[\"DEFAULT\",\"DEFAULT\"],\"preferred_element_type\":null,\"return_residuals\":true,\"activation\":null}": {
    "{\"tile_m\":256,\"tile_k\":4096,\"tile_n\":1536,\"input_buffer_count\":2,\"combine_scopes\":false}": {
      "compile_time_ms": 4162.827952997759,
      "lower_time_ms": 28162.312377011403,
      "evaluation_times_ms": [
        2.733,
        2.734,
        2.732,
        2.733,
        2.735
      ],
      "metadata": {},
      "peak_memory_mb": 3489.686048
    }
  },
  "{\"lhs\":\"bf16[131072,1536]\",\"rhs\":\"bf16[128,1536,4096]\",\"group_sizes\":{\"num_groups\":128,\"total_size\":131072},\"ragged_dot_dimension_numbers\":{\"dot_dimension_numbers\":[[[1],[1]],[[],[]]],\"lhs_ragged_dimensions\":[0],\"rhs_group_dimensions\":[0]},\"precision\":[\"DEFAULT\",\"DEFAULT\"],\"preferred_element_type\":null,\"return_residuals\":false,\"activation\":null}": {
    "{\"tile_m\":256,\"tile_k\":1536,\"tile_n\":4096,\"input_buffer_count\":2,\"combine_scopes\":false}": {
      "compile_time_ms": 13412.108466000063,
      "lower_time_ms": 52950.19962900551,
      "evaluation_times_ms": [
        2.528,
        2.523,
        2.526,
        2.526,
        2.524
      ],
      "metadata": {},
      "peak_memory_mb": 3087.032832
    }
  },
  "{\"lhs\":\"bf16[131072,1536]\",\"rhs\":\"bf16[128,1536,4096]\",\"group_sizes\":{\"num_groups\":128,\"total_size\":131072},\"ragged_dot_dimension_numbers\":{\"dot_dimension_numbers\":[[[1],[1]],[[],[]]],\"lhs_ragged_dimensions\":[0],\"rhs_group_dimensions\":[0]},\"precision\":[\"DEFAULT\",\"DEFAULT\"],\"preferred_element_type\":null,\"return_residuals\":true,\"activation\":null}": {
    "{\"tile_m\":256,\"tile_k\":1536,\"tile_n\":4096,\"input_buffer_count\":2,\"combine_scopes\":false}": {
      "compile_time_ms": 5975.00262100948,
      "lower_time_ms": 2427.93788400013,
      "evaluation_times_ms": [
        3.203,
        3.208,
        3.205,
        3.207,
        3.208
      ],
      "metadata": {},
      "peak_memory_mb": 4160.774688
    }
  },
  "{\"lhs\":\"bf16[131072,7168]\",\"rhs\":\"bf16[256,7168,2048]\",\"group_sizes\":{\"num_groups\":256,\"total_size\":131072},\"ragged_dot_dimension_numbers\":{\"dot_dimension_numbers\":[[[1],[1]],[[],[]]],\"lhs_ragged_dimensions\":[0],\"rhs_group_dimensions\":[0]},\"precision\":[\"DEFAULT\",\"DEFAULT\"],\"preferred_element_type\":null,\"return_residuals\":false,\"activation\":null}": {
    "{\"tile_m\":128,\"tile_k\":7168,\"tile_n\":1024,\"input_buffer_count\":2,\"combine_scopes\":false}": {
      "compile_time_ms": 7618.504723010119,
      "lower_time_ms": 42198.59511600225,
      "evaluation_times_ms": [
        7.252,
        7.252,
        7.246,
        7.242,
        7.25
      ],
      "metadata": {},
      "peak_memory_mb": 9932.16
    }
  },
  "{\"lhs\":\"bf16[131072,7168]\",\"rhs\":\"bf16[256,7168,2048]\",\"group_sizes\":{\"num_groups\":256,\"total_size\":131072},\"ragged_dot_dimension_numbers\":{\"dot_dimension_numbers\":[[[1],[1]],[[],[]]],\"lhs_ragged_dimensions\":[0],\"rhs_group_dimensions\":[0]},\"precision\":[\"DEFAULT\",\"DEFAULT\"],\"preferred_element_type\":null,\"return_residuals\":true,\"activation\":null}": {
    "{\"tile_m\":128,\"tile_k\":7168,\"tile_n\":1024,\"input_buffer_count\":2,\"combine_scopes\":false}": {
      "compile_time_ms": 9900.487404986052,
      "lower_time_ms": 9639.512458001263,
      "evaluation_times_ms": [
        7.583,
        7.588,
        7.589,
        7.584,
        7.585
      ],
      "metadata": {},
      "peak_memory_mb": 10469.030944
    }
  },
  "{\"lhs\":\"bf16[65536,7168]\",\"rhs\":\"bf16[256,7168,2048]\",\"group_sizes\":{\"num_groups\":256,\"total_size\":65536},\"ragged_dot_dimension_numbers\":{\"dot_dimension_numbers\":[[[1],[1]],[[],[]]],\"lhs_ragged_dimensions\":[0],\"rhs_group_dimensions\":[0]},\"precision\":[\"DEFAULT\",\"DEFAULT\"],\"preferred_element_type\":null,\"return_residuals\":false,\"activation\":null}": {
    "{\"tile_m\":128,\"tile_k\":7168,\"tile_n\":1024,\"input_buffer_count\":2,\"combine_scopes\":false}": {
      "compile_time_ms": 3618.8698500045575,
      "lower_time_ms": 26041.310945001896,
      "evaluation_times_ms": [
        4.845,
        4.85,
        4.848,
        4.841,
        4.849
      ],
      "metadata": {},
      "peak_memory_mb": 8724.182016
    }
  },
  "{\"lhs\":\"bf16[65536,7168]\",\"rhs\":\"bf16[256,7168,2048]\",\"group_sizes\":{\"num_groups\":256,\"total_size\":65536},\"ragged_dot_dimension_numbers\":{\"dot_dimension_numbers\":[[[1],[1]],[[],[]]],\"lhs_ragged_dimensions\":[0],\"rhs_group_dimensions\":[0]},\"precision\":[\"DEFAULT\",\"DEFAULT\"],\"preferred_element_type\":null,\"return_residuals\":true,\"activation\":null}": {
    "{\"tile_m\":128,\"tile_k\":7168,\"tile_n\":1024,\"input_buffer_count\":2,\"combine_scopes\":false}": {
      "compile_time_ms": 9567.252965003718,
      "lower_time_ms": 10936.48736400064,
      "evaluation_times_ms": [
        5.015,
        5.009,
        5.018,
        5.015,
        5.019
      ],
      "metadata": {},
      "peak_memory_mb": 8992.617504
    }
  },
  "{\"lhs\":\"bf16[4096,4096]\",\"rhs\":\"bf16[8,4096,4096]\",\"group_sizes\":{\"num_groups\":8,\"total_size\":4096},\"ragged_dot_dimension_numbers\":{\"dot_dimension_numbers\":[[[1],[1]],[[],[]]],\"lhs_ragged_dimensions\":[0],\"rhs_group_dimensions\":[0]},\"precision\":[\"DEFAULT\",\"DEFAULT\"],\"preferred_element_type\":null,\"return_residuals\":false,\"activation\":null}": {
    "{\"tile_m\":512,\"tile_k\":4096,\"tile_n\":1024,\"input_buffer_count\":2,\"combine_scopes\":false}": {
      "compile_time_ms": 8037.973089842126,
      "lower_time_ms": 31278.33731402643,
      "evaluation_times_ms": [
        0.168,
        0.168,
        0.168,
        0.168,
        0.168
      ],
      "metadata": {},
      "peak_memory_mb": 335.557632
    }
  },
  "{\"lhs\":\"bf16[4096,4096]\",\"rhs\":\"bf16[8,4096,4096]\",\"group_sizes\":{\"num_groups\":8,\"total_size\":4096},\"ragged_dot_dimension_numbers\":{\"dot_dimension_numbers\":[[[1],[1]],[[],[]]],\"lhs_ragged_dimensions\":[0],\"rhs_group_dimensions\":[0]},\"precision\":[\"DEFAULT\",\"DEFAULT\"],\"preferred_element_type\":null,\"return_residuals\":true,\"activation\":null}": {
    "{\"tile_m\":512,\"tile_k\":4096,\"tile_n\":1024,\"input_buffer_count\":2,\"combine_scopes\":false}": {
      "compile_time_ms": 8166.192598873749,
      "lower_time_ms": 10416.681454051286,
      "evaluation_times_ms": [
        0.19,
        0.191,
        0.191,
        0.191,
        0.19
      ],
      "metadata": {},
      "peak_memory_mb": 402.659872
    }
  },
  "{\"lhs\":\"bf16[8,4096]\",\"rhs\":\"bf16[8,4096,4096]\",\"group_sizes\":{\"num_groups\":8,\"total_size\":8},\"ragged_dot_dimension_numbers\":{\"dot_dimension_numbers\":[[[1],[1]],[[],[]]],\"lhs_ragged_dimensions\":[0],\"rhs_group_dimensions\":[0]},\"precision\":[\"DEFAULT\",\"DEFAULT\"],\"preferred_element_type\":null,\"return_residuals\":false,\"activation\":null}": {},
  "{\"lhs\":\"bf16[8,4096]\",\"rhs\":\"bf16[8,4096,4096]\",\"group_sizes\":{\"num_groups\":8,\"total_size\":8},\"ragged_dot_dimension_numbers\":{\"dot_dimension_numbers\":[[[1],[1]],[[],[]]],\"lhs_ragged_dimensions\":[0],\"rhs_group_dimensions\":[0]},\"precision\":[\"DEFAULT\",\"DEFAULT\"],\"preferred_element_type\":null,\"return_residuals\":true,\"activation\":null}": {},
  "{\"lhs\":\"bf16[8192,4096]\",\"rhs\":\"bf16[8,4096,14336]\",\"group_sizes\":{\"num_groups\":8,\"total_size\":8192},\"ragged_dot_dimension_numbers\":{\"dot_dimension_numbers\":[[[1],[1]],[[],[]]],\"lhs_ragged_dimensions\":[0],\"rhs_group_dimensions\":[0]},\"precision\":[\"DEFAULT\",\"DEFAULT\"],\"preferred_element_type\":null,\"return_residuals\":false,\"activation\":null}": {
    "{\"tile_m\":1024,\"tile_k\":2048,\"tile_n\":1024,\"input_buffer_count\":2,\"combine_scopes\":false}": {
      "compile_time_ms": 16667.339802000017,
      "lower_time_ms": 24865.306807000023,
      "evaluation_times_ms": [
        1.107,
        1.107,
        1.107,
        1.107,
        1.108
      ],
      "metadata": {},
      "peak_memory_mb": 1241.526784
    }
  },
  "{\"lhs\":\"bf16[8192,4096]\",\"rhs\":\"bf16[8,4096,14336]\",\"group_sizes\":{\"num_groups\":8,\"total_size\":8192},\"ragged_dot_dimension_numbers\":{\"dot_dimension_numbers\":[[[1],[1]],[[],[]]],\"lhs_ragged_dimensions\":[0],\"rhs_group_dimensions\":[0]},\"precision\":[\"DEFAULT\",\"DEFAULT\"],\"preferred_element_type\":null,\"return_residuals\":true,\"activation\":null}": {
    "{\"tile_m\":1024,\"tile_k\":2048,\"tile_n\":1024,\"input_buffer_count\":2,\"combine_scopes\":false}": {
      "compile_time_ms": 12604.723167140037,
      "lower_time_ms": 38499.631653074175,
      "evaluation_times_ms": [
        1.258,
        1.259,
        1.259,
        1.258,
        1.258
      ],
      "metadata": {},
      "peak_memory_mb": 1476.40784
    }
  },
  "{\"lhs\":\"bf16[131072,1024]\",\"rhs\":\"bf16[256,7168,1024]\",\"group_sizes\":{\"num_groups\":256,\"total_size\":131072},\"ragged_dot_dimension_numbers\":{\"dot_dimension_numbers\":[[[1],[2]],[[],[]]],\"lhs_ragged_dimensions\":[0],\"rhs_group_dimensions\":[0]},\"precision\":[\"DEFAULT\",\"DEFAULT\"],\"preferred_element_type\":null,\"return_residuals\":false,\"activation\":null}": {
    "{\"tile_m\":512,\"tile_k\":1024,\"tile_n\":1024,\"input_buffer_count\":2,\"combine_scopes\":false}": {
      "compile_time_ms": 6665.14668893069,
      "lower_time_ms": 25777.074141893536,
      "evaluation_times_ms": [
        5.837,
        5.849,
        5.842,
        5.846,
        5.847
      ],
      "metadata": {},
      "peak_memory_mb": 5905.60512
    }
  },
  "{\"lhs\":\"bf16[131072,7168]\",\"rhs\":\"bf16[131072,1024]\",\"group_sizes\":{\"num_groups\":256,\"total_size\":131072},\"ragged_dot_dimension_numbers\":{\"dot_dimension_numbers\":[[[0],[0]],[[],[]]],\"lhs_ragged_dimensions\":[0],\"rhs_group_dimensions\":[]},\"precision\":[\"DEFAULT\",\"DEFAULT\"],\"preferred_element_type\":null,\"return_residuals\":false,\"activation\":null}": {
    "{\"tile_m\":256,\"tile_k\":1792,\"tile_n\":1024,\"input_buffer_count\":4,\"combine_scopes\":false}": {
      "compile_time_ms": 13176.711007021368,
      "lower_time_ms": 46803.14606218599,
      "evaluation_times_ms": [
        5.267,
        5.269,
        5.27,
        5.268,
        5.269
      ],
      "metadata": {},
      "peak_memory_mb": 5905.609728
    }
  },
  "{\"lhs\":\"bf16[131072,7168]\",\"rhs\":\"bf16[256,1024,7168]\",\"group_sizes\":{\"num_groups\":256,\"total_size\":131072},\"ragged_dot_dimension_numbers\":{\"dot_dimension_numbers\":[[[1],[2]],[[],[]]],\"lhs_ragged_dimensions\":[0],\"rhs_group_dimensions\":[0]},\"precision\":[\"DEFAULT\",\"DEFAULT\"],\"preferred_element_type\":null,\"return_residuals\":false,\"activation\":null}": {
    "{\"tile_m\":512,\"tile_k\":1024,\"tile_n\":1024,\"input_buffer_count\":2,\"combine_scopes\":false}": {
      "compile_time_ms": 10086.114877136424,
      "lower_time_ms": 44580.79587202519,
      "evaluation_times_ms": [
        5.923,
        5.929,
        5.923,
        5.923,
        5.922
      ],
      "metadata": {},
      "peak_memory_mb": 5905.60512
    }
  },
  "{\"lhs\":\"bf16[131072,1024]\",\"rhs\":\"bf16[131072,7168]\",\"group_sizes\":{\"num_groups\":256,\"total_size\":131072},\"ragged_dot_dimension_numbers\":{\"dot_dimension_numbers\":[[[0],[0]],[[],[]]],\"lhs_ragged_dimensions\":[0],\"rhs_group_dimensions\":[]},\"precision\":[\"DEFAULT\",\"DEFAULT\"],\"preferred_element_type\":null,\"return_residuals\":false,\"activation\":null}": {
    "{\"tile_m\":256,\"tile_k\":512,\"tile_n\":3584,\"input_buffer_count\":4,\"combine_scopes\":false}": {
      "compile_time_ms": 1396.257207961753,
      "lower_time_ms": 18372.01158097014,
      "evaluation_times_ms": [
        5.283,
        5.283,
        5.284,
        5.283,
        5.283
      ],
      "metadata": {},
      "peak_memory_mb": 5905.609728
    }
  },
  "{\"lhs\":\"bf16[131072,512]\",\"rhs\":\"bf16[256,7168,512]\",\"group_sizes\":{\"num_groups\":256,\"total_size\":131072},\"ragged_dot_dimension_numbers\":{\"dot_dimension_numbers\":[[[1],[2]],[[],[]]],\"lhs_ragged_dimensions\":[0],\"rhs_group_dimensions\":[0]},\"precision\":[\"DEFAULT\",\"DEFAULT\"],\"preferred_element_type\":null,\"return_residuals\":false,\"activation\":null}": {
    "{\"tile_m\":256,\"tile_k\":512,\"tile_n\":7168,\"input_buffer_count\":2,\"combine_scopes\":false}": {
      "compile_time_ms": 46626.47203801316,
      "lower_time_ms": 53926.898500998504,
      "evaluation_times_ms": [
        2.218,
        2.219,
        2.218,
        2.22,
        2.219
      ],
      "metadata": {},
      "peak_memory_mb": 3892.343808
    }
  },
  "{\"lhs\":\"bf16[131072,7168]\",\"rhs\":\"bf16[131072,512]\",\"group_sizes\":{\"num_groups\":256,\"total_size\":131072},\"ragged_dot_dimension_numbers\":{\"dot_dimension_numbers\":[[[0],[0]],[[],[]]],\"lhs_ragged_dimensions\":[0],\"rhs_group_dimensions\":[]},\"precision\":[\"DEFAULT\",\"DEFAULT\"],\"preferred_element_type\":null,\"return_residuals\":false,\"activation\":null}": {
    "{\"tile_m\":256,\"tile_k\":3584,\"tile_n\":512,\"input_buffer_count\":4,\"combine_scopes\":false}": {
      "compile_time_ms": 12585.342589998618,
      "lower_time_ms": 30321.653516992228,
      "evaluation_times_ms": [
        2.681,
        2.679,
        2.681,
        2.683,
        2.683
      ],
      "metadata": {},
      "peak_memory_mb": 3892.343808
    }
  },
  "{\"lhs\":\"bf16[131072,7168]\",\"rhs\":\"bf16[256,512,7168]\",\"group_sizes\":{\"num_groups\":256,\"total_size\":131072},\"ragged_dot_dimension_numbers\":{\"dot_dimension_numbers\":[[[1],[2]],[[],[]]],\"lhs_ragged_dimensions\":[0],\"rhs_group_dimensions\":[0]},\"precision\":[\"DEFAULT\",\"DEFAULT\"],\"preferred_element_type\":null,\"return_residuals\":false,\"activation\":null}": {
    "{\"tile_m\":256,\"tile_k\":7168,\"tile_n\":512,\"input_buffer_count\":3,\"combine_scopes\":false}": {
      "compile_time_ms": 10247.77568099671,
      "lower_time_ms": 39665.6287900114,
      "evaluation_times_ms": [
        2.18,
        2.178,
        2.178,
        2.179,
        2.18
      ],
      "metadata": {},
      "peak_memory_mb": 3892.343808
    }
  },
  "{\"lhs\":\"bf16[131072,512]\",\"rhs\":\"bf16[131072,7168]\",\"group_sizes\":{\"num_groups\":256,\"total_size\":131072},\"ragged_dot_dimension_numbers\":{\"dot_dimension_numbers\":[[[0],[0]],[[],[]]],\"lhs_ragged_dimensions\":[0],\"rhs_group_dimensions\":[]},\"precision\":[\"DEFAULT\",\"DEFAULT\"],\"preferred_element_type\":null,\"return_residuals\":false,\"activation\":null}": {
    "{\"tile_m\":256,\"tile_k\":512,\"tile_n\":3584,\"input_buffer_count\":4,\"combine_scopes\":false}": {
      "compile_time_ms": 10314.260408980772,
      "lower_time_ms": 45398.659854981815,
      "evaluation_times_ms": [
        2.663,
        2.664,
        2.663,
        2.663,
        2.662
      ],
      "metadata": {},
      "peak_memory_mb": 3892.343808
    }
  },
  "{\"lhs\":\"bf16[262144,512]\",\"rhs\":\"bf16[256,7168,512]\",\"group_sizes\":{\"num_groups\":256,\"total_size\":262144},\"ragged_dot_dimension_numbers\":{\"dot_dimension_numbers\":[[[1],[2]],[[],[]]],\"lhs_ragged_dimensions\":[0],\"rhs_group_dimensions\":[0]},\"precision\":[\"DEFAULT\",\"DEFAULT\"],\"preferred_element_type\":null,\"return_residuals\":false,\"activation\":null}": {
    "{\"tile_m\":256,\"tile_k\":512,\"tile_n\":7168,\"input_buffer_count\":2,\"combine_scopes\":false}": {
      "compile_time_ms": 7980.784771993058,
      "lower_time_ms": 61420.90757298865,
      "evaluation_times_ms": [
        3.483,
        3.48,
        3.484,
        3.481,
        3.482
      ],
      "metadata": {},
      "peak_memory_mb": 5905.62816
    }
  },
  "{\"lhs\":\"bf16[262144,7168]\",\"rhs\":\"bf16[262144,512]\",\"group_sizes\":{\"num_groups\":256,\"total_size\":262144},\"ragged_dot_dimension_numbers\":{\"dot_dimension_numbers\":[[[0],[0]],[[],[]]],\"lhs_ragged_dimensions\":[0],\"rhs_group_dimensions\":[]},\"precision\":[\"DEFAULT\",\"DEFAULT\"],\"preferred_element_type\":null,\"return_residuals\":false,\"activation\":null}": {
    "{\"tile_m\":512,\"tile_k\":3584,\"tile_n\":512,\"input_buffer_count\":3,\"combine_scopes\":false}": {
      "compile_time_ms": 11567.304285999853,
      "lower_time_ms": 45819.587367994245,
      "evaluation_times_ms": [
        4.105,
        4.108,
        4.106,
        4.106,
        4.108
      ],
      "metadata": {},
      "peak_memory_mb": 5905.609728
    }
  },
  "{\"lhs\":\"bf16[262144,7168]\",\"rhs\":\"bf16[256,256,7168]\",\"group_sizes\":{\"num_groups\":256,\"total_size\":262144},\"ragged_dot_dimension_numbers\":{\"dot_dimension_numbers\":[[[1],[2]],[[],[]]],\"lhs_ragged_dimensions\":[0],\"rhs_group_dimensions\":[0]},\"precision\":[\"DEFAULT\",\"DEFAULT\"],\"preferred_element_type\":null,\"return_residuals\":false,\"activation\":null}": {
    "{\"tile_m\":512,\"tile_k\":7168,\"tile_n\":128,\"input_buffer_count\":4,\"combine_scopes\":false}": {
      "compile_time_ms": 8743.709173984826,
      "lower_time_ms": 28526.343944016844,
      "evaluation_times_ms": [
        3.961,
        3.965,
        3.963,
        3.961,
        3.959
      ],
      "metadata": {},
      "peak_memory_mb": 4831.867904
    }
  },
  "{\"lhs\":\"bf16[262144,256]\",\"rhs\":\"bf16[262144,7168]\",\"group_sizes\":{\"num_groups\":256,\"total_size\":262144},\"ragged_dot_dimension_numbers\":{\"dot_dimension_numbers\":[[[0],[0]],[[],[]]],\"lhs_ragged_dimensions\":[0],\"rhs_group_dimensions\":[]},\"precision\":[\"DEFAULT\",\"DEFAULT\"],\"preferred_element_type\":null,\"return_residuals\":false,\"activation\":null}": {
    "{\"tile_m\":256,\"tile_k\":256,\"tile_n\":7168,\"input_buffer_count\":4,\"combine_scopes\":false}": {
      "compile_time_ms": 13052.3675000004,
      "lower_time_ms": 112236.434816994,
      "evaluation_times_ms": [
        2.1,
        2.102,
        2.099,
        2.1,
        2.102
      ],
      "metadata": {},
      "peak_memory_mb": 4831.886336
    }
  },
  "{\"lhs\":\"bf16[262144,7168]\",\"rhs\":\"bf16[256,1024,7168]\",\"group_sizes\":{\"num_groups\":256,\"total_size\":262144},\"ragged_dot_dimension_numbers\":{\"dot_dimension_numbers\":[[[1],[2]],[[],[]]],\"lhs_ragged_dimensions\":[0],\"rhs_group_dimensions\":[0]},\"precision\":[\"DEFAULT\",\"DEFAULT\"],\"preferred_element_type\":null,\"return_residuals\":false,\"activation\":null}": {
    "{\"tile_m\":1024,\"tile_k\":1024,\"tile_n\":1024,\"input_buffer_count\":2,\"combine_scopes\":false}": {
      "compile_time_ms": 9305.028767994372,
      "lower_time_ms": 32948.68381798733,
      "evaluation_times_ms": [
        8.986,
        8.983,
        8.984,
        8.987,
        8.988
      ],
      "metadata": {},
      "peak_memory_mb": 8053.088768
    }
  },
  "{\"lhs\":\"bf16[262144,1024]\",\"rhs\":\"bf16[262144,7168]\",\"group_sizes\":{\"num_groups\":256,\"total_size\":262144},\"ragged_dot_dimension_numbers\":{\"dot_dimension_numbers\":[[[0],[0]],[[],[]]],\"lhs_ragged_dimensions\":[0],\"rhs_group_dimensions\":[]},\"precision\":[\"DEFAULT\",\"DEFAULT\"],\"preferred_element_type\":null,\"return_residuals\":false,\"activation\":null}": {
    "{\"tile_m\":256,\"tile_k\":512,\"tile_n\":3584,\"input_buffer_count\":4,\"combine_scopes\":false}": {
      "compile_time_ms": 14219.173091987614,
      "lower_time_ms": 42848.6808000016,
      "evaluation_times_ms": [
        8.188,
        8.187,
        8.188,
        8.189,
        8.187
      ],
      "metadata": {},
      "peak_memory_mb": 8053.111808
    }
  },
  "{\"lhs\":\"bf16[262144,1024]\",\"rhs\":\"bf16[256,7168,1024]\",\"group_sizes\":{\"num_groups\":256,\"total_size\":262144},\"ragged_dot_dimension_numbers\":{\"dot_dimension_numbers\":[[[1],[2]],[[],[]]],\"lhs_ragged_dimensions\":[0],\"rhs_group_dimensions\":[0]},\"precision\":[\"DEFAULT\",\"DEFAULT\"],\"preferred_element_type\":null,\"return_residuals\":false,\"activation\":null}": {
    "{\"tile_m\":1024,\"tile_k\":1024,\"tile_n\":1024,\"input_buffer_count\":2,\"combine_scopes\":false}": {
      "compile_time_ms": 10429.054748994531,
      "lower_time_ms": 69301.82857299224,
      "evaluation_times_ms": [
        8.743,
        8.741,
        8.742,
        8.741,
        8.74
      ],
      "metadata": {},
      "peak_memory_mb": 8053.088768
    }
  },
  "{\"lhs\":\"bf16[262144,7168]\",\"rhs\":\"bf16[262144,1024]\",\"group_sizes\":{\"num_groups\":256,\"total_size\":262144},\"ragged_dot_dimension_numbers\":{\"dot_dimension_numbers\":[[[0],[0]],[[],[]]],\"lhs_ragged_dimensions\":[0],\"rhs_group_dimensions\":[]},\"precision\":[\"DEFAULT\",\"DEFAULT\"],\"preferred_element_type\":null,\"return_residuals\":false,\"activation\":null}": {
    "{\"tile_m\":512,\"tile_k\":1792,\"tile_n\":1024,\"input_buffer_count\":4,\"combine_scopes\":false}": {
      "compile_time_ms": 54863.84094998357,
      "lower_time_ms": 29871.41686398536,
      "evaluation_times_ms": [
        8.165,
        8.167,
        8.17,
        8.166,
        8.168
      ],
      "metadata": {},
      "peak_memory_mb": 8053.093376
    }
  },
  "{\"lhs\":\"bf16[262144,2048]\",\"rhs\":\"bf16[256,7168,2048]\",\"group_sizes\":{\"num_groups\":256,\"total_size\":262144},\"ragged_dot_dimension_numbers\":{\"dot_dimension_numbers\":[[[1],[2]],[[],[]]],\"lhs_ragged_dimensions\":[0],\"rhs_group_dimensions\":[0]},\"precision\":[\"DEFAULT\",\"DEFAULT\"],\"preferred_element_type\":null,\"return_residuals\":false,\"activation\":null}": {
    "{\"tile_m\":256,\"tile_k\":2048,\"tile_n\":1792,\"input_buffer_count\":2,\"combine_scopes\":false}": {
      "compile_time_ms": 6210.941776866093,
      "lower_time_ms": 76250.92876213603,
      "evaluation_times_ms": [
        12.702,
        12.701,
        12.706,
        12.706,
        12.701
      ],
      "metadata": {},
      "peak_memory_mb": 12348.079104
    }
  },
  "{\"lhs\":\"bf16[262144,7168]\",\"rhs\":\"bf16[262144,2048]\",\"group_sizes\":{\"num_groups\":256,\"total_size\":262144},\"ragged_dot_dimension_numbers\":{\"dot_dimension_numbers\":[[[0],[0]],[[],[]]],\"lhs_ragged_dimensions\":[0],\"rhs_group_dimensions\":[]},\"precision\":[\"DEFAULT\",\"DEFAULT\"],\"preferred_element_type\":null,\"return_residuals\":false,\"activation\":null}": {
    "{\"tile_m\":256,\"tile_k\":1024,\"tile_n\":2048,\"input_buffer_count\":4,\"combine_scopes\":false}": {
      "compile_time_ms": 12171.879379078746,
      "lower_time_ms": 31995.309551013634,
      "evaluation_times_ms": [
        15.942,
        15.94,
        15.945,
        15.94,
        15.94
      ],
      "metadata": {},
      "peak_memory_mb": 12348.079104
    }
  },
  "{\"lhs\":\"bf16[327680,2880]\",\"rhs\":\"bf16[128,2880,2880]\",\"group_sizes\":{\"num_groups\":128,\"total_size\":327680},\"ragged_dot_dimension_numbers\":{\"dot_dimension_numbers\":[[[1],[2]],[[],[]]],\"lhs_ragged_dimensions\":[0],\"rhs_group_dimensions\":[0]},\"precision\":[\"DEFAULT\",\"DEFAULT\"],\"preferred_element_type\":null,\"return_residuals\":false,\"activation\":null}": {
    "{\"tile_m\":512,\"tile_k\":2944,\"tile_n\":1536,\"input_buffer_count\":2,\"combine_scopes\":false}": {
      "compile_time_ms": 11442.570911000075,
      "lower_time_ms": 44573.44267499991,
      "evaluation_times_ms": [
        15.557,
        15.574,
        15.575,
        15.571,
        15.567
      ],
      "metadata": {},
      "peak_memory_mb": 11927.563264
    }
  },
  "{\"lhs\":\"bf16[327680,2880]\",\"rhs\":\"bf16[327680,2880]\",\"group_sizes\":{\"num_groups\":128,\"total_size\":327680},\"ragged_dot_dimension_numbers\":{\"dot_dimension_numbers\":[[[0],[0]],[[],[]]],\"lhs_ragged_dimensions\":[0],\"rhs_group_dimensions\":[]},\"precision\":[\"DEFAULT\",\"DEFAULT\"],\"preferred_element_type\":null,\"return_residuals\":false,\"activation\":null}": {
    "{\"tile_m\":512,\"tile_k\":2944,\"tile_n\":768,\"input_buffer_count\":2,\"combine_scopes\":false}": {
      "compile_time_ms": 1426.0177350001868,
      "lower_time_ms": 37613.327371000196,
      "evaluation_times_ms": [
        16.917,
        16.919,
        16.935,
        16.918,
        16.929
      ],
      "metadata": {},
      "peak_memory_mb": 9998.183424
    }
  },
  "{\"lhs\":\"bf16[393216,768]\",\"rhs\":\"bf16[128,2048,768]\",\"group_sizes\":{\"num_groups\":128,\"total_size\":393216},\"ragged_dot_dimension_numbers\":{\"dot_dimension_numbers\":[[[1],[2]],[[],[]]],\"lhs_ragged_dimensions\":[0],\"rhs_group_dimensions\":[0]},\"precision\":[\"DEFAULT\",\"DEFAULT\"],\"preferred_element_type\":null,\"return_residuals\":false,\"activation\":null}": {
    "{\"tile_m\":1024,\"tile_k\":768,\"tile_n\":2048,\"input_buffer_count\":2,\"combine_scopes\":false}": {
      "compile_time_ms": 1397.5787039998977,
      "lower_time_ms": 19504.42535000002,
      "evaluation_times_ms": [
        1.879,
        1.879,
        1.879,
        1.88,
        1.879
      ],
      "metadata": {},
      "peak_memory_mb": 2617.26464
    }
  },
  "{\"lhs\":\"bf16[393216,2048]\",\"rhs\":\"bf16[393216,768]\",\"group_sizes\":{\"num_groups\":128,\"total_size\":393216},\"ragged_dot_dimension_numbers\":{\"dot_dimension_numbers\":[[[0],[0]],[[],[]]],\"lhs_ragged_dimensions\":[0],\"rhs_group_dimensions\":[]},\"precision\":[\"DEFAULT\",\"DEFAULT\"],\"preferred_element_type\":null,\"return_residuals\":false,\"activation\":null}": {
    "{\"tile_m\":1024,\"tile_k\":2048,\"tile_n\":768,\"input_buffer_count\":2,\"combine_scopes\":false}": {
      "compile_time_ms": 9115.142000999185,
      "lower_time_ms": 63011.99726200048,
      "evaluation_times_ms": [
        2.034,
        2.035,
        2.034,
        2.034,
        2.033
      ],
      "metadata": {},
      "peak_memory_mb": 2617.26464
    }
  },
  "{\"lhs\":\"bf16[393216,2048]\",\"rhs\":\"bf16[128,768,2048]\",\"group_sizes\":{\"num_groups\":128,\"total_size\":393216},\"ragged_dot_dimension_numbers\":{\"dot_dimension_numbers\":[[[1],[2]],[[],[]]],\"lhs_ragged_dimensions\":[0],\"rhs_group_dimensions\":[0]},\"precision\":[\"DEFAULT\",\"DEFAULT\"],\"preferred_element_type\":null,\"return_residuals\":false,\"activation\":null}": {
    "{\"tile_m\":512,\"tile_k\":2048,\"tile_n\":768,\"input_buffer_count\":2,\"combine_scopes\":false}": {
      "compile_time_ms": 437.3982729994168,
      "lower_time_ms": 25163.908802999686,
      "evaluation_times_ms": [
        1.876,
        1.876,
        1.875,
        1.875,
        1.875
      ],
      "metadata": {},
      "peak_memory_mb": 2617.272832
    }
  },
  "{\"lhs\":\"bf16[393216,768]\",\"rhs\":\"bf16[393216,2048]\",\"group_sizes\":{\"num_groups\":128,\"total_size\":393216},\"ragged_dot_dimension_numbers\":{\"dot_dimension_numbers\":[[[0],[0]],[[],[]]],\"lhs_ragged_dimensions\":[0],\"rhs_group_dimensions\":[]},\"precision\":[\"DEFAULT\",\"DEFAULT\"],\"preferred_element_type\":null,\"return_residuals\":false,\"activation\":null}": {
    "{\"tile_m\":1024,\"tile_k\":768,\"tile_n\":2048,\"input_buffer_count\":2,\"combine_scopes\":false}": {
      "compile_time_ms": 1944.4209299999784,
      "lower_time_ms": 32308.091818999856,
      "evaluation_times_ms": [
        2.028,
        2.029,
        2.027,
        2.027,
        2.028
      ],
      "metadata": {},
      "peak_memory_mb": 2617.26464
    }
  },
  "{\"lhs\":\"bf16[524288,1536]\",\"rhs\":\"bf16[128,4096,1536]\",\"group_sizes\":{\"num_groups\":128,\"total_size\":524288},\"ragged_dot_dimension_numbers\":{\"dot_dimension_numbers\":[[[1],[2]],[[],[]]],\"lhs_ragged_dimensions\":[0],\"rhs_group_dimensions\":[0]},\"precision\":[\"DEFAULT\",\"DEFAULT\"],\"preferred_element_type\":null,\"return_residuals\":false,\"activation\":null}": {
    "{\"tile_m\":1024,\"tile_k\":1536,\"tile_n\":1024,\"input_buffer_count\":2,\"combine_scopes\":false}": {
      "compile_time_ms": 2177.900860000591,
      "lower_time_ms": 20159.461117999854,
      "evaluation_times_ms": [
        9.269,
        9.269,
        9.27,
        9.27,
        9.269
      ],
      "metadata": {},
      "peak_memory_mb": 7516.217856
    }
  },
  "{\"lhs\":\"bf16[524288,4096]\",\"rhs\":\"bf16[524288,1536]\",\"group_sizes\":{\"num_groups\":128,\"total_size\":524288},\"ragged_dot_dimension_numbers\":{\"dot_dimension_numbers\":[[[0],[0]],[[],[]]],\"lhs_ragged_dimensions\":[0],\"rhs_group_dimensions\":[]},\"precision\":[\"DEFAULT\",\"DEFAULT\"],\"preferred_element_type\":null,\"return_residuals\":false,\"activation\":null}": {
    "{\"tile_m\":1024,\"tile_k\":1024,\"tile_n\":1536,\"input_buffer_count\":2,\"combine_scopes\":false}": {
      "compile_time_ms": 16365.611491986783,
      "lower_time_ms": 49125.47938799253,
      "evaluation_times_ms": [
        9.89,
        9.889,
        9.892,
        9.894,
        9.893
      ],
      "metadata": {},
      "peak_memory_mb": 7516.217856
    }
  },
  "{\"lhs\":\"bf16[524288,4096]\",\"rhs\":\"bf16[128,1536,4096]\",\"group_sizes\":{\"num_groups\":128,\"total_size\":524288},\"ragged_dot_dimension_numbers\":{\"dot_dimension_numbers\":[[[1],[2]],[[],[]]],\"lhs_ragged_dimensions\":[0],\"rhs_group_dimensions\":[0]},\"precision\":[\"DEFAULT\",\"DEFAULT\"],\"preferred_element_type\":null,\"return_residuals\":false,\"activation\":null}": {
    "{\"tile_m\":1024,\"tile_k\":1024,\"tile_n\":1536,\"input_buffer_count\":2,\"combine_scopes\":false}": {
      "compile_time_ms": 9841.631546994904,
      "lower_time_ms": 34577.46920900536,
      "evaluation_times_ms": [
        9.603,
        9.601,
        9.604,
        9.602,
        9.603
      ],
      "metadata": {},
      "peak_memory_mb": 7516.217856
    }
  },
  "{\"lhs\":\"bf16[524288,1536]\",\"rhs\":\"bf16[524288,4096]\",\"group_sizes\":{\"num_groups\":128,\"total_size\":524288},\"ragged_dot_dimension_numbers\":{\"dot_dimension_numbers\":[[[0],[0]],[[],[]]],\"lhs_ragged_dimensions\":[0],\"rhs_group_dimensions\":[]},\"precision\":[\"DEFAULT\",\"DEFAULT\"],\"preferred_element_type\":null,\"return_residuals\":false,\"activation\":null}": {
    "{\"tile_m\":512,\"tile_k\":512,\"tile_n\":4096,\"input_buffer_count\":2,\"combine_scopes\":false}": {
      "compile_time_ms": 1508.667295012856,
      "lower_time_ms": 13662.380196998129,
      "evaluation_times_ms": [
        9.809,
        9.811,
        9.817,
        9.821,
        9.817
      ],
      "metadata": {},
      "peak_memory_mb": 7516.236288
    }
  },
  "{\"lhs\":\"bf16[524288,2048]\",\"rhs\":\"bf16[256,7168,2048]\",\"group_sizes\":{\"num_groups\":256,\"total_size\":524288},\"ragged_dot_dimension_numbers\":{\"dot_dimension_numbers\":[[[1],[2]],[[],[]]],\"lhs_ragged_dimensions\":[0],\"rhs_group_dimensions\":[0]},\"precision\":[\"DEFAULT\",\"DEFAULT\"],\"preferred_element_type\":null,\"return_residuals\":false,\"activation\":null}": {
    "{\"tile_m\":512,\"tile_k\":2048,\"tile_n\":1024,\"input_buffer_count\":2,\"combine_scopes\":false}": {
      "compile_time_ms": 838.4524309949484,
      "lower_time_ms": 23296.55699900468,
      "evaluation_times_ms": [
        22.852,
        22.857,
        22.857,
        22.855,
        22.856
      ],
      "metadata": {},
      "peak_memory_mb": 17179.917312
    }
  },
  "{\"lhs\":\"bf16[524288,7168]\",\"rhs\":\"bf16[524288,2048]\",\"group_sizes\":{\"num_groups\":256,\"total_size\":524288},\"ragged_dot_dimension_numbers\":{\"dot_dimension_numbers\":[[[0],[0]],[[],[]]],\"lhs_ragged_dimensions\":[0],\"rhs_group_dimensions\":[]},\"precision\":[\"DEFAULT\",\"DEFAULT\"],\"preferred_element_type\":null,\"return_residuals\":false,\"activation\":null}": {},
  "{\"lhs\":\"bf16[262144,1536]\",\"rhs\":\"bf16[128,4096,1536]\",\"group_sizes\":{\"num_groups\":128,\"total_size\":262144},\"ragged_dot_dimension_numbers\":{\"dot_dimension_numbers\":[[[1],[2]],[[],[]]],\"lhs_ragged_dimensions\":[0],\"rhs_group_dimensions\":[0]},\"precision\":[\"DEFAULT\",\"DEFAULT\"],\"preferred_element_type\":null,\"return_residuals\":false,\"activation\":null}": {
    "{\"tile_m\":512,\"tile_k\":1536,\"tile_n\":1024,\"input_buffer_count\":2,\"combine_scopes\":false}": {
      "compile_time_ms": 27627.253980987007,
      "lower_time_ms": 25624.02038698201,
      "evaluation_times_ms": [
        5.368,
        5.37,
        5.365,
        5.368,
        5.367
      ],
      "metadata": {},
      "peak_memory_mb": 4563.42784
    }
  },
  "{\"lhs\":\"bf16[262144,4096]\",\"rhs\":\"bf16[262144,1536]\",\"group_sizes\":{\"num_groups\":128,\"total_size\":262144},\"ragged_dot_dimension_numbers\":{\"dot_dimension_numbers\":[[[0],[0]],[[],[]]],\"lhs_ragged_dimensions\":[0],\"rhs_group_dimensions\":[]},\"precision\":[\"DEFAULT\",\"DEFAULT\"],\"preferred_element_type\":null,\"return_residuals\":false,\"activation\":null}": {
    "{\"tile_m\":512,\"tile_k\":4096,\"tile_n\":512,\"input_buffer_count\":2,\"combine_scopes\":false}": {
      "compile_time_ms": 13817.801927012624,
      "lower_time_ms": 41674.2830479925,
      "evaluation_times_ms": [
        5.807,
        5.807,
        5.807,
        5.806,
        5.808
      ],
      "metadata": {},
      "peak_memory_mb": 4563.42784
    }
  },
  "{\"lhs\":\"bf16[131072,768]\",\"rhs\":\"bf16[128,2048,768]\",\"group_sizes\":{\"num_groups\":128,\"total_size\":131072},\"ragged_dot_dimension_numbers\":{\"dot_dimension_numbers\":[[[1],[2]],[[],[]]],\"lhs_ragged_dimensions\":[0],\"rhs_group_dimensions\":[0]},\"precision\":[\"DEFAULT\",\"DEFAULT\"],\"preferred_element_type\":null,\"return_residuals\":false,\"activation\":null}": {
    "{\"tile_m\":1024,\"tile_k\":1024,\"tile_n\":768,\"input_buffer_count\":2,\"combine_scopes\":false}": {
      "compile_time_ms": 6696.990791009739,
      "lower_time_ms": 26816.60132302204,
      "evaluation_times_ms": [
        1.548,
        1.548,
        1.547,
        1.548,
        1.548
      ],
      "metadata": {},
      "peak_memory_mb": 1140.99456
    }
  },
  "{\"lhs\":\"bf16[131072,2048]\",\"rhs\":\"bf16[131072,768]\",\"group_sizes\":{\"num_groups\":128,\"total_size\":131072},\"ragged_dot_dimension_numbers\":{\"dot_dimension_numbers\":[[[0],[0]],[[],[]]],\"lhs_ragged_dimensions\":[0],\"rhs_group_dimensions\":[]},\"precision\":[\"DEFAULT\",\"DEFAULT\"],\"preferred_element_type\":null,\"return_residuals\":false,\"activation\":null}": {
    "{\"tile_m\":512,\"tile_k\":2048,\"tile_n\":768,\"input_buffer_count\":4,\"combine_scopes\":false}": {
      "compile_time_ms": 12154.019665002124,
      "lower_time_ms": 31484.940672991797,
      "evaluation_times_ms": [
        0.938,
        0.938,
        0.939,
        0.939,
        0.938
      ],
      "metadata": {},
      "peak_memory_mb": 1140.868608
    }
  },
  "{\"lhs\":\"bf16[131072,1536]\",\"rhs\":\"bf16[128,4096,1536]\",\"group_sizes\":{\"num_groups\":128,\"total_size\":131072},\"ragged_dot_dimension_numbers\":{\"dot_dimension_numbers\":[[[1],[2]],[[],[]]],\"lhs_ragged_dimensions\":[0],\"rhs_group_dimensions\":[0]},\"precision\":[\"DEFAULT\",\"DEFAULT\"],\"preferred_element_type\":null,\"return_residuals\":false,\"activation\":null}": {
    "{\"tile_m\":512,\"tile_k\":1536,\"tile_n\":1024,\"input_buffer_count\":2,\"combine_scopes\":false}": {
      "compile_time_ms": 9712.282743974356,
      "lower_time_ms": 23324.055814009625,
      "evaluation_times_ms": [
        3.241,
        3.24,
        3.244,
        3.242,
        3.246
      ],
      "metadata": {},
      "peak_memory_mb": 3087.025664
    }
  },
  "{\"lhs\":\"bf16[131072,4096]\",\"rhs\":\"bf16[131072,1536]\",\"group_sizes\":{\"num_groups\":128,\"total_size\":131072},\"ragged_dot_dimension_numbers\":{\"dot_dimension_numbers\":[[[0],[0]],[[],[]]],\"lhs_ragged_dimensions\":[0],\"rhs_group_dimensions\":[]},\"precision\":[\"DEFAULT\",\"DEFAULT\"],\"preferred_element_type\":null,\"return_residuals\":false,\"activation\":null}": {
    "{\"tile_m\":256,\"tile_k\":4096,\"tile_n\":512,\"input_buffer_count\":4,\"combine_scopes\":false}": {
      "compile_time_ms": 7003.670417994726,
      "lower_time_ms": 36794.20774700702,
      "evaluation_times_ms": [
        3.471,
        3.474,
        3.471,
        3.471,
        3.469
      ],
      "metadata": {},
      "peak_memory_mb": 3087.032832
    }
  },
  "{\"lhs\":\"bf16[131072,4096]\",\"rhs\":\"bf16[128,1536,4096]\",\"group_sizes\":{\"num_groups\":128,\"total_size\":131072},\"ragged_dot_dimension_numbers\":{\"dot_dimension_numbers\":[[[1],[2]],[[],[]]],\"lhs_ragged_dimensions\":[0],\"rhs_group_dimensions\":[0]},\"precision\":[\"DEFAULT\",\"DEFAULT\"],\"preferred_element_type\":null,\"return_residuals\":false,\"activation\":null}": {
    "{\"tile_m\":512,\"tile_k\":1024,\"tile_n\":1536,\"input_buffer_count\":2,\"combine_scopes\":false}": {
      "compile_time_ms": 8527.236766007263,
      "lower_time_ms": 41183.93171799835,
      "evaluation_times_ms": [
        3.42,
        3.421,
        3.425,
        3.421,
        3.42
      ],
      "metadata": {},
      "peak_memory_mb": 3087.025664
    }
  },
  "{\"lhs\":\"bf16[131072,1536]\",\"rhs\":\"bf16[131072,4096]\",\"group_sizes\":{\"num_groups\":128,\"total_size\":131072},\"ragged_dot_dimension_numbers\":{\"dot_dimension_numbers\":[[[0],[0]],[[],[]]],\"lhs_ragged_dimensions\":[0],\"rhs_group_dimensions\":[]},\"precision\":[\"DEFAULT\",\"DEFAULT\"],\"preferred_element_type\":null,\"return_residuals\":false,\"activation\":null}": {
    "{\"tile_m\":256,\"tile_k\":512,\"tile_n\":4096,\"input_buffer_count\":4,\"combine_scopes\":false}": {
      "compile_time_ms": 13123.810099001275,
      "lower_time_ms": 30652.29444898432,
      "evaluation_times_ms": [
        3.417,
        3.416,
        3.415,
        3.417,
        3.417
      ],
      "metadata": {},
      "peak_memory_mb": 3087.032832
    }
  },
  "{\"lhs\":\"bf16[131072,2048]\",\"rhs\":\"bf16[256,7168,2048]\",\"group_sizes\":{\"num_groups\":256,\"total_size\":131072},\"ragged_dot_dimension_numbers\":{\"dot_dimension_numbers\":[[[1],[2]],[[],[]]],\"lhs_ragged_dimensions\":[0],\"rhs_group_dimensions\":[0]},\"precision\":[\"DEFAULT\",\"DEFAULT\"],\"preferred_element_type\":null,\"return_residuals\":false,\"activation\":null}": {
    "{\"tile_m\":512,\"tile_k\":2048,\"tile_n\":1792,\"input_buffer_count\":2,\"combine_scopes\":false}": {
      "compile_time_ms": 9902.796837995993,
      "lower_time_ms": 53167.579467990436,
      "evaluation_times_ms": [
        8.089,
        8.09,
        8.089,
        8.09,
        8.088
      ],
      "metadata": {},
      "peak_memory_mb": 9932.13696
    }
  },
  "{\"lhs\":\"bf16[131072,7168]\",\"rhs\":\"bf16[131072,2048]\",\"group_sizes\":{\"num_groups\":256,\"total_size\":131072},\"ragged_dot_dimension_numbers\":{\"dot_dimension_numbers\":[[[0],[0]],[[],[]]],\"lhs_ragged_dimensions\":[0],\"rhs_group_dimensions\":[]},\"precision\":[\"DEFAULT\",\"DEFAULT\"],\"preferred_element_type\":null,\"return_residuals\":false,\"activation\":null}": {
    "{\"tile_m\":256,\"tile_k\":1024,\"tile_n\":2048,\"input_buffer_count\":4,\"combine_scopes\":false}": {
      "compile_time_ms": 8683.737199986354,
      "lower_time_ms": 34323.18745201337,
      "evaluation_times_ms": [
        10.307,
        10.306,
        10.301,
        10.307,
        10.302
      ],
      "metadata": {},
      "peak_memory_mb": 9932.141568
    }
  },
  "{\"lhs\":\"bf16[65536,2048]\",\"rhs\":\"bf16[256,7168,2048]\",\"group_sizes\":{\"num_groups\":256,\"total_size\":65536},\"ragged_dot_dimension_numbers\":{\"dot_dimension_numbers\":[[[1],[2]],[[],[]]],\"lhs_ragged_dimensions\":[0],\"rhs_group_dimensions\":[0]},\"precision\":[\"DEFAULT\",\"DEFAULT\"],\"preferred_element_type\":null,\"return_residuals\":false,\"activation\":null}": {
    "{\"tile_m\":256,\"tile_k\":2048,\"tile_n\":2048,\"input_buffer_count\":2,\"combine_scopes\":false}": {
      "compile_time_ms": 10279.996661003679,
      "lower_time_ms": 30948.545655002818,
      "evaluation_times_ms": [
        5.671,
        5.669,
        5.663,
        5.667,
        5.667
      ],
      "metadata": {},
      "peak_memory_mb": 8724.177408
    }
  },
  "{\"lhs\":\"bf16[65536,7168]\",\"rhs\":\"bf16[65536,2048]\",\"group_sizes\":{\"num_groups\":256,\"total_size\":65536},\"ragged_dot_dimension_numbers\":{\"dot_dimension_numbers\":[[[0],[0]],[[],[]]],\"lhs_ragged_dimensions\":[0],\"rhs_group_dimensions\":[]},\"precision\":[\"DEFAULT\",\"DEFAULT\"],\"preferred_element_type\":null,\"return_residuals\":false,\"activation\":null}": {
    "{\"tile_m\":256,\"tile_k\":1024,\"tile_n\":2048,\"input_buffer_count\":4,\"combine_scopes\":false}": {
      "compile_time_ms": 46435.811640985776,
      "lower_time_ms": 31474.035712017212,
      "evaluation_times_ms": [
        7.47,
        7.466,
        7.469,
        7.468,
        7.467
      ],
      "metadata": {},
      "peak_memory_mb": 8724.177408
    }
  },
  "{\"lhs\":\"bf16[262144,7168]\",\"rhs\":\"bf16[256,512,7168]\",\"group_sizes\":{\"num_groups\":256,\"total_size\":262144},\"ragged_dot_dimension_numbers\":{\"dot_dimension_numbers\":[[[1],[2]],[[],[]]],\"lhs_ragged_dimensions\":[0],\"rhs_group_dimensions\":[0]},\"precision\":[\"DEFAULT\",\"DEFAULT\"],\"preferred_element_type\":null,\"return_residuals\":false,\"activation\":null}": {
    "{\"tile_m\":256,\"tile_k\":7168,\"tile_n\":512,\"input_buffer_count\":2,\"combine_scopes\":false}": {
      "compile_time_ms": 9997.869513026671,
      "lower_time_ms": 31453.80864699837,
      "evaluation_times_ms": [
        3.168,
        3.168,
        3.167,
        3.166,
        3.168
      ],
      "metadata": {},
      "peak_memory_mb": 5905.62816
    }
  },
  "{\"lhs\":\"bf16[262144,512]\",\"rhs\":\"bf16[262144,7168]\",\"group_sizes\":{\"num_groups\":256,\"total_size\":262144},\"ragged_dot_dimension_numbers\":{\"dot_dimension_numbers\":[[[0],[0]],[[],[]]],\"lhs_ragged_dimensions\":[0],\"rhs_group_dimensions\":[]},\"precision\":[\"DEFAULT\",\"DEFAULT\"],\"preferred_element_type\":null,\"return_residuals\":false,\"activation\":null}": {
    "{\"tile_m\":256,\"tile_k\":512,\"tile_n\":3584,\"input_buffer_count\":4,\"combine_scopes\":false}": {
      "compile_time_ms": 15072.493418992963,
      "lower_time_ms": 48371.19544702,
      "evaluation_times_ms": [
        4.112,
        4.112,
        4.112,
        4.111,
        4.112
      ],
      "metadata": {},
      "peak_memory_mb": 5905.62816
    }
  },
  "{\"lhs\":\"bf16[4096,4096]\",\"rhs\":\"bf16[8,4096,4096]\",\"group_sizes\":{\"num_groups\":8,\"total_size\":4096},\"ragged_dot_dimension_numbers\":{\"dot_dimension_numbers\":[[[1],[2]],[[],[]]],\"lhs_ragged_dimensions\":[0],\"rhs_group_dimensions\":[0]},\"precision\":[\"DEFAULT\",\"DEFAULT\"],\"preferred_element_type\":null,\"return_residuals\":false,\"activation\":null}": {
    "{\"tile_m\":512,\"tile_k\":4096,\"tile_n\":1024,\"input_buffer_count\":2,\"combine_scopes\":false}": {
      "compile_time_ms": 11767.911475995788,
      "lower_time_ms": 28457.898622000357,
      "evaluation_times_ms": [
        0.17,
        0.17,
        0.17,
        0.17,
        0.17
      ],
      "metadata": {},
      "peak_memory_mb": 335.557632
    }
  },
  "{\"lhs\":\"bf16[4096,4096]\",\"rhs\":\"bf16[4096,4096]\",\"group_sizes\":{\"num_groups\":8,\"total_size\":4096},\"ragged_dot_dimension_numbers\":{\"dot_dimension_numbers\":[[[0],[0]],[[],[]]],\"lhs_ragged_dimensions\":[0],\"rhs_group_dimensions\":[]},\"precision\":[\"DEFAULT\",\"DEFAULT\"],\"preferred_element_type\":null,\"return_residuals\":false,\"activation\":null}": {
    "{\"tile_m\":512,\"tile_k\":2048,\"tile_n\":1024,\"input_buffer_count\":3,\"combine_scopes\":false}": {
      "compile_time_ms": 70235.50793601316,
      "lower_time_ms": 31121.798590000253,
      "evaluation_times_ms": [
        0.292,
        0.292,
        0.292,
        0.292,
        0.292
      ],
      "metadata": {},
      "peak_memory_mb": 335.557632
    }
  },
  "{\"lhs\":\"bf16[8,4096]\",\"rhs\":\"bf16[8,4096,4096]\",\"group_sizes\":{\"num_groups\":8,\"total_size\":8},\"ragged_dot_dimension_numbers\":{\"dot_dimension_numbers\":[[[1],[2]],[[],[]]],\"lhs_ragged_dimensions\":[0],\"rhs_group_dimensions\":[0]},\"precision\":[\"DEFAULT\",\"DEFAULT\"],\"preferred_element_type\":null,\"return_residuals\":false,\"activation\":null}": {},
  "{\"lhs\":\"bf16[8,4096]\",\"rhs\":\"bf16[8,4096]\",\"group_sizes\":{\"num_groups\":8,\"total_size\":8},\"ragged_dot_dimension_numbers\":{\"dot_dimension_numbers\":[[[0],[0]],[[],[]]],\"lhs_ragged_dimensions\":[0],\"rhs_group_dimensions\":[]},\"precision\":[\"DEFAULT\",\"DEFAULT\"],\"preferred_element_type\":null,\"return_residuals\":false,\"activation\":null}": {}
}
