{
  "{\"lhs\":\"bf16[131072,7168]\",\"rhs\":\"bf16[256,7168,1024]\",\"group_sizes\":{"num_groups":256,"total_size":131072},\"ragged_dot_dimension_numbers\":{\"dot_dimension_numbers\":[[[1],[1]],[[],[]]],\"lhs_ragged_dimensions\":[0],\"rhs_group_dimensions\":[0]},\"precision\":[\"DEFAULT\",\"DEFAULT\"],\"preferred_element_type\":null,\"return_residuals\":false,\"activation\":null}": {
    "{}": {
      "compile_time_ms": 1626.7127139726654,
      "lower_time_ms": 85.6904229731299,
      "evaluation_times_ms": [
        4.081,
        4.083,
        4.089,
        4.085,
        4.09
      ],
      "metadata": {},
      "peak_memory_mb": 6442.451968
    }
  },
  "{\"lhs\":\"bf16[131072,7168]\",\"rhs\":\"bf16[256,7168,1024]\",\"group_sizes\":{"num_groups":256,"total_size":131072},\"ragged_dot_dimension_numbers\":{\"dot_dimension_numbers\":[[[1],[1]],[[],[]]],\"lhs_ragged_dimensions\":[0],\"rhs_group_dimensions\":[0]},\"precision\":[\"DEFAULT\",\"DEFAULT\"],\"preferred_element_type\":null,\"return_residuals\":true,\"activation\":null}": {
    "{}": {
      "compile_time_ms": 439.00347396265715,
      "lower_time_ms": 8.66833102190867,
      "evaluation_times_ms": [
        4.253,
        4.25,
        4.258,
        4.253,
        4.253
      ],
      "metadata": {},
      "peak_memory_mb": 6710.887456
    }
  },
  "{\"lhs\":\"bf16[131072,1024]\",\"rhs\":\"bf16[256,1024,7168]\",\"group_sizes\":{"num_groups":256,"total_size":131072},\"ragged_dot_dimension_numbers\":{\"dot_dimension_numbers\":[[[1],[1]],[[],[]]],\"lhs_ragged_dimensions\":[0],\"rhs_group_dimensions\":[0]},\"precision\":[\"DEFAULT\",\"DEFAULT\"],\"preferred_element_type\":null,\"return_residuals\":false,\"activation\":null}": {
    "{}": {
      "compile_time_ms": 422.52889601513743,
      "lower_time_ms": 9.901173994876444,
      "evaluation_times_ms": [
        6.931,
        6.931,
        6.928,
        6.936,
        6.936
      ],
      "metadata": {},
      "peak_memory_mb": 9663.67744
    }
  },
  "{\"lhs\":\"bf16[131072,1024]\",\"rhs\":\"bf16[256,1024,7168]\",\"group_sizes\":{"num_groups":256,"total_size":131072},\"ragged_dot_dimension_numbers\":{\"dot_dimension_numbers\":[[[1],[1]],[[],[]]],\"lhs_ragged_dimensions\":[0],\"rhs_group_dimensions\":[0]},\"precision\":[\"DEFAULT\",\"DEFAULT\"],\"preferred_element_type\":null,\"return_residuals\":true,\"activation\":null}": {
    "{}": {
      "compile_time_ms": 437.79792700661346,
      "lower_time_ms": 8.189418993424624,
      "evaluation_times_ms": [
        8.127,
        8.131,
        8.128,
        8.124,
        8.122
      ],
      "metadata": {},
      "peak_memory_mb": 11542.725664
    }
  },
  "{\"lhs\":\"bf16[131072,7168]\",\"rhs\":\"bf16[256,7168,512]\",\"group_sizes\":{"num_groups":256,"total_size":131072},\"ragged_dot_dimension_numbers\":{\"dot_dimension_numbers\":[[[1],[1]],[[],[]]],\"lhs_ragged_dimensions\":[0],\"rhs_group_dimensions\":[0]},\"precision\":[\"DEFAULT\",\"DEFAULT\"],\"preferred_element_type\":null,\"return_residuals\":false,\"activation\":null}": {
    "{}": {
      "compile_time_ms": 431.75842400523834,
      "lower_time_ms": 11.060369986807927,
      "evaluation_times_ms": [
        2.046,
        2.043,
        2.044,
        2.045,
        2.046
      ],
      "metadata": {},
      "peak_memory_mb": 4160.750592
    }
  },
  "{\"lhs\":\"bf16[131072,7168]\",\"rhs\":\"bf16[256,7168,512]\",\"group_sizes\":{"num_groups":256,"total_size":131072},\"ragged_dot_dimension_numbers\":{\"dot_dimension_numbers\":[[[1],[1]],[[],[]]],\"lhs_ragged_dimensions\":[0],\"rhs_group_dimensions\":[0]},\"precision\":[\"DEFAULT\",\"DEFAULT\"],\"preferred_element_type\":null,\"return_residuals\":true,\"activation\":null}": {
    "{}": {
      "compile_time_ms": 438.612039986765,
      "lower_time_ms": 9.522314008791,
      "evaluation_times_ms": [
        2.132,
        2.133,
        2.13,
        2.134,
        2.131
      ],
      "metadata": {},
      "peak_memory_mb": 4294.968352
    }
  },
  "{\"lhs\":\"bf16[131072,512]\",\"rhs\":\"bf16[256,512,7168]\",\"group_sizes\":{"num_groups":256,"total_size":131072},\"ragged_dot_dimension_numbers\":{\"dot_dimension_numbers\":[[[1],[1]],[[],[]]],\"lhs_ragged_dimensions\":[0],\"rhs_group_dimensions\":[0]},\"precision\":[\"DEFAULT\",\"DEFAULT\"],\"preferred_element_type\":null,\"return_residuals\":false,\"activation\":null}": {
    "{}": {
      "compile_time_ms": 379.1780190076679,
      "lower_time_ms": 8.649146999232471,
      "evaluation_times_ms": [
        4.89,
        4.889,
        4.887,
        4.885,
        4.888
      ],
      "metadata": {},
      "peak_memory_mb": 7650.41152
    }
  },
  "{\"lhs\":\"bf16[131072,512]\",\"rhs\":\"bf16[256,512,7168]\",\"group_sizes\":{"num_groups":256,"total_size":131072},\"ragged_dot_dimension_numbers\":{\"dot_dimension_numbers\":[[[1],[1]],[[],[]]],\"lhs_ragged_dimensions\":[0],\"rhs_group_dimensions\":[0]},\"precision\":[\"DEFAULT\",\"DEFAULT\"],\"preferred_element_type\":null,\"return_residuals\":true,\"activation\":null}": {
    "{}": {
      "compile_time_ms": 398.61239699530415,
      "lower_time_ms": 7.7228609879966825,
      "evaluation_times_ms": [
        6.081,
        6.082,
        6.084,
        6.08,
        6.081
      ],
      "metadata": {},
      "peak_memory_mb": 9529.459744
    }
  },
  "{\"lhs\":\"bf16[262144,7168]\",\"rhs\":\"bf16[256,7168,512]\",\"group_sizes\":{"num_groups":256,"total_size":262144},\"ragged_dot_dimension_numbers\":{\"dot_dimension_numbers\":[[[1],[1]],[[],[]]],\"lhs_ragged_dimensions\":[0],\"rhs_group_dimensions\":[0]},\"precision\":[\"DEFAULT\",\"DEFAULT\"],\"preferred_element_type\":null,\"return_residuals\":false,\"activation\":null}": {
    "{}": {
      "compile_time_ms": 1517.0553920324892,
      "lower_time_ms": 87.56426791660488,
      "evaluation_times_ms": [
        3.377,
        3.374,
        3.372,
        3.375,
        3.376
      ],
      "metadata": {},
      "peak_memory_mb": 6442.451968
    }
  },
  "{\"lhs\":\"bf16[262144,7168]\",\"rhs\":\"bf16[256,7168,512]\",\"group_sizes\":{"num_groups":256,"total_size":262144},\"ragged_dot_dimension_numbers\":{\"dot_dimension_numbers\":[[[1],[1]],[[],[]]],\"lhs_ragged_dimensions\":[0],\"rhs_group_dimensions\":[0]},\"precision\":[\"DEFAULT\",\"DEFAULT\"],\"preferred_element_type\":null,\"return_residuals\":true,\"activation\":null}": {
    "{}": {
      "compile_time_ms": 443.5650850646198,
      "lower_time_ms": 8.80813505500555,
      "evaluation_times_ms": [
        3.546,
        3.547,
        3.545,
        3.546,
        3.544
      ],
      "metadata": {},
      "peak_memory_mb": 6710.887456
    }
  },
  "{\"lhs\":\"bf16[262144,256]\",\"rhs\":\"bf16[256,256,7168]\",\"group_sizes\":{"num_groups":256,"total_size":262144},\"ragged_dot_dimension_numbers\":{\"dot_dimension_numbers\":[[[1],[1]],[[],[]]],\"lhs_ragged_dimensions\":[0],\"rhs_group_dimensions\":[0]},\"precision\":[\"DEFAULT\",\"DEFAULT\"],\"preferred_element_type\":null,\"return_residuals\":false,\"activation\":null}": {
    "{}": {
      "compile_time_ms": 356.6262109670788,
      "lower_time_ms": 9.709130972623825,
      "evaluation_times_ms": [
        7.716,
        7.717,
        7.714,
        7.711,
        7.715
      ],
      "metadata": {},
      "peak_memory_mb": 12348.032
    }
  },
  "{\"lhs\":\"bf16[262144,256]\",\"rhs\":\"bf16[256,256,7168]\",\"group_sizes\":{"num_groups":256,"total_size":262144},\"ragged_dot_dimension_numbers\":{\"dot_dimension_numbers\":[[[1],[1]],[[],[]]],\"lhs_ragged_dimensions\":[0],\"rhs_group_dimensions\":[0]},\"precision\":[\"DEFAULT\",\"DEFAULT\"],\"preferred_element_type\":null,\"return_residuals\":true,\"activation\":null}": {
    "{}": {
      "compile_time_ms": 373.39601991698146,
      "lower_time_ms": 7.9364359844475985,
      "evaluation_times_ms": [
        10.101,
        10.098,
        10.1,
        10.09,
        10.105
      ],
      "metadata": {},
      "peak_memory_mb": 16106.128416
    }
  },
  "{\"lhs\":\"bf16[262144,1024]\",\"rhs\":\"bf16[256,1024,7168]\",\"group_sizes\":{"num_groups":256,"total_size":262144},\"ragged_dot_dimension_numbers\":{\"dot_dimension_numbers\":[[[1],[1]],[[],[]]],\"lhs_ragged_dimensions\":[0],\"rhs_group_dimensions\":[0]},\"precision\":[\"DEFAULT\",\"DEFAULT\"],\"preferred_element_type\":null,\"return_residuals\":false,\"activation\":null}": {
    "{}": {
      "compile_time_ms": 429.3766871560365,
      "lower_time_ms": 8.268677163869143,
      "evaluation_times_ms": [
        11.772,
        11.772,
        11.781,
        11.779,
        11.779
      ],
      "metadata": {},
      "peak_memory_mb": 15569.257472
    }
  },
  "{\"lhs\":\"bf16[262144,1024]\",\"rhs\":\"bf16[256,1024,7168]\",\"group_sizes\":{"num_groups":256,"total_size":262144},\"ragged_dot_dimension_numbers\":{\"dot_dimension_numbers\":[[[1],[1]],[[],[]]],\"lhs_ragged_dimensions\":[0],\"rhs_group_dimensions\":[0]},\"precision\":[\"DEFAULT\",\"DEFAULT\"],\"preferred_element_type\":null,\"return_residuals\":true,\"activation\":null}": {
    "{}": {
      "compile_time_ms": 443.32113093696535,
      "lower_time_ms": 7.985327858477831,
      "evaluation_times_ms": [
        14.144,
        14.151,
        14.154,
        14.157,
        14.155
      ],
      "metadata": {},
      "peak_memory_mb": 19327.353888
    }
  },
  "{\"lhs\":\"bf16[262144,7168]\",\"rhs\":\"bf16[256,7168,1024]\",\"group_sizes\":{"num_groups":256,"total_size":262144},\"ragged_dot_dimension_numbers\":{\"dot_dimension_numbers\":[[[1],[1]],[[],[]]],\"lhs_ragged_dimensions\":[0],\"rhs_group_dimensions\":[0]},\"precision\":[\"DEFAULT\",\"DEFAULT\"],\"preferred_element_type\":null,\"return_residuals\":false,\"activation\":null}": {
    "{}": {
      "compile_time_ms": 444.6929299738258,
      "lower_time_ms": 8.732816204428673,
      "evaluation_times_ms": [
        6.75,
        6.749,
        6.751,
        6.749,
        6.752
      ],
      "metadata": {},
      "peak_memory_mb": 9126.806528
    }
  },
  "{\"lhs\":\"bf16[262144,7168]\",\"rhs\":\"bf16[256,7168,1024]\",\"group_sizes\":{"num_groups":256,"total_size":262144},\"ragged_dot_dimension_numbers\":{\"dot_dimension_numbers\":[[[1],[1]],[[],[]]],\"lhs_ragged_dimensions\":[0],\"rhs_group_dimensions\":[0]},\"precision\":[\"DEFAULT\",\"DEFAULT\"],\"preferred_element_type\":null,\"return_residuals\":true,\"activation\":null}": {
    "{}": {
      "compile_time_ms": 450.0310909934342,
      "lower_time_ms": 9.647200116887689,
      "evaluation_times_ms": [
        7.087,
        7.085,
        7.086,
        7.085,
        7.09
      ],
      "metadata": {},
      "peak_memory_mb": 9663.677472
    }
  },
  "{\"lhs\":\"bf16[262144,7168]\",\"rhs\":\"bf16[256,7168,2048]\",\"group_sizes\":{"num_groups":256,"total_size":262144},\"ragged_dot_dimension_numbers\":{\"dot_dimension_numbers\":[[[1],[1]],[[],[]]],\"lhs_ragged_dimensions\":[0],\"rhs_group_dimensions\":[0]},\"precision\":[\"DEFAULT\",\"DEFAULT\"],\"preferred_element_type\":null,\"return_residuals\":false,\"activation\":null}": {
    "{}": {
      "compile_time_ms": 452.4187950009946,
      "lower_time_ms": 8.194249006919563,
      "evaluation_times_ms": [
        13.396,
        13.393,
        13.389,
        13.394,
        13.392
      ],
      "metadata": {},
      "peak_memory_mb": 14495.515648
    }
  },
  "{\"lhs\":\"bf16[262144,7168]\",\"rhs\":\"bf16[256,7168,2048]\",\"group_sizes\":{"num_groups":256,"total_size":262144},\"ragged_dot_dimension_numbers\":{\"dot_dimension_numbers\":[[[1],[1]],[[],[]]],\"lhs_ragged_dimensions\":[0],\"rhs_group_dimensions\":[0]},\"precision\":[\"DEFAULT\",\"DEFAULT\"],\"preferred_element_type\":null,\"return_residuals\":true,\"activation\":null}": {
    "{}": {
      "compile_time_ms": 461.05428697774187,
      "lower_time_ms": 8.44003798556514,
      "evaluation_times_ms": [
        14.058,
        14.056,
        14.063,
        14.057,
        14.062
      ],
      "metadata": {},
      "peak_memory_mb": 15569.257504
    }
  },
  "{\"lhs\":\"bf16[327680,2880]\",\"rhs\":\"bf16[128,2880,2880]\",\"group_sizes\":{"num_groups":128,"total_size":327680},\"ragged_dot_dimension_numbers\":{\"dot_dimension_numbers\":[[[1],[1]],[[],[]]],\"lhs_ragged_dimensions\":[0],\"rhs_group_dimensions\":[0]},\"precision\":[\"DEFAULT\",\"DEFAULT\"],\"preferred_element_type\":null,\"return_residuals\":false,\"activation\":null}": {
    "{}": {
      "compile_time_ms": 574.3026730197016,
      "lower_time_ms": 7.226222980534658,
      "evaluation_times_ms": [
        18.949,
        18.947,
        18.95,
        18.959,
        18.947
      ],
      "metadata": {},
      "peak_memory_mb": 13856.932864
    }
  },
  "{\"lhs\":\"bf16[327680,2880]\",\"rhs\":\"bf16[128,2880,2880]\",\"group_sizes\":{"num_groups":128,"total_size":327680},\"ragged_dot_dimension_numbers\":{\"dot_dimension_numbers\":[[[1],[1]],[[],[]]],\"lhs_ragged_dimensions\":[0],\"rhs_group_dimensions\":[0]},\"precision\":[\"DEFAULT\",\"DEFAULT\"],\"preferred_element_type\":null,\"return_residuals\":true,\"activation\":null}": {
    "{}": {
      "compile_time_ms": 573.6624499841128,
      "lower_time_ms": 6.763012002920732,
      "evaluation_times_ms": [
        20.13,
        20.12,
        20.113,
        20.126,
        20.13
      ],
      "metadata": {},
      "peak_memory_mb": 15744.369696
    }
  },
  "{\"lhs\":\"bf16[393216,2048]\",\"rhs\":\"bf16[128,2048,768]\",\"group_sizes\":{"num_groups":128,"total_size":393216},\"ragged_dot_dimension_numbers\":{\"dot_dimension_numbers\":[[[1],[1]],[[],[]]],\"lhs_ragged_dimensions\":[0],\"rhs_group_dimensions\":[0]},\"precision\":[\"DEFAULT\",\"DEFAULT\"],\"preferred_element_type\":null,\"return_residuals\":false,\"activation\":null}": {
    "{}": {
      "compile_time_ms": 243.33588499575853,
      "lower_time_ms": 8.084891975158826,
      "evaluation_times_ms": [
        2.914,
        2.913,
        2.913,
        2.916,
        2.916
      ],
      "metadata": {},
      "peak_memory_mb": 3825.20576
    }
  },
  "{\"lhs\":\"bf16[393216,2048]\",\"rhs\":\"bf16[128,2048,768]\",\"group_sizes\":{"num_groups":128,"total_size":393216},\"ragged_dot_dimension_numbers\":{\"dot_dimension_numbers\":[[[1],[1]],[[],[]]],\"lhs_ragged_dimensions\":[0],\"rhs_group_dimensions\":[0]},\"precision\":[\"DEFAULT\",\"DEFAULT\"],\"preferred_element_type\":null,\"return_residuals\":true,\"activation\":null}": {
    "{}": {
      "compile_time_ms": 256.5705059969332,
      "lower_time_ms": 7.922827004222199,
      "evaluation_times_ms": [
        3.294,
        3.292,
        3.294,
        3.294,
        3.291
      ],
      "metadata": {},
      "peak_memory_mb": 4429.185568
    }
  },
  "{\"lhs\":\"bf16[393216,768]\",\"rhs\":\"bf16[128,768,2048]\",\"group_sizes\":{"num_groups":128,"total_size":393216},\"ragged_dot_dimension_numbers\":{\"dot_dimension_numbers\":[[[1],[1]],[[],[]]],\"lhs_ragged_dimensions\":[0],\"rhs_group_dimensions\":[0]},\"precision\":[\"DEFAULT\",\"DEFAULT\"],\"preferred_element_type\":null,\"return_residuals\":false,\"activation\":null}": {
    "{}": {
      "compile_time_ms": 274.7778999910224,
      "lower_time_ms": 7.358170987572521,
      "evaluation_times_ms": [
        3.944,
        3.949,
        3.945,
        3.943,
        3.947
      ],
      "metadata": {},
      "peak_memory_mb": 5838.47168
    }
  },
  "{\"lhs\":\"bf16[393216,768]\",\"rhs\":\"bf16[128,768,2048]\",\"group_sizes\":{"num_groups":128,"total_size":393216},\"ragged_dot_dimension_numbers\":{\"dot_dimension_numbers\":[[[1],[1]],[[],[]]],\"lhs_ragged_dimensions\":[0],\"rhs_group_dimensions\":[0]},\"precision\":[\"DEFAULT\",\"DEFAULT\"],\"preferred_element_type\":null,\"return_residuals\":true,\"activation\":null}": {
    "{}": {
      "compile_time_ms": 288.9448549831286,
      "lower_time_ms": 7.77908499003388,
      "evaluation_times_ms": [
        4.948,
        4.947,
        4.949,
        4.951,
        4.953
      ],
      "metadata": {},
      "peak_memory_mb": 7449.084448
    }
  },
  "{\"lhs\":\"bf16[524288,4096]\",\"rhs\":\"bf16[128,4096,1536]\",\"group_sizes\":{"num_groups":128,"total_size":524288},\"ragged_dot_dimension_numbers\":{\"dot_dimension_numbers\":[[[1],[1]],[[],[]]],\"lhs_ragged_dimensions\":[0],\"rhs_group_dimensions\":[0]},\"precision\":[\"DEFAULT\",\"DEFAULT\"],\"preferred_element_type\":null,\"return_residuals\":false,\"activation\":null}": {
    "{}": {
      "compile_time_ms": 373.971776018152,
      "lower_time_ms": 8.420500991633162,
      "evaluation_times_ms": [
        10.598,
        10.593,
        10.589,
        10.592,
        10.594
      ],
      "metadata": {},
      "peak_memory_mb": 10737.418752
    }
  },
  "{\"lhs\":\"bf16[524288,4096]\",\"rhs\":\"bf16[128,4096,1536]\",\"group_sizes\":{"num_groups":128,"total_size":524288},\"ragged_dot_dimension_numbers\":{\"dot_dimension_numbers\":[[[1],[1]],[[],[]]],\"lhs_ragged_dimensions\":[0],\"rhs_group_dimensions\":[0]},\"precision\":[\"DEFAULT\",\"DEFAULT\"],\"preferred_element_type\":null,\"return_residuals\":true,\"activation\":null}": {
    "{}": {
      "compile_time_ms": 391.72487598261796,
      "lower_time_ms": 8.160653989762068,
      "evaluation_times_ms": [
        11.596,
        11.598,
        11.596,
        11.602,
        11.595
      ],
      "metadata": {},
      "peak_memory_mb": 12348.03152
    }
  },
  "{\"lhs\":\"bf16[524288,1536]\",\"rhs\":\"bf16[128,1536,4096]\",\"group_sizes\":{"num_groups":128,"total_size":524288},\"ragged_dot_dimension_numbers\":{\"dot_dimension_numbers\":[[[1],[1]],[[],[]]],\"lhs_ragged_dimensions\":[0],\"rhs_group_dimensions\":[0]},\"precision\":[\"DEFAULT\",\"DEFAULT\"],\"preferred_element_type\":null,\"return_residuals\":false,\"activation\":null}": {
    "{}": {
      "compile_time_ms": 1515.6499249860644,
      "lower_time_ms": 104.8679850064218,
      "evaluation_times_ms": [
        13.239,
        13.236,
        13.233,
        13.243,
        13.24
      ],
      "metadata": {},
      "peak_memory_mb": 16106.127872
    }
  },
  "{\"lhs\":\"bf16[524288,1536]\",\"rhs\":\"bf16[128,1536,4096]\",\"group_sizes\":{"num_groups":128,"total_size":524288},\"ragged_dot_dimension_numbers\":{\"dot_dimension_numbers\":[[[1],[1]],[[],[]]],\"lhs_ragged_dimensions\":[0],\"rhs_group_dimensions\":[0]},\"precision\":[\"DEFAULT\",\"DEFAULT\"],\"preferred_element_type\":null,\"return_residuals\":true,\"activation\":null}": {
    "{}": {
      "compile_time_ms": 413.49555100896396,
      "lower_time_ms": 11.065310012781993,
      "evaluation_times_ms": [
        15.904,
        15.907,
        15.911,
        15.905,
        15.905
      ],
      "metadata": {},
      "peak_memory_mb": 20401.0952
    }
  },
  "{\"lhs\":\"bf16[524288,7168]\",\"rhs\":\"bf16[256,7168,2048]\",\"group_sizes\":{"num_groups":256,"total_size":524288},\"ragged_dot_dimension_numbers\":{\"dot_dimension_numbers\":[[[1],[1]],[[],[]]],\"lhs_ragged_dimensions\":[0],\"rhs_group_dimensions\":[0]},\"precision\":[\"DEFAULT\",\"DEFAULT\"],\"preferred_element_type\":null,\"return_residuals\":false,\"activation\":null}": {
    "{}": {
      "compile_time_ms": 494.22189500182867,
      "lower_time_ms": 13.167728000553325,
      "evaluation_times_ms": [
        23.924,
        23.919,
        23.918,
        23.922,
        23.917
      ],
      "metadata": {},
      "peak_memory_mb": 21474.837504
    }
  },
  "{\"lhs\":\"bf16[524288,7168]\",\"rhs\":\"bf16[256,7168,2048]\",\"group_sizes\":{"num_groups":256,"total_size":524288},\"ragged_dot_dimension_numbers\":{\"dot_dimension_numbers\":[[[1],[1]],[[],[]]],\"lhs_ragged_dimensions\":[0],\"rhs_group_dimensions\":[0]},\"precision\":[\"DEFAULT\",\"DEFAULT\"],\"preferred_element_type\":null,\"return_residuals\":true,\"activation\":null}": {
    "{}": {
      "compile_time_ms": 472.09850198123604,
      "lower_time_ms": 11.057659023208544,
      "evaluation_times_ms": [
        25.259,
        25.253,
        25.244,
        25.251,
        25.252
      ],
      "metadata": {},
      "peak_memory_mb": 23622.321184
    }
  },
  "{\"lhs\":\"bf16[262144,4096]\",\"rhs\":\"bf16[128,4096,1536]\",\"group_sizes\":{"num_groups":128,"total_size":262144},\"ragged_dot_dimension_numbers\":{\"dot_dimension_numbers\":[[[1],[1]],[[],[]]],\"lhs_ragged_dimensions\":[0],\"rhs_group_dimensions\":[0]},\"precision\":[\"DEFAULT\",\"DEFAULT\"],\"preferred_element_type\":null,\"return_residuals\":false,\"activation\":null}": {
    "{}": {
      "compile_time_ms": 363.12144799740054,
      "lower_time_ms": 8.138022007187828,
      "evaluation_times_ms": [
        5.684,
        5.684,
        5.683,
        5.682,
        5.682
      ],
      "metadata": {},
      "peak_memory_mb": 6174.016
    }
  },
  "{\"lhs\":\"bf16[262144,4096]\",\"rhs\":\"bf16[128,4096,1536]\",\"group_sizes\":{"num_groups":128,"total_size":262144},\"ragged_dot_dimension_numbers\":{\"dot_dimension_numbers\":[[[1],[1]],[[],[]]],\"lhs_ragged_dimensions\":[0],\"rhs_group_dimensions\":[0]},\"precision\":[\"DEFAULT\",\"DEFAULT\"],\"preferred_element_type\":null,\"return_residuals\":true,\"activation\":null}": {
    "{}": {
      "compile_time_ms": 373.2386449992191,
      "lower_time_ms": 7.892795983934775,
      "evaluation_times_ms": [
        6.183,
        6.178,
        6.18,
        6.179,
        6.179
      ],
      "metadata": {},
      "peak_memory_mb": 6979.3224
    }
  },
  "{\"lhs\":\"bf16[262144,1536]\",\"rhs\":\"bf16[128,1536,4096]\",\"group_sizes\":{"num_groups":128,"total_size":262144},\"ragged_dot_dimension_numbers\":{\"dot_dimension_numbers\":[[[1],[1]],[[],[]]],\"lhs_ragged_dimensions\":[0],\"rhs_group_dimensions\":[0]},\"precision\":[\"DEFAULT\",\"DEFAULT\"],\"preferred_element_type\":null,\"return_residuals\":false,\"activation\":null}": {
    "{}": {
      "compile_time_ms": 389.6351839939598,
      "lower_time_ms": 8.225828991271555,
      "evaluation_times_ms": [
        7.037,
        7.04,
        7.034,
        7.039,
        7.034
      ],
      "metadata": {},
      "peak_memory_mb": 8858.37056
    }
  },
  "{\"lhs\":\"bf16[262144,1536]\",\"rhs\":\"bf16[128,1536,4096]\",\"group_sizes\":{"num_groups":128,"total_size":262144},\"ragged_dot_dimension_numbers\":{\"dot_dimension_numbers\":[[[1],[1]],[[],[]]],\"lhs_ragged_dimensions\":[0],\"rhs_group_dimensions\":[0]},\"precision\":[\"DEFAULT\",\"DEFAULT\"],\"preferred_element_type\":null,\"return_residuals\":true,\"activation\":null}": {
    "{}": {
      "compile_time_ms": 400.56655899388716,
      "lower_time_ms": 7.915693975519389,
      "evaluation_times_ms": [
        8.37,
        8.372,
        8.368,
        8.369,
        8.369
      ],
      "metadata": {},
      "peak_memory_mb": 11005.85424
    }
  },
  "{\"lhs\":\"bf16[131072,7168]\",\"rhs\":\"bf16[128,7168,2048]\",\"group_sizes\":{"num_groups":128,"total_size":131072},\"ragged_dot_dimension_numbers\":{\"dot_dimension_numbers\":[[[1],[1]],[[],[]]],\"lhs_ragged_dimensions\":[0],\"rhs_group_dimensions\":[0]},\"precision\":[\"DEFAULT\",\"DEFAULT\"],\"preferred_element_type\":null,\"return_residuals\":false,\"activation\":null}": {
    "{}": {
      "compile_time_ms": 403.00797001691535,
      "lower_time_ms": 8.350015996256843,
      "evaluation_times_ms": [
        6.801,
        6.8,
        6.803,
        6.802,
        6.795
      ],
      "metadata": {},
      "peak_memory_mb": 7247.757824
    }
  },
  "{\"lhs\":\"bf16[131072,7168]\",\"rhs\":\"bf16[128,7168,2048]\",\"group_sizes\":{"num_groups":128,"total_size":131072},\"ragged_dot_dimension_numbers\":{\"dot_dimension_numbers\":[[[1],[1]],[[],[]]],\"lhs_ragged_dimensions\":[0],\"rhs_group_dimensions\":[0]},\"precision\":[\"DEFAULT\",\"DEFAULT\"],\"preferred_element_type\":null,\"return_residuals\":true,\"activation\":null}": {
    "{}": {
      "compile_time_ms": 416.6063820011914,
      "lower_time_ms": 8.563972020056099,
      "evaluation_times_ms": [
        7.137,
        7.141,
        7.142,
        7.139,
        7.142
      ],
      "metadata": {},
      "peak_memory_mb": 7784.628768
    }
  },
  "{\"lhs\":\"bf16[131072,2048]\",\"rhs\":\"bf16[128,2048,768]\",\"group_sizes\":{"num_groups":128,"total_size":131072},\"ragged_dot_dimension_numbers\":{\"dot_dimension_numbers\":[[[1],[1]],[[],[]]],\"lhs_ragged_dimensions\":[0],\"rhs_group_dimensions\":[0]},\"precision\":[\"DEFAULT\",\"DEFAULT\"],\"preferred_element_type\":null,\"return_residuals\":false,\"activation\":null}": {
    "{}": {
      "compile_time_ms": 238.70941300992854,
      "lower_time_ms": 8.042954985285178,
      "evaluation_times_ms": [
        1.137,
        1.139,
        1.137,
        1.138,
        1.138
      ],
      "metadata": {},
      "peak_memory_mb": 1543.504384
    }
  },
  "{\"lhs\":\"bf16[131072,2048]\",\"rhs\":\"bf16[128,2048,768]\",\"group_sizes\":{"num_groups":128,"total_size":131072},\"ragged_dot_dimension_numbers\":{\"dot_dimension_numbers\":[[[1],[1]],[[],[]]],\"lhs_ragged_dimensions\":[0],\"rhs_group_dimensions\":[0]},\"precision\":[\"DEFAULT\",\"DEFAULT\"],\"preferred_element_type\":null,\"return_residuals\":true,\"activation\":null}": {
    "{}": {
      "compile_time_ms": 246.34563000290655,
      "lower_time_ms": 7.70829597604461,
      "evaluation_times_ms": [
        1.264,
        1.264,
        1.266,
        1.261,
        1.265
      ],
      "metadata": {},
      "peak_memory_mb": 1744.831008
    }
  },
  "{\"lhs\":\"bf16[131072,4096]\",\"rhs\":\"bf16[128,4096,1536]\",\"group_sizes\":{"num_groups":128,"total_size":131072},\"ragged_dot_dimension_numbers\":{\"dot_dimension_numbers\":[[[1],[1]],[[],[]]],\"lhs_ragged_dimensions\":[0],\"rhs_group_dimensions\":[0]},\"precision\":[\"DEFAULT\",\"DEFAULT\"],\"preferred_element_type\":null,\"return_residuals\":false,\"activation\":null}": {
    "{}": {
      "compile_time_ms": 361.7527910100762,
      "lower_time_ms": 8.30382900312543,
      "evaluation_times_ms": [
        3.204,
        3.205,
        3.207,
        3.205,
        3.201
      ],
      "metadata": {},
      "peak_memory_mb": 3892.314624
    }
  },
  "{\"lhs\":\"bf16[131072,4096]\",\"rhs\":\"bf16[128,4096,1536]\",\"group_sizes\":{"num_groups":128,"total_size":131072},\"ragged_dot_dimension_numbers\":{\"dot_dimension_numbers\":[[[1],[1]],[[],[]]],\"lhs_ragged_dimensions\":[0],\"rhs_group_dimensions\":[0]},\"precision\":[\"DEFAULT\",\"DEFAULT\"],\"preferred_element_type\":null,\"return_residuals\":true,\"activation\":null}": {
    "{}": {
      "compile_time_ms": 1550.8779530064203,
      "lower_time_ms": 101.97680001147091,
      "evaluation_times_ms": [
        3.474,
        3.478,
        3.479,
        3.479,
        3.479
      ],
      "metadata": {},
      "peak_memory_mb": 4294.96784
    }
  },
  "{\"lhs\":\"bf16[131072,1536]\",\"rhs\":\"bf16[128,1536,4096]\",\"group_sizes\":{"num_groups":128,"total_size":131072},\"ragged_dot_dimension_numbers\":{\"dot_dimension_numbers\":[[[1],[1]],[[],[]]],\"lhs_ragged_dimensions\":[0],\"rhs_group_dimensions\":[0]},\"precision\":[\"DEFAULT\",\"DEFAULT\"],\"preferred_element_type\":null,\"return_residuals\":false,\"activation\":null}": {
    "{}": {
      "compile_time_ms": 381.67175301350653,
      "lower_time_ms": 8.374252007342875,
      "evaluation_times_ms": [
        3.963,
        3.963,
        3.969,
        3.969,
        3.965
      ],
      "metadata": {},
      "peak_memory_mb": 5234.491904
    }
  },
  "{\"lhs\":\"bf16[131072,1536]\",\"rhs\":\"bf16[128,1536,4096]\",\"group_sizes\":{"num_groups":128,"total_size":131072},\"ragged_dot_dimension_numbers\":{\"dot_dimension_numbers\":[[[1],[1]],[[],[]]],\"lhs_ragged_dimensions\":[0],\"rhs_group_dimensions\":[0]},\"precision\":[\"DEFAULT\",\"DEFAULT\"],\"preferred_element_type\":null,\"return_residuals\":true,\"activation\":null}": {
    "{}": {
      "compile_time_ms": 390.37904699216597,
      "lower_time_ms": 9.301554004196078,
      "evaluation_times_ms": [
        4.641,
        4.642,
        4.639,
        4.637,
        4.638
      ],
      "metadata": {},
      "peak_memory_mb": 6308.23376
    }
  },
  "{\"lhs\":\"bf16[131072,7168]\",\"rhs\":\"bf16[256,7168,2048]\",\"group_sizes\":{"num_groups":256,"total_size":131072},\"ragged_dot_dimension_numbers\":{\"dot_dimension_numbers\":[[[1],[1]],[[],[]]],\"lhs_ragged_dimensions\":[0],\"rhs_group_dimensions\":[0]},\"precision\":[\"DEFAULT\",\"DEFAULT\"],\"preferred_element_type\":null,\"return_residuals\":false,\"activation\":null}": {
    "{}": {
      "compile_time_ms": 450.15242698718794,
      "lower_time_ms": 8.501464006258175,
      "evaluation_times_ms": [
        8.144,
        8.145,
        8.142,
        8.143,
        8.142
      ],
      "metadata": {},
      "peak_memory_mb": 11005.85472
    }
  },
  "{\"lhs\":\"bf16[131072,7168]\",\"rhs\":\"bf16[256,7168,2048]\",\"group_sizes\":{"num_groups":256,"total_size":131072},\"ragged_dot_dimension_numbers\":{\"dot_dimension_numbers\":[[[1],[1]],[[],[]]],\"lhs_ragged_dimensions\":[0],\"rhs_group_dimensions\":[0]},\"precision\":[\"DEFAULT\",\"DEFAULT\"],\"preferred_element_type\":null,\"return_residuals\":true,\"activation\":null}": {
    "{}": {
      "compile_time_ms": 455.5465040029958,
      "lower_time_ms": 8.420164987910539,
      "evaluation_times_ms": [
        8.499,
        8.492,
        8.5,
        8.486,
        8.495
      ],
      "metadata": {},
      "peak_memory_mb": 11542.725664
    }
  },
  "{\"lhs\":\"bf16[65536,7168]\",\"rhs\":\"bf16[256,7168,2048]\",\"group_sizes\":{"num_groups":256,"total_size":65536},\"ragged_dot_dimension_numbers\":{\"dot_dimension_numbers\":[[[1],[1]],[[],[]]],\"lhs_ragged_dimensions\":[0],\"rhs_group_dimensions\":[0]},\"precision\":[\"DEFAULT\",\"DEFAULT\"],\"preferred_element_type\":null,\"return_residuals\":false,\"activation\":null}": {
    "{}": {
      "compile_time_ms": 451.2910330086015,
      "lower_time_ms": 8.61021300079301,
      "evaluation_times_ms": [
        5.414,
        5.415,
        5.416,
        5.416,
        5.409
      ],
      "metadata": {},
      "peak_memory_mb": 9261.024256
    }
  },
  "{\"lhs\":\"bf16[65536,7168]\",\"rhs\":\"bf16[256,7168,2048]\",\"group_sizes\":{"num_groups":256,"total_size":65536},\"ragged_dot_dimension_numbers\":{\"dot_dimension_numbers\":[[[1],[1]],[[],[]]],\"lhs_ragged_dimensions\":[0],\"rhs_group_dimensions\":[0]},\"precision\":[\"DEFAULT\",\"DEFAULT\"],\"preferred_element_type\":null,\"return_residuals\":true,\"activation\":null}": {
    "{}": {
      "compile_time_ms": 455.1916570053436,
      "lower_time_ms": 8.088386006420478,
      "evaluation_times_ms": [
        5.591,
        5.594,
        5.591,
        5.587,
        5.591
      ],
      "metadata": {},
      "peak_memory_mb": 9529.459744
    }
  },
  "{\"lhs\":\"bf16[262144,512]\",\"rhs\":\"bf16[256,512,7168]\",\"group_sizes\":{"num_groups":256,"total_size":262144},\"ragged_dot_dimension_numbers\":{\"dot_dimension_numbers\":[[[1],[1]],[[],[]]],\"lhs_ragged_dimensions\":[0],\"rhs_group_dimensions\":[0]},\"precision\":[\"DEFAULT\",\"DEFAULT\"],\"preferred_element_type\":null,\"return_residuals\":false,\"activation\":null}": {
    "{}": {
      "compile_time_ms": 385.294289997546,
      "lower_time_ms": 8.505069010425359,
      "evaluation_times_ms": [
        8.539,
        8.532,
        8.539,
        8.536,
        8.535
      ],
      "metadata": {},
      "peak_memory_mb": 13421.773824
    }
  },
  "{\"lhs\":\"bf16[262144,512]\",\"rhs\":\"bf16[256,512,7168]\",\"group_sizes\":{"num_groups":256,"total_size":262144},\"ragged_dot_dimension_numbers\":{\"dot_dimension_numbers\":[[[1],[1]],[[],[]]],\"lhs_ragged_dimensions\":[0],\"rhs_group_dimensions\":[0]},\"precision\":[\"DEFAULT\",\"DEFAULT\"],\"preferred_element_type\":null,\"return_residuals\":true,\"activation\":null}": {
    "{}": {
      "compile_time_ms": 405.5587530019693,
      "lower_time_ms": 8.062170003540814,
      "evaluation_times_ms": [
        10.909,
        10.914,
        10.914,
        10.911,
        10.92
      ],
      "metadata": {},
      "peak_memory_mb": 17179.87024
    }
  },
  "{\"lhs\":\"bf16[4096,4096]\",\"rhs\":\"bf16[8,4096,4096]\",\"group_sizes\":{"num_groups":8,"total_size":4096},\"ragged_dot_dimension_numbers\":{\"dot_dimension_numbers\":[[[1],[1]],[[],[]]],\"lhs_ragged_dimensions\":[0],\"rhs_group_dimensions\":[0]},\"precision\":[\"DEFAULT\",\"DEFAULT\"],\"preferred_element_type\":null,\"return_residuals\":false,\"activation\":null}": {
    "{}": {
      "compile_time_ms": 323.2532450929284,
      "lower_time_ms": 7.142098853364587,
      "evaluation_times_ms": [
        0.246,
        0.246,
        0.246,
        0.246,
        0.246
      ],
      "metadata": {},
      "peak_memory_mb": 402.653696
    }
  },
  "{\"lhs\":\"bf16[4096,4096]\",\"rhs\":\"bf16[8,4096,4096]\",\"group_sizes\":{"num_groups":8,"total_size":4096},\"ragged_dot_dimension_numbers\":{\"dot_dimension_numbers\":[[[1],[1]],[[],[]]],\"lhs_ragged_dimensions\":[0],\"rhs_group_dimensions\":[0]},\"precision\":[\"DEFAULT\",\"DEFAULT\"],\"preferred_element_type\":null,\"return_residuals\":true,\"activation\":null}": {
    "{}": {
      "compile_time_ms": 329.3776710052043,
      "lower_time_ms": 7.134122075513005,
      "evaluation_times_ms": [
        0.256,
        0.256,
        0.256,
        0.256,
        0.256
      ],
      "metadata": {},
      "peak_memory_mb": 436.20816
    }
  },
  "{\"lhs\":\"bf16[8,4096]\",\"rhs\":\"bf16[8,4096,4096]\",\"group_sizes\":{"num_groups":8,"total_size":8},\"ragged_dot_dimension_numbers\":{\"dot_dimension_numbers\":[[[1],[1]],[[],[]]],\"lhs_ragged_dimensions\":[0],\"rhs_group_dimensions\":[0]},\"precision\":[\"DEFAULT\",\"DEFAULT\"],\"preferred_element_type\":null,\"return_residuals\":false,\"activation\":null}": {
    "{}": {
      "compile_time_ms": 304.28136698901653,
      "lower_time_ms": 7.2181629948318005,
      "evaluation_times_ms": [
        0.097,
        0.097,
        0.096,
        0.095,
        0.096
      ],
      "metadata": {},
      "peak_memory_mb": 268.699648
    }
  },
  "{\"lhs\":\"bf16[8,4096]\",\"rhs\":\"bf16[8,4096,4096]\",\"group_sizes\":{"num_groups":8,"total_size":8},\"ragged_dot_dimension_numbers\":{\"dot_dimension_numbers\":[[[1],[1]],[[],[]]],\"lhs_ragged_dimensions\":[0],\"rhs_group_dimensions\":[0]},\"precision\":[\"DEFAULT\",\"DEFAULT\"],\"preferred_element_type\":null,\"return_residuals\":true,\"activation\":null}": {
    "{}": {
      "compile_time_ms": 305.84789789281785,
      "lower_time_ms": 7.018492091447115,
      "evaluation_times_ms": [
        0.096,
        0.095,
        0.096,
        0.097,
        0.098
      ],
      "metadata": {},
      "peak_memory_mb": 268.829216
    }
  },
  "{\"lhs\":\"bf16[8192,4096]\",\"rhs\":\"bf16[8,4096,14336]\",\"group_sizes\":{"num_groups":8,"total_size":8192},\"ragged_dot_dimension_numbers\":{\"dot_dimension_numbers\":[[[1],[1]],[[],[]]],\"lhs_ragged_dimensions\":[0],\"rhs_group_dimensions\":[0]},\"precision\":[\"DEFAULT\",\"DEFAULT\"],\"preferred_element_type\":null,\"return_residuals\":false,\"activation\":null}": {
    "{}": {
      "compile_time_ms": 1653.88821800002,
      "lower_time_ms": 130.30160099992827,
      "evaluation_times_ms": [
        1.744,
        1.742,
        1.742,
        1.747,
        1.744
      ],
      "metadata": {},
      "peak_memory_mb": 1711.276544
    }
  },
  "{\"lhs\":\"bf16[8192,4096]\",\"rhs\":\"bf16[8,4096,14336]\",\"group_sizes\":{"num_groups":8,"total_size":8192},\"ragged_dot_dimension_numbers\":{\"dot_dimension_numbers\":[[[1],[1]],[[],[]]],\"lhs_ragged_dimensions\":[0],\"rhs_group_dimensions\":[0]},\"precision\":[\"DEFAULT\",\"DEFAULT\"],\"preferred_element_type\":null,\"return_residuals\":true,\"activation\":null}": {
    "{}": {
      "compile_time_ms": 1674.322301056236,
      "lower_time_ms": 128.9742540102452,
      "evaluation_times_ms": [
        1.902,
        1.904,
        1.902,
        1.904,
        1.903
      ],
      "metadata": {},
      "peak_memory_mb": 1946.1576
    }
  },
  "{\"lhs\":\"bf16[131072,1024]\",\"rhs\":\"bf16[256,7168,1024]\",\"group_sizes\":{"num_groups":256,"total_size":131072},\"ragged_dot_dimension_numbers\":{\"dot_dimension_numbers\":[[[1],[2]],[[],[]]],\"lhs_ragged_dimensions\":[0],\"rhs_group_dimensions\":[0]},\"precision\":[\"DEFAULT\",\"DEFAULT\"],\"preferred_element_type\":null,\"return_residuals\":false,\"activation\":null}": {
    "{}": {
      "compile_time_ms": 456.8208600394428,
      "lower_time_ms": 9.3718480784446,
      "evaluation_times_ms": [
        9.81,
        9.803,
        9.807,
        9.803,
        9.801
      ],
      "metadata": {},
      "peak_memory_mb": 13421.774336
    }
  },
  "{\"lhs\":\"bf16[131072,7168]\",\"rhs\":\"bf16[131072,1024]\",\"group_sizes\":{"num_groups":256,"total_size":131072},\"ragged_dot_dimension_numbers\":{\"dot_dimension_numbers\":[[[0],[0]],[[],[]]],\"lhs_ragged_dimensions\":[0],\"rhs_group_dimensions\":[]},\"precision\":[\"DEFAULT\",\"DEFAULT\"],\"preferred_element_type\":null,\"return_residuals\":false,\"activation\":null}": {
    "{}": {
      "compile_time_ms": 557.2154910769314,
      "lower_time_ms": 10.033460101112723,
      "evaluation_times_ms": [
        14.656,
        14.653,
        14.658,
        14.649,
        14.646
      ],
      "metadata": {},
      "peak_memory_mb": 13421.773824
    }
  },
  "{\"lhs\":\"bf16[131072,7168]\",\"rhs\":\"bf16[256,1024,7168]\",\"group_sizes\":{"num_groups":256,"total_size":131072},\"ragged_dot_dimension_numbers\":{\"dot_dimension_numbers\":[[[1],[2]],[[],[]]],\"lhs_ragged_dimensions\":[0],\"rhs_group_dimensions\":[0]},\"precision\":[\"DEFAULT\",\"DEFAULT\"],\"preferred_element_type\":null,\"return_residuals\":false,\"activation\":null}": {
    "{}": {
      "compile_time_ms": 465.98962298594415,
      "lower_time_ms": 8.779594907537103,
      "evaluation_times_ms": [
        6.982,
        6.978,
        6.977,
        6.982,
        6.985
      ],
      "metadata": {},
      "peak_memory_mb": 10200.548864
    }
  },
  "{\"lhs\":\"bf16[131072,1024]\",\"rhs\":\"bf16[131072,7168]\",\"group_sizes\":{"num_groups":256,"total_size":131072},\"ragged_dot_dimension_numbers\":{\"dot_dimension_numbers\":[[[0],[0]],[[],[]]],\"lhs_ragged_dimensions\":[0],\"rhs_group_dimensions\":[]},\"precision\":[\"DEFAULT\",\"DEFAULT\"],\"preferred_element_type\":null,\"return_residuals\":false,\"activation\":null}": {
    "{}": {
      "compile_time_ms": 491.2749419454485,
      "lower_time_ms": 8.616246981546283,
      "evaluation_times_ms": [
        11.364,
        11.358,
        11.355,
        11.357,
        11.363
      ],
      "metadata": {},
      "peak_memory_mb": 13421.773824
    }
  },
  "{\"lhs\":\"bf16[131072,512]\",\"rhs\":\"bf16[256,7168,512]\",\"group_sizes\":{"num_groups":256,"total_size":131072},\"ragged_dot_dimension_numbers\":{\"dot_dimension_numbers\":[[[1],[2]],[[],[]]],\"lhs_ragged_dimensions\":[0],\"rhs_group_dimensions\":[0]},\"precision\":[\"DEFAULT\",\"DEFAULT\"],\"preferred_element_type\":null,\"return_residuals\":false,\"activation\":null}": {
    "{}": {
      "compile_time_ms": 400.4607679962646,
      "lower_time_ms": 8.781432989053428,
      "evaluation_times_ms": [
        6.323,
        6.327,
        6.321,
        6.326,
        6.326
      ],
      "metadata": {},
      "peak_memory_mb": 7650.412032
    }
  },
  "{\"lhs\":\"bf16[131072,7168]\",\"rhs\":\"bf16[131072,512]\",\"group_sizes\":{"num_groups":256,"total_size":131072},\"ragged_dot_dimension_numbers\":{\"dot_dimension_numbers\":[[[0],[0]],[[],[]]],\"lhs_ragged_dimensions\":[0],\"rhs_group_dimensions\":[]},\"precision\":[\"DEFAULT\",\"DEFAULT\"],\"preferred_element_type\":null,\"return_residuals\":false,\"activation\":null}": {
    "{}": {
      "compile_time_ms": 522.1438459993806,
      "lower_time_ms": 8.60429901513271,
      "evaluation_times_ms": [
        7.367,
        7.365,
        7.37,
        7.376,
        7.368
      ],
      "metadata": {},
      "peak_memory_mb": 7650.41152
    }
  },
  "{\"lhs\":\"bf16[131072,7168]\",\"rhs\":\"bf16[256,512,7168]\",\"group_sizes\":{"num_groups":256,"total_size":131072},\"ragged_dot_dimension_numbers\":{\"dot_dimension_numbers\":[[[1],[2]],[[],[]]],\"lhs_ragged_dimensions\":[0],\"rhs_group_dimensions\":[0]},\"precision\":[\"DEFAULT\",\"DEFAULT\"],\"preferred_element_type\":null,\"return_residuals\":false,\"activation\":null}": {
    "{}": {
      "compile_time_ms": 422.77141398517415,
      "lower_time_ms": 10.877836000872776,
      "evaluation_times_ms": [
        3.509,
        3.499,
        3.511,
        3.509,
        3.506
      ],
      "metadata": {},
      "peak_memory_mb": 6039.799296
    }
  },
  "{\"lhs\":\"bf16[131072,512]\",\"rhs\":\"bf16[131072,7168]\",\"group_sizes\":{"num_groups":256,"total_size":131072},\"ragged_dot_dimension_numbers\":{\"dot_dimension_numbers\":[[[0],[0]],[[],[]]],\"lhs_ragged_dimensions\":[0],\"rhs_group_dimensions\":[]},\"precision\":[\"DEFAULT\",\"DEFAULT\"],\"preferred_element_type\":null,\"return_residuals\":false,\"activation\":null}": {
    "{}": {
      "compile_time_ms": 477.0589550025761,
      "lower_time_ms": 8.339882013387978,
      "evaluation_times_ms": [
        5.835,
        5.828,
        5.829,
        5.835,
        5.832
      ],
      "metadata": {},
      "peak_memory_mb": 7650.41152
    }
  },
  "{\"lhs\":\"bf16[262144,512]\",\"rhs\":\"bf16[256,7168,512]\",\"group_sizes\":{"num_groups":256,"total_size":262144},\"ragged_dot_dimension_numbers\":{\"dot_dimension_numbers\":[[[1],[2]],[[],[]]],\"lhs_ragged_dimensions\":[0],\"rhs_group_dimensions\":[0]},\"precision\":[\"DEFAULT\",\"DEFAULT\"],\"preferred_element_type\":null,\"return_residuals\":false,\"activation\":null}": {
    "{}": {
      "compile_time_ms": 403.0209259944968,
      "lower_time_ms": 9.471503988606855,
      "evaluation_times_ms": [
        9.951,
        9.954,
        9.953,
        9.95,
        9.947
      ],
      "metadata": {},
      "peak_memory_mb": 13421.774336
    }
  },
  "{\"lhs\":\"bf16[262144,7168]\",\"rhs\":\"bf16[262144,512]\",\"group_sizes\":{"num_groups":256,"total_size":262144},\"ragged_dot_dimension_numbers\":{\"dot_dimension_numbers\":[[[0],[0]],[[],[]]],\"lhs_ragged_dimensions\":[0],\"rhs_group_dimensions\":[]},\"precision\":[\"DEFAULT\",\"DEFAULT\"],\"preferred_element_type\":null,\"return_residuals\":false,\"activation\":null}": {
    "{}": {
      "compile_time_ms": 525.9270170063246,
      "lower_time_ms": 10.173914983170107,
      "evaluation_times_ms": [
        10.277,
        10.265,
        10.274,
        10.267,
        10.269
      ],
      "metadata": {},
      "peak_memory_mb": 9663.67744
    }
  },
  "{\"lhs\":\"bf16[262144,7168]\",\"rhs\":\"bf16[256,256,7168]\",\"group_sizes\":{"num_groups":256,"total_size":262144},\"ragged_dot_dimension_numbers\":{\"dot_dimension_numbers\":[[[1],[2]],[[],[]]],\"lhs_ragged_dimensions\":[0],\"rhs_group_dimensions\":[0]},\"precision\":[\"DEFAULT\",\"DEFAULT\"],\"preferred_element_type\":null,\"return_residuals\":false,\"activation\":null}": {
    "{}": {
      "compile_time_ms": 330.333060992416,
      "lower_time_ms": 8.612208999693394,
      "evaluation_times_ms": [
        3.059,
        3.067,
        3.062,
        3.061,
        3.064
      ],
      "metadata": {},
      "peak_memory_mb": 6039.799296
    }
  },
  "{\"lhs\":\"bf16[262144,256]\",\"rhs\":\"bf16[262144,7168]\",\"group_sizes\":{"num_groups":256,"total_size":262144},\"ragged_dot_dimension_numbers\":{\"dot_dimension_numbers\":[[[0],[0]],[[],[]]],\"lhs_ragged_dimensions\":[0],\"rhs_group_dimensions\":[]},\"precision\":[\"DEFAULT\",\"DEFAULT\"],\"preferred_element_type\":null,\"return_residuals\":false,\"activation\":null}": {
    "{}": {
      "compile_time_ms": 474.63252098532394,
      "lower_time_ms": 8.625019021565095,
      "evaluation_times_ms": [
        4.893,
        4.888,
        4.894,
        4.891,
        4.891
      ],
      "metadata": {},
      "peak_memory_mb": 6710.887424
    }
  },
  "{\"lhs\":\"bf16[262144,7168]\",\"rhs\":\"bf16[256,1024,7168]\",\"group_sizes\":{"num_groups":256,"total_size":262144},\"ragged_dot_dimension_numbers\":{\"dot_dimension_numbers\":[[[1],[2]],[[],[]]],\"lhs_ragged_dimensions\":[0],\"rhs_group_dimensions\":[0]},\"precision\":[\"DEFAULT\",\"DEFAULT\"],\"preferred_element_type\":null,\"return_residuals\":false,\"activation\":null}": {
    "{}": {
      "compile_time_ms": 473.32010001991875,
      "lower_time_ms": 11.367089988198131,
      "evaluation_times_ms": [
        9.651,
        9.657,
        9.66,
        9.659,
        9.662
      ],
      "metadata": {},
      "peak_memory_mb": 12884.903424
    }
  },
  "{\"lhs\":\"bf16[262144,1024]\",\"rhs\":\"bf16[262144,7168]\",\"group_sizes\":{"num_groups":256,"total_size":262144},\"ragged_dot_dimension_numbers\":{\"dot_dimension_numbers\":[[[0],[0]],[[],[]]],\"lhs_ragged_dimensions\":[0],\"rhs_group_dimensions\":[]},\"precision\":[\"DEFAULT\",\"DEFAULT\"],\"preferred_element_type\":null,\"return_residuals\":false,\"activation\":null}": {
    "{}": {
      "compile_time_ms": 501.8513810064178,
      "lower_time_ms": 8.48643298377283,
      "evaluation_times_ms": [
        15.099,
        15.089,
        15.09,
        15.084,
        15.09
      ],
      "metadata": {},
      "peak_memory_mb": 15569.257472
    }
  },
  "{\"lhs\":\"bf16[262144,1024]\",\"rhs\":\"bf16[256,7168,1024]\",\"group_sizes\":{"num_groups":256,"total_size":262144},\"ragged_dot_dimension_numbers\":{\"dot_dimension_numbers\":[[[1],[2]],[[],[]]],\"lhs_ragged_dimensions\":[0],\"rhs_group_dimensions\":[0]},\"precision\":[\"DEFAULT\",\"DEFAULT\"],\"preferred_element_type\":null,\"return_residuals\":false,\"activation\":null}": {
    "{}": {
      "compile_time_ms": 454.1397230059374,
      "lower_time_ms": 8.498107985360548,
      "evaluation_times_ms": [
        14.679,
        14.676,
        14.671,
        14.673,
        14.682
      ],
      "metadata": {},
      "peak_memory_mb": 15569.257984
    }
  },
  "{\"lhs\":\"bf16[262144,7168]\",\"rhs\":\"bf16[262144,1024]\",\"group_sizes\":{"num_groups":256,"total_size":262144},\"ragged_dot_dimension_numbers\":{\"dot_dimension_numbers\":[[[0],[0]],[[],[]]],\"lhs_ragged_dimensions\":[0],\"rhs_group_dimensions\":[]},\"precision\":[\"DEFAULT\",\"DEFAULT\"],\"preferred_element_type\":null,\"return_residuals\":false,\"activation\":null}": {
    "{}": {
      "compile_time_ms": 552.1184430108406,
      "lower_time_ms": 8.810108993202448,
      "evaluation_times_ms": [
        20.497,
        20.474,
        20.486,
        20.491,
        20.481
      ],
      "metadata": {},
      "peak_memory_mb": 15569.257472
    }
  },
  "{\"lhs\":\"bf16[262144,2048]\",\"rhs\":\"bf16[256,7168,2048]\",\"group_sizes\":{"num_groups":256,"total_size":262144},\"ragged_dot_dimension_numbers\":{\"dot_dimension_numbers\":[[[1],[2]],[[],[]]],\"lhs_ragged_dimensions\":[0],\"rhs_group_dimensions\":[0]},\"precision\":[\"DEFAULT\",\"DEFAULT\"],\"preferred_element_type\":null,\"return_residuals\":false,\"activation\":null}": {
    "{}": {
      "compile_time_ms": 588.896777946502,
      "lower_time_ms": 8.74949898570776,
      "evaluation_times_ms": [
        22.182,
        22.194,
        22.185,
        22.186,
        22.189
      ],
      "metadata": {},
      "peak_memory_mb": 27380.418048
    }
  },
  "{\"lhs\":\"bf16[262144,7168]\",\"rhs\":\"bf16[262144,2048]\",\"group_sizes\":{"num_groups":256,"total_size":262144},\"ragged_dot_dimension_numbers\":{\"dot_dimension_numbers\":[[[0],[0]],[[],[]]],\"lhs_ragged_dimensions\":[0],\"rhs_group_dimensions\":[]},\"precision\":[\"DEFAULT\",\"DEFAULT\"],\"preferred_element_type\":null,\"return_residuals\":false,\"activation\":null}": {
    "{}": {
      "compile_time_ms": 592.3073540907353,
      "lower_time_ms": 8.617846993729472,
      "evaluation_times_ms": [
        40.903,
        40.895,
        40.91,
        40.896,
        40.89
      ],
      "metadata": {},
      "peak_memory_mb": 27380.417536
    }
  },
  "{\"lhs\":\"bf16[327680,2880]\",\"rhs\":\"bf16[128,2880,2880]\",\"group_sizes\":{"num_groups":128,"total_size":327680},\"ragged_dot_dimension_numbers\":{\"dot_dimension_numbers\":[[[1],[2]],[[],[]]],\"lhs_ragged_dimensions\":[0],\"rhs_group_dimensions\":[0]},\"precision\":[\"DEFAULT\",\"DEFAULT\"],\"preferred_element_type\":null,\"return_residuals\":false,\"activation\":null}": {
    "{}": {
      "compile_time_ms": 930.4208219982684,
      "lower_time_ms": 7.219217950478196,
      "evaluation_times_ms": [
        20.825,
        20.822,
        20.835,
        20.827,
        20.833
      ],
      "metadata": {},
      "peak_memory_mb": 13856.932864
    }
  },
  "{\"lhs\":\"bf16[327680,2880]\",\"rhs\":\"bf16[327680,2880]\",\"group_sizes\":{"num_groups":128,"total_size":327680},\"ragged_dot_dimension_numbers\":{\"dot_dimension_numbers\":[[[0],[0]],[[],[]]],\"lhs_ragged_dimensions\":[0],\"rhs_group_dimensions\":[]},\"precision\":[\"DEFAULT\",\"DEFAULT\"],\"preferred_element_type\":null,\"return_residuals\":false,\"activation\":null}": {
    "{}": {
      "compile_time_ms": 346.0256669204682,
      "lower_time_ms": 9.064250160008669,
      "evaluation_times_ms": [
        28.074,
        28.06,
        28.048,
        28.063,
        28.05
      ],
      "metadata": {},
      "peak_memory_mb": 12409.897472
    }
  },
  "{\"lhs\":\"bf16[393216,768]\",\"rhs\":\"bf16[128,2048,768]\",\"group_sizes\":{"num_groups":128,"total_size":393216},\"ragged_dot_dimension_numbers\":{\"dot_dimension_numbers\":[[[1],[2]],[[],[]]],\"lhs_ragged_dimensions\":[0],\"rhs_group_dimensions\":[0]},\"precision\":[\"DEFAULT\",\"DEFAULT\"],\"preferred_element_type\":null,\"return_residuals\":false,\"activation\":null}": {
    "{}": {
      "compile_time_ms": 286.09310020692647,
      "lower_time_ms": 8.529973914846778,
      "evaluation_times_ms": [
        4.304,
        4.3,
        4.305,
        4.299,
        4.298
      ],
      "metadata": {},
      "peak_memory_mb": 5838.472192
    }
  },
  "{\"lhs\":\"bf16[393216,2048]\",\"rhs\":\"bf16[393216,768]\",\"group_sizes\":{"num_groups":128,"total_size":393216},\"ragged_dot_dimension_numbers\":{\"dot_dimension_numbers\":[[[0],[0]],[[],[]]],\"lhs_ragged_dimensions\":[0],\"rhs_group_dimensions\":[]},\"precision\":[\"DEFAULT\",\"DEFAULT\"],\"preferred_element_type\":null,\"return_residuals\":false,\"activation\":null}": {
    "{}": {
      "compile_time_ms": 368.7391639687121,
      "lower_time_ms": 8.458317024633288,
      "evaluation_times_ms": [
        4.443,
        4.444,
        4.441,
        4.443,
        4.438
      ],
      "metadata": {},
      "peak_memory_mb": 3422.552576
    }
  },
  "{\"lhs\":\"bf16[393216,2048]\",\"rhs\":\"bf16[128,768,2048]\",\"group_sizes\":{"num_groups":128,"total_size":393216},\"ragged_dot_dimension_numbers\":{\"dot_dimension_numbers\":[[[1],[2]],[[],[]]],\"lhs_ragged_dimensions\":[0],\"rhs_group_dimensions\":[0]},\"precision\":[\"DEFAULT\",\"DEFAULT\"],\"preferred_element_type\":null,\"return_residuals\":false,\"activation\":null}": {
    "{}": {
      "compile_time_ms": 277.1892270538956,
      "lower_time_ms": 8.041450986638665,
      "evaluation_times_ms": [
        3.283,
        3.277,
        3.281,
        3.276,
        3.278
      ],
      "metadata": {},
      "peak_memory_mb": 3825.206272
    }
  },
  "{\"lhs\":\"bf16[393216,768]\",\"rhs\":\"bf16[393216,2048]\",\"group_sizes\":{"num_groups":128,"total_size":393216},\"ragged_dot_dimension_numbers\":{\"dot_dimension_numbers\":[[[0],[0]],[[],[]]],\"lhs_ragged_dimensions\":[0],\"rhs_group_dimensions\":[]},\"precision\":[\"DEFAULT\",\"DEFAULT\"],\"preferred_element_type\":null,\"return_residuals\":false,\"activation\":null}": {
    "{}": {
      "compile_time_ms": 438.8670918997377,
      "lower_time_ms": 8.264040807262063,
      "evaluation_times_ms": [
        4.584,
        4.587,
        4.591,
        4.587,
        4.591
      ],
      "metadata": {},
      "peak_memory_mb": 3422.552576
    }
  },
  "{\"lhs\":\"bf16[524288,1536]\",\"rhs\":\"bf16[128,4096,1536]\",\"group_sizes\":{"num_groups":128,"total_size":524288},\"ragged_dot_dimension_numbers\":{\"dot_dimension_numbers\":[[[1],[2]],[[],[]]],\"lhs_ragged_dimensions\":[0],\"rhs_group_dimensions\":[0]},\"precision\":[\"DEFAULT\",\"DEFAULT\"],\"preferred_element_type\":null,\"return_residuals\":false,\"activation\":null}": {
    "{}": {
      "compile_time_ms": 1655.6480739999415,
      "lower_time_ms": 128.69455899999593,
      "evaluation_times_ms": [
        14.412,
        14.41,
        14.401,
        14.408,
        14.403
      ],
      "metadata": {},
      "peak_memory_mb": 16106.128384
    }
  },
  "{\"lhs\":\"bf16[524288,4096]\",\"rhs\":\"bf16[524288,1536]\",\"group_sizes\":{"num_groups":128,"total_size":524288},\"ragged_dot_dimension_numbers\":{\"dot_dimension_numbers\":[[[0],[0]],[[],[]]],\"lhs_ragged_dimensions\":[0],\"rhs_group_dimensions\":[]},\"precision\":[\"DEFAULT\",\"DEFAULT\"],\"preferred_element_type\":null,\"return_residuals\":false,\"activation\":null}": {
    "{}": {
      "compile_time_ms": 1544.9438670184463,
      "lower_time_ms": 87.30857400223613,
      "evaluation_times_ms": [
        21.181,
        21.179,
        21.181,
        21.183,
        21.177
      ],
      "metadata": {},
      "peak_memory_mb": 10737.418752
    }
  },
  "{\"lhs\":\"bf16[524288,4096]\",\"rhs\":\"bf16[128,1536,4096]\",\"group_sizes\":{"num_groups":128,"total_size":524288},\"ragged_dot_dimension_numbers\":{\"dot_dimension_numbers\":[[[1],[2]],[[],[]]],\"lhs_ragged_dimensions\":[0],\"rhs_group_dimensions\":[0]},\"precision\":[\"DEFAULT\",\"DEFAULT\"],\"preferred_element_type\":null,\"return_residuals\":false,\"activation\":null}": {
    "{}": {
      "compile_time_ms": 360.66532600671053,
      "lower_time_ms": 9.717131004435942,
      "evaluation_times_ms": [
        11.908,
        11.917,
        11.911,
        11.912,
        11.914
      ],
      "metadata": {},
      "peak_memory_mb": 10737.419264
    }
  },
  "{\"lhs\":\"bf16[524288,1536]\",\"rhs\":\"bf16[524288,4096]\",\"group_sizes\":{"num_groups":128,"total_size":524288},\"ragged_dot_dimension_numbers\":{\"dot_dimension_numbers\":[[[0],[0]],[[],[]]],\"lhs_ragged_dimensions\":[0],\"rhs_group_dimensions\":[]},\"precision\":[\"DEFAULT\",\"DEFAULT\"],\"preferred_element_type\":null,\"return_residuals\":false,\"activation\":null}": {
    "{}": {
      "compile_time_ms": 420.71880999719724,
      "lower_time_ms": 10.01148100476712,
      "evaluation_times_ms": [
        17.787,
        17.789,
        17.794,
        17.787,
        17.792
      ],
      "metadata": {},
      "peak_memory_mb": 10737.418752
    }
  },
  "{\"lhs\":\"bf16[524288,2048]\",\"rhs\":\"bf16[256,7168,2048]\",\"group_sizes\":{"num_groups":256,"total_size":524288},\"ragged_dot_dimension_numbers\":{\"dot_dimension_numbers\":[[[1],[2]],[[],[]]],\"lhs_ragged_dimensions\":[0],\"rhs_group_dimensions\":[0]},\"precision\":[\"DEFAULT\",\"DEFAULT\"],\"preferred_element_type\":null,\"return_residuals\":false,\"activation\":null}": {
    "{}": {
      "compile_time_ms": 586.8477720068768,
      "lower_time_ms": 8.518590999301523,
      "evaluation_times_ms": [
        35.318,
        35.316,
        35.308,
        35.315,
        35.298
      ],
      "metadata": {},
      "peak_memory_mb": 32212.256256
    }
  },
  "{\"lhs\":\"bf16[524288,7168]\",\"rhs\":\"bf16[524288,2048]\",\"group_sizes\":{"num_groups":256,"total_size":524288},\"ragged_dot_dimension_numbers\":{\"dot_dimension_numbers\":[[[0],[0]],[[],[]]],\"lhs_ragged_dimensions\":[0],\"rhs_group_dimensions\":[]},\"precision\":[\"DEFAULT\",\"DEFAULT\"],\"preferred_element_type\":null,\"return_residuals\":false,\"activation\":null}": {
    "{}": {
      "compile_time_ms": 596.0104549885727,
      "lower_time_ms": 8.85603402275592,
      "evaluation_times_ms": [
        63.696,
        63.696,
        63.681,
        63.673,
        63.664
      ],
      "metadata": {},
      "peak_memory_mb": 32212.255744
    }
  },
  "{\"lhs\":\"bf16[262144,1536]\",\"rhs\":\"bf16[128,4096,1536]\",\"group_sizes\":{"num_groups":128,"total_size":262144},\"ragged_dot_dimension_numbers\":{\"dot_dimension_numbers\":[[[1],[2]],[[],[]]],\"lhs_ragged_dimensions\":[0],\"rhs_group_dimensions\":[0]},\"precision\":[\"DEFAULT\",\"DEFAULT\"],\"preferred_element_type\":null,\"return_residuals\":false,\"activation\":null}": {
    "{}": {
      "compile_time_ms": 366.5206089790445,
      "lower_time_ms": 8.336302009411156,
      "evaluation_times_ms": [
        8.311,
        8.307,
        8.308,
        8.308,
        8.305
      ],
      "metadata": {},
      "peak_memory_mb": 8858.371072
    }
  },
  "{\"lhs\":\"bf16[262144,4096]\",\"rhs\":\"bf16[262144,1536]\",\"group_sizes\":{"num_groups":128,"total_size":262144},\"ragged_dot_dimension_numbers\":{\"dot_dimension_numbers\":[[[0],[0]],[[],[]]],\"lhs_ragged_dimensions\":[0],\"rhs_group_dimensions\":[]},\"precision\":[\"DEFAULT\",\"DEFAULT\"],\"preferred_element_type\":null,\"return_residuals\":false,\"activation\":null}": {
    "{}": {
      "compile_time_ms": 447.3351239867043,
      "lower_time_ms": 8.396129007451236,
      "evaluation_times_ms": [
        12.456,
        12.468,
        12.464,
        12.457,
        12.465
      ],
      "metadata": {},
      "peak_memory_mb": 7784.628736
    }
  },
  "{\"lhs\":\"bf16[262144,4096]\",\"rhs\":\"bf16[128,1536,4096]\",\"group_sizes\":{"num_groups":128,"total_size":262144},\"ragged_dot_dimension_numbers\":{\"dot_dimension_numbers\":[[[1],[2]],[[],[]]],\"lhs_ragged_dimensions\":[0],\"rhs_group_dimensions\":[0]},\"precision\":[\"DEFAULT\",\"DEFAULT\"],\"preferred_element_type\":null,\"return_residuals\":false,\"activation\":null}": {
    "{}": {
      "compile_time_ms": 349.3508749816101,
      "lower_time_ms": 8.287694014143199,
      "evaluation_times_ms": [
        6.95,
        6.945,
        6.949,
        6.951,
        6.949
      ],
      "metadata": {},
      "peak_memory_mb": 7784.629248
    }
  },
  "{\"lhs\":\"bf16[262144,1536]\",\"rhs\":\"bf16[262144,4096]\",\"group_sizes\":{"num_groups":128,"total_size":262144},\"ragged_dot_dimension_numbers\":{\"dot_dimension_numbers\":[[[0],[0]],[[],[]]],\"lhs_ragged_dimensions\":[0],\"rhs_group_dimensions\":[]},\"precision\":[\"DEFAULT\",\"DEFAULT\"],\"preferred_element_type\":null,\"return_residuals\":false,\"activation\":null}": {
    "{}": {
      "compile_time_ms": 415.1219740160741,
      "lower_time_ms": 8.857288979925215,
      "evaluation_times_ms": [
        10.65,
        10.641,
        10.647,
        10.643,
        10.647
      ],
      "metadata": {},
      "peak_memory_mb": 7784.628736
    }
  },
  "{\"lhs\":\"bf16[131072,2048]\",\"rhs\":\"bf16[128,7168,2048]\",\"group_sizes\":{"num_groups":128,"total_size":131072},\"ragged_dot_dimension_numbers\":{\"dot_dimension_numbers\":[[[1],[2]],[[],[]]],\"lhs_ragged_dimensions\":[0],\"rhs_group_dimensions\":[0]},\"precision\":[\"DEFAULT\",\"DEFAULT\"],\"preferred_element_type\":null,\"return_residuals\":false,\"activation\":null}": {
    "{}": {
      "compile_time_ms": 440.032265993068,
      "lower_time_ms": 8.645820984384045,
      "evaluation_times_ms": [
        11.208,
        11.198,
        11.198,
        11.201,
        11.202
      ],
      "metadata": {},
      "peak_memory_mb": 13690.20928
    }
  },
  "{\"lhs\":\"bf16[131072,7168]\",\"rhs\":\"bf16[131072,2048]\",\"group_sizes\":{"num_groups":128,"total_size":131072},\"ragged_dot_dimension_numbers\":{\"dot_dimension_numbers\":[[[0],[0]],[[],[]]],\"lhs_ragged_dimensions\":[0],\"rhs_group_dimensions\":[]},\"precision\":[\"DEFAULT\",\"DEFAULT\"],\"preferred_element_type\":null,\"return_residuals\":false,\"activation\":null}": {
    "{}": {
      "compile_time_ms": 516.5191249980126,
      "lower_time_ms": 8.585659001255408,
      "evaluation_times_ms": [
        20.557,
        20.568,
        20.56,
        20.541,
        20.548
      ],
      "metadata": {},
      "peak_memory_mb": 13690.208768
    }
  },
  "{\"lhs\":\"bf16[131072,768]\",\"rhs\":\"bf16[128,2048,768]\",\"group_sizes\":{"num_groups":128,"total_size":131072},\"ragged_dot_dimension_numbers\":{\"dot_dimension_numbers\":[[[1],[2]],[[],[]]],\"lhs_ragged_dimensions\":[0],\"rhs_group_dimensions\":[0]},\"precision\":[\"DEFAULT\",\"DEFAULT\"],\"preferred_element_type\":null,\"return_residuals\":false,\"activation\":null}": {
    "{}": {
      "compile_time_ms": 294.040156994015,
      "lower_time_ms": 7.603531994391233,
      "evaluation_times_ms": [
        1.836,
        1.832,
        1.837,
        1.837,
        1.837
      ],
      "metadata": {},
      "peak_memory_mb": 2214.593536
    }
  },
  "{\"lhs\":\"bf16[131072,2048]\",\"rhs\":\"bf16[131072,768]\",\"group_sizes\":{"num_groups":128,"total_size":131072},\"ragged_dot_dimension_numbers\":{\"dot_dimension_numbers\":[[[0],[0]],[[],[]]],\"lhs_ragged_dimensions\":[0],\"rhs_group_dimensions\":[]},\"precision\":[\"DEFAULT\",\"DEFAULT\"],\"preferred_element_type\":null,\"return_residuals\":false,\"activation\":null}": {
    "{}": {
      "compile_time_ms": 361.8626609968487,
      "lower_time_ms": 8.306934993015602,
      "evaluation_times_ms": [
        2.132,
        2.126,
        2.134,
        2.128,
        2.131
      ],
      "metadata": {},
      "peak_memory_mb": 1946.157568
    }
  },
  "{\"lhs\":\"bf16[131072,1536]\",\"rhs\":\"bf16[128,4096,1536]\",\"group_sizes\":{"num_groups":128,"total_size":131072},\"ragged_dot_dimension_numbers\":{\"dot_dimension_numbers\":[[[1],[2]],[[],[]]],\"lhs_ragged_dimensions\":[0],\"rhs_group_dimensions\":[0]},\"precision\":[\"DEFAULT\",\"DEFAULT\"],\"preferred_element_type\":null,\"return_residuals\":false,\"activation\":null}": {
    "{}": {
      "compile_time_ms": 1543.90570500982,
      "lower_time_ms": 82.94568400015123,
      "evaluation_times_ms": [
        5.19,
        5.184,
        5.189,
        5.189,
        5.189
      ],
      "metadata": {},
      "peak_memory_mb": 6845.105152
    }
  },
  "{\"lhs\":\"bf16[131072,4096]\",\"rhs\":\"bf16[131072,1536]\",\"group_sizes\":{"num_groups":128,"total_size":131072},\"ragged_dot_dimension_numbers\":{\"dot_dimension_numbers\":[[[0],[0]],[[],[]]],\"lhs_ragged_dimensions\":[0],\"rhs_group_dimensions\":[]},\"precision\":[\"DEFAULT\",\"DEFAULT\"],\"preferred_element_type\":null,\"return_residuals\":false,\"activation\":null}": {
    "{}": {
      "compile_time_ms": 445.90517500182614,
      "lower_time_ms": 9.07027701032348,
      "evaluation_times_ms": [
        8.089,
        8.093,
        8.083,
        8.088,
        8.088
      ],
      "metadata": {},
      "peak_memory_mb": 6308.233728
    }
  },
  "{\"lhs\":\"bf16[131072,4096]\",\"rhs\":\"bf16[128,1536,4096]\",\"group_sizes\":{"num_groups":128,"total_size":131072},\"ragged_dot_dimension_numbers\":{\"dot_dimension_numbers\":[[[1],[2]],[[],[]]],\"lhs_ragged_dimensions\":[0],\"rhs_group_dimensions\":[0]},\"precision\":[\"DEFAULT\",\"DEFAULT\"],\"preferred_element_type\":null,\"return_residuals\":false,\"activation\":null}": {
    "{}": {
      "compile_time_ms": 346.3963810063433,
      "lower_time_ms": 10.064815985970199,
      "evaluation_times_ms": [
        4.462,
        4.463,
        4.466,
        4.462,
        4.466
      ],
      "metadata": {},
      "peak_memory_mb": 5502.927872
    }
  },
  "{\"lhs\":\"bf16[131072,1536]\",\"rhs\":\"bf16[131072,4096]\",\"group_sizes\":{"num_groups":128,"total_size":131072},\"ragged_dot_dimension_numbers\":{\"dot_dimension_numbers\":[[[0],[0]],[[],[]]],\"lhs_ragged_dimensions\":[0],\"rhs_group_dimensions\":[]},\"precision\":[\"DEFAULT\",\"DEFAULT\"],\"preferred_element_type\":null,\"return_residuals\":false,\"activation\":null}": {
    "{}": {
      "compile_time_ms": 411.8752390204463,
      "lower_time_ms": 8.326645998749882,
      "evaluation_times_ms": [
        7.063,
        7.07,
        7.062,
        7.062,
        7.069
      ],
      "metadata": {},
      "peak_memory_mb": 6308.233728
    }
  },
  "{\"lhs\":\"bf16[131072,2048]\",\"rhs\":\"bf16[256,7168,2048]\",\"group_sizes\":{"num_groups":256,"total_size":131072},\"ragged_dot_dimension_numbers\":{\"dot_dimension_numbers\":[[[1],[2]],[[],[]]],\"lhs_ragged_dimensions\":[0],\"rhs_group_dimensions\":[0]},\"precision\":[\"DEFAULT\",\"DEFAULT\"],\"preferred_element_type\":null,\"return_residuals\":false,\"activation\":null}": {
    "{}": {
      "compile_time_ms": 586.6135400137864,
      "lower_time_ms": 8.744721009861678,
      "evaluation_times_ms": [
        15.548,
        15.559,
        15.552,
        15.557,
        15.559
      ],
      "metadata": {},
      "peak_memory_mb": 21206.40256
    }
  },
  "{\"lhs\":\"bf16[131072,7168]\",\"rhs\":\"bf16[131072,2048]\",\"group_sizes\":{"num_groups":256,"total_size":131072},\"ragged_dot_dimension_numbers\":{\"dot_dimension_numbers\":[[[0],[0]],[[],[]]],\"lhs_ragged_dimensions\":[0],\"rhs_group_dimensions\":[]},\"precision\":[\"DEFAULT\",\"DEFAULT\"],\"preferred_element_type\":null,\"return_residuals\":false,\"activation\":null}": {
    "{}": {
      "compile_time_ms": 585.1827790029347,
      "lower_time_ms": 8.379081002203748,
      "evaluation_times_ms": [
        29.286,
        29.265,
        29.278,
        29.276,
        29.274
      ],
      "metadata": {},
      "peak_memory_mb": 24964.498432
    }
  },
  "{\"lhs\":\"bf16[65536,2048]\",\"rhs\":\"bf16[256,7168,2048]\",\"group_sizes\":{"num_groups":256,"total_size":65536},\"ragged_dot_dimension_numbers\":{\"dot_dimension_numbers\":[[[1],[2]],[[],[]]],\"lhs_ragged_dimensions\":[0],\"rhs_group_dimensions\":[0]},\"precision\":[\"DEFAULT\",\"DEFAULT\"],\"preferred_element_type\":null,\"return_residuals\":false,\"activation\":null}": {
    "{}": {
      "compile_time_ms": 589.7535859839991,
      "lower_time_ms": 9.12575499387458,
      "evaluation_times_ms": [
        12.144,
        12.137,
        12.139,
        12.126,
        12.142
      ],
      "metadata": {},
      "peak_memory_mb": 18119.394816
    }
  },
  "{\"lhs\":\"bf16[65536,7168]\",\"rhs\":\"bf16[65536,2048]\",\"group_sizes\":{"num_groups":256,"total_size":65536},\"ragged_dot_dimension_numbers\":{\"dot_dimension_numbers\":[[[0],[0]],[[],[]]],\"lhs_ragged_dimensions\":[0],\"rhs_group_dimensions\":[]},\"precision\":[\"DEFAULT\",\"DEFAULT\"],\"preferred_element_type\":null,\"return_residuals\":false,\"activation\":null}": {
    "{}": {
      "compile_time_ms": 583.3090829837602,
      "lower_time_ms": 8.306520991027355,
      "evaluation_times_ms": [
        23.171,
        23.158,
        23.176,
        23.185,
        23.167
      ],
      "metadata": {},
      "peak_memory_mb": 23756.53888
    }
  },
  "{\"lhs\":\"bf16[262144,7168]\",\"rhs\":\"bf16[256,512,7168]\",\"group_sizes\":{"num_groups":256,"total_size":262144},\"ragged_dot_dimension_numbers\":{\"dot_dimension_numbers\":[[[1],[2]],[[],[]]],\"lhs_ragged_dimensions\":[0],\"rhs_group_dimensions\":[0]},\"precision\":[\"DEFAULT\",\"DEFAULT\"],\"preferred_element_type\":null,\"return_residuals\":false,\"activation\":null}": {
    "{}": {
      "compile_time_ms": 432.3590779968072,
      "lower_time_ms": 8.893125981558114,
      "evaluation_times_ms": [
        4.838,
        4.843,
        4.833,
        4.835,
        4.832
      ],
      "metadata": {},
      "peak_memory_mb": 8321.500672
    }
  },
  "{\"lhs\":\"bf16[262144,512]\",\"rhs\":\"bf16[262144,7168]\",\"group_sizes\":{"num_groups":256,"total_size":262144},\"ragged_dot_dimension_numbers\":{\"dot_dimension_numbers\":[[[0],[0]],[[],[]]],\"lhs_ragged_dimensions\":[0],\"rhs_group_dimensions\":[]},\"precision\":[\"DEFAULT\",\"DEFAULT\"],\"preferred_element_type\":null,\"return_residuals\":false,\"activation\":null}": {
    "{}": {
      "compile_time_ms": 1606.6616239841096,
      "lower_time_ms": 93.41542501351796,
      "evaluation_times_ms": [
        7.76,
        7.76,
        7.763,
        7.767,
        7.761
      ],
      "metadata": {},
      "peak_memory_mb": 9663.67744
    }
  },
  "{\"lhs\":\"bf16[4096,4096]\",\"rhs\":\"bf16[8,4096,4096]\",\"group_sizes\":{"num_groups":8,"total_size":4096},\"ragged_dot_dimension_numbers\":{\"dot_dimension_numbers\":[[[1],[2]],[[],[]]],\"lhs_ragged_dimensions\":[0],\"rhs_group_dimensions\":[0]},\"precision\":[\"DEFAULT\",\"DEFAULT\"],\"preferred_element_type\":null,\"return_residuals\":false,\"activation\":null}": {
    "{}": {
      "compile_time_ms": 278.97514298092574,
      "lower_time_ms": 7.412078994093463,
      "evaluation_times_ms": [
        0.451,
        0.451,
        0.453,
        0.451,
        0.452
      ],
      "metadata": {},
      "peak_memory_mb": 671.090688
    }
  },
  "{\"lhs\":\"bf16[4096,4096]\",\"rhs\":\"bf16[4096,4096]\",\"group_sizes\":{"num_groups":8,"total_size":4096},\"ragged_dot_dimension_numbers\":{\"dot_dimension_numbers\":[[[0],[0]],[[],[]]],\"lhs_ragged_dimensions\":[0],\"rhs_group_dimensions\":[]},\"precision\":[\"DEFAULT\",\"DEFAULT\"],\"preferred_element_type\":null,\"return_residuals\":false,\"activation\":null}": {
    "{}": {
      "compile_time_ms": 389.20540298568085,
      "lower_time_ms": 6.428489985410124,
      "evaluation_times_ms": [
        0.851,
        0.852,
        0.854,
        0.854,
        0.853
      ],
      "metadata": {},
      "peak_memory_mb": 872.415744
    }
  },
  "{\"lhs\":\"bf16[8,4096]\",\"rhs\":\"bf16[8,4096,4096]\",\"group_sizes\":{"num_groups":8,"total_size":8},\"ragged_dot_dimension_numbers\":{\"dot_dimension_numbers\":[[[1],[2]],[[],[]]],\"lhs_ragged_dimensions\":[0],\"rhs_group_dimensions\":[0]},\"precision\":[\"DEFAULT\",\"DEFAULT\"],\"preferred_element_type\":null,\"return_residuals\":false,\"activation\":null}": {
    "{}": {
      "compile_time_ms": 245.2382709889207,
      "lower_time_ms": 7.2797009779606014,
      "evaluation_times_ms": [
        0.304,
        0.3,
        0.301,
        0.302,
        0.301
      ],
      "metadata": {},
      "peak_memory_mb": 537.004032
    }
  },
  "{\"lhs\":\"bf16[8,4096]\",\"rhs\":\"bf16[8,4096]\",\"group_sizes\":{"num_groups":8,"total_size":8},\"ragged_dot_dimension_numbers\":{\"dot_dimension_numbers\":[[[0],[0]],[[],[]]],\"lhs_ragged_dimensions\":[0],\"rhs_group_dimensions\":[]},\"precision\":[\"DEFAULT\",\"DEFAULT\"],\"preferred_element_type\":null,\"return_residuals\":false,\"activation\":null}": {
    "{}": {
      "compile_time_ms": 288.19764000945725,
      "lower_time_ms": 6.068333983421326,
      "evaluation_times_ms": [
        0.47,
        0.469,
        0.47,
        0.47,
        0.469
      ],
      "metadata": {},
      "peak_memory_mb": 805.437952
    }
  }
}
